10_Models/Results_SiouxFalls/WGANBR_Congestion_discriminator_trad_best.pth (torch, 78222 bytes, 13 tensors)

fc1.weight f4 [128, 2]
0	0x3c20d98a	0.00981749
1	0x3c23d70a	0.01
2	0x3bec53c4	0.007212134
3	0xbc23cc32	-0.009997414
4	0x3beb4571	0.007179909
5	0xbc23d70a	-0.01
6	0x3be2c893	0.006920883
7	0xbc23d70a	-0.01
8	0x3c23d70a	0.01
9	0x3c1d0805	0.009584432
10	0x3b84a760	0.004048273
11	0xbc23d70a	-0.01
12	0x3c23d70a	0.01
13	0x3c1d05d9	0.009583914
14	0x3c23d70a	0.01
15	0x3c1d06ff	0.0095841875
16	0x3be7a0ab	0.0070687137
17	0xbc23d70a	-0.01
18	0x3bdbe1e0	0.006710276
19	0xbc23d70a	-0.01
20	0x39b14f7f	0.000338193
21	0xbc23d70a	-0.01
22	0x3c23d70a	0.01
23	0xb9f70302	-0.00047113752
24	0x3b84d917	0.0040541994
25	0xbc23d70a	-0.01
26	0x3c23d70a	0.01
27	0x3c1d0852	0.009584503
28	0x3c23d70a	0.01
29	0x3c1ceaf0	0.009577498
30	0x3bace57c	0.00527638
31	0xbc22d561	-0.009938569
32	0x3be935d1	0.007117011
33	0xbc23d70a	-0.01
34	0x3b052d4e	0.0020321193
35	0xbc23d70a	-0.01
36	0x3be91055	0.0071125426
37	0xbc23d70a	-0.01
38	0x3b851f29	0.0040625525
39	0xbc23d70a	-0.01
40	0xbab0938c	-0.0013471707
41	0xbc23d70a	-0.01
42	0x3c23d70a	0.01
43	0x3c1d0884	0.00958455
44	0x3a386895	0.0007034627
45	0xbc23d70a	-0.01
46	0x3c23d70a	0.01
47	0x3c1d088c	0.009584557
48	0x3bc2c11b	0.00594343
49	0xbc234fa2	-0.009967716
50	0x3c23d70a	0.01
51	0x3c1d0725	0.009584223
52	0x3c23d70a	0.01
53	0x3bd5218f	0.0065042446
54	0x3ade8470	0.0016976725
55	0x3c23c13e	0.009994803
56	0x3bddaa1c	0.0067646634
57	0xbc23d70a	-0.01
58	0x3b84f044	0.004056962
59	0xbc23d70a	-0.01
60	0x3c23d70a	0.01
61	0x3c1d06dc	0.009584155
62	0x3be68112	0.0070344293
63	0xbc23d70a	-0.01
64	0x3c23d70a	0.01
65	0xbc23d70a	-0.01
66	0x3852c857	5.0254483e-05
67	0x3c23d70a	0.01
68	0x3b8bb2ae	0.0042632436
69	0xbc23d70a	-0.01
70	0x3b8093cb	0.0039238683
71	0xbc23d70a	-0.01
72	0x3a9e87d2	0.0012094921
73	0x3c23d70a	0.01
74	0x3b834de0	0.004007086
75	0xbc23d70a	-0.01
76	0x3c23d70a	0.01
77	0x3c1d080e	0.00958444
78	0x3be98209	0.007126097
79	0xbc23d70a	-0.01
80	0x3b97a758	0.004628103
81	0xbc23d70a	-0.01
82	0x3c23d70a	0.01
83	0x3c1d06f9	0.009584182
84	0x3b85d06b	0.0040836832
85	0xbc23d70a	-0.01
86	0x3b930629	0.0044868183
87	0xbc23d70a	-0.01
88	0x3be7b0dc	0.007070644
89	0xbc23cbff	-0.009997367
90	0x3c23d70a	0.01
91	0x3c1d0826	0.009584462
92	0x3c23d70a	0.01
93	0xbc22ce61	-0.0099369
94	0xbc23d70a	-0.01
95	0xbbc1720d	-0.0059034885
96	0x3c23d70a	0.01
97	0x3c04d042	0.008106293
98	0x3c23d70a	0.01
99	0xbc23d70a	-0.01
100	0x3c23d70a	0.01
101	0xbc16870a	-0.009187469
102	0x3c23d70a	0.01
103	0x3c1d08a1	0.009584577
104	0x3c23a159	0.009987199
105	0xb9cde448	-0.0003927073
106	0x3be6538a	0.0070290016
107	0xbc23d70a	-0.01
108	0x3beddc14	0.0072589014
109	0xbc23d70a	-0.01
110	0x3b83340c	0.004004007
111	0xbc23d70a	-0.01
112	0x3c23d70a	0.01
113	0x3c1d0799	0.009584331
114	0x3bebc603	0.0071952357
115	0xbc23d70a	-0.01
116	0x3c23d70a	0.01
117	0xbc23c75c	-0.009996261
118	0x3c23d693	0.009999889
119	0xbac39a7d	-0.001492336
120	0x3c23d70a	0.01
121	0xbc23d70a	-0.01
122	0x3b35405e	0.0027656774
123	0xbc23d70a	-0.01
124	0x3a7d47d1	0.00096618856
125	0xbc23d70a	-0.01
126	0x3c23d70a	0.01
127	0x3c1d0702	0.00958419
128	0x3be419f4	0.0069611017
129	0xbc23cf66	-0.009998178
130	0x3b9ee73f	0.004849344
131	0xbc23d70a	-0.01
132	0x3c23a56f	0.009988173
133	0xb9e54ec5	-0.00043736972
134	0x3bde829d	0.0067904727
135	0xbc23d70a	-0.01
136	0x3c23d70a	0.01
137	0x3c1d06f5	0.009584178
138	0x3b4bee83	0.0031117506
139	0xbc23d70a	-0.01
140	0x3a8d8a8f	0.001079874
141	0xbc23d70a	-0.01
142	0x3afb760c	0.0019184961
143	0xbc23d70a	-0.01
144	0x3c23d70a	0.01
145	0x3c1d079f	0.009584337
146	0x3c23d70a	0.01
147	0xbc23d70a	-0.01
148	0x3c23d70a	0.01
149	0x3c1d0847	0.009584493
150	0x3bebc677	0.0071952897
151	0xbc23d70a	-0.01
152	0x3b8517c1	0.0040616696
153	0xbc23d70a	-0.01
154	0x3becd4f3	0.007227534
155	0xbc23d70a	-0.01
156	0x3b87217b	0.004123864
157	0xbc23d70a	-0.01
158	0x3b848aee	0.004044882
159	0xbc23d70a	-0.01
160	0x3ba77f1d	0.0051115886
161	0x3c23d70a	0.01
162	0x3b8273ba	0.003981081
163	0xbc23d70a	-0.01
164	0x3b2f1315	0.0026714255
165	0x3c239c06	0.009985929
166	0x3bea0ac6	0.0071423976
167	0xbc23d70a	-0.01
168	0x3c23d70a	0.01
169	0xbc230e40	-0.009952128
170	0x3be9e025	0.007137316
171	0xbc23d70a	-0.01
172	0x3ab86a80	0.0014069825
173	0xbc23d70a	-0.01
174	0x3b94fde9	0.00454687
175	0xbc23d70a	-0.01
176	0x3a079eed	0.0005173523
177	0x3c23d70a	0.01
178	0x3b82dc91	0.0039935787
179	0xbc23d70a	-0.01
180	0x3bebf5e0	0.0072009414
181	0xbc23d70a	-0.01
182	0x3be9ae5f	0.0071313824
183	0xbc23d70a	-0.01
184	0x3c23d70a	0.01
185	0x3bfe3a26	0.0077583967
186	0x3b1a6ec9	0.0023564568
187	0xbc23d70a	-0.01
188	0x3b399c5a	0.0028321953
189	0xbc23d70a	-0.01
190	0x3c23d70a	0.01
191	0x3a1f9eae	0.0006089014
192	0x3bdee61f	0.006802335
193	0xbc23d70a	-0.01
194	0x3b8682a0	0.004104927
195	0xbc23d70a	-0.01
196	0x3c23d70a	0.01
197	0x3c1d07f9	0.00958442
198	0x3b063821	0.0020480233
199	0xbc23d70a	-0.01
200	0x3b83a88f	0.0040178965
201	0xbc23d70a	-0.01
202	0x3be49d9f	0.0069767977
203	0xbc23d70a	-0.01
204	0x3be9023c	0.007110862
205	0xbc23d70a	-0.01
206	0x3b83078c	0.0039987024
207	0xbc23d70a	-0.01
208	0x3a2844f5	0.0006418967
209	0xb9975006	-0.00028860586
210	0x3bea1455	0.007143537
211	0xbc23d70a	-0.01
212	0x3bea9e91	0.007160016
213	0xbc23d70a	-0.01
214	0x3b83da17	0.004023801
215	0xbc23d70a	-0.01
216	0x3b84584c	0.004038846
217	0xbc23d70a	-0.01
218	0x3c23d70a	0.01
219	0x3c1d0806	0.0095844325
220	0x3c236b2f	0.009974285
221	0x3a463393	0.0007560786
222	0x3bdf2a86	0.006810489
223	0xbc23d70a	-0.01
224	0x3c23d70a	0.01
225	0x3b6f89f5	0.0036550735
226	0x3c23d70a	0.01
227	0xbc23d70a	-0.01
228	0x3b3477eb	0.0027537297
229	0xbc23d70a	-0.01
230	0x3c23c665	0.009996031
231	0x39a5a53b	0.0003159436
232	0x3c23d70a	0.01
233	0xbc23acc9	-0.009989926
234	0x3a32ce86	0.00068209355
235	0xbc23d70a	-0.01
236	0x3b8578b2	0.004073226
237	0xbc23d70a	-0.01
238	0x3c23d70a	0.01
239	0x3c1d07fd	0.009584424
240	0x3c2373fc	0.009976383
241	0xb9cd3324	-0.0003913875
242	0x3c23d70a	0.01
243	0x3c1d0725	0.009584223
244	0x3b85b2fe	0.0040801754
245	0xbc23d70a	-0.01
246	0xbab64ef2	-0.0013909026
247	0x3c23d70a	0.01
248	0x3b82514e	0.0039769774
249	0xbc23d70a	-0.01
250	0x3aedcf0a	0.0018143367
251	0xbc23d70a	-0.01
252	0x3c23d70a	0.01
253	0x3b5b66d8	0.0033478048
254	0x3bad2084	0.005283417
255	0x3c23d70a	0.01

fc1.bias f4 [128]
0	0x3c23d60e	0.009999765
1	0x3c23cb5e	0.009997217
2	0xbc23c3fc	-0.009995457
3	0x3c23bed3	0.0099942265
4	0xbc23d55f	-0.009999602
5	0x3c23d46e	0.009999378
6	0x3c2373ee	0.00997637
7	0x3c232da3	0.009959611
8	0xbc23ce1e	-0.009997873
9	0x3c23c9f7	0.009996883
10	0x3c23341e	0.009961156
11	0x3c234c04	0.009966854
12	0x3c23d347	0.009999103
13	0x3c2372f8	0.009976141
14	0xbc23d70a	-0.01
15	0x3c23be25	0.009994064
16	0xbc23d5f4	-0.009999741
17	0x3c23d1ba	0.009998733
18	0x3c23ccac	0.009997528
19	0x3c23c6e6	0.009996152
20	0x3c23c862	0.009996505
21	0xbc23d67a	-0.009999866
22	0xbc23d0a5	-0.009998475
23	0x3c227f42	0.009918036
24	0xbc23c755	-0.009996255
25	0xbc23d4f0	-0.009999499
26	0x3c211ff7	0.009834281
27	0xbc23755b	-0.00997671
28	0x3c23c356	0.009995302
29	0xbaba73de	-0.0014225205
30	0xbc23d40e	-0.009999288
31	0x3c23d395	0.009999176
32	0xbc23d0de	-0.009998528
33	0xbc239e1a	-0.009986425
34	0xbc22d10e	-0.009937538
35	0xbc2380fd	-0.009979484
36	0x3c23c013	0.0099945245
37	0xbc239d71	-0.009986267
38	0xbc23d58f	-0.009999647
39	0xbc23d4f5	-0.009999503
40	0x3c2324df	0.009957521
41	0x3c236867	0.009973622
42	0xbc2392ea	-0.0099837575
43	0xbc237ec7	-0.009978957
44	0x3c23c701	0.009996177
45	0xbc23d575	-0.009999623
46	0xbc23be6c	-0.009994131
47	0xbc20f0eb	-0.009823064
48	0xbc23d2de	-0.009999005
49	0x3c23adf0	0.0099902
50	0x3c23b10b	0.009990941
51	0xbc23d4b9	-0.0099994475
52	0xbc236075	-0.009971728
53	0xbc23cb33	-0.009997177
54	0xbc23a04c	-0.009986948
55	0x3c23c446	0.009995526
56	0xbc23d1d8	-0.009998761
57	0x3c23cfa5	0.009998237
58	0xbc23beaa	-0.009994188
59	0xbc23a0f9	-0.009987109
60	0x3c23c61c	0.009995963
61	0x3c233020	0.009960204
62	0x3c23a7f0	0.00998877
63	0x3c235582	0.009969117
64	0xbc23cd97	-0.009997747
65	0xbc237fc6	-0.009979194
66	0xbc23c970	-0.009996757
67	0xbc23bbe1	-0.009993524
68	0xbc23d6fd	-0.009999988
69	0x3c23bf1f	0.009994297
70	0x3c239513	0.0099842725
71	0x3c23c638	0.0099959895
72	0x3c239616	0.009984514
73	0x3c23baa4	0.009993229
74	0xbc23d247	-0.0099988645
75	0xbc23d2d4	-0.009998996
76	0xbc233e2c	-0.009963553
77	0xbc23c4f3	-0.009995687
78	0x3c23d702	0.009999992
79	0xbc23cab1	-0.009997056
80	0x3c23d6f0	0.009999976
81	0x3c23cd3a	0.00999766
82	0xbc233cf2	-0.009963261
83	0x3c23c46a	0.009995559
84	0x3c23cfcd	0.009998274
85	0xbc23d414	-0.009999294
86	0xbc23d63e	-0.00999981
87	0xbc234af4	-0.009966601
88	0xbc23b531	-0.00999193
89	0x3c23908c	0.009983193
90	0xbc23cf76	-0.009998193
91	0x3c23d2b8	0.00999897
92	0xbc23d4d8	-0.009999476
93	0xbc23c9ac	-0.009996813
94	0x3c23c7dc	0.009996381
95	0x3c1ffc55	0.0097647505
96	0xbc23c792	-0.009996312
97	0x3c23d15b	0.009998645
98	0xbc23d2fc	-0.009999033
99	0x3c23bfd3	0.009994465
100	0x3c239b9d	0.009985832
101	0xbc23d136	-0.00999861
102	0xbc23cb82	-0.0099972505
103	0x3c23cdea	0.009997824
104	0xbc22ac09	-0.009928712
105	0xbc23b97f	-0.009992956
106	0x3c23cccb	0.009997557
107	0xbc23939e	-0.009983925
108	0x3c23be80	0.009994149
109	0xbc23d252	-0.009998875
110	0xbc23c9e4	-0.009996865
111	0x3c23c7a3	0.009996328
112	0xbc23d23c	-0.009998854
113	0xbc23d014	-0.00999834
114	0xbc23ca2e	-0.009996934
115	0x3c20f917	0.009825013
116	0xbc23d3a8	-0.009999193
117	0x3c23979a	0.009984875
118	0xbc23cdba	-0.0099977795
119	0xbc23d680	-0.009999871
120	0xbc2294ef	-0.009923204
121	0xbc23d570	-0.009999618
122	0xbc23c705	-0.00999618
123	0xbc23456b	-0.009965281
124	0xbc2390ca	-0.009983251
125	0x3c238ed6	0.009982785
126	0xbc23d6bf	-0.00999993
127	0x3c23c1a5	0.009994899

bn1.weight f4 [128]
0	0x3c23d70a	0.01
1	0x3c234dfe	0.009967325
2	0x3c23d70a	0.01
3	0x3c23ccf1	0.009997592
4	0x3c23d70a	0.01
5	0x3c23d70a	0.01
6	0x3c23d70a	0.01
7	0x3c23d70a	0.01
8	0x3c23d70a	0.01
9	0x3c23d70a	0.01
10	0x3c23d70a	0.01
11	0x3c23d70a	0.01
12	0x3c23d70a	0.01
13	0x3c23d70a	0.01
14	0x3c23d70a	0.01
15	0x3c23a492	0.009987967
16	0x3c23d70a	0.01
17	0x3c238ebb	0.00998276
18	0x3c23d70a	0.01
19	0x3c23d70a	0.01
20	0x3c23d70a	0.01
21	0x3c23d70a	0.01
22	0x3c23d70a	0.01
23	0x3c23d70a	0.01
24	0x3c23c979	0.009996765
25	0x3c23d70a	0.01
26	0x3c23d6eb	0.009999971
27	0x3c23d70a	0.01
28	0x3c23d70a	0.01
29	0x3c23d70a	0.01
30	0x3c23d70a	0.01
31	0x3c23d70a	0.01
32	0x3c23d70a	0.01
33	0x3c23d70a	0.01
34	0x3c23d70a	0.01
35	0x3c23d70a	0.01
36	0x3c23d70a	0.01
37	0x3c23d70a	0.01
38	0x3c23d70a	0.01
39	0x3c23d70a	0.01
40	0x3c23d70a	0.01
41	0x3c23d70a	0.01
42	0x3c23d70a	0.01
43	0x3c23d70a	0.01
44	0x3c23a965	0.009989117
45	0x3c23d70a	0.01
46	0x3c239f28	0.009986676
47	0xbc23d6f0	-0.009999976
48	0x3c23d70a	0.01
49	0x3c23d70a	0.01
50	0x3c23544d	0.009968829
51	0x3c23d70a	0.01
52	0x3c23d70a	0.01
53	0x3c23d70a	0.01
54	0x3c23d70a	0.01
55	0x3c23d70a	0.01
56	0x3c23d70a	0.01
57	0x3c239578	0.009984367
58	0x3c23d70a	0.01
59	0x3c2109aa	0.009828964
60	0x3c23d70a	0.01
61	0x3c23d70a	0.01
62	0x3c23ad4d	0.009990049
63	0x3c23d70a	0.01
64	0x3c2369d1	0.009973959
65	0x3c23d70a	0.01
66	0x3c23d70a	0.01
67	0x3c23d70a	0.01
68	0x3c23d70a	0.01
69	0x3c23d70a	0.01
70	0x3c23d70a	0.01
71	0x3c23cd50	0.009997681
72	0x3c23d70a	0.01
73	0x3c23d70a	0.01
74	0x3c23d70a	0.01
75	0x3c23d70a	0.01
76	0x3c23d70a	0.01
77	0x3c23d70a	0.01
78	0x3c23d70a	0.01
79	0x3c23d70a	0.01
80	0x3c23d70a	0.01
81	0x3c23d70a	0.01
82	0x3c23d70a	0.01
83	0x3c23d70a	0.01
84	0x3c23b52a	0.009991923
85	0x3c23d70a	0.01
86	0x3c23d70a	0.01
87	0x3c23d70a	0.01
88	0x3c23d70a	0.01
89	0x3c23d70a	0.01
90	0x3c23d70a	0.01
91	0x3c23d70a	0.01
92	0x3c23d6f7	0.009999982
93	0x3c236f27	0.009975231
94	0x3c23d70a	0.01
95	0x3c23d18a	0.0099986885
96	0x3c23d70a	0.01
97	0x3c23d70a	0.01
98	0x3c23d70a	0.01
99	0x3c23d70a	0.01
100	0x3c23d70a	0.01
101	0x3c23d70a	0.01
102	0x3c23d70a	0.01
103	0x3c23d70a	0.01
104	0x3c23d70a	0.01
105	0x3c23d70a	0.01
106	0x3c23d70a	0.01
107	0x3c23d70a	0.01
108	0x3c23d70a	0.01
109	0x3c23d70a	0.01
110	0x3c23cf1d	0.00999811
111	0x3c23d70a	0.01
112	0x3c23d574	0.009999622
113	0x3c23d70a	0.01
114	0x3c23d70a	0.01
115	0x3c23d70a	0.01
116	0x3c237f84	0.009979133
117	0x3c23d70a	0.01
118	0x3c23d70a	0.01
119	0x3c23d70a	0.01
120	0x3c23d70a	0.01
121	0x3c23d70a	0.01
122	0x3c23d70a	0.01
123	0x3c23d70a	0.01
124	0x3c23d70a	0.01
125	0x3c23d36c	0.009999137
126	0x3c23d583	0.009999636
127	0x3c23d70a	0.01

bn1.bias f4 [128]
0	0x3c23d70a	0.01
1	0x3b84203b	0.0040321625
2	0x3a088e59	0.00052092
3	0x3b671c98	0.0035264846
4	0x3c23d70a	0.01
5	0x3a0a39db	0.00052729034
6	0x3c23d70a	0.01
7	0x3c23d70a	0.01
8	0x3a7a290c	0.00095428596
9	0x3a191927	0.0005840235
10	0x3a2977d3	0.00064646936
11	0x3c23d70a	0.01
12	0x39e5a349	0.0004379994
13	0x3c23d70a	0.01
14	0x3c23d70a	0.01
15	0x3c23d70a	0.01
16	0x3aac66ca	0.0013153192
17	0xbb9f4c62	-0.0048614005
18	0x3a42d7cb	0.00074326684
19	0x3a0a471b	0.0005274878
20	0xbb99d4db	-0.004694564
21	0x3c23d70a	0.01
22	0xbb9a5b37	-0.0047105807
23	0x3c23d70a	0.01
24	0x3c23d70a	0.01
25	0x3c23d70a	0.01
26	0x3c23d70a	0.01
27	0x3c23d70a	0.01
28	0x3c23d70a	0.01
29	0x3a0a2387	0.0005269576
30	0x3c23d70a	0.01
31	0x3a721b99	0.000923568
32	0x3c23d70a	0.01
33	0x3b8f3a7f	0.004370987
34	0x39d247d7	0.00040107846
35	0x3a0a28ec	0.000527038
36	0x3b8fd106	0.004388931
37	0x39ed2967	0.0004523501
38	0x3c23d70a	0.01
39	0x3a835b5f	0.0010021738
40	0x39c52875	0.0003760491
41	0x3c23d70a	0.01
42	0x3a0a38fa	0.00052727724
43	0x39b367da	0.00034218916
44	0x3c131709	0.00897766
45	0x3c23d70a	0.01
46	0x3c23d70a	0.01
47	0x3c23d70a	0.01
48	0x3c23d70a	0.01
49	0x3c23d70a	0.01
50	0x3c23d70a	0.01
51	0x3c23d70a	0.01
52	0x3c23d70a	0.01
53	0x3a4529bd	0.0007521173
54	0x3a252a53	0.0006300557
55	0x39f0d22e	0.00045932963
56	0x3c23d70a	0.01
57	0x3b78f6be	0.0037988867
58	0x3c23d70a	0.01
59	0x3c23d70a	0.01
60	0x3c23d70a	0.01
61	0x3a1e149a	0.00060302916
62	0xbb9ee39f	-0.004848912
63	0x3c23d70a	0.01
64	0x3b7f49ea	0.0038953968
65	0x39d46c39	0.00040516423
66	0x3c23d70a	0.01
67	0x3a09d140	0.0005257316
68	0x3c23d70a	0.01
69	0x39be4378	0.00036289892
70	0xbb9a96c2	-0.0047176788
71	0xbb9b31b0	-0.004736148
72	0x3c23d70a	0.01
73	0x3c23d70a	0.01
74	0x3c23d70a	0.01
75	0x3a10aa52	0.0005518544
76	0x3a0a52fc	0.0005276648
77	0x3a2073a3	0.0006120747
78	0x3a0a237b	0.0005269569
79	0x3a0a238b	0.00052695785
80	0x3b8f5a1b	0.004374755
81	0x3a0a2369	0.0005269559
82	0x3c23d70a	0.01
83	0x3a31605e	0.0006766374
84	0x3c23d70a	0.01
85	0x3a087457	0.0005205324
86	0xbb9ad7ec	-0.004725447
87	0x39df06f2	0.0004253905
88	0x3b8f08c8	0.0043650605
89	0x39cf3730	0.00039523235
90	0x3a333230	0.00068357866
91	0x3a1de654	0.0006023396
92	0x3c23d70a	0.01
93	0xbba0fcb2	-0.004912936
94	0x3a1df613	0.00060257426
95	0x3c23d70a	0.01
96	0x39e7482f	0.00044113534
97	0x3a0a238b	0.00052695785
98	0x3c23d70a	0.01
99	0x3a21cacd	0.0006171882
100	0x39f6b7a3	0.00047057596
101	0x3b334fb5	0.0027360742
102	0x3a326bdd	0.0006806234
103	0x3a0a6668	0.0005279542
104	0x3c23d70a	0.01
105	0x3a004f18	0.00048945984
106	0x3a400c3f	0.00073260436
107	0x3a0a2dec	0.0005271125
108	0x3a0a2d38	0.00052710203
109	0x3c23d70a	0.01
110	0x3c23d70a	0.01
111	0x39ff0fdc	0.00048649206
112	0x3c23d70a	0.01
113	0x3c23d70a	0.01
114	0x3a1e3e4e	0.0006036506
115	0x3c23d70a	0.01
116	0x3c0d6f7e	0.008632539
117	0xbb9b28fa	-0.0047351094
118	0x3a0a1168	0.0005266876
119	0x3c23d70a	0.01
120	0x3c23d70a	0.01
121	0x3c23d70a	0.01
122	0x3a0a2391	0.0005269582
123	0x3c23d70a	0.01
124	0x3a033652	0.0005005348
125	0xbb9b3bce	-0.004737354
126	0x3c23d70a	0.01
127	0x3b9615d0	0.004580237

bn1.running_mean f4 [128]
0	0xc2da2114	-109.064606
1	0x46209e4e	10279.576
2	0x46206b56	10266.834
3	0x461df906	10110.256
4	0x4375f05f	245.93895
5	0x460324e8	8393.227
6	0x437636a6	246.21347
7	0x437622ad	246.13545
8	0x461f5e6a	10199.604
9	0x461c06eb	9985.7295
10	0x45c0be89	6167.817
11	0x45c382c0	6256.3438
12	0x46032994	8394.395
13	0x4375f038	245.93835
14	0x437a8f3a	250.55948
15	0x460e079f	9089.905
16	0x461fd34e	10228.826
17	0x45e0ccca	7193.5986
18	0x461fca2b	10226.542
19	0x46033c28	8399.039
20	0x45a1ad38	5173.6523
21	0x4375e894	245.90851
22	0x45c7fb9e	6399.452
23	0x4375e7fa	245.90616
24	0x461474f0	9501.234
25	0x43761690	246.08813
26	0x450333d4	2099.2393
27	0xc59ac964	-4953.174
28	0x461c71cb	10012.448
29	0x46033760	8397.844
30	0x43761da2	246.11575
31	0x461f0b19	10178.774
32	0x463abb61	11950.845
33	0xc5b9d91a	-5947.1377
34	0x460525b4	8521.426
35	0x4601f307	8316.757
36	0xc5a43296	-5254.323
37	0x4602bdb6	8367.428
38	0x437603ce	246.01486
39	0x461fe8a1	10234.157
40	0x460889db	8738.464
41	0x43762897	246.15855
42	0x460374f0	8413.234
43	0x46073822	8654.033
44	0x461f2ee7	10187.726
45	0x4375e987	245.91222
46	0x463a3884	11918.129
47	0xc519a615	-2458.3801
48	0x448ec47f	1142.1405
49	0x463abb60	11950.844
50	0x4633565f	11477.593
51	0x4375dcd0	245.86255
52	0x45c1bbdd	6199.483
53	0x461eff8f	10175.89
54	0x462127d7	10313.96
55	0x4602b58b	8365.386
56	0x43760470	246.01733
57	0x4620855c	10273.34
58	0x463a9f75	11943.864
59	0x45d72b1f	6885.39
60	0x463abe72	11951.611
61	0x45ee3831	7623.024
62	0x45ccdd87	6555.691
63	0x43761585	246.08406
64	0x461e46a7	10129.663
65	0x460aa036	8872.053
66	0x45c2a4ae	6228.585
67	0x461cc1de	10032.467
68	0x437618b0	246.09644
69	0x45f4bf08	7831.879
70	0x45cf00ed	6624.1157
71	0x45deae6b	7125.8022
72	0x43760392	246.01395
73	0x463ab9cd	11950.45
74	0x4375e2a4	245.88531
75	0x46208f7f	10275.874
76	0x46033b3b	8398.808
77	0x4620d9e8	10294.477
78	0x4603d353	8436.831
79	0x460316e6	8389.725
80	0xc5375c9c	-2933.788
81	0x46027f95	8351.8955
82	0xc58894fb	-4370.6226
83	0x46200d9c	10243.402
84	0x463a52d0	11924.703
85	0x462002c9	10240.696
86	0x45d51c94	6819.5723
87	0x4607c9c6	8690.443
88	0xc5b153b6	-5674.464
89	0x46029d79	8359.368
90	0x4620996b	10278.3545
91	0x461ff55b	10237.339
92	0x44a8b3c4	1349.6177
93	0x45e6dc56	7387.542
94	0x45ef6e05	7661.7524
95	0x45af60a9	5612.0825
96	0x461cdefa	10039.744
97	0x46039ff6	8423.99
98	0x4375f752	245.9661
99	0x45e0c2cb	7192.349
100	0x4602d69b	8373.651
101	0x461e7f72	10143.861
102	0x461fc82e	10226.045
103	0x4602a2f1	8360.735
104	0x4409bb96	550.931
105	0x46201358	10244.836
106	0x462035b6	10253.428
107	0x4602e6cb	8377.698
108	0x4603084e	8386.076
109	0x43760dba	246.05362
110	0x45ac2c77	5509.558
111	0x461cf7a8	10045.914
112	0x456d7935	3799.5754
113	0x463ab2b6	11948.678
114	0x45ee05c2	7616.7197
115	0x45b4aabf	5781.3433
116	0x463a9297	11940.647
117	0x45c79213	6386.2593
118	0x4603599c	8406.402
119	0x4375fc5f	245.98582
120	0x45c18bfb	6193.4976
121	0x437613e1	246.07765
122	0x46036b22	8410.783
123	0xc5d4a0ee	-6804.116
124	0x46026f7f	8347.874
125	0x45dcbffd	7063.9985
126	0x4578f293	3983.161
127	0xc531761e	-2839.3823

bn1.running_var f4 [128]
0	0x4537620d	2934.1282
1	0x4bc6b690	2.6045728e+07
2	0x4bc63ce5	2.5983434e+07
3	0x4bc03c70	2.5196768e+07
4	0x466a3860	14990.094
5	0x4b847b38	1.7364592e+07
6	0x466ab288	15020.633
7	0x466a8ea7	15011.663
8	0x4bc3a616	2.5644076e+07
9	0x4bbb87e6	2.4580044e+07
10	0x4b0f0d57	9.375063e+06
11	0x4b133a6a	9.648746e+06
12	0x4b848336	1.7368684e+07
13	0x466a30f1	14988.235
14	0x46732266	15560.6
15	0x4b9b6496	2.036766e+07
16	0x4bc4c5ad	2.5791322e+07
17	0x4b42a7d0	1.2756944e+07
18	0x4bc4af4c	2.5779864e+07
19	0x4b84a88f	1.7387806e+07
20	0x4ac96068	6.598708e+06
21	0x466a2c1b	14987.026
22	0x4b1a0d5f	1.0095967e+07
23	0x466a1fc5	14983.942
24	0x4ba9c2cb	2.2250902e+07
25	0x466a82b3	15008.675
26	0x4984becc	1.0874495e+06
27	0x4ab88b11	6.0471125e+06
28	0x4bbc852a	2.4709716e+07
29	0x4b84a03e	1.7383548e+07
30	0x466a8e58	15011.586
31	0x4bc2d98a	2.5539348e+07
32	0x4c064d25	3.5206292e+07
33	0x4b0509bb	8.718779e+06
34	0x4b888f3d	1.789913e+07
35	0x4b8212d3	1.7048998e+07
36	0x4acfb256	6.805803e+06
37	0x4b83aa65	1.7257674e+07
38	0x466a60e4	15000.223
39	0x4bc4f9f7	2.5818094e+07
40	0x4b8f9a09	1.8822162e+07
41	0x466a9a71	15014.61
42	0x4b851cd1	1.744733e+07
43	0x4b8cd71c	1.8460216e+07
44	0x4bc32a05	2.5580554e+07
45	0x466a2b13	14986.769
46	0x4c05943b	3.501694e+07
47	0x49b60638	1.491143e+06
48	0x489d5b47	322266.22
49	0x4c064cfc	3.520613e+07
50	0x4bf7cc9f	3.247955e+07
51	0x466a14a0	14981.156
52	0x4b108ec2	9.47373e+06
53	0x4bc2bd89	2.552501e+07
54	0x4bc8100d	2.6222618e+07
55	0x4b839a1d	1.7249338e+07
56	0x466a5f38	14999.805
57	0x4bc67bad	2.6015578e+07
58	0x4c06233d	3.516338e+07
59	0x4b32686c	1.169214e+07
60	0x4c0651ca	3.521105e+07
61	0x4b5a8be2	1.4322658e+07
62	0x4b21a8c7	1.0594503e+07
63	0x466a74e6	15005.225
64	0x4bc0f64f	2.5291934e+07
65	0x4b94078e	1.9402524e+07
66	0x4b11ec1d	9.563165e+06
67	0x4bbd49b8	2.4810352e+07
68	0x466a84f2	15009.236
69	0x4b66b27e	1.5118974e+07
70	0x4b250dcf	1.0816975e+07
71	0x4b3f011a	1.2517658e+07
72	0x466a52fa	14996.744
73	0x4c064a8a	3.5203624e+07
74	0x466a1f3b	14983.808
75	0x4bc696d4	2.602948e+07
76	0x4b84a704	1.7387016e+07
77	0x4bc74dfd	2.6123258e+07
78	0x4b85db97	1.7545006e+07
79	0x4b845e52	1.7349796e+07
80	0x4a019588	2.123106e+06
81	0x4b832d58	1.7193648e+07
82	0x4a8fb543	4.7090255e+06
83	0x4bc554c0	2.5864576e+07
84	0x4c05b896	3.505417e+07
85	0x4bc53a67	2.5851086e+07
86	0x4b2ef080	1.1464832e+07
87	0x4b8e077d	1.8616058e+07
88	0x4af247bc	7.939038e+06
89	0x4b836992	1.7224484e+07
90	0x4bc6ae82	2.6041604e+07
91	0x4bc51988	2.5834256e+07
92	0x48db9faf	449789.47
93	0x4b4d4b52	1.3454162e+07
94	0x4b5cc4f5	1.4468341e+07
95	0x4aecf2b0	7.764312e+06
96	0x4bbd900c	2.484636e+07
97	0x4b857231	1.7491042e+07
98	0x466a477f	14993.874
99	0x4b428a8a	1.274945e+07
100	0x4b83dcb4	1.7283432e+07
101	0x4bc183eb	2.5364438e+07
102	0x4bc4aa8d	2.5777434e+07
103	0x4b837396	1.7229612e+07
104	0x47920f7d	74782.98
105	0x4bc5639f	2.587219e+07
106	0x4bc5b764	2.591508e+07
107	0x4b83fd4d	1.7300122e+07
108	0x4b844093	1.7334566e+07
109	0x466a754f	15005.327
110	0x4ae4609b	7.4834695e+06
111	0x4bbdcc77	2.4877294e+07
112	0x4a594fba	3.5604305e+06
113	0x4c063f7e	3.519231e+07
114	0x4b5a30e1	1.4299361e+07
115	0x4afb6dee	8.238839e+06
116	0x4c061129	3.5144868e+07
117	0x4b196a04	1.0054148e+07
118	0x4b84e4f8	1.7418736e+07
119	0x466a50d4	14996.207
120	0x4b104860	9.455712e+06
121	0x466a7bcc	15006.949
122	0x4b850893	1.7436966e+07
123	0x4b2e21ac	1.1411884e+07
124	0x4b830c2e	1.7176668e+07
125	0x4b3bb56a	1.2301674e+07
126	0x4a6ed008	3.912706e+06
127	0x49f2dfa3	1.9896204e+06

fc2.weight f4 [128, 128]
0	0x3c23d70a	0.01
1	0xbc108ef4	-0.008823145
2	0xbb818b5b	-0.00395338
3	0xbc23d70a	-0.01
4	0xbc23a81e	-0.009988813
5	0x3acd21d2	0.0015650338
6	0xbc23a81e	-0.009988813
7	0xbc23a81e	-0.009988813
8	0xbc23638d	-0.009972465
9	0xbc236b91	-0.009974376
10	0x3be6e641	0.0070464914
11	0xbc23d70a	-0.01
12	0xba52b5ea	-0.00080379716
13	0xbc23a81e	-0.009988813
14	0xbc23a81e	-0.009988813
15	0xbc23d70a	-0.01
16	0xbbbfba71	-0.005851083
17	0x3be511f7	0.006990667
18	0xbc23674f	-0.009973361
19	0x3accde7b	0.0015630269
20	0x3c05a280	0.008156419
21	0xbc23a81e	-0.009988813
22	0x3c056010	0.008140579
23	0xbc23a81e	-0.009988813
24	0xbc23d70a	-0.01
25	0xbc23a81e	-0.009988813
26	0xbc23a89a	-0.009988928
27	0x3c23d70a	0.01
28	0xbc23d70a	-0.01
29	0x3acd7f1c	0.001567814
30	0xbc23a81e	-0.009988813
31	0xbc2363ed	-0.009972555
32	0xbc23d70a	-0.01
33	0x3c23d70a	0.01
34	0x3b1206e9	0.002228195
35	0x3acc482e	0.0015585476
36	0x3c23d70a	0.01
37	0x3ae17b25	0.0017202838
38	0xbc23a81e	-0.009988813
39	0xbbb248a8	-0.00544079
40	0x3b2a7b55	0.0026013453
41	0xbc23a81e	-0.009988813
42	0x3acd7861	0.0015676134
43	0x3b3bc1dd	0.0028649487
44	0xbc23d70a	-0.01
45	0xbc23a81e	-0.009988813
46	0xbc23d70a	-0.01
47	0xbc23a8cc	-0.009988975
48	0xbc23a848	-0.009988852
49	0xbc23d70a	-0.01
50	0xbc23d70a	-0.01
51	0xbc23a81e	-0.009988813
52	0xbc23d70a	-0.01
53	0xbb42acbc	-0.0029705008
54	0xbc109eef	-0.008826955
55	0x3af0256f	0.0018321703
56	0xbc23a81e	-0.009988813
57	0xbc23d70a	-0.01
58	0xbc23d70a	-0.01
59	0xbc23d70a	-0.01
60	0xbc23d70a	-0.01
61	0x3b6c612e	0.0036068666
62	0x3c076444	0.008263651
63	0xbc23a81e	-0.009988813
64	0xbc0eb93b	-0.008711155
65	0x3b03c9e3	0.0020109348
66	0xbc23d70a	-0.01
67	0x39b833e6	0.00035133882
68	0xbc23a81e	-0.009988813
69	0x3b3b3d72	0.002857056
70	0x3c0cada0	0.008586317
71	0x3be31b77	0.0069307643
72	0xbc23a81e	-0.009988813
73	0xbc23d70a	-0.01
74	0xbc23a81e	-0.009988813
75	0xbb41724c	-0.002951759
76	0x3acd44ee	0.0015660801
77	0xbb4cfddc	-0.0031279242
78	0x3acd7eff	0.0015678107
79	0x3acd7f0e	0.0015678124
80	0x3c23d70a	0.01
81	0x3acd7f11	0.0015678128
82	0x3c23d70a	0.01
83	0xbc2368f8	-0.009973757
84	0xbc23d70a	-0.01
85	0xbaac28e4	-0.0013134745
86	0x3be7e99b	0.0070774085
87	0x3aa72fd9	0.0012755349
88	0x3c23d70a	0.01
89	0x3a9c319b	0.0011916639
90	0xbc2368c3	-0.009973708
91	0xbc236b5a	-0.009974325
92	0xbc23a856	-0.009988865
93	0x3bbd96be	0.005785792
94	0x3b6f58d7	0.0036521459
95	0xbc23d70a	-0.01
96	0x3ad21be0	0.0016030036
97	0x3acd7f16	0.0015678133
98	0xbc23a81e	-0.009988813
99	0x3bb12e9c	0.0054071676
100	0x3ae4e6c2	0.0017463791
101	0xbbf83955	-0.007575194
102	0xbc1fd9fe	-0.009756563
103	0x3acb1f74	0.0015497045
104	0xbc23d70a	-0.01
105	0xbb491773	-0.0030684143
106	0xbb814d8e	-0.003946013
107	0x3acd52f3	0.001566498
108	0x3acd7a4b	0.0015676705
109	0xbc23a81e	-0.009988813
110	0xbc23d70a	-0.01
111	0x3a349602	0.0006888808
112	0xbc23aa95	-0.0099894
113	0xbc23d70a	-0.01
114	0x3b6d0b11	0.0036169926
115	0xbc23d70a	-0.01
116	0xbc23d70a	-0.01
117	0x3c040f72	0.008060323
118	0x3acd4cad	0.001566311
119	0xbc23a81e	-0.009988813
120	0xbc23d70a	-0.01
121	0xbc23a81e	-0.009988813
122	0x3acd7f10	0.0015678126
123	0x3c23d70a	0.01
124	0x3ad6278b	0.0016338689
125	0x3bf25cee	0.007396332
126	0xbc23ab23	-0.009989533
127	0x3c23d70a	0.01
128	0xba143387	-0.000565343
129	0xbc233092	-0.0099603105
130	0xbc23d70a	-0.01
131	0xbc234b7e	-0.009966729
132	0x3c23ad8c	0.009990107
133	0xbc23d70a	-0.01
134	0x3c23ad8c	0.009990107
135	0x3c23ad8c	0.009990107
136	0xbc23d70a	-0.01
137	0xbc23d70a	-0.01
138	0xbc23d70a	-0.01
139	0xbb4a3d96	-0.0030859462
140	0xbc23d70a	-0.01
141	0x3c23ad8c	0.009990107
142	0x3c23ad8c	0.009990107
143	0xbc187283	-0.0093046455
144	0xbc23d654	-0.00999983
145	0xbc23d70a	-0.01
146	0xbc23d70a	-0.01
147	0xbc23d70a	-0.01
148	0xbc23d70a	-0.01
149	0x3c23ad8c	0.009990107
150	0xbc23d70a	-0.01
151	0x3c23ad8c	0.009990107
152	0xbbab51ed	-0.005228272
153	0x3c23ad8c	0.009990107
154	0x3c23ad76	0.009990087
155	0xbb1ad7ba	-0.0023627118
156	0xbc201249	-0.0097699845
157	0xbc23d70a	-0.01
158	0x3c23ad8c	0.009990107
159	0xbc23d70a	-0.01
160	0xbc20130b	-0.009770165
161	0x3b68b63a	0.0035509006
162	0xbc23d70a	-0.01
163	0xbc23d70a	-0.01
164	0xbb0aae0c	-0.002116087
165	0xbc23d70a	-0.01
166	0x3c23ad8c	0.009990107
167	0xbc23d70a	-0.01
168	0xbc23d70a	-0.01
169	0x3c23ad8c	0.009990107
170	0xbc23d70a	-0.01
171	0xbc23d70a	-0.01
172	0xbc22510f	-0.009907021
173	0x3c23ad8c	0.009990107
174	0xbc163745	-0.009168451
175	0x3c23ad6d	0.009990078
176	0x3c23ad85	0.009990101
177	0xbc201306	-0.009770161
178	0xbbf3743b	-0.0074296272
179	0x3c23ad8c	0.009990107
180	0x3bbc68ae	0.0057497835
181	0xbc23d70a	-0.01
182	0xbc23d70a	-0.01
183	0xbc23d70a	-0.01
184	0x3c23ad8c	0.009990107
185	0xbc233d0b	-0.009963284
186	0xbbea9915	-0.007159362
187	0xbba11278	-0.0049155317
188	0xbc204d6b	-0.009784083
189	0xbc23d70a	-0.01
190	0xbc23d70a	-0.01
191	0x3c23ad8c	0.009990107
192	0xbc233815	-0.0099621015
193	0xbc23d70a	-0.01
194	0x3bba2b67	0.0056814435
195	0xbc23d70a	-0.01
196	0x3c23ad8c	0.009990107
197	0xbc23d70a	-0.01
198	0xbc23d70a	-0.01
199	0xbc23d70a	-0.01
200	0x3c23ad8c	0.009990107
201	0xbc201234	-0.009769965
202	0x3c23ad8c	0.009990107
203	0xbc23d70a	-0.01
204	0xbc23d70a	-0.01
205	0xbc23d70a	-0.01
206	0xbc23d70a	-0.01
207	0xbc23d70a	-0.01
208	0xba7a6e28	-0.0009553158
209	0xbc23d70a	-0.01
210	0xbb1e6665	-0.0024169919
211	0xbc23d70a	-0.01
212	0xbc18850a	-0.009309063
213	0xbc23d70a	-0.01
214	0xbc23d70a	-0.01
215	0xbc23d70a	-0.01
216	0xbb6deb40	-0.003630355
217	0xbc23d70a	-0.01
218	0xbc23d70a	-0.01
219	0xbc23d70a	-0.01
220	0x3c23ad82	0.009990098
221	0xbc23d70a	-0.01
222	0xbc23d70a	-0.01
223	0x3c23a416	0.009987852
224	0xbc23d70a	-0.01
225	0xbc23d70a	-0.01
226	0x3c23ad8c	0.009990107
227	0xbc23d70a	-0.01
228	0xbc23d70a	-0.01
229	0xbc237b54	-0.009978134
230	0xbc23d70a	-0.01
231	0xbc23d70a	-0.01
232	0x36e7b888	6.9058187e-06
233	0xbc23d70a	-0.01
234	0xbc23d70a	-0.01
235	0xbc23d70a	-0.01
236	0xbc23d70a	-0.01
237	0x3c23ad8c	0.009990107
238	0x3bf30687	0.0074165496
239	0xbc23d70a	-0.01
240	0x3c23ad1f	0.009990006
241	0xbc0e6b2d	-0.008692545
242	0xbc23d70a	-0.01
243	0x3bcf43c8	0.006325219
244	0xbc225d69	-0.009909966
245	0xbc23d70a	-0.01
246	0xbc23d70a	-0.01
247	0x3c23ad8c	0.009990107
248	0x3bea7d5c	0.0071560573
249	0x3c23ad8c	0.009990107
250	0xbc23d70a	-0.01
251	0x3b145ace	0.0022637132
252	0xbc23d70a	-0.01
253	0xbc23d70a	-0.01
254	0x3c23ad07	0.009989983
255	0xbb096c7e	-0.0020969207

fc2.bias f4 [128]
0	0xbbddd109	-0.0067693037
1	0xbc0129e0	-0.007883519
2	0xbc23d70a	-0.01
3	0x3c211dec	0.009833794
4	0xbbadfd14	-0.0053097103
5	0xbc23d70a	-0.01
6	0xbbf5a739	-0.007496741
7	0xbc23d70a	-0.01
8	0xbc23d5de	-0.00999972
9	0xbbf10b96	-0.0073561175
10	0xbc23d70a	-0.01
11	0xbc04f4dd	-0.008115021
12	0xbbb271ef	-0.005445711
13	0xbc026fb3	-0.0079612015
14	0xbbfd6636	-0.0077331318
15	0xbbf88b6e	-0.0075849807
16	0x3c21b201	0.0098691
17	0xbc23d70a	-0.01
18	0xbbca2f14	-0.006170163
19	0xbc23d70a	-0.01
20	0xbc23b996	-0.009992978
21	0xbc23bddf	-0.009993999
22	0xbc23d70a	-0.01
23	0xbc00aadf	-0.007853239
24	0x3c1ff2d7	0.009762487
25	0xbbfc26e4	-0.007695066
26	0xbbc34361	-0.00595896
27	0xbc23d70a	-0.01
28	0xbbaba511	-0.0052381833
29	0xbbfb68ca	-0.007672404
30	0xbc23d70a	-0.01
31	0xbc1ab6ab	-0.0094429655
32	0xbbaeffcb	-0.0053405515
33	0xbc23d70a	-0.01
34	0xbc01f081	-0.007930876
35	0x3be24687	0.00690538
36	0x3c1e0d63	0.009646746
37	0xbc23d70a	-0.01
38	0xbc23d70a	-0.01
39	0xbbbd05f1	-0.0057685305
40	0xbbf9d3b1	-0.0076241125
41	0xbc079218	-0.008274578
42	0xbc23d70a	-0.01
43	0xbc23d70a	-0.01
44	0xbbdd1a78	-0.00674754
45	0xbc23d70a	-0.01
46	0xbc011b9a	-0.007880116
47	0xbbcd5b74	-0.0062670056
48	0xbbb187bc	-0.005417792
49	0xbc23d70a	-0.01
50	0xbc23ce2c	-0.009997886
51	0xbc23d70a	-0.01
52	0x3c1b60a4	0.00948349
53	0xbc23bb95	-0.0099934535
54	0xbc23d70a	-0.01
55	0xbc23d70a	-0.01
56	0x3c1f98cd	0.00974102
57	0xbc23d70a	-0.01
58	0xbc23d70a	-0.01
59	0xbc23c257	-0.009995065
60	0x3c1afa67	0.009459115
61	0xbc23d70a	-0.01
62	0xbc06def5	-0.008231868
63	0xbc23d70a	-0.01
64	0xbc23d70a	-0.01
65	0xbc23d70a	-0.01
66	0xbc23d70a	-0.01
67	0xbc23d0b2	-0.009998487
68	0xbc23d70a	-0.01
69	0xbba0d59b	-0.0049082763
70	0xbc23d70a	-0.01
71	0xbc235c42	-0.009970726
72	0xbc23ca8d	-0.009997022
73	0xbbfb9387	-0.0076774987
74	0xbc22a4aa	-0.009926954
75	0xbbef925d	-0.007311149
76	0xbc23be74	-0.009994138
77	0xbbfde616	-0.0077483756
78	0xbc229d34	-0.009925175
79	0xbc23bb58	-0.009993397
80	0xbbb0c107	-0.0053941044
81	0xbbc4334a	-0.0059875594
82	0xbbb094ce	-0.0053888327
83	0xbc046558	-0.008080803
84	0xbc23d3ba	-0.00999921
85	0xbbe5f01c	-0.0070171487
86	0xbb9b653c	-0.0047422927
87	0x3c2018e1	0.009771557
88	0xbc23d70a	-0.01
89	0xbc23c2ed	-0.009995204
90	0xbbf9ecb2	-0.0076270932
91	0x3c1f8b84	0.009737853
92	0xbc23d621	-0.009999783
93	0x3c1e5822	0.009664567
94	0xbbb0d949	-0.005396996
95	0x3c1bbcfe	0.0095055085
96	0xbc23d70a	-0.01
97	0xbc23d06f	-0.009998425
98	0xbc23ce4b	-0.009997915
99	0xbc03f142	-0.008053126
100	0xbbf75140	-0.0075475276
101	0x39783851	0.00023672103
102	0x3c1e63ca	0.009667346
103	0xbbf84f84	-0.0075778384
104	0xbb4c2cc7	-0.003115462
105	0xbc23c019	-0.00999453
106	0xbc23d4e9	-0.009999492
107	0xbc23d70a	-0.01
108	0xbc23b4ae	-0.009991808
109	0x3c1e235d	0.009651986
110	0xbc22e74b	-0.00994284
111	0xbc236a80	-0.009974122
112	0xbbfd81a6	-0.0077364026
113	0xbbf9c7ca	-0.0076226937
114	0xbc23d70a	-0.01
115	0xbc0234c5	-0.007947152
116	0xbc23d70a	-0.01
117	0xbbaa7055	-0.0052013793
118	0xbc06d472	-0.008229362
119	0xbc238b40	-0.00998193
120	0xbbb307b6	-0.0054635657
121	0xbc23d70a	-0.01
122	0xbc233f2c	-0.009963792
123	0xbc2278b8	-0.009916477
124	0x3c1c135d	0.009526101
125	0xbc238cdc	-0.009982314
126	0xbc085fca	-0.008323619
127	0xbbad8662	-0.0052955607

bn2.weight f4 [128]
0	0x3c23d70a	0.01
1	0x3c23d70a	0.01
2	0x3c23d70a	0.01
3	0x3c23d70a	0.01
4	0x3c23d70a	0.01
5	0x3c23d70a	0.01
6	0x3c23d70a	0.01
7	0x3c23d70a	0.01
8	0x3c23d70a	0.01
9	0x3c23d70a	0.01
10	0x3c23d70a	0.01
11	0x3c23d70a	0.01
12	0x3c23d70a	0.01
13	0x3c23d70a	0.01
14	0x3c23d70a	0.01
15	0x3c23d70a	0.01
16	0x3be2af5e	0.006917878
17	0x3c23d70a	0.01
18	0x3c23d70a	0.01
19	0x3c23d70a	0.01
20	0x3c23d70a	0.01
21	0x3c23d70a	0.01
22	0x3c23d70a	0.01
23	0x3c23d70a	0.01
24	0x3c23d70a	0.01
25	0x3c23d70a	0.01
26	0x3c23d70a	0.01
27	0x3c23d70a	0.01
28	0x3c23d70a	0.01
29	0x3c23d70a	0.01
30	0x3c23d70a	0.01
31	0x3c23d70a	0.01
32	0x3c23d70a	0.01
33	0x3c23d70a	0.01
34	0x3c23d70a	0.01
35	0x3c23d70a	0.01
36	0x3c23d70a	0.01
37	0x3c23d70a	0.01
38	0x3c23d70a	0.01
39	0x3c23d70a	0.01
40	0x3c23d70a	0.01
41	0x3c23d70a	0.01
42	0x3c23d70a	0.01
43	0x3c23d70a	0.01
44	0x3c23d70a	0.01
45	0x3c23d70a	0.01
46	0x3c23d70a	0.01
47	0x3c23d70a	0.01
48	0x3c23d70a	0.01
49	0x3c23d70a	0.01
50	0x3c23d70a	0.01
51	0x3c23d70a	0.01
52	0x3c23d70a	0.01
53	0x3c23d70a	0.01
54	0x3c23d70a	0.01
55	0x3c23d70a	0.01
56	0x3c23d70a	0.01
57	0x3c23d70a	0.01
58	0x3c23d70a	0.01
59	0x3c23d70a	0.01
60	0x3c23d70a	0.01
61	0x3c23d70a	0.01
62	0x3c23d70a	0.01
63	0x3c23d70a	0.01
64	0x3c23d70a	0.01
65	0x3c23d70a	0.01
66	0x3c23d70a	0.01
67	0x3c23d70a	0.01
68	0x3c23d70a	0.01
69	0x3c23d70a	0.01
70	0x3c23d70a	0.01
71	0x3c23d70a	0.01
72	0x3c23d70a	0.01
73	0x3c23d70a	0.01
74	0x3c23d70a	0.01
75	0x3c23d70a	0.01
76	0x3c23d70a	0.01
77	0x3c23d70a	0.01
78	0x3c23d70a	0.01
79	0x3c23d70a	0.01
80	0x3c23d70a	0.01
81	0x3c23d70a	0.01
82	0x3c23d70a	0.01
83	0x3c23d70a	0.01
84	0x3c23d70a	0.01
85	0x3c23d70a	0.01
86	0x3c23d70a	0.01
87	0x3c23d70a	0.01
88	0x3c23d70a	0.01
89	0x3c23d70a	0.01
90	0x3c23d70a	0.01
91	0x3c23d70a	0.01
92	0x3c23d70a	0.01
93	0x3c23d70a	0.01
94	0x3c23d70a	0.01
95	0x3c23d70a	0.01
96	0x3c23d70a	0.01
97	0x3c23d70a	0.01
98	0x3c23d70a	0.01
99	0x3c23d70a	0.01
100	0x3c23d70a	0.01
101	0x3c23d70a	0.01
102	0x3c23d70a	0.01
103	0x3c23d70a	0.01
104	0x3c23d70a	0.01
105	0x3c23d70a	0.01
106	0x3c23d70a	0.01
107	0x3c23d70a	0.01
108	0x3c23d70a	0.01
109	0x3c23d70a	0.01
110	0x3c23d70a	0.01
111	0x3c23d70a	0.01
112	0x3c23d70a	0.01
113	0x3c23d70a	0.01
114	0x3c23d70a	0.01
115	0x3c23d70a	0.01
116	0x3c23d70a	0.01
117	0x3c23d70a	0.01
118	0x3c23d70a	0.01
119	0x3c23d70a	0.01
120	0x3c23d70a	0.01
121	0x3c23d70a	0.01
122	0x3c23d70a	0.01
123	0x3c23d70a	0.01
124	0x3c23d70a	0.01
125	0x3c23d70a	0.01
126	0x3c23d70a	0.01
127	0x3c23d70a	0.01

bn2.bias f4 [128]
0	0xba8aad12	-0.0010580143
1	0xb7886bbc	-1.6262631e-05
2	0x381bae9c	3.7117497e-05
3	0xba8a4bb5	-0.0010551127
4	0xb62708a9	-2.488998e-06
5	0x36e44b74	6.8037134e-06
6	0x3a86ab21	0.0010274389
7	0xb83c97bd	-4.496401e-05
8	0x3a85cb9f	0.0010207779
9	0xb7d49163	-2.534007e-05
10	0x3825eec7	3.9561444e-05
11	0xb825de52	-3.9546117e-05
12	0x3823fea5	3.9099385e-05
13	0xb8504ca7	-4.9662453e-05
14	0x370ac2f2	8.27083e-06
15	0x3a8c04ae	0.0010682547
16	0x3b5034e4	0.0031769807
17	0x3a868a25	0.0010264559
18	0xb7bd0026	-2.2530625e-05
19	0x3737e96a	1.0961996e-05
20	0x3a8a3368	0.0010543885
21	0x3a879bc0	0.00103461
22	0xb7d12313	-2.4931074e-05
23	0xb7fff230	-3.0511146e-05
24	0xba85ebb5	-0.0010217341
25	0x3a898efd	0.0010494884
26	0x3a893c07	0.001047016
27	0x37b24fb2	2.1256365e-05
28	0x383ad235	4.4541626e-05
29	0x379c3da8	1.862536e-05
30	0x381b209a	3.6985242e-05
31	0x3a8aa721	0.0010578373
32	0x375dbfea	1.321731e-05
33	0x3820fbd4	3.8381506e-05
34	0xb7a7fe48	-2.002636e-05
35	0xba8b3747	-0.0010621332
36	0xba898965	-0.0010493217
37	0x37a8640f	2.0073754e-05
38	0xb5d03342	-1.5512126e-06
39	0xb6bb59e1	-5.5834976e-06
40	0x3a8aa164	0.0010576663
41	0x3a8734f3	0.0010315463
42	0x37fd1caf	3.0173307e-05
43	0x37f99039	2.9750272e-05
44	0x3a8524fd	0.0010158118
45	0xb40bbaf0	-1.3013391e-07
46	0xb7842fec	-1.5757942e-05
47	0xb81bf035	-3.717859e-05
48	0x37934498	1.7555707e-05
49	0xb7bd3d49	-2.2559094e-05
50	0x3a8ae15f	0.001059573
51	0x3754a42b	1.2674408e-05
52	0xba87118d	-0.0010304913
53	0x3a872174	0.0010309652
54	0xb72ab561	-1.017502e-05
55	0x37c4ac3d	2.3445225e-05
56	0xba87b390	-0.0010353196
57	0xb773d61e	-1.4533782e-05
58	0xb7becd55	-2.274538e-05
59	0x3a87c163	0.0010357316
60	0xba8ab20b	-0.0010581625
61	0xb7948106	-1.7703056e-05
62	0x35bf3208	1.424517e-06
63	0xba86906e	-0.0010266432
64	0x37c1b8ef	2.309351e-05
65	0x37d8ee9a	2.5860314e-05
66	0x378cf820	1.6804843e-05
67	0x3a8776b2	0.0010335057
68	0xb7068fb4	-8.020481e-06
69	0xb74d12c3	-1.22233205e-05
70	0xba89e142	-0.0010519403
71	0xba8a60a5	-0.0010557367
72	0xba874f87	-0.0010323384
73	0x3a8a0f71	0.0010533166
74	0xba88a740	-0.0010425821
75	0xb58fb3bc	-1.070664e-06
76	0x3a896203	0.001048148
77	0x3a895dab	0.0010480186
78	0xba8a94d3	-0.0010572918
79	0x3a8a7e40	0.001056619
80	0x37325e2f	1.0631556e-05
81	0x382b5af6	4.085429e-05
82	0x37e61e2f	2.7432192e-05
83	0xb7a5c2e4	-1.9760286e-05
84	0x3a8a6957	0.0010559958
85	0x3a8a27e2	0.001054045
86	0xba87746f	-0.0010334383
87	0xba89c80e	-0.0010511891
88	0xb78f9147	-1.7114578e-05
89	0x3a877b22	0.0010336379
90	0x37b1969f	2.1170183e-05
91	0xba8a4bf2	-0.0010551198
92	0x38513814	4.988171e-05
93	0xba898398	-0.0010491489
94	0x36df3522	6.6521034e-06
95	0xba87796c	-0.0010335869
96	0x370b3f78	8.299823e-06
97	0x387d2e56	6.0363054e-05
98	0x3a8bbb99	0.0010660767
99	0x3a86cecc	0.0010285019
100	0xb7d509d2	-2.5396152e-05
101	0xba882687	-0.0010387459
102	0xba8c2725	-0.0010692818
103	0x36bd4df4	5.641714e-06
104	0xba877409	-0.0010334264
105	0x3a893981	0.0010469408
106	0x3a83260f	0.0010005849
107	0xb80ea5d4	-3.4009878e-05
108	0x3a8a0dbf	0.0010532661
109	0xba8b0eff	-0.0010609328
110	0xba8b8a96	-0.001064616
111	0xba8a208d	-0.0010538265
112	0x3689b690	4.1041712e-06
113	0xb5e84618	-1.7305747e-06
114	0x3705f175	7.983636e-06
115	0x3708fe15	8.16539e-06
116	0x38065d2e	3.203487e-05
117	0xb80bcd68	-3.3331482e-05
118	0xb7de0b9d	-2.646987e-05
119	0xba892c03	-0.0010465387
120	0x3758c60c	1.2920715e-05
121	0x368a738e	4.126173e-06
122	0xba83c6b2	-0.0010053723
123	0xba8b7290	-0.0010639001
124	0xba8a3342	-0.001054384
125	0xba87650a	-0.0010329795
126	0x3a871e40	0.0010308698
127	0xb6d54fed	-6.3571993e-06

bn2.running_mean f4 [128]
0	0xbc4c1021	-0.012455017
1	0xbc083128	-0.008312501
2	0xbc1e20f2	-0.009651409
3	0x3b881bb0	0.004153691
4	0xbba0909b	-0.004900051
5	0xbc1f52ff	-0.009724378
6	0xbaecdbbe	-0.0018070859
7	0xbc2df581	-0.010617615
8	0xbb8d0eb7	-0.0043047327
9	0xbbdb661d	-0.0066955225
10	0xbc296e32	-0.010341214
11	0xbc0af7c8	-0.008481927
12	0xbba571d0	-0.005048968
13	0xbc0bc386	-0.008530503
14	0xbc0782d3	-0.008270937
15	0xbafb5e4c	-0.0019177883
16	0x3c1e40ae	0.0096589755
17	0xbb8d5aeb	-0.004313817
18	0xbbbc5d36	-0.0057484163
19	0xbc285f18	-0.010276578
20	0xbb8d6536	-0.004315044
21	0xbb8d3e76	-0.0043104244
22	0xbc185599	-0.009297752
23	0xbc067910	-0.0082075745
24	0x3b859e72	0.004077726
25	0xbb038e6c	-0.0020073904
26	0xb993c102	-0.00028181827
27	0xbc2e1da6	-0.010627186
28	0xbb98ae3c	-0.004659442
29	0xbc05caf6	-0.008166065
30	0xbc1f4e03	-0.009723189
31	0xbb759e1c	-0.0037478274
32	0xbba1683a	-0.004925755
33	0xbc1bae88	-0.009502061
34	0xbc09a62a	-0.008401433
35	0x3a9ed71e	0.0012118553
36	0x3b823b79	0.003974375
37	0xbc1d0abd	-0.00958508
38	0xbc2c5153	-0.010517436
39	0xbbabfee3	-0.0052488907
40	0xbafd14eb	-0.0019308602
41	0xbb2a2018	-0.002595907
42	0xbc284a41	-0.01027161
43	0xbc1b4701	-0.009477378
44	0xba89a298	-0.0010500727
45	0xbc1f883e	-0.0097370725
46	0xbc0b2250	-0.008492067
47	0xbbdcd13b	-0.0067388094
48	0xbb9eee3e	-0.004850178
49	0xbc2b6f2b	-0.010463516
50	0xbb8d76c1	-0.004317135
51	0xbc2b4ce9	-0.0104553485
52	0x3b78f544	0.0037987987
53	0xbb8d51d2	-0.0043127323
54	0xbc2be63d	-0.010491905
55	0xbc199c78	-0.009375684
56	0x3b84ff40	0.0040587485
57	0xbc1a49e0	-0.009417027
58	0xbc15e97f	-0.009149908
59	0xbb8d1e4b	-0.0043065897
60	0x3b7791ef	0.0037776192
61	0xbc2cbb67	-0.010542727
62	0xbc0c639a	-0.008568669
63	0xbc807e3a	-0.01568519
64	0xbc1b53db	-0.009480442
65	0xbc1e3edd	-0.009658542
66	0xbc18fe9e	-0.009338049
67	0xbb8d3db3	-0.0043103336
68	0xbc1d16d4	-0.009587962
69	0xbb8d47f7	-0.0043115574
70	0xbc8078e4	-0.015682645
71	0xbc80397b	-0.015652409
72	0xbc806375	-0.015672425
73	0xbb031fd9	-0.0020007996
74	0xbc7ff253	-0.015621739
75	0xbc031857	-0.008001409
76	0xbb8d5d70	-0.004314117
77	0xbb073a57	-0.0020634138
78	0xbc7f8bcb	-0.015597294
79	0xbb8d617b	-0.004314599
80	0xbba37ac0	-0.004988998
81	0xbbbdc06f	-0.005790762
82	0xbba14c71	-0.0049224426
83	0xbc0da05f	-0.0086441925
84	0xbb8dbb66	-0.004325318
85	0xbaae094e	-0.001327792
86	0xbc2ac332	-0.010422515
87	0x3b86073b	0.0040902174
88	0xbc2f9725	-0.010717188
89	0xbb8d367b	-0.004309473
90	0xbc068202	-0.008209707
91	0x3b84b20d	0.0040495456
92	0xbc1e3e20	-0.009658366
93	0x3b82c432	0.0039906735
94	0xbba8e7e2	-0.0051545957
95	0x3b7a5b24	0.0038201297
96	0xbc296d9c	-0.010341074
97	0xbc1ad502	-0.009450199
98	0xbb8d963f	-0.0043208892
99	0xbb1b607e	-0.0023708637
100	0xbc043b9d	-0.008070854
101	0xbbb26879	-0.005444583
102	0x3b82f19b	0.003996087
103	0xbc047f3c	-0.008086976
104	0xbc1022f0	-0.008797392
105	0xbb8d91cb	-0.0043203584
106	0xbb8d8542	-0.004318864
107	0xbc2e0469	-0.010621169
108	0xbb8d580d	-0.004313475
109	0x3b820dca	0.003968929
110	0xbc7ff7b1	-0.015623019
111	0xbc804c57	-0.015661402
112	0xbc061719	-0.008184218
113	0xbc072e18	-0.008250736
114	0xbc1acb91	-0.009447948
115	0xbc0ab7e3	-0.008466694
116	0xbc305768	-0.010763027
117	0xbb97715c	-0.004621668
118	0xbc0c265d	-0.008554068
119	0xbc804b6b	-0.015660962
120	0xbb9d2e5e	-0.004796787
121	0xbc299865	-0.010351275
122	0xbc803d92	-0.015654359
123	0xbc7f73e8	-0.015591599
124	0x3b7b5a82	0.0038353507
125	0xbc8061a4	-0.015671559
126	0xbb2cfdff	-0.002639651
127	0xbb9b5ea7	-0.004741508

bn2.running_var f4 [128]
0	0x372239b1	9.669385e-06
1	0x3744546b	1.17021655e-05
2	0x3742c59e	1.1609312e-05
3	0x3722085e	9.657901e-06
4	0x37469172	1.1835584e-05
5	0x374392f4	1.1657121e-05
6	0x3721f83b	9.6541435e-06
7	0x37444d09	1.17004465e-05
8	0x37226e80	9.68168e-06
9	0x37413d14	1.1517917e-05
10	0x37436ad9	1.1647783e-05
11	0x3740da8b	1.1494975e-05
12	0x374238d5	1.1576533e-05
13	0x3743aa8c	1.1662614e-05
14	0x37435464	1.1642554e-05
15	0x372132f8	9.608215e-06
16	0x3431390b	1.6505162e-07
17	0x372210ad	9.659835e-06
18	0x374467d8	1.1706688e-05
19	0x37443b29	1.1696285e-05
20	0x3721f5d0	9.6535805e-06
21	0x3722389d	9.669134e-06
22	0x374273db	1.1590276e-05
23	0x37431ff3	1.16303445e-05
24	0x37221d5f	9.662791e-06
25	0x3721fcaf	9.65518e-06
26	0x3721b2ee	9.638008e-06
27	0x3749b88b	1.2023501e-05
28	0x37423189	1.1574834e-05
29	0x3742b1ef	1.16047295e-05
30	0x3744691e	1.1706985e-05
31	0x3722636f	9.679104e-06
32	0x37474ae5	1.1878762e-05
33	0x3743e7b3	1.1676852e-05
34	0x37462076	1.1809278e-05
35	0x37226d44	9.681393e-06
36	0x3721cc56	9.6439235e-06
37	0x3741b616	1.1546092e-05
38	0x3745ce5e	1.1790164e-05
39	0x3745b6be	1.1784663e-05
40	0x3722176b	9.661405e-06
41	0x37219a0f	9.632217e-06
42	0x3744bdfb	1.1726744e-05
43	0x37424cf0	1.15812145e-05
44	0x37224eba	9.674282e-06
45	0x373ff04c	1.1440436e-05
46	0x37449577	1.171731e-05
47	0x37425271	1.1582496e-05
48	0x3745006a	1.1742211e-05
49	0x37425f80	1.1585536e-05
50	0x3721fb33	9.654835e-06
51	0x3742cade	1.1610535e-05
52	0x37221235	9.660192e-06
53	0x37221828	9.661577e-06
54	0x3744df74	1.1734537e-05
55	0x373f5270	1.1403681e-05
56	0x37220985	9.658169e-06
57	0x3742e99d	1.1617693e-05
58	0x3744aff5	1.1723479e-05
59	0x372260ee	9.678521e-06
60	0x37221782	9.661426e-06
61	0x3745c2ff	1.1787516e-05
62	0x37417442	1.1530765e-05
63	0x37221816	9.66156e-06
64	0x3745d7f5	1.1792396e-05
65	0x37424b59	1.1580844e-05
66	0x374549ce	1.1759299e-05
67	0x372227be	9.665206e-06
68	0x3743a6fe	1.1661787e-05
69	0x3741f082	1.1559694e-05
70	0x372218c0	9.661715e-06
71	0x3721bd22	9.640384e-06
72	0x3721d873	9.646744e-06
73	0x3721dd03	9.647806e-06
74	0x37224607	9.672257e-06
75	0x3745ffa3	1.1801635e-05
76	0x37220765	9.657674e-06
77	0x3721fab7	9.654722e-06
78	0x3721b2eb	9.638005e-06
79	0x3721fdf1	9.655473e-06
80	0x374594bb	1.1776744e-05
81	0x374082de	1.1474562e-05
82	0x37414c98	1.152153e-05
83	0x37403d09	1.1458303e-05
84	0x3721a061	9.633689e-06
85	0x37220744	9.657644e-06
86	0x3721f1be	9.652633e-06
87	0x3721e5a7	9.649818e-06
88	0x3743b584	1.1665168e-05
89	0x3722443a	9.671838e-06
90	0x37431acc	1.1629145e-05
91	0x37222b28	9.666001e-06
92	0x374328df	1.1632422e-05
93	0x3721c55f	9.642302e-06
94	0x37416eb1	1.1529469e-05
95	0x372229b9	9.665667e-06
96	0x3741c446	1.1549395e-05
97	0x37441d27	1.1689298e-05
98	0x3721e70f	9.650145e-06
99	0x37220437	9.656934e-06
100	0x37441804	1.1688102e-05
101	0x372206a4	9.657499e-06
102	0x37219e99	9.633274e-06
103	0x3740ffd2	1.1503655e-05
104	0x37220d2c	9.659019e-06
105	0x3721c540	9.642274e-06
106	0x3721d7bd	9.646578e-06
107	0x37467a68	1.183022e-05
108	0x3721fd6d	9.655353e-06
109	0x37220569	9.657212e-06
110	0x3721e226	9.649002e-06
111	0x37221b41	9.662298e-06
112	0x3743f418	1.1679738e-05
113	0x3742edec	1.1618697e-05
114	0x37461974	1.1807646e-05
115	0x3745f151	1.1798301e-05
116	0x373fd508	1.1434087e-05
117	0x37418f34	1.15370385e-05
118	0x374469b6	1.1707123e-05
119	0x3721ddae	9.647962e-06
120	0x3745319b	1.1753665e-05
121	0x37431f38	1.1630174e-05
122	0x372233d5	9.6680205e-06
123	0x37218d7e	9.6292915e-06
124	0x372246d9	9.672448e-06
125	0x37225487	9.675633e-06
126	0x372225d0	9.664756e-06
127	0x37436f60	1.1648837e-05

fc3.weight f4 [1, 128]
0	0xbc23d70a	-0.01
1	0x3c23d70a	0.01
2	0x3c23d70a	0.01
3	0xbc23d70a	-0.01
4	0x3c23d70a	0.01
5	0x3c23d70a	0.01
6	0xbc23d70a	-0.01
7	0x3c23d70a	0.01
8	0xbc23d70a	-0.01
9	0x3c23d70a	0.01
10	0x3c23d70a	0.01
11	0x3c23d70a	0.01
12	0x3c23d70a	0.01
13	0x3c23d70a	0.01
14	0x3c23d70a	0.01
15	0xbc23d70a	-0.01
16	0x3c0bee9d	0.008540777
17	0xbc23d70a	-0.01
18	0x3c23d70a	0.01
19	0x3c23d70a	0.01
20	0xbc23d70a	-0.01
21	0xbc23d70a	-0.01
22	0x3c23d70a	0.01
23	0x3c23d70a	0.01
24	0xbc23d70a	-0.01
25	0xbc23d70a	-0.01
26	0xbc23d70a	-0.01
27	0x3c23d70a	0.01
28	0x3c23d70a	0.01
29	0x3c23d70a	0.01
30	0x3c23d70a	0.01
31	0xbc23d70a	-0.01
32	0x3c23d70a	0.01
33	0x3c23d70a	0.01
34	0x3c23d70a	0.01
35	0xbc23d70a	-0.01
36	0xbc23d70a	-0.01
37	0x3c23d70a	0.01
38	0x3c23d70a	0.01
39	0x3c23d70a	0.01
40	0xbc23d70a	-0.01
41	0xbc23d70a	-0.01
42	0x3c23d70a	0.01
43	0x3c23d70a	0.01
44	0xbc23d70a	-0.01
45	0x3c23d70a	0.01
46	0x3c23d70a	0.01
47	0x3c23d70a	0.01
48	0x3c23d70a	0.01
49	0x3c23d70a	0.01
50	0xbc23d70a	-0.01
51	0x3c23d70a	0.01
52	0xbc23d70a	-0.01
53	0xbc23d70a	-0.01
54	0x3c23d70a	0.01
55	0x3c23d70a	0.01
56	0xbc23d70a	-0.01
57	0x3c23d70a	0.01
58	0x3c23d70a	0.01
59	0xbc23d70a	-0.01
60	0xbc23d70a	-0.01
61	0x3c23d70a	0.01
62	0x3c23d70a	0.01
63	0xbc23d70a	-0.01
64	0x3c23d70a	0.01
65	0x3c23d70a	0.01
66	0x3c23d70a	0.01
67	0xbc23d70a	-0.01
68	0x3c23d70a	0.01
69	0x3c23d70a	0.01
70	0xbc23d70a	-0.01
71	0xbc23d70a	-0.01
72	0xbc23d70a	-0.01
73	0xbc23d70a	-0.01
74	0xbc23d70a	-0.01
75	0x3c23d70a	0.01
76	0xbc23d70a	-0.01
77	0xbc23d70a	-0.01
78	0xbc23d70a	-0.01
79	0xbc23d70a	-0.01
80	0x3c23d70a	0.01
81	0x3c23d70a	0.01
82	0x3c23d70a	0.01
83	0x3c23d70a	0.01
84	0xbc23d70a	-0.01
85	0xbc23d70a	-0.01
86	0xbc23d70a	-0.01
87	0xbc23d70a	-0.01
88	0x3c23d70a	0.01
89	0xbc23d70a	-0.01
90	0x3c23d70a	0.01
91	0xbc23d70a	-0.01
92	0x3c23d70a	0.01
93	0xbc23d70a	-0.01
94	0x3c23d70a	0.01
95	0xbc23d70a	-0.01
96	0x3c23d70a	0.01
97	0x3c23d70a	0.01
98	0xbc23d70a	-0.01
99	0xbc23d70a	-0.01
100	0x3c23d70a	0.01
101	0xbc23d70a	-0.01
102	0xbc23d70a	-0.01
103	0x3c23d70a	0.01
104	0xbc23d70a	-0.01
105	0xbc23d70a	-0.01
106	0xbc23d70a	-0.01
107	0x3c23d70a	0.01
108	0xbc23d70a	-0.01
109	0xbc23d70a	-0.01
110	0xbc23d70a	-0.01
111	0xbc23d70a	-0.01
112	0x3c23d70a	0.01
113	0x3c23d70a	0.01
114	0x3c23d70a	0.01
115	0x3c23d70a	0.01
116	0x3c23d70a	0.01
117	0x3c23d70a	0.01
118	0x3c23d70a	0.01
119	0xbc23d70a	-0.01
120	0x3c23d70a	0.01
121	0x3c23d70a	0.01
122	0xbc23d70a	-0.01
123	0xbc23d70a	-0.01
124	0xbc23d70a	-0.01
125	0xbc23d70a	-0.01
126	0xbc23d70a	-0.01
127	0x3c23d70a	0.01
