10_Models/Results_SiouxFalls/WGANBR_Freeflow_discriminator_trad_best.pth (torch, 78118 bytes, 13 tensors)

fc1.weight f4 [128, 2]
0.009337656 -0.009336294 -0.008324547 -0.0058790813 0.0074751796 0.006813416 0.008853579 0.005530908
0.007303634 0.007511917 0.008015361 0.003775863 -0.009127552 0.009006986 -0.009327177 -0.004824072
-0.009964542 -0.0018853608 -0.008338777 0.008332101 -0.0042744447 0.0017143795 0.00819616 -0.008192891
-0.008803172 -0.005567725 0.00050467503 0.007401485 -0.009578036 0.009418656 0.009258245 -0.009088273
0.0008465456 -0.007879749 0.009620569 -0.009619461 -0.0086596655 -0.0060929465 0.0077202404 -0.007701676
0.007812511 0.0069456385 -0.0072759404 0.0072418503 -0.0068525444 0.006703103 -0.001253899 -0.007734845
0.009713759 -0.009713483 -0.009321837 -0.004026307 0.0033751111 0.00409773 -0.009971553 0.009971322
-0.0022859583 0.008746553 0.007977154 -0.007970599 0.004980808 0.0062730093 -0.009753005 -0.0052326587
0.008537682 -0.00032243397 -0.0009934107 0.0074040517 -0.008278898 0.0078070653 0.009603284 -0.0096012
-0.009859236 -0.00501155 -0.0084203025 0.007970879 0.008076945 0.0044705425 0.008394885 0.007067273
0.0071524307 -0.007020822 -0.008182928 0.0078065074 -0.0062501812 0.0044785393 0.009155159 -0.009152744
-0.009940644 -0.001301498 0.009685967 -0.00968546 -0.0054948516 0.005455461 -0.008099462 0.007835406
-0.0018328301 0.008802604 -0.008364519 -0.0061323005 -0.006738787 0.0063918685 -0.0055332794 -0.009356246
-0.000919737 0.0071285428 0.0064358953 -0.006744746 0.0086910175 0.0050597284 -0.009396653 0.004470641
-0.008893545 0.008560886 0.009605934 -0.009603387 -0.005813346 0.0053594415 0.003312574 -0.0083277095
0.0029571957 -0.009732667 -0.009533574 -0.005955547 0.01 0.0025660638 -0.0092521785 7.877957e-05
0.009485599 0.004744294 -0.009576861 -0.005565795 0.002994265 0.006546224 -0.002589287 0.0084367795
-0.009739229 0.0072893063 -0.008513388 -0.005092948 0.008947019 0.005375819 0.009894338 -0.009888332
-0.009000907 0.008978568 -0.00961119 -0.0050530843 -0.008650156 0.0058541372 0.009587559 0.003227868
0.009045847 -0.009043587 0.009690096 -0.006780814 0.009658383 -0.009658008 -0.00078053604 -0.0069486373
0.007518387 -0.007397075 -0.0016683718 0.009695119 0.0073647043 -0.009778994 -0.0029618742 0.0094618155
-0.009353987 -0.004253257 0.006829317 -0.006816417 0.009318659 0.007032481 -0.008560461 0.008539549
-0.009101057 -0.0020552636 -0.0076044374 0.0075848163 0.008925402 -0.008922812 0.0071160547 0.0055796807
0.0012796356 0.007670964 0.008862287 0.008778711 0.009978674 -0.009978622 -0.00479542 0.004085216
0.007494035 0.0068490966 -0.0058788126 0.004539008 -0.0024861111 0.009079817 0.008114306 -0.00810798
0.006506116 -0.005433821 -0.008744363 0.0087452335 -0.008868291 0.008863779 -0.009928963 -0.0040634973
0.00015831762 0.0073423414 -0.0093298 0.009319075 0.009072538 0.0033069493 0.006599368 0.009241734
-0.009795909 -0.004887911 -0.009730786 -0.005655923 -0.009438231 -0.006706227 0.008127163 0.007874748
0.009216269 -0.00916962 -0.008526091 0.007354979 -0.00070526585 -0.0065299193 -0.0060728122 0.009613763
-0.0018339634 -0.0076947794 -0.009326698 0.009300558 0.009835298 -0.00983505 0.00046982217 -0.008220681
0.008468126 -0.008449074 0.002886878 -0.009398971 0.009062792 -0.009053797 -0.004272057 0.009777823
0.009173593 0.005072321 -0.000739999 -0.0068933996 -0.007019481 0.007429649 0.0055757514 0.008605681
00000000: f8fc 183c 41f7 18bc ae63 08bc 4fa5 c0bb
00000010: 5af2 f43b 1343 df3b 9a0e 113c 9e3c b53b
00000020: 5353 ef3b 8726 f63b dc52 033c 7874 773b
00000030: ba8b 15bc 0a92 133c 04d1 18bc 4013 9ebb
00000040: 5242 23bc 361e f7ba 5e9f 08bc 5d83 083c
00000050: a410 8cbb 08b5 e03a 3049 063c 7a3b 06bc
00000060: 2e3b 10bc 7671 b6bb 2b4c 043a 2888 f23b
00000070: 32ed 1cbc b550 1a3c e5af 173c fbe6 14bc
00000080: b7ea 5d3a 101a 01bc 979f 1d3c f29a 1dbc
00000090: 45e1 0dbc 57a7 c7bb 12fa fc3b 575e fcbb
000000a0: 0c00 003c 3d98 e33b 036b eebb 0b4d ed3b
000000b0: 4f8b e0bb b4a5 db3b de59 a4ba 9574 fdbb
000000c0: 7526 1f3c 4d25 1fbc 9eba 18bc 1cef 83bb
000000d0: f830 5d3b 4046 863b ba5f 23bc c15e 233c
000000e0: 04d0 15bb b44d 0f3c 9cb2 023c 1e97 02bc
000000f0: 0c36 a33b d18d cd3b 11cb 1fbc b976 abbb
00000100: a2e1 0b3c 5b0c a9b9 5535 82ba b09d f23b
00000110: 37a4 07bc 69d2 ff3b 1857 1d3c 5a4e 1dbc
00000120: a288 21bc ee37 a4bb 4ff5 09bc 4a98 023c
00000130: 2a55 043c a17d 923b b38a 093c 9594 e73b
00000140: f05e ea3b ec0e e6bb b011 06bc bbcd ff3b
00000150: 52ce ccbb b6c0 923b 85ff 153c 64f5 15bc
00000160: 15de 22bc 0797 aaba e4b1 1e3c c3af 1ebc
00000170: 280e b4bb b9c3 b23b 9bb3 04bc 1360 003c
00000180: 933b f0ba cc38 103c 560b 09bc 77f1 c8bb
00000190: 0bd1 dcbb e172 d13b 8350 b5bb f14a 19bc
000001a0: 811a 71ba 8d96 e93b 34e4 d23b 0803 ddbb
000001b0: c564 0e3c 14cc a53b 6bf4 19bc 747e 923b
000001c0: 3bb6 11bc f542 0c3c 3562 1d3c 8657 1dbc
000001d0: e17d bebb 419e af3b c517 593b f270 08bc
000001e0: 83cd 413b c475 1fbc b532 1cbc c026 c3bb
000001f0: 0ad7 233c 682b 283b 7396 17bc 7636 a538
00000200: 7c69 1b3c 0676 9b3b 44e8 1cbc 4661 b6bb
00000210: 6e3b 443b b581 d63b 07b1 29bb 6b3a 0a3c
00000220: 4a91 1fbc 22db ee3b bd7b 0bbc bfe2 a6bb
00000230: 8596 123c a327 b03b dd1b 223c ac02 22bc
00000240: 8a78 13bc d81a 133c 4178 1dbc 5894 a5bb
00000250: 62b9 0dbc 10d4 bf3b 2315 1d3c a38a 533b
00000260: 0835 143c 8e2b 14bc 35c3 1e3c 9731 debb
00000270: 323e 1e3c 9f3c 1ebc e39c 4cba 65b1 e3bb
00000280: cd5c f63b 2a63 f2bb 45ad daba 47d8 1e3c
00000290: 9e53 f13b 1338 20bc 011c 42bb bb05 1b3c
000002a0: 7741 19bc e85e 8bbb 77c8 df3b 405c dfbb
000002b0: 4aad 183c ba70 e63b 2d41 0cbc 77e9 0b3c
000002c0: 9a1c 15bc 9ab1 06bb a52e f9bb 0d8a f83b
000002d0: d93b 123c fc30 12bc cb2d e93b c1d5 b63b
000002e0: 72b9 a73a b65c fb3b 2033 113c 95d4 0f3c
000002f0: 987d 233c 607d 23bc e622 9dbb 47dd 853b
00000300: 8690 f53b 636e e03b 0ea3 c0bb f5bb 943b
00000310: 06ee 22bb 83c3 143c def1 043c 55d7 04bc
00000320: 4231 d53b 320e b2bb 8444 0fbc 2b48 0f3c
00000330: 4f4c 11bc 6239 113c 17ad 22bc 1627 85bb
00000340: 1002 2639 0698 f03b 04dc 18bc 09af 183c
00000350: fca4 143c 67b9 583b 833f d83b a46a 173c
00000360: 057f 20bc c52a a0bb e06d 1fbc 5255 b9bb
00000370: cfa2 1abc e9bf dbbb cb27 053c 1605 013c
00000380: d5ff 163c 2d3c 16bc 05b1 0bbc 0902 f13b
00000390: 97e1 38ba eff8 d5bb 71fe c6bb 0b83 1d3c
000003a0: 9a61 f0ba 7d24 fcbb 02cf 18bc 5e61 183c
000003b0: 3b24 213c 3123 21bc 7752 f639 09b0 06bc
000003c0: e5bd 0a3c fc6d 0abc c731 3d3b 24fe 19bc
000003d0: 1b7c 143c 6156 14bc 9dfc 8bbb 2a33 203c
000003e0: d64c 163c b635 a63b 7efc 41ba 07e2 e1bb
000003f0: ad03 e6bb 6a74 f33b cbb4 b63b d8fe 0c3c

fc1.bias f4 [128]
-0.0070392955 0.008839355 -0.01 0.008841758 -0.0094690705 -0.007948439 -0.009128552 -0.009321803
-0.009964149 0.009661724 -0.0048272964 -0.0084136175 -0.008763309 -0.007992368 -0.009797111 0.009596757
0.007890096 -0.007945504 -0.008637393 0.0077267596 -0.005115587 0.009300384 -0.0068604574 -0.009535983
-0.006819571 -0.009318362 -0.005644119 0.0070240763 -0.00983941 0.007989011 0.0053408816 0.008539348
-0.009451412 0.009451318 0.008674373 -0.0069656735 0.008625562 0.009785658 -0.00876101 0.008407464
-0.009082139 -0.008264941 -0.0074797855 -0.004509757 0.0040295017 -0.0070116012 -0.005530591 -0.008823722
-0.0088071255 0.0095264185 -0.0075378087 0.009357356 -0.0072738314 -0.009983446 -0.0081699975 -0.009394788
0.008815712 -0.008005794 -0.0064282687 0.008335448 -0.007435409 0.00899344 -0.00518289 0.007690579
-0.007983323 -0.009526434 0.009855095 0.007985527 0.008359967 0.008397085 0.008868863 -0.0071229734
-0.009006717 -0.009602811 0.008411175 0.009588371 0.009052111 -0.007952198 0.009660581 -0.009819496
-0.009945828 -0.009696112 0.009782171 -0.009507985 0.008204484 0.00684862 -0.008617017 0.009298088
0.0072634146 -0.0076135118 0.008934207 0.00708445 -0.007678631 -0.008560282 -0.0070104823 0.009863091
-0.00889245 0.008124039 0.007027814 -0.009333551 0.007681063 -0.008776576 -0.008870072 -0.009928814
0.0092783915 -0.009329169 -0.007841289 -0.009739529 0.008402876 0.0071295756 0.008097707 0.008658178
-0.0087280115 0.008794727 0.007663613 0.0047020363 -0.0098982435 -0.009328203 0.009836453 0.008274396
0.008474923 0.009404603 -0.008869962 0.008111119 0.009132508 0.0071426164 -0.007953142 0.005272532
00000000: e4a9 e6bb f1d2 103c 0ad7 23bc 05dd 103c
00000010: 2924 1bbc 2b3a 02bc ec8f 15bc 7aba 18bc
00000020: ac40 23bc 354c 1e3c 4c2e 9ebb 45d9 09bc
00000030: fb93 0fbc 6cf2 02bc 1084 20bc b73b 1d3c
00000040: 7645 013c dc2d 02bc da83 0dbc c230 fd3b
00000050: a7a0 a7bb a360 183c b0cd e0bb d03c 1cbc
00000060: b576 dfbb 0bac 18bc 4df2 b8bb 392a e63b
00000070: 7a35 21bc 57e4 023c 9002 af3b 9fe8 0b3c
00000080: 18da 1abc b3d9 1a3c f51e 0e3c 4e40 e4bb
00000090: 3b52 0d3c 0654 203c 578a 0fbc 76bf 093c
000000a0: 40cd 14bc ad69 07bc fd18 f5bb 95c6 93bb
000000b0: e909 843b 93c1 e5bb f639 b5bb 5f91 10bc
000000c0: c34b 10bc b214 1c3c b9ff f6bb 984f 193c
000000d0: 5259 eebb 9c91 23bc 74db 05bc 99ec 19bc
000000e0: c76f 103c bc2a 03bc 3aa4 d2bb 6791 083c
000000f0: bba4 f3bb 3959 133c 3cd5 a9bb 4101 fc3b
00000100: 7ccc 02bc c314 1cbc 4477 213c bad5 023c
00000110: 3ef8 083c ed93 093c b54e 113c d567 e9bb
00000120: e990 13bc 1c55 1dbc 06cf 093c 8b18 1d3c
00000130: 4e4f 143c f049 02bc 6a47 1e3c f4e1 20bc
00000140: d3f3 22bc 71dc 1ebc 6645 203c 61c7 1bbc
00000150: 1a6c 063c 636a e03b 642e 0dbc 0257 183c
00000160: f001 ee3b c47a f9bb c860 123c ad24 e83b
00000170: 079d fbbb 6d40 0cbc 30b8 e5bb cd98 213c
00000180: a3b1 11bc b01a 053c 9449 e63b c0eb 18bc
00000190: 6db1 fb3b a1cb 0fbc c753 11bc 77ac 22bc
000001a0: 6504 183c 5fd9 18bc c078 00bc 8c92 1fbc
000001b0: 37ac 093c 379f e93b 3fac 043c 08db 0d3c
000001c0: efff 0ebc c217 103c 0c1f fb3b 8a13 9a3b
000001d0: 3e2c 22bc 52d5 18bc 1329 213c 5591 073c
000001e0: 67da 0a3c c415 1a3c 5153 11bc 80e4 043c
000001f0: 84a0 153c 9c0c ea3b e54d 02bc 34c5 ac3b

bn1.weight f4 [128]
0.009613536 0.01 0.009980898 0.01 0.0099687865 0.01 0.009967329 0.01
0.01 0.009975968 0.009106771 0.00986946 0.01 0.009454652 0.009975527 0.00985003
0.00999752 0.009660332 0.01 0.009567183 0.009977596 0.009969198 0.009974879 0.009987601
0.009868393 0.01 0.009995041 0.009975794 0.009708777 0.009634101 0.009857065 0.01
0.01 0.008961249 0.00996086 0.009869198 0.01 0.009970218 0.01 0.00997794
0.009860064 0.009965012 0.0099837035 0.009570773 0.01 0.009590311 0.009978021 0.009969486
0.008795187 0.01 0.009965363 0.009989629 0.0093263285 0.009798177 0.01 0.01
0.009967947 0.009645014 0.009964806 0.008457369 0.009995887 0.01 0.01 0.01
0.01 0.01 0.009985003 0.009260579 0.006559822 0.01 0.01 0.009863561
0.009972917 0.01 0.009982757 0.01 0.009818155 0.009873227 0.009853277 0.009994871
0.0098209 0.008119319 0.008121901 0.008888906 0.01 0.00982774 0.009971879 0.0099749565
0.01 0.0099598225 0.009590199 0.009990338 0.009774164 0.009978161 0.009779379 0.009975948
0.009977617 0.009980161 0.0089079095 0.00984051 0.009692098 0.005784234 0.009967348 0.01
0.009835708 0.009967532 0.01 0.009978161 0.01 0.01 0.009932906 0.009977821
0.009629328 0.009974114 0.009994158 0.00909424 0.009993838 0.009963872 0.009758091 0.009998537
0.00959581 0.009405122 0.009913831 0.00924417 0.01 0.009992007 0.008785823 0.009977097
00000000: 1882 1d3c 0ad7 233c ec86 233c 0ad7 233c
00000010: 1f54 233c 0ad7 233c 024e 233c 0ad7 233c
00000020: 0ad7 233c 3e72 233c 9134 153c 84b3 213c
00000030: 0ad7 233c afe7 1a3c 6570 233c 0562 213c
00000040: a3cc 233c 5f46 1e3c 0ad7 233c adbf 1c3c
00000050: 1279 233c d955 233c ad6d 233c 09a3 233c
00000060: 0aaf 213c 0ad7 233c 3ec2 233c 8371 233c
00000070: 9011 1f3c 59d8 1d3c 877f 213c 0ad7 233c
00000080: 0ad7 233c 34d2 123c e032 233c 6bb2 213c
00000090: 0ad7 233c 205a 233c 0ad7 233c 837a 233c
000000a0: 1b8c 213c 4a44 233c b092 233c bbce 1c3c
000000b0: 0ad7 233c ae20 1d3c da7a 233c 0e57 233c
000000c0: b019 103c 0ad7 233c c345 233c 8aab 233c
000000d0: 75cd 183c 8888 203c 0ad7 233c 0ad7 233c
000000e0: 9a50 233c 1f06 1e3c 6d43 233c c790 0a3c
000000f0: cac5 233c 0ad7 233c 0ad7 233c 0ad7 233c
00000100: 0ad7 233c 0ad7 233c 2398 233c afb9 173c
00000110: c6f3 d63b 0ad7 233c 0ad7 233c c69a 213c
00000120: 7265 233c 0ad7 233c b88e 233c 0ad7 233c
00000130: 54dc 203c 51c3 213c a46f 213c 87c1 233c
00000140: d7e7 203c e406 053c b911 053c c6a2 113c
00000150: 0ad7 233c 8704 213c 1861 233c 006e 233c
00000160: 0ad7 233c 862e 233c 3620 1d3c 84ae 233c
00000170: d123 203c 717b 233c b039 203c 2972 233c
00000180: 2979 233c d483 233c 7bf2 113c 173a 213c
00000190: 9bcb 1e3c ac89 bd3b 164e 233c 0ad7 233c
000001a0: f325 213c dc4e 233c 0ad7 233c 717b 233c
000001b0: 0ad7 233c 0ad7 233c a1bd 223c 047a 233c
000001c0: 54c4 1d3c 776a 233c 89be 233c 0200 153c
000001d0: 32bd 233c 823f 233c 66e0 1f3c e7d0 233c
000001e0: bf37 1d3c f117 1a3c 9f6d 223c dc74 173c
000001f0: 0ad7 233c 84b5 233c 6af2 0f3c fa76 233c

bn1.bias f4 [128]
0.01 0.004926856 0.0097342 0.01 0.009249661 0.01 0.00966954 0.0099706445
0.009984015 0.009578603 -0.0011933665 0.0051003625 0.007534876 0.00999159 0.009298873 0.0043780203
0.01 0.01 0.007965677 0.01 0.00941131 0.009691884 0.00936552 -0.0025230057
0.0034932843 0.009970481 0.009998928 0.009902586 0.01 0.01 0.00845694 0.0072094663
0.001337874 0.009964917 0.009165653 0.004657706 0.00835492 0.009520803 0.01 0.009549037
0.005330991 0.009652304 0.008863364 0.01 0.009991898 0.01 0.006441446 0.009216126
0.01 0.00545429 0.009627459 0.009975643 0.00997587 0.0070718513 0.01 0.00842022
0.009789495 0.01 0.008770654 0.01 0.01 0.0054649157 0.01 0.01
0.01 0.009908464 0.01 0.009972373 -0.0030166553 0.009947938 0.01 0.002316692
0.009505387 0.009973768 0.009494929 0.01 0.007166852 0.01 0.0052788015 0.01
0.0081000235 0.01 0.01 0.009973676 0.009974014 0.005291694 0.008790184 0.009814888
0.009973716 0.009683131 0.01 0.01 0.01 0.009997834 0.009035327 0.009122091
0.009900149 0.007170489 0.009998578 0.0087841125 0.01 -0.0010556543 0.009735152 0.009973947
0.01 0.009583768 0.01 0.008678361 0.008746699 0.009871944 0.009952767 0.009973301
0.01 0.009700305 0.01 0.00985523 0.01 0.0099076 0.00975307 0.01
0.01 0.01 0.0017147381 0.009970289 0.01 0.01 -0.0015325074 0.00964177
00000000: 0ad7 233c 7771 a13b 327c 1f3c 0ad7 233c
00000010: e48b 173c 0ad7 233c fe6c 1e3c ea5b 233c
00000020: fe93 233c 93ef 1c3c bc6a 9cba f120 a73b
00000030: 1fe7 f63b c4b3 233c 4d5a 183c 7f75 8f3b
00000040: 0ad7 233c 0ad7 233c 7982 023c 0ad7 233c
00000050: e531 1a3c b5ca 1e3c d771 193c 0359 25bb
00000060: 96ef 643b 3a5b 233c 8bd2 233c 753e 223c
00000070: 0ad7 233c 0ad7 233c fa8e 0a3c 633d ec3b
00000080: 9a5b af3a e443 233c 892b 163c ab9f 983b
00000090: 13e3 083c 24fd 1b3c 0ad7 233c 9073 1c3c
000000a0: 98af ae3b b324 1e3c a537 113c 0ad7 233c
000000b0: 0fb5 233c 0ad7 233c c412 d33b 3cff 163c
000000c0: 0ad7 233c e7b9 b23b 7dbc 1d3c e170 233c
000000d0: d571 233c fdba e73b 0ad7 233c f6f4 093c
000000e0: 1e64 203c 0ad7 233c cab2 0f3c 0ad7 233c
000000f0: 0ad7 233c 0913 b33b 0ad7 233c 0ad7 233c
00000100: 0ad7 233c 1c57 223c 0ad7 233c 2a63 233c
00000110: 14b3 45bb adfc 223c 0ad7 233c a4d3 173b
00000120: 7cbc 1b3c 0469 233c 9e90 1b3c 0ad7 233c
00000130: e9d7 ea3b 0ad7 233c ccf9 ac3b 0ad7 233c
00000140: f6b5 043c 0ad7 233c 0ad7 233c a168 233c
00000150: 0c6a 233c f265 ad3b b404 103c a0ce 203c
00000160: cc68 233c ffa5 1e3c 0ad7 233c 0ad7 233c
00000170: 0ad7 233c f5cd 233c e808 143c d374 153c
00000180: 3c34 223c 6cf6 ea3b 13d1 233c 3deb 0f3c
00000190: 0ad7 233c e15d 8aba 3080 1f3c c469 233c
000001a0: 0ad7 233c 3d05 1d3c 0ad7 233c af2f 0e3c
000001b0: 514e 0f3c efbd 213c ee10 233c 0e67 233c
000001c0: 0ad7 233c 07ee 1e3c 0ad7 233c d577 213c
000001d0: 0ad7 233c 7c53 223c 57cb 1f3c 0ad7 233c
000001e0: 0ad7 233c 0ad7 233c 10c1 e03a 6c5a 233c
000001f0: 0ad7 233c 0ad7 233c 6ade c8ba 84f8 1d3c

bn1.running_mean f4 [128]
13122.449 -1700.7499 573.6875 2280.5493 -206.74962 2891.9875 -12620.649 -3064.1523
-5608.7817 -11626.257 -4104.6094 11378.09 -2130.8774 -4902.805 -13241.818 12727.838
6053.8867 13383.76 -1763.0629 10915.994 541.8267 -10168.133 -9501.378 4435.0015
13680.404 -3577.9644 -563.77124 -13909.475 -7698.367 11173.875 -920.43396 -3099.162
6193.1323 -5764.133 -11229.736 13459.21 -3366.4583 -11438.07 2394.3486 815.9533
9871.964 -11048.292 -7392.8584 12767.193 -6039.268 13529.296 -7472.575 -11084.38
-7530.9604 -1614.436 -9035.349 2631.2798 -5618.8037 9261.126 2702.834 -9601.0625
-12275.546 13347.556 -7910.9463 8204.929 8979.678 -2390.9753 5132.9688 -6585.538
3439.8447 -2694.8816 -2439.9956 -7619.0728 -11932.114 -2383.3523 2431.28 13701.957
-12437.737 -3149.5083 -10149.122 4444.395 12626.083 11604.74 13462.258 4370.7344
10405.248 -7989.3164 11906.407 -8757.573 -3595.8916 9547.004 1654.0394 -11869.923
-4861.288 -10502.721 12518.142 1051.433 -4632.335 89.71447 13932.419 -6118.166
355.93265 -7310.6807 -8159.957 11372.076 8350.761 -12288.5 -12415.477 -4059.0974
-5105.3623 -12949.693 4085.745 -1755.8032 -3495.015 -2799.2495 -1747.5756 193.96506
12737.437 -11101.162 4179.728 -10992.349 4076.0344 -13093.267 13789.307 6092.831
11750.761 8720.721 12538.769 -9701.741 2697.6375 4373.095 -10136.482 -2185.659
00000000: cc09 4d46 ff97 d4c4 006c 0f44 ca88 0e45
00000010: e7bf 4ec3 cdbf 3445 9932 45c6 7082 3fc5
00000020: 4146 afc5 07a9 35c6 e044 80c5 5cc8 3146
00000030: 0a2e 05c5 7136 99c5 46e7 4ec6 5adf 4646
00000040: 182f bd45 0a1f 5146 0362 dcc4 fa8f 2a46
00000050: e974 0744 88e0 1ec6 8375 14c6 0398 8a45
00000060: 9ec1 5546 6e9f 5fc5 5cf1 0cc4 e655 59c6
00000070: f092 f0c5 8097 2e46 c61b 66c4 98b2 41c5
00000080: 0f89 c145 1021 b4c5 f276 2fc6 d74c 5246
00000090: 5567 52c5 48b8 32c6 94a5 1545 03fd 4b44
000000a0: db3f 1a46 2ba1 2cc6 de06 e7c5 c67c 4746
000000b0: 25ba bcc5 2f65 5346 9a84 e9c5 8531 2dc6
000000c0: af57 ebc5 f4cd c9c4 652d 0dc6 7a74 2445
000000d0: 6e96 afc5 81b4 1046 58ed 2845 4004 16c6
000000e0: 2fce 3fc6 398e 5046 9237 f7c5 b733 0046
000000f0: b64e 0c46 9b6f 15c5 c067 a045 4ecc cdc5
00000100: 84fd 5645 1b6e 28c5 ee7f 18c5 9518 eec5
00000110: 7570 3ac6 a3f5 14c5 7bf4 1745 d417 5646
00000120: f356 42c6 22d8 44c5 7d94 1ec6 29e3 8a45
00000130: 5548 4546 f652 3546 0859 5246 e095 8845
00000140: fe94 2246 88aa f9c5 a109 3a46 4bd6 08c6
00000150: 44be 60c5 042c 1546 43c1 ce44 b177 39c6
00000160: 4eea 97c5 e21a 24c6 9198 4346 db6d 8344
00000170: aec2 90c5 cf6d b342 adb1 5946 5431 bfc5
00000180: 61f7 b143 7275 e4c5 a8ff fec5 4eb0 3146
00000190: 0b7b 0246 0002 40c6 e8fd 41c6 8fb1 7dc5
000001a0: e68a 9fc5 c656 4ac6 ec5b 7f45 b479 dbc4
000001b0: 3d70 5ac5 fef3 2ec5 6b72 dac4 0ef7 4143
000001c0: bf05 4746 a674 2dc6 d39d 8245 65c1 2bc6
000001d0: 8dc0 7e45 1195 4cc6 3a75 5746 a666 be45
000001e0: 0b9b 3746 e242 0846 13eb 4346 f796 17c6
000001f0: 339a 2845 c3a8 8845 ee61 1ec6 8b9a 08c5

bn1.running_var f4 [128]
1.0887348e+06 18457.5 1943.5376 33608.746 249.22672 53535.184 1.0115773e+06 60448.324
200005.64 858022.25 107712.81 823358.1 29786.49 150910.64 1.113339e+06 1.03104606e+06
233444.42 1.1377118e+06 19777.154 750547.7 2037.0107 655020.8 571277.6 126050.25
1.1821256e+06 82807.234 1863.8003 1.2285725e+06 375829.88 790007.8 5276.1157 61653.73
243132.12 212524.25 800060.44 1.1469638e+06 72024.19 830534.0 37560.773 4599.365
618739.0 778103.44 349208.9 1.0350289e+06 231201.06 1.1606769e+06 358371.3 780791.9
357292.53 16350.901 521920.88 44272.844 200187.06 542197.3 44790.098 587299.25
951834.25 1.132698e+06 394604.2 425067.7 507917.06 37221.844 167947.36 273617.28
73400.26 47086.074 38027.47 369959.94 901249.9 36211.258 38222.83 1.1957591e+06
986337.75 63027.48 652506.3 125405.734 1.0114409e+06 849949.5 1.1499116e+06 120462.46
686932.25 403609.7 901665.2 483862.06 81457.61 577469.25 17036.023 895992.3
150780.33 703213.9 991783.06 7073.213 133620.5 51.823875 1.2314124e+06 239167.94
963.2127 338304.84 420236.47 818965.8 441507.4 955261.5 976175.2 105063.22
163918.05 1.0665742e+06 105077.984 20232.943 76823.055 50233.258 20470.338 231.15776
1.03306006e+06 780975.9 109496.85 764775.44 105658.64 1.0833749e+06 1.2034609e+06 234804.2
877828.2 478550.94 1.0011635e+06 599897.2 47718.324 120134.31 649719.4 29773.793
00000000: f6e6 8449 0033 9046 34f1 f244 bf48 0347
00000010: 0a3a 7943 2f1f 5147 95f7 7649 5320 6c47
00000020: 6951 4348 647a 5149 6860 d247 e203 4949
00000030: fbb4 e846 a95f 1348 d8e7 8749 61b8 7b49
00000040: 1bf9 6348 7ee1 8a49 4f82 9a46 3b3d 3749
00000050: 58a0 fe44 cdea 1f49 da78 0b49 2031 f647
00000060: 6d4d 9049 9ebb a147 9cf9 e844 e4f8 9549
00000070: bc82 b748 7ddf 4049 ede0 a445 bbd5 7047
00000080: 086f 6d48 108b 4f48 c753 4349 9e02 8c49
00000090: 18ac 8c47 60c4 4a49 c6b8 1247 ecba 8f45
000000a0: 300f 1749 77f7 3d49 1d83 aa48 4eb1 7c49
000000b0: 44c8 6148 27af 8d49 6afc ae48 7e9f 3e49
000000c0: 9175 ae48 9b7b 7f46 1cd8 fe48 d8f0 2c47
000000d0: c47e 4348 555f 0449 19f6 2e47 3462 0f49
000000e0: a461 6849 d044 8a49 86ad c048 768d cf48
000000f0: a201 f848 d865 1147 d702 2448 299a 8548
00000100: 215c 8f47 13ee 3747 788b 1447 fea4 b448
00000110: 1e08 5c49 4273 0d47 d44e 1547 79f7 9149
00000120: 1cce 7049 7b33 7647 a54d 1f49 deee f447
00000130: 0eef 7649 d881 4f49 bd5e 8c49 3b47 eb47
00000140: 44b5 2749 3613 c548 1322 5c49 c242 ec48
00000150: ce18 9f47 d4fb 0c49 0c18 8546 85bf 5a49
00000160: 153f 1348 deae 2b49 7122 7249 b409 dd45
00000170: 207d 0248 a64b 4f42 a351 9649 fc8f 6948
00000180: 9dcd 7044 1b30 a548 8f31 cd48 5df1 4749
00000190: 6d94 d748 d837 6949 f352 6e49 9c33 cd47
000001a0: 8313 2048 7232 8249 fe3a cd47 e311 9e46
000001b0: 870b 9647 4239 4447 adec 9f46 6328 6743
000001c0: 4136 7c49 feaa 3e49 6ddc d547 77b6 3a49
000001d0: 525d ce47 773f 8449 27e8 9249 0d4d 6548
000001e0: 4350 5649 deaa e948 b86c 7449 9375 1249
000001f0: 5366 3a47 28a3 ea47 769f 1e49 969b e846

fc2.weight f4 [128, 128]
0.003991675 0.0017890001 -0.00454611 -0.01 0.0056747464 -0.01 -0.006718801 0.01
0.01 -0.009941256 0.0061976346 0.004103595 0.01 0.0018503875 -0.009943219 0.0040825936
-0.009987403 0.0033502097 0.01 0.003559693 0.0034711314 -0.0068491185 -0.009938614 -0.009988985
0.0037687996 0.01 0.007980457 -0.009939654 0.009987127 0.0035008274 -0.004549882 0.01
-0.01 -0.004430975 -0.007030251 0.009924114 0.01 -0.009942139 -0.01 0.00991868
0.0076912744 -0.009940721 -0.009942338 0.0041335104 0.01 0.0030299204 -0.009940231 -0.007359075
0.009987701 0.01 -0.009939444 -0.009997854 -0.0018661186 0.00987224 -0.01 -0.009954635
-0.007413864 0.003165892 -0.009939702 -0.009984067 -0.006592219 0.01 -0.01 0.01
-0.01 0.002275617 0.009996408 0.009924259 -0.009950981 0.01 -0.01 0.00993026
-0.0065789567 0.01 -0.009946792 -0.01 0.0039104917 0.009923355 0.009918684 -0.009990705
0.0039370963 0.009988106 0.003160416 -0.0039605997 0.01 0.00989564 0.009129966 -0.009940498
0.01 -0.006788608 0.0098978495 -0.01 0.0031406584 0.009997253 0.009895487 -0.009934031
0.009596784 -0.009943186 0.0002357721 0.0098963 0.009899688 0.006417908 -0.009940688 0.01
0.0017390382 -0.0070224814 -0.01 0.009999678 0.01 -0.0019516402 -0.00952753 0.009996493
0.009896523 -0.007907889 -0.009990596 0.006260674 -0.009992789 -0.009939351 0.0037941292 -0.0077167414
0.00989306 -0.002702054 0.009934269 0.0058324975 -0.01 -0.009990544 0.007243921 0.00999857
-0.00403915 0.009995942 -0.009974949 -0.009976593 -0.009970827 -0.0099771395 -0.0017354082 0.009990117
0.009986752 -0.00021105625 0.0053764535 -0.0028561123 0.009992637 -0.0018497957 -0.000667531 -0.009862731
-0.009051837 -0.002869836 0.009991853 -0.0034272869 -0.009974649 -6.647642e-05 0.01 0.0030391486
-0.009835653 0.009989846 0.00828565 -0.00075010915 0.009093053 -0.009979562 -0.0099622095 0.0099933855
-0.01 0.009938771 0.01 -0.003003583 0.009992134 0.01 -0.009976871 -0.009975124
-0.009911158 0.01 0.01 -0.0099786585 0.009986587 -0.009977828 -0.0018425346 0.01
0.009833921 0.009994979 0.01 0.009976103 0.009990709 -0.00995046 -0.009976687 0.01
-0.0014540285 -0.0099776955 -0.001904864 -0.0024941168 -0.0017686919 0.009995306 -0.009977983 0.01
-0.009976676 0.009990428 -0.0047061243 -0.0011741315 0.01 0.009990149 -0.009976731 0.00025373176
0.01 0.00999024 0.01 -0.009977049 -0.0030535408 -0.0099854 -0.0023902932 -0.00093459163
-0.0029671856 -0.0027701021 -0.0032213489 0.01 0.009989825 -0.0030366352 -0.009975832 0.01
0.009987145 0.0060862564 -0.009978018 -0.00997593 -0.0023651184 -0.009974275 -0.0099611245 0.01
-0.0099746445 0.01 0.009994528 -0.0023125224 -0.004314917 0.01 -0.0019494726 0.009989705
0.0096407235 -0.00077961874 -0.009977012 -0.009957877 0.00999161 0.009990453 0.009989622 -0.00997435
-0.009978856 0.01 -0.008638869 0.008511742 -4.8051163e-05 -0.0007086826 -0.0031802824 -0.0019515748
-0.0031222878 -0.00953905 -0.008131193 0.0047716633 -0.00997682 -0.008858231 -0.0006140705 -0.0099467235
00000000: 99cc 823b e27c ea3a 89f7 94bb 0ad7 23bc
00000010: 39f3 b93b 0ad7 23bc 6329 dcbb 0ad7 233c
00000020: 0ad7 233c a6e0 22bc 8715 cb3b 7377 863b
00000030: 0ad7 233c b488 f23a e2e8 22bc 47c7 853b
00000040: 34a2 23bc 318f 5b3b 0ad7 233c bd49 693b
00000050: ec7b 633b 926e e0bb 92d5 22bc d7a8 23bc
00000060: f7fd 763b 0ad7 233c 76c0 023c eed9 22bc
00000070: 0ca1 233c 236e 653b 2d17 95bb 0ad7 233c
00000080: 0ad7 23bc b631 91bb 055e e6bb c098 223c
00000090: 0ad7 233c 5ae4 22bc 0ad7 23bc f681 223c
000000a0: 1607 fc3b 68de 22bc 30e5 22bc 6672 873b
000000b0: 0ad7 233c a191 463b 5adc 22bc 6524 f1bb
000000c0: 74a3 233c 0ad7 233c 0dd9 22bc 0ace 23bc
000000d0: 8d98 f4ba 2dbf 213c 0ad7 23bc c418 23bc
000000e0: 00f0 f2bb db7a 4f3b 22da 22bc 3694 23bc
000000f0: 8b03 d8bb 0ad7 233c 0ad7 23bc 0ad7 233c
00000100: 0ad7 23bc 8522 153b f9c7 233c 5c99 223c
00000110: 7009 23bc 0ad7 233c 0ad7 23bc 87b2 223c
00000120: 4a94 d7bb 0ad7 233c dff7 22bc 0ad7 23bc
00000130: 9523 803b 9195 223c fa81 223c 0eb0 23bc
00000140: c202 813b 27a5 233c fb1e 4f3b ebc7 81bb
00000150: 0ad7 233c 5321 223c da95 153c 78dd 22bc
00000160: 0ad7 233c f972 debb 972a 223c 0ad7 23bc
00000170: 81d3 4d3b 85cb 233c ae20 223c 59c2 22bc
00000180: d43b 1d3c bfe8 22bc 9739 7739 1724 223c
00000190: 4d32 223c 504d d23b 44de 22bc 0ad7 233c
000001a0: 70f0 e33a d81c e6bb 0ad7 23bc b0d5 233c
000001b0: 0ad7 233c 2ece ffba 5b19 1cbc 55c8 233c
000001c0: 0725 223c 1790 01bc 99af 23bc 5726 cd3b
000001d0: cbb8 23bc a9d8 22bc eda6 783b b8dc fcbb
000001e0: 8016 223c f214 31bb 58c3 223c 891e bf3b
000001f0: 0ad7 23bc 61af 23bc 6a5e ed3b 0bd1 233c
00000200: d95a 84bb 05c6 233c f86d 23bc dd74 23bc
00000210: ae5c 23bc 2877 23bc a376 e3ba 96ad 233c
00000220: 799f 233c fb4e 5db9 f62c b03b 9d2d 3bbb
00000230: 28b8 233c d874 f2ba 3ffd 2eba 4b97 21bc
00000240: 284e 14bc dc13 3cbb deb4 233c 559c 60bb
00000250: b66c 23bc 4269 8bb8 0ad7 233c 742c 473b
00000260: b825 21bc 73ac 233c 89c0 073c f9a2 44ba
00000270: 07fb 143c 5181 23bc 8938 23bc 4cbb 233c
00000280: 0ad7 23bc 3ad6 223c 0ad7 233c c3d7 44bb
00000290: 0cb6 233c 0ad7 233c 0876 23bc b46e 23bc
000002a0: 6962 22bc 0ad7 233c 0ad7 233c 877d 23bc
000002b0: c89e 233c 0b7a 23bc 3481 f1ba 0ad7 233c
000002c0: 741e 213c fbc1 233c 0ad7 233c cf72 233c
000002d0: 12b0 233c 4107 23bc 4275 23bc 0ad7 233c
000002e0: 1a95 beba 7d79 23bc a1ac f9ba 5674 23bb
000002f0: 74d3 e7ba 5ac3 233c b27a 23bc 0ad7 233c
00000300: 3675 23bc e4ae 233c d535 9abb 51e5 99ba
00000310: 0ad7 233c b9ad 233c 7175 23bc 4d07 8539
00000320: 0ad7 233c 1bae 233c 0ad7 233c c776 23bc
00000330: ea1d 48bb ce99 23bc 77a6 1cbb 62ff 74ba
00000340: 1d75 42bb 9a8a 35bb 441d 53bb 0ad7 233c
00000350: 5dac 233c 4902 47bb ac71 23bc 0ad7 233c
00000360: 1fa1 233c 386f c73b d77a 23bc 1572 23bc
00000370: 1a00 1bbb 246b 23bc fc33 23bc 0ad7 233c
00000380: b16c 23bc 0ad7 233c 17c0 233c b08d 17bb
00000390: 2664 8dbb 0ad7 233c 7285 ffba dcab 233c
000003a0: 20f4 1d3c 545f 4cba 9f76 23bc 5d26 23bc
000003b0: dab3 233c ffae 233c 83ab 233c 756b 23bc
000003c0: 5b7e 23bc 0ad7 233c 0b8a 0dbc d574 0b3c
000003d0: 8b8a 49b8 e2c6 39ba 496c 50bb fccb ffba
000003e0: 4c9f 4cbb ad49 1cbc b238 05bc 9d5b 9c3b
000003f0: d175 23bc 1d22 11bc 93f9 20ba 95f7 22bc

fc2.bias f4 [128]
-0.00096459116 -0.01 -0.0040841266 -0.01 -0.01 -0.0023473196 -0.01 -0.009996239
-0.01 -0.0016411816 -0.0014777678 -0.01 -0.01 -0.0022608095 -0.01 0.0077199102
-0.01 -0.01 0.00030687143 0.00039217193 0.008276091 0.0022215273 -0.01 0.00791088
-0.0020367126 -0.005066802 -0.01 -0.0012091573 -0.0022523126 -0.009998269 -0.01 -0.0023775513
-0.001377673 0.009977295 -0.0021778797 -0.009999603 -0.009996299 -0.01 0.001835993 -0.009895464
-0.009999431 0.0020594846 0.007622684 -0.01 -0.0012291295 0.0005125545 0.008247718 -0.01
-0.01 -0.009998741 0.00074628904 0.009889424 -0.01 -0.01 0.0076663005 -0.01
0.000581108 -0.01 0.0002583517 0.00091733 -0.009994292 -0.009997452 -0.009993977 -0.01
0.007678098 -0.0015355968 0.0010238326 -0.01 0.00040466702 -0.01 -0.009996818 -0.00083581044
0.0077670077 0.0072510424 0.007784477 -0.01 -0.001985328 -0.009995735 -0.01 0.0077492534
-0.01 -0.009996909 -0.009999722 0.0011919875 0.007871594 -0.01 0.0023011873 0.0073293345
-0.01 0.008752225 -0.01 0.007932786 -0.01 -0.0022546123 -0.0006927733 0.0082432125
0.001525271 -0.002007402 -0.0019161693 -0.0014216098 -0.0018961955 -0.01 -0.009998138 -0.01
-0.0014945901 -0.01 -0.0015250947 0.008164576 -0.01 -0.003583381 -0.01 -0.002172454
-0.001486984 -0.0015916909 -0.01 -0.0013776774 -0.0003455707 -0.0010409454 -0.009995581 0.007800865
0.002298946 -0.001487112 -0.002026966 0.000855554 -0.0014942628 -0.01 -0.009998171 -0.009991228
00000000: 9edc 7cba 0ad7 23bc 23d4 85bb 0ad7 23bc
00000010: 0ad7 23bc 7dd5 19bb 0ad7 23bc 44c7 23bc
00000020: 0ad7 23bc eb1c d7ba a9b1 c1ba 0ad7 23bc
00000030: 0ad7 23bc 172a 14bb 0ad7 23bc 4df7 fc3b
00000040: 0ad7 23bc 0ad7 23bc 96e3 a039 6d9c cd39
00000050: 7198 073c 0b97 113b 0ad7 23bc a39c 013c
00000060: 5e7a 05bb 6a07 a6bb 0ad7 23bc 967c 9eba
00000070: 899b 13bb c8cf 23bc 0ad7 23bc b1d0 1bbb
00000080: 0993 b4ba cf77 233c c2ba 0ebb 60d5 23bc
00000090: 84c7 23bc 0ad7 23bc b4a5 f03a 9620 22bc
000000a0: a7d4 23bc 6bf8 063b b5c7 f93b 0ad7 23bc
000000b0: be1a a1ba f35c 063a 7021 073c 0ad7 23bc
000000c0: 0ad7 23bc c2d1 23bc 9ca2 433a 4007 223c
000000d0: 0ad7 23bc 0ad7 23bc 9735 fb3b 0ad7 23bc
000000e0: 7f55 183a 0ad7 23bc 6173 8739 f978 703a
000000f0: 19bf 23bc 5acc 23bc c7bd 23bc 0ad7 23bc
00000100: 8e98 fb3b 1446 c9ba 1f32 863a 0ad7 23bc
00000110: 7d29 d439 0ad7 23bc b2c9 23bc 4a1a 5bba
00000120: 6282 fe3b 279a ed3b ed14 ff3b 0ad7 23bc
00000130: 471c 02bb 27c5 23bc 0ad7 23bc 73ed fd3b
00000140: 0ad7 23bc 13ca 23bc e0d5 23bc 773c 9c3a
00000150: dcf7 003c 0ad7 23bc 84cf 163b ea2a f03b
00000160: 0ad7 23bc 7e65 0f3c 0ad7 23bc 84f8 013c
00000170: 0ad7 23bc 1ec2 13bb 3b9b 35ba 8a0e 073c
00000180: 9aeb c73a 9e8e 03bb f927 fbba 4f55 baba
00000190: c389 f8ba 0ad7 23bc 3bcf 23bc 0ad7 23bc
000001a0: 1fe6 c3ba 0ad7 23bc b0e5 c7ba b7c4 053c
000001b0: 0ad7 23bc 28d7 6abb 0ad7 23bc bb5f 0ebb
000001c0: e7e6 c2ba 49a0 d0ba 0ad7 23bc 2f93 b4ba
000001d0: b72d b5b9 5570 88ba 81c4 23bc 669e ff3b
000001e0: eaa9 163b 33eb c2ba d9d6 04bb 4247 603a
000001f0: 24db c3ba 0ad7 23bc 5ecf 23bc 3fb2 23bc

bn2.weight f4 [128]
0.01 0.01 0.01 0.01 0.01 0.01 0.01 0.01
0.01 0.01 0.01 0.01 0.01 0.01 0.01 0.01
0.01 0.01 0.01 0.01 0.01 0.01 0.01 0.01
0.01 0.01 0.01 0.01 0.01 0.01 0.01 0.01
0.01 0.01 0.01 0.01 0.006235481 0.01 0.01 0.008032816
0.01 0.01 0.01 0.01 0.01 0.01 0.01 0.01
0.01 0.01 0.01 0.005820359 0.01 0.01 0.01 0.01
0.01 0.01 0.01 0.01 0.01 0.01 0.01 0.01
0.01 0.01 0.01 0.01 0.01 0.01 0.01 0.01
0.01 0.01 0.01 0.01 0.01 0.01 0.01 0.01
0.01 0.01 0.01 0.01 0.01 0.01 0.01 0.01
0.01 0.0066979914 0.01 0.01 0.01 0.01 0.01 0.01
0.01 0.01 0.01 0.01 0.01 0.01 0.01 0.01
0.01 0.01 0.01 0.01 0.01 0.01 0.01 0.01
0.01 0.01 0.01 0.01 0.01 0.01 0.006771139 0.01
0.01 0.01 0.01 0.01 0.01 0.01 0.01 0.01
00000000: 0ad7 233c 0ad7 233c 0ad7 233c 0ad7 233c
00000010: 0ad7 233c 0ad7 233c 0ad7 233c 0ad7 233c
00000020: 0ad7 233c 0ad7 233c 0ad7 233c 0ad7 233c
00000030: 0ad7 233c 0ad7 233c 0ad7 233c 0ad7 233c
00000040: 0ad7 233c 0ad7 233c 0ad7 233c 0ad7 233c
00000050: 0ad7 233c 0ad7 233c 0ad7 233c 0ad7 233c
00000060: 0ad7 233c 0ad7 233c 0ad7 233c 0ad7 233c
00000070: 0ad7 233c 0ad7 233c 0ad7 233c 0ad7 233c
00000080: 0ad7 233c 0ad7 233c 0ad7 233c 0ad7 233c
00000090: 0153 cc3b 0ad7 233c 0ad7 233c 139c 033c
000000a0: 0ad7 233c 0ad7 233c 0ad7 233c 0ad7 233c
000000b0: 0ad7 233c 0ad7 233c 0ad7 233c 0ad7 233c
000000c0: 0ad7 233c 0ad7 233c 0ad7 233c b6b8 be3b
000000d0: 0ad7 233c 0ad7 233c 0ad7 233c 0ad7 233c
000000e0: 0ad7 233c 0ad7 233c 0ad7 233c 0ad7 233c
000000f0: 0ad7 233c 0ad7 233c 0ad7 233c 0ad7 233c
00000100: 0ad7 233c 0ad7 233c 0ad7 233c 0ad7 233c
00000110: 0ad7 233c 0ad7 233c 0ad7 233c 0ad7 233c
00000120: 0ad7 233c 0ad7 233c 0ad7 233c 0ad7 233c
00000130: 0ad7 233c 0ad7 233c 0ad7 233c 0ad7 233c
00000140: 0ad7 233c 0ad7 233c 0ad7 233c 0ad7 233c
00000150: 0ad7 233c 0ad7 233c 0ad7 233c 0ad7 233c
00000160: 0ad7 233c d37a db3b 0ad7 233c 0ad7 233c
00000170: 0ad7 233c 0ad7 233c 0ad7 233c 0ad7 233c
00000180: 0ad7 233c 0ad7 233c 0ad7 233c 0ad7 233c
00000190: 0ad7 233c 0ad7 233c 0ad7 233c 0ad7 233c
000001a0: 0ad7 233c 0ad7 233c 0ad7 233c 0ad7 233c
000001b0: 0ad7 233c 0ad7 233c 0ad7 233c 0ad7 233c
000001c0: 0ad7 233c 0ad7 233c 0ad7 233c 0ad7 233c
000001d0: 0ad7 233c 0ad7 233c 6ee0 dd3b 0ad7 233c
000001e0: 0ad7 233c 0ad7 233c 0ad7 233c 0ad7 233c
000001f0: 0ad7 233c 0ad7 233c 0ad7 233c 0ad7 233c

bn2.bias f4 [128]
8.803814e-05 -3.9396953e-05 8.538655e-05 6.0400118e-05 -4.1018262e-05 -5.378337e-05 -9.173041e-05 6.371337e-05
-4.357768e-05 7.800781e-05 8.77126e-05 7.7511126e-05 -3.65802e-05 -8.306069e-05 -3.9026883e-05 -3.5633202e-05
-9.116357e-05 -3.9282568e-05 3.9569575e-05 5.3898006e-05 -4.739715e-05 4.6269553e-05 -8.5314256e-05 -3.232981e-05
-6.407735e-05 0.00010856162 -7.692087e-05 5.7637855e-05 -0.000118275544 5.3294294e-05 -3.5667592e-05 -5.6426426e-05
2.5792764e-05 -0.00020151728 -0.00013401512 7.696368e-05 -0.0035348616 -7.153176e-05 4.3764907e-05 0.0020523968
-4.4960245e-05 4.2280455e-05 -4.17469e-05 -5.0639243e-05 8.903348e-05 4.4911114e-05 -4.442415e-05 8.732167e-05
-4.9355283e-05 -5.055443e-05 4.0077713e-05 0.0042333794 -3.5872756e-05 9.708196e-05 -3.6687197e-05 -0.000116538606
4.9531518e-05 -3.7603168e-05 3.9197796e-05 3.846971e-05 4.8088496e-05 3.6159912e-05 4.2069343e-05 -4.5888042e-05
-4.431403e-05 5.5643945e-05 4.0214574e-05 5.983466e-05 4.0084666e-05 8.759332e-05 -3.335272e-05 5.0523056e-05
-6.4104766e-05 -3.7027126e-05 -3.847568e-05 -5.565612e-05 -0.000119835866 4.9298847e-05 6.315534e-05 -3.823561e-05
6.738079e-05 3.6954272e-05 9.7429845e-05 4.419063e-05 -4.262257e-05 7.0338945e-05 4.2255713e-05 -4.4626246e-05
-9.284128e-05 -0.0036512848 -9.139936e-05 -3.88974e-05 5.9292375e-05 -0.00010322314 4.8121132e-05 -6.052583e-05
4.392791e-05 8.871363e-05 -3.545276e-05 9.2105314e-05 -3.6733112e-05 -4.1012536e-05 3.1160806e-05 3.497499e-05
6.808074e-05 8.662527e-05 0.00013159493 -5.0244213e-05 0.00010744178 8.9302055e-05 9.1289236e-05 -5.4228993e-05
6.8388246e-05 8.5072905e-05 -2.3792973e-05 9.8442746e-05 -4.473837e-05 7.26053e-05 0.0032923226 -4.0620376e-05
4.224271e-05 9.1979244e-05 -8.215106e-05 3.3857323e-05 8.199869e-05 -3.6088655e-05 -4.1109684e-05 3.6655136e-05
00000000: 1ea1 b838 283e 25b8 8e11 b338 2256 7d38
00000010: 060b 2cb8 7495 61b8 645f c0b8 db9d 8538
00000020: 2dc7 36b8 2098 a338 58f2 b738 788d a238
00000030: b16d 19b8 de30 aeb8 ccb0 23b8 dc74 15b8
00000040: 122f bfb8 56c3 24b8 82f7 2538 8b10 6238
00000050: 4dcc 46b8 8e11 4238 beea b2b8 df99 07b8
00000060: 4461 86b8 93ab e338 9450 a1b8 2dc0 7138
00000070: b30a f8b8 5088 5f38 c999 15b8 6aab 6cb8
00000080: 8a5d d837 624e 53b9 6986 0cb9 9067 a138
00000090: 23a9 67bb 5203 96b8 3690 3738 8181 063b
000000a0: b293 3cb8 4b56 3138 6419 2fb8 7965 54b8
000000b0: 7cb7 ba38 f15e 3c38 1154 3ab8 7720 b738
000000c0: d502 4fb8 680a 54b8 1e19 2838 29b8 8a3b
000000d0: 1476 16b8 7b98 cb38 94e0 19b8 3066 f4b8
000000e0: 10c0 4f38 18b8 1db8 5068 2438 895a 2138
000000f0: a1b2 4938 69aa 1738 9d73 3038 e977 40b8
00000100: d4dd 39b8 3b63 6938 12ac 2838 faf6 7a38
00000110: 9520 2838 4eb2 b738 36e4 0bb8 b8e8 5338
00000120: fc6f 86b8 934d 1bb8 f260 21b8 4e70 69b8
00000130: 6450 fbb8 3cc6 4e38 4472 8438 2c5f 20b8
00000140: c94e 8d38 59ff 1a38 4053 cc38 5459 3938
00000150: a3c5 32b8 ef82 9338 ba3b 3138 112d 3bb8
00000160: c8b3 c2b8 654a 6fbb a8ad bfb8 c425 23b8
00000170: b4b0 7838 8079 d8b8 acd5 4938 1ddd 7db8
00000180: 3c3f 3838 c40b ba38 1cb3 14b8 aa28 c138
00000190: e111 1ab8 e004 2cb8 a9b2 0238 1cb2 1238
000001a0: 92c6 8e38 96aa b538 bffc 0939 50bd 52b8
000001b0: 5e52 e138 ad47 bb38 8972 bf38 f073 63b8
000001c0: a96b 8f38 2b69 b238 0597 c7b7 0c73 ce38
000001d0: 76a5 3bb8 ac43 9838 02c4 573b cc5f 2ab8
000001e0: c42d 3138 fbe4 c038 8448 acb8 0602 0e38
000001f0: b6f6 ab38 e65d 17b8 306d 2cb8 27be 1938

bn2.running_mean f4 [128]
-0.00076661847 -0.010164974 -0.0037745254 -0.009539971 -0.010085919 -0.0024124421 -0.010131843 -0.009779959
-0.010105276 -0.0013570811 -0.001225739 -0.009713919 -0.010083976 -0.002574975 -0.010199137 0.0076194745
-0.01027202 -0.010093236 0.00041709014 0.0004756621 0.008090887 0.0022754413 -0.01027569 0.0077872104
-0.0022270663 -0.0045942785 -0.010041906 -0.0012558685 -0.0026013607 -0.009850258 -0.010028469 -0.0025847415
-0.0012282836 0.00969899 -0.0025858264 -0.009741755 -0.012229401 -0.010065704 0.0019488811 -0.009034687
-0.009985324 0.0022642068 0.007501835 -0.010057383 -0.0010133045 0.0006244646 0.008183028 -0.009828397
-0.01007673 -0.010219254 0.000906159 0.009312407 -0.01010094 -0.00958642 0.0076819225 -0.01038949
0.0007144601 -0.010082864 0.0004913457 0.0011010115 -0.009881554 -0.0099578 -0.009836624 -0.010145944
0.0076116435 -0.0013915753 0.0011799647 -0.0097237285 0.00050531497 -0.009730809 -0.010351794 -0.00080996915
0.0077175684 0.0071246387 0.0077653066 -0.010095594 -0.0022953139 -0.009950491 -0.009864159 0.0076826564
-0.009667441 -0.009877821 -0.009609223 0.001309098 0.007758478 -0.009725608 0.002461668 0.007150037
-0.010350746 0.009512666 -0.010344312 0.0077635124 -0.009662772 -0.0024674586 -0.00057863846 0.007959122
0.0017840666 -0.0015938439 -0.0020803174 -0.0012010653 -0.0019875087 -0.010072408 -0.0099721905 -0.009807414
-0.0013553215 -0.009630137 -0.0010298177 0.008067822 -0.009720821 -0.0033256202 -0.0097372765 -0.0024514548
-0.0012433477 -0.0014329052 -0.010138273 -0.000998154 -0.00042333445 -0.00065884 -0.01013292 0.007755248
0.0024261826 -0.0011793361 -0.0022733374 0.0010202379 -0.0012602173 -0.010174104 -0.010134557 -0.009906824
00000000: e5f6 48ba fe8a 26bc 075e 77bb 8a4d 1cbc
00000010: 693f 25bc 101a 1ebb 0800 26bc 1f3c 20bc
00000020: 9990 25bc 16e0 b1ba faa8 a0ba 2127 1fbc
00000030: 4337 25bc e9c0 28bb 481a 27bc c9ac f93b
00000040: f94b 28bc 1a5e 25bc e4ac da39 4962 f939
00000050: a48f 043c 921f 153b 5e5b 28bc db2b ff3b
00000060: f9f3 11bb 9a8b 96bb ce86 24bc f49b a4ba
00000070: 977b 2abb fa62 21bc 734e 24bc c464 29bb
00000080: 5cfe a0ba 83e8 1e3c f876 29bb e29b 1fbc
00000090: d35d 48bc 9fea 24bc 9971 ff3a 3906 14bc
000000a0: 7c99 23bc 1663 143b f4d1 f53b b9c7 24bc
000000b0: dbd0 84ba 1cb3 233a 1b12 063c 4907 21bc
000000c0: de18 25bc a86e 27bc 4d8b 6d3a 1193 183c
000000d0: 6a7e 25bc 5c10 1dbc a3b8 fb3b ae38 2abc
000000e0: 9b4a 3b3a 9932 25bc a7cd 003a d14f 903a
000000f0: 3ee6 21bc 0a26 23bc cb29 21bc 2c3b 26bc
00000100: 186b f93b 8565 b6ba 0ca9 9a3a 4650 1fbc
00000110: 1d77 043a f96d 1fbc 929a 29bc 1c54 54ba
00000120: a8e3 fc3b cd75 e93b 1d74 fe3b fe67 25bc
00000130: fa6c 16bb 6207 23bc 489d 21bc cbbe fb3b
00000140: 3064 1ebc 96d6 21bc 0170 1dbc 0a96 ab3a
00000150: d53a fe3b 2858 1fbc f053 213b dc4a ea3b
00000160: 2d96 29bc 03db 1b3c 307b 29bc 1065 fe3b
00000170: 9a50 1ebc 16b5 21bb c5af 17ba fa66 023c
00000180: 57d7 e93a 87e8 d0ba ef55 08bb 106d 9dba
00000190: dd40 02bb be06 25bc 6662 23bc 47af 20bc
000001a0: 0ba5 b1ba b9c7 1dbc f3fa 86ba e62e 043c
000001b0: 1444 1fbc a6f2 59bb 1989 1fbc 96a8 20bb
000001c0: d3f7 a2ba 52d0 bbba 001b 26bc 7ed4 82ba
000001d0: fdf2 ddb9 01b6 2cba 8c04 26bc bc1f fe3b
000001e0: 9700 1f3b f493 9aba 46fc 14bb 81b9 853a
000001f0: e02d a5ba 49b1 26bc 6a0b 26bc 3b50 22bc

bn2.running_var f4 [128]
3.5793441e-06 1.9805413e-05 3.588827e-06 3.5679884e-06 1.9524421e-05 3.6666802e-06 3.655263e-06 3.6496538e-06
1.9929977e-05 3.5666587e-06 3.6365739e-06 3.623753e-06 1.9881512e-05 3.6088027e-06 2.0049483e-05 2.012231e-05
3.6239007e-06 3.6940285e-06 2.0060723e-05 1.9666577e-05 1.9839486e-05 1.9632631e-05 3.6588167e-06 1.969102e-05
3.6956449e-06 3.6225265e-06 3.6223582e-06 3.6683527e-06 3.6801073e-06 2.0139487e-05 1.9720846e-05 3.6416916e-06
3.6546448e-06 2.6162375e-06 3.6594179e-06 3.569853e-06 2.897568e-07 3.6778458e-06 1.997358e-05 7.605731e-08
1.9789446e-05 2.0162628e-05 1.9973682e-05 1.971248e-05 3.6513627e-06 2.0150394e-05 1.9877289e-05 3.6405306e-06
3.6566385e-06 2.0110589e-05 1.991372e-05 1.8960432e-07 1.969546e-05 3.6562974e-06 1.9764222e-05 3.7001341e-06
1.932385e-05 1.955894e-05 1.9616715e-05 2.0161482e-05 1.9886505e-05 1.9862895e-05 2.0120338e-05 1.9428762e-05
1.985555e-05 3.633901e-06 1.9806075e-05 3.646087e-06 1.974969e-05 3.611224e-06 1.8790899e-05 1.9485786e-05
1.9956882e-05 1.996426e-05 1.9728048e-05 1.9900095e-05 3.649431e-06 1.9662464e-05 3.6109418e-06 1.9895791e-05
3.5427222e-06 1.9776377e-05 3.6950698e-06 1.9955007e-05 1.9949955e-05 3.6520507e-06 1.9812262e-05 1.964291e-05
3.5706958e-06 1.541188e-07 3.7150535e-06 2.017691e-05 3.615109e-06 3.634807e-06 1.9792169e-05 2.0102803e-05
2.0145872e-05 3.6473948e-06 3.647622e-06 3.6157858e-06 3.6070135e-06 2.0091959e-05 2.0045456e-05 3.5911723e-06
3.6598158e-06 3.653946e-06 3.6435397e-06 2.0016747e-05 3.656456e-06 3.6171782e-06 3.6326965e-06 3.6549136e-06
3.6201375e-06 3.6209233e-06 3.5610808e-06 3.708205e-06 1.9456373e-05 3.5908104e-06 3.368417e-07 1.9665376e-05
1.9877081e-05 3.5705514e-06 3.5960584e-06 1.9683614e-05 3.5865166e-06 3.61956e-06 1.9687559e-05 1.9546545e-05
00000000: aa34 7036 cd23 a637 94d7 7036 9371 6f36
00000010: 60c8 a337 1611 7636 f14c 7536 93ec 7436
00000020: 4d2f a737 bb5a 6f36 dd0b 7436 9a2f 7336
00000030: 39c7 a637 c22e 7236 f02f a837 55cc a837
00000040: 2432 7336 ede6 7736 1348 a837 a7f9 a437
00000050: f96c a637 c1b0 a437 fe89 7536 252e a537
00000060: b202 7836 881a 7336 a417 7336 d22d 7636
00000070: c3f7 7636 38f1 a837 326e a537 c963 7436
00000080: 5242 7536 9e92 2f36 5294 7536 9c91 6f36
00000090: df8f 9b34 e9d0 7636 f08c a737 f354 a333
000000a0: 8301 a637 ea22 a937 288d a737 3a5c a537
000000b0: ef09 7536 a408 a937 27be a637 d74f 7436
000000c0: 9264 7536 29b3 a837 630c a737 0a96 4b34
000000d0: ae37 a537 b65e 7536 58cb a537 d24f 7836
000000e0: a719 a237 8112 a437 938e a437 7420 a937
000000f0: f2d1 a637 3e9f a637 19c8 a837 f3fa a237
00000100: 788f a637 f2dd 7336 3925 a637 4caf 7436
00000110: 23ac a537 5b58 7236 26a1 9d37 6875 a337
00000120: 1469 a737 ec78 a737 a97d a537 21ef a637
00000130: bfe8 7436 d2f0 a437 8253 7236 e3e5 a637
00000140: 81bf 6d36 72e5 a537 d1f8 7736 0d65 a737
00000150: 345a a737 c115 7536 8232 a637 d4c6 a437
00000160: 16a0 6f36 da7b 2534 2250 7936 9641 a937
00000170: 1a9b 7236 82ed 7336 5c07 a637 71a2 a837
00000180: eefe a837 c4c5 7436 abc9 7436 baa6 7236
00000190: 0510 7236 278b a837 4a27 a837 dfff 7036
000001a0: 289b 7536 5036 7536 8983 7436 a3e9 a737
000001b0: 7061 7536 a6be 7236 40c9 7336 f046 7536
000001c0: 7df1 7236 fdfe 7236 e7fa 6e36 7ada 7836
000001d0: 3e36 a337 a7f9 7036 2cd7 b434 13f7 a437
000001e0: b5bd a637 9b9d 6f36 d053 7136 3d1e a537
000001f0: e3af 7036 91e7 7236 b626 a537 e3f7 a337

fc3.weight f4 [1, 128]
0.01 -0.01 0.01 0.01 -0.01 0.01 0.01 0.01
-0.01 0.01 0.01 0.01 -0.01 0.01 -0.01 -0.01
0.01 0.01 -0.01 -0.01 -0.01 -0.01 0.01 -0.01
0.01 0.01 0.01 0.01 0.01 -0.01 -0.01 0.01
0.01 -0.01 0.01 0.01 0.0076820557 0.01 -0.01 -0.01
-0.01 -0.01 -0.01 -0.01 0.01 -0.01 -0.01 0.01
0.01 -0.01 -0.01 0.00836605 -0.01 0.01 -0.01 0.01
-0.01 -0.01 -0.01 -0.01 -0.01 -0.01 -0.01 -0.01
-0.01 0.01 -0.01 0.01 -0.01 0.01 -0.01 -0.01
-0.01 -0.01 -0.01 -0.01 0.01 -0.01 0.01 -0.01
0.01 -0.01 0.01 -0.01 -0.01 0.01 -0.01 -0.01
0.01 0.0086372215 0.01 -0.01 0.01 0.01 -0.01 -0.01
-0.01 0.01 0.01 0.01 0.01 -0.01 -0.01 0.01
0.01 0.01 0.01 -0.01 0.01 0.01 0.01 0.01
0.01 0.01 0.01 0.01 -0.01 0.01 0.0013659436 -0.01
-0.01 0.01 0.01 -0.01 0.01 0.01 -0.01 -0.01
00000000: 0ad7 233c 0ad7 23bc 0ad7 233c 0ad7 233c
00000010: 0ad7 23bc 0ad7 233c 0ad7 233c 0ad7 233c
00000020: 0ad7 23bc 0ad7 233c 0ad7 233c 0ad7 233c
00000030: 0ad7 23bc 0ad7 233c 0ad7 23bc 0ad7 23bc
00000040: 0ad7 233c 0ad7 233c 0ad7 23bc 0ad7 23bc
00000050: 0ad7 23bc 0ad7 23bc 0ad7 233c 0ad7 23bc
00000060: 0ad7 233c 0ad7 233c 0ad7 233c 0ad7 233c
00000070: 0ad7 233c 0ad7 23bc 0ad7 23bc 0ad7 233c
00000080: 0ad7 233c 0ad7 23bc 0ad7 233c 0ad7 233c
00000090: c1b9 fb3b 0ad7 233c 0ad7 23bc 0ad7 23bc
000000a0: 0ad7 23bc 0ad7 23bc 0ad7 23bc 0ad7 23bc
000000b0: 0ad7 233c 0ad7 23bc 0ad7 23bc 0ad7 233c
000000c0: 0ad7 233c 0ad7 23bc 0ad7 23bc c211 093c
000000d0: 0ad7 23bc 0ad7 233c 0ad7 23bc 0ad7 233c
000000e0: 0ad7 23bc 0ad7 23bc 0ad7 23bc 0ad7 23bc
000000f0: 0ad7 23bc 0ad7 23bc 0ad7 23bc 0ad7 23bc
00000100: 0ad7 23bc 0ad7 233c 0ad7 23bc 0ad7 233c
00000110: 0ad7 23bc 0ad7 233c 0ad7 23bc 0ad7 23bc
00000120: 0ad7 23bc 0ad7 23bc 0ad7 23bc 0ad7 23bc
00000130: 0ad7 233c 0ad7 23bc 0ad7 233c 0ad7 23bc
00000140: 0ad7 233c 0ad7 23bc 0ad7 233c 0ad7 23bc
00000150: 0ad7 23bc 0ad7 233c 0ad7 23bc 0ad7 23bc
00000160: 0ad7 233c 2283 0d3c 0ad7 233c 0ad7 23bc
00000170: 0ad7 233c 0ad7 233c 0ad7 23bc 0ad7 23bc
00000180: 0ad7 23bc 0ad7 233c 0ad7 233c 0ad7 233c
00000190: 0ad7 233c 0ad7 23bc 0ad7 23bc 0ad7 233c
000001a0: 0ad7 233c 0ad7 233c 0ad7 233c 0ad7 23bc
000001b0: 0ad7 233c 0ad7 233c 0ad7 233c 0ad7 233c
000001c0: 0ad7 233c 0ad7 233c 0ad7 233c 0ad7 233c
000001d0: 0ad7 23bc 0ad7 233c 7609 b33a 0ad7 23bc
000001e0: 0ad7 23bc 0ad7 233c 0ad7 233c 0ad7 23bc
000001f0: 0ad7 233c 0ad7 233c 0ad7 23bc 0ad7 23bc
