10_Models/Results_SiouxFalls/WGANBR_Congestion_generator_best.pth (torch, 198516 bytes, 20 tensors)

fc1.weight f4 [128, 51]
000000 cd 8a dd 3c 76 8f c3 bd 2d ce 72 bd 40 c2 6c bd
       0.027043724 -0.095488474 -0.059278656 -0.05780244
000010 2d d9 f2 bd ea 5f 74 bd 2b b9 c4 bd 67 6b 8c 3d
       -0.11857829 -0.059661783 -0.096056305 0.06856423
000020 8d fe 36 bb 0a 35 b6 bd 14 94 05 be 42 91 85 bd
       -0.002792272 -0.08896835 -0.13044769 -0.06521846
000030 4d 0d 47 bd 49 b7 ad 3d bf 38 ef 3c 14 2d 5c 3c
       -0.04859667 0.084822245 0.029201863 0.013438482
000040 f1 e9 26 bd 3b e9 08 3e d4 d9 86 bd a2 5d 1f 3b
       -0.040750448 0.1337022 -0.06584516 0.0024317284
000050 44 dd e0 bb 2d 49 80 bd 3c f1 4c 3d 03 4a c7 3d
       -0.0068623144 -0.06263957 0.050034747 0.097309135
000060 1f 98 e0 bd 5b 81 da 3c 7e b0 19 3d b7 b7 04 be
       -0.10966515 0.02667301 0.03752183 -0.12960707
000070 10 b3 c0 bd e6 53 04 bb 12 9a a9 bd 1d 77 f5 bd
       -0.094091535 -0.002019161 -0.0828134 -0.1198561
000080 09 46 06 ba ee 11 5e bd 0d 8b 93 3d 0c b4 a7 3d
       -0.00051221304 -0.054216318 0.07204256 0.08188638
000090 9c b8 4f bd 6f 4a e7 bd f3 69 0d bd 01 4c 91 bd
       -0.050713167 -0.11293494 -0.03452487 -0.07094575
0000a0 d2 26 06 3e e3 68 23 3d 44 20 f0 3c d7 a2 35 3d
       0.13100746 0.03989495 0.02931226 0.04434475
0000b0 4d fe 81 bb da 7a 06 bd 0d 6f 10 be 53 3b 88 3d
       -0.0039670826 -0.032832004 -0.14104863 0.0665194
0000c0 52 a7 af 3d 09 fe cd bc 31 cd 76 bc 47 df 2f 3d
       0.08576836 -0.025145547 -0.01506357 0.042937543
0000d0 c3 18 ca bc 9c 73 02 3e db e7 f4 3d 5f 82 ac 3d
       -0.02467001 0.12739414 0.119582854 0.08423304
0000e0 56 98 4f bd 33 a1 0a be 69 74 e7 3b b6 3e ec bd
       -0.05068239 -0.13538055 0.0070634377 -0.11535399
0000f0 99 75 7a bd cc d8 dc 3d d3 69 97 3c 0c b4 2c bd
       -0.061147306 0.10783538 0.018483078 -0.042163894
000100 ad a1 04 3e 5c 82 a7 bd 50 29 0b be 58 67 e8 bd
       0.129523 -0.08179161 -0.13589978 -0.11347836
000110 ae 36 04 3e df 90 d8 bd 49 d7 df bd 97 65 d8 3d
       0.12911484 -0.10574507 -0.10929734 0.10566252
000120 75 80 05 3d 8b 30 e3 bd 05 d0 98 bd 7b 90 a3 bd
       0.03259321 -0.11093243 -0.074615516 -0.07986542
000130 13 05 f1 3d 3d c3 67 3c 1f d4 c1 3d fe 22 8d 3d
       0.11768546 0.0141456695 0.09464287 0.0689144
000140 88 46 91 3c e6 e6 04 3e 34 f9 95 bc e9 4d 09 3d
       0.017733827 0.12978706 -0.018307306 0.033521567
000150 35 f5 51 3d 8c d2 e4 3d 38 f7 19 3e 82 6b b7 bc
       0.05125924 0.11172971 0.15035713 -0.02239013
000160 34 b0 08 3e 35 0f 47 3d 64 40 4b 3c 70 4b eb bc
       0.13348466 0.048598487 0.012405489 -0.028722495
000170 8c 5a d5 3b b4 c6 13 bb 16 13 b3 3d c0 20 d0 3c
       0.006511038 -0.0022548856 0.08743875 0.025406241
000180 c7 b9 67 3b ac 8a e6 bc 85 48 cf bd b5 42 f8 bd
       0.0035358535 -0.028142296 -0.10121254 -0.12122098
000190 34 17 da 3d a8 66 a9 3d e3 9d 80 3d 63 ae 0e be
       0.10648957 0.08271533 0.062801145 -0.13933711
0001a0 ac ab 37 bd 94 1a 9f 3d 06 f3 9b bd e6 0d cd 3d
       -0.044841453 0.07768741 -0.076147124 0.100124165
0001b0 38 ec 96 3d d3 e7 e8 bb 76 b1 a1 bc 9e ec ee bd
       0.07369274 -0.0071077137 -0.01973794 -0.11666225
0001c0 cb e4 0c bd 3e 5b 89 3d 02 e2 43 3d fd 01 50 bd
       -0.03439788 0.06706856 0.04782296 -0.050783146
0001d0 b4 c3 65 3d 23 24 0f bd fb 80 a2 bd a1 51 00 bc
       0.05609484 -0.034946572 -0.07934757 -0.007831962
0001e0 23 36 95 bd d8 39 4d 3d b1 5a b6 3d 76 01 0b 3e
       -0.072857164 0.050103992 0.08904017 0.13574776
0001f0 f2 28 f2 bd f3 90 42 3d 51 9e 0c be b7 bb 22 bc
       -0.11824216 0.047501516 -0.13732268 -0.00993245
000200 6d f6 0b be 70 06 69 3c 7a 30 22 3d bb 65 d5 bc
       -0.13668223 0.014222726 0.039597012 -0.026049485
000210 27 05 00 3e 85 59 9b bd 4d 97 05 bc 09 ff 70 3d
       0.12501965 -0.07585434 -0.008153749 0.05883697
000220 be 12 02 3e 27 47 19 bc 0a e3 eb bc 52 37 b2 3d
       0.12702462 -0.009355343 -0.028794784 0.08701958
000230 54 4e d8 3d f9 94 6e 3c ed b6 07 3e cb fc 07 be
       0.10561815 0.014561885 0.13253374 -0.13280027
000240 30 99 12 3d c0 95 a5 3d 5d 6b 2e 3d 80 53 4f 3d
       0.035790622 0.08085203 0.04258286 0.05061674
000250 f1 41 f4 bd 2e 5d 91 bd c7 08 05 3e db 97 eb 3c
       -0.1192664 -0.07097851 0.1299163 0.028758934
000260 5f 33 b5 3d 10 c8 3d 3d 12 ae d7 bd a0 9d cf bd
       0.08847689 0.046333373 -0.10531248 -0.101374865
000270 99 92 0c 3e f6 2d bc 3c 29 4c c7 bd 30 1b f2 bd
       0.13727798 0.022971135 -0.09731323 -0.11821592
000280 b2 80 0c 3e 0b 28 f5 bc 8f ee 00 bd 02 a2 04 3e
       0.13720968 -0.02992632 -0.031477507 0.12952426
000290 b8 3a 26 3d e3 ed ef 3d f4 b3 ed bd 9c 0e c1 bd
       0.040583342 0.11715295 -0.11606589 -0.09426615
0002a0 3f 32 ab bc 7b ae 07 3e 56 82 8d 3b 49 cd 0c 3e
       -0.020897983 0.13250153 0.004318516 0.13750185
0002b0 e5 12 06 be 64 b4 d1 3d 4b c7 f7 3d 2a e1 d9 3c
       -0.13093145 0.10239485 0.12098559 0.026596624
0002c0 45 3e ea 3b 11 73 3f 3c e6 cb 0d 3e 91 c3 4b 3d
       0.0071485364 0.011685149 0.13847312 0.049747054
0002d0 27 87 8a 3d 14 20 8e bd 9f 64 c5 bd e3 e7 83 bd
       0.067640595 -0.06939712 -0.096383326 -0.06440713
0002e0 ba cd bb 3d 76 79 61 3c 80 6d e1 3d 71 e0 d2 bd
       0.091700986 0.013761869 0.110072136 -0.10296715
0002f0 fa 48 e8 bd 76 31 8b bd f8 63 c0 bd 40 8e c5 bd
       -0.11342044 -0.06796543 -0.093940675 -0.09646273
000300 57 a2 05 be 0e a7 8d bd 1a f9 b2 3d f1 10 2a 3a
       -0.13050209 -0.06916629 0.087389186 0.000648751
000310 75 ab f6 bd 0c c4 00 be 33 78 8e 3d 09 0a ea 3d
       -0.120444216 -0.12574786 0.0695652 0.11427695
000320 48 0e d8 3d d0 55 d0 3d 19 ac 0b bd bd 02 19 3d
       0.10549599 0.101726174 -0.034099672 0.037356127
000330 1c c2 a0 3d aa 06 9b bc c5 d4 29 3d 46 fc f1 3d
       0.078495234 -0.018924076 0.04146268 0.118156955
000340 a6 d2 0a be 86 c5 fd bd 9f b6 3d bd 96 96 e1 3d
       -0.13556919 -0.1239119 -0.04631674 0.1101505
000350 61 90 bd 3d 69 8a 7d 3d 63 51 8d bc c3 5a ea 3d
       0.09256054 0.061899576 -0.017250722 0.11443093
000360 d1 19 c4 bd f1 47 4d 3d 50 b1 b0 3d 9b 43 a8 3d
       -0.095752366 0.050117437 0.0862757 0.0821602
000370 43 44 fb bd 53 fd fa 3d 21 a1 d1 3b 9d 79 86 bd
       -0.12268879 0.12255349 0.006397382 -0.06566165
000380 8b b5 2c 3d 31 b3 ff bd 73 6e b2 bd 1f 53 4e bd
       0.04216532 -0.1248535 -0.08712473 -0.05037224
000390 3d c7 de bd 9e 9b 86 bd 74 ee 06 be 0a cb 97 bd
       -0.108778454 -0.065726504 -0.131769 -0.074117735
0003a0 5a af 90 bd 08 ff 54 bd 6f 6a 84 bd ef ab bd bc
       -0.07064696 -0.05200103 -0.06465613 -0.023153273
0003b0 cb 92 08 be b9 dc 7d bc d2 30 68 bc f9 19 10 be
       -0.13337247 -0.015494519 -0.014171796 -0.14072408
0003c0 5e e7 fb bd 7d 14 ec 3d 07 6f b9 3d f8 a6 d1 3c
       -0.12299989 0.11527345 0.0905438 0.025592312
0003d0 73 0f a6 bc e3 dd 3d bc 1c 2e a2 3d 7e 74 e5 3d
       -0.020271039 -0.011588546 0.07918951 0.1120386
0003e0 b7 28 02 be ba ef 49 bb 55 dd e3 3d 4c 71 e0 bd
       -0.12710844 -0.0030813054 0.111262 -0.1095911
0003f0 38 27 88 bb 90 07 db bd b8 0a 08 be d8 78 06 3d
       -0.004155066 -0.10694802 -0.13285339 0.03283009

fc1.bias f4 [128]
000000 bd 95 4f 3d 4f cd 23 bd cf ef 91 bd 3e 1f f2 3c
       0.05067991 -0.03999072 -0.07125818 0.029555913
000010 8d a0 b4 3d 8c 15 a5 bd 54 2b 0a be 1a f3 06 3d
       0.08819685 -0.0806075 -0.13493091 0.032946683
000020 57 67 c0 3d dc 5a 93 3b 35 b4 3d 3d bf 7f 33 3d
       0.093947105 0.0044969153 0.046314437 0.043823
000030 58 79 7b 3d 47 85 1c 3d 4e 86 c3 bd e2 31 03 3c
       0.06139502 0.03821304 -0.09547101 0.008007498
000040 13 93 96 3d 11 96 42 bd 67 cd ea bd 22 81 ea 3d
       0.07352271 -0.047506396 -0.11464959 0.114504114
000050 41 c8 9a bd dd 47 00 be 03 2f 58 3d 82 2e c0 3d
       -0.07557727 -0.12527414 0.05277921 0.09383871
000060 c7 f7 fd 3d 12 08 6f 3c 9b 38 ee bd c9 9e 37 3b
       0.124007754 0.014589326 -0.116318904 0.0028018227
000070 83 11 05 3e b3 30 8f 3d 13 a2 89 bd c1 e0 e0 3d
       0.12994961 0.069917105 -0.06720366 0.109803684
000080 3f 6a 2d 3d 36 9f 09 3e d3 43 cf 3d 39 a0 3a 3d
       0.042337652 0.1343964 0.10120358 0.045562956
000090 73 bc 51 bc 06 90 86 bd b7 60 46 bd 39 43 d4 3d
       -0.012801277 -0.06570439 -0.04843208 0.10364384
0000a0 99 f3 fe 3d 64 ae da 3d da 25 c6 bc 8c a9 56 3d
       0.12448806 0.106777936 -0.02418797 0.052407786
0000b0 ac e0 e7 bd cc 73 15 bd 65 49 e7 bc 7c 32 f2 3d
       -0.1132215 -0.036487386 -0.02823324 0.118260354
0000c0 9f 31 aa bd 70 18 89 3d 98 0c 68 bd 56 d3 e9 bd
       -0.08310246 0.06694114 -0.056652635 -0.11417262
0000d0 d4 a3 dd 3d bc ef 16 3d 4d 77 90 bd 97 22 dd 3d
       0.10822263 0.036849722 -0.07054005 0.10797613
0000e0 09 ce bc bd 14 5b 0e be 7d c3 f3 bc fe 2a f5 bb
       -0.092189856 -0.13901931 -0.029756302 -0.0074819317
0000f0 b6 50 ee bb da e7 c0 bd 3d 7d 0c 3e be d4 e4 3c
       -0.007272805 -0.09419222 0.1371965 0.027933475
000100 77 65 0e bc 7e e6 d5 3d 3f 25 f7 bc 46 b8 a0 bd
       -0.008691183 0.104443535 -0.030169128 -0.07847647
000110 56 c4 3b bd f7 a7 b1 3d ce 43 e9 3d 9b e0 6b 3c
       -0.045841537 0.08674615 0.11389886 0.014396812
000120 16 87 07 3e 37 54 c8 bd 02 50 f8 bd b3 1e 6c 3d
       0.13235125 -0.09781688 -0.12124635 0.057646465
000130 84 92 8d 3d 73 2c 2d 3d 6d 24 93 bd 25 17 91 bc
       0.06912711 0.04227872 -0.07184682 -0.017711231
000140 83 f5 50 bd fd b0 05 bd fd 2e b8 bd 1e 1c 78 3d
       -0.05101539 -0.032639492 -0.08993337 0.06057369
000150 5f 6e 01 be 6a 90 03 3e 05 15 a0 3d 7c a7 55 3c
       -0.1263976 0.12848058 0.07816509 0.01304042
000160 45 c3 09 be 99 ce 7d 3b ba c9 05 be 69 ae 97 3d
       -0.13453396 0.0038727878 -0.13065234 0.07406313
000170 48 f1 a4 3c b2 9b 43 3c 52 5b 89 3c 77 e0 ca bd
       0.020134583 0.011938976 0.016767178 -0.099060945
000180 10 6e 8a 3d 2c 7a 0d 3e ea 26 66 3d 71 4a c9 bd
       0.06759274 0.13816136 0.056189455 -0.09828652
000190 66 46 c6 3d 3d ac 0e 3e bc 1f f5 bc 55 ee b5 3d
       0.09681396 0.13932891 -0.029922359 0.08883349
0001a0 0f 4e f9 3d e3 d2 4f 3d bf 4f 3a bd b1 b1 fb bc
       0.121730916 0.050738227 -0.045486208 -0.030724378
0001b0 00 d0 00 be 6f 8c f5 bd 80 45 81 bd f2 a2 f7 3d
       -0.12579346 -0.11989676 -0.06312084 0.12091626
0001c0 c8 f0 cb 3d 0e 61 de 3c d6 ac f7 3d 58 e3 f7 bd
       0.09958035 0.027145889 0.12093513 -0.12103909
0001d0 97 93 54 bd 91 b4 a7 3d 1a 46 8d 3d 9a c0 8d 3d
       -0.051898565 0.08188737 0.068981364 0.069215015
0001e0 9a 14 a8 3d eb a7 7d 3d 50 d9 03 3e e1 a3 f3 bd
       0.082070544 0.061927717 0.12875867 -0.11896492
0001f0 a6 fd 97 bd e6 03 cb 3b ce b5 b2 3d 79 57 9d 3d
       -0.074214265 0.006195533 0.08726083 0.076827

bn1.weight f4 [128]
000000 6a 0d 80 3f 54 46 7e 3f 00 65 7e 3f 6b 01 7f 3f
       1.0004094 0.9932606 0.99372864 0.9961154
000010 59 d9 7c 3f af 26 80 3f 5c 5b 7f 3f f9 34 80 3f
       0.98769146 1.0011805 0.9974878 1.0016166
000020 1b 81 7d 3f 73 f4 7c 3f 86 ce 80 3f 7b a3 7f 3f
       0.99025124 0.988105 1.0063026 0.99858826
000030 38 0b 81 3f b4 b9 80 3f 59 f2 7d 3f 01 27 7e 3f
       1.0081549 1.0056672 0.9919792 0.99278265
000040 0c ad 80 3f 73 f5 80 3f 55 6b 7f 3f c8 37 80 3f
       1.005281 1.0074905 0.9977315 1.0017023
000050 c6 c4 7f 3f 19 89 81 3f 1d 99 7e 3f ec b3 80 3f
       0.9990963 1.0119964 0.9945238 1.0054908
000060 0e bc 7e 3f 46 e8 80 3f 9d 79 7f 3f f8 70 80 3f
       0.995057 1.0070884 0.9979494 1.0034475
000070 b2 3f 80 3f 19 3d 81 3f b5 64 80 3f e0 2b 81 3f
       1.0019438 1.009677 1.0030733 1.0091515
000080 70 2d 80 3f 33 45 7e 3f f8 fa 80 3f c0 f4 81 3f
       1.0013866 0.9932434 1.007659 1.0152817
000090 6a 6e 7c 3f 89 b1 7f 3f 86 44 81 3f b7 87 7f 3f
       0.9860598 0.9988027 1.0099037 0.9981646
0000a0 42 34 7e 3f 05 4e 7e 3f 92 75 7f 3f dd f9 80 3f
       0.9929849 0.993378 0.99788773 1.0076252
0000b0 9a c1 7e 3f ae 39 7f 3f 31 1f 80 3f 7a b5 7c 3f
       0.9951416 0.9969739 1.0009519 0.9871441
0000c0 77 ab 7f 3f b5 be 7f 3f 49 bd 80 3f 51 da 81 3f
       0.9987101 0.9990037 1.0057765 1.014475
0000d0 c5 50 80 3f 28 71 80 3f ef 51 7f 3f 06 6c 80 3f
       1.0024649 1.0034533 0.99734396 1.0032966
0000e0 54 ce 80 3f ab 9c 7f 3f 79 f8 81 3f 5c b6 7f 3f
       1.0062966 0.9984843 1.0153953 0.99887633
0000f0 07 ea 81 3f b6 88 7e 3f 71 60 80 3f 87 ad 82 3f
       1.0149544 0.99427354 1.0029432 1.0209206
000100 11 23 82 3f b8 e6 7f 3f f8 b9 80 3f d4 5a 7f 3f
       1.0166951 0.99961424 1.0056753 0.9974797
000110 e9 f1 80 3f bc 0a 7c 3f 68 16 7d 3f dc 1f 7f 3f
       1.0073825 0.9845388 0.98862314 0.9965799
000120 20 5a 80 3f 07 cb 7b 3f d4 49 80 3f 6e 57 7f 3f
       1.0027504 0.9835667 1.002253 0.9974278
000130 9d 24 7e 3f f2 5e 82 3f 39 ab 7e 3f d1 1f 7f 3f
       0.9927462 1.0185225 0.99480015 0.99657923
000140 92 92 80 3f 9d ae 7f 3f 0e 2e 80 3f 1f dc 80 3f
       1.004473 0.99875814 1.0014055 1.0067176
000150 3c 27 80 3f d2 c4 80 3f 37 99 7f 3f 1f 9b 82 3f
       1.0011973 1.0060065 0.9984316 1.0203589
000160 7c bc 7f 3f 78 8b 7e 3f ba 9e 81 3f 9d 55 7f 3f
       0.9989698 0.9943156 1.0126565 0.9974001
000170 08 ef 7e 3f 56 ec 80 3f 42 f3 81 3f 30 28 7d 3f
       0.9958348 1.0072124 1.0152361 0.98889446
000180 2b d3 7f 3f c8 94 7c 3f 5c d0 80 3f 31 e9 7d 3f
       0.9993159 0.9866452 1.0063586 0.99183947
000190 e5 80 7e 3f 01 32 7e 3f 05 7a 7d 3f 16 7b 81 3f
       0.9941543 0.9929505 0.9901431 1.0115688
0001a0 87 7d 7d 3f 77 3c 7b 3f e8 9d 7f 3f 78 a0 81 3f
       0.99019665 0.9813914 0.9985032 1.0127096
0001b0 cc dd 80 3f a4 6f 7f 3f 8a cf 7e 3f 23 cc 7e 3f
       1.0067687 0.99779725 0.9953543 0.9953024
0001c0 77 0b 80 3f 9b 9b 7f 3f 9d 70 80 3f b4 ad 7e 3f
       1.0003499 0.9984681 1.0034367 0.994838
0001d0 cb 8c 7f 3f 6e 5c 7f 3f 0a 2b 7e 3f 13 30 7e 3f
       0.9982421 0.9975041 0.9928442 0.99292105
0001e0 3c 82 7d 3f a5 33 80 3f 70 0f 7f 3f 9f d3 7f 3f
       0.99026847 1.0015761 0.9963293 0.99932283
0001f0 d8 22 81 3f 9d 96 80 3f 45 fd 81 3f d0 06 80 3f
       1.0088758 1.0045964 1.0155417 1.0002079

bn1.bias f4 [128]
000000 cb 0d c5 3b 4b 25 59 39 5b 35 40 bc 2c da c1 3a
       0.006013607 0.00020708625 -0.011731471 0.0014789752
000010 af 65 33 bb 30 48 a8 3a 5d 9f 85 3b 53 e8 28 3b
       -0.002737384 0.0012838896 0.0040778355 0.0025773242
000020 a3 46 05 bc 57 b1 9e bb 80 7e db 38 b6 f7 26 3b
       -0.008134517 -0.004842918 0.00010466296 0.0025477237
000030 ca 10 dc 3b e7 f8 55 3b 85 73 27 bb a6 72 bf bb
       0.0067158686 0.0032649578 -0.0025551033 -0.0058425246
000040 0d 14 70 ba 38 e1 d1 3b 4d 0f 58 3c 3b 98 82 bb
       -0.0009158261 0.006405022 0.013187242 -0.0039854324
000050 2e 05 0b 3c da c6 d3 3b a9 68 24 3c 92 1c 63 3c
       0.008485122 0.006462914 0.010034719 0.013861792
000060 8b 86 87 3b 6c bd 34 3c 2a fd b9 bb 02 96 79 3c
       0.004135912 0.01103149 -0.0056759315 0.015233519
000070 1f dd b1 ba d9 c9 05 3d 3f 54 12 3b 20 57 c5 3b
       -0.0013569928 0.0326632 0.0022328047 0.006022349
000080 b5 1a 6a 3b 70 93 fe 3a 04 8a 9b 3c c3 ac 56 3c
       0.0035721485 0.0019422602 0.01898671 0.013102713
000090 9b 1f 4d bc 40 0f 07 3a 99 4c 27 3c 3b 9f 85 3b
       -0.012519742 0.0005152114 0.010211133 0.0040778196
0000a0 fe 1b 8c bb 05 8c b9 bb 3c ce 85 3a 1d 15 90 3c
       -0.004275798 -0.0056624436 0.0010208557 0.017588193
0000b0 46 fc 1e 3c fe 61 13 bc d7 91 f1 3b 46 59 24 3c
       0.009703701 -0.008995531 0.007372122 0.01003105
0000c0 f3 69 88 bb 28 1e 98 3b 2d 48 cf 3b 8e c3 5c 3a
       -0.0041630208 0.004642267 0.0063257427 0.0008421474
0000d0 26 d8 c7 3b 29 2c 02 3c 51 cf c1 3b b1 85 db 3b
       0.006098765 0.007945099 0.0059146066 0.006699287
0000e0 b2 34 07 bb fb 8d 2b 3b 2c bf 39 3a bf c5 75 bb
       -0.0020630774 0.0026177156 0.0007085677 -0.00375019
0000f0 3b 96 76 3c ea 43 b7 bb 1c 04 5c 39 c9 34 7f 3c
       0.015050466 -0.005592813 0.00020982366 0.01557655
000100 80 29 9c 3c 25 28 d1 bb 0b 07 55 bb 8a 98 39 bb
       0.019062757 -0.0063829594 -0.0032505419 -0.002831968
000110 d0 04 bd 3b ef 05 24 bc a8 05 7b bc 0b 5c 70 bb
       0.005768396 -0.01001118 -0.015321173 -0.0036675956
000120 f1 71 28 3c 91 59 49 bb 8b c0 be 38 a9 91 20 3c
       0.010281072 -0.0030723552 9.09577e-05 0.009800353
000130 71 89 1f 3b 3c 6d b3 3c d0 17 ce 3b 60 62 0b bc
       0.0024343396 0.021902673 0.0062894598 -0.008507341
000140 67 e4 c3 3c 6b ed bc bb 80 86 42 bb ef fc af 3b
       0.023912622 -0.005765607 -0.002968222 0.005370728
000150 b6 1c 4f 3b a4 62 9f 3a ff 81 03 bc 65 e2 74 3c
       0.0031602806 0.0012160135 -0.008026599 0.014946555
000160 d2 48 a5 3c 58 47 1c bb a2 35 bc 3b f7 2f 0a bc
       0.020176325 -0.0023846235 0.005743698 -0.008434287
000170 93 89 75 3b f0 32 f8 3b 5c 76 14 3c 0f 6e af 3b
       0.0037466034 0.0075744316 0.009061422 0.005353696
000180 82 3c a3 b9 1c 05 f8 3a 10 ce c2 3b eb 28 13 bc
       -0.00031134865 0.0018922421 0.0059449747 -0.008981924
000190 ed 67 5c bb f4 68 8e 3b 6c d6 91 3b dc d1 4c 3c
       -0.003363128 0.0043460075 0.00445061 0.012501206
0001a0 a5 99 0c bc 1c 29 09 bc 12 cf 82 ba cf f8 40 3c
       -0.008581554 -0.008371618 -0.0009979925 0.011778071
0001b0 e7 bc 0d 3c 0a 59 30 bc d5 ea 3c bb 2e f7 83 3b
       0.008650995 -0.010763416 -0.0028826494 0.004027269
0001c0 4a 8b 00 bc ae 33 4e b8 1b f2 cc 3b 67 b0 d4 3c
       -0.007845709 -4.9162358e-05 0.006254447 0.025963021
0001d0 43 c3 83 3b 19 8f 69 3c 67 0a ad 3a fe 1e 74 bb
       0.0040210797 0.014255309 0.0013201953 -0.0037249918
0001e0 81 64 f3 ba ab e9 33 3b 73 2d a9 3a e6 25 31 3b
       -0.0018569381 0.002745251 0.0012907222 0.0027030646
0001f0 bc 34 3c 3c f4 a5 fb 3b 47 b3 01 3c dc 49 98 3a
       0.011487182 0.0076796953 0.007916278 0.0011618691

bn1.running_mean f4 [128]
000000 d0 8d e2 c8 59 b4 ba 48 19 6e b7 48 9e c3 14 48
       -463982.5 382370.78 375664.78 152334.47
000010 4a c6 3e c9 2a b8 02 c9 0c 1c 19 c9 99 4f 2c 49
       -781412.6 -535426.6 -627136.75 705785.56
000020 28 21 15 c9 d6 0c a7 c8 da 1a 99 47 28 e1 d7 48
       -610834.5 -342118.7 78389.7 442121.25
000030 4a 61 22 49 a2 7b 6b c8 3c 46 6e 49 2e 54 42 c9
       665108.6 -241134.53 975971.75 -795970.9
000040 a3 7f 0a 49 6d b6 53 47 ea b4 02 49 cb 4f 13 c9
       567290.2 54198.426 535374.6 -603388.7
000050 fa 96 8f 48 90 fc 87 47 25 36 b0 c8 88 4a 32 c8
       294071.8 69625.125 -360881.16 -182570.12
000060 fb 2a 83 48 9d c4 32 48 f4 57 eb 46 4e f3 11 49
       268631.84 183058.45 30123.977 597812.9
000070 09 95 b5 48 74 ab a8 c7 46 43 39 c9 bc 2d 7a 48
       371880.28 -86358.91 -758836.4 256182.94
000080 bf c5 a3 48 6e 94 b5 c8 5a 70 36 c8 38 0b d2 48
       335405.97 -371875.44 -186817.4 430169.75
000090 61 c5 d1 c8 67 9f d8 48 45 66 07 49 83 91 62 48
       -429611.03 443643.22 554596.3 232006.05
0000a0 a2 68 e0 c8 83 7a 27 49 5e 4c 2d c7 7d 22 b6 c6
       -459589.06 685992.2 -44364.367 -23313.244
0000b0 96 18 98 48 3a 4b 1b c7 de ba 55 c7 64 b5 76 c7
       311492.7 -39755.227 -54714.867 -63157.39
0000c0 60 3d dc 48 02 25 bc 47 01 23 96 48 c5 16 53 47
       451051.0 96330.016 307480.03 54038.77
0000d0 20 7d f5 48 a8 9c 07 49 07 08 23 c9 59 c2 63 c8
       502761.0 555466.5 -667776.44 -233225.39
0000e0 10 e1 2a 47 35 6b e5 48 7a d4 cf 43 b4 74 52 49
       43745.062 469849.66 415.65997 862027.25
0000f0 28 f7 6a 48 14 52 e3 c8 94 54 fc 48 52 fb a1 48
       240604.62 -465552.62 516772.62 331738.56
000100 96 00 c2 48 c7 24 04 c9 18 93 37 c8 bd 61 b6 c8
       397316.7 -541260.44 -187980.38 -373517.9
000110 3d c7 de 48 de 0c 9e c8 7d aa ea c8 62 b5 a9 c8
       456249.9 -323686.94 -480595.9 -347563.06
000120 57 f0 da 47 72 e6 b1 46 47 14 e2 48 74 32 03 c9
       112096.68 22771.223 463010.22 -537383.25
000130 57 10 b5 47 2d 14 64 48 93 f4 93 48 0c 8f f3 c8
       92704.68 233552.7 303012.6 -498808.38
000140 fe ab c0 c7 17 17 87 c8 45 2b a7 c8 a1 fc 8b c8
       -98647.984 -276664.72 -342362.16 -286693.03
000150 8a e8 b7 c8 9c a9 a4 c8 db b8 e0 48 a1 1a 1f 48
       -376644.3 -337228.88 460230.84 162922.52
000160 11 12 9d 47 b4 d0 ef c8 9c 68 86 47 c7 4b b8 c8
       80420.13 -491141.62 68817.22 -377438.22
000170 30 ad 13 c9 be f7 c0 c8 00 e5 07 c8 3a a8 78 c8
       -604883.0 -395197.94 -139156.0 -254624.9
000180 e2 9e f0 48 56 8c e7 c8 78 4a 9f 45 de 0c e9 c8
       492791.06 -474210.7 5097.3086 -477286.94
000190 ff 19 07 c9 91 78 01 c8 d1 72 d3 c8 22 33 97 c8
       -553375.94 -132578.27 -433046.53 -309657.06
0001a0 61 c8 df 48 d3 45 8e c8 9a 48 a1 c8 87 4a dc 48
       458307.03 -291374.6 -330308.8 451156.22
0001b0 b7 67 55 c5 9c 16 0a c8 f7 a2 f0 c8 e1 20 62 c6
       -3414.4822 -141402.44 -492823.72 -14472.22
0001c0 97 9c 71 c8 15 a8 0f c9 1a ed bc c7 cc ac ab c8
       -247410.36 -588417.3 -96730.2 -351590.38
0001d0 35 b8 6a c8 80 3e b4 48 7f 34 57 c8 3c f4 f9 c7
       -240352.83 369140.0 -220369.98 -127976.47
0001e0 60 99 81 c8 72 a0 a2 48 a9 8c ca c8 b5 d3 b8 c8
       -265419.0 333059.56 -414821.28 -378525.66
0001f0 d2 a9 47 48 8e a9 77 c9 cb 3e dc 48 95 97 fb c7
       204455.28 -1.0144249e+06 451062.34 -128815.164

bn1.running_var f4 [128]
000000 f3 e6 ab 51 23 c7 36 51 bd ef fb 50 9b 3c 9f 50
       9.228926e+10 4.9064063e+10 3.3814342e+10 2.1372393e+10
000010 20 2d 16 52 5f 40 c6 51 8c 09 03 52 29 88 0d 52
       1.6125054e+11 1.0643544e+11 1.4070022e+11 1.519687e+11
000020 72 64 a5 51 16 ac 57 51 c1 0c 5a 50 37 ee 4f 51
       8.879435e+10 5.789407e+10 1.4633076e+10 5.5815926e+10
000030 67 60 00 52 80 fb 78 50 5e ce 80 52 f6 b5 0b 52
       1.378433e+11 1.6708927e+10 2.7660904e+11 1.5001331e+11
000040 6b 4e c7 51 f8 58 92 50 0c 88 99 51 c0 64 9d 51
       1.07001766e+11 1.9642434e+10 8.242656e+10 8.450002e+10
000050 5c 78 fd 50 55 75 12 50 f4 0e 90 51 f3 15 a8 50
       3.4020188e+10 9.828652e+09 7.734077e+10 2.2560086e+10
000060 3a 27 15 51 0f 1c b4 50 2c 02 83 50 07 33 16 52
       4.0038015e+10 2.4173902e+10 1.7583661e+10 1.612753e+11
000070 1b 8b 2f 51 46 8a ce 50 a0 2d 0e 52 66 a7 f5 50
       4.7122067e+10 2.7721347e+10 1.526627e+11 3.2971108e+10
000080 8d 83 0b 51 b4 95 37 51 e9 9d 12 51 c9 32 98 51
       3.745047e+10 4.9280664e+10 3.9357157e+10 8.171088e+10
000090 d9 87 31 51 7f ff 49 51 c9 16 bd 51 0d df 8f 50
       4.7655522e+10 5.4223434e+10 1.0151639e+11 1.9310078e+10
0000a0 0e a9 81 51 81 7d d2 51 02 0c 55 50 dd 48 62 50
       6.961088e+10 1.1300609e+11 1.4297336e+10 1.5185704e+10
0000b0 5c 79 07 51 30 93 bf 4f 46 d7 bf 4f d9 34 11 51
       3.636604e+10 6.4281887e+09 6.437113e+09 3.8978556e+10
0000c0 88 49 c4 51 66 e9 3d 50 e1 76 52 51 6a 96 79 50
       1.05380905e+11 1.2744759e+10 5.64961e+10 1.6749537e+10
0000d0 3a e4 82 51 bd f8 b2 51 e5 2c cf 51 34 fe 0b 51
       7.0271844e+10 9.6084664e+10 1.1122643e+11 3.757908e+10
0000e0 88 20 72 51 4c 08 58 51 7b bb 31 50 23 5d 26 52
       6.499549e+10 5.799076e+10 1.1927416e+10 1.7863179e+11
0000f0 14 6c d3 50 4a 78 41 51 5e df 92 51 9b 14 7b 51
       2.8376605e+10 5.1934175e+10 7.885159e+10 6.7398906e+10
000100 eb 77 8d 51 73 0a 33 52 0a 50 5b 51 30 fa 43 51
       7.5950285e+10 1.9224361e+11 5.887129e+10 5.2607255e+10
000110 2e 3d 9c 51 d5 9f 5a 51 8e 82 6c 51 34 67 00 51
       8.3880165e+10 5.8686525e+10 6.3487664e+10 3.4467955e+10
000120 c9 3f c1 4f 67 4f 5d 50 8c c4 91 51 2d be 02 52
       6.484366e+09 1.4851874e+10 7.825847e+10 1.403841e+11
000130 d6 71 f4 50 f0 2f d8 50 54 c5 a5 50 5d 7f 6d 51
       3.2808808e+10 2.9016162e+10 2.2249382e+10 6.3752753e+10
000140 d4 fa 4b 51 c2 2a ba 50 00 b1 33 51 32 e4 51 51
       5.475541e+10 2.4986915e+10 4.8235545e+10 5.634229e+10
000150 8b ad 6e 51 2f ba 2d 51 a0 c6 5c 51 d7 a7 e7 50
       6.406961e+10 4.663456e+10 5.9264074e+10 3.1092292e+10
000160 91 29 01 51 8f 3a d4 51 a5 a9 6f 50 98 a1 16 51
       3.467176e+10 1.1393944e+11 1.608349e+10 4.043476e+10
000170 06 0e b6 51 89 29 5e 51 3c 24 04 51 65 79 30 51
       9.7739915e+10 5.9636224e+10 3.5471475e+10 4.737193e+10
000180 21 a1 87 51 16 c9 89 51 38 7a 6f 50 78 78 9c 51
       7.2815485e+10 7.397302e+10 1.6071057e+10 8.40045e+10
000190 b3 e0 9a 51 8c 85 38 50 40 50 92 51 03 91 f8 50
       8.314935e+10 1.238304e+10 7.855145e+10 3.3362024e+10
0001a0 f2 45 3d 51 0f 95 18 51 70 2d f3 50 cb c0 89 51
       5.0807644e+10 4.095849e+10 3.263873e+10 7.395563e+10
0001b0 64 77 12 51 15 23 17 50 10 f4 5d 51 32 e2 62 50
       3.9316767e+10 1.0142635e+10 5.9580154e+10 1.5225899e+10
0001c0 fc dc 26 51 1f 20 1c 52 68 e0 ee 50 7c 67 46 51
       4.4792005e+10 1.6763845e+11 3.2061473e+10 5.325873e+10
0001d0 96 0a 6f 51 a9 e5 2c 51 01 4f ec 50 87 ec e7 50
       6.4167174e+10 4.6411715e+10 3.1716805e+10 3.1128304e+10
0001e0 92 d1 f9 50 56 88 05 51 b7 7a 59 51 1c 0e 28 51
       3.353009e+10 3.5844874e+10 5.837917e+10 4.511195e+10
0001f0 9e 5a f3 50 29 8b 79 52 d1 94 87 51 2c 68 dc 50
       3.2662417e+10 2.679454e+11 7.278966e+10 2.9582516e+10

fc2.weight f4 [128, 128]
000000 9e 52 9c 3c f6 66 2d 3d 4d fb d6 3c 2d e4 9b 3d
       0.019082364 0.04233452 0.026242876 0.076118805
000010 f4 d8 84 3d bc 6e 3e 3c 21 fe 22 ba 0a 39 18 bd
       0.06486693 0.011623081 -0.0006217678 -0.03716377
000020 cc 8a bf 3d 6f 23 3d bd af 3f 2c 3c ff 4b 91 3d
       0.09352645 -0.04617637 0.01051323 0.07094573
000030 21 e7 be 3c cb 68 b2 bd 25 93 55 3d 7a b0 4c bd
       0.02330357 -0.08711394 0.05214228 -0.04997299
000040 cc 72 9f 3c 12 9e c0 3d f0 3e a7 3c 29 66 da bb
       0.01946392 0.094051495 0.020415753 -0.0066650105
000050 d5 e7 14 3d b8 e6 25 bc 70 70 29 bc a7 6f b7 bc
       0.036353905 -0.010125808 -0.010341749 -0.022392107
000060 a0 33 45 3c 9b 3a cf bb 0b 19 3a bd 1b bf 3a bc
       0.012036234 -0.006324125 -0.04543404 -0.011398102
000070 6e 87 9b bd 0f 6f 23 3c 80 d9 53 bd f8 77 9d bd
       -0.075941905 0.009975209 -0.051721096 -0.07688898
000080 80 c3 78 bd e3 38 b8 3d 31 b2 1f bc 4e 30 ea 3a
       -0.06073332 0.08995225 -0.009747074 0.0017867179
000090 2d 58 29 bc 9f ba ae bd 4f 38 93 bd cd 78 8d 3c
       -0.010335964 -0.08531689 -0.071884744 0.017269516
0000a0 e4 d8 73 3d f7 e7 0c 3c ed 20 e6 3c bf 3d 53 3b
       0.059533015 0.008600227 0.028091872 0.0032232848
0000b0 b3 d2 22 bd f9 79 e3 bc 74 69 6e bc 08 a5 1a 3d
       -0.03975172 -0.027768122 -0.014551509 0.037755042
0000c0 a7 fe c5 bd 53 4a 3c 3d b8 f2 c0 bd 47 b7 3e 3d
       -0.09667712 0.04596932 -0.09421295 0.046561506
0000d0 99 c8 68 bd cd 64 3e bc 75 0f d2 3c 7d 79 3d bd
       -0.05683193 -0.0116207125 0.025642136 -0.04625844
0000e0 78 7a 8a bd 12 57 77 bc d7 1d 2c bd d8 28 a6 bd
       -0.0676164 -0.015096443 -0.042020645 -0.08113259
0000f0 5b fe f2 3c a3 6e 91 bd 4c 0e e2 3c 0e a6 35 bd
       0.029662302 -0.071011804 0.027594708 -0.044347815
000100 78 49 af 3d 5a bb 34 3d e6 bc 4a 3d 8d 52 e4 3c
       0.08558935 0.044123985 0.049496554 0.027871395
000110 95 97 4f bd 9d 35 62 bd 8f 6c 57 3d 4d 16 81 3d
       -0.05068167 -0.05522691 0.052593764 0.06303082
000120 c5 bf 82 bc 36 d0 14 3d cd 19 a1 3c 93 5d b3 3d
       -0.015960583 0.036331378 0.019665623 0.08758082
000130 58 43 84 bd a7 57 c3 bd a9 4f a6 bc b1 48 27 bd
       -0.06458157 -0.09538203 -0.020301657 -0.04084081
000140 da f7 82 3d 36 5d 2f bd 55 87 9a bd 8f 42 59 3d
       0.0639493 -0.042813502 -0.07545344 0.05304199
000150 22 d3 63 3d 83 4d 86 bd 96 82 9c 3c 58 d7 56 3d
       0.055621274 -0.06557753 0.019105237 0.05245146
000160 ec 64 e6 3c fc c1 16 bd 32 b9 2f bd 7e f8 3c bc
       0.028124295 -0.03680609 -0.042901225 -0.0115338545
000170 d6 4d 07 bd 90 d4 2d bd ae 98 bf 3d bf 9f c4 bc
       -0.033033215 -0.042439044 0.09355293 -0.024001954
000180 a4 2f 67 3d 35 d9 95 bd a6 05 62 3d 58 e6 6f 3d
       0.056441918 -0.073168196 0.055181168 0.058569282
000190 c4 eb a4 3c a2 e1 1c 3d d5 0d 06 3c 3a 2a a2 3d
       0.020131953 0.038301118 0.008182009 0.0791821
0001a0 97 13 e4 bc 7e a3 ff 3c d7 a6 7d bd 0c 1d 7d bd
       -0.027841372 0.031205889 -0.06192669 -0.06179528
0001b0 9b fc 97 3d e9 29 21 bc 65 16 7c bc a5 9a 10 3d
       0.074212275 -0.009836652 -0.015386199 0.03530373
0001c0 be d2 6c 3d 18 68 86 3c f7 e3 62 3d 1f 08 a0 3d
       0.057818167 0.016407058 0.055393185 0.07814049
0001d0 18 5e b4 3d 27 94 a0 bd cc 79 ae 39 84 6d a2 3d
       0.088070095 -0.07840758 0.00033278612 0.07931045
0001e0 ad 06 68 bd c4 bc ae bd 5e a7 4a 3d d7 fd a0 3d
       -0.05664699 -0.08532098 0.04947602 0.07860916
0001f0 d9 f9 f7 bc c5 f6 3a bd a8 8d 6a 3c 77 d9 d4 bc
       -0.030270504 -0.045645494 0.014316 -0.025982602
000200 6c b6 e3 ba 1e 3d 42 bd 03 3e 8e 3c c8 70 8b 3d
       -0.0017373092 -0.047421567 0.017363554 0.06808621
000210 dd 4d cb bb 22 34 83 bd ec c1 a4 3d 05 87 7b bc
       -0.0062043504 -0.06406428 0.080448 -0.015352015
000220 44 95 72 3c b3 1d 9b 3b e6 18 ae 3d 53 54 c4 bd
       0.0148060955 0.004733765 0.08500843 -0.09586396
000230 43 97 88 3d 74 ae 2d bc ab ca 5d 3d d4 bd 95 3c
       0.06669476 -0.010600675 0.054148357 0.018278994
000240 c2 44 00 3d 39 02 81 3d 07 e3 8a 3d 0b 44 a4 3d
       0.031315573 0.06299252 0.06781583 0.08020791
000250 05 71 c4 bd 6b 32 31 3d 7f 96 8c bd 1a 02 64 3b
       -0.09591869 0.043260973 -0.06864642 0.0034791292
000260 18 33 f9 bb ab 9c a7 bc b0 dd 6e bd 31 a1 9c 3d
       -0.007604968 -0.020460447 -0.058316886 0.07647932
000270 a3 d0 27 bd 6e 88 9f 3d 6e cb 6d bd f5 6e 31 3c
       -0.040970456 0.07789694 -0.058055334 0.010829677
000280 58 98 b0 bd a0 0a 6a bd ef 3d 8f 3d 4b d3 c1 3c
       -0.08622807 -0.05713904 0.06994235 0.023660323
000290 dd c0 06 3c db 2e 9c 3d 1e d3 99 3d 6b 76 71 3d
       0.008224693 0.076261245 0.075109705 0.058950823
0002a0 8d fc 61 bd 34 fa 81 3c d1 96 32 3d 14 fb b1 3d
       -0.05517249 0.015866376 0.04360086 0.086904675
0002b0 7a 66 44 bc 16 50 aa bd 94 00 c4 3c 13 c6 59 bc
       -0.011987323 -0.083160564 0.023926057 -0.0132918535
0002c0 f7 60 30 bd 0a d3 b4 3d 30 c1 6f 3c d4 da 0b 3a
       -0.043061223 0.08829315 0.014633462 0.0005335037
0002d0 fd b2 36 3d 66 de 8e bd 98 27 8e bb 66 74 61 3c
       0.04460429 -0.06976013 -0.004338216 0.013760662
0002e0 af 84 7b bd 05 3c 8b 3c c9 d0 04 3d 0a bc c5 bd
       -0.061405834 0.016996393 0.032425676 -0.09655006
0002f0 54 42 62 bc 7c a3 b7 bd aa 37 97 3d f9 df 8b bd
       -0.013809759 -0.08966729 0.07383664 -0.06829829
000300 1d 31 e4 bc 1a b1 6e 3d 83 25 8f 3d e1 9a 0f 3d
       -0.02785545 0.058274366 0.06989577 0.035059813
000310 5b 09 5a bd 1a 4e 92 bd 27 25 b9 bd 0f 88 84 3d
       -0.05323158 -0.07143803 -0.09040289 0.064712636
000320 b9 ad 66 3d 6a 5f 8f 3d 56 a2 99 3d 5c ed 2e 3d
       0.05631802 0.07000621 0.07501666 0.042706832
000330 eb 87 a2 3b a5 89 ac 3d 93 b3 38 3d e6 4d 74 3d
       0.0049600503 0.08424691 0.04509313 0.059644602
000340 47 ab 9c 3d 1f 5a 27 3d 63 4e 78 bd 82 f8 ab bd
       0.07649856 0.04085743 -0.06062163 -0.083970085
000350 1b f2 68 3d 9f 54 34 bd 52 3a dc bc d4 fb c1 3c
       0.056871515 -0.044026013 -0.026883278 0.023679651
000360 f8 50 43 3d 27 d1 73 3d 41 ad 2c bd f7 65 af bd
       0.04768464 0.059525635 -0.042157415 -0.0856437
000370 4b 4b 4b 3c ad ad c5 3c 73 3d 95 3d b2 d5 8c ba
       0.012408088 0.024130667 0.07287111 -0.0010744839
000380 60 07 c5 bd 42 e8 55 bd 7e 74 35 bd 55 db c3 3b
       -0.09620547 -0.05222345 -0.04430055 0.005977074
000390 6a b5 5b 3d 8f 96 a7 3d 62 98 97 3d 09 58 8f bd
       0.053639807 0.08183014 0.074021116 -0.06999213
0003a0 81 b3 57 bd 5d f6 3c 3d 6f 24 b4 bd f1 ec 90 bd
       -0.052661423 0.046133388 -0.08796012 -0.07076443
0003b0 23 2b ae bd 78 84 a3 3d 6f f1 92 3d 34 88 5c bc
       -0.085043214 0.07984251 0.07174956 -0.013460208
0003c0 0f bb 0b bd a7 95 9b 3c 6f bc 42 bd dd 95 89 bd
       -0.03411394 0.018992258 -0.047542986 -0.06718037
0003d0 0e df 9d 3d 28 35 b1 bd ad 0a 70 3d 33 6d 5d 3d
       0.0770856 -0.08652717 0.05860393 0.05405922
0003e0 02 32 3c 3d 54 c5 16 3d 97 31 e3 bc 4d 52 89 bc
       0.04594613 0.03680928 -0.027733607 -0.016762877
0003f0 64 12 1c 3b 07 42 9d 3c 41 c6 a3 bd 4e 0d fa 3c
       0.0023814673 0.019196523 -0.07996798 0.030523922

fc2.bias f4 [128]
000000 8e 9f 1e bc 0c da 56 3c 61 bf e5 bc 1b 14 0d 3d
       -0.0096815955 0.01311351 -0.028045358 0.034443002
000010 e4 5d b0 bd 21 e4 a4 bd b2 42 a4 3d 3e 91 88 bb
       -0.08611658 -0.08051325 0.080205336 -0.004167705
000020 30 0f 33 bd ad ff 9a 3d 62 e1 09 bd 84 c6 88 bd
       -0.043715656 0.075682975 -0.033662207 -0.06678489
000030 65 cc 20 bd 36 bf 5e 3d d2 0d 8f bd 1c d3 ab 3d
       -0.039257426 0.05438157 -0.06985058 0.08389875
000040 8e 20 1d bd 2c f6 93 3d df 11 95 bc db 52 46 3d
       -0.038361125 0.07224688 -0.018196998 0.04841886
000050 99 55 94 3d e8 5d 13 bc 37 73 97 bd 74 18 45 bd
       0.07242889 -0.008994557 -0.07395022 -0.048119023
000060 e6 43 a0 3d 9b d1 42 bd 21 fe 9b 3d ac f6 92 3c
       0.078254506 -0.047563177 0.076168306 0.017939888
000070 ff 86 ad b8 93 b0 47 3c cd 97 93 3d 26 22 f0 3b
       -8.274428e-05 0.012188095 0.07206688 0.0073282896
000080 a9 52 38 bc 8f 9f 25 3b c6 42 c5 bc 32 dc 5b bd
       -0.0112501765 0.0025272106 -0.024079692 -0.05367679
000090 14 43 59 3d 2e 28 81 3d 19 e9 95 bb 2d 83 ac 3d
       0.053042486 0.06306492 -0.0045749065 0.08423457
0000a0 01 5b b1 bc ed f8 29 3d 4b 67 79 3d 1e 30 bb 3c
       -0.02164984 0.04149716 0.060889523 0.022850093
0000b0 86 c6 8f 3d 6d ce bc 3b 1e 57 51 bd 7b df 62 bd
       0.07020287 0.0057619126 -0.051108472 -0.05538891
0000c0 91 0f 4b bc 8e 5e 86 bd c9 9a d9 bc 5d 64 ab ba
       -0.012393848 -0.065610036 -0.026563065 -0.0013076175
0000d0 32 20 80 3d fa ba 84 3d 5b 55 b3 bd 8e e7 33 3c
       0.06256141 0.064809754 -0.08756515 0.0109805
0000e0 e8 06 ad bd 17 fa 91 3c 6b 0f 32 3d 6d fd 6c 3c
       -0.08448583 0.017819447 0.043471735 0.014464718
0000f0 0f f8 83 3d b7 85 0b bc 2e 29 01 3c 85 d6 ea 3c
       0.06443798 -0.008515767 0.007883353 0.028666744
000100 25 8b 16 3b ed 35 ed 3c 2b 67 b1 3d 79 33 ca bc
       0.002297112 0.028956378 0.08662256 -0.024682747
000110 2a 8f 89 bd 88 cb 97 3c ee eb 73 3d e0 59 a2 3d
       -0.067167595 0.018529668 0.059551172 0.079272985
000120 d9 68 49 bd d6 ff 22 bd 8e 87 b2 ba b8 4b 4d bd
       -0.049172256 -0.039794765 -0.0013620721 -0.05012104
000130 69 a6 f2 bc 3f 3c f6 bc f6 45 ec 3b fa 06 91 bd
       -0.029620366 -0.030058024 0.0072104884 -0.07081409
000140 d6 51 39 3d 62 1f b1 bd a0 d5 9d 3d e6 e5 1f 3d
       0.04524406 -0.08648564 0.07706761 0.039037608
000150 9f e2 1a bd e2 bf 88 3c 6b 53 ad 3d 94 65 c6 bb
       -0.03781378 0.01669306 0.08463176 -0.0060545895
000160 15 59 39 3d 73 64 95 3d ce 38 4a 3d eb 50 81 3d
       0.04525097 0.0729455 0.04937058 0.06314262
000170 6b bb 91 3d 7f c6 9e bc 68 d5 bc bc 41 4a 82 bd
       0.07115825 -0.01938176 -0.023050979 -0.06361819
000180 1d 71 b5 bc 60 66 a8 3d af 3f 95 bd 17 42 77 bd
       -0.022148663 0.082226515 -0.07287537 -0.060365763
000190 c6 9c 85 bc 83 c7 8e bd 0d 7c 3a bd c4 1f 89 bd
       -0.016310107 -0.069716476 -0.04552846 -0.06695512
0001a0 9b c9 92 3d 92 93 42 bd 91 4e 92 bd ff 6b 2a 3d
       0.071673594 -0.047504015 -0.071438916 0.0416069
0001b0 a7 b1 6e 3d 76 b0 92 bd f6 1a 9d bd df 66 3c bd
       0.05827489 -0.071625635 -0.07671158 -0.045996543
0001c0 5a 24 55 3d 84 58 01 bd 1b 1a 36 3d 22 0f 3d bd
       0.05203662 -0.031578556 0.04445849 -0.04615701
0001d0 26 4c 8a bd 26 0d 0c 3d bb de a8 3d a6 64 01 3c
       -0.067528054 0.034192227 0.082456075 0.007897532
0001e0 3b d4 cd bc a5 ab 06 bd 4b 7b 23 bd b5 12 c8 bc
       -0.025125613 -0.032878537 -0.039912503 -0.024422983
0001f0 d4 1e 96 bd 71 e5 02 3d df ab 8d bd f9 7a 8c 3d
       -0.07330099 0.031957094 -0.069175474 0.06859393

bn2.weight f4 [128]
000000 97 3c 7d 3f 4f 28 7e 3f 8a 20 80 3f 6a 05 80 3f
       0.9892058 0.99280256 1.000993 1.0001652
000010 33 d5 7b 3f d0 19 80 3f 1c fb 82 3f 38 78 80 3f
       0.9837219 1.0007877 1.0232882 1.0036688
000020 13 8c 7c 3f e8 c9 7a 3f a8 28 80 3f d1 0d 81 3f
       0.98651236 0.97964334 1.0012407 1.0082341
000030 7e f4 80 3f 45 38 7c 3f f4 42 80 3f 56 a5 7e 3f
       1.0074613 0.9852336 1.0020432 0.9947103
000040 d6 02 7e 3f f5 cc 80 3f 07 4f 82 3f 19 fd 80 3f
       0.9922308 1.0062548 1.0180367 1.0077239
000050 38 f7 7d 3f 82 25 83 3f 27 a7 80 3f df d3 81 3f
       0.9920535 1.0245821 1.0051011 1.0142783
000060 46 78 7e 3f b8 39 7f 3f ac 78 81 3f ae 3a 7e 3f
       0.9940227 0.99697447 1.0114951 0.9930829
000070 42 9d 84 3f 24 97 80 3f 2e 08 80 3f c5 d7 7e 3f
       1.0360491 1.0046124 1.0002496 0.9954799
000080 57 15 7d 3f e7 2f 7f 3f fc c0 80 3f 45 80 80 3f
       0.98860687 0.9968247 1.0058894 1.0039145
000090 dd 42 80 3f a0 fb 7a 3f 77 5d 80 3f e0 42 81 3f
       1.0020405 0.980402 1.0028523 1.0098534
0000a0 60 b1 81 3f b9 92 7e 3f 55 bc 7e 3f f1 73 7c 3f
       1.0132256 0.9944263 0.9950612 0.9861441
0000b0 f7 84 7e 3f fa 01 7e 3f 89 d7 7a 3f c5 a0 7c 3f
       0.9942164 0.99221766 0.9798513 0.98682815
0000c0 d4 05 7c 3f f8 51 7e 3f 09 0b 7f 3f 4c cc 80 3f
       0.98446393 0.99343824 0.99626213 1.0062346
0000d0 35 7b 83 3f c8 74 7e 3f d8 3c 80 3f 24 e6 7c 3f
       1.0271975 0.99396944 1.0018568 0.98788667
0000e0 bb d5 7f 3f 49 2a 81 3f e7 bf 7f 3f 97 1a 82 3f
       0.999355 1.009103 0.99902195 1.0164365
0000f0 e7 d5 7f 3f dd 57 80 3f 78 f1 7d 3f 50 33 80 3f
       0.99935764 1.0026814 0.9919658 1.0015659
000100 31 ac 7f 3f 57 ad 7f 3f 88 d9 7c 3f 02 68 82 3f
       0.9987212 0.9987387 0.98769426 1.0187991
000110 09 6e 81 3f d7 57 80 3f 4c b0 82 3f de b5 7a 3f
       1.0111705 1.0026807 1.0210052 0.9793376
000120 b7 58 80 3f 67 1e 80 3f 53 72 80 3f b6 10 80 3f
       1.0027074 1.0009278 1.0034889 1.00051
000130 e6 4c 80 3f 9b 4b 7d 3f 10 0f 80 3f a6 c9 82 3f
       1.0023468 0.9894349 1.0004597 1.0217788
000140 c2 03 83 3f 00 12 80 3f da 68 7b 3f 89 f0 7c 3f
       1.0235522 1.0005493 0.98206866 0.9880453
000150 71 cd 7c 3f 42 c4 7f 3f 67 8c 7f 3f 13 b9 80 3f
       0.9875098 0.9990884 0.9982361 1.005648
000160 e2 26 80 3f 1f 71 7f 3f 69 6e 7f 3f b3 8d 7f 3f
       1.0011866 0.99781984 0.9977785 0.9982559
000170 a0 2e 7b 3f 38 1f 7e 3f 5e 10 7d 3f 5e 48 81 3f
       0.9811802 0.99266386 0.988531 1.010021
000180 59 00 7d 3f 66 90 7a 3f b9 85 80 3f 17 14 81 3f
       0.98828655 0.97876585 1.0040809 1.0084256
000190 be 88 7f 3f 74 48 80 3f c4 f0 80 3f 0d 1b 83 3f
       0.99818027 1.0022111 1.0073476 1.024263
0001a0 f5 6f 7f 3f 1e 0c 7e 3f 44 9e 7e 3f f8 fe 80 3f
       0.9978021 0.9923724 0.99460244 1.007781
0001b0 4b 37 82 3f 4e 2a 7f 3f ef 95 7f 3f b8 2f 7d 3f
       1.0173124 0.99673927 0.99838156 0.9890094
0001c0 95 de 80 3f 32 b6 7b 3f 27 59 81 3f e4 63 80 3f
       1.0067927 0.98324883 1.0105332 1.0030484
0001d0 0b 34 81 3f 9b 32 7e 3f 59 6a 7c 3f 3e d6 7f 3f
       1.0094007 0.9929597 0.98599774 0.9993628
0001e0 3c 5d 80 3f 91 70 82 3f 9e ce 75 3f f1 2e 80 3f
       1.0028453 1.0190603 0.960184 1.0014325
0001f0 5d 03 7f 3f f5 f2 7e 3f e6 25 80 3f 48 59 7e 3f
       0.99614507 0.99589473 1.0011566 0.9935498

bn2.bias f4 [128]
000000 23 c5 ef 3b 64 73 11 3c eb 64 6f 3a 47 a3 a9 bb
       0.0073172017 0.008877609 0.00091321644 -0.005176935
000010 09 fd d3 bb 8a a4 b3 3b e9 c4 fd 3c 53 4f 23 3b
       -0.006469373 0.005482261 0.030977683 0.0024919107
000020 81 df 7a 3b d8 aa 3f bc 0b 27 27 3b d5 8a 10 3a
       0.0038280191 -0.011698447 0.002550545 0.00055138516
000030 a1 5e ad 3b 1c b5 20 bc bb 4c 3f bb f6 c1 38 3b
       0.0052908217 -0.009808805 -0.0029190022 0.0028191782
000040 a9 42 16 bc c3 64 e0 3b c2 08 8b 3c f2 1f 97 3c
       -0.009171166 0.0068479492 0.01697195 0.01844785
000050 d0 02 9b bb 1d fe fa 3c f1 04 2d 3c f0 26 d7 3c
       -0.00473056 0.030638749 0.01056026 0.026263684
000060 b5 d0 df bb c5 2b 25 bc fe 49 6a 3c bf d9 bc 3b
       -0.0068302997 -0.010081236 0.014299868 0.005763262
000070 29 a0 9c 3c 9b bb c1 3b f5 0d 84 3b 4e 30 c0 38
       0.019119339 0.005912257 0.004029984 9.164271e-05
000080 1f 13 96 3c b3 6a 54 3c e5 88 2d 3c 03 82 44 3b
       0.018319665 0.012964892 0.01059172 0.002998472
000090 02 a3 fa 3b 26 17 b2 bc 7c 18 b3 3b 0b 91 95 3c
       0.0076488266 -0.021739554 0.0054655652 0.018257638
0000a0 93 20 54 3c 6c ab 2c 39 70 5e 95 3b db 62 8c bb
       0.012947219 0.00016467058 0.004558377 -0.0042842454
0000b0 96 0c ba bb e8 42 82 3c d2 ba 8a 3a 85 39 31 ba
       -0.00567777 0.015901044 0.0010584241 -0.0006760585
0000c0 ed b7 89 bb cb dd 71 bc e1 98 b1 ba 06 d9 c0 3b
       -0.004202834 -0.014762352 -0.001354959 0.005885246
0000d0 4e 8e 11 3d 74 5f 95 3a 2b 53 03 3d 0b 5b 8a bb
       0.035536103 0.0011396245 0.032061737 -0.004222279
0000e0 de fb 05 3b 88 20 be 3c fd bf 77 bb 55 d9 e7 3c
       0.0020444314 0.023208871 -0.0037803643 0.028301874
0000f0 3a 71 9f 3b 63 50 74 3c 8c 01 76 bc 7b f2 9e 3b
       0.0048657926 0.014911744 -0.015015017 0.0048506833
000100 27 61 e3 ba fe 99 e2 3b 26 1b fc ba fd 9b 86 3c
       -0.0017347679 0.00691533 -0.0019234165 0.016431803
000110 b9 8b 86 3c 57 31 0e 3c a4 03 8b 3c d4 7c ab ba
       0.016424047 0.008678756 0.01696951 -0.0013083466
000120 e0 90 64 3c f5 c0 1b 3b 42 48 28 3c 0c 4c 5d 3c
       0.0139505565 0.0023766134 0.010271134 0.0135069005
000130 cf 07 65 3c 6d 18 bc bb 74 01 8f 3b 27 76 87 3c
       0.0139789125 -0.0057402165 0.004364187 0.016535832
000140 8a 36 94 3c 36 7f 37 ba 4f a2 2b bc 0b ee 12 bc
       0.018092413 -0.0006999852 -0.010475709 -0.008967887
000150 7a e7 c0 3c be 20 0a 3b f5 38 2d 3c 06 45 eb ba
       0.023547877 0.0021076645 0.010572662 -0.0017949648
000160 b7 4c 26 3b 3a 51 05 3c c7 38 24 3a e8 19 18 3c
       0.0025375315 0.008137042 0.0006264564 0.00928352
000170 dc 9e 02 3c ec f6 fd bb 42 cc d0 39 00 f4 96 3c
       0.007972445 -0.0077503826 0.00039825035 0.018426895
000180 52 3f 11 bb 36 3d 16 bc 7f 9f d2 ba 61 bd a9 3c
       -0.0022162986 -0.009169867 -0.0016069262 0.020720186
000190 fb a4 60 3c 32 ae 06 3c cb db 3f 3c 80 ab a8 3c
       0.013711209 0.008220242 0.011710118 0.02058959
0001a0 b9 73 7d 3c ad b6 c5 3b 17 5d 74 3b 00 aa 7a 3c
       0.015469485 0.0060337395 0.0037286931 0.01529932
0001b0 40 15 b5 3c 47 24 ad 3a 5a d6 f9 3a cd db 87 bc
       0.02210486 0.0013209664 0.0019061074 -0.016584301
0001c0 6d d9 fa 3b 54 b1 af bc 43 2d b7 3c 09 f7 66 3b
       0.0076553137 -0.021446861 0.02236045 0.003524246
0001d0 2f fc 00 bb 79 41 4b 3c bd 99 5a bc 2c 4a 35 3c
       -0.0019681563 0.012405747 -0.013342318 0.011065047
0001e0 9b 8e 06 3c 44 3a 20 3c 15 fe b0 bc 71 3a 46 3c
       0.008212711 0.009779517 -0.02160553 0.012098894
0001f0 b3 c2 97 ba ff 40 5e 3b 7b 20 21 bb c7 22 a4 3b
       -0.0011578411 0.0033913252 -0.002458601 0.0050090286

bn2.running_mean f4 [128]
000000 db a2 34 3d 21 0b 8e 3e 21 b9 af bd 7c b5 e3 bc
       0.044100624 0.27742866 -0.085802324 -0.0277965
000010 ef 92 43 3c b0 d0 1a bf 15 6b f3 bd 86 3f 3d 3e
       0.011936887 -0.6047468 -0.11885659 0.18481264
000020 6e 88 75 3e 20 5f df bc 65 08 81 be a2 8f 0a be
       0.23977825 -0.027267039 -0.25201717 -0.13531354
000030 58 6d 87 3d e3 bf b0 3e 98 bf 8e be 20 7a 11 3e
       0.066126525 0.34521398 -0.2788055 0.14206743
000040 86 5d 2d 3b ea 3a 14 be 16 5b 16 bf b7 ad 42 3e
       0.002645345 -0.14475599 -0.58732736 0.1901158
000050 38 bd 40 be 5b 34 9d be 55 44 2a 3e a6 fb 9a 3b
       -0.18822181 -0.30704007 0.16627629 0.004729706
000060 36 63 bd 3e db 05 37 be 2e d4 3c 3e 7a c2 5a be
       0.36989754 -0.17873327 0.18440315 -0.2136325
000070 48 cd 91 3e be 2c 20 be 24 91 53 3c 75 f7 c5 be
       0.2847693 -0.15642068 0.012913022 -0.38665357
000080 20 90 97 be cf ab 79 3e fd c5 94 be 57 7d a9 be
       -0.29602146 0.24381946 -0.29057303 -0.3310344
000090 d9 c2 b5 be bc bd 22 be 30 a1 16 be 27 22 7b be
       -0.3550022 -0.1589269 -0.14709926 -0.24524747
0000a0 21 7a 3f 3e 74 85 ad be bf 28 a4 bd 77 a3 95 bd
       0.18698932 -0.3389088 -0.08015584 -0.07306569
0000b0 7f 8f 89 3e 55 5f 11 3e 6d 74 bf bd a7 0f c0 be
       0.2686729 0.14196523 -0.09348378 -0.37511942
0000c0 7b 78 e6 3e 5b f3 d1 be 86 0f 4d be dc 86 9e bd
       0.45013794 -0.41005978 -0.20025453 -0.07740566
0000d0 19 f7 15 3f 9c ef 97 3d c9 2b a1 be c1 22 5f 3e
       0.58580166 0.07418749 -0.31478718 0.21790601
0000e0 71 83 b2 3e 1b 45 0b bf b7 52 eb 3e ae 2f 2f bf
       0.34865907 -0.5440232 0.45961544 -0.6843213
0000f0 20 c0 ee be d2 8c cc 3e 27 10 a1 3d 1e 6b 28 be
       -0.46630955 0.39951187 0.07864409 -0.16447112
000100 45 4d 42 3d 0a ec bf 3d b1 1f 28 3e 0a dd d5 be
       0.04743697 0.09371193 0.1641834 -0.41770202
000110 dd 2f 22 bf c8 1b 6b be 83 eb b0 bd 61 83 19 be
       -0.63354284 -0.22959816 -0.0863867 -0.14991523
000120 6a 59 d1 bd 34 ab 8e 3e c6 e7 db be 7b dd b5 3e
       -0.102221325 0.27864993 -0.42950267 0.3552054
000130 c2 62 ed bc fd f8 fe bd 03 98 9f be 2b ef 83 3d
       -0.028977755 -0.124498345 -0.31170663 0.06442102
000140 40 78 d4 3d f3 36 31 be c3 61 a9 3d 50 c5 06 bd
       0.10374498 -0.17306118 0.082706 -0.032903016
000150 97 35 ad be 11 77 cb be 50 53 54 be 84 11 7e bd
       -0.33829948 -0.39739278 -0.20734906 -0.062028423
000160 e7 91 dc 3c 1f c2 bb 3e 5b 3f e0 3e b8 44 41 be
       0.02692504 0.3667154 0.43798336 -0.1887387
000170 e3 38 b8 bc 9f f1 76 3e 5c 36 5a be 0f 32 94 be
       -0.022488063 0.24115609 -0.21309799 -0.28944442
000180 c2 7c b6 bd 97 7b f3 3d 89 5b 8f be b1 ba 8e be
       -0.089105144 0.11888807 -0.27999523 -0.2787681
000190 8f b2 2b be 89 75 49 be 51 5e 0b bf f8 bd 4e be
       -0.16767333 -0.19673742 -0.5444079 -0.20189655
0001a0 98 74 fd bc ce 96 43 be 04 72 35 be eb 50 f9 3c
       -0.030939385 -0.19100496 -0.17719275 0.030434093
0001b0 ea 25 64 bb 18 fb 94 bd 57 f1 5c bd 9f 5a 71 bd
       -0.0034812638 -0.07274455 -0.053941097 -0.058924314
0001c0 62 53 b5 bb f1 47 fb 3e 9e 09 95 bc 34 e7 b5 3d
       -0.0055336216 0.49078324 -0.018193062 0.08881989
0001d0 25 f8 52 3e a9 4e d6 3c 77 5a 2b bc e3 1a 9f bd
       0.20602472 0.026160555 -0.01045858 -0.077688
0001e0 07 cb 5b be b7 b9 a3 be 6d 2f a6 bc ae a8 85 3d
       -0.21464168 -0.31977627 -0.020286286 0.06526314
0001f0 c8 0e 69 3e 33 49 24 3e 7b e6 94 be ab bf a3 3d
       0.22759545 0.16043548 -0.29082093 0.07995542

bn2.running_var f4 [128]
000000 45 22 b7 3e f7 ec f2 3d f1 77 b6 3e be 56 2e 3e
       0.35768333 0.11861604 0.35638383 0.17025277
000010 09 32 80 3d 4c 5a 50 3d 34 36 b9 3d 13 4e ac 3e
       0.062595434 0.050867364 0.090435416 0.33653316
000020 66 85 5f 3e ad 59 3d 3e c1 9b 4d 3e e3 41 e2 3d
       0.21828231 0.1849124 0.20078947 0.11047723
000030 9c d4 93 3d 70 d5 12 3e e5 91 88 3e b0 f1 64 3e
       0.072182864 0.14339232 0.2667381 0.22357821
000040 51 cc d2 3d fe 01 9d 3e 8f ee f9 3e aa c2 e2 3d
       0.102928765 0.30665582 0.48814818 0.110722855
000050 cd c5 c6 3d f5 8f 27 3e fe d5 23 3e 1f c2 7f 3e
       0.09705696 0.16363509 0.159996 0.24976395
000060 41 b0 5f 3d b1 a1 05 3f 5f 5f 1b 3e a5 e2 87 3d
       0.05461145 0.52199847 0.151731 0.06635026
000070 d7 8f d0 3c fc b7 f8 3d a0 a0 c0 3d 0a b2 49 3e
       0.025459213 0.12144467 0.09405637 0.19696823
000080 c5 e0 5e 3e bb f9 52 3e 1d 03 07 3e c9 ed e2 3d
       0.2176543 0.20603077 0.13184781 0.1108051
000090 7c 97 85 3e 87 33 97 3e bc 7b a6 3d 56 4c ae 3d
       0.26092136 0.295315 0.08129069 0.08510654
0000a0 4f 74 38 3e 43 2d 13 3d c7 88 ca 3e fd 03 2e 3e
       0.18013118 0.035931837 0.39557478 0.16993709
0000b0 fc ee db 3e 08 cd 55 3e 76 16 c5 3d 57 8d 82 3e
       0.42955768 0.20878994 0.09623425 0.2549846
0000c0 b9 47 6f 3e eb 14 79 3d 83 f5 b3 3e 9f 06 83 3e
       0.23367204 0.060810965 0.35148248 0.2559099
0000d0 a2 bf 9e 3d 60 4e f2 3d 87 be 96 3e 83 82 2d 3e
       0.07751395 0.11831355 0.29442236 0.16944318
0000e0 47 e2 7f 3e 49 f0 d9 3e d2 bb f3 3d a8 0f 00 3e
       0.24988662 0.42566136 0.11901058 0.12505972
0000f0 78 85 11 3d 54 e2 54 3e 7f f3 17 3e 7b aa 03 3f
       0.035527676 0.20789462 0.1483898 0.5143201
000100 a5 84 6c 3d 7d 5c d7 3d e8 80 0e 3e 63 b3 c3 3d
       0.057743687 0.105156876 0.13916361 0.095557
000110 5f 83 31 3e 3d 44 f9 3d 8e 7e b1 3e 67 bc 92 3d
       0.1733527 0.121712185 0.34666866 0.07164841
000120 ef 0e db 3d b7 b8 8c 3d af ac 5d 3e d0 58 b6 3d
       0.10696208 0.06871169 0.21647905 0.089036584
000130 57 1c 59 3e 10 fe 7d 3d 3f dc 89 3d f8 0e 82 3d
       0.21202217 0.06200987 0.06731462 0.06350511
000140 5a 59 73 3e 03 2a 2b 3e 6f df f4 3d 13 88 48 3d
       0.23764554 0.16715245 0.11956679 0.048957895
000150 e0 ae d2 3d b0 e6 ff 3e d0 76 23 3e d7 7a 08 3f
       0.10287261 0.49980688 0.15963292 0.5331244
000160 ab 12 64 3e 4c f5 4a 3e 83 73 44 3e 61 40 1f 3e
       0.22272746 0.19820136 0.19184689 0.15551902
000170 ca 28 a0 3d b5 33 be 3e 83 df 16 3e 60 68 1a 3f
       0.0782028 0.37148824 0.147337 0.60315514
000180 1e 8f fe 3d cc 55 87 3d 3c 4a 21 3e b8 1a 92 3e
       0.12429641 0.06608161 0.15750974 0.2853601
000190 7b fa a2 3d 0b 37 7b 3d 5a 83 3a 3d 52 42 84 3e
       0.079579316 0.06133179 0.045535423 0.25831848
0001a0 9b a3 ec 3d 71 96 e7 3e 66 31 8a 3d db f7 b1 3d
       0.11554643 0.45231965 0.06747703 0.08689853
0001b0 61 6c c0 3e e1 0a 09 3e f0 c1 d8 3d 7d a4 29 3e
       0.37582687 0.13383056 0.10583866 0.16566654
0001c0 50 85 1e 3e 4d f6 07 3f 08 d1 92 3d b4 3d 2a 3e
       0.15480542 0.531102 0.07168776 0.166251
0001d0 f9 9f d7 3d 34 e8 ad 3d 83 34 4f 3e ce 23 80 3e
       0.10528559 0.08491555 0.20234875 0.25027317
0001e0 46 11 ce 3e cb 49 7f 3d 94 04 13 3e 51 01 04 3e
       0.40247554 0.062326234 0.14357215 0.12891127
0001f0 c1 ac 84 3d bb 3b f5 3e 31 c0 1d 3e e0 23 2c 3e
       0.06478263 0.47897133 0.15405346 0.1681056
