10_Models/Results_SiouxFalls/WGAN_Congestion_discriminator_best.pth (torch, 78018 bytes, 13 tensors)

fc1.weight f4 [128, 2]
00000000: 0ad7 23bc d6f2 6b3a 0ad7 233c 4f77 86ba
00000010: 2680 983a 0ad7 233c 0ad7 23bc 1c41 87ba
00000020: 0ad7 233c efec 853a 0ad7 233c 8d46 86ba
00000030: 56b2 ce3b 6581 f63b 0ad7 23bc 9af4 86ba
00000040: 0ad7 233c b90f 80ba 0ad7 233c b655 853a
00000050: 0ad7 233c caa1 84ba 0ad7 233c 9ce0 853a
00000060: 0ad7 233c b6fa 84ba 0ad7 23bc de89 763a
00000070: 0ad7 23bc b66f 6f3a 0ad7 233c b4e8 81ba
00000080: 0ad7 233c ebe8 85ba 0ad7 233c e9bd 86ba
00000090: 0ad7 23bc a213 6f3a 0ad7 23bc 8852 87ba
000000a0: 0ad7 233c feb1 85ba 0ad7 233c c91a 6cba
000000b0: 0ad7 233c 5b47 7fba 0ad7 233c 3ad8 813a
000000c0: 0ad7 233c 86e0 84ba 0ad7 23bc d949 87ba
000000d0: 0ad7 233c 741b 893a 0ad7 23bc b950 653a
000000e0: 0ad7 23bc eadf 683a 0ad7 233c 4591 85ba
000000f0: 0ad7 23bc 1b41 87ba 0ad7 23bc e085 6a3a
00000100: 0ad7 233c c9d0 83ba 0ad7 233c cb91 863a
00000110: 0ad7 23bc 672f 87ba 0ad7 23bc 9cfe 6b3a
00000120: 0ad7 233c 4292 85ba 0ad7 23bc cf33 87ba
00000130: 0ad7 233c 875c 81ba 0ad7 233c 6f88 82ba
00000140: 0ad7 23bc 8e49 683a 0ad7 233c 1a95 84ba
00000150: 0ad7 23bc cf52 573a 0ad7 233c b0ce 863a
00000160: 0ad7 23bc 2db0 703a 0ad7 23bc 7f67 703a
00000170: 0ad7 23bc 6327 713a 0ad7 233c 79ac 86ba
00000180: 0ad7 23bc 3a9e 6b3a 0ad7 233c 9c9f 813a
00000190: 0ad7 233c 99be 863a 0ad7 233c a2ee 81ba
000001a0: 0ad7 233c 725d 85ba 0ad7 233c e2d7 84ba
000001b0: b069 b43a 0ad7 233c 0ad7 233c b5ff 84ba
000001c0: 0ad7 23bc deff 6f3a b317 22bc ea94 573b
000001d0: 9974 94ba e251 223c 0ad7 23bc b6fa 673a
000001e0: 78cf 0a3b 0ad7 233c 0ad7 233c 41f1 863a
000001f0: 0ad7 233c b34f 86ba 0ad7 233c 9b9f 813a
00000200: 0ad7 23bc 0c9b 5c3a 0ad7 233c ddc9 85ba
00000210: 0ad7 233c d719 86ba 0ad7 233c 9d9f 813a
00000220: 0ad7 233c 309c 78ba 0ad7 233c 3aea 853a
00000230: 0ad7 23bc ca32 6a3a 0ad7 233c b3c5 863a
00000240: 0ad7 233c 8132 85ba 0ad7 23bc b3f4 6a3a
00000250: 0ad7 233c 87e0 853a 0ad7 233c 1407 85ba
00000260: b517 22bc 9a96 573b 0ad7 233c 2f9c 863a
00000270: 0ad7 233c 37a3 84ba 0ad7 233c 9c54 80ba
00000280: 0ad7 23bc 1a41 87ba 0ad7 233c 164a 85ba
00000290: 0ad7 23bc 9203 603a 0ad7 233c 5be1 853a
000002a0: 0ad7 23bc 73e7 633a 0ad7 233c 6b68 853a
000002b0: 0ad7 233c 1cbf 863a 0ad7 23bc 29ac 6c3a
000002c0: 0ad7 23bc 0197 6a3a 0ad7 233c 9a9f 813a
000002d0: 0ad7 233c 49f4 863a 0ad7 233c bf4c 863a
000002e0: 0ad7 23bc 7680 5f3a 0ad7 233c 2f36 863a
000002f0: 0ad7 233c 9a9f 813a 0ad7 233c caa9 85ba
00000300: 0ad7 23bc b5d5 87ba 0ad7 23bc 4e1e 703a
00000310: 0ad7 23bc f42d 703a 0ad7 233c b67a 86ba
00000320: 0ad7 233c 3520 893a 0ad7 23bc 01b4 6d3a
00000330: 0ad7 23bc 3711 623a 0ad7 233c 8b8d 863a
00000340: 0ad7 233c 655e 853a 0ad7 23bc d949 87ba
00000350: 0ad7 233c c4eb 84ba 0ad7 233c 9a9f 813a
00000360: 0ad7 233c 9b9f 813a 0ad7 233c 9c9f 813a
00000370: 0ad7 233c 9b9f 813a 0ad7 233c 3236 863a
00000380: 0ad7 23bc add9 87ba 7c78 a43a 0ad7 233c
00000390: 0ad7 233c 89c7 85ba 0ad7 233c 9c9f 813a
000003a0: 0ad7 233c 714d 863a 0ad7 233c 008d 863a
000003b0: 0ad7 233c de46 84ba 0ad7 233c 652c 863a
000003c0: 0ad7 23bc 1c41 87ba 0ad7 23bc 2705 6f3a
000003d0: 0ad7 233c 28bf 85ba 0ad7 233c a4a0 813a
000003e0: 0ad7 23bc b5d5 87ba 0ad7 23bc 0ba9 723a
000003f0: 0ad7 23bc b434 693a 0ad7 23bc 7399 6c3a
-0.01 0.0009000724 0.01 -0.0010258945 0.0011634871 0.01 -0.01 -0.0010319087
0.01 0.0010217706 0.01 -0.0010244414 0.0063078804 0.0075227492 -0.01 -0.0010296286
0.01 -0.0009770311 0.01 0.0010172639 0.01 -0.0010119018 0.01 0.0010214034
0.01 -0.0010145518 -0.01 0.0009404699 -0.01 0.00091337727 0.01 -0.000991127
0.01 -0.001021651 0.01 -0.0010279986 -0.01 0.0009120052 -0.01 -0.0010324279
0.01 -0.001020014 0.01 -0.0009006677 0.01 -0.0009738111 0.01 0.000990636
0.01 -0.0010137714 -0.01 -0.0010321691 0.01 0.0010460452 -0.01 0.00087476854
-0.01 0.00088834635 0.01 -0.0010190388 -0.01 -0.0010319086 -0.01 0.00089463405
0.01 -0.001005673 0.01 0.0010266838 -0.01 -0.001031381 -0.01 0.00090024783
0.01 -0.0010190683 -0.01 -0.0010315123 0.01 -0.0009869494 0.01 -0.0009958873
-0.01 0.0008861058 0.01 -0.0010115237 -0.01 0.00082139386 0.01 0.0010284986
-0.01 0.00091815257 -0.01 0.00091706956 -0.01 0.00091992895 0.01 -0.001027479
-0.01 0.0008988116 0.01 0.0009889486 0.01 0.0010280191 0.01 -0.0009913037
0.01 -0.0010174944 0.01 -0.0010135139 0.0013764407 0.01 0.01 -0.0010147007
-0.01 0.00091552536 -0.009893346 0.0032895156 -0.0011326253 0.009907218 -0.01 0.00088493095
0.002118079 0.01 0.01 0.0010295288 0.01 -0.0010247141 0.01 0.0009889485
-0.01 0.0008415438 0.01 -0.0010207255 0.01 -0.001023109 0.01 0.0009889487
0.01 -0.0009483723 0.01 0.00102169 -0.01 0.000893396 0.01 0.0010282308
0.01 -0.0010162146 -0.01 0.00089628546 0.01 0.0010214009 0.01 -0.0010149204
-0.0098933475 0.0032896162 0.01 0.0010269935 0.01 -0.0010119443 0.01 -0.000979084
-0.01 -0.0010319084 0.01 -0.0010169174 -0.01 0.0008545454 0.01 0.0010214256
-0.01 0.00086938514 0.01 0.0010178214 0.01 0.0010280344 -0.01 0.00090283394
-0.01 0.0008948893 0.01 0.0009889484 0.01 0.0010296191 0.01 0.0010246261
-0.01 0.0008525917 0.01 0.0010239537 0.01 0.0009889484 0.01 -0.0010197696
-0.01 -0.0010363372 -0.01 0.0009159789 -0.01 0.0009162121 0.01 -0.0010259959
0.01 0.0010461869 -0.01 0.0009067655 -0.01 0.0008623781 0.01 0.0010265572
0.01 0.0010175226 -0.01 -0.0010321691 0.01 -0.0010141064 0.01 0.0009889484
0.01 0.0009889485 0.01 0.0009889486 0.01 0.0009889485 0.01 0.001023954
-0.01 -0.0010364555 0.0012548114 0.01 0.01 -0.0010206561 0.01 0.0009889486
0.01 0.0010246468 0.01 0.001026541 0.01 -0.0010091921 0.01 0.0010236619
-0.01 -0.0010319087 -0.01 0.0009117894 0.01 -0.0010204064 0.01 0.0009889794
-0.01 -0.0010363372 -0.01 0.0009256757 -0.01 0.0008896098 -0.01 0.0009025551

fc1.bias f4 [128]
00000000: 3f4d 203c aebc 22bc 4090 233c a75f 233c
00000010: 2564 233c c556 22bc 4795 233c 3b9e 1ebc
00000020: 9a2c 233c 1b5c 233c c4c9 23bc 65b8 22bc
00000030: df73 23bc a721 203c 9b90 21bc 0c70 23bc
00000040: 454f 233c d6e8 20bc cd40 22bc d596 23bc
00000050: 329a 233c b0f2 223c d080 22bc bd4c 213c
00000060: 359f 223c a866 23bc 9f11 233c 4142 223c
00000070: 820c 1f3c 1670 233c bd33 20bc 667a 233c
00000080: eb22 233c f7c4 223c 38c2 22bc 5e3a 223c
00000090: fd71 233c ee2d 23bc b46e 22bc 2ebe 22bc
000000a0: 55de 223c 53e6 223c 063c 223c 41a6 afbb
000000b0: 48ca 223c 112f 22bc 763f 1e3c 3ea4 21bc
000000c0: 08f7 21bc 160e 23bc 0fba 20bc d9bb 233c
000000d0: 719b 233c c27d 233c 36a5 233c 908b 233c
000000e0: ab1f 23bc 4ad4 233c 77b6 23bc 8de1 203c
000000f0: 79b5 23bc 4783 23bc 3722 233c 5335 23bc
00000100: 8e62 233c 2df1 22bc 400f 913b 4377 1e3c
00000110: 0ad7 23bc 9014 233c 0ad7 233c b1d1 1fbc
00000120: 4665 22bc 3157 213c 8444 233c 4027 23bc
00000130: 462e 23bc a2aa 233c 5c24 23bc 5cc1 233c
00000140: c16d 23bc 1f63 233c 2d9c 22bc 46d3 233c
00000150: c0c3 213c 7c86 21bc 6dbf 21bc 740f 233c
00000160: 9f02 223c 250a 233c 140a 203c 9970 233c
00000170: 5930 23bc f0b5 22bc e5ed 1fbc 0a9b 23bc
00000180: a7aa 23bc 461f 1f3c f38c 223c 3188 233c
00000190: ca7b 223c bf7d 1e3c 6f94 1d3c 0e22 1e3c
000001a0: a7b8 1cbc b3ec 213c a594 233c de07 233c
000001b0: 9040 20bc 484b 1fbc dc1d 223c bcaf 22bc
000001c0: a1f3 20bc 8f1b 233c 39a9 233c 3f96 223c
000001d0: 9455 203c 5d98 20bc 9192 23bc c55e 21bc
000001e0: cefc 22bc d000 22bc 0ad7 23bc 0612 203c
000001f0: b32d 233c 60b6 223c 505f 21bc 11d4 233c
0.009784042 -0.00993268 0.009983122 0.009971536 0.009972607 -0.009908383 0.009984321 -0.00968128
0.009959364 0.00997069 -0.009996835 -0.009931658 -0.009976356 0.009773648 -0.009861137 -0.0099754445
0.00996763 -0.009821137 -0.009903145 -0.009984692 0.0099854935 0.0099455565 -0.009918407 0.009844956
0.009925653 -0.009973206 0.009952932 0.0099034915 0.009707572 0.009975454 -0.00977796 0.0099779125
0.009957056 0.009934655 -0.009934001 0.009901611 0.009975907 -0.009959681 -0.009914089 -0.009933038
0.009940703 0.009942609 0.009902006 -0.005360395 0.009935923 -0.009898917 0.009658685 -0.009865819
-0.009885557 -0.009952089 -0.009809985 0.009993517 0.009985791 0.0099787135 0.00998812 0.009982005
-0.009956281 0.009999344 -0.0099922335 0.0098194005 -0.009991997 -0.009980029 0.009956888 -0.009961444
0.009972228 -0.009945196 0.004426867 0.009671989 -0.01 0.009953633 0.01 -0.009754584
-0.009911841 0.009847448 0.009965066 -0.009958088 -0.009959763 0.0099894125 -0.009957399 0.009994831
-0.009974898 0.009972363 -0.0099249305 0.009999102 0.009873331 -0.009858724 -0.0098723 0.009952415
0.00988832 0.009951149 0.009768028 0.009975576 -0.009960257 -0.009931073 -0.009761308 -0.009985695
-0.009989417 0.009712046 0.0099213 0.009981201 0.009917209 0.009673535 0.009617909 0.009651674
-0.009565509 0.009883094 0.00998417 0.009950606 -0.009781018 -0.009722538 0.009894814 -0.009929594
-0.009823711 0.009955301 0.009989076 0.009923517 0.009786028 -0.009801951 -0.009983675 -0.009849255
-0.009947969 -0.009887889 -0.01 0.009769922 0.009959626 0.009931177 -0.009849384 0.009999291

bn1.weight f4 [128]
00000000: 9657 233c 23a3 223c 782a 233c 0ad7 233c
00000010: 0ad7 233c d1f4 193c 0364 233c 0ad7 233c
00000020: dada 1d3c 0ad7 233c bd72 1a3c 0ad7 233c
00000030: bea5 223c 9a64 233c 2d59 233c b565 223c
00000040: bcb0 223c 22ba 223c 3d53 233c 0ad7 233c
00000050: 42a9 223c a8bb 143c 7e96 1d3c 0ad7 233c
00000060: 1ca2 223c 0ad7 233c 0ad7 233c 9c88 233c
00000070: 9961 233c 3394 223c 0ad7 233c 0883 233c
00000080: 3c8e 223c 0ad7 233c 0ad7 233c b75e 233c
00000090: 2da9 223c 0ad7 233c 2e49 223c 4486 223c
000000a0: 6b48 233c fe9d 223c 3cab 233c 0ad7 233c
000000b0: 285c 233c d559 233c 2f63 233c 58a1 223c
000000c0: ce65 233c 0ad7 233c 0ad7 233c 4d9d 223c
000000d0: d58d 223c 8b99 223c 1214 233c 459d 223c
000000e0: e65a 233c 1860 233c 4cc3 233c a046 233c
000000f0: ddf1 223c 0ad7 233c 689d 223c 0ad7 233c
00000100: 2240 233c dba6 223c aea0 223c 0ad7 233c
00000110: aac1 1a3c 0ad7 233c 9752 233c 0ad7 233c
00000120: a18e 223c a373 233c 0ad7 233c 0104 1a3c
00000130: 1960 233c 0ad7 233c fc97 223c 89d5 1d3c
00000140: 0ad7 233c 0498 1c3c eb49 233c 0ad7 233c
00000150: a63e 233c 0ad7 233c 0ad7 233c 8365 233c
00000160: 1c67 233c 0ad7 233c 0ad7 233c 0ad7 233c
00000170: fa40 233c 0ad7 233c 0ad7 233c f1ac 223c
00000180: 0ad7 233c e759 233c 5066 233c aba0 223c
00000190: 0ad7 233c 8567 233c 7e48 233c 0ad7 233c
000001a0: 0ad7 233c 0ad7 233c 2d9c 223c 0ad7 233c
000001b0: 0ad7 233c 0ad7 233c 0ad7 233c 0ad7 233c
000001c0: 0ad7 233c ac1c 233c 45ab 223c 0ad7 233c
000001d0: 0ad7 233c 0ad7 233c cc9b 223c 0ad7 233c
000001e0: 0ad7 233c 5156 233c 7e99 223c 0ad7 233c
000001f0: 0ad7 233c 8c6a 233c 3953 233c e069 233c
0.009969613 0.00992659 0.009958856 0.01 0.01 0.009396748 0.009972575 0.01
0.009634698 0.01 0.00942677 0.01 0.009927211 0.009972716 0.009969992 0.009911944
0.009929832 0.009932073 0.009968576 0.01 0.0099280495 0.009077944 0.0096184 0.01
0.009926345 0.01 0.01 0.009981301 0.009972 0.009923029 0.01 0.009979971
0.009921607 0.01 0.01 0.009971312 0.00992803 0.01 0.009905143 0.009919707
0.009965996 0.009925364 0.009989556 0.01 0.009970702 0.009970148 0.009972378 0.009926163
0.009973003 0.01 0.01 0.009925199 0.009921511 0.009924303 0.009953516 0.009925191
0.009970402 0.009971641 0.009995293 0.009965569 0.00994536 0.01 0.009925224 0.01
0.009964021 0.009927477 0.009926004 0.01 0.009445587 0.01 0.009968421 0.01
0.009921701 0.0099763 0.01 0.009400369 0.009971642 0.01 0.009923931 0.00963343
0.01 0.009557728 0.009966354 0.01 0.009963667 0.01 0.01 0.009972933
0.009973314 0.01 0.01 0.01 0.009964222 0.01 0.01 0.009928928
0.01 0.009970165 0.009973124 0.009926002 0.01 0.009973411 0.009966014 0.01
0.01 0.01 0.0099249305 0.01 0.01 0.01 0.01 0.01
0.01 0.009955566 0.009928529 0.01 0.01 0.01 0.00992484 0.01
0.01 0.00996931 0.009924291 0.01 0.01 0.009974133 0.009968572 0.009973973

bn1.bias f4 [128]
00000000: b084 ee3b 1afa 023c 0ad7 233c bf2b 003c
00000010: 1f28 fd3b 769d cc3b 07eb 55bb b465 093c
00000020: fdb1 203c 2f97 f33b c96e e83b fd26 fd3b
00000030: fa83 f63b 9f63 f23b 1b66 f03b 1a5d 213c
00000040: 2adc fb3b 4db3 f53b 2484 ef3b cb30 003c
00000050: 0420 fc3b cab3 203c ac80 203c 0ad7 233c
00000060: 7f05 f93b ab35 003c 9aee f63b b9cc f83b
00000070: 7681 f73b 55f0 033c bd2b 003c 7604 fa3b
00000080: b625 183c 47b3 013c 2178 003c e229 f53b
00000090: c5e5 fa3b 4291 013c 9261 213c 5a82 1d3c
000000a0: db5a ec3b 0750 f73b 60d2 f43b 4d54 fc3b
000000b0: 83a7 f03b 0c48 f03b 19e9 f33b 0775 053c
000000c0: b4b2 f93b 0ad7 233c 7859 fc3b 937b 653b
000000d0: 7871 093c 67b7 ff3b 0ad7 233c 0976 003c
000000e0: dd4d f13b 3751 22bc 0ad7 233c 184d ec3b
000000f0: 0ad7 233c 2bef fb3b ca42 053c 0ad7 233c
00000100: d29d e13b a858 fc3b c99f 023c 0ad7 233c
00000110: a546 213c 9c24 fd3b c422 ee3b 5b64 fc3b
00000120: f637 083c e1ff f13b 9d1f fd3b a618 e13b
00000130: 3751 22bc 126f fc3b d012 003c 2aab 203c
00000140: cb2b 003c 9b0e e53b 8242 e03b 5824 fd3b
00000150: 0683 ea3b d1af f33b 2346 fc3b 163f f23b
00000160: 8360 f83b 0ad7 233c 8bef fb3b 54bc 013c
00000170: 0930 e73b deed fc3b 0ad7 233c 3cfd fa3b
00000180: b2d4 033c 0fa8 f03b 2994 f33b 4cb9 043c
00000190: 2af2 f63b cabe f93b 6303 e83b 95b5 013c
000001a0: d7dd f33b 5d35 003c 7aa9 ff3b 0ad7 233c
000001b0: 0ad7 233c 0ad7 233c 0ad7 233c 96ed fc3b
000001c0: d5f4 033c 0ad7 233c de91 fd3b 0ad7 233c
000001d0: fdbb 013c e3b7 013c 0851 f73b 1ef5 fc3b
000001e0: 6d2b 003c b3a3 f03b e304 073c 0ad7 233c
000001f0: 74d3 033c e570 f43b 30f2 ec3b 68f4 f83b
0.007279001 0.007994199 0.01 0.00782293 0.00772573 0.0062443567 -0.0032641308 0.008386064
0.009808061 0.007433794 0.0070932847 0.007725595 0.007523057 0.0073971297 0.0073363907 0.009848857
0.0076861577 0.007498181 0.0073094536 0.007824133 0.0076942462 0.00980849 0.009796303 0.01
0.007599532 0.007825295 0.0075357677 0.007592764 0.0075532747 0.008052905 0.007822928 0.0076299263
0.009286335 0.007916278 0.007841141 0.0074817995 0.007656785 0.007908167 0.009849923 0.009613598
0.0072129793 0.007547382 0.0074713677 0.007700479 0.0073441877 0.0073328074 0.007443559 0.008145577
0.00762018 0.01 0.007701095 0.0035016283 0.008388869 0.0078038457 0.01 0.007840642
0.0073640184 -0.009907058 0.01 0.0072113387 0.01 0.007688423 0.0081336 0.01
0.0068852687 0.0077009983 0.007972666 0.01 0.009843503 0.0077253114 0.007267328 0.007702393
0.008314123 0.0073852395 0.007724716 0.0068693934 -0.009907058 0.0077036703 0.007816985 0.009806434
0.007822941 0.0069902665 0.006843866 0.00772528 0.0071567325 0.0074367304 0.0076987906 0.0073927743
0.0075798645 0.01 0.007688468 0.007918436 0.007055287 0.0077187857 0.01 0.0076595824
0.008046316 0.007344253 0.0074334336 0.008100819 0.0075361924 0.007621621 0.007080482 0.007916828
0.007442217 0.007825223 0.0078021856 0.01 0.01 0.01 0.01 0.007718752
0.008053978 0.01 0.007738336 0.01 0.007918355 0.007917377 0.0075475015 0.00771965
0.0078228535 0.007343733 0.008240911 0.01 0.00804602 0.007459747 0.0072310194 0.007597495

bn1.running_mean f4 [128]
00000000: 0ba8 91bc 98ea 8e3c 5929 ec3c 5ca4 a8bc
00000010: f1e9 253d 1429 8f3c 1155 233d 3ad4 24bd
00000020: 5135 193d f8e9 253d c58b 8e3c 47bd a83c
00000030: 3bad 8e3c 5033 91bc 6d33 19bd 15f2 8e3c
00000040: 5efe 183d b8c7 8f3c 5d65 19bd 100d 26bd
00000050: 0514 193d 6e97 193d d99e 8f3c 9a2b 253d
00000060: 8edf 183d 9d04 26bd 9202 263d b3f5 90bc
00000070: 8171 92bc b00e 193d 2335 25bd 7427 90bc
00000080: 4e00 193d 5fc7 253d 0ad9 25bd 37b7 90bc
00000090: a50d 193d 58f5 25bd e378 8f3c b538 8f3c
000000a0: 698a 90bc 53f2 183d 0aa4 91bc b251 ce3c
000000b0: b931 90bc 9552 19bd eb6f 92bc 466e 8f3c
000000c0: d865 19bd 5f27 a83c 94da a93c d550 193d
000000d0: 1217 193d 8a17 193d ea41 f13c 3515 193d
000000e0: 0d96 19bd ac77 59bc 1612 103b b092 91bc
000000f0: 3a8b 3e3c 7e79 a83c 80f2 183d 4917 a83c
00000100: aeea 90bc 49e7 8e3c b04d 023d 1477 243d
00000110: 193f 8f3c 57d0 253d d2f8 8fbc 4856 aa3c
00000120: 7a38 8f3c 6445 91bc 52e6 253d a9cf 8e3c
00000130: f11e 08bd 0405 263d 5ad6 8e3c 2a57 193d
00000140: d805 26bd 9c0c 193d 8ce0 19bd 0b04 263d
00000150: 3f41 91bc b868 a93c e855 a93c 3638 90bc
00000160: 72e5 90bc 269a 253d dd22 253d f6ee 253d
00000170: 4afe 19bd e4d5 a83c 69b4 a93c a088 8e3c
00000180: 421a 26bd 7906 92bc b355 90bc c906 193d
00000190: f8de 253d cb77 92bc 8a7c 93bc 6e9b 243d
000001a0: e3d0 ab3c 375d a9bc 041b 193d 5999 253d
000001b0: 3092 a93c f602 aa3c 6063 253d bad6 a83c
000001c0: 346b 25bd e114 ee3c 0914 193d 9d7a 253d
000001d0: d823 253d eada a93c 88b3 8e3c 9b78 a93c
000001e0: dee7 25bd 9a56 19bd aa79 8e3c 07df 243d
000001f0: fbc9 a8bc d42f 90bc 1650 19bd f2d8 8fbc
-0.017780324 0.017445847 0.02882831 -0.020586185 0.040506307 0.017475642 0.039876048 -0.040241458
0.037404362 0.040506333 0.017400632 0.020598067 0.017416587 -0.017724663 -0.03740256 0.017449418
0.03735196 0.017551288 -0.037450183 -0.0405398 0.037372608 0.03749793 0.0175318 0.040324785
0.037322573 -0.040531743 0.040529795 -0.017695284 -0.017876389 0.037367523 -0.04033388 -0.017596938
0.037353806 0.04047334 -0.040490188 -0.017665489 0.037366528 -0.04051718 0.017513698 0.017483095
-0.017644124 0.037340473 -0.017778415 0.02518544 -0.017601835 -0.037432272 -0.017875632 0.017508637
-0.03745064 0.020526586 0.020734109 0.037430603 0.037375517 0.037375964 0.029450376 0.03737374
-0.037496615 -0.013273161 0.0021983436 -0.017770141 0.011629874 0.020565744 0.03734064 0.020518916
-0.017690029 0.01744427 0.03181237 0.040152624 0.017486142 0.04048189 -0.017574701 0.020793095
0.017482985 -0.017733283 0.040502854 0.017433004 -0.033232633 0.040532127 0.017436195 0.03743664
-0.040532917 0.03736554 -0.03756766 0.0405312 -0.017731307 0.020679817 0.020670846 -0.017604928
-0.017687533 0.04043021 0.04031645 0.040511094 -0.037596025 0.020609803 0.02071591 0.017399132
-0.040552385 -0.017825352 -0.01761899 0.037359986 0.040495843 -0.017879387 -0.01800372 0.04018729
0.020973628 -0.020674331 0.03737928 0.040429447 0.02069959 0.020753365 0.040377975 0.020610202
-0.04038544 0.02906269 0.037372623 0.040400136 0.040317386 0.02073427 0.017419592 0.020687392
-0.04050433 -0.037436105 0.017391998 0.040251758 -0.020604124 -0.017600931 -0.03742989 -0.017559502

bn1.running_var f4 [128]
00000000: 1dce 783a 4e02 793a a885 953a 6e9b 803a
00000010: 7c88 803a f9fe 783a 5c7c 8d3a ba9a 803a
00000020: 68ef 783a 6a8b 803a ebfb 783a fe87 803a
00000030: a5fd 783a 99dd 783a d2d2 783a e9f6 783a
00000040: c600 793a 9d04 793a 6bd2 783a 269c 803a
00000050: d9ff 783a 65d4 783a 52ed 783a 1160 803a
00000060: bdfb 783a ca9b 803a e1ab 803a d3c6 783a
00000070: dbca 783a e1fd 783a 6e9b 803a 43cd 783a
00000080: adff 783a fa8a 803a ba9a 803a 30ce 783a
00000090: 74fe 783a 709b 803a e3f4 783a eff8 783a
000000a0: 5ac9 783a 1efd 783a 48b8 783a 3f92 803a
000000b0: a3d4 783a 59d4 783a 56d4 783a 1504 793a
000000c0: 77ce 783a f15d 803a 9a91 803a 39ee 783a
000000d0: 35ff 783a 1cfc 783a 28a2 963a 58fe 783a
000000e0: afd3 783a dd62 823a c8aa 903a f3c8 783a
000000f0: b67f 9b3a 7793 803a 9c01 793a f25d 803a
00000100: 2db9 783a 4fff 783a 8cff 783a f15d 803a
00000110: 3fe4 783a 6088 803a a4cb 783a e491 803a
00000120: c6fd 783a 72cb 783a fc87 803a 5efe 783a
00000130: 1763 823a 3990 803a 7ffd 783a 39f0 783a
00000140: 6d9b 803a c8fd 783a 79bc 783a 0588 803a
00000150: 02c4 783a 2b8c 803a a091 803a cfcd 783a
00000160: 22cd 783a f25d 803a 9593 803a 9588 803a
00000170: a4be 783a 538c 803a f15d 803a 3a00 793a
00000180: 5ea2 803a d1d3 783a f7d2 783a 8202 793a
00000190: 0dac 803a 78d1 783a 83c1 783a cf8a 803a
000001a0: c38b 803a ca9b 803a 01fd 783a f25d 803a
000001b0: f15d 803a f15d 803a f15d 803a 548c 803a
000001c0: bca1 803a d6f7 953a 3900 793a f15d 803a
000001d0: 9b88 803a c98a 803a 62fb 783a f08b 803a
000001e0: 6d9b 803a 4dd2 783a d0fd 783a fc5d 803a
000001f0: 5ea2 803a 9bd6 783a 7bca 783a e1cf 783a
0.00094911625 0.00094989396 0.001140763 0.0009811947 0.00098063 0.0009498443 0.0010794508 0.0009811737
0.00094961235 0.0009807174 0.0009497988 0.0009806154 0.0009498245 0.000949347 0.0009491864 0.00094972417
0.00094987114 0.00094992836 0.0009491804 0.0009812161 0.00094985735 0.00094920985 0.00094958127 0.0009794255
0.0009497961 0.0009812054 0.0009816849 0.00094900763 0.0009490677 0.000949828 0.0009811947 0.00094910356
0.0009498548 0.0009807043 0.0009811737 0.00094911736 0.00094983657 0.0009811949 0.000949694 0.0009497543
0.0009490453 0.00094981666 0.0009487909 0.000980921 0.00094921346 0.00094920915 0.000949209 0.00094992045
0.0009491215 0.0009793622 0.0009809018 0.0009495947 0.0009498478 0.00094980164 0.0011492418 0.00094983494
0.00094919925 0.0009947676 0.0011037225 0.0009490393 0.0011863622 0.0009809573 0.0009498836 0.0009793623
0.00094880426 0.0009498493 0.00094985287 0.0009793622 0.00094944605 0.0009806268 0.0009490794 0.0009809104
0.00094982644 0.0009490765 0.0009806152 0.0009498353 0.0009947744 0.0009808607 0.0009498223 0.0009496245
0.0009811945 0.00094982656 0.0009488534 0.0009806162 0.00094896567 0.0009807398 0.0009809025 0.0009491117
0.00094910164 0.0009793623 0.0009809608 0.000980633 0.0009488857 0.0009807445 0.0009793622 0.000949863
0.0009814014 0.00094920123 0.00094918854 0.000949897 0.00098169 0.00094916625 0.0009489285 0.0009806993
0.0009807277 0.0009812054 0.000949815 0.0009793623 0.0009793622 0.0009793622 0.0009793622 0.0009807446
0.0009813826 0.0011441659 0.00094986294 0.0009793622 0.0009806337 0.0009806986 0.0009497908 0.000980733
0.0009811945 0.00094917865 0.000949827 0.0009793635 0.0009814014 0.0009492428 0.0009490621 0.00094914256

fc2.weight f4 [128, 128]
00000000: 9502 1fbb e024 22bc 0ad7 23bc 0ad7 23bc
00000010: 0ad7 233c d225 22bc 656c 23bc 0ad7 23bc
00000020: bc8b f5bb 0ad7 233c 8724 22bc 0ad7 233c
00000030: 2e25 22bc 7f0a 283b 1ffa 153c 9522 22bc
00000040: 6ab4 06bc 6225 22bc ed17 29bb 0ad7 23bc
00000050: 366b 09bc f51c 22bc a922 22bc 0ad7 233c
00000060: 3ae3 0abc 0ad7 23bc 0ad7 233c 9aef e83b
00000070: f367 123c b224 22bc 0ad7 23bc aa55 b8bb
00000080: 6223 22bc 0ad7 233c 0ad7 23bc 0240 133c
00000090: 846e 0bbc 0ad7 23bc 8868 00bc 1e23 22bc
000000a0: 955c 143c 0e37 0dbc b633 0a3c 0ad7 233c
000000b0: e17b 143c 805d 3bbb 3dd5 103c d124 22bc
000000c0: cdea 43bb 0ad7 233c 0ad7 233c ebb5 1dbc
000000d0: 6924 22bc df24 22bc 0ad7 23bc dc24 22bc
000000e0: 383e 24bb 0ad7 23bc 0ad7 23bc a339 173c
000000f0: 99b8 23bc 0ad7 233c 9dcf 03bc 0ad7 233c
00000100: b7ec 183c 12f7 08bc cb24 22bc 0ad7 233c
00000110: 4321 22bc 0ad7 233c 309c 173c 0ad7 233c
00000120: 6324 22bc 4ac9 43bb 0ad7 233c e724 22bc
00000130: 0ad7 23bc 0ad7 233c c7e6 1bbc a522 22bc
00000140: 0ad7 23bc e424 22bc 0848 193c 0ad7 233c
00000150: 8e1b 12bb 0ad7 233c 0ad7 233c 26e6 143c
00000160: 313a 0f3c 0ad7 233c 0ad7 233c 0ad7 233c
00000170: 2088 183c 0ad7 233c 0ad7 233c 3d0e 0bbc
00000180: 0ad7 23bc b5cd 123c 0f34 31bb c924 22bc
00000190: 0ad7 233c 901c 0e3c 849d 1abb 0ad7 233c
000001a0: 0ad7 233c 0ad7 23bc ea24 22bc 0ad7 233c
000001b0: 0ad7 233c 0ad7 233c 0ad7 233c 0ad7 233c
000001c0: 0ad7 23bc 0ad7 23bc 4316 05bc 0ad7 233c
000001d0: 0ad7 233c 0ad7 233c 2c95 11bc 0ad7 233c
000001e0: 0ad7 23bc a51a 153c 2958 1fbc 0ad7 233c
000001f0: 0ad7 23bc a165 0f3c 45f0 42bb 225d 52bb
00000200: 8b5c 173c 4c42 22bc e2ab 23bc 0ad7 23bc
00000210: 0ad7 233c 8629 06bc 4744 23bc 0ad7 23bc
00000220: 532f 13bc 0ad7 233c b541 22bc 0ad7 233c
00000230: 7042 22bc f895 c7b9 d20f 183c 6830 0bbc
00000240: 6f46 17bc 0a66 0dbc 9507 0d39 0ad7 23bc
00000250: 6d42 22bc c338 22bc 7140 22bc 0ad7 233c
00000260: 78fb 18bc 0ad7 23bc 0ad7 233c 12d3 123c
00000270: 400c 2b36 1e42 22bc 0ad7 23bc 849e 7bbb
00000280: 0741 22bc 0ad7 233c 0ad7 23bc 604b 163c
00000290: 7142 22bc 0ad7 23bc 5140 22bc dc40 22bc
000002a0: 6b2d 173c eb70 17bc f913 70bb 0ad7 233c
000002b0: d79f 8339 97e7 cfb9 83c7 143c 9001 06bc
000002c0: b001 c2b9 0ad7 233c 0ad7 233c 0df9 0bbc
000002d0: df41 22bc fc9e 17bc 56a1 23bc 0c96 16bc
000002e0: 9520 173c 0ad7 23bc 0ad7 23bc 790a 193c
000002f0: ef71 23bc 0ad7 233c 4f08 16bc 0ad7 233c
00000300: b316 1a3c 6942 22bc 3842 22bc 0ad7 233c
00000310: ea3e 22bc 0ad7 233c f449 193c 0ad7 233c
00000320: d541 22bc 23e4 dbb9 0ad7 233c 0042 22bc
00000330: 0ad7 23bc 0ad7 233c 9107 11bc 1ae7 11bc
00000340: 0ad7 23bc 7e42 02bc d051 1a3c 0ad7 233c
00000350: 7a95 193c 0ad7 233c 0ad7 233c 7996 173c
00000360: 89e0 1fbb 0ad7 233c 0ad7 233c 0ad7 233c
00000370: b10d 9839 0ad7 233c 0ad7 233c 7a42 22bc
00000380: 0ad7 23bc 4ca9 3db7 8029 7fb7 9369 12bc
00000390: 0ad7 233c 32e9 34ba e60e 6039 0ad7 233c
000003a0: 0ad7 233c 0ad7 23bc 4a20 0dbc 0ad7 233c
000003b0: 0ad7 233c 0ad7 233c 0ad7 233c 0ad7 233c
000003c0: 0ad7 23bc 33a7 23bc 7242 22bc 0ad7 233c
000003d0: 0ad7 233c 0ad7 233c d4fe 15bc 0ad7 233c
000003e0: 0ad7 23bc 2d8d 173c f541 22bc 0ad7 233c
000003f0: 0ad7 23bc fae2 133c 2caa 1bba 25e9 143c
-0.0024263014 -0.009896487 -0.01 -0.01 0.01 -0.009896712 -0.009974574 -0.01
-0.0074934643 0.01 -0.009896404 0.01 -0.00989656 0.0025641022 0.009153872 -0.00989594
-0.008221725 -0.009896608 -0.0025801614 -0.01 -0.0083873775 -0.009894599 -0.009895959 0.01
-0.008477027 -0.01 0.01 0.007108641 0.008935916 -0.009896444 -0.01 -0.0056254463
-0.009896131 0.01 -0.01 0.008987429 -0.008510236 -0.01 -0.007837422 -0.009896068
0.009055276 -0.008619083 0.00843518 0.01 0.009062738 -0.0028589666 0.0088399025 -0.009896473
-0.002989459 0.01 0.01 -0.009625892 -0.009896376 -0.009896486 -0.01 -0.009896483
-0.00250615 -0.01 -0.01 0.00923005 -0.009992742 0.01 -0.008045104 0.01
0.009333781 -0.008359687 -0.009896467 0.01 -0.0098956255 0.01 0.009253547 0.01
-0.009896371 -0.0029874616 0.01 -0.0098964935 -0.01 0.01 -0.009515471 -0.009895955
-0.01 -0.009896491 0.0093555525 0.01 -0.0022294256 0.01 0.01 0.009088075
0.008741901 0.01 0.01 0.01 0.0093097985 0.01 0.01 -0.008487281
-0.01 0.008960177 -0.0027039086 -0.009896466 0.01 0.008673802 -0.0023592422 0.01
0.01 -0.01 -0.009896496 0.01 0.01 0.01 0.01 0.01
-0.01 -0.01 -0.008122983 0.01 0.01 0.01 -0.008885663 0.01
-0.01 0.009100591 -0.009725609 0.01 -0.01 0.008752258 -0.0029745263 -0.0032098969
0.009238373 -0.009903502 -0.0099897105 -0.01 0.01 -0.008188611 -0.009965009 -0.01
-0.008983451 0.01 -0.009903361 0.01 -0.009903535 -0.00038067973 0.009281116 -0.008495428
-0.009233101 -0.008630285 0.00013449632 -0.01 -0.009903532 -0.009901228 -0.009903059 0.01
-0.009337299 -0.01 0.01 0.008961456 2.5488116e-06 -0.009903459 -0.01 -0.0038394043
-0.009903199 0.01 -0.01 0.009173244 -0.009903536 -0.01 -0.00990303 -0.009903159
0.009227137 -0.00924323 -0.0036632998 0.01 0.00025105357 -0.00039654665 0.00908077 -0.0081790835
-0.0003700382 0.01 0.01 -0.008543265 -0.0099034 -0.009254213 -0.009987196 -0.009191047
0.009224077 -0.01 -0.01 0.009340876 -0.009975894 0.01 -0.009157254 0.01
0.009404826 -0.009903529 -0.009903483 0.01 -0.009902695 0.01 0.009356011 0.01
-0.009903391 -0.0004194091 0.01 -0.009903431 -0.01 0.01 -0.008851902 -0.008905197
-0.01 -0.007950423 0.00941892 0.01 0.009374017 0.01 0.01 0.009252184
-0.0024395308 0.01 0.01 0.01 0.000290019 0.01 0.01 -0.009903545
-0.01 -1.1304695e-05 -1.5208847e-05 -0.008936304 0.01 -0.0006901204 0.00021367855 0.01
0.01 -0.01 -0.008613655 0.01 0.01 0.01 0.01 0.01
-0.01 -0.009988594 -0.009903537 0.01 0.01 0.01 -0.009154994 0.01
-0.01 0.0092499675 -0.009903421 0.01 -0.01 0.009026283 -0.00059381383 0.009088789

fc2.bias f4 [128]
00000000: 3963 bc3b d0d5 23bc 0ad7 23bc 68ab b1ba
00000010: 0ad7 23bc 8331 723b f249 b13b f2cf 23bc
00000020: 0ad7 23bc df61 233c c59d 233c 0ad7 23bc
00000030: 21d7 693b b038 8c3a acb8 23bc d463 b43b
00000040: 9048 f6ba bbc9 23bc 05ca 23bc 8200 7b3b
00000050: bb9b 23bc fd4f 233c ae2e bc3b cb5b e8ba
00000060: f3f3 b93b 0ad7 23bc 9d12 803b aa99 23bc
00000070: a2b2 b13b 82b7 c73a 0ad7 23bc fa43 763b
00000080: a780 713a 0ad7 23bc 5b1f c1ba 9ff0 e339
00000090: 5c8d 54ba eb60 7b3b 5a22 833b 0ad7 23bc
000000a0: 0ad7 23bc 9c97 a53a b11e 6f3b 1f3c 51bb
000000b0: 0ad7 23bc 0ad7 23bc da06 623a 34f7 553b
000000c0: 7bf3 02bb 0ad7 23bc cfaf 23bc 0ad7 23bc
000000d0: 0ad7 23bc 0ad7 23bc 0ad7 23bc dea9 1cbc
000000e0: f4db 913a 0ad7 23bc 9ad3 23bc 8c44 c33b
000000f0: 76b6 e6ba 4ee2 72ba b1c7 b83b a008 f5ba
00000100: 0ad7 23bc 0ad7 23bc 19c2 23bc e0c7 23bc
00000110: 26de c1bb 34a1 23bc f246 843b 1bcc c2ba
00000120: 0ad7 23bc 0ad7 23bc 695d 9fba 2477 a8ba
00000130: a92c d63a 0ad7 23bc 0ad7 23bc a562 9e3a
00000140: 8469 723b 63ea b93b c412 123b 2239 79bb
00000150: 0ad7 23bc f340 b73b 4fa8 23bc 586c 403a
00000160: 1421 893a 11af 7b3b e764 9c3a 0ad7 23bc
00000170: be86 23bc 70cc 7e3b 2d77 09bc 0ad7 23bc
00000180: ad65 bc3b c926 813b 0ad7 23bc 7c20 90bb
00000190: f9c2 8fba 0ad7 23bc cabd 23bc a756 a93b
000001a0: 0ad7 23bc 96fc a4ba 9a73 2cbb 0ad7 23bc
000001b0: 0ad7 23bc 0ad7 23bc 0ad7 23bc d901 f6ba
000001c0: 0ad7 23bc 5f86 c6ba 682c 9bba fcf4 ad3a
000001d0: 12a3 2d3a e1ce 23bc ad9d 7b3b f638 5f3a
000001e0: de59 9e3b 9cc4 23bc 4e65 843b 8ac6 23bc
000001f0: d76b b23b 0ad7 23bc 86d6 23bc 19fe 6b3a
0.005749133 -0.009999707 -0.01 -0.0013555111 -0.01 0.003695578 0.0054104263 -0.0099983085
-0.01 0.009972065 0.009986346 -0.01 0.0035681205 0.0010698047 -0.00999276 0.0055050645
-0.0018789936 -0.009996827 -0.009996896 0.0038299863 -0.0099858595 0.009967801 0.0057428693 -0.0017727552
0.005674833 -0.01 0.003908469 -0.009985367 0.005422906 0.0015237185 -0.01 0.0037577138
0.0009212591 -0.01 -0.0014734076 0.0004347609 -0.00081082224 0.0038357328 0.0040018978 -0.01
-0.01 0.0012633684 0.00364868 -0.0031926704 -0.01 -0.01 0.0008622237 0.0032648565
-0.0019981551 -0.01 -0.0099906465 -0.01 -0.01 -0.01 -0.01 -0.009561984
0.0011128173 -0.01 -0.00999918 0.005959099 -0.0017601985 -0.00092652894 0.0056390394 -0.0018694587
-0.01 -0.01 -0.009995007 -0.009996384 -0.0059163747 -0.009987164 0.0040367777 -0.0014861854
-0.01 -0.01 -0.0012158576 -0.001285289 0.0016340214 -0.01 -0.01 0.0012083842
0.0036989162 0.005673693 0.0022289017 -0.0038028439 -0.01 0.0055924593 -0.009988858 0.0007340363
0.0010462129 0.0038403908 0.0011931927 -0.01 -0.0099808555 0.0038879178 -0.00839023 -0.01
0.0057494254 0.003941391 -0.01 -0.0043984037 -0.001096814 -0.01 -0.00999398 0.0051678005
-0.01 -0.0012587484 -0.002631402 -0.01 -0.01 -0.01 -0.01 -0.0018768861
-0.01 -0.0015146247 -0.0011838796 0.0013271864 0.00066237256 -0.009998054 0.0038393543 0.0008515263
0.0048324903 -0.009995606 0.004040397 -0.009996066 0.0054449844 -0.01 -0.009999877 0.0009002402

bn2.weight f4 [128]
00000000: 0ad7 233c 0ad7 233c 0ad7 233c 0ad7 233c
00000010: 0ad7 233c 0ad7 233c 0ad7 233c 0ad7 233c
00000020: 0ad7 233c b9aa dc3b 81cc e93b 0ad7 233c
00000030: 0ad7 233c 0ad7 233c 0ad7 233c 0ad7 233c
00000040: 0ad7 233c 0ad7 233c 0ad7 233c 0ad7 233c
00000050: 0ad7 233c b668 ce3b 0ad7 233c 0ad7 233c
00000060: 0ad7 233c 0ad7 233c 0ad7 233c 0ad7 233c
00000070: 0ad7 233c 0ad7 233c 0ad7 233c 0ad7 233c
00000080: 0ad7 233c 0ad7 233c 0ad7 233c 0ad7 233c
00000090: 0ad7 233c 0ad7 233c 0ad7 233c 0ad7 233c
000000a0: 0ad7 233c 0ad7 233c 0ad7 233c e375 fb3b
000000b0: 0ad7 233c 0ad7 233c 0ad7 233c 0ad7 233c
000000c0: 0ad7 233c 0ad7 233c 0ad7 233c 0ad7 233c
000000d0: 0ad7 233c 0ad7 233c 0ad7 233c 0ad7 233c
000000e0: 0ad7 233c 0ad7 233c 0ad7 233c 0ad7 233c
000000f0: 0ad7 233c 0ad7 233c 0ad7 233c 0ad7 233c
00000100: 0ad7 233c 0ad7 233c 0ad7 233c 0ad7 233c
00000110: 0ad7 233c 0ad7 233c 0ad7 233c 0ad7 233c
00000120: 0ad7 233c 0ad7 233c 0ad7 233c 0ad7 233c
00000130: 0ad7 233c 0ad7 233c 0ad7 233c 0ad7 233c
00000140: 0ad7 233c 0ad7 233c 0ad7 233c 0ad7 233c
00000150: 0ad7 233c 0ad7 233c 0ad7 233c 0ad7 233c
00000160: 0ad7 233c 0ad7 233c 0ad7 233c 0ad7 233c
00000170: 6eb4 f93b 0ad7 233c 0ad7 233c 0ad7 233c
00000180: 0ad7 233c 0ad7 233c 0ad7 233c 0ad7 233c
00000190: 0ad7 233c 0ad7 233c 0ad7 233c 0ad7 233c
000001a0: 0ad7 233c 0ad7 233c 0ad7 233c 0ad7 233c
000001b0: 0ad7 233c 0ad7 233c 0ad7 233c 0ad7 233c
000001c0: 0ad7 233c 0ad7 233c 0ad7 233c 0ad7 233c
000001d0: 0ad7 233c 0ad7 233c 0ad7 233c 0ad7 233c
000001e0: 0ad7 233c 0ad7 233c 0ad7 233c 0ad7 233c
000001f0: 0ad7 233c 0ad7 233c 0ad7 233c 0ad7 233c
0.01 0.01 0.01 0.01 0.01 0.01 0.01 0.01
0.01 0.006734219 0.0071349745 0.01 0.01 0.01 0.01 0.01
0.01 0.01 0.01 0.01 0.01 0.0062991036 0.01 0.01
0.01 0.01 0.01 0.01 0.01 0.01 0.01 0.01
0.01 0.01 0.01 0.01 0.01 0.01 0.01 0.01
0.01 0.01 0.01 0.0076739653 0.01 0.01 0.01 0.01
0.01 0.01 0.01 0.01 0.01 0.01 0.01 0.01
0.01 0.01 0.01 0.01 0.01 0.01 0.01 0.01
0.01 0.01 0.01 0.01 0.01 0.01 0.01 0.01
0.01 0.01 0.01 0.01 0.01 0.01 0.01 0.01
0.01 0.01 0.01 0.01 0.01 0.01 0.01 0.01
0.01 0.01 0.01 0.01 0.007620386 0.01 0.01 0.01
0.01 0.01 0.01 0.01 0.01 0.01 0.01 0.01
0.01 0.01 0.01 0.01 0.01 0.01 0.01 0.01
0.01 0.01 0.01 0.01 0.01 0.01 0.01 0.01
0.01 0.01 0.01 0.01 0.01 0.01 0.01 0.01

bn2.bias f4 [128]
00000000: 90fa 86b9 cff9 80b9 10ba b836 be01 e636
00000010: 528d 8639 54b0 6b36 c52c 80b9 7479 87b9
00000020: e0cd 8039 515c 64bb 7398 443b 6135 be37
00000030: 20a4 0136 bc50 7c39 010e 81b9 27a1 81b9
00000040: 9bc2 acb7 dec3 13b7 878c 7cb9 e026 f5b5
00000050: 8241 86b9 0c9b 703b 3390 8db9 4c01 eeb6
00000060: 8637 81b9 82f6 84b9 dcfe 47b7 1ac6 81b9
00000070: 25da 82b9 356c 8239 2ce0 8639 203f 7d36
00000080: 1e75 8e39 c658 b1b7 c3a5 9ab7 06e4 8239
00000090: be04 c3b6 80e0 4c35 04a5 b137 b535 bfb7
000000a0: 71dc 8bb9 581f 8239 0bd1 ec37 0f06 29bb
000000b0: 00b4 db37 f042 89b5 4a2a 8539 f08d 0836
000000c0: c88d b0b6 80ab 9eb4 5c65 80b9 f0e7 7fb6
000000d0: 0ffd 8cb7 d8d4 f1b6 d6c3 89b9 d817 1eb6
000000e0: 9881 8139 8652 8639 44ad d8b7 ad30 7bb9
000000f0: 8d35 a7b7 c86d d5b6 3168 80b9 3b48 8bb7
00000100: 3f42 b537 f0e4 88b9 a6a9 8eb9 8149 e8b7
00000110: cbfa 85b9 e0bd 81b9 38ef 74b6 7ca8 aeb7
00000120: 09ef c7b7 040f 8439 5536 c9b7 6cc6 d4b6
00000130: 1f21 8639 d89f 5736 7ed4 8839 49d0 8c39
00000140: 3c35 cd37 ad2c 83b9 ded8 7f39 e060 56b6
00000150: 59c3 85b9 7293 81b9 5d87 81b9 c2a4 8539
00000160: 77f6 8339 a003 d036 4545 8139 214d c137
00000170: 1b0d 47bb 167c 83b9 a0f3 acb7 501c cb36
00000180: e0c0 80b9 a0fd 8136 7294 7f39 16f3 8a39
00000190: 31ef 8239 680c 8236 bcd8 7cb9 91df 85b9
000001a0: a006 8339 e89a 33b5 b603 8539 a048 a836
000001b0: 3289 ac37 f2b1 8339 686b af37 2a21 02b8
000001c0: ee18 8039 a0d6 dbb6 7415 cfb7 c7e3 8d39
000001d0: b84a 8039 ce5b 7fb9 02ee 8a37 2526 8e39
000001e0: 95fa 7ab9 f4ea 86b9 a8b3 0238 5cbe 1db7
000001f0: 874e 85b9 46c8 7c39 b1b2 c0b7 0389 7939
-0.00025745155 -0.00024600184 5.505288e-06 6.854737e-06 0.00025663764 3.5120365e-06 -0.00024447418 -0.00025839696
0.0002456745 -0.0034845064 0.0029998093 2.2674622e-05 1.9318031e-06 0.00024062669 -0.0002461523 -0.00024724865
-2.0594618e-05 -8.807487e-06 -0.00024084943 -1.8265237e-06 -0.0002560728 0.003671351 -0.00027001053 -7.0931037e-06
-0.00024646166 -0.00025360665 -1.1920663e-05 -0.00024752395 -0.00024958063 0.00024876153 0.00025725493 3.7736681e-06
0.0002717161 -2.1141383e-05 -1.843542e-05 0.00024965423 -5.812005e-06 7.632261e-07 2.1176886e-05 -2.2793984e-05
-0.00026676388 0.00024818885 2.8230736e-05 -0.0025790965 2.6190653e-05 -1.0226777e-06 0.00025399245 2.0348198e-06
-5.2617143e-06 -2.9554576e-07 -0.0002448958 -3.8132966e-06 -1.680714e-05 -7.207138e-06 -0.00026276585 -2.3557714e-06
0.00024701352 0.00025619956 -2.582989e-05 -0.00023955358 -1.9932888e-05 -6.360675e-06 -0.0002449169 -1.6603726e-05
2.160773e-05 -0.00026110513 -0.00027210749 -2.7690783e-05 -0.00025554592 -0.00024746265 -3.6498077e-06 -2.0820873e-05
-2.3833958e-05 0.0002518819 -2.3986368e-05 -6.3411917e-06 0.0002558315 3.2130538e-06 0.0002609826 0.00026858065
2.4462694e-05 -0.00025019553 0.00024399484 -3.1944874e-06 -0.00025513282 -0.00024714653 -0.0002470565 0.0002549049
0.00025169898 6.199305e-06 0.00024656407 2.3043309e-05 -0.0030372802 -0.00025078718 -2.0617445e-05 6.0531675e-06
-0.00024557766 3.8740254e-06 0.00024373995 0.00026502524 0.00024973744 3.875746e-06 -0.00024113333 -0.00025534307
0.00024991203 -6.6908115e-07 0.00025370502 5.015245e-06 2.0567884e-05 0.00025118847 2.091164e-05 -3.10253e-05
0.00024432637 -6.5516942e-06 -2.4686313e-05 0.00027063323 0.00024469732 -0.00024352895 1.6561713e-05 0.0002711277
-0.00023935207 -0.00025733525 3.1161733e-05 -9.402251e-06 -0.00025426244 0.000241072 -2.2971393e-05 0.00023797531

bn2.running_mean f4 [128]
00000000: 213a ab3b 40be 2cbc ea88 14bc cc5f 17bb
00000010: 56d8 1abc 94e7 973b 6d00 a03b 392b 2cbc
00000020: e92f 1bbc 321c 173c 22db 2f3c bb34 14bc
00000030: b94a 933b 9f61 d33a 4f1c 2cbc d26e a33b
00000040: 9a92 3abb c40a 33bc 5ea2 2cbc 3d8e 333b
00000050: a874 2cbc 7cc2 223c 152a ab3b 1cec 2ebb
00000060: 6f4d a83b 85b6 2cbc 4e18 a03b 2ff2 2cbc
00000070: d38b a13b 8c75 073b 3798 1abc 51be 993b
00000080: 08bf c03a 4bba 33bc 0d3c 1dbb 5c7d 833a
00000090: 41da e8ba f15a 9a3b d8ae a23b 0241 33bc
000000a0: ec5a 2cbc 6668 ee3a acfe 933b 2bc0 6ebb
000000b0: 537d 14bc 48d1 32bc c6dc b83a 8b37 883b
000000c0: 9205 3fbb 7995 14bc 14de 2cbc b228 15bc
000000d0: 0593 33bc 97cb 32bc c61b 2cbc ed7a 2bbc
000000e0: 26d1 d73a 960b 1bbc 4075 33bc 1455 b13b
000000f0: 6a33 2ebb 4cdb f1ba a8a0 a73b 2d24 38bb
00000100: bb89 14bc f9c9 2cbc 4da3 2cbc d06c 32bc
00000110: 7088 d3bb 3a31 2cbc 50e3 a33b 61e4 1ebb
00000120: c405 33bc caff 1abc 54d8 0cbb 99a6 0ebb
00000130: eb7a 0f3b 3760 32bc 1a17 1bbc 1448 e63a
00000140: 207e 963b 5f41 a83b d68f 343b 7aa9 99bb
00000150: 9cdc 2cbc 0e78 a53b 6c6b 2cbc ab17 a93a
00000160: 7156 cd3a d9ba 9b3b 829d e63a 802b 15bc
00000170: 62cf 18bc 346f 5a3b 5f06 19bc bf7b 15bc
00000180: 44a8 aa3b 59e0 9f3b 8d0a 1bbc 2fc7 7cbb
00000190: 3027 14ba 7480 14bc 9065 2cbc a63a 973b
000001a0: e699 1abc db52 0cbb fc33 08bb a25b 14bc
000001b0: 1159 14bc 80e0 1abc 952c 14bc 780d 37bb
000001c0: 3ed2 1abc d53b 1fbb 8fc0 0bbb 36ac f43a
000001d0: 1ae7 9c3a d26a 2cbc eb77 9d3b 1e7a b93a
000001e0: b997 8c3b 9bdb 2cbc 86cd a13b a515 33bc
000001f0: ad9b a03b c87b 1bbc 2693 33bc 07bb bc3a
0.0052254354 -0.010543406 -0.009065846 -0.002309787 -0.009450993 0.0046357606 0.0048828633 -0.010508352
-0.009471872 0.009223031 0.010733398 -0.009045775 0.0044949916 0.0016127116 -0.010504796 0.004987576
-0.002846873 -0.01092786 -0.010536758 0.0027398013 -0.01052586 0.009934064 0.0052235224 -0.0026691025
0.005136184 -0.010541563 0.00488571 -0.010555788 0.0049299984 0.0020669429 -0.009435705 0.004691877
0.0014705369 -0.010969709 -0.0023992092 0.0010031867 -0.001776524 0.004710548 0.0049646907 -0.010940792
-0.010519724 0.0018189072 0.0045164432 -0.003643046 -0.009063083 -0.010914154 0.0014103882 0.004157012
-0.0029147607 -0.00906884 -0.010550994 -0.009103941 -0.010960345 -0.010912797 -0.010504669 -0.0104663195
0.0016465529 -0.0094632115 -0.010953248 0.0054117534 -0.0026580938 -0.0018452196 0.0051155873 -0.0028097734
-0.009066041 -0.010546201 -0.010536981 -0.010890201 -0.0064554736 -0.010509783 0.005001463 -0.002424501
-0.010926668 -0.009460399 -0.0021491246 -0.002176678 0.0021893333 -0.010887197 -0.009465957 0.0017569088
0.004592672 0.005134746 0.0027551553 -0.0046893926 -0.010550644 0.005049712 -0.010523658 0.001290073
0.001566602 0.0047524986 0.0017594548 -0.0091046095 -0.009326788 0.0033330442 -0.009339898 -0.009123742
0.005208047 0.0048790392 -0.009462965 -0.003857087 -0.00056515913 -0.009063829 -0.010522261 0.0046151457
-0.009436106 -0.002141169 -0.0020782938 -0.00905505 -0.009054438 -0.009452939 -0.009043832 -0.0027931612
-0.00944954 -0.0024297137 -0.002132449 0.0018667046 0.0011970729 -0.010523515 0.004805555 0.0014150774
0.0042905477 -0.010550405 0.0049378304 -0.010930453 0.0049013705 -0.009489961 -0.010960376 0.0014399

bn2.running_var f4 [128]
00000000: c5fd 5237 327e 5237 458c 4638 dd5d 4738
00000010: 78a6 5237 7761 4638 37eb 5237 2ac2 5137
00000020: 4e8a 5237 e3b1 8b34 605c 9434 1a29 4738
00000030: f12c 4638 f0e4 5237 42e2 5137 ca9b 5237
00000040: 83b0 4738 ca62 4638 df5c 5237 3f63 4938
00000050: 80e0 5237 7c7a a133 4128 5337 ae77 4538
00000060: 9cc4 5137 5fdf 5237 6895 4738 0993 5237
00000070: 7302 5337 15b8 5237 b7f3 5237 4b8a 4638
00000080: 1cea 5237 e783 4738 438b 4638 4eb4 5237
00000090: 8c88 4738 baaf 4438 0d74 4738 4cac 4638
000000a0: 3be5 5237 5abc 5237 4c91 4438 30ea 0434
000000b0: 5b9e 4638 d5e8 4538 3cee 5237 691a 4538
000000c0: 7f18 4638 9173 4638 66bf 5237 7e67 4538
000000d0: 874b 4738 5024 4638 572a 5337 05d6 4538
000000e0: 51a1 5237 45e1 5237 d72e 4738 02a9 5237
000000f0: ec9d 4538 b542 4638 c779 5237 b4f4 4638
00000100: b2ce 4638 29da 5237 77e2 5237 ca5b 4538
00000110: 13d5 5237 a2c5 5237 7c2b 4738 bbc9 4638
00000120: 027a 4638 3abd 5237 8594 4638 7180 4538
00000130: cfe1 5237 1a22 4538 07dc 5237 499d 5237
00000140: b152 4538 5089 5237 dbb0 5237 bc52 4538
00000150: 988e 5237 02b9 5237 04ac 5137 ef0d 5337
00000160: 796d 5237 f39b 4538 17ca 5237 0375 4538
00000170: 6bc4 1534 9aaa 5237 1112 4738 dae9 4438
00000180: b3bb 5237 e860 4638 da95 5237 9bc8 5237
00000190: 04ba 5137 dd90 4638 40be 5237 63a3 5237
000001a0: a6da 5237 f62d 4538 f9d3 5237 d6c6 4638
000001b0: c0ea 4638 c5e0 5237 e618 4738 4b2b 4638
000001c0: 865e 5237 9d2c 4638 bb3f 4738 960c 5337
000001d0: c0c4 5237 aace 5237 5932 4738 20e3 5237
000001e0: 1db4 5237 17b1 5237 bb2f 4538 435d 4638
000001f0: a4ed 5237 070e 5137 a23d 4738 cea7 5237
1.2576061e-05 1.25463575e-05 4.7337515e-05 4.7532714e-05 1.2555734e-05 4.729765e-05 1.2571741e-05 1.2502578e-05
1.2549177e-05 2.6020197e-07 2.763436e-07 4.7483576e-05 4.7248734e-05 1.2570279e-05 1.25100505e-05 1.2553248e-05
4.7609687e-05 4.7298883e-05 1.2538599e-05 4.8014565e-05 1.2569246e-05 7.5194265e-08 1.2585952e-05 4.707992e-05
1.2503147e-05 1.2568983e-05 4.7584443e-05 1.255121e-05 1.257715e-05 1.2559835e-05 1.257372e-05 4.7335674e-05
1.2571483e-05 4.756814e-05 4.7336576e-05 1.2558956e-05 4.7572466e-05 4.68937e-05 4.7553378e-05 4.7367343e-05
1.2570347e-05 1.2560829e-05 4.686536e-05 1.2378655e-07 4.735436e-05 4.71853e-05 1.2572444e-05 4.6993056e-05
4.7229692e-05 4.731451e-05 1.2561539e-05 4.7064845e-05 4.7515638e-05 4.7240697e-05 1.2586438e-05 4.716778e-05
1.2554535e-05 1.2569425e-05 4.748892e-05 1.2556326e-05 4.7115536e-05 4.7269004e-05 1.2545329e-05 4.7434776e-05
4.739938e-05 1.256777e-05 1.2569703e-05 4.7053945e-05 1.2566586e-05 1.256299e-05 4.7485795e-05 4.7394755e-05
4.7320507e-05 1.2561033e-05 4.73452e-05 4.708808e-05 1.2569551e-05 4.700022e-05 1.25682045e-05 1.2553596e-05
4.7045472e-05 1.2548946e-05 1.2558153e-05 4.7045512e-05 1.2550176e-05 1.2560051e-05 1.2497421e-05 1.2579824e-05
1.2542464e-05 4.71137e-05 1.2564028e-05 4.7077436e-05 1.3948163e-07 1.2556697e-05 4.7462123e-05 4.6947833e-05
1.25606775e-05 4.729713e-05 1.2551865e-05 1.25636825e-05 1.2500681e-05 4.7341793e-05 1.2561271e-05 1.2555017e-05
1.25678835e-05 4.7011265e-05 1.2566329e-05 4.739206e-05 4.7425507e-05 1.2569309e-05 4.7468486e-05 4.72472e-05
1.2538983e-05 4.7248428e-05 4.750465e-05 1.257951e-05 1.2562785e-05 1.2565093e-05 4.7492187e-05 1.2569857e-05
1.2558911e-05 1.2558207e-05 4.7012913e-05 4.7293735e-05 1.2572305e-05 1.2460637e-05 4.7502697e-05 1.25560455e-05

fc3.weight f4 [1, 128]
00000000: 0ad7 233c 0ad7 233c 0ad7 23bc 0ad7 23bc
00000010: 0ad7 233c 0ad7 23bc 0ad7 233c 0ad7 233c
00000020: 0ad7 233c 58ef 0b3c 5a01 703b 0ad7 23bc
00000030: 0ad7 23bc 0ad7 233c 0ad7 233c 0ad7 233c
00000040: 0ad7 23bc 0ad7 23bc 0ad7 233c 0ad7 23bc
00000050: 0ad7 233c 2589 093c 0ad7 233c 0ad7 23bc
00000060: 0ad7 233c 0ad7 233c 0ad7 23bc 0ad7 233c
00000070: 0ad7 233c 0ad7 233c 0ad7 233c 0ad7 23bc
00000080: 0ad7 233c 0ad7 23bc 0ad7 23bc 0ad7 233c
00000090: 0ad7 23bc 0ad7 23bc 0ad7 23bc 0ad7 23bc
000000a0: 0ad7 233c 0ad7 233c 0ad7 23bc d672 143c
000000b0: 0ad7 23bc 0ad7 23bc 0ad7 233c 0ad7 23bc
000000c0: 0ad7 23bc 0ad7 23bc 0ad7 233c 0ad7 23bc
000000d0: 0ad7 23bc 0ad7 23bc 0ad7 233c 0ad7 23bc
000000e0: 0ad7 233c 0ad7 233c 0ad7 23bc 0ad7 233c
000000f0: 0ad7 23bc 0ad7 23bc 0ad7 233c 0ad7 23bc
00000100: 0ad7 23bc 0ad7 233c 0ad7 233c 0ad7 23bc
00000110: 0ad7 233c 0ad7 233c 0ad7 23bc 0ad7 23bc
00000120: 0ad7 23bc 0ad7 233c 0ad7 23bc 0ad7 23bc
00000130: 0ad7 233c 0ad7 23bc 0ad7 233c 0ad7 233c
00000140: 0ad7 23bc 0ad7 233c 0ad7 233c 0ad7 23bc
00000150: 0ad7 233c 0ad7 233c 0ad7 233c 0ad7 233c
00000160: 0ad7 233c 0ad7 23bc 0ad7 233c 0ad7 23bc
00000170: 989a 1c3c 0ad7 233c 0ad7 23bc 0ad7 23bc
00000180: 0ad7 233c 0ad7 23bc 0ad7 233c 0ad7 233c
00000190: 0ad7 233c 0ad7 23bc 0ad7 233c 0ad7 233c
000001a0: 0ad7 233c 0ad7 23bc 0ad7 233c 0ad7 23bc
000001b0: 0ad7 23bc 0ad7 233c 0ad7 23bc 0ad7 23bc
000001c0: 0ad7 233c 0ad7 23bc 0ad7 23bc 0ad7 233c
000001d0: 0ad7 233c 0ad7 233c 0ad7 23bc 0ad7 233c
000001e0: 0ad7 233c 0ad7 233c 0ad7 23bc 0ad7 23bc
000001f0: 0ad7 233c 0ad7 233c 0ad7 23bc 0ad7 233c
0.01 0.01 -0.01 -0.01 0.01 -0.01 0.01 0.01
0.01 0.008540951 0.00366219 -0.01 -0.01 0.01 0.01 0.01
-0.01 -0.01 0.01 -0.01 0.01 0.008394514 0.01 -0.01
0.01 0.01 -0.01 0.01 0.01 0.01 0.01 -0.01
0.01 -0.01 -0.01 0.01 -0.01 -0.01 -0.01 -0.01
0.01 0.01 -0.01 0.009060582 -0.01 -0.01 0.01 -0.01
-0.01 -0.01 0.01 -0.01 -0.01 -0.01 0.01 -0.01
0.01 0.01 -0.01 0.01 -0.01 -0.01 0.01 -0.01
-0.01 0.01 0.01 -0.01 0.01 0.01 -0.01 -0.01
-0.01 0.01 -0.01 -0.01 0.01 -0.01 0.01 0.01
-0.01 0.01 0.01 -0.01 0.01 0.01 0.01 0.01
0.01 -0.01 0.01 -0.01 0.009558342 0.01 -0.01 -0.01
0.01 -0.01 0.01 0.01 0.01 -0.01 0.01 0.01
0.01 -0.01 0.01 -0.01 -0.01 0.01 -0.01 -0.01
0.01 -0.01 -0.01 0.01 0.01 0.01 -0.01 0.01
0.01 0.01 -0.01 -0.01 0.01 0.01 -0.01 0.01
