10_Models/Results_SiouxFalls/WGANBR_Freeflow_generator_best.pth (torch, 170686 bytes, 20 tensors)

fc1.weight f4 [128, 24]
000000 78 ed 22 3c 84 71 d9 bb 36 c2 9b 3d 5d 54 04 3e
       0.009944312 -0.0066358466 0.07605402 0.12922807
000010 17 9b 2c 3e 23 25 f9 bd 24 4d 2f 3e 01 4f 35 3e
       0.16856037 -0.121652864 0.1711927 0.17705919
000020 4b ec aa bd 02 5e 19 be a4 6a 03 bd 12 49 35 3e
       -0.083458506 -0.14977267 -0.032084122 0.17703655
000030 8b 6c 59 bc b9 76 23 be 3b e5 03 3e ff 6d bf bd
       -0.013270508 -0.15963258 0.12880413 -0.09347152
000040 07 cc fd 3d 09 a5 3e be 12 ad 2b 3e 03 15 b4 bb
       0.12392431 -0.18617643 0.1676524 -0.005495669
000050 bc 5a 85 3c 73 3b 07 be bf 1d 10 3e 6a 19 60 3d
       0.016278617 -0.13206272 0.14073847 0.054711737
000060 cb ad 18 be 24 71 d9 3d f3 e3 cd bc 17 cf 87 3d
       -0.14910047 0.10617283 -0.025133109 0.06631296
000070 03 87 00 be 4a 51 e0 3c fa e4 06 3d 01 a3 4b be
       -0.12551503 0.027382512 0.032933213 -0.198864
000080 a2 d3 e9 3d e7 43 22 bd c2 8e 1b be 81 2f f9 bd
       0.11417319 -0.039615538 -0.15191177 -0.12167264
000090 a8 33 d9 bd e2 6d 30 be ec 0c 20 3e 7b cb d4 bd
       -0.10605556 -0.17229417 0.1562993 -0.10390373
0000a0 eb d9 b2 3d d5 53 9a bc b5 aa 0f 3e 35 e4 8c bd
       0.08732971 -0.018838802 0.14029963 -0.068794645
0000b0 28 0e 2c be ff 12 a4 bb 3b 7d f3 3d 7c 5b cb 3c
       -0.16802275 -0.0050071473 0.1188912 0.024823897
0000c0 5f e2 ad 3c b2 32 5a be d6 ad 2b 3d ff bf e1 3d
       0.021226106 -0.21308401 0.04191383 0.110229485
0000d0 9a 7b 0e be 0a de 30 3d 9a 1f 9d bc 3f fb cc 3b
       -0.13914338 0.043180503 -0.019180108 0.006255537
0000e0 48 90 f5 bd 2c dc 82 3d 60 62 3b 3e e0 b6 23 3d
       -0.1199041 0.06389651 0.18299246 0.039969325
0000f0 72 cf 9e bd 5f 88 3c 3e 12 6b 1d 3b fd fc d6 3c
       -0.07754411 0.18411396 0.0024020118 0.026243681
000100 5f dd ef bd 22 aa 24 be 3e 7a 19 3e 29 ff 2d 3e
       -0.11712145 -0.16080526 0.14988038 0.16991867
000110 95 ec 2f 3e a6 a8 a6 3d 1a ba b0 3c 34 cc 99 bd
       0.17180093 0.08137636 0.021573115 -0.07509652
000120 c6 fd ec bd 35 99 86 bd 27 61 93 3c 93 0e 1e be
       -0.11571841 -0.06572191 0.017990662 -0.15435247
000130 bb e9 bc 3b 78 78 12 3c 9d 00 0c 3e 1e 26 2e 3e
       0.0057651675 0.008939855 0.13672109 0.17006728
000140 81 32 7e bd d3 4d 3b 3e 6c 69 03 bd 23 8f a9 3c
       -0.062059883 0.18291406 -0.03208296 0.020698136
000150 dd 89 16 be 88 96 51 3e 46 51 17 bb dc ad b7 bd
       -0.14701028 0.2046758 -0.0023089214 -0.08968708
000160 07 8a d8 bd 1d 4e 1f be 88 fa 4b 3e 3c 56 e6 bd
       -0.105732016 -0.15557142 0.19919789 -0.11246917
000170 af aa 16 be a4 f1 8c bc 89 36 2e be 37 d6 a2 bd
       -0.14713548 -0.017205067 -0.17012991 -0.079510145
000180 ff fc da 3c 9f a8 fa bd 62 3c 1d be fc 71 50 3e
       0.026731966 -0.12239193 -0.15355065 0.20355982
000190 99 ed 10 be 11 fe 3a 3e 68 ce 83 3d 9c 9f 33 be
       -0.14153136 0.18260981 0.06435853 -0.17541355
0001a0 2c 1d 3e bd 67 79 82 bd 0f ff 4d 3e b2 cd 0c be
       -0.04641454 -0.06370812 0.20116828 -0.13750342
0001b0 c2 70 1b 3e fe 3c 97 bd cf 08 82 3d 74 80 29 be
       0.15179732 -0.0738468 0.06349336 -0.16552907
0001c0 52 f2 a8 bd 68 56 46 3e 1f 36 f4 bc 1f a8 f8 bd
       -0.08249344 0.19368899 -0.029810963 -0.121414416
0001d0 09 d5 de 3d 69 30 24 3c e0 af 1e be a0 8f 9e bd
       0.10880477 0.0100213075 -0.15496778 -0.07742238
0001e0 35 36 a3 3d 20 2c e2 3c 42 f1 a7 3d e2 48 39 be
       0.079693235 0.027608931 0.08200313 -0.18094209
0001f0 1b 61 1a be c7 34 c5 bc 68 e9 57 be a3 a9 44 be
       -0.15076105 -0.024073018 -0.21085131 -0.19205336
000200 a8 d3 11 be 71 55 02 3d c4 53 69 bc 16 3a 49 be
       -0.14240897 0.031819765 -0.014241163 -0.19651064
000210 e6 c3 50 bd f4 a1 41 3e 0c e3 b9 3c 93 cc 3f 3d
       -0.050968073 0.18909436 0.022691272 0.046825957
000220 02 c0 1b 3e 1a 3c 29 3e 2f 3f 53 3e 00 03 0e 3e
       0.15209964 0.16526833 0.20629571 0.13868332
000230 13 73 16 3e 66 88 91 3d d5 97 20 3e f1 7b 2b be
       0.14692335 0.07106094 0.1568292 -0.16746499
000240 61 d7 46 bd d2 7a 1c bd 36 c6 1c bd ff 15 1d 3e
       -0.048545245 -0.038203068 -0.038274966 0.15340422
000250 a9 ad 0c be 39 53 bf 3d 2d 20 dc bd a5 d6 b8 bc
       -0.13738121 0.09342045 -0.107483245 -0.022563288
000260 df 16 ea bd 83 12 96 3d fd 5e 88 3b 20 65 36 3d
       -0.114301436 0.073277496 0.004161714 0.044530034
000270 3c b5 e6 bd d2 f5 cb 3c a6 b7 a9 bd b4 78 8e 3d
       -0.112650365 0.02489749 -0.08286981 0.06956616
000280 2e 6e dc 3b 4a 88 6d 3d fe 2b 86 3d a8 94 f1 3d
       0.0067270016 0.057991304 0.065513596 0.11795932
000290 91 bb 42 3e fd 32 26 3e 10 54 4d bd 8a 17 34 3c
       0.19016863 0.16230388 -0.050128996 0.01099194
0002a0 4a 16 17 bd a0 ad 2f be 89 02 f2 bd 37 ed 00 3e
       -0.03688649 -0.17156076 -0.1181689 0.1259049
0002b0 44 31 7b 3d d2 c9 57 be 70 ce 0d 3e 04 0b 1d be
       0.06132628 -0.21073082 0.13848281 -0.15336233
0002c0 6f 7f 0e be 9a c4 77 3d e2 66 96 bd db 05 fa bb
       -0.139158 0.06049023 -0.07343842 -0.0076300926
0002d0 d1 ce 9c 3c 11 21 3f 3e b9 30 20 3d 34 11 94 3d
       0.019141586 0.18664958 0.039108966 0.07229844
0002e0 12 d7 37 3e 3f b3 27 3d d4 5c c5 3d aa ec 87 bd
       0.17953137 0.040942427 0.09636846 -0.06636937
0002f0 48 65 53 bd 13 02 f9 bd ad 64 e2 3d 19 93 d9 3c
       -0.05161026 -0.12158599 0.11054359 0.0265594
000300 1d 95 ce bd a4 43 c0 3d 81 f3 07 bd a5 e2 2a 3e
       -0.10087035 0.093879014 -0.033191208 0.1668802
000310 f2 e0 f6 bd a6 8b 2a 3e 88 12 e4 bd 67 05 1d be
       -0.12054624 0.16654834 -0.11136347 -0.15334092
000320 53 f2 ff 3d 4b b7 0a be 19 53 16 be 95 86 2f be
       0.124973916 -0.13546483 -0.14680137 -0.17141183
000330 56 30 b5 3d bd 21 e8 3d e8 f4 40 bd c3 d8 41 3d
       0.0884711 0.1133456 -0.04710856 0.04732586
000340 af 2c b7 3c e5 4f b4 3c 33 21 34 be 3e 14 0f 3e
       0.022360174 0.022010753 -0.1759079 0.13972566
000350 7a 1a f2 3d 7e 8d 12 3e d5 45 b1 3d 21 a3 4b 3d
       0.11821456 0.14311787 0.086558975 0.04971612
000360 04 db 58 be a0 0f ed bc ef e4 96 bd 4f 75 53 bd
       -0.21177298 -0.028938115 -0.07367884 -0.051625546
000370 ba 0d 27 3e 50 fc 63 3e b8 d6 c6 3d 7d ce 76 bd
       0.1631383 0.22264218 0.09708923 -0.060255516
000380 f6 f4 16 3e 7f 40 17 bd e6 6b 1f be ff 80 df bc
       0.14741883 -0.036926743 -0.15568504 -0.02728319
000390 9b 0d db 3d f4 9a cc bc 8e 2f 20 be 4d 57 c5 3c
       0.106959544 -0.024976231 -0.1564314 0.02408948
0003a0 ce 97 64 3d 30 df f9 3d 81 ac 21 bd ee 92 d4 bd
       0.055808835 0.12200773 -0.039471153 -0.10379587
0003b0 64 80 c6 bc 62 e6 3d 3d 57 2f f7 bd d8 8c fe 3c
       -0.024231143 0.04636229 -0.12069576 0.031073019
0003c0 8d 21 0a be 78 52 7b bd f1 85 37 be 77 73 3a 3e
       -0.13489361 -0.061357945 -0.17922188 0.18208109
0003d0 a6 64 2d 3d 42 44 14 3d a8 bc 7f 3d f9 7f 9c 3d
       0.042332314 0.03619791 0.062435776 0.07641596
0003e0 e4 96 de 3c 15 c5 ea bd f3 92 c3 bd 1d e4 2d be
       0.02717156 -0.11463372 -0.09549513 -0.1698155
0003f0 25 18 b1 3c 17 2b fd 3d c7 59 80 bc d9 33 b8 bd
       0.021617958 0.12361734 -0.01566781 -0.08994264

fc1.bias f4 [128]
000000 07 15 12 3e fa da 04 3d 7b 71 8e 3c e1 20 dd bd
       0.14265834 0.032435395 0.017388096 -0.10797287
000010 23 3a f3 3d c2 71 81 3d 21 4f e4 bd 9a 3a ae bd
       0.11876323 0.06320526 -0.11147905 -0.08507271
000020 93 22 4f 3e 16 68 b4 3c 4c 4b d7 bc 79 bd 32 be
       0.20228033 0.022022288 -0.026281022 -0.1745509
000030 66 9e 15 bb 76 fe be bc 70 cf 9d 3d 14 db ba bd
       -0.0022830009 -0.023314696 0.07705581 -0.09123817
000040 b8 6f 8f 3c fb 9e af bd 8e d1 61 3d 29 7b c4 3b
       0.017509326 -0.08575245 0.055131488 0.005996127
000050 07 15 bc 3d 8b 26 bf 3d 80 bb 19 3e a1 04 14 3d
       0.09183698 0.09333523 0.15012932 0.036137227
000060 9b 2c 0f 3d f4 87 c6 3d 97 0b ce 3d 57 7c 62 bd
       0.03495465 0.096939 0.10060804 -0.05529436
000070 c6 c1 a9 bc c9 e6 1b bd f8 04 50 be e1 30 15 be
       -0.020722281 -0.03806189 -0.20314395 -0.14569427
000080 23 b2 a1 bd 2b f4 32 3e a4 9c 2f 3e 74 3c 1d 3d
       -0.07895305 0.17475955 0.17149597 0.03838773
000090 c8 79 24 be fc d3 8a bd 68 30 d6 3d 7b 85 f5 3d
       -0.16062081 -0.06778714 0.104584515 0.1198835
0000a0 d4 19 12 be 95 55 bf 3d 54 82 05 3c f7 8b b8 3d
       -0.14267665 0.09342495 0.008148748 0.09011071
0000b0 69 fb c3 bd d4 56 b1 bd 02 e7 0a 3e fd 55 4c bd
       -0.09569437 -0.08659139 0.13564685 -0.049886692
0000c0 d9 6a e5 bc e6 5b 17 bd 03 08 3c be 5c f6 f3 3d
       -0.02800505 -0.036952876 -0.18362431 0.11912224
0000d0 fb f7 18 be aa aa d2 3d 12 34 31 be cb 2d 9b bd
       -0.14938347 0.10286458 -0.1730502 -0.07577094
0000e0 07 7d 75 3d 66 53 75 3d 18 4a e9 3d 42 82 d6 3d
       0.05993369 0.059893988 0.113910854 0.104740635
0000f0 c4 40 1f 3d d8 f7 5a 3d f5 a6 33 be e4 e5 11 3d
       0.038880125 0.05345902 -0.17544158 0.03561963
000100 11 ce c5 3d 7d d7 95 3c f7 bf e0 bc 95 ac 8a 3d
       0.09658445 0.01829123 -0.027435286 0.06771199
000110 d8 1f 13 be d0 6d bd bd d8 ca aa bd 3c 02 f8 bd
       -0.14367616 -0.09249461 -0.083394706 -0.12109801
000120 77 21 43 3e da 9b 03 be 4f 98 0d be 7b ad ce 3d
       0.19055735 -0.12852421 -0.13827632 0.100916825
000130 5a 0d 36 bd d7 d5 3c be 8e f3 97 3d d6 39 df 3c
       -0.044446327 -0.18440948 0.07419501 0.027249258
000140 a9 b2 04 3e 9a 72 24 be 26 8a ae 3c a5 25 18 bc
       0.12958778 -0.16059342 0.021306109 -0.009286319
000150 38 3f d4 bd e1 bc e8 ba 1c 22 90 bd 5e e8 0a 3e
       -0.103636205 -0.0017756486 -0.07037756 0.13565204
000160 43 03 5e 3c 53 10 00 3e 27 82 4a be 0b 4d 1d be
       0.013550582 0.12506227 -0.19776212 -0.15361421
000170 f8 10 5d 3d fb 13 44 be c9 07 e4 3b 0d ad 34 be
       0.05397126 -0.19148247 0.006958936 -0.17644139
000180 c6 a2 9b bd 0c b4 9d 3d 4c 6b 2b 3e 2b 5e 39 be
       -0.07599406 0.07700357 0.1674015 -0.18102328
000190 a0 b4 44 3e cf 5b aa bd a9 d8 98 bd 91 17 cc bd
       0.19209528 -0.08318292 -0.074632 -0.099654324
0001a0 a3 a2 88 3d 9e b9 10 be a8 4c 7a 3d 83 0c dd 3c
       0.066716455 -0.14133307 0.06110826 0.026983505
0001b0 e9 ea 95 3a 19 c6 2e 3e 7e 88 38 3d 9b 39 86 bc
       0.0011437807 0.17067756 0.045052044 -0.01638489
0001c0 2f c9 0c be 24 a6 ab bd e2 cf 97 bd 95 3d a3 3d
       -0.1374862 -0.08381298 -0.074126974 0.0797073
0001d0 a6 66 d3 3d e6 60 1f be f7 e7 a4 bd 21 68 e5 3d
       0.10322313 -0.15564308 -0.08052056 0.11201502
0001e0 37 c4 d7 bd 57 a6 01 3e bf 86 2f be 63 11 73 bd
       -0.10535472 0.1266111 -0.17141245 -0.059342753
0001f0 fd c9 3d bc 9c 2b 08 3d c2 82 8d 3d eb dc 20 be
       -0.011583802 0.033244714 0.06909706 -0.15709274

bn1.weight f4 [128]
000000 35 ef 80 3f 31 c3 7f 3f 79 ed 7d 3f 9e 75 7f 3f
       1.0073 0.99907213 0.9919048 0.99788845
000010 72 49 81 3f f6 f7 7e 3f 8d 19 7d 3f e9 32 7e 3f
       1.0100539 0.9959711 0.9886711 0.9929643
000020 37 6a 80 3f af f2 7a 3f b4 f3 80 3f 63 91 80 3f
       1.0032414 0.98026556 1.0074372 1.0044369
000030 da b3 7d 3f 0f 12 82 3f c0 3b 80 3f 53 4e 7c 3f
       0.99102557 1.0161761 1.0018234 0.98557013
000040 e1 bb 80 3f c0 84 7b 3f fd c1 80 3f 0b f8 80 3f
       1.0057336 0.98249435 1.00592 1.0075697
000050 6c 0f 81 3f 02 b4 80 3f ee 98 80 3f ea 0e 7b 3f
       1.0082831 1.0054934 1.004667 0.9806963
000060 c4 89 81 3f 0b ec 7e 3f 51 68 7d 3f 37 e0 7e 3f
       1.0120168 0.99578923 0.989873 0.99560875
000070 22 fd 80 3f 4f d9 79 3f c2 c5 7f 3f f7 02 7e 3f
       1.007725 0.9759721 0.9991113 0.99223274
000080 0f ab 80 3f c7 ae 7e 3f 4e 64 82 3f 35 de 80 3f
       1.0052203 0.9948544 1.018686 1.0067812
000090 ab 66 7e 3f d6 13 81 3f cd 3f 7f 3f 70 07 80 3f
       0.9937541 1.0084178 0.9970673 1.000227
0000a0 34 40 81 3f d9 4e 7e 3f fb 4a 81 3f 37 ef 80 3f
       1.0097718 0.9933906 1.0101007 1.0073003
0000b0 54 f1 7f 3f 63 81 7d 3f c2 04 80 3f 2d ce 7f 3f
       0.9997761 0.99025553 1.0001452 0.99923974
0000c0 ed e4 7e 3f 7e 1e 7c 3f e7 a7 7e 3f e2 16 80 3f
       0.99568063 0.9848403 0.9947495 1.0006983
0000d0 ea ca 7d 3f c8 ad 80 3f 83 11 80 3f 48 d0 80 3f
       0.9913775 1.0053034 1.0005344 1.0063562
0000e0 57 0d 80 3f e7 11 82 3f 94 59 7e 3f 96 f4 80 3f
       1.0004071 1.0161713 0.99355435 1.0074642
0000f0 cc b2 7d 3f a4 dd 7d 3f 27 d1 7f 3f da e9 7d 3f
       0.9910095 0.9916632 0.99928516 0.99184954
000100 8a 3b 7f 3f c2 76 7e 3f 8d 7e 78 3f 61 0a 80 3f
       0.99700224 0.9939996 0.970681 1.0003167
000110 75 26 81 3f 23 07 7b 3f de b7 80 3f 18 00 7c 3f
       1.0089861 0.98057765 1.0056112 0.98437643
000120 d5 3f 80 3f f3 9d 80 3f 2e a5 7d 3f 7d e2 82 3f
       1.001948 1.0048202 0.9908017 1.0225369
000130 1d 03 81 3f ce 08 81 3f da 32 82 3f 87 aa 80 3f
       1.0079075 1.0080812 1.0171769 1.0052041
000140 3b 1c 7f 3f 65 20 80 3f 2f 55 81 3f 18 37 82 3f
       0.9965245 1.0009886 1.0104121 1.0173063
000150 2d 6b 7f 3f 1f fc 80 3f a9 b0 7d 3f e4 3d 81 3f
       0.9977291 1.0076941 0.99097687 1.0097013
000160 bb 8f 7e 3f a1 ea 7f 3f a1 94 7b 3f 59 ee 7d 3f
       0.99438065 0.9996739 0.98273665 0.99191815
000170 b9 47 80 3f 9e 6c 80 3f 8f 4e 80 3f 76 36 7f 3f
       1.0021888 1.0033147 1.0023974 0.99692476
000180 b9 7c 82 3f cf c8 81 3f 15 6c 7f 3f a5 b6 80 3f
       1.0194312 1.0139407 0.99774295 1.0055739
000190 03 4f 7e 3f 8e 8c 80 3f b6 d2 81 3f 9e f8 81 3f
       0.9933931 1.0042894 1.0142429 1.0153997
0001a0 02 b2 80 3f f8 88 80 3f b4 fc 80 3f 81 f2 80 3f
       1.0054324 1.00418 1.0077119 1.0074006
0001b0 a7 58 80 3f 91 31 7b 3f 74 7c 80 3f a2 90 80 3f
       1.0027055 0.9812251 1.003798 1.0044138
0001c0 e4 ee 80 3f 81 30 7e 3f c7 e3 7c 3f 05 85 80 3f
       1.0072904 0.9929276 0.9878506 1.0040594
0001d0 4c 8e 80 3f 2d 29 81 3f 69 a3 80 3f 90 d7 80 3f
       1.0043426 1.0090691 1.0049869 1.0065784
0001e0 ef c5 7e 3f e3 ed 80 3f df 42 7d 3f c4 ce 7e 3f
       0.9952077 1.0072597 0.9893016 0.9953425
0001f0 22 ac 7f 3f d6 9d 7d 3f 1e 03 7e 3f f3 63 81 3f
       0.9987203 0.99068964 0.99223506 1.0108627

bn1.bias f4 [128]
000000 fd 42 9c 3b f0 72 d3 39 b2 f3 c2 3b 25 c7 36 3c
       0.004768728 0.0004033069 0.005949461 0.011155878
000010 cd 8d 0c 3c 75 fd 2b 3c 32 a4 59 bc 37 e8 40 bb
       0.00857873 0.010497441 -0.013283776 -0.0029435286
000020 8d ec c0 3c 91 4c a9 bc 63 99 90 ba 55 43 fb 3a
       0.023550296 -0.020666393 -0.0011032041 0.0019169847
000030 17 9f 4c bc 58 dd c8 3c a9 5c 23 3c 01 c8 2c 3c
       -0.012489102 0.024519607 0.009970822 0.0105457315
000040 5c e3 e8 3a dd c1 a1 3c 8e 7d 12 3b 79 ee cf 3b
       0.0017767954 0.019745762 0.0022352668 0.006345567
000050 e4 82 5a 3c 40 96 f8 3c f9 8a 78 3b 92 89 e8 3b
       0.013336871 0.030345082 0.003792463 0.007096478
000060 3c 87 7d 3c 11 bd 7b bb 79 e8 d3 39 6d 16 81 bb
       0.015474137 -0.0038412253 0.00040418262 -0.003939441
000070 ff 12 4f 3c 41 64 c1 3a e3 07 c1 3b a7 0c 56 3c
       0.012638806 0.001475461 0.0058908327 0.01306454
000080 19 6b 23 3c c5 07 a4 ba 2a 9f 42 3c 0c e8 78 3b
       0.009974265 -0.0012514523 0.011878768 0.0037980108
000090 d5 a3 22 3b dd 2a 06 3c 6e 90 6f 3b f8 a5 27 3c
       0.002481689 0.00818893 0.0036554593 0.010232441
0000a0 be bd a3 3c 08 be 26 3c 64 e0 5a 3c ed 42 0e 3c
       0.019987937 0.010177143 0.013359163 0.008682949
0000b0 16 cb f8 bb 15 26 71 3b fd fa 09 3c d3 79 c8 39
       -0.007592569 0.003679638 0.008421657 0.0003823774
0000c0 09 0e 38 3c 86 e4 6d 3b a7 2c 06 3c 9e f6 5e 3c
       0.011233815 0.003629954 0.008189357 0.013608603
0000d0 27 8f 0b bc 26 c0 26 3c 6c f8 d2 3b b3 c4 e4 3c
       -0.008518017 0.010177648 0.0064383056 0.027925825
0000e0 70 43 04 3c 3a df 19 3b 3a 25 71 bb 9b 27 19 3c
       0.008072719 0.0023479 -0.003679587 0.009347822
0000f0 e4 2c 2d bc b3 9c d1 3b ec c2 25 3c 6b ef 57 bb
       -0.010569785 0.006396854 0.010117274 -0.00329491
000100 4d 04 3d bb fc ea 3c 3b 94 2c 10 bc e5 ae 78 3c
       -0.0028841675 0.0028826585 -0.008799691 0.015178417
000110 1b fb 14 bc 85 84 30 37 aa 9f c1 3b b2 12 a6 bb
       -0.009093071 1.0521272e-05 0.005908926 -0.0050681466
000120 eb 75 9f 3b af e6 33 3c db c4 79 ba 6a f8 d8 3b
       0.004866352 0.010980292 -0.000952793 0.00662141
000130 74 c2 3b 3c 78 0a 6a 3b 37 71 8d bb 59 9c c8 3a
       0.011459935 0.0035711806 -0.004316475 0.0015305384
000140 af 89 d8 3b 75 c9 96 3b 17 e4 5b 3b 0c d6 c8 3c
       0.00660821 0.0046016523 0.00335527 0.024516128
000150 ce 68 f6 39 97 2d ce 3b 0f 73 46 3c bb e1 36 3b
       0.00046998862 0.006292056 0.012112393 0.0027905542
000160 e5 18 0c bc e9 56 26 bb e0 ef 24 bb 33 bf 38 3c
       -0.008550857 -0.0025381392 -0.002516739 0.011276054
000170 d0 32 28 bb 02 86 62 3a 62 07 84 3c 6c c0 d5 bb
       -0.0025665052 0.00086411845 0.016116802 -0.0065231826
000180 17 f1 7c 3c 20 30 ee 3c 64 c2 b0 3b 22 40 12 3c
       0.01543834 0.029075682 0.005394267 0.008926423
000190 24 34 55 3c 6a b2 db 3b 38 26 9e 3c 6c 31 e9 3c
       0.01301292 0.006704618 0.019305333 0.028465949
0001a0 fb 47 80 b9 7e e4 4d bb 52 9b d6 3b d0 20 e2 bb
       -0.00024467692 -0.003141671 0.0065492773 -0.006900884
0001b0 ac 69 4d 3b 78 74 b3 3a 1e a5 6f 3c 28 e3 8a 3c
       0.0031343503 0.0013691327 0.014626769 0.01695402
0001c0 35 d1 89 3b 0f f1 69 3c d5 81 5b bc 95 ff f9 3b
       0.0042058476 0.014278664 -0.013397654 0.0076293447
0001d0 42 2c 83 bb 03 34 9f 3c 55 76 8b 3c dc 54 33 3c
       -0.0040030787 0.01943398 0.017024199 0.010945525
0001e0 5e 1b 1a bb 34 99 8c ba 04 31 62 3b 03 8a 01 bb
       -0.0023514847 -0.001072681 0.003451408 -0.00197661
0001f0 d7 48 d6 39 6a e8 68 bc a4 0c d2 b7 ba c7 88 3c
       0.0004087153 -0.014215568 -2.5039837e-05 0.0166968

bn1.running_mean f4 [128]
000000 fa b9 6e 48 33 05 b3 c8 0f 16 e6 48 13 1f b3 c8
       244455.9 -366633.6 471216.47 -366840.6
000010 56 be 5a c8 0f 54 d8 48 80 ae ce 48 24 50 8e 48
       -223993.34 443040.47 423284.0 291457.12
000020 f8 be 62 48 07 c4 b5 46 26 ca 07 49 5e 3b b8 c8
       232187.88 23266.014 556194.4 -377306.94
000030 7a be df c8 17 26 21 c9 96 79 03 c8 3f f1 f7 c8
       -458227.8 -660065.44 -134630.34 -507785.97
000040 fa 7b 30 48 fa 7b 21 c9 b2 46 18 c8 4b a9 d4 c6
       180719.9 -661439.6 -155930.78 -27220.646
000050 8e 4a c5 48 f6 2e 14 c9 4b c3 b0 c8 4b 8e dc c8
       404052.44 -606959.4 -362010.34 -451698.34
000060 12 2e 21 49 74 0f cd c8 6e 50 0a c9 bd 10 23 c8
       660193.1 -419963.62 -566534.9 -166978.95
000070 ae cb ad c7 e0 fd af 48 ea 56 92 c8 dd b8 66 c8
       -88983.36 360431.0 -299703.3 -236259.45
000080 1b d4 7e 48 65 1f 85 c8 24 9f 31 49 5e d5 99 48
       260944.42 -272635.16 727538.25 315050.94
000090 35 d2 7f 48 64 14 f2 c8 48 d3 1a c9 30 22 86 c7
       261960.83 -495779.12 -634164.5 -68676.375
0000a0 44 e0 1e c9 90 e9 b5 48 fc 16 85 48 0a b8 f1 48
       -650756.25 372556.5 272567.88 495040.3
0000b0 fa 65 0a c9 34 a9 86 48 07 b7 2e 49 7c 6b 3d 49
       -566879.6 275785.62 715632.44 775863.75
0000c0 f1 a2 0b c8 7a ee ce c8 0f 7b ef 47 76 7a 94 49
       -142987.77 -423795.8 122614.12 1.2163348e+06
0000d0 86 f1 54 49 5b dd 5d 47 c8 4b 3a 47 42 15 58 c8
       872216.4 56797.355 47691.78 -221269.03
0000e0 e1 f6 cd 48 cd 52 65 48 16 5d 1c 49 f2 5d f3 46
       421815.03 234827.2 640465.4 31150.973
0000f0 4b 79 1d 48 52 a4 db c8 7e 18 b2 c8 4c 2f f3 47
       161253.17 -449826.56 -364739.94 124510.59
000100 f3 44 94 c7 09 20 08 c9 ab 52 d6 c8 71 05 02 47
       -75913.9 -557568.56 -438933.34 33285.44
000110 e0 e6 6d c8 2d 50 b9 c7 68 d9 c1 c7 0e 77 6f c8
       -243611.5 -94880.35 -99250.81 -245212.22
000120 0c 64 b7 c5 d1 d9 b0 c8 d8 a2 4d 49 a4 e6 36 48
       -5868.506 -362190.53 842285.5 187290.56
000130 35 80 16 48 a2 d1 28 48 7c 24 3d c9 dd 52 56 c9
       154112.83 172870.53 -774727.75 -877869.8
000140 d1 76 bc 48 8d 86 8c c8 f2 b1 02 c9 ba 09 df 48
       385974.53 -287796.4 -535327.1 456781.8
000150 44 93 fe 46 06 19 da c8 e0 be 99 c8 57 f4 72 c5
       32585.633 -446664.2 -314871.0 -3887.2712
000160 da 2e c0 c7 5c bb 7f 46 7f e3 91 48 e6 47 59 c8
       -98397.7 16366.84 298779.97 -222495.6
000170 b8 d6 5b 48 d5 02 59 c8 37 a0 5e 49 84 1f 8d c8
       225114.88 -222219.33 911875.44 -289020.12
000180 bb a4 2e 49 0d 4e 4d 49 df 71 15 49 f0 3f 98 48
       715339.7 840928.8 612125.94 311807.5
000190 85 ec 58 c8 f1 b2 79 46 81 b1 d8 48 b6 c7 eb 48
       -222130.08 15980.735 443788.03 482877.7
0001a0 11 07 78 c8 a1 c0 82 c8 15 55 65 c8 ca 47 9d c6
       -253980.27 -267781.03 -234836.33 -20131.895
0001b0 eb dc d6 48 08 50 ba c6 50 e9 a2 c8 2a f2 5f 49
       440039.34 -23848.016 -333642.5 917282.6
0001c0 ba 89 a2 48 3f 23 f4 45 30 c2 da c8 96 e7 cd 48
       332877.8 7812.406 -448017.5 421692.7
0001d0 e0 d2 46 c8 3b 4e 13 c8 d4 36 d9 48 10 00 d9 46
       -203595.5 -150840.92 444854.62 27776.031
0001e0 c3 04 49 49 5b 34 08 c9 82 f8 31 c9 d4 b1 8f c6
       823372.2 -557893.7 -728968.1 -18392.914
0001f0 63 b8 49 c8 6a db cd c6 87 be 83 49 7a 24 74 49
       -206561.55 -26349.707 1.0792489e+06 1.0000076e+06

bn1.running_var f4 [128]
000000 19 52 b5 50 bf 3c 36 51 e5 91 5b 50 1a 67 d4 50
       2.4336452e+10 4.891895e+10 1.4735087e+10 2.8508213e+10
000010 b7 68 11 50 3d 4c f1 51 1e b6 32 50 f7 95 a6 50
       9.758236e+09 1.2954577e+11 1.1993119e+10 2.2358768e+10
000020 a8 6d d4 50 7a fc 04 51 32 72 93 50 62 03 2c 50
       2.851165e+10 3.569822e+10 1.9789877e+10 1.1543611e+10
000030 da 88 08 51 e0 f8 64 51 26 31 f2 50 e4 01 87 50
       3.665072e+10 6.146425e+10 3.2506458e+10 1.8120385e+10
000040 5e 56 be 50 cf d1 e5 50 80 b6 95 50 13 ef c9 50
       2.554665e+10 3.084586e+10 2.0094124e+10 2.7103107e+10
000050 7a b7 77 50 90 1c 16 51 67 e2 a7 51 d7 5d 79 50
       1.6623987e+10 4.029527e+10 9.013224e+10 1.6734707e+10
000060 ca 46 8e 50 e0 fb a1 51 b0 da 4e 51 ad 35 99 50
       1.9096031e+10 8.696444e+10 5.5527014e+10 2.0563454e+10
000070 72 2a 90 51 30 84 8a 50 e5 9f fe 50 2d a5 81 50
       7.7398426e+10 1.859135e+10 3.4175134e+10 1.7400687e+10
000080 0a 26 a3 50 aa cc a3 50 61 0d f4 50 20 9c de 50
       2.1897433e+10 2.1984793e+10 3.275614e+10 2.987819e+10
000090 c7 eb 7a 51 5e 48 0b 51 cb 9c 00 51 d1 bc e5 50
       6.7356094e+10 3.738841e+10 3.4524148e+10 3.0834854e+10
0000a0 e2 a4 64 51 1e af 22 50 8a 9b 90 50 6f 02 3f 51
       6.1376176e+10 1.0917542e+10 1.94089e+10 5.1273724e+10
0000b0 d6 28 50 51 48 5c 8e 50 b8 6e 1e 51 30 19 83 51
       5.5877394e+10 1.91073e+10 4.25289e+10 7.038291e+10
0000c0 8d 99 6f 50 ef bf b7 50 65 23 a8 50 8a 15 bf 51
       1.6079271e+10 2.4662473e+10 2.2567135e+10 1.02587515e+11
0000d0 79 82 9f 51 7a c4 34 51 e9 9a 9c 51 ed 8f 21 51
       8.56361e+10 4.8524403e+10 8.407673e+10 4.3369026e+10
0000e0 c8 74 e5 50 b2 15 76 51 26 87 c8 50 a5 59 a2 50
       3.0797087e+10 6.605787e+10 2.6914402e+10 2.1790271e+10
0000f0 7b 91 1d 50 99 7b a6 50 ed 4d 9d 51 c3 4e f6 4f
       1.0574228e+10 2.2344944e+10 8.4452155e+10 8.2647137e+09
000100 d5 8e 89 50 bb 54 0a 51 dc d2 f9 50 1e 5d 2d 51
       1.8462714e+10 3.713294e+10 3.3530765e+10 4.6536974e+10
000110 16 5a 25 51 10 6e 27 51 05 1e 54 50 f6 18 95 50
       4.4386312e+10 4.494413e+10 1.4234949e+10 2.0011528e+10
000120 02 cb 8b 50 bb fd 92 51 17 55 6a 51 dd 27 32 51
       1.8762699e+10 7.8915265e+10 6.290312e+10 4.782331e+10
000130 01 6b 6c 50 24 ea d7 4f d6 90 0d 52 a7 32 11 51
       1.5865742e+10 7.244892e+09 1.5200508e+11 3.8976254e+10
000140 37 36 22 50 b4 03 7b 50 bd ed 8f 51 f8 ee a3 51
       1.0885848e+10 1.6845296e+10 7.727111e+10 8.801111e+10
000150 14 e0 7e 50 c9 8e 94 51 69 2c 18 51 b9 7e 40 51
       1.7104392e+10 7.975634e+10 4.0848757e+10 5.1672486e+10
000160 d2 f5 00 51 2c 4c 34 50 c7 b4 e5 50 41 bc a5 50
       3.46175e+10 1.2099564e+10 3.083064e+10 2.2244624e+10
000170 74 06 5c 51 e7 e6 f9 50 85 e3 7c 51 72 02 8b 50
       5.9062567e+10 3.3541274e+10 6.7884306e+10 1.8657546e+10
000180 61 a6 07 52 1b f9 4c 51 e3 b7 12 51 23 5a 0b 50
       1.4565299e+11 5.502204e+10 3.9384396e+10 9.351761e+09
000190 88 3d e7 50 73 99 b1 51 9c 73 72 50 11 0f c8 51
       3.1036555e+10 9.534796e+10 1.6270651e+10 1.0740578e+11
0001a0 9e c3 fc 50 d0 9a 62 51 ec c9 69 50 2a 00 6d 51
       3.3925427e+10 6.0828746e+10 1.5689298e+10 6.3619375e+10
0001b0 46 ad cc 51 96 f4 13 50 12 06 30 51 92 20 a6 51
       1.0988505e+11 9.92912e+09 4.7251005e+10 8.918888e+10
0001c0 1c 2f 8c 51 7c 40 2d 50 47 ff 8d 50 94 98 07 52
       7.526072e+10 1.1626738e+10 1.9058538e+10 1.455951e+11
0001d0 9e 14 d1 50 5a 7f 35 51 bd 10 94 50 9d da 25 51
       2.8062314e+10 4.8720355e+10 1.9873e+10 4.4521083e+10
0001e0 61 fe 48 51 c9 f9 9b 50 09 42 12 51 c5 b9 73 50
       5.3953827e+10 2.0934707e+10 3.926082e+10 1.6356152e+10
0001f0 76 87 43 51 ab 98 e1 4f a3 e9 15 51 1f af c1 51
       5.2486955e+10 7.5697577e+09 4.024187e+10 1.0398334e+11

fc2.weight f4 [128, 128]
000000 5b f4 94 3d fc ad a8 3d cb d6 2c 3d 79 e3 88 3d
       0.072731696 0.0823631 0.04219703 0.06684012
000010 07 dd 50 bd b4 00 86 bc 95 2c 86 3d 64 4b 02 bd
       -0.050992038 -0.016357757 0.06551472 -0.03181018
000020 49 08 d5 3c a8 5e 38 3d 7f 33 32 bd 41 f6 8a bc
       0.026004927 0.045012146 -0.04350614 -0.016963126
000030 7d 55 a4 3d 4f 37 7b bd 39 81 72 3c b7 f0 79 bd
       0.08024118 -0.061332043 0.014801317 -0.06102058
000040 c9 d1 5a bd ca 1e 5e bc 79 e5 89 bd 09 81 1b 3d
       -0.053422723 -0.013557145 -0.067332216 0.037964854
000050 ac 49 a5 bc fb cd 9c 3d a7 30 42 3d 99 40 9f 3c
       -0.020176731 0.07656475 0.04740968 0.019439982
000060 fd 52 c3 3c 21 54 ac 3b 27 ff 35 bc 1c 3a b0 bd
       0.023843283 0.0052590524 -0.011108196 -0.086048335
000070 25 f4 89 bd 3c 10 ae 3c 2e 64 cb 3c 41 ba a8 3d
       -0.0673602 0.021247976 0.024828043 0.0823865
000080 d6 14 4a bd 5e 09 25 bb 7e 00 42 bd 37 9a 1f bc
       -0.049336277 -0.0025182585 -0.04736375 -0.0097413575
000090 3f 1f 22 3d 7e 23 53 3d d3 dc ce bc c2 5d 8b bc
       0.03958058 0.05154752 -0.025251782 -0.01701248
0000a0 de 58 bf 3d 8c 03 82 3b ca 1a 9f bd 48 1b 8d bd
       0.09343122 0.003967708 -0.077687815 -0.06889969
0000b0 de 59 98 3b 96 d5 b7 bd 75 e5 40 bd 21 ce a6 3d
       0.004649385 -0.08976285 -0.047093827 0.08144785
0000c0 59 05 c7 bc fc 5a a7 ba fe de a3 3d ae b9 bf 3c
       -0.024294542 -0.0012768204 0.08001517 0.023403969
0000d0 92 ec 1e bb fb 69 94 bd 95 6b 06 3d 7d 0c 80 bd
       -0.0024249894 -0.07246777 0.032817442 -0.06252382
0000e0 c5 df b0 3d 04 93 bd 3b 85 23 24 bd e8 08 25 3c
       0.08636431 0.005785348 -0.040072937 0.010072924
0000f0 ce f5 cc bc d8 44 8a bd 5d 4c 76 bd 10 2f 03 3c
       -0.025019553 -0.06751412 -0.06013142 0.008006826
000100 cd 04 23 3d 92 06 05 bd c0 68 1a bd 78 83 91 3d
       0.0397995 -0.03247697 -0.037697554 0.07105154
000110 3a b2 9d 3d 4d 74 3c 3c d5 e7 3c bd 71 52 81 bd
       0.0770001 0.011502338 -0.04611953 -0.063145526
000120 1d f2 53 3d 83 99 31 3c c1 c2 81 3c e4 02 85 3c
       0.05174457 0.010839823 0.015839936 0.01623673
000130 33 ea 22 3d fb ed a0 bc b8 1a d6 3d bb 68 0a bd
       0.03977413 -0.019644728 0.10454315 -0.033791285
000140 57 29 81 bc e9 e6 58 bd 9e d3 90 3d 28 9f 50 3d
       -0.015766783 -0.052954588 0.07071613 0.050933033
000150 8b 4b d3 bc 51 49 d8 bb b6 0b bc 3a da 2e 6e 3c
       -0.025792858 -0.006600537 0.0014346752 0.0145375375
000160 e3 8a 94 3d 74 2b bb 3c a7 0e 90 3d 80 87 3d bd
       0.07253053 0.022847869 0.07034045 -0.0462718
000170 2d d2 ca 3c f2 2e 52 3d 68 dc 18 bb a7 25 5a 3d
       0.024758423 0.0513143 -0.0023324732 0.053258564
000180 6a 9c 3d 3d e1 fd c9 bc 4d 4c 5b 3d c0 e9 e2 bd
       0.046291746 -0.024657192 0.053539563 -0.110797405
000190 fa 67 26 bc e2 f4 b2 3d 05 c0 98 bd 2f 27 27 3d
       -0.010156626 0.08738114 -0.074585 0.040808853
0001a0 b2 79 8e 3d 89 c8 f8 bc 9f bf 2d bd dd c3 85 bc
       0.06956805 -0.03036906 -0.042419072 -0.016328746
0001b0 7b 31 8b bd 75 84 9b 3d 65 d4 83 3d b9 7c 43 3d
       -0.06796547 0.075936235 0.064369954 0.047726367
0001c0 88 4e 18 3d 4d f6 2b bc c2 80 b6 bd 4d 4b d4 bc
       0.03718427 -0.010495734 -0.08911277 -0.025914812
0001d0 13 02 d9 3c 64 43 a3 bd 71 23 86 bc a6 ef 8f 3c
       0.026490247 -0.07971838 -0.016374322 0.017570328
0001e0 75 5b 3c 3d 1c c0 58 3d dd a6 7a bc 54 ee 16 bd
       0.045985658 0.052917585 -0.015298572 -0.03684838
0001f0 30 a0 82 3c 80 c7 10 bd 37 61 f1 b9 d8 20 3d bd
       0.015945524 -0.035346508 -0.00046039533 -0.0461739
000200 16 cc 38 3d f5 5a 5e bc a3 c3 f6 3b e4 64 1f bd
       0.045116507 -0.0135714905 0.007530646 -0.038914576
000210 6e fc de bc 64 e1 0d bd b4 74 9a 3c e5 36 19 bd
       -0.027219977 -0.034638777 0.018854477 -0.037405867
000220 04 6c 9c bd 7d b9 87 bd ac 20 0c bd 72 f0 5c 3c
       -0.0763779 -0.06627176 -0.034210846 0.013485061
000230 e1 5e dc bc 66 d0 79 bd 75 c8 87 3d 2a 98 98 bd
       -0.02690071 -0.06098976 0.06630031 -0.07450898
000240 fd 2f a5 bc 0d cf 59 bd 95 bc 85 3d 98 75 2a bc
       -0.020164484 -0.053175975 0.0653011 -0.010404013
000250 54 80 93 3c 28 b5 28 3a ad 92 94 3b 19 2a 74 3a
       0.018005528 0.0006435686 0.0045340867 0.00093141344
000260 00 c7 79 bd 9a 69 c2 3c f1 11 bf bc 10 15 40 3c
       -0.060980797 0.023731995 -0.023323985 0.011723772
000270 23 e4 c4 3c e9 19 97 bd b3 39 95 3d 45 09 c6 bc
       0.024034565 -0.07377989 0.07286396 -0.024174342
000280 b9 b7 3a bc d1 59 cf 3d 50 eb ba 3d 52 99 4a 3b
       -0.011396342 0.10124553 0.091269135 0.003091414
000290 c8 1c 07 3c bf 45 31 bd 69 23 40 bd d7 99 75 bc
       0.008246608 -0.043279406 -0.04690877 -0.014990292
0002a0 9a 81 df bb 43 8e a1 3d 8e 1d 3d bd 8a f5 9d 3d
       -0.0068208696 0.078884624 -0.046170764 0.077128485
0002b0 17 8f dc bc 29 10 a3 bd 8f 08 84 ba df 97 b8 bd
       -0.0269237 -0.07962067 -0.0010073351 -0.09013342
0002c0 31 40 28 3d bd 27 92 3a 17 2b 0f 3d f7 44 70 3b
       0.041076843 0.0011150759 0.034953203 0.00366622
0002d0 3e 2b 3c 3d 83 46 f2 bc 35 0d 93 bd ee 3d 9e 3d
       0.045939676 -0.029574638 -0.071802534 0.07726656
0002e0 0a f3 c3 bd 2b d1 a8 3c 9a b7 a3 bc 70 dc ce bc
       -0.095678404 0.020607552 -0.019985009 -0.025251597
0002f0 4d ef a3 bd 3b ed f2 3c ff 9c fb 3c bc 64 3d bd
       -0.080046274 0.029654136 0.03071451 -0.046238646
000300 9a ed 9d 3d 74 4f 52 ba cf ce 80 bd 6e be 66 3d
       0.077113345 -0.00080227037 -0.062894456 0.05633395
000310 0f 7b a0 bd 1c af c2 3d f0 50 7e 3c 04 5d 7f bd
       -0.078359716 0.09506056 0.015522227 -0.062344566
000320 58 5b 86 3c 4b 0f 2b bd eb 72 98 bc 41 49 47 3d
       0.016400978 -0.04176263 -0.018609485 0.048653845
000330 3b 1c 99 bc b6 8f a2 3d 5e 88 1b bd de b6 c4 3c
       -0.01869022 0.07937567 -0.037971847 0.02401298
000340 ad c1 97 bd d5 6b ca 3b e4 43 9c bd f0 22 b2 bd
       -0.074099876 0.0061774054 -0.076301366 -0.0869807
000350 f5 d7 8e bc a2 88 19 3d c7 af 41 bd 7e fe 16 3d
       -0.01743696 0.03748382 -0.047286775 0.036863796
000360 57 85 3b bd 8e 60 a2 bc 13 87 97 3d 83 b1 a9 3d
       -0.04578146 -0.019821431 0.0739881 0.08285811
000370 df 23 09 bd 3b 6c 8b b9 89 18 22 3d 5a 18 a0 3d
       -0.033481475 -0.00026592784 0.03957418 0.07817145
000380 c0 ef 64 3c 5e bd 8a 3d 9a d1 3c 3c b8 2c bd 3d
       0.0139731765 0.067744 0.011524582 0.09237045
000390 b5 db c4 bd ad 45 74 bd 00 a5 b6 bd 08 d0 ed bc
       -0.09612218 -0.05963676 -0.0891819 -0.029029861
0003a0 83 cf f3 3c a8 27 94 3d 84 be 2e bd 1d 88 a2 bd
       0.029762035 0.07234126 -0.04266216 -0.07936118
0003b0 18 9d 0b bd c1 d2 a2 bb 2e 99 45 bd 2b 3e 86 3d
       -0.034085363 -0.0049689715 -0.048241787 0.06554826
0003c0 ad cd 81 3d 9d a7 77 bd 19 74 d8 3d 79 6e b7 bd
       0.06338058 -0.060462583 0.10569019 -0.08956618
0003d0 7b e1 6d 3d e0 6e d4 bc ac aa 4d 3d 8c de 0d 3c
       0.058076363 -0.025931776 0.050211594 0.008659016
0003e0 34 10 f0 bc b7 88 12 3d fa c6 8c 3c 81 42 c0 bc
       -0.029304601 0.035774913 0.017184723 -0.023469212
0003f0 46 6c aa bc 81 7a 93 3c a0 52 88 bd df d7 67 3d
       -0.020803582 0.01800275 -0.066563845 0.056602355

fc2.bias f4 [128]
000000 8f 9f 54 bd f7 a2 f5 3c 00 f1 80 bd 55 4c b5 bd
       -0.05190998 0.029984934 -0.06295967 -0.0885245
000010 a8 be 4d 3d 83 e0 cc bc e4 f2 72 3d 41 68 58 3c
       0.050230652 -0.0250094 0.05931367 0.01320845
000020 40 82 48 bb d1 44 af 3c af 1e 98 bc ad 56 43 3d
       -0.0030595213 0.021395119 -0.018569319 0.047690082
000030 e5 ab 16 bd 8c ac 56 bd b7 dc 87 bd 46 3b dd bc
       -0.036785025 -0.052410647 -0.06633895 -0.027005803
000040 2a c3 85 3c db 2b b2 3d 31 6f 29 bc dc 94 20 3d
       0.016328413 0.08699771 -0.0103414515 0.039204463
000050 61 7c 6d bb ea 4d 95 3c b6 33 91 bd d0 e5 63 bd
       -0.0036237466 0.018225629 -0.07089941 -0.05563909
000060 e9 ad 54 bd 6a 5c 1d bd 1e 56 cc bc 1f f2 af bd
       -0.051923666 -0.03841821 -0.024943408 -0.08591103
000070 cd 50 0a 3d ea 4c ae 3d e3 d0 52 3d f5 bc 4c 3d
       0.033768464 0.08510764 0.05146874 0.04998489
000080 40 d2 87 bd 3e 6b b8 bb 34 c2 7c bd 94 4f 56 3c
       -0.06631899 -0.0056280186 -0.061708644 0.013080496
000090 14 fb 99 bd cb 36 8b 3d 12 d3 99 3a 16 df de ba
       -0.075185925 0.0679756 0.0011735877 -0.0017003741
0000a0 5f ab 1b bd 16 71 a1 bd cc bd 97 bd 5a c2 6f 3d
       -0.03800523 -0.078828976 -0.07409248 0.058534957
0000b0 6a c6 70 bd e3 fb 8c bd 1b 51 64 bd 29 3c 21 3d
       -0.058782972 -0.06883981 -0.05574141 0.039364014
0000c0 5b d3 5f 3d c9 4a d0 3b ea 08 86 bd f3 6d 10 3d
       0.054644924 0.0063565713 -0.06544669 0.035261106
0000d0 46 e7 95 bd 3c 87 86 bd 76 51 99 3c 7f e1 3b 3d
       -0.073195025 -0.06568763 0.018715601 0.045869347
0000e0 19 3d d8 bb 70 35 43 bd aa 2f 92 bd cb 10 74 3c
       -0.0065990803 -0.047658384 -0.071379974 0.014896582
0000f0 8b cd dd 3c bb cf 7e bd 6b d1 b0 3d d4 f5 01 bd
       0.02707555 -0.062209826 0.08633693 -0.03172858
000100 fa 7d 45 3d dd 07 50 bd 62 44 f4 bc db d6 79 3d
       0.048215844 -0.05078875 -0.029817764 0.060995918
000110 77 37 85 3d 7d e4 7a 3d f4 c7 2a bd 45 bf 72 bd
       0.0650472 0.06125306 -0.041694596 -0.05926444
000120 d5 07 b2 bc 55 3a 29 3d 5b 0b 94 3d 41 83 9e bc
       -0.02173225 0.041315395 0.072287284 -0.019349696
000130 8a fa 71 3d 58 bd 96 3d 66 bc 24 3d a3 0d 70 3d
       0.059076823 0.07360333 0.040218733 0.058606755
000140 c3 8e 88 3d 22 e2 26 3d 0a 91 cd bc e2 ae a3 3d
       0.06667855 0.040743 -0.025093574 0.079923406
000150 ec 88 24 bd ea d3 83 3c 02 09 7a 3d 47 12 af bd
       -0.04016964 0.01609226 0.061043747 -0.08548408
000160 09 8a 80 bd 98 70 52 bb ab 86 bb 3b 6a 16 54 3d
       -0.06276328 -0.0032110568 0.005722841 0.05177919
000170 d8 69 82 bd 30 df 68 3d 52 87 ed 3c dc 80 8b 3b
       -0.06367844 0.056853473 0.02899519 0.0042573046
000180 5e 53 36 bd e0 2c 77 3d 81 ff 54 3d 2c e4 f5 bb
       -0.0445131 0.06034553 0.05200148 -0.007504007
000190 81 83 b6 3c d2 94 87 bd 13 d6 0c 3d 16 43 7f bd
       0.022279503 -0.06620182 0.034383845 -0.062319838
0001a0 93 a0 a2 bd b8 e4 a8 3d b6 f0 e8 bb b7 55 af bd
       -0.07940783 0.0824675 -0.007108773 -0.08561271
0001b0 b1 f9 99 3c 26 01 5f bd a0 63 a2 3d 07 46 a0 3c
       0.01879582 -0.054444455 0.07929158 0.019564642
0001c0 fd ff 8e 3d fb 87 a3 3d 92 7f 75 bd 47 e7 2d bc
       0.0698242 0.079849206 -0.059936114 -0.010614223
0001d0 25 63 a0 3d 4f 59 a8 bd 31 eb 48 bd 3e 1d 76 3d
       0.0783141 -0.08220159 -0.04905242 0.06008648
0001e0 2e d7 0c bd 6a 7b 75 bd 3e 47 94 bd 56 2c f8 bb
       -0.0343849 -0.05993215 -0.07240151 -0.0075736446
0001f0 9c 40 42 3d f1 79 f2 bc b1 b9 9d bd df 40 0a 3d
       0.047424898 -0.029599162 -0.077014334 0.033753272

bn2.weight f4 [128]
000000 24 44 83 3f 57 77 80 3f 61 80 7f 3f ad 0f 7e 3f
       1.025517 1.003642 0.99805266 0.9924267
000010 1c e2 80 3f 90 d7 7e 3f c8 80 81 3f 33 59 80 3f
       1.0069003 0.9954767 1.0117426 1.0027221
000020 bd 7a 82 3f 1d 81 80 3f 28 8d 78 3f 84 1b 7f 3f
       1.0193707 1.0039402 0.9709039 0.9965136
000030 9c 8e 81 3f 6c 37 81 3f de cb 81 3f 03 e9 7f 3f
       1.0121646 1.0095038 1.014034 0.9996492
000040 82 a3 80 3f 78 b3 81 3f 14 c6 7f 3f 8f c9 7d 3f
       1.0049899 1.0132895 0.9991162 0.9913568
000050 15 61 7f 3f 55 2a 82 3f 11 45 7f 3f cf 68 80 3f
       0.9975751 1.0169169 0.9971476 1.0031985
000060 fa c7 7e 3f 11 2d 7f 3f 1b ac 7d 3f 0b 14 81 3f
       0.9952389 0.9967814 0.9909074 1.0084242
000070 cf 2f 7b 3f 11 07 7d 3f a5 58 80 3f 24 07 81 3f
       0.98119825 0.9883891 1.0027052 1.0080304
000080 34 20 7f 3f 96 55 7f 3f de ce 80 3f be 3f 84 3f
       0.99658513 0.9973997 1.0063131 1.0331953
000090 26 d0 7d 3f 0c 20 80 3f 14 f9 80 3f 8e 05 81 3f
       0.99145734 1.000978 1.0076013 1.007982
0000a0 80 98 80 3f 28 58 81 3f 94 6f 82 3f 26 fa 7e 3f
       1.0046539 1.0105028 1.0190301 0.99600446
0000b0 c4 f1 7f 3f f0 24 7e 3f 79 ef 7f 3f 00 5f 80 3f
       0.9997828 0.9927511 0.9997478 1.0028992
0000c0 82 22 81 3f 8b 32 7f 3f ae b4 7a 3f f3 cb 80 3f
       1.0088656 0.996865 0.97931945 1.006224
0000d0 3b 69 7d 3f 58 1b 7d 3f 4e 3e 80 3f 8f d8 81 3f
       0.98988694 0.9886985 1.0019014 1.0144213
0000e0 97 83 82 3f 3a 58 7c 3f 44 c9 7f 3f b9 89 7e 3f
       1.0196408 0.98572123 0.9991648 0.994289
0000f0 6f 6e 81 3f 21 16 7e 3f 31 71 81 3f 94 85 7c 3f
       1.0111827 0.99252516 1.0112668 0.98641324
000100 a7 5b 80 3f 3e 2e 80 3f 37 4a 81 3f 94 b0 7f 3f
       1.002797 1.0014112 1.0100774 0.9987881
000110 a8 af 7e 3f 67 02 7f 3f 56 88 80 3f bb 28 81 3f
       0.9948678 0.9961304 1.0041606 1.0090555
000120 e1 50 7d 3f b8 c6 7e 3f 2f 0f 81 3f 99 53 7b 3f
       0.98951536 0.9952197 1.0082759 0.98174435
000130 ab 01 80 3f c7 bf 80 3f fe 7b 7e 3f 3a 95 81 3f
       1.0000509 1.0058526 0.9940795 1.0123665
000140 32 09 7f 3f f8 44 7c 3f 25 fb 7c 3f 4b 44 82 3f
       0.99623406 0.9854274 0.98820716 1.0177091
000150 cc c0 80 3f b5 49 7f 3f f3 ed 7e 3f 62 69 80 3f
       1.0058837 0.99721843 0.9958183 1.003216
000160 ca cf 7e 3f 37 37 7d 3f 9d 87 7e 3f 51 f2 7e 3f
       0.9953581 0.98912376 0.9942568 0.99588495
000170 99 dd 80 3f fe 1c 7e 3f 75 f5 81 3f 1b 54 81 3f
       1.0067626 0.9926299 1.0153033 1.0103792
000180 a5 ee 80 3f 69 a3 7d 3f 8f 0b 80 3f 60 79 7a 3f
       1.0072829 0.9907747 1.0003527 0.97841454
000190 58 19 7e 3f 33 15 7d 3f 1c bd 78 3f 82 aa 79 3f
       0.9925742 0.9886047 0.9716356 0.975258
0001a0 bf 52 7e 3f 8c e8 81 3f 28 96 7e 3f 2a 6f 82 3f
       0.9934501 1.0149093 0.9944787 1.0190175
0001b0 28 d7 7e 3f db de 80 3f d3 0c 80 3f 46 6b 81 3f
       0.9954705 1.006801 1.0003914 1.0110862
0001c0 20 57 80 3f 88 e9 7f 3f 25 02 7c 3f 33 c7 83 3f
       1.0026588 0.99965715 0.9844077 1.0295166
0001d0 df 69 7a 3f 52 63 7e 3f 9c 7f 7d 3f a2 b3 80 3f
       0.97817796 0.993703 0.9902284 1.005482
0001e0 5d 75 81 3f f8 7e 80 3f e9 2f 80 3f 4b 44 81 3f
       1.0113941 1.0038748 1.0014621 1.0098966
0001f0 c4 29 7e 3f 11 b9 7b 3f f2 25 7e 3f 6c 0f 7d 3f
       0.9928248 0.98329264 0.9927665 0.98851657

bn2.bias f4 [128]
000000 55 29 cb 3c 75 be 14 bc 24 02 af 3c 3a 25 0b 3c
       0.024799982 -0.009078612 0.021363325 0.008492762
000010 ec ee cb 3c 3b 90 a0 b9 50 3a 6b 3c a8 cb 8c 3b
       0.0248942 -0.00030625038 0.0143571645 0.0042967387
000020 f8 05 b4 3c 5d b0 88 3c 6d dd 7e bb f1 01 fb bb
       0.021975502 0.016685659 -0.0038889304 -0.0076601435
000030 68 64 82 3c 8e ae 86 3c cb 1a ed 3b 21 5d a3 ba
       0.015917018 0.016440656 0.00723586 -0.0012463668
000040 a6 db c5 39 95 9f 37 3c bc 54 3d 3c f0 e0 f4 ba
       0.0003773842 0.011207481 0.011555847 -0.0018682759
000050 2d 7a 0c 38 0b 67 a9 3c b7 e3 cb bb 16 22 95 3c
       3.3492386e-05 0.020679018 -0.006222214 0.01820473
000060 2b 0e 11 3c 9c 0e 97 b9 99 e8 1e 3c ba b9 b4 3c
       0.008853476 -0.0002881185 0.00969901 0.022061218
000070 db de 8b bc e9 d3 e4 bb 82 9f fd 3b 6a ed 86 3b
       -0.01707404 -0.0069832695 0.007739962 0.0041176574
000080 a8 44 03 39 27 2d ff 3b 46 ba 3b 3c 92 3a aa 3c
       0.0001251871 0.007787365 0.011457985 0.020779882
000090 5a 02 5e 3b 63 27 3a 3b 85 52 bd 3b df c3 39 3c
       0.0033875913 0.0028404824 0.0057776594 0.011338203
0000a0 77 a1 5e 3c e8 06 45 3c ac e4 b5 3c aa dc c5 3b
       0.013588301 0.012025572 0.022203766 0.006038268
0000b0 c9 cc 2d 3b a7 06 6e bc 22 a7 fa 3a 2e 00 2f 3c
       0.0026519767 -0.014527953 0.0019123296 0.010681195
0000c0 69 27 e8 3b 33 10 7f 3c 86 fe 9b bc 70 69 9a 3c
       0.007084776 0.015567827 -0.019042265 0.018849105
0000d0 7a 3e 35 bc 53 c7 3e bc 69 2e ce 3b 96 39 60 3c
       -0.011062259 -0.011644202 0.0062921536 0.013685605
0000e0 5d c3 f0 3c 24 23 81 bc 7d 96 bd 3a 01 4e ec bb
       0.029390031 -0.015763827 0.0014464405 -0.007211447
0000f0 3f 66 82 3c 37 c3 0f bc e9 ee 3a 3c 27 2a 46 bc
       0.015917895 -0.00877457 0.0114095 -0.012095011
000100 bc 1f 30 3c 3a 52 6a 3c 53 c4 25 3c 15 36 13 3d
       0.010749754 0.014301831 0.010117608 0.03594025
000110 90 b6 d1 b9 e1 7f 8c 3c f7 9f 6d ba c0 23 b8 3b
       -0.00039999606 0.017150821 -0.0009064669 0.005619496
000120 34 4d a8 bb 0c b0 e9 ba e5 34 c2 3b 09 8c 15 3c
       -0.0051361565 -0.0017828955 0.0059267157 0.009127625
000130 41 49 da 3b e7 5b 03 3c 5a ca b4 3b 85 bd 98 3b
       0.0066615646 0.008017517 0.0055172862 0.0046612644
000140 50 c5 ec 3a 37 08 f0 3b 89 a6 23 bb 11 5b d5 3c
       0.0018064175 0.007325198 -0.002497109 0.0260444
000150 4c 2a 40 3c b1 e5 e1 3b eb 3e 68 3a 10 fc 31 3b
       0.011728834 0.0068938364 0.0008859473 0.0027158298
000160 d3 fb db ba 4a 46 5c bb 8c 08 0b 3c ab d1 b2 ba
       -0.0016783423 -0.0033611231 0.008485924 -0.0013642808
000170 1c 7d 2e 3c 95 a8 a1 3b 3b d2 9e 3c 01 c3 84 3c
       0.010649946 0.0049334266 0.019387355 0.016206266
000180 f1 69 85 3c fe 98 02 3c 0b d1 b3 3b 5b 3d 86 bb
       0.016285868 0.0079710465 0.0054875663 -0.0040966696
000190 9f 6d 01 3a a4 1c d8 bb 45 16 15 bd 1f 59 f5 bc
       0.0004937294 -0.006595211 -0.03639819 -0.029949723
0001a0 fd 5f 4c bc 9d 1a 83 3c 53 1c 12 bb 01 54 9c 3c
       -0.012474057 0.016003901 -0.0022294715 0.019083025
0001b0 de c6 ab b9 a8 d1 68 3c 7f c5 5e 3c fe 41 56 3c
       -0.0003276383 0.014210142 0.013596891 0.013077257
0001c0 2b 2c 3f 3c 14 31 20 3c 53 8e 01 bc bc 31 8e 3c
       0.011668245 0.009777326 -0.007907468 0.0173577
0001d0 38 b7 2f bc 2c 88 8d bc 26 bf 9d 3b c0 e1 e1 3b
       -0.010724835 -0.017276846 0.0048140464 0.0068933666
0001e0 ac 48 d6 3c 20 de d6 3c c0 07 56 3b fe cc 13 3c
       0.0261577 0.026228964 0.0032658428 0.009021042
0001f0 0c 29 8b 3b 46 2f dd bb 52 d9 13 bb 08 4c 0e bc
       0.0042468365 -0.00675002 -0.0022559953 -0.008685119

bn2.running_mean f4 [128]
000000 0f 84 cd 3d c5 43 3b be b6 52 3c 3e 54 09 b8 3d
       0.10034954 -0.18287571 0.18390927 0.08986154
000010 f5 e2 7f 3d 56 72 e1 be ef fa da 3d 0c 61 39 be
       0.062472302 -0.44032544 0.10692393 -0.18103427
000020 31 03 a6 3c 0b 11 e3 3d c8 c1 06 bf 52 ce 8e bd
       0.020265194 0.11087235 -0.52639437 -0.06972946
000030 0f 90 7e be a0 72 0e be aa 7f 3f 3d fc a5 b6 be
       -0.24859641 -0.13910913 0.04675261 -0.3567351
000040 2b 46 d1 bc f2 d4 b1 be 55 d7 79 be ba 8a 90 3d
       -0.025546154 -0.34732777 -0.24398549 0.0705771
000050 c2 66 0f be a4 20 51 3e bc 96 63 3d 83 74 35 3e
       -0.14004043 0.20422608 0.055563673 0.17720227
000060 32 3c 06 be 93 2d 8f 3e ac b3 b2 3e 50 99 85 3e
       -0.131089 0.27964458 0.34902704 0.2609353
000070 71 e6 80 be 68 d9 41 bc 5c 9a 74 3e 5e 7a 39 3e
       -0.25175813 -0.011831619 0.23887008 0.18113086
000080 36 c5 25 bc 39 43 58 be db 93 14 be 0b e4 34 be
       -0.0101178195 -0.21119393 -0.14509527 -0.17665116
000090 50 26 ef bd b0 19 1f 3e 5a 6c 3a 3d 09 ea 03 bf
       -0.116772294 0.15537143 0.04551349 -0.51528984
0000a0 1b d5 d9 be 42 ee de be 48 f8 58 3e 6b 75 85 be
       -0.425454 -0.4354115 0.21188462 -0.26066145
0000b0 07 98 cd 3d af 85 6d be 2d a1 b8 be 33 59 d1 bd
       0.100387625 -0.23195527 -0.36060467 -0.102220915
0000c0 e6 34 84 be 25 9c 53 3e fc 2b 9b be c8 00 00 be
       -0.25821608 0.20665033 -0.30306995 -0.12500298
0000d0 af ed 59 be 60 04 c4 be d5 d0 81 3d b7 ab ff bd
       -0.21282075 -0.38284588 0.0633866 -0.12483924
0000e0 06 e5 04 be 92 3d 4d bf ab ba 22 be f3 0e 03 bf
       -0.1297799 -0.80172074 -0.1589152 -0.51194686
0000f0 4a 63 91 3e 71 e2 29 3d cf a2 66 3d 61 c3 42 3d
       0.28396064 0.041475717 0.05630761 0.04754961
000100 92 5e f5 bd 48 6f 28 3e ba 87 df 3d ed 1f 18 3d
       -0.119809285 0.164487 0.1091456 0.03713982
000110 21 d5 c4 3d d2 48 99 be 39 74 f2 bd 43 1b 6f be
       0.096109636 -0.2993837 -0.11838574 -0.23350243
000120 a4 b3 47 be 7a 52 92 3e f3 62 62 be f7 25 97 be
       -0.19502121 0.2857855 -0.22108059 -0.29521152
000130 5e 07 83 3e 7f b6 af bc 88 5b 06 be 8e 70 bb be
       0.25591558 -0.021449326 -0.13120854 -0.3660931
000140 c1 45 d2 3e 44 92 40 3e 54 88 0b be bf a5 39 3e
       0.41068843 0.18805796 -0.13626224 0.18129633
000150 5b 1b 34 3f 92 d9 db bd 10 99 bb bd fa 27 5f bc
       0.7035424 -0.107348576 -0.09160054 -0.013620371
000160 56 ea 0d 3b 43 3c 17 be c2 17 fa be 23 0a 8d be
       0.0021654568 -0.14769082 -0.4884625 -0.27546796
000170 79 b9 38 3e fc ad c1 3c cd b1 28 bf 24 8f 55 be
       0.18039502 0.023642533 -0.658963 -0.20855385
000180 c1 54 4f bd 76 a9 06 bf 39 05 4e bd 1d 9e c9 be
       -0.050617937 -0.52602327 -0.05029795 -0.39378443
000190 78 d5 63 bd e8 04 42 bf bc 02 5d bd d0 33 63 be
       -0.0556235 -0.75788736 -0.053957686 -0.22187734
0001a0 a4 21 1e 3e 94 5e 81 be 13 39 75 be 36 a6 20 bf
       0.1544252 -0.2526747 -0.23947553 -0.6275362
0001b0 7a 9a b3 be 17 3f 07 bf 9c 09 06 3e 2a 1b a9 be
       -0.35078794 -0.5283064 0.13089603 -0.33028537
0001c0 91 5a bb be 4d 71 c6 3b a3 b7 37 3e d0 88 a3 be
       -0.36592534 0.006055987 0.17941146 -0.31940317
0001d0 ae 7b 18 3e 5b 67 03 bf 3c 47 1d bf c8 36 12 3d
       0.1489093 -0.5132958 -0.6143682 0.035696775
0001e0 ae 80 9c 3d f3 90 58 be ee 4b a2 be 97 86 36 3e
       0.07641731 -0.21149044 -0.31698555 0.1782478
0001f0 03 0d 3e 3e 9b b7 9e 3b 76 74 60 3d 90 da 1a 3e
       0.18559651 0.004843665 0.054798566 0.15122437

bn2.running_var f4 [128]
000000 2f 37 44 3e 88 3f e7 3d d1 91 28 3e 4a e0 e3 3e
       0.19161676 0.112914145 0.16461875 0.44507056
000010 81 8c c3 3e cb ca 23 3e 6e 9b bb 3d 37 1d 09 3e
       0.38193133 0.15995328 0.09160505 0.13390051
000020 ba 84 ab 3d 87 f5 34 3e 74 a2 08 3f 9d b2 13 3e
       0.08374925 0.17671786 0.53372884 0.14423604
000030 64 6d 0d 3e 0d 28 0c 3e 3d 9e f9 3d f9 f9 6e 3e
       0.1381126 0.13687153 0.12188385 0.23337545
000040 df 7a 8b 3e 20 f1 c9 3d 0c 1b 72 3e 10 b0 39 3e
       0.2724218 0.09860444 0.2364313 0.18133569
000050 b7 b8 01 3e 61 2b 0c 3e d3 c7 fc 3d e0 8b 89 3e
       0.1266812 0.13688423 0.12342801 0.2686453
000060 3b 58 84 3e e6 04 36 3e 49 ba 71 3e ae 35 99 3e
       0.25848565 0.17775306 0.23606218 0.29923767
000070 f6 ec 2c 3e ab 91 1e 3e 6a 3c 67 3e 78 e1 6c 3e
       0.16887268 0.15485255 0.2258164 0.23132885
000080 14 bd 2f 3e 1d d4 47 3e 68 cd c3 3d a2 6b 06 3e
       0.17161971 0.19514509 0.095606625 0.13126996
000090 fe 5a 85 3e 35 45 ce 3d 2a bb 47 3e 29 61 83 3e
       0.26045984 0.10071794 0.19504991 0.25660065
0000a0 42 f3 d9 3d de f7 dd 3e 5c 2f 02 3e 27 32 92 3e
       0.10642101 0.4335317 0.12713379 0.28553888
0000b0 5e c4 6f 3d b8 f1 ae 3e ab 43 22 3e af 9d e5 3d
       0.05853688 0.34168792 0.15846126 0.112117164
0000c0 70 05 81 3e 20 25 ce 3e a1 c3 b3 3d 90 f8 06 3f
       0.2519946 0.402627 0.08777548 0.52723026
0000d0 6e ed c6 3d e1 05 0c 3e aa b0 63 3e 92 55 fb 3d
       0.09713255 0.13674118 0.2223536 0.122721806
0000e0 56 92 29 3e 5a bf bc 3d 70 31 8d 3e cc 33 f2 3d
       0.16559729 0.09216185 0.2757678 0.11826286
0000f0 8c 80 97 3d e9 75 97 3e 10 67 ee 3e 3e 39 e9 3d
       0.07397565 0.29582146 0.46563005 0.11387871
000100 84 6e d4 3d 82 20 94 3e c3 96 50 3e c4 8a dc 3d
       0.10372642 0.28931051 0.20370011 0.10768655
000110 eb 65 8f 3d d1 12 49 3e 8b 4a b1 3d ae 7e 08 3e
       0.07001861 0.19636084 0.08656796 0.13329574
000120 12 38 1b 3e be 24 28 3e 40 65 b7 3e c1 34 72 3e
       0.15158108 0.16420266 0.35819435 0.23652937
000130 a1 3d 9a 3e 4a 51 15 3e 20 3a 55 3e e8 ab b5 3d
       0.30125144 0.1458179 0.20822954 0.08870679
000140 30 f7 32 3e 04 f1 a4 3e 9c 11 d8 3d 92 4f c3 3d
       0.17477107 0.3221513 0.10550234 0.09536661
000150 41 ad 59 3e 42 eb cf 3e 7e 68 80 3e 20 0b 2f 3e
       0.21257497 0.40609175 0.2507972 0.17094088
000160 2d c7 7f 3d 18 48 53 3d 06 b5 f9 3d 0c 7d 1c 3e
       0.06244581 0.051582426 0.121927306 0.15282077
000170 16 9b da 3d 9c a9 18 3e 8d f4 cf 3d 0d 33 45 3e
       0.106741115 0.14908451 0.10154066 0.19257756
000180 7f a7 55 3e ba a3 fb 3d df 57 72 3e c8 e0 eb 3d
       0.20864676 0.12287088 0.23666333 0.11517483
000190 27 7a b9 3d 10 19 bf 3d ee 80 f1 3d b7 ea 63 3d
       0.09056502 0.09330952 0.117921695 0.055643763
0001a0 4b 4b fa 3d 81 61 00 3e ff ae 9c 3d 40 6d fe 3d
       0.12221392 0.12537195 0.07650565 0.124231815
0001b0 bf d2 c2 3d 87 1a 32 3e 5b b6 15 3f 8e 9d 8f 3d
       0.09512853 0.17392932 0.5848138 0.07012473
0001c0 b6 dc 7d 3e 93 49 0b 3e ff ef c0 3d f4 6f 0c 3e
       0.24791226 0.13602285 0.094207756 0.13714582
0001d0 0f a3 76 3e 70 1d a0 3d c0 2c 88 3d 3f 00 11 3e
       0.2408564 0.07818115 0.066491604 0.1416025
0001e0 6d d2 d3 3d 78 6d 51 3e 44 09 29 3e 1a a1 0f 3d
       0.1034287 0.20451915 0.16507441 0.035065748
0001f0 57 99 0a 3e 38 dc 12 3e 13 e4 44 3e 78 58 34 3e
       0.13535057 0.1434182 0.19227628 0.17611873
