10_Models/Results_SiouxFalls/WGAN_Freeflow_generator_best.pth (torch, 170568 bytes, 20 tensors)

fc1.weight f4 [128, 24]
0	0xbe489c53	-0.19590883
1	0xbc98ee57	-0.018668337
2	0x3dcace72	0.099026576
3	0x3e3d907c	0.18512148
4	0x3d9836f4	0.074323565
5	0xbc881fe5	-0.016616771
6	0xbe49f002	-0.19720462
7	0xbd9bedf7	-0.076137476
8	0xbd8efa19	-0.06981296
9	0x3d890958	0.06691235
10	0xbdc9c83d	-0.098526455
11	0x3e08fa39	0.13376702
12	0xbd47de43	-0.04879595
13	0xbc24028a	-0.010010371
14	0xbd176b43	-0.036967527
15	0x3d9eba8e	0.07750426
16	0x3cd08d55	0.025458017
17	0x3d3b8e20	0.045789838
18	0xbd96d93e	-0.073656544
19	0xbdb27c9e	-0.08715175
20	0x3e09f631	0.13472821
21	0x3c9cd220	0.019143164
22	0x3d8372bb	0.064183675
23	0xbe32bef7	-0.1745566
24	0xbe065869	-0.13119663
25	0x3cbb18a9	0.022838907
26	0x3dd20d9c	0.10256502
27	0x3d346f0c	0.044051215
28	0xbd792a83	-0.060831558
29	0xbe2e54af	-0.17024492
30	0xbda65c4d	-0.08123074
31	0x3da5e90a	0.08101089
32	0x3c5af00a	0.013362894
33	0x3e254658	0.16140115
34	0x3ddd2e72	0.10799874
35	0x3cc1efa2	0.023673836
36	0x3cc573db	0.024103096
37	0xbd0b076c	-0.033942625
38	0xbdae5874	-0.08512965
39	0xbdaab299	-0.08334846
40	0x3df52787	0.1197043
41	0x3da45752	0.080244675
42	0x3e1e6325	0.15467508
43	0xbdcc1a9a	-0.09966011
44	0xbddbfeda	-0.107419685
45	0xbe0ff8d1	-0.1405976
46	0x3e135e30	0.14391398
47	0xbcad302b	-0.021141132
48	0xbe029a37	-0.12754141
49	0x3e1543fc	0.14576715
50	0xbde7903f	-0.1130681
51	0x3e0a3c58	0.13499582
52	0x3e0458e3	0.12924533
53	0x3e28ac48	0.1647197
54	0xbc3befeb	-0.011470775
55	0xbdd6d9fd	-0.10490797
56	0x3d39cad1	0.045359436
57	0xbde83ac7	-0.11339336
58	0x3db20a2d	0.08693347
59	0xba909c07	-0.0011032828
60	0xbca1ed8d	-0.019766593
61	0xbe10877d	-0.14114185
62	0xbd3c8dcc	-0.046033666
63	0xbdee2a58	-0.1162917
64	0xbe022dc7	-0.12712775
65	0x3dbd6e39	0.09249539
66	0x3c7c9346	0.015415972
67	0xbdf95eda	-0.121762946
68	0xbe082a55	-0.13297398
69	0x3d22e58d	0.039769698
70	0xbdfb4753	-0.122694634
71	0xbdba40da	-0.09094401
72	0x3e317955	0.17331441
73	0x3dde503f	0.108551495
74	0x3dcb25cd	0.09919319
75	0x3d70aff0	0.058761537
76	0xbe266724	-0.16250283
77	0x3dc6d2c1	0.09708167
78	0x3e1d4418	0.15358007
79	0x3deda63b	0.116039716
80	0x3e3cab4c	0.1842472
81	0x3e42856e	0.18996212
82	0x3deec66b	0.11658939
83	0x3e2c5c22	0.16832021
84	0xbc30b227	-0.010784662
85	0x3db09940	0.0862298
86	0x3d802ad9	0.062581725
87	0xbccc1ff3	-0.024917578
88	0xbe519f80	-0.20471
89	0x3d812746	0.06306319
90	0x3e1c4c16	0.152634
91	0x3e06973e	0.13143632
92	0xbdfa1e9a	-0.12212868
93	0x3a9cb6ec	0.001195637
94	0x3d70c756	0.05878385
95	0x3e0b5cfb	0.13609688
96	0x3e03e477	0.12880121
97	0xbd9449ca	-0.07240637
98	0x3d8d538e	0.069007024
99	0xbd580942	-0.052743204
100	0xbe46d43c	-0.19416898
101	0xbdef5e49	-0.11687905
102	0x3e010fbf	0.12603663
103	0xbce54784	-0.027988203
104	0xbe1d6276	-0.15369591
105	0x3d3a409c	0.045471773
106	0x3e0e1cd1	0.1387818
107	0x3df70ac9	0.12062604
108	0xbd341ec3	-0.04397465
109	0xbc113538	-0.008862786
110	0xbd5cae34	-0.05387707
111	0xbe269aba	-0.16269961
112	0xbc0bedfa	-0.008540625
113	0xbdc4a86c	-0.096024364
114	0x3e2967c2	0.16543487
115	0xbe28da23	-0.16489463
116	0x3cffe212	0.031235728
117	0xbe316cb7	-0.17326628
118	0xbd6bda21	-0.05758107
119	0x3e2c51fd	0.16828151
120	0x3e31cfd2	0.17364433
121	0xbd96808a	-0.07348736
122	0x3e6be7b4	0.23037606
123	0x3e0f9ae6	0.14023933
124	0xbe723af2	-0.23655298
125	0xbe667c62	-0.22508386
126	0x3cdf99b6	0.027294975
127	0xbe13e0d4	-0.14441234
128	0xbd5bca62	-0.053659804
129	0xbe37bbf0	-0.17942786
130	0x3d8610b0	0.06546152
131	0x3e33bea7	0.17553197
132	0xbe1b89c6	-0.15189275
133	0x3e29a554	0.16566974
134	0x3c2fb54b	0.010724376
135	0x3e59a5cf	0.21254657
136	0x3dba79ad	0.09105239
137	0x3d9f8f33	0.07790985
138	0xbe0ef60b	-0.13961045
139	0x3ce31fde	0.027725156
140	0xbdf096ec	-0.11747536
141	0x3d904274	0.07043925
142	0x3d98ee1b	0.0746729
143	0xbe45803e	-0.19287202
144	0xba39c542	-0.00070865836
145	0x3e284d0e	0.16435644
146	0x3e0e40f8	0.13891971
147	0x3cca09c7	0.024662865
148	0xbe2ccdd7	-0.16875397
149	0x3dc925b4	0.098216444
150	0x3e1b78b6	0.15182766
151	0x3e43bf96	0.19116053
152	0xbdee1b4e	-0.11626302
153	0xbd9f7300	-0.077856064
154	0x3decd367	0.11563759
155	0xbbbd458a	-0.005776112
156	0xbd7ab81f	-0.061210748
157	0xbddbf65a	-0.10740347
158	0xbdc612db	-0.09671565
159	0xbdc02402	-0.09381868
160	0xbe03b0a5	-0.12860353
161	0x3d7f7b59	0.062373493
162	0x3d1842b7	0.037173
163	0xbdb981db	-0.09057971
164	0x3e099bdd	0.13438363
165	0x3c3d8bfc	0.011569019
166	0x3db0e14e	0.086367235
167	0x3d3bf298	0.045885652
168	0xbdf7ff26	-0.121092126
169	0xbe20c367	-0.1569954
170	0x3d228be8	0.039684206
171	0xbd16dfc7	-0.036834504
172	0xb9f7b1d1	-0.00047243995
173	0x3cfdda4a	0.030987877
174	0x3d8533de	0.065040335
175	0x3e0eddf5	0.13951857
176	0xbe37c132	-0.17944792
177	0xbd8b0f78	-0.0679006
178	0x3e095f51	0.13415267
179	0x3e26324b	0.16230123
180	0x3e29b5a9	0.16573204
181	0x3c8fd87c	0.017559282
182	0x3d85a276	0.065251276
183	0x3e24e5fc	0.16103357
184	0x3ba952b4	0.0051673297
185	0xbdee8abd	-0.11647556
186	0xbb4e7111	-0.0031500498
187	0x3e62d794	0.22152549
188	0x3ce8b6a5	0.028407404
189	0x3d9ad843	0.0756078
190	0xbcc0071e	-0.023440894
191	0x3db522fa	0.08844562
192	0xbc957c6d	-0.018247807
193	0x3dd53f4b	0.10412463
194	0xbd6c35d7	-0.057668533
195	0xbe45505e	-0.19268939
196	0x3e1c89e6	0.15286979
197	0xbd6aa3ad	-0.057285
198	0x3e2b9bef	0.16758703
199	0x3e20a04d	0.1568615
200	0x3af1ab8c	0.0018437966
201	0x3d8efcad	0.06981788
202	0xbcbe29a3	-0.023213213
203	0xbd2354a4	-0.03987564
204	0xbd6a47af	-0.05719727
205	0xbcfaee62	-0.030631248
206	0xbe44448c	-0.19166774
207	0x3d4d920c	0.05018811
208	0x3d4e2baa	0.05033461
209	0xbdbba70a	-0.091627195
210	0x3e277572	0.16353396
211	0xbde9cd4c	-0.114161104
212	0x3dd177bf	0.10227918
213	0x3e20c626	0.15700588
214	0x3d08c4fa	0.033390976
215	0x3e15536b	0.14582603
216	0xbd46cf6e	-0.048537664
217	0x3e0f2945	0.13980587
218	0xbdb1fd33	-0.08690872
219	0xbe630042	-0.22168067
220	0x3c3842eb	0.011246423
221	0x3dbaad6a	0.09115107
222	0xbe470686	-0.19436082
223	0x3dcc3cfb	0.099725686
224	0x3db0e49c	0.08637354
225	0xbe1c98d2	-0.15292671
226	0xbbf29d6f	-0.0074040215
227	0x3e21f4d6	0.15816054
228	0x3d876acf	0.06612169
229	0x3cb815dd	0.022471363
230	0x3e39c0f3	0.1814001
231	0x3d8bfafc	0.06834981
232	0xbd1bc6a6	-0.038031243
233	0x3e38a4bf	0.18031596
234	0xbd173a1c	-0.03692065
235	0x3d9438c4	0.0723739
236	0xbe074414	-0.13209563
237	0xbd206fa8	-0.039168984
238	0x3d211e02	0.03933526
239	0xbd137342	-0.03599859
240	0x3e48c94c	0.19608039
241	0xbddb1b27	-0.10698538
242	0x3d6d4c2a	0.057933964
243	0xbe4e9129	-0.20172562
244	0xbe5413d7	-0.20710693
245	0xbd6cece7	-0.057843115
246	0xbd917422	-0.07102229
247	0xbd8cc16d	-0.068728305
248	0xbe02f015	-0.12786897
249	0x3b2402f4	0.0025026174
250	0x3dfe1d0d	0.12407885
251	0xbca48b68	-0.020086005
252	0x3d82d605	0.06388477
253	0x3db0b295	0.08627812
254	0xbcb2e321	-0.02183682
255	0x3e00d44c	0.12580985

fc1.bias f4 [128]
0	0xbe480127	-0.1953169
1	0xbd1513b9	-0.036395762
2	0x3d9c891d	0.0764334
3	0x3bb5e44b	0.0055508963
4	0x3dbf3d27	0.09337836
5	0x3e22f32c	0.15913075
6	0x3e4f5b1c	0.20249599
7	0xbe2c0683	-0.16799359
8	0x3dd31fe1	0.10308815
9	0xbd3545bc	-0.044255957
10	0x3e456700	0.19277573
11	0x3b1bbdb3	0.0023764193
12	0xbe456aef	-0.19279073
13	0x3dcb0ce6	0.099145696
14	0x3e29f503	0.16597371
15	0xbc1a56ca	-0.009420106
16	0x3e22e1dd	0.15906473
17	0x3dd3de6b	0.10345157
18	0xbccf4920	-0.025303423
19	0xbda34b79	-0.0797338
20	0xbe503c67	-0.20335542
21	0xbd5965c5	-0.05307557
22	0xbded1e82	-0.115780845
23	0xbd1ef39e	-0.03880655
24	0x3e2def2b	0.16985767
25	0x3e35529c	0.17707294
26	0x3e03bd0d	0.12865086
27	0xbd2b1853	-0.041771244
28	0xbdb835e6	-0.08994655
29	0x3da3c2b8	0.07996124
30	0x3e4e3efc	0.20141214
31	0xbe0da337	-0.13831793
32	0x3dc29ed6	0.09502952
33	0x3e429e58	0.19005716
34	0x3de4ab01	0.11165429
35	0xbc3e1c99	-0.011603498
36	0x3e430c29	0.19047607
37	0xbe1ffe17	-0.15624271
38	0xbcb0378c	-0.021510862
39	0x3dac87ab	0.08424314
40	0x3e37906a	0.17926183
41	0xbdf3f740	-0.119123936
42	0xbbabd4cf	-0.0052438746
43	0xbd9ded7b	-0.077113114
44	0x3d61bd78	0.055112332
45	0x3c2fb852	0.010725098
46	0xbc0c0f92	-0.008548634
47	0xbe24c775	-0.16091712
48	0xbd33b0c4	-0.04386975
49	0x3e08c1d8	0.13355196
50	0xbe3ad3fe	-0.18244931
51	0xbe12d401	-0.14338686
52	0xbe1069ce	-0.14102861
53	0x3e1acd7a	0.15117446
54	0xbe0aee28	-0.13567412
55	0xbcc73a3c	-0.02431976
56	0xbe4b95c9	-0.19881357
57	0xbe36e4bb	-0.17860691
58	0xbcaccf1e	-0.021094855
59	0xbe28414e	-0.16431162
60	0xbca80e64	-0.020514674
61	0x3e154d07	0.14580165
62	0x3c79deab	0.015250842
63	0x3b1c6dbe	0.0023869122
64	0xbdf7a6a2	-0.120923296
65	0x3e429f9e	0.19006202
66	0xbcd71fc3	-0.026260262
67	0x3c90e0d9	0.01768534
68	0xbe3c808a	-0.18408409
69	0xbe49303e	-0.19647309
70	0xbdba8cbd	-0.09108875
71	0xbd1f786c	-0.038933203
72	0x3e3a5bd2	0.18199089
73	0x3d142c11	0.036174837
74	0x3e35642b	0.17713992
75	0xbe3599e6	-0.17734489
76	0xbe1c8f2e	-0.15288994
77	0xbce789eb	-0.028264007
78	0x3e13807c	0.14404482
79	0xbe41cc37	-0.18925558
80	0xbdf0b987	-0.117541365
81	0x3d39fb84	0.04540588
82	0x3e48c432	0.19606093
83	0xbd54d2d9	-0.051958892
84	0x3e031302	0.1280022
85	0x3d9161bc	0.070987195
86	0x3e2d8920	0.1694684
87	0xbb99a149	-0.004688416
88	0x3dfe16fc	0.12406728
89	0xbc225017	-0.00990679
90	0xbe14d83a	-0.14535609
91	0xbdaf5328	-0.08560783
92	0xbe35e560	-0.17763281
93	0xbe2cb219	-0.16864814
94	0x3c7ca894	0.0154210515
95	0xbd63f18a	-0.05565027
96	0x3d6242d1	0.055239502
97	0xbe10af45	-0.1412936
98	0x3d1cc60d	0.038274813
99	0x3e2d5e20	0.16930437
100	0xbcf54120	-0.02993828
101	0xbe3d86fa	-0.1850852
102	0xbd74be35	-0.059751708
103	0xbd70fb0d	-0.05883317
104	0xbe4b4359	-0.1984991
105	0xbe28e5dc	-0.16493934
106	0x3e14a0c1	0.14514448
107	0xbe26b4b3	-0.16279869
108	0x3d506fa2	0.05088771
109	0xbe41da46	-0.18930921
110	0xbd6eedf9	-0.058332417
111	0xbe046438	-0.12928855
112	0xbd75264f	-0.059850987
113	0xbe276507	-0.16347133
114	0x3da5408f	0.08068954
115	0x3e21ea32	0.15811995
116	0xbe07678c	-0.13223094
117	0xbc9b9a5e	-0.018994506
118	0x3dd084bb	0.10181566
119	0xbd9927d9	-0.074783035
120	0x3dd6ffdc	0.1049802
121	0x3c1d5a4b	0.009604047
122	0xbe284a2f	-0.16434549
123	0x3de2954e	0.11063634
124	0xbcf9a728	-0.030475214
125	0x3def64d9	0.11689157
126	0xbe3c2dbb	-0.1837682
127	0xbe2230ef	-0.15838979

bn1.weight f4 [128]
0	0x3f818d53	1.0121254
1	0x3f81f451	1.0152684
2	0x3f7b87d9	0.9825416
3	0x3f81510e	1.0102861
4	0x3f7ee01d	0.9956072
5	0x3f801eab	1.0009359
6	0x3f7b5800	0.9818115
7	0x3f804a6c	1.0022712
8	0x3f81dd6f	1.0145701
9	0x3f7f5fab	0.9975535
10	0x3f80d3e4	1.0064664
11	0x3f7fadbb	0.99874467
12	0x3f81a62b	1.0128835
13	0x3f7fc874	0.9991524
14	0x3f7d2309	0.98881584
15	0x3f80643b	1.0030588
16	0x3f7fa7cd	0.9986542
17	0x3f7ad240	0.97977066
18	0x3f7fdab7	0.9994311
19	0x3f7d1753	0.98863715
20	0x3f7f549f	0.99738497
21	0x3f7fe1ce	0.99953926
22	0x3f7ee5da	0.99569476
23	0x3f81f5ff	1.0153197
24	0x3f78f74d	0.9725235
25	0x3f7f5479	0.9973827
26	0x3f80a066	1.004895
27	0x3f7ee4d9	0.99567944
28	0x3f81596e	1.0105417
29	0x3f82860f	1.0197161
30	0x3f802317	1.0010709
31	0x3f80ebc7	1.0071954
32	0x3f7c4bd6	0.98553216
33	0x3f7f5e5b	0.9975335
34	0x3f80ed39	1.0072395
35	0x3f7ec44c	0.99518275
36	0x3f80503e	1.0024488
37	0x3f805e07	1.0028695
38	0x3f82872d	1.0197502
39	0x3f81f765	1.0153624
40	0x3f8282c0	1.0196152
41	0x3f8031d9	1.0015212
42	0x3f7e22da	0.9927193
43	0x3f7b7037	0.982181
44	0x3f7cd60a	0.987641
45	0x3f820c30	1.0159969
46	0x3f814af5	1.0101
47	0x3f7ce92c	0.9879329
48	0x3f7ec0ce	0.99512947
49	0x3f803b4c	1.0018096
50	0x3f7eb09c	0.99488235
51	0x3f7e8524	0.99421906
52	0x3f7f7541	0.9978829
53	0x3f7e9e7f	0.99460596
54	0x3f80d6a3	1.0065502
55	0x3f801939	1.0007697
56	0x3f801268	1.0005617
57	0x3f7f56ca	0.99741805
58	0x3f7d7a1c	0.9901445
59	0x3f801199	1.000537
60	0x3f817d08	1.0116282
61	0x3f81766a	1.0114262
62	0x3f7e15a7	0.9925179
63	0x3f814a2a	1.0100758
64	0x3f806441	1.0030595
65	0x3f81bcc1	1.0135728
66	0x3f80b894	1.0056329
67	0x3f811787	1.0085305
68	0x3f817bfa	1.011596
69	0x3f7c9d25	0.98677284
70	0x3f7bec13	0.98407096
71	0x3f7dd3df	0.99151415
72	0x3f7b8cf7	0.9826197
73	0x3f7da61d	0.99081594
74	0x3f8055dd	1.0026203
75	0x3f81fafe	1.0154722
76	0x3f7e8bf4	0.994323
77	0x3f823858	1.0173445
78	0x3f82fefa	1.0234063
79	0x3f7c5b3e	0.98576725
80	0x3f806372	1.0030348
81	0x3f818030	1.0117245
82	0x3f7b15c0	0.9808006
83	0x3f82792c	1.0193229
84	0x3f7b285b	0.9810845
85	0x3f7fd97f	0.9994125
86	0x3f7d5ff1	0.9897452
87	0x3f7df18d	0.991967
88	0x3f814e7e	1.0102079
89	0x3f8128da	1.0090592
90	0x3f7ff240	0.9997902
91	0x3f7cbedc	0.9872873
92	0x3f7dfb84	0.9921191
93	0x3f8140ef	1.0097941
94	0x3f7f05b8	0.996181
95	0x3f817cef	1.0116252
96	0x3f7ea8cd	0.9947632
97	0x3f7e9893	0.9945156
98	0x3f8152ff	1.0103453
99	0x3f819f0b	1.0126661
100	0x3f8124b3	1.0089325
101	0x3f8065d7	1.0031079
102	0x3f806979	1.0032188
103	0x3f7e62d3	0.99369544
104	0x3f7fb697	0.99887985
105	0x3f805368	1.0025454
106	0x3f7f4756	0.99718225
107	0x3f7e60e6	0.99366605
108	0x3f802f06	1.001435
109	0x3f7ce348	0.98784304
110	0x3f7a290b	0.97718877
111	0x3f7d84f6	0.9903101
112	0x3f80e3b1	1.0069486
113	0x3f8094b4	1.004538
114	0x3f800786	1.0002296
115	0x3f818668	1.0119143
116	0x3f79ec91	0.97626597
117	0x3f819913	1.012484
118	0x3f7bb3d6	0.9832128
119	0x3f7eace2	0.9948255
120	0x3f7f66d3	0.9976627
121	0x3f82c6c1	1.0216905
122	0x3f807652	1.0036108
123	0x3f7ad8fa	0.9798733
124	0x3f797989	0.9745107
125	0x3f7e3d40	0.9931221
126	0x3f7eb689	0.99497277
127	0x3f7d56aa	0.98960364

bn1.bias f4 [128]
0	0x3c8ffc9d	0.01757651
1	0x3b43d7b8	0.0029883217
2	0x3cae11bc	0.02124869
3	0x3c9ef51a	0.019403983
4	0xbb29b5c4	-0.0025895694
5	0x3c7cd26a	0.015431026
6	0xbc4c7983	-0.0124801425
7	0x3c2a21fe	0.010384081
8	0xbb8ee1ec	-0.004360428
9	0x3b760f37	0.003754569
10	0x3b3d5f69	0.002889598
11	0x3c0a7a87	0.008452064
12	0x3c4718d7	0.012151918
13	0x3bc6f0db	0.0060711927
14	0x3c96a5c7	0.018389596
15	0x3c76c07e	0.015060542
16	0x3c5ca4c1	0.013467015
17	0x3bd1dd06	0.006404522
18	0x3b81b550	0.0039583817
19	0x3bb524bd	0.005528061
20	0xb97cd3f6	-0.00024111554
21	0x3c0fd9af	0.008779927
22	0x3cd72593	0.026263034
23	0x3cc474ea	0.02398153
24	0xbb3daf73	-0.0028943687
25	0x3cbd5ddf	0.02311605
26	0x3c2acde5	0.010425066
27	0x3c6fee32	0.0146441925
28	0x3c12e749	0.0089662755
29	0x3c5afe28	0.01336626
30	0xbb6542ff	-0.003498256
31	0x3c8f4392	0.017488275
32	0x3c01ccad	0.007922334
33	0x3c20da9b	0.009817745
34	0x3bc1a209	0.0059092087
35	0x3b88f3f3	0.0041794716
36	0x3c09a699	0.008401536
37	0x3c5b6c32	0.013392495
38	0x3bf9f211	0.0076277335
39	0x3be9407a	0.007118282
40	0x3c7a692b	0.015283863
41	0x3c51a278	0.012795083
42	0xbb456ef9	-0.003012596
43	0xbb7fc5d7	-0.0039027834
44	0x3bace324	0.0052761007
45	0x3c48b2eb	0.012249689
46	0x3c4d2f0d	0.012523425
47	0x3c8514f6	0.016245347
48	0x3c1f51b4	0.009724069
49	0xbc571590	-0.0131276995
50	0x3b49c9c0	0.0030790418
51	0xbb6832df	-0.0035430712
52	0xbab9940f	-0.0014158505
53	0x3bbb3097	0.0057125795
54	0x3904fded	0.00012683096
55	0xbc087288	-0.008328088
56	0xbb34546e	-0.0027516144
57	0xbbfa2a39	-0.007634428
58	0xbbba308c	-0.005682057
59	0x3c8bad47	0.017050399
60	0x3c9b9627	0.018992497
61	0x3c125d0c	0.008933317
62	0x3c1847b5	0.00929444
63	0x3ba035d7	0.0048892307
64	0x3ce64111	0.028107198
65	0x3c57ca22	0.013170751
66	0x3c7bb206	0.015362268
67	0x3c97a9f2	0.018513653
68	0x3cd70e1e	0.026251849
69	0xbc05b93e	-0.008161841
70	0x3aa30430	0.0012437161
71	0x3a640c00	0.0008699298
72	0xbc907930	-0.017635912
73	0x3b45d430	0.0030186288
74	0xba3cdd13	-0.00072045735
75	0x3c44eb1c	0.012018945
76	0x3c545182	0.012958886
77	0x3c98ceb3	0.01865325
78	0x3c311f09	0.010810622
79	0xbbbcfbec	-0.005767336
80	0x3c18dbe0	0.009329766
81	0x3c9b29de	0.018940862
82	0x3c415c30	0.011801764
83	0x3c177a6e	0.009245498
84	0x3c3479f3	0.011015403
85	0x3bddcd89	0.0067688865
86	0x3c5de834	0.013544131
87	0xbc4a10e0	-0.012333125
88	0x3bc912b8	0.0061362647
89	0x3bcfb488	0.0063386597
90	0xbb0fc511	-0.002193753
91	0x3bb321ea	0.0054666894
92	0xba716db2	-0.0009209766
93	0x3c257a75	0.010099997
94	0x3bea985e	0.007159277
95	0xbb70f19b	-0.0036765102
96	0x3cba6f9b	0.022758296
97	0x3cba7598	0.022761151
98	0x3c447b6b	0.011992316
99	0xbb5a9cae	-0.0033357549
100	0x3ca3705d	0.01995104
101	0x3c85c107	0.016327394
102	0x3a892014	0.001046183
103	0x3c2ec66c	0.010667425
104	0x3bc3f900	0.005980611
105	0xbb955818	-0.0045576207
106	0x3bdfc15d	0.0068284706
107	0xbc2a2585	-0.010384922
108	0x3ba84479	0.0051351157
109	0xbb5986d2	-0.0033191931
110	0xbb9418f4	-0.004519576
111	0xbbeb3606	-0.007178071
112	0x3c1e1104	0.0096476115
113	0x3c60adfd	0.013713357
114	0x3c284c24	0.01027206
115	0x3ca73c54	0.020414509
116	0xbba46a38	-0.005017545
117	0xbac26b77	-0.0014833052
118	0x3c557254	0.013027746
119	0x3c8bc2fb	0.017060747
120	0xbc2ddc2a	-0.010611573
121	0xbb3461a1	-0.0027524012
122	0x3b54eec5	0.003249095
123	0x3bfc5e07	0.0077016386
124	0xbbe11411	-0.006868847
125	0x3b109582	0.002206177
126	0x3b68aac0	0.0035502166
127	0x3a9b0a88	0.00118287

bn1.running_mean f4 [128]
0	0xc7f99a95	-127797.164
1	0x479ec3ea	81287.83
2	0xc9181dfe	-623071.9
3	0x4961469e	922729.9
4	0xc89c99c6	-320718.2
5	0xc7e01002	-114720.016
6	0xc59d09d5	-5025.229
7	0x49454a14	808097.25
8	0x48d34d60	432747.0
9	0x489b2e83	317812.1
10	0xc5d8d7bc	-6938.967
11	0x48b0e8ea	362311.3
12	0x47f5fa88	125941.06
13	0x48396022	189824.53
14	0xc97a06eb	-1.0241107e+06
15	0x49809ebb	1.0536554e+06
16	0xc89c5929	-320201.28
17	0xc737a081	-47008.504
18	0x49343f22	738290.1
19	0x48f8bd46	509418.2
20	0x490274e5	534350.3
21	0xc91094bb	-592203.7
22	0xc94e069f	-843881.94
23	0x48afde70	360179.5
24	0xc8ca9a42	-414930.06
25	0xc814c60e	-152344.22
26	0x48824b4b	266842.34
27	0x49220c32	663747.1
28	0x4645024e	12608.576
29	0x48dce833	452417.6
30	0x48b239c7	365006.22
31	0x47368e58	46734.344
32	0x47726e8a	62062.54
33	0x480301d5	134151.33
34	0x48943e2a	303601.3
35	0xc8d604d1	-438310.53
36	0x470617bf	34327.746
37	0x47f021da	122947.7
38	0x48be4b68	389723.25
39	0x490dad54	580309.25
40	0x46d18254	26817.164
41	0xc935afc7	-744188.44
42	0x4925bc49	678852.56
43	0xc867222c	-236680.69
44	0x460cf048	9020.07
45	0x4887cfe0	278143.0
46	0x48e1fd04	462824.12
47	0xc64fd3fa	-13300.994
48	0xc89bff83	-319484.1
49	0x48858e3e	273521.94
50	0x48556381	218510.02
51	0x49017ab0	530347.0
52	0x476d1828	60696.156
53	0x492566f9	677487.56
54	0x48187b11	156140.27
55	0x48aa2a4b	348498.34
56	0x4923c10b	670736.7
57	0xc83af260	-191433.5
58	0x47c787b0	102159.375
59	0x4927c061	687110.06
60	0x4947a83a	817795.6
61	0xc8487222	-205256.53
62	0xc8b6881a	-373824.8
63	0xc7aa19ef	-87091.87
64	0xc8600cc3	-229427.05
65	0x48d71e30	440561.5
66	0xc92461e1	-673310.06
67	0x4909e962	564886.1
68	0x48c1ed48	397162.25
69	0xc81b720b	-159176.17
70	0xc9294faf	-693498.94
71	0x47b1c3c3	91015.52
72	0xc905ac87	-547528.44
73	0x49926fc0	1.199608e+06
74	0x48db2966	448843.2
75	0x4787691c	69330.22
76	0x490993b7	563515.44
77	0xc917c484	-621640.25
78	0x4908ddc8	560604.5
79	0x4911f360	597814.0
80	0x4903fe1c	540641.75
81	0xc8a2b23f	-333201.97
82	0xc87f2a7a	-261289.9
83	0xc6cdee5b	-26359.178
84	0xc846aee0	-203451.5
85	0x49228353	665653.2
86	0x48d222e3	430359.1
87	0x488c5ffd	287487.9
88	0x48839fe7	269567.22
89	0x48e41d28	467177.25
90	0x497bc7df	1.03129394e+06
91	0x46e0150c	28682.523
92	0xc7e65599	-117931.195
93	0x489d8dc1	322670.03
94	0xc8467686	-203226.1
95	0x49015393	529721.2
96	0xc89cdc7a	-321251.8
97	0xc8623e73	-231673.8
98	0xc8ec7a12	-484304.56
99	0x48d1fac2	430038.06
100	0x4909722b	562978.7
101	0x47c63f93	101503.15
102	0xc75a2547	-55845.277
103	0x48cbdd0a	417512.3
104	0xc8929b90	-300252.5
105	0xc697fb86	-19453.762
106	0xc8e3c380	-466460.0
107	0xc92009de	-655517.9
108	0x48247e1f	168440.48
109	0xc8e8fbb8	-477149.75
110	0xc8e85fc2	-475902.06
111	0x487a84f4	256531.81
112	0xc795b9ff	-76659.99
113	0xc8b9314b	-379274.34
114	0xc900fc43	-528324.2
115	0xc8abb97d	-351691.9
116	0xc88d0fba	-288893.8
117	0xc8905223	-295569.1
118	0xc7a0a7e4	-82255.78
119	0xc79c35c1	-79979.51
120	0x4890e1da	296718.8
121	0x4785e1c0	68547.5
122	0xc8406565	-197013.58
123	0xc8c4f2a7	-403349.22
124	0xc82a6ead	-174522.7
125	0xc8c394df	-400550.97
126	0xc924aec6	-674540.4
127	0xc840c1dc	-197383.44

bn1.running_var f4 [128]
0	0x507577f7	1.647312e+10
1	0x504e4bc9	1.3844293e+10
2	0x50ddf01e	2.9788008e+10
3	0x52289bcf	1.8104214e+11
4	0x50b5da95	2.4408009e+10
5	0x5166b94d	6.1934457e+10
6	0x508a5272	1.8565272e+10
7	0x5157a910	5.7890898e+10
8	0x50bcd0e3	2.534245e+10
9	0x50dfbfbe	3.0031081e+10
10	0x513ead22	5.118428e+10
11	0x50d392df	2.8396943e+10
12	0x505482f4	1.4261408e+10
13	0x50d22240	2.820368e+10
14	0x515d8162	5.9459903e+10
15	0x523702c1	1.965063e+11
16	0x50b90ca7	2.4836913e+10
17	0x501b3103	1.0414722e+10
18	0x5182e214	7.026734e+10
19	0x508b158b	1.8667559e+10
20	0x51919262	7.815327e+10
21	0x51efeee4	1.2881314e+11
22	0x513f0a6f	5.1282113e+10
23	0x5158e986	5.8226926e+10
24	0x5105d728	3.5927523e+10
25	0x5094a8ff	1.9952826e+10
26	0x513b25fc	5.023726e+10
27	0x50de5468	2.9840589e+10
28	0x500cf023	9.458191e+09
29	0x50c40a43	2.6312055e+10
30	0x50b8628f	2.4747735e+10
31	0x500ff4cf	9.660743e+09
32	0x508ccd64	1.8898166e+10
33	0x4fffd121	8.583791e+09
34	0x51a45a86	8.823667e+10
35	0x50ae842b	2.3423179e+10
36	0x50bbf3a8	2.5226461e+10
37	0x50107bf7	9.696173e+09
38	0x5035d0f7	1.2201483e+10
39	0x50aa6e04	2.2874694e+10
40	0x50ba64f2	2.5017422e+10
41	0x51398854	4.980351e+10
42	0x51a6dd58	8.958476e+10
43	0x50b8263e	2.4716112e+10
44	0x50de2455	2.9815384e+10
45	0x50d214a5	2.8196547e+10
46	0x51093b22	3.6837663e+10
47	0x505765dc	1.4455108e+10
48	0x50a20481	2.1745633e+10
49	0x509fbc22	2.1439255e+10
50	0x501d115a	1.054064e+10
51	0x52032153	1.4079995e+11
52	0x50cf5d38	2.7831943e+10
53	0x50a53172	2.2171849e+10
54	0x5107c719	3.6447556e+10
55	0x513ada1b	5.0157695e+10
56	0x51036f82	3.528197e+10
57	0x50e7f22a	3.1131259e+10
58	0x511a03ad	4.1342915e+10
59	0x5104a10e	3.560236e+10
60	0x5147de54	5.3651784e+10
61	0x50ca03d0	2.711398e+10
62	0x5085d62e	1.796325e+10
63	0x502bbdd7	1.1525381e+10
64	0x50bf278f	2.5656326e+10
65	0x5186bc81	7.233602e+10
66	0x51a2fefa	8.750781e+10
67	0x519db7de	8.467433e+10
68	0x509dac8c	2.1162648e+10
69	0x5024469b	1.1024362e+10
70	0x515fefda	6.011261e+10
71	0x50b05a42	2.3669641e+10
72	0x5131fbd4	4.7777137e+10
73	0x51ff47c2	1.3705257e+11
74	0x50d56975	2.8643666e+10
75	0x504e15f4	1.3830181e+10
76	0x512ea789	4.6883443e+10
77	0x51ca0304	1.0845425e+11
78	0x518213ca	6.983472e+10
79	0x5089866d	1.8458307e+10
80	0x5168146a	6.229843e+10
81	0x50821e32	1.7464136e+10
82	0x502fa872	1.1788208e+10
83	0x50fa6493	3.3607162e+10
84	0x50c04836	2.5807663e+10
85	0x51611b1b	6.04264e+10
86	0x51468ddf	5.3298983e+10
87	0x4fd893e6	7.2671427e+09
88	0x508f059e	1.919608e+10
89	0x512b3b94	4.5964935e+10
90	0x51a018c8	8.595132e+10
91	0x50ca8401	2.718119e+10
92	0x5019d3e8	1.0323206e+10
93	0x508d41fe	1.8959299e+10
94	0x50803d27	1.721193e+10
95	0x51d06a3d	1.1189195e+11
96	0x5017a420	1.0176463e+10
97	0x5101690f	3.4738336e+10
98	0x517761bb	6.6406035e+10
99	0x50de6834	2.9850968e+10
100	0x508c99ad	1.8871052e+10
101	0x505a927a	1.466813e+10
102	0x50a5a13b	2.2230456e+10
103	0x50fa54d6	3.359891e+10
104	0x5061121a	1.510424e+10
105	0x513898c2	4.9552302e+10
106	0x513aa3c5	5.010072e+10
107	0x511a717a	4.145805e+10
108	0x50bd8d42	2.544121e+10
109	0x51432b46	5.239029e+10
110	0x5144ac09	5.279374e+10
111	0x50adcd52	2.3327314e+10
112	0x50680152	1.5569603e+10
113	0x51241b09	4.4051763e+10
114	0x508c74ad	1.8851654e+10
115	0x5071285a	1.6183814e+10
116	0x501bc9b9	1.0454754e+10
117	0x50e38985	3.0539524e+10
118	0x50ba387e	2.4994116e+10
119	0x518d73bc	7.594151e+10
120	0x4ffb55b6	8.4333967e+09
121	0x510858ac	3.66002e+10
122	0x503b1061	1.2553651e+10
123	0x50bdc498	2.5470222e+10
124	0x4fb1744d	5.954378e+09
125	0x510accd9	3.725889e+10
126	0x51082ff3	3.65575e+10
127	0x51005a39	3.4454344e+10

fc2.weight f4 [128, 128]
0	0xbd0807ed	-0.033210684
1	0xbd6d0d6a	-0.05787412
2	0x3b5ff10d	0.0034170777
3	0x3cc76172	0.024338458
4	0xbdc8e816	-0.09809892
5	0xbda1fc6c	-0.07909474
6	0xbdcd0d2a	-0.100122765
7	0x3cfe6d0d	0.031057859
8	0x3d768553	0.06018574
9	0x3d9417df	0.072311155
10	0xbcdf9cd9	-0.02729647
11	0xbc6ba22b	-0.014381926
12	0x3c36d6ed	0.011159641
13	0xbd5adbf2	-0.053432412
14	0xbd8fab8d	-0.070151426
15	0xbd6e893f	-0.058236357
16	0x3d539fa3	0.051665913
17	0x3d5f9655	0.054586727
18	0xbd7f05df	-0.06226146
19	0xbcff911d	-0.031197125
20	0x3ce4d169	0.027931886
21	0x3ae648cf	0.0017569306
22	0xbd8f1bbd	-0.069877125
23	0x3d618f73	0.055068444
24	0xbdb8bc25	-0.09020261
25	0x3d84a028	0.0647586
26	0x3d98d2f9	0.07462115
27	0x3c97922c	0.018502317
28	0x3c8883eb	0.016664466
29	0x3d039f4b	0.032134335
30	0xbd039b48	-0.03213051
31	0xbcf94c03	-0.030431753
32	0xbc9c84b4	-0.019106247
33	0x3d9ed1ab	0.07754835
34	0x3d43f6b7	0.047842707
35	0xbd82c81a	-0.063858226
36	0xbca06cfe	-0.019583222
37	0xbd272f5d	-0.040816654
38	0xbd05197b	-0.032495003
39	0x3d0d3e87	0.03448346
40	0xbc5548c3	-0.013017836
41	0xbd9bc216	-0.07605378
42	0x3cba3445	0.022730002
43	0xbd70c55d	-0.05878197
44	0x3d54871b	0.05188666
45	0xbd918a7f	-0.07106494
46	0x3d6769bc	0.05649732
47	0xbccc5dd5	-0.024947086
48	0x3d3231c3	0.043504488
49	0x3c2a12aa	0.010380426
50	0x3d251644	0.040304437
51	0x3d9bddae	0.076106414
52	0x3ab98892	0.0014155081
53	0xbd097d43	-0.033566725
54	0x3d5b7442	0.05357767
55	0x3d11bd7e	0.035581104
56	0xbd955645	-0.07291845
57	0xbd1fa79f	-0.038978215
58	0x3d7f4fcf	0.06233197
59	0xbd469ff6	-0.048492394
60	0x3cd989bc	0.026554935
61	0x3c9ea7e1	0.01936716
62	0xbda92cb0	-0.082604766
63	0x3d6fc5d2	0.058538266
64	0xbd9a00cf	-0.075196855
65	0xbd56b78f	-0.05242115
66	0x3d759c64	0.0599636
67	0x3bc2d4cd	0.005945778
68	0x3cc10dcd	0.023566151
69	0x3bf63499	0.0075135943
70	0x3d5fa4e7	0.054600623
71	0x3d5e5a04	0.054285064
72	0x3d20a844	0.03922297
73	0xbd87747c	-0.066140145
74	0xbc90a652	-0.017657433
75	0x39d97a87	0.00041480755
76	0x3c8445ec	0.016146623
77	0x3ba83e45	0.005134376
78	0x3d9ce5fa	0.07661052
79	0x3c047a24	0.008085761
80	0xbd5d78c6	-0.054070257
81	0xbc7bdc0b	-0.015372287
82	0xbdc0d11b	-0.09414884
83	0x3d78ae4b	0.060713094
84	0xbdadf6f1	-0.08494366
85	0x3daf8171	0.08569611
86	0xbcd45cbc	-0.025923125
87	0xbd2d46e9	-0.042303953
88	0xbda4a439	-0.080391355
89	0x3ca0a8a6	0.019611668
90	0x3c885b15	0.016644994
91	0xbd0a68ce	-0.033791356
92	0x3d92a156	0.07159679
93	0xbd0c68f8	-0.034279794
94	0xbcaa566b	-0.02079316
95	0xbd246bda	-0.040141918
96	0xbd93de40	-0.07220125
97	0x3cc8c36b	0.024507245
98	0x3d15c3dc	0.03656374
99	0x3d4e3c8e	0.05035072
100	0x3c173027	0.009227789
101	0x3b28d9c8	0.0025764573
102	0x3d9df97e	0.077136025
103	0xbd5aa67a	-0.05338142
104	0x3b3580c6	0.0027695163
105	0xbd9cd54d	-0.076578714
106	0xbd344639	-0.044012282
107	0xbd9310f9	-0.07180972
108	0x3d80ae91	0.06283296
109	0xbd21271d	-0.039343942
110	0xbaee0ace	-0.0018161179
111	0x3d801a9f	0.062550776
112	0x3d16091d	0.036629785
113	0xbc80fcc8	-0.015745535
114	0x3c9b9d60	0.01899594
115	0x3ce30c26	0.027715754
116	0x3d2fe0e0	0.042939067
117	0x3d8292fa	0.0637569
118	0xbd749c1a	-0.059719183
119	0xbce8b147	-0.028404845
120	0x3d0ddd3a	0.034634806
121	0xbcb0b22a	-0.02156933
122	0xbd9fa9b8	-0.07796043
123	0x3c1f7166	0.009731626
124	0x3d86235d	0.06549714
125	0xbdcfc5d3	-0.10145154
126	0x3b8c6ede	0.0042856773
127	0xbbdb1af4	-0.0066865627
128	0x3d97a426	0.07404356
129	0x3d4c27ae	0.04984253
130	0xbc070baa	-0.008242527
131	0x3d646f2b	0.05577008
132	0x3c07ad97	0.008281133
133	0xbcdd2579	-0.026995407
134	0x3d35ac41	0.044353727
135	0x3c6097d4	0.013708074
136	0x3da1f813	0.079086445
137	0xbd687cce	-0.056759648
138	0xbd72a109	-0.059235606
139	0xbd91a067	-0.071106724
140	0x3da541cf	0.080691926
141	0x3b8beb8f	0.004270024
142	0xbd54222c	-0.0517904
143	0xbdbfd898	-0.09367484
144	0x3d9d8cb3	0.07692852
145	0xbc8cab29	-0.01717146
146	0xbd8c4638	-0.06849331
147	0x3d81cb02	0.06337549
148	0x3d57f577	0.052724328
149	0xbd54179f	-0.05178034
150	0x3d89eeb5	0.06734983
151	0x3d8dce9d	0.06924174
152	0x3d5e3864	0.054252997
153	0xbdb12c20	-0.08650994
154	0xbcdf0490	-0.027223855
155	0xbd69733c	-0.05699466
156	0x3d825e25	0.06365613
157	0xbd874615	-0.06605164
158	0xbd3d2341	-0.0461762
159	0xbd4a9c78	-0.049465626
160	0xbdb95b07	-0.09050565
161	0x3d0c915e	0.03431832
162	0x3cdda18b	0.027054569
163	0xbdb91654	-0.09037462
164	0xbdaa9b21	-0.0833037
165	0x3d88ea12	0.0668527
166	0xbcade33b	-0.021226516
167	0xbd29517e	-0.041337483
168	0x3d86cf3c	0.065824956
169	0xbda929c8	-0.08259922
170	0xbd56212b	-0.052277725
171	0xbdcb0af4	-0.099141985
172	0xbd3ef533	-0.04662056
173	0x3c430037	0.011901907
174	0x3d8a0ed1	0.06741107
175	0x3d85d6d9	0.065351196
176	0xbcadd52f	-0.021219818
177	0x3ccac1d7	0.024750633
178	0x3b8b4067	0.0042496207
179	0xbdaebea6	-0.08532457
180	0xbd0e0356	-0.03467115
181	0xbbfc3442	-0.0076966593
182	0x3ce6b843	0.028164035
183	0x3c6829fc	0.014170166
184	0xbd7bc728	-0.061469227
185	0xba294591	-0.00064572046
186	0x3d128df4	0.03577991
187	0xb9bbec18	-0.00035843323
188	0x3d5f05bd	0.05444883
189	0xbc9b175e	-0.01893204
190	0xbdbfda05	-0.09367756
191	0x3da53f14	0.08068672
192	0x3d1b0767	0.037848856
193	0x3d36e64a	0.044653215
194	0x3cab7c1f	0.020933209
195	0xbd607c80	-0.054806232
196	0x3d67c758	0.056586593
197	0xbd6a44be	-0.057194464
198	0xbd642025	-0.055694718
199	0xbdc6784c	-0.096909136
200	0x3d201d28	0.039090306
201	0x3d6d9a95	0.05800875
202	0x3d5af31d	0.053454507
203	0xbd1aa039	-0.037750456
204	0xbc469bcd	-0.012122107
205	0x3da1557e	0.078776345
206	0xbcc3fc58	-0.023924038
207	0xbd2eec17	-0.04270562
208	0xbcdf4fd7	-0.02725975
209	0xbd8b7c07	-0.06810766
210	0x3c8514b5	0.016245225
211	0x3d69ff63	0.05712832
212	0xbd56ff5b	-0.05248962
213	0x3d58a0fd	0.052887905
214	0xbd707a3e	-0.05871033
215	0xbcb484d7	-0.022036
216	0xbc956ee8	-0.01824136
217	0x3d35f3f7	0.044422116
218	0xbb64fa7b	-0.0034939337
219	0x3b047540	0.0020211488
220	0xbcbaaa54	-0.022786297
221	0xbd7bd865	-0.061485667
222	0x3c939aae	0.018018093
223	0xbdc29aa6	-0.09502153
224	0x3d44ad8b	0.048017066
225	0xbbaa0231	-0.0051882495
226	0xbd0ff54e	-0.03514605
227	0x3c5e82a6	0.013580954
228	0xbcfeee66	-0.031119537
229	0x3d96ac39	0.073570676
230	0xbda2cec7	-0.07949596
231	0x3d692754	0.05692227
232	0xbd5fc7fa	-0.054634072
233	0x3cd197cd	0.02558508
234	0xbd3545d4	-0.044256046
235	0xbd9c789c	-0.07640192
236	0xbc8f5a9c	-0.01749926
237	0x3d028d17	0.031872835
238	0xbdd44607	-0.10364919
239	0xbc4fe2d2	-0.0126883555
240	0xbd1f9d42	-0.038968332
241	0xbd62cc77	-0.055370774
242	0x3d600d7a	0.054700352
243	0xbcbc0284	-0.022950418
244	0xbd7e7778	-0.062125653
245	0x3d5bfc51	0.053707425
246	0xbd947f1d	-0.072508074
247	0x3d83873d	0.06422279
248	0xbd6c55d0	-0.057699025
249	0xbda583ec	-0.08081803
250	0x3d234641	0.03986192
251	0xbd7d7b3f	-0.061885115
252	0xbd9b1a31	-0.07573355
253	0xbc369b1e	-0.011145381
254	0xbd0fb8aa	-0.03508822
255	0x3d2bf83f	0.041984793

fc2.bias f4 [128]
0	0x3db28d82	0.08718397
1	0x3d9cc1b2	0.07654132
2	0xbd56c4b2	-0.052433677
3	0x3c97809e	0.018493947
4	0x3c9f5133	0.019447898
5	0xbd0479f8	-0.03234288
6	0x3d9763e3	0.07392099
7	0xbda8a84a	-0.082352236
8	0x3d9388ff	0.07203864
9	0xbd9edd63	-0.0775707
10	0xbd81ddcf	-0.06341135
11	0x3db87fa9	0.09008724
12	0x3bbe06e4	0.0057991613
13	0x3d54116c	0.051774427
14	0x3d895261	0.06705166
15	0x3da2a939	0.07942433
16	0xbd068c56	-0.03284868
17	0xbbff5cc7	-0.0077930423
18	0x3c925871	0.017864438
19	0x3dae7afb	0.085195504
20	0xbcc8d006	-0.024513256
21	0x3bb56b08	0.0055364408
22	0x3d503998	0.050836176
23	0x3d4dba48	0.05022648
24	0x3d05b2b8	0.032641143
25	0x3d17b9cd	0.037042428
26	0xbd842565	-0.06452445
27	0xbd08fcb8	-0.033444136
28	0xbd65b8cd	-0.056084443
29	0xbd7be592	-0.061498232
30	0x3d959f47	0.0730577
31	0x3c488c60	0.012240499
32	0xbbfa9285	-0.007646861
33	0xbd4f3105	-0.050583858
34	0x3da0421b	0.078251086
35	0x3daacd2e	0.08339916
36	0x3ccbd66d	0.02488252
37	0xbda390b5	-0.07986585
38	0xbb10ffe7	-0.0022125186
39	0x3d9ee15e	0.07757829
40	0x3d206fb1	0.039169017
41	0xbc9a93ee	-0.018869366
42	0x3d95ba69	0.073109455
43	0x3d67a659	0.056555126
44	0xbd523291	-0.051317755
45	0x3d672b68	0.05643788
46	0x3c8ff9ea	0.017575223
47	0x3d71d30a	0.059039153
48	0x3d502300	0.05081463
49	0xbc3e1f94	-0.0116042085
50	0x3d36e5f8	0.04465291
51	0xbd0a9c21	-0.033840302
52	0x3d9689bf	0.07350492
53	0x3c2c2630	0.0105071515
54	0xbcaf9afa	-0.021436203
55	0x3b744006	0.0037269606
56	0xbaff08a3	-0.001945753
57	0xbda85928	-0.0822013
58	0xbcdbab5e	-0.026815113
59	0x3c526a14	0.012842674
60	0x3cfec0b2	0.031097744
61	0xbd44812a	-0.047974743
62	0x3cbf61db	0.02336209
63	0x3c50371f	0.012708454
64	0x3d7ade55	0.06124719
65	0x3d5af52c	0.05345647
66	0x3d9bb64f	0.07603132
67	0xbc98c991	-0.018650802
68	0x3da13188	0.078707755
69	0xbd5957b8	-0.05306217
70	0xbd471a78	-0.048609227
71	0x3dac1869	0.08403093
72	0xbcbc76ec	-0.023005925
73	0xbd1fe81c	-0.039039716
74	0xbcb727c4	-0.022357829
75	0x3d5768d0	0.05259019
76	0xbaf7615a	-0.0018873618
77	0x3b16bb11	0.0022999684
78	0x3c62568b	0.013814579
79	0x3d798ace	0.06092339
80	0xbd8e58d5	-0.06950537
81	0x3dab1f78	0.083556116
82	0xbaa67995	-0.0012701029
83	0xbd1c59c9	-0.038171563
84	0x3d63ea00	0.05564308
85	0x3c48ae68	0.012248613
86	0xbd5d94c2	-0.054096945
87	0xbdb78e0f	-0.089626424
88	0xbcc5b31d	-0.02413326
89	0xbd9d7011	-0.076873906
90	0x3d9efcdd	0.077630736
91	0xbcf83bb0	-0.030301899
92	0x3d20ccd4	0.03925784
93	0xbd9bb9ed	-0.07603822
94	0x3d27b708	0.040946037
95	0x3d8510e6	0.06497364
96	0xbd07582d	-0.033043075
97	0xbd914a20	-0.07094216
98	0x3d2dc77a	0.042426564
99	0x3d5f0aa4	0.054453507
100	0x3db32668	0.0874756
101	0x3cc252b5	0.023721078
102	0xbd4300f3	-0.047608327
103	0x3c21ca37	0.009874872
104	0xbdb14799	-0.08656234
105	0x3ce89d86	0.028395426
106	0x3d2175b7	0.039418902
107	0x3d4ca0a4	0.049957886
108	0xbd761b83	-0.06008483
109	0xbc3fb5a3	-0.01170102
110	0xbda41c54	-0.08013216
111	0xbda4a25b	-0.08038779
112	0x3cbfc401	0.023408892
113	0xbda04355	-0.078253426
114	0xbcc1d7f3	-0.023662543
115	0xbca5729d	-0.020196253
116	0xbcffaf64	-0.031211562
117	0x3dac2b53	0.08406701
118	0xbd80d9c2	-0.06291534
119	0xbd017b14	-0.031611517
120	0x3c56058c	0.013062846
121	0x3d5b8a34	0.053598598
122	0x3b3f8091	0.0029220919
123	0x3c9f99f5	0.019482592
124	0x3d9a5124	0.075350076
125	0xbda32c08	-0.07967383
126	0xbc735cc0	-0.014853656
127	0x3d5dcc94	0.05415018

bn2.weight f4 [128]
0	0x3f804bbc	1.0023112
1	0x3f7b4700	0.9815521
2	0x3f81d3e3	1.0142788
3	0x3f84a63e	1.0363233
4	0x3f7fe98d	0.99965745
5	0x3f82c9a2	1.0217783
6	0x3f805f53	1.0029091
7	0x3f7e32f8	0.9929652
8	0x3f7dc563	0.99129313
9	0x3f7e5885	0.9935382
10	0x3f822e99	1.017047
11	0x3f7fb47d	0.9988478
12	0x3f800c54	1.0003762
13	0x3f81f9f2	1.0154402
14	0x3f7ff1be	0.99978244
15	0x3f7e9401	0.99444586
16	0x3f80ebfb	1.0072016
17	0x3f7c9d39	0.986774
18	0x3f80fc5c	1.0077014
19	0x3f7b4ab2	0.9816085
20	0x3f7ae6d3	0.9800846
21	0x3f7e40cf	0.9931764
22	0x3f82551b	1.0182222
23	0x3f8136b1	1.0094815
24	0x3f81b82b	1.0134329
25	0x3f861d98	1.0477781
26	0x3f7aa286	0.9790424
27	0x3f8248bc	1.0178447
28	0x3f80f08c	1.0073409
29	0x3f81f344	1.0152364
30	0x3f846dc1	1.0345994
31	0x3f81d5cc	1.0143371
32	0x3f81cd23	1.0140728
33	0x3f7bb38b	0.98320836
34	0x3f7fb39a	0.99883425
35	0x3f80c43f	1.005989
36	0x3f740271	0.95316225
37	0x3f7c9696	0.98667276
38	0x3f804836	1.0022037
39	0x3f7fbf44	0.99901223
40	0x3f807b62	1.0037653
41	0x3f7cec78	0.9879832
42	0x3f7e64a0	0.9937229
43	0x3f7a1ae8	0.97697306
44	0x3f809b4d	1.0047394
45	0x3f801d2c	1.0008903
46	0x3f7cf1a2	0.988062
47	0x3f7c31a6	0.9851326
48	0x3f8087d8	1.0041456
49	0x3f7cc8cd	0.987439
50	0x3f7ce758	0.987905
51	0x3f7ea62e	0.9947232
52	0x3f7eb9c2	0.99502194
53	0x3f7ece65	0.99533683
54	0x3f7b7487	0.9822468
55	0x3f818b57	1.0120648
56	0x3f7a0a39	0.9767185
57	0x3f791e12	0.9731151
58	0x3f7ba8a9	0.9830423
59	0x3f80f674	1.0075212
60	0x3f80da3c	1.00666
61	0x3f80f6f3	1.0075363
62	0x3f81303c	1.0092845
63	0x3f7d7f37	0.9902224
64	0x3f7deb95	0.99187595
65	0x3f800333	1.0000976
66	0x3f8377e2	1.027096
67	0x3f83ccde	1.0296896
68	0x3f82a4ec	1.020658
69	0x3f7d4871	0.9893866
70	0x3f802bd4	1.0013375
71	0x3f7f6ee8	0.99778605
72	0x3f7f17e1	0.9964581
73	0x3f805869	1.0026981
74	0x3f83329a	1.0249817
75	0x3f7ecb0d	0.9952858
76	0x3f800502	1.0001528
77	0x3f7e2b31	0.99284655
78	0x3f803031	1.0014707
79	0x3f7caddb	0.9870278
80	0x3f7ce308	0.9878392
81	0x3f7ff212	0.99978745
82	0x3f7bc8cc	0.98353267
83	0x3f7ff488	0.999825
84	0x3f812bc2	1.0091479
85	0x3f827d60	1.0194511
86	0x3f81bea1	1.01363
87	0x3f8039d3	1.0017647
88	0x3f8168f1	1.011015
89	0x3f79af20	0.97532845
90	0x3f80fef5	1.0077807
91	0x3f7dbb33	0.9911377
92	0x3f7da5b4	0.9908097
93	0x3f7f9fa0	0.99852943
94	0x3f80aaf2	1.0052168
95	0x3f822aae	1.0169275
96	0x3f7fdc2a	0.9994532
97	0x3f7e00ed	0.9922016
98	0x3f7c0200	0.9844055
99	0x3f806aea	1.0032628
100	0x3f7d9880	0.9906082
101	0x3f8074db	1.0035661
102	0x3f7fd3d2	0.9993259
103	0x3f81e3b2	1.0147612
104	0x3f7b3918	0.98133993
105	0x3f7c69fc	0.9859922
106	0x3f7e71f7	0.99392647
107	0x3f7f17fb	0.99645966
108	0x3f7ffe23	0.99997157
109	0x3f8019ca	1.000787
110	0x3f815294	1.0103326
111	0x3f78ef6d	0.97240335
112	0x3f7fa742	0.9986459
113	0x3f7df3ea	0.9920031
114	0x3f7e12bb	0.9924733
115	0x3f80ba4b	1.0056852
116	0x3f827b5a	1.0193894
117	0x3f7cb99a	0.98720706
118	0x3f7f5b63	0.9974882
119	0x3f7e4d81	0.9933701
120	0x3f7ea2df	0.9946727
121	0x3f7ec22d	0.9951504
122	0x3f7ce483	0.9878618
123	0x3f80c52a	1.006017
124	0x3f82974d	1.0202423
125	0x3f7d6559	0.9898277
126	0x3f80c51a	1.0060151
127	0x3f808cfc	1.0043025

bn2.bias f4 [128]
0	0xbc0258ce	-0.007955743
1	0xbc861bb4	-0.016370632
2	0x3c65ad14	0.014018316
3	0x3d0d235d	0.034457553
4	0xbb3e6cc6	-0.0029056533
5	0x3cb0c163	0.021576589
6	0x3bc4df15	0.0060080388
7	0xbad1e35c	-0.0016013193
8	0xbb862627	-0.0040939036
9	0xbb124c73	-0.00223234
10	0x3c985dad	0.018599356
11	0x3c2480c0	0.010040462
12	0x3b92e475	0.0044828006
13	0x3c84fb84	0.016233213
14	0xbb89f902	-0.0042105922
15	0x3a5ff738	0.00085436134
16	0x3bf0d067	0.0073490622
17	0x3b178213	0.0023118302
18	0xb9eb083d	-0.0004482883
19	0xbb37fa0f	-0.002807263
20	0x3bce21a1	0.00629063
21	0x3ba2f5f7	0.004973169
22	0x3d0da4e0	0.034581065
23	0x3d0158f3	0.03157897
24	0x3be77ea7	0.0070646587
25	0x3d1c76ff	0.03819942
26	0xbceaf35b	-0.028680494
27	0x3b931769	0.0044888747
28	0x3cbea477	0.023271782
29	0x3c96af6d	0.018394196
30	0x3d1d3a4a	0.038385667
31	0x3c685bcb	0.014182041
32	0x3c424d4f	0.011859252
33	0xba0f0570	-0.00054558273
34	0x3c718a14	0.014742393
35	0x3bfb7f1e	0.0076750657
36	0xbce9ec21	-0.028554978
37	0xbbd3edbf	-0.0064675505
38	0x3bc2b8a4	0.005942421
39	0x3babb52d	0.0052401037
40	0x3c6a846a	0.014313797
41	0xbb5e78e6	-0.0033946573
42	0x3ba4e2a5	0.005031901
43	0xbc4cd06f	-0.012500866
44	0x3c142773	0.009042609
45	0x3b9cd33f	0.0047859247
46	0x3b13811a	0.002250737
47	0xbbeae993	-0.0071689575
48	0x3c706e65	0.014674758
49	0xbb79fe22	-0.003814586
50	0xbc4960aa	-0.012291113
51	0x3bbc3a08	0.0057442226
52	0xbaa4c0ff	-0.0012569724
53	0x3a9586e1	0.0011407995
54	0xba9efdb6	-0.0012130055
55	0x3c92c971	0.01791832
56	0x3badfdb6	0.0053097857
57	0xbc020c6e	-0.007937534
58	0xbca68057	-0.02032487
59	0x3bae47ba	0.005318609
60	0x3cb374d8	0.021906301
61	0x3c4679aa	0.012113968
62	0x3c0cae1f	0.008586436
63	0x3bd7047a	0.006561813
64	0x3b29539c	0.0025837189
65	0x3c2236c9	0.009900757
66	0x3d0674c9	0.03282622
67	0x3ca423c8	0.020036593
68	0x3d281453	0.041035008
69	0x3c7198cd	0.014745903
70	0xbb272d4b	-0.0025509174
71	0xbba7d87b	-0.005122242
72	0xbbc87d4d	-0.0061184526
73	0x3cd5e1fe	0.026108738
74	0x3cf0930e	0.029366996
75	0x3c8961b7	0.016770227
76	0xbb910181	-0.004425228
77	0xbb8f39a3	-0.0043708845
78	0x3c8b43e5	0.017000148
79	0x3c4e097d	0.012575504
80	0xbcc53cd6	-0.02407686
81	0x3bfc79d4	0.0077049527
82	0xbc07e2f9	-0.008293861
83	0xbbad4a88	-0.005288426
84	0x3bad309c	0.0052853357
85	0x3bcd029d	0.006256415
86	0x3c54deb9	0.012992554
87	0x3cda7c33	0.02667055
88	0x3c51da97	0.012808464
89	0xbc5c624a	-0.013451168
90	0x3c0bdf2f	0.008537098
91	0x3c3dfd2d	0.011596006
92	0x3a86ed8e	0.0010294185
93	0x3c430fda	0.011905635
94	0x3b81dd44	0.0039631445
95	0x3cdb476f	0.02676746
96	0x3c1aab92	0.00944032
97	0xbc7e3f13	-0.015517968
98	0xbc240793	-0.010011571
99	0x3c20f09f	0.009822994
100	0x3beee16f	0.0072900574
101	0x3ca6beea	0.020354707
102	0x3c9d9c2e	0.019239511
103	0x3cd5791c	0.026058726
104	0xbc2bfda6	-0.010497486
105	0xbb600bdd	-0.0034186759
106	0x3c59a604	0.01328421
107	0x3c1f394d	0.009718251
108	0x3c2cf967	0.010557509
109	0x3c0c3536	0.008557608
110	0x3b81d2df	0.0039619054
111	0xbc909ddd	-0.0176534
112	0x3be35dce	0.0069386726
113	0xbbe2346e	-0.0069032228
114	0xbba72fe9	-0.005102147
115	0x3b6391c6	0.003472434
116	0x3ca4a0e0	0.020096242
117	0xbcae2ac2	-0.021260623
118	0x3be072b4	0.006849611
119	0xbb176aca	-0.0023104423
120	0xbc1cf6ac	-0.0095802955
121	0xbbd851ec	-0.0066015627
122	0x3c1595cf	0.009129955
123	0xbb070ba2	-0.00206063
124	0x3c42e59a	0.011895562
125	0x3b9a91b4	0.004717076
126	0x3c0057a5	0.007833396
127	0x3c8199f0	0.015820473

bn2.running_mean f4 [128]
0	0xbda98304	-0.08276942
1	0xbea2b036	-0.31775063
2	0xbf0c39ec	-0.5477588
3	0xbf16ac0a	-0.5885626
4	0x3e78d9f8	0.24301898
5	0xbe87f8f2	-0.26557118
6	0xbf04500a	-0.5168463
7	0xbf0b768c	-0.54477763
8	0xbec8b1c6	-0.3919813
9	0xbe427563	-0.18990092
10	0xbe80245f	-0.2502775
11	0xbe12066f	-0.14260267
12	0xbe8ad416	-0.27114934
13	0xbeeeece1	-0.466651
14	0xbf0feb30	-0.5621824
15	0xbf0affa6	-0.5429634
16	0xbf45fc49	-0.7733808
17	0xbefcd278	-0.49379325
18	0xbe34f6cc	-0.1767227
19	0xbf0bc54b	-0.5459792
20	0x3e308b34	0.17240602
21	0xbc79892f	-0.015230461
22	0xbcb2a223	-0.021805828
23	0xbde925ec	-0.11384186
24	0xbef1b953	-0.47211704
25	0xbebcc440	-0.36868477
26	0xbf025cc1	-0.5092278
27	0xbf50ca54	-0.8155873
28	0x3c14450f	0.009049668
29	0xbe0ef6ae	-0.13961288
30	0xbe705cea	-0.23472944
31	0x3deb7e3a	0.11498685
32	0xbdcc0778	-0.09962362
33	0xbe3b3c15	-0.18284638
34	0x3df8d0c4	0.12149194
35	0xbf29cf27	-0.66331714
36	0xbd953f1b	-0.07287427
37	0xbf132fdc	-0.574949
38	0x3e1df50f	0.15425514
39	0xbcb1b556	-0.021692913
40	0xbf06820b	-0.5254218
41	0xbe6f0ac0	-0.23343945
42	0xbec46497	-0.38357994
43	0xbdf0d826	-0.11759977
44	0x3c985f6b	0.018600186
45	0xbee43375	-0.4457051
46	0xbf09d9db	-0.53848046
47	0xbe38720d	-0.18012257
48	0xbe9848b6	-0.29742974
49	0xbe8b563c	-0.2721423
50	0xbf2116d9	-0.6292549
51	0x3e0a57e5	0.13510092
52	0xbe98cf7d	-0.298458
53	0xbdd5618e	-0.10418998
54	0xbf5ab99c	-0.8543947
55	0x3dff487c	0.12464997
56	0x3e879e8e	0.26488155
57	0xbf084547	-0.5323071
58	0x3cdce563	0.026964849
59	0xbd70a2ca	-0.058748998
60	0xbecfeca4	-0.4061023
61	0xbeab4d36	-0.33457345
62	0xbeb4747a	-0.35245115
63	0xbe9822c6	-0.2971403
64	0x3bd28916	0.0064250333
65	0xbcbdb6eb	-0.023158511
66	0xbefa6276	-0.48903245
67	0xbeb4809f	-0.3525438
68	0xbd95fe81	-0.073239334
69	0xbebf140a	-0.37319976
70	0x3f1b6664	0.6070311
71	0xbd159351	-0.036517445
72	0xbee02f31	-0.43786004
73	0xbc0faf12	-0.008769767
74	0xbd60d5d0	-0.054891407
75	0xbe47c78f	-0.1950972
76	0xbe287c63	-0.164537
77	0xbe86141a	-0.2618721
78	0x3d28a315	0.041171152
79	0xbec3ad0c	-0.38217962
80	0x3e2183a9	0.1577288
81	0x3f050ea5	0.5197547
82	0xbd89b920	-0.06724763
83	0x3e6a18be	0.22861001
84	0xbdba3374	-0.09091845
85	0xbe6349ae	-0.22196075
86	0xbf0e512e	-0.5559262
87	0xbf6062cc	-0.8765075
88	0xbe7673c5	-0.240676
89	0xbdfcf2e3	-0.123510145
90	0xbe25a6de	-0.16176936
91	0x3dd26997	0.10274046
92	0x3cd52c2a	0.026022036
93	0xbf006028	-0.5014672
94	0xbeb9ebfd	-0.36312857
95	0x3ca71d7e	0.020399805
96	0xbe5842e2	-0.21119264
97	0xbb989c7d	-0.0046573267
98	0xbe920c8c	-0.28525198
99	0x3e0c392a	0.13693681
100	0xbd560046	-0.052246355
101	0xbe086c44	-0.1332255
102	0xbefefc83	-0.49802026
103	0x3f1ec93e	0.6202582
104	0xbeefaa29	-0.4680951
105	0x3d002d4f	0.03129321
106	0xbeb1cae0	-0.34725094
107	0xbe21ff85	-0.15820129
108	0xbf51e761	-0.8199368
109	0x3e5ac50d	0.21364231
110	0x3dcf2aca	0.10115583
111	0xbb1f8e03	-0.002434612
112	0xbede68f7	-0.43439457
113	0xbf1a0bf6	-0.601745
114	0xbe7d4c11	-0.24736048
115	0xbe98f995	-0.29877916
116	0x3d81d12e	0.06338726
117	0xbdcd7217	-0.100315265
118	0xbeff5b8c	-0.49874532
119	0xbec36dda	-0.38169748
120	0x3e02361f	0.12715958
121	0xbec79216	-0.38978642
122	0x3c1481a4	0.009064112
123	0xbeabc2f5	-0.33547178
124	0x3f069cb0	0.52582836
125	0xbf484c63	-0.78241557
126	0xbe68515b	-0.22687285
127	0xbd962d45	-0.07332853

bn2.running_var f4 [128]
0	0x3f25a4f3	0.6470482
1	0x3e833e0a	0.2563327
2	0x3e56435b	0.20924132
3	0x3d1f8e3b	0.038954
4	0x3edbf8a5	0.42963138
5	0x3d59625d	0.053072322
6	0x3d5a7642	0.053335436
7	0x3dc00785	0.09376434
8	0x3e0d617c	0.13806719
9	0x3e6b9f56	0.2301
10	0x3db28015	0.08715836
11	0x3eb2a7de	0.34893698
12	0x3e4aaf0f	0.19793342
13	0x3e1a32f8	0.15058506
14	0x3e1b9c51	0.15196349
15	0x3da5ac24	0.08089474
16	0x3e3a33ad	0.18183775
17	0x3e97f39d	0.2967805
18	0x3e045166	0.12921676
19	0x3eb3e1f4	0.35133326
20	0x3e02b30e	0.12763616
21	0x3eb33ee5	0.35008922
22	0x3f1d14bd	0.6135977
23	0x3ea7cd9b	0.32774052
24	0x3d4a3ecd	0.049376298
25	0x3e1d9013	0.15386991
26	0x3e6b39d8	0.22971284
27	0x3e2cbbd3	0.16868524
28	0x3e00b5e6	0.12569389
29	0x3e932639	0.287401
30	0x3e052a87	0.13004504
31	0x3daecf7e	0.0853567
32	0x3db244c8	0.08704525
33	0x3e9425a6	0.28934973
34	0x3df2fdfa	0.118648484
35	0x3e84b0fa	0.25916272
36	0x3e50ea38	0.20401847
37	0x3e0f767a	0.14010039
38	0x3e5c7a88	0.21531117
39	0x3dd7183e	0.10502671
40	0x3dc71742	0.09721233
41	0x3e3ed641	0.18636419
42	0x3e21185b	0.15731947
43	0x3ea8b9c7	0.32954237
44	0x3e4b05c2	0.19826415
45	0x3e88c619	0.26713637
46	0x3ea60c5a	0.32431298
47	0x3ef0d035	0.4703385
48	0x3df43f89	0.11926181
49	0x3e8a2bce	0.26986545
50	0x3e6a2dc9	0.22869028
51	0x3e3b3aec	0.18284196
52	0x3e1879d2	0.14890221
53	0x3ddc34da	0.10752268
54	0x3eb0137e	0.3438987
55	0x3eca8916	0.39557713
56	0x3e797980	0.24362755
57	0x3ebd5090	0.36975527
58	0x3e13ccff	0.14433669
59	0x3e41bcb0	0.18919635
60	0x3f3d587b	0.73963135
61	0x3e4ab326	0.19794902
62	0x3d8e8faf	0.06960999
63	0x3e434e17	0.19072758
64	0x3ead5d93	0.33860454
65	0x3da5d824	0.08097866
66	0x3e4889dc	0.19583839
67	0x3e61ec5f	0.22062825
68	0x3e8b28ea	0.27179652
69	0x3e2a4116	0.16626391
70	0x3e008cae	0.12553665
71	0x3e0d3da2	0.13793042
72	0x3e3b0017	0.18261753
73	0x3e4895fe	0.19588467
74	0x3f201683	0.6253435
75	0x3e2ff742	0.17184165
76	0x3e950c27	0.29110834
77	0x3e8419c1	0.258009
78	0x3efa8f5c	0.489375
79	0x3e8053b1	0.2506385
80	0x3d6e82d1	0.058230225
81	0x3e0b1df9	0.13585652
82	0x3d9c1ff6	0.076232836
83	0x3d6d3d5b	0.05791984
84	0x3ef43ed1	0.47704175
85	0x3db6e426	0.089302346
86	0x3da4be8b	0.08044156
87	0x3ebad5aa	0.36491138
88	0x3e28ed33	0.16496734
89	0x3eb21b08	0.34786248
90	0x3ed357e5	0.41277996
91	0x3e1b52b1	0.15168263
92	0x3e93941e	0.28823942
93	0x3e07cc55	0.1326154
94	0x3db51b4a	0.088430956
95	0x3e73b8fd	0.23801036
96	0x3e165ccf	0.14683841
97	0x3dcc797e	0.0998411
98	0x3e5e6585	0.21718414
99	0x3e09021d	0.13379712
100	0x3e4784c4	0.1948424
101	0x3e8a240f	0.26980636
102	0x3e6d85a6	0.23195514
103	0x3dd16169	0.10223658
104	0x3e93f57d	0.2889823
105	0x3e389ff6	0.1802977
106	0x3e7ba70d	0.24575444
107	0x3e1cc69a	0.15310135
108	0x3e2bf01b	0.16790812
109	0x3e030fed	0.12799044
110	0x3d9b01a4	0.07568672
111	0x3d825fa4	0.06365898
112	0x3f266a53	0.6500599
113	0x3db25b84	0.087088615
114	0x3e6afb5b	0.22947447
115	0x3db47fd0	0.08813441
116	0x3f1a9a23	0.60391444
117	0x3d802f61	0.06259037
118	0x3e4af56d	0.19820185
119	0x3de6a5ed	0.112621166
120	0x3e40aa6e	0.18815014
121	0x3e4a6662	0.19765618
122	0x3ede1071	0.4337192
123	0x3d948751	0.07252372
124	0x3e3c3155	0.18378194
125	0x3ee35f68	0.44408727
126	0x3e2470a8	0.160586
127	0x3e0e687e	0.13907048
