10_Models/Results_SiouxFalls/WGAN_Congestion_generator_best.pth (torch, 198462 bytes, 20 tensors)

fc1.weight f4 [128, 51]
0	0xbddfd974	-0.10930148
1	0x3c94a1ce	0.01814356
2	0xbdb7e2d9	-0.08978815
3	0xbc92d5ab	-0.01792415
4	0x3cfd7387	0.030938877
5	0xbd89e74a	-0.06733568
6	0x3d315650	0.043295205
7	0xbd5032c8	-0.05082968
8	0x3dc8c09e	0.09802364
9	0xbc8b840c	-0.017030738
10	0xbdc4f577	-0.09617131
11	0xbd9347bf	-0.07191419
12	0x3de27e75	0.11059276
13	0x3dd82b3e	0.10555123
14	0xbdcef1f4	-0.10104743
15	0xbc9c0b29	-0.01904829
16	0xbb9603d5	-0.0045780935
17	0x3c164eac	0.00917403
18	0x3de573f7	0.11203759
19	0x3d938180	0.072024345
20	0xbd9950d4	-0.0748612
21	0x3dba1724	0.09086445
22	0xbdd24a64	-0.10268095
23	0x3d3f011a	0.04663191
24	0xbdb0aba0	-0.08626485
25	0xbd342f9a	-0.04399071
26	0x3de2e006	0.11077885
27	0x3de0a06f	0.109681
28	0x3e01a8b2	0.12662008
29	0xbcc0e76d	-0.023547852
30	0x3dcc2e9e	0.09969829
31	0x3d23914f	0.0399335
32	0xbe05f622	-0.13082173
33	0xbe0ad32f	-0.13557123
34	0x3d91a4fa	0.07111545
35	0xbd4b2b73	-0.049601983
36	0xbda34544	-0.07972196
37	0xbdc77acf	-0.09740221
38	0xbd8901d6	-0.06689803
39	0x3d01c160	0.031678557
40	0xbd2e8eca	-0.042616643
41	0xbda472fb	-0.08029743
42	0xbddda107	-0.10821729
43	0xbdff7c8d	-0.12474928
44	0x3c0c9d8e	0.008582486
45	0x3d69e615	0.05710419
46	0x3c4715a2	0.012151154
47	0xbdfb35ec	-0.12266144
48	0x3d24fe7d	0.04028176
49	0xbde24083	-0.11047461
50	0xbe24fd52	-0.16112259
51	0x3d08ccda	0.033398487
52	0xbdf2cc40	-0.11855364
53	0xbd7dc9b3	-0.061959933
54	0xbbf5fa57	-0.0075066495
55	0xbe024843	-0.12722878
56	0xbd8168ae	-0.06318794
57	0x3db2669b	0.08710977
58	0x3cbc7aea	0.023007829
59	0x3d643a39	0.055719588
60	0xbd804eb7	-0.06265014
61	0xbc878b13	-0.016545808
62	0xbd18e0e2	-0.03732384
63	0xbd0bee52	-0.034162827
64	0x3ded2767	0.11579781
65	0xbbb64038	-0.0055618547
66	0xbdecffbc	-0.11572215
67	0x3ccb2bcd	0.02480116
68	0xbd694880	-0.056953907
69	0x3d55bf3f	0.05218434
70	0x3e09f1b2	0.13471106
71	0x3c91d23d	0.017800445
72	0x3e16a691	0.14711978
73	0xbc8ddeeb	-0.01731821
74	0xbcec3432	-0.028833482
75	0xbda9e682	-0.08295919
76	0x3d1a9f3a	0.037749507
77	0xbcdf138f	-0.027231006
78	0xbd23d5b2	-0.039998718
79	0x3ba8152e	0.005129478
80	0x3d8e7248	0.06955391
81	0x3d31affc	0.043380722
82	0xbca04aba	-0.019566882
83	0xbdbcc2a4	-0.09216812
84	0x3d0cbe84	0.034361377
85	0x3d63bd24	0.0556003
86	0x3ddbe086	0.10736184
87	0x3d9b48c6	0.0758224
88	0xbce99e29	-0.0285178
89	0x3e12723e	0.14301392
90	0x3d99eb59	0.07515592
91	0xbdbe31c7	-0.09286838
92	0xbdd80208	-0.105472624
93	0x3de4e921	0.11177278
94	0x3bee0956	0.0072642965
95	0x3d8a703a	0.06759687
96	0x3d9728a6	0.073808
97	0xbdc11231	-0.09427298
98	0xbd0a68d3	-0.033791374
99	0xbdda18b9	-0.10649247
100	0x3e01fa8e	0.12693235
101	0x3d684a7c	0.05671166
102	0x3d8eff03	0.069822334
103	0x3d15d309	0.036578212
104	0x3e1120d9	0.14172687
105	0x3e08e6c2	0.13369277
106	0x3c931617	0.01795487
107	0xbb800497	-0.003906797
108	0xbdac5786	-0.08415131
109	0x3d78f758	0.06078276
110	0x3d8c63fa	0.068550065
111	0xbd83eb58	-0.06441373
112	0x3cf4cd5c	0.02988308
113	0xbdbdcb97	-0.09267347
114	0xbaf1f652	-0.001846025
115	0xbbe9fc4c	-0.007140672
116	0xbbda6207	-0.006664518
117	0x3c884c0b	0.016637823
118	0x3e086904	0.1332131
119	0x3dbba6d9	0.09162683
120	0x3de2df42	0.11077739
121	0xbd804129	-0.06262428
122	0xbcfeb93f	-0.031094192
123	0xbdcec7d0	-0.10096705
124	0x3ccfc4c6	0.025362384
125	0x3df51bdd	0.11968205
126	0x3d27434d	0.040835667
127	0x3d841ecc	0.064511865
128	0x3d08480c	0.033271834
129	0xbd8f012b	-0.06982645
130	0x3dcf503c	0.10122725
131	0x3d926864	0.07148817
132	0x3dc24c59	0.094872184
133	0xbc1c68b7	-0.00954645
134	0x3d6bf68b	0.05760817
135	0xbd469049	-0.048477445
136	0x3d9397a8	0.072066605
137	0x3cd73d35	0.026274303
138	0xbd15628f	-0.036470946
139	0xbdf56abb	-0.11983248
140	0x3d7b0f0b	0.061293643
141	0xbc2f8d22	-0.010714801
142	0x3da744ea	0.08167441
143	0xbd08c59a	-0.033391573
144	0xbdd7ab6a	-0.105307415
145	0xbdd30d81	-0.1030531
146	0x3c8e8df6	0.017401677
147	0xbcf17e7c	-0.029479258
148	0xbdeb4107	-0.11487012
149	0x3d8ee70d	0.06977663
150	0xbcf6bb0f	-0.030118493
151	0x3d91ae14	0.07113281
152	0x3d702149	0.058625493
153	0x3d579315	0.052630503
154	0x3d8b88da	0.06813212
155	0xbcc1217f	-0.023575542
156	0x3df5b3d3	0.119971894
157	0xbd97533d	-0.07388923
158	0xbd8c8c7e	-0.06862734
159	0xbe0d0ce0	-0.13774443
160	0x3ddb357a	0.10703559
161	0x3db3978a	0.08769138
162	0xbdce6d14	-0.10079399
163	0xbdffb55d	-0.12485764
164	0x3e003474	0.1252001
165	0xbdbc63ae	-0.091987
166	0x3d933828	0.07188445
167	0x3d28e8ee	0.041237764
168	0xbd80ac03	-0.06282809
169	0xbdc21965	-0.094775
170	0x3dd84701	0.10560418
171	0x3da8f2a8	0.08249408
172	0x3b4e6945	0.003149585
173	0x3db9ed11	0.0907842
174	0xbd1e6cd8	-0.03867802
175	0xbd69059b	-0.05689011
176	0x3d9e7d33	0.077387236
177	0xbdf5be53	-0.11999192
178	0xbb2118b5	-0.0024581377
179	0xbdbab2f4	-0.09116164
180	0x3b0ac00a	0.0021171593
181	0xbd536414	-0.051609114
182	0x3d2f20d6	0.042755924
183	0xbe09e592	-0.1346648
184	0xbdb302d7	-0.08740776
185	0x3a8644c0	0.0010243878
186	0x3d904f6d	0.07046399
187	0xbdbb5ee9	-0.09148962
188	0xbcbfd33b	-0.023416152
189	0xbb902193	-0.0043985336
190	0xbd10ab3f	-0.035319563
191	0xbd568793	-0.052375387
192	0xbd81f98a	-0.06346424
193	0x3d045472	0.032307096
194	0xbd6b5c46	-0.057461046
195	0xbdd81049	-0.10549981
196	0xbd0fa151	-0.035065953
197	0xbd9a00dd	-0.07519696
198	0xbd86e383	-0.06586363
199	0xbe157530	-0.14595485
200	0xbcfc56e0	-0.030803144
201	0x3cad6591	0.021166595
202	0x3d7cafd3	0.061691117
203	0x3dd30ba8	0.10304958
204	0xbdd0b763	-0.10191228
205	0xbe1569f7	-0.14591204
206	0xbd1bfd12	-0.038083144
207	0x3ded6ec3	0.11593392
208	0xbdaef54a	-0.08542879
209	0x3d7c1a29	0.061548386
210	0xbd4a3277	-0.049364533
211	0xbd81e2cd	-0.06342087
212	0x3d909871	0.07060326
213	0xbe0f99c5	-0.14023502
214	0xbcae0aaf	-0.021245329
215	0xbd230820	-0.03980267
216	0xbc703eec	-0.014663439
217	0xbd1747f8	-0.03693387
218	0xbdf1c400	-0.11804962
219	0x3dc1f391	0.09470285
220	0x3dbf6661	0.09345699
221	0x3ca0758b	0.019587299
222	0x3d06da8c	0.032923266
223	0x3dffba60	0.1248672
224	0x3d019273	0.031633805
225	0xbdc9a18d	-0.098452665
226	0xbd9f22fc	-0.077703446
227	0x3b029a74	0.0019928487
228	0xbdddbfd5	-0.10827605
229	0xbd741439	-0.0595896
230	0xbdb7bfdb	-0.089721404
231	0xbce737bb	-0.028224817
232	0x3d8d5435	0.06900827
233	0xbe2414d6	-0.16023573
234	0x3d356293	0.04428346
235	0x3dad85f1	0.08472813
236	0xbdef9496	-0.116982624
237	0xbe247e12	-0.16063717
238	0xbe0a6179	-0.13513745
239	0x3ce986db	0.028506687
240	0x3b79c5e4	0.0038112337
241	0xbc55814a	-0.013031313
242	0xbe1c2e19	-0.1525196
243	0xbe0383df	-0.12843274
244	0xbdc10914	-0.0942556
245	0xbe26ed96	-0.1630157
246	0xbdd33722	-0.1031325
247	0xbe07ebcd	-0.13273545
248	0x3c70ba83	0.014692905
249	0x3d9251f2	0.07144536
250	0x3d0c5810	0.03426367
251	0x3bcd8d40	0.006272942
252	0xbd850798	-0.06495589
253	0x3dd8e900	0.10591316
254	0x3dc62d83	0.096766494
255	0x3e001fae	0.12512085

fc1.bias f4 [128]
0	0xbe0d1b79	-0.13780011
1	0x3dd05beb	0.10173782
2	0x3cb5cb26	0.022191595
3	0xbcc42301	-0.023942472
4	0xbd0f895c	-0.035043105
5	0x3da1f407	0.07907873
6	0xbd3d1379	-0.04616115
7	0x3d55eacf	0.052225884
8	0xbcd7fcf6	-0.026365738
9	0x3d691707	0.056906726
10	0x3da84052	0.08215393
11	0x3dc1e0f1	0.09466732
12	0xbc88bd86	-0.016691934
13	0xbd84812f	-0.06469952
14	0x3d435dc4	0.047696844
15	0xbcd0036c	-0.025392257
16	0xbd72e9c3	-0.059304964
17	0xbd50066d	-0.050787378
18	0x3dbe4ed9	0.09292383
19	0x3def8483	0.116951965
20	0x3d3eb2d0	0.046557248
21	0x3da7e762	0.0819843
22	0x3d8c5b1d	0.06853316
23	0xbddc4f04	-0.107572585
24	0x3e0345d6	0.12819609
25	0x3e0ef39e	0.1396012
26	0xbd8401ae	-0.06445633
27	0x3c93724c	0.017998837
28	0xbae6adc9	-0.00175994
29	0x3e096cdd	0.13420434
30	0x3d9c5ff4	0.07635489
31	0xbd52376e	-0.051322393
32	0xbbac03c5	-0.005249473
33	0x3d119d48	0.035550386
34	0x3dd6206b	0.10455402
35	0xbd4eb773	-0.05046792
36	0x3d119a41	0.0355475
37	0x3dc629e0	0.09675956
38	0xbd4ad540	-0.049519777
39	0xbddd1145	-0.107943095
40	0x3cc26a28	0.02373226
41	0x3d7cf341	0.061755423
42	0x3dc6452e	0.09681164
43	0xbdf544cd	-0.11976013
44	0x3d31f6a2	0.043448098
45	0x3cb2e86b	0.021839341
46	0xbe00c6e6	-0.12575874
47	0x3d9a4328	0.0753234
48	0xbcd2abe0	-0.025716722
49	0x3dd17711	0.10227788
50	0x3cbf918c	0.023384832
51	0x3e0e0c4e	0.13871881
52	0x3d2918e4	0.041283503
53	0xbdc47d6f	-0.09594237
54	0x3cebddf1	0.028792353
55	0xbdc21734	-0.09477082
56	0xbccfa771	-0.025348397
57	0x3d0c4012	0.03424079
58	0xbdb1eb13	-0.08687415
59	0xbde86f0f	-0.11349308
60	0x3d0fde75	0.03512426
61	0xbad68d8e	-0.0016369091
62	0x3c10e238	0.008842997
63	0xbdc63516	-0.09678094
64	0x3d7f7c6f	0.06237453
65	0x3dbb0f54	0.09133783
66	0x3cb6be6a	0.022307593
67	0xbd891917	-0.06694239
68	0xbe027c8a	-0.1274282
69	0xbd32d6de	-0.043661945
70	0xbdb7ef91	-0.089812405
71	0x3d971b4d	0.07378254
72	0xbdb02942	-0.08601619
73	0xbca120df	-0.019668994
74	0xbd985a0e	-0.074390516
75	0xbe0b02c6	-0.13575277
76	0xbe0ca112	-0.13733318
77	0xbcafb695	-0.021449367
78	0xbdf7f9a2	-0.121081606
79	0xbdcd71bd	-0.100314595
80	0xbc1dc9e1	-0.009630651
81	0x3c4dc8e2	0.012560101
82	0xbdd8e507	-0.105905585
83	0xbd78e465	-0.06076469
84	0xbd6f0cab	-0.05836169
85	0xbd187da2	-0.037229188
86	0x3c8df4cf	0.017328648
87	0xbe02c825	-0.12771662
88	0x3df1e238	0.11810726
89	0x3df4ecbf	0.11959218
90	0xbdc42220	-0.09576821
91	0x3d5687dc	0.05237566
92	0x3d4d428e	0.0501123
93	0x3cb7add8	0.022421762
94	0x3e0ccc2e	0.13749763
95	0xbcd1c9e1	-0.025608959
96	0xbcfe40d3	-0.03103677
97	0xbd13de2a	-0.036100544
98	0xbd80d221	-0.06290079
99	0x3dc397d2	0.09550442
100	0x3de0dafd	0.10979269
101	0x3c5ebd18	0.013594888
102	0xbda942ba	-0.0826468
103	0x3e0e6733	0.13906555
104	0xbe01aff6	-0.1266478
105	0x3dadc0d4	0.08484045
106	0xbd6765e2	-0.056493647
107	0xbdd4b829	-0.10386688
108	0xbdfdce2b	-0.12392839
109	0x3e0b1d4d	0.13585396
110	0x3cb79140	0.022408128
111	0x3c8a72c6	0.016900431
112	0x3ddd0660	0.107922316
113	0xbdfc38bb	-0.12315508
114	0xbd86d37b	-0.065833054
115	0x3e0b883e	0.13626191
116	0xbd9957e6	-0.074874684
117	0xbdc0c458	-0.094124496
118	0xbda5044b	-0.080574594
119	0x3da63dd7	0.08117264
120	0xbdbd7eb8	-0.09252685
121	0x3df3dfc1	0.11907912
122	0xbdc66d28	-0.09688789
123	0x3d481720	0.04885018
124	0xbd4962b4	-0.049166396
125	0x3ca5f30b	0.020257493
126	0x3d859ec6	0.06524424
127	0xb9c35c96	-0.0003726228

bn1.weight f4 [128]
0	0x3f7d9c4e	0.9906663
1	0x3f7ebfa9	0.995112
2	0x3f7f47a6	0.997187
3	0x3f7d81ad	0.99025995
4	0x3f7e2301	0.9927216
5	0x3f8139ac	1.0095725
6	0x3f7ec2f5	0.9951623
7	0x3f801575	1.0006548
8	0x3f7fd519	0.99934536
9	0x3f80c69e	1.0060613
10	0x3f7f3384	0.9968798
11	0x3f7cfb57	0.98821014
12	0x3f804c5d	1.0023304
13	0x3f7fa65a	0.9986321
14	0x3f81b243	1.0132526
15	0x3f8075d2	1.0035956
16	0x3f810e00	1.0082397
17	0x3f826f71	1.0190259
18	0x3f7f5b24	0.99748445
19	0x3f80d5bb	1.0065225
20	0x3f808e4d	1.0043427
21	0x3f8106d1	1.0080205
22	0x3f800643	1.0001911
23	0x3f80b5c3	1.0055469
24	0x3f819ecb	1.0126585
25	0x3f7cb1b2	0.9870864
26	0x3f80a0f8	1.0049124
27	0x3f7da88f	0.99085325
28	0x3f809143	1.004433
29	0x3f7d0c7d	0.9884718
30	0x3f7a1c44	0.9769938
31	0x3f814e27	1.0101975
32	0x3f8262dc	1.018642
33	0x3f80dd5d	1.0067555
34	0x3f7e70c3	0.9939081
35	0x3f8003fe	1.0001218
36	0x3f808866	1.0041625
37	0x3f7eff40	0.9960823
38	0x3f7b7bd5	0.9823583
39	0x3f813297	1.0093564
40	0x3f7f9cde	0.99848735
41	0x3f78af66	0.97142637
42	0x3f7eba1f	0.9950275
43	0x3f8002a2	1.0000803
44	0x3f812a58	1.0091047
45	0x3f7e9313	0.9944317
46	0x3f7fb5cc	0.99886775
47	0x3f7fdf05	0.99949676
48	0x3f7e82a2	0.9941808
49	0x3f7e5dff	0.99362177
50	0x3f7e0e07	0.99240154
51	0x3f7f6a6b	0.99771756
52	0x3f80ac59	1.0052596
53	0x3f7da943	0.990864
54	0x3f7c8dea	0.98654044
55	0x3f802205	1.0010382
56	0x3f7e7a65	0.9940551
57	0x3f7ff4e5	0.99983054
58	0x3f8044db	1.0021013
59	0x3f807549	1.0035793
60	0x3f806d54	1.0033364
61	0x3f7ee6ab	0.9957072
62	0x3f7ff5e4	0.99984574
63	0x3f7ea317	0.99467605
64	0x3f7ecade	0.995283
65	0x3f807361	1.0035211
66	0x3f81ab8c	1.0130477
67	0x3f8003de	1.000118
68	0x3f7f1387	0.9963917
69	0x3f7f372f	0.9969358
70	0x3f802e56	1.0014141
71	0x3f824674	1.017775
72	0x3f7e9607	0.99447674
73	0x3f825234	1.0181336
74	0x3f80d3b6	1.0064609
75	0x3f7b7069	0.982184
76	0x3f81b2c0	1.0132675
77	0x3f80f42f	1.0074519
78	0x3f80cb76	1.0062091
79	0x3f80f1b9	1.0073768
80	0x3f8108db	1.0080827
81	0x3f80475b	1.0021776
82	0x3f8068c2	1.003197
83	0x3f805502	1.0025942
84	0x3f7da4c9	0.9907957
85	0x3f7d8b3f	0.990406
86	0x3f7d849d	0.99030477
87	0x3f7d360a	0.9891058
88	0x3f81a08c	1.012712
89	0x3f7b44a5	0.9815162
90	0x3f7d565a	0.9895989
91	0x3f7fa125	0.9985526
92	0x3f81180a	1.0085461
93	0x3f81d34a	1.0142605
94	0x3f800b0e	1.0003374
95	0x3f80b9ed	1.005674
96	0x3f7b209c	0.9809663
97	0x3f7e6c26	0.9938377
98	0x3f7e2884	0.9928057
99	0x3f7e2927	0.99281543
100	0x3f814b14	1.0101037
101	0x3f7e4129	0.99318177
102	0x3f81ecab	1.015035
103	0x3f8153d0	1.0103703
104	0x3f7c88e2	0.98646367
105	0x3f80326a	1.0015385
106	0x3f83ccf5	1.0296923
107	0x3f80b7eb	1.0056127
108	0x3f7c15c0	0.9847069
109	0x3f7ed1c8	0.9953885
110	0x3f7e5f62	0.9936429
111	0x3f7e6129	0.99367005
112	0x3f7b3ac1	0.98136526
113	0x3f805439	1.0025703
114	0x3f814bb0	1.0101223
115	0x3f80f92f	1.0076045
116	0x3f80574e	1.0026643
117	0x3f7ddbaf	0.99163336
118	0x3f802c54	1.0013528
119	0x3f80811a	1.0039399
120	0x3f7ea870	0.99475765
121	0x3f801ec8	1.0009394
122	0x3f812c6c	1.0091681
123	0x3f827a0b	1.0193495
124	0x3f7edfda	0.9956032
125	0x3f7e2829	0.9928003
126	0x3f7de8ad	0.9918316
127	0x3f7f9c81	0.9984818

bn1.bias f4 [128]
0	0xbccbeedb	-0.024894169
1	0xb95a2bac	-0.00020806369
2	0xba8b044f	-0.0010606142
3	0xbb90baa4	-0.0044167805
4	0xbb088ef3	-0.0020837157
5	0x3c2a59f8	0.010397427
6	0x3bec460b	0.007210498
7	0x3c892c26	0.016744684
8	0x3c315efa	0.010825867
9	0x3b9866c6	0.0046509234
10	0x3c25b9a8	0.010115065
11	0xbbdece84	-0.006799521
12	0x3c19cacc	0.009386729
13	0x3bae86d2	0.0053261304
14	0xbc67ea63	-0.014155003
15	0x3cc64063	0.024200624
16	0x3b3dad3f	0.0028942374
17	0x3c881bcb	0.016614815
18	0x3bb3a24c	0.005481994
19	0x3b6d94a3	0.0036251924
20	0x3b7b8503	0.0038378842
21	0x3c0e94e6	0.008702492
22	0x3bf99d6b	0.0076176426
23	0x3bcec3cb	0.0063099614
24	0x3c884bb7	0.016637666
25	0x3b11e6dc	0.0022262847
26	0xbc6002ea	-0.01367257
27	0x3bd4f0c4	0.006498428
28	0x3cb5b1e1	0.022179546
29	0x3b22edb2	0.0024860916
30	0x3b45bc9c	0.0030172234
31	0x3ca59898	0.020214364
32	0x3c635818	0.013875984
33	0x3c908b2f	0.017644493
34	0x3b0106ad	0.0019687817
35	0x3b661211	0.0035105983
36	0xbc2ac4e5	-0.01042292
37	0x3bce4883	0.006295265
38	0x3c40ee03	0.011775496
39	0xbc01f95e	-0.007932989
40	0xbc0687f0	-0.008211121
41	0xbc95331b	-0.018212846
42	0x3bab7a24	0.005233066
43	0xbc1bdf16	-0.009513637
44	0x3c1002c6	0.008789724
45	0x3c16be39	0.009200626
46	0x3cdf6775	0.027271012
47	0x3c16ed0b	0.009211789
48	0xbcb1afe4	-0.021690316
49	0xbc27cdd8	-0.010241948
50	0x3b7f8851	0.0038991163
51	0x3c5e925a	0.013584698
52	0x3c16411a	0.009170795
53	0xba87c1e7	-0.001035747
54	0xbc47bfb8	-0.012191705
55	0x3bed15d2	0.007235267
56	0x3b4d4296	0.0031320206
57	0x3bbcc2fa	0.0057605477
58	0xba84a4d2	-0.0010119921
59	0x3cb21f3d	0.021743411
60	0xbb5b042e	-0.003341924
61	0x3b8ae8a6	0.0042391596
62	0x3c72772a	0.014798919
63	0xbb92cec6	-0.0044802157
64	0xba489504	-0.00076515996
65	0x3c2fb679	0.010724657
66	0x3ad2b252	0.0016074872
67	0x3c85e218	0.016343161
68	0x3bd0ac3a	0.0063681873
69	0xbaf19418	-0.0018430976
70	0x3bb1773d	0.0054158256
71	0x3c1279bc	0.008940157
72	0x3c345a05	0.01100779
73	0x3cf84bb6	0.03030954
74	0x3c2be5db	0.0104918135
75	0xbc81b376	-0.015832644
76	0x3cb0f9f9	0.021603571
77	0x3b67869d	0.0035328039
78	0x3be58e63	0.007005499
79	0xbbaa337a	-0.0051941248
80	0x3cca5686	0.02469946
81	0x3c7e22f2	0.015511261
82	0x3cb488ab	0.022037825
83	0x3b32f738	0.0027307998
84	0x3a084506	0.00051982736
85	0xbb9d7e61	-0.0048063253
86	0xbc237037	-0.009975485
87	0x3b7dc1bf	0.0038720218
88	0x3c991729	0.018687801
89	0x3bc4c206	0.0060045747
90	0xbbeb574b	-0.007182037
91	0x3bed8f11	0.007249721
92	0x3b577093	0.0032873496
93	0x3badda8c	0.005305594
94	0x3bbf4b81	0.005837858
95	0xb94adc12	-0.00019346204
96	0xbc5e0c43	-0.013552728
97	0xbc2f7f44	-0.010711495
98	0xbbb00688	-0.0053718723
99	0x3c9355ed	0.017985309
100	0x3c09da63	0.008413884
101	0xba2ccc5c	-0.0006591731
102	0xbad5734b	-0.001628497
103	0x3cbb2bfb	0.02284812
104	0xbb8a53a0	-0.0042213947
105	0x3bff9270	0.007799439
106	0x3c4a81b1	0.012360022
107	0x3bc185ec	0.0059058573
108	0xbc88e2d8	-0.01670973
109	0x3c19db75	0.009390702
110	0xbb2a86eb	-0.0026020359
111	0xbb5aa029	-0.0033359623
112	0xbcd86273	-0.026414132
113	0x3c8cb60d	0.017176652
114	0x3c9f2b8b	0.019429943
115	0x3c2e74fc	0.010648008
116	0x3c9115c3	0.017710572
117	0x3c5adebd	0.013358769
118	0xbc1d43eb	-0.009598712
119	0x3bae051f	0.005310669
120	0x3b8a251d	0.00421585
121	0xbc2cb176	-0.010540357
122	0x3ca6e567	0.02037306
123	0x3cb94aed	0.022618735
124	0xbb907262	-0.0044081667
125	0xbc529d3d	-0.012854871
126	0x3c666436	0.014061978
127	0xbcb3d7aa	-0.021953423

bn1.running_mean f4 [128]
0	0xc902c748	-535668.5
1	0x48cb7c07	416736.22
2	0x48a88b12	345176.56
3	0xc92428bb	-672395.7
4	0xc96c92f6	-969007.4
5	0xc6d434d1	-27162.408
6	0xc8554e31	-218424.77
7	0xc8321fab	-182398.67
8	0xc91d30c7	-643852.44
9	0x48289baa	172654.66
10	0x48d9efc3	446334.1
11	0x486a0830	239648.75
12	0x48cb0d02	415848.06
13	0xc93516b9	-741739.56
14	0x478924da	70217.7
15	0x4943b6c3	801644.2
16	0x48a5e0c8	339718.25
17	0xc789fede	-70653.734
18	0x485336ef	216283.73
19	0x48444ae6	201003.6
20	0xc90f74c7	-587596.44
21	0xc932d24b	-732452.7
22	0xc935bbd1	-744381.06
23	0xc9155960	-611734.0
24	0x48c588c9	404550.28
25	0x491a7986	632728.4
26	0x47d7c13f	110466.49
27	0x48f1ab68	494939.25
28	0xc79a2437	-78920.43
29	0xc743e20f	-50146.06
30	0x4819f66d	157657.7
31	0x4945c48a	810056.6
32	0x48bdacb2	388453.56
33	0xc73f851d	-49029.113
34	0xc8a39ec0	-335094.0
35	0xc76df7a8	-60919.656
36	0xc877b54f	-253653.23
37	0x4907eb8a	556728.6
38	0x47887f92	69887.14
39	0xc86ca40c	-242320.19
40	0x47eae70c	120270.09
41	0x48fc08df	516166.97
42	0xc94e38bf	-844683.94
43	0xc8dd9fca	-453886.3
44	0x4981ba7f	1.0627359e+06
45	0xc9519b7b	-858551.7
46	0x490f78f6	587663.4
47	0xc8a64d4a	-340586.3
48	0xc7eb8e75	-120604.914
49	0xc8164e0a	-153912.16
50	0xc902b17b	-535319.7
51	0xc885d6aa	-274101.3
52	0xc8a99775	-347323.66
53	0x493a2587	762456.44
54	0xc8ba2e2b	-381297.34
55	0x49495f92	824825.1
56	0xc80a10a5	-141378.58
57	0xc8d6105b	-438402.84
58	0xc906ed45	-552660.3
59	0xc7d1b080	-107361.0
60	0xc8a2a538	-333097.75
61	0x489a33ea	315807.3
62	0x4896db02	308952.06
63	0x48d82e36	442737.7
64	0x48c97d1e	412648.94
65	0x4786f870	69104.875
66	0xc848c744	-205597.06
67	0x49180519	622673.56
68	0xc9058512	-546897.1
69	0xc95bbb7e	-900023.9
70	0xc8c7b25e	-408978.94
71	0x48024731	133404.77
72	0x49080d74	557271.25
73	0x48feacd3	521574.6
74	0x491206d0	598125.0
75	0xc8b0ba6b	-361939.34
76	0x488f62b5	293653.66
77	0x4799cfa9	78751.32
78	0xc9407064	-788230.25
79	0x48f8e993	509772.6
80	0x4912ee92	601833.1
81	0xc95da382	-907832.1
82	0xc8579159	-220741.39
83	0xc8d7de3c	-442097.88
84	0xc88e551d	-291496.9
85	0xc8c3c57b	-400939.84
86	0xc923f826	-671618.4
87	0xc89427d2	-303422.56
88	0xc89e417c	-324107.88
89	0xc89414f0	-303271.5
90	0x496ea5d2	977501.1
91	0x48969247	308370.22
92	0x49079502	555344.1
93	0x47bfa473	98120.9
94	0x49212c2e	660162.9
95	0xc8c647eb	-406079.34
96	0xc91d7502	-644944.1
97	0xc8ec9ae9	-484567.28
98	0xc78f4f6c	-73374.84
99	0xc8c9f12b	-413577.34
100	0x47378a23	46986.137
101	0xc8ffad6d	-523627.4
102	0x489f6fec	326527.38
103	0x48893574	281003.62
104	0xc817b8d8	-155363.38
105	0xc8db2771	-448827.53
106	0x474c8606	52358.023
107	0xc620aaf4	-10282.738
108	0x48f24255	496146.66
109	0xc887c988	-278092.25
110	0xc8257182	-169414.03
111	0x491829a7	623258.44
112	0x484b559b	208214.42
113	0x483d0c34	193584.81
114	0x496a885d	960645.8
115	0x48898ba2	281693.06
116	0x4988f640	1.121992e+06
117	0xc91bd557	-638293.44
118	0xc8bad453	-382626.6
119	0x490397d7	539005.44
120	0x4962e591	929369.06
121	0x485394b1	216658.77
122	0x48a14091	330244.53
123	0x48d470f2	435079.56
124	0xc8c01ae2	-393431.06
125	0xc89898e1	-312519.03
126	0xc7b2e522	-91594.266
127	0xc8e9c5c5	-478766.16

bn1.running_var f4 [128]
0	0x51670819	6.201708e+10
1	0x512de7e1	4.6682477e+10
2	0x512bfaa6	4.6165287e+10
3	0x51ef9c2e	1.2863968e+11
4	0x52865546	2.8847813e+11
5	0x5092f03d	1.9721742e+10
6	0x50e2bddc	3.0432748e+10
7	0x514fd858	5.5792992e+10
8	0x51f23b08	1.3004656e+11
9	0x5095d176	2.010826e+10
10	0x514a2bfc	5.4270083e+10
11	0x5084664a	1.777037e+10
12	0x515f2a38	5.9905376e+10
13	0x5236ed1a	1.9641549e+11
14	0x50ac7603	2.3147321e+10
15	0x521a340c	1.6557454e+11
16	0x512b5948	4.599608e+10
17	0x5140670e	5.164767e+10
18	0x5130bf65	4.744533e+10
19	0x5092c98f	1.9701463e+10
20	0x5202d5b0	1.404827e+11
21	0x520a60bf	1.4858215e+11
22	0x52025c8c	1.399746e+11
23	0x51d977fa	1.167526e+11
24	0x513a1bdb	4.9958203e+10
25	0x51b935ce	9.9433955e+10
26	0x503c7263	1.2646452e+10
27	0x516f34b6	6.4211345e+10
28	0x50aa960f	2.2895688e+10
29	0x505584d3	1.4329007e+10
30	0x50e2454a	3.0369534e+10
31	0x5246ae7c	2.1333272e+11
32	0x5178d30e	6.67933e+10
33	0x516f26a8	6.419661e+10
34	0x513b7e5d	5.032993e+10
35	0x509113c6	1.9471938e+10
36	0x50c11707	2.5916094e+10
37	0x519ed6fb	8.527645e+10
38	0x50983487	2.0428634e+10
39	0x50923235	1.9622111e+10
40	0x503a917b	1.2520386e+10
41	0x51860af7	7.19637e+10
42	0x52428bf7	2.0889297e+11
43	0x514f128c	5.5585587e+10
44	0x52bae277	4.0133168e+11
45	0x52457a01	2.1203886e+11
46	0x51dadecd	1.1750511e+11
47	0x513a2e3d	4.997748e+10
48	0x508fbb26	1.9291255e+10
49	0x50a442fd	2.2046829e+10
50	0x51a690a7	8.942393e+10
51	0x518062f5	6.8927005e+10
52	0x51133888	3.951929e+10
53	0x5210b603	1.5538224e+11
54	0x50f97c75	3.3485466e+10
55	0x52373213	1.9670478e+11
56	0x501c98d9	1.0509051e+10
57	0x5172ac13	6.5141813e+10
58	0x51c5f1c8	1.0627062e+11
59	0x50a48d1b	2.2085687e+10
60	0x50d1d242	2.816174e+10
61	0x512f00eb	4.6977167e+10
62	0x511bdd51	4.1839563e+10
63	0x518312d3	7.036957e+10
64	0x5128bd26	4.5295493e+10
65	0x50967a21	2.019669e+10
66	0x5128a19b	4.5266612e+10
67	0x51e8e253	1.2502869e+11
68	0x51c2e6fb	1.0463736e+11
69	0x525a17fa	2.3417628e+11
70	0x5143206d	5.2378915e+10
71	0x50bb9fd3	2.518251e+10
72	0x51bc56bd	1.01113635e+11
73	0x51c2c3d1	1.0456361e+11
74	0x51c52bbb	1.0585528e+11
75	0x5116ebce	4.0512578e+10
76	0x5115398d	4.005723e+10
77	0x4ff4a76a	8.2092247e+09
78	0x522f638a	1.8832232e+11
79	0x519d6d6f	8.451823e+10
80	0x51b5f804	9.769376e+10
81	0x52920eb4	3.1365595e+11
82	0x51386f84	4.9509057e+10
83	0x51f77ab7	1.3286447e+11
84	0x5107231f	3.6275614e+10
85	0x51655936	6.1565264e+10
86	0x520a60cb	1.4858235e+11
87	0x519bec53	8.37106e+10
88	0x519eac18	8.518651e+10
89	0x5157a18f	5.788303e+10
90	0x526be78a	2.5330047e+11
91	0x51069d79	3.6135473e+10
92	0x51bd5f47	1.0166841e+11
93	0x509a2e19	2.0693699e+10
94	0x51bfe0bd	1.03013655e+11
95	0x51469f7c	5.331745e+10
96	0x5208d1ed	1.4690938e+11
97	0x51439b89	5.2508004e+10
98	0x50449e21	1.319479e+10
99	0x51a4b29b	8.842139e+10
100	0x504c78da	1.3721889e+10
101	0x5195bdfb	8.039218e+10
102	0x50e3db7b	3.0582495e+10
103	0x51190712	4.107804e+10
104	0x5137caef	4.933648e+10
105	0x51d6d45c	1.15335725e+11
106	0x50912c8f	1.9484932e+10
107	0x5065d679	1.5424153e+10
108	0x5165baee	6.166773e+10
109	0x50cbb34f	2.7340208e+10
110	0x5081c33f	1.7416452e+10
111	0x520ee4f3	1.5343162e+11
112	0x507a2ef7	1.6789528e+10
113	0x507f14f2	1.7118251e+10
114	0x52925d39	3.1431462e+11
115	0x514b3a52	5.455355e+10
116	0x52a1c8f7	3.4743068e+11
117	0x5210002e	1.5461958e+11
118	0x5102d94f	3.5124474e+10
119	0x5199d835	8.259467e+10
120	0x527aba9a	2.6921812e+11
121	0x5195e4d7	8.047368e+10
122	0x50e0d40e	3.0175949e+10
123	0x51822a72	6.988223e+10
124	0x51313c33	4.75762e+10
125	0x50d9a332	2.9210808e+10
126	0x503dd546	1.2739484e+10
127	0x513aeff2	5.0180596e+10

fc2.weight f4 [128, 128]
0	0xbd9481e3	-0.072513364
1	0xbc8d891c	-0.017277293
2	0xbba7e1d0	-0.0051233545
3	0xbc8bfc12	-0.01708797
4	0xbd8c784f	-0.068588845
5	0x3cc7a233	0.024369335
6	0xbcc45309	-0.023965375
7	0xbcb34311	-0.021882566
8	0x3db5b747	0.08872848
9	0x3ca6dcb5	0.020368913
10	0x3d7757e5	0.060386557
11	0x3d2655da	0.04060922
12	0x3c33f7bc	0.010984357
13	0x3d813d3d	0.063105084
14	0xbd9bc2f2	-0.07605542
15	0xbc474ff7	-0.012165061
16	0xbc979301	-0.018502714
17	0x3c0e27ea	0.008676508
18	0x3cb10b2c	0.021611772
19	0xbcae1405	-0.02124978
20	0xba542323	-0.0008092394
21	0xbd3c3b8d	-0.04595523
22	0xbd987b2d	-0.07445369
23	0x3d9fe668	0.078076184
24	0x3cb51330	0.022103876
25	0x3d2e5910	0.042565405
26	0x3cbc6405	0.022996912
27	0x3d985608	0.07438284
28	0x3bff9fdf	0.0078010405
29	0xbcbaa65e	-0.022784408
30	0xbd72d881	-0.059288505
31	0xbd53d13d	-0.051713217
32	0xbce8d791	-0.028423103
33	0x3d6affd8	0.057372898
34	0xbceadfab	-0.028671106
35	0xbd63b48a	-0.055592097
36	0x3cab76eb	0.020930728
37	0xbd84f05c	-0.064911574
38	0x3d56ce06	0.052442573
39	0x3d76a4a2	0.0602156
40	0x3dd544ca	0.10413511
41	0xbd4ae06a	-0.049530424
42	0xbd8182cb	-0.06323775
43	0x3b2dbb44	0.0026509324
44	0xbd6e6efc	-0.05821131
45	0x3be3fc87	0.006957594
46	0x3d867128	0.065645516
47	0x3d95ff28	0.07324058
48	0x3d9ede2b	0.07757219
49	0xbd44ad55	-0.048016865
50	0xbd89f2c8	-0.0673576
51	0x3d92199d	0.071337916
52	0xbca6f13b	-0.0203787
53	0xbc0ebd47	-0.008712119
54	0x3d589a6f	0.052881654
55	0x3d7fc202	0.06244088
56	0xbcb23df7	-0.021758063
57	0x3d325645	0.043539304
58	0x3db0d91d	0.08635161
59	0xbd79b64c	-0.060964867
60	0xbcb0c7aa	-0.021579582
61	0x3d97c54b	0.074106775
62	0x3c1836cb	0.009290407
63	0xbdb78080	-0.08960056
64	0xbd232539	-0.03983042
65	0xbd7fd210	-0.06245619
66	0xbd90926e	-0.07059179
67	0x3d0c3fbc	0.03424047
68	0x3cccd145	0.025002131
69	0xbbda05c7	-0.0066535207
70	0xbd11506d	-0.03547709
71	0x3c08db70	0.008353099
72	0x3d0a2d3d	0.03373455
73	0xbc30b45e	-0.01078519
74	0xbdb7403a	-0.08947797
75	0xbdb0e3b7	-0.08637183
76	0xbde43f40	-0.111448765
77	0x3cd75fa0	0.026290715
78	0x3d9c22a4	0.07623795
79	0xbca79378	-0.02045606
80	0x3d68d40c	0.05684285
81	0x3d469127	0.04847827
82	0xbd6cb1f8	-0.05778691
83	0xbd0f7cc0	-0.03503108
84	0xbd8d6db6	-0.06905691
85	0xbd0a6aab	-0.033793133
86	0xbd68975f	-0.056784984
87	0xbda39100	-0.07986641
88	0x3da6cd80	0.08144665
89	0xbd9167a1	-0.07099844
90	0xbd9ca0ba	-0.07647844
91	0x3d539f35	0.051665504
92	0x3c7725dd	0.015084711
93	0x3b1bc80e	0.0023770365
94	0x3cb2384d	0.021755362
95	0xbd523ec6	-0.051329397
96	0x3c2914b2	0.010319876
97	0xbd418c12	-0.047252722
98	0xb8e04550	-0.00010694063
99	0xbd24a1da	-0.040193416
100	0xbca169fd	-0.01970386
101	0x3d69952a	0.05702702
102	0x3dff5524	0.12467411
103	0xbc090ea5	-0.008365308
104	0xbcd6756d	-0.02617904
105	0x3bf332dd	0.007421835
106	0xbdb95188	-0.09048754
107	0xbd374e0a	-0.04475216
108	0xbdc8086d	-0.09767232
109	0xbd3d5559	-0.046223972
110	0x3b85c001	0.0040817265
111	0xbc3dfc8b	-0.0115958555
112	0x3d2dc3f7	0.042423215
113	0x3da436a3	0.080182336
114	0xbcf78eae	-0.030219402
115	0x3cc2c11e	0.023773726
116	0xbcb560ae	-0.022140827
117	0x3d789e51	0.060697857
118	0x3a314baf	0.0006763292
119	0xbd8f4fd3	-0.06997647
120	0xbd28b13d	-0.041184653
121	0xbda80d7c	-0.08205697
122	0x3b723297	0.0036956423
123	0x3bb723a3	0.005588965
124	0xbca18212	-0.019715343
125	0xbd0f089e	-0.034920327
126	0x38b46417	8.601712e-05
127	0xbd9b5654	-0.07584825
128	0xbca726f2	-0.020404313
129	0x3ce23d79	0.027617203
130	0xbda9e2c6	-0.08295207
131	0x3cd132b0	0.025536865
132	0x3d41a562	0.047276862
133	0x3cfa2b2f	0.03053817
134	0xbdb2d209	-0.08731467
135	0xbd53fba5	-0.05175366
136	0x3d833dba	0.06408258
137	0x3d982a8f	0.074299924
138	0x3d5a42cf	0.05328637
139	0xbd9189b5	-0.07106344
140	0x3da2c4de	0.07947706
141	0xbd0d68b8	-0.034523696
142	0x3da7658b	0.08173665
143	0x3d9343ae	0.07190643
144	0x3d841741	0.06449748
145	0xbda2a978	-0.0794248
146	0xbb76f1bc	-0.0037680706
147	0x3bf58333	0.007492447
148	0xbd6ae081	-0.05734301
149	0xbdd0b997	-0.101916485
150	0xbd6f7dbf	-0.05846953
151	0x3d8ba8e4	0.06819323
152	0x3bd30430	0.006439708
153	0xbd700a0c	-0.05860333
154	0xbd527c9c	-0.051388368
155	0x3d83c9e7	0.06434994
156	0xbbfa429f	-0.0076373364
157	0x3c654a14	0.013994712
158	0xbc1aa35a	-0.00943836
159	0xbd02ce78	-0.031935185
160	0x3d69812d	0.057007957
161	0xbc9559f6	-0.018231373
162	0x3cf4fc90	0.029905587
163	0xbda0eab8	-0.07857269
164	0xbd143e9a	-0.036192514
165	0xbcb2f37a	-0.021844614
166	0x3db62bf1	0.088951
167	0xbdd8ba8e	-0.105824575
168	0x3be59124	0.0070058275
169	0xbcba376f	-0.02273151
170	0x3d389718	0.04506597
171	0x3d0b2346	0.033969186
172	0x3c2dec8a	0.010615477
173	0xbbace763	-0.005276607
174	0xbd71b06e	-0.059006147
175	0x3d100be0	0.035167575
176	0x3d827f67	0.06371956
177	0xbd212937	-0.039345946
178	0xbd0589b1	-0.032602016
179	0xbc980c5a	-0.018560577
180	0xbc0ec7f1	-0.008714662
181	0xbd7a472a	-0.061103024
182	0x3d702e93	0.058638167
183	0x3bd326c9	0.0064438325
184	0x3d413143	0.04716612
185	0xbcfee704	-0.031116016
186	0xbd40da0c	-0.047082946
187	0x3d530b8c	0.051524684
188	0x3d35a1d3	0.04434378
189	0xbd23e599	-0.040013883
190	0xbcc48685	-0.023989925
191	0x3d989bf1	0.074516185
192	0x3c0c474f	0.008561923
193	0xbda3d807	-0.08000188
194	0x3c4717fc	0.012151714
195	0x3d3cc012	0.04608161
196	0xbcf45095	-0.02982358
197	0xbdade950	-0.084917665
198	0xbd7b862f	-0.061407264
199	0x3c24ca02	0.010057928
200	0x3d8442f2	0.06458081
201	0x3d59723b	0.053087454
202	0xbc9712ef	-0.018441645
203	0x3d7a27cb	0.061073106
204	0x3d8441c2	0.06457855
205	0xbc7e0406	-0.015503889
206	0x3c6d95d8	0.014501058
207	0xbcbb9f0b	-0.022902986
208	0x3db28879	0.08717436
209	0x3c528608	0.012849338
210	0xbd617f9d	-0.055053342
211	0xbd0bd2da	-0.03413663
212	0x3d234ce9	0.03986827
213	0x3cf9d0ea	0.030495126
214	0xbd878fdc	-0.06619236
215	0x3bff352f	0.0077883224
216	0xbcb90b4c	-0.022588395
217	0xbd886853	-0.06660523
218	0x3c43fe58	0.011962496
219	0x3c8a6f4b	0.016898772
220	0xbbff6939	-0.007794526
221	0x3ccf5df1	0.02531335
222	0x3d34b63a	0.044119097
223	0xbc9464d5	-0.018114487
224	0x38b1b1fa	8.4731684e-05
225	0xbd79135f	-0.06080949
226	0xbc52bd74	-0.012862552
227	0xbd5e33ab	-0.054248493
228	0xbd061cb6	-0.032742225
229	0x3d8e8c8f	0.06960403
230	0x3a9725d2	0.0011531657
231	0xbcfcc4eb	-0.030855617
232	0xbd9c4f18	-0.076322734
233	0xbd328bd8	-0.043590397
234	0x3d8ce039	0.068787046
235	0x3bfd950c	0.007738715
236	0xbd5a2783	-0.053260338
237	0x3c6f0e73	0.014590847
238	0xbcfbecd3	-0.030752575
239	0x3d9bd858	0.07609624
240	0xbd8af8c8	-0.067857325
241	0x3d65b7ed	0.05608361
242	0x3d738725	0.059455056
243	0xbc2f9495	-0.010716577
244	0x3c1ad0ea	0.009449223
245	0xbd9ed885	-0.077561416
246	0x3d31cee2	0.04341019
247	0x3d9df410	0.07712567
248	0xbc180e2b	-0.009280722
249	0xbd8f972c	-0.070112556
250	0x3b8585d8	0.0040747933
251	0x3dbec0da	0.09314127
252	0xbd87f4d1	-0.06638492
253	0xbd990e62	-0.074734464
254	0xbd87bb97	-0.06627577
255	0x3c78afbd	0.015178618

fc2.bias f4 [128]
0	0xbda93c13	-0.082634114
1	0x3d0edf7f	0.03488111
2	0xbd01de3d	-0.031706084
3	0x3ca24ad6	0.019811075
4	0xbda6cbb4	-0.08144322
5	0x3d5a01d0	0.053224385
6	0x3cf6f885	0.0301478
7	0x3d0ec9d5	0.03486045
8	0xbd4d9410	-0.05019003
9	0xbd0abbdc	-0.033870563
10	0xbabc60bc	-0.0014372091
11	0x3d30e5fc	0.04318808
12	0x3d3e207f	0.04641771
13	0x3d98fc56	0.07470004
14	0x3cae663f	0.02128899
15	0x3d9b7935	0.07591478
16	0x3c9e708f	0.019340781
17	0x3cee5d44	0.029097207
18	0x3d1abe31	0.037779037
19	0xbd580d4c	-0.052747056
20	0x3d911c07	0.07085424
21	0xbbde918f	-0.0067922543
22	0x3b2764e7	0.002554232
23	0xbd8e3691	-0.069440015
24	0xbd334921	-0.043770913
25	0x3b22d114	0.0024843859
26	0x3d2c3585	0.042043228
27	0xbcfd6504	-0.030931957
28	0xbca6e2d5	-0.020371834
29	0x3c1c6c6e	0.009547336
30	0x3b6f48c0	0.0036511868
31	0xbd49ce72	-0.049269147
32	0x3d856d74	0.06515017
33	0xbda1acae	-0.07894264
34	0xbb12bff0	-0.0022392236
35	0x3d84635a	0.06464262
36	0xbdaf0c05	-0.085472144
37	0xbd893e8a	-0.067013815
38	0x3ce4fda1	0.027952971
39	0x3d81e0b4	0.06341687
40	0xbbe8a457	-0.007099669
41	0x3c8f20be	0.017471667
42	0xbdaf3a75	-0.08556072
43	0xbc81d4a9	-0.015848475
44	0x3daf1a71	0.08549965
45	0xbc74bfbf	-0.014938294
46	0x3d1b13df	0.037860747
47	0x3da40920	0.08009553
48	0xbdb2bed0	-0.08727801
49	0xbd9e5a21	-0.077320345
50	0x3d96f25c	0.07370445
51	0xbd50098d	-0.05079036
52	0x3d13498f	0.035958823
53	0xbce8f117	-0.028435273
54	0x3d16fce3	0.036862265
55	0x3c869346	0.016427647
56	0x3d9674a6	0.07346468
57	0x3cae3833	0.021267032
58	0xbd9b59ce	-0.07585488
59	0xbce360da	-0.027756143
60	0xbd374aa6	-0.044748925
61	0x3d4ad60a	0.04952053
62	0x3bfd3e80	0.007728398
63	0xbb5bfafb	-0.0033566344
64	0xbb3f5447	-0.002919452
65	0x3c3304b8	0.010926418
66	0x3d86131f	0.06546616
67	0xbd806940	-0.06270075
68	0xbd8e2725	-0.0694106
69	0x3cd255d3	0.02567569
70	0xbd813319	-0.06308574
71	0xbd0a767d	-0.033804405
72	0xbd20288f	-0.03910118
73	0x3d39f722	0.0454017
74	0x3d89dbff	0.06731414
75	0x3d3ea2ba	0.046541907
76	0x3bd90163	0.0066224798
77	0x3d586be5	0.05283727
78	0xbd160534	-0.036626056
79	0xbc6e08ba	-0.014528448
80	0x3ce469c5	0.027882466
81	0xbd368351	-0.044558827
82	0xbd700aed	-0.05860417
83	0x3c429246	0.011875695
84	0xbd53456a	-0.05157987
85	0xbc83a981	-0.016072037
86	0x3c36e5cf	0.011163189
87	0xbc407d91	-0.011748687
88	0x3b80b21c	0.0039274823
89	0xbd6ec6c2	-0.05829502
90	0xbcf97a3f	-0.0304538
91	0x3d3f044d	0.04663496
92	0xbd60992d	-0.05483358
93	0x3d8baf5b	0.06820556
94	0xbd4ba754	-0.049720123
95	0xbc384805	-0.01124764
96	0xbda11ac1	-0.07866431
97	0xbd64cba4	-0.05585827
98	0x3c0f857f	0.008759855
99	0x3d41589b	0.04720364
100	0xbca845c3	-0.020541077
101	0x3d9b5d75	0.07586185
102	0xbd7b2a53	-0.06131966
103	0xbd21de32	-0.039518543
104	0x3ca36bd6	0.019948881
105	0xbd9ff9d2	-0.07811321
106	0xbd39f72e	-0.045401745
107	0xbcca38a9	-0.02468522
108	0xbd0a49e2	-0.033761866
109	0x3d2f0f92	0.04273946
110	0x3d4d6dfe	0.050153725
111	0xbc8c5248	-0.017129079
112	0xbd7dd578	-0.061971158
113	0x3d175f3c	0.036956057
114	0x3d9944d1	0.07483829
115	0x3b8e1e0b	0.0043370775
116	0xbdac9eda	-0.08428736
117	0xbd87094b	-0.06593569
118	0x3cec7893	0.028866088
119	0x3c85a51d	0.016314084
120	0xbcfaf0f3	-0.030632472
121	0xbd91767b	-0.071026765
122	0x3d3fe9c6	0.046853803
123	0x3d7b3c0f	0.061336573
124	0x3ca006d1	0.0195345
125	0xbdaf2921	-0.085527666
126	0x3d8ee626	0.06977491
127	0x3b00f7a9	0.0019678867

bn2.weight f4 [128]
0	0x3f8104ef	1.0079631
1	0x3f82d087	1.0219887
2	0x3f83e500	1.030426
3	0x3f81c5e4	1.0138516
4	0x3f80b41d	1.0054966
5	0x3f800677	1.0001973
6	0x3f811348	1.0084009
7	0x3f7febfa	0.99969447
8	0x3f8147c7	1.010003
9	0x3f7ea7aa	0.99474585
10	0x3f7ffb92	0.9999324
11	0x3f784667	0.96982425
12	0x3f7c7fcd	0.9863251
13	0x3f79df32	0.97606194
14	0x3f7e6c68	0.99384165
15	0x3f82c8f2	1.0217574
16	0x3f7eb208	0.99490404
17	0x3f8056dc	1.0026507
18	0x3f80eba7	1.0071915
19	0x3f7ebd1a	0.99507296
20	0x3f79ff7b	0.9765546
21	0x3f786932	0.97035515
22	0x3f7cea58	0.9879508
23	0x3f7ed413	0.9954235
24	0x3f7d98e6	0.9906143
25	0x3f7d3d66	0.9892181
26	0x3f7addab	0.9799449
27	0x3f81125a	1.0083725
28	0x3f7a8378	0.97856855
29	0x3f7e1915	0.9925702
30	0x3f80c923	1.0061382
31	0x3f814510	1.0099201
32	0x3f7f48cb	0.9972045
33	0x3f7e5bb3	0.9935867
34	0x3f80800a	1.0039074
35	0x3f7e3975	0.9930642
36	0x3f7da9a4	0.99086976
37	0x3f7b8af2	0.9825889
38	0x3f809192	1.0044425
39	0x3f81afc5	1.0131766
40	0x3f82d8d3	1.022242
41	0x3f7c5e59	0.98581463
42	0x3f8015c6	1.0006645
43	0x3f7c21b0	0.98488903
44	0x3f823f37	1.0175542
45	0x3f812f75	1.0092608
46	0x3f83e968	1.0305605
47	0x3f7a5c63	0.9779722
48	0x3f7cb698	0.98716116
49	0x3f7d3ae9	0.98918015
50	0x3f818c4d	1.0120941
51	0x3f7c81a0	0.9863529
52	0x3f82ac6a	1.0208867
53	0x3f80020f	1.0000628
54	0x3f806734	1.0031495
55	0x3f81ffe1	1.0156213
56	0x3f81b209	1.0132457
57	0x3f802ebc	1.0014262
58	0x3f7f46f4	0.9971764
59	0x3f8174d7	1.0113782
60	0x3f7b1792	0.9808284
61	0x3f7dee5e	0.99191844
62	0x3f8059a0	1.0027351
63	0x3f790e20	0.9728718
64	0x3f804537	1.0021123
65	0x3f80385b	1.0017198
66	0x3f7cd976	0.9876932
67	0x3f7b70e0	0.9821911
68	0x3f82773e	1.019264
69	0x3f7ea00b	0.99462956
70	0x3f8040bc	1.0019755
71	0x3f81e69c	1.0148501
72	0x3f7ee8e1	0.99574095
73	0x3f7f2ea4	0.9968054
74	0x3f81e48c	1.0147872
75	0x3f80b7c4	1.0056081
76	0x3f7eefeb	0.99584836
77	0x3f80d6a3	1.0065502
78	0x3f7bdffa	0.98388636
79	0x3f7f9a1f	0.99844545
80	0x3f80582d	1.0026909
81	0x3f7dba5b	0.9911248
82	0x3f7d7269	0.990027
83	0x3f7ff5ed	0.9998463
84	0x3f7e0375	0.99224025
85	0x3f7e36c0	0.9930229
86	0x3f810481	1.00795
87	0x3f7dd542	0.9915353
88	0x3f80b680	1.0055695
89	0x3f7f4575	0.9971536
90	0x3f827440	1.0191727
91	0x3f7d3c46	0.98920095
92	0x3f802cf6	1.0013721
93	0x3f7e0aad	0.9923504
94	0x3f7ca168	0.98683786
95	0x3f7ec4e8	0.99519205
96	0x3f7d4a88	0.9894185
97	0x3f7f8259	0.9980827
98	0x3f80bd96	1.0057857
99	0x3f803a09	1.0017711
100	0x3f7adfa2	0.97997487
101	0x3f83bae9	1.0291415
102	0x3f814482	1.0099032
103	0x3f81b699	1.0133849
104	0x3f7dc670	0.99130917
105	0x3f7f0a9c	0.99625564
106	0x3f803261	1.0015374
107	0x3f7c9773	0.98668593
108	0x3f7e140f	0.99249357
109	0x3f8074af	1.0035609
110	0x3f7e9340	0.99443436
111	0x3f816929	1.0110217
112	0x3f7df34d	0.9919937
113	0x3f753d40	0.95796585
114	0x3f7aa0c5	0.97901565
115	0x3f7a900a	0.97876036
116	0x3f7ff25d	0.9997919
117	0x3f809ffb	1.0048822
118	0x3f8169bd	1.0110394
119	0x3f7dd063	0.991461
120	0x3f829142	1.0200579
121	0x3f82d51f	1.0221289
122	0x3f827387	1.0191506
123	0x3f7b6f59	0.9821678
124	0x3f824148	1.0176172
125	0x3f7efdb9	0.996059
126	0x3f7f5e6c	0.9975345
127	0x3f7f80a0	0.9980564

bn2.bias f4 [128]
0	0x3a2275b9	0.00061973516
1	0x3cea42e3	0.028596347
2	0x3cca4a7f	0.024693726
3	0x3cc007e1	0.023441257
4	0x3c2780d5	0.010223587
5	0x3b8bf89b	0.0042715794
6	0x3bc61260	0.006044671
7	0x3c3c69a9	0.011499801
8	0x3c2bec64	0.010493372
9	0xbb972252	-0.0046122456
10	0xbb3942dc	-0.002826861
11	0xbbe96a47	-0.007123265
12	0xb999d5de	-0.00029341778
13	0xbccf52d8	-0.025308058
14	0xbac3a290	-0.0014925767
15	0x3c5b5811	0.013387696
16	0x3c1e1c9b	0.009650375
17	0x3cd2158e	0.025645044
18	0x38727c68	5.781316e-05
19	0xbbf343be	-0.007423847
20	0xbbdbb118	-0.006704461
21	0xbbb330e3	-0.0054684742
22	0x3b504179	0.0031777306
23	0x3bcb3885	0.006201806
24	0xbb4d8bd0	-0.0031363852
25	0xbac26368	-0.0014830651
26	0xbcfb6de6	-0.030692052
27	0xbbcd6245	-0.006267818
28	0xbbb88509	-0.0056310934
29	0x3c01ca7a	0.007921809
30	0x3cb0f26b	0.021599969
31	0x3cf0cde9	0.02939506
32	0x3c73a534	0.01487093
33	0x3b4adadb	0.0030953202
34	0xbc112977	-0.008859984
35	0x3c0b74a2	0.008511694
36	0x3cd69ef6	0.026198845
37	0xbc657e21	-0.014007122
38	0x3c9ef2b4	0.01940284
39	0x3c8dcf0c	0.017310642
40	0x3cf8691c	0.030323558
41	0xbc819b05	-0.01582099
42	0x3c4a8330	0.012360379
43	0xbcb9ddae	-0.022688713
44	0x3cb1f61f	0.021723805
45	0x3c3b91d4	0.011448342
46	0x3c78e1e6	0.015190577
47	0xbb749830	-0.0037322156
48	0xbc530d28	-0.012881555
49	0xbb82712a	-0.0039807754
50	0x3c97a69c	0.018512063
51	0xbb5d323f	-0.0033751873
52	0x3cb2967a	0.021800268
53	0x3c12e521	0.008965761
54	0x3c7227c2	0.014779987
55	0x3b571c84	0.0032823393
56	0x3cd8905c	0.026436023
57	0x3c46fcd2	0.012145238
58	0x3c42b7b9	0.011884623
59	0x3c9eccc9	0.019384759
60	0xbc304135	-0.010757734
61	0x3c11b976	0.008894315
62	0xbb08e523	-0.002088853
63	0xbca40f27	-0.020026756
64	0x3beda352	0.0072521353
65	0x3c62a5a7	0.01383344
66	0xbbe41c3a	-0.0069613727
67	0xbc7d02cf	-0.015442564
68	0x3cf8ca12	0.030369792
69	0x3c0a9abc	0.008459743
70	0x3c88ab43	0.016683226
71	0xbafec781	-0.0019438119
72	0xbb1ace1d	-0.0023621388
73	0xbb865ef9	-0.004100677
74	0x3c0df841	0.008665145
75	0x3bbcd99b	0.0057632453
76	0x3cac3893	0.02102307
77	0x3cbbc713	0.022922074
78	0xbb4ae98e	-0.0030961963
79	0x3caccd47	0.021093978
80	0x3d0d435b	0.034488063
81	0x3bc218ae	0.005923352
82	0xbc1aeb43	-0.009455505
83	0xbbbd9a0f	-0.0057861875
84	0xbb9fbebe	-0.004875033
85	0x3c66d390	0.014088526
86	0xbb7d7e90	-0.0038680173
87	0xbc1faff6	-0.009746542
88	0xba791dc5	-0.0009503032
89	0x3c86c06d	0.016449178
90	0x3caab00a	0.020835895
91	0xbbd7c831	-0.006585144
92	0x3c36190d	0.011114371
93	0xbc44b1b9	-0.012005263
94	0xbc1e1407	-0.00964833
95	0x3b00d8b3	0.0019660413
96	0xbc5e2887	-0.013559467
97	0x3c350ad4	0.011049945
98	0xbb8d7252	-0.0043166066
99	0x3be2dc2c	0.006923219
100	0x3a653643	0.00087437424
101	0x3c90581e	0.017620143
102	0x3caa9f90	0.020828038
103	0x3cc73c3f	0.02432072
104	0xbcdab2cc	-0.026696585
105	0x3b9e999c	0.004840089
106	0x3b180f34	0.002320242
107	0xbc86969d	-0.01642924
108	0xbbde51bf	-0.0067846472
109	0x3c87eea3	0.016593283
110	0x39d3e302	0.0004041419
111	0x3c07040e	0.008240713
112	0xbb698988	-0.0035634954
113	0xbcddfbc0	-0.027097583
114	0xbc6ec542	-0.014573397
115	0xbaecd5ce	-0.001806909
116	0xbb979438	-0.0046258233
117	0x3c535d8c	0.012900721
118	0x3cded34e	0.027200367
119	0x3c46b261	0.01212749
120	0x3c8a7728	0.016902521
121	0x3c849b5f	0.016187368
122	0x3c3e165b	0.01160201
123	0xbcafaf72	-0.021445964
124	0x3ca3df63	0.02000398
125	0xba8667fa	-0.0010254376
126	0x3bb8e58b	0.005642598
127	0x3c70c230	0.014694735

bn2.running_mean f4 [128]
0	0xbed31455	-0.4122645
1	0xbd779686	-0.060446285
2	0xbe71d068	-0.23614657
3	0x3eff6d86	0.49888247
4	0xbeeff353	-0.4686533
5	0xbe3323fa	-0.17494193
6	0xbe8caae3	-0.27474126
7	0x3eac8520	0.33695316
8	0xbd884e06	-0.06655507
9	0x3dac6c1c	0.08419058
10	0x3ebddc15	0.37081972
11	0xbe150431	-0.1455238
12	0x3e820acb	0.2539886
13	0xbdcf7bad	-0.10131011
14	0x3ed22a72	0.41048008
15	0x3d733346	0.05937507
16	0xbe9c939d	-0.3058137
17	0xbf0f0d47	-0.55879635
18	0x3db15fa4	0.0866082
19	0xbebab1a7	-0.36463663
20	0xbe7a0916	-0.24417529
21	0xbddaa678	-0.10676283
22	0xbf18960e	-0.59603965
23	0x3bfdcb2b	0.007745167
24	0xbe3c2d66	-0.18376693
25	0x3e01628a	0.12635246
26	0x3f362351	0.7114764
27	0xbce14e5a	-0.027503181
28	0xbe296fd4	-0.16546565
29	0xbf12b181	-0.573021
30	0xbf11ab82	-0.56902325
31	0xbe857d66	-0.26072234
32	0xbe339152	-0.17535904
33	0xbea4a88a	-0.32159835
34	0xbb978c93	-0.004624912
35	0x3d106220	0.03524983
36	0xbec8d4c3	-0.39224824
37	0xbe90a625	-0.28251758
38	0x3e838514	0.25687468
39	0x3e0fcc7b	0.14042847
40	0xbe0ea4d1	-0.1393006
41	0x3e85955c	0.26090515
42	0xbeb964e0	-0.36209774
43	0x3e2414a3	0.16023497
44	0x3e497a9d	0.1967568
45	0xbe71b225	-0.23603113
46	0x3d438d78	0.047742337
47	0x3f275374	0.65361714
48	0xbef16110	-0.47144365
49	0xbe322e81	-0.17400552
50	0xbe98923c	-0.29799068
51	0xbd366fe2	-0.044540294
52	0xbed38c2f	-0.4131789
53	0x3e13232e	0.14368889
54	0xbf103877	-0.5633616
55	0x3d1be72a	0.038062252
56	0x3da18c47	0.07888084
57	0xbe92af5c	-0.28649414
58	0x3d675763	0.056479823
59	0xbe893115	-0.2679526
60	0x3e2db6fe	0.16964337
61	0xbf058d53	-0.5216877
62	0xbec082dc	-0.37599838
63	0x3e5b31eb	0.21405761
64	0x3e7dacbd	0.24772926
65	0xbe322553	-0.1739705
66	0x3e0156f5	0.12630828
67	0xbd347663	-0.044058215
68	0x3efba504	0.49149334
69	0xbe18fe53	-0.14940767
70	0x3e47f2fd	0.19526286
71	0x3d698417	0.057010736
72	0x3e8613d8	0.26187015
73	0x3eaf595e	0.3424787
74	0xbe570a6e	-0.21000072
75	0xbdc069d9	-0.09395189
76	0xbea158a1	-0.3151293
77	0xbd9d9e55	-0.07696215
78	0x3e780aa5	0.2422281
79	0xbef8f225	-0.48622242
80	0xbe2b0383	-0.16700558
81	0xbd6f80e8	-0.058472544
82	0xbe361fb8	-0.17785537
83	0x3d8d55ce	0.069011316
84	0xbe64d7b8	-0.22347915
85	0xbe93094e	-0.28718036
86	0x3d912d0c	0.0708867
87	0xbd8bcef6	-0.06826584
88	0x3e27a990	0.16373277
89	0xbf3d58ba	-0.7396351
90	0xbf0be230	-0.5464201
91	0x3dfe7296	0.12424199
92	0xbe43ab2b	-0.19108264
93	0x3e1b0889	0.15139975
94	0xbe51a6c8	-0.20473778
95	0xbdd32eeb	-0.10311683
96	0xbefdea6d	-0.49592915
97	0xbdafa8b9	-0.08577103
98	0x3e884b16	0.26619786
99	0x3dc91788	0.09818941
100	0x3e2f5352	0.17121628
101	0xbcc8ff9c	-0.024535947
102	0x3de121ad	0.10992751
103	0x3e23ac1d	0.15983625
104	0xbdd84602	-0.10560228
105	0xbd60106d	-0.054703165
106	0xbed5a481	-0.4172707
107	0xbe544448	-0.20729172
108	0xbe06a25b	-0.13147871
109	0xbf291bbd	-0.6605795
110	0x3e38288f	0.17984222
111	0x3e1c4891	0.15262057
112	0x3dbdbfe8	0.09265119
113	0x3f123d40	0.5712471
114	0x3e6a2309	0.22864927
115	0xbd863696	-0.0655338
116	0x3d73f850	0.05956298
117	0x3ec07d11	0.37595418
118	0xbea44333	-0.3208252
119	0xbe0036c7	-0.12520896
120	0xbea7df42	-0.3278752
121	0xbe7f2b20	-0.24918795
122	0xbeb0ede9	-0.3455651
123	0x3f14be4a	0.5810286
124	0xbe78768a	-0.24263969
125	0xbdfd69c4	-0.12373689
126	0xbed21424	-0.4103099
127	0x3e0e2906	0.13882837

bn2.running_var f4 [128]
0	0x3e728905	0.23685081
1	0x3ecf5857	0.40497085
2	0x3d62ab5e	0.05533921
3	0x3e654987	0.2239133
4	0x3f0a8f62	0.54125035
5	0x3e8a813e	0.2705173
6	0x3e261446	0.16218671
7	0x3dcdda9e	0.100514635
8	0x3d923947	0.07139831
9	0x3e85c1a1	0.2612429
10	0x3d9e88d8	0.077409446
11	0x3e012adb	0.12614004
12	0x3f2d3ac5	0.676678
13	0x3e0b2733	0.13589172
14	0x3ec4e1b3	0.38453445
15	0x3d4a1ece	0.049345784
16	0x3f11d440	0.5696449
17	0x3e96243f	0.2932453
18	0x3dd88a8e	0.10573302
19	0x3e0bb297	0.13642345
20	0x3e84a74b	0.25908884
21	0x3e39d4c7	0.18147574
22	0x3eacc26b	0.3374208
23	0x3ed54b5a	0.4165905
24	0x3ebb16b0	0.36540747
25	0x3e174db1	0.1477573
26	0x3dff1b60	0.12456393
27	0x3d2379bd	0.03991102
28	0x3e29bf47	0.16576873
29	0x3ed3ef5e	0.4139356
30	0x3e5ae094	0.21374732
31	0x3e6e2096	0.23254618
32	0x3f23e5cd	0.64022523
33	0x3e4974d0	0.19673467
34	0x3d80e3d4	0.06293455
35	0x3ed0b380	0.40761948
36	0x3e586c4f	0.21135066
37	0x3e074d0d	0.13212986
38	0x3eb119a7	0.34589884
39	0x3ec26477	0.37967274
40	0x3ea54368	0.3227799
41	0x3e13633c	0.14393324
42	0x3ebfc7df	0.37457177
43	0x3d53a327	0.051669266
44	0x3eb8b378	0.36074424
45	0x3eab7411	0.3348699
46	0x3ddefa1c	0.10887548
47	0x3ead3862	0.3383208
48	0x3e39256a	0.18080679
49	0x3e0779f7	0.1323012
50	0x3ea36c71	0.31918672
51	0x3da3fd8c	0.080073446
52	0x3e3062a8	0.17225134
53	0x3e8c12b5	0.27358022
54	0x3eaf99e2	0.3429709
55	0x3d441691	0.047873084
56	0x3e81bbe7	0.2533867
57	0x3d9de827	0.07710295
58	0x3eee6b4a	0.4656623
59	0x3eae0558	0.33988452
60	0x3e658f4b	0.22417943
61	0x3df234e7	0.118264966
62	0x3e4b5cad	0.19859572
63	0x3de2bd45	0.110712565
64	0x3e96e0a5	0.29468265
65	0x3efe14f1	0.49625352
66	0x3da991bf	0.08279752
67	0x3daba787	0.08381563
68	0x3e1f5328	0.15559065
69	0x3ea09065	0.31360164
70	0x3e2e34f7	0.17012392
71	0x3de3cb53	0.111227654
72	0x3d64d911	0.055871073
73	0x3dca65bb	0.09882685
74	0x3cf0c412	0.029390369
75	0x3f24419e	0.64162624
76	0x3f1c3bbd	0.61028653
77	0x3e8fe8e2	0.28107363
78	0x3efb1094	0.49036086
79	0x3f4b2cf8	0.7936549
80	0x3f02b3a8	0.51055384
81	0x3e83b3ee	0.25723213
82	0x3d768e31	0.060194198
83	0x3eaa8fbc	0.33312786
84	0x3e5cb04a	0.21551624
85	0x3ddbeb8a	0.10738285
86	0x3d3691f2	0.044572778
87	0x3da4f140	0.08053827
88	0x3e91de44	0.28489888
89	0x3f5d7caa	0.8651835
90	0x3e0f43b0	0.13990664
91	0x3f4e5a9d	0.80607015
92	0x3ee6c15b	0.45069394
93	0x3db7e89f	0.08979916
94	0x3dcee451	0.10102142
95	0x3e7d39c2	0.24729064
96	0x3d7e87bb	0.06214116
97	0x3e5de90b	0.2167093
98	0x3e29d895	0.16586526
99	0x3ddb0efd	0.10696218
100	0x3dd76e82	0.105191246
101	0x3df3555a	0.11881514
102	0x3f068017	0.525392
103	0x3e9e2ad7	0.3089206
104	0x3ebcfb0b	0.3691028
105	0x3e35ac7e	0.17741582
106	0x3eae22a2	0.34010798
107	0x3e55f5b2	0.20894507
108	0x3e1d8bac	0.15385312
109	0x3ebae8a7	0.36505625
110	0x3e8482cc	0.2588104
111	0x3d95b5db	0.07310077
112	0x3e357bda	0.17723027
113	0x3da60d5c	0.08108017
114	0x3eb65244	0.3560964
115	0x3dc855d8	0.097819984
116	0x3dc1d100	0.09463692
117	0x3ecf6a90	0.40510988
118	0x3e89873d	0.2686099
119	0x3ed30863	0.41217336
120	0x3db931b2	0.09042682
121	0x3e084ac9	0.13309778
122	0x3dcef139	0.10104603
123	0x3e4d7f55	0.20068105
124	0x3e837dda	0.25681955
125	0x3e310375	0.17286475
126	0x3e35992c	0.17734212
127	0x3edb2545	0.42801872
