10_Models/Results_SiouxFalls/WGANBR_Freeflow_discriminator_br_best.pth (torch, 78078 bytes, 13 tensors)

fc1.weight f4 [128, 2]
0	0xbbdd800e	-0.00675965
1	0xbc23d70a	-0.01
2	0x3bdbcb5a	0.006707591
3	0x3c2178f0	0.009855494
4	0x3c1ba55c	0.009499874
5	0x3c1f93e5	0.009739851
6	0x3bde04e0	0.0067754835
7	0xbbde1708	-0.006777648
8	0xbc14759d	-0.009061244
9	0x3c18d259	0.009327495
10	0x3bf2e69e	0.0074127456
11	0xbbf2f997	-0.0074150073
12	0xbc1794f3	-0.009251821
13	0xbc176c44	-0.009242121
14	0x3c084121	0.008316309
15	0xbc086e3d	-0.008327064
16	0xbc06ecab	-0.008235137
17	0x3c174950	0.009233788
18	0xbbddaf16	-0.0067652566
19	0x3bf3ef67	0.0074443105
20	0x3bee47fd	0.0072717653
21	0x3c21991d	0.009863165
22	0x3c1a4796	0.0094164815
23	0xbc1a4f50	-0.009418324
24	0x3c10bf2b	0.0088346405
25	0x3c23d70a	0.01
26	0x3c174222	0.009232076
27	0x3c1730f5	0.009227981
28	0xbc206f7c	-0.009792205
29	0x3bfe58c7	0.007762048
30	0xbc161172	-0.009159433
31	0xbc16384b	-0.009168695
32	0xbc02c8ab	-0.007982413
33	0x3c1d91ff	0.009617328
34	0xbc1a87a9	-0.009431758
35	0x3c1db5c3	0.009625855
36	0x3c21da08	0.009878643
37	0x3c21e36f	0.009880885
38	0x3bd93a80	0.006629288
39	0xbbd947b7	-0.0066308635
40	0xbc17f1de	-0.009273974
41	0xbc09c357	-0.008408389
42	0xbc0f9be7	-0.008765197
43	0x3c10d6e2	0.008840295
44	0xbc165b60	-0.009177059
45	0xbc189211	-0.009312169
46	0xbc143ba4	-0.009047423
47	0xbc0fcccb	-0.008776854
48	0xbc07a218	-0.008278392
49	0xbc1fd6f1	-0.009755836
50	0x3bd2445c	0.0064168405
51	0x3c1db2b4	0.009625126
52	0x3befea9a	0.007321668
53	0xbbeff7f4	-0.0073232595
54	0xbc1e0fe2	-0.009647341
55	0xbc144167	-0.009048796
56	0x3bc73136	0.0060788644
57	0xbbc47f89	-0.0059966487
58	0x3bd7fd42	0.00659147
59	0xbbd81149	-0.0065938574
60	0xbbfe8d59	-0.007768315
61	0x3c1566c4	0.0091187395
62	0xbc16bb46	-0.009199923
63	0x3c1c777a	0.00954997
64	0xbc226d41	-0.0099137435
65	0x3c227e77	0.009917847
66	0x3be0feaa	0.006866296
67	0xbbe5b352	-0.007009902
68	0xbc15d9fb	-0.009146209
69	0xbc0fc0f5	-0.008774032
70	0xbbe1bc86	-0.006888929
71	0x3c023e9b	0.007949497
72	0x3bafd02a	0.0053653913
73	0xbba590b7	-0.0050526517
74	0x3c092dae	0.008372707
75	0xbc097bfd	-0.0083913775
76	0x3bd05631	0.006357931
77	0x3c20df9b	0.009818937
78	0xbc20c7e0	-0.009813279
79	0x3c20ddf0	0.009818539
80	0xbc088882	-0.008333327
81	0x3c0d60d7	0.008629045
82	0x3c103c70	0.008803472
83	0x3c1d9a2f	0.00961928
84	0xbc127e38	-0.008941226
85	0xbc1d025b	-0.009583081
86	0xbc166de1	-0.009181471
87	0xbc1953e6	-0.009358382
88	0x3bf7a886	0.0075579314
89	0xbbf8150e	-0.0075708693
90	0x3bd51732	0.0065030092
91	0xbbd72e0a	-0.0065667676
92	0x3c133a5c	0.008986082
93	0xbc135abc	-0.008993801
94	0x3c20bb28	0.0098102465
95	0x3c219f69	0.0098646665
96	0xbc0e6fee	-0.008693678
97	0x3c1f13d5	0.009709318
98	0xbc215d2e	-0.009848876
99	0x3bff66d8	0.0077942424
100	0xbbd6dd84	-0.0065571684
101	0xbc23b224	-0.0099912025
102	0xbc235531	-0.009969042
103	0x3c2362fe	0.009972332
104	0xbc162b5d	-0.009165612
105	0xbc10c55e	-0.0088361185
106	0x3c23d70a	0.01
107	0x3c23d70a	0.01
108	0x3c19a49a	0.009377623
109	0x3c2204ae	0.009888811
110	0x3c10c9cc	0.008837175
111	0x3c1f4627	0.0097213155
112	0xbc09008a	-0.008361945
113	0xbc205f74	-0.009788383
114	0x3c05028b	0.008118282
115	0xbc0509a1	-0.0081199715
116	0x3bcb6fc7	0.0062083933
117	0xbbd243e8	-0.0064167865
118	0x3c02ca9d	0.007982877
119	0x3c1d468e	0.009599341
120	0x3bef0c06	0.0072951345
121	0x3c1e5de8	0.009665944
122	0x3c0ff3d3	0.00878616
123	0xbc0ffb59	-0.008787953
124	0xbc23d70a	-0.01
125	0xbc098bfe	-0.008395193
126	0x3c188ffa	0.00931167
127	0x3c23d70a	0.01
128	0xbc1f03fb	-0.009705539
129	0xbc03d188	-0.008045562
130	0xbc15e266	-0.009148216
131	0xbc14b3a2	-0.009076031
132	0x3bd7acb8	0.006581869
133	0xbbd7c06c	-0.006584218
134	0xbc1b1d16	-0.009467384
135	0x3c2062a1	0.00978914
136	0x3c1eca95	0.009691854
137	0xbc1ed381	-0.009693981
138	0x3be8fd40	0.007110268
139	0x3c1c103d	0.009525356
140	0xbc16e717	-0.00921037
141	0x3c1a2c07	0.009409911
142	0x3bcc5414	0.006235609
143	0xbbcd0561	-0.0062567447
144	0xbc0983c5	-0.008393233
145	0x3c0b97a0	0.008520037
146	0x3c04bfcf	0.008102371
147	0x3c22c571	0.009934769
148	0xbc1b42a5	-0.0094763385
149	0xbc1a0e24	-0.009402785
150	0xbc1704a3	-0.009217414
151	0xbc085fc2	-0.008323612
152	0x3c1ae33e	0.009453593
153	0xbc1aeaeb	-0.009455423
154	0xbc1f5906	-0.009725815
155	0xbbe5c38c	-0.0070118364
156	0x3c23d70a	0.01
157	0x3c23d70a	0.01
158	0xbc1ad408	-0.009449966
159	0x3c23b3aa	0.009991566
160	0x3c0571a3	0.008144769
161	0x3c23d70a	0.01
162	0x3b4086a0	0.0029377118
163	0xbb440a00	-0.0029913187
164	0x3bbb7ef7	0.0057219225
165	0xbbbbdedf	-0.0057333554
166	0x3bce1016	0.0062885387
167	0xbbd1afc2	-0.006399126
168	0x3c18049f	0.0092784455
169	0xbc180c45	-0.009280269
170	0x3c055240	0.008137286
171	0x3b950996	0.004548262
172	0x3c0bd8e4	0.0085355975
173	0xbc0be292	-0.008537905
174	0xbc0f4ec0	-0.008746803
175	0x3c13ce4a	0.009021351
176	0x3beaafad	0.0071620555
177	0x3c207618	0.009793781
178	0xbc0f62ca	-0.0087515805
179	0xbc19677a	-0.00936305
180	0x3c0a10f4	0.0084268935
181	0xbc0a181f	-0.0084286025
182	0xbc1d5348	-0.009602375
183	0x3bd73aa9	0.006568272
184	0xbc2357c5	-0.009969656
185	0xbbe0b6ab	-0.006857713
186	0xbc028d72	-0.0079682935
187	0x3ba39e69	0.004993249
188	0xbc168638	-0.009187274
189	0x3c1c0d78	0.009524696
190	0x3c0cbf90	0.008590594
191	0xbc0cc791	-0.008592502
192	0xbc1ba479	-0.009499663
193	0x3c1d38d7	0.009596071
194	0x3bc13f21	0.005897418
195	0xbbc4dd7e	-0.0060078492
196	0x3c02f833	0.007993746
197	0x3c1b7e80	0.009490609
198	0xbc199bc4	-0.009375516
199	0x3c23d70a	0.01
200	0x3c20658d	0.009789837
201	0x3c2222e2	0.009896012
202	0xbc035660	-0.008016199
203	0x3c0c049d	0.008546022
204	0x3bdf16e0	0.006808147
205	0xbbdf2dad	-0.006810865
206	0x3bff5a01	0.0077927117
207	0xbc009786	-0.007848626
208	0x3bbc25d7	0.0057418155
209	0x3c22bf92	0.009933369
210	0x3b9f8893	0.004868576
211	0xbba3f139	-0.005003121
212	0xbc17f11c	-0.009273794
213	0x3c18d24b	0.0093274815
214	0x3c02061f	0.00793603
215	0xbc02487c	-0.007951852
216	0xbc21300f	-0.009838118
217	0xbbebec16	-0.0071997745
218	0xbc20cb61	-0.009814114
219	0xbbdd609c	-0.0067559015
220	0x3c02f274	0.007992376
221	0x3c22140d	0.009892476
222	0xbc084461	-0.008317084
223	0x3c0f20c9	0.008735844
224	0x3c23d70a	0.01
225	0x3c23d70a	0.01
226	0x3bd55031	0.0065098037
227	0xbbd55fc5	-0.0065116608
228	0x3c0d7606	0.008634096
229	0xbc0d7e46	-0.008636063
230	0xbc152fa4	-0.009105597
231	0x3c18267d	0.00928652
232	0xbc0a1c8c	-0.008429658
233	0xbc1dbf5b	-0.009628142
234	0xbc22e992	-0.009943383
235	0x3c0ec32c	0.008713525
236	0xbc210ce9	-0.009829738
237	0x3c211757	0.009832225
238	0xbc1d4ff6	-0.009601584
239	0xbbdceb1b	-0.006741894
240	0x3c0f31b3	0.008739877
241	0xbc0f3ac0	-0.008742034
242	0x3c049585	0.008092289
243	0x3c2254ef	0.009907945
244	0xbc1d3044	-0.009594027
245	0xbc0a0b4e	-0.008425547
246	0xbc22af20	-0.009929448
247	0x3c23d70a	0.01
248	0x3bd1ac14	0.006398687
249	0xbbd1d6f4	-0.0064037982
250	0xbc1ec33b	-0.009690101
251	0x3c1f6394	0.009728331
252	0xbc0a79d2	-0.008451896
253	0x3c1c5f2e	0.009544177
254	0xbbf0ad20	-0.007344857
255	0xbc21541c	-0.009846713

fc1.bias f4 [128]
0	0x3c23d70a	0.01
1	0x3c23d70a	0.01
2	0x3c23d70a	0.01
3	0xbc23d70a	-0.01
4	0x3c23d70a	0.01
5	0xbc14bcb4	-0.009078193
6	0x3c12221e	0.008919267
7	0x3c0bcec2	0.008533182
8	0x3c23d70a	0.01
9	0x3c23d70a	0.01
10	0x3c23d70a	0.01
11	0xbc197aa0	-0.009367615
12	0x3c23d70a	0.01
13	0x3c23d70a	0.01
14	0x3c23d70a	0.01
15	0x3c23d2c6	0.009998983
16	0x3c23d70a	0.01
17	0x3c23d70a	0.01
18	0x3c23d70a	0.01
19	0x3be2b80f	0.006918914
20	0x3c1b2f1e	0.009471683
21	0x3c23d70a	0.01
22	0xbc21cfc6	-0.009876197
23	0x3c14e9e0	0.009088963
24	0xbc17c77d	-0.00926387
25	0x3c23d70a	0.01
26	0x3bf759cc	0.0075485464
27	0x3c1dae23	0.009624037
28	0xbc22f5eb	-0.009946327
29	0xbc23d70a	-0.01
30	0x3c23d70a	0.01
31	0x3c23d70a	0.01
32	0x3c23d70a	0.01
33	0x3bfeb800	0.0077733994
34	0xbc156788	-0.009118922
35	0x3c23d70a	0.01
36	0x3c23d70a	0.01
37	0xbc13d9a8	-0.009024061
38	0x3c23d70a	0.01
39	0x3c23d70a	0.01
40	0x3c23d70a	0.01
41	0x3c23d70a	0.01
42	0x3c1af162	0.009456964
43	0xbc221658	-0.0098930225
44	0xbc2252c7	-0.009907431
45	0xbc1ff0ee	-0.009762032
46	0x3c17aca9	0.009257474
47	0x3c23d70a	0.01
48	0x3c23d70a	0.01
49	0x3be7d019	0.0070743677
50	0x3c23b292	0.009991305
51	0x3c23d70a	0.01
52	0x3c03d4ce	0.008046342
53	0x3c23d70a	0.01
54	0x3c23d70a	0.01
55	0x3c23d70a	0.01
56	0xbc054696	-0.008134505
57	0x3c0916ee	0.008367283
58	0xbc23d70a	-0.01
59	0x3c23d70a	0.01
60	0x3c23d70a	0.01
61	0xbc1efdfa	-0.009704107
62	0x3c127bd8	0.008940659
63	0x3c23d70a	0.01
64	0x3c174506	0.009232765
65	0x3c14bb10	0.009077802
66	0xbc23195c	-0.009954777
67	0x3c23d70a	0.01
68	0xbc19086e	-0.009340389
69	0x3c23d70a	0.01
70	0x3c23d70a	0.01
71	0xbc23a892	-0.009988921
72	0x3c23d70a	0.01
73	0x3c23d70a	0.01
74	0x3c0d9aff	0.008642911
75	0x3c1a79b5	0.009428431
76	0x3c1c119c	0.009525683
77	0xbc1f5d4c	-0.009726834
78	0x3c23d70a	0.01
79	0x3c23d70a	0.01
80	0x3c23d70a	0.01
81	0xbc1ef86a	-0.009702781
82	0x3beae99c	0.0071689617
83	0x3bfe57b4	0.00776192
84	0x3c17d7e4	0.009267781
85	0xbc215ce7	-0.00984881
86	0x3c0ee453	0.008721429
87	0x3c23d70a	0.01
88	0x3c23d70a	0.01
89	0x3c14f04b	0.009090493
90	0x3c0c533b	0.008564766
91	0xbc23d687	-0.009999878
92	0xbc2359aa	-0.009970108
93	0xbc0b4db9	-0.008502417
94	0x3c23d70a	0.01
95	0x3c12d71e	0.008962421
96	0x3c23d70a	0.01
97	0xbc23d70a	-0.01
98	0x3c23d70a	0.01
99	0x3c23d70a	0.01
100	0x3c23d70a	0.01
101	0x3c23d70a	0.01
102	0xbc23d70a	-0.01
103	0xbc10b428	-0.008832015
104	0x3c23d70a	0.01
105	0x3bf1f436	0.0073838485
106	0x3c23d70a	0.01
107	0xbc21686e	-0.009851558
108	0xbc213296	-0.009838721
109	0xbc20d19f	-0.009815603
110	0x3c23d70a	0.01
111	0x3c23d70a	0.01
112	0x3c23d70a	0.01
113	0xbc1d5426	-0.009602582
114	0xbc22ccba	-0.009936506
115	0x3c23d70a	0.01
116	0x3c16ec55	0.009211619
117	0x3c23d70a	0.01
118	0x3c23d70a	0.01
119	0x3bfe3e2f	0.0077588777
120	0x3c149031	0.009067581
121	0x3c23d70a	0.01
122	0xbc173de5	-0.009231065
123	0x3c23d70a	0.01
124	0x3c0246cd	0.0079514505
125	0x3c23d70a	0.01
126	0x3c23d70a	0.01
127	0x3c2158a8	0.009847797

bn1.weight f4 [128]
0	0x3c23d70a	0.01
1	0x3c23d70a	0.01
2	0x3c23d70a	0.01
3	0x3c23d70a	0.01
4	0x3c23d70a	0.01
5	0x3c23d70a	0.01
6	0x3c23d70a	0.01
7	0x3c23befb	0.009994264
8	0x3c23d70a	0.01
9	0x3c23d70a	0.01
10	0x3bfe2c37	0.0077567357
11	0x3c23d70a	0.01
12	0x3c23d70a	0.01
13	0x3c23d70a	0.01
14	0x3c23d70a	0.01
15	0x3c23d70a	0.01
16	0x3c23d70a	0.01
17	0x3c23d70a	0.01
18	0x3c23d70a	0.01
19	0x3c23d70a	0.01
20	0x3c23d70a	0.01
21	0x3c23d70a	0.01
22	0x3c23d70a	0.01
23	0x3c23d70a	0.01
24	0x3c23d70a	0.01
25	0x3c23d70a	0.01
26	0x3c23cd0c	0.009997617
27	0x3c23d70a	0.01
28	0x3c23d70a	0.01
29	0x3c23d70a	0.01
30	0x3c23d70a	0.01
31	0x3c23d70a	0.01
32	0x3c23d70a	0.01
33	0x3c23d70a	0.01
34	0x3c23d70a	0.01
35	0x3c23d70a	0.01
36	0x3c23af58	0.009990536
37	0x3c23d70a	0.01
38	0x3c23d70a	0.01
39	0x3c23d70a	0.01
40	0x3c23d70a	0.01
41	0x3be40c72	0.0069594914
42	0x3c23d70a	0.01
43	0x3c23d70a	0.01
44	0x3c23c317	0.0099952435
45	0x3c23d70a	0.01
46	0x3c23d70a	0.01
47	0x3c23d70a	0.01
48	0x3c23d70a	0.01
49	0x3c23d70a	0.01
50	0x3c23d70a	0.01
51	0x3c23d70a	0.01
52	0x3c23d70a	0.01
53	0x3c23d70a	0.01
54	0x3c23d70a	0.01
55	0x3c23d70a	0.01
56	0x3c23d70a	0.01
57	0x3c23d70a	0.01
58	0x3c23c497	0.009995601
59	0x3be8a544	0.0070997793
60	0x3c01f92b	0.007932941
61	0x3c23d70a	0.01
62	0x3c23d70a	0.01
63	0x3adb94f4	0.0016752766
64	0x3c23d70a	0.01
65	0x3c23d70a	0.01
66	0x3c23d70a	0.01
67	0x3c23d70a	0.01
68	0x3c23d70a	0.01
69	0x3c11edad	0.008906764
70	0x3c23d70a	0.01
71	0x3c23d70a	0.01
72	0x3c23d70a	0.01
73	0x3c034b88	0.0080136135
74	0x3c23d70a	0.01
75	0x3c23d70a	0.01
76	0x3c23d70a	0.01
77	0x3c23d70a	0.01
78	0x3c23d70a	0.01
79	0x3c23d70a	0.01
80	0x3bed95c9	0.007250522
81	0x3c23d70a	0.01
82	0x3c23d70a	0.01
83	0x3c23d70a	0.01
84	0x3c23d70a	0.01
85	0x3bedb2af	0.0072539668
86	0x3c23d70a	0.01
87	0x3c23d70a	0.01
88	0x3bed0292	0.0072329724
89	0x3c23d70a	0.01
90	0x3c23d70a	0.01
91	0x3c23d70a	0.01
92	0x3c23d70a	0.01
93	0x3c23d70a	0.01
94	0x3c23d70a	0.01
95	0x3c23d70a	0.01
96	0x3c23d70a	0.01
97	0x3c23d70a	0.01
98	0x3c23d70a	0.01
99	0x3c23d70a	0.01
100	0x3c23d70a	0.01
101	0x3c23d70a	0.01
102	0x3c23d70a	0.01
103	0x3c23d70a	0.01
104	0x3c199817	0.00937464
105	0x3c23d70a	0.01
106	0x3c23d70a	0.01
107	0x3c23d70a	0.01
108	0x3c23d70a	0.01
109	0x3c23d70a	0.01
110	0x3bef0f2b	0.0072955093
111	0x3c23d70a	0.01
112	0x3c23d70a	0.01
113	0x3c23d70a	0.01
114	0x3c23d70a	0.01
115	0x3c23d70a	0.01
116	0x3c23d70a	0.01
117	0x3c23d70a	0.01
118	0x3c23d70a	0.01
119	0x3c23d70a	0.01
120	0x3c23d70a	0.01
121	0x3bec4f6e	0.007211617
122	0x3c23d70a	0.01
123	0x3c23d70a	0.01
124	0x3c23d70a	0.01
125	0x3c23d70a	0.01
126	0x3c23d70a	0.01
127	0x3c23d70a	0.01

bn1.bias f4 [128]
0	0x3b97757d	0.00462216
1	0xbb1444b1	-0.002262395
2	0x3c23d70a	0.01
3	0x3c23d70a	0.01
4	0x3c23d70a	0.01
5	0x3c23d70a	0.01
6	0x3c23d70a	0.01
7	0x3c23d70a	0.01
8	0x3c23d70a	0.01
9	0x3c23d70a	0.01
10	0x3c23d70a	0.01
11	0x3c23d70a	0.01
12	0x3c23d70a	0.01
13	0x3c022420	0.007943183
14	0x3c23d70a	0.01
15	0x3c23d70a	0.01
16	0x3906d8e4	0.00012860034
17	0x3928b522	0.00016089206
18	0x3c034d4d	0.008014035
19	0x3c23d70a	0.01
20	0x3c23d70a	0.01
21	0x38fbab9c	0.000120005774
22	0x3c23d70a	0.01
23	0x3c23d70a	0.01
24	0x3ba592a4	0.0050528813
25	0x3bbb0ad0	0.005708076
26	0x3c23d70a	0.01
27	0x3c23d70a	0.01
28	0x3c23d70a	0.01
29	0x3c23d70a	0.01
30	0x3c23d70a	0.01
31	0x39329a6a	0.00017032927
32	0x3c23d70a	0.01
33	0x3c23d70a	0.01
34	0x3c23d70a	0.01
35	0x39445968	0.00018725323
36	0x3c23d70a	0.01
37	0x3c23d70a	0.01
38	0x3b8b3d5e	0.004249259
39	0x391557b3	0.00014242418
40	0x3c23d70a	0.01
41	0xbb53e85c	-0.0032334542
42	0x3bc4ac7b	0.0060020066
43	0x3c22e65e	0.009942619
44	0x3c23d70a	0.01
45	0x3c23d70a	0.01
46	0x3c23d70a	0.01
47	0x3bfaeb5f	0.007657453
48	0x391c7249	0.00014919894
49	0x3c23d70a	0.01
50	0x3b947c3a	0.0045314105
51	0x3c23d70a	0.01
52	0x3c23d70a	0.01
53	0x3c12cf1c	0.008960512
54	0x3beb1c05	0.007174971
55	0x3c23d70a	0.01
56	0x3c23d70a	0.01
57	0x3c23d70a	0.01
58	0x3c23d70a	0.01
59	0x3c23d70a	0.01
60	0x3c23d70a	0.01
61	0x3c23d70a	0.01
62	0x3c23d70a	0.01
63	0xbbe1fbb3	-0.00689646
64	0x3c23d70a	0.01
65	0x3c23d70a	0.01
66	0x3c23d70a	0.01
67	0x3c23d70a	0.01
68	0x3c23d70a	0.01
69	0x3c23d70a	0.01
70	0x3c23d70a	0.01
71	0x391e0f6b	0.00015073798
72	0x3950e7bb	0.00019922752
73	0x3c23d70a	0.01
74	0x3c23d70a	0.01
75	0x3c23d70a	0.01
76	0x3c23d70a	0.01
77	0x3c23d70a	0.01
78	0x3c23d70a	0.01
79	0x392a52da	0.00016243328
80	0x3c23d70a	0.01
81	0x3c23d70a	0.01
82	0x3c23d70a	0.01
83	0x3c23d70a	0.01
84	0x3c23d70a	0.01
85	0x3c23d70a	0.01
86	0x3c23d70a	0.01
87	0x3964ed62	0.00021832206
88	0x3b7b8085	0.0038376164
89	0x3b5831e6	0.0032988726
90	0x3c23d70a	0.01
91	0x3c23d70a	0.01
92	0x3c237693	0.009977001
93	0x3c23d70a	0.01
94	0x3c23d70a	0.01
95	0x3c23d70a	0.01
96	0x3c23d70a	0.01
97	0x3c23d70a	0.01
98	0x3b119d32	0.002221894
99	0x38f56ddc	0.00011702973
100	0x3c05c7e4	0.008165333
101	0x3929e567	0.00016202555
102	0x3c23d70a	0.01
103	0x3c23d70a	0.01
104	0x3c23d70a	0.01
105	0x3c23d70a	0.01
106	0x3c23d70a	0.01
107	0x3c23d70a	0.01
108	0x3c23d70a	0.01
109	0x3c1a5cab	0.009421508
110	0x3c23d70a	0.01
111	0x39125758	0.00013956183
112	0x3c12ad63	0.008952471
113	0x3c23d70a	0.01
114	0x3c23d70a	0.01
115	0x3c23d70a	0.01
116	0x3b9d3205	0.0047972226
117	0x3c23d70a	0.01
118	0x39102078	0.00013745006
119	0x3c21aa08	0.009867199
120	0x3c23d70a	0.01
121	0x3c23d70a	0.01
122	0x3c23d70a	0.01
123	0x392afd57	0.0001630684
124	0x3c23d70a	0.01
125	0x3c23d70a	0.01
126	0x393ccf66	0.00018006339
127	0x3c08a0f0	0.008339152

bn1.running_mean f4 [128]
0	0x4542df46	3117.9546
1	0xc544dff9	-3149.9983
2	0xc3a1d958	-323.698
3	0x46529ddf	13479.468
4	0xc68e58ed	-18220.463
5	0x46628c9d	14499.153
6	0xc11680f2	-9.406481
7	0x46827f21	16703.564
8	0xc6872241	-17297.127
9	0xc65dedcb	-14203.448
10	0xc5239384	-2617.2197
11	0x4691a48a	18642.27
12	0xc4860cef	-1072.4042
13	0x3f227506	0.63459814
14	0xc68790ba	-17352.363
15	0x4115f522	9.372347
16	0xc6871477	-17290.232
17	0xc692ed10	-18806.531
18	0xc284dd55	-66.43229
19	0x464be2f4	13048.738
20	0xc46be6e8	-943.6079
21	0xc6880ee7	-17415.451
22	0x41ed516c	29.664757
23	0xc3a7eba8	-335.84106
24	0x44bd5752	1514.7288
25	0xc5408d8f	-3080.8474
26	0x4662f1d7	14524.46
27	0xc3e75a26	-462.70428
28	0x463c2540	12041.3125
29	0x464f7a27	13278.538
30	0xc6834841	-16804.127
31	0xc6910e4b	-18567.146
32	0xc69a0160	-19712.688
33	0x465688ed	13730.231
34	0xc3ddaf25	-443.36832
35	0xc66552bf	-14676.687
36	0x4624bed7	10543.71
37	0x468333f0	16793.969
38	0xc5587efa	-3463.936
39	0xc698be49	-19551.143
40	0xc6834ead	-16807.338
41	0xc45493d7	-850.31
42	0x44323e14	712.97
43	0x42ca4bd4	101.1481
44	0x466b8774	15073.863
45	0x464e1d39	13191.306
46	0x4689e93f	17652.623
47	0xc31c0006	-156.00009
48	0xc68df4c5	-18170.385
49	0xc688d17d	-17512.744
50	0x45518cde	3352.8042
51	0xc699ffc1	-19711.877
52	0xc34913da	-201.07755
53	0x3d273799	0.040824506
54	0xc41acc03	-619.1877
55	0xc46624b3	-920.5734
56	0x44abefc3	1375.4926
57	0x467d5ff0	16215.984
58	0x4644d5dc	12597.465
59	0xc4bb3303	-1497.5941
60	0xc514d4ee	-2381.308
61	0x468786e5	17347.447
62	0xc4afe970	-1407.2949
63	0xc42a8675	-682.1009
64	0xc4ce8c5b	-1652.3861
65	0xc27cbc7c	-63.184067
66	0x464bdde6	13047.475
67	0xc694d12d	-19048.588
68	0x469742ab	19361.334
69	0xc51272b2	-2343.1685
70	0xc691601b	-18608.053
71	0x46427be0	12446.969
72	0xc682ad2d	-16726.588
73	0xc4e6d33a	-1846.6008
74	0xc28778db	-67.736046
75	0xc45c219d	-880.5252
76	0x4692fe23	18815.068
77	0xc523c2a9	-2620.1663
78	0x3d271536	0.040791713
79	0xc696764c	-19259.148
80	0xc4e49db5	-1828.9283
81	0x45b15338	5674.4023
82	0x462f1e44	11207.566
83	0x464831bd	12812.435
84	0x4690ba6b	18525.209
85	0x45657520	3671.3203
86	0x468599e2	17100.941
87	0xc68a936d	-17737.713
88	0xc51f96de	-2553.4292
89	0x44107356	577.8021
90	0x4683692e	16820.59
91	0xc67a3a67	-16014.601
92	0xc5428e74	-3112.9033
93	0xc64b40c9	-13008.196
94	0xc68f7f75	-18367.729
95	0x4685f172	17144.723
96	0xc69399c5	-18892.885
97	0x46399668	11877.602
98	0xc4bdb951	-1517.7911
99	0xc6958856	-19140.168
100	0xc3644b39	-228.29384
101	0xc680316b	-16408.709
102	0x46566a82	13722.627
103	0x46729317	15524.772
104	0xc5827351	-4174.4146
105	0x461a952f	9893.296
106	0xc68f5cfa	-18350.488
107	0x46742550	15625.328
108	0xc527f278	-2687.1543
109	0xc542ed10	-3118.8164
110	0xc4f2c685	-1942.2037
111	0xc6848756	-16963.668
112	0x3d27379a	0.04082451
113	0x464a95d1	12965.454
114	0x468609e9	17156.955
115	0xc68e7614	-18235.04
116	0x44a42f66	1313.4812
117	0xc690cf5b	-18535.678
118	0xc6993cae	-19614.34
119	0xc535162f	-2897.3865
120	0x46875938	17324.61
121	0xc4d9d5a1	-1742.6759
122	0xc487ca98	-1086.331
123	0xc699104c	-19592.148
124	0x4643ae19	12523.524
125	0xc696c2a7	-19297.326
126	0xc68bc951	-17892.658
127	0x452026d8	2562.4277

bn1.running_var f4 [128]
0	0x46ea5a9b	29997.303
1	0x46ea86dd	30019.432
2	0x439bfbba	311.9666
3	0x4906eae1	552622.06
4	0x4976dfcc	1.01119675e+06
5	0x491d627b	644647.7
6	0x40431e05	3.0487072
7	0x494e5bb9	845243.56
8	0x495eb4ed	912206.8
9	0x49157cda	612301.6
10	0x46a19c4f	20686.154
11	0x49815051	1.0593381e+06
12	0x4563188b	3633.534
13	0x401e1e7d	2.4706109
14	0x496043f1	918591.06
15	0x3fbd6bab	1.4798483
16	0x495f2901	914064.06
17	0x4983c552	1.0794662e+06
18	0x419d22f3	19.642065
19	0x48fe5cdb	520934.84
20	0x4523e52c	2622.3232
21	0x4961aac3	924332.2
22	0x41c938b8	25.152695
23	0x43a18eb8	323.115
24	0x45d74ac4	6889.3457
25	0x46e4b2e8	29273.453
26	0x491ce217	642593.44
27	0x443f7126	765.76794
28	0x48d71c1e	440544.94
29	0x49022c40	533188.0
30	0x4951b164	858902.25
31	0x49804a20	1.050948e+06
32	0x4990558d	1.1823856e+06
33	0x490c5d24	574930.25
34	0x440fe1ca	575.52795
35	0x49207f46	657396.4
36	0x48a3c62a	335409.3
37	0x4950a6b9	854635.56
38	0x470e4c9d	36428.613
39	0x498dde7b	1.1621914e+06
40	0x49523a78	861095.5
41	0x4508871b	2184.444
42	0x44bd036a	1512.1067
43	0x42481fa2	50.03089
44	0x492899a7	690586.44
45	0x49006aa9	525994.56
46	0x4968ee15	954081.3
47	0x428b66ff	69.701164
48	0x4975ffaa	1.0076106e+06
49	0x4963ef7c	933623.75
50	0x4706527a	34386.477
51	0x4990bd9c	1.1857155e+06
52	0x433b76ba	187.46378
53	0x399e32da	0.00030173996
54	0x44880fbf	1088.4921
55	0x45211f63	2577.9617
56	0x45b70425	5856.518
57	0x4942cf94	797945.25
58	0x48eb5c15	482016.66
59	0x45dd0d72	7073.6807
60	0x468641ec	17184.96
61	0x49605976	918935.4
62	0x45c9f929	6463.145
63	0x44b1376a	1417.7317
64	0x4602c312	8368.768
65	0x4156c2d5	13.422566
66	0x48fd7f88	519164.25
67	0x498712db	1.1065234e+06
68	0x498ae35a	1.1377712e+06
69	0x4683d2bf	16873.373
70	0x49804ef9	1.0511031e+06
71	0x48e609fd	471119.9
72	0x49505972	853399.1
73	0x462164c6	10329.193
74	0x419ad572	19.354221
75	0x45150b9d	2384.7258
76	0x49836191	1.0762741e+06
77	0x46a51d31	21134.596
78	0x39a0bc7b	0.00030658007
79	0x4989f470	1.130126e+06
80	0x461f313e	10188.311
81	0x47c31331	99878.38
82	0x48bc1e79	385267.78
83	0x48f22405	495904.16
84	0x497e6b68	1.0421025e+06
85	0x471e6ca6	40556.65
86	0x4958830a	886832.6
87	0x49694e47	955620.44
88	0x469ca014	20048.04
89	0x448384e5	1052.153
90	0x4951c436	859203.4
91	0x493ed377	781623.44
92	0x46e55490	29354.281
93	0x48fa652a	512809.3
94	0x497c0fc6	1.0324444e+06
95	0x4959ed56	892629.4
96	0x4984dcf4	1.0884145e+06
97	0x48d14eb1	428661.53
98	0x45d8278a	6916.9424
99	0x49886d88	1.117617e+06
100	0x4307cd67	135.80235
101	0x494861ae	820762.9
102	0x490afc44	569284.25
103	0x493330c6	733964.4
104	0x474eeb90	52971.562
105	0x4890dda7	296685.22
106	0x497b06d6	1.0282054e+06
107	0x493650b3	746763.2
108	0x46a8dde5	21614.947
109	0x46e58cbf	29382.373
110	0x463207e4	11393.973
111	0x4955aab3	875179.2
112	0x399e32d9	0.00030173993
113	0x48f99bf6	511199.7
114	0x495ab313	895793.2
115	0x497763b9	1.01330756e+06
116	0x459ed870	5083.0547
117	0x497f2790	1.045113e+06
118	0x498eb7c0	1.169144e+06
119	0x46c5e405	25330.01
120	0x495f3f1a	914417.6
121	0x46128ff0	9379.984
122	0x4569e304	3742.1885
123	0x498f4ff3	1.1740144e+06
124	0x48eada1b	480976.84
125	0x498a514c	1.1330975e+06
126	0x496df2c7	974636.44
127	0x469a24f7	19730.482

fc2.weight f4 [128, 128]
0	0x3c23d70a	0.01
1	0x3aa362ab	0.0012465318
2	0x3bf795dd	0.007555707
3	0x3c23d70a	0.01
4	0xbc23d70a	-0.01
5	0x3c23d70a	0.01
6	0xbb8e6ebb	-0.004346696
7	0x3c23d70a	0.01
8	0xbc23d70a	-0.01
9	0xbc23d70a	-0.01
10	0xbb95f9b3	-0.0045768856
11	0x3c23d70a	0.01
12	0x3c08e008	0.008354194
13	0x3c23d70a	0.01
14	0xbc23d70a	-0.01
15	0xbc23d70a	-0.01
16	0xbc23d70a	-0.01
17	0xbc23d70a	-0.01
18	0x3c23d70a	0.01
19	0x3c23d70a	0.01
20	0xbc23d70a	-0.01
21	0xbc23d70a	-0.01
22	0xbc004668	-0.007829286
23	0xbc23d70a	-0.01
24	0x3bf29fd5	0.0074043074
25	0xbc23d70a	-0.01
26	0x3c23d70a	0.01
27	0xbc23d70a	-0.01
28	0x3c23d70a	0.01
29	0x3c23d70a	0.01
30	0xbc23d70a	-0.01
31	0xbc23d70a	-0.01
32	0xbc23d70a	-0.01
33	0x3c23d70a	0.01
34	0xbc23d70a	-0.01
35	0xbc23d70a	-0.01
36	0x3c23d70a	0.01
37	0x3c23d70a	0.01
38	0xbc23d70a	-0.01
39	0xbc23d70a	-0.01
40	0xbc23d70a	-0.01
41	0x3b0cab01	0.002146423
42	0x3b221920	0.0024734214
43	0xbb284adc	-0.0025679385
44	0x3c23d70a	0.01
45	0x3c23d70a	0.01
46	0x3c23d70a	0.01
47	0x3c23d70a	0.01
48	0xbc23d70a	-0.01
49	0xbc23d70a	-0.01
50	0x3c23d70a	0.01
51	0xbc23d70a	-0.01
52	0xbb89aadb	-0.0042012758
53	0x3c23d70a	0.01
54	0x3c23d70a	0.01
55	0x3bffb916	0.0078040464
56	0xbc1fa1fe	-0.009743212
57	0x3c23d70a	0.01
58	0x3c23d70a	0.01
59	0xbb1e80ba	-0.0024185614
60	0xbba0438f	-0.004890866
61	0x3c23d70a	0.01
62	0xbc23d70a	-0.01
63	0xbb4f3ffd	-0.0031623833
64	0xbc23d70a	-0.01
65	0xbc23d70a	-0.01
66	0x3c23d70a	0.01
67	0xbc23d70a	-0.01
68	0x3c23d70a	0.01
69	0xbc22333b	-0.00989991
70	0xbc23d70a	-0.01
71	0xbc23d70a	-0.01
72	0xbc23d70a	-0.01
73	0x3b9dbae6	0.00481354
74	0xbbf589d8	-0.007493239
75	0xbc23d70a	-0.01
76	0x3c23d70a	0.01
77	0xbc23d70a	-0.01
78	0x3c023d8e	0.007949246
79	0xbc23d70a	-0.01
80	0x3b1b731d	0.0023719736
81	0x3c23d70a	0.01
82	0x3c23d70a	0.01
83	0x3c23d70a	0.01
84	0x3c23d70a	0.01
85	0x3c23d70a	0.01
86	0x3c23d70a	0.01
87	0xbc23d70a	-0.01
88	0xbbd51b26	-0.0065034805
89	0x3bd49f53	0.0064887195
90	0x3c23d70a	0.01
91	0xbc23d70a	-0.01
92	0xbc23d70a	-0.01
93	0xbc23d70a	-0.01
94	0xbc23d70a	-0.01
95	0x3c23d70a	0.01
96	0xbc23d70a	-0.01
97	0x3c23d70a	0.01
98	0x3c23d70a	0.01
99	0xbc23d70a	-0.01
100	0x3c23d70a	0.01
101	0xbc23d70a	-0.01
102	0x3c23d70a	0.01
103	0x3c23d70a	0.01
104	0xbc039699	-0.008031511
105	0x3c23d70a	0.01
106	0xbc23d70a	-0.01
107	0x3c23d70a	0.01
108	0xbc23d70a	-0.01
109	0xbc23d70a	-0.01
110	0x3b808a25	0.003922718
111	0xbc23d70a	-0.01
112	0x3c23d70a	0.01
113	0x3c23d70a	0.01
114	0x3c23d70a	0.01
115	0xbc23d70a	-0.01
116	0x3b9a75f4	0.004713768
117	0xbc23d70a	-0.01
118	0xbc23d70a	-0.01
119	0xbc23d70a	-0.01
120	0x3c23d70a	0.01
121	0x3af37dca	0.0018576917
122	0xbc23d70a	-0.01
123	0xbc23d70a	-0.01
124	0x3c23d70a	0.01
125	0xbc23d70a	-0.01
126	0xbc23d70a	-0.01
127	0x3ad80714	0.0016481602
128	0x3c1f7dd2	0.009734588
129	0x3c23d70a	0.01
130	0x3c23d70a	0.01
131	0x3c23d70a	0.01
132	0x3c23d70a	0.01
133	0xbbd388f5	-0.0064555355
134	0x3c216ab5	0.009852101
135	0x3c23d70a	0.01
136	0x3c23d70a	0.01
137	0x3c23d70a	0.01
138	0x3c23d70a	0.01
139	0x3c23d70a	0.01
140	0x3c23d70a	0.01
141	0x3c23d70a	0.01
142	0x3c23d70a	0.01
143	0xbc23d70a	-0.01
144	0x3c23d70a	0.01
145	0x3c23d70a	0.01
146	0x3c23d70a	0.01
147	0x3c23d70a	0.01
148	0xbc23d70a	-0.01
149	0x3c23d70a	0.01
150	0x3c21916a	0.00986133
151	0xbc04152d	-0.008061689
152	0x3c1f694d	0.0097296955
153	0x3c23d70a	0.01
154	0x3c23d70a	0.01
155	0x3bcfc891	0.006341048
156	0xbbd562dc	-0.006512029
157	0x3c23d70a	0.01
158	0x3c23d70a	0.01
159	0x3c23d70a	0.01
160	0x3c23d70a	0.01
161	0x3c23d70a	0.01
162	0xbc23d70a	-0.01
163	0x3c23d70a	0.01
164	0x3c23d70a	0.01
165	0xbbd409ed	-0.00647091
166	0x3c23d70a	0.01
167	0x3c23d70a	0.01
168	0x3c23d70a	0.01
169	0x3c23d70a	0.01
170	0x3c21622b	0.009850065
171	0x3c216946	0.009851759
172	0xbbd516e1	-0.0065029715
173	0xbbd97003	-0.0066356673
174	0x3c23d70a	0.01
175	0x3c23d70a	0.01
176	0x3c23d70a	0.01
177	0x3c23d70a	0.01
178	0x3c210364	0.009827469
179	0x3c23d70a	0.01
180	0xbbdefe80	-0.006805241
181	0x3c23d70a	0.01
182	0x3c23d70a	0.01
183	0x3c23d70a	0.01
184	0x3b8fab09	0.0043844027
185	0x3c23d70a	0.01
186	0xbbd94202	-0.006630183
187	0x3c23d70a	0.01
188	0x3c23d70a	0.01
189	0xbbd4aff6	-0.0064907027
190	0x3b8f9c9b	0.0043826825
191	0x3c23d70a	0.01
192	0x3b8f1a83	0.004367174
193	0x3c084f0a	0.008319626
194	0x3c23d70a	0.01
195	0x3c23d70a	0.01
196	0x3c23d70a	0.01
197	0x3c23d70a	0.01
198	0x3c23d70a	0.01
199	0x3c21f031	0.009883926
200	0x3c23d70a	0.01
201	0x3c23d70a	0.01
202	0xbbdf63ac	-0.0068173017
203	0xbc23d70a	-0.01
204	0x3c23d70a	0.01
205	0x3bf90890	0.0075998977
206	0x3c23d70a	0.01
207	0x3c23d70a	0.01
208	0x3c23d70a	0.01
209	0xbbd4745f	-0.006483599
210	0x3c23d70a	0.01
211	0xbbd565a2	-0.0065123597
212	0xbbd507ec	-0.0065011885
213	0xbbd6abc2	-0.006551237
214	0x3c23d70a	0.01
215	0x3c23d70a	0.01
216	0x3c23d70a	0.01
217	0x3c216ed1	0.009853081
218	0x3c23d70a	0.01
219	0xbbf431a1	-0.0074522053
220	0x3b8845bc	0.0041587036
221	0x3b800100	0.003906369
222	0x3c23d70a	0.01
223	0x3c23d70a	0.01
224	0x3c23d70a	0.01
225	0xbbd3b572	-0.006460839
226	0x3c23d70a	0.01
227	0x3c23d70a	0.01
228	0x3c23d70a	0.01
229	0x3c23d70a	0.01
230	0x3c23d70a	0.01
231	0xbbd4947c	-0.0064874273
232	0x3c23d70a	0.01
233	0x3c23d70a	0.01
234	0x3c23d70a	0.01
235	0xbbd415e3	-0.0064723357
236	0xbc23d70a	-0.01
237	0x3bd5bae7	0.0065225246
238	0x3c23d70a	0.01
239	0x3c23d70a	0.01
240	0x3c23d70a	0.01
241	0xbbd36413	-0.0064511388
242	0xbbdae0fb	-0.006679652
243	0x3c23d70a	0.01
244	0x3c2160d9	0.00984975
245	0x3c23d70a	0.01
246	0x3c23d70a	0.01
247	0xbc23d70a	-0.01
248	0xbbd404db	-0.0064703054
249	0x3c23d70a	0.01
250	0xbc23d70a	-0.01
251	0x3c23d70a	0.01
252	0x3c23d70a	0.01
253	0x3c23d70a	0.01
254	0x3c23d70a	0.01
255	0xbc1e122d	-0.009647888

fc2.bias f4 [128]
0	0xbbf9325d	-0.0076048807
1	0x3c23d70a	0.01
2	0xbbe7cec1	-0.0070742075
3	0xbbf52b9c	-0.0074820053
4	0x3bc9f2cb	0.0061629764
5	0xbc018c99	-0.007907056
6	0xbc23cb0a	-0.009997139
7	0xbc237863	-0.009977433
8	0x3c23d70a	0.01
9	0x3c23d70a	0.01
10	0x3c23d70a	0.01
11	0xbbf74b36	-0.0075468076
12	0xbc23a560	-0.009988159
13	0x3ba9649a	0.0051694633
14	0x3c23d70a	0.01
15	0xbbefc7cb	-0.0073175183
16	0xbbf049f7	-0.007333036
17	0xbb69656c	-0.003561343
18	0xbb0b9057	-0.002129575
19	0x3baacdbc	0.0052125137
20	0xbc238010	-0.009979263
21	0xbbe72859	-0.0070543704
22	0x3b8d2d5e	0.0043083867
23	0x3bb6995e	0.005572482
24	0x3c23d70a	0.01
25	0x3ba89640	0.0051448643
26	0x3c23d70a	0.01
27	0xbb2559f4	-0.0025230618
28	0x3b566b8e	0.0032717916
29	0xbc23a83c	-0.009988841
30	0xbbf98e62	-0.0076158503
31	0xbbf470a1	-0.0074597155
32	0xbbf88db2	-0.007585251
33	0x3ba81e82	0.00513059
34	0x3b9a38db	0.0047064847
35	0x3c23d70a	0.01
36	0x3b8b2ab7	0.0042470354
37	0xba754ae1	-0.0009357166
38	0xbc234212	-0.009964483
39	0xbc23c268	-0.0099950805
40	0x3ba6b999	0.005088043
41	0x3c23d70a	0.01
42	0x3b794a5a	0.0038038702
43	0x3c23d70a	0.01
44	0x3c23d70a	0.01
45	0x3c23d70a	0.01
46	0xba295163	-0.0006458966
47	0x3bc441f3	0.005989307
48	0xbc23d146	-0.009998625
49	0x3c23d70a	0.01
50	0x3c23d70a	0.01
51	0xba56aee1	-0.0008189511
52	0xbac44a7b	-0.001497581
53	0xbc23d70a	-0.01
54	0xbc23c82e	-0.009996457
55	0x3c23d70a	0.01
56	0xbbeaf245	-0.007169994
57	0x3c23d70a	0.01
58	0xbc23ccfd	-0.0099976035
59	0xbbf949a6	-0.0076076565
60	0x3c23d70a	0.01
61	0xbc012359	-0.007881963
62	0xbc23c114	-0.009994764
63	0xbc23c911	-0.009996668
64	0xbbf737f6	-0.007544513
65	0xbc23d4f6	-0.009999504
66	0xbb8af648	-0.004240785
67	0x3c23d70a	0.01
68	0x3b98bd54	0.0046612415
69	0x3c23d70a	0.01
70	0x3a926fcd	0.0011172235
71	0x3c23d70a	0.01
72	0x3b9b5101	0.004739881
73	0x3c23d70a	0.01
74	0x3bb0a974	0.005391294
75	0xbbfc274e	-0.007695115
76	0xbb1513c5	-0.002274738
77	0xbc23ccff	-0.009997605
78	0xbc23aea6	-0.00999037
79	0xbc239861	-0.00998506
80	0xbc06ceb1	-0.00822799
81	0x3b58f00d	0.0033102066
82	0x3c23d70a	0.01
83	0xba97f7e0	-0.0011594258
84	0xbc234798	-0.0099658
85	0xbaafd6fa	-0.0013415508
86	0x3c23d70a	0.01
87	0xbc23c552	-0.009995775
88	0x3bb7ab24	0.0056051183
89	0x3b982b79	0.004643854
90	0x3c23d70a	0.01
91	0x3a11f5d4	0.0005567942
92	0xbbf5161b	-0.007479442
93	0x3c23d70a	0.01
94	0xbc23d70a	-0.01
95	0xbc040d56	-0.00805982
96	0xbbf9c7a3	-0.0076226755
97	0x3c23d70a	0.01
98	0x3b658a25	0.0035024968
99	0x3b98fed0	0.004669048
100	0xbbf803f0	-0.0075688288
101	0x3b5c2746	0.0033592745
102	0xbac16bfa	-0.0014756911
103	0x3b9569b2	0.004559719
104	0xbbef407e	-0.0073013892
105	0x3c23d70a	0.01
106	0xbc23c747	-0.009996242
107	0xbc23d3c2	-0.009999217
108	0xbb69cd9c	-0.0035675531
109	0xbbfd4300	-0.0077289343
110	0xbc231872	-0.009954559
111	0xbb0768d9	-0.002066186
112	0xbc237107	-0.009975678
113	0x3c23d70a	0.01
114	0x3ba79d64	0.005115198
115	0x3b83d93b	0.0040236986
116	0xbc23d2b2	-0.009998964
117	0x3b94e60b	0.004544025
118	0xbc23bd36	-0.009993842
119	0x3b93939c	0.0045036804
120	0x3c23d70a	0.01
121	0x3c23d70a	0.01
122	0x3c23d70a	0.01
123	0x3ba2c00d	0.004966742
124	0x3c23d70a	0.01
125	0xbc04ecac	-0.008113068
126	0x3b9bba13	0.0047524064
127	0x3c23d70a	0.01

bn2.weight f4 [128]
0	0x3c23d70a	0.01
1	0x3b0cd987	0.002149196
2	0x3c23d70a	0.01
3	0x3c23d70a	0.01
4	0x3c23d70a	0.01
5	0x3c23d70a	0.01
6	0x3c029812	0.007970827
7	0x3bff2579	0.0077864495
8	0x3b18008b	0.0023193683
9	0x3b0ea065	0.0021763083
10	0x3b121e93	0.0022296056
11	0x3c23d70a	0.01
12	0x3bd7ee4a	0.0065896856
13	0x3c23d70a	0.01
14	0x3b160183	0.0022889085
15	0x3c23d70a	0.01
16	0x3c23d70a	0.01
17	0x3c23d70a	0.01
18	0x3c22a0eb	0.009926061
19	0x3c23d70a	0.01
20	0x3bfd52fd	0.0077308402
21	0x3c23d70a	0.01
22	0x3c23d70a	0.01
23	0x3c23d70a	0.01
24	0x3b07e70c	0.002073708
25	0x3c23d70a	0.01
26	0x3b1b3cb0	0.0023687296
27	0x3c23d70a	0.01
28	0x3c23d70a	0.01
29	0x3c0282b9	0.007965737
30	0x3c23d70a	0.01
31	0x3c23d70a	0.01
32	0x3c23d70a	0.01
33	0x3c23d70a	0.01
34	0x3c23d70a	0.01
35	0x3b179d44	0.002313451
36	0x3c23d70a	0.01
37	0x3c23d70a	0.01
38	0x3be85647	0.007090363
39	0x3c037289	0.008022913
40	0x3c23d70a	0.01
41	0x3b0571b4	0.0020361962
42	0x3c23d70a	0.01
43	0x3b21fbd9	0.0024716763
44	0x3b1b81bf	0.0023728458
45	0x3b0f933b	0.0021907825
46	0x3c23d70a	0.01
47	0x3c23d70a	0.01
48	0x3be14e45	0.0068757855
49	0x3b1a2799	0.0023522137
50	0x3b21b866	0.002467656
51	0x3c23d70a	0.01
52	0x3c23d70a	0.01
53	0x3bfff8b3	0.0078116297
54	0x3c07b045	0.008281772
55	0x3b1826ac	0.002321641
56	0x3c23d70a	0.01
57	0x3b193bf6	0.0023381687
58	0x3be19c74	0.0068851057
59	0x3c23d70a	0.01
60	0x3b194184	0.0023384998
61	0x3c23d70a	0.01
62	0x3bf29ae7	0.0074037197
63	0x3bf2278e	0.007389969
64	0x3c23d70a	0.01
65	0x3be451d4	0.0069677625
66	0x3c0d52b2	0.008625673
67	0x3b142a03	0.0022608049
68	0x3c23d70a	0.01
69	0x3b110c24	0.002213248
70	0x3c23d70a	0.01
71	0x3b01aaab	0.0019785564
72	0x3c23d70a	0.01
73	0x3b132e73	0.0022458106
74	0x3c23d70a	0.01
75	0x3c23d70a	0.01
76	0x3c22d372	0.009938108
77	0x3c024625	0.007951294
78	0x3c002992	0.007822411
79	0x3be702cc	0.007049894
80	0x3c23d70a	0.01
81	0x3c23d70a	0.01
82	0x3b163ca0	0.002292432
83	0x3c23d70a	0.01
84	0x3bf9c643	0.0076225116
85	0x3c23c28e	0.009995116
86	0x3b0a39b2	0.0021091518
87	0x3bf9e598	0.0076262467
88	0x3c23d70a	0.01
89	0x3c23d70a	0.01
90	0x3b0220b2	0.0019855914
91	0x3c23d70a	0.01
92	0x3c23d70a	0.01
93	0x3b00a942	0.0019632136
94	0x3c02ae02	0.007976057
95	0x3c0ae820	0.0084781945
96	0x3c23d70a	0.01
97	0x3b21e07c	0.0024700454
98	0x3c23d70a	0.01
99	0x3c23d70a	0.01
100	0x3c23d70a	0.01
101	0x3c23d70a	0.01
102	0x3c23d70a	0.01
103	0x3c23d70a	0.01
104	0x3c23d70a	0.01
105	0x3af780a9	0.0018882948
106	0x3c01c52a	0.007920543
107	0x3bf7dc49	0.007564102
108	0x3c23d70a	0.01
109	0x3c23d70a	0.01
110	0x3bc7fe1a	0.0061032893
111	0x3c20fe0f	0.009826197
112	0x3c04f9d5	0.008116205
113	0x3b1be8a1	0.002378978
114	0x3c23d70a	0.01
115	0x3c23d70a	0.01
116	0x3c08a159	0.0083392495
117	0x3c23d70a	0.01
118	0x3c0e4574	0.008683551
119	0x3c23d70a	0.01
120	0x3b0837f9	0.0020785315
121	0x3b16b21e	0.002299435
122	0x3b0f87aa	0.002190093
123	0x3c23d70a	0.01
124	0x3b1efdde	0.0024260203
125	0x3c0a8e3f	0.008456766
126	0x3c23d70a	0.01
127	0x3b1b113f	0.0023661403

bn2.bias f4 [128]
0	0x3c23d70a	0.01
1	0xbc04947c	-0.008092042
2	0x3c23d70a	0.01
3	0x3c23d70a	0.01
4	0x3c23d70a	0.01
5	0x3c23d70a	0.01
6	0xbb29eadf	-0.0025927348
7	0xbb4a7196	-0.0030890456
8	0xbc09bb9f	-0.008406549
9	0xbc034ec3	-0.008014384
10	0xbc06c98b	-0.0082267625
11	0x3c23d70a	0.01
12	0xbb729321	-0.0037013965
13	0x3c23d70a	0.01
14	0xbc06dbfe	-0.008231161
15	0x3c23d70a	0.01
16	0x3c23d70a	0.01
17	0x3c23d70a	0.01
18	0x3c23d70a	0.01
19	0x3c23d70a	0.01
20	0xbb5ef511	-0.0034020583
21	0x3c23d70a	0.01
22	0x3c23d70a	0.01
23	0x3c23d70a	0.01
24	0xbc011499	-0.007878446
25	0x3c23d70a	0.01
26	0xbc08bb35	-0.008345415
27	0x3c23d70a	0.01
28	0x3c23d70a	0.01
29	0xbb4dd98b	-0.0031410183
30	0x3c23d70a	0.01
31	0x3c23d70a	0.01
32	0x3c23d70a	0.01
33	0x3c23d70a	0.01
34	0x3c23d70a	0.01
35	0xbbfcacd9	-0.0077110347
36	0x3c23d70a	0.01
37	0x3c23d70a	0.01
38	0xbb6c1e7b	-0.003602891
39	0xbb19e88b	-0.0023484554
40	0x3c23d70a	0.01
41	0xbc065187	-0.008198149
42	0x3c23d70a	0.01
43	0xbc0a3564	-0.008435581
44	0xbc0949c3	-0.008379403
45	0xbc08b419	-0.00834372
46	0x3c23d70a	0.01
47	0x3c23d70a	0.01
48	0xbb90569b	-0.0044048554
49	0xbc079eb6	-0.008277586
50	0xbc0ae54d	-0.008477521
51	0x3c23d70a	0.01
52	0x3c23d70a	0.01
53	0xbb361ed1	-0.0027789364
54	0xbb043ec1	-0.0020179006
55	0xbc04f396	-0.008114716
56	0x3c23d70a	0.01
57	0xbc0bf718	-0.008542798
58	0xbb8b9b3b	-0.0042604483
59	0x3c23d70a	0.01
60	0xbc0823b8	-0.008309297
61	0x3c23d70a	0.01
62	0xbb72c7eb	-0.003704543
63	0xbb76b9a1	-0.0037647265
64	0x3c23d70a	0.01
65	0xbb6d44c6	-0.0036204322
66	0xbb1feaaa	-0.0024401345
67	0xbc08197e	-0.008306859
68	0x3c23d70a	0.01
69	0xbc01e22d	-0.00792746
70	0x3c23d70a	0.01
71	0xbc02a394	-0.00797357
72	0x3c23d70a	0.01
73	0xbc065681	-0.008199335
74	0x3c23d70a	0.01
75	0x3c23d70a	0.01
76	0x3c23d70a	0.01
77	0xbb3911ab	-0.002823929
78	0xbb2cb5d9	-0.0026353507
79	0xbb6ac852	-0.0035824967
80	0x3c23d70a	0.01
81	0x3c23d70a	0.01
82	0xbc0039f6	-0.007826319
83	0x3c23d70a	0.01
84	0xbb5bb3ee	-0.0033523994
85	0x3c23d70a	0.01
86	0xbc068270	-0.00820981
87	0xbb50ae7d	-0.0031842284
88	0x3c23d70a	0.01
89	0x3c23d70a	0.01
90	0xbc043126	-0.0080683585
91	0x3c23d70a	0.01
92	0x3c23d70a	0.01
93	0xbc02012b	-0.007934849
94	0xbb212195	-0.0024586667
95	0xbb1d82f8	-0.0024034362
96	0x3c23d70a	0.01
97	0xbc0baa39	-0.008524471
98	0x3c23d70a	0.01
99	0x3c23d70a	0.01
100	0x3c23d70a	0.01
101	0x3c23d70a	0.01
102	0x3c23d70a	0.01
103	0x3c23d70a	0.01
104	0x3c23d70a	0.01
105	0xbc00028d	-0.007813108
106	0xbb2b7771	-0.0026163722
107	0xbb6855c8	-0.003545152
108	0x3c23d70a	0.01
109	0x3c23d70a	0.01
110	0xbb8cdd1f	-0.0042988206
111	0x3c23d70a	0.01
112	0xbb49def8	-0.0030803066
113	0xbc08eef0	-0.008357748
114	0x3c23d70a	0.01
115	0x3c23d70a	0.01
116	0xbb183759	-0.002322635
117	0x3c23d70a	0.01
118	0xbb16a892	-0.002298866
119	0x3c23d70a	0.01
120	0xbc029eb6	-0.00797241
121	0xbc0d03f9	-0.008606904
122	0xbc0328e6	-0.008005356
123	0x3c23d70a	0.01
124	0xbc0baae2	-0.008524628
125	0xbb2aa63b	-0.0026039022
126	0x3c23d70a	0.01
127	0xbc07e1cb	-0.008293579

bn2.running_mean f4 [128]
0	0xbbe8d504	-0.0071054716
1	0x3c7ed2b8	0.015553169
2	0xbc162345	-0.009163682
3	0xbc1e7d9a	-0.0096735
4	0x3bd6fa6e	0.0065606153
5	0xbbf4bfd2	-0.007469156
6	0xbc2f75b2	-0.010709213
7	0xbc2299be	-0.00992435
8	0x3c7d7f22	0.015472205
9	0x3c5dd870	0.013540372
10	0x3c835007	0.016029371
11	0xbc210057	-0.009826741
12	0xbc189d2a	-0.009314815
13	0x3bbb554d	0.0057169558
14	0x3c609f01	0.0137097845
15	0xbc1e133b	-0.00964814
16	0xbc1b983f	-0.0094967475
17	0xbbbdaf7b	-0.005788741
18	0xb9cea4d3	-0.00039414185
19	0x3bbc6fdc	0.0057506394
20	0xbc2d07d8	-0.010560952
21	0xbc1635aa	-0.009168068
22	0x3ba071f4	0.004896397
23	0x3bc5d67e	0.0060375324
24	0x3c7eb4af	0.015546008
25	0x3bb8f72a	0.0056446986
26	0x3c767943	0.0150435595
27	0xbbd3c7c0	-0.006463021
28	0x3b76392b	0.0037570696
29	0xbc2920dd	-0.010322777
30	0xbbe99dd5	-0.0071294107
31	0xbbe4631a	-0.0069698216
32	0xbbe59a1c	-0.0070068967
33	0x3bba856d	0.005692175
34	0x3ba441d5	0.0050127306
35	0x3c7e92ca	0.015537927
36	0x3b9e9b44	0.0048402864
37	0xbbaef06a	-0.005338718
38	0xbc1ec1d7	-0.00968977
39	0xbc3eb224	-0.011639152
40	0x3bb57faa	0.0055389004
41	0x3c7fbf1f	0.015609532
42	0x3b8bd11c	0.004266871
43	0x3c81476c	0.015781127
44	0x3c82eaf3	0.015981173
45	0x3c812201	0.015763285
46	0xbbae0210	-0.0053103045
47	0x3bd6d59b	0.0065562255
48	0xbc190c87	-0.009341366
49	0x3c7c9b06	0.01541782
50	0x3c7e6c0c	0.01552869
51	0xbbaa2d6d	-0.0051934035
52	0xbbb0d31b	-0.0053962595
53	0xbc2df011	-0.010616318
54	0xbc2805d8	-0.0102552995
55	0x3c83b4c3	0.016077405
56	0xbc199d4b	-0.0093758805
57	0x3c748d56	0.014926275
58	0xbc15f7f3	-0.009153354
59	0xbbe80334	-0.00708046
60	0x3c810708	0.015750423
61	0xbc269cf2	-0.010169255
62	0xbc339e4f	-0.010963037
63	0xbc2a0a29	-0.010378399
64	0xbbe69ec2	-0.0070379684
65	0xbc1d1e4a	-0.009589741
66	0xbb6dce59	-0.0036286323
67	0x3c80e69b	0.015734961
68	0x3ba82aaf	0.0051320414
69	0x3c7d5993	0.015463251
70	0x3ad94419	0.0016576081
71	0x3c810a55	0.015751997
72	0x3baafe97	0.0052183378
73	0x3c7ff4ba	0.015622312
74	0x3bbfc931	0.0058528413
75	0xbbeaa708	-0.007161025
76	0xbb20420b	-0.0024453427
77	0xbc256c24	-0.0100965835
78	0xbc48ae7f	-0.012248634
79	0xbc2282db	-0.009918894
80	0xbbfb6416	-0.0076718433
81	0x3b77e647	0.0037826465
82	0x3c736dd7	0.014857731
83	0xbbb1ebaa	-0.0054297047
84	0xbc28ae3e	-0.010295449
85	0xba6d26ba	-0.0009046603
86	0x3c83f10b	0.01610615
87	0xbc41e804	-0.011835102
88	0x3bc8098d	0.006104654
89	0x3ba8ae70	0.0051477477
90	0x3c801e4a	0.015639443
91	0x3a932bc5	0.0011228254
92	0xbbe40cfd	-0.006959556
93	0x3c7afb8a	0.015318761
94	0xbc2b09a0	-0.0104393065
95	0xbc0bf75c	-0.008542862
96	0xbbe7d28e	-0.0070746606
97	0x3c735f2d	0.014854235
98	0x3b818564	0.003952669
99	0x3ba55e88	0.0050466694
100	0xbc20ff98	-0.009826563
101	0x3b7a3280	0.0038177073
102	0xbbb18ba3	-0.0054182573
103	0x3ba3d9f1	0.005000346
104	0xbc19fe2e	-0.00939898
105	0x3c8694fe	0.016428467
106	0xbc23d0eb	-0.00999854
107	0xbc2d837e	-0.010590432
108	0xbbc3fb99	-0.0059809205
109	0xbbeae528	-0.007168431
110	0xbc0cee7f	-0.008601784
111	0xbafa0c9f	-0.0019077248
112	0xbc12d35a	-0.008961523
113	0x3c779f12	0.015113609
114	0x3bb89406	0.00563288
115	0x3b929353	0.004473129
116	0xbc2a0822	-0.010377916
117	0x3ba67666	0.005080032
118	0xbc357f03	-0.011077645
119	0x3bbf497d	0.005837618
120	0x3c86410c	0.016388439
121	0x3c810bfe	0.015752789
122	0x3c78110f	0.015140786
123	0x3bb334f8	0.005468961
124	0x3c75ee3e	0.015010415
125	0xbc1b34c4	-0.0094730295
126	0x3badc420	0.005302921
127	0x3c83d273	0.016091561

bn2.running_var f4 [128]
0	0x381bc75a	3.714054e-05
1	0x37523977	1.2530355e-05
2	0x379f4e17	1.899064e-05
3	0x379ca465	1.8673201e-05
4	0x381b20f1	3.698556e-05
5	0x3819f68a	3.670765e-05
6	0x33a2d637	7.582678e-08
7	0x34a95c02	3.1545648e-07
8	0x373ab9be	1.112971e-05
9	0x37890439	1.6333639e-05
10	0x3766bea0	1.3753452e-05
11	0x37997a39	1.8295936e-05
12	0x3393e393	6.8866164e-08
13	0x38197606	3.658796e-05
14	0x378d31e3	1.683174e-05
15	0x379a8939	1.842213e-05
16	0x379f5c83	1.8997356e-05
17	0x379bc7b9	1.8570443e-05
18	0x343c44d1	1.75339e-07
19	0x3819fd8b	3.6714173e-05
20	0x334c92c0	4.763092e-08
21	0x379e0ff0	1.884249e-05
22	0x38197a4d	3.6591944e-05
23	0x381acada	3.690538e-05
24	0x377c4946	1.5037431e-05
25	0x3819e0a9	3.6687274e-05
26	0x3756543c	1.2775006e-05
27	0x37836597	1.5663723e-05
28	0x381a3d9a	3.6773832e-05
29	0x3418b2c6	1.422114e-07
30	0x381968fc	3.6575817e-05
31	0x3819ccb4	3.6668687e-05
32	0x3819b709	3.6648507e-05
33	0x381b1359	3.69729e-05
34	0x381c843c	3.731645e-05
35	0x37336f12	1.0695092e-05
36	0x3819d69a	3.6677906e-05
37	0x376fc85b	1.4292159e-05
38	0x343cb8f9	1.7576157e-07
39	0x34e343f9	4.2331502e-07
40	0x381c00e5	3.719413e-05
41	0x3755f780	1.2753415e-05
42	0x381d3190	3.7477876e-05
43	0x376a6fe8	1.3973542e-05
44	0x375d4cdd	1.3190523e-05
45	0x3750f3e7	1.2454554e-05
46	0x3756b45f	1.279739e-05
47	0x381a1f76	3.674576e-05
48	0x34446353	1.8290056e-07
49	0x373d71af	1.1291747e-05
50	0x373cb453	1.1247658e-05
51	0x375011d3	1.2401916e-05
52	0x37726eea	1.4450148e-05
53	0x34d12df6	3.8962725e-07
54	0x340f74f0	1.3360454e-07
55	0x373a23ff	1.1094845e-05
56	0x379d2653	1.8733705e-05
57	0x37798525	1.4872557e-05
58	0x338089a6	5.9855026e-08
59	0x381a2089	3.6746762e-05
60	0x37590f2a	1.2937739e-05
61	0x379b8390	1.8538703e-05
62	0x34315ed0	1.6518902e-07
63	0x340b6e2b	1.2985463e-07
64	0x38193a7c	3.653251e-05
65	0x33fa5fc1	1.165895e-07
66	0x33d71208	1.00149975e-07
67	0x374e79eb	1.2306943e-05
68	0x381a8ed3	3.6849477e-05
69	0x37432f00	1.1633849e-05
70	0x38197f89	3.659682e-05
71	0x3757e7e5	1.2868991e-05
72	0x381985c2	3.6602614e-05
73	0x3758f8ab	1.2932501e-05
74	0x381a5fc3	3.6805646e-05
75	0x38191c33	3.6504305e-05
76	0x351f42c5	5.932928e-07
77	0x3495512f	2.7812482e-07
78	0x343d50b7	1.763136e-07
79	0x35051f04	4.9591495e-07
80	0x381935d9	3.6528192e-05
81	0x3819bf52	3.6656224e-05
82	0x374bd2b6	1.2148803e-05
83	0x3762dcee	1.3522089e-05
84	0x342ba5cc	1.5985933e-07
85	0x35472659	7.418908e-07
86	0x375a6c55	1.3019036e-05
87	0x35317f79	6.6123135e-07
88	0x381a3b63	3.677177e-05
89	0x381ad948	3.691882e-05
90	0x3780ae92	1.534008e-05
91	0x3819f889	3.670951e-05
92	0x381953ce	3.655609e-05
93	0x3788d4be	1.631153e-05
94	0x33abff4c	8.009246e-08
95	0x33560bba	4.9836423e-08
96	0x381903b2	3.6481484e-05
97	0x3762f767	1.3528253e-05
98	0x381acd24	3.6907513e-05
99	0x381a7377	3.6823996e-05
100	0x379a9f3c	1.843238e-05
101	0x381ca02a	3.7342463e-05
102	0x37794f93	1.4860084e-05
103	0x381b53ff	3.7033107e-05
104	0x379f7a1f	1.9011144e-05
105	0x37533f4e	1.2591319e-05
106	0x34015b27	1.2047222e-07
107	0x348287f9	2.431332e-07
108	0x379b3f7a	1.8506998e-05
109	0x38199bc7	3.662312e-05
110	0x35113834	5.4098496e-07
111	0x3304b6ae	3.089979e-08
112	0x3447d347	1.8610181e-07
113	0x3758bd00	1.2918608e-05
114	0x38190af6	3.648825e-05
115	0x3819a247	3.6629175e-05
116	0x340699b4	1.253564e-07
117	0x381a0ca7	3.6728245e-05
118	0x33e7f5a1	1.08014554e-07
119	0x382c4bfc	4.107876e-05
120	0x3755f66d	1.2753165e-05
121	0x3759d9de	1.2984934e-05
122	0x3767362e	1.3781288e-05
123	0x381902e8	3.648075e-05
124	0x376475f5	1.3617323e-05
125	0x3459047c	2.0211331e-07
126	0x381be2c8	3.7166086e-05
127	0x37354a1f	1.0805698e-05

fc3.weight f4 [1, 128]
0	0xbc23d70a	-0.01
1	0x3c23d70a	0.01
2	0xbc23d70a	-0.01
3	0xbc23d70a	-0.01
4	0xbc23d70a	-0.01
5	0xbc23d70a	-0.01
6	0x3bf9d67d	0.007624446
7	0x3c11d434	0.008900691
8	0x3c23d70a	0.01
9	0x3c23d70a	0.01
10	0x3c23d70a	0.01
11	0xbc23d70a	-0.01
12	0x3c2009c4	0.009767953
13	0xbc23d70a	-0.01
14	0x3c23d70a	0.01
15	0xbc23d70a	-0.01
16	0xbc23d70a	-0.01
17	0xbc23d70a	-0.01
18	0xbc23d70a	-0.01
19	0xbc23d70a	-0.01
20	0x3c111dd4	0.008857209
21	0xbc23d70a	-0.01
22	0xbc23d70a	-0.01
23	0xbc23d70a	-0.01
24	0x3c23d70a	0.01
25	0xbc23d70a	-0.01
26	0x3c23d70a	0.01
27	0xbc23d70a	-0.01
28	0xbc23d70a	-0.01
29	0x3c1cfae5	0.009581302
30	0xbc23d70a	-0.01
31	0xbc23d70a	-0.01
32	0xbc23d70a	-0.01
33	0xbc23d70a	-0.01
34	0xbc23d70a	-0.01
35	0x3c23d70a	0.01
36	0xbc23d70a	-0.01
37	0xbc23d70a	-0.01
38	0x3c19e132	0.00939207
39	0x3bbc54a8	0.0057473965
40	0xbc23d70a	-0.01
41	0x3c23d70a	0.01
42	0xbc23d70a	-0.01
43	0x3c23d70a	0.01
44	0x3c23d70a	0.01
45	0x3c23d70a	0.01
46	0xbc23d70a	-0.01
47	0xbc23d70a	-0.01
48	0x3c10ec49	0.008845397
49	0x3c23d70a	0.01
50	0x3c23d70a	0.01
51	0xbc23d70a	-0.01
52	0xbc23d70a	-0.01
53	0x3c0bb848	0.008527823
54	0x3c0e2174	0.008674968
55	0x3c23d70a	0.01
56	0xbc23d70a	-0.01
57	0x3c23d70a	0.01
58	0x3c0b9ad3	0.0085208
59	0xbc23d70a	-0.01
60	0x3c23d70a	0.01
61	0xbc23d70a	-0.01
62	0x3c100eea	0.008792618
63	0x3c084efa	0.008319611
64	0xbc23d70a	-0.01
65	0x3c031807	0.008001334
66	0x3c1c7ca6	0.009551203
67	0x3c23d70a	0.01
68	0xbc23d70a	-0.01
69	0x3c23d70a	0.01
70	0xbc23d70a	-0.01
71	0x3c23d70a	0.01
72	0xbc23d70a	-0.01
73	0x3c23d70a	0.01
74	0xbc23d70a	-0.01
75	0xbc23d70a	-0.01
76	0xbc23d70a	-0.01
77	0x3c0ca3ce	0.008583976
78	0x3c184cb4	0.009295631
79	0x3bd791a5	0.0065786415
80	0xbc23d70a	-0.01
81	0xbc23d70a	-0.01
82	0x3c23d70a	0.01
83	0xbc23d70a	-0.01
84	0x3c0b46a1	0.008500726
85	0xbc23d70a	-0.01
86	0x3c23d70a	0.01
87	0x3c2175df	0.009854763
88	0xbc23d70a	-0.01
89	0xbc23d70a	-0.01
90	0x3c23d70a	0.01
91	0xbc23d70a	-0.01
92	0xbc23d70a	-0.01
93	0x3c23d70a	0.01
94	0x3c0eabe0	0.00870797
95	0x3c1623a8	0.009163775
96	0xbc23d70a	-0.01
97	0x3c23d70a	0.01
98	0xbc23d70a	-0.01
99	0xbc23d70a	-0.01
100	0xbc23d70a	-0.01
101	0xbc23d70a	-0.01
102	0xbc23d70a	-0.01
103	0xbc23d70a	-0.01
104	0xbc23d70a	-0.01
105	0x3c23d70a	0.01
106	0x3c0bba4b	0.008528302
107	0x3c0911c5	0.008366053
108	0xbc23d70a	-0.01
109	0xbc23d70a	-0.01
110	0x3c1980c5	0.00936908
111	0xbc23d70a	-0.01
112	0x3c1cabb9	0.009562426
113	0x3c23d70a	0.01
114	0xbc23d70a	-0.01
115	0xbc23d70a	-0.01
116	0x3c109acc	0.008825969
117	0xbc23d70a	-0.01
118	0x3c1a3e3c	0.009414252
119	0xbc23d70a	-0.01
120	0x3c23d70a	0.01
121	0x3c23d70a	0.01
122	0x3c23d70a	0.01
123	0xbc23d70a	-0.01
124	0x3c23d70a	0.01
125	0x3c185b40	0.009299099
126	0xbc23d70a	-0.01
127	0x3c23d70a	0.01
