10_Models/Results_SiouxFalls/WGAN_Freeflow_discriminator_best.pth (torch, 77978 bytes, 13 tensors)

fc1.weight f4 [128, 2]
00000000: 0ad7 23bc 6ade 893a 0ad7 233c afdd ecba
00000010: 0ad7 23bc 8344 abba 0ad7 233c 98bd c83a
00000020: 0ad7 23bc b4d6 a8ba 0ad7 23bc a85c b03a
00000030: 0ad7 23bc fcd7 9c3a 4003 a339 0ad7 233c
00000040: 0ad7 23bc a373 abba 0ad7 23bc 4111 4c3a
00000050: 0ad7 233c c794 c83a 0ad7 233c ddc1 caba
00000060: 0ad7 23bc 82cd 993a 0b76 9b39 0ad7 233c
00000070: 0ad7 23bc 453b 77ba 0ad7 23bc ce40 acba
00000080: 0ad7 23bc a778 4f3a 0ad7 23bc b489 983a
00000090: 0ad7 23bc 1c35 a73a 0ad7 23bc 8540 aaba
000000a0: 0ad7 233c 8e6e d4ba 0ad7 23bc cc38 90ba
000000b0: 0ad7 23bc a60c 9a3a 0ad7 233c b59c c83a
000000c0: 0ad7 233c 9b8b d0ba 0ad7 23bc 668b abba
000000d0: 0ad7 233c 5c60 c83a 0ad7 23bc 0433 6c3a
000000e0: 0ad7 233c 694d c83a 0ad7 233c 2c82 d8ba
000000f0: 0ad7 23bc cd40 acba 0ad7 233c ea9d d6ba
00000100: 0ad7 23bc 74cf 853a 0ad7 233c a73a cbba
00000110: 0ad7 23bc 6b4a 353a 0ad7 233c 81e6 ddba
00000120: 0ad7 233c 0a28 d2ba 0ad7 233c 9e5f caba
00000130: 0ad7 23bc 4e0e acba 0ad7 233c 1058 c83a
00000140: 0ad7 233c cf94 c83a 0ad7 23bc a8b2 abba
00000150: 0ad7 23bc 9b6a 2e3a 0ad7 233c 077d caba
00000160: 0ad7 233c 83ae d0ba 0ad7 233c dd94 c83a
00000170: 0ad7 23bc a304 9e3a 0ad7 23bc df11 a8ba
00000180: 0ad7 23bc 57a7 abba 0ad7 233c a3b8 c83a
00000190: 0ad7 23bc 80b6 aaba 0ad7 23bc 81ad abba
000001a0: 0ad7 23bc a273 abba 0ad7 233c 06a9 ceba
000001b0: 0ad7 23bc 6add afba 0ad7 23bc f4f9 293a
000001c0: 0ad7 23bc cd40 acba 0ad7 233c e794 c83a
000001d0: 0ad7 23bc c203 b1ba 0ad7 23bc 446b a9ba
000001e0: 0ad7 23bc 1ccd 083a 0ad7 23bc 3176 5c3a
000001f0: 0ad7 23bc de35 703a 0ad7 233c 6e84 d7ba
00000200: 0ad7 23bc 02a4 9d3a 0ad7 23bc fc86 4a3a
00000210: 0ad7 23bc 886f 84ba 0ad7 233c e66d dbba
00000220: 0ad7 23bc ad61 9d3a 0ad7 23bc 7aa8 0d3a
00000230: 0ad7 23bc c19e b0ba 0ad7 23bc 4e0e acba
00000240: 0ad7 233c 304a c83a 0ad7 23bc 667a adba
00000250: 0ad7 23bc 0134 303a 0ad7 23bc ac5a 713a
00000260: 0ad7 23bc f2ac ad3a 0ad7 23bc 60a8 a9ba
00000270: 0ad7 23bc 29eb 463a 0ad7 23bc ce82 abba
00000280: 0ad7 23bc d938 913a 0ad7 23bc d2d2 3b3a
00000290: 0ad7 233c bb3a d0ba 0ad7 23bc d681 903a
000002a0: 0ad7 23bc 4aeb 4b3a 0ad7 233c 2c61 c83a
000002b0: 0ad7 23bc ce40 acba 0ad7 233c 978d cfba
000002c0: 0ad7 23bc 6ddd 293a 0ad7 23bc 55a7 abba
000002d0: 0ad7 23bc 79f1 433a 0ad7 23bc 4b45 8f3a
000002e0: 0ad7 23bc f65a 383a 0ad7 23bc ce40 acba
000002f0: 0ad7 23bc 6ab6 4e3a 0ad7 233c e93b eaba
00000300: 0ad7 233c 49a2 c83a 0ad7 23bc 69fd a43a
00000310: 0ad7 233c 40a5 d6ba 0ad7 23bc ebd7 a9ba
00000320: 0ad7 23bc 0503 6f3a 0ad7 23bc 168a 973a
00000330: 0ad7 233c e80b d0ba 0ad7 233c e483 c9ba
00000340: 0ad7 23bc d2f2 903a 0ad7 23bc de9e 9d3a
00000350: 0ad7 233c 77af f2ba 0ad7 23bc ae66 923a
00000360: 0ad7 23bc db19 5f3a 0ad7 233c 8697 c83a
00000370: 0ad7 233c f676 c5ba 0ad7 233c b9d1 d3ba
00000380: 0ad7 23bc dd0d aaba 0ad7 233c c894 c83a
00000390: 0ad7 23bc fa29 abba 0ad7 23bc 4c0e acba
000003a0: 0ad7 23bc 2e57 97ba 0ad7 233c 7151 c8ba
000003b0: 0ad7 23bc 7eca 913a 0ad7 233c 0dc3 c83a
000003c0: 0ad7 233c 868b d5ba 0ad7 23bc 8b52 303a
000003d0: 0ad7 233c 1c10 d3ba 0ad7 233c 60b2 c83a
000003e0: c87a 9b39 0ad7 233c 0ad7 23bc 068c abba
000003f0: 0ad7 233c 25f9 ccba 0ad7 23bc c5f9 8c3a
-0.01 0.0010518555 0.01 -0.0018071438 -0.01 -0.0013066683 0.01 0.0015315292
-0.01 -0.0012881369 -0.01 0.0013455348 -0.01 0.0011966224 0.00031092204 0.01
-0.01 -0.0013080727 -0.01 0.00077845535 0.01 0.0015303128 0.01 -0.0015469153
-0.01 0.001173422 0.00029651853 0.01 -0.01 -0.0009431134 -0.01 -0.0013141872
-0.01 0.0007914402 -0.01 0.0011637718 -0.01 0.0012756917 -0.01 -0.0012989199
0.01 -0.0016207264 -0.01 -0.0011003255 -0.01 0.0011753037 0.01 0.0015305491
0.01 -0.0015910746 -0.01 -0.0013087809 0.01 0.0015287506 -0.01 0.00090102875
0.01 0.0015281859 0.01 -0.0016518286 -0.01 -0.0013141871 0.01 -0.0016373966
-0.01 0.001020892 0.01 -0.0015505151 -0.01 0.0006915691 0.01 -0.0016929657
0.01 -0.0016033661 0.01 -0.0015439873 -0.01 -0.0013126822 0.01 0.0015285034
0.01 0.0015303137 -0.01 -0.0013099508 -0.01 0.00066534587 0.01 -0.0015448638
0.01 -0.0015921149 0.01 0.0015303154 -0.01 0.0012055825 -0.01 -0.0012822709
-0.01 -0.0013096136 0.01 0.0015313815 -0.01 -0.001302436 -0.01 -0.0013097973
-0.01 -0.0013080726 0.01 -0.0015766926 -0.01 -0.0013417427 -0.01 0.00064840843
-0.01 -0.0013141871 0.01 0.0015303165 -0.01 -0.0013505148 -0.01 -0.0012925644
-0.01 0.0005218552 -0.01 0.0008409946 -0.01 0.00091633 0.01 -0.0016442665
-0.01 0.0012027028 -0.01 0.0007725803 -0.01 -0.001010404 0.01 -0.0016741126
-0.01 0.0012007259 -0.01 0.0005403828 -0.01 -0.0013475047 -0.01 -0.0013126822
0.01 0.0015280899 -0.01 -0.001323533 -0.01 0.00067216164 -0.01 0.00092069316
-0.01 0.0013250394 -0.01 -0.0012943856 -0.01 0.0007588142 -0.01 -0.0013085247
-0.01 0.0011079564 -0.01 0.00071648986 0.01 -0.0015886644 -0.01 0.0011025022
-0.01 0.0007778896 0.01 0.0015287749 -0.01 -0.0013141872 0.01 -0.0015835044
-0.01 0.00064798334 -0.01 -0.0013096133 -0.01 0.0007474642 -0.01 0.0010930685
-0.01 0.0007032597 -0.01 -0.0013141872 -0.01 0.0007885458 0.01 -0.0017870638
0.01 0.0015307154 -0.01 0.0012587729 0.01 -0.0016376153 -0.01 -0.0012958025
-0.01 0.00091175764 -0.01 0.0011561539 0.01 -0.0015872689 0.01 -0.001537439
-0.01 0.0011058694 -0.01 0.0012025496 0.01 -0.0018515427 -0.01 0.0011169517
-0.01 0.00085106277 0.01 0.0015303947 0.01 -0.001506536 0.01 -0.0016160525
-0.01 -0.0012974102 0.01 0.0015303129 -0.01 -0.0013058775 -0.01 -0.0013126819
-0.01 -0.0011546367 0.01 -0.001528306 -0.01 0.001112297 0.01 0.0015316919
0.01 -0.0016292192 -0.01 0.0006726167 0.01 -0.0016102823 0.01 0.0015311949
0.00029655383 0.01 -0.01 -0.0013087995 0.01 -0.0015638216 -0.01 0.001075559

fc1.bias f4 [128]
00000000: acb5 233c cb01 22bc f91a 21bc 1e00 22bc
00000010: 8c4a 223c 5d69 223c 77bb 213c 608b 233c
00000020: a5a5 23bc 1063 23bc 5ebc 233c 17c2 21bc
00000030: 2454 22bc c6a5 223c 5453 213c 2e69 233c
00000040: 852b 233c 3b2f 22bc 2ca7 23bc 0e7e 21bc
00000050: 5dfb 1fbc 4125 21bc fd25 213c ae1d 23bc
00000060: 8c24 22bc a77f 1dbc bbfd 1e3c 7ece 22bc
00000070: 0cd3 20bc 5511 23bc aec4 213c 6384 223c
00000080: 0ad7 233c 1892 223c a8a1 213c f721 233c
00000090: b2a5 1d3c 8568 233c 40f4 22bc 954a 21bc
000000a0: 58b5 20bc 3d7b 233c 55d0 213c 6f61 233c
000000b0: 68b4 23bc 2e9e 22bc ff78 21bc ec2b 20bc
000000c0: 4b2f 233c f185 1d3c 1358 22bc 0ad7 23bc
000000d0: f9fc 1f3c 87d2 23bc 068c 21bc 942a 223c
000000e0: 1777 213c e772 21bc 8536 23bc 5fbd 22bc
000000f0: f6a3 183c 5cbf 23bc 51af 223c a406 23bc
00000100: 0b63 233c 3a97 1e3c b16d 22bc 9fe6 203c
00000110: b94e 223c 16dc 203c d72d 223c 7c3c 203c
00000120: 9679 21bc 77e7 21bc b116 223c ea1a 213c
00000130: 3847 213c be38 1fbc 5981 203c 5934 223c
00000140: ffb9 223c 288a 21bc 4f7e 233c 54ee 223c
00000150: fd32 20bc e2fe 22bc 83f1 203c dd79 23bc
00000160: f05b 23bc 2f19 223c 2d5f 21bc 5aef 213c
00000170: 792c 1f3c a4af 233c 7548 1f3c b4f2 21bc
00000180: b81d 22bc 9714 233c b3ec 223c 355e 23bc
00000190: 4b57 22bc 5652 233c 508c 233c 8c88 22bc
000001a0: 74c3 22bc 35d9 22bc 54ca 213c 60f5 21bc
000001b0: b2cf 21bc 2d9a 233c 8f45 1ebc 0ad7 23bc
000001c0: 0230 20bc 0651 22bc 4ec2 213c 52e1 1dbc
000001d0: 49ad 1dbc ee18 23bc ee5b 22bc 1250 233c
000001e0: 0c12 23bc 5b3d 20bc b57d 213c 6d49 233c
000001f0: 9dee 22bc d174 223c ef23 21bc 989b 21bc
0.009992044 -0.009888123 -0.009833091 -0.009887723 0.009905469 0.009912816 0.009871355 0.00998196
-0.009988223 -0.009972349 0.009993641 -0.009872935 -0.009907756 0.009927219 0.009846527 0.009973807
0.009959106 -0.009898956 -0.009988587 -0.009856714 -0.0097645195 -0.009835542 0.009835717 -0.009955807
-0.009896409 -0.009612954 0.009704049 -0.009936927 -0.0098159425 -0.009952863 0.009873552 0.009919259
0.01 0.009922527 0.009865202 0.009956828 0.009622024 0.00997365 -0.009945929 -0.009844442
-0.009808861 0.009978113 0.00987633 0.00997196 -0.009991743 -0.009925408 -0.009855508 -0.009776097
0.009960006 0.009614454 -0.009908694 -0.01 0.009764903 -0.009998924 -0.009860044 0.009897847
0.009855053 -0.009854055 -0.009961729 -0.009932845 0.009316435 -0.009994354 0.009929494 -0.009950314
0.009972344 0.00967961 -0.009913848 0.009820609 0.009906464 0.009818098 0.009898624 0.009780046
-0.0098556485 -0.009881846 0.009893105 0.009833077 0.00984364 -0.009718118 0.009796464 0.009900176
0.00993204 -0.009859599 0.009978845 0.009944517 -0.009777782 -0.009948464 0.009823206 -0.009977785
-0.00997065 0.0098937 -0.009849352 0.009883726 0.009715193 0.009990606 0.009721865 -0.009884525
-0.009894781 0.0099536395 0.009944129 -0.009971191 -0.009908508 0.009968361 0.009982184 -0.009920251
-0.009934295 -0.0099394815 0.009874899 -0.009885162 -0.009876179 0.009985489 -0.009660139 -0.01
-0.009777071 -0.009907013 0.009872986 -0.00963624 -0.009623834 -0.009954674 -0.009909613 0.009967821
-0.009953033 -0.009780253 0.009856631 0.009966237 -0.009944585 0.0099155465 -0.009835227 -0.009863757

bn1.weight f4 [128]
00000000: 0ad7 233c 0ad7 233c 9985 233c 8683 233c
00000010: 9e85 233c 228a 233c 55ca 233c 0ad7 233c
00000020: a085 233c 0ad7 233c 4e82 233c 74ce 233c
00000030: 6ed2 233c 0ad7 233c a04d 233c f684 233c
00000040: 0ad7 233c 0ad7 233c d0af 233c 7471 233c
00000050: 0ad7 233c 7d3d 233c a8d0 233c 8583 233c
00000060: 0ad7 233c 9b85 233c 2784 233c 0ad7 233c
00000070: 2784 233c 0ad7 233c f684 233c 0ad7 233c
00000080: 0ad7 233c e0b9 233c 0ad7 233c 0ad7 233c
00000090: 0ad7 233c 0ad7 233c 8385 233c 2784 233c
000000a0: 4e82 233c 9785 233c 0ad7 233c 0ad7 233c
000000b0: 0ad7 233c 4e82 233c dcd2 233c 9d85 233c
000000c0: 1c85 233c 8683 233c 3e85 233c 9285 233c
000000d0: a085 233c 0ad7 233c 7089 233c 0ad7 233c
000000e0: f684 233c 4e82 233c a489 233c 767f 233c
000000f0: 0ad7 233c 0ad7 233c 0ad7 233c 0ad7 233c
00000100: 37ce 233c 0ad7 233c 6243 233c 0ad7 233c
00000110: 1fcf 233c 0ad7 233c bb89 233c 8385 233c
00000120: 2d84 233c 3b69 233c 0ad7 233c 0ad7 233c
00000130: 639d 233c 287e 233c 0ad7 233c 9f85 233c
00000140: 0ad7 233c 0ad7 233c 0ad7 233c 0ad7 233c
00000150: 0ad7 233c 2d84 233c f684 233c 0ad7 233c
00000160: 0ad7 233c 1c85 233c 0ad7 233c 0ad7 233c
00000170: 0ad7 233c f684 233c 0ad7 233c 0ad7 233c
00000180: 5883 233c b3ca 233c 0ad7 233c 7985 233c
00000190: 0ad7 233c d4d4 233c 0ad7 233c f3c0 233c
000001a0: 0ad7 233c 46cb 233c 0ad7 233c a3d4 233c
000001b0: 0ad7 233c 4e82 233c a3b2 233c 0ad7 233c
000001c0: 297e 233c 4e82 233c 5274 233c 8385 233c
000001d0: 984b 233c 03c8 233c 0ad7 233c 8683 233c
000001e0: 0ad7 233c 0ad7 233c 0ad7 233c 8c83 233c
000001f0: 0ad7 233c 9b85 233c 0ad7 233c 0ad7 233c
0.01 0.01 0.009980583 0.009980088 0.009980587 0.009981664 0.00999697 0.01
0.009980589 0.01 0.0099797975 0.009997953 0.009998901 0.01 0.009967238 0.009980431
0.01 0.01 0.009990647 0.00997578 0.01 0.00996339 0.009998478 0.009980087
0.01 0.0099805845 0.009980238 0.01 0.009980238 0.01 0.009980431 0.01
0.01 0.0099930465 0.01 0.01 0.01 0.01 0.009980562 0.009980238
0.0099797975 0.009980581 0.01 0.01 0.01 0.0099797975 0.009999003 0.009980586
0.009980466 0.009980088 0.009980498 0.009980576 0.009980589 0.01 0.009981498 0.01
0.009980431 0.0099797975 0.009981547 0.0099791195 0.01 0.01 0.01 0.01
0.009997896 0.01 0.009964796 0.01 0.009998112 0.01 0.009981568 0.009980562
0.009980244 0.009973819 0.01 0.01 0.009986254 0.009978808 0.01 0.009980588
0.01 0.01 0.01 0.01 0.01 0.009980244 0.009980431 0.01
0.01 0.009980466 0.01 0.01 0.01 0.009980431 0.01 0.01
0.009980045 0.009997058 0.01 0.009980553 0.01 0.009999473 0.01 0.009994733
0.01 0.009997195 0.01 0.009999427 0.01 0.0099797975 0.009991321 0.01
0.009978809 0.0099797975 0.009976463 0.009980562 0.009966753 0.009996417 0.01 0.009980088
0.01 0.01 0.01 0.009980094 0.01 0.0099805845 0.01 0.01

bn1.bias f4 [128]
00000000: 4fc5 b43b fc7a a33b 82f4 9c3b a920 e43b
00000010: df20 a03b 9cfb e23b f4fa cc3b 0ad7 233c
00000020: 7771 9e3b fd62 893b d578 e43b 10d6 be3b
00000030: 5625 c93b 0ad7 233c 0ad7 233c 930e 983b
00000040: 1f06 8a3b edcc c33b b8e9 d83b 6b90 c63b
00000050: e395 e03b 0ad7 233c 6a6b c93b 1d0d e43b
00000060: dde2 b03b 85d2 9d3b 6902 e33b ee97 983b
00000070: a238 e33b 1657 a53b 6810 983b cecd e13b
00000080: afb3 ad3b 4dbb c23b fdf6 813b 3228 a93b
00000090: f5a5 af3b 04f1 ba3b 27cb 9b3b ea1c e33b
000000a0: f378 e43b bdd0 9d3b 7447 963b 9078 b13b
000000b0: 8482 be3b bc79 e43b 05c5 cd3b b01c a13b
000000c0: d279 983b b116 e43b 10ba 993b 6453 9c3b
000000d0: 8770 9e3b c82d ba3b 77c1 8d3b 4244 673b
000000e0: 1b10 983b 537a e43b 6a26 8e3b ec2c ae3b
000000f0: 0637 963b f490 903b ad25 9e3b 694a a93b
00000100: 7b95 cd3b 7c2a 863b 0ad7 233c a15b cb3b
00000110: a051 cd3b 4625 8d3b a616 8e3b 73cb 9b3b
00000120: e82e e33b abf1 d13b b959 7d3b aada 9a3b
00000130: 7bd6 df3b 62be b63b e151 8c3b fa68 9e3b
00000140: 5bcc bd3b 7690 7d3b 4781 f13b 7510 bd3b
00000150: c3cb 873b de3f e33b 2510 983b c6e8 b33b
00000160: c70a 923b 7a79 983b 3d59 843b 56f1 bb3b
00000170: b4f4 7a3b c00f 983b 5c8b 8d3b c93d 9a3b
00000180: 2bac e33b 5a82 d63b f511 ad3b e420 9c3b
00000190: 2d6e 9d3b 6df9 c33b 2f16 d13b be78 bf3b
000001a0: b1e1 bd3b dd07 cd3b 2ca9 a03b f0b8 c13b
000001b0: 9f33 913b 8a7b e43b 8644 bb3b dc47 b23b
000001c0: aedc b73b 1578 e43b f56f c13b 21c9 9b3b
000001d0: 65a5 233c 9ca8 bc3b ad12 c03b 182a e43b
000001e0: 6669 b23b 5a5d 7b3b 0d6c a93b 0418 e43b
000001f0: 0ad7 233c c1ce 9d3b 7b57 b43b aa95 b93b
0.005516685 0.004989026 0.00478989 0.006961901 0.004886731 0.006926967 0.006255502 0.01
0.0048353034 0.0041927085 0.006972412 0.005823858 0.006138484 0.01 0.01 0.0046404093
0.0042121555 0.005975357 0.0066196583 0.0060596964 0.0068538054 0.01 0.006146838 0.006959571
0.005398138 0.0048163556 0.0069277775 0.0046567833 0.0069342414 0.005045782 0.0046406277 0.006890989
0.005300961 0.005942738 0.003966211 0.0051622624 0.00536036 0.005705001 0.0047544423 0.006930937
0.006972426 0.0048161433 0.0045861546 0.0054159835 0.0058138985 0.0069725197 0.00627959 0.00491675
0.004653194 0.006960713 0.00469137 0.004770683 0.0048351916 0.005681727 0.0043260413 0.0035288488
0.004640592 0.00697259 0.0043380754 0.0053154137 0.004584196 0.004411811 0.0048262686 0.005166341
0.006273923 0.00409442 0.01 0.0062059914 0.006265834 0.004307422 0.004336196 0.0047544776
0.006933082 0.006406983 0.0038658215 0.004725774 0.006830988 0.0055768946 0.0042822217 0.0048342915
0.0057921833 0.0038690842 0.0073701474 0.005769784 0.0041441633 0.006935104 0.0046405965 0.0054903952
0.004456851 0.004653153 0.0040389583 0.0057355566 0.0038292827 0.0046405494 0.0043195914 0.0047070724
0.0069480143 0.006546301 0.0052816817 0.004764663 0.0048043937 0.0059806616 0.0063808183 0.005843251
0.005794727 0.006257041 0.0049029794 0.005911939 0.0044312025 0.006972735 0.0057149557 0.005440695
0.005611024 0.0069723227 0.005903239 0.004754201 0.009988164 0.0057574045 0.0058616013 0.006963026
0.0054446934 0.0038355202 0.0051703514 0.0069608707 0.01 0.0048159068 0.0055035925 0.0056635933

bn1.running_mean f4 [128]
00000000: 6ceb d9bb b1d2 bc3b 9693 f2bc ccc8 263c
00000010: 2a62 21bc 240e cfbb 2c98 d7bb 914a c23c
00000020: 67d7 f3bc d90a ddbc 0841 f63c 9090 c83b
00000030: 5c30 d8bc f19d c13c df2a 1bbc cbd3 20bc
00000040: ee90 e6bb 153c d8bc 9ca3 d7bc 4eb4 f2bc
00000050: f34b c93b 0b83 f0bc d890 d9bb 9a92 253c
00000060: dbea c53b ccbf f0bc c2cc f33c 9c6e dbbc
00000070: 01dd 273c 286e c13b 086d 22bc 7569 d33c
00000080: dd2a dbbb a635 d43c 90ca edbb 9afd d23c
00000090: 483c d13c f1bb d43c 808d f3bc 3a6d 273c
000000a0: 99fe 273c 75a5 20bc 26ba eebb afb5 d43c
000000b0: ab86 c23b 361b 263c 4060 d7bc 2fd0 f1bc
000000c0: a7d9 20bc b926 f33c 7a2e f3bc abf6 f3bc
000000d0: a10d 24bc 7619 c33b 642c f3bc 07b3 eebb
000000e0: f6b7 22bc 304e 273c 021d f4bc a545 f3bc
000000f0: 32b6 03bc 5f8c dcbc b22d e2bb 42c7 c13b
00000100: 60e7 d3bb b734 f0bb 103a f0bc 0d12 d23c
00000110: 1125 d6bb 6a0c f6bb a4ad 22bc 16e5 23bc
00000120: f82c 273c 1c3e f3bc e7a0 edbb dc0b e5bb
00000130: f86d d2bb 497b f1bc 1a43 edbb c0d3 21bc
00000140: 3d8a d9bb 25d0 dcbc 216c d43c 7265 d9bb
00000150: b06f dbbc 2ead 253c 7241 23bc d172 c33b
00000160: 1673 debc 6bf1 21bc d765 dcbc e4cb dbbb
00000170: 525b f2bb 6b88 20bc fb4e eebb 57d7 bd3b
00000180: 4699 263c 4812 d2bb ee81 d33c dc96 f3bc
00000190: b00f dbbc d114 d6bb c15e d43c 8206 c73b
000001a0: 4e30 d9bc 2a1c d8bc 59a1 d03c 4f9a d8bc
000001b0: ba6b dbbc 042d f63c 1927 d13b fc63 c13b
000001c0: e90c f2bc 4d6d 263c ed4f 22bc b107 f1bc
000001d0: 9b4e efbc 16a4 c63b bbda d8bc bf01 f63c
000001e0: 0064 c23b e898 dcbc 5914 d33c 3e0c f63c
000001f0: d585 763b 878d 21bc 87ca c83b 6dea d8bc
-0.006650379 0.005762421 -0.02961139 0.01017971 -0.009850064 -0.0063188244 -0.0065794196 0.023717197
-0.029765798 -0.026982712 0.030060306 0.006120749 -0.026390247 0.023634883 -0.0094706705 -0.00981612
-0.00703632 -0.026395837 -0.026323132 -0.029626992 0.006143087 -0.029359361 -0.006639581 0.010105753
0.00603996 -0.02938833 0.029760722 -0.026786141 0.0102455625 0.005903024 -0.00991369 0.025807122
-0.0066884593 0.025904488 -0.0072568133 0.025755692 0.02554144 0.025968524 -0.029730558 0.010218913
0.010253572 -0.009805073 -0.007285374 0.02596554 0.005936464 0.0101383235 -0.026291013 -0.029518215
-0.009817517 0.02968155 -0.029685248 -0.029780706 -0.010013015 0.005953963 -0.029684253 -0.0072845253
-0.009931555 0.010211512 -0.029798988 -0.029696295 -0.008039044 -0.026922403 -0.00690242 0.005913646
-0.006466791 -0.007330503 -0.029324561 0.025643373 -0.0065351804 -0.007508804 -0.009929094 -0.010003349
0.0102035925 -0.029692702 -0.007251847 -0.006989939 -0.0064218007 -0.029477732 -0.007240665 -0.009877145
-0.0066387937 -0.02695472 0.025930466 -0.0066344077 -0.026786655 0.01011209 -0.009964334 0.005964615
-0.027154487 -0.009884219 -0.02690403 -0.0067076553 -0.00739614 -0.00979815 -0.007272599 0.005793493
0.010168379 -0.0064108707 0.025818791 -0.029735021 -0.026740879 -0.006533243 0.025924088 0.006073774
-0.026512291 -0.026380617 0.025467562 -0.026440768 -0.026784766 0.030050762 0.0063828346 0.0059018116
-0.029547172 0.010157895 -0.009906751 -0.029422613 -0.029212287 0.006062041 -0.026471486 0.03003013
0.005932331 -0.02692838 0.025766538 0.030035134 0.0037616391 -0.009860403 0.0061276588 -0.02647897

bn1.running_var f4 [128]
00000000: 2077 1239 6637 1639 1c06 1439 e82d 1539
00000010: a2ee 1339 89c7 1339 100b 1339 6535 3439
00000020: d907 1439 3d9b 1139 5b2d 1539 7db4 1439
00000030: c4f2 1239 c131 3439 f688 1239 b70f 1439
00000040: 15a4 1139 3ce6 1239 9668 1339 1602 1439
00000050: e00f 1539 b028 1339 62f4 1239 6c2c 1539
00000060: 41f0 1439 c508 1439 6e29 1539 b6f4 1139
00000070: 9428 1539 5546 1539 b80f 1439 ea27 1539
00000080: 7c5a 1239 52bc 1439 4f66 1139 0784 1539
00000090: 2402 1539 ebaf 1439 c50d 1439 1029 1539
000000a0: 5c2d 1539 480a 1439 5e53 1139 22b1 1439
000000b0: 00f3 1439 5b2d 1539 d514 1339 29e7 1339
000000c0: 010a 1439 af2d 1539 c000 1439 050a 1439
000000d0: d907 1439 5bdd 1439 db31 1439 344c 1139
000000e0: b80f 1439 5d2d 1539 373d 1439 10f4 1339
000000f0: 450c 1139 32c7 1139 f700 1239 f43a 1539
00000100: 2012 1339 e19a 1139 09cb 1239 fe6b 1539
00000110: 6710 1339 6914 1139 ad39 1439 c50d 1439
00000120: 6b28 1539 d525 1439 205a 1139 5504 1239
00000130: c9a6 1339 50f7 1339 e88e 1139 6f08 1439
00000140: 69ad 1239 3673 1139 91e0 1439 eea7 1239
00000150: c29a 1139 7429 1539 b70f 1439 b3e6 1439
00000160: cc49 1139 010a 1439 9886 1139 b79e 1239
00000170: 1c6b 1139 b70f 1439 15a4 1139 2c15 1639
00000180: aa2d 1539 3053 1339 ab31 1539 5ef8 1339
00000190: 4dfd 1139 37de 1239 15e7 1439 d0a8 1439
000001a0: 6bab 1239 f711 1339 607f 1639 d8b8 1239
000001b0: 3cd1 1139 7a2d 1539 7e7e 1439 3914 1539
000001c0: 3dfb 1339 5b2d 1539 8d09 1439 c50d 1439
000001d0: 6760 1339 5f9b 1439 13b2 1239 272e 1539
000001e0: 2427 1539 785a 1139 640a 1539 632d 1539
000001f0: c331 3439 cb08 1439 71cb 1439 698d 1239
0.00013968023 0.00014325752 0.00014116656 0.00014226849 0.0001410791 0.00014093345 0.00014023134 0.00017186029
0.00014117303 0.00013886108 0.00014226644 0.00014181617 0.00014014082 0.00017184672 0.00013974667 0.00014120234
0.00013889403 0.00014009414 0.00014057974 0.00014115157 0.00014215661 0.0001403417 0.00014014685 0.00014226296
0.00014203881 0.00014117647 0.00014225181 0.0001391944 0.00014224864 0.00014235948 0.00014120236 0.00014224616
0.00013957353 0.00014184535 0.0001386639 0.00014258931 0.00014210545 0.00014179914 0.0001411951 0.00014225044
0.00014226645 0.0001411821 0.00013859334 0.00014180367 0.00014204904 0.00014226644 0.00014026773 0.00014105126
0.00014118107 0.00014226766 0.0001411466 0.00014118112 0.00014117303 0.00014196841 0.00014132952 0.00013856665
0.00014120236 0.00014226646 0.00014137184 0.00014109933 0.00013832848 0.00013902484 0.00013924004 0.00014231709
0.00014025765 0.00013885974 0.00013999282 0.00014249978 0.00014025123 0.00013835881 0.00014135866 0.0001411951
0.00014224804 0.00014128473 0.00013861852 0.00013925259 0.00014081145 0.00014111144 0.00013881514 0.00014117522
0.00013988245 0.00013871197 0.00014198037 0.00013986204 0.0001388593 0.0001422519 0.00014120234 0.00014200322
0.00013855769 0.00014118107 0.00013878418 0.00013982771 0.00013868179 0.00014120234 0.00013889403 0.00014313002
0.00014226759 0.00014050002 0.0001422825 0.00014111536 0.0001392264 0.00014006426 0.00014200465 0.00014177267
0.00013987503 0.00014025705 0.00014352566 0.00013992505 0.00013906223 0.00014226689 0.00014161502 0.00014217281
0.00014112606 0.00014226644 0.00014117938 0.0001411951 0.00014054925 0.0001417226 0.00013989983 0.0001422694
0.00014224328 0.0001386198 0.00014213618 0.00014226655 0.00017184675 0.00014117656 0.00014190168 0.00013976324

fc2.weight f4 [128, 128]
00000000: 6a64 d43b 08c8 643b 5342 23bc a919 233c
00000010: 0341 23bc cd31 233c 6033 233c 0ad7 23bc
00000020: cd41 23bc cf02 373b 9619 233c 736e 22bc
00000030: b943 213c 0ad7 23bc a91f 23bc 2d44 23bc
00000040: 9ccc 523b 4831 233c a534 233c d636 23bc
00000050: e997 22bc ded7 97bb 1a32 233c b119 233c
00000060: 3744 0abb 0842 23bc e219 233c 3306 233c
00000070: da19 233c 3762 1bbc 2b44 23bc 9297 22bc
00000080: 9011 df3b b2de 4cbb d0d8 373b df8f 19bc
00000090: 2d70 1ebc a11f 8fbb cc42 23bc de19 233c
000000a0: 9619 233c 0b42 23bc 17bd 223c 1ee6 20bc
000000b0: f95f 1abc 9619 233c 4c34 233c 9940 23bc
000000c0: fa43 23bc ab19 233c 7543 23bc 9542 23bc
000000d0: cd41 23bc 0ab8 aeba 9f48 23bc 1bc7 223c
000000e0: 2b44 23bc 9519 233c 8748 23bc e53c 23bc
000000f0: c948 213c 8fdc 633b 5608 233c 92fd 1bbc
00000100: 2c34 233c c3d1 213b 9596 74bb bf51 0c3b
00000110: 2234 233c 568e 213c 8c48 23bc cc42 23bc
00000120: df19 233c fc34 23bc 508f 063b 9bd1 ad3b
00000130: 2233 233c bb3a 23bc 22e8 223c d041 23bc
00000140: 242b 233c 5ddc 223c 5ea6 22bc 531d 0e3c
00000150: 59ec 223c d919 233c 2b44 23bc b806 20bc
00000160: 505d ac3a fa43 23bc 4237 da3a f928 233c
00000170: 6dd8 223c 2b44 23bc 53f0 223c 083c 15bc
00000180: bc19 233c 2035 233c 703f 1d3b 8742 23bc
00000190: 578d 8f3b b830 233c e144 99bb 8631 cfbb
000001a0: f42a 233c 0d34 233c fd6c d03b ee2c 233c
000001b0: 9ef1 533b 9519 233c a062 20bc cb04 1fbc
000001c0: 733a 23bc 9619 233c 1f38 23bc cd42 23bc
000001d0: 6b23 23bc d57a 21bc db2b 233c a619 233c
000001e0: 3800 193b 5fb7 e33a 32d3 08bc ae19 233c
000001f0: 0ad7 23bc 0942 23bc ca9f 20bc 78b0 f53b
00000200: 0ad7 23bc 0ad7 233c bda7 23bc 4dae 233c
00000210: 1fa8 23bc b4fd 04ba 0ad7 23bc 16ab 233c
00000220: a7a7 23bc 0ad7 23bc 5dae 233c 0ad7 233c
00000230: 0ad7 23bc 13ab 233c 05be 23bc a5a7 23bc
00000240: 0ad7 23bc 0ad7 23bc e2aa f4b9 90a6 23bc
00000250: 0ad7 233c a1b5 23bc d970 46ba 4dae 233c
00000260: 0ad7 233c a7a7 23bc 37ae 233c 608c 17bc
00000270: 3dae 233c 0ad7 233c a5a7 23bc 0ad7 233c
00000280: 2112 86bb 0ad7 233c 0ad7 23bc 0ad7 233c
00000290: 0ad7 233c 0ad7 233c 9da7 23bc 3aae 233c
000002a0: 5eae 233c a0a7 23bc 0ad7 23bc 0ad7 233c
000002b0: 0ad7 233c 5eae 233c aa7a b1b9 3ca8 23bc
000002c0: c5a7 23bc 4cae 233c efa7 23bc aca7 23bc
000002d0: a7a7 23bc 0ad7 233c 25a7 23bc 0ad7 23bc
000002e0: a5a7 23bc 5eae 233c eba6 23bc 45a7 23bc
000002f0: 0ad7 23bc 0cf1 05bc 0ad7 23bc 0ad7 233c
00000300: 8fee 5cbb 0ad7 23bc 20ba 23bc 0ad7 233c
00000310: 3fad 58bb 0ad7 23bc 0aa7 23bc 9da7 23bc
00000320: 3cae 233c 0ea6 23bc 0ad7 23bc 0ad7 23bc
00000330: 4382 e6b9 c4a6 23bc 0ad7 23bc a4a7 23bc
00000340: 0ad7 23bc 0ad7 23bc 0ad7 233c f658 6ebb
00000350: 76a8 1dbc 3cae 233c a5a7 23bc 0ad7 233c
00000360: 0ad7 23bc c5a7 23bc 0ad7 23bc 0ad7 23bc
00000370: 0ad7 23bc a5a7 23bc 0ad7 23bc 0ad7 233c
00000380: 47ae 233c 391d f8bb 0ad7 233c 0ca8 23bc
00000390: 0ad7 23bc 0ad7 23bc 0ad7 233c 0ad7 233c
000003a0: ddb9 c1bb 0ad7 23bc 0ad7 233c 0ad7 23bc
000003b0: 3baf 18bc 5eae 233c 0ad7 233c 0ad7 233c
000003c0: aba6 23bc 5dae 233c 3ea6 23bc 9da7 23bc
000003d0: bab3 23bc 0ad7 233c 0ad7 23bc 4eae 233c
000003e0: 0ad7 233c 0ad7 23bc 0ad7 233c 4cae 233c
000003f0: 13ab 233c a7a7 23bc 0ad7 233c 6863 e6bb
0.006481697 0.0034909267 -0.009964543 0.009954848 -0.0099642305 0.009960604 0.009960979 -0.01
-0.009964419 0.0027925258 0.009954831 -0.009914028 0.0098428065 -0.01 -0.009956279 -0.009964985
0.0032165414 0.00996048 0.009961282 -0.009961804 -0.0099239135 -0.0046338877 0.009960676 0.009954856
-0.0021097788 -0.009964474 0.009954901 0.0099502085 0.009954894 -0.009483865 -0.009964983 -0.0099238325
0.0068075135 -0.0031260666 0.0028052814 -0.00937268 -0.0096702995 -0.004367784 -0.009964656 0.009954898
0.009954831 -0.009964476 0.009932778 -0.009820489 -0.009422296 0.009954831 0.009961199 -0.009964132
-0.009964937 0.00995485 -0.0099648135 -0.009964605 -0.009964419 -0.0013329994 -0.009966045 0.009935166
-0.009964983 0.00995483 -0.009966022 -0.009963249 0.0098440135 0.0034768914 0.009950718 -0.009520905
0.009961169 0.0024691678 -0.00373212 0.002141103 0.00996116 0.009860596 -0.009966027 -0.009964656
0.009954899 -0.009961363 0.0020532198 0.005304528 0.0099609215 -0.009962733 0.00994304 -0.009964421
0.009959016 0.009940234 -0.00992736 0.008673984 0.009944045 0.009954893 -0.009964983 -0.009767227
0.0013150368 -0.009964937 0.0016648548 0.009958499 0.009939295 -0.009964983 0.009944993 -0.009108551
0.009954866 0.009961396 0.002399411 -0.009964592 0.0043808627 0.009960346 -0.0046774005 -0.0063230423
0.009958971 0.00996114 0.0063606487 0.009959443 0.003234006 0.00995483 -0.009789139 -0.009705733
-0.009962666 0.009954831 -0.009962111 -0.009964657 -0.009957175 -0.009855946 0.009959186 0.0099548455
0.0023346078 0.0017373374 -0.008351134 0.009954853 -0.01 -0.0099644745 -0.009803722 0.0074978434
-0.01 0.01 -0.009988722 0.009990287 -0.009988814 -0.0005073205 -0.01 0.009989521
-0.009988702 -0.01 0.009990302 0.01 -0.01 0.009989518 -0.009994035 -0.0099887
-0.01 -0.01 -0.00046666624 -0.009988442 0.01 -0.009992034 -0.0007569916 0.009990287
0.01 -0.009988702 0.0099902665 -0.009249777 0.009990272 0.01 -0.0099887 0.01
-0.0040915166 0.01 -0.01 0.01 0.01 0.01 -0.009988693 0.009990269
0.009990303 -0.009988695 -0.01 0.01 0.01 0.009990303 -0.00033851463 -0.009988841
-0.00998873 0.009990286 -0.009988769 -0.009988707 -0.009988702 0.01 -0.009988581 -0.01
-0.0099887 0.009990303 -0.009988527 -0.009988611 -0.01 -0.008175146 -0.01 0.01
-0.0033711528 -0.01 -0.009993106 0.01 -0.0033062247 -0.01 -0.009988556 -0.009988693
0.009990271 -0.009988321 -0.01 -0.01 -0.0004396607 -0.0099884905 -0.01 -0.009988699
-0.01 -0.01 0.01 -0.0036368943 -0.009622684 0.009990271 -0.0099887 0.01
-0.01 -0.00998873 -0.01 -0.01 -0.01 -0.0099887 -0.01 0.01
0.009990281 -0.007571843 0.01 -0.009988796 -0.01 -0.01 0.01 0.01
-0.005912049 -0.01 0.01 -0.01 -0.009319122 0.009990303 0.01 0.01
-0.009988467 0.009990302 -0.009988366 -0.009988693 -0.009991581 0.01 -0.01 0.009990288
0.01 -0.01 0.01 0.009990286 0.009989518 -0.009988702 0.01 -0.007030893

fc2.bias f4 [128]
00000000: aad9 d33b ad0e 473b c850 3b3b 0450 a0ba
00000010: 82c3 37ba d36d 23bc 0ad7 23bc 4d41 01ba
00000020: 0ad7 23bc 0ad7 23bc db6b 5ab9 2223 953b
00000030: ffca 23bc 0ad7 23bc 0ad7 23bc ae27 b4bb
00000040: 5663 ce3b 4ba4 543b 57cf 23bc a7a4 d33b
00000050: 1c26 54ba 101b 9d3b fad5 23bc 2e32 1dbb
00000060: a0a2 bf3b 19cf 233c 0ad7 23bc 6d40 8e37
00000070: 0ad7 23bc 04ce 23bc 0ad7 23bc 0ad7 23bc
00000080: 0ad7 23bc 344a 42ba 9c68 b039 6ebd 4738
00000090: 9dd5 23bc 0ad7 23bc 37d8 d43b ebd3 cd3b
000000a0: 2978 3b3b b81f c23b 0ad7 23bc f456 533b
000000b0: 1179 203b 94fa 373b 6fd6 23bc 07c5 23bc
000000c0: 0ad7 23bc 1797 f6b9 cdbf 9b3b d9d4 23bc
000000d0: d505 a83b 0ad7 23bc 81ef 6b39 0ad7 23bc
000000e0: b3f2 0abc 8939 533b 0ad7 23bc c2b6 233c
000000f0: e989 7d39 dbcb 2e3b 9276 edba bb10 3eb8
00000100: 058e c03b 0ac7 23bc 0ad7 23bc 00bc 23bc
00000110: 85a7 44ba 0ad7 23bc eacc 3a3b 0ad7 23bc
00000120: dac1 233c b8b0 5a3b 6a5a 8f3b 0ad7 23bc
00000130: da55 c83b 0ad7 23bc c83f 363b 0ad7 23bc
00000140: 338b 463b 840f b43b bdcf 23bc 5cb1 4b3b
00000150: 0ad7 23bc 07c9 23bc 887e f8bb ed5c 303b
00000160: b384 23bc 0ad7 23bc 0ad7 23bc 0ad7 23bc
00000170: aacb b33b 1235 603b 1bb1 23bc 88ac 23bc
00000180: 84e7 c83b 0b46 173b 5a63 9b3b 1777 23bc
00000190: b85d cb3b f53c da39 3c93 973b 9aa9 e33b
000001a0: 0ad7 23bc ccd3 23bc 52a2 c33b 687a 233c
000001b0: 10cf 233c a494 23bc 0ad7 23bc 0ad7 23bc
000001c0: c389 5fbb af19 e1b9 8344 ce3b 37cb d03b
000001d0: 2f9f c23b 0ad7 23bc 0ad7 23bc cd92 23bc
000001e0: 692e 11b9 86c5 23bc 8f37 233c 7893 10b9
000001f0: af8c 3aba 0ad7 23bc 1506 243b 52b3 23bc
0.0064651566 0.0030373738 0.0028582085 -0.0012230878 -0.0007010029 -0.009974915 -0.01 -0.000493069
-0.01 -0.01 -0.0002083028 0.0045513073 -0.0099971285 -0.01 -0.01 -0.0054978942
0.006298463 0.003244656 -0.009998164 0.006458837 -0.0008092837 0.004794486 -0.009999746 -0.0023986208
0.005848244 0.009998106 -0.01 1.695772e-05 -0.01 -0.009997848 -0.01 -0.01
-0.01 -0.000741157 0.00033647276 4.7621717e-05 -0.00999966 -0.01 0.0064955014 0.006281366
0.0028605557 0.0059241913 -0.01 0.0032247873 0.0024486224 0.002807294 -0.009999855 -0.009995705
-0.01 -0.00047033347 0.004753089 -0.009999477 0.0051276484 -0.01 0.00022500569 -0.01
-0.008480716 0.0032230339 -0.01 0.009992303 0.00024179336 0.00266718 -0.0018117002 -4.531511e-05
0.005876305 -0.009996185 -0.01 -0.009993553 -0.0007501769 -0.01 0.0028503486 -0.01
0.009994948 0.0033369493 0.004374792 -0.01 0.00611375 -0.01 0.0027809013 -0.01
0.0030295372 0.0054950137 -0.009998259 0.0031081056 -0.01 -0.009996659 -0.007583443 0.0026910857
-0.009980368 -0.01 -0.01 -0.01 0.005486925 0.003421132 -0.009990956 -0.009989865
0.0061311144 0.002308252 0.0047420682 -0.009977124 0.0062062405 0.00041625617 0.004625706 0.0069477083
-0.01 -0.009999227 0.005970278 0.009977914 0.009998098 -0.009984169 -0.01 -0.01
-0.0034109212 -0.0004293448 0.0062947883 0.0063718813 0.0059393863 -0.01 -0.01 -0.0099837305
-0.00013845567 -0.009995824 0.009961977 -0.00013787847 -0.00071163004 -0.01 0.002502804 -0.009991484

bn2.weight f4 [128]
00000000: 0ad7 233c 0ad7 233c 0ad7 233c 0ad7 233c
00000010: 0ad7 233c 0ad7 233c 0ad7 233c 0ad7 233c
00000020: 0ad7 233c 0ad7 233c 0ad7 233c 0ad7 233c
00000030: 0ad7 233c 0ad7 233c 0ad7 233c 0ad7 233c
00000040: 0ad7 233c 0ad7 233c 0ad7 233c 0ad7 233c
00000050: 0ad7 233c 0ad7 233c 0ad7 233c 0ad7 233c
00000060: 0ad7 233c fa83 de3b 0ad7 233c 0ad7 233c
00000070: 0ad7 233c 0ad7 233c 0ad7 233c 0ad7 233c
00000080: 0ad7 233c 0ad7 233c 0ad7 233c 0ad7 233c
00000090: 0ad7 233c 0ad7 233c 0ad7 233c 0ad7 233c
000000a0: 0ad7 233c 0ad7 233c 0ad7 233c 0ad7 233c
000000b0: 0ad7 233c 0ad7 233c 0ad7 233c 0ad7 233c
000000c0: 0ad7 233c 0ad7 233c 0ad7 233c 0ad7 233c
000000d0: 0ad7 233c 0ad7 233c 0ad7 233c 0ad7 233c
000000e0: 0ad7 233c 0ad7 233c 0ad7 233c d67b c23b
000000f0: 0ad7 233c 0ad7 233c 0ad7 233c 0ad7 233c
00000100: 0ad7 233c 0ad7 233c 0ad7 233c 0ad7 233c
00000110: 0ad7 233c 0ad7 233c 0ad7 233c 0ad7 233c
00000120: 4677 f93b 0ad7 233c 0ad7 233c 0ad7 233c
00000130: 0ad7 233c 0ad7 233c 0ad7 233c 0ad7 233c
00000140: 0ad7 233c 0ad7 233c 0ad7 233c 0ad7 233c
00000150: 0ad7 233c 0ad7 233c 0ad7 233c 0ad7 233c
00000160: 0ad7 233c 0ad7 233c 0ad7 233c 0ad7 233c
00000170: 0ad7 233c 0ad7 233c 0ad7 233c 0ad7 233c
00000180: 0ad7 233c 0ad7 233c 0ad7 233c 5901 fe3b
00000190: 0ad7 233c 0ad7 233c 0ad7 233c 0ad7 233c
000001a0: 0ad7 233c 0ad7 233c 0ad7 233c 9f95 b33b
000001b0: 6b4b 0f3c 0ad7 233c 0ad7 233c 0ad7 233c
000001c0: 0ad7 233c 0ad7 233c 0ad7 233c 0ad7 233c
000001d0: 0ad7 233c 0ad7 233c 0ad7 233c 0ad7 233c
000001e0: 0ad7 233c 0ad7 233c 3b96 af3b 0ad7 233c
000001f0: 0ad7 233c 0ad7 233c 0ad7 233c 0ad7 233c
0.01 0.01 0.01 0.01 0.01 0.01 0.01 0.01
0.01 0.01 0.01 0.01 0.01 0.01 0.01 0.01
0.01 0.01 0.01 0.01 0.01 0.01 0.01 0.01
0.01 0.006790635 0.01 0.01 0.01 0.01 0.01 0.01
0.01 0.01 0.01 0.01 0.01 0.01 0.01 0.01
0.01 0.01 0.01 0.01 0.01 0.01 0.01 0.01
0.01 0.01 0.01 0.01 0.01 0.01 0.01 0.01
0.01 0.01 0.01 0.0059351726 0.01 0.01 0.01 0.01
0.01 0.01 0.01 0.01 0.01 0.01 0.01 0.01
0.0076130955 0.01 0.01 0.01 0.01 0.01 0.01 0.01
0.01 0.01 0.01 0.01 0.01 0.01 0.01 0.01
0.01 0.01 0.01 0.01 0.01 0.01 0.01 0.01
0.01 0.01 0.01 0.0077516255 0.01 0.01 0.01 0.01
0.01 0.01 0.01 0.0054804827 0.008746008 0.01 0.01 0.01
0.01 0.01 0.01 0.01 0.01 0.01 0.01 0.01
0.01 0.01 0.005358485 0.01 0.01 0.01 0.01 0.01

bn2.bias f4 [128]
00000000: d4b2 c238 5c28 81b7 cf30 acb7 2813 ab38
00000010: f44f 9e37 7bd5 a938 a648 c538 8ac1 ac37
00000020: 9cf0 c5b8 be74 ce38 37ca 9137 6643 bfb8
00000030: 7a1a c038 8984 feb7 431e 78b7 c13f b7b7
00000040: cb43 f838 ff07 70b7 cb19 9437 9c5b 9e38
00000050: 3816 d437 3c24 cdb8 9146 94b8 54bc c5b8
00000060: 2298 d838 4fa7 503b 64c6 b138 ba68 d837
00000070: d445 e937 f887 bab8 a83e 9637 255c 8637
00000080: a4c9 8fb7 f83a ce37 2e65 e737 0c21 9037
00000090: e273 b6b8 ebf4 8337 02c8 ae38 7d44 af38
000000a0: 728b 89b7 3fee 9f38 f8cc ce37 f2ee b2b7
000000b0: 4369 e7b7 845f e038 c642 a037 d09c b7b8
000000c0: b6d8 cf38 5fe7 f137 6e32 bcb8 403e aa38
000000d0: 2a91 b1b8 54e2 f137 dcd4 3d37 510d 97b7
000000e0: 7f1b 92b7 dafc 8eb7 59c5 86b7 8dbf 88bb
000000f0: 4330 9837 b029 9fb7 b685 8f37 50f6 e837
00000100: 7932 bd38 cab9 d9b8 bf8a e738 0814 dcb8
00000110: 3479 c337 0526 65b7 33e8 8bb7 c0b6 8bb8
00000120: 83d6 0c3b 5421 ddb7 5259 c7b8 52d3 f4b7
00000130: b4ae be38 02dc 8137 90cf 86b7 dbf1 e037
00000140: f230 d0b7 2291 b7b8 b63d 9a37 aefd 35b7
00000150: 3809 83b7 6c14 80b7 6019 cbb7 c926 87b7
00000160: cf65 8db8 1647 c9b7 4785 dcb8 4e16 d438
00000170: bbac ccb8 5287 8eb7 3edb a838 04d6 c3b8
00000180: 7e89 cf38 385a cd38 1400 d8b8 263a 3e3b
00000190: 680f c338 33de 8337 f81c a8b8 5060 bd38
000001a0: b008 9b37 8899 c4b7 082d cb38 04ba 8dbb
000001b0: 1359 213b 0872 dab8 0a2c cd38 c8b1 f337
000001c0: 9d30 a537 f18d 7c37 7c84 8538 8e06 d038
000001d0: f48d c638 7898 d3b8 2b5a 3b37 9410 d638
000001e0: c022 8637 c7e7 c0b8 e579 623b a0c6 9437
000001f0: cf36 84b7 dc37 f1b8 dbce 8ab7 8496 e038
9.28395e-05 -1.5396792e-05 -2.0526726e-05 8.1574835e-05 1.8872299e-05 8.098312e-05 9.407224e-05 2.0594121e-05
-9.438509e-05 9.8445904e-05 1.737951e-05 -9.120144e-05 9.160205e-05 -3.0340876e-05 -1.4788998e-05 -2.1844988e-05
0.00011838189 -1.43069765e-05 1.7654986e-05 7.551091e-05 2.5282716e-05 -9.781911e-05 -7.070334e-05 -9.428771e-05
0.000103280196 0.0031838005 8.476971e-05 2.5797974e-05 2.780828e-05 -8.894497e-05 1.791057e-05 1.6016953e-05
-1.7140825e-05 2.4584573e-05 2.7584461e-05 1.7181526e-05 -8.700021e-05 1.5730466e-05 8.334221e-05 8.357407e-05
-1.6396607e-05 7.6260876e-05 2.465256e-05 -2.1330521e-05 -2.7586362e-05 0.000106989435 1.910458e-05 -8.7553286e-05
9.910895e-05 2.883718e-05 -8.973932e-05 8.117827e-05 -8.4670566e-05 2.8834831e-05 1.1314838e-05 -1.8006804e-05
-1.741736e-05 -1.7045462e-05 -1.6065942e-05 -0.0041732253 1.8142286e-05 -1.897369e-05 1.7109192e-05 2.7771253e-05
9.0216236e-05 -0.00010381972 0.00011040782 -0.000104941486 2.3302251e-05 -1.3658316e-05 -1.6678217e-05 -6.662076e-05
0.0021490164 -2.6360773e-05 -9.505697e-05 -2.918547e-05 9.092447e-05 1.5480447e-05 -1.6070699e-05 2.6815504e-05
-2.4818324e-05 -8.753153e-05 1.8386967e-05 -1.0847505e-05 -1.562071e-05 -1.5268299e-05 -2.4211302e-05 -1.6111315e-05
-6.742367e-05 -2.399417e-05 -0.00010515242 0.00010113102 -9.7596516e-05 -1.6990733e-05 8.051701e-05 -9.338188e-05
9.896139e-05 9.791966e-05 -0.00010299697 0.0029026358 9.301194e-05 1.5719887e-05 -8.01626e-05 9.030162e-05
1.8481485e-05 -2.3436514e-05 9.688182e-05 -0.0043251533 0.0024619743 -0.0001041629 9.783365e-05 2.9050643e-05
1.969217e-05 1.5053419e-05 6.366611e-05 9.919434e-05 9.4678166e-05 -0.000100896636 1.1167062e-05 0.00010207403
1.5990227e-05 -9.198445e-05 0.0034557518 1.7735467e-05 -1.5761148e-05 -0.0001150218 -1.6547207e-05 0.00010709188

bn2.running_mean f4 [128]
00000000: e1d9 cd3b b043 e73a 60da cf3a 7ba4 bbba
00000010: 4cad 193a 62f9 26bc b4a0 26bc 9f24 4e3a
00000020: 0db3 20bc 9435 27bc 1c13 8c3a 591e 9d3b
00000030: a8cd 27bc 100f 1ebc feb6 38bc 63b7 ddbb
00000040: ef8e c93b 21b0 013b 05f2 0ebc 071f cd3b
00000050: 807c f639 4783 a33b 7aa5 1fbc bd6f 10bb
00000060: b2a6 bb3b 11af 2f3c a3ed 26bc ab14 aa3a
00000070: 20b3 0ebc b52d 20bc 2cff 0ebc dbf1 0ebc
00000080: 67b7 38bc 7d67 0d3a a982 d43a aafa ad3a
00000090: e01d 20bc 2ef5 0ebc 160c cf3b d5b5 c63b
000000a0: 4b7c d03a bc92 ba3b 4bf7 0ebc 8221 003b
000000b0: 1cbc 9a3a e47b 2e3b d0f3 0ebc e6f7 20bc
000000c0: ee38 27bc b80e 583a fab6 a13b fc56 28bc
000000d0: 3d11 af3b 67af 0ebc 9c8f c43a 72be 38bc
000000e0: e0cd 1fbc 49bc ff3a 58b7 38bc 74b0 2d3c
000000f0: 7748 c83a 5a8f b73a 086b 0bba 9947 a23a
00000100: 9bd3 ba3b 9ec3 20bc e9f7 25bc 3260 20bc
00000110: 1354 0e3a 3f98 38bc fcef cf3a 3676 1fbc
00000120: 5fa3 2e3c 5683 073b 3e92 933b 10ba 38bc
00000130: ccf9 c03b 08f7 0ebc 6199 c53a 9c10 0fbc
00000140: b850 e53a 92fc ba3b 84f1 0ebc d696 f03a
00000150: a1b4 38bc 93b2 38bc ff30 11bc 9f11 b83a
00000160: 2536 20bc 7ac0 38bc b240 21bc 473e 26bc
00000170: 6ecc b93b 72d6 0c3b 1705 26bc c99e 20bc
00000180: 62b6 c23b 40a9 0b3b 92ba a13b c4d5 20bc
00000190: e835 c63b 3d3a de3a 4e80 9e3b 4f54 dd3b
000001a0: c7f6 0ebc 5ec1 38bc f312 be3b 341e 263c
000001b0: 2082 2b3c 6d76 20bc 26bd 26bc 13fa 0ebc
000001c0: 81e6 0bbb 2982 5e3a d246 c73b 4dd7 cb3b
000001d0: 457e bd3b 67bd 20bc a1f8 0ebc 6ff9 26bc
000001e0: 867e 953a 7f93 20bc 9af9 183c a446 953a
000001f0: 3bc2 01bb 6a25 21bc 8893 a13a b603 27bc
0.0062820767 0.0017644074 0.0015857928 -0.0014315987 0.000586231 -0.010191293 -0.010170151 0.00078637333
-0.009808314 -0.010205645 0.0010686847 0.0047948775 -0.010241903 -0.009647146 -0.0112740975 -0.006766246
0.006151072 0.001978882 -0.008724694 0.0062598023 0.00047013536 0.0049900147 -0.0097440425 -0.0022039257
0.0057266587 0.010722891 -0.010188493 0.001297613 -0.008709699 -0.009776522 -0.00872783 -0.008724655
-0.011274195 0.0005394144 0.0016213256 0.0013273556 -0.009772748 -0.008725448 0.0063185794 0.0060641565
0.0015906183 0.0056937616 -0.008725951 0.0019551222 0.0011805329 0.0026624138 -0.008725122 -0.009824729
-0.010206444 0.00082419394 0.0049351426 -0.010274645 0.005342631 -0.008708811 0.0014996412 -0.011275874
-0.009753674 0.0019511069 -0.011274181 0.010601152 0.0015280385 0.0014004514 -0.0005318378 0.0012380957
0.005701495 -0.009812264 -0.010129907 -0.00978856 0.0005429398 -0.011266767 0.0015864368 -0.0097327735
0.010659068 0.0020677648 0.0045035174 -0.0112748295 0.005889153 -0.008725889 0.0015075618 -0.008731987
0.001749537 0.0057063783 -0.008724574 0.00183555 -0.011273534 -0.011273044 -0.008861779 0.0014043337
-0.009778534 -0.011276359 -0.009842085 -0.010146684 0.005670122 0.0021490124 -0.010133049 -0.009803482
0.005942152 0.0021310598 0.004935571 -0.009816591 0.0060489066 0.0016954612 0.0048370725 0.006754435
-0.0087258285 -0.011276571 0.0058005988 0.010139037 0.010468036 -0.00979386 -0.010176932 -0.0087266145
-0.0021347108 0.00084880233 0.0060814405 0.006220734 0.0057828748 -0.009810782 -0.00872627 -0.010191306
0.0011405505 -0.009800791 0.009336853 0.001138885 -0.0019799608 -0.00983558 0.0012327293 -0.010193756

bn2.running_var f4 [128]
00000000: 9023 e236 e81c 3338 adf3 3238 7188 e136
00000010: 09f4 3238 3696 e636 f15a e136 7928 3338
00000020: 6f75 d936 88b4 dc36 0a17 3338 cf23 ef36
00000030: 4a60 ee36 daa3 9736 2f30 3338 ddd7 3238
00000040: 93a8 dc36 7824 3338 1259 3338 2d63 e636
00000050: f0b3 3238 33ab e036 4227 e536 6e69 e036
00000060: 0aef e236 264e 8634 8f89 df36 0cd0 3238
00000070: abb2 3238 fbb9 de36 22db 3238 ae12 3338
00000080: b460 3338 00f6 3238 5ab7 3238 f41c 3338
00000090: c405 e236 e34d 3338 66ae dc36 bee5 df36
000000a0: 3b3d 3338 ef30 ed36 fdc1 3238 1630 3138
000000b0: 84ba 3238 4ef4 dd36 ce3e 3338 69fb e436
000000c0: d940 dd36 5086 3238 616c de36 297f ed36
000000d0: 407e e536 04b9 3238 c455 3238 ddf2 3238
000000e0: 0029 3338 6a37 3338 7608 3338 c8d7 bd33
000000f0: 2834 3338 cb2f 3338 8b49 3338 e8fe 3238
00000100: f4d2 de36 c3d8 e336 42d1 df36 4bbf dc36
00000110: e530 3238 3c24 3238 dd03 3338 ee5a e636
00000120: 7c9a 8933 f653 3238 be97 dc36 e9db 3238
00000130: be30 e636 bb18 3338 3e09 3338 45d0 3138
00000140: 3e93 3238 8de7 de36 d6e9 3238 bf12 3338
00000150: 730b 3338 dd03 3338 646e 3238 29c5 3238
00000160: 890e e736 cf0c 3338 47a9 e036 dbdd de36
00000170: 2a17 e336 801e 3338 458e e036 d497 df36
00000180: cd5c df36 a635 e336 a567 e236 123b 1133
00000190: 7db7 dd36 cb34 3338 ba01 e736 4e40 db36
000001a0: f00d 3338 550d 3338 3160 de36 74aa c633
000001b0: 0abc 8a34 7bae de36 6349 e636 8ede 3238
000001c0: ce29 3338 1a05 3338 2eb4 e436 cffa de36
000001d0: acff df36 4318 dd36 86e3 3238 36a7 de36
000001e0: 1307 3338 1e2a df36 15ef 0e33 cb10 3338
000001f0: 00db 3238 b98e df36 e7ea 3238 0159 e236
6.739465e-06 4.2703847e-05 4.2665448e-05 6.7214064e-06 4.2665783e-05 6.872021e-06 6.7161095e-06 4.271462e-05
6.480775e-06 6.5775275e-06 4.2698382e-05 7.1269237e-06 7.1041623e-06 4.5192255e-06 4.27218e-05 4.2639545e-05
6.5761355e-06 4.271089e-05 4.275988e-05 6.8660797e-06 4.2606087e-05 6.6956504e-06 6.829302e-06 6.687994e-06
6.7631527e-06 2.5016305e-07 6.661932e-06 4.2632266e-05 4.2604905e-05 6.6377665e-06 4.264259e-05 4.2694322e-05
4.2766987e-05 4.2667612e-05 4.2609267e-05 4.270389e-05 6.735996e-06 4.2749463e-05 6.5768136e-06 6.6726634e-06
4.273395e-05 7.068847e-06 4.2619173e-05 4.2244872e-05 4.2612213e-05 6.614754e-06 4.2735417e-05 6.8241975e-06
6.5938625e-06 4.2563595e-05 6.6287325e-06 7.077954e-06 6.8394293e-06 4.2610816e-05 4.2518383e-05 4.266469e-05
4.271511e-05 4.2728534e-05 4.2684806e-05 8.840249e-08 4.27255e-05 4.2721436e-05 4.2745418e-05 4.2675907e-05
6.6406737e-06 6.7903616e-06 6.6702787e-06 6.5787804e-06 4.2484044e-05 4.2472253e-05 4.2680524e-05 6.8651198e-06
6.40766e-08 4.25167e-05 6.574176e-06 4.2643314e-05 6.8602085e-06 4.2699958e-05 4.2685533e-05 4.2394055e-05
4.2575637e-05 6.6430716e-06 4.2656284e-05 4.2694384e-05 4.268759e-05 4.2680524e-05 4.2541316e-05 4.2622127e-05
6.8860286e-06 4.2688855e-05 6.6954267e-06 6.641943e-06 6.767824e-06 4.270533e-05 6.6922826e-06 6.663593e-06
6.6567213e-06 6.7713727e-06 6.7473907e-06 3.3814167e-08 6.607674e-06 4.2726093e-05 6.8845375e-06 6.5341947e-06
4.2689906e-05 4.2689342e-05 6.6273137e-06 9.251099e-08 2.584132e-07 6.6364278e-06 6.8630775e-06 4.2645777e-05
4.271586e-05 4.2681677e-05 6.815905e-06 6.6453135e-06 6.675682e-06 6.5891377e-06 4.2650405e-05 6.6355815e-06
4.2683514e-05 6.650821e-06 3.3279395e-08 4.2692565e-05 4.2642467e-05 6.662533e-06 4.2657277e-05 6.7456863e-06

fc3.weight f4 [1, 128]
00000000: 0ad7 233c 0ad7 23bc 0ad7 23bc 0ad7 233c
00000010: 0ad7 23bc 0ad7 233c 0ad7 233c 0ad7 23bc
00000020: 0ad7 233c 0ad7 233c 0ad7 23bc 0ad7 233c
00000030: 0ad7 233c 0ad7 233c 0ad7 23bc 0ad7 23bc
00000040: 0ad7 233c 0ad7 23bc 0ad7 23bc 0ad7 233c
00000050: 0ad7 23bc 0ad7 233c 0ad7 233c 0ad7 233c
00000060: 0ad7 233c 80e7 0fbc 0ad7 233c 0ad7 23bc
00000070: 0ad7 23bc 0ad7 233c 0ad7 23bc 0ad7 23bc
00000080: 0ad7 23bc 0ad7 23bc 0ad7 23bc 0ad7 23bc
00000090: 0ad7 233c 0ad7 23bc 0ad7 233c 0ad7 233c
000000a0: 0ad7 23bc 0ad7 233c 0ad7 23bc 0ad7 23bc
000000b0: 0ad7 23bc 0ad7 233c 0ad7 23bc 0ad7 233c
000000c0: 0ad7 233c 0ad7 23bc 0ad7 233c 0ad7 233c
000000d0: 0ad7 233c 0ad7 23bc 0ad7 23bc 0ad7 23bc
000000e0: 0ad7 23bc 0ad7 23bc 0ad7 23bc 05fc 4a3b
000000f0: 0ad7 23bc 0ad7 23bc 0ad7 23bc 0ad7 23bc
00000100: 0ad7 233c 0ad7 233c 0ad7 233c 0ad7 233c
00000110: 0ad7 23bc 0ad7 23bc 0ad7 23bc 0ad7 233c
00000120: 5210 193c 0ad7 23bc 0ad7 233c 0ad7 23bc
00000130: 0ad7 233c 0ad7 23bc 0ad7 23bc 0ad7 23bc
00000140: 0ad7 23bc 0ad7 233c 0ad7 23bc 0ad7 23bc
00000150: 0ad7 23bc 0ad7 23bc 0ad7 23bc 0ad7 23bc
00000160: 0ad7 233c 0ad7 23bc 0ad7 233c 0ad7 233c
00000170: 0ad7 233c 0ad7 23bc 0ad7 233c 0ad7 233c
00000180: 0ad7 233c 0ad7 233c 0ad7 233c 2c62 153c
00000190: 0ad7 233c 0ad7 23bc 0ad7 233c 0ad7 233c
000001a0: 0ad7 23bc 0ad7 23bc 0ad7 233c df87 043c
000001b0: 61e3 223c 0ad7 233c 0ad7 233c 0ad7 23bc
000001c0: 0ad7 23bc 0ad7 23bc 0ad7 233c 0ad7 233c
000001d0: 0ad7 233c 0ad7 233c 0ad7 23bc 0ad7 233c
000001e0: 0ad7 23bc 0ad7 233c ec4e 0f3c 0ad7 23bc
000001f0: 0ad7 23bc 0ad7 233c 0ad7 23bc 0ad7 233c
0.01 -0.01 -0.01 0.01 -0.01 0.01 0.01 -0.01
0.01 0.01 -0.01 0.01 0.01 0.01 -0.01 -0.01
0.01 -0.01 -0.01 0.01 -0.01 0.01 0.01 0.01
0.01 -0.008783221 0.01 -0.01 -0.01 0.01 -0.01 -0.01
-0.01 -0.01 -0.01 -0.01 0.01 -0.01 0.01 0.01
-0.01 0.01 -0.01 -0.01 -0.01 0.01 -0.01 0.01
0.01 -0.01 0.01 0.01 0.01 -0.01 -0.01 -0.01
-0.01 -0.01 -0.01 0.003097297 -0.01 -0.01 -0.01 -0.01
0.01 0.01 0.01 0.01 -0.01 -0.01 -0.01 0.01
0.00934227 -0.01 0.01 -0.01 0.01 -0.01 -0.01 -0.01
-0.01 0.01 -0.01 -0.01 -0.01 -0.01 -0.01 -0.01
0.01 -0.01 0.01 0.01 0.01 -0.01 0.01 0.01
0.01 0.01 0.01 0.009117644 0.01 -0.01 0.01 0.01
-0.01 -0.01 0.01 0.008089035 0.009941907 0.01 0.01 -0.01
-0.01 -0.01 0.01 0.01 0.01 0.01 -0.01 0.01
-0.01 0.01 0.008746844 -0.01 -0.01 0.01 -0.01 0.01
