10_Models/Results_Chicago/WGANBR_Freeflow_generator_best.pth (torch, 198462 bytes, 20 tensors)

fc1.weight f4 [128, 51]
00000000: b849 ec3d fdcb 32bd 3def 02be 7573 cdbb
00000010: 55a4 f63d 28d4 7fbd 5990 1cbe d812 e3bd
00000020: 6805 76bd f3ec f13b af9a 90bd 5710 7fbd
00000030: 7fb6 f0bd 8b73 d2bd b1d2 b63d bc7a c73b
00000040: 555c d4bd b0ac 513d 181e 33bc 4c31 4fbd
00000050: e536 39bd fca3 553a 9a5b 893d ba5c 7dbb
00000060: 18c5 83bd d5d4 f73d 96ad febc dbe4 cd3b
00000070: 8e5b ca3d 0719 063e 4adb db3d b9ab de3d
00000080: d593 453d de2c 17bd 9aa8 633d a57f 01be
00000090: 033d d53d e395 13be 6964 9d3d c286 663d
000000a0: b4d1 943d fdae 3dbd c678 283a 9b1c 0dbe
000000b0: 9943 f93d 2b35 eebd e5f4 d23d 8ba8 1a3e
000000c0: 3374 a43d e774 403d 29a3 bebd 44b2 e4bc
000000d0: 1d4e dbbc 2587 b73d edb8 d63d 5baf ce3d
000000e0: a3c0 d83d 8bfe f7bc 17cd 09bd 7732 3d3a
000000f0: 2b0e 87bd 3d0f b23d 8072 323c ef1a f63d
00000100: 48d9 e5bb 312a da3d 32e2 2abd 7bc9 093e
00000110: b384 abbc 0984 a53d dc23 ddbd 8d26 873d
00000120: b352 353c f88a 933d cc92 813d 3ea6 103e
00000130: 145d e73d ee45 1bbd c6cd 133e b4d7 f4bd
00000140: fd7c d73d 0248 cfbd 18a7 c9bd e9d4 033e
00000150: 6bfd d53d 6a9e 273d f566 9f3d c124 40bd
00000160: b9a5 83bd 160a efbd c013 923d a4e6 013e
00000170: e742 c7bd b290 cb3d 6125 9cbd 819e f5bd
00000180: 1a6a 103e bdcd 303d 24a8 eabc 94f9 c4bd
00000190: 5331 353d 2011 81bc 96de 823d 8757 e5bd
000001a0: c48b f7bd 0a37 763c c6e0 363c f748 fabd
000001b0: f352 8f3d f608 01bd 4f79 ed3d 0c65 febc
000001c0: dcac 9cbd 054d cd3d fc29 d2bd 1b06 d33d
000001d0: e190 c93d c2b8 253d 42de cb3b a40c ddbd
000001e0: b36e d4bd 31f5 a8bd daff 103d 1f1d a53d
000001f0: 0d6e bd3b 439f 84bd 1dd5 d83d 72eb abbd
00000200: 6d5c bb3c 9584 dabc f896 383d 6308 1a3e
00000210: e29c 9a3c ab3f 133e c551 9b3d 096c 79bd
00000220: 7c47 aa3d 7bc9 02bd 6c4a a4bc b7f8 9dbc
00000230: 4dce 2fbd 400d 94bc 0db2 3a3d c161 19bc
00000240: 1c34 48bd 00b0 b33c a0fb bebd eb58 92bd
00000250: 052b 0d3e 5e93 df3d 5843 c7bd 2748 493d
00000260: b38b a13d 2473 703b 469f 8e3d d2e2 023d
00000270: 9365 8a3d 04d8 aebd 8c46 993d 0eb3 ae3d
00000280: b700 03be 1d01 c53d 812a dbbd a696 ff3d
00000290: 0dc9 0cbe a140 d13d 67c2 23bd a340 e93d
000002a0: f885 18bd 61a0 08be 6190 03bc e007 68bc
000002b0: 00d7 e6bc 32ce a5bc cd39 abbd c73e fabd
000002c0: d39b ea3d 81ad fabd 9509 dfbd f281 af3d
000002d0: 2f6e c33d 17ed 78bd 36fd 12be 40e6 2dbd
000002e0: c431 003d df5e 64bd 01b0 333d 1171 bcbc
000002f0: 7de0 d23d 7f41 b53d e0e5 d43b f648 693d
00000300: fdf9 d4bd e674 2abd 4034 abbc c1ca 1abd
00000310: 4267 10be 825b 72bd ff37 71bd 5168 9b3d
00000320: 6eb0 c336 9495 743d 66d6 89bd cc7b 4c3d
00000330: ae71 f2bc 4b37 9f3d b59a 3bbd 0a99 ea3d
00000340: 2a8c 8c3d 8941 34bd 04bc 6dbd 912d 7f3d
00000350: 9671 e0bc 41dc dbbd 7850 aabc fee6 46bd
00000360: 1cb2 db3a 0cb2 ad3d d10e d03d 99aa d5bd
00000370: 126e 7dba eac7 853c cb7f f13d a7d3 34bd
00000380: fd90 37bd 3183 0dbe 9936 9cbd 0054 e13d
00000390: ad04 9e3c c61d 8cbb 72b0 823d c70a 173d
000003a0: 0fe7 b2bd db87 edbd 6e5a ac3c 80aa f43d
000003b0: ff8b 10be 5962 9fbd 36f8 3abd 32b0 1abe
000003c0: f6ee 453c bbb9 c63c 1c51 c53d 7b97 c3bc
000003d0: 9bca ec3d 9e3c 0cbe 758b 003e 435e 5c3d
000003e0: 0c17 f0bc eef3 003e 7746 e8bd 344e 953d
000003f0: de1a 093e fdeb 0bbe fcba 0cbe a93e 27be
0.11537498 -0.04365157 -0.12786575 -0.006269867 0.120430626 -0.062458187 -0.1528944 -0.110875785
-0.06006375 0.007382983 -0.070607536 -0.062271442 -0.11753558 -0.10275944 0.08926905 0.006087629
-0.103691734 0.05119008 -0.010932468 -0.050584123 -0.045218367 0.0008149741 0.06706925 -0.0038660006
-0.06434077 0.12101141 -0.031088632 0.006283385 0.09880744 0.13095485 0.107351854 0.10872597
0.048236687 -0.036908023 0.055580713 -0.12646349 0.10412028 -0.14412646 0.07685167 0.05628086
0.0726656 -0.04630946 0.0006426688 -0.13780443 0.12171096 -0.11631235 0.10300616 0.15103357
0.08029976 0.046986487 -0.09308464 -0.027917035 -0.026770646 0.08961324 0.104844905 0.1009204
0.105836175 -0.030272743 -0.033642855 0.00072172977 -0.06594499 0.08694313 0.010891557 0.12016856
-0.0070144273 0.106525786 -0.041719623 0.13455765 -0.0209373 0.08081824 -0.10797855 0.0659915
0.01106708 0.072042406 0.063268274 0.14125916 0.1129705 -0.037908487 0.14433965 -0.119552046
0.105218865 -0.10121156 -0.09846324 0.12874188 0.10448726 0.04092256 0.07783309 -0.04691005
-0.064280935 -0.116718456 0.07132673 0.12685639 -0.097295575 0.09939708 -0.07624317 -0.11993123
0.14102975 0.043164957 -0.028644629 -0.09617916 0.044236492 -0.015755236 0.06390111 -0.11198335
-0.12087205 0.015027771 0.011161989 -0.12220948 0.06998243 -0.031502686 0.115954034 -0.031054042
-0.07650158 0.10024456 -0.10261914 0.10303899 0.098420866 0.040459402 0.0062215636 -0.10793427
-0.10372677 -0.082498915 0.03540025 0.08062195 0.0057809413 -0.06475689 0.10587523 -0.08394517
0.02287122 -0.026674548 0.04506585 0.15042262 0.018873636 0.14379756 0.07583956 -0.060894046
0.08314416 -0.031930428 -0.020055018 -0.019283636 -0.042921353 -0.018072724 0.04557996 -0.009361685
-0.04887782 0.02193451 -0.093253374 -0.07145866 0.13785942 0.1091678 -0.09729642 0.049141075
0.07887974 0.0036689723 0.06963973 0.031954594 0.06757655 -0.085372955 0.07484159 0.08530246
-0.12793241 0.09619353 -0.10701466 0.12479906 -0.1374857 0.10217405 -0.03998032 0.113892816
-0.037237138 -0.1334243 -0.008030028 -0.014162034 -0.028178692 -0.020239923 -0.08360634 -0.12219005
0.11455502 -0.122401245 -0.108904995 0.08569707 0.095425 -0.06077298 -0.14354405 -0.04245591
0.03129746 -0.05575454 0.043869022 -0.023003133 0.10296724 0.08850383 0.00649713 0.056954347
-0.10399244 -0.04161539 -0.020898938 -0.037791017 -0.1410189 -0.0591693 -0.058891293 0.07588256
5.831992e-06 0.05971296 -0.067303464 0.04992275 -0.029595222 0.07774218 -0.045801837 0.11454971
0.06862672 -0.04400781 -0.058040634 0.062299315 -0.027397912 -0.107353695 -0.020790324 -0.048560135
0.0016761455 0.08481225 0.10159076 -0.104329295 -0.0009667586 0.016330678 0.11791953 -0.04414716
-0.044816006 -0.13819577 -0.07627601 0.1100235 0.019289339 -0.00427601 0.063813105 0.036875512
-0.08735477 -0.11598178 0.021039214 0.11946583 -0.14115904 -0.0778243 -0.04564687 -0.15106276
0.0120808985 0.024258485 0.09634611 -0.023875942 0.115620814 -0.13694999 0.12553199 0.053800832
-0.029307865 0.12593052 -0.11341565 0.07290307 0.13389155 -0.13664241 -0.13743204 -0.16332497

fc1.bias f4 [128]
00000000: ed44 0ebe 95bb 8f3c ebb0 f7bd 2f0a 003e
00000010: ce66 653d 6191 3abd 7261 5a3d 8d81 0abd
00000020: 158f 04be 7248 eabc 5ae6 923c e644 fa3d
00000030: 54c9 da3d 236b 8c3d 481a 1ebd 0dd7 1b3d
00000040: af9e 0dbe 8ba1 fbbd 70c5 6a3d 1d48 b03d
00000050: 41f9 ca3d a1a5 943d 9582 53bc 35e4 cbbd
00000060: e791 c33c 7118 44bd 42ca 0bbd 6edd 9e3d
00000070: ea00 06be e96f f63d d668 6d3c ceef 27bc
00000080: f9c7 023e 79b0 343d ffd9 d0bd 4553 d0bb
00000090: 5103 163d d939 aa3d 57c4 8dbd 4d1a f6bd
000000a0: 07b8 a5bd 84bd 07be 6fd1 babd 498d c13d
000000b0: d50e 3bbc 4cb3 003e 4991 9abd df9b eabc
000000c0: 4e31 453d c663 333d 9c61 2ebc 98ad a4bd
000000d0: 4e1e 0cbe 5447 e8bd b8eb e73d 5369 f53d
000000e0: a358 fabd 2f77 f1bc 0b7a f23d 29dc 57bd
000000f0: 4c07 c2bd 55b1 94bd 9a22 b7bd 7d32 053e
00000100: 6c32 7c3c 7634 03be 2ba1 26bd 2462 c1bb
00000110: fcac 13bd 1703 093e ab81 edbd 0c3b 903d
00000120: f7bd babd 8834 0abe e2bc 94bc 4d4c f8bd
00000130: ca97 92bd c2bb 6b3d d225 6e3d 0eea 55bd
00000140: c037 cebd 33be 4dbd 28fc 19bd 209b 11bc
00000150: 8809 56bc 70ca afbd 4183 edba 1a1c 51bc
00000160: 169d 04be f960 353a e107 ba3c b2cb 9c3d
00000170: 50c2 bebd 5eb2 f8bc 99a4 cb3d 3bf4 cbbd
00000180: 5d36 adbd 9712 823d 01f2 c43c e156 ca3d
00000190: fba2 cfbd 99a5 0d3d 7433 5a3d 41f8 95bd
000001a0: 0cb1 f93d 176d bbbc e284 32bd 9b31 81bd
000001b0: 4859 4c3d 1e59 22bd 725b 113d 6087 f63d
000001c0: aced d13d 302e 2ebd 1ec8 a3bd 0855 07be
000001d0: 8848 b9ba 1d9a d43d 63ca 9fbd d64b bbbd
000001e0: 0bdd 043d 17f5 dabc b1fc ef3d 3d91 9cbc
000001f0: 978b 80bd 6f72 753d 9bba 17bb 25fb 053c
-0.1389348 0.0175455 -0.12094291 0.12503885 0.056006245 -0.0455488 0.053315587 -0.033814956
-0.12945206 -0.028598998 0.017932106 0.122201726 0.106829315 0.06856372 -0.038599283 0.038046885
-0.13830064 -0.12286671 0.057317197 0.086075045 0.09910823 0.07258154 -0.012909551 -0.099556364
0.023873283 -0.04787487 -0.034128435 0.07757078 -0.13086286 0.12033064 0.014490327 -0.010250045
0.12771596 0.04411361 -0.101978295 -0.0063575828 0.036624257 0.08311815 -0.069222145 -0.12016735
-0.08091741 -0.13255888 -0.091219775 0.09450776 -0.01141711 0.12568396 -0.07547242 -0.028638778
0.048142724 0.043796323 -0.010643389 -0.08040923 -0.13683435 -0.1134173 0.11324257 0.119829796
-0.12223937 -0.029475776 0.11839684 -0.052700195 -0.09474048 -0.07260386 -0.089421466 0.13007541
0.015392881 -0.12812981 -0.040681046 -0.005901592 -0.036053643 0.13380085 -0.11596998 0.07042512
-0.09118264 -0.13496602 -0.018156473 -0.12123928 -0.07157858 0.057552107 0.058141537 -0.052225165
-0.10069227 -0.050230216 -0.03759399 -0.008887082 -0.013063796 -0.08583534 -0.0018120782 -0.012763048
-0.12950549 0.0006919052 0.022708835 0.07656039 -0.09314406 -0.03035849 0.09943504 -0.09958693
-0.084576346 0.06351202 0.024041178 0.09879852 -0.10138508 0.034581754 0.053271726 -0.07322741
0.12191972 -0.022879167 -0.04358376 -0.063082896 0.049889833 -0.03963577 0.0354876 0.120375395
0.102504104 -0.042524517 -0.07997154 -0.1321603 -0.0014135996 0.10380957 -0.07802274 -0.09145324
0.032437366 -0.026728196 0.11718119 -0.019112224 -0.06276625 0.059923586 -0.0023151997 0.008177553

bn1.weight f4 [128]
00000000: 344d 7d3f f5a5 7d3f c22c 7e3f b5e5 7f3f
00000010: 722d 813f 6da4 7e3f b977 803f 333c 803f
00000020: 975f 7e3f 5986 7e3f e784 7e3f c53c 803f
00000030: 12c7 7e3f 6b41 7e3f 4bbe 7d3f 3a66 803f
00000040: fbf6 7d3f 931a 803f 3a80 803f c8af 7f3f
00000050: 399a 7c3f 0824 7f3f 6daa 7c3f 00cd 813f
00000060: 6411 803f 56a5 813f 288f 7d3f 505f 7e3f
00000070: 25ea 7f3f 1c5c 803f 26e5 7c3f 0860 803f
00000080: e2f1 7e3f ce5b 803f af6c 7e3f c98c 803f
00000090: bbc8 7d3f 15f4 7e3f 063a 803f 391c 803f
000000a0: 3552 823f d624 803f 3974 803f 4e0c 7e3f
000000b0: 2b19 813f 91c7 803f f401 813f b244 7e3f
000000c0: b71c 803f fe68 7c3f d1f4 7e3f eb1a 813f
000000d0: b82a 7d3f c979 7d3f e6c1 7f3f 3a9c 833f
000000e0: 165d 803f 0e00 7f3f 0fad 7c3f d255 7d3f
000000f0: d216 7f3f 59fe 803f 6051 803f c530 813f
00000100: 9324 803f 7b3a 803f 7ca0 7e3f 0ed0 7d3f
00000110: b646 7e3f 0da8 7d3f afd8 803f e158 7e3f
00000120: 831d 7c3f 895d 803f 7581 803f c60d 7f3f
00000130: b9a4 813f 3590 803f c7e3 7d3f 6e14 803f
00000140: 810d 813f da1c 7c3f cb92 813f 400a 7f3f
00000150: b3bf 7f3f 6f15 803f c440 813f d141 813f
00000160: 22b4 813f c0d4 813f 458a 813f 373e 803f
00000170: 1c69 803f c7a9 803f d804 7e3f f22b 803f
00000180: 8471 803f e9fb 7b3f 794e 823f 94e0 813f
00000190: 0c51 813f e8a5 7f3f e725 803f b203 7f3f
000001a0: 7f0a 7f3f 534b 7f3f ce41 7d3f 2f9a 803f
000001b0: 4efb 803f b45e 803f 825e 7f3f 91f5 7e3f
000001c0: db25 7f3f 34d4 7c3f 23f6 803f 04ac 7f3f
000001d0: 06cb 783f 4eac 7e3f de4a 813f d3ab 7b3f
000001e0: 7534 7e3f 7f7f 813f e699 813f dbed 7e3f
000001f0: e579 803f 890c 813f ad55 803f 21ba 7c3f
0.9894593 0.99081355 0.99287045 0.9995988 1.0091994 0.99469644 1.0036536 1.0018371
0.9936461 0.9942375 0.9942154 1.0018545 0.9952251 0.9931857 0.9911849 1.0031197
0.9920499 1.000811 1.0039132 0.99877596 0.98672825 0.99664354 0.9869755 1.0140686
1.0005307 1.0128582 0.99046564 0.99364185 0.9996665 1.002811 0.9878715 1.0029306
0.99587834 1.0028017 0.9938459 1.0042964 0.99134415 0.9959119 1.0017707 1.0008613
1.0181338 1.0011241 1.0035468 0.99237525 1.0085806 1.0060903 1.0078721 0.9932357
1.0008763 0.98597705 0.9959231 1.008634 0.9889331 0.99013954 0.9990524 1.0282052
1.0028408 0.9960946 0.98701566 0.98959076 0.99644196 1.0077621 1.0024834 1.0093008
1.0011162 1.0017847 0.9946363 0.9914559 0.99326646 0.9908455 1.0066127 0.9935437
0.9848253 1.0028545 1.0039507 0.9963039 1.0128394 1.0044008 0.99175686 1.0006235
1.0082246 0.98481524 1.0122923 0.99625015 0.99901885 1.0006541 1.009789 1.009821
1.0133097 1.0143051 1.0120322 1.0018986 1.0032077 1.0051812 0.9922614 1.0013411
1.0034642 0.9843126 1.0180198 1.0146661 1.0102859 0.9986253 1.0011567 0.99615014
0.9962539 0.9972431 0.98928535 1.0047053 1.0076692 1.0028901 0.9975358 0.99593455
0.9966714 0.98761296 1.0075115 0.9987185 0.9718479 0.99481666 1.0100973 0.9830906
0.99298793 1.0117034 1.0125091 0.9958169 1.0037199 1.008195 1.0026146 0.9872151

bn1.bias f4 [128]
00000000: 39f5 313c c127 dabb 3fe1 03bb d95c ec3b
00000010: 5285 e73b d061 42bc 4291 8cba 3861 363c
00000020: b97c 9f3b 9875 023c 64a6 4bbc 0068 c1bb
00000030: 1e30 a03b 1bfe 093c a72b acba 5e93 a23b
00000040: d46a 0bbb a43b 48bb 97e3 0f3c 7bac daba
00000050: bbc1 11bc 6617 15ba 4763 113c d947 813c
00000060: 2b72 b639 a56a 0c3b 1762 9e3b 58af ae3a
00000070: 9b88 2c3b 5c43 413b 509c 85bc 210d 84ba
00000080: 42fe 733b ba2e 243b 7958 60ba 6162 093c
00000090: 9b31 ab3b b59a 213c 3fa7 1e3a 8609 eaba
000000a0: 5020 5d3c a46a 853c 0581 8c3b c50c b73b
000000b0: 089e 59bb 3349 b03b 6b79 66bc 3855 89bb
000000c0: 59cb de3b 05db 8b3a ff71 03bb 79d6 bcbb
000000d0: 6d51 68bc c481 58bc 6043 bebb a58c f43b
000000e0: 5cf9 c53b 7bea 21bb 38bb 47bc 63df 923b
000000f0: bfcf 3e3c 29f1 123c fce8 273c fd59 cb3b
00000100: 3115 533b 36c5 f93b 645b bd3b 3654 35ba
00000110: 6ec7 09bc b8ee 2b3b 9aef 4c3c 0bfc 5cba
00000120: 3b1c 38bc 8d92 943b 850c 4c3b 1a67 f6bb
00000130: 2b1f 253c e6ba ed3a 5eb2 7bbb 1749 04bc
00000140: 5c30 d13b 6ef8 d4bb 6b0e 2d3c 889e 663b
00000150: 63e7 2abb 0392 893c 2f36 043c 9c2a fa3b
00000160: ea50 1aba 2d08 803c 57fc 8b3c fbd9 dc3a
00000170: 06ea 423c 793f d63c c010 afbb dc2f babb
00000180: a13d 843b 3d79 16bc 2b06 cc3c ef13 403c
00000190: 5a15 d23b d6f6 68b9 1366 9dbb 5ddd 673b
000001a0: d728 af3b 5017 55bb 0a61 35bb 6fc6 f63b
000001b0: 5825 f83a 3e12 b53b ac83 c8bb 116e 793b
000001c0: e19d 97ba 16be 67ba bee1 2f3c a12a 893b
000001d0: 15c5 76bc 6f5a 01bb 9926 f83b 0bcb 06bc
000001e0: 1b33 09bb d478 a13c 15f7 f33b 352c b439
000001f0: 9524 5a3a bd36 563c a205 ba3b 6378 a2ba
0.010861688 -0.006657571 -0.002012327 0.0072132167 0.0070654536 -0.011864141 -0.0010724443 0.011131577
0.004867163 0.007962607 -0.012429807 -0.0059022903 0.0048885485 0.0084224 -0.0013135568 0.004961415
-0.0021273391 -0.0030553127 0.008782289 -0.0016683483 -0.008896287 -0.00056873856 0.008873767 0.01578133
0.00034798807 0.002142587 0.0048334706 0.0013327403 0.002632654 0.0029489612 -0.016309887 -0.0010074714
0.0037230407 0.0025052265 -0.00085581053 0.008385272 0.0052244193 0.009863545 0.0006052143 -0.0017855621
0.013496473 0.016286202 0.0042878413 0.005586239 -0.0033205766 0.00537982 -0.014067034 -0.004191067
0.0067991433 0.0010670131 -0.002005696 -0.005762872 -0.01417957 -0.013214532 -0.0058063716 0.007463055
0.006041689 -0.0024706412 -0.0121906325 0.004482196 0.01164621 0.00896863 0.010248419 0.006205796
0.0032208676 0.0076223863 0.005778717 -0.00069171505 -0.008409364 0.0026234817 0.012508297 -0.00084298913
-0.011237199 0.004534072 0.0031135392 -0.007519615 0.010078232 0.0018137365 -0.0038405876 -0.008074067
0.0063839387 -0.0064993417 0.01056252 0.0035189707 -0.0026077859 0.016793257 0.008069559 0.007634474
-0.0005886691 0.015628899 0.017088098 0.0016849631 0.011896616 0.026153313 -0.005342573 -0.005681975
0.004035667 -0.009184179 0.024905285 0.011723503 0.0064112367 -0.00022217198 -0.004803428 0.0035379746
0.0053454447 -0.0032515116 -0.0027676248 0.0075309793 0.0018932028 0.0055258563 -0.006119212 0.003805999
-0.0011567437 -0.00088402757 0.0107349735 0.00418599 -0.015061636 -0.001973774 0.0075729606 -0.00822712
-0.0020935002 0.019710936 0.007445226 0.00034365212 0.0008321491 0.013074574 0.005676941 -0.0012395497

bn1.running_mean f4 [128]
00000000: 77f6 0548 2111 a848 acc9 2f48 b29e 6fc8
00000010: 4f35 eac7 6928 79c7 e838 eac7 7292 e948
00000020: 87d7 a348 55bf a248 c5b5 5a48 6f07 87c7
00000030: 0596 5448 33cf 0648 782f c048 5ae4 5f48
00000040: b3fc 53c8 2c29 16c8 7d75 e648 feed 9548
00000050: 01ac b648 b877 1349 0823 cd46 97de 9c48
00000060: 89d7 2148 5610 08c8 c23b 6e48 204e f748
00000070: 9357 cf48 88d9 44c8 f384 9648 ac7f 5248
00000080: f2d8 5548 f41d 09c8 e69f dd48 29d1 64c7
00000090: 321b 65c8 b2fd 7a48 bb99 4448 58aa a248
000000a0: 4e93 06c8 a3c9 73c6 aa54 ab48 7c8f 3248
000000b0: de2a 11c8 3c46 5848 c300 89c7 897d a448
000000c0: d8d9 fac7 f661 0fc8 c18c a7c7 f946 8cc5
000000d0: 6734 7e48 fc1d 0cc6 7ba3 c548 28cc 04c7
000000e0: 71c6 ad48 5c06 3147 43a1 9a48 ca0d 6548
000000f0: 8a12 6148 de24 d7c8 287c c1c7 235c 68c6
00000100: b6fc 0249 ffbf 5348 b3f4 7348 a0c0 ad48
00000110: ea72 4248 c98b 0ec8 f825 8848 6353 0a48
00000120: a851 7f48 3e34 2cc8 0b5e 01c8 bef0 8d48
00000130: 9960 16c8 3fd9 8a48 0d9d d448 804a fa47
00000140: 5a4b 0fc8 9844 28c7 5da7 b448 7d0c c148
00000150: 1733 22c8 cfe9 9548 5cab 77c8 963e 21c8
00000160: 769e 21c8 2ef5 d3c7 2827 e8c8 f63d cc48
00000170: 69d8 8ac7 d0ee 2847 3d02 3948 c257 dec6
00000180: 205e f8c7 ce57 3648 6171 d8c7 e005 1949
00000190: 4ed4 f0c7 2f29 d5c6 6396 d1c6 8f63 6148
000001a0: 2787 d048 0d18 97c8 2fc8 aa48 9dcd 2249
000001b0: 502f f448 7177 c2c7 dd06 7fc7 f490 7148
000001c0: dde0 afc7 3669 a548 b870 9248 f176 c6c6
000001d0: 6798 c647 096e 1f48 bcf9 9848 1b2e bcc7
000001e0: a617 9948 111a 84c8 94ec 03c8 d898 8748
000001f0: 7e6b 94c8 a9fe a548 8ae6 28c8 61dd d0c7
137177.86 344201.03 180006.69 -245370.78 -119914.62 -63784.41 -119921.81 478355.56
335548.22 333306.66 223959.08 -69134.87 217688.08 138044.8 393595.75 229265.4
-217074.8 -153764.69 471979.9 307055.94 374112.03 604027.5 26257.516 321268.72
165726.14 -139329.34 243951.03 506481.0 424636.6 -201574.12 308263.6 215550.69
218979.78 -140407.81 453887.2 -58577.16 -234604.78 257014.78 201318.92 333138.75
-137805.22 -15602.409 350885.3 182845.94 -148651.47 221464.94 -70145.52 336876.28
-128435.69 -146823.84 -85785.51 -4488.8716 260305.61 -8967.496 404763.84 -33996.156
355891.53 45318.36 316682.1 234551.16 230474.16 -440614.94 -99064.31 -14871.034
536523.4 216831.98 249810.8 355845.0 199115.66 -145967.14 278831.75 141645.55
261446.62 -176336.97 -132472.17 290693.94 -153986.39 284361.97 435432.4 128149.0
-146733.4 -43076.594 369978.9 395363.9 -166092.36 307022.47 -253613.44 -165114.34
-165497.84 -108522.36 -475449.25 418287.7 -71088.82 43246.812 189448.95 -28459.879
-127164.25 186719.22 -110818.76 626782.0 -123304.61 -27284.592 -26827.193 230798.23
427065.22 -309440.4 349761.47 666841.8 500090.5 -99566.88 -65286.863 247363.81
-90049.73 338761.7 299909.75 -25403.47 101680.805 163256.14 313293.88 -96348.21
313533.2 -270544.53 -135090.31 277702.75 -303963.94 339957.28 -172954.16 -106938.76

bn1.running_var f4 [128]
00000000: cebf 3651 8e2f 3652 4f3b 1c51 6e7e 9b51
00000010: 952d a950 2939 3850 137c c150 d911 8b52
00000020: 489c 0e52 b47c 0a52 f8f1 7c51 bfe1 0450
00000030: 8543 4e51 3d57 5751 6641 3352 d200 a851
00000040: 9e49 5751 0589 1351 bac1 7452 cb3a f151
00000050: 5a27 1952 3615 0853 2596 2050 ab2a 1452
00000060: 7540 5c51 a72c 0751 c47c 8151 259e 9852
00000070: 7d4c 6852 d945 5651 7a78 df51 5616 6651
00000080: 7a13 6551 1310 cc50 1e62 7352 9b51 da50
00000090: dd8e ca51 4052 a751 d4fb 8551 e6b4 0552
000000a0: c42c c050 cfcf 0450 2b9a 0b52 a7e8 1e51
000000b0: a3cf ff50 271c 9c51 dcbd 8450 726e 0552
000000c0: 4823 2951 cb82 8851 9ee5 a150 f914 bb4f
000000d0: e5e3 a451 ddbc aa50 6f44 4052 21fb ad4f
000000e0: e368 3552 f2c7 0650 d46d 0f52 ca63 8651
000000f0: a59f 8a51 8019 8152 aa5c 0951 8852 8550
00000100: 7c66 9d52 4e7a d151 73df 9251 031e 2552
00000110: bbac 7451 c1f9 0851 1acd b351 70fa 4551
00000120: 9e60 c351 d8df 2351 33d9 0e51 fada 1052
00000130: 2f32 dc50 b52b 1e52 390e 6d52 1600 4051
00000140: 2e70 e450 0a05 4350 3885 2852 70bb 3452
00000150: a35c 2e51 a40d dd51 21de 0452 bfb4 2e51
00000160: 8066 2951 4f49 e550 aa31 8b52 9bc2 6b52
00000170: 1265 9d50 6530 3850 7ed2 a551 fb46 a650
00000180: 9b18 da50 965f 5a51 8335 ad50 0c96 d652
00000190: d2c3 9350 8da1 b94f 97f6 b250 cec1 7551
000001a0: bdf1 5052 e2a4 cd51 5f8b 0d52 cd85 0053
000001b0: 765c 9e52 cf14 4e50 fd3f 3b50 3ca8 c651
000001c0: 67d9 aa50 934d f351 fb7c dc51 bf96 da50
000001d0: d070 9950 1a9a 4851 fe24 2352 3f84 0051
000001e0: 1b33 ea51 da90 eb51 4379 e050 241e 0b52
000001f0: ccd8 c951 8df6 0452 d8c8 4151 9dd1 1651
4.9056375e+10 1.9562047e+11 4.193812e+10 8.348013e+10 2.2706694e+10 1.2363015e+10 2.5969072e+10 2.9864994e+11
1.5312683e+11 1.4869941e+11 6.7899458e+10 8.917548e+09 5.5368503e+10 5.78051e+10 1.9247409e+11 9.019603e+10
5.7790816e+10 3.9603687e+10 2.6280555e+11 1.2950919e+11 1.6444755e+11 5.844714e+11 1.0776778e+10 1.5909275e+11
5.912339e+10 3.6285608e+10 6.9518e+10 3.2774413e+11 2.4942892e+11 5.751843e+10 1.1997487e+11 6.1763576e+10
6.1492142e+10 2.7388844e+10 2.613308e+11 2.930225e+10 1.0874753e+11 8.982993e+10 7.193195e+10 1.435664e+11
2.5793274e+10 8.912846e+09 1.4989674e+11 4.2656756e+10 3.4334382e+10 8.38109e+10 1.7816281e+10 1.432709e+11
4.5402587e+10 7.328874e+10 2.172944e+10 6.2774277e+09 8.852476e+10 2.2916033e+10 2.0644546e+11 5.8378327e+09
1.947872e+11 9.045002e+09 1.5400573e+11 7.2149975e+10 7.4422985e+10 2.772393e+11 3.6872823e+10 1.7894228e+10
3.3801463e+11 1.1246251e+11 7.885176e+10 1.7729328e+11 6.5679372e+10 3.676911e+10 9.653002e+10 5.3144388e+10
1.0489245e+11 4.3989697e+10 3.8345585e+10 1.5553728e+11 2.955421e+10 1.6983453e+11 2.5453647e+11 5.1539698e+10
3.0660456e+10 1.3087549e+10 1.8094739e+11 1.940597e+11 4.6804906e+10 1.1867708e+11 1.426656e+11 4.6897295e+10
4.547307e+10 3.0774295e+10 2.9891684e+11 2.5314556e+11 2.1125173e+10 1.2360717e+10 8.9025135e+10 2.2317357e+10
2.9272365e+10 5.861916e+10 2.3247722e+10 4.608202e+11 1.9832672e+10 6.2287447e+09 2.402004e+10 6.5969906e+10
2.2435222e+11 1.1040432e+11 1.5198216e+11 5.520006e+11 3.4007803e+11 1.3829881e+10 1.2566132e+10 1.0665325e+11
2.2930995e+10 1.3062232e+11 1.183737e+11 2.93385e+10 2.0594459e+10 5.384868e+10 1.7517507e+11 3.449841e+10
1.2573497e+11 1.2646844e+11 3.0128347e+10 1.4937653e+11 1.0836571e+11 1.4276803e+11 5.2018643e+10 4.0485114e+10

fc2.weight f4 [128, 128]
00000000: b040 64bd 9604 08bd 92f1 8c3d b3f2 babd
00000010: 8f3e 82bc 5468 27bd e384 d9bd 5836 a83d
00000020: 610f 063c f3c3 a9bd 50ec c8bc 7d10 c63c
00000030: f5b2 a93d ec0c 90bd 4ca7 683d 0f12 a8bd
00000040: 6dcb 18bd 985a 91bc 5001 a13c 1150 0e3d
00000050: 4101 7b3c 44d8 0cbc edbb 443d 0708 2c3d
00000060: 9e4c 1bbc 3a9b 4e3d ce81 083d c41e a13d
00000070: 16d0 32bd a114 de3c 8b96 f4bc 05ed 9f3d
00000080: 801b 543d c238 f8bb 09f7 89bd 80f1 a8bd
00000090: bb97 3cbd 1484 c73c f292 98bc 3f87 b03d
000000a0: 8d8a a1bc 714b 9e3d 4bb9 553c 8fa0 5d3d
000000b0: 8b53 9dbd a330 9d3d 67a3 8fbd 8242 653d
000000c0: 6a0f acbd 0407 b5bc 6737 0ebc cf1e bbbd
000000d0: 9003 b93c 9fa7 a3bd c609 35bd b48d 673c
000000e0: 7a38 22bd e856 493d f04f 573d 040e 833d
000000f0: 636f 903d 56fc bcbc 3672 37bd 7b43 373c
00000100: e5bb c43c fabc ab3d d7cf 43bd bee4 913d
00000110: b191 9bbd 909c 9ebd b0ed 96bd 3c68 72bd
00000120: 1956 f33b 07c7 b53c cdc0 20bd 8646 22bd
00000130: 00fb 723d 0b74 063d 5d45 0f3d 91ce 1b3d
00000140: 1b5c 153d c8ad 10ba f142 0b3d 3032 033c
00000150: 8dda e0bd 4e9b 4a3c bb4a a6bd ee1c 2fbb
00000160: ee7b 95bd c805 443d be34 1d3c 3ba6 69bd
00000170: 3f2d 8b3d 86d0 9dbc 4ab3 63bd 4654 0c3d
00000180: 6dde 903d 002d 7b3c 0dc0 62bd 873d 853c
00000190: 103f 513d c90f 15bd 40c4 b83d 2585 b53d
000001a0: 0c46 59bd 8cc7 7e3d b534 ca3d d72e 43bc
000001b0: 1850 9fbc 3ba2 613a 029d 963c 1fdc 1e3c
000001c0: 188e 313d 1e60 a93d 2bad 08bb 6434 6639
000001d0: 48f8 d93c 41d9 56bd 7675 31bd ca68 51bd
000001e0: fcd8 e5bc 9a64 41bd 198b 00bd 9e11 62bd
000001f0: ed81 633c 893f da3c 5dec 44bd 9155 abbc
00000200: d35e 72bd 43c3 59bd 9ef5 193c cc90 913d
00000210: 1fb8 44ba cc18 5d3d 8888 003d d4c0 193d
00000220: 12e0 163c 3787 9dbd a2cf 4f3d 2f82 153c
00000230: c83a 40bd 7b5f 2f3d 62f1 0b3d 01e3 993d
00000240: c94c e5bc 20d9 763c fa9c ba3d f3ee d73b
00000250: 1057 09bd 1396 6a3d 6b0a 343d 58a5 963d
00000260: 3d85 633c b5ef a9bd ccd6 e83c b574 2cbb
00000270: 17a7 6abd 324e adbd 512b 29bd bf89 8c3c
00000280: abe7 fe3c 9de8 53bc fe6f 73bd ce4d 5a3c
00000290: 1986 643d a64a 6fbd e985 77bd 8225 fa3c
000002a0: 6a56 7a3d 7f6b 7dbd 5a87 6abd 697d ed3c
000002b0: c096 20bc a96e 743d 0d22 b73b fc55 8d3d
000002c0: 86bf c73d 6972 813d 2704 743d 65e9 053d
000002d0: 2c5c a4bd b1b2 333c 111a 0c3d 2cec 713c
000002e0: c9ab ae3d 3eea 88bb 45bf 0f3d ae3c b0bd
000002f0: 171d 1b3b b27e d63b 64ac 45bd cf2e 1c3d
00000300: aa45 923d d6a8 69bc 4e34 52bd e6aa 28bd
00000310: 8723 71bd 649c e5b9 edc5 af3d 316e 32bd
00000320: 93af b33d 36bd 73bd 0a4c 2cbd 699e 5dbd
00000330: 9e64 7cbd 2927 6cbd 8001 a23b e4ce 923d
00000340: d27f 4bbd 3556 4b3d d6bc f0bc 53d7 9a3d
00000350: 167c e43c 02d7 9c3c d3e5 173d 6206 4abd
00000360: f30f 0ebc dfd4 a93c cb6a 28bd a471 f4bb
00000370: 8005 083c 30c5 8abd 4068 67bd cf34 77bb
00000380: daa9 903d 5f5f 323d eaad 063c 14d8 57bd
00000390: dd57 a9b8 29ab 00bd b994 7cbd 1e87 99bd
000003a0: 4222 86bd a65e 933d b932 34bd d950 91bd
000003b0: 4a7c 18bd cbdc 073d 44d1 d73c 0fa7 92bd
000003c0: a9ac d53c 7a58 d73c ae1d 01bd e3cf 14bd
000003d0: c08b e33c 3acb 963b 8aed 703d ddf0 13bd
000003e0: 3597 a3bc 6ec8 a4bd 1586 153c 2737 01bd
000003f0: 24d9 54bd 4672 8bbd 21c9 153b 7c48 1f3d
-0.055725753 -0.0332075 0.068820134 -0.091283225 -0.01589897 -0.04087098 -0.10621049 0.0821349
0.008182378 -0.082893275 -0.024526745 0.024177784 0.082860865 -0.07033715 0.05680017 -0.082065694
-0.037303377 -0.017743394 0.019653946 0.034744326 0.015320123 -0.008596484 0.048030782 0.041999843
-0.009478716 0.050441004 0.033326916 0.07867196 -0.043655477 0.027109446 -0.02985694 0.0780888
0.05178404 -0.0075751254 -0.06736571 -0.082491875 -0.04604314 0.024354972 -0.018624756 0.08619546
-0.019719386 0.07729233 0.013044666 0.0541082 -0.0768195 0.07675292 -0.070135884 0.05597163
-0.084013775 -0.022098072 -0.008680201 -0.09136736 0.022584707 -0.079909556 -0.044198774 0.014132906
-0.03960464 0.049155146 0.05256647 0.06399158 0.07052495 -0.023069542 -0.044786654 0.011185522
0.024015376 0.08385654 -0.047805633 0.07123707 -0.07596148 -0.07744706 -0.07369554 -0.059181437
0.007426035 0.02218963 -0.03924637 -0.039618038 0.059321404 0.03282551 0.03497826 0.038038794
0.03646479 -0.00055190595 0.033999387 0.008007571 -0.10979185 0.012366129 -0.081197225 -0.0026720124
-0.07299028 0.047857076 0.009595094 -0.057043295 0.067957394 -0.01926447 -0.055590905 0.034260057
0.07073674 0.015330553 -0.055358935 0.01626469 0.05108553 -0.036392007 0.09021807 0.08863286
-0.053045318 0.06220202 0.09873334 -0.011913023 -0.019447371 0.0008607243 0.018385414 0.009696036
0.0433484 0.08270286 -0.002085517 0.00021954026 0.026607648 -0.052453283 -0.04332491 -0.051125325
-0.028057568 -0.04721508 -0.031382654 -0.055192582 0.013885957 0.026641624 -0.048076976 -0.020914825
-0.059172463 -0.05316473 0.009396939 0.07107696 -0.0007504243 0.053978726 0.031380206 0.03753741
0.009208696 -0.07691806 0.050735123 0.0091252765 -0.04693106 0.042815667 0.034165747 0.07514001
-0.027990716 0.015066415 0.09111972 0.0065897643 -0.033530295 0.05727203 0.043955248 0.073557556
0.013886747 -0.082976736 0.028422736 -0.002631468 -0.057288256 -0.0846218 -0.041301075 0.017155526
0.031116327 -0.012933877 -0.059432976 0.013324214 0.055791948 -0.0584208 -0.06043044 0.030535463
0.061117567 -0.061870094 -0.057257988 0.028990464 -0.009801567 0.059675846 0.005588776 0.06901166
0.09753327 0.0632065 0.059574272 0.032693285 -0.08025393 0.010967896 0.034204546 0.01476578
0.08528859 -0.0041783145 0.03509452 -0.08605324 0.0023668462 0.006545865 -0.048260108 0.038130578
0.071421936 -0.014261445 -0.051319413 -0.041178606 -0.058871772 -0.00043794804 0.08582673 -0.043562118
0.087737225 -0.059506617 -0.042064704 -0.05410615 -0.061619394 -0.057654534 0.0049440265 0.071683675
-0.049682446 0.04964276 -0.029386919 0.07560601 0.0278912 0.019145492 0.03708441 -0.049322493
-0.008670795 0.020731388 -0.04111747 -0.007459836 0.008302093 -0.06775892 -0.056495905 -0.0037720685
0.070636466 0.043547984 0.008220175 -0.052696303 -8.074914e-05 -0.03141323 -0.06166527 -0.07496475
-0.06549503 0.07195787 -0.043993685 -0.070954986 -0.037227906 0.03316955 0.026344903 -0.0716077
0.026083307 0.026287306 -0.031522445 -0.03633107 0.027776599 0.004601863 0.058820285 -0.036118377
-0.019969562 -0.080460414 0.009126206 -0.031546738 -0.051964894 -0.06808905 0.0022855478 0.038887486

fc2.bias f4 [128]
00000000: a457 a7bc 558f 173c 7382 d9bc cd86 9ebd
00000010: e64e 8e3d 53c3 5c3d f18f 913d c4c7 cf3c
00000020: b5d2 d53c beed 373c ff82 94bc 8a25 b0bd
00000030: 6a8b 59bc b9a3 7e3c e503 30bd b14b 92bd
00000040: ca78 c1bb a91e 82bd c041 633c 12b0 11bc
00000050: 4e53 4bbd ec96 753d 2925 a63d c398 a13d
00000060: 2e4f 453d 0288 ba3c 0805 983d ea09 bebc
00000070: 2d36 47bc da5b 30bb df02 b9bb a6c6 0cbd
00000080: 9421 a53d 5b9c f73c c57b a83d 96dd 343d
00000090: 32ab 2abd 0ecd 49bc 4eb1 9cbd 1205 51bd
000000a0: b80a 47bd 17f2 7bbd 1241 a23d 6c2f 063d
000000b0: 8cc1 38bd 4ad6 363c 15c4 383d da4e 09bd
000000c0: 4501 273d 0aad 3bbd 4962 ac3d 741b edbb
000000d0: 645a 443d e52e 183d ee30 a9bd 32e6 07bc
000000e0: 4311 593d 4bb5 d33c 00a3 3ebd 43a9 9b3d
000000f0: d4b6 58bd 39c8 95bd 0059 943d 0d73 b1bc
00000100: 6429 fc3c 0502 96bc 21ab 923d 1be7 95bd
00000110: 4e92 33bd b477 243d 6b2c 033d bb85 2c3d
00000120: 288d 80bd 07b3 8ebd a880 37bd 15fa 6bbc
00000130: 8519 4f3d 91cd 9f3d 35eb 7abb 9058 623d
00000140: 37e8 79bc 8ce0 703d ba58 32bd 1791 cbbb
00000150: ff28 9cbd 7d83 113d 6ab6 583d 5bb2 993b
00000160: f3c7 133d 065b 3a3d 5db6 833d a128 3e3d
00000170: ba83 80bc d618 c83c 18d2 2c3d e6ba 033d
00000180: 1c54 943d 1eb6 803c 25c9 37bc b16b b0bd
00000190: 4305 b33d 8438 283d b28c 1f3d 89d8 de39
000001a0: 9ef3 853d ff8f 8b3d 8229 7d3d d632 5abd
000001b0: d67a 1e3d e753 b03d 3541 623d 5b6f 883d
000001c0: 5689 763d 0871 75bd ebb4 a73d 769a 01bd
000001d0: 24db 203d bd5f 903d 7325 8dbd ff72 713d
000001e0: de1d 1cbc 1236 383d cd01 903c 5941 863c
000001f0: 3653 ac3d 0a55 623d ccfc d3bb 972f 483d
-0.020427532 0.009250482 -0.02655146 -0.07740555 0.069486424 0.053897213 0.07107533 0.02536381
0.02610145 0.011226116 -0.01812887 -0.0860091 -0.013277868 0.015541964 -0.042972464 -0.07143343
-0.0059042918 -0.06353504 0.0138706565 -0.008892076 -0.049639992 0.059958383 0.081125565 0.07890465
0.048171215 0.022769932 0.07422835 -0.023198087 -0.012158913 -0.0026910217 -0.005646094 -0.034369133
0.08063045 0.030225923 0.08226732 0.044156633 -0.04166717 -0.012316955 -0.07651006 -0.051030226
-0.048594207 -0.06151017 0.079225674 0.03276007 -0.045106456 0.011159489 0.045108873 -0.033522464
0.040772695 -0.04581932 0.08417184 -0.0072359387 0.047937766 0.037154097 -0.08261286 -0.008294629
0.052994978 0.025843283 -0.046542168 0.076006435 -0.052908733 -0.0731358 0.07243538 -0.021661306
0.030781455 -0.01831151 0.071615465 -0.073194705 -0.0438407 0.04015322 0.032024782 0.042119723
-0.062769234 -0.069677405 -0.04480043 -0.014402886 0.050561447 0.078028806 -0.0038287167 0.05526024
-0.015253118 0.058807895 -0.043541647 -0.0062123644 -0.07625007 0.035525788 0.05290834 0.004690451
0.03607936 0.045496963 0.064312674 0.046425465 -0.015687812 0.024425905 0.04219255 0.032160662
0.07242605 0.01571184 -0.01121739 -0.086142905 0.08741238 0.041069523 0.038952537 0.0004250447
0.06540607 0.068145745 0.061807163 -0.053271137 0.038691364 0.08609753 0.055237968 0.06661864
0.060189568 -0.059922248 0.08188804 -0.031641446 0.03927149 0.07049511 -0.068919085 0.05894756
-0.009528605 0.04497344 0.017578984 0.016388582 0.08414309 0.05525688 -0.0064693447 0.04887351

bn2.weight f4 [128]
00000000: 42a9 7f3f 73ec 7e3f fb8a 843f 6877 843f
00000010: 6bba 7f3f 8f34 803f cf9b 803f 818e 7f3f
00000020: 5d27 773f 299a 7b3f 1052 7c3f bbc3 803f
00000030: f32a 7d3f 4ab6 823f 3e95 743f f197 803f
00000040: ccec 7e3f 3767 7e3f 4270 803f 98a4 7d3f
00000050: 61eb 793f 488c 7a3f 0ed1 803f 1dc1 813f
00000060: 05f6 833f 69c3 7f3f f266 7f3f 9a97 7e3f
00000070: 8b6d 7d3f 13cc 7b3f 0869 803f c890 7d3f
00000080: e72f 7f3f 1264 7c3f c19d 7d3f 7328 7d3f
00000090: 331c 7e3f 0140 803f 781b 833f 5dba 7d3f
000000a0: 5f6c 813f 9e00 833f 3783 7a3f f9c5 803f
000000b0: 2c20 793f 405d 803f bc79 7d3f 7feb 7f3f
000000c0: 9311 803f a3d7 7d3f be28 7e3f a819 803f
000000d0: 1e28 833f 5a95 823f 6a93 823f c8c2 773f
000000e0: be3b 7f3f e8d2 7f3f d48a 7f3f e369 7c3f
000000f0: a885 803f f841 843f f4f8 7e3f 7827 7e3f
00000100: 9bcd 7e3f b561 7e3f fca8 7c3f 80ef 7f3f
00000110: b1f2 803f 9c2d 7e3f 1a94 7e3f d7fe 7b3f
00000120: 7bbe 803f 68b9 7c3f 9ba1 803f 7200 803f
00000130: bee6 7e3f 8187 7f3f 0979 823f 01a1 813f
00000140: be61 7e3f df07 7e3f 2770 7f3f f1e4 7e3f
00000150: c456 7d3f 6c5f 813f a38d 7e3f 7f4c 7d3f
00000160: f076 7f3f 2c33 843f 8d55 7f3f 954a 7d3f
00000170: b10a 7a3f c3cd 823f 418c 7b3f a427 7c3f
00000180: 93a6 823f 5d24 823f 6f3f 823f 324a 7e3f
00000190: c3d8 7d3f 96ed 7c3f 7587 7e3f 9348 803f
000001a0: 3f60 7b3f d4ab 803f cb9d 823f 7326 7f3f
000001b0: 7e3e 7d3f 72b8 803f 2be9 7e3f 6a0c 7c3f
000001c0: 6b7e 7d3f 6fd0 7b3f 3f12 7d3f 8608 803f
000001d0: 2c5e 7c3f 377d 7e3f 0d0e 833f 70ef 813f
000001e0: 734d 843f 7d53 813f 37e6 7d3f 53cb 7c3f
000001f0: f593 803f b4ba 803f ccfb 7c3f ac16 773f
0.9986764 0.9957954 1.0354913 1.034894 0.99893826 1.001604 1.0047549 0.9982682
0.9654444 0.98282105 0.9856272 1.0059732 0.9889366 1.021188 0.95540226 1.0046369
0.99580073 0.99376243 1.0034258 0.99079275 0.97624785 0.978703 1.0063798 1.0137058
1.0309454 0.9990755 0.9976646 0.99450076 0.98995274 0.9835827 1.0032053 0.99049044
0.9968247 0.98590195 0.9906884 0.98889846 0.9926178 1.0019532 1.0242758 0.9911249
1.0111197 1.0234563 0.9785647 1.0060416 0.97314715 1.0028458 0.99013877 0.99968714
1.0005363 0.9915716 0.9928092 1.000783 1.0246618 1.0201828 1.0201237 0.9678159
0.99700534 0.9993119 0.9982121 0.9859907 1.0040789 1.0332632 0.9959862 0.99278975
0.9953248 0.9936784 0.9869535 0.99974823 1.0074064 0.99288344 0.99444735 0.9843573
1.005813 0.9872041 1.0049318 1.0000136 0.99570835 0.9981614 1.0193187 1.012726
0.9936789 0.9923076 0.99780506 0.99568087 0.9896052 1.0107245 0.9943487 0.9894485
0.9979086 1.0328116 0.99739915 0.9894193 0.97672564 1.0219043 0.98260885 0.98497987
1.0207084 1.0167347 1.0175608 0.99331963 0.9915888 0.9880003 0.9942544 1.0022148
0.98193735 1.0052438 1.0204405 0.99668044 0.9892348 1.0056288 0.99574536 0.9845644
0.99021024 0.9836492 0.98855966 1.0002601 0.98581195 0.9940981 1.0238663 1.0151196
1.0336136 1.0103604 0.99179405 0.9874775 1.0045153 1.0056977 0.9882171 0.9651897

bn2.bias f4 [128]
00000000: 1aba 7b3c f940 0ebc 6bed b73c 736e 253d
00000010: dca1 45ba 69f2 7cba b3d5 0fbb 1483 86bb
00000020: 3fb8 56bc 4a09 9bbb 4887 b7bb 9e7d d43a
00000030: ce29 043b e47f 653c bc26 d5bc 859b 373c
00000040: 5e51 4e3a 84f3 f83b 3fe5 183c 4b86 67ba
00000050: d163 93bc fdde a5bc 3711 883a fa5c 453c
00000060: 892d f63c ac5a 53bb b951 233c 483c b9bb
00000070: e1c4 113a d001 fdbb 7458 133c 3621 193c
00000080: 1aa4 10bc e263 01bc 6fea c23b 1f4e 3ebc
00000090: 7dc6 02bc 0e7e 513c c0ea b43c 1fee 6abc
000000a0: d3a4 d73a 44e9 863c 0d12 ef3b f4fb 1f3a
000000b0: 4e36 16ba 5629 0a3c 54f2 e7bb 0514 0d3a
000000c0: bfbc 0e3c 0c32 93bb 050c b1ba 2481 17bc
000000d0: b0ca d43c 6820 ad3c bbab 7c3c 92c5 79bc
000000e0: afac 65ba e691 6f3c 8491 6dbb 296b 27bc
000000f0: 5fd8 df3a 95c0 803c d4b2 843c 3de7 00bc
00000100: e759 c1bb d199 60bb d40c 2dbc 5e6a f33b
00000110: 96ba fb3b bcdd c03b bfd3 303c f91d 80bc
00000120: 823a d33b afb6 96bb c165 433c 9def a03b
00000130: 6d2f 26bc 0288 7c3b c6ee 953c b628 4a3c
00000140: 640d 1bbc ffc0 5dbc b062 553b 6f53 103c
00000150: 5caa e6bb d934 5f3c 1c80 403c 40aa 833c
00000160: d9c4 40bc 6fb6 fb3c 953c f4bb a702 0dbd
00000170: ed27 a0bc d382 7a3c afdb 833b f268 adbb
00000180: 7ef4 9d3c 6f95 d33c c504 923c a8b9 acba
00000190: cc1e e5bb 92c1 92bb 4714 4a3a ba5c 883a
000001a0: 09b0 ebbb 9bbe f23b 0b97 953c 1f67 e93b
000001b0: 040e 9bbb 1292 f23b ca10 f9ba 5eee 6fbb
000001c0: ac5a 4d3c 6435 c9bc 8445 83bc f2c6 6dbb
000001d0: 0237 ebbb e589 da3a 729c f13c e487 cf3c
000001e0: bbaf 473d 5cbf 193c 1275 193c 8a64 12bb
000001f0: 6381 ba3b 8d6b 8a3c a51c 3ebc 69fc 44bc
0.015364194 -0.008682483 0.022452077 0.040388536 -0.00075390725 -0.0009649159 -0.0021947443 -0.004104981
-0.013105451 -0.004731332 -0.0056008436 0.0016211753 0.002016652 0.014007542 -0.026019447 0.011206512
0.0007870401 0.0075973887 0.009332 -0.0008831962 -0.017991932 -0.02024793 0.0010381107 0.012046093
0.03005101 -0.003225009 0.009968215 -0.005652938 0.0005560648 -0.0077211633 0.008993257 0.009346297
-0.008828187 -0.007897349 0.005948357 -0.011615305 -0.007981894 0.012786401 0.022084594 -0.014338999
0.001645232 0.016468652 0.007295853 0.00061029126 -0.0005730138 0.008432707 -0.0070784483 0.0005381706
0.008711993 -0.00449205 -0.001350761 -0.009247098 0.025975555 0.021133617 0.015421803 -0.015244858
-0.00087613886 0.014622187 -0.0036250064 -0.01021842 0.0017078033 0.01571683 0.016198553 -0.0078676315
-0.00590061 -0.003427137 -0.0105621405 0.0074284514 0.007682155 0.005885808 0.010792672 -0.015639292
0.0064461837 -0.0045994143 0.0119261155 0.0049113766 -0.010143143 0.0038533215 0.018302333 0.012338808
-0.009463642 -0.013534783 0.0032560043 0.008808955 -0.0070393514 0.01362344 0.011749294 0.016072392
-0.011765682 0.03072664 -0.007453511 -0.034426358 -0.019550288 0.01528998 0.004023991 -0.0052920515
0.019281622 0.025828091 0.01782454 -0.0013177888 -0.0069921967 -0.004478642 0.000770871 0.0010403611
-0.007192616 0.007407976 0.0182605 0.0071228887 -0.0047318954 0.007402667 -0.0019002196 -0.0036610584
0.012533825 -0.024561591 -0.016024359 -0.003628191 -0.0071781883 0.0016673176 0.029493544 0.025333352
0.048751574 0.009384003 0.009366291 -0.0022337758 0.0056916936 0.016896987 -0.011603509 -0.01202307

bn2.running_mean f4 [128]
00000000: cc31 11bd 6647 afbd 7136 3bbd 5092 b23c
00000010: bcf0 0bbe 2a0f e13e 5681 32be aafb 89be
00000020: 541d a5be ec50 3bbd f4cc dfbd a9d6 eebe
00000030: 96b9 61be 99e1 41be 3449 88bd 0d1d 48bd
00000040: 592f aabd fe60 6bbe 513a 0c3f 7a62 eabe
00000050: 0053 cf38 3b6e 3d3c e547 75be 89e6 dbbe
00000060: 520b fcba 0efa 8a3e 74b5 a3bc 6f1a 60be
00000070: 32bc eebd ea54 ba3d 1711 8f3c 654f 4dbe
00000080: c131 60be 6ee4 d73d 0329 0fbf 42d6 90be
00000090: 7ca4 0abf d21e f4bd b026 e23d da65 d4bd
000000a0: afc1 08bf 116f a0be 3071 0a3f c2d7 b63e
000000b0: a21d 73bd 7edf fabd 70b9 5d3e 9da1 1abf
000000c0: 0e58 6bbe 0a5c c2be dd28 a7bc 9d3f 64be
000000d0: b53a ebbe bfb7 19be 8fc6 4abe 2d15 543e
000000e0: ceb2 3fbe ac16 a63e 75b8 f4bd 2852 ac3e
000000f0: 3e23 b8bd 01ae 6ebb d7e0 91be 4311 743d
00000100: 0caf 0bbf 319b 1f3e cdb4 bcbc 615a 8cbe
00000110: 742e 6cbe 2899 873e 4b3a cfbd 0277 203d
00000120: df2b e13d 41ca 91be 0561 e1be 419e 283e
00000130: 483c 783e 117b 853e 913b bb3c 666e 723e
00000140: 2835 ecbe e1f6 59be d047 b4be 8517 03be
00000150: 9c48 a73d d4b3 463d f6d9 adbc d967 c63d
00000160: 791d 1d3e 4f4f 17be 5b82 013e 9de8 2dbe
00000170: 6155 1a3f fc8d 73be 81f1 063e faa1 90be
00000180: 0e42 7fbe b104 2fbe 14f9 f9bd d1b0 55be
00000190: f958 f6bc 8f9e 153f f164 e43e 9cfe b2ba
000001a0: 1192 98be a326 a9be f717 043d e170 d9be
000001b0: dbac 13be a931 e93e c35f 943e f066 8f3e
000001c0: 06e3 5bbe 61a0 1d3e fd81 aebe 330f 76bd
000001d0: 9e9b 1fbe e747 48be 85b4 51be b1ce 12bd
000001e0: fccb 43be fefa c03d 9e10 9fbd 32a0 a2bd
000001f0: 114d 8d3e 620f 95bd 6a8d 5d3e e67a 493d
-0.03544788 -0.0855854 -0.045706216 0.021798283 -0.13666052 0.43956882 -0.1743215 -0.26949817
-0.32248938 -0.04573147 -0.109277636 -0.46648148 -0.22043452 -0.18933715 -0.066545874 -0.04885583
-0.08309812 -0.22986218 0.54776484 -0.45778257 9.885989e-05 0.0115619255 -0.23953207 -0.42949322
-0.0019229448 0.27143902 -0.019983985 -0.21885084 -0.11656989 0.09098227 0.017464204 -0.20049818
-0.2189398 0.105416164 -0.55921954 -0.28288466 -0.54157233 -0.11919941 0.11042535 -0.10370989
-0.5342054 -0.31334737 0.5407896 0.35711485 -0.059354432 -0.12249659 0.2165277 -0.6040285
-0.22982809 -0.37960845 -0.020405227 -0.22289892 -0.45943227 -0.150115 -0.19802307 0.20711203
-0.18720552 0.32439172 -0.11949245 0.3365643 -0.08991097 -0.0036419632 -0.28491852 0.059586775
-0.54563975 0.15586545 -0.023035431 -0.27412704 -0.23064595 0.26484036 -0.101185404 0.039175995
0.10994696 -0.2847462 -0.44019333 0.16466619 0.24241745 0.26070455 0.022855552 0.23674926
-0.46134305 -0.21285583 -0.3521104 -0.1280194 0.08168146 0.04851134 -0.021222096 0.09687776
0.15343274 -0.14776348 0.12647383 -0.16983266 0.6028653 -0.23784631 0.13178064 -0.28248578
-0.24927542 -0.17091633 -0.12205711 -0.20868231 -0.030071722 0.58445066 0.44608262 -0.0013656202
-0.2979894 -0.3303729 0.032249417 -0.42468932 -0.14421408 0.455457 0.2897931 0.28008223
-0.21473321 0.15393211 -0.34083548 -0.06007309 -0.15586707 -0.19558679 -0.20479019 -0.035841648
-0.19120783 0.09422873 -0.07766841 -0.07940711 0.2759786 -0.07278325 0.21635976 0.04918947

bn2.running_var f4 [128]
00000000: afad a73e dc4e 8f3d 7fce 3d3e e436 3d3e
00000010: 2d9b 7d3e 75c5 833d db34 5f3d 06d5 0d3e
00000020: eb1c ec3d 7f61 4c3e a12e 113f 6dc2 b23e
00000030: 048f 3a3e d090 5b3e c2f1 443d 10ce 523e
00000040: 76bd f43e 84e2 ab3e 312d 263f e3e0 813e
00000050: dfc4 883d 306c 033e a60d a33e 88bc 1f3f
00000060: d7e9 713e d7fa 3a3f b45e 1d3e 8821 2b3e
00000070: 802c db3e adee 123f ef92 303e e44c 113f
00000080: e8e6 f23d 39bf c13e 2eb6 a63e fa9e d93d
00000090: 5485 cc3e 51fa 9a3e 6cda 943e 82ff 223e
000000a0: fb73 953e 4283 eb3d 3cf8 883e be9e 7e3d
000000b0: 5998 fb3d 8353 923e e0b6 8c3d eca7 743e
000000c0: bf12 9f3d a201 133e f85c 0f3f 051a 1b3d
000000d0: 648a 8b3e b6f9 4b3d bfc0 b03d 65fd 843e
000000e0: 7bc7 233e 8f2f fb3e a922 223e 4997 bc3e
000000f0: 08a8 513d f3e2 8a3d 71a5 843d 040d 5c3e
00000100: 47f4 c03e f4b1 043f 2682 a43e 8047 013f
00000110: 7e59 b23d 58c7 b83e 6c94 cc3d defa c03e
00000120: f21b 263f abc7 883d 117d 1a3e 215d fc3e
00000130: 4925 5a3d ccc5 dd3e 4572 333c 111a a53e
00000140: 925a 763e 4a07 a33c 34e0 1b3f e805 073f
00000150: 68d0 423f 3bc9 6d3e a9c6 e53e 437e bc3d
00000160: 2431 fe3c 6a9b 7e3e 94ed c83d 4133 083d
00000170: 59b8 b13d a506 793e 6439 da3e 76ac ab3e
00000180: 200c 2f3e 6497 813e 78f1 013d 0b16 693e
00000190: f7b5 5b3e 7534 413f 7ed6 523e 7a60 1b3f
000001a0: 455f 543e a2dc df3e 1d62 193e 4945 ec3d
000001b0: 2a31 443e 1a61 973e 509e cd3d 4bad bf3e
000001c0: f002 f53e e3b9 293d 3d37 dd3e e222 073e
000001d0: 72a6 f83e cb34 8f3e d60c 8e3e 09a4 af3d
000001e0: c0a2 443e c939 043c 3a3f 973e 1827 d43e
000001f0: ed4c a53d 4a23 ce3e de51 ac3e c8e8 ba3d
0.32749698 0.06997463 0.18535803 0.1847797 0.24766226 0.06434146 0.054493766 0.13850793
0.11528953 0.19959067 0.56711775 0.3491396 0.18218619 0.2144196 0.04808212 0.20586419
0.47800797 0.33571255 0.64912707 0.25366887 0.06678175 0.12834239 0.3184635 0.6239705
0.23624359 0.73039 0.15368158 0.1671201 0.42807388 0.5739544 0.1724355 0.5675795
0.11860448 0.37841204 0.32560867 0.106260255 0.3994547 0.302691 0.29072893 0.15917781
0.2919005 0.11499645 0.26751888 0.062163107 0.122849174 0.2857934 0.06870818 0.23892182
0.077672474 0.14356092 0.56001234 0.03786661 0.2725402 0.04979869 0.086305134 0.25974575
0.15994065 0.49059722 0.15833534 0.3683417 0.051185638 0.067815684 0.06476868 0.2148934
0.3768637 0.51834035 0.32130545 0.50499725 0.087084755 0.36089587 0.09989247 0.37691396
0.6488639 0.06678709 0.15086772 0.49289802 0.053258214 0.4331497 0.010952537 0.3224645
0.24057987 0.019900937 0.6088898 0.5274339 0.7609925 0.23221295 0.44878128 0.0920377
0.031029291 0.24863973 0.098109394 0.033252005 0.0867774 0.24318941 0.4262191 0.33530015
0.17094469 0.25310814 0.031724423 0.22762315 0.21456133 0.7547067 0.20589635 0.60694087
0.20739467 0.43723017 0.14978833 0.115366526 0.1915938 0.2956627 0.10039961 0.374369
0.47853804 0.04143704 0.43206206 0.131969 0.48564488 0.27969965 0.27744168 0.08576209
0.19202709 0.008070418 0.29540426 0.41436076 0.08071313 0.40261298 0.3365621 0.09126431

fc3.weight f4 [128, 128]
00000000: 24d4 b4bc 29c5 e8bc f297 edbc 4770 08bd
00000010: 52d1 db3c 4d1d aa3d 495e 09bd a694 a43d
00000020: f08b 213d b006 753c c02f 8a3d dc88 c6bc
00000030: 049d 983d d318 8b3c e337 94bd 6bec 9b3c
00000040: 5105 98bc 295c da3c e4e6 6e3d 395e 803d
00000050: 8846 debd 8030 803c c432 0b3c 0e4d 523d
00000060: 0792 d23c 6b8a a3bd f412 eb3a 546b 6a3c
00000070: aeb6 963d 5ea6 4c3d dec4 44bd 1991 df3b
00000080: c389 fdbc edae f0bc 24c3 e23c 03d0 6639
00000090: 14cd 8c3c 4b6f 933c a3e3 8fbd b808 563d
000000a0: d84e fabd 08a5 b53c f41f 8abd 4e47 ccbc
000000b0: a69e 97bc 7d9c c23c ecaa 35bd 5298 aabc
000000c0: d64a 1abc 2fa8 e8bb 9b27 513d 5ec2 5b3d
000000d0: d5e6 c3bd 3a45 243d 9b78 0b3d 3af3 023d
000000e0: 83d8 3fbb 9196 45bd 25d9 50bd 5587 583d
000000f0: 4c68 7a3c cdc6 90bd 6e99 913d 5c03 20bd
00000100: d381 2f3d 6748 35bd fbfb a6bc aa5f b33b
00000110: 9441 b13c d7a7 063d 0a0b 4fbd 415e 083d
00000120: b471 983d 634f d3bc db77 703c 2567 7bbd
00000130: 9795 7a3d fd39 2f3c 1f58 d23c 5a37 cbbd
00000140: 1c1d c8bd 773a 6c3c 79e2 743d f745 d53c
00000150: f9bd aabc b542 1cbc b6b2 663c 1c1e 7bbd
00000160: f006 a73d 3c1a 4dbd a61c 9f3d 65a9 523d
00000170: c524 6fbc 3a6c b3bc 6c3e 7e3b b3e1 1c3c
00000180: d498 c13c 61be c53c 1665 d0bc 85bc 11bd
00000190: e2d4 d4bc 67f0 70bd 1c7e 11bd e1d1 2fbd
000001a0: 13aa c7ba b0e9 34bd b196 d8bc 5181 953d
000001b0: 21b5 f7bc 136d 7d3d 4b7f be3d 2ec1 12bd
000001c0: b9d7 c33d 321e a1bd 95bf 69bc 56df 903d
000001d0: 8dcb eebc 1933 a0bd 630c bc3a f20f 3abd
000001e0: d690 20bd 6fb0 6ebb b80a 8bbd bb93 28bd
000001f0: 07e9 e23c 6af6 533d aee6 16bd daa3 9c3d
00000200: 7b2e a83d 184b 09bd f2ed debc b093 853d
00000210: 98ac d53d 96c6 b33d 5959 a13d 08bc 603d
00000220: 8114 80bd a76d 26bc 911c 973d fe34 5e3d
00000230: 9f3e 6b3d 1db7 86bd b303 31bd e80e 883d
00000240: 6435 093d faca 483d 5e23 a43d 6ec1 493d
00000250: 6fe4 57bb 68a0 503d 1c33 033d 3334 4ebd
00000260: b1b0 3f3d a29e 4ebd e9d7 3c3c 8f36 c2bc
00000270: 8982 0d3d 2ec4 0abc 3b81 a0bb 18c4 373d
00000280: 7716 54bd eff5 3dbd 0b04 9ebd e80a 9dbd
00000290: 8fb2 d3bc 3e2b 123b a00a 33bc 3168 923c
000002a0: 7f15 a2bc f95b 3fbd 82e2 3dbd b925 ccbd
000002b0: f2ae e53c a274 233c 59e1 483d 535e 1a3d
000002c0: 48dc ddbc d74f 543d e453 c7bc 31c9 023b
000002d0: dfc3 a73c 1806 34bd 8c02 7fbc 9b40 85bd
000002e0: a1f2 813d f824 23bd 3b38 c8bd af57 1f3d
000002f0: 7c95 dd3d 8065 15bd b3b6 c93d 24cd a2b7
00000300: 2d1f 83bd c61e 8a3d cff5 58bd 34a8 c8bc
00000310: 2018 17bd 2d35 31bd 5c82 723d e93c 8b3d
00000320: f0ac 0dbc 4a89 9dbd 3836 e43c c1c8 c13c
00000330: 4369 273d dffd 82bc 0d3a 043c d03b 9bbd
00000340: 3507 8dbd 9146 97bd 7f2a a8bd 3318 0ebd
00000350: 69f5 8bbd b9a7 edbc 9a77 bb3d bb3b 5abd
00000360: 3fc3 323d 12c2 c1bd 3c40 723d e654 863d
00000370: ec16 2fbd c113 a1bd c415 af3c 244e 8cbc
00000380: a305 8dbd 73c7 983d 45a5 4cbd c7f7 d2bc
00000390: 1505 7ebd 48bc 89bd 3ff7 9a3c ae1f 023d
000003a0: 35ec 5a3d e60c af3b f429 aebd 9283 a43c
000003b0: bcab 993c 35e4 9fbd bcb5 7a3d ef07 57bc
000003c0: a68a e2bc aef6 6bbd ea8b 8bbc e4a2 a1bb
000003d0: ec78 72bd d978 733d dbbe 28bd c862 59bd
000003e0: 40bc 82bc 7bd1 0abd 754d 1cbd 674c f33c
000003f0: 5179 b83b 360e 91bc b80f 9bbd 7c84 91bc
-0.022073813 -0.028414326 -0.029003117 -0.0333102 0.02683321 0.0830637 -0.033537183 0.08036165
0.039440095 0.014955208 0.06747389 -0.024235182 0.07451823 0.01697961 -0.07237222 0.019033631
-0.018557223 0.026655274 0.058325663 0.062679715 -0.108532965 0.015648127 0.00849599 0.051343016
0.025704397 -0.079853855 0.0017934726 0.014307816 0.07359062 0.049963348 -0.04803931 0.006822717
-0.030949479 -0.029380286 0.02768094 0.00022012 0.017187633 0.017997405 -0.0702584 0.05225441
-0.122220695 0.02217342 -0.06744376 -0.024936344 -0.018508267 0.02375626 -0.044352457 -0.020824585
-0.009417256 -0.007100127 0.05106316 0.05365216 -0.09565512 0.040105082 0.034050565 0.03197024
-0.0029273338 -0.048239294 -0.050988335 0.052863438 0.015283655 -0.07069168 0.071093425 -0.039065704
0.04284842 -0.0442585 -0.020383826 0.0054740505 0.021637715 0.03287491 -0.050547637 0.033293013
0.07443562 -0.02579469 0.014677013 -0.061377663 0.061177816 0.010694978 0.025676785 -0.09922667
-0.09771177 0.014418236 0.059786294 0.026034338 -0.02084254 -0.009537389 0.014080694 -0.06130801
0.0815562 -0.050073847 0.07769136 0.05143108 -0.014596169 -0.021902192 0.003879453 0.009575295
0.023632444 0.024138631 -0.025438827 -0.035580177 -0.025980417 -0.058823016 -0.035520658 -0.042924765
-0.0015233181 -0.044168174 -0.026439043 0.07300056 -0.030237736 0.0618716 0.09301623 -0.03582876
0.0956263 -0.078670874 -0.014266868 0.07073848 -0.029149795 -0.07822246 0.0014346953 -0.045425363
-0.039200626 -0.003642108 -0.06789154 -0.04115651 0.027699007 0.05174867 -0.036841087 0.0764844
0.082119904 -0.03351888 -0.02721307 0.0652231 0.1043331 0.08778112 0.0787837 0.05486682
-0.06253911 -0.010157979 0.073784955 0.054249756 0.057432767 -0.06577895 -0.04321642 0.06643468
0.033498183 0.0490217 0.08014558 0.049256735 -0.0032942554 0.050934225 0.032031164 -0.05034275
0.046799365 -0.050444253 0.011526086 -0.023707656 0.034548316 -0.008469624 -0.004898218 0.044864744
-0.051779237 -0.04637712 -0.07715615 -0.07668096 -0.02584198 0.0022303606 -0.010927826 0.017871948
-0.01978564 -0.04671857 -0.046358593 -0.099681325 0.028037522 0.009976538 0.049043033 0.03768761
-0.027082577 0.051833954 -0.024331994 0.0019956345 0.02047914 -0.043951124 -0.015564572 -0.06506463
0.06345106 -0.039830178 -0.0977635 0.03890198 0.108195275 -0.03647375 0.098493 -1.9407431e-05
-0.06402431 0.06744151 -0.052968796 -0.024494268 -0.03688824 -0.043263603 0.05920635 0.06798727
-0.008647189 -0.076922014 0.027857885 0.023655297 0.04087187 -0.015990196 0.008070481 -0.07579768
-0.0688614 -0.07386506 -0.082112305 -0.034691047 -0.06833918 -0.02901064 0.091536716 -0.05327962
0.043643232 -0.09460844 0.05914329 0.06559162 -0.04274647 -0.07865096 0.021372683 -0.017127104
-0.06885841 0.07459917 -0.0499623 -0.025752915 -0.062016565 -0.06725365 0.018916724 0.031768493
0.05344792 0.005342114 -0.08504096 0.020082269 0.018758647 -0.07807199 0.06120847 -0.01312445
-0.027654003 -0.0576083 -0.01703449 -0.004932748 -0.05919735 0.05944142 -0.04119764 -0.05307272
-0.015958905 -0.033891182 -0.038159806 0.029699517 0.0056296964 -0.017706972 -0.075713575 -0.017763369
