10_Models/Results_Chicago/WGAN_Freeflow_discriminator_best.pth (torch, 77978 bytes, 13 tensors)

fc1.weight f4 [128, 2]
-0.01 0.0017900224 0.01 0.0018446657 0.01 0.0018127359 0.01 0.0018231432
-0.01 0.0016950993 -0.01 0.001580811 0.01 0.0017199162 0.01 -0.0019989323
-0.01 0.0016580214 0.01 0.0017199164 0.01 0.0018177013 -0.01 -0.0020111273
0.01 0.0018165824 0.01 -0.0020961766 -0.01 -0.0020111273 0.00062703504 0.01
0.01 -0.002209061 0.01 0.0017199164 -0.01 -0.0020111273 -0.01 0.0018205824
0.01 0.0017199165 -0.01 -0.002011127 -0.01 -0.0018907955 0.01 0.001818695
-0.01 0.0018050205 0.01 -0.0022131933 0.01 -0.0019524205 0.01 -0.001949273
0.01 -0.0017407681 0.01 0.0017199164 0.01 -0.0020133327 -0.01 0.0014413669
-0.01 0.0012751354 0.01 0.0017199162 -0.01 -0.0020111268 0.01 -0.0020872513
-0.01 -0.002011127 -0.01 -0.002011127 -0.01 -0.0021037566 0.01 -0.0015878581
0.0005312241 0.01 0.01 -0.0022056985 0.01 -0.0021972149 0.01 -0.0019770672
0.01 -0.0022147167 0.01 -0.0019891267 -0.01 0.0017876256 0.01 -0.0022208926
0.01 -0.0022094364 -0.01 0.0017831804 -0.01 -0.0020111273 0.01 0.0017166871
-0.01 0.0017471255 -0.01 0.0016750282 0.01 -0.002135185 -0.01 -0.001893441
-0.01 0.0016919251 -0.01 0.0017469701 -0.01 -0.002011127 -0.01 0.0018184413
-0.01 -0.002011127 0.01 0.0017199164 -0.01 -0.0019128482 0.01 0.0017199164
0.01 -0.0019470521 -0.01 -0.0019160633 0.01 0.0018243707 0.01 -0.0022083085
-0.01 0.0018148642 0.01 0.0018186951 0.01 0.0018178421 0.01 -0.002193174
0.01 0.0017199164 -0.01 0.0017971785 0.01 -0.001977275 -0.01 0.0017464346
-0.01 0.0017253571 0.01 0.0017199164 0.01 -0.0021156042 -0.01 0.000100561665
-0.01 0.0018151912 0.01 -0.0020606834 -0.01 0.0006487694 -0.01 0.0020874518
0.00037030492 0.01 -0.01 0.0017303056 -0.01 0.0018287473 -0.01 -0.002011127
0.01 0.0017199161 -0.01 0.0016969995 0.01 0.0018232128 -0.01 0.0017899439
0.00024172675 0.01 -0.00088984106 0.009998291 -0.01 0.0017833405 -0.01 0.0016327985
0.01 -0.0019435956 0.01 -0.0022081046 -0.01 0.0017331388 -0.01 -0.0020111273
-0.01 0.0017855276 -0.01 -0.0019470775 0.00092073844 0.01 0.01 -0.0019598925
0.01 0.0018198672 0.01 0.0018436929 0.01 -0.002210707 -0.01 -0.002011127
0.01 0.0018244962 0.01 0.001818695 0.01 -0.0019445647 -0.01 -0.002011127
0.01 0.001832883 -0.01 -0.0019015067 -0.01 0.0017609671 0.01 0.0017199162
-0.01 0.0016359059 0.01 -0.0019678953 -0.01 -0.002011127 -0.01 0.0017993475
-0.01 0.001768426 0.01 0.0018406915 -0.01 -0.0018953943 0.01 0.0018169732
0.01 -0.0019413048 0.0011416994 0.009986392 -0.01 0.0016913989 -0.01 0.0015420627
00000000: 0ad7 23bc 2f9f ea3a 0ad7 233c b6c8 f13a
00000010: 0ad7 233c 5399 ed3a 0ad7 233c 89f6 ee3a
00000020: 0ad7 23bc 182e de3a 0ad7 23bc 3733 cf3a
00000030: 0ad7 233c d06e e13a 0ad7 233c 8500 03bb
00000040: 0ad7 23bc f751 d93a 0ad7 233c d16e e13a
00000050: 0ad7 233c ef3f ee3a 0ad7 23bc 1ecd 03bb
00000060: 0ad7 233c 641a ee3a 0ad7 233c 0260 09bb
00000070: 0ad7 23bc 1ecd 03bb 9c5f 243a 0ad7 233c
00000080: 0ad7 233c e5c5 10bb 0ad7 233c d16e e13a
00000090: 0ad7 23bc 1ecd 03bb 0ad7 23bc 9ca0 ee3a
000000a0: 0ad7 233c d26e e13a 0ad7 23bc 1dcd 03bb
000000b0: 0ad7 23bc 92d4 f7ba 0ad7 233c 4761 ee3a
000000c0: 0ad7 23bc 7096 ec3a 0ad7 233c 390b 11bb
000000d0: 0ad7 233c 5ce8 ffba 0ad7 233c c07e ffba
000000e0: 0ad7 233c 7c2a e4ba 0ad7 233c d16e e13a
000000f0: 0ad7 233c 1ef2 03bb 0ad7 23bc 3fec bc3a
00000100: 0ad7 23bc 7222 a73a 0ad7 233c d06e e13a
00000110: 0ad7 23bc 1ccd 03bb 0ad7 233c 44ca 08bb
00000120: 0ad7 23bc 1dcd 03bb 0ad7 23bc 1dcd 03bb
00000130: 0ad7 23bc 2edf 09bb 0ad7 233c ad1f d0ba
00000140: d941 0b3a 0ad7 233c 0ad7 233c 7b8d 10bb
00000150: 0ad7 233c 26ff 0fbb 0ad7 233c af91 01bb
00000160: 0ad7 233c c824 11bb 0ad7 233c 025c 02bb
00000170: 0ad7 23bc c34e ea3a 0ad7 233c 658c 11bb
00000180: 0ad7 233c 31cc 10bb 0ad7 23bc 9bb9 e93a
00000190: 0ad7 23bc 1ecd 03bb 0ad7 233c 7602 e13a
000001a0: 0ad7 23bc ceff e43a 0ad7 23bc 9f8c db3a
000001b0: 0ad7 233c 76ee 0bbb 0ad7 23bc 562d f8ba
000001c0: 0ad7 23bc 96c3 dd3a 0ad7 23bc 97fa e43a
000001d0: 0ad7 23bc 1dcd 03bb 0ad7 23bc c458 ee3a
000001e0: 0ad7 23bc 1dcd 03bb 0ad7 233c d16e e13a
000001f0: 0ad7 23bc 89b8 faba 0ad7 233c d16e e13a
00000200: 0ad7 233c 3a34 ffba 0ad7 23bc 6a24 fbba
00000210: 0ad7 233c b91f ef3a 0ad7 233c 45b9 10bb
00000220: 0ad7 23bc bde0 ed3a 0ad7 233c 4861 ee3a
00000230: 0ad7 233c a944 ee3a 0ad7 233c 5bbb 0fbb
00000240: 0ad7 233c d16e e13a 0ad7 23bc 4e8f eb3a
00000250: 0ad7 233c 2b95 01bb 0ad7 23bc 9fe8 e43a
00000260: 0ad7 23bc 6125 e23a 0ad7 233c d16e e13a
00000270: 0ad7 233c f3a5 0abb 0ad7 23bc a2e4 d238
00000280: 0ad7 23bc b6eb ed3a 0ad7 233c 880c 07bb
00000290: 0ad7 23bc 2d12 2a3a 0ad7 23bc a1cd 083b
000002a0: 7c25 c239 0ad7 233c 0ad7 23bc 6ccb e23a
000002b0: 0ad7 23bc 94b2 ef3a 0ad7 23bc 1dcd 03bb
000002c0: 0ad7 233c cf6e e13a 0ad7 23bc db6d de3a
000002d0: 0ad7 233c dff8 ee3a 0ad7 23bc 8d9c ea3a
000002e0: 0878 7d39 0ad7 233c 3944 69ba dfcf 233c
000002f0: 0ad7 23bc fabe e93a 0ad7 23bc a003 d63a
00000300: 0ad7 233c 3fc0 feba 0ad7 233c d9b5 10bb
00000310: 0ad7 23bc 7d2a e33a 0ad7 23bc 1ecd 03bb
00000320: 0ad7 23bc 5d08 ea3a 0ad7 23bc 1435 ffba
00000330: b65d 713a 0ad7 233c 0ad7 233c 8a71 00bb
00000340: 0ad7 233c 9c88 ee3a 0ad7 233c 11a8 f13a
00000350: 0ad7 233c 82e1 10bb 0ad7 23bc 1dcd 03bb
00000360: 0ad7 233c ef23 ef3a 0ad7 233c 4761 ee3a
00000370: 0ad7 233c c4e0 feba 0ad7 23bc 1dcd 03bb
00000380: 0ad7 233c 593d f03a 0ad7 23bc fa3b f9ba
00000390: 0ad7 23bc 40d0 e63a 0ad7 233c d06e e13a
000003a0: 0ad7 23bc e56b d63a 0ad7 233c cef7 00bb
000003b0: 0ad7 23bc 1dcd 03bb 0ad7 23bc 15d8 eb3a
000003c0: 0ad7 23bc 88ca e73a 0ad7 233c 5c43 f13a
000003d0: 0ad7 23bc e16e f8ba 0ad7 233c 8127 ee3a
000003e0: 0ad7 233c 6173 feba 13a5 953a f79d 233c
000003f0: 0ad7 23bc eeb1 dd3a 0ad7 23bc 0a1f ca3a

fc1.bias f4 [128]
0.009908743 0.009815851 0.009582252 0.009627888 0.0099171465 0.009646256 0.009748689 -0.00987008
0.009917377 -0.009860039 0.009988465 -0.009909812 -0.00993644 -0.00998171 0.00987392 -0.009938886
0.00983995 -0.009866743 -0.0099746715 -0.0099219745 0.009938669 -0.009908194 0.0098969145 0.009858539
-0.009953193 -0.00995405 0.009968856 0.009762322 0.009891795 -0.009831518 0.009976469 -0.009768637
0.009730335 0.009934081 0.009910442 0.009991917 0.009810762 -0.009983484 -0.009952735 -0.009926218
-0.009909048 0.0099264225 0.0099361 -0.00992084 -0.009970812 -0.009986891 0.009938534 -0.009882723
-0.009932557 -0.009915337 0.00988554 -0.009853257 0.009647528 -0.009835446 -0.0099713355 -0.009931695
-0.009865117 -0.009908587 0.009910108 0.009936041 0.0031918185 0.009387258 -0.0098863235 -0.009872102
-0.009937136 0.009761088 0.009859404 0.00993449 0.009729932 -0.009975477 -0.009951305 0.009810964
0.009545634 -0.009978217 0.0098114805 -0.009851528 -0.00994224 0.00991115 -0.009905234 0.01
0.009839945 0.009962816 -0.0098349815 -0.009986193 0.009871741 -0.009953518 0.009981266 -0.009962469
0.009546491 0.009834341 -0.009855372 -0.009859944 0.009956314 -0.00997856 0.009699784 -0.009915979
0.009924721 -0.0098815225 -0.009954115 -0.009893072 0.009773464 0.009610795 0.0099910665 0.009961432
0.009595431 0.009820782 -0.009986791 0.009787891 -0.009933862 -0.009931228 0.009939862 0.009788965
0.009667816 0.009880582 -0.009859134 0.009976575 -0.009983726 0.009839284 -0.009986244 -0.009811921
-0.0099852495 -0.009910577 -0.009826228 0.009577711 0.009896194 0.009797182 0.009919621 -0.009877272
00000000: 4858 223c aad2 203c e1fe 1c3c 4abe 1d3c
00000010: 877b 223c 550b 1e3c f7b8 1f3c 1eb6 21bc
00000020: 7e7c 223c 008c 21bc a9a6 233c c45c 22bc
00000030: 73cc 22bc 548a 23bc 39c6 213c b6d6 22bc
00000040: be37 213c 1fa8 21bc ce6c 23bc c78f 22bc
00000050: cdd5 223c fa55 22bc ab26 223c b685 213c
00000060: b812 23bc 5016 23bc 6a54 233c 25f2 1f3c
00000070: 3211 223c 6014 21bc 5874 233c a20c 20bc
00000080: fc6b 1f3c 8ec2 223c 685f 223c 23b5 233c
00000090: 51bd 203c c491 23bc cc10 23bc 93a1 22bc
000000a0: 8f59 22bc 6fa2 223c 06cb 223c 058b 22bc
000000b0: 9e5c 23bc 0fa0 23bc 3cd5 223c 25eb 21bc
000000c0: 2abc 22bc f073 22bc f6f6 213c 8e6f 21bc
000000d0: aa10 1e3c da24 21bc d05e 23bc 8cb8 22bc
000000e0: 4da1 21bc a057 22bc 015e 223c c7ca 223c
000000f0: d42d 513b 04cd 193c 3ffa 21bc 99be 21bc
00000100: 5fcf 22bc f8ec 1f3c 5689 213c 45c4 223c
00000110: 4b6a 1f3c 2f70 23bc cc0a 23bc 2abe 203c
00000120: 4a65 1c3c ad7b 23bc 55c0 203c 4e68 21bc
00000130: c7e4 22bc 6062 223c 9049 22bc 0ad7 233c
00000140: b837 213c 143b 233c e722 21bc 219d 23bc
00000150: 15bd 213c 1514 23bc 7788 233c a039 23bc
00000160: e368 1c3c 3720 213c 6d78 21bc 9a8b 21bc
00000170: cf1f 233c 1d7d 23bc d8eb 1e3c a176 22bc
00000180: 4c9b 223c 1ce6 21bc 9616 23bc 8d16 22bc
00000190: e120 203c 9976 1d3c 92b1 233c 4635 233c
000001a0: 2836 1d3c 58e7 203c a39f 23bc 645d 203c
000001b0: a3c1 22bc 97b6 22bc ceda 223c e561 203c
000001c0: c265 1e3c 2ae2 213c 3588 21bc ca74 233c
000001d0: c892 23bc f334 213c 589d 23bc 2ec2 20bc
000001e0: 2c99 23bc f95f 22bc 30fe 20bc d5eb 1c3c
000001f0: a523 223c 5c84 203c e885 223c 48d4 21bc

bn1.weight f4 [128]
0.009976815 0.009991822 0.0099931685 0.00999352 0.009977116 0.00997781 0.01 0.009950051
0.00997766 0.01 0.009992555 0.01 0.0099925725 0.009944067 0.01 0.01
0.009937465 0.01 0.01 0.009976932 0.01 0.01 0.01 0.009993261
0.00997642 0.009938712 0.009949551 0.009949995 0.009946693 0.01 0.009948984 0.009978874
0.009979219 0.01 0.01 0.009944831 0.01 0.01 0.01 0.009948182
0.01 0.00993454 0.009929221 0.0099499365 0.009938357 0.009949374 0.009977547 0.009941449
0.009936649 0.009976999 0.01 0.01 0.009974884 0.009977018 0.009950003 0.01
0.009977651 0.009974557 0.01 0.009976659 0.01 0.01 0.01 0.01
0.009950474 0.01 0.009993293 0.009936573 0.009977248 0.009993261 0.0099925585 0.009940355
0.01 0.009976442 0.009948446 0.009974648 0.009973501 0.01 0.009948976 0.009997892
0.009977154 0.009946853 0.009981277 0.0049840924 0.01 0.00997318 0.009976696 0.01
0.01 0.009976977 0.009993519 0.009977246 0.01 0.01 0.00997716 0.009978007
0.009951199 0.0099377 0.009976868 0.01 0.00997661 0.01 0.01 0.009950072
0.009993263 0.009991791 0.009936606 0.01 0.009993307 0.009993261 0.009949786 0.01
0.009989292 0.01 0.009976213 0.01 0.009978118 0.009948499 0.01 0.00997673
0.009976265 0.009988602 0.01 0.009992548 0.009951286 0.01 0.009976713 0.009978167
00000000: cc75 233c bdb4 233c 63ba 233c dcbb 233c
00000010: 0f77 233c f879 233c 0ad7 233c 8a05 233c
00000020: 5779 233c 0ad7 233c d0b7 233c 0ad7 233c
00000030: e3b7 233c 71ec 223c 0ad7 233c 0ad7 233c
00000040: c0d0 223c 0ad7 233c 0ad7 233c 4976 233c
00000050: 0ad7 233c 0ad7 233c 0ad7 233c c6ba 233c
00000060: 2374 233c fbd5 223c 7103 233c 4e05 233c
00000070: 74f7 223c 0ad7 233c 1001 233c 6e7e 233c
00000080: e17f 233c 0ad7 233c 0ad7 233c a5ef 223c
00000090: 0ad7 233c 0ad7 233c 0ad7 233c b3fd 223c
000000a0: 0ad7 233c 7bc4 223c 2cae 223c 0f05 233c
000000b0: 7ed4 223c b302 233c de78 233c 76e1 223c
000000c0: 54cd 223c 9176 233c 0ad7 233c 0ad7 233c
000000d0: b26d 233c a676 233c 5605 233c 0ad7 233c
000000e0: 4d79 233c 536c 233c 0ad7 233c 2475 233c
000000f0: 0ad7 233c 0ad7 233c 0ad7 233c 0ad7 233c
00000100: 5007 233c 0ad7 233c e9ba 233c 02cd 223c
00000110: 9c77 233c c6ba 233c d4b7 233c dfdc 223c
00000120: 0ad7 233c 3b74 233c cffe 223c b56c 233c
00000130: e567 233c 0ad7 233c 0801 233c 33ce 233c
00000140: 3877 233c 20f8 223c 8388 233c 9951 a33b
00000150: 0ad7 233c 8c66 233c 4c75 233c 0ad7 233c
00000160: 0ad7 233c 7976 233c dbbb 233c 9a77 233c
00000170: 0ad7 233c 0ad7 233c 3e77 233c cb7a 233c
00000180: 5b0a 233c bcd1 223c 0476 233c 0ad7 233c
00000190: ef74 233c 0ad7 233c 0ad7 233c a005 233c
000001a0: c8ba 233c 9cb4 233c 25cd 223c 0ad7 233c
000001b0: f8ba 233c c6ba 233c 6d04 233c 0ad7 233c
000001c0: 21aa 233c 0ad7 233c 4573 233c 0ad7 233c
000001d0: 437b 233c 07ff 223c 0ad7 233c 7075 233c
000001e0: 7d73 233c 3ca7 233c 0ad7 233c c9b7 233c
000001f0: b80a 233c 0ad7 233c 5e75 233c 777b 233c

bn1.bias f4 [128]
0.0059349537 0.007100562 0.0060064015 0.0055183517 0.007929343 0.0077218344 0.009672795 0.0068831043
0.007885343 0.009672795 0.0056852093 0.00708043 0.0056910072 0.0037331244 0.00708043 0.01
0.009286668 0.0096727945 0.007080432 0.006814346 0.009672795 0.0070803543 0.008755532 0.006245298
0.005781772 0.0092210425 0.0057833907 0.006587909 0.001275355 0.009672795 0.004788593 0.007439759
0.0069481884 0.009672795 0.007080432 0.003694674 0.00708043 0.007080431 0.006281222 0.00064212806
0.01 0.00882648 0.008795486 0.0067115286 0.009259248 0.0052833026 0.0066554914 0.008908606
0.009475283 0.0069421846 0.0070803645 0.009678027 0.005301529 0.007858675 0.0075990106 0.008729124
0.008044435 0.00522253 0.007080432 0.0060036564 0.00708043 0.009672795 0.007976352 0.0096727945
0.0065488075 0.007967366 0.005524445 0.009482941 0.006929387 0.0062451386 0.0056844857 0.008578671
0.009672795 0.005642623 0.0053697927 0.0052362513 0.0050580585 0.009672795 0.007483252 0.0048268796
0.0069368794 0.004336161 0.0047560195 0.004872367 0.01 0.0050244234 0.006200831 0.00708043
0.009672795 0.007474346 0.0055188537 0.006811741 0.01 0.01 0.006270274 0.00790276
0.006068407 0.009306256 0.0075534848 0.0070804292 0.005646656 0.007477522 0.01 0.0059188576
0.006245919 0.007098973 0.009518643 0.0070804153 0.0055245957 0.0062451493 0.006592207 0.0070804292
0.00674257 0.008495944 0.0075109666 0.009672795 0.007935086 0.0056768334 0.007080432 0.0058397343
0.0055648577 0.0069123623 0.00874354 0.005703763 0.006406517 0.01 0.0077045755 0.0076338006
00000000: 007a c23b d5ab e83b 59d1 c43b 4ad3 b43b
00000010: 13ea 013c 7107 fd3b a57a 1e3c aa8b e13b
00000020: 8731 013c a57a 1e3c fe4a ba3b f402 e83b
00000030: a17b ba3b 6fa7 743b f402 e83b 0ad7 233c
00000040: 1c27 183c a47a 1e3c f802 e83b e14a df3b
00000050: a57a 1e3c 5102 e83b 5d73 0f3c 5ba5 cc3b
00000060: 0575 bd3b db13 173c 9982 bd3b 63df d73b
00000070: d029 a73a a57a 1e3c a1e9 9c3b 39c9 f33b
00000080: a1ad e33b a57a 1e3c f802 e83b 5822 723b
00000090: f402 e83b f602 e83b b6d2 cd3b 7c54 283a
000000a0: 0ad7 233c f19c 103c f11a 103c 62ec db3b
000000b0: 1ab4 173c 8e1f ad3b 4f16 da3b 67f5 113c
000000c0: 383e 1b3c 447b e33b 6702 e83b 9690 1e3c
000000d0: 73b8 ad3b acc1 003c 1f01 f93b 9a04 0f3c
000000e0: cecc 033c c221 ab3b f802 e83b 52ba c43b
000000f0: f402 e83b a57a 1e3c 3faf 023c a47a 1e3c
00000100: 6197 d63b 8e89 023c 6706 b53b 565e 1b3c
00000110: e90f e33b 05a4 cc3b ec44 ba3b 8e8d 0c3c
00000120: a57a 1e3c c1e5 b83b 16f5 af3b dc94 ab3b
00000130: 12be a53b a57a 1e3c 1136 f53b cd2a 9e3b
00000140: c34e e33b 5b16 8e3b 62d8 9b3b 60a8 9f3b
00000150: 0ad7 233c eba3 a43b 5730 cb3b f402 e83b
00000160: a57a 1e3c 5ceb f43b 80d7 b43b 0635 df3b
00000170: 0ad7 233c 0ad7 233c df76 cd3b 947a 013c
00000180: 7dd9 c63b 4479 183c 3983 f73b f202 e83b
00000190: 9507 b93b 0006 f53b 0ad7 233c faf2 c13b
000001a0: 91aa cc3b 809e e83b 15f4 1b3c d402 e83b
000001b0: ab07 b53b 1ca4 cc3b 7103 d83b f202 e83b
000001c0: c7f0 dc3b 9232 0b3c 8e1e f63b a57a 1e3c
000001d0: 2a02 023c bb04 ba3b f802 e83b 3e5b bf3b
000001e0: 6959 b63b 1981 e23b 1141 0f3c a2e6 ba3b
000001f0: c2ed d13b 0ad7 233c aa76 fc3b f624 fa3b

bn1.running_mean f4 [128]
0.0019033377 0.022342453 0.02206854 0.022133052 0.0018073731 0.0013929561 0.022119319 -0.0021483486
0.0017651593 0.0025050668 0.022487827 -0.022621404 0.0025580833 -0.0023527555 -0.0028356588 0.0031482514
0.017303322 0.0025003639 -0.02268437 -0.017885625 0.022296805 -0.022622496 -0.0026634806 0.022356577
-0.017936105 -0.002501117 0.017754648 0.017547373 0.01800888 0.0025331972 0.017699003 -0.018199505
0.0010954872 0.022299526 -0.0027981987 0.017639639 -0.0028990721 -0.022693587 -0.022779278 -0.0016319253
0.0030885595 0.017389506 0.017409738 -0.002169655 -0.0025202478 -0.0022409507 0.0019289876 -0.0024393308
-0.002472627 -0.017927103 -0.0028276742 0.0025083595 0.0015796123 -0.01797633 -0.002416887 -0.022495594
-0.017982105 -0.017972242 -0.0027998863 0.0019658618 -0.00951742 0.021747842 -0.022477685 0.002497633
-0.002143098 -0.0028299016 0.022359388 0.017400388 0.0017613742 0.0025205596 0.0025480592 0.017292457
0.021908073 -0.017974287 0.017571196 -0.017915228 -0.018028872 0.02227852 -0.002332272 -0.00010176352
0.0018723006 0.017635625 -0.019252326 -0.017620638 0.022718683 -0.01803521 0.0020253565 -0.02267126
0.021909999 0.0017246075 0.0026484183 -0.017862035 0.022682667 0.0016046705 0.0016838855 -0.018105011
0.017719919 -0.0024170235 -0.018020395 -0.022598581 0.0017634192 -0.0030226435 0.023357797 0.01774009
0.022099454 0.022353776 -0.002525665 -0.002920837 0.0025755872 0.0025656172 0.017734122 -0.002920846
0.022183651 -0.0026895893 -0.017884353 0.022344824 -0.018173872 0.017606102 -0.022696747 -0.017803965
-0.018020425 0.0026188195 -0.02238963 0.022081755 0.017689489 0.023380667 0.001797626 -0.018182851
00000000: 6a79 f93a 8507 b73c 15c9 b43c 6050 b53c
00000010: 61e5 ec3a da93 b63a 9333 b53c 4fcb 0cbb
00000020: eb5c e73a 0c2c 243b 6438 b83c 8650 b9bc
00000030: 84a5 273b b030 1abb 76d6 39bb e552 4e3b
00000040: b2bf 8d3c 25dd 233b 92d4 b9bc e084 92bc
00000050: caa7 b63c d052 b9bc ca8d 2ebb 2425 b73c
00000060: bdee 92bc c8e9 23bb 3272 913c 82bf 8f3c
00000070: 5c87 933c ff03 263b 80fd 903c 2117 95bc
00000080: 7396 8f3a 7fad b63c fc61 37bb 0181 903c
00000090: 5cfe 3dbb e7e7 b9bc 9c9b babc 54e6 d5ba
000000a0: 6e69 4a3b 7074 8e3c de9e 8e3c c530 0ebb
000000b0: be2a 25bb eadc 12bb 15d6 fc3a 2edd 1fbb
000000c0: cc0b 22bb dcdb 92bc 8050 39bb 4a63 243b
000000d0: fe0a cf3a 1943 93bc a364 1ebb ae48 b8bc
000000e0: 354f 93bc 863a 93bc 4c7e 37bb b0d5 003b
000000f0: f4ee 1bbc 8828 b23c 1f23 b8bc 54af 233b
00000100: 3873 0cbb df75 39bb 092b b73c 428b 8e3c
00000110: e9dd e63a f92f 253b 57fd 263b e9a8 8d3c
00000120: 8f78 b33c d03e 93bc 78f1 8f3c f5c2 92bc
00000130: 49b1 93bc 7181 b63c 08d9 18bb e069 d5b8
00000140: fc67 f53a 9678 903c 0eb7 9dbc 2859 90bc
00000150: 881c ba3c 94be 93bc d8bb 043b 14b9 b9bc
00000160: 997c b33c 3a0c e23a 1691 2d3b 6753 92bc
00000170: 00d1 b93c cf53 d23a d2b5 dc3a f650 94bc
00000180: 5d29 913c ed66 1ebb 829f 93bc a920 b9bc
00000190: 8822 e73a 8b17 46bb da58 bf3c aa53 913c
000001a0: ea09 b53c 441f b73c a185 25bb 836b 3fbb
000001b0: 2fcb 283b ea23 283b 2647 913c aa6b 3fbb
000001c0: 7dba b53c d243 30bb 3582 92bc 7e0c b73c
000001d0: 5fe1 94bc ac3a 903c 87ee b9bc 9fd9 91bc
000001e0: 929f 93bc 80a0 2b3b 756a b7bc cce4 b43c
000001f0: 8ce9 903c d088 bf3c 529e eb3a 34f4 94bc

bn1.running_var f4 [128]
0.00015768774 0.00015254265 0.00015246222 0.0001524848 0.00015721004 0.0001566113 0.00015221279 0.00015899187
0.00015700952 0.00015221279 0.0001524744 0.00015296772 0.00015247134 0.00015944545 0.00015296771 0.00011234116
0.00016029908 0.0001522128 0.00015296772 0.00015785235 0.00015221277 0.00015296771 0.00015262213 0.0001524738
0.00015776009 0.00016032199 0.00015868353 0.00015869168 0.00015718526 0.00015221279 0.00015898824 0.00015592504
0.0001551676 0.00015221279 0.00015296772 0.00015933964 0.00015296771 0.00015296772 0.00015326709 0.0001564223
0.00011245048 0.00016028676 0.00016021806 0.00015885753 0.00016033238 0.0001588656 0.00015766748 0.0001603748
0.00016029022 0.00015764972 0.00015296771 0.00015220692 0.0001574353 0.00015710246 0.00015983717 0.00015262916
0.00015719002 0.00015743708 0.00015296771 0.00015784297 0.00015296771 0.00015221279 0.00015267887 0.00015221279
0.0001586726 0.00015268795 0.00015248831 0.00016028412 0.00015782293 0.0001524738 0.00015247475 0.00016019624
0.00015221279 0.00015771376 0.00015880633 0.00015743352 0.00015731683 0.00015221279 0.00015970597 0.0001515988
0.00015782485 0.00015922144 0.00015287391 0.00015941368 0.00011268862 0.00015733574 0.0001579022 0.00015296771
0.00015221277 0.000157217 0.000152485 0.00015768303 0.000112944836 0.00011554448 0.0001576429 0.000156879
0.00015863655 0.00016029231 0.00015741147 0.00015296771 0.00015764475 0.00015277757 0.000112240385 0.00015872871
0.00015247699 0.00015253997 0.00016029924 0.00015296771 0.00015248866 0.0001524738 0.0001586655 0.00015296771
0.00015251778 0.00015264598 0.0001575705 0.00015221279 0.00015689607 0.0001587705 0.00015296771 0.00015772921
0.00015755676 0.00015254109 0.00015263526 0.00015247245 0.000158636 0.00011242046 0.00015718966 0.00015641678
00000000: fb58 2539 dbf3 1f39 44de 1f39 54e4 1f39
00000010: c0d8 2439 0738 2439 4f9b 1f39 0eb7 2639
00000020: eca2 2439 4f9b 1f39 89e1 1f39 f665 2039
00000030: b7e0 1f39 d030 2739 f565 2039 b398 eb38
00000040: f515 2839 509b 1f39 f665 2039 2b85 2539
00000050: 4e9b 1f39 f565 2039 3109 2039 60e1 1f39
00000060: 676c 2539 1b1c 2839 4964 2639 7966 2639
00000070: 19d2 2439 4f9b 1f39 15b6 2639 cf7f 2339
00000080: 7cb4 2239 4f9b 1f39 f665 2039 6914 2739
00000090: f565 2039 f665 2039 52b6 2039 4b05 2439
000000a0: 64d3 eb38 a612 2839 3500 2839 fe92 2639
000000b0: e51e 2839 2995 2639 8b53 2539 482a 2839
000000c0: 9413 2839 c64e 2539 f565 2039 bc99 1f39
000000d0: 3715 2539 dfbb 2439 f799 2739 140b 2039
000000e0: 60d3 2439 b215 2539 f565 2039 a682 2539
000000f0: f565 2039 4f9b 1f39 6c18 2039 4f9b 1f39
00000100: 5a61 2639 dc1a 2039 45e5 1f39 f111 2839
00000110: 457d 2539 60e1 1f39 a1e1 1f39 5afa 2739
00000120: 4f9b 1f39 f75f 2539 4085 2639 bd14 2539
00000130: 6af5 2439 4f9b 1f39 bf76 2739 7ef6 1e39
00000140: c97d 2539 aef4 2639 c74c 2039 4928 2739
00000150: 3e53 ec38 7efa 2439 8d92 2539 f565 2039
00000160: 4e9b 1f39 9eda 2439 61e4 1f39 b757 2539
00000170: ccdc ec38 7850 f238 f24c 2539 e37f 2439
00000180: ad57 2639 2414 2839 d20e 2539 f565 2039
00000190: 714d 2539 eb32 2039 9962 eb38 6a70 2639
000001a0: 3be2 1f39 23f3 1f39 0016 2839 f565 2039
000001b0: 5de5 1f39 60e1 1f39 725f 2639 f565 2039
000001c0: 2eed 1f39 980f 2039 8239 2539 4f9b 1f39
000001d0: 7884 2439 a27b 2639 f565 2039 1d64 2539
000001e0: d235 2539 70f3 1f39 b70c 2039 03e1 1f39
000001f0: 8757 2639 46c3 eb38 47d3 2439 cf03 2439

fc2.weight f4 [128, 128]
-0.009933498 -0.0099761225 -0.009975549 -0.009975921 -7.882507e-06 -0.00088346144 -0.009978596 0.009280119
-0.009930411 -0.009978596 -0.00997576 0.01 -0.0099757565 0.009912278 0.01 0.01
0.009862121 -0.009978596 0.01 -0.00993214 -0.009978596 0.01 0.01 -0.009975412
-0.0027379335 0.009801713 0.009882182 0.009290604 0.009892496 -0.009978595 0.00990153 -0.009929529
0.0008163322 -0.009978596 0.01 0.009912092 0.01 0.01 0.01 0.009747603
0.01 0.009608291 0.009662688 0.009857108 0.009861897 0.009892833 -0.009932232 0.009735428
0.009865404 -0.0011905843 0.01 -0.009978615 -0.009934464 -0.009930511 0.009843265 0.01
0.0010043912 -0.0072301086 0.01 -0.009933463 0.01 -0.009978596 0.01 -0.009978596
0.009861385 0.01 -0.009975917 0.009865712 -0.009932049 -0.009975412 -0.009975759 0.009849571
-0.009978596 -0.009934061 0.00989119 -0.0059022293 -0.0066191284 -0.009978596 0.009843738 -0.008669634
-0.009932033 0.0099069625 0.0048317546 -0.002562497 0.01 -0.009934882 -0.0099331485 0.01
-0.009978596 -0.009931008 -0.0099759195 -0.009932069 0.01 0.01 -0.0031012339 -0.009930271
0.009874813 0.009862397 -0.00010113141 0.01 -0.009934056 0.01 0.01 0.0098788515
-0.009975413 -0.009976119 0.009866265 0.01 -0.0099759195 -0.009975412 0.009040319 0.01
-0.009975681 0.01 -0.009931188 -0.009978596 -0.009930258 0.009884591 0.01 -0.009933722
-0.009934103 -0.009975855 0.01 -0.009975742 0.009590338 0.01 -0.0006358544 -0.00993011
0.009986275 -0.009995915 -0.009993572 -0.009991831 0.009986205 0.009986512 -0.00999707 -0.00893969
0.009986299 -0.00999707 -0.0099923955 0.01 -0.009992423 0.0023485746 0.01 -0.0009991545
-0.008406252 -0.00999707 0.01 0.00998604 -0.00999707 0.01 0.01 -0.009994215
0.00998627 -0.009963801 -0.0099603385 -0.009133288 0.00096688664 -0.00999707 -0.0011958835 0.009986967
0.009987649 -0.00999707 0.01 0.0040491247 0.01 0.01 0.01 0.01
0.0010659532 -0.009964989 -0.009964975 -0.009965799 -0.009963708 -0.009956785 0.00998613 -0.009964761
-0.005935779 0.009986075 0.01 -0.009997077 0.009986469 0.009986257 -0.009967446 0.01
0.009986205 0.009627517 0.01 0.009986211 0.01 -0.00999707 0.01 -0.00999707
-0.009965124 0.01 -0.00999184 -0.009963116 0.00998602 -0.009994215 -0.009992391 -0.009780051
-0.00999707 0.009986313 -0.009957352 0.009986486 0.009986557 -0.00999707 -0.009967562 0.01
0.009986018 -0.007958548 0.009993078 0.0011297633 -0.0077550793 0.0061390153 0.009986163 0.01
-0.00999707 0.009986216 -0.009991833 0.00998609 -0.0072790906 0.0027285102 0.009986219 0.009986364
-0.009962329 -0.009963601 0.009986129 0.01 0.009986326 0.01 -0.004072245 -0.0013751936
-0.009994212 -0.009995918 -0.006983328 0.01 -0.00999184 -0.009994215 -0.009965327 0.01
-0.009995258 0.01 0.009986071 -0.00999707 0.009986356 -0.009959562 0.01 0.009986269
0.00998638 -0.009995584 0.01 -0.009992466 -0.00996441 -0.009986137 0.009986221 0.009986632
00000000: 1cc0 22bc e472 23bc 7c70 23bc 0c72 23bc
00000010: 1c3f 04b7 1898 67ba 447d 23bc a40b 183c
00000020: 2ab3 22bc 447d 23bc 5f71 23bc 0ad7 233c
00000030: 5b71 23bc 1b67 223c 0ad7 233c 0ad7 233c
00000040: bc94 213c 447d 23bc 0ad7 233c 6aba 22bc
00000050: 447d 23bc 0ad7 233c 0ad7 233c e96f 23bc
00000060: e76e 33bb 5d97 203c e0e8 213c 9e37 183c
00000070: 2314 223c 437d 23bc 073a 223c 77af 22bc
00000080: 20ff 553a 447d 23bc 0ad7 233c 5466 223c
00000090: 0ad7 233c 0ad7 233c 0ad7 233c 69b4 1f3c
000000a0: 0ad7 233c 186c 1d3c 4050 1e3c b57f 213c
000000b0: cb93 213c 8d15 223c cdba 22bc 5881 1f3c
000000c0: 81a2 213c 610d 9cba 0ad7 233c 587d 23bc
000000d0: 29c4 22bc 95b3 22bc a545 213c 0ad7 233c
000000e0: c7a5 833a 8cea ecbb 0ad7 233c f7bf 22bc
000000f0: 0ad7 233c 447d 23bc 0ad7 233c 447d 23bc
00000100: a691 213c 0ad7 233c 0772 23bc cca3 213c
00000110: 08ba 22bc e96f 23bc 5e71 23bc 1860 213c
00000120: 447d 23bc 79c2 22bc a80e 223c 7d67 c1bb
00000130: 46e5 d8bb 447d 23bc a147 213c 150b 0ebc
00000140: f7b9 22bc d050 223c b253 9e3b 91ef 27bb
00000150: 0ad7 233c eac5 22bc a5be 22bc 0ad7 233c
00000160: 447d 23bc abb5 22bc 0a72 23bc 1eba 22bc
00000170: 0ad7 233c 0ad7 233c 123e 4bbb 93b2 22bc
00000180: f8c9 213c e495 213c 8316 d4b8 0ad7 233c
00000190: 73c2 22bc 0ad7 233c 0ad7 233c e8da 213c
000001a0: ea6f 23bc e072 23bc 1da6 213c 0ad7 233c
000001b0: 0a72 23bc e96f 23bc d91d 143c 0ad7 233c
000001c0: 0a71 23bc 0ad7 233c 6cb6 22bc 447d 23bc
000001d0: 85b2 22bc fbf2 213c 0ad7 233c 0dc1 22bc
000001e0: a6c2 22bc c571 23bc 0ad7 233c 4b71 23bc
000001f0: cb20 1d3c 0ad7 233c 77af 26ba e6b1 22bc
00000200: 799d 233c e8c5 23bc 14bc 23bc c7b4 23bc
00000210: 2e9d 233c 789e 233c c0ca 23bc c777 12bc
00000220: 939d 233c c0ca 23bc 25b7 23bc 0ad7 233c
00000230: 42b7 23bc 8bea 193b 0ad7 233c 10f6 82ba
00000240: 60ba 09bc c0ca 23bc 0ad7 233c 7d9c 233c
00000250: c0ca 23bc 0ad7 233c 0ad7 233c c7be 23bc
00000260: 749d 233c 363f 23bc b030 23bc c9a3 15bc
00000270: aa76 7d3a c0ca 23bc 31bf 9cba 60a0 233c
00000280: 3ca3 233c c0ca 23bc 0ad7 233c 85ae 843b
00000290: 0ad7 233c 0ad7 233c 0ad7 233c 0ad7 233c
000002a0: 74b7 8b3a 3144 23bc 2244 23bc 9747 23bc
000002b0: d23e 23bc c821 23bc dd9c 233c 3d43 23bc
000002c0: ec80 c2bb a29c 233c 0ad7 233c c8ca 23bc
000002d0: 499e 233c 669d 233c 804e 23bc 0ad7 233c
000002e0: 2e9d 233c bcbc 1d3c 0ad7 233c 349d 233c
000002f0: 0ad7 233c c0ca 23bc 0ad7 233c c0ca 23bc
00000300: c244 23bc 0ad7 233c d1b4 23bc 563c 23bc
00000310: 679c 233c c7be 23bc 20b7 23bc 823c 20bc
00000320: c0ca 23bc a29d 233c 2924 23bc 5c9e 233c
00000330: a89e 233c c0ca 23bc fc4e 23bc 0ad7 233c
00000340: 659c 233c 9264 02bc 02ba 233c 9114 943a
00000350: 521e febb cb29 c93b 019d 233c 0ad7 233c
00000360: c0ca 23bc 3a9d 233c c9b4 23bc b29c 233c
00000370: 7085 eebb ced0 323b 3d9d 233c d99d 233c
00000380: 0939 23bc 5f3e 23bc dc9c 233c 0ad7 233c
00000390: b09d 233c 0ad7 233c 7870 85bb d73f b4ba
000003a0: c3be 23bc ebc5 23bc 67d4 e4bb 0ad7 233c
000003b0: d1b4 23bc c7be 23bc 9c45 23bc 0ad7 233c
000003c0: 27c3 23bc 0ad7 233c 9e9c 233c c0ca 23bc
000003d0: d09d 233c 6e2d 23bc 0ad7 233c 739d 233c
000003e0: ea9d 233c 85c4 23bc 0ad7 233c 71b7 23bc
000003f0: c441 23bc e59c 23bc 3f9d 233c f89e 233c

fc2.bias f4 [128]
-0.00054923905 -0.009895829 0.0040850937 -0.01 -0.009951025 -0.01 0.0041296207 -0.01
-0.009991674 -0.01 0.0047846297 -0.0018047645 -0.01 -0.01 -0.009311364 -0.01
-0.01 -0.009997096 0.009978543 -0.009998939 -0.01 -0.009999064 -0.01 0.0039052607
-0.01 -0.009999173 0.0073329876 0.0074346745 -0.01 -0.00021308393 0.00064335734 -0.001710221
-0.01 -0.01 0.0040262686 0.0068008644 -5.104662e-05 0.0066752112 0.0047330502 0.00019081858
-0.01 -0.00940892 -0.01 -0.01 -0.01 -0.009625586 -0.009995045 -0.00059663516
-0.01 -0.01 -0.009682469 -0.01 -0.00031954554 0.0065701967 -0.009997468 -0.01
0.0070974887 -0.009989905 -0.01 -0.01 -0.0009523841 -0.00869625 -0.01 0.004168074
-0.009993808 -0.00036061544 -0.01 0.0070285876 0.004456393 -0.009800546 -0.01 0.004592879
-0.00043763153 0.00428812 -0.0028138128 0.0069212364 0.0029079118 -0.01 0.0074806088 -0.01
-0.00023192615 -0.009995908 -0.009994181 0.006427387 -0.01 0.0041159256 -0.01 -0.009531814
-0.01 -0.0099896705 -0.01 -0.01 -0.01 -0.009988451 -0.01 -0.01
0.0037988585 -0.01 0.0068541598 0.0073613464 -0.009476089 -0.00999354 -0.01 -0.01
0.0072017936 -0.01 0.0038483075 -0.01 -0.01 0.0071890545 -0.01 -0.01
-0.009991556 -0.01 -0.01 -0.01 -0.00999994 -0.008571526 -0.009999791 -0.009995574
0.003977551 -0.01 -0.01 -0.01 -0.0091277845 0.0069871317 -0.01 0.004738876
00000000: cffa 0fba 1d22 22bc 40dc 853b 0ad7 23bc
00000010: a009 23bc 0ad7 23bc c551 873b 0ad7 23bc
00000020: 1eb4 23bc 0ad7 23bc 62c8 9c3b d98d ecba
00000030: 0ad7 23bc 0ad7 23bc b18e 18bc 0ad7 23bc
00000040: 0ad7 23bc dcca 23bc 0b7d 233c 97d2 23bc
00000050: 0ad7 23bc 1dd3 23bc 0ad7 23bc 67ef 7f3b
00000060: 0ad7 23bc 92d3 23bc 8f49 f03b 929e f33b
00000070: 0ad7 23bc 486f 5fb9 fba6 283a 7f29 e0ba
00000080: 0ad7 23bc 0ad7 23bc caee 833b c9d9 de3b
00000090: e41a 56b8 bbbb da3b b417 9b3b 7916 4839
000000a0: 0ad7 23bc df27 1abc 0ad7 23bc 0ad7 23bc
000000b0: 0ad7 23bc a2b4 1dbc 42c2 23bc 8267 1cba
000000c0: 0ad7 23bc 0ad7 23bc 38a3 1ebc 0ad7 23bc
000000d0: ad88 a7b9 ce4a d73b 6ccc 23bc 0ad7 23bc
000000e0: 0d92 e83b b3ac 23bc 0ad7 23bc 0ad7 23bc
000000f0: 6aa9 79ba b77a 0ebc 0ad7 23bc 5794 883b
00000100: 12bd 23bc fc10 bdb9 0ad7 23bc 1150 e63b
00000110: ef06 923b 7892 20bc 0ad7 23bc dd7f 963b
00000120: e971 e5b9 5c83 8c3b f267 38bb 8acb e23b
00000130: aa92 3e3b 0ad7 23bc e51f f53b 0ad7 23bc
00000140: 3431 73b9 e0c5 23bc a2be 23bc d49c d23b
00000150: 0ad7 23bc e3de 863b 0ad7 23bc 532b 1cbc
00000160: 0ad7 23bc b7ab 23bc 0ad7 23bc 0ad7 23bc
00000170: 0ad7 23bc 9aa6 23bc 0ad7 23bc 0ad7 23bc
00000180: 45f6 783b 0ad7 23bc dc98 e03b 7337 f13b
00000190: 9941 1bbc f2bb 23bc 0ad7 23bc 0ad7 23bc
000001a0: 06fd eb3b 0ad7 23bc e333 7c3b 0ad7 23bc
000001b0: 0ad7 23bc 2992 eb3b 0ad7 23bc 0ad7 23bc
000001c0: a0b3 23bc 0ad7 23bc 0ad7 23bc 0ad7 23bc
000001d0: cad6 23bc 966f 0cbc 2ad6 23bc 7ac4 23bc
000001e0: 1e56 823b 0ad7 23bc 0ad7 23bc 0ad7 23bc
000001f0: b48c 15bc 4ff4 e43b 0ad7 23bc 9348 9b3b

bn2.weight f4 [128]
0.01 0.01 0.01 0.01 0.01 0.01 0.01 0.01
0.01 0.01 0.01 0.01 0.01 0.01 0.01 0.01
0.01 0.01 0.006065488 0.01 0.01 0.01 0.01 0.01
0.01 0.01 0.01 0.01 0.01 0.01 0.01 0.01
0.01 0.01 0.01 0.01 0.01 0.01 0.01 0.01
0.01 0.01 0.01 0.01 0.01 0.01 0.01 0.01
0.01 0.01 0.01 0.01 0.01 0.01 0.01 0.01
0.01 0.01 0.01 0.01 0.01 0.01 0.01 0.01
0.01 0.01 0.01 0.01 0.01 0.01 0.01 0.01
0.01 0.01 0.01 0.01 0.01 0.01 0.01 0.01
0.01 0.01 0.01 0.01 0.01 0.01 0.01 0.01
0.01 0.01 0.01 0.01 0.01 0.01 0.01 0.01
0.01 0.01 0.01 0.01 0.01 0.01 0.01 0.01
0.01 0.01 0.01 0.01 0.01 0.01 0.01 0.01
0.01 0.01 0.01 0.01 0.01 0.01 0.01 0.01
0.01 0.01 0.01 0.01 0.01 0.01 0.01 0.01
00000000: 0ad7 233c 0ad7 233c 0ad7 233c 0ad7 233c
00000010: 0ad7 233c 0ad7 233c 0ad7 233c 0ad7 233c
00000020: 0ad7 233c 0ad7 233c 0ad7 233c 0ad7 233c
00000030: 0ad7 233c 0ad7 233c 0ad7 233c 0ad7 233c
00000040: 0ad7 233c 0ad7 233c 00c1 c63b 0ad7 233c
00000050: 0ad7 233c 0ad7 233c 0ad7 233c 0ad7 233c
00000060: 0ad7 233c 0ad7 233c 0ad7 233c 0ad7 233c
00000070: 0ad7 233c 0ad7 233c 0ad7 233c 0ad7 233c
00000080: 0ad7 233c 0ad7 233c 0ad7 233c 0ad7 233c
00000090: 0ad7 233c 0ad7 233c 0ad7 233c 0ad7 233c
000000a0: 0ad7 233c 0ad7 233c 0ad7 233c 0ad7 233c
000000b0: 0ad7 233c 0ad7 233c 0ad7 233c 0ad7 233c
000000c0: 0ad7 233c 0ad7 233c 0ad7 233c 0ad7 233c
000000d0: 0ad7 233c 0ad7 233c 0ad7 233c 0ad7 233c
000000e0: 0ad7 233c 0ad7 233c 0ad7 233c 0ad7 233c
000000f0: 0ad7 233c 0ad7 233c 0ad7 233c 0ad7 233c
00000100: 0ad7 233c 0ad7 233c 0ad7 233c 0ad7 233c
00000110: 0ad7 233c 0ad7 233c 0ad7 233c 0ad7 233c
00000120: 0ad7 233c 0ad7 233c 0ad7 233c 0ad7 233c
00000130: 0ad7 233c 0ad7 233c 0ad7 233c 0ad7 233c
00000140: 0ad7 233c 0ad7 233c 0ad7 233c 0ad7 233c
00000150: 0ad7 233c 0ad7 233c 0ad7 233c 0ad7 233c
00000160: 0ad7 233c 0ad7 233c 0ad7 233c 0ad7 233c
00000170: 0ad7 233c 0ad7 233c 0ad7 233c 0ad7 233c
00000180: 0ad7 233c 0ad7 233c 0ad7 233c 0ad7 233c
00000190: 0ad7 233c 0ad7 233c 0ad7 233c 0ad7 233c
000001a0: 0ad7 233c 0ad7 233c 0ad7 233c 0ad7 233c
000001b0: 0ad7 233c 0ad7 233c 0ad7 233c 0ad7 233c
000001c0: 0ad7 233c 0ad7 233c 0ad7 233c 0ad7 233c
000001d0: 0ad7 233c 0ad7 233c 0ad7 233c 0ad7 233c
000001e0: 0ad7 233c 0ad7 233c 0ad7 233c 0ad7 233c
000001f0: 0ad7 233c 0ad7 233c 0ad7 233c 0ad7 233c

bn2.bias f4 [128]
0.00025089376 2.756033e-05 -3.043895e-05 3.3846045e-05 2.5747126e-05 -2.5307152e-05 -3.391071e-05 0.00025441963
-0.00025773863 0.00025385167 -3.345063e-05 0.00025961793 3.444608e-05 -3.400256e-05 2.9318615e-05 3.4816097e-05
0.00024648046 -3.934094e-05 -0.0041932324 -3.578427e-05 3.35736e-05 -0.00025339398 -0.0002496567 -2.7846303e-05
0.00024964046 0.00025867176 -0.00025910547 -0.00026140356 0.00025405412 0.00025564074 -2.1142961e-05 0.0002563662
3.2315256e-05 -3.2807427e-05 -2.318354e-05 -0.00025858314 0.00025022213 -0.0002461907 -2.9439618e-05 0.00025627555
2.678105e-05 3.5390196e-05 0.00025353068 3.5773664e-05 -2.9039233e-05 2.8918354e-05 -2.990996e-05 0.00025439137
-0.0002551737 2.5922334e-05 1.5930429e-05 0.00025194787 0.0002611643 -0.0002543972 -2.9700084e-05 3.0978284e-05
-0.0002573838 -0.0002545592 0.0002589171 3.6056408e-05 0.00025470823 3.4191886e-05 0.00024962454 -3.5549263e-05
-0.00025243332 0.00025588457 -0.00025949834 -0.00025648408 -3.0325456e-05 3.431796e-05 -3.0553983e-05 -3.1499436e-05
0.0002540307 -2.6410671e-05 -2.8449549e-05 -0.00026360576 -4.4035052e-05 0.00025805272 -0.00025444708 3.4249148e-05
0.00025501061 -0.00025780746 -1.9074632e-05 -0.0002553003 -3.1782816e-05 -2.856051e-05 0.00025649375 3.072676e-05
-0.0002558254 -3.2183285e-05 0.0002498513 -0.00025763593 0.0002592363 -4.237125e-05 -3.097646e-05 3.4602603e-05
-2.7539223e-05 -3.3032924e-05 -0.00024858688 -0.00025153003 3.35159e-05 -0.0002555896 0.00025179415 -0.00024858178
-0.00025928923 3.1422907e-05 -3.4986086e-05 3.092e-05 -0.00026491983 -0.0002604818 0.0002489731 -3.5947545e-05
-3.2618766e-05 0.00025470083 -4.3504442e-05 3.4518074e-05 0.00025146993 3.1827414e-05 0.00025566717 -0.00025914173
-3.752529e-05 -0.00026175193 2.7119197e-05 -0.000247682 3.2600074e-05 -0.00024959494 0.00026118057 -1.4977874e-05
00000000: 648a 8339 5c31 e737 2657 ffb7 eaf5 0d38
00000010: 88fb d737 b24a d4b7 593b 0eb8 a063 8539
00000020: 1821 87b9 6517 8539 574d 0cb8 541d 8839
00000030: 327a 1038 f99d 0eb8 3ff1 f537 8007 1238
00000040: 0c3a 8139 0302 25b8 6267 89bb 1117 16b8
00000050: 61d1 0c38 f7d9 84b9 5be4 82b9 7b97 e9b7
00000060: 2de2 8239 569e 8739 8cd8 87b9 fe0c 89b9
00000070: 9132 8539 8507 8639 2a5c b1b7 e468 8639
00000080: 3e8a 0738 b59a 09b8 467a c2b7 7192 87b9
00000090: 3f30 8339 2813 81b9 19f5 f6b7 b95c 8639
000000a0: dea7 e037 ef6f 1438 50ec 8439 ae0b 1638
000000b0: 4799 f3b7 b195 f237 26e7 fab7 d55f 8539
000000c0: d6c8 85b9 ca73 d937 56a2 8537 df17 8439
000000d0: e1ec 8839 9d60 85b9 7224 f9b7 aeee 0138
000000e0: 78f1 86b9 5c76 85b9 44bf 8739 463b 1738
000000f0: 5c8a 8539 4269 0f38 0ae0 8239 bb1a 15b8
00000100: 0759 84b9 3f28 8639 470d 88b9 b678 86b9
00000110: 6c63 feb7 a1f0 0f38 1727 00b8 431e 04b8
00000120: 6c2f 8539 7c8c ddb7 f1a6 eeb7 9134 8ab9
00000130: 47b2 38b8 404b 8739 4f67 85b9 bea6 0f38
00000140: f2b2 8539 552a 87b9 7602 a0b7 d4d9 85b9
00000150: 8a4e 05b8 3a95 efb7 027a 8639 9be0 0038
00000160: 4e20 86b9 8afc 06b8 79fe 8239 4f13 87b9
00000170: 1bea 8739 c9b7 31b8 b8ec 01b8 4322 1138
00000180: 0804 e7b7 d58c 0ab8 c454 82b9 cadf 83b9
00000190: 6c93 0c38 a800 86b9 3d03 8439 1554 82b9
000001a0: 36f1 87b9 17cc 0338 06be 12b8 19b0 0138
000001b0: f0e4 8ab9 4691 88b9 9b88 8239 62c6 16b8
000001c0: 22d0 08b8 5e89 8539 8a78 36b8 80c7 1038
000001d0: b9d7 8339 6d7e 0538 110b 8639 6add 87b9
000001e0: 7964 1db8 c03b 89b9 087e e337 51db 81b9
000001f0: 10bc 0838 11dc 82b9 10ef 8839 7b49 7bb7

bn2.running_mean f4 [128]
0.0001729565 -0.009491543 0.0036915473 -0.009609144 -0.009536335 -0.0104288515 0.0037814623 -0.009309977
-0.010648923 -0.009279096 0.004414299 -0.0011179822 -0.009647237 -0.010357598 -0.00894157 -0.009622274
-0.009309138 -0.010358568 0.008958367 -0.010353445 -0.0096323555 -0.010681286 -0.010687924 0.0035220468
-0.009323721 -0.009299541 0.0066637066 0.0067309705 -0.009266857 0.00047045207 0.00025535314 -0.0009916238
-0.009594848 -0.010360011 0.0036613597 0.006105924 0.00064660865 0.006030743 0.0042816633 0.0009204891
-0.009626312 -0.009003435 -0.009339824 -0.009603172 -0.01039867 -0.009201475 -0.010342985 8.714629e-05
-0.010717628 -0.009592746 -0.009271484 -0.009308044 0.0004062643 0.0058895294 -0.010359128 -0.009625536
0.0063631637 -0.010700632 -0.009337765 -0.009637872 -0.000231758 -0.008329214 -0.009345504 0.0037896854
-0.010695522 0.00034877216 -0.010700936 0.0063624755 0.004086603 -0.009443394 -0.01035782 0.0042224
0.00026417174 0.0038641505 -0.0031449676 0.00621242 0.0024998006 -0.009299788 0.0067988094 -0.009574371
0.00046956522 -0.010704356 -0.010399088 0.005772248 -0.010355177 0.0037217443 -0.009298878 -0.009150379
-0.010699361 -0.0103773065 -0.009344045 -0.010686367 -0.009267575 -0.01041151 -0.010353307 -0.00964233
0.0034605267 -0.01038069 0.0061537167 0.0066579254 -0.009080898 -0.010694742 -0.009276154 -0.010674207
0.006501093 -0.009609102 0.0034785727 -0.009643244 -0.01071906 0.006457393 -0.009324325 -0.0103856
-0.010398323 -0.009279251 -0.01037073 -0.00962992 -0.009316532 -0.008191378 -0.009259346 -0.0107062645
0.0036237524 -0.010714997 -0.009579476 -0.010686893 -0.008747628 0.006326258 -0.009294684 0.0043625194
00000000: a85b 3539 6b82 1bbc e3ed 713b ac6f 1dbc
00000010: 4a3e 1cbc c6dd 2abc 69d2 773b e088 18bc
00000020: d278 2ebc 5907 18bc d3a5 903b 4289 92ba
00000030: 720f 1ebc eab2 29bc aa7f 12bc bea6 1dbc
00000040: 5b85 18bc fcb6 29bc 1dc6 123c 7fa1 29bc
00000050: 07d1 1dbc 9000 2fbc 671c 2fbc 24d2 663b
00000060: 85c2 18bc 1a5d 18bc 395b da3b 798f dc3b
00000070: 04d4 17bc 02a7 f639 ebe0 8539 60f9 81ba
00000080: b633 1dbc 09bd 29bc 6cf3 6f3b 3414 c83b
00000090: 2c81 293a 8a9d c53b 324d 8c3b fa4c 713a
000000a0: aeb7 1dbc 2583 13bc 1006 19bc 9f56 1dbc
000000b0: 2f5f 2abc c9c1 16bc a075 29bc 4fc2 b638
000000c0: fd98 2fbc e52a 1dbc 6ce7 17bc c480 18bc
000000d0: dfff d439 f4fc c03b 55b9 29bc 6db4 1dbc
000000e0: 1682 d03b b451 2fbc 6dfd 18bc 2ae8 1dbc
000000f0: 1004 73b9 4177 08bc e31d 19bc 5f5c 783b
00000100: 453c 2fbc 68db b639 fb52 2fbc 507c d03b
00000110: e9e8 853b 77b8 1abc d9b3 29bc 0f5c 8a3b
00000120: 8880 8a39 b03d 7d3b cd1b 4ebb 8e91 cb3b
00000130: b2d3 233b 235e 18bc 8cc8 de3b d3dd 1cbc
00000140: fa2f f639 5361 2fbc f060 2abc 2025 bd3b
00000150: c3a8 29bc 82e8 733b 525a 18bc 79eb 15bc
00000160: 5f4c 2fbc 9405 2abc c417 19bc df15 2fbc
00000170: 07d7 17bc 0a95 2abc eba0 29bc ddfa 1dbc
00000180: 01ca 623b c513 2abc 1ea5 c93b ba2a da3b
00000190: 0cc8 14bc 0039 2fbc 03fb 17bc dee2 2ebc
000001a0: 1f07 d53b 7f6f 1dbc c4f8 633b b2fe 1dbc
000001b0: ff9e 2fbc 8a98 d33b 0ec5 18bc 5d28 2abc
000001c0: ba5d 2abc 0008 18bc ffe9 29bc d0c6 1dbc
000001d0: 5ea4 18bc 2135 06bc 83b4 17bc 5469 2fbc
000001e0: 7a7c 6d3b f48d 2fbc 3cf3 1cbc 1418 2fbc
000001f0: 3652 0fbc 804c cf3b bb48 18bc 77f3 8e3b

bn2.running_var f4 [128]
8.0217105e-06 4.5640718e-05 4.595782e-05 4.5631612e-05 4.6051955e-05 4.562692e-05 4.573713e-05 8.064295e-06
7.882708e-06 7.816814e-06 4.5629036e-05 7.995359e-06 4.5881217e-05 4.5947832e-05 4.575047e-05 4.612233e-05
8.160983e-06 4.5659923e-05 1.1934335e-06 4.598007e-05 4.5863133e-05 7.991289e-06 8.067784e-06 4.621639e-05
7.910252e-06 8.033961e-06 7.946699e-06 7.950399e-06 8.006236e-06 8.075629e-06 4.6184185e-05 7.9795855e-06
4.5723795e-05 4.6025267e-05 4.6128953e-05 7.924948e-06 8.023824e-06 8.0182745e-06 4.5979006e-05 7.941163e-06
4.5847828e-05 4.600275e-05 8.021507e-06 4.603757e-05 4.6214183e-05 4.5802015e-05 4.583516e-05 7.861517e-06
8.003119e-06 4.5494668e-05 4.5963603e-05 8.103864e-06 8.047956e-06 7.9028805e-06 4.588483e-05 4.5938094e-05
7.84003e-06 7.89452e-06 7.948332e-06 4.614987e-05 8.108866e-06 4.5934907e-05 7.9259935e-06 4.5901368e-05
8.079986e-06 8.049044e-06 7.993585e-06 7.949506e-06 4.6056106e-05 4.596438e-05 4.55855e-05 4.584909e-05
8.123507e-06 4.564396e-05 4.5711335e-05 7.9462925e-06 4.5550078e-05 7.889797e-06 7.975184e-06 4.583036e-05
7.939886e-06 8.118265e-06 4.607909e-05 7.831398e-06 4.5662542e-05 4.5936125e-05 8.21271e-06 4.5560664e-05
8.12254e-06 4.5779914e-05 8.064908e-06 8.066265e-06 7.997821e-06 4.544014e-05 4.578918e-05 4.6056e-05
4.584567e-05 4.5875888e-05 8.0437485e-06 8.01573e-06 4.619047e-05 7.966154e-06 7.861662e-06 8.114445e-06
8.07121e-06 4.6083493e-05 4.5858334e-05 4.6079233e-05 7.943013e-06 7.8049425e-06 7.971383e-06 4.6217207e-05
4.5752233e-05 7.9867405e-06 4.5660803e-05 4.579795e-05 8.183262e-06 4.5689816e-05 7.862161e-06 7.90278e-06
4.5756122e-05 7.936702e-06 4.6075627e-05 7.992412e-06 4.5973542e-05 8.0259515e-06 8.0062855e-06 4.618346e-05
00000000: fc94 0637 596e 3f38 d5c2 4038 9264 3f38
00000010: e927 4138 885f 3f38 dfd5 3f38 e24b 0737
00000020: f93f 0437 f624 0337 ce61 3f38 ce23 0637
00000030: 9570 4038 1cb8 4038 31e4 3f38 7a73 4138
00000040: 28eb 0837 f882 3f38 102e a035 b9da 4038
00000050: 2a5d 4038 5312 0637 de5a 0737 79d8 4138
00000060: 46b6 0437 9ac9 0637 d052 0537 b462 0537
00000070: 8652 0637 907c 0737 e4b5 4138 0fe0 0537
00000080: 8dc7 3f38 410b 4138 967a 4138 64f5 0437
00000090: 109e 0637 3a86 0637 95d9 4038 093b 0537
000000a0: bb4c 4038 14f3 4038 1c94 0637 7718 4138
000000b0: 1ad6 4138 8a1b 4038 213f 4038 f5e4 0337
000000c0: 2245 0637 87d1 3e38 0bc9 4038 d5f5 0737
000000d0: b505 0737 9d96 0437 7674 4038 a7ad 4038
000000e0: ac88 0337 b572 0437 d359 0537 0c91 4138
000000f0: 500b 0837 3baa 4038 e2f9 0437 3886 4038
00000100: 478f 0737 610a 0737 301c 0637 de5e 0537
00000110: 5e2c 4138 e1c9 4038 0f33 3f38 164e 4038
00000120: 324a 0837 d471 3f38 2cba 3f38 1151 0537
00000130: 060d 3f38 6c5e 0437 28cd 0537 f939 4038
00000140: 8d35 0537 af33 0837 0c45 4138 9963 0337
00000150: c885 3f38 8aab 4038 52c9 0937 6418 3f38
00000160: 0b46 0837 cf03 4038 844e 0737 5854 0737
00000170: 612e 0637 fb96 3e38 c20d 4038 412c 4138
00000180: 6a4a 4038 dc6a 4038 a3f3 0637 4c7b 0637
00000190: a4bc 4138 5fa6 0537 95e5 0337 4723 0837
000001a0: 9569 0737 c649 4138 0358 4038 3345 4138
000001b0: fb42 0537 f9f1 0237 d4bc 0537 59d9 4138
000001c0: 16e6 3f38 cafe 0537 ea83 3f38 2d17 4038
000001d0: d84a 0937 11a3 3f38 b9e7 0337 2f96 0437
000001e0: 43ea 3f38 e027 0537 5441 4138 2617 0637
000001f0: b7d3 4038 33a7 0637 bc52 0637 1db5 4138

fc3.weight f4 [1, 128]
0.01 -0.01 -0.01 -0.01 -0.01 -0.01 -0.01 0.01
0.01 0.01 -0.01 0.01 -0.01 -0.01 -0.01 -0.01
0.01 -0.01 -0.008709146 -0.01 -0.01 0.01 0.01 -0.01
0.01 0.01 0.01 0.01 0.01 0.01 -0.01 0.01
-0.01 -0.01 -0.01 0.01 0.01 0.01 -0.01 0.01
-0.01 -0.01 0.01 -0.01 -0.01 -0.01 -0.01 0.01
0.01 -0.01 -0.01 0.01 0.01 0.01 -0.01 -0.01
0.01 0.01 0.01 -0.01 0.01 -0.01 0.01 -0.01
0.01 0.01 0.01 0.01 -0.01 -0.01 -0.01 -0.01
0.01 -0.01 -0.01 0.01 -0.01 0.01 0.01 -0.01
0.01 0.01 -0.01 0.01 -0.01 -0.01 0.01 -0.01
0.01 -0.01 0.01 0.01 0.01 -0.01 -0.01 -0.01
-0.01 -0.01 0.01 0.01 -0.01 0.01 0.01 0.01
0.01 -0.01 -0.01 -0.01 0.01 0.01 0.01 -0.01
-0.01 0.01 -0.01 -0.01 0.01 -0.01 0.01 0.01
-0.01 0.01 -0.01 0.01 -0.01 0.01 0.01 -0.01
00000000: 0ad7 233c 0ad7 23bc 0ad7 23bc 0ad7 23bc
00000010: 0ad7 23bc 0ad7 23bc 0ad7 23bc 0ad7 233c
00000020: 0ad7 233c 0ad7 233c 0ad7 23bc 0ad7 233c
00000030: 0ad7 23bc 0ad7 23bc 0ad7 23bc 0ad7 23bc
00000040: 0ad7 233c 0ad7 23bc ceb0 0ebc 0ad7 23bc
00000050: 0ad7 23bc 0ad7 233c 0ad7 233c 0ad7 23bc
00000060: 0ad7 233c 0ad7 233c 0ad7 233c 0ad7 233c
00000070: 0ad7 233c 0ad7 233c 0ad7 23bc 0ad7 233c
00000080: 0ad7 23bc 0ad7 23bc 0ad7 23bc 0ad7 233c
00000090: 0ad7 233c 0ad7 233c 0ad7 23bc 0ad7 233c
000000a0: 0ad7 23bc 0ad7 23bc 0ad7 233c 0ad7 23bc
000000b0: 0ad7 23bc 0ad7 23bc 0ad7 23bc 0ad7 233c
000000c0: 0ad7 233c 0ad7 23bc 0ad7 23bc 0ad7 233c
000000d0: 0ad7 233c 0ad7 233c 0ad7 23bc 0ad7 23bc
000000e0: 0ad7 233c 0ad7 233c 0ad7 233c 0ad7 23bc
000000f0: 0ad7 233c 0ad7 23bc 0ad7 233c 0ad7 23bc
00000100: 0ad7 233c 0ad7 233c 0ad7 233c 0ad7 233c
00000110: 0ad7 23bc 0ad7 23bc 0ad7 23bc 0ad7 23bc
00000120: 0ad7 233c 0ad7 23bc 0ad7 23bc 0ad7 233c
00000130: 0ad7 23bc 0ad7 233c 0ad7 233c 0ad7 23bc
00000140: 0ad7 233c 0ad7 233c 0ad7 23bc 0ad7 233c
00000150: 0ad7 23bc 0ad7 23bc 0ad7 233c 0ad7 23bc
00000160: 0ad7 233c 0ad7 23bc 0ad7 233c 0ad7 233c
00000170: 0ad7 233c 0ad7 23bc 0ad7 23bc 0ad7 23bc
00000180: 0ad7 23bc 0ad7 23bc 0ad7 233c 0ad7 233c
00000190: 0ad7 23bc 0ad7 233c 0ad7 233c 0ad7 233c
000001a0: 0ad7 233c 0ad7 23bc 0ad7 23bc 0ad7 23bc
000001b0: 0ad7 233c 0ad7 233c 0ad7 233c 0ad7 23bc
000001c0: 0ad7 23bc 0ad7 233c 0ad7 23bc 0ad7 23bc
000001d0: 0ad7 233c 0ad7 23bc 0ad7 233c 0ad7 233c
000001e0: 0ad7 23bc 0ad7 233c 0ad7 23bc 0ad7 233c
000001f0: 0ad7 23bc 0ad7 233c 0ad7 233c 0ad7 23bc
