10_Models/Results_Chicago/WGANBR_Congestion_discriminator_br_best.pth (torch, 78118 bytes, 13 tensors)

fc1.weight f4 [128, 2]
-0.0059736297 -0.005864722 -0.009785072 0.00939886 0.005190292 -0.01 -0.004666799 -0.0021557866
-0.0061623678 -0.004381829 -0.008462903 -0.007322887 0.0073550837 0.009798835 -0.005209724 -0.008685347
0.0050317426 0.01 0.0048155133 0.004736371 0.0034691994 0.0033839948 -0.0087700775 -0.008719667
0.01 -0.01 0.0010198198 0.00319528 -0.009222677 -0.004403362 0.00925706 0.01
0.007823974 -0.01 0.008356737 -0.01 0.009489594 0.009914934 0.009864836 -0.01
0.0006994385 0.006761038 0.0037436269 -0.008224343 -0.0066808257 -0.009250112 -0.008733609 0.008207344
-0.005471776 0.0011546814 -0.0090660425 0.000740517 -0.00848091 0.008236217 0.00037581864 -0.009284063
-0.0063541667 0.004878565 -0.009516395 -0.01 -0.0063538626 0.0023653833 -0.008241943 0.006422867
-0.008321685 -0.009869297 0.006992712 -0.01 -0.007449448 0.0053318255 0.008564498 -0.01
-0.00054882886 -0.008087505 -0.009667968 -0.0041278964 0.01 0.008278543 -0.008996935 -0.00980703
0.00739451 0.01 -0.009593713 -0.0055866437 -0.00960282 -0.01 0.000585305 -0.007140301
-0.0042393836 -0.009218766 0.008545913 -0.01 -0.008706099 -0.0061844834 0.009506947 0.01
-0.005706931 -0.0007565506 -0.008453462 0.007260769 -0.00999998 0.009766616 0.008495998 -0.01
-0.008551038 -0.01 0.00801465 -0.01 -0.0021429667 -0.0044794134 0.0022161086 0.01
0.01 0.009832844 0.008693004 -0.01 -0.01 -0.00994534 0.0076070763 0.01
-0.0039793276 -0.0042809616 -0.005878965 -0.000995915 0.0008006693 0.008161114 0.009384355 -0.01
0.0028802564 0.0036128648 0.01 -0.01 -0.00970461 -0.01 -0.008037895 -0.01
0.009246729 0.008944911 0.0025202488 -0.009004964 -0.0025530595 -0.01 -0.0058752676 0.0026245331
0.00872486 -0.01 -0.00060660794 0.0031712744 -0.0046064416 -0.008355884 0.00416696 0.0094816685
-0.009410475 0.00803726 -0.0023532696 -0.0063056545 -0.00928458 -0.0051835533 0.005223467 -0.0099583315
-0.002799169 -0.001955854 9.9044344e-05 0.0014601683 -0.0036992002 0.0046960553 0.0016817962 0.007474923
-0.007885014 -0.009838692 0.008858927 0.01 -0.0097691 -0.009402392 0.0038285628 -0.008017153
0.01 -0.01 -0.008318654 -0.009378225 0.009399875 0.009384937 0.008335505 -0.009927592
0.0089461645 -0.01 0.005899694 -0.009829849 -0.0073162816 0.005732585 0.009486483 0.009220225
-0.009184025 -0.0057019996 0.003917104 0.00567236 -0.0042709764 -0.0049173576 0.009622141 -0.01
0.009149479 -0.01 -0.009654687 0.0096432 -0.006676173 -0.008943499 -0.009367637 -0.01
0.009682553 0.01 -0.008116596 0.0074462676 -0.006159541 -0.009216187 0.0062251748 0.01
-0.006835449 -0.009006944 0.008085314 0.01 -0.007885867 0.007090772 -0.0037966853 -0.009555061
0.0080015855 0.008767093 0.003901377 0.0077903303 -0.00322534 -0.009104933 0.0095893815 -0.01
0.009854355 -0.01 0.006319104 -0.01 0.005026812 0.0070844106 -0.0028902225 -0.0049339104
-0.008749279 -0.009821502 0.006753044 0.0054359115 -0.009703369 -0.009987921 0.005836092 0.009998144
0.008045849 0.009518257 -0.0057887873 -0.009907178 0.008503992 0.01 -0.0061401357 -0.00747695
00000000: 70be c3bb db2c c0bb 9151 20bc adfd 193c
00000010: 5313 aa3b 0ad7 23bc f3eb 98bb 1948 0dbb
00000020: b0ed c9bb 7295 8fbb fda7 0abc d4f4 efbb
00000030: ea02 f13b 4b8b 203c 55b6 aabb fc4c 0ebc
00000040: 51e1 a43b 0ad7 233c 74cb 9d3b 8f33 9b3b
00000050: 825b 633b 03c6 5d3b 5fb0 0fbc efdc 0ebc
00000060: 0ad7 233c 0ad7 23bc 79ab 853a e767 513b
00000070: b61a 17bc 144a 90bb ecaa 173c 0ad7 233c
00000080: 2030 003c 0ad7 23bc b2ea 083c 0ad7 23bc
00000090: 3e7a 1b3c 3f72 223c 1fa0 213c 0ad7 23bc
000000a0: 865a 373a b38b dd3b a357 753b 65bf 06bc
000000b0: d4ea dabb c88d 17bc 6917 0fbc 1978 063c
000000c0: 954c b3bb ae58 973a bd89 14bc 411f 423a
000000d0: 84f3 0abc 33f1 063c 8609 c539 2f1c 18bc
000000e0: 9d36 d0bb 5fdc 9f3b a7ea 1bbc 0ad7 23bc
000000f0: 1034 d0bb 8c04 1b3b 3709 07bc ea76 d23b
00000100: ad57 08bc d5b2 21bc 1f23 e53b 0ad7 23bc
00000110: 801a f4bb 98b6 ae3b 1c52 0c3c 0ad7 23bc
00000120: 48df 0fba 7481 04bc 6666 1ebc 4e43 87bb
00000130: 0ad7 233c baa2 073c e167 13bc aaad 20bc
00000140: a54d f23b 0ad7 233c f32e 1dbc 2a10 b7bb
00000150: 2555 1dbc 0ad7 23bc 276f 193a 30f9 e9bb
00000160: 87ea 8abb 4f0a 17bc 2804 0c3c 0ad7 23bc
00000170: 07a4 0ebc 35a7 cabb 07c3 1b3c 0ad7 233c
00000180: 3501 bbbb 4053 46ba 6480 0abc bfeb ed3b
00000190: f5d6 23bc 2804 203c cc32 0b3c 0ad7 23bc
000001a0: a719 0cbc 0ad7 23bc e14f 033c 0ad7 23bc
000001b0: 0471 0cbb 0bc8 92bb 223c 113b 0ad7 233c
000001c0: 0ad7 233c f019 213c 1a6d 0e3c 0ad7 23bc
000001d0: 0ad7 23bc c8f1 22bc c844 f93b 0ad7 233c
000001e0: 0565 82bb 4f47 8cbb 55a4 c0bb 5d89 82ba
000001f0: 02e4 513a 31b6 053c d6c0 193c 0ad7 23bc
00000200: afc2 3c3b d0c5 6c3b 0ad7 233c 0ad7 23bc
00000210: 1600 1fbc 0ad7 23bc 60b1 03bc 0ad7 23bc
00000220: 987f 173c ad8d 123c c22a 253b 8e89 13bc
00000230: 3b51 27bb 0ad7 23bc 5185 c0bb 5c00 2c3b
00000240: b7f2 0e3c 0ad7 23bc c504 1fba 28d5 4f3b
00000250: a2f1 96bb 1ee7 08bc fe8a 883b 0059 1b3c
00000260: 652e 1abc b6ae 033c 5039 1abb aa9f cebb
00000270: 5a1e 18bc ccda a9bb 9e29 ab3b 4528 23bc
00000280: 4372 37bb c92d 00bb 07b6 cf38 1e63 bf3a
00000290: 486e 72bb 5ee1 993b b76f dc3a 33f0 f43b
000002a0: 2530 01bc 7732 21bc 0825 113c 0ad7 233c
000002b0: 930e 20bc 7e0c 1abc a0e8 7a3b 605a 03bc
000002c0: 0ad7 233c 0ad7 23bc f74a 08bc 20a7 19bc
000002d0: ef01 1a3c 47c3 193c a491 083c 57a7 22bc
000002e0: ef92 123c 0ad7 23bc 3852 c13b 600d 21bc
000002f0: 6bbd efbb 69d8 bb3b 326d 1b3c 6d10 173c
00000300: 9878 16bc d7d7 babb 0d5b 803b 34df b93b
00000310: 8cf3 8bbb c921 a1bb 2fa6 1d3c 0ad7 23bc
00000320: b2e7 153c 0ad7 23bc b12e 1ebc 83fe 1d3c
00000330: ccc3 dabb c187 12bc b87a 19bc 0ad7 23bc
00000340: 92a3 1e3c 0ad7 233c 79fb 04bc d2ff f33b
00000350: fad5 c9bb 7dff 16bc 8dfc cb3b 0ad7 233c
00000360: e7fb dfbb dc91 13bc 4478 043c 0ad7 233c
00000370: b933 01bc b559 e83b cfd1 78bb d58c 1cbc
00000380: 1519 033c daa3 0f3c 3fae 7f3b 0746 ff3b
00000390: 3a60 53bb db2c 15bc c81c 1d3c 0ad7 23bc
000003a0: 2974 213c 0ad7 23bc 7d10 cf3b 0ad7 23bc
000003b0: f5b7 a43b 5824 e83b e369 3dbb a4ac a1bb
000003c0: 2359 0fbc 5dea 20bc a448 dd3b bb1f b23b
000003d0: e1fa 1ebc 61a4 23bc b03c bf3b 41cf 233c
000003e0: bdd2 033c 77f2 1b3c deaf bdbb b751 22bc
000003f0: 5454 0b3c 0ad7 233c 3133 c9bb 3401 f5bb

fc1.bias f4 [128]
-0.006251322 -0.009715617 0.005429596 0.009239613 -0.009998746 -0.008527115 -0.004144577 0.008891779
-0.009447512 0.0099757295 -0.00705096 0.00589479 -6.25557e-05 0.0073073627 0.0060521606 0.009880767
-0.0047186594 0.009672663 -0.0045002205 0.009489331 0.0049377163 -0.0033322466 0.009273057 -0.00851234
-0.0057953084 -0.009309662 0.0069521186 0.009710184 0.01 -0.007972472 -0.0060743205 -0.009352112
-0.007893756 0.00745046 0.008651335 -0.007854233 0.009772551 0.006162017 -0.005614456 0.007088699
0.0072836666 0.006655442 -0.008547383 0.008214158 -0.0049723205 0.008772495 -0.008791235 0.009060447
-0.005821914 0.0069841505 0.006235802 0.00848875 0.009419515 -0.007862328 0.0074039157 -0.009574646
0.0095057385 -0.005573162 0.008579371 -0.0062263296 -0.008721691 -0.006501507 -0.009999185 0.008910371
0.008978864 -0.0034134735 0.007287767 0.009095413 0.009110632 0.009807274 -0.0018415811 -0.005996669
0.008749759 0.006751559 -0.0042017926 0.0035828056 -0.009045453 0.008215741 0.00339823 0.0066318316
-0.003286244 0.00850136 -0.008838934 0.006834305 0.008465008 -0.007099582 0.0065699625 -0.0023235069
0.01 0.008739454 0.008149948 0.008679709 -0.003140541 0.006128839 -0.007152804 0.01
-0.00915488 -0.0061999066 -0.008892191 -0.003625859 -0.0033518153 -0.009713121 0.0073603834 -0.008732254
-0.008009129 0.0067537646 0.005542036 -0.009382222 0.0039174375 0.009914289 -0.007957413 0.0098992605
-0.008026761 -0.007885241 0.0087464275 -0.004727684 0.009893459 -0.007682922 0.0068528405 0.006679202
0.008190861 0.0067738993 0.0063686282 0.0053868843 0.008018676 0.009760524 0.00937506 -0.009960629
00000000: e4d7 ccbb 402e 1fbc c1ea b13b bf61 173c
00000010: c8d1 23bc 50b5 0bbc 3bcf 87bb d3ae 113c
00000020: bdc9 1abc 3e71 233c bd0b e7bb 1529 c13b
00000030: 5630 83b8 9a72 ef3b 3451 c63b f1e2 213c
00000040: fc9e 9abb 177a 1e3c 9676 93bb 2479 1b3c
00000050: 91cc a13b d261 5abb 05ee 173c 5777 0bbc
00000060: 92e6 bdbb 8d87 18bc 99ce e33b 7717 1f3c
00000070: 0ad7 233c f99e 02bc 180b c7bb 9a39 19bc
00000080: d054 01bc fd22 f43b 54be 0d3c 0aaf 00bc
00000090: 0d1d 203c bfea c93b 78f9 b7bb 5148 e83b
000000a0: d3ab ee3b e515 da3b 530a 0cbc ad94 063c
000000b0: d9ee a2bb 83ba 0f3c 1d09 10bc 4572 143c
000000c0: c1c5 bebb 4ddb e43b b355 cc3b 6614 0b3c
000000d0: 4f54 1a3c fed0 00bc 8c9c f23b fade 1cbc
000000e0: f5bd 1b3c 129f b6bb 7d90 0c3c 3d06 ccbb
000000f0: 6ce5 0ebc 980a d5bb 9fd3 23bc cefc 113c
00000100: 161c 133c 95b4 5fbb 38ce ee3b ed04 153c
00000110: c344 153c b0ae 203c 3561 f1ba b57f c4bb
00000120: 265b 0f3c 2f3c dd3b 31af 89bb 81cd 6a3b
00000130: 6133 14bc 519b 063c d7b4 5e3b d64f d93b
00000140: 075e 57bb 4a49 0b3c 2dd1 10bc 4ef2 df3b
00000150: d1b0 0a3c 9ca3 e8bb d748 d73b fa45 18bb
00000160: 0ad7 233c ed2f 0f3c 5c87 053c 5735 0e3c
00000170: 89d1 4dbb 6ed4 c83b 1262 eabb 0ad7 233c
00000180: 5afe 15bc 9628 cbbb 8db0 11bc d29f 6dbb
00000190: 21aa 5bbb c823 1fbc 5f2f f13b ba11 0fbc
000001a0: b938 03bc af4e dd3b f899 b53b e4b7 19bc
000001b0: d95d 803b 8b6f 223c cf5f 02bc 8230 223c
000001c0: ad82 03bc 1931 01bc 2d4d 0f3c b0ea 9abb
000001d0: 2d18 223c 05c1 fbbb cb8d e03b 35dd da3b
000001e0: f632 063c 96f7 dd3b edaf d03b 7684 b03b
000001f0: c460 033c 9bea 1f3c da99 193c e831 23bc

bn1.weight f4 [128]
0.01 0.009961788 0.01 0.01 -0.01 0.01 0.007888059 0.01
0.00540186 -0.01 0.00986256 0.01 0.01 0.009989704 0.01 0.007974027
0.01 0.01 0.009914869 0.01 0.0099115195 0.0027292788 0.01 0.009962513
0.009981722 0.009994231 0.009961668 0.0026854505 0.009965671 0.01 0.009974569 0.009965433
0.01 0.01 0.009965917 0.01 0.0027481848 0.01 0.01 0.01
0.007823109 0.01 0.01 0.0026940065 0.01 0.01 0.01 0.008864021
0.01 0.0099644605 0.00996081 0.01 0.01 0.01 0.0027195958 0.0033000254
0.01 0.01 0.01 0.0063965092 0.0027713827 0.01 0.00876884 0.01
0.009955629 0.01 0.01 0.01 0.01 0.002685461 0.01 0.009969365
0.01 0.009997186 0.0027393482 0.01 0.0099632 0.0027453215 0.01 0.01
0.01 0.01 0.009965838 0.009509985 0.01 0.0072690556 0.01 0.01
0.01 0.01 0.01 0.01 0.01 0.01 0.009965433 0.01
0.01 0.002953503 0.0027712453 0.01 0.01 0.009961141 0.01 0.01
0.009218689 0.00996283 0.01 0.0052706674 -0.0066147405 0.0046064896 0.0099640945 0.0027516168
0.004833884 0.01 0.01 0.01 0.01 0.01 0.0088004945 0.0027378649
0.01 0.01 0.01 0.005024446 0.006399664 0.01 0.0072219805 0.01
00000000: 0ad7 233c c436 233c 0ad7 233c 0ad7 233c
00000010: 0ad7 23bc 0ad7 233c eb3c 013c 0ad7 233c
00000020: 1602 b13b 0ad7 23bc 9396 213c 0ad7 233c
00000030: 0ad7 233c dbab 233c 0ad7 233c 7ea5 023c
00000040: 0ad7 233c 0ad7 233c fa71 223c 0ad7 233c
00000050: ed63 223c b3dd 323b 0ad7 233c cf39 233c
00000060: 608a 233c d8be 233c 4436 233c 62fe 2f3b
00000070: 0e47 233c 0ad7 233c 606c 233c 0e46 233c
00000080: 0ad7 233c 0ad7 233c 1648 233c 0ad7 233c
00000090: e41a 343b 0ad7 233c 0ad7 233c 0ad7 233c
000000a0: 7f2c 003c 0ad7 233c 0ad7 233c ee8d 303b
000000b0: 0ad7 233c 0ad7 233c 0ad7 233c 663a 113c
000000c0: 0ad7 233c fa41 233c aa32 233c 0ad7 233c
000000d0: 0ad7 233c 0ad7 233c 3f3b 323b 3d45 583b
000000e0: 0ad7 233c 0ad7 233c 0ad7 233c cf99 d13b
000000f0: 16a0 353b 0ad7 233c 2eab 0f3c 0ad7 233c
00000100: ef1c 233c 0ad7 233c 0ad7 233c 0ad7 233c
00000110: 0ad7 233c 8ffe 2f3b 0ad7 233c 8c56 233c
00000120: 0ad7 233c 3dcb 233c a386 333b 0ad7 233c
00000130: b13c 233c daea 333b 0ad7 233c 0ad7 233c
00000140: 0ad7 233c 0ad7 233c c147 233c c5cf 1b3c
00000150: 0ad7 233c 4231 ee3b 0ad7 233c 0ad7 233c
00000160: 0ad7 233c 0ad7 233c 0ad7 233c 0ad7 233c
00000170: 0ad7 233c 0ad7 233c 0e46 233c 0ad7 233c
00000180: 0ad7 233c 8f8f 413b c89d 353b 0ad7 233c
00000190: 0ad7 233c 0e34 233c 0ad7 233c 0ad7 233c
000001a0: fc09 173c 233b 233c 0ad7 233c 90b5 ac3b
000001b0: 77c0 d8bb 09f2 963b 7140 233c 7854 343b
000001c0: 8f65 9e3b 0ad7 233c 0ad7 233c 0ad7 233c
000001d0: 0ad7 233c 0ad7 233c f32f 103c c06d 333b
000001e0: 0ad7 233c 0ad7 233c 0ad7 233c 1ca4 a43b
000001f0: 46b4 d13b 0ad7 233c 5da6 ec3b 0ad7 233c

bn1.bias f4 [128]
0.01 0.009994352 0.0067576203 0.01 0.01 0.01 0.008225457 0.0037133908
0.0056158374 0.01 0.009855656 0.01 0.0044377786 0.01 0.01 0.008338343
0.00632002 0.006802863 0.009811434 0.0066651157 0.00999757 0.009974647 0.0037612852 0.009994374
0.009999688 0.009999811 0.009994326 0.009980705 0.00999335 0.007991039 0.009997965 0.009993712
0.004673388 0.006791936 0.009993384 0.0068018916 0.009988841 0.01 0.01 0.0037657043
0.008173595 0.01 0.0084827505 0.009986456 0.0037106378 0.004705114 0.01 0.009159332
0.01 0.009993696 0.009994321 0.004838487 0.0037640347 0.004255243 0.009986742 0.0025282877
0.01 0.0065517034 0.0094964085 0.0066711446 0.01 0.01 0.01 0.0068101655
0.01 0.0042766496 0.0070005106 0.004885245 0.01 0.01 0.003745492 0.009997913
0.006801068 0.009999447 0.009961207 -0.0040748813 0.009994396 0.00998634 0.01 0.004226088
0.01 0.009999994 0.0099963145 0.009997999 0.003759074 0.0075974236 0.01 0.0065231235
0.0043293564 0.003791462 0.01 0.0067938208 0.0042759767 0.0065977336 0.009993386 0.01
0.01 0.009180474 0.01 0.0042914976 0.004813568 0.009994317 0.0037138162 0.008560178
0.009305058 0.009993636 0.003991208 0.005460781 0.00682384 0.0045884526 0.009993685 0.0099567035
0.004952517 -0.0039087227 0.0037249536 0.004313431 0.0046321307 0.006379619 0.0088903215 0.009986764
0.0037653416 -0.0023986695 0.008281305 0.005215664 0.006610249 0.0037720723 0.0075525 0.0038804729
00000000: 0ad7 233c 5abf 233c 076f dd3b 0ad7 233c
00000010: 0ad7 233c 0ad7 233c 11c4 063c 5c5c 733b
00000020: 0f05 b83b 0ad7 233c 9e79 213c 0ad7 233c
00000030: c96a 913b 0ad7 233c 0ad7 233c 8c9d 083c
00000040: 2c18 cf3b 8dea de3b 23c0 203c 0b67 da3b
00000050: d9cc 233c b46c 233c e57f 763b 71bf 233c
00000060: bbd5 233c 3fd6 233c 3ebf 233c 1c86 233c
00000070: 26bb 233c d9ec 023c 81ce 233c abbc 233c
00000080: 3823 993b e38e de3b 4abb 233c 67e2 de3b
00000090: 3ca8 233c 0ad7 233c 0ad7 233c 09ca 763b
000000a0: 8bea 053c 0ad7 233c 3cfb 0a3c 3b9e 233c
000000b0: 2c2e 733b 5b2d 9a3b 0ad7 233c 0611 163c
000000c0: 0ad7 233c 99bc 233c 38bf 233c 2c8c 9e3b
000000d0: 06ae 763b 916f 8b3b 6f9f 233c a1b1 253b
000000e0: 0ad7 233c acaf d63b d396 1b3c 9e99 da3b
000000f0: 0ad7 233c 0ad7 233c 0ad7 233c cf27 df3b
00000100: 0ad7 233c 2323 8c3b 8a64 e53b 6814 a03b
00000110: 0ad7 233c 0ad7 233c ee76 753b 49ce 233c
00000120: 7edb de3b b8d4 233c 5534 233c 9586 85bb
00000130: 89bf 233c bf9d 233c 0ad7 233c ff7a 8a3b
00000140: 0ad7 233c 04d7 233c 95c7 233c a6ce 233c
00000150: cc5a 763b cff3 f83b 0ad7 233c edbf d53b
00000160: 46dd 8d3b 2d7a 783b 0ad7 233c b39e de3b
00000170: 7e1d 8c3b cd31 d83b 4dbb 233c 0ad7 233c
00000180: 0ad7 233c b369 163c 0ad7 233c b19f 8c3b
00000190: 23bb 9d3b 34bf 233c 7f63 733b fd3f 0c3c
000001a0: 3e74 183c 59bc 233c aec8 823b 5af0 b23b
000001b0: 859a df3b bb5a 963b 8ebc 233c 7121 233c
000001c0: b948 a23b be14 80bb 5a1e 743b af57 8d3b
000001d0: 21c9 973b 1f0c d13b b6a8 113c 869f 233c
000001e0: f3c3 763b ff32 1dbb 50ae 073c 29e8 aa3b
000001f0: ca9a d83b df34 773b f67a f73b 884f 7e3b

bn1.running_mean f4 [128]
-85.428535 -10316.362 8160.5967 -1365.0385 -1001.22705 -631.8499 -1308.3445 1864.5206
-2669.0967 87.50542 -1.3562965 -64.31518 10744.624 -1205.2998 -2594.6416 -398.78854
9573.733 9861.32 -219.27267 10672.012 -3261.3535 6450.738 1378.8997 -9111.6
-3594.3335 -5305.971 -8989.887 5191.273 -6050.6675 255.87112 -4719.993 -7893.5483
826.88885 9127.724 -6883.7764 9973.371 4054.952 -2999.9116 954.64154 422.30423
-1399.711 -2163.0234 212.04672 4157.465 2674.095 9961.864 -1356.3033 -263.13464
-2666.812 -8455.933 -10627.471 9936.617 761.5396 9678.007 1267.5038 -4181.438
89.793236 10042.433 -58.800938 -1279.898 192.12994 -2634.1824 -3961.642 10413.877
-442.49768 10744.623 157.58807 1054.0376 208.12518 6196.0225 4000.6975 -4595.996
10057.955 -2058.451 2015.0308 -2850.7546 -9382.878 2137.5833 -2209.64 8115.165
-477.39352 -798.6146 -4563.9136 -3121.6672 1026.5691 -612.22015 -232.11932 6325.4126
10744.636 563.2211 40.825096 9791.635 10178.473 8402.758 -7025.013 150.61887
-1900.3981 -947.07684 359.59958 10541.61 10287.684 -10373.275 1197.0236 338.38745
-168.6035 -8370.348 1640.715 -2027.9437 1153.5594 -1028.5192 -8056.359 3096.732
-381.13464 -2092.4583 3156.3044 10524.023 10666.395 8762.537 -1100.9558 1101.9451
561.8246 737.6813 139.93427 -2231.276 -751.98206 2208.6782 -803.51215 712.6899
00000000: 69db aac2 7331 21c6 c604 ff45 3ba1 aac4
00000010: 884e 7ac4 65f6 1dc4 068b a3c4 a910 e944
00000020: 8cd1 26c5 c602 af42 209b adbf 5fa1 80c2
00000030: 7fe2 2746 98a9 96c4 442a 22c5 ef64 c7c3
00000040: ef96 1546 4815 1a46 ce45 5bc3 0cc0 2646
00000050: a8d5 4bc5 e795 c945 ca5c ac44 665e 0ec6
00000060: 56a5 60c5 c5cf a5c5 8c77 0cc6 2f3a a245
00000070: 5715 bdc5 02df 7f43 f27f 93c5 63ac f6c5
00000080: e3b8 4e44 e59e 0e46 361e d7c5 7cd5 1b46
00000090: 3b6f 7d45 967e 3bc5 0fa9 6e44 f126 d343
000000a0: c1f6 aec4 6030 07c5 f60b 5443 b8eb 8145
000000b0: 8521 2745 75a7 1b46 b589 a9c4 3c91 83c3
000000c0: feac 26c5 bb1f 04c6 e20d 26c6 7842 1b46
000000d0: 8962 3e44 0738 1746 1f70 9e44 81ab 82c5
000000e0: 2396 b342 bbe9 1c46 2934 6bc2 bcfc 9fc4
000000f0: 4421 4043 eba2 24c5 469a 77c5 82b7 2246
00000100: b43f ddc3 7ee2 2746 8c96 1d43 34c1 8344
00000110: 0c20 5043 2ea0 c145 290b 7a45 f89f 8fc5
00000120: d227 1d46 37a7 00c5 fce0 fb44 132c 32c5
00000130: 839b 12c6 5599 0545 3d1a 0ac5 5299 fd45
00000140: 5fb2 eec3 56a7 47c4 4f9f 8ec5 ad1a 43c5
00000150: 3652 8044 170e 19c4 8c1e 68c3 4dab c545
00000160: 8be2 2746 27ce 0c44 e64c 2342 8afe 1846
00000170: e409 1f46 084b 0346 1b88 dbc5 6e9e 1643
00000180: bd8c edc4 ebc4 6cc4 bfcc b343 71b6 2446
00000190: bcbe 2046 1a15 22c6 c1a0 9544 9831 a943
000001a0: 7f9a 28c3 64c9 02c6 e116 cd44 337e fdc4
000001b0: e731 9044 9d90 80c4 dfc2 fbc5 b68b 4145
000001c0: 3c91 bec3 55c7 02c5 df44 4545 1870 2446
000001d0: 94a9 2646 26ea 0846 969e 89c4 3ebe 8944
000001e0: c674 0c44 9a6b 3844 2cef 0b43 6a74 0bc5
000001f0: dafe 3bc4 da0a 0a45 c7e0 48c4 272c 3244

bn1.running_var f4 [128]
2476.6326 3.82932e+07 2.3967398e+07 667918.5 355658.03 142198.44 616805.56 1.2517965e+06
2.563924e+06 2649.0667 480.706 1431.7646 4.1548692e+07 517678.12 2.4210468e+06 57259.508
3.2988784e+07 3.4998716e+07 17583.127 4.098895e+07 3.8260278e+06 1.495933e+07 684541.44 2.9869704e+07
4.635415e+06 1.0109034e+07 2.9078552e+07 9.697808e+06 1.3165431e+07 23712.127 7.9981505e+06 2.24116e+07
246567.42 2.9986182e+07 1.7041188e+07 3.5798148e+07 5.9150495e+06 3.2300278e+06 324622.0 64915.055
705127.94 1.6810232e+06 16222.912 6.217045e+06 2.57389e+06 3.571735e+07 661751.8 24987.535
2.5584928e+06 2.5721616e+07 4.064071e+07 3.5534616e+07 210796.27 3.3709156e+07 576294.75 6.2927175e+06
2900.7722 3.6295588e+07 1179.1144 590616.94 12797.223 2.4941622e+06 5.6447315e+06 3.903007e+07
68316.73 4.1548708e+07 8962.033 399852.47 14872.059 1.3813289e+07 5.760361e+06 7.586453e+06
3.6409676e+07 1.5178084e+06 1.4611122e+06 2.9263238e+06 3.167565e+07 1.6406489e+06 1.7553849e+06 2.3746166e+07
80684.73 224054.69 7.4665145e+06 3.5034672e+06 382399.3 134976.19 18603.703 1.4432617e+07
4.1548708e+07 114606.37 644.2258 3.4531244e+07 3.7285516e+07 2.5464954e+07 1.7750018e+07 8031.9644
1.2927634e+06 322313.9 46002.77 3.9993476e+07 3.8089972e+07 3.8721044e+07 518991.78 41273.242
10279.307 2.5207524e+07 969119.5 1.4800948e+06 480830.75 380743.38 2.3350302e+07 3.449922e+06
53916.625 1.5749256e+06 3.5863322e+06 3.9860148e+07 4.0945784e+07 2.7638464e+07 436855.84 436478.25
114660.71 193336.83 7315.725 1.7931092e+06 207535.14 1.756751e+06 232392.81 183312.75
00000000: 1fca 1a45 b413 124c 53db b64b e810 2349
00000010: 41a9 ad48 9cdd 0a48 5996 1649 a4ce 9849
00000020: 507d 1c4a 1191 2545 5e5a f043 78f8 b244
00000030: e57e 1e4c c4c5 fc48 dbc4 134a 82ab 5f47
00000040: 38af fb4b 6f82 054c 415e 8946 465c 1c4c
00000050: af85 694a e242 644b d71f 2749 44e3 e34b
00000060: 2e76 8d4a 6a40 1a4b 0cda dd4b 10fa 134b
00000070: 77e3 484b 4140 b946 8d15 f44a a8fc aa4b
00000080: dbc9 7048 c3c6 e44b 9203 824b 218f 084c
00000090: 5383 b44a 2f25 454a c081 9e48 0e93 7d47
000000a0: 7f26 2c49 fa33 cd49 a67b 7d46 aaba bd4a
000000b0: 0819 1d4a 3a40 084c 7d8f 2149 1237 c346
000000c0: 7328 1c4a 883d c44b 3208 1b4c c68d 074c
000000d0: 11db 4d48 1997 004c 6cb2 0c49 db09 c04a
000000e0: 5b4c 3545 e974 0a4c a963 9344 8f31 1049
000000f0: e4f4 4746 493b 184a 7743 ac4a 4ee3 144c
00000100: 5d6e 8547 e97e 1e4c 2208 0c46 8f3d c348
00000110: 3c60 6846 29c6 524b d2ca af4a 2a85 e74a
00000120: 53e4 0a4c 8347 b949 c25b b249 cf9b 324a
00000130: 81aa f14b 4746 c849 c747 d649 3b2b b54b
00000140: 5d96 9d47 accd 5a48 25dc e34a add5 554a
00000150: eab7 ba48 0cd0 0348 6857 9146 6939 5c4b
00000160: e97e 1e4c 2fd7 df47 740e 2144 ebb9 034c
00000170: a33b 0e4c 3d48 c24b 016c 874b b7ff fa45
00000180: dbce 9d49 3d61 9d48 c5b2 3347 2190 184c
00000190: 3d4d 114c 85b5 134c f969 fd48 3e39 2147
000001a0: 3a9d 2046 7251 c04b f899 6c49 f6ac b449
000001b0: d8c7 ea48 ece8 b948 0f26 b24b 0891 524a
000001c0: a09c 5247 6d40 c049 71e4 5a4a ed0d 184c
000001d0: 1e32 1c4c 60dd d24b fb4e d548 c81f d548
000001e0: 5bf2 df47 35ce 3c48 cd9d e445 aae2 da49
000001f0: c9ab 4a48 7872 d649 34f2 6248 3004 3348

fc2.weight f4 [128, 128]
-0.01 0.0075789127 -0.01 -0.01 0.01 -0.01 0.00867828 -0.01
0.0067078723 -0.009365369 -0.009848231 -0.01 -0.01 -0.009960768 -0.01 0.008709053
-0.01 -0.01 0.009937851 -0.01 -0.009843264 0.009956589 -0.01 0.007334967
0.00454915 0.00367967 0.0074621798 0.009954004 0.0066445563 -0.01 0.0041234004 0.006551866
-0.01 -0.01 0.0063566207 -0.01 0.009953635 -0.01 0.01 -0.01
0.00854678 -0.01 -0.01 0.009962859 -0.01 -0.01 -0.01 0.009032606
-0.00012757587 0.0068881144 0.007682805 -0.01 -0.01 -0.01 0.009985888 6.125566e-05
0.01 -0.01 -0.01 0.0074208775 0.00997973 -0.0028114328 -0.0092764255 -0.01
-0.009950487 -0.01 -0.01 -0.01 0.01 0.009952039 -0.01 0.005658003
-0.01 -0.0057540284 0.009951884 -0.01 0.0071152425 0.009963967 -0.01 -0.01
-0.0099154 -0.009415949 -0.0050423555 -0.0095335 -0.01 0.008118297 -0.01 -0.01
-0.01 -0.01 0.01 -0.01 -0.01 -0.01 0.006680634 0.01
-0.01 -0.0040027755 0.009970853 -0.01 -0.01 0.0076255933 -0.01 -0.01
0.009468443 0.007398799 -0.01 0.006754297 0.007807 0.003393962 0.0070117433 0.009947418
0.00647977 -0.01 -0.01 -0.01 -0.01 -0.01 0.009263961 0.009980134
-0.01 -0.0019033769 -0.01 0.0066642994 0.007427924 -0.01 0.0080920635 -0.01
0.01 -0.007915572 0.01 0.01 -0.01 0.01 -0.008762894 0.01
-0.007071709 0.009360615 0.009761525 0.01 0.01 0.009878227 0.01 -0.0087583745
0.01 0.01 -0.009954083 0.01 0.009800318 -0.009899898 0.01 -0.007665279
-0.004809404 -0.0039278343 -0.007803985 -0.009897297 -0.006925196 0.01 -0.004377585 -0.0068281004
0.01 0.01 -0.0066338866 0.01 -0.009897626 0.01 -0.01 0.01
-0.008641077 0.01 0.01 -0.009905442 0.01 0.01 0.01 -0.009092187
-6.648226e-05 -0.007168318 -0.008019112 0.01 0.01 0.01 -0.00992718 -2.5891386e-06
-0.01 0.01 0.01 -0.0076333806 -0.009922888 0.0026207091 0.009300953 0.01
0.00986879 0.01 0.01 0.01 -0.01 -0.0098958975 0.01 -0.0059294472
0.01 0.009879621 -0.009896509 0.01 -0.0073962635 -0.009907129 0.01 0.01
0.009756656 0.0068728183 0.008161714 0.009591078 0.01 -0.0082331505 0.01 0.01
0.01 0.01 -0.01 0.01 0.01 0.01 -0.0069594835 -0.01
0.01 0.0037254596 -0.009914747 0.01 0.01 -0.007963844 0.01 0.01
-0.009535168 -0.007740603 0.01 -0.0069627934 -0.00801389 -0.0037941895 -0.00729752 -0.009892463
-0.0068471935 0.01 0.01 0.01 0.01 0.01 -0.009294441 -0.009921904
0.01 0.0017763223 0.01 -0.0070125344 -0.00764169 0.01 -0.008205668 0.01
00000000: 0ad7 23bc 8758 f83b 0ad7 23bc 0ad7 23bc
00000010: 0ad7 233c 0ad7 23bc 582f 0e3c 0ad7 23bc
00000020: b6cd db3b 3471 19bc 7a5a 21bc 0ad7 23bc
00000030: 0ad7 23bc 7d32 23bc 0ad7 23bc 6ab0 0e3c
00000040: 0ad7 23bc 0ad7 23bc 5ed2 223c 0ad7 23bc
00000050: a445 21bc f620 233c 0ad7 23bc 2a5a f03b
00000060: 0911 953b 9e26 713b 4d85 f43b 1e16 233c
00000070: 94ba d93b 0ad7 23bc 971d 873b 09b1 d63b
00000080: 0ad7 23bc 0ad7 23bc 334b d03b 0ad7 23bc
00000090: 9214 233c 0ad7 23bc 0ad7 233c 0ad7 23bc
000000a0: cb07 0c3c 0ad7 23bc 0ad7 23bc 423b 233c
000000b0: 0ad7 23bc 0ad7 23bc 0ad7 23bc 7ffd 133c
000000c0: e3c5 05b9 b1b5 e13b 0ac0 fb3b 0ad7 23bc
000000d0: 0ad7 23bc 0ad7 23bc da9b 233c 6276 8038
000000e0: 0ad7 233c 0ad7 23bc 0ad7 23bc d52a f33b
000000f0: 0582 233c 0440 38bb 26fc 17bc 0ad7 23bc
00000100: 5e07 23bc 0ad7 23bc 0ad7 23bc 0ad7 23bc
00000110: 0ad7 233c e10d 233c 0ad7 23bc c566 b93b
00000120: 0ad7 23bc 4a8c bcbb 3a0d 233c 0ad7 23bc
00000130: fb26 e93b e83f 233c 0ad7 23bc 0ad7 23bc
00000140: 3474 22bc 5a45 1abc 583a a5bb 6632 1cbc
00000150: 0ad7 23bc 9b02 053c 0ad7 23bc 0ad7 23bc
00000160: 0ad7 23bc 0ad7 23bc 0ad7 233c 0ad7 23bc
00000170: 0ad7 23bc 0ad7 23bc 38e9 da3b 0ad7 233c
00000180: 0ad7 23bc b729 83bb ca5c 233c 0ad7 23bc
00000190: 0ad7 23bc 1de0 f93b 0ad7 23bc 0ad7 23bc
000001a0: 8721 1b3c a071 f23b 0ad7 23bc 2653 dd3b
000001b0: ddd1 ff3b 3c6d 5e3b c4c2 e53b 7ffa 223c
000001c0: 4054 d43b 0ad7 23bc 0ad7 23bc 0ad7 23bc
000001d0: 0ad7 23bc 0ad7 23bc dec7 173c b783 233c
000001e0: 0ad7 23bc bb7a f9ba 0ad7 23bc 3260 da3b
000001f0: f165 f33b 0ad7 23bc 9394 043c 0ad7 23bc
00000200: 0ad7 233c 51b0 01bc 0ad7 233c 0ad7 233c
00000210: 0ad7 23bc 0ad7 233c 3e92 0fbc 0ad7 233c
00000220: cbb9 e7bb 445d 193c ceee 1f3c 0ad7 233c
00000230: 0ad7 233c 49d8 213c 0ad7 233c 497f 0fbc
00000240: 0ad7 233c 0ad7 233c 7316 23bc 0ad7 233c
00000250: 8391 203c 2f33 22bc 0ad7 233c 052d fbbb
00000260: 3498 9dbb 10b5 80bb 92b8 ffbb 4628 22bc
00000270: c1ec e2bb 0ad7 233c d871 8fbb 42be dfbb
00000280: 0ad7 233c 0ad7 233c 1361 d9bb 0ad7 233c
00000290: a729 22bc 0ad7 233c 0ad7 23bc 0ad7 233c
000002a0: 4e93 0dbc 0ad7 233c 0ad7 233c 6f4a 22bc
000002b0: 0ad7 233c 0ad7 233c 0ad7 233c 65f7 14bc
000002c0: 646c 8bb8 36e4 eabb 9862 03bc 0ad7 233c
000002d0: 0ad7 233c 0ad7 233c 9ca5 22bc 10c1 2db6
000002e0: 0ad7 23bc 0ad7 233c 0ad7 233c 7021 fabb
000002f0: 9c93 22bc 34c0 2b3b 0663 183c 0ad7 233c
00000300: b5b0 213c 0ad7 233c 0ad7 233c 0ad7 233c
00000310: 0ad7 23bc 6722 22bc 0ad7 233c cf4b c2bb
00000320: 0ad7 233c 22de 213c f824 22bc 0ad7 233c
00000330: 5b5c f2bb 8351 22bc 0ad7 233c 0ad7 233c
00000340: 62da 1f3c 6135 e13b b6b8 053c e623 1d3c
00000350: 0ad7 233c 56e4 06bc 0ad7 233c 0ad7 233c
00000360: 0ad7 233c 0ad7 233c 0ad7 23bc 0ad7 233c
00000370: 0ad7 233c 0ad7 233c 610c e4bb 0ad7 23bc
00000380: 0ad7 233c d726 743b 7771 22bc 0ad7 233c
00000390: 0ad7 233c c87a 02bc 0ad7 233c 0ad7 233c
000003a0: 6539 1cbc e2a4 fdbb 0ad7 233c 2528 e4bb
000003b0: b14c 03bc f0a7 78bb 0920 efbb ff13 22bc
000003c0: 6c5e e0bb 0ad7 233c 0ad7 233c 0ad7 233c
000003d0: 0ad7 233c 0ad7 233c b647 18bc 7b8f 22bc
000003e0: 0ad7 233c 7cd3 e83a 0ad7 233c 67c9 e5bb
000003f0: 2467 fabb 0ad7 233c 1171 06bc 0ad7 233c

fc2.bias f4 [128]
0.009996047 0.007355172 -0.008689204 -0.009977306 -0.01 0.006747478 0.009475907 -0.009985585
0.0069779735 0.009673942 -0.009966703 -0.01 0.0073458357 0.007493612 -0.01 0.0021077392
-0.01 -0.0088935075 -0.008661842 -0.008445308 0.009983873 0.0071849157 -0.009960637 -0.00868241
0.009998023 0.00769679 -0.008758267 0.009074082 -0.01 -0.009997486 -0.008610891 0.0076417616
-0.00996026 -0.009904081 0.007276376 0.0012443898 0.0074413638 0.0075431997 0.009984669 -0.00996109
-0.01 -0.009881759 -0.009916778 0.0074074836 -0.008750525 -0.009976599 0.009984583 0.007308588
0.0073611652 0.009998073 -0.009995849 -0.009990971 0.009971459 -0.0052340752 -0.01 -0.009994374
-0.01 0.007122715 -0.01 -0.009994276 0.007623648 -0.0070820707 0.007642556 0.0068936073
0.007216411 -0.009997192 -0.009965986 0.0075581498 -0.009991246 -0.009915215 0.0075476114 -0.009987624
-0.01 -0.009959994 -0.01 -0.009967437 0.009435877 -0.0088285785 -0.009977451 -0.009968017
0.0074869255 0.0069040097 0.007806798 0.0071096956 0.009254276 0.009123229 0.0054008127 0.009986875
0.009985493 -0.009989355 -0.008826182 -0.008914419 -0.009984168 0.0094783595 0.007683532 0.007623253
0.007675485 -0.008436611 0.0099941185 0.0071962127 0.009461701 0.0018045732 -0.009984367 0.0050285193
0.0074850237 0.0072298837 -0.009961089 -0.008776873 0.009590143 -0.01 -0.008714452 0.009986812
-0.0068944134 -0.008516643 0.009984648 -0.0016278339 0.008254135 -0.009982756 0.009276653 -0.008609913
-0.008642339 -0.01 0.0072048367 0.0017574944 -0.00984768 0.009677615 -0.009763757 0.009477983
00000000: 76c6 233c a803 f13b 2a5d 0ebc db77 23bc
00000010: 0ad7 23bc f319 dd3b d640 1b3c 949a 23bc
00000020: 7ca7 e43b 747f 1e3c 624b 23bc 0ad7 23bc
00000030: 56b5 f03b f98c f53b 0ad7 23bc ff21 0a3b
00000040: 0ad7 23bc 13b6 11bc 66ea 0dbc 305e 0abc
00000050: 6693 233c 716f eb3b f131 23bc ab40 0ebc
00000060: bfce 233c 5b35 fc3b d67e 0fbc 75ab 143c
00000070: 0ad7 23bc 7fcc 23bc b214 0dbc be67 fa3b
00000080: 5c30 23bc ba44 22bc aa6e ee3b cb1a a33a
00000090: afd6 f33b f22c f73b bd96 233c d733 23bc
000000a0: 0ad7 23bc 1ae7 21bc fb79 22bc 7aba f23b
000000b0: 5d5e 0fbc e474 23bc 6096 233c e17c ef3b
000000c0: ee35 f13b f5ce 233c a1c5 23bc 2bb1 23bc
000000d0: 555f 233c 9b82 abbb 0ad7 23bc 71bf 23bc
000000e0: 0ad7 23bc aa65 e93b 0ad7 23bc 08bf 23bc
000000f0: cbcf f93b b710 e8bb 686e fa3b c5e3 e13b
00000100: a577 ec3b 43cb 23bc 6048 23bc 5baa f73b
00000110: 53b2 23bc 6d73 22bc f451 f73b 22a3 23bc
00000120: 0ad7 23bc 3e2f 23bc 0ad7 23bc 764e 23bc
00000130: f098 1a3c bea5 10bc 7678 23bc e550 23bc
00000140: e254 f53b 083b e23b 2bd0 ff3b 73f8 e83b
00000150: 3f9f 173c 9979 153c 4df9 b03b fd9f 233c
00000160: 319a 233c 64aa 23bc b19b 10bc c90d 12bc
00000170: a394 23bc 1f4b 1b3c 23c6 fb3b 7bcc f93b
00000180: a382 fb3b b639 0abc 5fbe 233c 35ce eb3b
00000190: 4005 1b3c 6e87 ec3a 7895 23bc 47c6 a43b
000001a0: ee44 f53b a9e8 ec3b d633 23bc e0cc 0fbc
000001b0: fa1f 1d3c 0ad7 23bc 10c7 0ebc ba9f 233c
000001c0: 88ea e1bb 6489 0bbc a696 233c 0b5d d5ba
000001d0: 5a3c 073c b78e 23bc 1afd 173c 9810 0dbc
000001e0: 9998 0dbc 0ad7 23bc 8d16 ec3b ba5b e63a
000001f0: 2a58 21bc dc8e 1e3c 2af8 1fbc 8b49 1b3c

bn2.weight f4 [128]
0.01 0.01 0.01 0.01 0.01 0.01 0.01 0.01
0.01 0.01 0.01 0.01 0.01 0.01 0.01 0.01
0.01 0.01 0.01 0.01 0.01 0.01 0.01 0.01
0.01 0.01 0.01 0.01 0.01 0.01 0.01 0.01
0.01 0.01 0.01 0.01 0.01 0.01 0.01 0.01
0.01 0.01 0.01 0.01 0.01 0.01 0.01 0.01
0.01 0.0056046085 0.01 0.01 0.01 0.01 0.01 0.01
0.01 0.01 0.01 0.01 0.01 0.01 0.01 0.01
0.01 0.01 0.01 0.01 0.01 0.01 0.01 0.01
0.01 0.01 0.01 0.01 0.01 0.01 0.01 0.01
0.01 0.01 0.01 0.01 0.01 0.01 0.01 0.01
0.01 0.01 0.01 0.01 0.01 0.01 0.01 0.01
0.01 0.0071434705 0.01 0.01 0.01 0.01 0.01 0.01
0.01 0.01 0.01 0.01 0.01 0.01 0.01 0.01
0.01 0.01 0.01 0.01 0.01 0.01 0.01 0.01
0.01 0.01 0.01 0.01 0.01 0.01 0.01 0.01
00000000: 0ad7 233c 0ad7 233c 0ad7 233c 0ad7 233c
00000010: 0ad7 233c 0ad7 233c 0ad7 233c 0ad7 233c
00000020: 0ad7 233c 0ad7 233c 0ad7 233c 0ad7 233c
00000030: 0ad7 233c 0ad7 233c 0ad7 233c 0ad7 233c
00000040: 0ad7 233c 0ad7 233c 0ad7 233c 0ad7 233c
00000050: 0ad7 233c 0ad7 233c 0ad7 233c 0ad7 233c
00000060: 0ad7 233c 0ad7 233c 0ad7 233c 0ad7 233c
00000070: 0ad7 233c 0ad7 233c 0ad7 233c 0ad7 233c
00000080: 0ad7 233c 0ad7 233c 0ad7 233c 0ad7 233c
00000090: 0ad7 233c 0ad7 233c 0ad7 233c 0ad7 233c
000000a0: 0ad7 233c 0ad7 233c 0ad7 233c 0ad7 233c
000000b0: 0ad7 233c 0ad7 233c 0ad7 233c 0ad7 233c
000000c0: 0ad7 233c dda6 b73b 0ad7 233c 0ad7 233c
000000d0: 0ad7 233c 0ad7 233c 0ad7 233c 0ad7 233c
000000e0: 0ad7 233c 0ad7 233c 0ad7 233c 0ad7 233c
000000f0: 0ad7 233c 0ad7 233c 0ad7 233c 0ad7 233c
00000100: 0ad7 233c 0ad7 233c 0ad7 233c 0ad7 233c
00000110: 0ad7 233c 0ad7 233c 0ad7 233c 0ad7 233c
00000120: 0ad7 233c 0ad7 233c 0ad7 233c 0ad7 233c
00000130: 0ad7 233c 0ad7 233c 0ad7 233c 0ad7 233c
00000140: 0ad7 233c 0ad7 233c 0ad7 233c 0ad7 233c
00000150: 0ad7 233c 0ad7 233c 0ad7 233c 0ad7 233c
00000160: 0ad7 233c 0ad7 233c 0ad7 233c 0ad7 233c
00000170: 0ad7 233c 0ad7 233c 0ad7 233c 0ad7 233c
00000180: 0ad7 233c c613 ea3b 0ad7 233c 0ad7 233c
00000190: 0ad7 233c 0ad7 233c 0ad7 233c 0ad7 233c
000001a0: 0ad7 233c 0ad7 233c 0ad7 233c 0ad7 233c
000001b0: 0ad7 233c 0ad7 233c 0ad7 233c 0ad7 233c
000001c0: 0ad7 233c 0ad7 233c 0ad7 233c 0ad7 233c
000001d0: 0ad7 233c 0ad7 233c 0ad7 233c 0ad7 233c
000001e0: 0ad7 233c 0ad7 233c 0ad7 233c 0ad7 233c
000001f0: 0ad7 233c 0ad7 233c 0ad7 233c 0ad7 233c

bn2.bias f4 [128]
7.7619945e-05 -1.3670608e-05 1.0485899e-05 0.00030690548 -4.7259826e-05 0.00035335842 -0.0003199908 -0.00032139083
0.00030763698 -0.00033491413 0.00037442968 -5.8379628e-05 0.00033853285 0.0002931469 -7.355094e-05 0.0002903367
-9.606167e-06 1.8544983e-05 4.013993e-05 -0.00033806192 7.499929e-05 0.0003838117 0.00033825263 7.440622e-05
7.685389e-05 -7.493509e-05 4.812699e-05 -0.00038319276 -5.3490054e-05 -3.6475285e-05 9.4430725e-06 -8.3310646e-05
0.00038496355 -0.00036560124 0.00031469806 0.00033566027 -7.653629e-05 0.0003037106 6.291205e-05 0.00035306928
-7.782525e-05 -0.00040590603 -0.00031281088 -7.3887466e-05 6.7552406e-05 0.0003877126 6.119872e-05 -7.508695e-05
-2.232379e-05 -0.0038690243 0.00031313178 -0.0003343209 4.8546757e-05 3.1728814e-05 -5.9571208e-05 -0.00033860354
-6.2780273e-06 0.00037038975 -7.59039e-05 -0.00033260297 0.0003211039 -0.00037374967 0.00033644092 0.00030904842
-9.186004e-06 -0.00033465133 0.00035390994 -6.359763e-05 0.00029568712 -0.00035459967 -5.235187e-05 0.00034580365
-4.9480994e-05 0.00033487304 -9.361622e-06 0.0003515436 -0.00034350134 1.3694341e-05 0.00030253737 0.00030312137
-5.859033e-05 0.0003383178 -1.03777e-05 0.0003272623 -0.00037818297 -0.00034289632 3.5378183e-05 1.6082367e-05
1.6189399e-05 0.0003799473 8.6064014e-05 6.8297086e-05 0.00032381728 -0.00033216414 -1.1663387e-05 0.00033311042
0.00036781337 0.003916861 6.9129135e-05 0.00037373163 -0.0003586141 0.0003231906 -0.00034574364 -0.00029602158
-8.727904e-06 0.00035335447 0.00036639208 8.974276e-05 -0.0003434596 -8.682728e-06 8.017267e-05 6.365839e-05
2.0683243e-05 0.0003245319 6.9885056e-05 7.3399104e-05 0.00036437635 -0.00035330857 -0.00032326274 1.1627149e-05
7.056437e-05 -7.561146e-06 -7.743838e-06 -0.00033963152 -0.0003278356 -0.0003518805 -0.0003598662 -0.00031105606
00000000: e4c7 a238 d05a 65b7 98ec 2f37 28e8 a039
00000010: da38 46b8 f742 b939 70c4 a7b9 5980 a8b9
00000020: 564a a139 6a97 afb9 1a4f c439 a6dc 74b8
00000030: 1c7d b139 83b1 9939 5c3f 9ab8 5538 9839
00000040: 2c2a 21b7 0c91 9b37 ec5b 2838 e73d b1b9
00000050: f048 9d38 563a c939 8057 b139 890a 9c38
00000060: 9e2c a138 7826 9db8 f6db 4938 43e7 c8b9
00000070: 825a 60b8 0afd 18b8 b06d 1e37 10b7 aeb8
00000080: efd4 c939 2bae bfb9 0ffe a439 8ffb af39
00000090: 1c82 a0b8 593b 9f39 a6ef 8338 281c b939
000000a0: 1d36 a3b8 c9cf d4b9 c400 a4b9 08f4 9ab8
000000b0: ecaa 8d38 e745 cb39 d057 8038 0078 9db8
000000c0: f943 bbb7 758f 7dbb d62b a439 cb47 afb9
000000d0: af9e 4b38 8e14 0538 19dc 79b8 9986 b1b9
000000e0: d8a7 d2b6 df30 c239 992e 9fb8 3761 aeb9
000000f0: d659 a839 d5f3 c3b9 5664 b039 c707 a239
00000100: 961d 1ab7 2474 afb9 fd8c b939 b85f 85b8
00000110: 7406 9b39 90e9 b9b9 6494 5bb8 fb4c b539
00000120: d089 4fb8 e691 af39 dc0f 1db7 624f b839
00000130: f817 b4b9 bfc0 6537 e19d 9e39 43ec 9e39
00000140: e3be 75b8 3f60 b139 e21b 2eb7 6794 ab39
00000150: dc46 c6b9 c4c6 b3b9 0963 1438 9fe8 8637
00000160: 78ce 8737 aa33 c739 447d b438 b83a 8f38
00000170: 05c6 a939 5126 aeb9 dead 43b7 53a5 ae39
00000180: 13d7 c039 0359 803b 6cf9 9038 69f1 c339
00000190: 5f04 bcb9 e871 a939 ed44 b5b9 5833 9bb9
000001a0: 106e 12b7 6f42 b939 5018 c039 4734 bc38
000001b0: 5e12 b4b9 08ac 11b7 6022 a838 5780 8538
000001c0: ed80 ad37 ef25 aa39 418f 9238 d8ed 9938
000001d0: c409 bf39 463c b9b9 977b a9b9 3a12 4337
000001e0: f5fb 9338 c0b5 fdb6 88eb 01b7 9210 b2b9
000001f0: 59e1 abb9 9a7c b8b9 6cac bcb9 3d15 a3b9

bn2.running_mean f4 [128]
0.008164433 0.009170409 -0.010494394 -0.011419833 -0.008172515 0.005062048 0.011155832 -0.008487537
0.0054129055 0.011238401 -0.011610848 -0.008171591 0.0058111977 0.0058085453 -0.008174295 0.00060934876
-0.008192493 -0.010698067 -0.010470262 -0.00691416 0.008163557 0.005811273 -0.011461609 -0.010514836
0.008168863 0.009534153 -0.01058498 0.01043659 -0.008175978 -0.008174699 -0.0104246065 0.009473942
-0.011410375 -0.00837189 0.0057588685 -0.0002816426 0.0092745265 0.005876754 0.008169769 -0.011598827
-0.0081738755 -0.0082609495 -0.008437186 0.009247955 -0.010574397 -0.011694177 0.008164014 0.0091546
0.009189425 0.009621898 -0.011630624 -0.008362182 0.008153 -0.0070517776 -0.008184416 -0.00841026
-0.008181385 0.0054722102 -0.0081709195 -0.008417766 0.006176711 -0.005586529 0.006184251 0.005319262
0.0090413615 -0.008394304 -0.011440715 0.009384867 -0.011595806 -0.008321033 0.00937592 -0.011606682
-0.008179628 -0.011563955 -0.008181096 -0.011703946 0.010873205 -0.010636038 -0.011419101 -0.011454664
0.009311256 0.0055162245 0.009618374 0.005653536 0.010872099 0.010660422 0.0035852739 0.008181254
0.008166763 -0.011632105 -0.010645389 -0.01073482 -0.011574661 0.010995626 0.009500809 0.0060629193
0.0060229483 -0.0077627343 0.008165629 0.005665572 0.010978954 0.00017240757 -0.008367218 0.006569449
0.009308681 0.0055690026 -0.011592049 -0.010592586 0.011049572 -0.008194928 -0.0105430335 0.008173395
-0.008710664 -0.010073011 0.008162344 -0.0034623968 0.006642796 -0.00839246 0.010911638 -0.010420409
-0.01045855 -0.008179312 0.00902503 0.0034742318 -0.008284978 0.011292946 -0.008258878 0.010853159
00000000: 1dc4 053c 7c3f 163c aef0 2bbc 401a 3bbc
00000010: 03e6 05bc 89df a53b f3c6 363c 4f0f 0bbc
00000020: be5e b13b 4521 383c 6d3b 3ebc 23e2 05bc
00000030: dc6b be3b 9c55 be3b 7aed 05bc b4bc 1f3a
00000040: ce39 06bc f246 2fbc 768b 2bbc 2e90 e2bb
00000050: 71c0 053c 7e6c be3b 79c9 3bbc 6b46 2cbc
00000060: b2d6 053c 2335 1c3c a06c 2dbc 3bfe 2a3c
00000070: 8af4 05bc 2cef 05bc f8cb 2abc 9838 1b3c
00000080: 95f2 3abc 402a 09bc e4b4 bc3b 6ea9 93b9
00000090: 2ff4 173c c991 c03b 7fda 053c 0209 3ebc
000000a0: b8eb 05bc ef58 07bc 1f3c 0abc bc84 173c
000000b0: 3c40 2dbc ef98 3fbc 5bc2 053c 2dfd 153c
000000c0: 3e8f 163c 2aa5 1d3c 5f8e 3ebc 8901 09bc
000000d0: 2994 053c 9912 e7bb ee17 06bc 30cb 09bc
000000e0: 370b 06bc 3a50 b33b 52df 05bc abea 09bc
000000f0: 0266 ca3b 340f b7bb 42a5 ca3b 344d ae3b
00000100: 3822 143c 4388 09bc d671 3bbc fcc2 193c
00000110: 56fc 3dbc f154 08bc 759d 193c f429 3ebc
00000120: d903 06bc be76 3dbc 010a 06bc e8c1 3fbc
00000130: 8725 323c c742 2ebc 2e17 3bbc 58ac 3bbc
00000140: 3d8e 183c 72c1 b43b 6296 1d3c 4c41 b93b
00000150: e320 323c 0da9 2e3c eaf6 6a3b ab0a 063c
00000160: e3cd 053c 9694 3ebc ff69 2ebc 19e1 2fbc
00000170: a6a3 3dbc 0027 343c 48a9 1b3c 74ab c63b
00000180: 275c c53b 895e febb 21c9 053c 43a6 b93b
00000190: 12e1 333c 4ec8 3439 a816 09bc 8844 d73b
000001a0: 7083 183c 2e7c b63b 94ec 3dbc 878c 2dbc
000001b0: 4409 353c 0544 06bc b0bc 2cbc b4e9 053c
000001c0: 2cb7 0ebc 4509 25bc 5abb 053c 61e9 62bb
000001d0: d0ab d93b 8780 09bc bac6 323c 5dba 2abc
000001e0: 575a 2bbc 8502 06bc b8dd 133c f0af 633b
000001f0: b7bd 07bc 0c06 393c 3f50 07bc 73d1 313c

bn2.running_var f4 [128]
8.206383e-06 8.257685e-06 8.276787e-06 9.753989e-06 8.183718e-06 9.679735e-06 9.960583e-06 9.753515e-06
9.654573e-06 9.598693e-06 9.636089e-06 8.178236e-06 9.820471e-06 9.660039e-06 8.215582e-06 9.7733855e-06
8.277724e-06 8.260231e-06 8.249486e-06 9.850369e-06 8.232721e-06 9.747994e-06 9.811799e-06 8.163941e-06
8.167542e-06 8.221664e-06 8.18236e-06 9.380947e-06 8.194258e-06 8.189042e-06 8.250396e-06 8.214924e-06
9.761131e-06 9.677457e-06 9.697227e-06 9.8997025e-06 8.225325e-06 9.735321e-06 8.241301e-06 9.674112e-06
8.208608e-06 9.921389e-06 9.678042e-06 8.19022e-06 8.2087845e-06 9.672992e-06 8.215113e-06 8.191681e-06
8.222877e-06 8.639764e-07 9.8733935e-06 9.93706e-06 8.243935e-06 8.215021e-06 8.217964e-06 9.778716e-06
8.21146e-06 9.67894e-06 8.205137e-06 9.965172e-06 9.502041e-06 9.685765e-06 9.828124e-06 9.641207e-06
8.220542e-06 9.928007e-06 9.58211e-06 8.234727e-06 9.883361e-06 9.6220165e-06 8.197756e-06 9.93414e-06
8.241862e-06 9.598279e-06 8.237078e-06 9.468008e-06 9.65291e-06 8.276809e-06 9.740616e-06 9.706716e-06
8.190915e-06 9.512319e-06 8.284489e-06 9.559784e-06 9.747132e-06 9.9794115e-06 8.214029e-06 8.266712e-06
8.193433e-06 9.670305e-06 8.2413735e-06 8.231606e-06 9.715227e-06 9.6363065e-06 8.2421775e-06 9.648218e-06
9.690613e-06 5.2029714e-07 8.196107e-06 9.717393e-06 9.674401e-06 9.798105e-06 9.6592e-06 9.6542135e-06
8.2333045e-06 9.714206e-06 9.661174e-06 8.245349e-06 9.660027e-06 8.26888e-06 8.193652e-06 8.238818e-06
8.196816e-06 9.700671e-06 8.21143e-06 8.168824e-06 9.712156e-06 9.756813e-06 9.681109e-06 8.255291e-06
8.2337765e-06 8.203274e-06 8.2259785e-06 9.709001e-06 1.0008156e-05 9.7531765e-06 9.5033465e-06 9.83231e-06
00000000: 26ae 0937 7d8a 0a37 88dc 0a37 10a5 2337
00000010: cd4c 0937 2566 2237 611c 2737 07a3 2337
00000020: 13fa 2137 130a 2137 b0aa 2137 4235 0937
00000030: 9ac2 2437 8d11 2237 a8d5 0937 5ff8 2337
00000040: 8ee0 0a37 6c95 0a37 4667 0a37 0343 2537
00000050: 441f 0a37 518b 2337 5b9d 2437 dcf7 0837
00000060: 5307 0937 c7ef 0937 f846 0937 dc62 1d37
00000070: 127a 0937 ab63 0937 2e6b 0a37 d4d2 0937
00000080: bdc3 2337 5c5c 2237 46b1 2237 e616 2637
00000090: 80ff 0937 e354 2337 1e44 0a37 ff4d 2237
000000a0: b4b7 0937 0b74 2637 e05e 2237 ba68 0937
000000b0: 76b8 0937 2f49 2237 a4d3 0937 016f 0937
000000c0: fdf4 0937 02ec 6735 e7a5 2537 59b7 2637
000000d0: 6e4f 0a37 3fd3 0937 e3df 0937 440f 2437
000000e0: f4c3 0937 bb62 2237 cca8 0937 1630 2737
000000f0: f56a 1f37 0b80 2237 79e3 2437 abc0 2137
00000100: f6ea 0937 7790 2637 d9c2 2037 e227 0a37
00000110: b6d0 2537 3f6e 2137 1889 0937 ceaa 2637
00000120: 8746 0a37 4b08 2137 fb31 0a37 c9d8 1e37
00000130: eff2 2137 a0dc 0a37 a16b 2337 07da 2237
00000140: b66b 0937 1997 1f37 9cfd 0a37 f662 2037
00000150: 9d87 2337 3f6d 2737 fcce 0937 42b1 0a37
00000160: 8776 0937 a53d 2237 6e44 0a37 7b1a 0a37
00000170: 95fe 2237 9fab 2137 e247 0a37 c8de 2137
00000180: de94 2237 8caa 0b35 0382 0937 e307 2337
00000190: 3c4f 2237 8a62 2437 f30d 2237 88f8 2137
000001a0: c621 0a37 32fa 2237 6d16 2237 8155 0a37
000001b0: 8011 2237 92ba 0a37 7877 0937 7439 0a37
000001c0: 0f85 0937 11c0 2237 d3c3 0937 d50c 0937
000001d0: 64f1 2237 31b1 2337 0c6c 2237 3480 0a37
000001e0: cd23 0a37 cba0 0937 4f02 0a37 d7e3 2237
000001f0: b4e8 2737 93a1 2337 9070 1f37 73f5 2437

fc3.weight f4 [1, 128]
0.01 0.01 0.01 -0.01 0.01 -0.01 -0.01 -0.01
-0.01 -0.01 -0.01 0.01 -0.01 -0.01 0.01 -0.01
0.01 0.01 0.01 -0.01 0.01 -0.01 -0.01 0.01
0.01 0.01 0.01 -0.01 0.01 0.01 0.01 0.01
-0.01 -0.01 -0.01 -0.01 0.01 -0.01 0.01 -0.01
0.01 -0.01 -0.01 0.01 0.01 -0.01 0.01 0.01
0.01 -0.008761729 -0.01 -0.01 0.01 0.01 0.01 -0.01
0.01 -0.01 0.01 -0.01 -0.01 -0.01 -0.01 -0.01
0.01 -0.01 -0.01 0.01 -0.01 -0.01 0.01 -0.01
0.01 -0.01 0.01 -0.01 -0.01 0.01 -0.01 -0.01
0.01 -0.01 0.01 -0.01 -0.01 -0.01 0.01 0.01
0.01 -0.01 0.01 0.01 -0.01 -0.01 0.01 -0.01
-0.01 0.008735619 0.01 -0.01 -0.01 -0.01 -0.01 -0.01
0.01 -0.01 -0.01 0.01 -0.01 0.01 0.01 0.01
0.01 -0.01 0.01 0.01 -0.01 -0.01 -0.01 0.01
0.01 0.01 0.01 -0.01 -0.01 -0.01 -0.01 -0.01
00000000: 0ad7 233c 0ad7 233c 0ad7 233c 0ad7 23bc
00000010: 0ad7 233c 0ad7 23bc 0ad7 23bc 0ad7 23bc
00000020: 0ad7 23bc 0ad7 23bc 0ad7 23bc 0ad7 233c
00000030: 0ad7 23bc 0ad7 23bc 0ad7 233c 0ad7 23bc
00000040: 0ad7 233c 0ad7 233c 0ad7 233c 0ad7 23bc
00000050: 0ad7 233c 0ad7 23bc 0ad7 23bc 0ad7 233c
00000060: 0ad7 233c 0ad7 233c 0ad7 233c 0ad7 23bc
00000070: 0ad7 233c 0ad7 233c 0ad7 233c 0ad7 233c
00000080: 0ad7 23bc 0ad7 23bc 0ad7 23bc 0ad7 23bc
00000090: 0ad7 233c 0ad7 23bc 0ad7 233c 0ad7 23bc
000000a0: 0ad7 233c 0ad7 23bc 0ad7 23bc 0ad7 233c
000000b0: 0ad7 233c 0ad7 23bc 0ad7 233c 0ad7 233c
000000c0: 0ad7 233c 5b8d 0fbc 0ad7 23bc 0ad7 23bc
000000d0: 0ad7 233c 0ad7 233c 0ad7 233c 0ad7 23bc
000000e0: 0ad7 233c 0ad7 23bc 0ad7 233c 0ad7 23bc
000000f0: 0ad7 23bc 0ad7 23bc 0ad7 23bc 0ad7 23bc
00000100: 0ad7 233c 0ad7 23bc 0ad7 23bc 0ad7 233c
00000110: 0ad7 23bc 0ad7 23bc 0ad7 233c 0ad7 23bc
00000120: 0ad7 233c 0ad7 23bc 0ad7 233c 0ad7 23bc
00000130: 0ad7 23bc 0ad7 233c 0ad7 23bc 0ad7 23bc
00000140: 0ad7 233c 0ad7 23bc 0ad7 233c 0ad7 23bc
00000150: 0ad7 23bc 0ad7 23bc 0ad7 233c 0ad7 233c
00000160: 0ad7 233c 0ad7 23bc 0ad7 233c 0ad7 233c
00000170: 0ad7 23bc 0ad7 23bc 0ad7 233c 0ad7 23bc
00000180: 0ad7 23bc d71f 0f3c 0ad7 233c 0ad7 23bc
00000190: 0ad7 23bc 0ad7 23bc 0ad7 23bc 0ad7 23bc
000001a0: 0ad7 233c 0ad7 23bc 0ad7 23bc 0ad7 233c
000001b0: 0ad7 23bc 0ad7 233c 0ad7 233c 0ad7 233c
000001c0: 0ad7 233c 0ad7 23bc 0ad7 233c 0ad7 233c
000001d0: 0ad7 23bc 0ad7 23bc 0ad7 23bc 0ad7 233c
000001e0: 0ad7 233c 0ad7 233c 0ad7 233c 0ad7 23bc
000001f0: 0ad7 23bc 0ad7 23bc 0ad7 23bc 0ad7 23bc
