10_Models/Results_Chicago/WGAN_Congestion_generator_best.pth (torch, 352638 bytes, 20 tensors)

fc1.weight f4 [128, 201]
0	0x3cd522bb	0.026017537
1	0x3d351fdb	0.044219833
2	0x3d325ba7	0.043544438
3	0xbb5a9f41	-0.0033359083
4	0x3cb658ad	0.02225908
5	0x3b90a88e	0.0044146245
6	0xbbe95824	-0.007121103
7	0xbce3415c	-0.027741127
8	0x3d47b4dc	0.048756465
9	0xbd915a0f	-0.070972554
10	0x3c2aa891	0.010416166
11	0xbd0957db	-0.03353105
12	0xbcbfa492	-0.023393903
13	0x3d37b674	0.044851735
14	0x3d52750b	0.051381152
15	0x3d9341a3	0.071902536
16	0x3d042e99	0.032271
17	0x3d391208	0.04518321
18	0xbc6dd8be	-0.014517007
19	0x3cf233df	0.02956575
20	0xbca00a9b	-0.019536307
21	0xbcfce3bb	-0.03087031
22	0x3dbdd2a7	0.09268694
23	0xbcee658b	-0.029101154
24	0x3cfa16e6	0.030528497
25	0x3be37302	0.0069412002
26	0x3d1b75ad	0.03795402
27	0x3d0d8484	0.034550205
28	0x3cf8a8ca	0.030353922
29	0xbbf8b6f8	-0.007590171
30	0x3d088630	0.033331096
31	0x3cdeb783	0.027187115
32	0x3d825da6	0.06365518
33	0x3c3f6b94	0.0116833635
34	0x3d90421e	0.07043861
35	0x3c4c455e	0.01246771
36	0xbd08e547	-0.03342178
37	0xbd62f521	-0.055409554
38	0xbd2a569c	-0.041586503
39	0xbcd97b84	-0.026548155
40	0x3d2fd6f2	0.042929597
41	0x3d84eb5d	0.064902045
42	0xbcfb4624	-0.030673094
43	0xbd08aa77	-0.033365693
44	0xbd325ade	-0.04354369
45	0x3ca2f3a9	0.019891577
46	0xbd004629	-0.03131691
47	0xbc93c708	-0.018039241
48	0xbb8a4279	-0.00421935
49	0xbd3c6a3c	-0.04599975
50	0x3d3a8096	0.045532785
51	0x3d7f6da4	0.06236042
52	0xbd3c509b	-0.04597531
53	0x3d081787	0.033225562
54	0xbd689c97	-0.05678996
55	0x3d11868a	0.035528697
56	0xbd5fa697	-0.05460223
57	0x3d4e72a2	0.05040229
58	0x3d06d98e	0.03292232
59	0xbd28848d	-0.041142035
60	0xbb501935	-0.0031753306
61	0xbc456189	-0.01204718
62	0x3d56a8e6	0.052407168
63	0xbd288123	-0.04113878
64	0x3d8ea774	0.06965533
65	0x3a34bef0	0.0006894907
66	0x3d4ebf6e	0.05047553
67	0xbd698393	-0.057010245
68	0x3d0cf8e1	0.034417037
69	0x3d207683	0.03917552
70	0x3bc672a5	0.006056147
71	0xbd42be2d	-0.047544647
72	0x3d8ac4a1	0.06775785
73	0x3d9a4b4f	0.07533895
74	0x3c95aec9	0.01827182
75	0xbc3ca91f	-0.011514931
76	0x3d3caa58	0.04606089
77	0x3bcfd877	0.0063429433
78	0x3b8e9638	0.0043514036
79	0x3d2f80da	0.04284749
80	0x3d204168	0.039124876
81	0x3d19038c	0.0373569
82	0xbc4cb3a5	-0.0124940025
83	0x3ca6dbee	0.020368543
84	0xbcc4759a	-0.023981858
85	0x3bd48061	0.0064850305
86	0x3cc4d8d2	0.02402917
87	0xbc4a55e4	-0.0123495795
88	0x3b2632e8	0.0025359932
89	0x3d69009d	0.05688535
90	0x3ce6584d	0.028118277
91	0xba8cbb73	-0.0010737017
92	0xbb30abee	-0.0026957947
93	0x3d1ee821	0.038795594
94	0x3d3f843a	0.04675696
95	0xbd4a337c	-0.049365506
96	0xbd2a53c6	-0.0415838
97	0x3cea7ef9	0.028624998
98	0x3ba1ed8b	0.0049416474
99	0xbc96855e	-0.018374141
100	0x3d6760d9	0.056488845
101	0x3d002979	0.03128955
102	0xbd49230f	-0.0491057
103	0x3cb2b73e	0.021815892
104	0x3d20af8d	0.03922992
105	0x3d91a4ec	0.071115345
106	0xbc4d7448	-0.012539931
107	0xbbdf656a	-0.0068175094
108	0x3c3d9285	0.0115705775
109	0x3ccea495	0.025224963
110	0xbd6f021e	-0.05835163
111	0x3d2f5594	0.042806223
112	0xbced9677	-0.029002411
113	0xbd6d61cc	-0.057954594
114	0xbd3c0f56	-0.045913063
115	0x3d1a7712	0.03771121
116	0xbcd659d3	-0.026165878
117	0x3ce9c654	0.028536953
118	0x3d857926	0.06517248
119	0x3d56ba82	0.05242396
120	0x3beee696	0.0072906716
121	0x3ccdfb62	0.025144283
122	0x3d969ed1	0.073545106
123	0xbcfca81b	-0.030841878
124	0x3d476974	0.048684552
125	0x3d7f7fd9	0.062377784
126	0xbb99730e	-0.004682905
127	0x3d8e5c18	0.06951159
128	0x3ca91e97	0.02064447
129	0xbd09878d	-0.033576537
130	0x3bfe357b	0.00775784
131	0xbd7135a4	-0.058889046
132	0xbd7aab7c	-0.061198696
133	0xbd067aa3	-0.0328318
134	0xbc33e76d	-0.010980469
135	0x3d06df0e	0.032927565
136	0x3d2c67fa	0.042091347
137	0x3c80c368	0.015718177
138	0x3d115b9b	0.035487752
139	0xbc95c7a5	-0.018283674
140	0x3d1604e7	0.03662577
141	0x3d290405	0.0412636
142	0xbd0461e6	-0.032319926
143	0x3d8c669e	0.0685551
144	0x3ced900d	0.028999353
145	0x3d8d2ba8	0.068930924
146	0xbbdb3b7a	-0.00669044
147	0xbc660725	-0.014039789
148	0x3d462c67	0.04838219
149	0xbae089e6	-0.0017130941
150	0xbd3f7858	-0.046745628
151	0xbbedb400	-0.0072541237
152	0x3d5750a7	0.05256715
153	0x3d7a25fc	0.06107138
154	0x3ce35a94	0.027753152
155	0xbc810dfb	-0.015753737
156	0xbbebd190	-0.0071966127
157	0x3c9354c7	0.01798476
158	0xbd658b57	-0.056041088
159	0xbd605bbe	-0.054774992
160	0x3d046075	0.03231855
161	0x3d38c757	0.04511198
162	0xbd080d6b	-0.03321592
163	0xbd55885b	-0.05213199
164	0x3d580c39	0.05274603
165	0xbd618b6f	-0.055064615
166	0xbd3289c1	-0.043588404
167	0x3c5a3a0c	0.0133195035
168	0xbd80651b	-0.06269284
169	0x3d3bc8c8	0.045845777
170	0x3d953fc7	0.07287555
171	0x3b83ef93	0.004026362
172	0x3b9a6780	0.004712045
173	0xbc925a70	-0.01786539
174	0xbcebcd90	-0.028784543
175	0xbd616203	-0.055025112
176	0xbd65c573	-0.056096505
177	0xbd1bfb89	-0.03808168
178	0xbd248494	-0.0401655
179	0x3ce8504e	0.028358605
180	0x3c62fa45	0.013853614
181	0xbd57d8a8	-0.052696854
182	0xbca4d1e9	-0.020119624
183	0xbd5cd5c9	-0.05391482
184	0xbc2d38d7	-0.010572634
185	0x3d6fc677	0.05853888
186	0x3d4e929f	0.050432798
187	0xbc8dd354	-0.017312683
188	0x3c3fd599	0.0117086405
189	0x3c67126e	0.014103515
190	0x3cd521a4	0.026017018
191	0x3d9d9c75	0.076958574
192	0x3d6ea465	0.058262248
193	0xbcaa14af	-0.020761816
194	0x3d3544e9	0.04425517
195	0x3bc66947	0.0060550305
196	0x3d560f7f	0.052260872
197	0xbd670163	-0.056397807
198	0x3d8aa45b	0.067696296
199	0x3d93dc70	0.072197795
200	0x3c526687	0.012841827
201	0x3be3c62f	0.0069511156
202	0xbc84b03d	-0.016197318
203	0xbcd7de1f	-0.026351033
204	0x3c6f0f4e	0.014591051
205	0x3d580862	0.05274237
206	0xbc69ac41	-0.01426226
207	0xbd80d60c	-0.06290826
208	0xbd39ef1d	-0.04539405
209	0xbd46e7ce	-0.04856091
210	0x3cde89ca	0.027165312
211	0x3bd17e86	0.0063932566
212	0x3d00f4b4	0.031483367
213	0xbc4be385	-0.012444382
214	0xbd4124a1	-0.047154073
215	0xbd00fbc3	-0.0314901
216	0xbc8ab0f8	-0.016930088
217	0xbcc7ef95	-0.024406234
218	0xbc9aa54c	-0.018877648
219	0x3d2c1360	0.042010665
220	0x3d341800	0.0439682
221	0xbda2efb0	-0.07955873
222	0x3d463f51	0.048400227
223	0xbd8a94da	-0.067666724
224	0xbd5dbbd1	-0.054134194
225	0xbd862f2f	-0.06551968
226	0xbcf18033	-0.029480075
227	0x3d22a4dc	0.039708003
228	0xbc8e51d6	-0.017373007
229	0x3d1e5ea9	0.038664494
230	0xbd526048	-0.051361352
231	0x3d5d9c9d	0.054104436
232	0xbd9aa30a	-0.075506285
233	0xb9da4b94	-0.0004163651
234	0x3d0afd6d	0.033933092
235	0x3cbc2fcc	0.02297201
236	0x3cf3c3c9	0.029756444
237	0x3d0857da	0.033286907
238	0xbce01840	-0.027355313
239	0xbd7bc7e1	-0.061469916
240	0x3d46adad	0.048505474
241	0x3cc10c96	0.023565572
242	0x3c235791	0.009969608
243	0x3c30abf8	0.010783188
244	0xbd9df3a5	-0.07712487
245	0xbd2f74ec	-0.042836115
246	0xbda584af	-0.08081948
247	0x3cd714a8	0.026254967
248	0xbd5159dc	-0.051111087
249	0x3d52d228	0.051469952
250	0x3c5feeb1	0.013667748
251	0x3d43f961	0.047845248
252	0xbd24392c	-0.040093586
253	0xbd84340f	-0.06455242
254	0x3ce52909	0.027973669
255	0xbda18673	-0.07886972

fc1.bias f4 [128]
0	0xbcb192fa	-0.02167653
1	0x3d260295	0.040529806
2	0xbd899a33	-0.06718864
3	0xbc4eb5ef	-0.012616619
4	0x3abf56ac	0.0014597974
5	0x3b396f79	0.0028295203
6	0xbcf7cca6	-0.030248951
7	0xbc3e1f76	-0.011604181
8	0xbd3825b6	-0.04495784
9	0xbd800d18	-0.062524974
10	0x3d696286	0.056978725
11	0x3d84d251	0.06485427
12	0x3d61e63c	0.05515121
13	0x3c4e4806	0.012590414
14	0xbd673e7b	-0.05645607
15	0xbd907391	-0.070532925
16	0x3cb2bfdc	0.021820001
17	0xbd81aac4	-0.06331399
18	0x3c8a19bd	0.016857976
19	0x3c51271d	0.012765673
20	0xbcf3e359	-0.029771494
21	0x3d249f1b	0.040190797
22	0x3d54c449	0.051945005
23	0x3d76a2f7	0.06021401
24	0xbd33d24c	-0.043901727
25	0xbcee728b	-0.029107353
26	0x3d83756c	0.06418881
27	0x3d81f200	0.06344986
28	0x3c743d51	0.014907197
29	0x3cfbc300	0.030732632
30	0xbd879815	-0.06620804
31	0x3d49d4aa	0.049275078
32	0xbd0432a2	-0.03227485
33	0xba3d4d00	-0.0007221252
34	0xbc04abae	-0.008097572
35	0x3d8f010f	0.06982624
36	0x3d477f18	0.04870519
37	0xbd7e7622	-0.06212438
38	0xbcb7ecce	-0.022451784
39	0x3d0c447a	0.03424499
40	0xbd70c0ba	-0.05877755
41	0x3d080c8f	0.0332151
42	0xbd0eaebc	-0.03483461
43	0x3d69a4d7	0.05704197
44	0x3d465f67	0.048430827
45	0x3d50abb2	0.05094499
46	0xbc7d1b10	-0.015448347
47	0xbc9e08af	-0.01929125
48	0xbd64a646	-0.055822633
49	0xbd069964	-0.03286113
50	0xbd60d8cd	-0.054894257
51	0x3d8d33c4	0.06894639
52	0xbc962278	-0.018326983
53	0x3cc50bfa	0.024053562
54	0xbd628bf1	-0.05530924
55	0xba05553c	-0.0005086248
56	0x3cbd3f9a	0.023101617
57	0xbd23671c	-0.039893255
58	0xbd8c7599	-0.068583675
59	0xbba5cbb1	-0.0050596823
60	0x3bf3b3f2	0.0074372226
61	0x3c973f65	0.018462846
62	0xbc551f7d	-0.013007996
63	0x3cce823d	0.025208587
64	0x3cd6ba6c	0.02621194
65	0xbca0b1d3	-0.019616043
66	0xbc14677e	-0.009057878
67	0x3d6fe6a4	0.058569565
68	0xbd8de341	-0.06928111
69	0x3d869f0c	0.065733045
70	0x3cfea6c5	0.031085381
71	0x3d4f79b3	0.05065317
72	0xbd19b566	-0.03752651
73	0xbd3309f2	-0.043710656
74	0x3cc79761	0.024364175
75	0xbc56dd9a	-0.013114357
76	0x3d72e01d	0.059295762
77	0x3d804430	0.06263006
78	0xbc40c181	-0.011764885
79	0xbd0b0509	-0.03394035
80	0x3b6ca32a	0.0036107996
81	0x3bc09077	0.0058765966
82	0x3cb5866a	0.02215882
83	0x3d59e7a5	0.05319943
84	0xbbbed255	-0.0058234134
85	0xbad10cf1	-0.0015949291
86	0x3c8179e2	0.015805189
87	0x3d5dde62	0.05416716
88	0xbcbf78d5	-0.023373047
89	0x3d4a75aa	0.04942862
90	0xbd213c59	-0.039364193
91	0x3d6a5616	0.057211004
92	0xbc22a661	-0.009927363
93	0x3cd49717	0.025950952
94	0xbd196161	-0.037446383
95	0xbd79279a	-0.060828783
96	0x3c9775b5	0.018488744
97	0x3b5ad914	0.0033393549
98	0x3c50852e	0.012727065
99	0x3d12ea3c	0.035867915
100	0x3d56dc4a	0.052456178
101	0xbd4e39e0	-0.050348163
102	0xbd004377	-0.03131434
103	0xbcdc7416	-0.026910823
104	0xbc187442	-0.009305062
105	0xbc3f5fdf	-0.011680572
106	0xbccadeff	-0.024764536
107	0x3d43dcf2	0.04781813
108	0xbc9f7484	-0.019464739
109	0x3d6ceae1	0.057841185
110	0xba3855cd	-0.0007031828
111	0xbd8d3de2	-0.06896569
112	0xbd4db31e	-0.050219648
113	0xb6fccc24	-7.5339503e-06
114	0xbd17caf2	-0.037058778
115	0x3d75e9fa	0.06003759
116	0xbcb6669b	-0.022265723
117	0xbcd5f308	-0.026116863
118	0xbd86c792	-0.06581034
119	0xbb85f6c5	-0.004088255
120	0x3d04971c	0.03237067
121	0x3d73b2b1	0.059496585
122	0xbc9978d7	-0.018734379
123	0xbc3432e0	-0.010998458
124	0xbba989b2	-0.0051738853
125	0xbb180318	-0.0023195203
126	0xbcfb95b4	-0.030711032
127	0xbcb7f053	-0.022453463

bn1.weight f4 [128]
0	0x3f7e1a19	0.9925857
1	0x3f806618	1.0031157
2	0x3f815978	1.0105429
3	0x3f7f4a3b	0.9972264
4	0x3f7f18cd	0.9964722
5	0x3f7ed7ee	0.9954823
6	0x3f8112ea	1.0083897
7	0x3f80926e	1.0044687
8	0x3f814896	1.0100276
9	0x3f81280b	1.0090345
10	0x3f8084cb	1.0040525
11	0x3f80249d	1.0011173
12	0x3f7d2708	0.9888768
13	0x3f7fadc6	0.9987453
14	0x3f8196c1	1.0124131
15	0x3f822e3d	1.0170361
16	0x3f7d78df	0.9901256
17	0x3f802dfe	1.0014036
18	0x3f7db456	0.99103296
19	0x3f804ffe	1.0024412
20	0x3f800061	1.0000116
21	0x3f808348	1.0040064
22	0x3f8093c1	1.0045091
23	0x3f80b000	1.0053711
24	0x3f7fdc38	0.999454
25	0x3f812df8	1.0092154
26	0x3f80b961	1.0056573
27	0x3f80471a	1.0021698
28	0x3f7fd43d	0.99933225
29	0x3f82a341	1.0206071
30	0x3f7e7883	0.99402636
31	0x3f80bf6e	1.005842
32	0x3f7d98f7	0.9906153
33	0x3f7faee2	0.99876225
34	0x3f808264	1.0039792
35	0x3f7b897b	0.98256654
36	0x3f7f600f	0.9975595
37	0x3f800b25	1.0003401
38	0x3f7e0aeb	0.9923541
39	0x3f7f19bd	0.9964865
40	0x3f80ecee	1.0072305
41	0x3f7fe544	0.99959207
42	0x3f7da472	0.9907905
43	0x3f7ed8a3	0.9954931
44	0x3f810500	1.0079651
45	0x3f7b4029	0.98144776
46	0x3f7e189d	0.99256307
47	0x3f80c24f	1.0059298
48	0x3f7dccc8	0.99140596
49	0x3f7eddd8	0.99557257
50	0x3f8477cb	1.0349058
51	0x3f7c7caa	0.9862772
52	0x3f80274d	1.0011994
53	0x3f7d7090	0.9899988
54	0x3f7d0f4c	0.98851466
55	0x3f7db6aa	0.9910685
56	0x3f7e766d	0.99399453
57	0x3f7e5806	0.99353063
58	0x3f808e66	1.0043457
59	0x3f7d44bf	0.98933023
60	0x3f7eac66	0.9948181
61	0x3f80b3af	1.0054835
62	0x3f79b23e	0.975376
63	0x3f7cbeef	0.9872884
64	0x3f803833	1.0017151
65	0x3f81b8d4	1.013453
66	0x3f7f10f5	0.9963525
67	0x3f7ddc85	0.9916461
68	0x3f7d14bf	0.9885978
69	0x3f7cf64f	0.9881334
70	0x3f7f3f90	0.99706364
71	0x3f809f3e	1.0048597
72	0x3f803554	1.0016274
73	0x3f82834f	1.0196322
74	0x3f7f3a7a	0.99698603
75	0x3f7e0a3e	0.9923438
76	0x3f7be3fe	0.98394763
77	0x3f80ba74	1.0056901
78	0x3f800c23	1.0003704
79	0x3f8093e5	1.0045134
80	0x3f8155f7	1.0104359
81	0x3f7ec66f	0.99521536
82	0x3f7f2dce	0.9967927
83	0x3f7c8091	0.98633677
84	0x3f806bc5	1.0032889
85	0x3f8244c1	1.0177232
86	0x3f80cf3b	1.0063242
87	0x3f7e7560	0.9939785
88	0x3f80c0ca	1.0058835
89	0x3f806063	1.0029415
90	0x3f7e50b4	0.99341893
91	0x3f7fe356	0.9995626
92	0x3f802314	1.0010705
93	0x3f7f4c65	0.99725944
94	0x3f7fe76e	0.9996251
95	0x3f81f4ef	1.0152873
96	0x3f7e1a77	0.9925913
97	0x3f7f59a7	0.99746174
98	0x3f8153f3	1.0103744
99	0x3f7dd469	0.9915224
100	0x3f8060c0	1.0029526
101	0x3f7f8d4c	0.99824977
102	0x3f82e32a	1.0225575
103	0x3f7eed8a	0.99581206
104	0x3f815b29	1.0105945
105	0x3f80a0e5	1.0049101
106	0x3f7b0323	0.9805166
107	0x3f80430d	1.0020462
108	0x3f7da800	0.9908447
109	0x3f7b3f36	0.9814333
110	0x3f7f12d6	0.99638116
111	0x3f7cb9f8	0.98721266
112	0x3f7ee4c8	0.9956784
113	0x3f7deb23	0.99186915
114	0x3f7d0a84	0.9884417
115	0x3f80ab3d	1.0052258
116	0x3f814cf9	1.0101615
117	0x3f802fe4	1.0014615
118	0x3f7e8631	0.9942351
119	0x3f80a7c1	1.0051194
120	0x3f828d1d	1.0199314
121	0x3f7f5c66	0.99750364
122	0x3f800e84	1.000443
123	0x3f7f43b1	0.99712664
124	0x3f80f00f	1.007326
125	0x3f7e8331	0.9941893
126	0x3f8130d1	1.0093023
127	0x3f7eaac9	0.9947935

bn1.bias f4 [128]
0	0xbbb12eb9	-0.005407181
1	0x3bc69e5f	0.00606136
2	0x3c14bc5b	0.009078111
3	0xba3efa24	-0.00072851987
4	0xbb70b949	-0.0036731532
5	0x3a9872a6	0.0011630848
6	0x3c21f46a	0.009884933
7	0x3bfc3091	0.0076962193
8	0x3c24a5fb	0.010049338
9	0x3ba233c2	0.0049500177
10	0x3c518e4e	0.012790276
11	0xbc63a920	-0.013895303
12	0x3a383bd4	0.0007027958
13	0xba628990	-0.0008641714
14	0x3c8de073	0.01731894
15	0x3b01f83a	0.0019831792
16	0xbaf90f31	-0.001900172
17	0x3b30548b	0.002690586
18	0x3bbec112	0.0058213556
19	0xbb4af3ca	-0.0030968064
20	0x3c9d4ef9	0.019202696
21	0x3a4c3a9f	0.00077907176
22	0x3abc99fe	0.0014389155
23	0x3bb6d413	0.0055794804
24	0x3b6793ea	0.0035335966
25	0xbb86d96e	-0.004115275
26	0x3be4e66d	0.0069854767
27	0xbb19f024	-0.0023489082
28	0xbbbdcdab	-0.00579234
29	0xbbb3498b	-0.0054714135
30	0x3b3c930d	0.0028774173
31	0x3b158e52	0.0022820425
32	0xba6ccc13	-0.0009033095
33	0xb91a01aa	-0.00014687204
34	0x3c2c2fbd	0.010509429
35	0xbbe75598	-0.007059764
36	0xbc8a9946	-0.01691879
37	0x3b8f154a	0.0043665515
38	0xbbca1382	-0.0061668763
39	0x3ab7d517	0.0014025298
40	0xbc417586	-0.011807805
41	0x3bfbaaa8	0.007680256
42	0x3b076fed	0.0020666078
43	0x3bf49b8d	0.007464832
44	0x3c3e83de	0.011628119
45	0xbc5ca598	-0.013467215
46	0x3c3664bf	0.011132418
47	0x3c0c6a2d	0.008570236
48	0xba9b582b	-0.0011851838
49	0xb98ef18e	-0.00027264323
50	0x3bf955d8	0.0076091103
51	0xbc6d5e57	-0.014487824
52	0xb88cd328	-6.715051e-05
53	0x3c01058c	0.007874858
54	0xbbf24023	-0.0073928996
55	0xbcf2f52d	-0.029657925
56	0xb84be57a	-4.861269e-05
57	0xbbce0d3f	-0.0062882
58	0xbb395cc4	-0.0028284052
59	0xbc3f651f	-0.011681824
60	0xbb06db49	-0.0020577481
61	0xba5d8893	-0.0008450832
62	0xbc951d7a	-0.018202532
63	0xbbf0b9c3	-0.0073463633
64	0xbc32f39c	-0.010922339
65	0x3c584eb3	0.013202357
66	0x3afc2f42	0.0019240158
67	0x3a9a3212	0.001176419
68	0xbc123eb5	-0.008926083
69	0xbbc45b84	-0.005992355
70	0x3c5364f4	0.012902487
71	0x3bf9d0c0	0.007623762
72	0x3c455da5	0.012046252
73	0x3cedd537	0.029032333
74	0xbb0ef6cd	-0.0021814585
75	0xbb82e656	-0.0039947433
76	0xbc8c0417	-0.017091794
77	0x3bcd27a4	0.006260829
78	0xbb0d3410	-0.0021545924
79	0x3a331152	0.0006830889
80	0xbb4c9f82	-0.0031223004
81	0x3b709c48	0.0036714245
82	0x3bebfcd7	0.0072017717
83	0xbb599d9f	-0.0033205522
84	0x3a7195f5	0.0009215766
85	0x3b5d13bb	0.0033733684
86	0x3c194f1f	0.009357243
87	0x3ba485ae	0.0050208187
88	0x3c17ce9a	0.009265566
89	0x3c5c3241	0.013439716
90	0xbb3cea80	-0.0028826296
91	0x3a0e3999	0.0005425453
92	0xb90077e5	-0.00012251695
93	0x3b5a2b8e	0.003329012
94	0x3a8603f8	0.0010224571
95	0x3bcfe096	0.0063439114
96	0xbc3d5306	-0.011555439
97	0xba16c6e7	-0.00057516847
98	0x3c7be3c2	0.015374126
99	0xbc6da030	-0.014503524
100	0x3b43123e	0.0029765512
101	0xbb832f3a	-0.0040034326
102	0x3b61bd94	0.0034445273
103	0xbb973277	-0.00461417
104	0x3c2cf837	0.010557226
105	0x3c031d5c	0.008002605
106	0xbbe096dd	-0.006853922
107	0xbc5fd33f	-0.013661205
108	0xbb76cac8	-0.0037657488
109	0xbbe0568e	-0.0068462556
110	0xba2d16f3	-0.0006602846
111	0x3aa014ed	0.0012213268
112	0x39ce789e	0.0003938125
113	0xbbe31620	-0.0069301277
114	0xbbf678f2	-0.007521742
115	0x3c11ece5	0.008906578
116	0x3c7413a2	0.014897259
117	0xbc72e519	-0.014825129
118	0xbaddd6b4	-0.0016924948
119	0x3c6ace89	0.014331468
120	0xb9c95ada	-0.00038405397
121	0x3ab70a0d	0.0013964787
122	0xbb193141	-0.0023375305
123	0x3b35a220	0.0027715042
124	0x3affb2a6	0.0019508197
125	0xbc03794e	-0.008024527
126	0x3c14b7a0	0.009076983
127	0x3b968931	0.004593991

bn1.running_mean f4 [128]
0	0x494bdfe6	835070.4
1	0xc8edd689	-487092.28
2	0xc8a641d0	-340494.5
3	0xc96c494c	-967828.75
4	0x4945f183	810776.2
5	0xc8b02bf4	-360799.62
6	0xc808d015	-140096.33
7	0x492a6510	697937.0
8	0x4984f6d1	1.0892421e+06
9	0xc8fd392a	-518601.3
10	0xc8e6b992	-472524.56
11	0xc898f61e	-313264.94
12	0xc98e18e6	-1.1640608e+06
13	0xc93f5ad0	-783789.0
14	0x49062ca8	549578.5
15	0x485619ff	219239.98
16	0xc8f1cbf9	-495199.78
17	0x48b9cdea	380527.3
18	0xc8df6eda	-457590.8
19	0xc881870e	-265272.44
20	0x49876ecc	1.1094655e+06
21	0xc9024483	-533576.2
22	0xc8b92b64	-379227.12
23	0x4981fcc7	1.0648569e+06
24	0xc906e936	-552595.4
25	0xc8389c75	-189041.83
26	0x48be838b	390172.34
27	0x49217b6e	661430.9
28	0xc8cef5a1	-423853.03
29	0xc7cab574	-103786.91
30	0x49031788	536952.5
31	0xc8ef5d9e	-490220.94
32	0x47936276	75460.92
33	0x48e1aca3	462181.1
34	0xc98c7a3f	-1.1507919e+06
35	0xc75524b6	-54564.71
36	0xc78f820b	-73476.086
37	0xc932278f	-729720.94
38	0xc8ff6955	-523082.66
39	0x498dbaac	1.1610455e+06
40	0xc7edca5f	-121748.74
41	0x49a18da4	1.3234445e+06
42	0x4962635b	927285.7
43	0x495a772d	894834.8
44	0x4959ade6	891614.4
45	0xc8680a80	-237610.0
46	0xc8ef9cf2	-490727.56
47	0x490e040f	581696.94
48	0xc93511be	-741659.9
49	0x48d03656	426418.7
50	0xc86cd2da	-242507.4
51	0xc9357ecf	-743404.94
52	0xc8d171e9	-428943.28
53	0xc8b67cd4	-373734.62
54	0xc73bb972	-48057.445
55	0xc785b4b4	-68457.41
56	0xc93ee73d	-781939.8
57	0xc80d5c08	-144752.12
58	0xc8d98c24	-445537.12
59	0xc8e12687	-461108.22
60	0x4990460c	1.1818895e+06
61	0xc8844a4f	-270930.47
62	0x4901cf93	531705.2
63	0x4846e80b	203680.17
64	0xc9069685	-551272.3
65	0x49882b97	1.1155069e+06
66	0x4905ee3c	548579.75
67	0xc8a5ea76	-339795.7
68	0x479b8973	79634.9
69	0x4990c8b6	1.1860708e+06
70	0xc948329c	-820009.75
71	0xc9473806	-816000.4
72	0x48fd1b8c	518364.38
73	0x49afc6e7	1.4399649e+06
74	0xc94539b2	-807835.1
75	0xc9571a88	-881064.5
76	0x48bdf087	388996.22
77	0x4907ef32	556787.1
78	0xc7f6b978	-126322.94
79	0xc8f6d672	-505523.56
80	0xc8aa9986	-349388.2
81	0x4996021e	1.2288678e+06
82	0x49a1f6b3	1.3268064e+06
83	0xc88e7c2e	-291809.44
84	0x498b5eca	1.1417212e+06
85	0x487bc216	257800.34
86	0x48de8af9	455767.78
87	0xc95577cb	-874364.7
88	0x49aa719d	1.3962756e+06
89	0x492946e4	693358.25
90	0xc961d184	-924952.25
91	0x492545e0	676958.0
92	0x4905f782	548728.1
93	0xc95fb00c	-916224.75
94	0xc8a33972	-334283.56
95	0xc713cad0	-37834.812
96	0xc8e06dbd	-459629.9
97	0xc95982f3	-890927.2
98	0x499378b0	1.208086e+06
99	0xc841e90e	-198564.22
100	0xc8f297d0	-496830.5
101	0x484325b5	199830.83
102	0xc707a8e0	-34728.875
103	0xc9335893	-734601.2
104	0x4948d638	822627.5
105	0x490ae5ff	568927.94
106	0xc8527954	-215525.31
107	0xc8a9afdf	-347518.97
108	0x49669907	944528.44
109	0xc9376170	-751127.0
110	0x491a5ddc	632285.75
111	0x49554035	873475.3
112	0xc8d6e001	-440064.03
113	0xc96d21fd	-971295.8
114	0xc98c6bd5	-1.1503306e+06
115	0x49173148	619284.5
116	0x4947f72f	819058.94
117	0xc8b687b9	-373821.78
118	0xc92daf12	-711409.1
119	0x498ebdfb	1.1693434e+06
120	0xc8167d71	-154101.77
121	0x492e4346	713780.4
122	0xc65df45f	-14205.093
123	0xc8f33f3f	-498169.97
124	0xc91098a6	-592266.4
125	0xc8dc637e	-451355.94
126	0x48cd9c9d	421092.9
127	0x499fd36b	1.3092934e+06

bn1.running_var f4 [128]
0	0x52f8b91a	5.341287e+11
1	0x523c5c6d	2.0225112e+11
2	0x51a2afd9	8.734187e+10
3	0x532d3da6	7.440636e+11
4	0x52cf3b86	4.4502843e+11
5	0x51a42a3c	8.81354e+10
6	0x50771e35	1.6583808e+10
7	0x52e2ffb9	4.8747646e+11
8	0x5355e6db	9.1870115e+11
9	0x5224bcc8	1.7688547e+11
10	0x522ab52f	1.8329605e+11
11	0x517848ea	6.664845e+10
12	0x538dfb7f	1.2196196e+12
13	0x53084bf0	5.853896e+11
14	0x526a81d9	2.518002e+11
15	0x513cd7fe	5.069235e+10
16	0x521ea37f	1.7033696e+11
17	0x51daf19d	1.1754456e+11
18	0x527e9d7f	2.7339101e+11
19	0x515277c1	5.6497017e+10
20	0x533bb080	8.0612006e+11
21	0x522ea66c	1.875291e+11
22	0x51b2ab7b	9.592264e+10
23	0x533f63f4	8.220157e+11
24	0x527eb9ab	2.7350917e+11
25	0x50db3810	2.9423075e+10
26	0x51bd70e8	1.0170538e+11
27	0x52a689c7	3.5763805e+11
28	0x51ea932b	1.2593643e+11
29	0x5089677e	1.8442088e+10
30	0x523c9a15	2.0250973e+11
31	0x52308791	1.8954717e+11
32	0x514cfb8f	5.502461e+10
33	0x521561c8	1.6039766e+11
34	0x5370b056	1.0337506e+12
35	0x514b5bbb	5.4588584e+10
36	0x5003cd1e	8.845031e+09
37	0x5304ce71	5.703992e+11
38	0x5258a2c9	2.32611e+11
39	0x536499b8	9.818315e+11
40	0x50c3f772	2.630219e+10
41	0x53857c81	1.146639e+12
42	0x530117f2	5.544525e+11
43	0x52f28b1d	5.20858e+11
44	0x5311a82c	6.255917e+11
45	0x5129b671	4.5556896e+10
46	0x529abee3	3.3231376e+11
47	0x5272cabf	2.606959e+11
48	0x52cc0131	4.3809666e+11
49	0x52136a2d	1.5828538e+11
50	0x5125c8b6	4.450231e+10
51	0x52b35235	3.8508918e+11
52	0x520260dc	1.399927e+11
53	0x51b247f4	9.571392e+10
54	0x51a0b23a	8.6273114e+10
55	0x507a3410	1.6790864e+10
56	0x52fa4324	5.3743413e+11
57	0x50dc4dc4	2.9568672e+10
58	0x51f652a8	1.3224359e+11
59	0x5225b6ef	1.7793468e+11
60	0x5372647d	1.041068e+12
61	0x51436fcb	5.2462137e+10
62	0x52400d5e	2.062145e+11
63	0x5143ac31	5.252547e+10
64	0x523f7dca	2.0561229e+11
65	0x534c99de	8.787548e+11
66	0x523cb2d3	2.026135e+11
67	0x5269b555	2.509424e+11
68	0x501a694a	1.0362366e+10
69	0x5361ea02	9.7029364e+11
70	0x53277b2f	7.193262e+11
71	0x53177e9e	6.5066435e+11
72	0x52351a28	1.9445698e+11
73	0x53a391b0	1.4050478e+12
74	0x52f9365a	5.3517936e+11
75	0x53298393	7.280569e+11
76	0x51fbf820	1.35274955e+11
77	0x525e58c8	2.3874306e+11
78	0x50a26cf5	2.1800397e+10
79	0x5219f37a	1.6530371e+11
80	0x51954eef	8.01593e+10
81	0x536717fc	9.9253984e+11
82	0x53860ad4	1.1514146e+12
83	0x51c13271	1.0372187e+11
84	0x534ec681	8.880936e+11
85	0x51420ea1	5.209182e+10
86	0x52020fc3	1.3965255e+11
87	0x532d6fb7	7.449036e+11
88	0x53a4c324	1.4152971e+12
89	0x5295e00f	3.218546e+11
90	0x53418ad9	8.3125817e+11
91	0x52a8d7db	3.6258798e+11
92	0x525bbbc7	2.3593705e+11
93	0x53051703	5.716167e+11
94	0x518b799a	7.488007e+10
95	0x506a4dd7	1.5723879e+10
96	0x520d62b4	1.5181159e+11
97	0x532186ad	6.937492e+11
98	0x5376acea	1.059463e+12
99	0x5104fb84	3.5697213e+10
100	0x523a1eac	1.9984463e+11
101	0x511cd195	4.2095694e+10
102	0x5038f4e4	1.2412228e+10
103	0x52a8a776	3.6218202e+11
104	0x52ed7973	5.099724e+11
105	0x52442ac4	2.1063277e+11
106	0x521f46b2	1.7102147e+11
107	0x519cab26	8.411079e+10
108	0x530e8ff4	6.123005e+11
109	0x52c89e0a	4.3082246e+11
110	0x52801ac9	2.751026e+11
111	0x52f4beb5	5.2558578e+11
112	0x528aa3d7	2.9772713e+11
113	0x53159a0b	6.4253454e+11
114	0x536af1ae	1.00907706e+12
115	0x527bf6a7	2.7054373e+11
116	0x52d7ab98	4.6314842e+11
117	0x51afb026	9.432182e+10
118	0x52c2062c	4.166636e+11
119	0x53750269	1.0523074e+12
120	0x50f7dfbe	3.3269084e+10
121	0x52a6faf8	3.5858756e+11
122	0x501442fe	9.949673e+09
123	0x5223b92c	1.7579658e+11
124	0x525cb447	2.3697934e+11
125	0x524ddad6	2.2103494e+11
126	0x522c610a	1.850906e+11
127	0x5392e6a5	1.2618696e+12

fc2.weight f4 [128, 128]
0	0xbc0a05ee	-0.008424265
1	0x3db1d433	0.08683052
2	0xbd2db6a2	-0.0424105
3	0xbd2db3fd	-0.04240798
4	0xbce16f31	-0.02751884
5	0xbda619c9	-0.08110387
6	0xbbb779b8	-0.005599227
7	0x3b83ebd7	0.004025917
8	0x3c033e06	0.008010393
9	0x3d6ddf79	0.05807445
10	0xbdb85d5c	-0.09002182
11	0x3d73d304	0.059527412
12	0xbd9eab6a	-0.077475384
13	0x3cb803e5	0.022462795
14	0xbdb940f2	-0.090455905
15	0xbd631788	-0.055442363
16	0x3d79c07d	0.060974587
17	0x3d317346	0.043322824
18	0xbbe21b4f	-0.006900228
19	0x3c9eeac1	0.019399049
20	0x3d787a77	0.060663667
21	0x3d282312	0.04104907
22	0x3d6ae665	0.057348628
23	0xbd6b9d3f	-0.05752301
24	0xbd49521c	-0.04915057
25	0xbd4b1602	-0.049581535
26	0xbca4839a	-0.020082284
27	0x3c10d9ba	0.008840973
28	0x3d14007c	0.036133274
29	0xbd2d0aa9	-0.042246494
30	0xbcdd71d3	-0.027031815
31	0x3d55436b	0.052066248
32	0xba8a1dd1	-0.001053745
33	0x3d063793	0.032767843
34	0xbdbfcf7e	-0.09365748
35	0xbd9b6e00	-0.0758934
36	0x3cfab670	0.030604571
37	0x3d9fa36e	0.077948436
38	0xbc16cfd1	-0.009204821
39	0x3d35dc12	0.04439933
40	0xbd78a0dc	-0.060700282
41	0xbab37f44	-0.0013694544
42	0xbd8f07fd	-0.069839455
43	0xbc76284a	-0.015024254
44	0x3c7b384a	0.015333245
45	0xbcc5dc6b	-0.024152955
46	0x39b5ad63	0.00034652193
47	0x3d277d7e	0.040891163
48	0x3d4329a5	0.047647137
49	0x3db482b0	0.08813989
50	0x3c9cb647	0.019129885
51	0x3d9d60ec	0.07684502
52	0xbd4fff21	-0.05078042
53	0xbda799c2	-0.08183624
54	0x3ce5c84d	0.028049612
55	0xbdab76dd	-0.08372281
56	0xbc81f08d	-0.015861774
57	0x3c76e834	0.01507001
58	0xbd394948	-0.045235902
59	0x3d438962	0.04773844
60	0x3d4db21d	0.05021869
61	0x3d040b0d	0.0322371
62	0x3dba78fa	0.09105106
63	0xbd62721d	-0.05528461
64	0x3d8838c4	0.06651452
65	0xbd994f5d	-0.074858405
66	0x3d49a519	0.049229715
67	0x3d2ddf6b	0.042449396
68	0xbc708916	-0.014681121
69	0x3cf202b7	0.02954231
70	0x3d8dab83	0.06917479
71	0x3d674f67	0.05647221
72	0xbbe0171f	-0.0068386937
73	0xbc8ea950	-0.017414719
74	0x3da09cd9	0.07842416
75	0xbd212029	-0.03933731
76	0x3b7c1d13	0.0038469478
77	0xbd5442a2	-0.05182136
78	0x3c4c1bea	0.012457827
79	0xbda826ac	-0.08210501
80	0xbd7b9cb0	-0.061428726
81	0xbca269c2	-0.01982582
82	0xbc195ada	-0.00936004
83	0x3cdfd115	0.027321378
84	0xbd8ef7f8	-0.0698089
85	0xbd51fc7e	-0.051266186
86	0x3cf82eb3	0.030295705
87	0x3d8e371d	0.06944106
88	0x3cf5a48f	0.029985694
89	0x3c68fafd	0.0142199965
90	0x3d973af7	0.073842935
91	0x3c9f4ee7	0.019446803
92	0xbd9f9277	-0.07791608
93	0xbcb1d274	-0.021706797
94	0xbd5815be	-0.05275511
95	0xbdfb626b	-0.12274631
96	0x3d1207de	0.035652034
97	0x3c2575ba	0.010098869
98	0xbd0a2b43	-0.033732664
99	0xbd8a6d0d	-0.06759081
100	0x3d9fe8a4	0.078080446
101	0x3d727e5a	0.05920253
102	0xbd8ed9e8	-0.06975156
103	0x3d3bc7ab	0.045844715
104	0xbd02970d	-0.031882335
105	0xbd798e3f	-0.060926672
106	0xbd13bec3	-0.036070596
107	0x3d2c3654	0.042044
108	0x3ce7fe0b	0.02831938
109	0xbc16b5b4	-0.009198595
110	0xbb9c1863	-0.0047636493
111	0x3cfc3f68	0.030791953
112	0xbcb04256	-0.021516006
113	0xbd8bce63	-0.068264745
114	0x3d13eb95	0.03611334
115	0xbbe33789	-0.0069341105
116	0xbc4458e8	-0.0119840875
117	0x3d6bb02b	0.057541054
118	0x3dabd610	0.083904386
119	0x3d864744	0.065565616
120	0x3d986ae6	0.07442264
121	0x3c31508a	0.010822425
122	0x3d7f8beb	0.062389296
123	0xbd0fcab0	-0.035105407
124	0x3c16ed8c	0.009211909
125	0x3b49b2bd	0.0030776702
126	0xbd0f5786	-0.03499558
127	0xbd5a2c5b	-0.053264957
128	0x3d98886e	0.07447897
129	0x3d9a573f	0.07536172
130	0x3d4a3b12	0.04937274
131	0x3cb5d867	0.022197915
132	0x3d033c87	0.032040145
133	0xbd24bf79	-0.040221665
134	0xbcaf704e	-0.021415856
135	0xbd78ae73	-0.060713243
136	0xbd2c870c	-0.04212098
137	0x3d89dcb9	0.06731553
138	0x3a19913e	0.00058581296
139	0x3d91b770	0.07115066
140	0xbdb42135	-0.08795396
141	0x3b92682b	0.004467984
142	0xbd98394c	-0.074328035
143	0xbd58adf9	-0.05290029
144	0xbd150b8c	-0.036387965
145	0xbd494d7a	-0.049146153
146	0xbcabfbe3	-0.020994132
147	0x3d2ca265	0.04214706
148	0x3d5202d0	0.051272213
149	0xbd1e3442	-0.038624056
150	0x3b4c4f88	0.0031175334
151	0xbd923e77	-0.071408205
152	0x3d80b51d	0.062845446
153	0xbd4a2dd7	-0.049360123
154	0xbc49eaaa	-0.012324015
155	0xbd250819	-0.040290926
156	0x3d74946a	0.05971185
157	0x3befb60e	0.007315404
158	0x3db5676c	0.08857617
159	0x3d9c457d	0.07630441
160	0x3ceacf4d	0.028663302
161	0xbc6159dc	-0.013754334
162	0x3ade1fe0	0.0016946755
163	0xbb2555d5	-0.0025228162
164	0x3d9ec6c6	0.07752757
165	0xbd180ee6	-0.037123583
166	0xbd74e9f9	-0.059793446
167	0x3cbf4692	0.02334908
168	0xbdb044b2	-0.086068526
169	0x3bca0a5a	0.006165785
170	0x3d4206e6	0.04736986
171	0xbd842075	-0.06451503
172	0x3c6bbe7d	0.014388678
173	0xbd3faf93	-0.0467983
174	0x3c8f7a5f	0.017514406
175	0xbbd611a5	-0.006532865
176	0xbd708f6b	-0.058730524
177	0xbc81f428	-0.015863493
178	0x3d86d02d	0.06582675
179	0xbd70292d	-0.05863302
180	0x3d89569f	0.06705975
181	0xbcf8dc09	-0.030378358
182	0x3c430af7	0.01190447
183	0x3d9680a1	0.07348753
184	0xbd575c53	-0.05257828
185	0xbd80c1ef	-0.0628699
186	0x3db32efa	0.087491944
187	0x3c8f8d9d	0.017523581
188	0xbd51139d	-0.051044095
189	0x3db80bbb	0.089866124
190	0xbd690909	-0.056893382
191	0xbca08661	-0.019595327
192	0xbcc23a0c	-0.02370932
193	0xbb95e4ba	-0.0045743855
194	0xbd2c7bd7	-0.04211029
195	0xbd4f63d0	-0.050632298
196	0xbd2e9f90	-0.04263264
197	0x3c5bbe02	0.013412001
198	0x3c44b7ed	0.012006742
199	0xbdb6894b	-0.08912905
200	0xbd9ff26d	-0.07809911
201	0x3d16f1bc	0.03685163
202	0x3da3c03d	0.07995651
203	0xbc95b43a	-0.018274415
204	0xbd233032	-0.039840885
205	0x3d516f07	0.051131275
206	0xbd523642	-0.051321276
207	0x3cdd3e76	0.027007323
208	0x3dad6657	0.084667854
209	0x3db2bb96	0.087271854
210	0x3d22546b	0.03963129
211	0x3c67312f	0.014110847
212	0x3cb2590d	0.021770978
213	0x3d3c07f5	0.045906026
214	0x3bb86f2d	0.0056284876
215	0x3cde690e	0.027149703
216	0x3a6f7ba1	0.00091355486
217	0xbdb49323	-0.088171266
218	0x3db187e7	0.086684994
219	0x3cacd130	0.021095842
220	0x3d42b876	0.047539197
221	0xbd4004fc	-0.046879753
222	0xbd38850a	-0.04504875
223	0xbd9681f8	-0.07349008
224	0x3b47d8ce	0.0030494216
225	0x3c41a931	0.0118201235
226	0xbd89ca00	-0.067279816
227	0xbd56538e	-0.052325778
228	0x3d385a47	0.04500797
229	0x3ce6c4fa	0.028170098
230	0x3cc7faba	0.024411548
231	0x3c6971f4	0.01424836
232	0xbd96b57e	-0.07358836
233	0x3cfc7eaa	0.030822117
234	0xbd2ca577	-0.042149987
235	0xbd51270c	-0.05106263
236	0x3db2ee87	0.08736902
237	0xbd4c461d	-0.049871553
238	0xbc908b8c	-0.017644666
239	0x3c708c3e	0.014681874
240	0x3d7b2707	0.061316516
241	0x3d5fd77f	0.054648872
242	0xbd1f3298	-0.03886661
243	0xbd81103c	-0.063019246
244	0xbdb07951	-0.08616889
245	0xbd02c3a5	-0.031924862
246	0x3dc65937	0.09684985
247	0x3d6baaa3	0.05753578
248	0xbcd95b11	-0.026532682
249	0x3c853d6b	0.016264638
250	0xbcdad02d	-0.026710594
251	0xbd746c51	-0.05967361
252	0x3c81f102	0.015861992
253	0xbd309b55	-0.043116886
254	0x3d568531	0.052373115
255	0x3d241428	0.040058285

fc2.bias f4 [128]
0	0x3d2bb67b	0.041922074
1	0x3bab1adf	0.005221709
2	0xbd8858fe	-0.06657599
3	0xbd60ae86	-0.05485394
4	0x3c8e4208	0.01736547
5	0x3c77cc7b	0.015124436
6	0x3dacf857	0.084458046
7	0xbd55c4b3	-0.05218954
8	0x3cd20d48	0.025641099
9	0xbcdac7c7	-0.02670659
10	0x3d86f11c	0.06588957
11	0xbdb57e1f	-0.08861946
12	0xbcd6f5ba	-0.026240218
13	0x3cc6788d	0.024227405
14	0xbbf66745	-0.007519635
15	0xbd51fa59	-0.05126414
16	0xbbb07550	-0.0053850785
17	0xbd9aa4c5	-0.075509585
18	0x3cb4e8b5	0.02208362
19	0x3d2f1067	0.042740252
20	0x3d99c55d	0.07508347
21	0xbccaebf4	-0.024770714
22	0xbd943359	-0.07236356
23	0x3cb7728f	0.022393493
24	0xbd22954f	-0.039693173
25	0x3d837917	0.064195804
26	0xbb58ce4e	-0.0033081952
27	0xbd53b649	-0.051687513
28	0x3daf9092	0.085724965
29	0xbd7dc13a	-0.061951853
30	0x3cb328d1	0.021870049
31	0x3d9ac663	0.075573705
32	0xbd3d17d2	-0.046165295
33	0xbcaa90a5	-0.020820925
34	0x3c24be6e	0.010055168
35	0xbd9ea21f	-0.07745766
36	0xbbd7ac71	-0.006581836
37	0xbd8097b8	-0.06278938
38	0x3d0bdacf	0.03414422
39	0xbd967f42	-0.07348491
40	0x3ca22a66	0.019795608
41	0x3d5821f5	0.05276676
42	0xbd8a21c2	-0.0674472
43	0xbc0c0b76	-0.008547654
44	0x3d871b4f	0.065970056
45	0x3d9d0c37	0.076683454
46	0x3d06af94	0.032882288
47	0x3cc7cde2	0.024390165
48	0xbcef5e30	-0.029219717
49	0xbd69ee94	-0.05711229
50	0x3daf8504	0.085702926
51	0x3d027f72	0.031859823
52	0xbd9981af	-0.07495438
53	0xbd82082c	-0.06349215
54	0xbd0e6969	-0.034768496
55	0xbc7fcd7c	-0.015612956
56	0x3d72b060	0.059250236
57	0xbc7dd88e	-0.015493525
58	0xbb14d96c	-0.0022712601
59	0xbc1670b6	-0.009182146
60	0x3c9e26b0	0.019305557
61	0x3d39a0a4	0.045319214
62	0xbdb685f0	-0.08912265
63	0xbd2c9f86	-0.04214432
64	0x3d9fd8d1	0.07805026
65	0xbd41dbb7	-0.047328677
66	0xbb07aca9	-0.0020702279
67	0x3bcb87d4	0.0062112603
68	0xbc00dcb6	-0.007865122
69	0xbbe564f1	-0.0070005585
70	0xbba532ff	-0.0050414796
71	0xbd23dbb2	-0.04000444
72	0x39a1516a	0.0003076897
73	0x3d812ca2	0.06307341
74	0x3d152458	0.036411613
75	0xbd73d583	-0.059529793
76	0xbd563c76	-0.052303754
77	0x3db29513	0.0871984
78	0x3c1f4c66	0.009722805
79	0x3d9ac169	0.07556421
80	0xbd88ec93	-0.06685748
81	0xbd83a4a6	-0.064278886
82	0xbd93b14a	-0.072115496
83	0xbd666725	-0.05625071
84	0xbdab6fc1	-0.08370925
85	0x3d9ab478	0.07553953
86	0x3cfca63e	0.03084099
87	0x3d3b760b	0.04576687
88	0xbd074eb1	-0.03303403
89	0x3d2fc702	0.042914398
90	0x3b9fc18f	0.004875369
91	0xbd57393b	-0.052544814
92	0xbd968df7	-0.073512964
93	0x3c10c8db	0.00883695
94	0xbcdae78f	-0.026721744
95	0xbdad8672	-0.08472909
96	0x3c89cb85	0.016820678
97	0x3d68a9ad	0.05680244
98	0xbda82484	-0.0821009
99	0xbd0fd380	-0.03511381
100	0x3d8e9d7b	0.06963631
101	0x3d847aef	0.0646876
102	0x3d9deab4	0.07710782
103	0x3da98a9f	0.08278393
104	0x3d2a163f	0.04152512
105	0xbd5d976b	-0.05409948
106	0xbd6ca25e	-0.057772033
107	0x3d9624b0	0.07331216
108	0x3bfcdbce	0.0077166324
109	0xbd03b5c0	-0.032155752
110	0xbd1809a1	-0.037118558
111	0xbdaea7ac	-0.085280746
112	0x3d9519e5	0.072803296
113	0xbd6cd16b	-0.057816904
114	0xbd9f147c	-0.07767579
115	0xbacd0593	-0.001564192
116	0x3dae1cf6	0.085016176
117	0x3b114548	0.002216654
118	0xbd09ff93	-0.033691
119	0xbdad4f0c	-0.084623426
120	0xbd4fafc5	-0.050704736
121	0xbcb97eb9	-0.022643434
122	0x3cce98fd	0.025219435
123	0xbd399153	-0.045304608
124	0xbd422338	-0.04739687
125	0xbd86c285	-0.065800704
126	0x3d897fc8	0.067138255
127	0xbca93683	-0.020655876

bn2.weight f4 [128]
0	0x3f7ad160	0.9797573
1	0x3f7e473f	0.9932746
2	0x3f81056e	1.0079782
3	0x3f7ed114	0.9953778
4	0x3f816c30	1.0111141
5	0x3f82bdf8	1.0214224
6	0x3f7fc5d7	0.99911255
7	0x3f823aeb	1.017423
8	0x3f80be87	1.0058144
9	0x3f812594	1.0089593
10	0x3f7ae9ed	0.9801319
11	0x3f7aecbe	0.9801749
12	0x3f80455d	1.0021168
13	0x3f802bd1	1.0013372
14	0x3f7b491d	0.98158437
15	0x3f7f3b86	0.997002
16	0x3f80d0b8	1.0063696
17	0x3f7c9932	0.9867126
18	0x3f821739	1.0163337
19	0x3f7bd470	0.9837103
20	0x3f81d520	1.0143166
21	0x3f7b3cd8	0.98139715
22	0x3f7da3ce	0.9907807
23	0x3f804ac6	1.0022819
24	0x3f7cb854	0.9871876
25	0x3f80aa7b	1.0052027
26	0x3f8116e9	1.0085117
27	0x3f7ecc9c	0.9953096
28	0x3f80f1a0	1.0073738
29	0x3f848ef0	1.0356121
30	0x3f8014cb	1.0006346
31	0x3f7d1448	0.9885907
32	0x3f7ffcef	0.9999532
33	0x3f8092e0	1.0044823
34	0x3f7df053	0.9919483
35	0x3f7db82c	0.9910915
36	0x3f7fe745	0.99962264
37	0x3f802b3a	1.0013192
38	0x3f80e7a6	1.0070693
39	0x3f837bd8	1.0272169
40	0x3f7e8815	0.99426395
41	0x3f82b2a0	1.0210762
42	0x3f81628f	1.0108203
43	0x3f7f332e	0.9968747
44	0x3f7fe943	0.99965304
45	0x3f7d6d28	0.98994684
46	0x3f7d31e3	0.98904246
47	0x3f8318f3	1.0241989
48	0x3f825e44	1.0185018
49	0x3f817e0e	1.0116594
50	0x3f80192b	1.0007681
51	0x3f80af55	1.0053507
52	0x3f7f62a1	0.9975987
53	0x3f7f87f0	0.998168
54	0x3f7cf761	0.9881497
55	0x3f7ce9f2	0.9879447
56	0x3f7a69ef	0.9781789
57	0x3f827819	1.0192901
58	0x3f7cfd0e	0.9882363
59	0x3f7d8cce	0.99042976
60	0x3f801b1c	1.0008273
61	0x3f7d844b	0.9902999
62	0x3f801169	1.0005313
63	0x3f7efa13	0.9960033
64	0x3f7e620a	0.99368346
65	0x3f7c77be	0.9862021
66	0x3f7d9c3b	0.99066514
67	0x3f7d1468	0.9885926
68	0x3f7cda9b	0.98771065
69	0x3f7d4f0f	0.9894876
70	0x3f803550	1.001627
71	0x3f7e74f1	0.9939719
72	0x3f7d4930	0.989398
73	0x3f8311de	1.0239828
74	0x3f7f5c4a	0.99750197
75	0x3f7fa7f5	0.9986566
76	0x3f7cfa98	0.98819876
77	0x3f7d7c12	0.9901744
78	0x3f829b39	1.020362
79	0x3f7cf2a2	0.9880773
80	0x3f8140f7	1.0097951
81	0x3f803d55	1.0018717
82	0x3f7dd37e	0.99150836
83	0x3f7cf67c	0.98813605
84	0x3f7b728a	0.9822165
85	0x3f7b9c45	0.98285323
86	0x3f80bec8	1.0058222
87	0x3f7f5ce9	0.99751145
88	0x3f81bf98	1.0136595
89	0x3f7d0209	0.9883123
90	0x3f7dda75	0.99161464
91	0x3f818b5f	1.0120658
92	0x3f7b336b	0.9812533
93	0x3f7d88da	0.99036944
94	0x3f805984	1.0027318
95	0x3f81c598	1.0138426
96	0x3f7c1e3d	0.9848364
97	0x3f8188a8	1.0119829
98	0x3f7fe680	0.9996109
99	0x3f802d72	1.0013869
100	0x3f7cbf75	0.9872964
101	0x3f817eab	1.0116781
102	0x3f800856	1.0002544
103	0x3f7dca24	0.9913657
104	0x3f80affc	1.0053706
105	0x3f7c5889	0.98572594
106	0x3f7ab4ac	0.97931933
107	0x3f7cf42c	0.98810077
108	0x3f7e6f30	0.9938841
109	0x3f81f8cc	1.0154052
110	0x3f8109f8	1.0081167
111	0x3f80ff59	1.0077926
112	0x3f7d1340	0.988575
113	0x3f7fbe1a	0.99899447
114	0x3f792f1d	0.97337514
115	0x3f7f084a	0.99622023
116	0x3f7caa6d	0.9869755
117	0x3f8248c5	1.0178457
118	0x3f824475	1.0177141
119	0x3f8229f9	1.0169059
120	0x3f801ce6	1.0008819
121	0x3f7c9563	0.98665446
122	0x3f7e2e0c	0.9928901
123	0x3f7e2367	0.9927277
124	0x3f809f10	1.0048542
125	0x3f80b452	1.0055029
126	0x3f806a92	1.0032523
127	0x3f811fd5	1.0087839

bn2.bias f4 [128]
0	0xba71c202	-0.000922233
1	0xbb9f57b6	-0.004862751
2	0x3b7a55f4	0.0038198205
3	0xbc94afec	-0.018150292
4	0x3ad0e4c7	0.0015937322
5	0x3c3275bc	0.010892328
6	0xbb823863	-0.003974007
7	0x3caae43c	0.020860784
8	0x3b9d361e	0.004797711
9	0x3cc4dca4	0.02403099
10	0xbcaf3797	-0.021388812
11	0xbca19c55	-0.019727865
12	0x3c808014	0.015686072
13	0x3ad16b2e	0.0015977377
14	0xbc4febb4	-0.012690473
15	0xba992731	-0.0011684654
16	0xbaf1c0cc	-0.0018444299
17	0xbafa4d54	-0.0019096532
18	0x3af74678	0.0018865606
19	0xbc0ee2c5	-0.008721058
20	0x3c82a7f9	0.015949236
21	0xbc36ad4d	-0.011149717
22	0x3c448c45	0.0119963335
23	0x3c139733	0.009008217
24	0x3ab6b985	0.0013940787
25	0x3bd206a9	0.0064094854
26	0xbbc4914b	-0.0059987656
27	0x3be051cb	0.006845688
28	0x3c40a355	0.011757691
29	0x3b113e7b	0.0022162485
30	0x3c33fb25	0.0109851705
31	0xb815ae31	-3.5686597e-05
32	0x3c1ea589	0.009683021
33	0x3cccab4d	0.024984026
34	0x3b558110	0.0032578148
35	0x3b730b24	0.0037085498
36	0x3c276a69	0.010218241
37	0x3ba580b2	0.005050742
38	0x3bcf623d	0.0063288496
39	0x3cb0a5c6	0.021563422
40	0x3b842b91	0.004033514
41	0x3c09dd96	0.008414647
42	0x3a71f5b1	0.0009230031
43	0x3b9fc1f7	0.0048754173
44	0xbc9568bb	-0.018238416
45	0xbb39f9dd	-0.002837769
46	0xbcc4b930	-0.024014086
47	0x3d00de8d	0.03146224
48	0x3c942fef	0.018089263
49	0x3bdc1843	0.0067167594
50	0x3cd54b25	0.026036808
51	0x3bf9cf31	0.007623576
52	0x3c38b200	0.011272907
53	0x3b3554b6	0.00276689
54	0x3bc861b8	0.0061151646
55	0xbc93f1cd	-0.018059636
56	0xbc324196	-0.010879895
57	0xb8df1060	-0.00010636519
58	0xbc6d01c0	-0.014465749
59	0xbc081d2f	-0.008307739
60	0x3b595631	0.0033162946
61	0x3b78404e	0.0037880125
62	0xbace8fb2	-0.0015759377
63	0x3c232045	0.009956424
64	0xbad426dd	-0.0016185899
65	0xbb9d1d74	-0.004794771
66	0xbb396d15	-0.0028293778
67	0xbbc4c992	-0.0060054744
68	0xbb128d96	-0.0022362224
69	0xbb528a36	-0.0032125837
70	0xbb9063fd	-0.004406451
71	0x3c62f00c	0.013851177
72	0xbb03a45c	-0.002008698
73	0x3caba5cd	0.020953083
74	0x3c8ea295	0.01741151
75	0xbc58b256	-0.013226112
76	0x3b34f07e	0.0027609165
77	0xbb1c750c	-0.0023873476
78	0x3c64accb	0.013957213
79	0x3b7f30f8	0.00389391
80	0x3bfab748	0.0076512434
81	0x3b883696	0.004156898
82	0xbc09bfbf	-0.008407532
83	0xbb602fec	-0.003420825
84	0xbbccfeaa	-0.0062559443
85	0xbb909cd7	-0.004413228
86	0x3c022e79	0.00794565
87	0x3b54c5b4	0.0032466473
88	0x3cba1d93	0.02271918
89	0xbb4b7e4d	-0.0031050623
90	0xbb26c7cc	-0.0025448678
91	0x3ce2023d	0.027588958
92	0xbc28fa0a	-0.01031352
93	0xbc5c0185	-0.013428097
94	0x3c87049f	0.016481696
95	0x3cacd228	0.021096304
96	0x3b28fdab	0.0025785964
97	0x3ce56815	0.028003732
98	0x3bfd656a	0.0077330368
99	0x3c71d776	0.014760843
100	0xbaf9d4ac	-0.0019060574
101	0x3c2931e4	0.010326836
102	0x3a87d6ec	0.0010363734
103	0xbc80b138	-0.015709504
104	0x3c86059d	0.016360098
105	0xbb1c93ed	-0.0023891882
106	0xbc3e349b	-0.011609222
107	0xbc1ed378	-0.009693973
108	0x3b77f4b4	0.0037835063
109	0x3beecc26	0.00728752
110	0xbc29c5ab	-0.010362069
111	0x3c99a1e2	0.01875395
112	0x3c328330	0.010895535
113	0x3ae964ff	0.0017806588
114	0xbcd72201	-0.026261332
115	0x3c071748	0.008245297
116	0xbc8dd320	-0.017312586
117	0x3c84ca33	0.016209697
118	0x3c570bdd	0.013125387
119	0x3c622103	0.013801816
120	0xbaa83869	-0.0012834194
121	0xba74cf55	-0.0009338756
122	0xbafa0607	-0.0019075283
123	0xbcd5cb36	-0.026097875
124	0x3bbcd73a	0.0057629617
125	0x3c26783d	0.010160503
126	0x3c7da40b	0.015481005
127	0x3b51935b	0.00319787

bn2.running_mean f4 [128]
0	0x3d749d1f	0.059720155
1	0xbc9aead7	-0.018910808
2	0xbeff5ee3	-0.4987708
3	0x3ef04726	0.46929282
4	0x3f078397	0.52935165
5	0xbc135dfc	-0.008994576
6	0xbe132fb4	-0.14373666
7	0x3d8279cd	0.06370888
8	0x3c9b09ee	0.018925633
9	0xbebb1141	-0.365366
10	0x3d718696	0.05896624
11	0x3e1d79bc	0.15378469
12	0xbdf78241	-0.12085391
13	0xbec0606c	-0.37573564
14	0xbda70837	-0.08155864
15	0xbe2cacde	-0.16862819
16	0xbf0afd2d	-0.54292566
17	0xbe217327	-0.15766583
18	0xbec477fa	-0.38372785
19	0x3ed5651f	0.41678712
20	0x3e6618ad	0.2247035
21	0xbccd7d5a	-0.025084186
22	0xbf50e292	-0.8159572
23	0xbe25c38c	-0.16187876
24	0x3d7a0e64	0.06104888
25	0x3ee48122	0.4462977
26	0x3cd6ebc3	0.026235467
27	0x3c3a6329	0.011376181
28	0xbdee0625	-0.11622266
29	0xbe642c94	-0.2228263
30	0xbe345cc4	-0.17613512
31	0x3e9e6980	0.30939865
32	0x3d8b79a2	0.06810309
33	0xbf3d35b4	-0.7391007
34	0xbe128786	-0.1430951
35	0xbe1d1ac6	-0.15342245
36	0xbee9bf78	-0.45653892
37	0x3ee21469	0.44156197
38	0xbd284511	-0.04108149
39	0x3e93aa95	0.2884108
40	0xba107351	-0.00055103475
41	0x3efe304b	0.4964622
42	0x3e50d502	0.20393756
43	0xbf37159e	-0.7151736
44	0x3dfd99be	0.123828396
45	0xbd2fc4f3	-0.042912435
46	0xbd9f0c25	-0.07765988
47	0xbeb64ed6	-0.35607022
48	0x3e11ad41	0.14226247
49	0xbf15bc5b	-0.5849053
50	0xbe25f784	-0.16207701
51	0xbf0724b0	-0.52790356
52	0xbedb5f57	-0.42846176
53	0xbecac6b1	-0.39604715
54	0xbecfe0f1	-0.40601304
55	0x3d6a3a3b	0.05718444
56	0xbdca6c48	-0.09883934
57	0x3dcfae33	0.10140648
58	0x3e38c0a8	0.18042243
59	0xbe1c1e66	-0.15245971
60	0xbdaf95d7	-0.085735016
61	0xbcb5eea5	-0.022208521
62	0x3e87e6cb	0.2654327
63	0xbe9636c2	-0.29338652
64	0xbe1ff343	-0.1562014
65	0xbeefc13f	-0.46827123
66	0xbeb33bcc	-0.3500656
67	0xbec1a7a3	-0.3782321
68	0x3edebb55	0.43502298
69	0xbe32788e	-0.174288
70	0xbf39cf35	-0.725818
71	0x3e3bf7d3	0.18356256
72	0xbec13976	-0.37739152
73	0xbebd4399	-0.36965635
74	0x3ca3c47d	0.019991154
75	0xbbfc9d2c	-0.007709166
76	0xbe223a7d	-0.15842624
77	0xbf27943d	-0.6546057
78	0xbd801cac	-0.06255469
79	0x3dcbdaac	0.09953818
80	0xbd0d5b16	-0.034510694
81	0x3e9811fa	0.29701215
82	0xbf15309f	-0.58277315
83	0x3de60e2c	0.11233172
84	0xbf0a006c	-0.53906894
85	0x3ecf22ec	0.4045633
86	0x3ea46760	0.3211012
87	0xbe1f73b3	-0.1557148
88	0x3e6291c6	0.2212592
89	0x3e40c6d8	0.18825853
90	0x3cfc9c98	0.030836388
91	0xbef3d6ee	-0.47624916
92	0xbd1e6101	-0.03866673
93	0x3dded8f9	0.10881228
94	0xbf72ea31	-0.948886
95	0x3e11734b	0.14204137
96	0x3e01a9e7	0.12662469
97	0x3dc36798	0.09541243
98	0xbebc7a28	-0.36811948
99	0xbef81f00	-0.4846115
100	0xbe10f494	-0.14155799
101	0x3ebe96ff	0.37224576
102	0x3ddea955	0.10872141
103	0x3df6de7b	0.120541535
104	0x3d911359	0.070837684
105	0xbf05ccc9	-0.522656
106	0x3e14b4e9	0.14522137
107	0xbe01a7d9	-0.12661685
108	0xbcea26d2	-0.028582964
109	0x3d9f1636	0.07767908
110	0x3c84dc86	0.016218435
111	0xbd8ad1f8	-0.067783296
112	0x3ad71f24	0.0016412479
113	0x3e5e74ec	0.2172429
114	0xbec9f402	-0.39443976
115	0xbe3b9b90	-0.18321061
116	0x3e7e9dc8	0.24864876
117	0xbd724743	-0.05914999
118	0xbe61070c	-0.21975344
119	0xbe988813	-0.29791316
120	0xbe1d426c	-0.15357369
121	0xbe8e7d16	-0.27829808
122	0x3eb2f890	0.34955263
123	0xbdacbfba	-0.084350064
124	0x3dfb6957	0.12275951
125	0xbf068b5e	-0.5255641
126	0x3f52113c	0.8205755
127	0x3e3899d0	0.18027425

bn2.running_var f4 [128]
0	0x3e518b37	0.20463262
1	0x3d3afa7a	0.04564903
2	0x3e1ecfce	0.15508959
3	0x3d9b7887	0.07591348
4	0x3d341b29	0.043971214
5	0x3cac64ae	0.021044102
6	0x3e110739	0.14162911
7	0x3efa059a	0.488324
8	0x3f324a07	0.69644207
9	0x3f95ae14	1.169375
10	0x3d9df3a2	0.07712485
11	0x3cf5e83b	0.030017963
12	0x3d48494b	0.048898023
13	0x3ce47394	0.027887143
14	0x3cf15e1f	0.029463826
15	0x3f231f4a	0.6371962
16	0x3df6a799	0.120436855
17	0x3eb3e865	0.3513824
18	0x3d431e10	0.04763609
19	0x3cb95054	0.022621311
20	0x3d072dfe	0.033002846
21	0x3e8df168	0.2772324
22	0x3ed12fa7	0.40856668
23	0x3d8b37a9	0.06797726
24	0x3e3ed8a5	0.18637331
25	0x3dbe6153	0.09295907
26	0x3cb39d2e	0.021925535
27	0x3df2a4a4	0.11847809
28	0x3e56e373	0.20985202
29	0x3c9de76d	0.019275391
30	0x3e5bb421	0.21455432
31	0x3dc86639	0.097851224
32	0x3ddc77ea	0.10765059
33	0x3f240a1c	0.64077926
34	0x3ed3d833	0.41375884
35	0x3ea90dd3	0.3301836
36	0x3f43da5e	0.76505077
37	0x3ee8ab7e	0.45443338
38	0x3d6ba9b4	0.05753489
39	0x3d774b41	0.060374502
40	0x3e275c72	0.16343859
41	0x3c409b3f	0.011755764
42	0x3d8f7a4a	0.07005747
43	0x3dba1ba4	0.09087303
44	0x3c41de17	0.0118327355
45	0x3ede4e7f	0.43419263
46	0x3d9e4be3	0.07729318
47	0x3e3856b4	0.18001825
48	0x3c5f46c7	0.0136277145
49	0x3dd011b0	0.101596236
50	0x3f222fc6	0.63354146
51	0x3ea643ac	0.32473505
52	0x3eeb95cb	0.4601272
53	0x3da953fe	0.08267973
54	0x3e2d8955	0.1694692
55	0x3eae69b2	0.34065014
56	0x3ec6834f	0.38772056
57	0x3e0574c3	0.13032822
58	0x3d8d6d7e	0.069056496
59	0x3c700ff3	0.01465224
60	0x3f4bac3c	0.79559684
61	0x3ecd5360	0.40102673
62	0x3d01085b	0.03150211
63	0x3e837edb	0.2568272
64	0x3e0b686c	0.13614053
65	0x3f2d76a9	0.67759186
66	0x3e0d7826	0.13815364
67	0x3c5e586b	0.013570885
68	0x3dce6a5a	0.10078879
69	0x3ecb0b73	0.39657173
70	0x3f5bde8e	0.85886467
71	0x3d9307f4	0.07179251
72	0x3ee5eb7d	0.44906226
73	0x3d35328f	0.04423767
74	0x3f244bc9	0.6417814
75	0x3dc2484f	0.09486448
76	0x3db5b4b7	0.08872359
77	0x3ceff7f6	0.029293042
78	0x3b876c4b	0.0041327826
79	0x3ef231a5	0.473035
80	0x3f57a648	0.842381
81	0x3d6c3ea7	0.057676937
82	0x3e82e6cb	0.25566706
83	0x3e611d39	0.21983804
84	0x3e8d63fc	0.27615345
85	0x3c92d08c	0.017921709
86	0x3da62a1f	0.08113503
87	0x3eacaaca	0.33724052
88	0x3e3ebba5	0.18626268
89	0x3e057f68	0.13036883
90	0x3d06f8a6	0.032951973
91	0x3e0ae2be	0.13563058
92	0x3f38f69a	0.72251284
93	0x3e741d07	0.23839198
94	0x3f64c22d	0.8935879
95	0x3d8ac91f	0.06776642
96	0x3defd669	0.11710817
97	0x3f2aa233	0.66653746
98	0x3f4fc394	0.81157804
99	0x3da1f1e6	0.079074666
100	0x3e30c454	0.17262393
101	0x3da532f8	0.08066362
102	0x3dc49fc2	0.09600784
103	0x3d486b20	0.048930287
104	0x3f0eed6a	0.55831015
105	0x3eb735a3	0.3578311
106	0x3e898138	0.268564
107	0x3d9a5020	0.07534814
108	0x3f462bcc	0.7741058
109	0x3d92eef9	0.07174487
110	0x3d7c3d47	0.061581876
111	0x3f6627b5	0.8990434
112	0x3e1a2b99	0.15055694
113	0x3ed2a31a	0.41140062
114	0x3c92bff1	0.01791379
115	0x3d00f791	0.031486098
116	0x3e036791	0.12832476
117	0x3ec653a8	0.387357
118	0x3d91a442	0.07111408
119	0x3da9e351	0.0829531
120	0x3e4b7f68	0.1987282
121	0x3cc1e518	0.02366881
122	0x3eb9bea0	0.36278248
123	0x3c048d92	0.008090394
124	0x3dd22fa9	0.10262997
125	0x3e316f2c	0.17327565
126	0x3eae3c8f	0.34030578
127	0x3dcedca9	0.10100681
