10_Models/Results_Chicago/WGANBR_Freeflow_discriminator_br_best.pth (torch, 78078 bytes, 13 tensors)

fc1.weight f4 [128, 2]
00000000: 83ce f4bb 0ad7 23bc b996 18bc 5368 e93a
00000010: d4b2 d13a 8a25 8fbb 289b 06bc c896 5dba
00000020: 01e0 223c 0ad7 23bc d198 bcbb 0ad7 23bc
00000030: 7be8 1b3c 0ad7 233c 7fd1 04bb b403 50ba
00000040: ce70 433a 2eab 94b9 6c6d 3fba 95d3 07ba
00000050: 273b 163c 0ad7 233c ea68 e7bb 5dd2 20bc
00000060: b744 0bbc 4c42 23bc 61dd 1bbc 0ad7 23bc
00000070: cd35 ee3b 0ad7 23bc d089 f9bb 7731 23bc
00000080: 4334 d8b9 acd8 9ebb 24ee c83b a091 d33b
00000090: d6ea 83ba 1804 d13a 0561 183c 0ad7 23bc
000000a0: e27d 163c 0ad7 23bc 74aa 233c 0ad7 23bc
000000b0: 227d a5bb 67ad 15bc 2760 da3b 7adb fb3b
000000c0: e74e a13b b6d0 bb3b 98e2 213c 0ad7 23bc
000000d0: 0ad7 23bc 945e 21bc 16cf 0dbc 7438 22bc
000000e0: 0327 983b 0ad7 23bc 8631 64bb 2280 f7ba
000000f0: b778 a1bb acae 01bc 2bf8 42bb ea40 e3ba
00000100: 0d98 0f3c 61c4 123c 2a12 193c 0ad7 233c
00000110: bac9 103c 0ad7 233c 898d 8b3b 5a44 b4bb
00000120: 17bc 1bbc 0ad7 23bc 6923 913a bb83 a0bb
00000130: 58b9 b53b 0ad7 23bc 8aee b2ba 0db3 7ebb
00000140: 7dae f939 dd7c 7bbb 26b2 793b f2bf d53b
00000150: 9a66 ef3b 6c65 21bc 02fc f0bb 0ad7 23bc
00000160: 158d c6bb d870 38bb 81e9 dd3b 9b7e 213c
00000170: a699 98bb 9e69 debb 374d ff3b 242e 233c
00000180: 3dce f73b d8bf 233c 7bd1 1b3c 97cf 21bc
00000190: c4e8 07bc 9d41 21bc 329f 183c 6853 1dbc
000001a0: 0ad7 23bc f37d 21bc 7be8 973b 0ad7 23bc
000001b0: 5ebc 7bbb f995 cdbb 16a5 ff3b 0ad7 23bc
000001c0: f091 d03b 629d 213c 50f9 0bbc 0ad7 23bc
000001d0: a266 0cbc ebe2 52bb ff61 f0bb 30a0 21bb
000001e0: 40bd d7bb 7be9 deba 2778 08bc 0ad7 23bc
000001f0: 1cef b0bb b752 ba39 8199 e3bb 0ad7 23bc
00000200: 7ff8 253b cb97 533a b381 183c 37fa 1fbc
00000210: fa3d fe3b 90a1 22bc 46bd fd3b 0ad7 23bc
00000220: 2a87 0fbc 8980 413b e554 01bc 46fb 1ebc
00000230: c8fb 123c 0883 21bc 8c28 0c3c 293b 21bc
00000240: 0ad7 23bc bf2f 21bc fedc b43b 0d16 713b
00000250: a0db cd3a bd89 debb d255 f3bb 9550 23bc
00000260: 4d94 0fbc c83c 23bc 9a64 063c 0ad7 23bc
00000270: c03b 1cbc 799d 843b 2668 07bb 8f8e 22bc
00000280: b0f0 17bc 0ad7 23bc b5cf 16bb 5b85 97bb
00000290: d7b8 f63b 2fee da3b 5eab e0bb 33e3 3dbb
000002a0: c363 17bc c190 2f39 64cf 173c 0ad7 23bc
000002b0: 6c6e 133c 0ad7 23bc ee9d 1d3c 0ad7 233c
000002c0: c7f6 fe3b 9ee5 1ebc 3a0a b83b 94fa 013c
000002d0: c2bd 99bb 0282 9ebb a5ee eabb c91a 78ba
000002e0: 50bf 893a c1b5 99bb 8246 c5bb ccae 1fbc
000002f0: d4a8 fbbb 8a05 1a38 bb9f d63b d172 1e3c
00000300: 41c5 f73b 4a81 20bc ddd6 1a3c 8738 203c
00000310: 6fbd 1abc 0ad7 23bc 0992 0b39 086a 9eba
00000320: 9c1b edbb 0ad7 23bc 0ad7 233c f019 213c
00000330: 4a90 123c db59 e33b eeab 4cbb 98ac b63a
00000340: cac8 023c fab7 1b3c e3d2 bbbb b797 76bb
00000350: 3ef7 033c 11c3 073c 453c be3b de0e 053c
00000360: f791 0a3c 9a06 1fbc b1c1 7dbb 0edc 22bc
00000370: 2662 07bc 90d1 23bc 17e9 f0bb 5686 1ebc
00000380: 0d58 17bc 0ad7 23bc ab5d d53b 4fe2 003c
00000390: c3ed 203c 0ad7 23bc 5c57 aabb 81b9 22bc
000003a0: a7b9 50bb 9d16 9d3b 09fc 1b3c 0ad7 23bc
000003b0: b256 e6bb 329a 1bbc 1f09 21bc 9bea a03b
000003c0: fd5d 113c 0ad7 23bc ba6e c93b 1576 7e3b
000003d0: f356 a03b 73d9 21bc 0d70 0e3c 77ce 21bc
000003e0: c452 883a dea7 073c 0ad7 233c f132 223c
000003f0: d165 27bb d2e4 dfbb 881e 393a 50bd 7dba
-0.007470907 -0.01 -0.009313279 0.001780758 0.001599873 -0.0043684887 -0.008215703 -0.0008452949
0.009941102 -0.01 -0.005755522 -0.01 0.009515877 0.01 -0.002026647 -0.0007935122
0.0007455469 -0.000283563 -0.0007302377 -0.00051813695 0.009169376 0.01 -0.0070620673 -0.0098157795
-0.00850027 -0.009964537 -0.00951323 -0.01 0.007269597 -0.01 -0.0076153055 -0.009960524
-0.00041237668 -0.0048476066 0.006131904 0.006456569 -0.0010064493 0.0015946655 0.009300475 -0.01
0.009185286 -0.01 0.00998937 -0.01 -0.0050503174 -0.009135581 0.0066642943 0.0076860758
0.004922736 0.0057316674 0.009880684 -0.01 -0.01 -0.009849209 -0.00865533 -0.009901155
0.0046433224 -0.01 -0.0034819557 -0.0018882791 -0.0049277204 -0.00791518 -0.002974997 -0.0017338071
0.008764279 0.008957953 0.00934271 0.01 0.008837158 0.01 0.0042588157 -0.005501312
-0.009505293 -0.01 0.0011073175 -0.004898516 0.0055457763 -0.01 -0.0013651412 -0.0038864047
0.00047622985 -0.0038373985 0.003810057 0.006523126 0.007305932 -0.009850841 -0.0073542604 -0.01
-0.0060592988 -0.0028143432 0.0067722206 0.009856845 -0.004656988 -0.006787493 0.007791187 0.009959731
0.0075624273 0.00999447 0.009510393 -0.009876153 -0.008295242 -0.009842304 0.009315299 -0.009602405
-0.01 -0.009856689 0.004635868 -0.01 -0.0038411836 -0.0062739816 0.007801662 -0.01
0.0063650534 0.009864183 -0.008543327 -0.01 -0.008569391 -0.003217871 -0.007335901 -0.002466213
-0.0065838397 -0.0017006838 -0.008329428 -0.01 -0.005399598 0.00035538312 -0.0069457893 -0.01
0.0025325117 0.000807163 0.009308266 -0.009764246 0.007758853 -0.009926215 0.0077435104 -0.01
-0.008760253 0.0029526076 -0.007893776 -0.009703463 0.008971162 -0.0098579 0.008554589 -0.009840765
-0.01 -0.009838044 0.0055195084 0.0036786825 0.0015705712 -0.006791322 -0.007426002 -0.009967943
-0.008763385 -0.009963222 0.008202696 -0.01 -0.00953573 0.0040470925 -0.0020661443 -0.009921684
-0.009273693 -0.01 -0.0023011987 -0.0046240515 0.007529359 0.0066812257 -0.006856366 -0.0028974533
-0.009240094 0.00016743226 0.009265754 -0.01 0.008998495 -0.01 0.009620173 0.01
0.007780883 -0.0096983 0.0056164535 0.007933278 -0.0046918103 -0.0048372755 -0.007169562 -0.00094644405
0.0010509286 -0.004690856 -0.006020368 -0.009746265 -0.007680038 3.672162e-05 0.006549803 0.009670929
0.0075613563 -0.00979645 0.009450641 0.009779102 -0.009444579 -0.01 0.00013310475 -0.0012086043
-0.0072359573 -0.01 0.01 0.009832844 0.008945534 0.006938202 -0.0031230408 0.0013936935
0.007982442 0.009504313 -0.0057319268 -0.003762705 0.008054553 0.008286254 0.0058055245 0.00812122
0.008457652 -0.009706164 -0.0038720185 -0.00994016 -0.0082631465 -0.009998694 -0.007352005 -0.009675583
-0.009237302 -0.01 0.00651141 0.007866456 0.009822312 -0.01 -0.0051984023 -0.009931923
-0.0031848939 0.0047939555 0.009520539 -0.01 -0.007029378 -0.009497212 -0.009828835 0.0049107797
0.008872506 -0.01 0.006147233 0.0038827707 0.0048931777 -0.009878504 0.008693707 -0.009875885
0.0010400643 0.008279769 0.01 0.009899841 -0.0025542865 -0.0068326974 0.00070617395 -0.0009679394

fc1.bias f4 [128]
00000000: 9a76 00bc 4357 17bc 0014 f13b c474 05bc
00000010: 99cc 223c 40ef bbbb 1930 9abb 0ad7 23bc
00000020: 64b2 1fbc 0ad7 233c baef 00bc 4184 e4bb
00000030: b652 0a3c d166 813b 45d4 e03b a5ac e73b
00000040: fb4c c23b aaa6 16bc 2e4c 06bc b5ba 193c
00000050: fc80 1c3c d1ec bdbb 6c95 a33b 48b7 15bc
00000060: ee82 a43b 6093 223c 7751 20bc b13f 0ebc
00000070: 5ebf 1ebc f7c3 9c3b 960c 10bc a60f e5bb
00000080: 2699 043c 9bf4 0a3c 6fb9 d9bb c3f6 103c
00000090: a38c 15bc 3d26 133c 2678 1abc b536 11bc
000000a0: ffc0 23bc f1c8 10bc 10d5 23bc 8ac1 eebb
000000b0: 0b6f 1e3c 2f44 f93b fda6 1cbc 2d2a 7abb
000000c0: 1ecc dbbb e0c9 adbb 6ac1 0f3c b578 193c
000000d0: 4e23 df3b ce9a ae3b f101 0c3b 88e5 043c
000000e0: 71da 623a ea35 20bc 82ad 0fbc 08a0 0c3c
000000f0: ad71 dbbb 6667 053c f449 0cbc 7013 ddbb
00000100: 8c88 84bb c6e2 d8bb 7db4 f73b 3ea8 043c
00000110: 5a8b 053c f9fa 01bc 1f88 123c b6dc 113c
00000120: fdaa 1abc ca87 17bc 7390 a73b d387 01bc
00000130: a793 1abc 7564 05bc 548c 1dbc ca98 173c
00000140: 5a5d 23bc eb8e fdbb 2af2 1bbc 4cfa e0bb
00000150: 23b0 14bc 4ea2 e2bb ca19 113c 123b 1c3c
00000160: 8c36 f93b 585c c3bb 1800 093c a7ad 0d3c
00000170: 283f f83b 4a52 11bc 824c 02bc 0651 1abc
00000180: c0a0 83bb 0ad7 233c a06e e53b 7e7b 9dbb
00000190: 19bd 113c 9749 c8bb a5be f9bb acd3 843b
000001a0: 6dcd 0cbc c83c 213c f47e 0abc 56e3 c83b
000001b0: 4361 d4bb 7c7e 08bc cf16 04bc 2ca3 003c
000001c0: 93b8 c53b 0678 21bc 27b6 f4bb d72b 0d3c
000001d0: 515e 9a3b fa24 193c 0543 c43b 098d 853b
000001e0: ad07 123c 2bb0 e5bb 462a e8bb 7ef4 113c
000001f0: 35df e83a e604 223c da12 c53b 7ca8 083c
-0.007840777 -0.009237113 0.0073571205 -0.008145515 0.009936475 -0.005735308 -0.0047054407 -0.01
-0.0097471215 0.01 -0.007869655 -0.0069737737 0.008442571 0.0039490242 0.006861242 0.0070701414
0.005929587 -0.009195009 -0.008196874 0.009382893 0.009552237 -0.005796053 0.0049921777 -0.009137936
0.005020491 0.009922832 -0.009785048 -0.008682177 -0.00968918 0.004784103 -0.008792063 -0.006990391
0.008093154 0.00848117 -0.00664442 0.008847895 -0.009127769 0.008981285 -0.00942806 -0.008863141
-0.009994744 -0.008836971 -0.0099995285 -0.0072862552 0.009670029 0.007607005 -0.0095612975 -0.0038172111
-0.0067076823 -0.0053036064 0.008774141 0.009367158 0.0068096286 0.0053285128 0.0021363462 0.008111365
0.0008653766 -0.009778479 -0.008769395 0.008583076 -0.006696901 0.008142328 -0.008562554 -0.006746702
-0.004044598 -0.0066188304 0.0075593577 0.008096753 0.0081509 -0.007933372 0.008943587 0.008902719
-0.009440181 -0.009248683 0.0051136552 -0.007905918 -0.009434617 -0.008141627 -0.009615976 0.009252736
-0.009970987 -0.0077379844 -0.009518186 -0.006865775 -0.009075197 -0.006916321 0.008856246 0.009535568
0.0076053794 -0.005961936 0.008361839 0.008647359 0.007575888 -0.008869717 -0.007952811 -0.009418732
-0.0040169656 0.01 0.007001713 -0.004805981 0.008895182 -0.006112288 -0.0076216036 0.0040535536
-0.008593899 0.009841152 -0.00845312 0.006130616 -0.006481321 -0.0083309375 -0.008062079 0.007851403
0.006033966 -0.009855276 -0.0074680033 0.008616409 0.0047109504 0.009347195 0.0059894347 0.0040756506
0.008912963 -0.0070095262 -0.0070851175 0.008908389 0.0017766716 0.009888863 0.00601421 0.008340951

bn1.weight f4 [128]
00000000: 7423 233c 0ad7 233c 0ad7 233c 0ad7 233c
00000010: 0ad7 233c 9325 233c ce57 af3b 0ad7 233c
00000020: 7083 92ba caed ffbb 3e72 833b 702a 233c
00000030: ed1d 233c a951 233c 0ad7 233c 0524 233c
00000040: cd4e 233c fd08 093c 840c 74ba 0ad7 233c
00000050: 0ad7 233c 0ad7 233c 09a7 c0bb 914d 803a
00000060: eab1 e33b 0ad7 233c 0ad7 233c 8f21 233c
00000070: 0ad7 233c 0ad7 233c b023 68bb 0ad7 233c
00000080: 1d48 1e3c 491e df3b 6577 ba3b 0ad7 233c
00000090: be51 233c 0ad7 233c 0ad7 233c 6dc4 b4bb
000000a0: 0ad7 233c 2e4e 053c 0ad7 233c 7926 233c
000000b0: 0ad7 233c 8e78 0b3b e51c a2bb 6b75 553b
000000c0: d7ad 363b 0ad7 233c 5823 233c 0ad7 233c
000000d0: 0ad7 233c 0ad7 233c ad51 233c 0ad7 233c
000000e0: 30a9 743b 8019 233c 0ad7 233c 0ad7 233c
000000f0: 0ad7 233c 641c 233c 0ad7 233c 6624 233c
00000100: 5098 0c3c 0ad7 233c 0ad7 233c 0ad7 233c
00000110: 0ad7 233c 441d 233c 0ad7 233c 0ad7 233c
00000120: 0ad7 233c 0ad7 233c 0ad7 233c 3122 233c
00000130: 041d 233c 0ad7 233c 0ad7 233c 5534 233c
00000140: bc14 233c ccbc b4bb 2a5d 693b 0ad7 233c
00000150: 0ad7 233c 0ad7 233c 0ad7 233c f7f5 173c
00000160: 0ad7 233c bbab 8ebb 579e 233c 0ad7 233c
00000170: 0ad7 233c 2d2c 233c 0ad7 233c a49c aaba
00000180: 0ad7 233c c368 413b 7213 233c 51e5 413b
00000190: d420 233c 0ad7 233c 0ad7 233c 0ad7 233c
000001a0: 44d5 463b 0ad7 233c fcac 38bb 7b9a 153b
000001b0: 0ad7 233c ab30 233c ed2a 233c 9f44 233c
000001c0: f61f 233c 5b5c 3ebb 0ad7 233c 422f 233c
000001d0: 0ad7 233c 0ad7 233c 4828 233c 0ad7 233c
000001e0: 0ad7 233c 06d2 683b 0ad7 233c 0ad7 233c
000001f0: c705 133c 0ad7 233c eded f4bb a4ba 17ba
0.009957183 0.01 0.01 0.01 0.01 0.009957689 0.0053510433 0.01
-0.0011178087 -0.007810329 0.0040114215 0.009958848 0.009955865 0.0099682 0.01 0.009957318
0.009967518 0.008363959 -0.00093097263 0.01 0.01 0.01 -0.005879287 0.0009788742
0.0069486992 0.01 0.01 0.009956731 0.01 0.01 -0.0035421662 0.01
0.009660748 0.00680903 0.0056905025 0.01 0.009968219 0.01 0.01 -0.00551658
0.01 0.008136315 0.01 0.009957903 0.01 0.0021281573 -0.004947292 0.0032571207
0.0027874613 0.01 0.009957157 0.01 0.01 0.01 0.0099682035 0.01
0.003733229 0.00995481 0.01 0.01 0.01 0.009955499 0.01 0.0099574085
0.008581236 0.01 0.01 0.01 0.01 0.009955708 0.01 0.01
0.01 0.01 0.01 0.009956882 0.009955648 0.01 0.01 0.009961207
0.009953674 -0.0055156704 0.0035608509 0.01 0.01 0.01 0.01 0.009274951
0.01 -0.004353968 0.009986482 0.01 0.01 0.009959263 0.01 -0.0013016653
0.01 0.0029511906 0.009953367 0.0029586146 0.009956557 0.01 0.01 0.01
0.0030339519 0.01 -0.0028179279 0.0022827673 0.01 0.009960334 0.009958965 0.009965091
0.009956351 -0.0029046747 0.01 0.009959998 0.01 0.01 0.009958334 0.01
0.01 0.0035525574 0.01 0.01 0.008973545 0.01 -0.007474652 -0.00057880045

bn1.bias f4 [128]
00000000: b08f 343b 08d7 233c 784f 1a3b 0ad7 233c
00000010: 872f 063c 4456 313b 9dfe fe3b 0ad7 233c
00000020: 0ad7 233c 0ad7 233c f296 8d3b c43f 343b
00000030: 858b 333b 2eac be3b 193b 4d3b b46c 353b
00000040: 6199 2a3b 9450 b33b 4651 233c cee3 413b
00000050: 2340 583b 3f73 503b 1c33 f03b 76b5 093c
00000060: e30e 95bb 347b ef3b dcab dc3b 11d7 363b
00000070: 3e0c 423b 0ad7 233c c1a2 223c 0ad7 233c
00000080: aebc 68bb 369c 0a3c 5797 d43b 74c1 293b
00000090: eb85 bf3b a5d9 1f3b 4ac6 4a3b 1e22 233c
000000a0: bf39 133b 08de 033c 5946 513b 25fe 343b
000000b0: 0ad7 233c e55a 093c c2c9 233c 145f 593b
000000c0: 0799 2f3b 76dd ed3b 798f 673b 9795 fd3b
000000d0: 0da5 ce3b f1a7 853b feee 033c 3e97 433b
000000e0: ade3 7f3b 987e 3a3b 0ad7 233c 0ad7 233c
000000f0: 0ad7 233c c3b9 383b f4d4 233c 01dd 333b
00000100: 0ad7 233c bc3c 5b3b adce 553b 4ba2 cb3b
00000110: 0ad7 233c e3be 313b 716a 4a3b fc47 463b
00000120: 057f 163c fce9 313a 24bd 2b3b a395 323b
00000130: 9e20 333b 158f 4a3b 0ad7 233c 37f2 333b
00000140: 5dd2 3b3b 2b95 1e3c f49f f6bb 0ad7 233c
00000150: 7fd4 233c c90b fc3b 8e13 653b 8094 1c3c
00000160: dcd3 953b 0ad7 233c 1019 213c 0ad7 233c
00000170: a4ec 1b3b 8364 333b 3fd5 233c 929b 023c
00000180: a582 463b 21bd 423b 134f 473b bd7c 153c
00000190: a1f5 313b 0ad7 233c 8003 4abb 37d5 233c
000001a0: 0c98 453b 0ad7 233c 7f3e 013c f70e f53b
000001b0: e8e3 7f3b f0ba 343b ea4a 363b 5d92 353b
000001c0: cb87 363b a6a5 033c d4c2 623b 35e6 333b
000001d0: 0ad7 233c 5761 473b fec9 343b 0ad7 233c
000001e0: 1072 493b 2bf4 a03b 6f3a 393b 0ebd 503b
000001f0: f262 233c 0ad7 233c 76e1 f23b 3df6 173c
0.0027551465 0.009999998 0.0023545902 0.01 0.008190042 0.0027059475 0.007781817 0.01
0.01 0.01 0.0043209726 0.0027503828 0.0027396393 0.0058188653 0.0031315743 0.00276832
0.0026031362 0.005472252 0.009968108 0.0029585245 0.0032997213 0.0031806973 0.0073303115 0.00840508
-0.004548894 0.007308388 0.0067343544 0.0027899186 0.0029609348 0.01 0.009926499 0.01
-0.0035512852 0.008460095 0.0064877677 0.002590266 0.0058448217 0.00243912 0.0030940943 0.009956865
0.002246484 0.008048542 0.00319328 0.0027617302 0.01 0.008383487 0.009996833 0.0033168243
0.0026794092 0.007259066 0.003533332 0.0077387798 0.0063062967 0.004078858 0.008052586 0.0029844786
0.0039045617 0.0028456803 0.01 0.01 0.01 0.0028186894 0.009999502 0.002744496
0.01 0.0033452949 0.003262441 0.006214415 0.01 0.0027121834 0.0030886198 0.0030255308
0.009185557 0.00067868805 0.0026205266 0.0027249835 0.0027332674 0.0030908037 0.01 0.0027457604
0.0028659322 0.009679119 -0.007526392 0.01 0.0099993935 0.0076918346 0.0034954282 0.0095568895
0.0045723747 0.01 0.0098326355 0.01 0.0023792172 0.0027373142 0.009999572 0.007971661
0.0030290273 0.002971478 0.0030412122 0.009123978 0.0027154463 0.01 -0.003082484 0.009999565
0.0030150441 0.01 0.007888435 0.0074785906 0.0039045755 0.0027577244 0.0027815648 0.0027705648
0.0027851935 0.008035099 0.003460099 0.0027450447 0.01 0.003042301 0.0027586217 0.01
0.0030738153 0.0049119196 0.002826359 0.0031850967 0.009972321 0.01 0.007412131 0.009275016

bn1.running_mean f4 [128]
00000000: 566f 9744 77af a6c5 8c55 3045 89bb 5cc5
00000010: db36 1546 5027 fe44 e3aa 66c3 d314 15c4
00000020: 10c9 ee43 b5ca ddc2 2bae c6c3 20c9 a344
00000030: 9ef2 2b44 385f 5543 6843 0146 546d 8a44
00000040: d05d 0245 5e30 1cc3 20d8 a2c4 7a77 1046
00000050: fc95 0f46 2a9f 1546 741c f644 2417 e2c3
00000060: e6c0 c6c3 0ebc 1446 69b5 20c2 21e0 0f44
00000070: 7c36 db45 15e6 42c4 835d b144 de8f 17c4
00000080: e326 86c2 8026 9dc3 4638 0bc4 f3f0 9045
00000090: 6e7b 6043 c856 3245 bcb7 e845 e31f 9644
000000a0: 9966 ff44 e09b 9fc4 8c1e 0046 6a6c 9e44
000000b0: 3496 c3c4 591c b9c4 19d1 7b44 3ca6 7fc4
000000c0: 8490 91c4 90c0 1046 7277 3544 747c 0d46
000000d0: 7124 42c2 540d db45 85fb 8c44 693f 0546
000000e0: 4832 d0c4 776c 2e44 00f1 21c5 7c70 12c5
000000f0: afc4 12c5 4f7d 4744 38bc 2dc5 31e2 b644
00000100: c2e7 5644 4aa5 0e46 5ff7 0346 0bbd 0446
00000110: 3711 b0c5 ac8f 5744 368d 0c46 7579 0946
00000120: 8dfc 9bc2 59a8 6344 1529 7745 29ee 9644
00000130: d74e 0944 993f 0846 e221 ccc5 1278 6a45
00000140: 8fd1 ad43 ddee 8644 28b6 cb43 489c eec4
00000150: 5a80 8dc5 d52d 1046 5634 0e46 b747 26c3
00000160: 00b0 0246 92df 8bc4 1169 9041 10c5 3ac5
00000170: 7369 2b45 7e65 de44 2168 68c5 826d bdc4
00000180: 43bf 0146 5b95 0dc3 f0d3 8243 4580 2944
00000190: 1682 a544 f12f a042 76a4 7144 9086 08c5
000001a0: 8ab8 35c4 3c09 6fc4 ecab 0cc3 f2f1 85c4
000001b0: 07c5 0746 045d 3545 b580 4a44 b375 8a44
000001c0: 7052 b343 020d 26c4 7e5c 1446 1d8d 0c45
000001d0: dd8b 6fc5 071d 1246 fcb1 9244 2879 ddc5
000001e0: 3843 0d46 2236 8344 8b74 db45 1e86 0a46
000001f0: 2ad2 59c5 50da ee41 8dc9 fe44 dce2 4144
1211.4792 -5333.933 2821.3467 -3531.721 9549.714 2033.2285 -230.66753 -596.3254
477.5708 -110.89591 -397.3607 1310.2852 687.7909 213.37195 8272.852 1107.4165
2085.8633 -156.18893 -1302.7539 9245.869 9189.496 9575.791 1968.8892 -452.1808
-397.50702 9519.014 -40.17716 575.502 7014.8105 -779.59503 1418.9222 -606.2479
-67.07595 -314.30078 -556.8793 4638.1187 224.48215 2853.4238 7446.967 1200.9965
2043.2062 -1276.8711 8199.637 1267.388 -1564.6938 -1480.8859 1007.26715 -1022.5974
-1164.5161 9264.141 725.86633 9055.113 -48.535587 7009.666 1127.86 8527.853
-1665.5713 697.69476 -2591.0625 -2343.0303 -2348.2927 797.95795 -2779.7637 1463.0685
859.6212 9129.322 8445.843 8495.261 -5634.152 862.2449 8995.303 8798.364
-77.99326 910.63043 3954.5676 1207.4425 549.2319 8719.899 -6532.2354 3751.5044
347.63718 1079.4645 407.4231 -1908.8838 -4528.044 9227.458 9101.084 -166.28014
8364.0 -1118.9866 18.051302 -2988.3164 2742.5906 1779.1716 -3718.508 -1515.4221
8303.815 -141.58342 261.65576 678.0042 1324.0652 80.093636 966.5697 -2184.4102
-726.8834 -956.1443 -140.67157 -1071.5608 8689.257 2901.8135 810.01105 1107.6781
358.64404 -664.20325 9495.123 2248.8196 -3832.7415 9351.257 1173.562 -7087.1445
9040.805 1049.6917 7022.568 8865.529 -3485.1353 29.856598 2038.2985 775.5447

bn1.running_var f4 [128]
00000000: b0e8 3949 b4ea 604b 9a1d 7d4a 505d c54a
00000010: cb7f 344c b7e8 024a c80e d846 3986 3348
00000020: abda ea47 f999 c345 3a14 a047 aef9 5949
00000030: 0667 7148 922d bf46 f472 074c 0923 1c49
00000040: 7aa9 0a4a d481 4546 1a6c 5449 f02e 294c
00000050: 1522 274c 5779 354c 9501 f549 89c8 d547
00000060: c8f2 9e47 8a58 334c d525 a244 862c 2a48
00000070: c5c5 c24b 84ea 9848 0f91 7f49 d604 3948
00000080: fc78 3845 8558 4847 e323 1d48 8ab6 2a4b
00000090: 575b d046 ae40 814a 2183 db4b 0bda 3649
000000a0: a8ab 044a d5bb 4f49 8225 054c 2176 4b49
000000b0: 75b4 9a49 5abb 8a49 1714 0149 671a 0549
000000c0: 78ca 2b49 93f4 294c 5980 8648 894e 224c
000000d0: 2071 bd44 8880 c24b d22e 2349 4bed 0f4c
000000e0: 0a09 b049 c2a7 7648 b8d5 534a b992 2d4a
000000f0: 1f5e 2e4a d974 a148 12f6 734a 8991 8749
00000100: 7a29 b948 1efb 244c 2f4a 0d4c b8d7 0e4c
00000110: dcf1 7a4b 83b3 bc48 6042 204c 1845 194c
00000120: 9ac3 4445 ef3c d048 c493 f84a b037 3949
00000130: 9ea0 1b48 bb7b 164c 3bad a84b dd0f df4a
00000140: b705 7547 341e 1549 f10f a847 9e40 e649
00000150: e705 224b 7c84 284c 5fed 234c 7258 6846
00000160: bb7c 0a4c 3c13 1e49 3323 be44 083a 8d4a
00000170: 0866 6e4a dbb1 c849 fb73 da4a e5d1 9049
00000180: 1e84 084c 31ba 2946 ea89 0b47 bea7 6548
00000190: 8c0f 5e49 f6ee 4f45 714d ec48 a497 164a
000001a0: ddf6 8548 b38f e648 f3b4 1d46 4c51 1349
000001b0: fd7a 154c 9466 854a 63d4 a748 f7aa 1b49
000001c0: 1a57 8347 0acc 5d48 496f 324c 2b9a 204a
000001d0: 9660 e84a fc0f 2d4c 8ae4 2e49 e591 c64b
000001e0: 23c3 214c b85d 0d49 65a5 c34b 41b2 1b4c
000001f0: c3fe bf4a ef1d 2144 9eca 034a 2961 9a48
761483.0 1.4740148e+07 4.1470465e+06 6.46724e+06 4.731678e+07 2.1448138e+06 27655.39 183832.89
120245.336 6259.2466 81960.45 892826.9 247196.1 24470.785 3.550715e+07 639536.56
2.2718385e+06 12640.457 870081.6 4.43504e+07 4.3812948e+07 4.7572316e+07 2.0070906e+06 109457.07
81381.56 4.701444e+07 1297.1823 174258.1 2.5529226e+07 313172.12 1.04680094e+06 189459.34
2951.5615 51288.52 160911.55 1.118785e+07 26669.67 4.235351e+06 2.8771906e+07 748960.7
2.173674e+06 850877.3 3.490356e+07 833378.06 1.2673426e+06 1.1364912e+06 528705.44 545190.44
703655.5 4.455278e+07 275458.78 4.2547748e+07 1515.5352 2.5493776e+07 668397.1 3.772958e+07
1.4420812e+06 252575.03 3.470702e+06 2.8438222e+06 2.8568398e+06 330662.78 3.9970605e+06 1.1105771e+06
379211.8 4.324876e+07 3.7038268e+07 3.7445344e+07 1.6445916e+07 386460.1 4.201101e+07 4.0178784e+07
3148.225 426471.47 8.145378e+06 758651.0 159362.47 3.94483e+07 2.210879e+07 7.3092945e+06
62725.715 610787.25 86047.88 1.8862278e+06 1.0618343e+07 4.4175856e+07 4.297254e+07 14870.111
3.6303596e+07 647475.75 1521.1 4.627716e+06 3.905922e+06 1.6440914e+06 7.1582695e+06 1.1863646e+06
3.578687e+07 10862.548 35721.914 235166.97 909560.75 3326.935 483947.53 2.467305e+06
274358.9 472189.6 10093.237 603412.75 3.9185396e+07 4.371274e+06 343715.1 637615.44
67246.2 227120.16 4.6775588e+07 2.6313068e+06 7.614539e+06 4.536728e+07 716360.6 2.6026954e+07
4.2405004e+07 579035.5 2.5643722e+07 4.0814852e+07 6.2912975e+06 644.4677 2.1592715e+06 316169.28

fc2.weight f4 [128, 128]
00000000: 53b3 00bc 0ad7 23bc 9073 bcb9 0ad7 23bc
00000010: 0ad7 233c bca1 01bc 67d5 9838 0ad7 23bc
00000020: 7db3 f13b 0ad7 233c 4e4b 6abb e58c 02bc
00000030: 4cad 05bc cee4 17bc f93f 223c f926 00bc
00000040: 3644 98bb 0ad7 23bc 80ba c33b 1cad ff3b
00000050: 747f 223c b419 203c 0c8a f4bb 2d88 fe38
00000060: 2c36 15b9 0ad7 233c 0ad7 23bc 1bc9 02bc
00000070: be82 0c3c 0ad7 23bc 0ad7 23bc 0ad7 23bc
00000080: a686 023c e5fe 963b 1809 50ba dfd9 d63b
00000090: 21cd 17bc 9d8b b7ba 4406 223c 8fcf 0ebc
000000a0: 20a3 55ba bb7b 903b ad65 223c b280 04bc
000000b0: 0ad7 23bc a020 adbb b700 c13b 500c 9abb
000000c0: 15a6 abbb 0ad7 233c 7577 0ebc 0ad7 233c
000000d0: 0ad7 23bc 4323 233c 1954 12bc a549 223c
000000e0: 6212 8fbb 7096 09bc 0ad7 23bc 0ad7 23bc
000000f0: 0ad7 23bc 27f5 06bc 0ad7 23bc 1274 04bc
00000100: 0ad7 233c 3ea4 223c 338b 223c 0ad7 233c
00000110: 0ad7 23bc 3e7a 05bc aa97 223c 428b 223c
00000120: 0ad7 23bc 0ad7 233c 5f52 103c 9bce 04bc
00000130: b873 06bc be42 223c 0ad7 23bc c797 f8bb
00000140: 2a0e 0fbc fab4 0fba 0d6f 533a 0ad7 23bc
00000150: 0ad7 23bc 0ad7 233c 2a8e 223c a06e 013c
00000160: 0ad7 233c 0ad7 233c 8a34 23bc 0ad7 23bc
00000170: 5f83 a0ba 8400 f1bb 0ad7 23bc 96a2 833b
00000180: e375 223c 2be8 9cbb 6cf7 11bc 0ad7 233c
00000190: 062e 04bc 0ad7 233c 0ff5 053c 0ad7 23bc
000001a0: 3c28 a6bb 0ad7 23bc 18af e83b 92f1 773b
000001b0: df49 233c bbba eabb 7fdc 05bc 8e6e d7bb
000001c0: c7ba 03bc 3cb5 ec3b 7685 223c f162 ffbb
000001d0: 0ad7 23bc 517a e73b 85ab f7bb 0ad7 23bc
000001e0: 0c9c 1e3c 3dc5 b1bb 59e2 543b 614f 053c
000001f0: 0ad7 23bc 0ad7 233c c6e4 563b 49af ec3b
00000200: 99ad f7bb 0ad7 23bc a5fd c7b9 0ad7 23bc
00000210: 0ad7 233c 1333 fabb f741 c539 0ad7 23bc
00000220: 9fe5 ef3b 0ad7 233c 6759 53bb ef26 fcbb
00000230: d7fe 00bc 77a1 17bc 9c98 223c 6444 f6bb
00000240: 5285 96bb 0ad7 23bc 94a0 c43b 8286 d43b
00000250: cfdc 223c 62c6 223c e03c f5bb 8270 9ab8
00000260: db94 27ba 0ad7 233c 0ad7 23bc dc1c fcbb
00000270: 158e fc3b 0ad7 23bc 0ad7 23bc 0ad7 23bc
00000280: 3649 053c 20ac 993b 2330 47ba 9cbf 583a
00000290: 0f89 17bc a49d 9eba b85d 223c 5691 0dbc
000002a0: f5fd 103b 6db9 933b 9ebe 223c c81d 00bc
000002b0: 0ad7 23bc d283 acbb 824e c13b ee6e 91bb
000002c0: 87b2 a5bb 0ad7 233c 8170 0dbc 0ad7 233c
000002d0: 0ad7 23bc 9968 233c b7a3 12bc ce3a e13b
000002e0: 22eb 82bb bda2 07bc 0ad7 23bc 0ad7 23bc
000002f0: 0ad7 23bc 5523 04bc 0ad7 23bc 37fa ffbb
00000300: 0ad7 233c 77f8 223c 69e9 223c 0ad7 233c
00000310: 0ad7 23bc c809 01bc 6fe9 223c 6f40 053c
00000320: 0ad7 23bc 0ad7 233c d146 0a3c 385d 00bc
00000330: c4f6 00bc c649 133c 0ad7 23bc d837 efbb
00000340: 106e 0dbc 6231 e8b9 f7ef 103a 0ad7 23bc
00000350: 0ad7 23bc 0ad7 233c 19ec 223c 776f 013c
00000360: 0ad7 233c 0ad7 233c b134 23bc 0ad7 23bc
00000370: 4f82 aaba 972c e7bb 0ad7 23bc 1b1f 7b3b
00000380: 8fc9 223c 2f53 96bb 86ad 10bc 0ad7 233c
00000390: ca9f ffbb 0ad7 233c b1b2 023c 0ad7 23bc
000003a0: 2912 a0bb 0ad7 23bc 9020 e33b efad 703b
000003b0: dd72 233c db0d dfbb fc75 01bc c70f ccbb
000003c0: 8288 febb 6ba0 e73b cfb5 1d3c c63f f6bb
000003d0: 0ad7 23bc fcc2 223c 97d6 ecbb 0ad7 23bc
000003e0: 6bb4 223c 106e b5bb 840b 6b3b c3fb 223c
000003f0: 0ad7 23bc 0ad7 233c 5480 5e3b 7a2a ec3b
-0.007855254 -0.01 -0.00035944255 -0.01 0.01 -0.007912096 7.287674e-05 -0.01
0.007376133 0.01 -0.0035750451 -0.007968162 -0.008158993 -0.00927086 0.009902948 -0.007821792
-0.0046468033 -0.01 0.0059731603 0.0078026187 0.0099180825 0.009771753 -0.0074627455 0.000121370285
-0.00014229928 0.01 -0.01 -0.007982518 0.008576093 -0.01 -0.01 -0.01
0.007966673 0.0046080225 -0.00079359254 0.006556734 -0.009265215 -0.00140034 0.009889189 -0.008716478
-0.00081496127 0.004409281 0.009911937 -0.008087324 -0.01 -0.00528343 0.005889978 -0.004701175
-0.0052383044 0.01 -0.008695473 0.01 -0.01 0.0099571375 -0.008931183 0.009905254
-0.004366205 -0.0083976835 -0.01 -0.01 -0.01 -0.00823716 -0.01 -0.008084314
0.01 0.009926854 0.009920883 0.01 -0.01 -0.008146821 0.009923855 0.009920897
-0.01 0.01 0.008808701 -0.008105899 -0.0082063 0.009903608 -0.01 -0.0075864526
-0.008731404 -0.00054819847 0.0008065559 -0.01 -0.01 0.01 0.00992159 0.00789991
0.01 0.01 -0.009961257 -0.01 -0.0012246183 -0.007354798 -0.01 0.0040171845
0.009915802 -0.0047884188 -0.008909088 0.01 -0.0080676135 0.01 0.008176102 -0.01
-0.0050707143 -0.01 0.007100951 0.0037833196 0.009966343 -0.0071633733 -0.008170246 -0.0065744584
-0.008040137 0.0072237533 0.009919515 -0.007793777 -0.01 0.007064142 -0.0075582885 -0.01
0.009680759 -0.005425124 0.0032483547 0.008136601 -0.01 0.01 0.0032790168 0.007223044
-0.0075585363 -0.01 -0.00038145218 -0.01 0.01 -0.007635483 0.00037623916 -0.01
0.007321074 0.01 -0.0032249333 -0.007695071 -0.007873259 -0.009254805 0.00992408 -0.007515477
-0.0045935297 -0.01 0.0060005877 0.006485761 0.00994034 0.009934993 -0.0074840635 -7.3642484e-05
-0.00063927256 0.01 -0.01 -0.00769387 0.007707367 -0.01 -0.01 -0.01
0.008135131 0.0046897084 -0.00075984205 0.0008268298 -0.009248986 -0.0012101424 0.00991004 -0.008640608
0.0022124026 0.0045081885 0.009933142 -0.0078196 -0.01 -0.0052647376 0.0058992514 -0.0044382727
-0.0050566825 0.01 -0.00863278 0.01 -0.01 0.0099736685 -0.0089501655 0.006873465
-0.003995315 -0.008278546 -0.01 -0.01 -0.01 -0.008065064 -0.01 -0.0078118104
0.01 0.009946934 0.009943345 0.01 -0.01 -0.007875867 0.00994335 0.008133038
-0.01 0.01 0.0084397355 -0.007834725 -0.0078713335 0.008989757 -0.01 -0.0073003583
-0.008632198 -0.0004428728 0.00055289216 -0.01 -0.01 0.01 0.009943985 0.00790011
0.01 0.01 -0.009961293 -0.01 -0.0013008806 -0.007054876 -0.01 0.00383181
0.009935751 -0.004587553 -0.008830434 0.01 -0.0078010308 0.01 0.007977174 -0.01
-0.0048849774 -0.01 0.006931372 0.0036724766 0.009976116 -0.0068070716 -0.007901665 -0.0062274667
-0.007767738 0.007068684 0.009625866 -0.0075149266 -0.01 0.009934183 -0.0072277295 -0.01
0.00993071 -0.005536802 0.0035865018 0.00994772 -0.01 0.01 0.0033951001 0.007207212

fc2.bias f4 [128]
00000000: 5354 0abc 4119 87ba b03a 233c 5e11 20bc
00000010: 1343 12bc f675 1d3c 2534 1bbc a64a 233c
00000020: 813e 1dbc dd38 87bb 859e 233c 0b5c 0bbc
00000030: ea6e 12bc c6cb 233c 0ad7 233c b1c4 233c
00000040: 0e08 223c 28d2 233c d8a1 223c c72d 233c
00000050: b9d0 1bbc 8ac1 10bc ebd3 bfbb 5a0f 0dbc
00000060: 0ad7 233c 5555 233c a6b8 14bc cb8c 0bbc
00000070: d426 233c 88a9 223c e11a 203c 723c 0ebc
00000080: 9c07 213c 8d51 233c 3728 0abc 3e8a 233c
00000090: 0ad7 233c 9eb3 223c 72f5 0cbc bb03 233c
000000a0: fe2c 223c 32ca 233c ed7f 823a a7a4 003c
000000b0: ab9f 233c 91b0 12bc 1080 203c 579c 233c
000000c0: f53f 213c 3ca8 233c 56f9 1f3c 6ac4 223c
000000d0: b46c b3bb 0ad7 233c e9e9 0ebc a3c2 1cbc
000000e0: 3f90 0cbc c992 233c 49cc 0cbc 5c9d 223c
000000f0: 2c54 c13b 8ff3 223c a9c0 213c 0ad7 233c
00000100: b7ee 21bc 7c73 21bc a4d0 12bc d6a6 233c
00000110: 42f2 0bbc 44e8 163c 51fb a53b c8f1 223c
00000120: 672d 1fbc ffea 20bc ab63 223c 4a6d 23bc
00000130: 4c07 b4b8 a422 253b 5ae1 21bc cafe 513b
00000140: 9ea5 08bc a118 06bc 1d76 22bc 33f3 1ebc
00000150: 85c2 233c a4cb 0bbc 58cf 22bc ab65 0bbc
00000160: e784 233c fe50 233c 58a0 233c 0ad7 233c
00000170: 68dd 13bc 307f 233c bb32 223c 3acf 223c
00000180: a098 0dbc 8b67 0bbc 7cfc 20bc 98e0 213c
00000190: f18a 223c cdfb 09bc 5678 233c 260c 273a
000001a0: cad4 0ebc 309a 223c c3d4 233c 0ad7 233c
000001b0: 0ad7 233c 0b94 223c 63aa 223c 0ad7 233c
000001c0: ce4a 20bc 2b9c 0fbc 27c5 10bc e534 0dbc
000001d0: 0f3d c83b 34bf 223c 6cd8 203c 0110 2c3b
000001e0: 14c2 21bc b565 09bc 0424 223c 03bc 233c
000001f0: b3d8 0bbc b719 12bc add4 13bc 8869 233c
-0.008442956 -0.0010307209 0.009962723 -0.009769766 -0.008927125 0.009610644 -0.009472881 0.009966528
-0.009597422 -0.0041266517 0.0099865245 -0.0085058315 -0.008937577 0.009997314 0.01 0.009995625
0.009889616 0.009998836 0.009926282 0.009959645 -0.009510213 -0.008835206 -0.00585412 -0.008609617
0.01 0.009969075 -0.009077227 -0.008517454 0.009957988 0.009928115 0.009772033 -0.0086814035
0.009828474 0.009968174 -0.0084324395 0.00998169 0.01 0.009930519 -0.008603441 0.00994962
0.009898422 0.009996938 0.0009956338 0.007851756 0.009986798 -0.0089532295 0.0097961575 0.009986005
0.009841909 0.009988841 0.009764036 0.009934524 -0.005475605 0.01 -0.008722761 -0.009567889
-0.008579313 0.009983727 -0.008593627 0.009925213 0.0058999266 0.009945764 0.009872594 0.01
-0.009883574 -0.009854194 -0.008960877 0.009988507 -0.0085416455 0.00921065 0.0050653596 0.00994534
-0.009715415 -0.009821652 0.009911458 -0.009974787 -8.584428e-05 0.002519765 -0.009880388 0.0032042735
-0.008340267 -0.008184583 -0.009915856 -0.009701538 0.009995108 -0.008532438 -0.00993713 -0.008508126
0.009980417 0.0099680405 0.009986959 0.01 -0.009024955 0.009979054 0.00989979 0.009937102
-0.008642346 -0.008508573 -0.009825822 0.0098802075 0.0099208215 -0.00842185 0.009977421 0.00063723547
-0.008717725 0.0099244565 0.009999457 0.01 0.01 0.0099229915 0.009928319 0.01
-0.00978346 -0.008765261 -0.008836067 -0.008618568 0.0061107944 0.009933282 0.009817224 0.0026254656
-0.009872932 -0.008386065 0.009896282 0.009993556 -0.008535552 -0.008917264 -0.009022874 0.009973891

bn2.weight f4 [128]
00000000: 0ad7 233c 0ad7 233c 0ad7 233c 0ad7 233c
00000010: 0ad7 233c 0ad7 233c 0ad7 233c 0ad7 233c
00000020: 0ad7 233c 0ad7 233c 0ad7 233c 0ad7 233c
00000030: 0ad7 233c 0ad7 233c 0ad7 233c 0ad7 233c
00000040: 0ad7 233c 0ad7 233c 0ad7 233c 0ad7 233c
00000050: 0ad7 233c 0ad7 233c 0ad7 233c 0ad7 233c
00000060: 0ad7 233c 0ad7 233c 0ad7 233c 0ad7 233c
00000070: 0ad7 233c 0ad7 233c 0ad7 233c 0ad7 233c
00000080: 0ad7 233c 0ad7 233c 0ad7 233c 0ad7 233c
00000090: 0ad7 233c 0ad7 233c 0ad7 233c 0ad7 233c
000000a0: 0ad7 233c 0ad7 233c 0ad7 233c 0ad7 233c
000000b0: 0ad7 233c 0ad7 233c 0ad7 233c 0ad7 233c
000000c0: 0ad7 233c 0ad7 233c 0ad7 233c 0ad7 233c
000000d0: 0ad7 233c 0ad7 233c 0ad7 233c 0ad7 233c
000000e0: 0ad7 233c 0ad7 233c 0ad7 233c 0ad7 233c
000000f0: 0ad7 233c 0ad7 233c 0ad7 233c 0ad7 233c
00000100: 0ad7 233c 0ad7 233c 0ad7 233c 0ad7 233c
00000110: 0ad7 233c 0ad7 233c 0ad7 233c 0ad7 233c
00000120: 0ad7 233c 0ad7 233c 0ad7 233c 0ad7 233c
00000130: 0ad7 233c 0ad7 233c 0ad7 233c 0ad7 233c
00000140: 0ad7 233c 0ad7 233c 0ad7 233c 0ad7 233c
00000150: 0ad7 233c 0ad7 233c 0ad7 233c 0ad7 233c
00000160: 0ad7 233c 0ad7 233c 0ad7 233c 0ad7 233c
00000170: 0ad7 233c 0ad7 233c 0ad7 233c 0ad7 233c
00000180: 0ad7 233c 0ad7 233c 0ad7 233c 0ad7 233c
00000190: 0ad7 233c 0ad7 233c 0ad7 233c 0ad7 233c
000001a0: 0ad7 233c 0ad7 233c 0ad7 233c 0ad7 233c
000001b0: 0ad7 233c 0ad7 233c 0ad7 233c 0ad7 233c
000001c0: 0ad7 233c 0ad7 233c 0ad7 233c 0ad7 233c
000001d0: 0ad7 233c 0ad7 233c 0ad7 233c 0ad7 233c
000001e0: 0ad7 233c 0ad7 233c 0ad7 233c 0ad7 233c
000001f0: 0ad7 233c 0ad7 233c 0ad7 233c 0ad7 233c
0.01 0.01 0.01 0.01 0.01 0.01 0.01 0.01
0.01 0.01 0.01 0.01 0.01 0.01 0.01 0.01
0.01 0.01 0.01 0.01 0.01 0.01 0.01 0.01
0.01 0.01 0.01 0.01 0.01 0.01 0.01 0.01
0.01 0.01 0.01 0.01 0.01 0.01 0.01 0.01
0.01 0.01 0.01 0.01 0.01 0.01 0.01 0.01
0.01 0.01 0.01 0.01 0.01 0.01 0.01 0.01
0.01 0.01 0.01 0.01 0.01 0.01 0.01 0.01
0.01 0.01 0.01 0.01 0.01 0.01 0.01 0.01
0.01 0.01 0.01 0.01 0.01 0.01 0.01 0.01
0.01 0.01 0.01 0.01 0.01 0.01 0.01 0.01
0.01 0.01 0.01 0.01 0.01 0.01 0.01 0.01
0.01 0.01 0.01 0.01 0.01 0.01 0.01 0.01
0.01 0.01 0.01 0.01 0.01 0.01 0.01 0.01
0.01 0.01 0.01 0.01 0.01 0.01 0.01 0.01
0.01 0.01 0.01 0.01 0.01 0.01 0.01 0.01

bn2.bias f4 [128]
00000000: 490a 7839 389f 7c39 641b 19b8 d802 51b9
00000010: 608c ffb7 1826 5db9 a3ed 62b9 6c25 7b39
00000020: 7841 68b9 6363 5739 fa09 7eb8 e95a 5d38
00000030: ec40 02b8 1882 5fb8 0b6d 7b38 11b4 7f39
00000040: b7fc 6e39 549d 1cb8 a425 74b9 ca67 80b9
00000050: eaf0 5ab9 fa8b 74b8 ac23 1eb7 0e6a 7e38
00000060: b282 0538 4044 4935 2ad2 5ab8 7708 6639
00000070: 53e0 7f39 f914 7939 8e41 5db9 e6a7 c037
00000080: 1368 5fb9 531a 6639 fb3a ab37 c17d 15b8
00000090: b77b 3538 dce0 7339 1c19 0f38 497f 7339
000000a0: 21b0 6f39 ccf3 5ab8 4c11 fd37 be1d 7b38
000000b0: b03b 25b8 bb15 38b8 f9cb 80b9 5c08 23b8
000000c0: 58d2 6db9 703d 1ab8 696b 81b9 2c71 7cb9
000000d0: ea92 4a38 6226 4ab8 641d ec36 df4d 60b9
000000e0: dd27 9f37 aec2 69b8 f310 6f39 8845 6239
000000f0: ca74 84b8 d585 5939 59c0 5fb9 242c 9236
00000100: bf6e 53b9 7dc3 7bb9 4520 1bb8 5267 f2b7
00000110: 0286 3d38 79c6 35b8 b65e 6f37 e1f2 4bb9
00000120: 9859 7ab9 d6a1 7cb9 3446 7b39 9b5c 79b9
00000130: 3a5e 6fb9 2411 7039 7703 66b9 2059 af36
00000140: e55c 7039 3f6c 5c38 4c95 68b9 43df 78b9
00000150: 7c77 6b37 20a9 e4b5 ba54 67b9 d0f9 7b36
00000160: 683e d0b6 331e 0b38 5fa4 d9b7 6842 1838
00000170: df6d 82b8 768f 73b9 466f 6a39 d83a 6e39
00000180: 0051 2738 c8bf c336 d26a 80b9 66bc 7ab9
00000190: 5482 6739 cbd1 3238 78c0 87b8 a73f 6439
000001a0: 80e1 5637 d6ca 7bb9 8ac3 0eb8 e5ef 5938
000001b0: 3c78 ca37 597d 5539 440f 80b9 083d 7eb8
000001c0: 7ed5 6fb9 b463 7939 9f96 5039 5fa6 ff37
000001d0: 432a 9eb7 aca8 7a39 e4d4 78b9 337e 8c38
000001e0: 6721 78b9 1c1a 6d39 1225 7d39 c03d dbb7
000001f0: f45c 7539 425e 6639 fe4d 0eb8 1d5e 7db9
0.00023654955 0.00024091906 -3.6503552e-05 -0.00019932853 -3.0463736e-05 -0.00021090393 -0.00021641566 0.00023951166
-0.00022149633 0.00020541022 -6.056761e-05 5.2775173e-05 -3.105488e-05 -5.3288502e-05 5.9944618e-05 0.00024385775
0.00022791592 -3.733982e-05 -0.00023283676 -0.0002449139 -0.00020879848 -5.8304497e-05 -9.425839e-06 6.065709e-05
3.183139e-05 7.497765e-07 -5.217098e-05 0.00021937663 0.00024402262 0.00023754303 -0.00021100623 2.2966367e-05
-0.00021305708 0.00021944316 2.0412253e-05 -3.5641486e-05 4.326898e-05 0.00023258053 3.411724e-05 0.00023221703
0.0002285843 -5.2202304e-05 3.0168005e-05 5.9870763e-05 -3.9394654e-05 -4.3889257e-05 -0.00024566034 -3.8870014e-05
-0.0002268044 -3.677368e-05 -0.00024684824 -0.00024074753 4.8297377e-05 -4.81963e-05 7.0367696e-06 -0.00021391314
1.897284e-05 -5.573284e-05 0.0002279913 0.00021578942 -6.316004e-05 0.00020744589 -0.00021338592 4.3562777e-06
-0.00020163784 -0.0002401005 -3.6984933e-05 -2.889676e-05 4.5185916e-05 -4.3338605e-05 1.4267562e-05 -0.00019450068
-0.00023875234 -0.00024092881 0.00023963378 -0.00023780989 -0.00022827918 0.00022894569 -0.000219358 5.225782e-06
0.0002292279 5.25529e-05 -0.00022180862 -0.00023734295 1.4034911e-05 -1.7036546e-06 -0.0002206144 3.7547325e-06
-6.206148e-06 3.3168308e-05 -2.5944957e-05 3.630147e-05 -6.219348e-05 -0.00023227729 0.00022357432 0.0002271937
3.989134e-05 5.833779e-06 -0.0002449365 -0.00023912042 0.00022078428 4.2633892e-05 -6.473152e-05 0.00021767487
1.2807897e-05 -0.00024012788 -3.4037548e-05 5.196025e-05 2.4136265e-05 0.00020359959 -0.00024425436 -6.061516e-05
-0.00022872348 0.00023783633 0.00019892537 3.0475841e-05 -1.8854747e-05 0.00023904693 -0.00023730431 6.699227e-05
-0.00023663566 0.00022611808 0.0002414177 -2.6135589e-05 0.00023399648 0.00021969623 -3.3928074e-05 -0.0002416302

bn2.running_mean f4 [128]
00000000: e4de 1dbc d93b 11bb 5759 603c f3c4 0bbc
00000010: 005a aabb 7d67 303c e132 06bc 0ec5 0f3c
00000020: dcb9 09bc cc84 afbb 35fa 603c 4d8e 48bc
00000030: 9fa6 a9bb 3ca7 603c f262 cc3b 6c9d 0f3c
00000040: c64f 0e3c bb6a 613c 28f1 353c 21a5 373c
00000050: ca86 08bc 03b9 a5bb 249a 0abb b45c 4abc
00000060: 8406 cc3b 79b1 603c b985 aebb 9460 20bc
00000070: 64c3 0f3c 86e8 0e3c 122b 343c d182 4bbc
00000080: 3620 353c e5ac 0f3c 3ef7 46bc 4cc9 603c
00000090: 14a4 cd3b 74b3 0e3c 7297 49bc 612b 0f3c
000000a0: 601b 0e3c e3a9 603c fe0c 33bb 00ad 853b
000000b0: aa9a 603c 4bd5 abbb a750 343c e781 603c
000000c0: e84c 353c 3a14 613c e22f 333c 6b18 373c
000000d0: 0101 17bc e6dd 603c 7f37 a3bb 900a 09bc
000000e0: f483 49bc cdbb 603c c8ec 20bc a9db 0d3c
000000f0: 5a15 1e3c dbdc 0e3c d3b2 323c d20c 613c
00000100: 7e40 11bc 0a6e 0cbc 41d9 aabb d6be 603c
00000110: b82c 49bc f398 543c 70e7 ad3a d217 363c
00000120: 210f 0cbc 45dd 0dbc 5409 0f3c ea3f 0fbc
00000130: 4e98 8f3a efe6 a13a b4ec 0dbc 3795 e33b
00000140: 8daa 1bbc cc83 43bc f69f 0ebc b6b5 0bbc
00000150: ae30 613c 33e2 48bc b09b 0ebc b452 9dbb
00000160: b52f 603c d956 cb3b 92be 603c 2722 cd3b
00000170: 4c96 adbb 0bdb 373c 9199 0e3c 7c2d 0f3c
00000180: 25c6 4abc 5824 49bc f3b9 0cbc 0d46 353c
00000190: adc3 0d3c de06 47bc 1fea 603c eff1 20ba
000001a0: c085 4cbc 6618 373c 556d 613c c243 cc3b
000001b0: 6680 cd3b bb03 0f3c cc4e 373c 1230 613c
000001c0: f94c 0cbc f9af 23bc 51c7 24bc c6dc 4abc
000001d0: f251 213c 8a0b 0e3c 1799 343c 0f5f 91ba
000001e0: a4f2 0dbc 23d9 1dbc 0d27 0e3c 5810 613c
000001f0: d386 1fbc 2dd6 26bc c888 adbb c338 373c
-0.009635661 -0.0022160916 0.013693175 -0.008530843 -0.005198717 0.010766861 -0.008190841 0.008775009
-0.008406129 -0.005356407 0.013731529 -0.012240958 -0.0051773335 0.013711747 0.006237381 0.00876556
0.008686012 0.013758357 0.011104859 0.011208803 -0.0083329175 -0.0050574555 -0.0021149004 -0.012351204
0.0062263627 0.013714188 -0.0053259996 -0.009788651 0.008774612 0.00872243 0.010996597 -0.012421326
0.011055043 0.008769249 -0.012143908 0.013719868 0.006275663 0.008709777 -0.012304174 0.00873837
0.008673519 0.013712379 -0.0027320976 0.004079461 0.01370875 -0.0052439324 0.011005557 0.013702846
0.011065699 0.013737733 0.010936709 0.011175255 -0.009216548 0.01372478 -0.004980981 -0.008364335
-0.0122995265 0.01371665 -0.009822078 0.008658328 0.009648645 0.008719648 0.010906893 0.013735967
-0.008865474 -0.008571157 -0.005213887 0.013717374 -0.012278728 0.012975919 0.0013267826 0.011114078
-0.008548529 -0.008658712 0.008730251 -0.008743266 0.0010955425 0.0012352149 -0.008662391 0.006945278
-0.009501112 -0.011933278 -0.00870513 -0.00852721 0.013744516 -0.012260961 -0.008704111 -0.0048011187
0.013683249 0.0062054214 0.0137173105 0.006260175 -0.005297458 0.0112216575 0.008703605 0.008738872
-0.012376343 -0.012276731 -0.008589256 0.011064065 0.00865261 -0.012147633 0.013727694 -0.00061395665
-0.01248306 0.011175251 0.013758977 0.0062336633 0.00627141 0.008728917 0.01118822 0.013744371
-0.008563274 -0.009990686 -0.010057286 -0.012381738 0.009846197 0.008669743 0.011022828 -0.0011090952
-0.008663807 -0.009634289 0.008676303 0.013736807 -0.009736734 -0.010182899 -0.0052958466 0.011182967

bn2.running_var f4 [128]
00000000: b5a9 e336 d1a0 e236 6da8 2d37 0ba4 e136
00000010: 3c52 2d37 9c04 e236 0929 e236 f8f0 e336
00000020: 2532 e136 44e7 e236 86ee 2d37 05b8 2c37
00000030: 28bd 2d37 87ff 2b37 10af 2d37 ac91 e136
00000040: e0c5 e236 3af7 2d37 ee64 e436 bc51 e536
00000050: f245 e236 3fc4 2d37 3017 2e37 378c 2d37
00000060: f095 2d37 f22e 2e37 8a55 2d37 92a8 e036
00000070: 5ee2 e236 73a2 e336 8d51 e336 6558 2c37
00000080: 40db e236 7998 e136 f31c 2c37 d1a9 2d37
00000090: 1b69 2c37 d56a e436 e0b1 2c37 23a6 df36
000000a0: 3977 e336 2abf 2c37 2bca 2c37 66ba 2d37
000000b0: fe25 2c37 5177 2c37 1cb3 e436 8b8d 2d37
000000c0: 967f e036 8b81 2d37 9faf e236 809d e236
000000d0: dba9 2d37 f51d 2d37 5e53 2e37 84e2 e236
000000e0: 5c1e 2c37 c7e4 2b37 7629 e236 c45b e136
000000f0: 3eb2 2d37 ff46 e136 ce83 e036 331e 2e37
00000100: cdd0 e636 679f e236 b0cc 2d37 3e2f 2c37
00000110: aeba 2d37 1ab5 2d37 d1cb 2c37 6feb e236
00000120: 4fd7 e236 908c e336 334e e336 688a e236
00000130: daf1 e236 d6e5 e236 9b1c e036 8812 2e37
00000140: a825 e136 4a87 2c37 33fa e036 200a e336
00000150: 8f0f 2e37 39d0 2d37 aedd e036 2950 2d37
00000160: 7c89 2c37 8eb5 2d37 09cf 2d37 3a28 2d37
00000170: 8b19 2d37 4d31 e236 c2e7 e036 f7c5 e136
00000180: ce25 2d37 3ed9 2d37 9693 e136 d56f e436
00000190: a492 e036 3955 2d37 2eac 2d37 5e8b e136
000001a0: 4253 2e37 8740 e236 5c99 2d37 a69c 2d37
000001b0: 04ea 2c37 14c7 e236 9a31 e236 d545 2d37
000001c0: e032 e036 3b6f e336 a22f e236 8d1d 2e37
000001d0: 838b 2d37 9ba7 e136 ca15 e436 13cc 2c37
000001e0: 73a8 e236 0e77 e236 f7cf e136 5f10 2e37
000001f0: 9d91 e336 252d e236 87a5 2d37 aaf3 e136
6.7848837e-06 6.7540464e-06 1.0350818e-05 6.7246197e-06 1.033075e-05 6.7358615e-06 6.740102e-06 6.7931796e-06
6.71136e-06 6.7622477e-06 1.0367139e-05 1.0294844e-05 1.0355645e-05 1.0251889e-05 1.03523635e-05 6.722481e-06
6.7583605e-06 1.03691655e-05 6.8066793e-06 6.834247e-06 6.7434676e-06 1.0357296e-05 1.0376607e-05 1.034425e-05
1.0346514e-05 1.03821385e-05 1.033152e-05 6.6953444e-06 6.7616775e-06 6.7840388e-06 6.774621e-06 1.027258e-05
6.760849e-06 6.7232727e-06 1.0258739e-05 1.0351142e-05 1.0276471e-05 6.8073664e-06 1.0293414e-05 6.6652588e-06
6.7790065e-06 1.0296508e-05 1.029907e-05 1.0355003e-05 1.0260845e-05 1.0279779e-05 6.8157806e-06 1.0344559e-05
6.690573e-06 1.0341765e-05 6.75577e-06 6.7536603e-06 1.0351151e-05 1.03185785e-05 1.0390619e-05 6.7616947e-06
1.02590675e-05 1.0245661e-05 6.7401515e-06 6.7162055e-06 1.0353104e-05 6.7137876e-06 6.6910643e-06 1.03782395e-05
6.8788418e-06 6.7538817e-06 1.0359261e-05 1.0262998e-05 1.0355068e-05 1.03537695e-05 1.0299454e-05 6.762733e-06
6.76039e-06 6.781491e-06 6.7742308e-06 6.7514375e-06 6.76348e-06 6.7620813e-06 6.6790503e-06 1.0375523e-05
6.7099063e-06 1.0283498e-05 6.7048472e-06 6.766306e-06 1.0374831e-05 1.0360084e-05 6.701527e-06 1.0330267e-05
1.02840095e-05 1.0353875e-05 1.0359808e-05 1.03209695e-05 1.0317551e-05 6.741064e-06 6.7027004e-06 6.7285687e-06
1.0320406e-05 1.0362184e-05 6.722704e-06 6.8079485e-06 6.6927914e-06 1.0331446e-05 1.0351692e-05 6.721747e-06
1.0390593e-05 6.742837e-06 1.034731e-05 1.0348076e-05 1.0306485e-05 6.7585006e-06 6.7410992e-06 1.0327863e-05
6.681643e-06 6.778076e-06 6.74087e-06 1.03780885e-05 1.0344086e-05 6.7250344e-06 6.797466e-06 1.0299514e-05
6.754935e-06 6.7491846e-06 6.729733e-06 1.037502e-05 6.782079e-06 6.7405804e-06 1.0350143e-05 6.7338888e-06

fc3.weight f4 [1, 128]
00000000: 0ad7 23bc 0ad7 23bc 0ad7 233c 0ad7 23bc
00000010: 0ad7 233c 0ad7 23bc 0ad7 23bc 0ad7 23bc
00000020: 0ad7 23bc 0ad7 23bc 0ad7 233c 0ad7 233c
00000030: 0ad7 233c 0ad7 233c 0ad7 233c 0ad7 23bc
00000040: 0ad7 23bc 0ad7 233c 0ad7 23bc 0ad7 23bc
00000050: 0ad7 23bc 0ad7 233c 0ad7 233c 0ad7 233c
00000060: 0ad7 233c 0ad7 233c 0ad7 233c 0ad7 23bc
00000070: 0ad7 23bc 0ad7 23bc 0ad7 23bc 0ad7 233c
00000080: 0ad7 23bc 0ad7 23bc 0ad7 233c 0ad7 233c
00000090: 0ad7 233c 0ad7 23bc 0ad7 233c 0ad7 23bc
000000a0: 0ad7 23bc 0ad7 233c 0ad7 233c 0ad7 233c
000000b0: 0ad7 233c 0ad7 233c 0ad7 23bc 0ad7 233c
000000c0: 0ad7 23bc 0ad7 233c 0ad7 23bc 0ad7 23bc
000000d0: 0ad7 233c 0ad7 233c 0ad7 233c 0ad7 23bc
000000e0: 0ad7 233c 0ad7 233c 0ad7 23bc 0ad7 23bc
000000f0: 0ad7 233c 0ad7 23bc 0ad7 23bc 0ad7 233c
00000100: 0ad7 23bc 0ad7 23bc 0ad7 233c 0ad7 233c
00000110: 0ad7 233c 0ad7 233c 0ad7 233c 0ad7 23bc
00000120: 0ad7 23bc 0ad7 23bc 0ad7 23bc 0ad7 23bc
00000130: 0ad7 23bc 0ad7 23bc 0ad7 23bc 0ad7 233c
00000140: 0ad7 23bc 0ad7 233c 0ad7 23bc 0ad7 23bc
00000150: 0ad7 233c 0ad7 233c 0ad7 23bc 0ad7 233c
00000160: 0ad7 233c 0ad7 233c 0ad7 233c 0ad7 233c
00000170: 0ad7 233c 0ad7 23bc 0ad7 23bc 0ad7 23bc
00000180: 0ad7 233c 0ad7 233c 0ad7 23bc 0ad7 23bc
00000190: 0ad7 23bc 0ad7 233c 0ad7 233c 0ad7 23bc
000001a0: 0ad7 233c 0ad7 23bc 0ad7 233c 0ad7 233c
000001b0: 0ad7 233c 0ad7 23bc 0ad7 23bc 0ad7 233c
000001c0: 0ad7 23bc 0ad7 23bc 0ad7 23bc 0ad7 233c
000001d0: 0ad7 233c 0ad7 23bc 0ad7 23bc 0ad7 233c
000001e0: 0ad7 23bc 0ad7 23bc 0ad7 23bc 0ad7 233c
000001f0: 0ad7 23bc 0ad7 23bc 0ad7 233c 0ad7 23bc
-0.01 -0.01 0.01 -0.01 0.01 -0.01 -0.01 -0.01
-0.01 -0.01 0.01 0.01 0.01 0.01 0.01 -0.01
-0.01 0.01 -0.01 -0.01 -0.01 0.01 0.01 0.01
0.01 0.01 0.01 -0.01 -0.01 -0.01 -0.01 0.01
-0.01 -0.01 0.01 0.01 0.01 -0.01 0.01 -0.01
-0.01 0.01 0.01 0.01 0.01 0.01 -0.01 0.01
-0.01 0.01 -0.01 -0.01 0.01 0.01 0.01 -0.01
0.01 0.01 -0.01 -0.01 0.01 -0.01 -0.01 0.01
-0.01 -0.01 0.01 0.01 0.01 0.01 0.01 -0.01
-0.01 -0.01 -0.01 -0.01 -0.01 -0.01 -0.01 0.01
-0.01 0.01 -0.01 -0.01 0.01 0.01 -0.01 0.01
0.01 0.01 0.01 0.01 0.01 -0.01 -0.01 -0.01
0.01 0.01 -0.01 -0.01 -0.01 0.01 0.01 -0.01
0.01 -0.01 0.01 0.01 0.01 -0.01 -0.01 0.01
-0.01 -0.01 -0.01 0.01 0.01 -0.01 -0.01 0.01
-0.01 -0.01 -0.01 0.01 -0.01 -0.01 0.01 -0.01
