10_Models/Results_Chicago/WGANBR_Congestion_discriminator_trad_best.pth (torch, 78222 bytes, 13 tensors)

fc1.weight f4 [128, 2]
0.01 -0.01 -0.01 0.009745476 -0.01 -0.009886906 0.00046241653 0.01
0.01 -0.009979676 0.01 0.0098878 0.01 0.00988774 -0.00022948485 0.01
0.01 0.009887793 -0.01 -0.009886898 -0.01 0.009371083 -0.01 -0.009887
0.01 -0.009934348 -0.01 -0.009887184 0.01 -0.009990368 0.01 -0.009943628
-0.01 0.00958567 0.01 0.009887737 0.01 -0.01 -0.01 0.009290678
0.01 0.009887779 0.01 -0.00999 0.01 -0.009991064 -0.01 -0.009887038
0.0002922734 0.01 0.01 0.009887754 -0.01 -0.009886949 0.01 -0.009832961
-0.01 -0.009886968 0.01 -0.009982619 0.01 0.009887732 -0.01 0.009341755
0.01 -0.009972755 0.01 0.00988779 -0.009999524 0.00667517 -0.01 -0.009887112
0.01 0.009887764 -0.01 -0.009887153 -0.01 -0.009887072 -0.01 -0.009887123
0.01 0.009887685 0.01 -0.009641574 -0.01 0.008022379 0.01 -0.009990944
0.009522209 -0.009826966 -0.01 -0.009886976 0.01 -0.009994538 -0.01 0.009664356
-0.01 -0.009887147 -0.01 0.00731109 0.01 -0.0099182725 0.01 0.009887754
0.01 -0.01 -0.009999819 0.008007522 0.01 -0.009985559 -0.01 0.01
-0.01 0.00847666 -0.01 -0.009887079 0.01 -0.009985952 -0.01 0.0073878705
0.01 -0.01 0.01 -0.00999149 0.01 0.009887751 0.01 -0.01
0.01 -0.01 -0.01 0.008301479 0.01 -0.01 0.01 -0.0099861035
-0.01 0.004198299 0.01 -0.009968227 0.01 0.009887752 0.01 0.009887806
0.01 0.009887776 -0.01 0.008311662 -0.009999762 0.0076238425 -0.01 -0.009887236
-0.01 -0.009886996 0.01 -0.01 0.01 -0.0099913385 -0.01 0.009397108
-0.0099989455 0.01 -0.01 0.007852807 -0.01 -0.009887066 0.01 -0.009938621
-0.01 0.00797601 -0.01 -0.009894021 -0.01 -0.009887008 0.01 -0.00965789
-0.01 0.0078068827 0.01 -0.01 0.01 -0.01 0.01 -0.009981414
-0.01 -0.009887116 0.01 -0.01 0.01 -0.01 -0.01 0.009364845
0.01 0.009887755 0.01 -0.01 -0.0037951963 0.01 0.01 -0.01
0.01 0.009887772 0.01 -0.01 -0.01 -0.00988722 -0.00999977 0.008214309
-0.01 0.009440093 0.01 -0.009973773 0.01 0.00988768 0.01 -0.009994269
-0.009996652 -0.00058807764 0.01 -0.009857016 -0.01 -0.009887041 0.01 -0.01
-0.01 -0.00988703 0.01 -0.01 -0.01 -0.009887104 -0.01 0.0075796465
-0.009998881 0.00999492 0.009946458 -0.009909515 0.01 -0.00999791 0.01 -0.01
-0.01 -0.009887037 0.01 -0.009991102 -0.00141164 0.01 0.01 -0.009991227
0.01 0.009887722 -0.01 -0.00989781 0.01 0.009887774 -0.009995659 0.00848147
00000000: 0ad7 233c 0ad7 23bc 0ad7 23bc 7dab 1f3c
00000010: 0ad7 23bc b0fc 21bc 7f70 f239 0ad7 233c
00000020: 0ad7 233c cc81 23bc 0ad7 233c 7000 223c
00000030: 0ad7 233c 3000 223c dfa1 70b9 0ad7 233c
00000040: 0ad7 233c 6900 223c 0ad7 23bc a8fc 21bc
00000050: 0ad7 23bc 2c89 193c 0ad7 23bc 15fd 21bc
00000060: 0ad7 233c adc3 22bc 0ad7 23bc dbfd 21bc
00000070: 0ad7 233c a4ae 23bc 0ad7 233c 99ea 22bc
00000080: 0ad7 23bc 370d 1d3c 0ad7 233c 2d00 223c
00000090: 0ad7 233c 0ad7 23bc 0ad7 23bc ee37 183c
000000a0: 0ad7 233c 5a00 223c 0ad7 233c 19ad 23bc
000000b0: 0ad7 233c 8fb1 23bc 0ad7 23bc 3efd 21bc
000000c0: 463c 9939 0ad7 233c 0ad7 233c 3f00 223c
000000d0: 0ad7 23bc dffc 21bc 0ad7 233c 6d1a 21bc
000000e0: 0ad7 23bc f3fc 21bc 0ad7 233c 248e 23bc
000000f0: 0ad7 233c 2700 223c 0ad7 23bc 290e 193c
00000100: 0ad7 233c c464 23bc 0ad7 233c 6600 223c
00000110: 0bd5 23bc 62bb da3b 0ad7 23bc 8efd 21bc
00000120: 0ad7 233c 4a00 223c 0ad7 23bc bafd 21bc
00000130: 0ad7 23bc 63fd 21bc 0ad7 23bc 99fd 21bc
00000140: 0ad7 233c f5ff 213c 0ad7 233c b1f7 1dbc
00000150: 0ad7 23bc 4c70 033c 0ad7 233c 0eb1 23bc
00000160: 0a03 1c3c 4801 21bc 0ad7 23bc fcfc 21bc
00000170: 0ad7 233c 21c0 23bc 0ad7 23bc 3f57 1e3c
00000180: 0ad7 23bc b3fd 21bc 0ad7 23bc de91 ef3b
00000190: 0ad7 233c 4080 22bc 0ad7 233c 3f00 223c
000001a0: 0ad7 233c 0ad7 23bc 48d6 23bc fb31 033c
000001b0: 0ad7 233c 789a 23bc 0ad7 23bc 0ad7 233c
000001c0: 0ad7 23bc b0e1 0a3c 0ad7 23bc 6afd 21bc
000001d0: 0ad7 233c 1e9c 23bc 0ad7 23bc f315 f23b
000001e0: 0ad7 233c 0ad7 23bc 0ad7 233c 59b3 23bc
000001f0: 0ad7 233c 3c00 223c 0ad7 233c 0ad7 23bc
00000200: 0ad7 233c 0ad7 23bc 0ad7 23bc ed02 083c
00000210: 0ad7 233c 0ad7 23bc 0ad7 233c c19c 23bc
00000220: 0ad7 23bc e291 893b 0ad7 233c c651 23bc
00000230: 0ad7 233c 3d00 223c 0ad7 233c 7700 223c
00000240: 0ad7 233c 5700 223c 0ad7 23bc a32d 083c
00000250: 0bd6 23bc 6dd1 f93b 0ad7 23bc 13fe 21bc
00000260: 0ad7 23bc 11fd 21bc 0ad7 233c 0ad7 23bc
00000270: 0ad7 233c b6b2 23bc 0ad7 23bc 54f6 193c
00000280: 9ed2 23bc 0ad7 233c 0ad7 23bc 0fa9 003c
00000290: 0ad7 23bc 5cfd 21bc 0ad7 233c 99d5 22bc
000002a0: 0ad7 23bc d0ad 023c 0ad7 23bc 881a 22bc
000002b0: 0ad7 23bc 1efd 21bc 0ad7 233c 203c 1ebc
000002c0: 0ad7 23bc e1d0 ff3b 0ad7 233c 0ad7 23bc
000002d0: 0ad7 233c 0ad7 23bc 0ad7 233c 1689 23bc
000002e0: 0ad7 23bc 92fd 21bc 0ad7 233c 0ad7 23bc
000002f0: 0ad7 233c 0ad7 23bc 0ad7 23bc 026f 193c
00000300: 0ad7 233c 4000 223c 0ad7 233c 0ad7 23bc
00000310: d4b8 78bb 0ad7 233c 0ad7 233c 0ad7 23bc
00000320: 0ad7 233c 5200 223c 0ad7 233c 0ad7 23bc
00000330: 0ad7 23bc 02fe 21bc 13d6 23bc 4f95 063c
00000340: 0ad7 23bc 9faa 1a3c 0ad7 233c 0969 23bc
00000350: 0ad7 233c f0ff 213c 0ad7 233c 01bf 23bc
00000360: ffc8 23bc 3929 1aba 0ad7 233c 527f 21bc
00000370: 0ad7 23bc 41fd 21bc 0ad7 233c 0ad7 23bc
00000380: 0ad7 23bc 36fd 21bc 0ad7 233c 0ad7 23bc
00000390: 0ad7 23bc 85fd 21bc 0ad7 23bc af5e f83b
000003a0: 59d2 23bc bcc1 233c 78f6 223c 855b 22bc
000003b0: 0ad7 233c 46ce 23bc 0ad7 233c 0ad7 23bc
000003c0: 0ad7 23bc 3dfd 21bc 0ad7 233c b8b1 23bc
000003d0: c706 b9ba 0ad7 233c 0ad7 233c 3eb2 23bc
000003e0: 0ad7 233c 1d00 223c 0ad7 23bc 6d2a 22bc
000003f0: 0ad7 233c 5400 223c d5c4 23bc ddf5 0a3c

fc1.bias f4 [128]
-0.0099816555 0.009966819 -0.009992677 0.009985677 -0.009993941 0.0014455238 -0.009928899 0.00998725
0.009936574 0.00996812 0.009985645 -0.009981416 -0.009962196 -0.009991506 -0.009989401 0.009980066
0.009990331 0.00997588 -0.009992534 -0.009999487 0.00995175 -0.009950838 -0.00999631 0.009988566
0.009998979 0.009928412 -0.009989887 0.009998755 0.009960574 0.009969138 0.009968936 -0.009979053
0.009975776 0.007393104 -0.009939972 -0.009984373 -0.009999028 -0.009944279 0.009952361 0.00993683
-0.009997266 0.009960288 0.009973829 0.009992995 -0.009963067 0.009939345 -0.009975367 -0.009989859
0.0099738715 -0.009913567 -0.009977986 -0.009943292 0.00999597 -0.009992286 -0.009979307 0.009971884
-0.009970338 -0.00999067 -0.009997048 0.009998928 0.009999302 0.009991627 -0.009962866 0.009999217
-0.009993848 -0.009968187 -0.009998128 0.00998844 -0.009974531 -0.009995859 0.009973829 -0.009999251
0.009990343 -0.009961384 -0.009982236 -0.009997632 -0.009973831 -0.009992554 -0.009989421 -0.009978863
-0.009993169 -0.009979778 0.009949372 0.009999977 -0.00995153 -0.009893611 -0.009988258 -0.009990448
0.0099451495 0.0099855345 -0.0099937 -0.009993946 -0.009954346 -0.009993888 -0.009987441 0.009932773
0.009914825 0.009993536 0.009989139 0.009993696 -0.009963755 -0.009995282 0.009953696 0.009963401
-0.009980807 -0.009955702 -0.009997303 0.009986335 -0.009885853 0.009977745 -0.009973032 0.009987029
0.007844816 -0.009998166 0.0099772895 -0.009977974 0.009976335 -0.009927757 -0.009957106 -0.009998681
-0.00997444 0.009994087 0.009983207 -0.009952952 -0.009965124 0.009970984 0.009927385 -0.009992913
00000000: 198a 23bc de4b 233c 53b8 23bc f79a 233c
00000010: a0bd 23bc bb77 bd3a d2ac 22bc 90a1 233c
00000020: 03cd 223c 5351 233c d59a 233c 1889 23bc
00000030: 7b38 23bc 6ab3 23bc 96aa 23bc 6e83 233c
00000040: 7cae 233c e071 233c bab7 23bc e3d4 23bc
00000050: aa0c 233c d708 23bc 90c7 23bc 15a7 233c
00000060: c2d2 233c c7aa 223c 9fac 23bc d1d1 233c
00000070: ad31 233c 9855 233c c054 233c 2f7f 23bc
00000080: 7071 233c da41 f23b 44db 22bc 7f95 23bc
00000090: f7d2 23bc 54ed 22bc 3a0f 233c 16ce 223c
000000a0: 93cb 23bc 7a30 233c 4569 233c a9b9 233c
000000b0: 223c 23bc a2d8 223c b96f 23bc 81ac 23bc
000000c0: 7369 233c 846c 22bc b57a 23bc 30e9 22bc
000000d0: 23c6 233c afb6 23bc 3f80 23bc 1d61 233c
000000e0: a15a 23bc e8af 23bc a9ca 23bc 8bd2 233c
000000f0: 1dd4 233c ecb3 233c 4a3b 23bc c2d3 233c
00000100: 3dbd 23bc 9b51 23bc 30cf 23bc 8ea6 233c
00000110: 376c 23bc acc5 23bc 4569 233c e6d3 23bc
00000120: 89ae 233c 1335 23bc 888c 23bc 1ccd 23bc
00000130: 4769 23bc cfb7 23bc abaa 23bc 637e 23bc
00000140: 64ba 23bc 3982 23bc b102 233c f2d6 233c
00000150: be0b 23bc d018 22bc caa5 23bc faae 23bc
00000160: fbf0 223c 5e9a 233c 9ebc 23bc a6bd 23bc
00000170: 8e17 23bc 68bd 23bc 5da2 23bc 12bd 223c
00000180: ca71 223c eebb 233c 7ca9 233c 99bc 233c
00000190: 043f 23bc 40c3 23bc d414 233c 883d 233c
000001a0: 8a86 23bc 3e1d 23bc bacb 23bc ba9d 233c
000001b0: 46f8 21bc b279 233c ee65 23bc a3a0 233c
000001c0: 8b87 003c 59cf 23bc c977 233c a87a 23bc
000001d0: c873 233c 08a8 22bc 2123 23bc 82d1 23bc
000001e0: d56b 23bc 3dbe 233c 9b90 233c b511 23bc
000001f0: c244 23bc 575d 233c 78a6 223c 51b9 23bc

bn1.weight f4 [128]
0.009919462 0.00996023 0.009992356 0.009954325 0.009975998 0.009985278 0.009985278 0.00995273
0.009985278 0.009992356 0.009966907 0.009992356 0.0099778995 0.009992356 0.009974201 0.009981175
0.0099623315 0.009985278 0.009933144 0.009965598 0.009985278 0.009974785 0.009971879 0.009992356
0.009952683 0.009985278 0.009992356 0.009978766 0.009992356 0.009975901 0.009985278 0.009964696
0.009975142 0.009985278 0.009969183 0.009992356 0.009985278 0.009992356 0.009992356 0.009992356
0.009985278 0.009955778 0.009968217 0.009974612 0.009977666 0.009992356 0.009970702 0.009959242
0.009992356 0.00997315 0.009977815 0.009985278 0.009950218 0.009967203 0.00997666 0.009948705
0.0099642 0.009992356 0.006604752 0.009970062 0.009919857 0.009973937 0.009985278 0.009923647
0.0099185305 0.009970955 0.009937404 0.009974006 0.0099732345 0.009977052 0.009985278 0.009985278
0.009985278 0.009972711 0.00997036 0.009992356 0.009992356 0.0099426145 0.009972752 0.009966131
0.009941335 0.009966374 0.009992356 0.009976294 0.0099679865 0.0099911 0.009992356 0.009958038
0.009968119 0.009918331 0.0099139325 0.009976522 0.009992356 0.009922499 0.0099477 0.00995744
0.009985278 0.009919957 0.009955404 0.009923066 0.009985278 0.009935359 0.009992356 0.009963006
0.009965249 0.009977005 0.009985278 0.009966908 0.00995816 0.00997837 0.009992356 0.009907204
0.009992356 0.009919906 0.009992356 0.009967067 0.0099457735 0.009981987 0.009967361 0.00992278
0.009992356 0.009974705 0.009963101 0.009970823 0.009985278 0.009990335 0.009985278 0.009968798
00000000: 3d85 223c 3c30 233c fbb6 233c 7717 233c
00000010: 5e72 233c 4b99 233c 4b99 233c c610 233c
00000020: 4b99 233c fbb6 233c 3d4c 233c fbb6 233c
00000030: 587a 233c fbb6 233c d56a 233c 1588 233c
00000040: 0c39 233c 4b99 233c a0be 223c bf46 233c
00000050: 4b99 233c 486d 233c 1861 233c fbb6 233c
00000060: 9410 233c 4b99 233c fbb6 233c fa7d 233c
00000070: fbb6 233c f671 233c 4b99 233c f742 233c
00000080: c76e 233c 4b99 233c c955 233c fbb6 233c
00000090: 4b99 233c fbb6 233c fbb6 233c fbb6 233c
000000a0: 4b99 233c 8f1d 233c bc51 233c 8e6c 233c
000000b0: 5d79 233c fbb6 233c 285c 233c 172c 233c
000000c0: fbb6 233c 6c66 233c fd79 233c 4b99 233c
000000d0: 3d06 233c 7b4d 233c 2575 233c e5ff 223c
000000e0: e240 233c fbb6 233c ad6c d83b 7959 233c
000000f0: e586 223c b969 233c 4b99 233c cb96 223c
00000100: 5581 223c 375d 233c 7ed0 223c 036a 233c
00000110: c766 233c ca76 233c 4b99 233c 4b99 233c
00000120: 4b99 233c 9564 233c b95a 233c fbb6 233c
00000130: fbb6 233c 59e6 223c c164 233c fc48 233c
00000140: fbe0 223c 014a 233c fbb6 233c 9c73 233c
00000150: c450 233c b6b1 233c fbb6 233c 0a27 233c
00000160: 5251 233c 7f80 223c 0c6e 223c 9174 233c
00000170: fbb6 233c fa91 223c aefb 223c 8824 233c
00000180: 4b99 233c 5187 223c fe1b 233c 5b94 223c
00000190: 4b99 233c eac7 223c fbb6 233c e03b 233c
000001a0: 4945 233c 9876 233c 4b99 233c 3e4c 233c
000001b0: 8d27 233c 517c 233c fbb6 233c d351 223c
000001c0: fbb6 233c 1a87 223c fbb6 233c e94c 233c
000001d0: 99f3 223c 7d8b 233c 244e 233c 2893 223c
000001e0: fbb6 233c f26c 233c 463c 233c aa5c 233c
000001f0: 4b99 233c 81ae 233c 4b99 233c 2b54 233c

bn1.bias f4 [128]
0.003784525 0.009939313 0.009823034 0.005526025 0.009877531 0.009992491 0.009992491 0.005557882
0.009992491 0.009823034 0.009972503 0.009823034 0.009914557 0.009823034 0.009750439 0.009919945
0.009961692 0.009992491 0.0035993052 0.009926334 0.009992491 0.009820771 0.009669142 0.009823034
0.0055187475 0.009992491 0.009823034 0.009934581 0.0098230345 0.009890098 0.009992491 0.009943489
0.009899139 0.009992491 0.009898279 0.009823034 0.009992491 0.009823034 0.0098230345 0.009823034
0.009992491 0.009952468 0.009922278 0.009640954 0.009935701 0.009823033 0.009008337 0.009968756
0.009823033 0.009970518 0.009930055 0.009992491 0.0036725297 0.0099043865 0.009886507 0.0098432945
0.009976359 0.009823034 0.009988501 0.009965777 0.003735756 0.009629717 0.009992491 0.003798761
0.003782765 0.009959961 0.003599419 0.00988971 0.009763213 0.009910038 0.009992491 0.009992491
0.009992491 0.009968668 0.00995961 0.009823034 0.0098230345 0.003479554 0.009587213 0.009934929
0.00971986 0.009972083 0.009823034 0.009912171 0.009962442 0.009965646 0.009823034 0.009946005
0.009961439 0.003777019 0.0037891315 0.009898592 0.009823034 0.0036627844 0.0034652364 0.009962826
0.009992491 0.0038060439 0.0055502723 0.003754567 0.009992491 0.0036606875 0.009823034 0.009976652
0.009969882 0.009904077 0.009992491 0.008317487 0.0066006514 0.009941952 0.009823034 0.003911433
0.009823034 0.0037930626 0.009823034 0.009975794 0.009736444 0.009929976 0.007594518 0.0037525857
0.009823034 0.009635149 0.005846355 0.009443231 0.009992491 0.009966054 0.009992491 0.006260271
00000000: cb05 783b 80d8 223c caf0 203c a813 b53b
00000010: 5ed5 213c 8cb7 233c 8cb7 233c e51e b63b
00000020: 8cb7 233c caf0 203c b663 233c caf0 203c
00000030: ab70 223c caf0 203c 4ec0 1f3c 4487 223c
00000040: 5d36 233c 8cb7 233c 52e2 6b3b 10a2 223c
00000050: 8cb7 233c 4de7 203c 526b 1e3c caf0 203c
00000060: 9cd6 b43b 8cb7 233c caf0 203c a7c4 223c
00000070: cbf0 203c 140a 223c 8cb7 233c 04ea 223c
00000080: 0030 223c 8cb7 233c 642c 223c caf0 203c
00000090: 8cb7 233c caf0 203c cbf0 203c caf0 203c
000000a0: 8cb7 233c ad0f 233c 0d91 223c 18f5 1d3c
000000b0: 5ac9 223c c9f0 203c b497 133c fe53 233c
000000c0: c9f0 203c 625b 233c abb1 223c 8cb7 233c
000000d0: d3ae 703b 0246 223c 04fb 213c c545 213c
000000e0: e273 233c caf0 203c cfa6 233c 8047 233c
000000f0: 96d3 743b f6c5 1d3c 8cb7 233c a2f4 783b
00000100: 44e8 773b 1b2f 233c 3be4 6b3b 7308 223c
00000110: e2f5 1f3c b65d 223c 8cb7 233c 8cb7 233c
00000120: 8cb7 233c a053 233c a22d 233c caf0 203c
00000130: cbf0 203c 3b09 643b b013 1d3c 1dc6 223c
00000140: 0c40 1f3c f361 233c caf0 203c a966 223c
00000150: 8339 233c f346 233c caf0 203c 92f4 223c
00000160: 4e35 233c dd87 773b 1453 783b b42d 223c
00000170: caf0 203c 530b 703b 0519 633b 1f3b 233c
00000180: 8cb7 233c d26e 793b 0fdf b53b 2e0f 763b
00000190: 8cb7 233c 25e8 6f3b caf0 203c 1d75 233c
000001a0: b758 233c b644 223c 8cb7 233c 1246 083c
000001b0: 474a d83b 92e3 223c caf0 203c 7a2b 803b
000001c0: caf0 203c 0895 783b caf0 203c 8371 233c
000001d0: 9b85 1f3c 57b1 223c 6fdb f83b f1ed 753b
000001e0: caf0 203c bedc 1d3c c892 bf3b c8b7 1a3c
000001f0: 8cb7 233c a948 233c 8cb7 233c f622 cd3b

bn1.running_mean f4 [128]
8404.736 -8294.699 -49.143738 -4005.7307 8392.542 43.51102 43.51611 -4297.983
43.521263 -49.12996 -8138.549 -49.122547 8374.539 -49.074043 8398.26 8378.434
-8227.663 43.540108 8404.72 -8104.949 43.532555 8398.343 8399.54 -49.092766
-4077.8748 43.53614 -49.14456 8332.514 -49.130505 8394.514 43.544975 -8126.426
8390.332 43.52477 -7005.995 -49.111557 43.505466 -49.068314 -49.0901 -49.080807
43.534843 8252.764 -7572.2344 8399.827 8127.9434 -49.122345 8400.539 -8261.113
-49.053337 -7273.541 8367.918 43.51482 8403.226 -7566.0205 8395.378 -8400.214
-7763.2026 -49.09981 8396.489 -7305.6753 8404.756 8400.023 43.508766 8404.754
8404.736 -7689.258 8404.734 8395.777 -5964.6704 8388.411 43.530212 43.491768
43.52559 -7693.729 -7404.698 -49.067623 -49.123882 8403.618 8399.757 -8149.448
-8400.039 -7501.095 -49.0948 8376.488 -7552.5444 -44.96496 -49.135693 8259.548
-7481.8516 8404.756 8404.729 8393.924 -49.092625 8404.736 8404.161 -8135.8335
43.531902 8404.751 -5796.505 8404.754 43.51546 8404.734 -49.0373 -7653.1597
-8167.588 8390.793 43.52747 8400.721 -3946.444 8342.48 -49.119244 8404.539
-49.094734 8404.731 -49.0944 -7386.5527 -8399.388 8340.827 8401.191 8404.734
-49.10187 8399.83 -4791.765 8399.946 43.516403 -43.902176 43.530334 -7761.506
00000000: f252 0346 cc9a 01c6 3093 44c2 b15b 7ac5
00000010: 2b22 0346 490b 2e42 7f10 2e42 dd4f 86c5
00000020: c615 2e42 1485 44c2 6454 fec5 7d7d 44c2
00000030: 28da 0246 d24b 44c2 0a39 0346 bce9 0246
00000040: a78e 00c6 1229 2e42 e152 0346 9847 fdc5
00000050: 5621 2e42 5f39 0346 293e 0346 fe5e 44c2
00000060: ffdd 7ec5 0225 2e42 0894 44c2 0e32 0246
00000070: a385 44c2 0e2a 0346 0e2e 2e42 68f3 fdc5
00000080: 5419 0346 5d19 2e42 f6ef dac5 3c72 44c2
00000090: 9905 2e42 f445 44c2 435c 44c2 bf52 44c2
000000a0: ae23 2e42 0ef3 0046 e0a1 ecc5 4f3f 0346
000000b0: 8cff fd45 487d 44c2 2842 0346 7414 01c6
000000c0: 9e36 44c2 544c e3c5 acbf 0246 2d0f 2e42
000000d0: e74c 0346 2a70 ecc5 832d 0346 db40 03c6
000000e0: 9f99 f2c5 3566 44c2 f531 0346 674d e4c5
000000f0: 0653 0346 1840 0346 fa08 2e42 0453 0346
00000100: f252 0346 104a f0c5 f052 0346 1c2f 0346
00000110: 5d65 bac5 a511 0346 f01e 2e42 92f7 2d42
00000120: 341a 2e42 d56d f0c5 9665 e7c5 3f45 44c2
00000130: db7e 44c2 794e 0346 073f 0346 96ab fec5
00000140: 2840 03c6 c368 eac5 1361 44c2 f4e1 0246
00000150: 5b04 ecc5 1edc 33c2 f38a 44c2 310e 0146
00000160: d0ce e9c5 0653 0346 ea52 0346 b227 0346
00000170: d95e 44c2 f252 0346 a550 0346 ab3e fec5
00000180: ab20 2e42 0153 0346 0a24 b5c5 0453 0346
00000190: d50f 2e42 f052 0346 3226 44c2 4729 efc5
000001a0: b43c ffc5 2c1b 0346 211c 2e42 e242 0346
000001b0: 1ba7 76c5 ec59 0246 1b7a 44c2 2852 0346
000001c0: 0261 44c2 ed52 0346 aa60 44c2 6cd4 e6c5
000001d0: 8d3d 03c6 4f53 0246 c444 0346 f052 0346
000001e0: 5168 44c2 523f 0346 1fbe 95c5 c93f 0346
000001f0: cc10 2e42 d49b 2fc2 101f 2e42 0c8c f2c5

bn1.running_var f4 [128]
6.7218424e+07 6.546723e+07 2320.7249 1.5269659e+07 6.7024828e+07 1818.5142 1819.9683 1.757842e+07
1818.6802 2321.1814 6.302482e+07 2318.6055 6.6736156e+07 2313.6868 6.71146e+07 6.679796e+07
6.4412816e+07 1820.324 6.721814e+07 6.2505024e+07 1819.6157 6.711561e+07 6.7133176e+07 2317.603
1.5823961e+07 1819.9347 2320.7898 6.6067052e+07 2321.2686 6.705492e+07 1820.6871 6.2836628e+07
6.6988132e+07 1819.1925 4.6702828e+07 2317.4392 1819.099 2313.195 2317.3406 2316.389
1821.6046 6.4807764e+07 5.4557876e+07 6.713687e+07 6.2864844e+07 2320.4382 6.714866e+07 6.4938584e+07
2313.6223 5.0338136e+07 6.6630504e+07 1819.8395 6.719288e+07 5.4468308e+07 6.7069444e+07 6.7146344e+07
5.734465e+07 2316.3228 6.708642e+07 5.0784412e+07 6.7218424e+07 6.714017e+07 1819.4177 6.72184e+07
6.7218424e+07 5.6257424e+07 6.7218424e+07 6.7075348e+07 3.385091e+07 6.695781e+07 1819.4996 1817.9335
1819.0923 5.6322652e+07 5.2170184e+07 2313.0425 2318.708 6.719904e+07 6.713623e+07 6.319335e+07
6.714266e+07 5.3537508e+07 2317.7148 6.6766756e+07 5.4274412e+07 1938.0878 2319.8857 6.491472e+07
5.3263348e+07 6.721842e+07 6.721832e+07 6.7045896e+07 2315.6228 6.7218424e+07 6.720886e+07 6.298288e+07
1819.6824 6.721836e+07 3.197282e+07 6.721842e+07 1819.8383 6.7218424e+07 2312.1094 5.5730452e+07
6.3475308e+07 6.6995756e+07 1821.0131 6.715103e+07 1.4819641e+07 6.622544e+07 2318.2087 6.7214776e+07
2317.6082 6.7218376e+07 2317.7117 5.1914588e+07 6.7131496e+07 6.620064e+07 6.715935e+07 6.7218424e+07
2316.4917 6.7137e+07 2.1849652e+07 6.713899e+07 1820.0786 1847.1344 1819.4312 5.732023e+07
00000000: 7f35 804c d8bc 794c 990b 1145 1bff 684b
00000010: efad 7f4c 7450 e344 fc7e e344 da1c 864b
00000020: c455 e344 e712 1145 ad6b 704c b0e9 1045
00000030: 0794 7e4c fd9a 1045 cd02 804c 62d0 7e4c
00000040: 24b7 754c 5e8a e344 5c35 804c 1070 6e4c
00000050: b473 e344 4b03 804c df0b 804c a6d9 1045
00000060: 5974 714b e97d e344 a30c 1145 9b06 7c4c
00000070: 4c14 1145 52cb 7f4c fd95 e344 e5b3 6f4c
00000080: 198a 7f4c 2966 e344 3b28 324c 07d7 1045
00000090: 2b63 e344 1f93 1045 73d5 1045 39c6 1045
000000a0: 59b3 e344 d538 774c 2d1f 504c ad0d 804c
000000b0: 73cf 6f4c 0307 1145 6e13 804c 96b8 774c
000000c0: f599 1045 5606 404c da2c 7e4c dd7a e344
000000d0: 0629 804c b5c7 4f4c 81d9 7f4c 4d12 804c
000000e0: a2c0 5a4c 2ac5 1045 15ea 7f4c 27ba 414c
000000f0: 7f35 804c 490f 804c 5e6d e344 7c35 804c
00000100: 7f35 804c e49a 564c 7f35 804c 45df 7f4c
00000110: 8821 014c 7c6c 7f4c fd6f e344 df3d e344
00000120: f462 e344 97da 564c 7203 474c ae90 1045
00000130: 54eb 1045 082c 804c 5d0d 804c 4210 714c
00000140: 8010 804c b93a 4c4c 70db 1045 e9b1 7e4c
00000150: 5b0a 4f4c cf42 f244 2cfe 1045 48a1 774c
00000160: fd2e 4b4c 7e35 804c 7235 804c 82c2 7f4c
00000170: f7b9 1045 7f35 804c d430 804c b842 704c
00000180: d675 e344 7735 804c eaee f34b 7e35 804c
00000190: d37a e344 7f35 804c c081 1045 4598 544c
000001a0: 9b23 724c 8b91 7f4c 6ba0 e344 9714 804c
000001b0: 3921 624b 48a1 7c4c 57e3 1045 b733 804c
000001c0: bbd9 1045 7935 804c 63db 1045 d709 464c
000001d0: 0d0b 804c 1089 7c4c a718 804c 7f35 804c
000001e0: dec7 1045 bd0d 804c 1ab3 a64b b60e 804c
000001f0: 8482 e344 4de4 e644 cc6d e344 caa8 5a4c

fc2.weight f4 [128, 128]
-0.0037821007 0.009985621 0.009983028 0.0067260126 -0.0066575874 -0.009979552 -0.009979552 -0.005553234
-0.009979552 0.009983028 0.009984393 0.009983028 -0.01 0.009983028 -0.0064834347 -0.007059274
0.00078848004 -0.009979552 -0.0075337887 0.009984892 -0.009979552 -0.01 -0.01 0.009983028
-0.0061256625 -0.009979552 0.009983028 -0.01 0.009983028 -0.006783989 -0.009979552 0.0066772983
-0.01 -0.009979552 0.006803061 0.009983028 -0.009979552 0.009983028 0.009983028 0.009983028
-0.009979552 -0.007420832 0.009987521 -0.01 -0.0067335814 0.009983028 -0.01 0.0006881737
0.009983028 0.0066923033 -0.01 -0.009979552 -0.00071978354 0.009987766 -0.01 0.00011930402
0.009985951 0.009983028 -0.01 0.009988732 0.005029075 -0.01 -0.009979552 -0.0036269217
0.00532182 0.009986254 0.002407272 -0.007800861 0.00613786 -0.01 -0.009979552 -0.009979552
-0.009979552 0.009986345 0.006784394 0.009983028 0.009983028 -0.0023768055 -0.01 0.009984983
0.00087985315 0.009987306 0.009983028 -0.01 0.009987209 0.009983044 0.009983028 -0.01
0.009987664 0.0053357775 0.0055191997 -0.01 0.009983028 -0.0035870648 -0.0060908915 0.009984239
-0.009979552 0.005505978 -0.0036323355 0.0051394464 -0.009979552 -0.007637094 0.009983028 0.0043644044
0.006199424 -0.01 -0.009979552 -0.01 0.009982843 -0.007952809 0.009983028 0.008740454
0.009983028 -0.0035013058 0.009983028 0.0061349208 0.009989917 -0.01 -0.003180642 -0.0026675158
0.009983028 -0.01 0.009075219 -0.01 -0.009979552 0.009983045 -0.009979552 0.00028585747
-0.0055914135 0.0014417293 -0.00999132 0.009949844 -0.009280385 0.009991473 0.009991473 0.009949822
0.009991473 -0.00999132 0.009941111 -0.00999132 -0.0092441095 -0.00999132 -0.009365784 0.0020537148
0.00994111 0.009991473 -0.009929484 0.009941128 0.009991473 0.0019967998 -0.009401887 -0.00999132
0.009949846 0.009991473 -0.00999132 -0.00922757 -0.00999132 0.0018333881 0.009991473 0.0006151264
-0.009256033 0.009991473 0.0005492945 -0.00999132 0.009991473 -0.00999132 -0.00999132 -0.00999132
0.009991473 -0.0027468032 0.009941119 -0.009393328 0.00201418 -0.00999132 0.0013699736 0.009941098
-0.00999132 0.009941091 0.0020921377 0.009991473 -0.009929744 0.00059834385 0.0019855048 0.0026952743
0.009941099 -0.00999132 -0.0014296996 0.000549212 -0.009929564 -0.009385219 0.009991473 -0.0055454466
-0.0054608756 0.00056998467 -0.0039100824 -0.009256322 0.009936816 0.002078677 0.009991473 0.009991473
0.009991473 0.0099411225 0.0006015355 -0.00999132 -0.00999132 -0.0099294325 -0.0057329084 0.009941132
0.002385466 0.0005781731 -0.00999132 -0.00924729 0.0006323189 -0.00999132 -0.00999132 -0.009106378
0.00060647016 -0.009929629 -0.009929628 -0.009251819 -0.00999132 -0.0053996933 -0.0046909144 0.009941109
0.009991473 -0.009929656 0.0099498285 -0.009929618 0.009991473 -0.009929586 -0.00999132 0.009941092
0.00060743495 -0.009258153 0.009991473 -0.009925621 -0.00016427007 -0.00921652 -0.00999132 -0.0065170685
-0.00999132 -0.009929646 -0.00999132 0.00994112 0.009941085 0.0018823575 -0.00992702 -0.006389924
-0.00999132 -0.0094212005 0.009949595 -0.009541153 0.009991473 -0.0003659775 0.009991473 0.009949265
00000000: 1fdd 77bb bb9a 233c db8f 233c e265 dc3b
00000010: e427 dabb 4681 23bc 4681 23bc e7f7 b5bb
00000020: 4681 23bc db8f 233c 9495 233c db8f 233c
00000030: 0ad7 23bc db8f 233c fe72 d4bb 7b51 e7bb
00000040: 00b2 4e3a 4681 23bc 00de f6bb ac97 233c
00000050: 4681 23bc 0ad7 23bc 0ad7 23bc db8f 233c
00000060: c8b9 c8bb 4681 23bc db8f 233c 0ad7 23bc
00000070: db8f 233c 394c debb 4681 23bc 3dcd da3b
00000080: 0ad7 23bc 4681 23bc 36ec de3b db8f 233c
00000090: 4681 23bc db8f 233c db8f 233c db8f 233c
000000a0: 4681 23bc 732a f3bb b3a2 233c 0ad7 23bc
000000b0: 60a5 dcbb db8f 233c 0ad7 23bc 8e66 343a
000000c0: db8f 233c 1c4b db3b 0ad7 23bc 4681 23bc
000000d0: dbaf 3cba baa3 233c 0ad7 23bc dc32 fa38
000000e0: 1d9c 233c db8f 233c 0ad7 23bc c7a7 233c
000000f0: f0ca a43b 0ad7 23bc 4681 23bc a6b1 6dbb
00000100: a962 ae3b 639d 233c 53c3 1d3b 5d9e ffbb
00000110: 1a20 c93b 0ad7 23bc 4681 23bc 4681 23bc
00000120: 4681 23bc c49d 233c 9f4f de3b db8f 233c
00000130: db8f 233c 2ec4 1bbb 0ad7 23bc 0e98 233c
00000140: f2a5 663a cca1 233c db8f 233c 0ad7 23bc
00000150: 64a1 233c ec8f 233c db8f 233c 0ad7 23bc
00000160: 4da3 233c bfd7 ae3b 67da b43b 0ad7 23bc
00000170: db8f 233c f614 6bbb 1a96 c7bb ef94 233c
00000180: 4681 23bc 7e6b b43b 7a0c 6ebb cd68 a83b
00000190: 4681 23bc 9640 fabb db8f 233c 4703 8f3b
000001a0: 8a24 cb3b 0ad7 23bc 4681 23bc 0ad7 23bc
000001b0: 148f 233c 804c 02bc db8f 233c 1f34 0f3c
000001c0: db8f 233c 2a76 65bb db8f 233c 7207 c93b
000001d0: c0ac 233c 0ad7 23bc 5172 50bb 7dd1 2ebb
000001e0: db8f 233c 0ad7 23bc 3ab0 143c 0ad7 23bc
000001f0: 4681 23bc ed8f 233c 4681 23bc 24df 9539
00000200: 2d38 b7bb 68f8 bc3a a2b2 23bc ac04 233c
00000210: c20c 18bc 46b3 233c 46b3 233c 9404 233c
00000220: 46b3 233c a2b2 23bc 0be0 223c a2b2 23bc
00000230: 9b74 17bc a2b2 23bc f272 19bc 9e97 063b
00000240: 0ae0 223c 46b3 233c 46af 22bc 1de0 223c
00000250: 46b3 233c bedc 023b 5f0a 1abc a2b2 23bc
00000260: ae04 233c 46b3 233c a2b2 23bc 3c2f 17bc
00000270: a2b2 23bc 4c4e f03a 46b3 233c 6f40 213a
00000280: 9ea6 17bc 46b3 233c 88fe 0f3a a2b2 23bc
00000290: 46b3 233c a2b2 23bc a2b2 23bc a2b2 23bc
000002a0: 46b3 233c b603 34bb 13e0 223c 79e6 19bc
000002b0: 5500 043b a2b2 23bc b090 b33a fddf 223c
000002c0: a2b2 23bc f5df 223c 3f1c 093b 46b3 233c
000002d0: 5db0 22bc 2dda 1c3a 3e1f 023b 33a3 303b
000002e0: fedf 223c a2b2 23bc c264 bbba fef8 0f3a
000002f0: 9caf 22bc 76c4 19bc 46b3 233c 94b6 b5bb
00000300: 25f1 b2bb 066b 153a 2620 80bb d4a7 17bc
00000310: 07ce 223c 6a3a 083b 46b3 233c 46b3 233c
00000320: 46b3 233c 17e0 223c 5db0 1d3a a2b2 23bc
00000330: a2b2 23bc 0faf 22bc 1fdb bbbb 21e0 223c
00000340: 7a55 1c3b 8a90 173a a2b2 23bc f281 17bc
00000350: 34c2 253a a2b2 23bc a2b2 23bc eb32 15bc
00000360: 86fb 1e3a e2af 22bc e1af 22bc f194 17bc
00000370: a2b2 23bc e9ef b0bb 3eb6 99bb 09e0 223c
00000380: 46b3 233c ffaf 22bc 9b04 233c d6af 22bc
00000390: 46b3 233c b4af 22bc a2b2 23bc f6df 223c
000003a0: 453c 1f3a 82af 17bc 46b3 233c 129f 22bc
000003b0: e93f 2cb9 e300 17bc a2b2 23bc 228d d5bb
000003c0: a2b2 23bc f4af 22bc a2b2 23bc 14e0 223c
000003d0: efdf 223c 70b9 f63a f1a4 22bc 9162 d1bb
000003e0: a2b2 23bc 615b 1abc a003 233c 7f52 1cbc
000003f0: 46b3 233c abe0 bfb9 46b3 233c 3e02 233c

fc2.bias f4 [128]
-0.01 -0.01 -0.01 -0.01 -0.01 0.0013147724 0.0013948177 -0.01
-0.009999738 -0.01 -0.01 -0.01 -0.01 -0.009999659 -0.00999866 -0.01
-0.01 -0.01 0.0015328984 -0.01 -0.01 0.00046833765 0.0005177432 -0.01
-0.01 -0.009995105 -0.01 -0.01 -0.0012153998 -0.01 -0.01 -0.009998726
0.00029157512 -0.00042202236 0.00017006444 -0.01 -0.01 -0.01 -0.01 -0.00024866662
-0.00063820934 -0.01 -0.01 -0.01 -0.0056292643 -0.01 0.0003202829 -0.01
-0.00050657004 -0.00999964 -0.01 -0.01 -0.01 -0.0009963963 -0.01 -0.01
0.00039820542 -0.01 -0.01 -0.01 -0.01 -0.01 -0.01 -0.01
-0.01 -0.01 -0.01 -0.01 -0.01 -0.01 -0.00055468746 -0.006400377
-0.00040556234 -0.01 -0.01 -0.01 -0.01 -0.0099988775 -0.01 -0.01
-0.01 -0.009997054 0.0015062747 -0.01 0.009997312 -0.009998575 -0.00039231105 -0.01
-0.01 -0.009998495 -0.01 -0.01 -0.00031300003 -0.01 -0.01 -0.009985106
0.0023844752 -0.004419801 -0.01 -0.01 0.00024698212 -0.01 4.9077207e-05 -0.01
-0.009999091 -0.01 -0.0010057649 -0.009988416 -0.009925812 -0.00016261237 -0.01 -0.01
-0.01 -0.009998763 -0.01 -0.00999904 -0.009999112 -0.01 -0.01 -0.007037872
-0.001255421 -0.01 -0.01 -0.00998877 0.000805351 -0.01 -0.01 -0.00999801
00000000: 0ad7 23bc 0ad7 23bc 0ad7 23bc 0ad7 23bc
00000010: 0ad7 23bc 7154 ac3a 51d2 b63a 0ad7 23bc
00000020: f1d5 23bc 0ad7 23bc 0ad7 23bc 0ad7 23bc
00000030: 0ad7 23bc 9cd5 23bc 6bd1 23bc 0ad7 23bc
00000040: 0ad7 23bc 0ad7 23bc 89eb c83a 0ad7 23bc
00000050: 0ad7 23bc 378b f539 28b9 073a 0ad7 23bc
00000060: 0ad7 23bc 82c2 23bc 0ad7 23bc 0ad7 23bc
00000070: 0d4e 9fba 0ad7 23bc 0ad7 23bc b2d1 23bc
00000080: 8dde 9839 e242 ddb9 5353 3239 0ad7 23bc
00000090: 0ad7 23bc 0ad7 23bc 0ad7 23bc 785f 82b9
000000a0: 814d 27ba 0ad7 23bc 0ad7 23bc 0ad7 23bc
000000b0: b175 b8bb 0ad7 23bc a5eb a739 0ad7 23bc
000000c0: 57cb 04ba 88d5 23bc 0ad7 23bc 0ad7 23bc
000000d0: 0ad7 23bc 8399 82ba 0ad7 23bc 0ad7 23bc
000000e0: 3ac6 d039 0ad7 23bc 0ad7 23bc 0ad7 23bc
000000f0: 0ad7 23bc 0ad7 23bc 0ad7 23bc 0ad7 23bc
00000100: 0ad7 23bc 0ad7 23bc 0ad7 23bc 0ad7 23bc
00000110: 0ad7 23bc 0ad7 23bc 7268 11ba 41ba d1bb
00000120: a8a1 d4b9 0ad7 23bc 0ad7 23bc 0ad7 23bc
00000130: 0ad7 23bc 55d2 23bc 0ad7 23bc 0ad7 23bc
00000140: 0ad7 23bc afca 23bc 316e c53a 0ad7 23bc
00000150: c4cb 233c 10d1 23bc 19af cdb9 0ad7 23bc
00000160: 0ad7 23bc bad0 23bc 0ad7 23bc 0ad7 23bc
00000170: 271a a4b9 0ad7 23bc 0ad7 23bc 9298 23bc
00000180: db44 1c3b fad3 90bb 0ad7 23bc 0ad7 23bc
00000190: 617d 8139 0ad7 23bc 40d8 4d38 0ad7 23bc
000001a0: 3ad3 23bc 0ad7 23bc dfd3 83ba 74a6 23bc
000001b0: df9f 22bc ed82 2ab9 0ad7 23bc 0ad7 23bc
000001c0: 0ad7 23bc dad1 23bc 0ad7 23bc 03d3 23bc
000001d0: 51d3 23bc 0ad7 23bc 0ad7 23bc f39d e6bb
000001e0: f08c a4ba 0ad7 23bc 0ad7 23bc f0a7 23bc
000001f0: 311e 533a 0ad7 23bc 0ad7 23bc b1ce 23bc

bn2.weight f4 [128]
0.01 0.01 0.01 0.01 0.01 0.01 0.01 0.01
0.01 0.01 0.01 0.01 0.01 0.01 0.01 0.01
0.01 0.01 0.01 0.01 0.01 0.01 0.01 0.01
0.01 0.01 0.01 0.01 0.01 0.01 0.01 0.01
0.01 0.01 0.01 0.01 0.01 0.01 0.01 0.01
0.01 0.01 0.01 0.01 0.01 0.01 0.01 0.01
0.01 0.01 0.01 0.01 0.01 0.01 0.01 0.01
0.01 0.01 0.01 0.01 0.01 0.01 0.01 0.01
0.01 0.01 0.01 0.01 0.01 0.01 0.01 0.01
0.01 0.01 0.01 0.01 0.01 0.01 0.01 0.01
0.01 0.01 0.01 0.01 0.0066240863 0.01 0.01 0.01
0.01 0.01 0.01 0.01 0.01 0.01 0.01 0.01
0.01 0.01 0.01 0.01 0.01 0.01 0.006869825 0.01
0.01 0.01 0.01 0.01 0.0062989886 0.01 0.01 0.01
0.01 0.01 0.01 0.01 0.01 0.01 0.01 0.01
0.01 0.01 0.01 0.01 0.01 0.01 0.01 0.01
00000000: 0ad7 233c 0ad7 233c 0ad7 233c 0ad7 233c
00000010: 0ad7 233c 0ad7 233c 0ad7 233c 0ad7 233c
00000020: 0ad7 233c 0ad7 233c 0ad7 233c 0ad7 233c
00000030: 0ad7 233c 0ad7 233c 0ad7 233c 0ad7 233c
00000040: 0ad7 233c 0ad7 233c 0ad7 233c 0ad7 233c
00000050: 0ad7 233c 0ad7 233c 0ad7 233c 0ad7 233c
00000060: 0ad7 233c 0ad7 233c 0ad7 233c 0ad7 233c
00000070: 0ad7 233c 0ad7 233c 0ad7 233c 0ad7 233c
00000080: 0ad7 233c 0ad7 233c 0ad7 233c 0ad7 233c
00000090: 0ad7 233c 0ad7 233c 0ad7 233c 0ad7 233c
000000a0: 0ad7 233c 0ad7 233c 0ad7 233c 0ad7 233c
000000b0: 0ad7 233c 0ad7 233c 0ad7 233c 0ad7 233c
000000c0: 0ad7 233c 0ad7 233c 0ad7 233c 0ad7 233c
000000d0: 0ad7 233c 0ad7 233c 0ad7 233c 0ad7 233c
000000e0: 0ad7 233c 0ad7 233c 0ad7 233c 0ad7 233c
000000f0: 0ad7 233c 0ad7 233c 0ad7 233c 0ad7 233c
00000100: 0ad7 233c 0ad7 233c 0ad7 233c 0ad7 233c
00000110: 0ad7 233c 0ad7 233c 0ad7 233c 0ad7 233c
00000120: 0ad7 233c 0ad7 233c 0ad7 233c 0ad7 233c
00000130: 0ad7 233c 0ad7 233c 0ad7 233c 0ad7 233c
00000140: 0ad7 233c 0ad7 233c 0ad7 233c 0ad7 233c
00000150: dd0e d93b 0ad7 233c 0ad7 233c 0ad7 233c
00000160: 0ad7 233c 0ad7 233c 0ad7 233c 0ad7 233c
00000170: 0ad7 233c 0ad7 233c 0ad7 233c 0ad7 233c
00000180: 0ad7 233c 0ad7 233c 0ad7 233c 0ad7 233c
00000190: 0ad7 233c 0ad7 233c 451c e13b 0ad7 233c
000001a0: 0ad7 233c 0ad7 233c 0ad7 233c 0ad7 233c
000001b0: bf67 ce3b 0ad7 233c 0ad7 233c 0ad7 233c
000001c0: 0ad7 233c 0ad7 233c 0ad7 233c 0ad7 233c
000001d0: 0ad7 233c 0ad7 233c 0ad7 233c 0ad7 233c
000001e0: 0ad7 233c 0ad7 233c 0ad7 233c 0ad7 233c
000001f0: 0ad7 233c 0ad7 233c 0ad7 233c 0ad7 233c

bn2.bias f4 [128]
-2.7862196e-05 -3.9436818e-05 2.2278853e-05 -3.729487e-05 7.763515e-07 -1.4949983e-05 -4.856577e-05 6.236021e-05
-4.162782e-05 6.2836436e-05 4.752791e-05 -6.8740515e-06 2.7805618e-06 -2.716967e-05 0.00010171597 2.4217377e-05
-2.9917257e-05 7.025039e-05 -3.6590576e-05 5.0297247e-05 -2.6058875e-05 -3.8690996e-05 -3.5560715e-05 2.6812722e-05
2.6098613e-05 -3.8955026e-05 -7.6279657e-06 2.8652928e-05 -1.51503245e-05 -8.161787e-06 3.0526044e-05 -4.0456558e-05
-5.215642e-05 -1.6972737e-05 -3.0289633e-05 -2.6057978e-05 3.5486315e-05 -3.6617846e-05 2.3176943e-05 -6.25352e-05
-2.050151e-05 2.959089e-05 2.2463086e-05 2.2904309e-05 2.3317898e-06 2.9527082e-05 -4.3879656e-05 2.9114883e-05
-3.4370943e-05 3.5074547e-05 2.7342583e-05 1.1257343e-05 9.979337e-06 -2.7746819e-05 -2.3758466e-05 6.1445564e-05
-2.7288519e-05 3.2031992e-05 -1.4397759e-05 1.6572174e-05 -3.749745e-05 2.401062e-05 1.4135432e-05 -2.8639373e-05
8.585923e-06 -0.00011352491 2.9017443e-05 -1.5509526e-05 3.802993e-05 3.123603e-05 -5.2202828e-05 -1.9932333e-05
-1.3723246e-05 3.1607327e-05 2.5857069e-05 -2.451311e-06 4.258546e-05 1.208874e-05 2.097684e-05 2.3933455e-05
-1.13914275e-05 -2.7095315e-05 -7.7119184e-05 3.0550913e-05 -0.0033343907 5.8262936e-05 -4.7260808e-05 -4.3192027e-05
2.6586062e-05 -3.3251912e-05 2.8368217e-05 1.3632363e-05 -2.673388e-05 2.6457968e-05 1.7719274e-05 -1.4761469e-05
-3.8654725e-05 -1.2775668e-05 5.221772e-05 4.8992082e-05 -3.1525255e-05 4.3686254e-05 -0.003075032 -1.0613952e-05
-4.3365464e-05 8.5261985e-05 -2.7209022e-05 -4.3811742e-05 0.0022907893 -2.9375056e-05 2.4110366e-05 3.59068e-05
1.6227685e-05 -3.5374116e-05 3.554018e-05 -1.0157035e-05 -4.9429404e-05 1.5320173e-05 -2.3742647e-05 -5.3834872e-05
-1.5798338e-05 1.0452224e-05 2.1565502e-05 -6.928027e-05 -4.662101e-05 3.0949508e-05 4.5248686e-05 -3.1721087e-05
00000000: 9cb9 e9b7 f668 25b8 79e3 ba37 106d 1cb8
00000010: 7866 5035 b0d1 7ab7 19b3 4bb8 62c7 8238
00000020: 8899 2eb8 0ec7 8338 b458 4738 a7a7 e6b6
00000030: b099 3a36 6cea e3b7 5850 d538 6c26 cb37
00000040: d2f6 fab7 6453 9338 d578 19b8 42f6 5238
00000050: 0299 dab7 2448 22b8 0727 15b8 e2eb e037
00000060: 58ee da37 a463 23b8 baf3 ffb6 b25b f037
00000070: 262e 7eb7 9cee 08b7 1709 0038 e6af 29b8
00000080: 88c2 5ab8 ad60 8eb7 7e16 feb7 1597 dab7
00000090: 24d7 1438 1d96 19b8 1b6c c237 5425 83b8
000000a0: a8fa abb7 f439 f837 1c6f bc37 a122 c037
000000b0: d87b 1c36 edb0 f737 6c0b 38b8 bc3b f437
000000c0: 8529 10b8 021d 1338 c05d e537 ecdd 3c37
000000d0: ed6c 2737 d7c1 e8b7 eb4c c7b7 56dc 8038
000000e0: a6e9 e4b7 175a 0638 e78d 71b7 7904 8b37
000000f0: 9546 1db8 6a6a c937 3827 6d37 963e f0b7
00000100: 420c 1037 3914 eeb8 7c6a f337 741a 82b7
00000110: 5482 1f38 6f03 0338 5cf4 5ab8 5c34 a7b7
00000120: e53c 66b7 1c92 0438 a2e7 d837 3481 24b6
00000130: ca9d 3238 bed0 4a37 6cf7 af37 b4c4 c837
00000140: cf1d 3fb7 bf4a e3b7 0cbb a1b8 cb23 0038
00000150: cb85 5abb 5a5f 7438 e839 46b8 1629 35b8
00000160: 2205 df37 f877 0bb8 48f8 ed37 8eb6 6437
00000170: 9242 e0b7 0ef2 dd37 daa3 9437 07a8 77b7
00000180: 3221 22b8 1457 56b7 5a04 5b38 d97c 4d38
00000190: fc39 04b8 c23b 3738 7a86 49bb 9412 32b7
000001a0: 50e3 35b8 aece b238 ee3e e4b7 80c2 37b8
000001b0: 1121 163b 746a f6b7 9e40 ca37 a29a 1638
000001c0: b020 8837 ab5e 14b8 fa10 1538 2268 2ab7
000001d0: 6b52 4fb8 d283 8037 f22a c7b7 c1cc 61b8
000001e0: ac86 84b7 f65b 2f37 90e7 b437 904a 91b8
000001f0: ee8a 43b8 c8cf 0138 68c9 3d38 420c 05b8

bn2.running_mean f4 [128]
-0.01026193 -0.011236916 -0.009736518 -0.011173497 -0.011082678 1.7230814e-05 0.00013005594 -0.008918868
-0.011372227 -0.008950076 -0.008862954 -0.008787793 -0.009718861 -0.010264619 -0.00895534 -0.00974227
-0.010278167 -0.009080035 0.00017631042 -0.008666988 -0.010274083 -0.00080388517 0.000264501 -0.009738787
-0.008914817 -0.010997075 -0.010286026 -0.008943568 -0.0015053942 -0.0097408695 -0.009739103 -0.010266753
-0.0009790707 -0.0007122486 -0.0010863399 -0.011210771 -0.008913959 -0.011201447 -0.008655149 -0.001404607
-0.00091641693 -0.008784201 -0.009721737 -0.00972664 -0.005880789 -0.00974482 -0.00085861975 -0.00971215
-0.00075695827 -0.009712227 -0.008906785 -0.008850615 -0.008951985 -0.001255822 -0.01028715 -0.008611543
0.00012614286 -0.008815914 -0.010262631 -0.009754134 -0.010261129 -0.008968455 -0.009727602 -0.010277976
-0.009000912 -0.011121145 -0.009728169 -0.009738507 -0.008719814 -0.008759092 -0.0019159794 -0.0074134152
-0.0006525251 -0.009725006 -0.009730063 -0.009739211 -0.008744697 -0.009740399 -0.009718252 -0.009731064
-0.0102718035 -0.010277012 -6.531703e-05 -0.008653222 0.010527947 -0.008705722 -0.0015968843 -0.011080872
-0.009750374 -0.010282832 -0.008586047 -0.010271054 -0.0005761493 -0.009724978 -0.009747582 -0.0102447765
0.0014113598 -0.005338138 -0.0087568415 -0.00887979 -3.8846145e-05 -0.008778901 0.00065094396 -0.010275947
-0.01139194 -0.008872876 -0.0012587842 -0.011112098 -0.008689692 -0.0014057566 -0.008673265 -0.009736297
-0.008689748 -0.011099801 -0.009727901 -0.011389163 -0.011159888 -0.009713019 -0.010295021 -0.008358937
-0.0015231443 -0.009715769 -0.009005929 -0.011065769 -0.00061819534 -0.009738563 -0.008778699 -0.01110051
00000000: a721 28bc 0b1b 38bc eb85 1fbc 0b11 37bc
00000010: 1f94 35bc e48a 9037 a05f 0839 7220 12bc
00000020: 9452 3abc 57a3 12bc ec35 11bc adfa 0fbc
00000030: dc3b 1fbc ef2c 28bc 6bb9 12bc 0b9e 1fbc
00000040: c265 28bc 6dc4 14bc f8df 3839 fcff 0dbc
00000050: a154 28bc d2bb 52ba b9ac 8a39 6f8f 1fbc
00000060: 740f 12bc 132d 34bc b886 28bc 0b88 12bc
00000070: a650 c5ba 2b98 1fbc c290 1fbc e235 28bc
00000080: 2954 80ba 32b6 3aba 8563 8eba 62ad 37bc
00000090: db0b 12bc 4686 37bc 53ce 0dbc ca1a b8ba
000000a0: b33b 70ba 9ceb 0fbc ec47 1fbc 7c5c 1fbc
000000b0: a2b3 c0bb bda8 1fbc ff14 61ba b61f 1fbc
000000c0: 9c6e 46ba 0820 1fbc c4ed 11bc 2b02 11bc
000000d0: 59ab 12bc 659a a4ba 6f8b 28bc 6e17 0dbc
000000e0: 3745 0439 a070 10bc 9824 28bc cecf 1fbc
000000f0: 4b1e 28bc 6df0 12bc 8560 1fbc f564 28bc
00000100: 9078 13bc 7735 36bc e662 1fbc 428e 1fbc
00000110: 8ddd 0ebc 4b82 0fbc 9a21 fbba 3cec f2bb
00000120: 380e 2bba a255 1fbc d86a 1fbc 3691 1fbc
00000130: eb45 0fbc 3296 1fbc 4e39 1fbc 0a6f 1fbc
00000140: 114b 28bc ea60 28bc d0fa 88b8 3ec6 0dbc
00000150: 697d 2c3c 72a2 0ebc 8c4e d1ba 8c8c 35bc
00000160: 08c0 1fbc 5379 28bc 7eac 0cbc ec47 28bc
00000170: ba08 17ba 8455 1fbc 52b4 1fbc b5d9 27bc
00000180: 60fd b83a 8ceb aebb db78 0fbc 8a7c 11bc
00000190: bbee 22b8 61d5 0fbc 1ca4 2a3a 725c 28bc
000001a0: 42a5 3abc 8a5f 11bc cafd a4ba 840f 36bc
000001b0: 365f 0ebc 5d41 b8ba 4f1a 0ebc fd84 1fbc
000001c0: 725f 0ebc f1db 35bc c661 1fbc 9d99 3abc
000001d0: f6d7 36bc 5b23 1fbc 73ac 28bc ecf3 08bc
000001e0: 3ea4 c7ba e42e 1fbc 9b8d 13bc 334d 35bc
000001f0: 630e 22ba 7e8e 1fbc 88d4 0fbc eade 35bc

bn2.running_var f4 [128]
5.483443e-05 1.552375e-05 5.473611e-05 1.5743473e-05 1.4841282e-05 1.5503732e-05 1.5160735e-05 1.6106123e-05
1.5695043e-05 1.4969767e-05 1.6145565e-05 1.5238699e-05 5.4893597e-05 5.4840486e-05 1.579345e-05 5.4821678e-05
5.4853568e-05 1.5997017e-05 1.6204938e-05 1.572661e-05 5.4812666e-05 1.50632795e-05 5.474621e-05 5.4849268e-05
1.5257713e-05 1.53571e-05 5.4843855e-05 1.5990072e-05 5.475553e-05 5.4722386e-05 5.475531e-05 5.4825534e-05
1.532442e-05 5.4803233e-05 1.4755955e-05 1.4791436e-05 1.5750444e-05 1.6320737e-05 1.5703845e-05 1.6265754e-05
5.4803128e-05 1.532426e-05 5.487228e-05 5.4804026e-05 5.4815486e-05 5.4812135e-05 1.555574e-05 5.476419e-05
5.477086e-05 5.479936e-05 1.5617115e-05 1.5182525e-05 1.5946094e-05 5.4822194e-05 5.4795815e-05 1.5550633e-05
5.4786495e-05 1.578009e-05 5.4843727e-05 5.474338e-05 5.4787066e-05 1.5784313e-05 5.4802837e-05 5.482722e-05
1.6514949e-05 1.5726971e-05 5.4838776e-05 5.4733722e-05 1.6180687e-05 1.5555646e-05 1.5032017e-05 1.551142e-05
5.4841337e-05 5.4782166e-05 5.4851764e-05 5.4861717e-05 1.5291153e-05 5.486346e-05 5.478192e-05 5.4807122e-05
5.4865963e-05 5.4811095e-05 1.5118433e-05 1.53072e-05 7.3145586e-08 1.5288768e-05 1.5345433e-05 1.4922275e-05
5.482614e-05 5.485e-05 1.533051e-05 5.4862725e-05 5.4873843e-05 5.4799762e-05 5.488099e-05 5.4781238e-05
1.5193674e-05 1.5483914e-05 1.5728727e-05 1.5823794e-05 5.4826534e-05 1.477473e-05 7.478348e-07 5.4802087e-05
1.5248177e-05 1.5121378e-05 5.4810356e-05 1.50131455e-05 4.2290543e-07 1.5298205e-05 1.5254966e-05 5.4719578e-05
1.5695721e-05 1.5171426e-05 5.479984e-05 1.53211e-05 1.4802103e-05 5.476325e-05 5.4849592e-05 1.6294178e-05
5.4820168e-05 5.4827404e-05 1.5630456e-05 1.6339869e-05 1.5500202e-05 5.483906e-05 1.5717113e-05 1.5861997e-05
00000000: 05fe 6538 0039 8237 7394 6538 da10 8437
00000010: d2fe 7837 030e 8237 dc5a 7e37 a31b 8737
00000020: d9a8 8337 a926 7b37 5670 8737 b7a9 7f37
00000030: 8d3d 6638 8604 6638 2d7c 8437 54f0 6538
00000040: 9212 6638 5531 8637 d7ef 8737 a3ec 8337
00000050: a7e6 6538 4bb8 7c37 4c9f 6538 f40d 6638
00000060: 61fb 7f37 1fd3 8037 2408 6638 6b22 8637
00000070: 4da9 6538 b785 6538 11a9 6538 78f4 6538
00000080: f18c 8037 86dc 6538 5890 7737 bc28 7837
00000090: d21f 8437 84e8 8837 c0bb 8337 7172 8837
000000a0: 69dc 6538 998c 8037 a926 6638 60dd 6538
000000b0: aee9 6538 15e6 6538 b37d 8237 9ab2 6538
000000c0: c3b9 6538 5dd8 6538 8001 8337 73b8 7e37
000000d0: fac3 8537 e2f0 6538 8fd4 6538 bb72 8237
000000e0: 8dca 6538 7c5f 8437 0108 6638 429c 6538
000000f0: 2acb 6538 8e68 8437 19dc 6538 47f6 6538
00000100: 9589 8a37 6aed 8337 b002 6638 e391 6538
00000110: c3bb 8737 7f7d 8237 0532 7c37 851e 8237
00000120: 7005 6638 e7c5 6538 a210 6638 521b 6638
00000130: 8045 8037 311d 6638 a4c5 6538 b3e0 6538
00000140: e11f 6638 f7e4 6538 2da5 7d37 f667 8037
00000150: 3614 9d33 6140 8037 11ba 8037 af5a 7a37
00000160: 1ff5 6538 bd0e 6638 059a 8037 671c 6638
00000170: 5728 6638 ccd8 6538 0430 6638 e8c4 6538
00000180: 55e8 7e37 74e3 8137 2ff1 8337 57bd 8437
00000190: 8bf5 6538 fbe0 7737 d1be 4835 4bdb 6538
000001a0: 6cd2 7f37 d3b1 7d37 2ce4 6538 f8e0 7b37
000001b0: ae0b e334 a554 8037 94ef 7f37 b382 6538
000001c0: 4eaa 8337 c788 7e37 e1d8 6538 d085 8037
000001d0: 8c56 7837 98b1 6538 4d0e 6638 7baf 8837
000001e0: b5ee 6538 7af6 6538 261e 8337 9a11 8937
000001f0: 6e06 8237 fe02 6638 3ed8 8337 610f 8537

fc3.weight f4 [1, 128]
-0.01 0.01 -0.01 0.01 0.01 0.01 0.01 0.01
0.01 0.01 0.01 0.01 -0.01 -0.01 0.01 -0.01
-0.01 0.01 0.01 0.01 -0.01 0.01 -0.01 -0.01
0.01 0.01 -0.01 0.01 -0.01 -0.01 -0.01 -0.01
0.01 -0.01 0.01 0.01 0.01 0.01 0.01 0.01
-0.01 0.01 -0.01 -0.01 -0.01 -0.01 0.01 -0.01
-0.01 -0.01 0.01 0.01 0.01 -0.01 -0.01 0.01
-0.01 0.01 -0.01 -0.01 -0.01 0.01 -0.01 -0.01
0.01 0.01 -0.01 -0.01 0.01 0.01 0.01 0.01
-0.01 -0.01 -0.01 -0.01 0.01 -0.01 -0.01 -0.01
-0.01 -0.01 0.01 0.01 -0.009705274 0.01 0.01 0.01
-0.01 -0.01 0.01 -0.01 -0.01 -0.01 -0.01 -0.01
0.01 0.01 0.01 0.01 -0.01 0.01 -0.009782234 -0.01
0.01 0.01 -0.01 0.01 -0.0081935255 0.01 0.01 -0.01
0.01 0.01 -0.01 0.01 0.01 -0.01 -0.01 0.01
-0.01 -0.01 0.01 0.01 0.01 -0.01 0.01 0.01
00000000: 0ad7 23bc 0ad7 233c 0ad7 23bc 0ad7 233c
00000010: 0ad7 233c 0ad7 233c 0ad7 233c 0ad7 233c
00000020: 0ad7 233c 0ad7 233c 0ad7 233c 0ad7 233c
00000030: 0ad7 23bc 0ad7 23bc 0ad7 233c 0ad7 23bc
00000040: 0ad7 23bc 0ad7 233c 0ad7 233c 0ad7 233c
00000050: 0ad7 23bc 0ad7 233c 0ad7 23bc 0ad7 23bc
00000060: 0ad7 233c 0ad7 233c 0ad7 23bc 0ad7 233c
00000070: 0ad7 23bc 0ad7 23bc 0ad7 23bc 0ad7 23bc
00000080: 0ad7 233c 0ad7 23bc 0ad7 233c 0ad7 233c
00000090: 0ad7 233c 0ad7 233c 0ad7 233c 0ad7 233c
000000a0: 0ad7 23bc 0ad7 233c 0ad7 23bc 0ad7 23bc
000000b0: 0ad7 23bc 0ad7 23bc 0ad7 233c 0ad7 23bc
000000c0: 0ad7 23bc 0ad7 23bc 0ad7 233c 0ad7 233c
000000d0: 0ad7 233c 0ad7 23bc 0ad7 23bc 0ad7 233c
000000e0: 0ad7 23bc 0ad7 233c 0ad7 23bc 0ad7 23bc
000000f0: 0ad7 23bc 0ad7 233c 0ad7 23bc 0ad7 23bc
00000100: 0ad7 233c 0ad7 233c 0ad7 23bc 0ad7 23bc
00000110: 0ad7 233c 0ad7 233c 0ad7 233c 0ad7 233c
00000120: 0ad7 23bc 0ad7 23bc 0ad7 23bc 0ad7 23bc
00000130: 0ad7 233c 0ad7 23bc 0ad7 23bc 0ad7 23bc
00000140: 0ad7 23bc 0ad7 23bc 0ad7 233c 0ad7 233c
00000150: df02 1fbc 0ad7 233c 0ad7 233c 0ad7 233c
00000160: 0ad7 23bc 0ad7 23bc 0ad7 233c 0ad7 23bc
00000170: 0ad7 23bc 0ad7 23bc 0ad7 23bc 0ad7 23bc
00000180: 0ad7 233c 0ad7 233c 0ad7 233c 0ad7 233c
00000190: 0ad7 23bc 0ad7 233c aa45 20bc 0ad7 23bc
000001a0: 0ad7 233c 0ad7 233c 0ad7 23bc 0ad7 233c
000001b0: 233e 06bc 0ad7 233c 0ad7 233c 0ad7 23bc
000001c0: 0ad7 233c 0ad7 233c 0ad7 23bc 0ad7 233c
000001d0: 0ad7 233c 0ad7 23bc 0ad7 23bc 0ad7 233c
000001e0: 0ad7 23bc 0ad7 23bc 0ad7 233c 0ad7 233c
000001f0: 0ad7 233c 0ad7 23bc 0ad7 233c 0ad7 233c
