10_Models/Results_Chicago/WGANBR_Freeflow_discriminator_trad_best.pth (torch, 78118 bytes, 13 tensors)

fc1.weight f4 [128, 2]
0	0xb8f95d7f	-0.0001189066
1	0x3a0591cc	0.0005095273
2	0xbb94127f	-0.0045188065
3	0xbb8952e4	-0.0041907895
4	0xba52b7fc	-0.000803828
5	0xbb4d2c69	-0.0031306988
6	0xbb2023ba	-0.0024435357
7	0xbc02af4f	-0.007976367
8	0x3bc1ece6	0.005918133
9	0x3bcc32a3	0.0062316223
10	0xbbb60689	-0.0055549783
11	0xbbcb6e5d	-0.0062082247
12	0xbc23d70a	-0.01
13	0xbc20d663	-0.009816739
14	0xbbd1c825	-0.006402033
15	0xbbfffedc	-0.007812364
16	0xbb73bf96	-0.0037193052
17	0xbb13a41e	-0.0022528241
18	0x3b337310	0.0027381815
19	0x3b38a58d	0.0028174848
20	0x3c003c68	0.007826902
21	0x3c1f8a3b	0.009737547
22	0xbbbee947	-0.0058261487
23	0xbc0a9cb8	-0.008460216
24	0xbb2bc161	-0.0026207792
25	0xbb974431	-0.0046162833
26	0x3c23d70a	0.01
27	0x3c2119f0	0.009832844
28	0x3b08cd66	0.002087438
29	0x3c23d70a	0.01
30	0xbb31acba	-0.002711101
31	0xbbf5f631	-0.007506155
32	0x3b9f196c	0.0048553254
33	0x3be41365	0.00696032
34	0xbba48f2f	-0.0050219516
35	0xbbd63c8b	-0.006537979
36	0x3c23d70a	0.01
37	0x3c2119f0	0.009832844
38	0x3baa5999	0.005198669
39	0x3c23d70a	0.01
40	0x3b801c82	0.0039096484
41	0x3bd9dd6b	0.0066487095
42	0x3ba213ba	0.0049461992
43	0x3ba19207	0.004930738
44	0xbb7026fd	-0.0036644333
45	0xbb44015c	-0.0029908037
46	0xbb7b23a2	-0.00383208
47	0xba584145	-0.0008249472
48	0xbc0f45c9	-0.008744665
49	0xbc14a190	-0.009071723
50	0xbb3209ca	-0.002716648
51	0xbb28e1da	-0.0025769384
52	0xbb83bea1	-0.0040205275
53	0xbb8ec124	-0.0043565203
54	0xbb29cccc	-0.0025909422
55	0xbb3a4c3e	-0.0028426792
56	0xbbb9c320	-0.0056690127
57	0xbbb57f3f	-0.0055388506
58	0x3bc3f0be	0.0059796264
59	0x3c1fe3d2	0.009758906
60	0xbbb422b4	-0.005497301
61	0xbc23d70a	-0.01
62	0xbbc748a7	-0.006081659
63	0xbbc6e9b3	-0.0060703396
64	0x3af5c3ae	0.0018750334
65	0x3b1b3c26	0.0023686974
66	0x3ba77f69	0.005111624
67	0x3c23d70a	0.01
68	0xbb28c94f	-0.0025754755
69	0xbac2ae82	-0.0014853033
70	0xbb581eac	-0.0032977266
71	0xbb4236e2	-0.0029634763
72	0x3b8760c4	0.0041314084
73	0x3c23d70a	0.01
74	0xbbfcfcbc	-0.007720558
75	0xbc0715e9	-0.00824497
76	0xbb9d77e2	-0.004805551
77	0xbc23d70a	-0.01
78	0x3b891730	0.0041836724
79	0x3b8d8e0c	0.004319912
80	0x3b92cd1d	0.004480018
81	0x3c23d70a	0.01
82	0xbb60c1d1	-0.003429521
83	0xbb8b1ff3	-0.004245752
84	0x3b9aa9ad	0.004719934
85	0x3bdd39ef	0.006751291
86	0x3b96830a	0.004593258
87	0x3c23d70a	0.01
88	0xbb811b6c	-0.0039400365
89	0xbc23d70a	-0.01
90	0x3b8d58f3	0.004313582
91	0x3c046e3b	0.008082922
92	0x3b8a799f	0.004225924
93	0x3c18e189	0.0093311155
94	0x3bf6728c	0.0075209793
95	0x3baf98d5	0.005358795
96	0x3a92d79b	0.0011203171
97	0x3b24e033	0.0025158047
98	0xbbb3242e	-0.0054669594
99	0xbbb7b001	-0.005605698
100	0xbb7a0ab6	-0.0038153357
101	0xbb5955d3	-0.0033162727
102	0x3bb8d51a	0.005640638
103	0x3c23d70a	0.01
104	0x3b014843	0.001972691
105	0x3c23d70a	0.01
106	0xbb949ad4	-0.0045350585
107	0xbb536baa	-0.0032260218
108	0xbb84f89f	-0.0040579583
109	0xbbb16a88	-0.005414311
110	0xbbfd55ed	-0.0077311904
111	0xbc0c9d6c	-0.008582454
112	0x3b9667c1	0.004590005
113	0x3c23d70a	0.01
114	0x3bf12bb4	0.007359946
115	0x3c217b70	0.00985609
116	0x3b2d156c	0.0026410474
117	0x3c22c479	0.009934538
118	0x3bc07556	0.0058733625
119	0x3c23d70a	0.01
120	0xbbe194ae	-0.006884179
121	0xbc23d70a	-0.01
122	0xbc057947	-0.008146591
123	0xbc1df327	-0.009640492
124	0x3b8eaaf5	0.0043538758
125	0x3b90cf2a	0.004419227
126	0x3bbe705e	0.005811735
127	0x3c226267	0.009911156
128	0xbb833608	-0.0040042438
129	0xbb27357b	-0.0025514055
130	0x3b846bcd	0.004041171
131	0x3c23d70a	0.01
132	0x3a7d1f77	0.0009655873
133	0x3a4023e4	0.0007329567
134	0x3bcba727	0.0062149945
135	0x3c1cea2b	0.009577314
136	0xbbda3835	-0.0066595324
137	0xbc1e2735	-0.009652902
138	0xbc164604	-0.009171966
139	0xbbc8bd33	-0.00612607
140	0xbbb5233f	-0.0055278833
141	0xbbb83455	-0.005621473
142	0x3b64050d	0.003479305
143	0x3c202154	0.009773571
144	0xbc0e2329	-0.008675375
145	0xbc1ebdda	-0.009688819
146	0xbbbcba7b	-0.005759535
147	0xbbed934c	-0.007250225
148	0xbc02c8e1	-0.007982464
149	0xbba3a775	-0.0049943277
150	0x3c23d70a	0.01
151	0x3c2119ff	0.009832858
152	0x3c23d70a	0.01
153	0x3c236d73	0.009974825
154	0xbb8d22c3	-0.0043071224
155	0xbb80d7ad	-0.0039319606
156	0x3b8ba647	0.004261765
157	0x3c23d70a	0.01
158	0x3b99f514	0.004698405
159	0x3c1fc7cf	0.009752228
160	0x3bf96c20	0.0076117665
161	0x3c23d70a	0.01
162	0xbbaac749	-0.005211745
163	0xbbc87a0c	-0.0061180647
164	0x3b6c3285	0.0036040854
165	0x3c23d70a	0.01
166	0xbb2b449a	-0.002613342
167	0xbba36bc7	-0.0049872133
168	0xbbc3926f	-0.005968384
169	0xbbc849e0	-0.006112322
170	0x3b949ba2	0.0045351544
171	0x3b98d6e7	0.00466429
172	0x3bfd273e	0.0077256253
173	0x3c1df647	0.009641237
174	0xbb927ada	-0.0044702115
175	0xbb918d1d	-0.004441871
176	0xbc0028df	-0.007822244
177	0xbc1fe219	-0.009758496
178	0xbb652ed7	-0.0034970546
179	0xbc23d70a	-0.01
180	0xbbcd6ccb	-0.0062690726
181	0xbbde83cf	-0.006790615
182	0x3b9e0f7a	0.0048236223
183	0x3b925ee8	0.00446688
184	0x3bc059c5	0.0058700764
185	0x3c23d70a	0.01
186	0xb9b4bc0a	-0.00034472375
187	0xbab54732	-0.0013830422
188	0xbb6ce8ac	-0.0036149425
189	0xbb9b72f4	-0.004743928
190	0xbb1a0251	-0.0023499916
191	0xbc23d70a	-0.01
192	0x3afec5f7	0.001943766
193	0x3a82ed43	0.0009988922
194	0xbba9ef29	-0.005185981
195	0xbc23d70a	-0.01
196	0xbb38cb64	-0.0028197402
197	0xbb761821	-0.0037551003
198	0xbb601788	-0.0034193713
199	0xbb311937	-0.0027023086
200	0xbbde9d67	-0.006793666
201	0xbbe33ef9	-0.006934997
202	0xbbd41a23	-0.0064728423
203	0xbc23c1f7	-0.009994975
204	0x3a198966	0.0005856961
205	0x37c27808	2.3182496e-05
206	0x3bc2948d	0.005938119
207	0x3bf6fffe	0.007537841
208	0x3b454be2	0.0030105044
209	0x3bee8d0e	0.0072799986
210	0xbb5395c7	-0.003228532
211	0xbbacbcee	-0.0052715456
212	0xbb8d5215	-0.0043127635
213	0xbc23d70a	-0.01
214	0x3c125066	0.008930301
215	0x3c23d70a	0.01
216	0xbb9163af	-0.004436932
217	0xbb42d52c	-0.002972911
218	0xbbfd75fc	-0.007735012
219	0xbc23d70a	-0.01
220	0xbb6dc61e	-0.0036281417
221	0xbbcaeb5e	-0.0061926087
222	0x3be90787	0.007111493
223	0x3c23d70a	0.01
224	0xbb1402f9	-0.002258478
225	0xbbbbc90e	-0.0057307547
226	0xbbdccdf8	-0.0067384206
227	0xbc23d70a	-0.01
228	0xbbcb3145	-0.0062009417
229	0xbc23d70a	-0.01
230	0xbbb59040	-0.0055408776
231	0xbb6165cd	-0.0034392953
232	0xbbbceb7e	-0.0057653775
233	0xbc23d70a	-0.01
234	0x3b55076d	0.0032505647
235	0x3c23d70a	0.01
236	0xbbc0045c	-0.0058598947
237	0xbc081f86	-0.008308297
238	0xbbad7bc8	-0.005294297
239	0xbc23d70a	-0.01
240	0xbc0429ea	-0.008066634
241	0xbc1f9c51	-0.009741859
242	0xbba29138	-0.004961159
243	0xbc022090	-0.007942334
244	0xbc13dda8	-0.009025015
245	0xbc21ccb2	-0.009875463
246	0x3b63e88d	0.0034776062
247	0x3bf98a6d	0.0076153786
248	0x3c086e5a	0.008327091
249	0x3c1296d0	0.008947089
250	0x3b68cc66	0.0035522222
251	0x3c23d70a	0.01
252	0xb9b541ef	-0.00034572135
253	0x39d72d3d	0.000410417
254	0xbbcc8c63	-0.0062423213
255	0xbc1a540b	-0.0094194515

fc1.bias f4 [128]
0	0x3c226a22	0.009912999
1	0xbc22bc2d	-0.00993256
2	0xbc212ed8	-0.009837829
3	0x3c23d5d4	0.009999711
4	0xbc220adb	-0.009890283
5	0xbc235d75	-0.009971012
6	0x3c2250c5	0.009906952
7	0x3c235a44	0.0099702515
8	0xbc22718a	-0.009914765
9	0xbc23cb06	-0.009997135
10	0xbc23c51e	-0.009995727
11	0x3c2362f0	0.009972319
12	0x3c22fd4c	0.009948086
13	0xbc23b741	-0.009992422
14	0xbc2356ef	-0.009969457
15	0x3c2383a1	0.009980113
16	0x3c22d234	0.009937812
17	0x3c232f57	0.009960017
18	0x3c237222	0.009975942
19	0xbc2371ac	-0.009975832
20	0xbc23791e	-0.009977607
21	0x3c239d23	0.009986195
22	0x3c238d45	0.009982412
23	0x3c20f97f	0.0098251095
24	0x3c235c23	0.009970698
25	0xbc229b8b	-0.00992478
26	0x3c23d018	0.009998344
27	0xbc235466	-0.009968853
28	0xbc23a911	-0.009989039
29	0x3c231bb7	0.009955338
30	0x3c22f84e	0.009946896
31	0xbc236166	-0.009971952
32	0x3c207ad8	0.009794913
33	0x3c22e728	0.009942807
34	0x3c22ef47	0.0099447435
35	0x3c23ab19	0.009989523
36	0x3c22843f	0.009919225
37	0xbc21c387	-0.0098732775
38	0x3c22bb05	0.009932284
39	0xbc236dfb	-0.009974952
40	0xbc239adb	-0.009985651
41	0x3c23515f	0.009968131
42	0xbc234151	-0.009964303
43	0x3c220e9f	0.009891181
44	0xbc236efa	-0.009975189
45	0x3c2085fe	0.009797571
46	0xbc236cf9	-0.009974712
47	0xbc23a081	-0.009986998
48	0xbc23d70a	-0.01
49	0xbc234798	-0.0099658
50	0x3c236119	0.00997188
51	0x3c2360f1	0.009971843
52	0x3c235055	0.009967883
53	0x3c235119	0.009968066
54	0x3c22a880	0.009927869
55	0xbc22bc26	-0.009932553
56	0xbc23a3ec	-0.0099878125
57	0x3c2046b3	0.009782481
58	0xbc23ae25	-0.00999025
59	0xbc232079	-0.009956473
60	0xbc22c0d9	-0.009933674
61	0xbc22e0d8	-0.009941302
62	0xbc235db7	-0.009971074
63	0xbc239329	-0.009983816
64	0xbc21e7de	-0.009881942
65	0x3c2269f2	0.009912955
66	0x3c20f9ab	0.0098251505
67	0xbc221dd1	-0.009894804
68	0x3c238060	0.009979337
69	0x3c23d545	0.009999578
70	0xbc238d17	-0.009982369
71	0xbc234488	-0.00996507
72	0xbc236990	-0.0099738985
73	0x3c237e78	0.009978883
74	0x3c23cb3e	0.009997187
75	0x3c222843	0.009897294
76	0x3c2329da	0.009958709
77	0xbc22e5be	-0.00994247
78	0x3c22f3c8	0.009945817
79	0xbc21cb61	-0.0098751495
80	0x3c22b553	0.009930926
81	0xbc225364	-0.009907577
82	0xbc235618	-0.009969257
83	0x3c21f144	0.009884182
84	0xbc225753	-0.009908515
85	0xbc2341e1	-0.009964437
86	0x3c2147e6	0.009843802
87	0xbc237a4f	-0.009977891
88	0xbc218176	-0.009857526
89	0x3c23cb68	0.009997226
90	0x3c239ec5	0.009986584
91	0xbc236e57	-0.009975038
92	0x3c21a953	0.00986703
93	0x3c218997	0.009859464
94	0x3c23bf03	0.009994271
95	0x3c23970a	0.009984741
96	0x3c228278	0.0099188015
97	0x3c230943	0.009950939
98	0xbc22af8d	-0.00992955
99	0xbc23d33e	-0.0099990945
100	0x3c23c96a	0.009996751
101	0x3c2345af	0.009965344
102	0xbc237f95	-0.009979148
103	0xbc235675	-0.009969343
104	0x3c237a3b	0.0099778725
105	0xbc2301ff	-0.009949206
106	0xbc23b545	-0.0099919485
107	0xbc23cb27	-0.009997166
108	0x3c239173	0.009983408
109	0x3c232e01	0.009959699
110	0x3c23794f	0.009977653
111	0x3c23641e	0.0099726
112	0xbc22ad7f	-0.00992906
113	0x3c232c0c	0.009959232
114	0xbc228d1c	-0.009921338
115	0x3c23bd1b	0.009993817
116	0xbc22e5d1	-0.009942488
117	0x3c23280a	0.0099582765
118	0xbc22734d	-0.009915185
119	0xbc23ce86	-0.0099979695
120	0x3c23d70a	0.01
121	0xbc230e79	-0.009952181
122	0x3c22d525	0.009938513
123	0x3c23ad98	0.009990118
124	0xbc23d2a2	-0.009998949
125	0x3c22c574	0.009934772
126	0x3c23c7b5	0.009996344
127	0x3c229de6	0.009925341

bn1.weight f4 [128]
0	0x3c128898	0.008943699
1	0x3c1fa272	0.00974332
2	0x3c0b46d0	0.00850077
3	0xbb941e70	-0.00452023
4	0xbc095f49	-0.008384534
5	0xbbb26475	-0.0054441043
6	0x3c23d70a	0.01
7	0x3c159c5b	0.009131516
8	0x3bc4d4ad	0.0060067982
9	0xbc23d70a	-0.01
10	0x3c23d69e	0.009999899
11	0x3a63cc74	0.00086898287
12	0x3c0daf23	0.008647713
13	0x3c23d70a	0.01
14	0x3be80f14	0.0070818756
15	0xba3f8f4c	-0.00073074247
16	0x3b83291a	0.0040027024
17	0x3c156766	0.00911889
18	0x3c23d70a	0.01
19	0x3bd07526	0.0063616214
20	0xb8a0c64e	-7.666332e-05
21	0xbc23d70a	-0.01
22	0x3b9b0edc	0.004731996
23	0x399521a7	0.00028444568
24	0x3c16cf3c	0.009204682
25	0xbbcfa677	-0.006336983
26	0x3c190476	0.0093394425
27	0x3c11014c	0.008850407
28	0x3c21471c	0.009843614
29	0x3c23d70a	0.01
30	0xbbd871a1	-0.0066053425
31	0x3c23d70a	0.01
32	0x3bff65ef	0.007794134
33	0x3be166a7	0.006878692
34	0x3be8a77d	0.0071000443
35	0x3c1e5b17	0.009665272
36	0x3bfdbbaa	0.0077433186
37	0x3bf733ea	0.0075440304
38	0xbc1dc7fa	-0.009630198
39	0x3c23a3aa	0.009987751
40	0x3c010586	0.007874852
41	0x3c1c9978	0.009558074
42	0x3c0dafb2	0.008647846
43	0x3c1eec9d	0.009699968
44	0xbc1dc80e	-0.009630216
45	0x3c2370f0	0.009975657
46	0x3bea66ac	0.0071533527
47	0x3a4a21a2	0.00077107
48	0xbb85dbf7	-0.0040850597
49	0x3c23c3b8	0.009995393
50	0x3c19459c	0.009354975
51	0x3ba255ee	0.0049540913
52	0x3c216e77	0.009852997
53	0x3bf1ab23	0.0073751374
54	0x3c19a51f	0.009377747
55	0x3bdbd2be	0.006708472
56	0x3bd66aab	0.0065434775
57	0x3c23d70a	0.01
58	0x3c23d70a	0.01
59	0x3be4747e	0.0069718948
60	0x3b391a28	0.002824435
61	0xbbd9f879	-0.0066519347
62	0x3c236f21	0.009975226
63	0x3c23d70a	0.01
64	0x3b9ffa24	0.004882114
65	0xbb9850fe	-0.004648327
66	0x3c2095ac	0.00980131
67	0x3c024d70	0.007953033
68	0x3c0d74a0	0.008633763
69	0x3bae848a	0.0053258585
70	0x3c23d70a	0.01
71	0x3c23d70a	0.01
72	0x3c035806	0.008016592
73	0x3c152135	0.009102155
74	0x3bb35e99	0.0054739234
75	0x3c23d70a	0.01
76	0x3c23d70a	0.01
77	0x3c0018f6	0.007818451
78	0x3c1037ce	0.008802367
79	0x3c23d70a	0.01
80	0x3c23d70a	0.01
81	0x3c1df844	0.009641711
82	0x3bfec62e	0.0077750897
83	0x3c0bcaf3	0.008532274
84	0x3c23d70a	0.01
85	0x3c121b59	0.008917653
86	0x3bdadf2c	0.006679436
87	0x3c23d70a	0.01
88	0x3c1327e6	0.0089816805
89	0xbbc7dea4	-0.006099539
90	0x3bf1970b	0.007372742
91	0xbc09fd62	-0.008422228
92	0x3bfdc551	0.007744469
93	0x3c11017e	0.008850453
94	0x3be66bee	0.007031909
95	0x3aeadff5	0.0017919528
96	0x3c17e3fd	0.009270665
97	0x3bc93f07	0.0061415466
98	0x3c1922dc	0.00934669
99	0x3b228281	0.0024797025
100	0x3c22ce69	0.009936907
101	0x3adbb01b	0.0016760858
102	0x3c1c958d	0.00955714
103	0xbb79f762	-0.0038141836
104	0x3c1b8dfb	0.0094943
105	0x3b865ea6	0.0041006384
106	0x3bb5b9a8	0.0055458136
107	0x3c23b907	0.009992844
108	0x3bea1c0a	0.007144456
109	0x3b811737	0.003939535
110	0x3ac42bfa	0.0014966719
111	0x3c15125a	0.009098614
112	0x3bffeb08	0.0078100003
113	0xbc054ace	-0.008135511
114	0x3a75c052	0.0009374666
115	0x3b0e0604	0.0021671066
116	0x3b7e2023	0.003877648
117	0x3c1d283d	0.009592113
118	0x3c00e40c	0.007866871
119	0x3b937ea6	0.0045011817
120	0xbbdfad04	-0.006826045
121	0x3be7b491	0.0070710857
122	0x3b41cea6	0.0029572635
123	0x3c23baa3	0.009993228
124	0x3be8b297	0.0071013677
125	0x3bd7294a	0.0065662013
126	0x3bfb4ee4	0.0076693166
127	0x38654203	5.4659333e-05

bn1.bias f4 [128]
0	0x3c206a3c	0.009790953
1	0x3c143722	0.009046348
2	0x3bef88dc	0.007310016
3	0x3bc6b863	0.006064461
4	0x3bec65ce	0.0072142845
5	0x3bff8b20	0.0077985674
6	0x3c23d70a	0.01
7	0x3c2182c8	0.009857841
8	0x3bd230eb	0.006414523
9	0x3c23d6f1	0.0099999765
10	0x3bf88300	0.007583976
11	0xbae1e434	-0.0017234148
12	0x3bccf438	0.006254699
13	0x3c23d70a	0.01
14	0xbbe7aa0a	-0.007069831
15	0x3c2313ff	0.009953498
16	0x3c230a6d	0.009951216
17	0x3c1dadf5	0.009623994
18	0x3c23d70a	0.01
19	0xbbcec068	-0.0063095577
20	0x3bc44f94	0.0059909318
21	0x3c23d70a	0.01
22	0x3bff934b	0.007799541
23	0xb9d3dbba	-0.00040408765
24	0x3c1d681e	0.009607343
25	0x3bd8b02f	0.0066127996
26	0x3c124f86	0.008930093
27	0x3c02cd1a	0.00798347
28	0x3c0e7b1d	0.008696345
29	0x3a9c45c9	0.0011922653
30	0xbbd94c32	-0.0066313976
31	0x3c1bf6bb	0.009519274
32	0x3c1d908c	0.009616982
33	0xbbe2d766	-0.00692265
34	0x3c074c77	0.008257977
35	0x3c1105c7	0.008851475
36	0xbbfdbb64	-0.007743286
37	0x3bd1edea	0.0064065354
38	0x3b0c1df3	0.0021380156
39	0x3c1fe83d	0.00975996
40	0xbc03e4ad	-0.008050126
41	0x3c188eec	0.009311419
42	0x3bcf76cb	0.0063313
43	0x3bb51354	0.0055259857
44	0x3b0898b0	0.0020842962
45	0x3c18edae	0.009334011
46	0xbafb6742	-0.0019180553
47	0xbbb911bb	-0.0056478656
48	0x3c085410	0.008320823
49	0x3c0767d7	0.008264503
50	0x3c1cd0b2	0.009571241
51	0xbb9aca65	-0.0047238343
52	0xbc234ab3	-0.00996654
53	0x3bf580cc	0.0074921604
54	0x3c0f1316	0.008732578
55	0x3bbb1484	0.0057092328
56	0xbbd695d1	-0.006548621
57	0x3b92e692	0.0044830525
58	0x3b8afcc9	0.00424156
59	0xbbe65d7a	-0.0070301862
60	0x3c1ecb07	0.00969196
61	0x3c23d708	0.009999998
62	0x3c0a9178	0.008457534
63	0x3aaf71ef	0.0013385395
64	0x3bac85ae	0.0052649593
65	0x3c23d70a	0.01
66	0x3c23d70a	0.01
67	0x3c231064	0.009952638
68	0x3c2144a3	0.009843024
69	0xbc0f7690	-0.008756295
70	0x3c23d121	0.009998591
71	0x3954a2a4	0.00020278484
72	0x3c1f0985	0.0097068595
73	0x3c225ddd	0.009910074
74	0xbc10ad32	-0.0088303555
75	0x3c23d70a	0.01
76	0x3c23d70a	0.01
77	0x3c0dc7fe	0.008653639
78	0xb99b7293	-0.00029649268
79	0x3bc92b36	0.0061391843
80	0xbaa4a3cb	-0.0012561021
81	0x3c167c4f	0.009184911
82	0xbc004f60	-0.0078314245
83	0x3bfdfc52	0.007751026
84	0x3c23ad6f	0.00999008
85	0x3c0c1543	0.008549991
86	0x3c23d709	0.009999999
87	0x3c1dc224	0.009628806
88	0x3c2208d5	0.009889801
89	0x3b2c05d2	0.0026248586
90	0x3beb53a8	0.0071816035
91	0x3c0bed98	0.0085405335
92	0x3ac212e3	0.0014806654
93	0x3bb67b41	0.005568892
94	0xb948303c	-0.00019091455
95	0xbb0c7371	-0.0021431113
96	0x3c11d61a	0.008901143
97	0x3c216864	0.009851549
98	0x3c0e61c5	0.008690302
99	0xbb71d6bb	-0.003690167
100	0x3c204f15	0.00978448
101	0xbb0fcc7a	-0.0021941946
102	0x3c13a3ad	0.009011191
103	0x3b64f71e	0.0034937332
104	0x3baec593	0.0053336113
105	0x3b3e6b7f	0.0029055772
106	0x3c23d70a	0.01
107	0x3af55230	0.001871651
108	0x3bfaccef	0.0076538245
109	0x3c23d70a	0.01
110	0x3bc7a705	0.0060929083
111	0x3a46f0ac	0.00075889635
112	0x3bd57ce9	0.0065151346
113	0xbadc6f64	-0.0016817865
114	0x3c2087cd	0.009798002
115	0xbb519324	-0.0031978572
116	0x3c206885	0.009790544
117	0xbc1f979f	-0.009740739
118	0x3c17b9bb	0.00926059
119	0x3c23d70a	0.01
120	0x3c23d707	0.009999997
121	0x3b97545a	0.00461821
122	0x3c23d70a	0.01
123	0x3c0e3d1f	0.008681565
124	0x3c23d70a	0.01
125	0xbbd59512	-0.0065180147
126	0x3c1d7297	0.00960984
127	0xba4fd5dc	-0.0007928291

bn1.running_mean f4 [128]
0	0xc3232e0a	-163.17984
1	0xc2dfeba6	-111.96025
2	0x4437a28f	734.54
3	0x44e1c25a	1806.0735
4	0xc289c430	-68.88318
5	0x438a64df	276.78806
6	0xc28506ba	-66.51314
7	0x43f7e1c4	495.7638
8	0xc3e371ce	-454.8891
9	0xc27cde50	-63.217102
10	0xc4280b41	-672.17584
11	0x445c9682	882.3517
12	0x441b925e	622.287
13	0x42600804	56.007828
14	0xc525a49b	-2650.2878
15	0x44cc397f	1633.7968
16	0xc43ced2c	-755.7058
17	0x440bb663	558.8498
18	0x426005b0	56.005554
19	0xc4c926bd	-1609.2106
20	0xc46202ca	-904.0436
21	0x41c21ecf	24.265043
22	0xc37674ae	-246.45578
23	0xc47bd4bf	-1007.32416
24	0x42d0b210	104.34778
25	0xc1602ef6	-14.011465
26	0x42e0bdd2	112.37074
27	0x421bf8c2	38.992928
28	0xc2b39f44	-89.811066
29	0xc4a16d66	-1291.4187
30	0x44bc8f39	1508.4757
31	0xc24b125f	-50.76794
32	0xc2fdb380	-126.850586
33	0xc4ccb462	-1637.637
34	0xc3a7a0ae	-335.2553
35	0xc2dfee37	-111.96526
36	0xc4f5a28e	-1965.0798
37	0x435c509b	220.31487
38	0x44d96837	1739.2567
39	0xc297088e	-75.51671
40	0xc4e728df	-1849.2772
41	0x43658b71	229.5447
42	0xc420b5cf	-642.84076
43	0xc4e12d4d	-1801.4156
44	0x44fe0b80	2032.3594
45	0xc4a132a1	-1289.5822
46	0xc4d00ae9	-1664.341
47	0x443512c9	724.2935
48	0xc3f7fd13	-495.97714
49	0x4098f512	4.779916
50	0xc2fbeb8d	-125.96006
51	0xc4b69584	-1460.6724
52	0xc5280553	-2688.3328
53	0xc3cc4444	-408.53333
54	0x43cd0787	410.0588
55	0x43a9309d	338.3798
56	0xc4e26235	-1811.069
57	0xc455021b	-852.0329
58	0xc51928cc	-2450.5498
59	0xc4acebb8	-1383.3662
60	0x44823b7a	1041.8586
61	0x4406476f	537.11615
62	0x40ad62c2	5.4183054
63	0xc4ace7da	-1383.2454
64	0xc3e31f3e	-454.24408
65	0xc4f9574e	-1994.7283
66	0x41fe828e	31.813747
67	0xc4915192	-1162.5491
68	0x448130e6	1033.5281
69	0xc47f149d	-1020.3221
70	0x4262cd48	56.70047
71	0xc505558e	-2133.3472
72	0x43bdf48d	379.91055
73	0x44041858	528.3804
74	0xc47a3e1f	-1000.97064
75	0x42601893	56.024
76	0x4128aca7	10.542151
77	0xc2b1cd8e	-88.901474
78	0xc4f01edc	-1920.9644
79	0xc4d72fbe	-1721.492
80	0xc4481eb3	-800.4797
81	0x4381face	259.9594
82	0xc505d99a	-2141.6
83	0x443b8a22	750.1583
84	0x428ce52b	70.44759
85	0xc2d45022	-106.15651
86	0xc42a1ac9	-680.4185
87	0xc254c96f	-53.196712
88	0x442a6cd7	681.7006
89	0x4507f4ea	2175.3071
90	0x43090ab4	137.04181
91	0x42b9e619	92.94941
92	0xc4ac8d54	-1380.4165
93	0x43974d13	302.60214
94	0x43d90689	434.05106
95	0x45202972	2562.5903
96	0x4382bb8b	261.46518
97	0x44c837f4	1601.7485
98	0x43846def	264.85886
99	0xc370380a	-240.2189
100	0x428336d0	65.607056
101	0x44937f23	1179.973
102	0x430d3a44	141.2276
103	0xc3f509e8	-490.0774
104	0xc4ad2f13	-1385.4711
105	0x441fcbe8	639.18604
106	0x44edcc96	1902.3933
107	0xc3b25cd0	-356.7251
108	0xc3dd9e41	-443.23636
109	0x443c56f1	753.35846
110	0x444b650f	813.57904
111	0xc4717a36	-965.90955
112	0x448c0ad8	1120.3389
113	0x44889572	1092.6702
114	0x449c6bd4	1251.3696
115	0xc42fff3e	-703.98816
116	0x44b0400b	1410.0013
117	0xc50d43a9	-2260.2288
118	0x4442438c	777.0554
119	0x44c4da05	1574.8131
120	0x4414facc	595.9187
121	0x446f0aeb	956.1706
122	0x43981a58	304.2058
123	0xc4b1abdb	-1421.3705
124	0xc3775616	-247.33627
125	0xc506f672	-2159.4028
126	0xc3593fa1	-217.24855
127	0x4485087b	1064.265

bn1.running_var f4 [128]
0	0x472e02a7	44546.652
1	0x46994852	19620.16
2	0x494f1b70	848311.0
3	0x4a9c1247	5.1141475e+06
4	0x460f262f	9161.546
5	0x47ef2989	122451.07
6	0x45d8e0d2	6940.1025
7	0x48bc0f0f	385144.47
8	0x489f1e4b	325874.34
9	0x45e7270b	7396.8804
10	0x492ccf51	707829.06
11	0x4994d677	1.2192789e+06
12	0x4914e894	609929.25
13	0x459974a9	4910.5825
14	0x4b27d9c9	1.1000265e+07
15	0x4a7f19f5	4.1795812e+06
16	0x495ab072	895751.1
17	0x48ef7f48	490490.25
18	0x459960a0	4908.078
19	0x4a7785cf	4.0554118e+06
20	0x499c7329	1.2816371e+06
21	0x44d1df63	1678.9808
22	0x47bb5f3e	95934.484
23	0x49c1fc05	1.5891206e+06
24	0x468ded74	18166.727
25	0x44848c59	1060.3859
26	0x469a7f29	19775.58
27	0x4594804f	4752.0386
28	0x4664cc48	14643.07
29	0x4a1f6507	2.6115218e+06
30	0x4a5981bd	3.5636312e+06
31	0x45c2f88c	6239.0684
32	0x46d3b784	27099.758
33	0x4a802d6d	4.2001185e+06
34	0x482d079a	177182.4
35	0x46996831	19636.096
36	0x4ab88fe2	6.047729e+06
37	0x47983493	77929.15
38	0x4a9092f1	4.7374005e+06
39	0x4618006e	9728.107
40	0x4aa371a8	5.355732e+06
41	0x47a60bcb	85015.586
42	0x491ea364	649782.25
43	0x4a9b256b	5.0838295e+06
44	0x4ac568ab	6.4686935e+06
45	0x4a1ef00a	2.6040345e+06
46	0x4a848fa9	4.3437645e+06
47	0x49489365	821558.3
48	0x48bc3bc3	385502.1
49	0x44ef5115	1914.5338
50	0x46d0aa9f	26709.31
51	0x4a4bf22a	3.3414505e+06
52	0x4b2cb525	1.1318565e+07
53	0x4880453c	262697.88
54	0x4881f38b	266140.34
55	0x48310d6b	181301.67
56	0x4a9cc3c1	5.1368645e+06
57	0x498ac709	1.1368651e+06
58	0x4b0f7fd0	9.404368e+06
59	0x4a36eb77	2.9969578e+06
60	0x49cf8b27	1.7001969e+06
61	0x48dcf59e	452524.94
62	0x445845d2	865.09094
63	0x4a36e00c	2.996227e+06
64	0x489e808e	324612.44
65	0x4abe2daa	6.231765e+06
66	0x4544b71e	3147.4448
67	0x4a012e1b	2.1164868e+06
68	0x49cc2ee5	1.6726686e+06
69	0x49c704b1	1.6303581e+06
70	0x45afda88	5627.3164
71	0x4ad97a41	7.1263045e+06
72	0x485daf43	227005.05
73	0x48d5a3ac	437533.38
74	0x49bf8aab	1.5691094e+06
75	0x45996f6f	4909.929
76	0x43474d17	199.30113
77	0x4656dea5	13751.661
78	0x4ab061ba	5.779677e+06
79	0x4a8d9c50	4.640296e+06
80	0x49750159	1.00354156e+06
81	0x47d38411	108296.13
82	0x4adb346a	7.182901e+06
83	0x495801c4	884764.25
84	0x4605f349	8572.821
85	0x46a6cc76	21350.23
86	0x49312a36	725667.4
87	0x45c519a3	6307.2046
88	0x4931bf97	728057.44
89	0x4ae22d00	7.411328e+06
90	0x46f2c3c6	31073.887
91	0x466159b4	14422.426
92	0x4a362d29	2.9847782e+06
93	0x480ef996	146406.34
94	0x48915b53	297690.6
95	0x4b1cecf6	1.0284278e+07
96	0x47d86c30	110808.375
97	0x4a755976	4.0198055e+06
98	0x47dc13fd	112679.98
99	0x47b07b2f	90358.37
100	0x45fca613	8084.7593
101	0x4a0516cb	2.1805308e+06
102	0x47044d24	33869.14
103	0x48b9393d	379337.9
104	0x4a37cae0	3.011256e+06
105	0x491d0d71	643287.06
106	0x4aacfc78	5.668412e+06
107	0x4842a79e	199326.47
108	0x4897a163	310539.1
109	0x495912f0	889135.0
110	0x497e1b98	1.0408255e+06
111	0x49b261bc	1.4613035e+06
112	0x49f067b5	1.9693986e+06
113	0x49e44104	1.8698565e+06
114	0x4a15e125	2.4556252e+06
115	0x493d7d56	776149.4
116	0x4a3e1ce1	3.1148082e+06
117	0x4af42a40	8.0008e+06
118	0x4967a966	948886.4
119	0x4a6d126b	3.8841868e+06
120	0x4907e0b5	556555.3
121	0x49af35ec	1.4353255e+06
122	0x480da0da	145027.4
123	0x4a411489	3.1634262e+06
124	0x47bd9151	97058.63
125	0x4adeddd5	7.3028905e+06
126	0x4793334f	75366.62
127	0x49d88924	1.7738605e+06

fc2.weight f4 [128, 128]
0	0x3b7252eb	0.0036975692
1	0xbb77330b	-0.0037719633
2	0xbb1c5a45	-0.0023857516
3	0xbbe5b6b8	-0.007010307
4	0xbbc7a748	-0.0060929395
5	0xb8a846aa	-8.0240265e-05
6	0x3c23d70a	0.01
7	0x3c0a943d	0.008458194
8	0x3ba5dfaa	0.005062063
9	0x3b9f68d6	0.0048647923
10	0xbbb15a37	-0.005412366
11	0x3bcc0aeb	0.0062268875
12	0x3ac60a49	0.0015109266
13	0xbc23d70a	-0.01
14	0xbc23d70a	-0.01
15	0xbb9316ca	-0.0044888007
16	0x3aeb07de	0.0017931422
17	0x3b03852e	0.0020068395
18	0xbc23d70a	-0.01
19	0xbc23d70a	-0.01
20	0xbb302d26	-0.002688238
21	0xb9a034a1	-0.0003055679
22	0x3bbe7aed	0.0058129937
23	0x390e2fa1	0.00013559918
24	0x3be3431a	0.0069354894
25	0xbb5c832b	-0.0033647518
26	0x3ae59334	0.0017515183
27	0x3b66e099	0.0035229085
28	0xba704075	-0.0009164878
29	0xbbc611eb	-0.0060446165
30	0xbc23d70a	-0.01
31	0x3ac715ca	0.0015188989
32	0x3b3b3f80	0.0028571784
33	0xbc23d70a	-0.01
34	0x3bd308e8	0.0064402707
35	0x3b60046c	0.0034182323
36	0xbc23d70a	-0.01
37	0xba96740a	-0.0011478674
38	0xbb6ce8e9	-0.0036149567
39	0xbb5a1126	-0.0033274381
40	0xbc23d70a	-0.01
41	0xba0b31ca	-0.00053098483
42	0x3b21b969	0.0024677163
43	0xbb8d6e60	-0.0043161362
44	0xbbab0cd4	-0.005220035
45	0xbbd9dc79	-0.006648597
46	0xbb7060fb	-0.0036678899
47	0x3b7a558d	0.0038197965
48	0x3b90cea1	0.0044191633
49	0x3ad18a59	0.0015986665
50	0xbac78ecf	-0.0015225055
51	0xbc14b783	-0.009076956
52	0xbc23d70a	-0.01
53	0x3b99b0ca	0.0046902644
54	0x3a6286f1	0.00086413237
55	0xb9b7d128	-0.00035060314
56	0xbc23d70a	-0.01
57	0xbbd61d30	-0.006534241
58	0xbbf908ee	-0.0075999415
59	0xbc23d70a	-0.01
60	0x3b443f57	0.002994498
61	0xbb409d56	-0.0029390655
62	0xbbdc3bcb	-0.006720995
63	0xbc127411	-0.008938805
64	0x3bc7d81c	0.0060987603
65	0x3bc465cc	0.0059935804
66	0x3afd604a	0.0019331065
67	0xbb74fefd	-0.003738343
68	0x3bdb3755	0.0066899457
69	0x3c23d70a	0.01
70	0x3c1ae5cf	0.009454205
71	0xbbb1ad5a	-0.0054222764
72	0x3ba9cd72	0.0051819617
73	0x3c021b07	0.007941014
74	0x3c19a758	0.009378277
75	0xbc23d70a	-0.01
76	0xbc23d70a	-0.01
77	0x3bb7238e	0.0055889552
78	0xbbacdea0	-0.0052755624
79	0xbba90aee	-0.0051587736
80	0xbc15b5cf	-0.009137585
81	0xba3c0a98	-0.00071732095
82	0xbc23d70a	-0.01
83	0xb773a3e0	-1.4522084e-05
84	0x3b6b998b	0.0035949673
85	0xb9cf67e8	-0.00039559533
86	0xbb405448	-0.002934711
87	0x3a6bdbed	0.000899731
88	0x3bf7e1fd	0.0075647817
89	0x3aee37c9	0.0018174584
90	0xbb8b4bb5	-0.0042509683
91	0x3bf33d0d	0.0074230493
92	0xbb5c94f0	-0.003365811
93	0xbb6155e8	-0.003438348
94	0xbbe3df43	-0.006954105
95	0x3bd2478f	0.006417222
96	0xba3a742e	-0.0007112649
97	0x37facda6	2.9898085e-05
98	0xbacff1da	-0.0015864924
99	0x3b2e79ad	0.0026622817
100	0xbacb5f80	-0.0015516132
101	0x3bcd468d	0.006264514
102	0xbb571783	-0.003282041
103	0x3b9116a2	0.004427747
104	0xb9bf991d	-0.00036544437
105	0x3b8802f1	0.0041507413
106	0x39b69751	0.00034826485
107	0xbc1277af	-0.008939668
108	0x3b1f9cfb	0.0024355042
109	0x3b675bfc	0.003530263
110	0x3c020012	0.007934587
111	0xbbd09de2	-0.0063664773
112	0x39cd30c7	0.0003913699
113	0xbc1fd00b	-0.009754191
114	0x395f0eaf	0.00021272407
115	0x3be10026	0.006866473
116	0x3a00297b	0.00048889936
117	0xbc23d70a	-0.01
118	0xbaf5f6e3	-0.0018765595
119	0x3bb5a53d	0.0055433796
120	0xbbb67584	-0.005568208
121	0x3a9006fa	0.0010988407
122	0x3b94befc	0.0045393687
123	0xbba25342	-0.0049537728
124	0xba90d3fe	-0.0011049507
125	0xbc23d70a	-0.01
126	0x3bb6f6a9	0.0055836034
127	0x3ad814d4	0.00164857
128	0x3c13dcd5	0.009024818
129	0xbc19fff1	-0.0093994
130	0xbbfcde0d	-0.0077169
131	0x3c04eace	0.008112622
132	0xbbcef5c1	-0.0063159172
133	0xbc22dcf4	-0.009940375
134	0xbc23d70a	-0.01
135	0x3c09d1d4	0.008411843
136	0x3c015aae	0.007895155
137	0x3c2035cb	0.00977845
138	0xbc224c26	-0.0099058505
139	0xbbf362a9	-0.0074275327
140	0xbc0cce4e	-0.008594109
141	0x3b112d5e	0.0022152285
142	0x3c212039	0.009834343
143	0xbbf30055	-0.007415811
144	0xbbecc3d9	-0.0072254953
145	0x3c22c18d	0.009933841
146	0x3b0fdca6	0.0021951585
147	0x3c214bda	0.009844745
148	0x3c0b138e	0.008488549
149	0xbc23d70a	-0.01
150	0x3b120a75	0.0022284065
151	0x3b3a6c3e	0.0028445865
152	0x3c147054	0.009059984
153	0xbc218bba	-0.009859974
154	0xbc1768fe	-0.009241341
155	0xbc2013eb	-0.009770374
156	0xbc14caeb	-0.009081583
157	0xbc1f695d	-0.00972971
158	0x3c212e9d	0.009837774
159	0xbc23d70a	-0.01
160	0x3c0e8d7b	0.008700724
161	0x3c212c7d	0.009837267
162	0x3be6fe06	0.007049325
163	0xbc23d70a	-0.01
164	0x3c0b9953	0.008520442
165	0x3bfdcc28	0.0077452846
166	0x3bf7a484	0.0075574536
167	0xbc1fea00	-0.00976038
168	0x3b9d9d5f	0.00481002
169	0xbc1b57f2	-0.009481417
170	0x3c06c130	0.00822477
171	0x3c0c38ec	0.008558493
172	0x3bf764bf	0.0075498517
173	0xbc228308	-0.009918936
174	0x3be6a4bf	0.0070386822
175	0xbbd71f83	-0.006565036
176	0x3b98b754	0.0046605263
177	0xbc239548	-0.009984322
178	0x3c19df7f	0.0093916645
179	0x3bfeb3be	0.007772892
180	0x3b5a2fe0	0.0033292696
181	0x3c014606	0.00789023
182	0xbc1663f0	-0.0091791
183	0x3bf40d66	0.0074478863
184	0x3c183c88	0.0092917755
185	0xbc1abccc	-0.009444427
186	0xbc17e5b0	-0.00927107
187	0x3c212f3f	0.0098379245
188	0xbbd21e5d	-0.006412311
189	0xbbed67a2	-0.00724502
190	0x3c22f828	0.00994686
191	0xbc1d9aae	-0.009619398
192	0x3be28efe	0.0069140187
193	0xbbff46d4	-0.007790426
194	0xbc21088f	-0.009828701
195	0xbc22acb3	-0.00992887
196	0x3c1547c4	0.009111349
197	0xbc05c44c	-0.008164477
198	0x3c1f4ac7	0.009722418
199	0xbc219e9d	-0.0098644765
200	0x3c229b13	0.009924668
201	0x3c1df254	0.009640295
202	0x3bd286c0	0.006424755
203	0x3c23d70a	0.01
204	0x3b12f7ac	0.0022425456
205	0x3c177fda	0.009246791
206	0x3c020474	0.007935632
207	0xbc1de80f	-0.009637847
208	0xbbbc2bfc	-0.005742548
209	0xbc1b8b31	-0.009493635
210	0x3c212fcd	0.009838057
211	0xbc0ce7f2	-0.008600222
212	0x3c23d70a	0.01
213	0xbc22c4f1	-0.00993465
214	0xbbec976d	-0.0072202
215	0xbc23d70a	-0.01
216	0x3c124864	0.008928392
217	0x3bdfdc21	0.0068316613
218	0xbbc81006	-0.006105426
219	0x3c01087b	0.007875557
220	0x3bf66d16	0.0075203283
221	0xbbfe11d5	-0.0077535906
222	0x3c1c3aaa	0.009535471
223	0xb98d9993	-0.00027008037
224	0xbc18670d	-0.009301913
225	0xbbdd23ec	-0.006748667
226	0xbc15f0a5	-0.009151612
227	0xbc0389c3	-0.00802845
228	0x3c22a824	0.009927783
229	0x3bbb096a	0.0057079094
230	0xbc186088	-0.009300359
231	0xbc179ebb	-0.009254153
232	0x3c013f49	0.0078886235
233	0xbc12f294	-0.008968968
234	0xbbfd6b66	-0.00773375
235	0xbb90cea3	-0.0044191643
236	0x3c0a4b4c	0.008440804
237	0xbbdd816d	-0.0067598135
238	0xbb984495	-0.0046468475
239	0x3bf64ef2	0.0075167352
240	0xbbf6388c	-0.007514065
241	0xbbc6303a	-0.0060482295
242	0xbbfa8163	-0.0076448186
243	0xbaec8187	-0.0018043973
244	0xbbcdd610	-0.0062816218
245	0x3af9bb9d	0.0019053105
246	0xbc01ac65	-0.007914637
247	0xbbb9f889	-0.0056753797
248	0xbc0ecd63	-0.00871596
249	0xbc050a42	-0.008120121
250	0x3b8dfc12	0.0043330276
251	0xbc228e67	-0.009921647
252	0xbbf8b529	-0.0075899553
253	0x3c0e288e	0.008676661
254	0x3be154bd	0.0068765567
255	0x3b8ca71c	0.004292382

fc2.bias f4 [128]
0	0xbc23d70a	-0.01
1	0x3becb91f	0.0072242166
2	0xbc239fd4	-0.009986836
3	0x3a809db1	0.0009812621
4	0x3a9e1d11	0.0012063106
5	0xbc22de8b	-0.009940754
6	0x3bea29e1	0.0071461056
7	0xbc23d70a	-0.01
8	0x3bf09d26	0.0073429523
9	0xbc2396c6	-0.009984678
10	0xbc238db3	-0.009982514
11	0xbc23d70a	-0.01
12	0xbc23d70a	-0.01
13	0x3ba5e1c5	0.005062314
14	0xbc23d70a	-0.01
15	0x3b145532	0.0022633788
16	0x3b95cea6	0.0045717536
17	0x3beef9e0	0.007292971
18	0xbc238ebb	-0.00998276
19	0xbc23d70a	-0.01
20	0xbc23d70a	-0.01
21	0xbc23d70a	-0.01
22	0xbc23d70a	-0.01
23	0xbc23d70a	-0.01
24	0xbc23b5e8	-0.0099921
25	0x3b9ce916	0.004788528
26	0xbc230a02	-0.0099511165
27	0xbc22d06e	-0.009937389
28	0x3b9c2d12	0.004766115
29	0xbc23d70a	-0.01
30	0x3bee84d2	0.007279017
31	0xbc23d70a	-0.01
32	0xbc23d118	-0.009998582
33	0xb946552d	-0.00018914482
34	0x3c035d76	0.008017888
35	0xbc23d70a	-0.01
36	0xbc23d70a	-0.01
37	0x3aef958e	0.0018278824
38	0x3ac0f34b	0.0014720944
39	0x3bdc4fba	0.0067233713
40	0x3ac5a210	0.0015078206
41	0xbc23d70a	-0.01
42	0xbc238da8	-0.009982504
43	0x3bfa0872	0.0076304013
44	0xbc23d70a	-0.01
45	0xbc23d70a	-0.01
46	0xbc23d70a	-0.01
47	0x3af4ab69	0.0018666807
48	0xbc23d70a	-0.01
49	0xbc23d70a	-0.01
50	0xbc23d70a	-0.01
51	0xbc23d70a	-0.01
52	0xbc23d70a	-0.01
53	0xbc23d70a	-0.01
54	0xbc22c9bb	-0.009935792
55	0x3b86632e	0.0041011786
56	0x3ab3fad6	0.0013731371
57	0xbc23d70a	-0.01
58	0xbc23d70a	-0.01
59	0x3bda7d14	0.0066677425
60	0x3b8fff09	0.004394416
61	0x3baf167d	0.005343257
62	0xbc23beab	-0.009994189
63	0x3ac73d3c	0.0015200744
64	0xbc23c5f1	-0.009995923
65	0x3aba4a58	0.001421283
66	0xbc23d70a	-0.01
67	0xbc23d474	-0.009999383
68	0xbc23d70a	-0.01
69	0x3ba94091	0.0051651676
70	0xbc23d303	-0.00999904
71	0xbc23d28e	-0.009998931
72	0x3bf0eafe	0.007352232
73	0x3b97f599	0.004637432
74	0xbc23d70a	-0.01
75	0xbc23d70a	-0.01
76	0xbc23d70a	-0.01
77	0xbc23d70a	-0.01
78	0xbc23d70a	-0.01
79	0xbc2361c1	-0.009972037
80	0x3bf39847	0.0074339244
81	0x3b95f342	0.0045761177
82	0xbc238b2b	-0.009981911
83	0x3bf1f6db	0.007384164
84	0x3b903c85	0.0044017457
85	0x3b9ed6ff	0.004847407
86	0xbc23d70a	-0.01
87	0xbc23d70a	-0.01
88	0x3bff7724	0.007796185
89	0x3bf14c3d	0.0073638246
90	0xbc23d70a	-0.01
91	0x3b28cb63	0.0025755994
92	0x3a3891e1	0.00070407806
93	0x3bf9fd5f	0.007629081
94	0xbc23ad2f	-0.009990021
95	0xbc23856a	-0.009980539
96	0xbbdb6a9c	-0.0066960584
97	0xbc23c1e5	-0.0099949585
98	0xbc23d70a	-0.01
99	0xbc226dcb	-0.009913872
100	0x3ba1259c	0.0049178135
101	0xbc23d70a	-0.01
102	0xbc23d70a	-0.01
103	0x3b8e669c	0.004345728
104	0x3bf090b5	0.007341469
105	0xbb39ebde	-0.0028369348
106	0xbc22ae40	-0.00992924
107	0xbc23d70a	-0.01
108	0xbc236e37	-0.009975008
109	0xbc23d70a	-0.01
110	0xbc23d70a	-0.01
111	0xbc23068a	-0.0099502895
112	0xbc23d70a	-0.01
113	0xbc23d70a	-0.01
114	0x3ae092ad	0.0017133557
115	0xbc23d70a	-0.01
116	0xbc23d70a	-0.01
117	0x3beb0e00	0.0071733
118	0xb982e807	-0.00024968406
119	0x3b9fe03b	0.0048790253
120	0xbc23c80c	-0.009996425
121	0xbc238c95	-0.009982248
122	0x3b9ddbaa	0.0048174458
123	0xbc23783b	-0.009977396
124	0xbc23d70a	-0.01
125	0x3b34980f	0.0027556454
126	0x3be11bbb	0.006869761
127	0x3be68031	0.0070343246

bn2.weight f4 [128]
0	0x3c23d70a	0.01
1	0x3c23d70a	0.01
2	0x3c23d70a	0.01
3	0x3c23d70a	0.01
4	0x3c23d70a	0.01
5	0x3c23d70a	0.01
6	0x3c23d70a	0.01
7	0x3c23d70a	0.01
8	0x3c23d70a	0.01
9	0x3c23d70a	0.01
10	0x3c23d70a	0.01
11	0x3c23d70a	0.01
12	0x3c23d70a	0.01
13	0x3c23d70a	0.01
14	0x3c23d70a	0.01
15	0x3c23d70a	0.01
16	0x3c23d70a	0.01
17	0x3c23d70a	0.01
18	0x3c23d70a	0.01
19	0x3c23d70a	0.01
20	0x3c23d70a	0.01
21	0x3c23d70a	0.01
22	0x3c23d70a	0.01
23	0x3c23d70a	0.01
24	0x3c23d70a	0.01
25	0x3c23d70a	0.01
26	0x3c23d70a	0.01
27	0x3c23d70a	0.01
28	0x3c23d70a	0.01
29	0x3c23d70a	0.01
30	0x3c23d70a	0.01
31	0x3c23d70a	0.01
32	0x3c23d70a	0.01
33	0x3c23d70a	0.01
34	0x3c23d70a	0.01
35	0x3c23d70a	0.01
36	0x3c23d70a	0.01
37	0x3c23d70a	0.01
38	0x3c23d70a	0.01
39	0x3c23d70a	0.01
40	0x3c23d70a	0.01
41	0x3c23d70a	0.01
42	0x3c23d70a	0.01
43	0x3c23d70a	0.01
44	0x3c23d70a	0.01
45	0x3c23d70a	0.01
46	0x3c23d70a	0.01
47	0x3c23d70a	0.01
48	0x3c23d70a	0.01
49	0x3c23d70a	0.01
50	0x3c23d70a	0.01
51	0x3c23d70a	0.01
52	0x3c23d70a	0.01
53	0x3c23d70a	0.01
54	0x3c23d70a	0.01
55	0x3c23d70a	0.01
56	0x3c23d70a	0.01
57	0x3c23d70a	0.01
58	0x3c23d70a	0.01
59	0x3c23d70a	0.01
60	0x3c23d70a	0.01
61	0x3c23d70a	0.01
62	0x3c23d70a	0.01
63	0x3c23d70a	0.01
64	0x3c23d70a	0.01
65	0x3bd48505	0.0064855837
66	0x3c23d70a	0.01
67	0x3c23d70a	0.01
68	0x3c23d70a	0.01
69	0x3c23d70a	0.01
70	0x3c23d70a	0.01
71	0x3c23d70a	0.01
72	0x3c23d70a	0.01
73	0x3c23d70a	0.01
74	0x3c23d70a	0.01
75	0x3c23d70a	0.01
76	0x3c23d70a	0.01
77	0x3c23d70a	0.01
78	0x3c23d70a	0.01
79	0x3c23d70a	0.01
80	0x3c23d70a	0.01
81	0x3c23d70a	0.01
82	0x3c23d70a	0.01
83	0x3c23d70a	0.01
84	0x3c23d70a	0.01
85	0x3c23d70a	0.01
86	0x3c23d70a	0.01
87	0x3c23d70a	0.01
88	0x3c23d70a	0.01
89	0x3c23d70a	0.01
90	0x3c23d70a	0.01
91	0x3c23d70a	0.01
92	0x3c23d70a	0.01
93	0x3c23d70a	0.01
94	0x3c23d70a	0.01
95	0x3c23d70a	0.01
96	0x3c23d70a	0.01
97	0x3c23d70a	0.01
98	0x3c23d70a	0.01
99	0x3c23d70a	0.01
100	0x3c23d70a	0.01
101	0x3c23d70a	0.01
102	0x3c23d70a	0.01
103	0x3c23d70a	0.01
104	0x3c23d70a	0.01
105	0x3c23d70a	0.01
106	0x3c23d70a	0.01
107	0x3c23d70a	0.01
108	0x3c23d70a	0.01
109	0x3c23d70a	0.01
110	0x3c23d70a	0.01
111	0x3c23d70a	0.01
112	0x3c23d70a	0.01
113	0x3c23d70a	0.01
114	0x3c23d70a	0.01
115	0x3c23d70a	0.01
116	0x3c23d70a	0.01
117	0x3c23d70a	0.01
118	0x3c23d70a	0.01
119	0x3c23d70a	0.01
120	0x3c23d70a	0.01
121	0x3c23d70a	0.01
122	0x3c23d70a	0.01
123	0x3c23d70a	0.01
124	0x3c23d70a	0.01
125	0x3c23d70a	0.01
126	0x3c23d70a	0.01
127	0x3c23d70a	0.01

bn2.bias f4 [128]
0	0x3ade3fb4	0.0016956241
1	0xb88eaa3e	-6.802798e-05
2	0x389eeee8	7.578527e-05
3	0x389087d5	6.891756e-05
4	0x389db199	7.5194235e-05
5	0xb89427f8	-7.064635e-05
6	0xbab710fc	-0.0013966854
7	0x3ab1a7fe	0.0013554094
8	0xb895628d	-7.12323e-05
9	0x3892066a	6.963017e-05
10	0x38930085	7.009603e-05
11	0x3aa00525	0.0012208564
12	0x3a98d291	0.0011659433
13	0xb88fc2bd	-6.855044e-05
14	0x3ac04201	0.0014668108
15	0x389d2213	7.49269e-05
16	0xb894b00e	-7.089983e-05
17	0xbad7dee0	-0.001646962
18	0x388ce64a	6.718615e-05
19	0x3adda75d	0.001691084
20	0xbaaa71f4	-0.0013003931
21	0xbaa28689	-0.0012399714
22	0x3ab6c58f	0.0013944375
23	0x3abbf093	0.0014338664
24	0x389b5bb0	7.408054e-05
25	0xb89c303c	-7.447644e-05
26	0xb8974e1a	-7.214789e-05
27	0xb89b8adc	-7.4168405e-05
28	0xb89321ba	-7.015788e-05
29	0x3aba45ca	0.0014211473
30	0xbae97b17	-0.0017813173
31	0xbad5bf3c	-0.0016307603
32	0xb890d541	-6.906177e-05
33	0x389379f9	7.0322254e-05
34	0xbac350a8	-0.0014901357
35	0x3abfcadd	0.0014632602
36	0x3ac75f59	0.0015210911
37	0x389485c3	7.082105e-05
38	0x38a14b34	7.691086e-05
39	0xba91699d	-0.0011094097
40	0x38905ba2	6.883523e-05
41	0x3abe0605	0.0014497644
42	0x3891c7a6	6.951326e-05
43	0xba8d7d10	-0.0010794718
44	0x3ac2f8a1	0.0014875123
45	0x3af7f781	0.0018918366
46	0x3acda52e	0.0015689486
47	0x388b17d3	6.632474e-05
48	0xbaef200f	-0.0018243807
49	0xbad32071	-0.0016107691
50	0xbadeb23f	-0.0016990377
51	0xbad34b75	-0.001612051
52	0x3ac6fabf	0.0015180929
53	0x3ab0b30d	0.0013481096
54	0xb88e2637	-6.778206e-05
55	0xb896a6bb	-7.183613e-05
56	0x389d6605	7.505346e-05
57	0x3ac91779	0.0015342078
58	0xba9d070c	-0.001198025
59	0xbaad16f0	-0.0013205688
60	0xb894b3b8	-7.090665e-05
61	0xb89795c1	-7.228135e-05
62	0x389b54d1	7.406774e-05
63	0xb89c85e3	-7.463598e-05
64	0xbaab6204	-0.0013075476
65	0x3b651bf0	0.003495928
66	0xbae2d9c3	-0.001730733
67	0xbae6c163	-0.0017605241
68	0x3ab2dad1	0.0013645535
69	0xb8a0dc05	-7.670376e-05
70	0xb89157b9	-6.9304784e-05
71	0xb895bc61	-7.139962e-05
72	0xbabf99e2	-0.0014618004
73	0xb891bf24	-6.9497415e-05
74	0xbad9a446	-0.0016604743
75	0x3a9d7f61	0.0012016111
76	0x3aa3ef7f	0.0012507288
77	0x3ad20c40	0.0016025379
78	0x3abf00f8	0.0014572432
79	0x388cc220	6.711879e-05
80	0xbac6156f	-0.0015112589
81	0xb896a516	-7.183307e-05
82	0x38911c71	6.9194364e-05
83	0xbabbd300	-0.0014329851
84	0xb88c15b8	-6.679766e-05
85	0xb893d998	-7.050036e-05
86	0x3aa23f3b	0.0012378463
87	0x3aedd910	0.0018146355
88	0xba9f79b7	-0.0012167011
89	0xbaa9e2ed	-0.0012961306
90	0x3a8e2e7c	0.0010847594
91	0x38916ac0	6.9340225e-05
92	0x38974270	7.212616e-05
93	0xbadfe70f	-0.0017082411
94	0xb893ffd9	-7.0571616e-05
95	0x389af8e0	7.389649e-05
96	0xb897d641	-7.240149e-05
97	0x38968284	7.176868e-05
98	0x3a936371	0.0011244846
99	0xbaba31a2	-0.0014205466
100	0xb894a1cc	-7.087327e-05
101	0x3ab0e994	0.0013497346
102	0x3a91cb75	0.0011123257
103	0xb899ba85	-7.3303505e-05
104	0xba9e9dbc	-0.0012101452
105	0xb88d53cb	-6.7390116e-05
106	0xb8942e60	-7.065828e-05
107	0x3a9cb432	0.0011955558
108	0x388c28a2	6.683289e-05
109	0x3ab70d35	0.0013965728
110	0x3a9b65c2	0.0011855888
111	0xba8ca30f	-0.0010729748
112	0xbac808dc	-0.0015261429
113	0x3ad32dd7	0.0016111684
114	0x389b2d75	7.399443e-05
115	0x3ad14ec7	0.0015968912
116	0x3ac5c6ad	0.0015089117
117	0xba667079	-0.00087905634
118	0xb89d53e4	-7.501969e-05
119	0xb892ceab	-7.0003174e-05
120	0xb897ccb3	-7.238369e-05
121	0x3892f11c	7.0067326e-05
122	0xb89a6d4a	-7.363649e-05
123	0x388bece1	6.6721586e-05
124	0x3aaeb174	0.0013328032
125	0x389b444b	7.4036965e-05
126	0xbaeb739c	-0.0017963531
127	0xbaa15901	-0.001230985

bn2.running_mean f4 [128]
0	0xbc246d60	-0.010035843
1	0x3bbd4d57	0.005777042
2	0xbc0bb50f	-0.008527054
3	0x3b1fad4e	0.0024364772
4	0x3b2ec9fd	0.0026670687
5	0xbc3a9540	-0.011388123
6	0x3becbdf2	0.0072247917
7	0xbc288c6f	-0.010287388
8	0x3bc0feea	0.005889763
9	0xbc0bd327	-0.008534229
10	0xbc0bd07a	-0.008533591
11	0xbc2744ba	-0.010209257
12	0xbc254cd0	-0.010089114
13	0x3b6cb55e	0.0036118845
14	0xbc25b523	-0.010113987
15	0x3b737451	0.0037148187
16	0x3b4cd620	0.0031255558
17	0x3bf52845	0.007481607
18	0xbc0bca60	-0.008532137
19	0xbc26be42	-0.010177197
20	0xbc22698b	-0.009912859
21	0xbc22c037	-0.009933523
22	0xbc26b0d3	-0.010173994
23	0xbc2649f5	-0.010149469
24	0xbc0becf7	-0.008540384
25	0x3b5aab1f	0.0033366156
26	0xbc3aee33	-0.01140933
27	0xbc3a9b20	-0.011389524
28	0x3b58ce42	0.0033081924
29	0xbc2715c2	-0.010198059
30	0x3bf222d7	0.007389407
31	0xbc210a48	-0.009829111
32	0xbc3b9119	-0.011448168
33	0x3aa61012	0.0012669584
34	0x3c04605a	0.008079613
35	0xbc26a805	-0.010171895
36	0xbc25c370	-0.010117397
37	0x3b5706ad	0.0032810376
38	0x3b3f9eac	0.0029238863
39	0x3be087a5	0.0068521076
40	0x3b41c985	0.0029569578
41	0xbc2494b4	-0.010045219
42	0xbc0bb9a2	-0.008528145
43	0x3bface9f	0.0076540257
44	0xbc25a1cc	-0.010109376
45	0xbc247e3c	-0.010039862
46	0xbc257ca6	-0.010100519
47	0x3b59ba85	0.0033222747
48	0xbc21aa87	-0.009867317
49	0xbc22cf24	-0.0099370815
50	0xbc232212	-0.009956853
51	0xbc22de7f	-0.0099407425
52	0xbc2549ae	-0.010088367
53	0xbc269389	-0.010167011
54	0xbc3a8caa	-0.011386076
55	0x3b2d8f58	0.0026483145
56	0x3b393d2b	0.0028265219
57	0xbc27d48e	-0.010243548
58	0xbc20d7fa	-0.009817118
59	0x3bdf3805	0.006812098
60	0x3b410cba	0.0029457049
61	0x3b7f1e21	0.003892787
62	0xbc0bd813	-0.008535403
63	0x388aa0d5	6.61031e-05
64	0xbc21e896	-0.009882113
65	0x3b383814	0.0028109597
66	0xbc22ff21	-0.009948523
67	0xbc2175fc	-0.00985479
68	0xbc2621af	-0.010139867
69	0x3b72d1d0	0.0037051328
70	0xbc3bac40	-0.011454642
71	0xbc3b9fcb	-0.011451672
72	0x3bf81bcd	0.0075716735
73	0x3b50d7b4	0.003186685
74	0xbc22adf8	-0.009929173
75	0xbc22beb5	-0.009933163
76	0xbc2578f8	-0.010099642
77	0xbc24b9b4	-0.010054041
78	0xbc257852	-0.010099487
79	0xbc0ba6c9	-0.008523651
80	0x3bfa5b21	0.007640258
81	0x3b4c9bba	0.003122075
82	0xbc0bbffc	-0.008529659
83	0x3bf12c8d	0.007360047
84	0x3b4197ca	0.0029539936
85	0x3b5e9f31	0.0033969397
86	0xbc25b4ae	-0.010113878
87	0xbc28e4ac	-0.010308426
88	0x3c008d8b	0.0078462465
89	0x3bf833a2	0.0075745145
90	0xbc248fc2	-0.01004404
91	0x3b842ede	0.0040339073
92	0x3b0d3abe	0.0021549906
93	0x3c017e3d	0.007903633
94	0xbc3b9297	-0.011448524
95	0xbc0bbae3	-0.008528444
96	0xbc057bf6	-0.00814723
97	0xbc0bd926	-0.008535659
98	0xbc22d0fc	-0.009937521
99	0xbc21b0a2	-0.009868773
100	0x3b62f8f2	0.0034633246
101	0xbc25cc1e	-0.010119466
102	0xbc26f084	-0.010189179
103	0x3b3dc1fb	0.0028954733
104	0x3bf1d1f3	0.007379764
105	0xbb8c73d4	-0.0042862687
106	0xbc3a6c72	-0.011378394
107	0xbc25d6a1	-0.010121972
108	0xbc0ba147	-0.008522338
109	0xbc264ea3	-0.010150584
110	0xbc24e2d1	-0.010063843
111	0xbc230014	-0.009948749
112	0xbc250830	-0.010072753
113	0xbc271330	-0.010197446
114	0x3b4f6ef3	0.0031651824
115	0xbc25a195	-0.010109325
116	0xbc27d91e	-0.010244636
117	0x3bee9464	0.007280873
118	0xbadf86a8	-0.001705368
119	0x3b602eec	0.0034207655
120	0xbc3ba57f	-0.011453032
121	0xbc0bb870	-0.00852786
122	0x3b5c5103	0.0033617623
123	0xbc0bb05c	-0.008525934
124	0xbc271d93	-0.010199922
125	0x3b8a0ad2	0.0042127157
126	0x3be2d964	0.0069228876
127	0x3be9c6f2	0.007134312

bn2.running_var f4 [128]
0	0x3610631e	2.1515366e-06
1	0x33fef8b9	1.1873039e-07
2	0x342705d8	1.5555213e-07
3	0x3427b78e	1.5619864e-07
4	0x34267358	1.5501917e-07
5	0x33ff59da	1.1890707e-07
6	0x360d0687	2.1014437e-06
7	0x360b2586	2.0734456e-06
8	0x34252ef9	1.5383911e-07
9	0x33fcd698	1.1773699e-07
10	0x33fdeff0	1.1824875e-07
11	0x36082be4	2.0291127e-06
12	0x360019bd	1.9088468e-06
13	0x33ff5b92	1.18910194e-07
14	0x36076745	2.0176678e-06
15	0x34355ca0	1.6890635e-07
16	0x34273bed	1.5574888e-07
17	0x360dc41a	2.1124783e-06
18	0x33fc444b	1.1747087e-07
19	0x360fb6e8	2.1415126e-06
20	0x360476dc	1.9738718e-06
21	0x360078e0	1.9143845e-06
22	0x360958bd	2.0466243e-06
23	0x3603b6b8	1.9626877e-06
24	0x34272c87	1.5569286e-07
25	0x34259b8f	1.5423414e-07
26	0x3426aa85	1.552199e-07
27	0x342792cd	1.5606493e-07
28	0x34049006	1.2345853e-07
29	0x35fffd45	1.9072692e-06
30	0x3612ff49	2.190429e-06
31	0x3607fa71	2.0262344e-06
32	0x33ff0f8c	1.1877191e-07
33	0x33fec160	1.18629714e-07
34	0x360b9370	2.0798434e-06
35	0x36035cc3	1.9574516e-06
36	0x360fc72f	2.14246e-06
37	0x34260829	1.5462923e-07
38	0x3426a28d	1.551909e-07
39	0x35ffbdc4	1.905421e-06
40	0x33ff79d5	1.1896524e-07
41	0x3604d89e	1.979562e-06
42	0x34092df5	1.2775838e-07
43	0x35eca886	1.7632417e-06
44	0x361137c1	2.1639137e-06
45	0x3612a1a3	2.184978e-06
46	0x360b5f93	2.0768246e-06
47	0x33fc308b	1.1743494e-07
48	0x3614750c	2.2121849e-06
49	0x3614c3a1	2.216759e-06
50	0x3612f966	2.1900864e-06
51	0x3605d3c8	1.9941817e-06
52	0x36026325	1.942922e-06
53	0x3600d2ce	1.919619e-06
54	0x33fd83b7	1.18051894e-07
55	0x3427ff59	1.5645982e-07
56	0x3427a185	1.5611847e-07
57	0x3604f409	1.981158e-06
58	0x3600edbd	1.9211868e-06
59	0x35fe79f9	1.8959973e-06
60	0x3425f7a2	1.5456911e-07
61	0x34279ab7	1.5609372e-07
62	0x342783ed	1.5601081e-07
63	0x34298aaa	1.5789797e-07
64	0x3603fa38	1.9666168e-06
65	0x3497d3e5	2.8280115e-07
66	0x360cdafb	2.098909e-06
67	0x361361f7	2.196173e-06
68	0x360af622	2.070687e-06
69	0x3426d2bb	1.5536618e-07
70	0x33fe6cca	1.1847585e-07
71	0x33fe6d52	1.1847682e-07
72	0x360c4a7d	2.0904984e-06
73	0x342743e3	1.5577784e-07
74	0x36108a0c	2.1538026e-06
75	0x35edf638	1.7729535e-06
76	0x36046ca7	1.9732777e-06
77	0x3610610c	2.151416e-06
78	0x3610c086	2.1569736e-06
79	0x33fdd55b	1.182004e-07
80	0x3608ac7c	2.0365978e-06
81	0x341e9e8c	1.4772576e-07
82	0x341ec0e6	1.4785073e-07
83	0x36092404	2.0435555e-06
84	0x33fdad12	1.1812712e-07
85	0x3427e263	1.5635446e-07
86	0x3601e5c4	1.935624e-06
87	0x360fa2bb	2.1403382e-06
88	0x360188f2	1.930221e-06
89	0x36027bef	1.9443648e-06
90	0x35f9391a	1.8568564e-06
91	0x33ff6228	1.1892217e-07
92	0x34271a58	1.5562671e-07
93	0x3613c99e	2.2022064e-06
94	0x3402a107	1.2165775e-07
95	0x342739d3	1.5574123e-07
96	0x342818d8	1.5655257e-07
97	0x3427201c	1.5564768e-07
98	0x3602fe6e	1.9519607e-06
99	0x360c114f	2.08717e-06
100	0x34266f29	1.5500395e-07
101	0x36071f6f	2.0134864e-06
102	0x35e9738e	1.7393484e-06
103	0x3428dcdc	1.5726567e-07
104	0x360c305a	2.088977e-06
105	0x340056d8	1.1952523e-07
106	0x33fd1829	1.1785625e-07
107	0x360575f1	1.9887195e-06
108	0x33fcbc70	1.1768941e-07
109	0x360e5cff	2.121378e-06
110	0x35fb195b	1.8708337e-06
111	0x35ef45d1	1.7827207e-06
112	0x360e3f39	2.119645e-06
113	0x3611b71f	2.1713274e-06
114	0x3426d401	1.5537081e-07
115	0x36060f77	1.9976558e-06
116	0x3605407d	1.9856082e-06
117	0x35e8f7fd	1.7357521e-06
118	0x3428d715	1.5724466e-07
119	0x3402a5af	1.2167469e-07
120	0x3425b60b	1.543305e-07
121	0x33ff4920	1.1887664e-07
122	0x34281528	1.5653916e-07
123	0x33fdbb8c	1.1815345e-07
124	0x3609bd41	2.052475e-06
125	0x34266fa8	1.5500575e-07
126	0x360ade91	2.0693153e-06
127	0x360090d2	1.9157783e-06

fc3.weight f4 [1, 128]
0	0x3c23d70a	0.01
1	0xbc23d70a	-0.01
2	0xbc23d70a	-0.01
3	0xbc23d70a	-0.01
4	0xbc23d70a	-0.01
5	0xbc23d70a	-0.01
6	0x3c23d70a	0.01
7	0x3c23d70a	0.01
8	0xbc23d70a	-0.01
9	0xbc23d70a	-0.01
10	0xbc23d70a	-0.01
11	0x3c23d70a	0.01
12	0x3c23d70a	0.01
13	0xbc23d70a	-0.01
14	0x3c23d70a	0.01
15	0xbc23d70a	-0.01
16	0xbc23d70a	-0.01
17	0x3c23d70a	0.01
18	0xbc23d70a	-0.01
19	0x3c23d70a	0.01
20	0x3c23d70a	0.01
21	0x3c23d70a	0.01
22	0x3c23d70a	0.01
23	0x3c23d70a	0.01
24	0xbc23d70a	-0.01
25	0xbc23d70a	-0.01
26	0xbc23d70a	-0.01
27	0xbc23d70a	-0.01
28	0xbc23d70a	-0.01
29	0x3c23d70a	0.01
30	0x3c23d70a	0.01
31	0x3c23d70a	0.01
32	0xbc23d70a	-0.01
33	0xbc23d70a	-0.01
34	0x3c23d70a	0.01
35	0x3c23d70a	0.01
36	0x3c23d70a	0.01
37	0xbc23d70a	-0.01
38	0xbc23d70a	-0.01
39	0x3c23d70a	0.01
40	0xbc23d70a	-0.01
41	0x3c23d70a	0.01
42	0xbc23d70a	-0.01
43	0x3c23d70a	0.01
44	0x3c23d70a	0.01
45	0x3c23d70a	0.01
46	0x3c23d70a	0.01
47	0xbc23d70a	-0.01
48	0x3c23d70a	0.01
49	0x3c23d70a	0.01
50	0x3c23d70a	0.01
51	0x3c23d70a	0.01
52	0x3c23d70a	0.01
53	0x3c23d70a	0.01
54	0xbc23d70a	-0.01
55	0xbc23d70a	-0.01
56	0xbc23d70a	-0.01
57	0x3c23d70a	0.01
58	0x3c23d70a	0.01
59	0x3c23d70a	0.01
60	0xbc23d70a	-0.01
61	0xbc23d70a	-0.01
62	0xbc23d70a	-0.01
63	0xbc23d70a	-0.01
64	0x3c23d70a	0.01
65	0x3c1148bb	0.008867438
66	0x3c23d70a	0.01
67	0x3c23d70a	0.01
68	0x3c23d70a	0.01
69	0xbc23d70a	-0.01
70	0xbc23d70a	-0.01
71	0xbc23d70a	-0.01
72	0x3c23d70a	0.01
73	0xbc23d70a	-0.01
74	0x3c23d70a	0.01
75	0x3c23d70a	0.01
76	0x3c23d70a	0.01
77	0x3c23d70a	0.01
78	0x3c23d70a	0.01
79	0xbc23d70a	-0.01
80	0x3c23d70a	0.01
81	0xbc23d70a	-0.01
82	0xbc23d70a	-0.01
83	0x3c23d70a	0.01
84	0xbc23d70a	-0.01
85	0xbc23d70a	-0.01
86	0x3c23d70a	0.01
87	0x3c23d70a	0.01
88	0x3c23d70a	0.01
89	0x3c23d70a	0.01
90	0x3c23d70a	0.01
91	0xbc23d70a	-0.01
92	0xbc23d70a	-0.01
93	0x3c23d70a	0.01
94	0xbc23d70a	-0.01
95	0xbc23d70a	-0.01
96	0xbc23d70a	-0.01
97	0xbc23d70a	-0.01
98	0x3c23d70a	0.01
99	0x3c23d70a	0.01
100	0xbc23d70a	-0.01
101	0x3c23d70a	0.01
102	0x3c23d70a	0.01
103	0xbc23d70a	-0.01
104	0x3c23d70a	0.01
105	0xbc23d70a	-0.01
106	0xbc23d70a	-0.01
107	0x3c23d70a	0.01
108	0xbc23d70a	-0.01
109	0x3c23d70a	0.01
110	0x3c23d70a	0.01
111	0x3c23d70a	0.01
112	0x3c23d70a	0.01
113	0x3c23d70a	0.01
114	0xbc23d70a	-0.01
115	0x3c23d70a	0.01
116	0x3c23d70a	0.01
117	0x3c23d70a	0.01
118	0xbc23d70a	-0.01
119	0xbc23d70a	-0.01
120	0xbc23d70a	-0.01
121	0xbc23d70a	-0.01
122	0xbc23d70a	-0.01
123	0xbc23d70a	-0.01
124	0x3c23d70a	0.01
125	0xbc23d70a	-0.01
126	0x3c23d70a	0.01
127	0x3c23d70a	0.01
