10_Models/Results_Chicago/WGAN_Congestion_discriminator_best.pth (torch, 78018 bytes, 13 tensors)

fc1.weight f4 [128, 2]
0	0x3c23d70a	0.01
1	0xbabca662	-0.0014392848
2	0xbc23d70a	-0.01
3	0xbacd7116	-0.0015673961
4	0x3c23d70a	0.01
5	0xbabe9540	-0.001454033
6	0xbc23d70a	-0.01
7	0x3a489585	0.00076516747
8	0x3c23d70a	0.01
9	0xbacd8fce	-0.0015683116
10	0x3c23d70a	0.01
11	0xbac811d7	-0.0015264106
12	0xbc23d70a	-0.01
13	0xbacd7bff	-0.0015677213
14	0x3c23d70a	0.01
15	0x3aba97be	0.0014235897
16	0x3c23d70a	0.01
17	0x3aba96a5	0.0014235569
18	0x39971638	0.0002881752
19	0x3c23d70a	0.01
20	0x3c23d70a	0.01
21	0x3aba96a4	0.0014235568
22	0x3c23d70a	0.01
23	0x3abb785d	0.0014302839
24	0x3c23d70a	0.01
25	0xbacbb745	-0.001554229
26	0xbc23d70a	-0.01
27	0x3a93ccdc	0.0011276263
28	0x3c23d70a	0.01
29	0x3ab9349f	0.0014130062
30	0xbc23d70a	-0.01
31	0x3a9b37ca	0.0011842188
32	0xbc23d70a	-0.01
33	0xbacd9907	-0.0015685864
34	0x3c23d70a	0.01
35	0x3ab9ac5c	0.0014165747
36	0xbc23d70a	-0.01
37	0x3a9b783f	0.0011861398
38	0x3c23d70a	0.01
39	0xbaccdc5b	-0.0015629636
40	0xbc23d70a	-0.01
41	0xbacd7bfe	-0.0015677211
42	0xbc23d70a	-0.01
43	0xbac933fb	-0.0015350574
44	0xbc23d70a	-0.01
45	0x3a95e4cd	0.0011435986
46	0xbc23d70a	-0.01
47	0xbacd7115	-0.001567396
48	0x3c23d70a	0.01
49	0x3abb785c	0.0014302838
50	0xbc23d70a	-0.01
51	0xbacb7547	-0.0015522622
52	0xbc23d70a	-0.01
53	0x3a9cc65d	0.0011960972
54	0x3c23d70a	0.01
55	0x3abba57b	0.0014316285
56	0xbc23d70a	-0.01
57	0xbacd7bff	-0.0015677213
58	0x3c23d70a	0.01
59	0x3aabd301	0.0013109149
60	0xbc23d70a	-0.01
61	0xbacd85fc	-0.0015680189
62	0x3c23d70a	0.01
63	0xbacd4ed4	-0.0015663751
64	0x3c23d70a	0.01
65	0xbacb7ddf	-0.0015525183
66	0xbc23d70a	-0.01
67	0xbacd9906	-0.0015685863
68	0x3c23d70a	0.01
69	0xbabbbab3	-0.0014322608
70	0x3c23d70a	0.01
71	0x3aabd303	0.0013109151
72	0xbc23d70a	-0.01
73	0xbac7e9a2	-0.0015252123
74	0x3c23d70a	0.01
75	0x3abb7882	0.0014302882
76	0xbc23d70a	-0.01
77	0x3aa0901e	0.0012249982
78	0xbc23d70a	-0.01
79	0xbacbd38e	-0.0015550719
80	0xbc23d70a	-0.01
81	0x3a94a57c	0.0011340822
82	0xbc23d70a	-0.01
83	0x3a97f8a3	0.0011594485
84	0xbc23d70a	-0.01
85	0x3aa0c986	0.001226709
86	0x3c23d70a	0.01
87	0xbaccde47	-0.0015630209
88	0x3c23d70a	0.01
89	0x3aba9b7b	0.0014237011
90	0xbc23d70a	-0.01
91	0xbacd9908	-0.0015685866
92	0x3c23d70a	0.01
93	0xbace5e9d	-0.001574475
94	0x3c23d70a	0.01
95	0x3ab94d82	0.0014137479
96	0xbc23d70a	-0.01
97	0x3a98d507	0.0011660167
98	0x3c23d70a	0.01
99	0xbacd9c5d	-0.0015686859
100	0x3c23d70a	0.01
101	0x3aba97bc	0.0014235894
102	0xbc23d70a	-0.01
103	0xbacd9905	-0.0015685862
104	0x3c23d70a	0.01
105	0x3aba9b7b	0.0014237011
106	0x3c23d70a	0.01
107	0x3ab98823	0.0014154952
108	0xbc23d70a	-0.01
109	0x3a9e140b	0.0012060417
110	0xbc23d70a	-0.01
111	0x3a86be42	0.001028009
112	0xbc23d70a	-0.01
113	0xbacd7117	-0.0015673962
114	0xbc23d70a	-0.01
115	0xbacd7bff	-0.0015677213
116	0xb8ea9260	-0.00011185254
117	0x3c23d70a	0.01
118	0xbc23d70a	-0.01
119	0x3aa03ec3	0.0012225736
120	0xbc23d70a	-0.01
121	0x3a9a48ed	0.0011771001
122	0xbc23d70a	-0.01
123	0x3a9932c1	0.00116881
124	0x3c23d70a	0.01
125	0xbacdace4	-0.0015691784
126	0x3c23d70a	0.01
127	0xbad08b9d	-0.0015910749
128	0x3c23d70a	0.01
129	0xbac2e759	-0.0014869972
130	0xbc23d70a	-0.01
131	0x39a2518c	0.00030959805
132	0xbc23d70a	-0.01
133	0x3a9bd8b6	0.0011890146
134	0xbc23d70a	-0.01
135	0xbacbd4e5	-0.0015551118
136	0xbc23d70a	-0.01
137	0xbacd9906	-0.0015685863
138	0xbc23d70a	-0.01
139	0x3a9b2b7f	0.0011838524
140	0xbc23d70a	-0.01
141	0x3a9ae047	0.0011816107
142	0x3c23d70a	0.01
143	0x3aba9b7b	0.0014237011
144	0x3c23d70a	0.01
145	0xbacd67f1	-0.0015671236
146	0xbc23d70a	-0.01
147	0x3a99fe2e	0.0011748725
148	0x3c23d70a	0.01
149	0xbacd64e3	-0.0015670325
150	0x3c23d70a	0.01
151	0x3abbbaa0	0.0014322586
152	0xbc23d70a	-0.01
153	0x3a8a11de	0.0010533889
154	0x3c23d70a	0.01
155	0xbacd2e3a	-0.0015654035
156	0xbc23d70a	-0.01
157	0x3a9cb4af	0.0011955703
158	0xbc23d70a	-0.01
159	0x3a9ff74f	0.0012204441
160	0xbc23d70a	-0.01
161	0x3aa0da0f	0.0012272018
162	0xbc23d70a	-0.01
163	0x3a9d6841	0.001200922
164	0x3c23d70a	0.01
165	0x3aba9701	0.0014235676
166	0xbc23d70a	-0.01
167	0x3a4f28cc	0.00079025025
168	0x3c23d70a	0.01
169	0x3abb1f0b	0.0014276219
170	0x3c23d70a	0.01
171	0xbacda6c8	-0.0015689963
172	0x3c23d70a	0.01
173	0xbac767e1	-0.0015213453
174	0x3c23d70a	0.01
175	0x3aba9835	0.0014236035
176	0xbc23d70a	-0.01
177	0x3a85bcf8	0.0010203412
178	0xbc23d70a	-0.01
179	0xbacbe26b	-0.0015555149
180	0xbc23d70a	-0.01
181	0x3aa05069	0.0012230995
182	0x3c23d70a	0.01
183	0xbacd92c9	-0.0015684004
184	0xbc23d70a	-0.01
185	0x3a915f51	0.0011091029
186	0xbc23d70a	-0.01
187	0xba1e9870	-0.00060499366
188	0x3c23d70a	0.01
189	0x3ab9c147	0.0014171981
190	0x3c23d70a	0.01
191	0xbac27272	-0.0014835133
192	0xbc23d70a	-0.01
193	0x3a9bbd18	0.0011881916
194	0x3c23d70a	0.01
195	0xbacb9e9c	-0.001553494
196	0xbc23d70a	-0.01
197	0xbacd9907	-0.0015685864
198	0x3c23d70a	0.01
199	0x3ab934e1	0.0014130139
200	0x3c23d70a	0.01
201	0xbacd8108	-0.0015678713
202	0x3c23d70a	0.01
203	0xbacd5323	-0.0015665035
204	0x3c23d70a	0.01
205	0x3aba96a1	0.0014235565
206	0xbc23d70a	-0.01
207	0xbacd7dae	-0.0015677714
208	0xbc23d70a	-0.01
209	0x3a9974d0	0.0011707786
210	0x3c23d70a	0.01
211	0x3aba99ab	0.001423647
212	0x3c23d70a	0.01
213	0x3abba6c1	0.0014316664
214	0xbc23d70a	-0.01
215	0x3a82fdb7	0.0009993826
216	0x3c23d70a	0.01
217	0x3abb0251	0.0014267658
218	0x3c23d70a	0.01
219	0x3aba96a3	0.0014235567
220	0xbc23d70a	-0.01
221	0x3a9d36f6	0.0011994529
222	0x3c23d70a	0.01
223	0x3aba97a5	0.0014235867
224	0xbc23d70a	-0.01
225	0xbacd9906	-0.0015685863
226	0x3c23d70a	0.01
227	0x3abba0b7	0.0014314865
228	0x3c23d70a	0.01
229	0xbacce69d	-0.0015632693
230	0xbc23d70a	-0.01
231	0xbacd7bff	-0.0015677213
232	0x3c23d70a	0.01
233	0xbacb4f73	-0.0015511349
234	0x3c23d70a	0.01
235	0xbacb9de4	-0.0015534726
236	0xbc23d70a	-0.01
237	0xbacd9906	-0.0015685863
238	0x3c23d70a	0.01
239	0xbacd70de	-0.0015673896
240	0x3c23d70a	0.01
241	0xbac02585	-0.0014659619
242	0xbc23d70a	-0.01
243	0x3a98fd97	0.0011672255
244	0xbc23d70a	-0.01
245	0xbacd9907	-0.0015685864
246	0x3c23d70a	0.01
247	0xbac6bd7d	-0.0015162673
248	0xb8ef50bc	-0.00011411446
249	0x3c23d70a	0.01
250	0x3c23d70a	0.01
251	0xbacd1da4	-0.0015649092
252	0xbc23d70a	-0.01
253	0x3a96ea3e	0.0011513901
254	0xbc23d70a	-0.01
255	0x3a9b2a6e	0.0011838207

fc1.bias f4 [128]
0	0x3c23cf91	0.009998218
1	0xbc22970e	-0.00992371
2	0x3c237eb5	0.00997894
3	0xbc2238d8	-0.009901248
4	0x3c23ba35	0.009993126
5	0x3c23bf5d	0.009994355
6	0x3c208f6c	0.009799819
7	0xbc21af5e	-0.009868471
8	0x3c22e4fe	0.009942291
9	0xbc235790	-0.009969607
10	0x3c22ac45	0.009928768
11	0x3c23bd4b	0.009993861
12	0x3c21750c	0.009854566
13	0x3c20f838	0.009824805
14	0xbc23340b	-0.0099611385
15	0xbc1ee2c4	-0.00969762
16	0xbc22165a	-0.009893024
17	0x3c226333	0.009911346
18	0x3c236fa8	0.009975351
19	0xbc229ad0	-0.0099246055
20	0xbc22977d	-0.009923813
21	0xbc23c56d	-0.0099958
22	0xbc23b7bb	-0.009992535
23	0xbc217528	-0.009854592
24	0x3c20ff1b	0.009826447
25	0xbbe42e90	-0.0069635585
26	0x3c1c3709	0.009534606
27	0x3c2203ad	0.009888572
28	0x3c2395b8	0.009984426
29	0x3c21dc3f	0.009879171
30	0x3c23919e	0.009983448
31	0xbc23aa58	-0.009989344
32	0x3c22e88e	0.009943141
33	0x3c224e93	0.009906429
34	0xbc238b44	-0.009981934
35	0x3c1b1c9f	0.009467273
36	0xbc23172a	-0.009954253
37	0x3c213162	0.009838434
38	0xbc21ae49	-0.009868213
39	0xbc2344da	-0.009965146
40	0x3c1ee228	0.009697475
41	0x3c228b49	0.0099209035
42	0xbc22fb0e	-0.009947551
43	0x3c20b1cb	0.009808014
44	0x3c212aa1	0.009836824
45	0xbc20dd80	-0.009818435
46	0x3c20e7d7	0.0098209
47	0x3c203c75	0.009780039
48	0xbc237981	-0.009977699
49	0x3c22737a	0.009915227
50	0xbc23d6ec	-0.009999972
51	0xbc22ae37	-0.009929231
52	0xbc23d70a	-0.01
53	0xbc2052a5	-0.009785329
54	0x3c223243	0.009899679
55	0xbc2362cf	-0.009972288
56	0x3c227bda	0.009917224
57	0x3c22b4b5	0.009930779
58	0x3c22b2e1	0.009930343
59	0x3c233d42	0.0099633355
60	0x3c233e71	0.009963618
61	0x3c210f5c	0.009830322
62	0x3c23b250	0.0099912435
63	0xbc1eb191	-0.00968589
64	0xbc2333fc	-0.0099611245
65	0x3c1c7fa9	0.009551921
66	0xbc2190e4	-0.009861205
67	0x3c21879b	0.009858991
68	0xbc2193a7	-0.009861863
69	0x3c236ff3	0.009975421
70	0xbc215df9	-0.009849065
71	0xbc21f070	-0.009883985
72	0x3c22a58e	0.009927167
73	0x3c21b23a	0.009869153
74	0xbc236a91	-0.009974138
75	0xbc22d41d	-0.009938267
76	0x3c230b8c	0.009951483
77	0xbc21c40f	-0.009873404
78	0xbc23991e	-0.009985236
79	0x3c23391f	0.009962349
80	0xbc238325	-0.009979998
81	0xbc237c26	-0.00997833
82	0x3c22ae6a	0.009929279
83	0x3c20da11	0.009817616
84	0x3c1c5837	0.009542516
85	0x3c23b099	0.009990835
86	0xbc229475	-0.00992309
87	0x3c23a419	0.009987854
88	0xbc21cad6	-0.00987502
89	0x3c1ef7f3	0.00970267
90	0xbc215579	-0.009847038
91	0xbc2388fc	-0.00998139
92	0x3c1f0b26	0.009707248
93	0x3becb288	0.007223431
94	0xbc236c93	-0.009974617
95	0xbc23cbe2	-0.00999734
96	0x3c20b855	0.009809573
97	0xb8d62a72	-0.00010212221
98	0xbc2195ea	-0.009862402
99	0xbc23a3e5	-0.009987806
100	0xbc229ecf	-0.009925558
101	0xbc2057c5	-0.009786551
102	0x3c1f1206	0.009708887
103	0xbc22f9c9	-0.009947249
104	0x3c21d7f1	0.009878145
105	0x3c232a58	0.009958826
106	0xbc22475a	-0.009904707
107	0x3c1ddc8a	0.0096351
108	0x3c23ba34	0.009993125
109	0x3c237c5f	0.009978383
110	0x3c1d55a4	0.009602938
111	0x3c1ec8c2	0.009691419
112	0x3c22b7a1	0.009931476
113	0x3c22236b	0.00989614
114	0xbc21c757	-0.0098741865
115	0x3c22e434	0.009942103
116	0x3c220691	0.009889261
117	0xbc22c61d	-0.009934929
118	0x3c232f20	0.009959966
119	0x3c232fa9	0.009960094
120	0xbc231020	-0.009952575
121	0x3c216fd1	0.009853319
122	0x3c224ded	0.009906274
123	0xbc21c940	-0.009874642
124	0x3c21a60b	0.009866248
125	0x3c22787b	0.00991642
126	0xbc2189c0	-0.009859502
127	0xbc2382e3	-0.009979936

bn1.weight f4 [128]
0	0x3c224a69	0.009905436
1	0x3c23d70a	0.01
2	0x3c2268ca	0.009912679
3	0x3c23d70a	0.01
4	0x3c22f445	0.009945934
5	0x3c22ad15	0.009928961
6	0x3c23d70a	0.01
7	0x3c23cd9f	0.009997754
8	0x3c23cd9f	0.009997754
9	0x3c23d70a	0.01
10	0x3c23cd9f	0.009997754
11	0x3c23cee7	0.00999806
12	0x3c22d0c1	0.009937466
13	0x3c23d70a	0.01
14	0x3c23cb9a	0.009997273
15	0x3c23d70a	0.01
16	0x3c23d70a	0.01
17	0x3c23c857	0.009996495
18	0x3c23d70a	0.01
19	0x3c22e46b	0.009942154
20	0x3c23d70a	0.01
21	0x3c23d70a	0.01
22	0x3c23d70a	0.01
23	0x3c23d70a	0.01
24	0x3c23cee7	0.00999806
25	0x3c23d70a	0.01
26	0x3c23d70a	0.01
27	0x3c23cee8	0.009998061
28	0x3c23d70a	0.01
29	0x3c239f59	0.009986722
30	0x3c23d70a	0.01
31	0x3c22ea85	0.009943609
32	0x3c22d75f	0.009939044
33	0x3c23d70a	0.01
34	0x3c225a1a	0.009909177
35	0x3c239f59	0.009986722
36	0x3c23d70a	0.01
37	0x3c23cee7	0.00999806
38	0x3c23d70a	0.01
39	0x3c23d70a	0.01
40	0x3c23d70a	0.01
41	0x3c23d70a	0.01
42	0x3c23d70a	0.01
43	0x3c22e8e5	0.009943222
44	0x3c23cd9f	0.009997754
45	0x3c23d70a	0.01
46	0x3c230901	0.009950877
47	0x3c23cb9c	0.009997275
48	0x3c23d70a	0.01
49	0x3c230085	0.009948854
50	0x3c23cd9f	0.009997754
51	0x3c23d70a	0.01
52	0x3c23cd9f	0.009997754
53	0x3c23cb98	0.009997271
54	0x3c23d70a	0.01
55	0x3c23d70a	0.01
56	0x3c23d70a	0.01
57	0x3c23d70a	0.01
58	0xbc23d70a	-0.01
59	0x3c23d70a	0.01
60	0x3c23d70a	0.01
61	0x3c23d70a	0.01
62	0x3c22f42d	0.009945911
63	0x3c230e80	0.009952188
64	0x3c226e0a	0.009913931
65	0x3c23d70a	0.01
66	0x3c23d70a	0.01
67	0x3c23d70a	0.01
68	0x3c23d70a	0.01
69	0x3c23d70a	0.01
70	0x3c23d70a	0.01
71	0x3c23cd9f	0.009997754
72	0x3c22eabc	0.00994366
73	0x3c23d70a	0.01
74	0x3c22ef24	0.009944711
75	0x3c23cee9	0.009998062
76	0x3c23d70a	0.01
77	0x3c22eb68	0.009943821
78	0x3c23d70a	0.01
79	0x3c23d70a	0.01
80	0x3c23d70a	0.01
81	0x3c23d70a	0.01
82	0x3c23cd9f	0.009997754
83	0x3c23d70a	0.01
84	0x3c23cf73	0.00999819
85	0x3c230084	0.009948853
86	0x3c22a21a	0.009926343
87	0x3c23cd9f	0.009997754
88	0x3c23d70a	0.01
89	0x3c23d70a	0.01
90	0x3c23d70a	0.01
91	0x3c22ef99	0.00994482
92	0x3c23d70a	0.01
93	0x3c23d70a	0.01
94	0x3c23c838	0.009996466
95	0x3c22737b	0.009915228
96	0x3c23d70a	0.01
97	0x3c22cb41	0.009936155
98	0x3c23d70a	0.01
99	0x3c23cb9a	0.009997273
100	0x3c22ebf8	0.009943955
101	0x3c22eeea	0.009944657
102	0x3c23cd9f	0.009997754
103	0x3c23d70a	0.01
104	0x3c23d70a	0.01
105	0x3c23cd9f	0.009997754
106	0x3c23cee8	0.009998061
107	0x3c23d70a	0.01
108	0x3c23ce33	0.009997892
109	0x3c23cd9f	0.009997754
110	0x3c23d70a	0.01
111	0x3c23cd9f	0.009997754
112	0x3c23d70a	0.01
113	0x3c23cee8	0.009998061
114	0x3c22ea34	0.009943534
115	0x3c23d70a	0.01
116	0x3c22c996	0.009935757
117	0x3c22d8ae	0.009939356
118	0x3c23d70a	0.01
119	0x3c22eeed	0.00994466
120	0x3c226506	0.009911781
121	0x3c23d70a	0.01
122	0x3c23d70a	0.01
123	0x3c229c40	0.009924948
124	0xbc23d70a	-0.01
125	0x3c22e7ff	0.0099430075
126	0x3c23d70a	0.01
127	0x3c23d70a	0.01

bn1.bias f4 [128]
0	0x3b39f92b	0.0028377275
1	0x3bb8f126	0.0056439815
2	0x3b7dad0d	0.0038707883
3	0x3ba68ca1	0.0050826822
4	0x3bbe2585	0.0058028125
5	0x3b9a2b0a	0.0047048377
6	0x3bb93c8c	0.0056529697
7	0x3bbc409b	0.0057450063
8	0x3bbc3440	0.0057435334
9	0x3c23d70a	0.01
10	0x3bbc33e4	0.0057434905
11	0x3bb90c73	0.005647236
12	0x3bb4c880	0.0055170655
13	0x3ba9a89e	0.0051775714
14	0x3bc43ec8	0.0059889294
15	0x3ba6dd5e	0.005092307
16	0x3bb89441	0.0056329076
17	0x3bca4844	0.0061731655
18	0x3ba6dd8c	0.0050923284
19	0x3bb9092f	0.0056468467
20	0x3bb93c36	0.0056529297
21	0x3bcf5268	0.0063269623
22	0x3ba84593	0.005135247
23	0x3bb8ef88	0.0056437887
24	0x3bb90bae	0.0056471443
25	0x3bc06f29	0.0058726263
26	0x3ba64250	0.005073823
27	0x3bb8c916	0.0056392057
28	0x3bb93c4c	0.00565294
29	0x3c07c627	0.008286989
30	0x3bb8ee7a	0.005643663
31	0x3bb9b3fe	0.0056672087
32	0x3bb592d4	0.005541185
33	0x3bb89383	0.005632819
34	0x3b462f11	0.0030240456
35	0x3c07c629	0.008286991
36	0x3be65a9d	0.007029845
37	0x3bb90c3d	0.005647211
38	0x3b9d95e4	0.004809128
39	0x3bbd3fea	0.0057754414
40	0x3ba973fd	0.0051712976
41	0x3ba8667c	0.00513917
42	0x3b9e52a0	0.004831627
43	0x3bb8af4e	0.0056361323
44	0x3bbc38b0	0.0057440624
45	0x3bb893b5	0.0056328424
46	0x3bc53ab3	0.0060189604
47	0x3bc44166	0.0059892414
48	0x3ba79d35	0.005115176
49	0x3bc1ae4c	0.0059106704
50	0x3bbc4097	0.0057450044
51	0x3bb893f7	0.005632873
52	0x3bbc3918	0.005744111
53	0x3bc38fad	0.005968055
54	0x3ba55f55	0.005046765
55	0x3bac390a	0.005255823
56	0x3bb8ef70	0.0056437775
57	0x3bb93cb7	0.0056529897
58	0x3c23d70a	0.01
59	0x3ba20109	0.004943971
60	0x3ba74c1a	0.0051055076
61	0x3ba7d7ce	0.0051221615
62	0x3bbf579f	0.0058393027
63	0x3bcb0876	0.006196077
64	0x3b879085	0.004137101
65	0x3ba031ee	0.0048887646
66	0x3ba6e8da	0.005093676
67	0x3bbefe9b	0.005828691
68	0x3bb89407	0.0056328806
69	0x3ba6d10d	0.0050908388
70	0x3ba701d8	0.0050966553
71	0x3bbc3896	0.0057440503
72	0x3bb9b1f1	0.005666964
73	0x3ba750a0	0.005106047
74	0x3bbae84e	0.0057039624
75	0x3bb8c613	0.0056388467
76	0x3bab52f7	0.005228396
77	0x3bb9c126	0.005668777
78	0x3ba642f5	0.0050739
79	0x3ba3a167	0.004993606
80	0x3b9eff13	0.0048521846
81	0x3ba58c24	0.0050521065
82	0x3bbc3929	0.0057441187
83	0x3ba933c8	0.0051636435
84	0x3bba24db	0.005680663
85	0x3bc1c54c	0.005913412
86	0x3b9e0012	0.0048217857
87	0x3bbc3e2b	0.0057447157
88	0x3bac2dbd	0.005254476
89	0x3bbce779	0.0057648984
90	0x3ba2ace5	0.0049644583
91	0x3bbb08e2	0.005707846
92	0x3bab3b5f	0.0052255834
93	0x3c0649d7	0.008196316
94	0x3bd0080e	0.0063486164
95	0x3b8865d0	0.0041625276
96	0x3ba6b693	0.0050876825
97	0x3bb408f2	0.0054942304
98	0x3bb89525	0.005633014
99	0x3bc440bc	0.0059891623
100	0x3bb9e010	0.0056724623
101	0x3bbacc95	0.0057006576
102	0x3bbc3424	0.0057435203
103	0x3bb95e73	0.005657011
104	0x3ba7d0b6	0.005121316
105	0x3bbc355a	0.0057436647
106	0x3bb8c9ea	0.0056393044
107	0x3bac0822	0.005249993
108	0x3bbaf0d5	0.005704979
109	0x3bbc33b8	0.00574347
110	0x3ba5b655	0.005057136
111	0x3bbc37a8	0.0057439394
112	0x3bb8942b	0.0056328974
113	0x3bb8d39f	0.0056404616
114	0x3bb82a11	0.005620249
115	0x3bb93f16	0.0056532724
116	0x3bb08241	0.005386621
117	0x3bb530c9	0.0055294973
118	0x3bb8939b	0.0056328303
119	0x3bbb03ba	0.0057072314
120	0x3b874e25	0.0041291886
121	0x3ba78f05	0.005113485
122	0x3bb893fd	0.005632876
123	0x3b9522e7	0.00455128
124	0x3c23d70a	0.01
125	0x3bb915dc	0.005648358
126	0x3ba7f703	0.0051258816
127	0x3ba6ce7e	0.0050905338

bn1.running_mean f4 [128]
0	0x3c9dc02b	0.019256672
1	0xbcbd451b	-0.023104241
2	0x3c9d55a0	0.019205868
3	0xbca438c2	-0.020046595
4	0x3c9c33c2	0.019067649
5	0x3c9caa5d	0.019124204
6	0xbb5dac92	-0.0033824784
7	0x3b4dcd1c	0.0031402772
8	0x3cbc08f0	0.02295348
9	0x3b60b043	0.0034284748
10	0x3cbbe89f	0.02293807
11	0x3cbc7b17	0.023007913
12	0x3c9b3947	0.01894821
13	0x3925090a	0.00015738994
14	0x3b46cfc3	0.0030336238
15	0xbc9e0fef	-0.019294707
16	0xbcbd09b5	-0.023075918
17	0x3cbbc1c1	0.022919537
18	0x39c7fbcf	0.0003814385
19	0xba5cb743	-0.0008419642
20	0xbcbd49b4	-0.023106433
21	0xbcbd8f89	-0.023139732
22	0xbca0ef62	-0.019645397
23	0xbcbcb889	-0.023037212
24	0x3cbb1ee3	0.022841876
25	0xbca4d6d6	-0.020121973
26	0xb83cd420	-4.502025e-05
27	0x3cbba84b	0.022907397
28	0xbb519965	-0.00319823
29	0x3cba4cd0	0.022741705
30	0xbb51a5d6	-0.0031989715
31	0xba6ff45e	-0.000915354
32	0x3c9bfe30	0.019042104
33	0xbb56a16d	-0.0032750026
34	0xba398919	-0.0007077619
35	0x3cb6d499	0.022318171
36	0xbcbd1b13	-0.023084199
37	0x3cbb389a	0.022854138
38	0xbc9f07ca	-0.019412894
39	0xbcbd888c	-0.0231364
40	0x380181f0	3.087701e-05
41	0x3998ee9b	0.00029169474
42	0xbc9fa80a	-0.019489307
43	0x3c9ac191	0.018891128
44	0x3cbb2492	0.022844587
45	0xbcbc6c04	-0.023000725
46	0x3c9ab9c5	0.01888741
47	0x3cba96c6	0.022776973
48	0xbca08c88	-0.01959826
49	0x3c9b8f4a	0.018989224
50	0x3b4556f4	0.0030111643
51	0xbcbd56e8	-0.02311273
52	0x3b454ad5	0.0030104418
53	0x3b52ac4c	0.0032146154
54	0x39aae1d9	0.00032593196
55	0xbca1fcbc	-0.019773833
56	0xbb55ecbe	-0.003264233
57	0xbb54eea4	-0.0032490874
58	0x3cbb62e2	0.0228743
59	0x39d91b03	0.0004140959
60	0x39bd83e5	0.00036147158
61	0x3960b296	0.00021428833
62	0x3c9c2fec	0.01906582
63	0xba292a5f	-0.0006453152
64	0xba4ee4c7	-0.0007892367
65	0xba9b92f8	-0.0011869362
66	0xbc9f5df8	-0.019453987
67	0xbb5892f9	-0.0033046587
68	0xbcbcca24	-0.023045607
69	0x39c744f3	0.0003800761
70	0xbc9f5a34	-0.019452192
71	0x3b4d009a	0.0031280876
72	0x3c9bac51	0.019003065
73	0x39864651	0.00025610861
74	0xba6b61cd	-0.0008979112
75	0x3b49e503	0.0030806668
76	0x3940d950	0.00018391502
77	0xba4f445e	-0.0007906611
78	0xbca05284	-0.019570597
79	0x39db3345	0.00041809134
80	0xbc9fe84c	-0.019519947
81	0xbca028b7	-0.019550664
82	0x3cbbedcb	0.022940537
83	0xb99a6c86	-0.00029454025
84	0x3cb8c256	0.022553604
85	0x3c9c2f3a	0.019065488
86	0xba4f8215	-0.0007915807
87	0x3cbc6b6a	0.023000438
88	0xbca14523	-0.019686287
89	0xbb62ec9c	-0.0034625893
90	0xbc9ed3a0	-0.01938802
91	0xba6d8df6	-0.00090619863
92	0x3745b660	1.17845775e-05
93	0xbb9a8477	-0.004715498
94	0x3b466242	0.0030270969
95	0xba565964	-0.00081767724
96	0x395ea44e	0.00021232778
97	0x3c13489c	0.008989479
98	0xbcbcc554	-0.023043312
99	0x3b4506c0	0.0030063838
100	0xba5f7cc9	-0.00085253693
101	0xba39ba66	-0.00070849655
102	0x3cba265a	0.022723366
103	0xbcbd76bd	-0.023127908
104	0x398b1961	0.00026531055
105	0x3cbc29fe	0.022969242
106	0x3b4c3079	0.0031156822
107	0xb9517b96	-0.00019977833
108	0x3cbc6eb1	0.023002
109	0x3cbc5af3	0.022992587
110	0x37ee9cc0	2.8444803e-05
111	0x3cb9f169	0.022698121
112	0xbb551e19	-0.003251916
113	0x3cbbb88a	0.022915144
114	0xba4f34ab	-0.00079042715
115	0xbb544513	-0.0032389804
116	0x3c9b85db	0.018984726
117	0xba5ddd34	-0.0008463443
118	0xbb5333bb	-0.0032226879
119	0x3c9bf42f	0.019037334
120	0xba46d71c	-0.00075851544
121	0x397a597a	0.0002387519
122	0xbb56ea2d	-0.0032793388
123	0xba414c1c	-0.0007373707
124	0x3cbae042	0.022812013
125	0x3c9b9c35	0.018995384
126	0xbc9fb84a	-0.019497056
127	0xbca06716	-0.019580405

bn1.running_var f4 [128]
0	0x3981678e	0.00024681952
1	0x397ef776	0.00024315514
2	0x39817fad	0.00024699923
3	0x397f58cb	0.00024351773
4	0x3981e5f6	0.00024776132
5	0x3981c171	0.00024748922
6	0x397ef7e5	0.00024315676
7	0x397e7f17	0.00024270672
8	0x397e7f12	0.00024270665
9	0x3927ea94	0.00016013748
10	0x397e7f13	0.00024270666
11	0x397e84bf	0.0002427278
12	0x3981d89e	0.0002476619
13	0x3980837e	0.00024512032
14	0x397e76fd	0.00024267654
15	0x3980aab4	0.00024541246
16	0x397ef8b3	0.00024315975
17	0x397e7adc	0.00024269096
18	0x3980ac0e	0.00024542253
19	0x3981e04d	0.00024771914
20	0x397ef7e5	0.00024315676
21	0x397edd9a	0.0002430588
22	0x39808f2f	0.00024520743
23	0x397ef776	0.00024315514
24	0x397e84bf	0.0002427278
25	0x397ee7cd	0.0002430968
26	0x3980b2da	0.00024547317
27	0x397e85f7	0.00024273233
28	0x397ef7e5	0.00024315676
29	0x397e2549	0.00024237217
30	0x397ef81b	0.00024315754
31	0x3981e2fa	0.00024773908
32	0x3981d79d	0.00024765442
33	0x397ef8b3	0.00024315975
34	0x39815f7c	0.0002467594
35	0x397e2549	0.00024237217
36	0x397ed18f	0.00024301394
37	0x397e84c0	0.00024272781
38	0x3980c890	0.00024563493
39	0x397eec56	0.0002431137
40	0x398087c6	0.00024515222
41	0x398099bf	0.00024528612
42	0x3980c94c	0.0002456404
43	0x3981e036	0.00024771848
44	0x397e7f31	0.0002427071
45	0x397ef8b2	0.00024315974
46	0x3981ec7f	0.00024781
47	0x397e77a2	0.00024267894
48	0x39809e15	0.00024531843
49	0x3981e65e	0.00024776434
50	0x397e7f19	0.00024270675
51	0x397ef8b3	0.00024315975
52	0x397e7f31	0.0002427071
53	0x397e7956	0.00024268529
54	0x3980bb00	0.00024553388
55	0x39804280	0.0002446361
56	0x397ef776	0.00024315514
57	0x397ef7e5	0.00024315676
58	0x39285db6	0.00016056639
59	0x3980c68a	0.00024561986
60	0x3980a5a0	0.00024537463
61	0x3980a006	0.0002453329
62	0x3981e6b2	0.0002477668
63	0x3981f92d	0.00024790448
64	0x3981a4e4	0.0002472765
65	0x397dd9fe	0.00024209169
66	0x3980ae06	0.0002454372
67	0x397eeafd	0.00024310868
68	0x397ef8b2	0.00024315974
69	0x3980aa72	0.00024541054
70	0x3980a8b4	0.00024539756
71	0x397e7f31	0.0002427071
72	0x3981e3a2	0.00024774397
73	0x3980a418	0.00024536322
74	0x3981e38e	0.0002477434
75	0x397e8687	0.00024273443
76	0x39805230	0.00024475297
77	0x3981e213	0.00024773236
78	0x3980b27b	0.0002454704
79	0x3980c540	0.00024561025
80	0x3980c9bf	0.00024564375
81	0x3980b71b	0.00024550487
82	0x397e7f14	0.00024270668
83	0x397f73ca	0.0002436183
84	0x397e81f9	0.00024271746
85	0x3981e6a1	0.0002477663
86	0x3981bee0	0.0002474701
87	0x397e7f1c	0.0002427068
88	0x39803daa	0.00024460006
89	0x397eecab	0.00024311493
90	0x3980c6f5	0.00024562297
91	0x3981e4bf	0.00024775226
92	0x39807682	0.00024502358
93	0x397cee3e	0.00024121345
94	0x397e7c6b	0.00024269677
95	0x39819f11	0.0002472331
96	0x3980ad6c	0.00024543272
97	0x3981d94f	0.00024766705
98	0x397ef8b3	0.00024315975
99	0x397e76fd	0.00024267654
100	0x3981e460	0.0002477495
101	0x3981e320	0.0002477402
102	0x397e7f0f	0.0002427066
103	0x397ef7f1	0.00024315693
104	0x3980a164	0.00024534308
105	0x397e7f25	0.00024270693
106	0x397e85ff	0.00024273245
107	0x398030c2	0.0002445039
108	0x397e81e4	0.00024271716
109	0x397e7f12	0.00024270665
110	0x3980b5d2	0.0002454953
111	0x397e7f18	0.00024270674
112	0x397ef8b3	0.00024315975
113	0x397e85d5	0.00024273184
114	0x3981e04a	0.00024771906
115	0x397ef7e5	0.00024315676
116	0x3981d640	0.00024764426
117	0x3981d840	0.00024765916
118	0x397ef8b3	0.00024315975
119	0x3981e3e4	0.0002477459
120	0x39819609	0.00024716582
121	0x39809eec	0.00024532469
122	0x397ef8b2	0.00024315974
123	0x3981bb1b	0.00024744202
124	0x39285ef9	0.00016057109
125	0x3981e20c	0.00024773215
126	0x39809445	0.00024524532
127	0x3980aa6f	0.00024541045

fc2.weight f4 [128, 128]
0	0x3b953c8f	0.0045543383
1	0xbc23d70a	-0.01
2	0xbb80a6b0	-0.0039261207
3	0xbc23d70a	-0.01
4	0x3c239e8d	0.009986532
5	0x3c23044e	0.009949757
6	0xbc23d70a	-0.01
7	0x3c2394c4	0.009984199
8	0x3c2394c4	0.009984199
9	0x3b29bc54	0.0025899606
10	0x3c2394c4	0.009984199
11	0x3c23947f	0.009984135
12	0x3c237e40	0.009978831
13	0xbc23d70a	-0.01
14	0x3c239590	0.009984389
15	0xbc23d70a	-0.01
16	0xbc23d70a	-0.01
17	0x3c239608	0.009984501
18	0xbc23d70a	-0.01
19	0x3c23905a	0.009983147
20	0xbc23d70a	-0.01
21	0xbc23d56d	-0.009999615
22	0xbc23d70a	-0.01
23	0xbc23d70a	-0.01
24	0x3c23947f	0.009984135
25	0xbc23d70a	-0.01
26	0xbc23d70a	-0.01
27	0x3c239477	0.009984127
28	0xbc23d70a	-0.01
29	0x3c239964	0.009985302
30	0xbc23d70a	-0.01
31	0x3c2392b4	0.009983707
32	0x3bed5763	0.0072430833
33	0xbc23d70a	-0.01
34	0xbba71e3e	-0.0051000407
35	0x3c239964	0.009985302
36	0xbc23cd87	-0.009997732
37	0x3c23947f	0.009984135
38	0xbc23d70a	-0.01
39	0xbc23d70a	-0.01
40	0xbc23d70a	-0.01
41	0xbc23d70a	-0.01
42	0xbc0286ef	-0.007966741
43	0x3c238f3a	0.009982878
44	0x3c2394c3	0.009984198
45	0xbc23d70a	-0.01
46	0x3c23a417	0.009987853
47	0x3c23958e	0.009984387
48	0xbc23d70a	-0.01
49	0x3c23a173	0.009987223
50	0x3c2394c4	0.009984199
51	0xbc23d70a	-0.01
52	0x3c2394c4	0.009984199
53	0x3c239576	0.009984365
54	0xbc23d70a	-0.01
55	0xbc23d70a	-0.01
56	0xbc23d70a	-0.01
57	0xbc23d70a	-0.01
58	0x3b03ee8d	0.00201312
59	0xbc232a41	-0.009958805
60	0xbc23d70a	-0.01
61	0xbc23d70a	-0.01
62	0x3c239f84	0.009986762
63	0x3c23a7c8	0.009988733
64	0xbb1ea8f4	-0.002420959
65	0xbc23d70a	-0.01
66	0xbc23d70a	-0.01
67	0xbc23d70a	-0.01
68	0xbc23d70a	-0.01
69	0xbc23d70a	-0.01
70	0xbc23d70a	-0.01
71	0x3c2394c3	0.009984198
72	0x3c2392a5	0.009983693
73	0xbc23d70a	-0.01
74	0x3c20626f	0.009789093
75	0x3c239476	0.009984126
76	0xbc23d70a	-0.01
77	0x3c1e79fd	0.009672639
78	0xbc23d70a	-0.01
79	0xbc23d70a	-0.01
80	0xbc23d70a	-0.01
81	0xbc23d70a	-0.01
82	0x3c2394c4	0.009984199
83	0xbc23d70a	-0.01
84	0x3c239499	0.009984159
85	0x3c23a182	0.009987237
86	0x3b2f8e45	0.002678768
87	0x3c2394c4	0.009984199
88	0xbc23d70a	-0.01
89	0xbc23d70a	-0.01
90	0xbc108073	-0.008819687
91	0x3c2026e0	0.0097748935
92	0xbc23d70a	-0.01
93	0xbc23d70a	-0.01
94	0x3c23967f	0.0099846115
95	0x3c0e4989	0.008684524
96	0xbc23d70a	-0.01
97	0x3c237b2e	0.009978099
98	0xbc23d70a	-0.01
99	0x3c239590	0.009984389
100	0x3c1e5e22	0.009665998
101	0x3c239702	0.009984734
102	0x3c2394c4	0.009984199
103	0xbc23d70a	-0.01
104	0xbc23d70a	-0.01
105	0x3c2394c3	0.009984198
106	0x3c239477	0.009984127
107	0xbc23d70a	-0.01
108	0x3c23949f	0.0099841645
109	0x3c2394c4	0.009984199
110	0xbc23d70a	-0.01
111	0x3c2394c4	0.009984199
112	0xbc23d70a	-0.01
113	0x3c239479	0.009984129
114	0x3c238d6b	0.009982447
115	0xbc23d70a	-0.01
116	0x3c236d3e	0.009974776
117	0x3bea825a	0.0071566524
118	0xbc23d70a	-0.01
119	0x3c2397e5	0.009984945
120	0x3c0c3285	0.008556967
121	0xbc23d70a	-0.01
122	0xbc23d70a	-0.01
123	0xbb0408cb	-0.0020146843
124	0x3af0856a	0.0018350307
125	0x3c239090	0.009983197
126	0xbc23d70a	-0.01
127	0xbc23d70a	-0.01
128	0xbc228ba7	-0.009920991
129	0xbc238a20	-0.009981662
130	0xbc22962a	-0.009923497
131	0xba2c419d	-0.00065710564
132	0xbc136735	-0.008996774
133	0xbc2299e0	-0.009924382
134	0xbc238a0b	-0.0099816425
135	0x3c233a9b	0.009962703
136	0x3c233a9d	0.009962705
137	0xbc23d70a	-0.01
138	0x3c233a9d	0.009962705
139	0x3c233b4d	0.009962869
140	0xbc228c3a	-0.009921128
141	0x3c233dfd	0.00996351
142	0x3c233907	0.009962327
143	0x3c23431b	0.00996473
144	0xbc238a39	-0.009981685
145	0x3c2337e4	0.009962056
146	0x3c234332	0.009964751
147	0xbc200102	-0.009765865
148	0xbc238a0b	-0.0099816425
149	0xbc23842b	-0.009980242
150	0x3c23408a	0.009964118
151	0xbc238a20	-0.009981662
152	0x3c233b4d	0.009962869
153	0xbc238816	-0.009981176
154	0x3b69b092	0.0035658223
155	0x3c233b5a	0.009962881
156	0xbc238a0b	-0.0099816425
157	0x3c2334d5	0.009961327
158	0xbc238a22	-0.009981664
159	0xbc1fadb0	-0.009746
160	0xbc220471	-0.009888754
161	0xbc238a39	-0.009981685
162	0xbc228efd	-0.009921786
163	0x3c2334d5	0.009961327
164	0xbc04d4b6	-0.008107355
165	0x3c233b4d	0.009962869
166	0x3c234acd	0.009966564
167	0xbc2388e8	-0.009981371
168	0x3c233e80	0.009963632
169	0x3b4a561a	0.0030874074
170	0x3c234a36	0.009966424
171	0xbc202da9	-0.009776511
172	0x3c233a9d	0.009962705
173	0xbc238a39	-0.009981685
174	0xbc008a67	-0.007845498
175	0x3c233906	0.009962326
176	0x3c2341e6	0.009964442
177	0xbc1c8e79	-0.0095554525
178	0x3c233a9b	0.009962703
179	0xbc238a39	-0.009981685
180	0x3c233a9d	0.009962705
181	0x3c233920	0.00996235
182	0x3c23453c	0.009965237
183	0x3b0c4c06	0.0021407618
184	0xbc238a20	-0.009981662
185	0xbc238a0b	-0.0099816425
186	0x3c23d70a	0.01
187	0x3c2347ab	0.009965817
188	0x3c23428c	0.0099645965
189	0x3c2341e2	0.009964438
190	0xbc12e297	-0.008965156
191	0xbbd3dec7	-0.006465766
192	0xbc22983b	-0.00992399
193	0xbae6e1bf	-0.0017614885
194	0x3c23433f	0.009964763
195	0xbc238873	-0.0099812625
196	0xbc238a39	-0.009981685
197	0x3b4f9018	0.003167158
198	0x3c2342d3	0.009964663
199	0x3c233a9d	0.009962705
200	0xbc1fddf1	-0.009757505
201	0x3c234273	0.009964573
202	0xbc1f4ff0	-0.009723648
203	0x3c233b5b	0.009962882
204	0x3adf8da4	0.0017055762
205	0xbc1fc8cd	-0.0097524645
206	0x3c2343dc	0.009964909
207	0x3c23469e	0.009965567
208	0x3c2349de	0.009966342
209	0x3c2344d7	0.009965143
210	0x3c233a9d	0.009962705
211	0x3c231759	0.009954297
212	0x3c233b0b	0.009962807
213	0xbc11ef89	-0.008907207
214	0xbc229a07	-0.009924418
215	0x3c233a9c	0.009962704
216	0x3adbc860	0.001676809
217	0xbc2388fc	-0.00998139
218	0x3c234731	0.009965704
219	0xbc1a85c5	-0.009431307
220	0x3c233b23	0.00996283
221	0xbc098014	-0.008392353
222	0x3c2336dc	0.00996181
223	0xbc22985c	-0.009924021
224	0x3b645288	0.0034839232
225	0xbc229ba9	-0.009924808
226	0xbc238a39	-0.009981685
227	0x3c233907	0.009962327
228	0xbc1f8d51	-0.009738282
229	0xbc1f4c29	-0.009722748
230	0x3c233a9d	0.009962705
231	0xbc238a01	-0.009981633
232	0x3c2341f9	0.00996446
233	0x3c233a9d	0.009962705
234	0x3c233b5a	0.009962881
235	0x3c2331bd	0.009960589
236	0x3c233ad7	0.009962759
237	0x3c233a9d	0.009962705
238	0x3c234493	0.00996508
239	0x3c233a9d	0.009962705
240	0xbc238a39	-0.009981685
241	0x3c233b59	0.00996288
242	0xbc208acd	-0.009798718
243	0xbc238a09	-0.009981641
244	0xbc229b96	-0.00992479
245	0xbc224be3	-0.009905788
246	0xbc238a39	-0.009981685
247	0xbc1eee02	-0.0097003
248	0xbc22982a	-0.009923974
249	0x3c2341fa	0.0099644605
250	0xbc238a39	-0.009981685
251	0xbc2299e6	-0.009924388
252	0x3c23d70a	0.01
253	0xbc1fd9d9	-0.009756529
254	0x3b1d7f36	0.0024032122
255	0x3b53201f	0.003221519

fc2.bias f4 [128]
0	0x3b5c9329	0.003365705
1	0x3bcd5de8	0.006267298
2	0xbc23d70a	-0.01
3	0xbc23c1e0	-0.009994954
4	0xbc0fb726	-0.008771693
5	0xbc02b0a2	-0.007976683
6	0x3b296430	0.002584707
7	0xbc23ce00	-0.009997845
8	0x3bc98c31	0.0061507453
9	0xbc23cbd3	-0.009997326
10	0xbc23bac5	-0.00999326
11	0x3bc37c13	0.0059657185
12	0x3b3147f6	0.0027050949
13	0xbc23cc56	-0.009997448
14	0xbc0e8c50	-0.008700445
15	0xbc23d4d3	-0.009999472
16	0xb7613f65	-1.3425805e-05
17	0xbc23c7f3	-0.009996402
18	0xbc23d70a	-0.01
19	0xbc23d2a8	-0.009998955
20	0xbc23ccd0	-0.009997562
21	0xbc23d016	-0.009998342
22	0x3885477e	6.355251e-05
23	0xb99dcc86	-0.00030097755
24	0xb9029a8c	-0.0001245534
25	0xbc2392b1	-0.009983704
26	0xbc115ea6	-0.008872664
27	0xbc23d70a	-0.01
28	0xbc23cb3e	-0.009997187
29	0xb787fe38	-1.6211634e-05
30	0xbc23d70a	-0.01
31	0x3bceed7d	0.006314932
32	0x3bd206d5	0.006409506
33	0xbc23cc8a	-0.009997496
34	0xbc23b8e2	-0.00999281
35	0xb9cb07f0	-0.0003872509
36	0xbc23a97e	-0.009989141
37	0xbc23b1d7	-0.009991131
38	0xbc23d70a	-0.01
39	0xbc23d70a	-0.01
40	0x3bc0fea7	0.005889732
41	0x3bcce08c	0.006252354
42	0xbc23a363	-0.009987685
43	0xbc01c7d4	-0.007921178
44	0x3bc6e5f5	0.0060698935
45	0x3b3689c4	0.002785311
46	0x37b5cb15	2.1671449e-05
47	0xbc23d1d1	-0.009998755
48	0xbc21bd54	-0.0098717995
49	0x3bd47ea1	0.006484822
50	0xb9979781	-0.00028913844
51	0xbc23d61b	-0.009999777
52	0x38b001e3	8.3926854e-05
53	0xbc23d151	-0.009998635
54	0x3b4590b3	0.0030146062
55	0xbc134f07	-0.00899101
56	0xb9231fe2	-0.00015556769
57	0x38dcee14	0.00010534763
58	0x3bc809ec	0.0061046984
59	0x3b725783	0.003697843
60	0x3bdd68da	0.006756884
61	0xbc23d44c	-0.009999346
62	0xba036c67	-0.00050134066
63	0xbc0464fd	-0.008080718
64	0x3bd04461	0.0063558077
65	0x3b37646f	0.0027983447
66	0x3b7d6b6c	0.0038668765
67	0xba3548bb	-0.000691544
68	0xbc23d5aa	-0.009999672
69	0xbc23b46b	-0.009991745
70	0xb9090b84	-0.00013069628
71	0xb6cfb27e	-6.18986e-06
72	0xbc239924	-0.009985242
73	0xbc23c119	-0.009994769
74	0xbc23d70a	-0.01
75	0x3bcfcdd5	0.0063416758
76	0xbbfd9d20	-0.007739678
77	0xbc23b907	-0.009992844
78	0xb7d06ba3	-2.4845654e-05
79	0x3b5c801a	0.003364569
80	0xbc23d70a	-0.01
81	0xbc23d4ca	-0.009999463
82	0xbc23a535	-0.009988119
83	0x3b26100b	0.0025339152
84	0xbc23cc1f	-0.009997397
85	0xbc23d70a	-0.01
86	0xbc23cb9a	-0.009997273
87	0xbc0c48b4	-0.008562256
88	0xba64baeb	-0.0008725363
89	0xbc23d70a	-0.01
90	0xbc23d70a	-0.01
91	0xbc23d70a	-0.01
92	0x3b4e0cec	0.0031440808
93	0x3b2bac52	0.002619524
94	0xbc23d70a	-0.01
95	0xbbdfa2c8	-0.006824825
96	0xb97ed6e0	-0.00024303375
97	0xbc09828a	-0.008392939
98	0xbbfb26f9	-0.007664558
99	0xb9d0c947	-0.00039822815
100	0xbc23cb44	-0.009997193
101	0xbc16aa3c	-0.0091958605
102	0xbbdf388d	-0.0068121613
103	0xbc181548	-0.009282418
104	0xbc23d70a	-0.01
105	0xbc23aab9	-0.009989434
106	0xb9f08d58	-0.00045881676
107	0xbc23c43e	-0.009995518
108	0x3bc48301	0.005997062
109	0xbc23d70a	-0.01
110	0xbc23d70a	-0.01
111	0xbc23d4bd	-0.009999451
112	0xbc23d70a	-0.01
113	0xbc23ad48	-0.009990044
114	0x3b110585	0.0022128534
115	0xbc23d226	-0.009998834
116	0xbc23d70a	-0.01
117	0xbc23d0d9	-0.009998524
118	0x3b3149fd	0.0027052157
119	0xbc23d70a	-0.01
120	0x3bc517bc	0.0060147922
121	0xbc23d70a	-0.01
122	0x3b2e9927	0.002664158
123	0xbc238898	-0.009981297
124	0xbc23ca74	-0.009996999
125	0x3bd51d1d	0.0065037147
126	0xbc23d70a	-0.01
127	0xbc23d70a	-0.01

bn2.weight f4 [128]
0	0x3c23d70a	0.01
1	0x3c23d70a	0.01
2	0x3c23d70a	0.01
3	0x3c23d70a	0.01
4	0x3c23d70a	0.01
5	0x3c23d70a	0.01
6	0x3c23d70a	0.01
7	0x3c23d70a	0.01
8	0x3c23d70a	0.01
9	0x3c23d70a	0.01
10	0x3c23d70a	0.01
11	0x3c23d70a	0.01
12	0x3c23d70a	0.01
13	0x3c23d70a	0.01
14	0x3c23d70a	0.01
15	0x3c23d70a	0.01
16	0x3c23d70a	0.01
17	0x3c23d70a	0.01
18	0x3c23d70a	0.01
19	0x3c23d70a	0.01
20	0x3c23d70a	0.01
21	0x3c23d70a	0.01
22	0x3c23d70a	0.01
23	0x3c23d70a	0.01
24	0x3c23d70a	0.01
25	0x3c23d70a	0.01
26	0x3c23d70a	0.01
27	0x3c23d70a	0.01
28	0x3c23d70a	0.01
29	0x3c23d70a	0.01
30	0x3c23d70a	0.01
31	0x3c23d70a	0.01
32	0x3c23d70a	0.01
33	0x3c23d70a	0.01
34	0x3c23d70a	0.01
35	0x3c23d70a	0.01
36	0x3c23d70a	0.01
37	0x3c23d70a	0.01
38	0x3c23d70a	0.01
39	0x3c23d70a	0.01
40	0x3c23d70a	0.01
41	0x3c23d70a	0.01
42	0x3c23d70a	0.01
43	0x3c23d70a	0.01
44	0x3c23d70a	0.01
45	0x3c23d70a	0.01
46	0x3c23d70a	0.01
47	0x3c23d70a	0.01
48	0x3c23d70a	0.01
49	0x3c23d70a	0.01
50	0x3c23d70a	0.01
51	0x3c23d70a	0.01
52	0x3c23d70a	0.01
53	0x3c23d70a	0.01
54	0x3c23d70a	0.01
55	0x3c23d70a	0.01
56	0x3c23d70a	0.01
57	0x3c23d70a	0.01
58	0x3c23d70a	0.01
59	0x3c23d70a	0.01
60	0x3c23d70a	0.01
61	0x3c23d70a	0.01
62	0x3c23d70a	0.01
63	0x3c23d70a	0.01
64	0x3c23d70a	0.01
65	0x3c23d70a	0.01
66	0x3c23d70a	0.01
67	0x3c23d70a	0.01
68	0x3c23d70a	0.01
69	0x3c23d70a	0.01
70	0x3c23d70a	0.01
71	0x3c23d70a	0.01
72	0x3c23d70a	0.01
73	0x3c23d70a	0.01
74	0x3c23d70a	0.01
75	0x3c23d70a	0.01
76	0x3c23d70a	0.01
77	0x3c23d70a	0.01
78	0x3c23d70a	0.01
79	0x3c23d70a	0.01
80	0x3c23d70a	0.01
81	0x3c23d70a	0.01
82	0x3c23d70a	0.01
83	0x3c23d70a	0.01
84	0x3c23d70a	0.01
85	0x3c23d70a	0.01
86	0x3c23d70a	0.01
87	0x3c23d70a	0.01
88	0x3c23d70a	0.01
89	0x3c23d70a	0.01
90	0x3c23d70a	0.01
91	0x3c23d70a	0.01
92	0x3c23d70a	0.01
93	0x3c23d70a	0.01
94	0x3c23d70a	0.01
95	0x3c23d70a	0.01
96	0x3c23d70a	0.01
97	0x3c23d70a	0.01
98	0x3c23d70a	0.01
99	0x3c23d70a	0.01
100	0x3c23d70a	0.01
101	0x3c23d70a	0.01
102	0x3c23d70a	0.01
103	0x3c23d70a	0.01
104	0x3c23d70a	0.01
105	0x3c23d70a	0.01
106	0x3c23d70a	0.01
107	0x3c23d70a	0.01
108	0x3c23d70a	0.01
109	0x3c23d70a	0.01
110	0x3c23d70a	0.01
111	0x3c23d70a	0.01
112	0x3c23d70a	0.01
113	0x3c23d70a	0.01
114	0x3c23d70a	0.01
115	0x3c23d70a	0.01
116	0x3c23d70a	0.01
117	0x3c23d70a	0.01
118	0x3c23d70a	0.01
119	0x3c23d70a	0.01
120	0x3c23d70a	0.01
121	0x3c23d70a	0.01
122	0x3c23d70a	0.01
123	0x3c23d70a	0.01
124	0x3c23d70a	0.01
125	0x3c23d70a	0.01
126	0x3c23d70a	0.01
127	0x3c23d70a	0.01

bn2.bias f4 [128]
0	0xb6b7cee0	-5.4779084e-06
1	0xb762ec6a	-1.3525694e-05
2	0xb73cb7c0	-1.1248456e-05
3	0xb75bb8c4	-1.3096436e-05
4	0x37b997e2	2.2124445e-05
5	0x385e566e	5.300942e-05
6	0xb81313c8	-3.5065954e-05
7	0xb71977f2	-9.147438e-06
8	0xb793369e	-1.7549199e-05
9	0x3762bce6	1.3514631e-05
10	0xb7d0e4d1	-2.4902083e-05
11	0xb662e140	-3.3807737e-06
12	0xb83dc12a	-4.524101e-05
13	0xb7a789c8	-1.997211e-05
14	0xb6199f10	-2.2891363e-06
15	0x37ba425c	2.2203829e-05
16	0xb6d19560	-6.246075e-06
17	0x37186128	9.082527e-06
18	0x36b1c0a8	5.297439e-06
19	0xb82e8ab2	-4.1614003e-05
20	0xb5924c70	-1.0900094e-06
21	0xb6870948	-4.024394e-06
22	0x371f3da2	9.4914885e-06
23	0x36d6a96c	6.3974203e-06
24	0x36bb8d18	5.5894598e-06
25	0xb6292c40	-2.520872e-06
26	0x381f636e	3.8001155e-05
27	0xb80297e6	-3.113588e-05
28	0xb5bb7d20	-1.3969002e-06
29	0x36dec458	6.638973e-06
30	0xb789d63e	-1.6431437e-05
31	0x3606b46c	2.0072575e-06
32	0xb69e67d0	-4.7208523e-06
33	0x35950610	1.110313e-06
34	0xb77561e6	-1.4625932e-05
35	0x35e834d0	1.7300717e-06
36	0xb5a1d670	-1.2057844e-06
37	0xb6295350	-2.5231457e-06
38	0x37dbdb63	2.6208994e-05
39	0x370191b2	7.7229215e-06
40	0xb74b55f0	-1.2119752e-05
41	0xb797b6f6	-1.80858e-05
42	0x373b20ca	1.1153703e-05
43	0x378dd778	1.6908845e-05
44	0xb68ecba0	-4.255635e-06
45	0xb7e7eb9c	-2.764706e-05
46	0x370be60c	8.338608e-06
47	0xb6ba06aa	-5.5440078e-06
48	0x368c3e44	4.179574e-06
49	0xb7858ec2	-1.5921312e-05
50	0x35714160	8.987463e-07
51	0xb676cad8	-3.6774927e-06
52	0x37790f4a	1.4845116e-05
53	0xb4f44600	-4.5499473e-07
54	0xb80746ec	-3.225256e-05
55	0x38165de7	3.585024e-05
56	0x36eb7700	7.017399e-06
57	0x37452908	1.1751668e-05
58	0xb72b2a94	-1.0202308e-05
59	0xb83ab1e8	-4.4511544e-05
60	0xb7219faa	-9.6335225e-06
61	0xb80a463c	-3.2967175e-05
62	0x37341192	1.0732927e-05
63	0x3790aad7	1.7245691e-05
64	0xb6a86420	-5.0184462e-06
65	0xb76796fc	-1.3803827e-05
66	0xb70a73b2	-8.252378e-06
67	0xb77ff444	-1.5256057e-05
68	0xb718bf0c	-9.104388e-06
69	0x36857394	3.977164e-06
70	0xb6c3b1e8	-5.832164e-06
71	0x3677ddc0	3.6934944e-06
72	0xb726c050	-9.939147e-06
73	0xb7061dec	-7.993989e-06
74	0xb69ce040	-4.6752684e-06
75	0x370b00e8	8.285257e-06
76	0x373a8668	1.1117758e-05
77	0x379f3572	1.8979164e-05
78	0x37163122	8.952136e-06
79	0xb744750b	-1.1709762e-05
80	0xb7aabde0	-2.0353997e-05
81	0x3808e426	3.2637407e-05
82	0xb71abf1c	-9.223611e-06
83	0xb780ac23	-1.5338946e-05
84	0x37e70b96	2.7542741e-05
85	0xb6ee7784	-7.106866e-06
86	0x3693eacc	4.4082753e-06
87	0x3786f50b	1.6088152e-05
88	0x362f7270	2.6143643e-06
89	0xb7ae1640	-2.0752777e-05
90	0xb59d7bd8	-1.1733455e-06
91	0x38165de8	3.5850244e-05
92	0xb74faafd	-1.2377973e-05
93	0xb787d12a	-1.6190654e-05
94	0xb82831bc	-4.010064e-05
95	0xb6690228	-3.472096e-06
96	0x37791e8e	1.4848671e-05
97	0x37fc0dcd	3.0047167e-05
98	0x37fa5a30	2.984432e-05
99	0xb5833470	-9.775522e-07
100	0x37f7fe6e	2.9563173e-05
101	0x37cfa00b	2.4750849e-05
102	0xb72d93e4	-1.0346037e-05
103	0x37196cf7	9.144881e-06
104	0x378c4601	1.6721899e-05
105	0x3729b7a8	1.0115946e-05
106	0xb670eb10	-3.5899611e-06
107	0x37c12b45	2.3027542e-05
108	0x36202210	2.3861685e-06
109	0xb79245f3	-1.7437129e-05
110	0xb7893526	-1.6356422e-05
111	0x371d88d6	9.389789e-06
112	0x3678abf8	3.7054979e-06
113	0x37572e18	1.2825731e-05
114	0xb5b652c0	-1.358414e-06
115	0xb5a58830	-1.2333094e-06
116	0x381cfaef	3.7427e-05
117	0x38172968	3.6039768e-05
118	0xb8216cf6	-3.848687e-05
119	0x3810798d	3.444548e-05
120	0xb6c6b738	-5.9221893e-06
121	0x368e9b70	4.250025e-06
122	0xb83bbc00	-4.4759363e-05
123	0x378b115d	1.6578177e-05
124	0xb70a4790	-8.242103e-06
125	0xb7902740	-1.7184415e-05
126	0xb6a02c88	-4.7735557e-06
127	0x3844718f	4.68358e-05

bn2.running_mean f4 [128]
0	0x3b251ccc	0.0025194166
1	0x3bcf9a37	0.0063355225
2	0xbc314e15	-0.010821839
3	0xbc2216e8	-0.009893157
4	0xbc022184	-0.007942561
5	0xbbe993cb	-0.007128214
6	0x3ae6f4ad	0.0017620526
7	0xbc31af64	-0.010845039
8	0x3bcbc22c	0.0062182155
9	0xbc2515f1	-0.010076032
10	0xbc312d3f	-0.01081401
11	0x3bc5afb0	0.0060329065
12	0x3af7ff92	0.001892077
13	0xbc312ace	-0.010813428
14	0xbc00a066	-0.007850742
15	0xbc159028	-0.009128608
16	0xb8e5406a	-0.00010931569
17	0xbc25870a	-0.010102997
18	0xbc2228a7	-0.009897388
19	0xbc314dc2	-0.010821762
20	0xbc2221d8	-0.009895764
21	0xbc2210de	-0.009891717
22	0xb83c1b3c	-4.4848057e-05
23	0xb9d0fbc9	-0.00039860446
24	0xb955dc3e	-0.0002039531
25	0xbc21d441	-0.009877265
26	0xbc043700	-0.008069754
27	0xbc31a7a2	-0.010843189
28	0xbc25994c	-0.01010735
29	0xb8ca82f7	-9.656505e-05
30	0xbc314501	-0.0108196745
31	0x3bd2b3c5	0.0064301216
32	0x3bd4749b	0.006483627
33	0xbc259c2d	-0.010108036
34	0xbc22a18a	-0.009926209
35	0xb9f39116	-0.0004645667
36	0xbc252888	-0.010080464
37	0xbc22183b	-0.009893472
38	0xbc1641a7	-0.009170926
39	0xbc161bc9	-0.009161898
40	0x3bc37ed0	0.005966045
41	0x3bcf210b	0.0063210777
42	0xbc24d662	-0.0100608785
43	0xbbe772ef	-0.0070632617
44	0x3bca83d0	0.006180264
45	0x3afed58a	0.0019442302
46	0xb8526a2b	-5.016678e-05
47	0xbc31d2d0	-0.010853484
48	0xbc236568	-0.009972908
49	0x3bd6ae68	0.0065515526
50	0xb96b0979	-0.00022414875
51	0xbc22c565	-0.009934758
52	0x36926534	4.3629207e-06
53	0xbc320960	-0.010866493
54	0x3b0f2bb9	0.002184613
55	0xbc05dc7e	-0.008170245
56	0xb9841382	-0.00025191536
57	0x38056493	3.1803338e-05
58	0x3bca7611	0.0061786254
59	0x3b3b67f6	0.00285959
60	0x3bdf7bed	0.006820193
61	0xbc318314	-0.010834474
62	0xba16c436	-0.00057512836
63	0xbbecc225	-0.0072252923
64	0x3bd3e336	0.0064662946
65	0x3affb972	0.0019510223
66	0x3b81034e	0.0039371615
67	0xba23648a	-0.0006232938
68	0xbc221a12	-0.009893911
69	0xbc2569a7	-0.01009599
70	0xb97016f4	-0.00022896734
71	0xb8d7a3c2	-0.00010282501
72	0xbc2268df	-0.0099126985
73	0xbc257639	-0.010098987
74	0xbc222728	-0.009897031
75	0x3bd3370b	0.0064457706
76	0xbbe18841	-0.006882698
77	0xbc257a64	-0.010099981
78	0xb9079006	-0.00012928256
79	0x3b249fe7	0.0025119723
80	0xbc317449	-0.010830947
81	0xbc168e92	-0.009189265
82	0xbc227dcb	-0.009917687
83	0x3ade7c24	0.0016974253
84	0xbc16a332	-0.009194182
85	0xbc2219f7	-0.009893886
86	0xbc257e62	-0.010100933
87	0xbbfc9315	-0.007707963
88	0xba803b3a	-0.0009783276
89	0xbc31da6b	-0.010855298
90	0xbc1519b9	-0.009100371
91	0xbc168dae	-0.0091890525
92	0x3b182c2d	0.002321969
93	0x3aea0142	0.0017853158
94	0xbc31fba7	-0.010863221
95	0xbbc2d494	-0.0059457514
96	0xb9a5826c	-0.00031568424
97	0xbbf7e5c1	-0.0075652306
98	0xbbdf6b42	-0.006818206
99	0xba047040	-0.0005052127
100	0xbc16a2f6	-0.009194126
101	0xbc08de4f	-0.008353784
102	0xbbdbc4da	-0.006706816
103	0xbc0a29fb	-0.0084328605
104	0xbc154e60	-0.009112924
105	0xbc24e2c4	-0.010063831
106	0xba10a82b	-0.0005518223
107	0xbc258445	-0.010102336
108	0x3bc81744	0.006106289
109	0xbc318ec2	-0.010837259
110	0xbc31a365	-0.010842179
111	0xbc257e1c	-0.010100868
112	0xbc258820	-0.0101032555
113	0xbc24df05	-0.010062938
114	0x3b1734c1	0.0023072215
115	0xbc3203f4	-0.0108652
116	0xbc165513	-0.009175557
117	0xbc167f7a	-0.009185666
118	0x3af800f5	0.0018921184
119	0xbc16466d	-0.009172064
120	0x3bc71b1c	0.0060762297
121	0xbc220a52	-0.009890156
122	0x3af20cc0	0.0018466935
123	0xbc24cc64	-0.010058496
124	0xbc221d46	-0.009894675
125	0x3bd75d9b	0.006572438
126	0xbc22be0e	-0.009933008
127	0xbc164ac8	-0.009173103

bn2.running_var f4 [128]
0	0x383cd834	4.5024048e-05
1	0x3719c672	9.165715e-06
2	0x383c027d	4.482501e-05
3	0x371324d6	8.770459e-06
4	0x383bdb42	4.4788474e-05
5	0x383cca86	4.5011308e-05
6	0x383d2e12	4.5104018e-05
7	0x383d39b9	4.511487e-05
8	0x371818ec	9.065709e-06
9	0x37186aa1	9.0847325e-06
10	0x383d4ddb	4.513362e-05
11	0x37172490	9.008814e-06
12	0x383b976b	4.4725293e-05
13	0x383c0318	4.4825574e-05
14	0x383dfe0e	4.529772e-05
15	0x383e4bba	4.5370056e-05
16	0x37126cdc	8.727624e-06
17	0x37138e7c	8.7950575e-06
18	0x37137e78	8.791329e-06
19	0x383b658e	4.4678854e-05
20	0x3711d9a8	8.6933505e-06
21	0x3712627c	8.725208e-06
22	0x371335a4	8.774372e-06
23	0x3714c253	8.866732e-06
24	0x3718e9c5	9.114335e-06
25	0x3713f351	8.818534e-06
26	0x383adbf4	4.4550703e-05
27	0x383dadf8	4.5223132e-05
28	0x3713a998	8.801369e-06
29	0x37186c9b	9.085193e-06
30	0x383bf867	4.4815617e-05
31	0x3712514e	8.721208e-06
32	0x37174eaa	9.018617e-06
33	0x3714c9a8	8.868439e-06
34	0x37183307	9.071787e-06
35	0x3719ad43	9.159851e-06
36	0x3717d587	9.050017e-06
37	0x3714a869	8.8606985e-06
38	0x383a669b	4.4441415e-05
39	0x383c959f	4.496204e-05
40	0x37191592	9.124533e-06
41	0x37186828	9.084157e-06
42	0x3718e1aa	9.1124475e-06
43	0x383cc90e	4.500994e-05
44	0x3712eb39	8.757045e-06
45	0x383b922b	4.4720404e-05
46	0x3717b352	9.042053e-06
47	0x383d8fa1	4.5194876e-05
48	0x3712c739	8.748663e-06
49	0x37174c76	9.018104e-06
50	0x371a45aa	9.195335e-06
51	0x371a23cc	9.18745e-06
52	0x371981f4	9.149768e-06
53	0x383c35f6	4.4872948e-05
54	0x383e2dcd	4.5342185e-05
55	0x383c0347	4.4825745e-05
56	0x3713203d	8.769389e-06
57	0x37192f2d	9.130495e-06
58	0x3718bbc6	9.103625e-06
59	0x383c1ccd	4.4849516e-05
60	0x371b7eb2	9.2682185e-06
61	0x383cf96a	4.5054978e-05
62	0x3719412e	9.1346865e-06
63	0x383daf87	4.5224584e-05
64	0x3714ccd3	8.869177e-06
65	0x383dceb5	4.5253622e-05
66	0x3717a166	9.03788e-06
67	0x371a640f	9.202412e-06
68	0x3714d9b8	8.872179e-06
69	0x371397dc	8.79724e-06
70	0x3712d843	8.7526305e-06
71	0x3712f03b	8.758211e-06
72	0x3719ff70	9.178984e-06
73	0x3712a7ac	8.741317e-06
74	0x3715907d	8.914733e-06
75	0x37128f63	8.735663e-06
76	0x383c1f17	4.4851648e-05
77	0x37122a8e	8.712186e-06
78	0x3714ded0	8.873365e-06
79	0x383f5a69	4.562215e-05
80	0x383bec2e	4.4804234e-05
81	0x383c04e6	4.4827255e-05
82	0x37177eb3	9.029801e-06
83	0x383d2471	4.509505e-05
84	0x383b7975	4.469739e-05
85	0x371286a0	8.733623e-06
86	0x37150530	8.8823e-06
87	0x383c6ec7	4.4925862e-05
88	0x3714d752	8.871621e-06
89	0x383d307d	4.510627e-05
90	0x384040a6	4.5836576e-05
91	0x383b7df9	4.4701595e-05
92	0x383d4030	4.512089e-05
93	0x383ec281	4.5480676e-05
94	0x383df664	4.529058e-05
95	0x383e72c8	4.540643e-05
96	0x3719a245	9.157292e-06
97	0x383c122a	4.483961e-05
98	0x383e1565	4.5319455e-05
99	0x3712ac50	8.742398e-06
100	0x383addbf	4.4552373e-05
101	0x383d568e	4.514172e-05
102	0x3714dca3	8.872858e-06
103	0x383c6550	4.4917047e-05
104	0x38403dd3	4.5833945e-05
105	0x37188004	9.089712e-06
106	0x37126e72	8.727993e-06
107	0x3712ccfe	8.750007e-06
108	0x37162c8c	8.951069e-06
109	0x383d9ae7	4.5205375e-05
110	0x383e5426	4.53779e-05
111	0x3713fc76	8.820663e-06
112	0x371459c7	8.84239e-06
113	0x37189b97	9.096132e-06
114	0x37172721	9.009412e-06
115	0x383e222a	4.5331348e-05
116	0x383c2f71	4.4866876e-05
117	0x383c2080	4.485296e-05
118	0x383cd348	4.5019464e-05
119	0x383b9b07	4.4728655e-05
120	0x37181a21	9.06599e-06
121	0x37150de2	8.884324e-06
122	0x383d2c59	4.5102413e-05
123	0x3717840b	9.031045e-06
124	0x3713fedf	8.821225e-06
125	0x37184264	9.075364e-06
126	0x371a0889	9.1811025e-06
127	0x383de118	4.5270746e-05

fc3.weight f4 [1, 128]
0	0xbc23d70a	-0.01
1	0x3c23d70a	0.01
2	0xbc23d70a	-0.01
3	0x3c23d70a	0.01
4	0xbc23d70a	-0.01
5	0xbc23d70a	-0.01
6	0xbc23d70a	-0.01
7	0xbc23d70a	-0.01
8	0x3c23d70a	0.01
9	0x3c23d70a	0.01
10	0xbc23d70a	-0.01
11	0x3c23d70a	0.01
12	0xbc23d70a	-0.01
13	0xbc23d70a	-0.01
14	0xbc23d70a	-0.01
15	0xbc23d70a	-0.01
16	0x3c23d70a	0.01
17	0x3c23d70a	0.01
18	0x3c23d70a	0.01
19	0xbc23d70a	-0.01
20	0x3c23d70a	0.01
21	0x3c23d70a	0.01
22	0x3c23d70a	0.01
23	0x3c23d70a	0.01
24	0x3c23d70a	0.01
25	0x3c23d70a	0.01
26	0xbc23d70a	-0.01
27	0xbc23d70a	-0.01
28	0x3c23d70a	0.01
29	0x3c23d70a	0.01
30	0xbc23d70a	-0.01
31	0x3c23d70a	0.01
32	0x3c23d70a	0.01
33	0x3c23d70a	0.01
34	0x3c23d70a	0.01
35	0x3c23d70a	0.01
36	0x3c23d70a	0.01
37	0x3c23d70a	0.01
38	0xbc23d70a	-0.01
39	0xbc23d70a	-0.01
40	0x3c23d70a	0.01
41	0x3c23d70a	0.01
42	0x3c23d70a	0.01
43	0xbc23d70a	-0.01
44	0x3c23d70a	0.01
45	0xbc23d70a	-0.01
46	0x3c23d70a	0.01
47	0xbc23d70a	-0.01
48	0x3c23d70a	0.01
49	0x3c23d70a	0.01
50	0x3c23d70a	0.01
51	0x3c23d70a	0.01
52	0x3c23d70a	0.01
53	0xbc23d70a	-0.01
54	0xbc23d70a	-0.01
55	0xbc23d70a	-0.01
56	0x3c23d70a	0.01
57	0x3c23d70a	0.01
58	0x3c23d70a	0.01
59	0xbc23d70a	-0.01
60	0x3c23d70a	0.01
61	0xbc23d70a	-0.01
62	0x3c23d70a	0.01
63	0xbc23d70a	-0.01
64	0x3c23d70a	0.01
65	0xbc23d70a	-0.01
66	0x3c23d70a	0.01
67	0x3c23d70a	0.01
68	0x3c23d70a	0.01
69	0x3c23d70a	0.01
70	0x3c23d70a	0.01
71	0x3c23d70a	0.01
72	0x3c23d70a	0.01
73	0x3c23d70a	0.01
74	0x3c23d70a	0.01
75	0x3c23d70a	0.01
76	0xbc23d70a	-0.01
77	0x3c23d70a	0.01
78	0x3c23d70a	0.01
79	0xbc23d70a	-0.01
80	0xbc23d70a	-0.01
81	0xbc23d70a	-0.01
82	0x3c23d70a	0.01
83	0xbc23d70a	-0.01
84	0xbc23d70a	-0.01
85	0x3c23d70a	0.01
86	0x3c23d70a	0.01
87	0xbc23d70a	-0.01
88	0x3c23d70a	0.01
89	0xbc23d70a	-0.01
90	0xbc23d70a	-0.01
91	0xbc23d70a	-0.01
92	0xbc23d70a	-0.01
93	0xbc23d70a	-0.01
94	0xbc23d70a	-0.01
95	0xbc23d70a	-0.01
96	0x3c23d70a	0.01
97	0xbc23d70a	-0.01
98	0xbc23d70a	-0.01
99	0x3c23d70a	0.01
100	0xbc23d70a	-0.01
101	0xbc23d70a	-0.01
102	0x3c23d70a	0.01
103	0xbc23d70a	-0.01
104	0xbc23d70a	-0.01
105	0x3c23d70a	0.01
106	0x3c23d70a	0.01
107	0x3c23d70a	0.01
108	0x3c23d70a	0.01
109	0xbc23d70a	-0.01
110	0xbc23d70a	-0.01
111	0x3c23d70a	0.01
112	0x3c23d70a	0.01
113	0x3c23d70a	0.01
114	0x3c23d70a	0.01
115	0xbc23d70a	-0.01
116	0xbc23d70a	-0.01
117	0xbc23d70a	-0.01
118	0xbc23d70a	-0.01
119	0xbc23d70a	-0.01
120	0x3c23d70a	0.01
121	0x3c23d70a	0.01
122	0xbc23d70a	-0.01
123	0x3c23d70a	0.01
124	0x3c23d70a	0.01
125	0x3c23d70a	0.01
126	0x3c23d70a	0.01
127	0xbc23d70a	-0.01
