10_Models/Results_Chicago/WGANBR_Congestion_generator_best.pth (torch, 352692 bytes, 20 tensors)

fc1.weight f4 [128, 201]
0.007675974 -0.09202422 0.012470945 -0.050216015 -0.024257468 -0.06315586 -0.006304628 0.00935309
0.031313673 0.045033086 -0.031662572 -0.06804713 0.019911865 0.018938579 0.0026379812 -0.042589046
-0.01023575 -0.07026137 -0.0030924599 -0.006866414 -0.045867044 0.0062307515 -0.058675095 -0.068420924
0.018205017 0.04564939 0.035232786 -0.06403699 0.0414368 0.020740677 0.015651103 0.01855458
-0.071875565 0.006056143 -0.04798975 0.028325692 0.024614215 0.019015217 -0.078711905 -0.060725894
-0.034074 -0.045471266 0.043212824 -0.022129228 -0.06375134 0.027644794 0.002854302 -0.053468294
0.009182763 -0.05123126 -0.028660925 0.01142185 -0.05932346 -0.066614285 -0.045596782 -0.024259532
-0.08144774 -0.06744916 0.016494082 -0.05054401 0.05375345 -0.025900828 -0.019341152 -0.005375036
0.037817795 -0.074214764 -0.07329996 -0.044268947 -0.02898672 -0.006806397 -0.016262284 0.05252367
0.04262031 0.015685914 0.044428904 -0.015766185 0.023602098 -0.07698688 -0.0216972 -0.07953243
-0.001554631 -0.029034298 -0.08106426 0.007404882 -0.04291829 0.039319485 0.0075789243 -0.06126816
0.022363137 -0.015049965 0.012803598 -0.07664795 0.04459637 0.051083323 -0.056495663 -0.012375835
-0.0064902124 0.05221146 -0.06420435 0.01830872 -0.0061701518 -0.039689925 0.04349219 -0.06369375
0.046194945 -0.022341216 0.029772608 0.016966056 0.05495519 -0.01715147 0.05756147 0.039042853
0.029086588 -0.0067219273 -0.059368853 0.03594315 -0.030599605 0.010572479 -0.0553101 0.047337636
-0.03475961 0.040719885 0.023212506 0.019122224 -0.055214923 0.055839352 -0.044018306 -0.05189696
-0.0033252386 -0.069071904 0.004447874 0.010086589 -0.014628641 0.01599127 -0.04055758 0.06240145
0.048454728 -0.002584686 -0.03517588 0.062406182 -0.052584365 -0.019977668 0.009900716 -0.03537625
0.06782529 -0.06212264 0.016542958 0.061743557 0.06721563 0.021442298 -0.03751761 -0.06820022
0.0630861 -0.019471692 0.06689601 -0.007000191 -0.043231234 0.06495399 0.06123845 -0.017010368
0.04167751 0.013145395 0.021068184 -0.016880022 0.059176892 0.03761843 -0.037582114 -0.063937224
-0.058609135 -0.030638872 0.0075949756 -0.00308823 -0.04918152 0.062763155 -0.06875891 0.016819112
0.042729307 -0.04192614 -0.06139836 -0.0597927 -0.0058224066 -0.06669693 0.036602486 0.019601552
0.040201075 -0.009982418 -0.023982046 -0.023953905 -0.032368496 0.024550734 0.06972627 -0.049220555
0.021302206 0.03151659 -0.016375888 -0.0061697806 -0.02859315 -0.021189129 -0.017966494 -0.02508667
0.011343793 0.050655466 0.043601703 -0.041321177 -0.029494334 -0.07703237 -0.05800671 -0.029678661
-0.04494527 0.03617692 -0.047887124 -0.051926628 -0.010946216 -0.057010263 -0.054264423 0.028150208
-0.055309117 0.057146866 -0.030194383 -0.042742636 0.008656224 0.039856143 -0.0684135 -0.043732077
-0.008135098 -0.060674533 -0.039374433 -0.014451332 -0.05447735 0.040266342 0.023609266 -0.0065887463
-0.02575262 0.0603632 -0.07142985 0.03761932 -0.063729696 0.04655783 0.03906441 -0.06972042
-0.018583808 -0.02410015 -0.06503179 0.052801628 0.015777221 -0.07170457 -0.007254214 0.048985887
0.025449596 -0.0083347885 -0.02606649 -0.039238736 -0.06677009 -0.014604687 -0.02058369 -0.06905507
00000000: bd86 fb3b 3277 bcbd ef52 4c3c 4faf 4dbd
00000010: 99b7 c6bc dc57 81bd 0e97 cebb b43d 193c
00000020: c442 003d 9d74 383d 9db0 01bd 4b5c 8bbd
00000030: 351e a33c 1425 9b3c fbe1 2c3b da71 2ebd
00000040: d9b3 27bc 31e5 8fbd deaa 4abb a8ff e0bb
00000050: 15df 3bbd 552b cc3b 4c55 70bd 4520 8cbd
00000060: b022 953c dbfa 3a3d 4150 103d d325 83bd
00000070: a2b9 293d 5ae8 a93c be36 803c c6ff 973c
00000080: 7f33 93bd 9c72 c63b e690 44bd 480b e83c
00000090: c0a3 c93c cdc5 9b3c b533 a1bd b7bb 78bd
000000a0: 2e91 0bbd 1440 3abd eeff 303d 5b48 b5bc
000000b0: 1090 82bd 5677 e23c 3e0f 3b3b 9201 5bbd
000000c0: 4d73 163c dfd7 51bd 51ca eabc b622 3b3c
000000d0: 28fd 72bd 126d 88bd b1c3 3abd edbb c6bc
000000e0: 13ce a6bd c922 8abd 991e 873c 3c07 4fbd
000000f0: 942c 5c3d f92d d4bc 5671 9ebc 1221 b0bb
00000100: d5e6 1a3d e9fd 97bd 4a1e 96bd 5b53 35bd
00000110: 8f75 edbc 3208 dfbb 7b38 85bc 0f23 573d
00000120: a292 2e3d bf7f 803c 15fb 353d 1628 81bc
00000130: 3059 c13c 4cab 9dbd 54be b1bc e6e1 a2bd
00000140: c3c4 cbba 56d9 edbc 0505 a6bd a7a4 f23b
00000150: 17cb 2fbd 780d 213d a058 f83b 52f4 7abd
00000160: e632 b73c 2194 76bc 2fc6 513c 9af9 9cbd
00000170: afaa 363d bf3c 513d ff67 67bd 04c4 4abc
00000180: d9ab d4bb afdb 553d 927d 83bd 2bfc 953c
00000190: fc2e cabb e791 22bd de24 323d de71 82bd
000001a0: e936 3d3d ed04 b7bc afe5 f33c 66fc 8a3c
000001b0: b118 613d 3d81 8cbc 93c5 6b3d 66eb 1f3d
000001c0: ff46 ee3c 9d43 dcbb c12c 73bd 2039 133d
000001d0: 06ac fabc 3138 2d3c d88c 62bd 1ce5 413d
000001e0: 1860 0ebd e5c9 263d 2728 be3c 36a6 9c3c
000001f0: 0b29 62bd ceb7 643d 8a4c 34bd e891 54bd
00000200: 3fec 59bb 9275 8dbd 79bf 913b 3842 253c
00000210: f8ac 6fbc 2000 833c b41f 26bd aa98 7f3d
00000220: 7778 463d d663 29bb 9514 10bd a09d 7f3d
00000230: b462 57bd 35a8 a3bc 9d36 223c b0e6 10bd
00000240: fce7 8a3d 4f74 7ebd 1985 873c d0e6 7c3d
00000250: 59a8 893d c2a7 af3c 11ac 19bd 8fac 8bbd
00000260: 4933 813d 1983 9fbc c600 893d dc61 e5bb
00000270: 3c13 31bd 9906 853d 2bd5 7a3d 5459 8bbc
00000280: 09b6 2a3d c85f 573c 2f97 ac3c f947 8abc
00000290: 7863 723d c815 1a3d b4ef 19bd 85f1 82bd
000002a0: 2210 70bd 5ffe fabc 46df f83b e763 4abb
000002b0: 9072 49bd f889 803d 79d1 8cbd 3cc8 893c
000002c0: ed04 2f3d bfba 2bbd d97c 7bbd 31e9 74bd
000002d0: e3c9 bebb 6698 88bd 7dec 153d 6f93 a03c
000002e0: e2a9 243d 4c8d 23bc ff75 c4bc fb3a c4bc
000002f0: d494 04bd 9f1e c93c a6cc 8e3d 7e9b 49bd
00000300: f781 ae3c 8a17 013d ba26 86bc df2b cabb
00000310: 2f3c eabc d394 adbc 782e 93bc 8f82 cdbc
00000320: 51db 393c 1b7c 4f3d b397 323d 6540 29bd
00000330: 1a9e f1bc 26c3 9dbd 7298 6dbd aa20 f3bc
00000340: 8818 38bd 402e 143d 4a25 44bd 04b1 54bd
00000350: c257 33bc 9883 69bd 5f44 5ebd 449b e63c
00000360: d08b 62bd d512 6a3d 365a f7bc e712 2fbd
00000370: d6d2 0d3c 3240 233d 611c 8cbd 6820 33bd
00000380: 1349 05bc dc85 78bd 1647 21bd 48c5 6cbc
00000390: a423 5fbd 52ee 243d 3868 c13c 69e6 d7bb
000003a0: 29f7 d2bc 673f 773d d049 92bd b716 1a3d
000003b0: b784 82bd 6cb3 3e3d 0102 203d 94c9 8ebd
000003c0: 123d 98bc ae6d c5bc 632f 85bd 8546 583d
000003d0: 3b3f 813c d8d9 92bd c2b4 edbb 6da5 483d
000003e0: ac7b d03c a38e 08bc 6489 d5bc ccb8 20bd
000003f0: c2be 88bd 7f48 6fbc 209f a8bc bf6c 8dbd

fc1.bias f4 [128]
-0.031124946 0.015839892 0.021835363 0.05630906 0.004886526 -0.058835864 -0.06880561 -0.0698793
0.008019254 0.052583065 -0.061041694 -0.043085035 -0.018051408 0.013614955 -0.049449727 0.04232682
0.062314644 0.063523434 0.014923044 -0.015123662 0.068945214 0.033351924 -0.02866856 0.059014354
-0.033313613 0.0026380054 0.010955425 -0.0007881027 -0.042118445 -0.039912615 0.02492319 -0.052020457
0.021851731 0.06653125 0.06230006 -0.064829625 0.043869443 0.044895362 -0.045763265 -0.022136495
0.011657902 0.02754546 -0.062309325 -0.067912795 -0.02764672 0.0006877949 -0.053941302 -0.004879222
-0.050542727 0.004279754 -0.056836586 -0.06133968 0.007151172 0.018844899 -0.05231536 -0.05894504
-0.037617013 0.06912253 0.043375086 0.0095223775 -0.016205158 -0.020057203 0.026771845 0.0021487912
-0.036952417 0.007967579 0.028015181 0.059292823 0.0015677549 0.026342781 -0.0008496128 -0.0056412937
-0.037721843 0.03922216 -0.064958654 0.029859044 0.041764174 -0.0005337289 -0.0073023043 0.044213433
-0.03749886 0.047064926 0.0013530188 0.062114697 0.04897302 0.031471636 0.034082767 0.042789374
-0.06846171 0.054432828 -0.007138485 0.008285897 0.022184478 0.0680432 -0.014164199 -0.053665068
0.056332026 0.017713157 0.043665215 -0.024588844 -0.01275488 0.01936367 -0.008282478 -0.04578597
0.00017295525 0.04312444 0.057580393 0.041211993 0.035219226 0.026597897 -0.012923525 0.0058794934
0.05991558 0.035833523 -0.022639783 0.054672286 0.008105714 0.0564173 0.04154972 0.011872865
0.03380607 -0.06717137 -0.017039632 -0.050947122 -0.014659526 -0.0069494373 -0.013306006 -0.049620654
00000000: bef9 febc a9c2 813c 13e0 b23c 54a4 663d
00000010: 271f a03b e0fd 70bd f5e9 8cbd e11c 8fbd
00000020: 3063 033c 5761 573d db06 7abd ef79 30bd
00000030: 8ce0 93bc 4311 5f3c cc8b 4abd e35e 2d3d
00000040: a43d 7f3d 9318 823d c87f 743c 3cc9 77bc
00000050: 2633 8d3d 079c 083d 54da eabc 09b9 713d
00000060: db73 08bd 63e2 2c3b 627e 333c ad98 4eba
00000070: 6484 2cbd 697b 23bd b82b cc3c 6713 55bd
00000080: 6702 b33c 8941 883d 592e 7f3d 65c5 84bd
00000090: 72b0 333d 33e4 373d 4372 3bbd 9857 b5bc
000000a0: c900 3f3c 04a7 e13c 1038 7fbd dd15 8bbd
000000b0: 607b e2bc 224d 343a 8ef1 5cbd e1e1 9fbb
000000c0: e405 4fbd 2e3d 8c3b 7bcd 68bd 513f 7bbd
000000d0: 6154 ea3b 9e60 9a3c a248 56bd 5b70 71bd
000000e0: 4c14 1abd 1d90 8d3d 13aa 313d bf03 1c3c
000000f0: aec0 84bc 014f a4bc a150 db3c bcd2 0c3b
00000100: 6b5b 17bd 738a 023c 1880 e53c 08dd 723d
00000110: 207d cd3a d1cc d73c 8db8 5eba 9ada b8bb
00000120: 3882 1abd 6aa7 203d 0b09 85bd f49a f43c
00000130: e910 2b3d f1e9 0bba 2b48 efbb 2519 353d
00000140: 6898 19bd 27c7 403d c757 b13a fb6b 7e3d
00000150: ef97 483d 67e8 003d 5f9a 0b3d e943 2f3d
00000160: a735 8cbd f5f4 5e3d f4e9 e9bb 92c1 073c
00000170: 39bc b53c 3c5a 8b3d f510 68bc e7cf 5bbd
00000180: 69bc 663d 2f1b 913c 4cda 323d 8b6e c9bc
00000190: d8f9 50bc 8fa0 9e3c 3bb3 07bc 128a 3bbd
000001a0: 525b 3539 41a3 303d 6bd9 6b3d e8cd 283d
000001b0: 0942 103d d5e3 d93c 31bd 53bc c4a8 c03b
000001c0: 0a6a 753d 2cc6 123d 1177 b9bc 0cf0 5f3d
000001d0: d4cd 043c d415 673d 0a30 2a3d 6886 423c
000001e0: 3c78 0a3d 2591 89bd b396 8bbc eead 50bd
000001f0: 822e 70bc 1bb8 e3bb 6f01 5abc 073f 4bbd

bn1.weight f4 [128]
0.99144095 0.99811155 1.0000395 0.9926458 1.0194279 1.0086354 0.99600005 0.9928883
1.0022299 0.99327415 0.99770683 1.008165 1.0029588 1.0043125 1.0191046 1.0062605
1.0016605 0.9980374 0.9963886 1.0011678 0.9910692 1.0105916 1.0076874 1.0006169
0.988848 1.0043021 0.9952377 0.9947229 0.9940276 0.9954647 0.99938 1.0171328
0.9598722 0.9961972 0.9990754 1.0156202 0.991507 1.0054451 1.0043148 1.0108352
0.9952727 1.0092268 0.98843026 1.002296 0.9978728 0.9967268 1.0004758 1.0007867
1.0102041 1.0027157 0.96817917 0.99427664 1.0103061 1.0081285 1.0126445 0.9959436
0.9984917 0.98320425 1.0134435 0.9990328 0.98598427 0.98569226 0.99980164 1.0010443
1.0021894 1.0092827 1.0107005 1.0155655 1.0008585 1.0054164 1.0274822 1.0005523
1.0029019 0.99908274 0.9851368 1.0067812 1.0108379 0.9863408 1.0105938 0.99536353
1.00892 0.9839596 0.99161977 0.99681 1.0024368 0.99929065 0.9993374 0.9968284
0.99506515 0.9904537 0.9919804 1.006595 1.0018585 0.99356186 0.99021405 1.0060793
1.0007088 1.0030141 0.9909312 1.0068446 0.99522305 1.0198221 1.0047715 1.0004357
1.0046537 0.9907351 0.99999905 0.99729985 0.98912525 0.99799466 0.9957582 0.98111343
1.0058575 0.99805945 0.9979604 1.0019252 0.9909374 0.9920009 0.9957973 0.99491936
0.9914649 0.9865347 1.0069394 0.98926044 0.993353 1.0017889 1.0055358 1.006281
00000000: 13cf 7d3f 3d84 7f3f 4b01 803f 091e 7e3f
00000010: 9d7c 823f f71a 813f dcf9 7e3f ed2d 7e3f
00000020: 1249 803f 3747 7e3f b769 7f3f 8d0b 813f
00000030: f460 803f 508d 803f 0572 823f 25cd 803f
00000040: 6936 803f 617f 7f3f 5313 7f3f 4426 803f
00000050: b6b6 7d3f 115b 813f e7fb 803f 3714 803f
00000060: 2425 7d3f f98c 803f e6c7 7e3f 29a6 7e3f
00000070: 9878 7e3f c6d6 7e3f 5ed7 7f3f 6831 823f
00000080: 2fba 753f c806 7f3f 68c3 7f3f d8ff 813f
00000090: 67d3 7d3f 6db2 803f 638d 803f 0c63 813f
000000a0: 31ca 7e3f 582e 813f c409 7d3f 3c4b 803f
000000b0: 9874 7f3f 7d29 7f3f 970f 803f c719 803f
000000c0: 5e4e 813f fd58 803f 97da 773f ea88 7e3f
000000d0: b651 813f 5b0a 813f 569e 813f 29f6 7e3f
000000e0: 279d 7f3f 46b3 7b3f 84b8 813f 9dc0 7f3f
000000f0: 7769 7c3f 5456 7c3f 00f3 7f3f 3822 803f
00000100: be47 803f 2d30 813f a25e 813f 0dfe 813f
00000110: 221c 803f 7cb1 803f 8984 833f 1912 803f
00000120: 175f 803f e3c3 7f3f ed31 7c3f 35de 803f
00000130: 2363 813f d580 7c3f 235b 813f 25d0 7e3f
00000140: 4a24 813f c7e4 7b3f cbda 7d3f f12e 7f3f
00000150: d94f 803f 83d1 7f3f 93d4 7f3f 2530 7f3f
00000160: 97bc 7e3f 608e 7d3f 6df2 7d3f 1bd8 803f
00000170: e63c 803f 125a 7e3f ab7e 7d3f 35c7 803f
00000180: 3a17 803f c462 803f abad 7d3f 49e0 803f
00000190: f0c6 7e3f 8889 823f 5a9c 803f 470e 803f
000001a0: 7e98 803f d1a0 7d3f f0ff 7f3f 0b4f 7f3f
000001b0: 5037 7d3f 947c 7f3f 02ea 7e3f 402a 7b3f
000001c0: f0bf 803f d380 7f3f 557a 7f3f 163f 803f
000001d0: 13ae 7d3f c5f3 7d3f 92ec 7e3f 09b3 7e3f
000001e0: a5d0 7d3f 8a8d 7c3f 64e3 803f 2c40 7d3f
000001f0: 624c 7e3f 9e3a 803f 66b5 803f d1cd 803f

bn1.bias f4 [128]
-0.0068294597 0.0049212524 0.0006120881 -0.0010546466 -0.007642752 0.010958181 -0.00096840836 -0.0061483607
0.0032184669 -0.010530652 0.00025355324 0.0030798211 0.0062518897 0.0044357083 0.009138901 0.006292352
-0.0017401847 0.0033870442 -0.0018007818 -0.006452488 -0.00581046 -0.0053648786 -0.0044134557 -0.006250399
-0.0090853395 0.008008048 0.00039671184 0.005705496 -0.0038714085 -0.002929895 0.004240306 -0.0019767494
-0.030625558 -0.0039314027 1.0415451e-05 0.008300938 -0.0020109268 0.014166386 0.005193545 0.0033779321
0.00036557863 0.0019347847 -0.01294758 0.007108804 -0.0019348661 0.0017756508 0.0015132756 0.0029898214
0.011362119 0.0030353365 -0.0077551994 -0.00022357435 0.008591126 0.009868198 -0.00012370953 -0.005224854
0.003701974 -0.005030542 -0.0066223745 0.0013765873 -0.024542127 -0.012622149 -0.009345681 0.002470303
0.0043789907 0.012446874 -0.01977663 0.007001597 -0.013468792 0.01512473 0.0012147084 0.0035430696
0.0073605953 0.0093702255 0.0004311532 0.009253864 -0.0017609393 -0.0061740642 0.015784752 0.0001269534
0.0009470452 -0.013840302 -0.00091823156 0.0039348775 0.0019531163 0.0017822391 -0.004839157 -0.0050066407
0.0044715893 -0.0018121632 -0.003926267 0.009728409 -0.0041604964 -0.0050951065 -0.0015781864 0.0049312725
-0.0014286415 0.0064885016 -0.0007584869 0.011743118 -0.0025074584 0.010223284 0.0058970563 0.005646808
0.011028265 -0.0045657507 0.0066783465 0.0078577595 -0.0046733613 0.0015680813 -0.004732883 -0.0072519663
0.009926765 -0.00089498365 0.0022027746 0.0036145237 -0.0033514034 -0.0051093297 0.0037646128 0.0016349669
-0.004595975 -0.0053330753 0.013506126 -0.002353127 -0.006229838 -0.0015279626 -0.009284268 0.009989726
00000000: a9c9 dfbb 7542 a13b 8974 203a 113c 8aba
00000010: 0d70 fabb f189 333c c9dc 7dba 3078 c9bb
00000020: eaec 523b c188 2cbc 57ef 8439 d3d6 493b
00000030: a7dc cc3b 6b59 913b 54bb 153c 1330 ce3b
00000040: e916 e4ba 2cf9 5d3b 3608 ecba 646f d3bb
00000050: ac65 bebb ddcb afbb c09e 90bb 26d0 ccbb
00000060: adda 14bc 3034 033c c3fd cf39 2bf5 ba3b
00000070: 75b7 7dbb 7b03 40bb 44f2 8a3b 5a8c 01bb
00000080: 73e2 fabc ffd2 80bb 05be 2e37 a800 083c
00000090: c1c9 03bb 211a 683c 9d2e aa3b 4c60 5d3b
000000a0: 22ab bf39 9a98 fd3a 1622 54bc f8f0 e83b
000000b0: 559b fdba f4bc e83a 1a59 c63a e1f0 433b
000000c0: 2e28 3a3c 7fec 463b 541f febb 486f 6ab9
000000d0: cbc1 0c3c 39ae 213c 06b8 01b9 4135 abbb
000000e0: d19c 723b 3fd7 a4bb 8100 d9bb 9b6e b43a
000000f0: 920c c9bc 21cd 4ebc a11e 19bc cfe4 213b
00000100: a37d 8f3b f9ed 4b3c 9902 a2bc a76d e53b
00000110: 35ac 5cbc b7cd 773c da36 9f3a d832 683b
00000120: 2631 f13b 9385 193c 670c e239 859d 173c
00000130: 51cf e6ba ce4f cabb 064f 813c cb1e 0539
00000140: 2143 783a 6fc2 62bc 7ab5 70ba 25f0 803b
00000150: b5ff ff3a 059a e93a cb91 9ebb bf0e a4bb
00000160: 6986 923b 1b86 edba eaa7 80bb e863 1f3c
00000170: c654 88bb daf4 a6bb 26db ceba 8396 a13b
00000180: 4141 bbba 7f9d d43b 32d5 46ba 3566 403c
00000190: 2c54 24bb 907f 273c 183c c13b dc08 b93b
000001a0: e5af 343c 4b9c 95bb 08d6 da3b d5bd 003c
000001b0: ff22 99bb 1488 cd3a 4d16 9bbb e7a1 edbb
000001c0: dfa3 223c 569d 6aba 6d5c 103b a5e1 6c3b
000001d0: 38a3 5bbb 2a6c a7bb b9b7 763b 634c d63a
000001e0: d599 96bb 14c1 aebb cc48 5d3c ec36 1abb
000001f0: ab23 ccbb eb45 c8ba 0b1d 18bc f3ab 233c

bn1.running_mean f4 [128]
-656827.06 -568435.0 1.2377432e+06 1.5994811e+06 -72173.055 894137.9 1.2762032e+06 1.2504092e+06
-862184.75 -61568.953 693711.4 -506862.94 785735.5 531502.3 -160647.11 677985.94
-369299.34 289865.2 361565.6 -293524.16 1.0966784e+06 -100376.26 -190904.58 -235453.27
1.0671732e+06 -159496.19 1.0054956e+06 325417.25 -369383.16 1.3406748e+06 1.3355781e+06 -24708.24
-190830.94 -415527.0 846982.9 -192339.25 -209741.7 107535.9 -374195.94 -163475.47
-380901.12 -51359.37 -735325.2 864526.44 714043.3 -267689.28 928937.9 1.2971521e+06
1.1648106e+06 -243608.05 214228.1 -1.0158839e+06 735436.4 1.305969e+06 -73569.41 763419.8
-527631.0 -265093.2 -161690.5 611363.4 -154353.17 717816.44 -64433.902 -330093.3
1.6220782e+06 -545934.6 -102554.7 -344827.9 -82431.516 -732288.06 -62374.246 -362048.78
621217.06 589830.6 -383881.5 1.3620761e+06 -159437.42 802680.75 532456.25 751731.5
-274875.25 -603021.5 843467.8 1.0995921e+06 -230019.83 656925.06 -271835.47 -98699.13
1.3260052e+06 -447639.62 723203.0 -87262.61 -395459.78 -844340.5 902818.4 875146.6
901863.06 1.1956191e+06 1.0766506e+06 -126395.23 850228.4 -167148.75 -193494.84 -207482.45
-90402.23 1.4785862e+06 -488027.84 162039.83 893495.5 -442541.25 -94488.77 646852.0
978201.6 1.3301154e+06 1.2253132e+06 821523.75 553183.1 -380274.38 -425049.9 717280.0
984122.75 365189.0 1.0533508e+06 -315144.47 801796.2 -502518.2 -111926.69 1.0658604e+06
00000000: b15b 20c9 30c7 0ac9 7a17 9749 c93f c349
00000010: 87f6 8cc7 9e4b 5a49 5ac9 9b49 4aa3 9849
00000020: 8c7e 52c9 f480 70c7 f65c 2949 de7d f7c8
00000030: 78d4 3f49 e5c2 0149 c7e1 1cc8 1f86 2549
00000040: 6b52 b4c8 2689 8d48 b38b b048 8552 8fc8
00000050: 33df 8549 210c c4c7 256e 3ac8 51ef 65c8
00000060: 2a45 8249 0cc2 1bc8 7a7b 7549 28e5 9e48
00000070: e55c b4c8 16a8 a349 d108 a349 7b08 c1c6
00000080: bc5b 3ac8 e0e4 cac8 6ec8 4e49 d0d4 3bc8
00000090: 6dd3 4cc8 f307 d247 7eb6 b6c8 dea4 1fc8
000000a0: a4fc b9c8 5f9f 48c7 d385 33c9 e710 5349
000000b0: b553 2e49 29b5 82c8 9eca 6249 0158 9e49
000000c0: 5530 8e49 03e6 6dc8 0635 5148 be04 78c9
000000d0: c68c 3349 886b 9f49 b4b0 8fc7 bd61 3a49
000000e0: f0d0 00c9 a670 81c8 a0e6 1dc8 3642 1549
000000f0: 4bbc 16c8 873f 2f49 e7b1 7bc7 aa2d a1c8
00000100: f201 c649 ea48 05c9 5a4d c8c7 7d5f a8c8
00000110: c2ff a0c7 01c8 32c9 3fa6 73c7 19c8 b0c8
00000120: 11aa 1749 6a00 1049 3071 bbc8 e144 a649
00000130: 5bb3 1bc8 8cf7 4349 84fe 0149 3887 3749
00000140: 6837 86c8 d838 13c9 bdec 4d49 413a 8649
00000150: f5a0 60c8 d161 2049 6fbb 84c8 91c5 c0c7
00000160: aadd a149 f492 dac8 3090 3049 4e6f aac7
00000170: 7918 c1c8 4823 4ec9 266a 5c49 aaa8 5549
00000180: 712e 5c49 19f3 9149 556d 8349 9ddd f6c7
00000190: 4693 4f49 303b 23c8 b6f5 3cc8 9d9e 4ac8
000001a0: 1d91 b0c7 d27d b449 7b4b eec8 f53d 1e48
000001b0: 7823 5a49 a815 d8c8 638c b8c7 40ec 1d49
000001c0: 9ad1 6e49 1b5e a249 0a93 9549 3c91 4849
000001d0: f20d 0749 4cae b9c8 3d8b cfc8 001e 2f49
000001e0: ac43 7049 a050 b248 3695 8049 0fe1 99c8
000001f0: 43c0 4349 c65e f5c8 589b dac7 231c 8249

bn1.running_var f4 [128]
4.1261426e+11 3.122383e+11 1.1125082e+12 1.7748231e+12 9.37225e+09 7.212159e+11 1.06840274e+12 1.1066194e+12
5.974386e+11 9.658477e+09 4.1486723e+11 1.7381199e+11 5.023959e+11 3.2124463e+11 2.198799e+10 4.1633867e+11
1.0045174e+11 1.0506819e+11 1.7088746e+11 6.994308e+10 8.659087e+11 1.0507798e+10 2.812365e+10 5.333997e+10
7.616527e+11 1.7665087e+10 6.6079575e+11 7.88922e+10 1.5592636e+11 1.3032752e+12 1.1897449e+12 8.268429e+09
5.2430094e+10 1.2137438e+11 4.8391068e+11 2.621891e+10 9.727967e+10 3.0914177e+10 9.873206e+10 2.2392666e+10
2.4102314e+11 6.337152e+09 4.152795e+11 4.9187016e+11 4.5684638e+11 6.7461624e+10 6.025444e+11 1.2418746e+12
1.0312136e+12 7.526934e+10 4.202593e+10 7.80618e+11 4.3992898e+11 1.1797822e+12 1.3534441e+10 4.6954018e+11
3.0908953e+11 6.982383e+10 2.007512e+10 2.727042e+11 2.136099e+10 4.0744665e+11 1.7484098e+10 7.382296e+10
1.8007276e+12 4.0577358e+11 9.02224e+09 8.227718e+10 1.2575887e+10 4.830231e+11 3.8810647e+09 1.51714e+11
2.7670928e+11 2.463945e+11 2.7447828e+11 1.3542332e+12 2.3363645e+10 4.253918e+11 1.9569341e+11 3.7174664e+11
5.7608372e+10 3.309914e+11 4.6455914e+11 7.823791e+11 4.5775856e+10 3.1442924e+11 4.866032e+10 8.986276e+09
1.1431347e+12 1.9114218e+11 3.42334e+11 3.4801373e+10 1.0732372e+11 4.983639e+11 5.415814e+11 5.960501e+11
5.779584e+11 9.585109e+11 7.607666e+11 4.9620378e+10 4.9814634e+11 2.1106926e+10 3.1823612e+10 9.61413e+10
1.2539742e+11 1.5523818e+12 1.5443318e+11 7.031559e+10 6.2075535e+11 1.9792439e+11 9.374449e+09 2.6798919e+11
7.5057555e+11 1.2393675e+12 1.03881566e+12 5.0022996e+11 2.2480691e+11 1.6608225e+11 1.5999589e+11 3.365877e+11
6.5366e+11 1.3234488e+11 7.3190756e+11 1.6140752e+11 5.506875e+11 1.752256e+11 9.589388e+09 8.4701276e+11
00000000: 7423 c052 b565 9152 5483 8153 da9d ce53
00000010: 4ca8 0b50 d1eb 2753 c4c1 7853 d4d3 8053
00000020: 1e1a 0b53 2aec 0f50 0730 c152 02e0 2152
00000030: 42f2 e952 5897 9552 c3d2 a350 70df c152
00000040: 1f1b bb51 6bb4 c351 bf26 1f52 7647 8251
00000050: 2e9c 4953 1194 1c50 9b89 d150 f6b4 4651
00000060: 0a56 3153 7b9d 8350 7fda 1953 bcf2 9251
00000070: be37 1152 a1b8 9753 2981 8a53 1b6b f64f
00000080: 3c51 4351 d013 e251 a656 e152 9a58 c350
00000090: 9032 b551 1d54 e650 1de7 b751 9fd6 a650
000000a0: 6578 6052 a2dc bc4f 2d61 c152 7e0b e552
000000b0: 55bc d452 6b50 7b51 724a 0c53 bf92 9053
000000c0: 1f19 7053 3833 8c51 0d8f 1c51 75c0 3553
000000d0: 9fdb cc52 4058 8953 ccad 4950 8da5 da52
000000e0: 58ee 8f52 990e 8251 4192 9550 bff9 7d52
000000f0: db26 9f50 6dbb bd52 4544 8250 8881 8951
00000100: dda1 d153 fbf3 bc52 1d71 0650 d140 9951
00000110: 3465 3b50 d7ec e052 5954 674f 704b 0d52
00000120: 51da 8052 0779 6552 b9a0 7f52 4ba7 9d53
00000130: 9e12 ae50 a716 c652 f240 3652 a71b ad52
00000140: a09b 5651 4021 9a52 c453 d852 6e29 3653
00000150: 4287 2a51 e36a 9252 1946 3551 ece7 0550
00000160: 1214 8553 d903 3252 6569 9f52 2da5 0151
00000170: f0e7 c751 9b11 e852 8931 fc52 5bc7 0a53
00000180: 0191 0653 b42b 5f53 3921 3153 aed9 3851
00000190: acf7 e752 4442 9d50 b91a ed50 bf13 b351
000001a0: 2692 e951 95b8 b453 bdd3 0f52 16f9 8251
000001b0: e787 1053 da54 3852 afb0 0b50 9a95 7952
000001c0: cac1 2e53 0848 9053 3dde 7153 0ff0 e852
000001d0: 255e 5152 18ad 1a52 fe01 1552 61bc 9c52
000001e0: 2c31 1853 f582 f651 1769 2a53 8d52 1652
000001f0: 8837 0053 0a31 2352 9de4 0e50 e535 4553

fc2.weight f4 [128, 128]
0.06807717 0.032031104 -0.041317374 0.04577498 -0.1006736 0.097071186 -0.036253337 -0.017305002
-0.08619589 0.05074268 0.049538925 -0.0914561 -0.054860283 0.0013636376 0.086393215 0.033128414
-0.007699009 -0.070062205 0.023035847 -0.022145016 0.09526385 0.041202854 -0.038877893 0.04423953
0.02911648 0.04178075 -0.040174987 0.073269516 -0.06770239 0.028577859 -0.02307632 0.07613074
0.0708114 0.01352753 -0.01680922 -0.0616786 0.059117608 -0.10115568 -0.07276592 -0.06276841
0.023969904 0.0104716625 -0.0041462136 -0.031034755 0.08643563 0.033442847 0.011899056 -0.0007857493
0.07260796 -0.01274897 0.063309684 -0.08045114 -0.012190787 -0.060636587 0.030981457 -0.007837401
-0.0067684464 -0.066092655 0.0042968243 0.095330864 -0.046800736 -0.028154816 -0.057132155 -0.08611019
-0.05845918 -0.099193536 -0.000123209 0.016536567 0.07904734 -0.036752768 0.04440194 0.01485725
-0.058388606 0.030700121 -0.0049797087 0.09031846 0.0040797563 0.028014671 0.025631065 -0.005969232
-0.04588858 -0.08701286 0.07407828 -0.0564282 -0.004261914 0.09628866 -0.09026904 0.043608062
0.005621514 0.049112607 -0.049809918 -0.054262336 0.006818304 -0.06854711 0.056444224 0.009186528
0.06896171 0.00858495 0.063185535 -0.10156864 -0.02197506 -0.047897458 -0.037732333 0.058598265
-0.052627657 0.028217759 -0.050156888 -0.022126658 -0.031760506 -0.04193471 -0.09376688 -0.10101944
0.029583879 0.09593057 0.037629887 0.04345261 0.012150161 -0.016270962 -0.018683663 -0.048019573
-0.059255473 -0.065183476 0.05804343 0.03453834 -0.017753104 -0.0708104 0.028000139 0.072743535
0.028860576 -0.07264672 0.0073064994 0.0005040803 -0.011740461 -0.011439502 0.09517588 0.068348214
-0.029696038 0.035870794 -0.08108221 -0.051438447 0.004389301 0.067196675 -0.025456298 0.0651525
-0.0767592 -0.017159374 0.08782354 0.048715558 0.01723532 0.05552222 0.0065326253 -0.01126695
-0.062399343 -0.049121413 0.061487235 -0.016578816 -0.07618213 0.07057562 0.05549006 -0.035461016
-0.0554135 0.029875394 -0.022878388 -0.05579478 0.07050475 -0.053581666 -0.062122423 -0.10777188
-0.080104016 0.05859269 0.016581178 0.10571426 0.044987336 0.0049455916 0.08987049 0.08285228
-0.052491184 -0.050002642 0.07584752 -0.01154945 0.07220925 0.00275061 -0.005719212 0.015647626
0.03804478 -0.007674092 -0.044756625 0.0731273 -0.0144952955 0.07705294 -0.08642435 -0.022610817
-0.07924246 0.008477765 0.010088351 -0.07067108 0.011457213 -0.03989712 0.0020786445 -0.06331801
0.08165683 -0.015933573 0.02059574 0.059768792 -0.0853316 -0.05622917 -0.0587779 -0.042957675
0.052554622 0.06451777 0.06646535 -0.028670842 0.01898062 -0.02879499 -0.11091389 0.05217532
-0.011752599 -0.032047376 0.03385762 0.069094375 0.077263646 0.053601336 0.0765245 0.08060276
-0.0032650342 0.026813203 0.08864464 -0.02553537 -0.02303547 -0.09621698 0.0092665665 -0.02672857
-0.050565086 -0.073667206 0.02286884 -0.02905162 -0.046411987 -0.06871503 -0.04989993 0.062347945
-0.068927824 0.09175999 -0.017746182 -0.023718396 -0.067744315 0.0790183 -0.037817657 0.011239392
-0.0049758656 0.057989366 0.051355425 0.040175706 -0.007286289 -0.082734495 0.0027123862 0.034404866
00000000: 0b6c 8b3d 0c33 033d 683c 29bd 8c7e 3b3d
00000010: f62d cebd 42cd c63d 617e 14bd 38c3 8dbc
00000020: 7987 b0bd 8ed7 4f3d 54e9 4a3d 564d bbbd
00000030: 2db5 60bd 16bc b23a edee b03d a9b1 073d
00000040: f847 fcbb c67c 8fbd acb5 bc3c 7769 b5bc
00000050: b219 c33d 53c4 283d 6d3e 1fbd 8234 353d
00000060: af85 ee3c 4b22 2b3d 878e 24bd 540e 963d
00000070: 8da7 8abd 1d1c ea3c 8d0a bdbc 6fea 9b3d
00000080: 9105 913d 93a2 5d3c 7db3 89bc b3a2 7cbd
00000090: 4e25 723d b62a cfbd 4c06 95bd b98c 80bd
000000a0: 885c c43c 5691 2b3c f6dc 87bb 993c febc
000000b0: 2a05 b13d 5efb 083d 42f4 423c befa 4dba
000000c0: 7bb3 943d 0ee1 50bc 82a8 813d 91c3 a4bd
000000d0: debb 47bc 125e 78bd d3cc fd3c 7168 00bc
000000e0: d8c9 ddbb 965b 87bd 60cc 8c3b d43c c33d
000000f0: 21b2 3fbd eea4 e6bc 6803 6abd 8a5a b0bd
00000100: e572 6fbd fb25 cbbd aa31 01b9 b277 873c
00000110: 92e3 a13d 128a 16bd cfde 353d d36b 733c
00000120: e428 6fbd d27e fb3c d32c a3bb e2f8 b83d
00000130: 7aaf 853b 067f e53c 3df8 d13c 8c99 c3bb
00000140: aaf5 3bbd cc33 b2bd 5ab6 973d 4221 67bd
00000150: 87a7 8bbb fd32 c53d f9de b8bd 5e9e 323d
00000160: ad34 b83b 4d2a 493d 7c05 4cbd 2f42 5ebd
00000170: 146c df3b 6d62 8cbd 0f32 673d 1783 163c
00000180: cc3b 8d3d e4a7 0c3c 6b67 813d 3803 d0bd
00000190: 0b05 b4bc 2030 44bd 388d 1abd bc04 703d
000001a0: 1990 57bd ee28 e73c 4f71 4dbd f742 b5bc
000001b0: 4e17 02bd bbc3 2bbd da08 c0bd 48e3 cebd
000001c0: e459 f23c 3f77 c43d cc21 1a3d 5dfb 313d
000001d0: 7811 473c ae4a 85bc 7b0e 99bc 2cb0 44bd
000001e0: deb5 72bd ea7e 85bd f3be 6d3d 1378 0d3d
000001f0: f56e 91bc 0b05 91bd 8c60 e53c 90fa 943d
00000200: 046d ec3c cec7 94bd 5c6b ef3b 4224 043a
00000210: 105b 40bc c06c 3bbc 92eb c23d 26fa 8b3d
00000220: 1b45 f3bc 41ed 123d 6e0e a6bd 1fb1 52bd
00000230: 20d4 8f3b 699e 893d ba89 d0bc ad6e 853d
00000240: ed33 9dbd d191 8cbc d4dc b33d f789 473d
00000250: 1631 8d3c 446b 633d a20f d63b 0399 38bc
00000260: 7496 7fbd 8933 49bd 0ada 7b3d 4cd0 87bc
00000270: 6005 9cbd f389 903d 8c49 633d 923f 11bd
00000280: 44f9 62bd 3ebd f43c 756b bbbc 1189 64bd
00000290: cb64 903d 7378 5bbd 1574 7ebd 81b7 dcbd
000002a0: 930d a4bd e3fe 6f3d 40d5 873c b880 d83d
000002b0: a444 383d a10e a23b 050e b83d 75ae a93d
000002c0: ff00 57bd 92cf 4cbd f255 9b3d e839 3dbc
000002d0: 71e2 933d 9443 343b 3a68 bbbb 732f 803c
000002e0: d8d4 1b3d f376 fbbb b952 37bd c4c3 953d
000002f0: ad7d 6dbc efcd 9d3d 40ff b0bd 523a b9bc
00000300: df49 a2bd 53e6 0a3c 9c49 253c 00bc 90bd
00000310: 09b7 3b3c 2a6b 23bd de39 083b dfac 81bd
00000320: b23b a73d 2087 82bc 66b8 a83c 1fd0 743d
00000330: 55c2 aebd 8f50 66bd 18c1 70bd 63f4 2fbd
00000340: 8443 573d e521 843d fc1e 883d 1ddf eabc
00000350: 3f7d 9b3c 79e3 ebbc d226 e3bd cab5 553d
00000360: f98d 40bc 1c44 03bd 4aae 0a3d 5a81 8d3d
00000370: 673c 9e3d 138d 5b3d e1b8 9c3d 0f13 a53d
00000380: 2ffa 55bb 5da7 db3c 528b b53d 8d2f d1bc
00000390: e2b4 bcbc 680d c5bd ccd2 173c e0f5 dabc
000003a0: 561d 4fbd d5de 96bd 6f57 bb3c aafd edbc
000003b0: 7f1a 3ebd 77ba 8cbd de63 4cbd 8f60 7f3d
000003c0: 082a 8dbd a9ec bb3d 7160 91bc 154d c2bc
000003d0: 88bd 8abd 59d4 a13d b0e6 1abd 6d25 383c
000003e0: 960c a3bb 4286 6d3d 115a 523d 488f 243d
000003f0: d2c1 eebb b470 a9bd 4ac2 313b 1eec 0c3d

fc2.bias f4 [128]
-0.053901643 0.028644854 -0.056879092 -0.037151515 0.004895556 -0.060236957 -0.08229311 -0.054766517
0.06677924 0.037405122 0.047448777 0.067707114 -0.046524208 0.054079082 0.026382172 0.062694855
-0.07519566 0.034107223 -0.053306296 -0.05411735 0.005800375 -0.046020765 -0.022374392 0.057497278
0.069485724 -0.01751538 -0.050245937 0.068742216 -0.02780997 -0.033928894 -0.036360163 -0.04508882
0.0030630731 -0.013967627 -0.0713296 -0.0026331716 -0.026155379 -0.025568372 -0.023626756 0.009610766
0.05705687 -0.06969388 0.031114431 -0.008805979 -0.055904556 0.061536565 0.034169078 0.023919007
0.08685248 -0.0045872014 0.079376005 -0.04780026 0.024552835 0.037616264 -0.02543599 -0.0484985
0.025688682 -0.00028598943 0.0893951 0.019925479 0.026330264 0.08698206 0.0074155424 -0.06398221
-0.045850977 0.06356484 0.08034246 0.0738612 0.060314048 0.0042553055 -0.0046047885 -0.05208039
-0.02273727 -0.010216544 0.05218996 0.01827948 0.007221289 0.061894543 -0.025385993 0.010897543
-0.042601787 -0.033460375 -0.032873265 0.07363085 -0.024759816 -0.06040779 -0.018545775 -0.06117015
-0.01943582 0.023378879 -0.05503871 0.053316247 0.059596613 0.013730953 -0.06537481 0.06449066
-0.0098943645 0.051505893 -0.05846217 0.067632094 -0.077429 0.038684852 -0.044106837 -0.043844983
0.013785141 0.023405727 0.03297603 0.0669324 0.008296961 0.08410486 0.031391796 -0.003271371
0.054018244 0.025449075 0.07369708 0.0011693764 0.002686982 0.06217742 0.024552308 0.07567107
0.024538713 0.07247653 -0.028345753 0.0063555934 -0.06594004 -0.05115578 0.050905645 -0.04612428
00000000: f8c7 5cbd 9da8 ea3c 0dfa 68bd 302c 18bd
00000010: e66a a03b 07bb 76bd 4a89 a8bd db52 60bd
00000020: 8ec3 883d 1d36 193d a659 423d 07aa 8a3d
00000030: 2b90 3ebd 0782 5d3d 6d1f d83c 2966 803d
00000040: 2f00 9abd 04b4 0b3d b457 5abd 28aa 5dbd
00000050: 1211 be3b 4580 3cbd 804a b7bc 4482 6b3d
00000060: 884e 8e3d 6a7c 8fbc afce 4dbd b8c8 8c3d
00000070: bcd1 e3bc 06f9 0abd 65ee 14bd 0eaf 38bd
00000080: d7bd 483b 79d8 64bc 4115 92bd 4a91 2cbb
00000090: ce43 d6bc c374 d1bc e68c c1bc 7976 1d3c
000000a0: 77b4 693d aabb 8ebd b1e3 fe3c f446 10bc
000000b0: 2dfc 64bd c40d 7c3d e0f4 0b3d cbf1 c33c
000000c0: b7df b13d 3c50 96bb e38f a23d 35ca 43bd
000000d0: 0723 c93c 8313 1a3d 235f d0bc 5da6 46bd
000000e0: 1271 d23c daf0 95b9 c714 b73d c23a a33c
000000f0: 91b2 d73c a623 b23d 14fe f23b 1b09 83bd
00000100: 3cce 3bbd 482e 823d 968a a43d 8a44 973d
00000110: dd0b 773d 1770 8b3b c4e3 96bb 3f52 55bd
00000120: 8343 babc 4b63 27bc 24c5 553d d9be 953c
00000130: 90a0 ec3b 2285 7d3d 49f6 cfbc 9c8b 323c
00000140: 367f 2ebd bf0d 09bd 1ea6 06bd c5cb 963d
00000150: 19d5 cabc 296e 77bd 4fed 97bc 8d8d 7abd
00000160: de37 9fbc 1085 bf3c 4570 61bd 2362 5a3d
00000170: 941b 743d cbf7 603c 3ae3 85bd ae13 843d
00000180: f91b 22bc d8f7 523d 0776 6fbd b282 8a3d
00000190: 1893 9ebd 0274 1e3d 5fa9 34bd cc96 33bd
000001a0: 12db 613c 5ebd bf3c e011 073d db13 893d
000001b0: faef 073c 2b3f ac3d af94 003d 7f64 56bb
000001c0: 3c42 5d3d 947a d03c 7fee 963d c345 993a
000001d0: 1418 303b c0ad 7e3d ec21 c93c 6ff9 9a3d
000001e0: 6905 c93c 936e 943d 5a35 e8bc 9542 d03b
000001f0: 920b 87bd b988 51bd 7082 503d d0ec 3cbd

bn2.weight f4 [128]
0.98467153 0.9918529 0.9830426 0.986374 1.0214761 0.9994609 0.994998 0.9798386
0.9970913 1.0077305 0.9838506 0.982988 0.9666461 1.0203652 0.98743284 0.9943067
0.98887736 1.0030961 0.9959176 0.99447584 0.9884253 1.000795 1.0194626 0.974008
0.9897615 1.0374936 0.99027425 0.9974534 0.99556535 0.99295974 0.98991686 0.9874268
0.99991184 1.0187709 0.97704846 0.997651 1.0135616 0.99682677 0.9941083 0.9958649
1.0062019 0.9729097 0.99616665 0.9907429 0.9927975 1.0068613 1.0102528 0.9888321
0.9671683 1.0026668 0.9882868 0.9930625 0.99563384 0.9917844 1.038175 0.9877047
1.0006865 0.99853987 0.99559736 1.0312747 1.0013481 1.004229 0.99547553 0.99802727
0.99108726 0.9939381 0.97586995 1.0057784 0.98594123 0.99130124 0.9856091 1.0060227
0.99483645 1.0014501 0.98380435 1.0042416 1.0057913 0.98422366 1.0251646 0.994657
0.99180305 1.0045046 1.0008849 0.9979854 0.9903485 0.99422765 0.9904516 1.0038992
1.0130711 0.9948389 0.98016644 0.989801 0.9854204 0.99477774 0.9983255 1.0120202
0.9911464 1.0050609 1.0053247 1.0162189 1.0039028 0.99608827 1.0153629 0.97511995
0.9944152 1.0062147 0.9950117 1.0026486 1.0142707 0.9783079 1.0078591 0.9883486
0.98592347 1.0004512 0.98110944 1.0013876 1.0145218 0.99002993 1.0014172 0.99346155
0.9801851 0.9899559 1.0015869 0.99523985 1.0003332 0.9923113 0.9755246 0.99777174
00000000: 6f13 7c3f 12ea 7d3f aea8 7b3f 0283 7c3f
00000010: bbbf 823f abdc 7f3f 30b8 7e3f b4d6 7a3f
00000020: 6041 7f3f 50fd 803f a2dd 7b3f 1aa5 7b3f
00000030: 1e76 773f 549b 823f 66c8 7c3f e28a 7e3f
00000040: 1127 7d3f 7465 803f 75f4 7e3f f895 7e3f
00000050: 7109 7d3f 0d1a 803f c07d 823f 9758 793f
00000060: 0261 7d3f 97cc 843f 9d82 7d3f 1b59 7f3f
00000070: 5fdd 7e3f 9c32 7e3f 316b 7d3f 01c8 7c3f
00000080: 39fa 7f3f 1667 823f d91f 7a3f 0e66 7f3f
00000090: 63bc 813f 0a30 7f3f e27d 7e3f 01f1 7e3f
000000a0: 39cb 803f 9c10 793f c704 7f3f 54a1 7d3f
000000b0: fa27 7e3f d5e0 803f f74f 813f 1a24 7d3f
000000c0: 5798 773f 6357 803f 5d00 7d3f 5839 7e3f
000000d0: dce1 7e3f 95e5 7d3f ebe2 843f 37da 7c3f
000000e0: 7f16 803f 4fa0 7f3f 78df 7e3f cf00 843f
000000f0: 2d2c 803f 938a 803f 7cd7 7e3f b77e 7f3f
00000100: e5b7 7d3f ba72 7e3f 9dd2 793f 59bd 803f
00000110: a566 7c3f ebc5 7d3f e150 7c3f 5ac5 803f
00000120: 9aad 7e3f 842f 803f 9ada 7b3f fd8a 803f
00000130: c5bd 803f 15f6 7b3f 9838 833f d7a1 7e3f
00000140: cee6 7d3f 9b93 803f ff1c 803f f97b 7f3f
00000150: 7b87 7d3f b485 7e3f 3c8e 7d3f c57f 803f
00000160: 50ac 813f c3ad 7e3f 30ec 7a3f 9963 7d3f
00000170: 8344 7c3f c1a9 7e3f 4392 7f3f e189 813f
00000180: c5bb 7d3f d6a5 803f 7bae 803f 7613 823f
00000190: e37f 803f a4ff 7e3f 69f7 813f 76a1 793f
000001a0: ff91 7e3f a5cb 803f 16b9 7e3f ca56 803f
000001b0: 9fd3 813f 6372 7a3f 8701 813f 6a04 7d3f
000001c0: 7b65 7c3f c90e 803f fd29 7b3f 782d 803f
000001d0: dadb 813f 9a72 7d3f 702e 803f 7f53 7e3f
000001e0: 69ed 7a3f c06d 7d3f 0034 803f 0ac8 7e3f
000001f0: eb0a 803f 1d08 7e3f fbbb 793f f86d 7f3f

bn2.bias f4 [128]
-0.0130534265 -0.0022978904 -0.009833074 -0.008820976 -0.0011240512 0.0070135333 -0.0015271346 -0.017935203
0.0063064033 0.005094273 -0.0063644615 -0.0062837778 -0.017579759 -0.011172343 0.0071614054 -0.0008018557
-0.0034475455 0.0013255478 -0.009536886 0.007448392 -0.012895331 0.010987491 0.0037787033 -0.016784322
-0.0057955524 0.025539136 0.009440601 0.0027413443 0.0016946312 0.002296068 0.0027108658 -0.011834006
-0.002301159 0.0011741612 -0.010595636 0.0098239295 -0.0342322 0.0022485827 0.0070762904 -0.001599537
-0.01533794 -0.008965015 0.018403416 0.008451334 0.002831512 0.005316615 0.005520913 -0.0141030075
-0.0022106513 0.0017259257 -0.008906287 -0.0019210475 -0.001657325 -0.004427259 0.028094063 0.00039187167
0.0034016995 0.006655305 -0.0037800898 0.025606995 0.0029132674 0.0027464996 0.014013013 0.003565835
-0.008158874 -0.0062671173 -0.017089764 0.00082936126 -0.0045609376 0.007062327 -0.0017552526 0.0026202528
0.008081105 -0.0053359345 -0.012853936 0.009356139 0.010416171 -0.0058227307 0.021411564 -0.016567916
-0.0025513037 0.0049481625 -0.002894405 0.00087134604 -0.003630101 -0.0013437789 0.008914623 0.0066832835
0.008107106 0.0049226917 -0.0027675978 -0.0038846189 -0.01029501 -0.0036945834 0.0026925525 0.020810023
-0.005795826 -0.005783723 0.010405638 0.015502601 0.00966383 0.0026228863 -0.007526496 -0.014594232
-0.008437072 -0.023038603 0.0023535667 0.0030871858 0.009086961 -0.0027734342 0.014939079 -0.0013441831
-0.012035998 0.008853831 0.007920813 0.005049285 0.0103277685 0.0032364926 0.0014829291 -0.008304426
-0.024134533 0.005613689 9.2869195e-05 0.0028245412 -0.011545008 -0.0071327044 -0.014142578 4.578021e-05
00000000: 0ade 55bc 3498 16bb e71a 21bc db85 10bc
00000010: e654 93ba c8d1 e53b 222a c8ba d9ec 92bc
00000020: f2a5 ce3b dced a63b f98c d0bb 26e8 cdbb
00000030: 6d03 90bc 340c 37bc 39aa ea3b a033 52ba
00000040: 37f0 61bb 01be ad3a 9940 1cbc a411 f43b
00000050: f046 53bc e104 343c 1fa4 773b 467f 89bc
00000060: 9ee8 bdbb 7337 d13c c0ac 1a3c 20a8 333b
00000070: 631e de3a a179 163b c8a8 313b 6be3 41bc
00000080: 0bcf 16bb 50e6 993a 5299 2dbc 8cf4 203c
00000090: 1037 0cbd f55c 133b 3ae0 e73b 8ea7 d1ba
000000a0: fc4b 7bbc 00e2 12bc c3c2 963c 7777 0a3c
000000b0: e390 393b 0037 ae3b c6e8 b43b 4d10 67bc
000000c0: 93e0 10bb 7538 e23a adeb 11bc a8cb fbba
000000d0: 993a d9ba 8a12 91bb 8525 e63c 2074 cd39
000000e0: 0cef 5e3b bf14 da3b 62bb 77bb c3c5 d13c
000000f0: 84ec 3e3b 9efe 333b d696 653c c9b0 693b
00000100: ccac 05bc 645c cdbb d5ff 8bbc 7e69 593a
00000110: eb73 95bb 186b e73b 8110 e6ba 8cb8 2b3b
00000120: 9c66 043c 10d9 aebb 5199 52bc 7e4a 193c
00000130: 96a8 2a3c 9bcc bebb 4e67 af3c 70b9 87bc
00000140: c633 27bb 3224 a23b 0fb0 3dbb 0b6b 643a
00000150: fde6 6dbb bd21 b0ba a40e 123c 72ff da3b
00000160: abd3 043c 884e a13b 9660 35bb 1795 7ebb
00000170: 67ac 28bc d320 72bb 8975 303b c879 aa3c
00000180: eaea bdbb 6385 bdbb 697c 2a3c 9ffe 7d3c
00000190: 0a55 1e3c bbe4 2b3b d3a0 f6bb a51c 6fbc
000001a0: a53b 0abc 74bb bcbc 4c3e 1a3b 6252 4a3b
000001b0: 7ae1 143c 81c2 35bb 0ac3 743c 4d2f b0ba
000001c0: a232 45bc a90f 113c 4cc6 013c 7974 a53b
000001d0: cd35 293c 561b 543b d85e c23a 4a0f 08bc
000001e0: c9b5 c5bc 09f3 b73b c5c2 c238 f01b 393b
000001f0: 4627 3dbc 76b9 e9bb 45b6 67bc 2004 4038

bn2.running_mean f4 [128]
-0.20728011 0.11544148 0.35564238 -0.045680463 -0.29804352 -0.51249474 -0.3817836 -0.3067982
-0.26958224 -0.069853306 -0.008584426 -0.17581889 -0.17748459 0.0022673914 -0.29659912 0.09759631
0.021772958 0.0042639025 0.007900342 0.16277342 0.30646476 0.14289336 0.1971204 0.10461909
-0.30147523 0.022704342 -0.3560341 -0.13744096 -0.02264316 -0.46648914 -0.25652477 -0.19549409
-0.026975151 0.18420455 0.02997991 0.15590966 -0.065187596 -0.2716698 -0.1773117 0.33095893
-0.1712489 -0.524939 0.1374319 0.081654295 -0.12585571 -0.39790857 -0.12202698 0.064378545
0.08668478 -0.17817616 -0.22047281 -0.025361765 -0.4090908 -0.6642144 -0.013694038 0.009598427
0.035553247 -0.22108388 -0.12898771 0.36760017 -0.17158133 -0.3484702 -0.39539495 -0.53190255
0.30184245 -0.17705277 -0.4195419 0.5155721 0.15073165 -0.27369446 0.039647996 -0.03014706
-0.04315925 0.017774897 -0.13024662 0.011620139 0.25746652 0.10990078 0.025916344 -0.040644474
-0.11993161 0.4484078 0.008443469 -0.13060403 0.05078093 -0.17787068 -0.22104722 -0.34472108
-0.108120956 0.20146658 -0.16613215 -0.009751973 0.34214067 -0.1176922 -0.2524524 -0.021658834
0.070576385 -0.22661921 0.040316463 0.047153357 -0.25988522 -0.1531321 0.099762194 -0.41911983
-0.32896695 0.050461702 0.39945054 -0.22093883 -0.21502589 -0.051127817 -0.030703776 -0.03422164
0.11884175 0.08043653 0.011047551 -0.7716945 0.12635034 -0.17370453 0.19014327 0.15350017
-0.05311233 0.053597286 -0.26599163 -0.2918717 0.059041217 0.056832455 0.07923795 0.7010861
00000000: 3d41 54be 956c ec3d c216 b63e 701b 3bbd
00000010: 2999 98be db32 03bf 2479 c3be a714 9dbe
00000020: af06 8abe 400f 8fbd b1a5 0cbc de09 34be
00000030: 85be 35be 8498 143b d7db 97be 93e0 c73d
00000040: 345d b23c 35b8 8b3b 7070 013c 13ae 263e
00000050: f3e8 9c3e a352 123e eed9 493e 8942 d63d
00000060: f65a 9abe 75fe b93c 1a4a b6be 53bd 0cbe
00000070: 267e b9bc aad7 eebe 3757 83be 9a2f 48be
00000080: fefa dcbc 1ea0 3c3e 6e98 f53c c8a6 1f3e
00000090: 1381 85bd 4e18 8bbe 3391 35be 7373 a93e
000000a0: df5b 2fbe 6762 06bf f3ba 0c3e 5e3a a73d
000000b0: 52e0 00be acba cbbe 48e9 f9bd e6d8 833d
000000c0: ca87 b13d d073 36be a0c3 61be 7ac3 cfbc
000000d0: 5974 d1be f409 2abf f55c 60bc b942 1d3c
000000e0: 48a0 113d d063 62be 5b15 04be 1736 bc3e
000000f0: 04b3 2fbe b06a b2be 3571 cabe c42a 08bf
00000100: 188b 9a3e 524d 35be 32ce d6be 88fc 033f
00000110: 6659 1a3e ae21 8cbe f065 223d f8f6 f6bc
00000120: c1c7 30bd a99c 913c 5f5f 05be 6562 3e3c
00000130: a7d2 833e a913 e13d 834e d43c d27a 26bd
00000140: b49e f5bd b595 e53e 7a56 0a3c 10bd 05be
00000150: aaff 4f3d bb23 36be 345a 62be 487f b0be
00000160: 856e ddbd 414d 4e3e 8c1e 2abe bdc6 1fbc
00000170: 102d af3e 9c08 f1bd 7141 81be de6d b1bc
00000180: 5a8a 903d de0e 68be e022 253d e123 413d
00000190: ad0f 85be a9ce 1cbe 1f50 cc3d e096 d6be
000001a0: 5b6e a8be eeb0 4e3d c884 cc3e ca3d 62be
000001b0: bf2f 5cbe 676b 51bd 7c86 fbbc fe2b 0cbd
000001c0: 4e63 f33d e8bb a43d ca00 353c c58d 45bf
000001d0: fc61 013e 9adf 31be ebb4 423e 262f 1d3e
000001e0: 518c 59bd d488 5b3d 0e30 88be 3570 95be
000001f0: 34d5 713d 26c9 683d 8247 a23d 617a 333f

bn2.running_var f4 [128]
0.7925656 0.82275647 0.7953369 0.15674028 0.025930205 0.73369354 0.43212968 1.0423313
0.7650253 0.07969091 0.043986887 0.25890663 0.16476695 0.036648378 0.32050577 1.0897089
0.6692892 0.045873515 0.07215531 0.30784088 0.53637785 0.3408811 0.090322286 0.61418766
0.47626862 0.073188275 0.0982201 0.10902687 0.40852395 0.26660907 0.086348385 0.60500723
0.04702926 0.018312981 0.3900792 0.05397913 0.010745873 0.25750425 0.36831066 0.8281905
0.0228904 0.182552 0.8164065 0.23035212 0.26717436 0.17598912 0.10077279 0.09687016
0.25896987 0.08839447 0.45405674 0.887266 0.30100122 0.83081937 0.088820554 0.26231253
0.031853884 0.2583393 0.7159593 0.07659894 0.0128943855 0.35278767 0.057991873 0.6237866
0.04394375 0.08439025 0.34454033 0.030344874 0.15813476 0.1050853 0.087447315 0.015295881
0.35163307 0.32858697 0.58414406 0.46729627 0.035791133 0.11227585 0.20957436 0.015009447
0.35860905 0.05965567 0.033007674 0.10084958 0.15217517 0.37367937 0.35956085 0.54605085
0.1274573 0.2957727 0.58207864 0.33766237 0.16449453 0.3014413 0.11685662 0.10963038
0.050183106 0.067024246 0.118645504 0.060687643 1.0880512 0.52736247 0.00526093 0.35568297
0.08707676 0.0053287805 0.115441464 0.5799755 0.22716464 0.38649496 0.43362445 0.55782264
0.39293972 0.053494472 0.2907348 0.5355849 0.07812818 0.50570625 0.98927 0.0810775
0.026353588 0.3888469 0.29593822 0.18865237 0.1609982 0.27191827 0.035200946 0.20578158
00000000: 94e5 4a3f 2ba0 523f 339b 4b3f 8680 203e
00000010: 956b d43c 57d3 3b3f 1a40 dd3e 1d6b 853f
00000020: b3d8 433f fd34 a33d 982b 343d 698f 843e
00000030: abb8 283e 9c1c 163d 5519 a43e 957b 8b3f
00000040: 8956 2b3f dee5 3b3d 2ac6 933d 529d 9d3e
00000050: 0f50 093f f887 ae3e e4fa b83d 673b 1d3f
00000060: 7bd9 f33e bce3 953d 9f27 c93d 7b49 df3d
00000070: 0d2a d13e fc80 883e 6cd7 b03d c1e1 1a3f
00000080: c1a1 403d 1b05 963c 76b8 c73e 3819 5d3d
00000090: 750f 303c 99d7 833e 3793 bc3e 4b04 543f
000000a0: a684 bb3c e9ee 3a3e 0400 513f 6de1 6b3e
000000b0: 14cb 883e 7e36 343e f761 ce3d dd63 c63d
000000c0: b397 843e 2908 b53d 207a e83e dd23 633f
000000d0: d51c 9a3e 94b0 543f 8de7 b53d d44d 863e
000000e0: 3879 023d 0c45 843e 1c49 373f e8df 9c3d
000000f0: f942 533c 96a0 b43e e388 6d3d 7bb0 1f3f
00000100: 5dfe 333d ccd4 ac3d 9767 b03e d095 f83c
00000110: 14ee 213e f636 d73d 9417 b33d 939b 7a3c
00000120: 4009 b43e 8d3c a83e 778a 153f 7541 ef3e
00000130: b999 123d e1f0 e53d a99a 563e 2fea 753c
00000140: 9b9b b73e 8159 743d 0e33 073d 398a ce3d
00000150: cfd3 1b3e e752 bf3e 5c18 b83e fdc9 0b3f
00000160: 2b84 023e 856f 973e 1b03 153f 15e2 ac3e
00000170: 4171 283e 8456 9a3e 8652 ef3d e585 e03d
00000180: cd8c 4d3d 0244 893d 6afc f23d 9b93 783d
00000190: 4345 8b3f 3a01 073f e163 ac3b 141c b63e
000001a0: 4d55 b23d 0d9d ae3b 936c ec3d 4679 143f
000001b0: d99d 683e abe2 c53e 0604 de3e 77cd 0e3f
000001c0: 652f c93e 051d 5b3d 31db 943e 181c 093f
000001d0: ab01 a03d f775 013f cc40 7d3f f60b a63d
000001e0: 7be3 d73c f116 c73e 3785 973e 162e 413e
000001f0: b6dc 243e df38 8b3e de2e 103d 68b8 523e
