10_Models/Results_Anaheim/WGAN_Congestion_discriminator_best.pth (torch, 78018 bytes, 13 tensors)

fc1.weight f4 [128, 2]
0	0xbc23d70a	-0.01
1	0x3b17000a	0.0023040795
2	0x3c23d70a	0.01
3	0xbb08be91	-0.002086554
4	0xbc23d70a	-0.01
5	0xbb03513d	-0.0020037435
6	0xbc23d70a	-0.01
7	0x3b0216d2	0.0019850028
8	0x3c23d70a	0.01
9	0x3b2a0cd6	0.0025947592
10	0xbc23d70a	-0.01
11	0xbb0335aa	-0.0020021
12	0xbc23d70a	-0.01
13	0x3b1a1f32	0.002351713
14	0x3c23d70a	0.01
15	0x3b2a0d56	0.002594789
16	0xbc23d70a	-0.01
17	0x3b16bca0	0.0023000613
18	0xbc23d70a	-0.01
19	0x3b16baec	0.0022999598
20	0xbc23d70a	-0.01
21	0x3b1723e4	0.0023062164
22	0xbc23d70a	-0.01
23	0x3b16d4b3	0.0023014962
24	0x3c23d70a	0.01
25	0xbb08d7d8	-0.0020880606
26	0xbc23d70a	-0.01
27	0xbb03c591	-0.0020106772
28	0xbc23d70a	-0.01
29	0x3b0fec2c	0.0021960838
30	0x3c23d70a	0.01
31	0xbb08c149	-0.002086716
32	0xbc23d70a	-0.01
33	0xbad32b21	-0.0016110876
34	0xbc23d70a	-0.01
35	0x3b0c102b	0.0021371942
36	0x3c23d70a	0.01
37	0x3b2f9104	0.0026789317
38	0xbc23d70a	-0.01
39	0xbb0343e1	-0.0020029473
40	0xbc23d70a	-0.01
41	0xbb0335ac	-0.0020021005
42	0x3c23d70a	0.01
43	0x3ab13a23	0.0013521354
44	0x3c23d70a	0.01
45	0x3ab11f5b	0.0013513373
46	0xbc23d70a	-0.01
47	0xbb0335aa	-0.0020021
48	0xbc23d70a	-0.01
49	0xbb03371d	-0.0020021864
50	0x3c23d70a	0.01
51	0x3b29ffa5	0.002593973
52	0xbc23d70a	-0.01
53	0xbb036604	-0.002004982
54	0x3c23d70a	0.01
55	0x3b2a14dd	0.0025952377
56	0x3c23d70a	0.01
57	0xbb08c210	-0.0020867623
58	0xbc23d70a	-0.01
59	0xbafe0cbd	-0.0019382458
60	0xbc23d70a	-0.01
61	0x3b16e686	0.0023025586
62	0x3c23d70a	0.01
63	0x3b2a0356	0.002594193
64	0xbc23d70a	-0.01
65	0x3afe7b7a	0.0019415461
66	0x3c23d70a	0.01
67	0x3b29f851	0.0025935362
68	0xbc23d70a	-0.01
69	0xbb033baf	-0.0020024588
70	0xbc1e79fe	-0.00967264
71	0xbb914d3a	-0.004434255
72	0xbc23d70a	-0.01
73	0xbb03940e	-0.002007726
74	0x3c23d70a	0.01
75	0xbb091a9f	-0.0020920408
76	0xbc23d70a	-0.01
77	0xbb0343e1	-0.0020029473
78	0x3c23d70a	0.01
79	0x3ab14abd	0.0013526302
80	0xbc23d70a	-0.01
81	0xbb0343e0	-0.002002947
82	0x3c23d70a	0.01
83	0x3ab121c4	0.0013514091
84	0x3c23d70a	0.01
85	0x39f3335d	0.0004638684
86	0x3c23d70a	0.01
87	0x3b2a35f8	0.002597211
88	0xbc23d70a	-0.01
89	0x3b173667	0.0023073198
90	0xbc23d70a	-0.01
91	0xbb0335ac	-0.0020021005
92	0x3c23d70a	0.01
93	0xbb08da68	-0.0020882133
94	0xbc23d70a	-0.01
95	0x3b0162ed	0.0019742802
96	0xbc23d70a	-0.01
97	0xbb0343e0	-0.002002947
98	0xbc23d70a	-0.01
99	0x3af87c25	0.0018957896
100	0x3c23d70a	0.01
101	0xbb08d753	-0.0020880296
102	0x3c23d70a	0.01
103	0xbb091668	-0.0020917896
104	0x3c23d70a	0.01
105	0xbb091ccd	-0.0020921708
106	0x3c23d70a	0.01
107	0x3b29ff15	0.0025939394
108	0x3c23d70a	0.01
109	0x3b2a3d6a	0.0025976547
110	0x3c23d70a	0.01
111	0xb9176df1	-0.00014441439
112	0x3c23d70a	0.01
113	0x3b2a0799	0.002594447
114	0x3c23d70a	0.01
115	0xbb08dc7b	-0.002088337
116	0xbc23d70a	-0.01
117	0xbb036916	-0.002005165
118	0xbc23d70a	-0.01
119	0x3b17555e	0.0023091654
120	0x3c23d70a	0.01
121	0x3b2a0fbc	0.002594932
122	0x3c23d70a	0.01
123	0xbb08d885	-0.0020881009
124	0x3c23d70a	0.01
125	0xbb08dc26	-0.0020883172
126	0xbc23d70a	-0.01
127	0x3b172316	0.0023061684
128	0x3c23d70a	0.01
129	0x3ab14aae	0.0013526285
130	0xbc23d70a	-0.01
131	0x3b018a65	0.0019766327
132	0x3c23d70a	0.01
133	0x3b2a09d0	0.002594579
134	0xbc23d70a	-0.01
135	0x3b174b95	0.0023085822
136	0x3c23d70a	0.01
137	0xbb08d882	-0.0020881002
138	0x3c23d70a	0.01
139	0xbb08da64	-0.0020882124
140	0x3c23d70a	0.01
141	0xbb08d8c8	-0.0020881165
142	0xbc23d70a	-0.01
143	0xbb0335aa	-0.0020021
144	0x3c23d70a	0.01
145	0x3b29fbea	0.0025937506
146	0x3c23d70a	0.01
147	0xbb08dce4	-0.0020883614
148	0xbc23d70a	-0.01
149	0x3b1755af	0.0023091843
150	0xbc23d70a	-0.01
151	0x3ae09a56	0.001713584
152	0x3c23d70a	0.01
153	0xbb08d7b9	-0.0020880534
154	0xbc23d70a	-0.01
155	0x3b16d89a	0.0023017288
156	0x3c23d70a	0.01
157	0x3b2a0c9e	0.0025947462
158	0xbc23d70a	-0.01
159	0x3b176943	0.0023103512
160	0x3c23d70a	0.01
161	0xbb08c331	-0.0020868296
162	0x3c23d70a	0.01
163	0xbb08c3a9	-0.0020868576
164	0xbc23d70a	-0.01
165	0xbb03c591	-0.0020106772
166	0x3c23d70a	0.01
167	0xbb08c3aa	-0.0020868578
168	0x3c23d70a	0.01
169	0x3ab14ab9	0.0013526297
170	0xbc23d70a	-0.01
171	0xbb039ead	-0.0020083592
172	0xbc23d70a	-0.01
173	0x3b172438	0.002306236
174	0x3c23d70a	0.01
175	0x3b2a0daf	0.0025948097
176	0x3c23d70a	0.01
177	0x3b2a0c9b	0.0025947455
178	0xbc23d70a	-0.01
179	0x3b172978	0.0023065489
180	0x3c23d70a	0.01
181	0x3b2a0c95	0.002594744
182	0xbc23d70a	-0.01
183	0x3b17235e	0.0023061852
184	0x3c23d70a	0.01
185	0xbb08dc26	-0.0020883172
186	0xbc23d70a	-0.01
187	0x3b023954	0.0019870596
188	0xbc23d70a	-0.01
189	0x3b1753aa	0.002309064
190	0xbc23d70a	-0.01
191	0x3b18fa1a	0.0023342432
192	0x3c23d70a	0.01
193	0x3b2a0c1d	0.0025947161
194	0xbc23d70a	-0.01
195	0xbb02dc53	-0.001996775
196	0x3c23d70a	0.01
197	0xbb08c341	-0.0020868334
198	0x3c23d70a	0.01
199	0xbb09166a	-0.00209179
200	0xbc23d70a	-0.01
201	0xbb0319e8	-0.0020004455
202	0xbc23d70a	-0.01
203	0xbb0335a9	-0.0020020998
204	0xbc23d70a	-0.01
205	0x3b18f6ef	0.0023340543
206	0x3c23d70a	0.01
207	0x3ab14de8	0.0013527246
208	0xbc23d70a	-0.01
209	0xbac8caf2	-0.0015319271
210	0x3c23d70a	0.01
211	0xbb08f471	-0.0020897652
212	0xbc23d70a	-0.01
213	0x3b171f34	0.002305937
214	0xbc23d70a	-0.01
215	0x3b01c9d3	0.0019804134
216	0x3c23d70a	0.01
217	0x3a5426b3	0.0008092925
218	0x3c23d70a	0.01
219	0xbb091cfc	-0.0020921817
220	0x3c23d70a	0.01
221	0x3b29e807	0.0025925653
222	0x3c23d70a	0.01
223	0x3b2a11e6	0.002595061
224	0xbc23d70a	-0.01
225	0xbb0335aa	-0.0020021
226	0x3c23d70a	0.01
227	0x39b166b7	0.000338366
228	0x3b3c87c4	0.0028767446
229	0x3c23d70a	0.01
230	0xbc23d70a	-0.01
231	0x3b174b55	0.0023085673
232	0xbc23d70a	-0.01
233	0xbb0343e0	-0.002002947
234	0xbc23d70a	-0.01
235	0x3b019e9d	0.0019778379
236	0xbc23d70a	-0.01
237	0xbb0335aa	-0.0020021
238	0xbc23d70a	-0.01
239	0x3b1a24de	0.002352051
240	0xbc23d70a	-0.01
241	0xbb039e15	-0.0020083238
242	0x3c23d70a	0.01
243	0xbb08de95	-0.0020884622
244	0x3c23d70a	0.01
245	0x3b2a08f6	0.0025945283
246	0xbc23d70a	-0.01
247	0x3b171e02	0.0023058658
248	0x3b04726b	0.00202098
249	0x3bf23561	0.007391617
250	0x3c23d70a	0.01
251	0xbb08d3fb	-0.0020878303
252	0xbc23d70a	-0.01
253	0xbb0343e0	-0.002002947
254	0xbc23d70a	-0.01
255	0x3b174b0f	0.002308551

fc1.bias f4 [128]
0	0xbbf114d8	-0.007357221
1	0x3c20bd49	0.009810754
2	0xbc215c00	-0.009848595
3	0x3c204047	0.00978095
4	0x3c225811	0.009908692
5	0xbc17e38e	-0.009270562
6	0x3ba0593a	0.004893449
7	0xbc2380ea	-0.009979466
8	0x3c1f14c1	0.009709538
9	0x3c2328c4	0.00995845
10	0x3c1f8fc3	0.009738865
11	0xbc228e3b	-0.009921606
12	0xbc2180d5	-0.009857376
13	0xbc22b7a8	-0.009931482
14	0x3c232548	0.009957619
15	0xbc1e9656	-0.009679398
16	0x3c1eda80	0.009695649
17	0xbc232ee8	-0.009959914
18	0x3c208dbb	0.009799416
19	0x3c226b4b	0.009913276
20	0x3c22b74f	0.0099313995
21	0x3c20335e	0.009777872
22	0x3c23b524	0.009991918
23	0x3c2221bb	0.009895737
24	0x3c1fb1a9	0.009746947
25	0xbc21017d	-0.009827015
26	0xbc23d70a	-0.01
27	0x3c1d6f73	0.009609091
28	0x3c1e1375	0.009648194
29	0xbc221973	-0.009893763
30	0x3c1f4a36	0.009722283
31	0x3c2002e9	0.009766319
32	0xbc23c704	-0.0099961795
33	0x3c209338	0.009800725
34	0x3c1e1424	0.009648357
35	0xbc238fe5	-0.009983038
36	0xbc1bacf4	-0.009501684
37	0x3c20f613	0.009824294
38	0xbc1ae62b	-0.00945429
39	0x3c1fb105	0.009746795
40	0xbc1fcb51	-0.009753064
41	0x3c23a65d	0.009988395
42	0xbc2232e5	-0.0098998295
43	0xbc1f7dd8	-0.009734593
44	0x3c1ebaf4	0.009688128
45	0x3c21c7c7	0.009874291
46	0xbc2271a4	-0.009914789
47	0xbc22ec54	-0.00994404
48	0x3c227f4e	0.009918047
49	0xbc23d70a	-0.01
50	0xbc1fe706	-0.00975967
51	0x3c1c5609	0.009541997
52	0x3c209f93	0.00980367
53	0x3c23c135	0.009994795
54	0x3c1bdd3b	0.009513195
55	0x3c224f35	0.00990658
56	0xbc1e16ac	-0.00964896
57	0x3c1fee26	0.009761369
58	0x3c212b3b	0.009836967
59	0x3c2348fc	0.009966131
60	0xbc23b3cf	-0.0099916
61	0xbc1f5a3b	-0.009726102
62	0x3c222b67	0.009898043
63	0x3c230d24	0.009951863
64	0xbc1c6282	-0.0095449705
65	0x3c21a03d	0.009864864
66	0x3c1bdfe7	0.009513832
67	0xbc237866	-0.009977436
68	0x3c1ebfc3	0.009689274
69	0xbc2273dd	-0.009915319
70	0x3c1fefde	0.009761779
71	0x3c238f2e	0.009982867
72	0xbc22f5d3	-0.009946304
73	0x3c21f4af	0.009884997
74	0xbbdc175c	-0.006716652
75	0xbc22d35f	-0.00993809
76	0x3c215c7d	0.009848711
77	0x3c20ebe6	0.009821868
78	0xbc1f9c4c	-0.009741854
79	0x3c21b843	0.009870592
80	0xbc21b3ac	-0.009869497
81	0xbc1fd44e	-0.009755207
82	0xbc23d391	-0.009999172
83	0x3c1e2bbf	0.009653985
84	0x3c05c4f2	0.008164631
85	0xbc23a5cd	-0.00998826
86	0xbc216a22	-0.009851964
87	0x3c22fd8f	0.009948148
88	0x3c216c5c	0.009852495
89	0x3c1adcae	0.009452028
90	0xbc23754d	-0.009976697
91	0xbc21bc4d	-0.009871555
92	0x3c225516	0.009907981
93	0xbc2151be	-0.009846149
94	0xbc225539	-0.009908014
95	0xbc20d250	-0.009815767
96	0xbc215c88	-0.009848721
97	0xbc1ef0f3	-0.009701001
98	0xbc210630	-0.009828135
99	0x3c20846f	0.0097972
100	0xbc235d43	-0.009970966
101	0x3b75fbb5	0.0037534062
102	0xbc23814e	-0.009979559
103	0xbc1e3a1f	-0.009657412
104	0xbbd004d6	-0.0063482327
105	0xbc23114d	-0.009952855
106	0x3c1fb5ac	0.009747904
107	0x3c2372f2	0.009976136
108	0xbc1c5d16	-0.009543678
109	0x3c238ba0	0.00998202
110	0xbc232da3	-0.009959611
111	0xbc233d87	-0.0099634
112	0x3c2221bb	0.009895737
113	0xbc177fc9	-0.009246775
114	0xbc1d2594	-0.009591479
115	0x3c1e32b8	0.009655647
116	0xbc1a788c	-0.009428155
117	0x3c1e8a74	0.0096765645
118	0xbc1e2d84	-0.009654406
119	0x3c22fba1	0.009947688
120	0xbc1f5d84	-0.009726886
121	0x3c223ecb	0.009902666
122	0xbc1f3e9e	-0.009719519
123	0x3c2371e5	0.009975885
124	0x3c2322c8	0.009957023
125	0xbc22a24c	-0.00992639
126	0x3c222452	0.009896355
127	0xbc237229	-0.009975948

bn1.weight f4 [128]
0	0x3c23d70a	0.01
1	0x3c23d70a	0.01
2	0x3c23d70a	0.01
3	0x3c23d70a	0.01
4	0x3c233926	0.009962356
5	0x3c23d70a	0.01
6	0x3c23d70a	0.01
7	0x3c23369a	0.0099617485
8	0x3c23d70a	0.01
9	0x3c23d70a	0.01
10	0x3c23d70a	0.01
11	0x3c23d70a	0.01
12	0x3c23d70a	0.01
13	0x3c23d70a	0.01
14	0x3c23d70a	0.01
15	0x3c23d70a	0.01
16	0x3c23d70a	0.01
17	0x3c23d70a	0.01
18	0x3c23458c	0.009965312
19	0x3c23d70a	0.01
20	0x3c23d70a	0.01
21	0x3c237a8d	0.009977949
22	0x3c237ab5	0.009977986
23	0x3c23d70a	0.01
24	0x3c23d70a	0.01
25	0x3c23395f	0.009962409
26	0x3c23d70a	0.01
27	0x3c233780	0.009961963
28	0x3c23d70a	0.01
29	0x3c23d70a	0.01
30	0x3c23d70a	0.01
31	0x3c23395e	0.009962408
32	0x3c23d70a	0.01
33	0x3c233962	0.009962412
34	0x3c23d70a	0.01
35	0x3b8be960	0.004269764
36	0x3c23d70a	0.01
37	0x3c23d70a	0.01
38	0x3c23d70a	0.01
39	0x3c237a90	0.009977952
40	0x3c23d70a	0.01
41	0x3c237a97	0.009977958
42	0x3c23d70a	0.01
43	0x3c233946	0.0099623855
44	0x3c23d70a	0.01
45	0x3c23d70a	0.01
46	0x3c23d70a	0.01
47	0x3c23d70a	0.01
48	0x3c23d70a	0.01
49	0x3c23d70a	0.01
50	0x3c23d70a	0.01
51	0x3c23d70a	0.01
52	0x3c23d70a	0.01
53	0x3c233960	0.00996241
54	0x3c2334f7	0.009961358
55	0x3c23d70a	0.01
56	0x3c233699	0.009961748
57	0x3c23d70a	0.01
58	0x3c23d70a	0.01
59	0x3c23d70a	0.01
60	0x3c233699	0.009961748
61	0x3c23d70a	0.01
62	0x3c23d70a	0.01
63	0x3c23d70a	0.01
64	0x3c237a90	0.009977952
65	0x3c23d70a	0.01
66	0x3c233a43	0.009962621
67	0x3c23d70a	0.01
68	0x3c23d70a	0.01
69	0x3c23d70a	0.01
70	0x3c23d70a	0.01
71	0x3c23d70a	0.01
72	0x3c233961	0.009962411
73	0x3c23d70a	0.01
74	0x3c23d70a	0.01
75	0x3c23d70a	0.01
76	0x3c23d70a	0.01
77	0x3c23d70a	0.01
78	0x3c23369b	0.009961749
79	0x3c23d70a	0.01
80	0x3c23d70a	0.01
81	0x3c23d70a	0.01
82	0x3c23d70a	0.01
83	0x3c23d70a	0.01
84	0x3c237a90	0.009977952
85	0x3c23d70a	0.01
86	0x3c23d70a	0.01
87	0x3c233959	0.009962403
88	0x3c23369b	0.009961749
89	0x3c23d70a	0.01
90	0x3c23369b	0.009961749
91	0x3c23d70a	0.01
92	0x3c23d70a	0.01
93	0x3c23d70a	0.01
94	0x3c23d70a	0.01
95	0x3c23d70a	0.01
96	0x3c23369b	0.009961749
97	0x3c23d70a	0.01
98	0x3c23d70a	0.01
99	0x3c23d70a	0.01
100	0x3c23d70a	0.01
101	0x3c23d70a	0.01
102	0x3c23d70a	0.01
103	0x3c237a8e	0.00997795
104	0x3c23d70a	0.01
105	0x3c23d70a	0.01
106	0x3c23d70a	0.01
107	0x3c23d70a	0.01
108	0x3c23b32f	0.009991451
109	0x3c23d70a	0.01
110	0x3c2336c6	0.0099617895
111	0x3c233a43	0.009962621
112	0x3c23d70a	0.01
113	0x3c23d70a	0.01
114	0x3c23d70a	0.01
115	0x3c23d70a	0.01
116	0x3c23d70a	0.01
117	0x3c23d70a	0.01
118	0x3c23d70a	0.01
119	0x3c23d70a	0.01
120	0x3c23d70a	0.01
121	0x3c23d70a	0.01
122	0x3c23395c	0.009962406
123	0x3c23d70a	0.01
124	0x3c23d70a	0.01
125	0x3c23d70a	0.01
126	0x3c23d70a	0.01
127	0x3c23d70a	0.01

bn1.bias f4 [128]
0	0x3b65e4ad	0.0035078928
1	0x3b98263a	0.004643229
2	0x3b961fa0	0.0045814067
3	0x3b9227a2	0.004460291
4	0x3b7c8ab4	0.0038534822
5	0x3b96cc02	0.0046019563
6	0x3b60b1cc	0.0034285663
7	0x3b7da4b5	0.003870291
8	0x3b66c768	0.003521407
9	0x3b66b9a0	0.0035205856
10	0x3b66260c	0.0035117893
11	0x3b659a30	0.003503453
12	0x3b97eb77	0.004636224
13	0x3b9491df	0.0045339908
14	0x3b804024	0.003913896
15	0x3b982524	0.0046430994
16	0x3bc5fb49	0.0060419184
17	0x3b87c534	0.0041433815
18	0x3b8957b4	0.004191363
19	0x3b9631ca	0.004583572
20	0x3b96cbfe	0.0046019545
21	0x3bdcf113	0.0067426055
22	0x3bdcf230	0.006742738
23	0x3b96cc00	0.0046019554
24	0x3b96e058	0.0046043806
25	0x3b7caddb	0.0038555774
26	0x3b96655e	0.0045897206
27	0x3b7d3b1a	0.0038639964
28	0x3b9828ae	0.0046435213
29	0x3ba75b35	0.0051073083
30	0x3b6634fb	0.0035126794
31	0x3b7cb66a	0.0038560876
32	0x3b96b291	0.0045989235
33	0x3b7c7871	0.0038523937
34	0x3b96dc96	0.0046039326
35	0xbc23d70a	-0.01
36	0x3b97c496	0.004631589
37	0x3b97adca	0.0046288716
38	0x3b9631ce	0.004583574
39	0x3bdcd963	0.0067397817
40	0x3b9631ce	0.004583574
41	0x3bdce90c	0.0067416485
42	0x3c0bd13d	0.008533773
43	0x3b7c7848	0.0038523842
44	0x3b662129	0.003511498
45	0x3b96cbfc	0.0046019536
46	0x3b97f0e7	0.004636872
47	0x3b93388f	0.0044928263
48	0x3b96316a	0.0045835273
49	0x3b98cd3c	0.0046631377
50	0x3b97eaee	0.00463616
51	0x3b97aab0	0.004628502
52	0x3b97b062	0.0046291808
53	0x3b7cab54	0.0038554268
54	0x3b7e8b5a	0.0038840384
55	0x3c0fb7b5	0.0087718265
56	0x3b7d7579	0.0038674755
57	0x3b97dd43	0.0046345307
58	0x3b964884	0.0045862813
59	0x3b65434a	0.0034982734
60	0x3b7da553	0.0038703277
61	0x3b97ed37	0.0046364325
62	0x3b97f39a	0.004637194
63	0x3b661426	0.0035107224
64	0x3bdcdafb	0.0067399717
65	0x3b938b76	0.004502709
66	0x3b7c22f4	0.0038472982
67	0x3b65edb1	0.0035084302
68	0x3b97f02a	0.004636784
69	0x3b97efe1	0.00463675
70	0x3b97ed75	0.0046364614
71	0x3b96cbc8	0.0046019293
72	0x3b7c7c4b	0.0038526233
73	0x3b97dea7	0.0046346965
74	0x3b654dce	0.0034989002
75	0x3baa5c67	0.0051990035
76	0x3b97eb41	0.0046361987
77	0x3b659c3d	0.0035035752
78	0x3b7da214	0.0038701342
79	0x3b64ee56	0.0034932098
80	0x3b9826bc	0.0046432894
81	0x3b982a06	0.0046436815
82	0x3b9492d7	0.0045341062
83	0x3b982a67	0.0046437266
84	0x3bdcd969	0.0067397845
85	0x3b97925a	0.0046256008
86	0x3b661582	0.0035108034
87	0x3b7cd05a	0.0038576336
88	0x3b7da10d	0.003870073
89	0x3b65efd2	0.003508557
90	0x3b7da194	0.0038701044
91	0x3b661470	0.0035107397
92	0x3b97f3c4	0.0046372134
93	0x3b936c05	0.004498961
94	0x3b654279	0.0034982248
95	0x3b62063c	0.003448858
96	0x3b7d9863	0.0038695566
97	0x3b9b9c33	0.004748845
98	0x3b98280d	0.0046434463
99	0x3b97aab5	0.004628504
100	0x3b9b3c2d	0.004737398
101	0x3b96cc02	0.0046019563
102	0x3b62665b	0.0034545872
103	0x3bdcddcc	0.0067403074
104	0x3bcbdfee	0.006221763
105	0x3b97f44f	0.004637278
106	0x3b661427	0.0035107227
107	0x3b933fce	0.00449369
108	0x3bf97ecc	0.0076139923
109	0x3b97af49	0.00462905
110	0x3b7d642c	0.0038664443
111	0x3b7bd5a6	0.0038426905
112	0x3b96cc00	0.0046019554
113	0x3c13aef9	0.009013885
114	0x3c23d70a	0.01
115	0x3b6538db	0.0034976515
116	0x3b9631cb	0.0045835725
117	0x3b930875	0.004487092
118	0x3b96cbfc	0.0046019536
119	0x3b5efccc	0.003402519
120	0x3b97ce77	0.004632767
121	0x3b97df55	0.0046347775
122	0x3b7ca553	0.003855069
123	0x3b661490	0.003510747
124	0x3c2215d2	0.009892898
125	0x3b97ecdc	0.00463639
126	0x3b9631cb	0.0045835725
127	0x3b65ed35	0.0035084013

bn1.running_mean f4 [128]
0	0xbbeda2fc	-0.0072520953
1	0x3c250804	0.010072712
2	0xbc8cf54c	-0.01720681
3	0x3c19083d	0.009340343
4	0x3c95ee73	0.018302178
5	0xbc882f71	-0.016624184
6	0x3ba68854	0.0050821695
7	0xbacf846c	-0.0015832311
8	0x3c2091cc	0.009800386
9	0x3c24b25b	0.010052289
10	0x3c215e3e	0.009849129
11	0xbc20f6c6	-0.00982446
12	0xbc1d2ed1	-0.009593681
13	0xbc8dade2	-0.017294828
14	0x3c21c073	0.009872544
15	0xbc1a42ca	-0.009415338
16	0x3b45491e	0.0030103396
17	0xbc261fc3	-0.0101394085
18	0x3c96472d	0.018344486
19	0x3b2761a5	0.0025540378
20	0x3b28d19d	0.0025759705
21	0x3c831d52	0.016005192
22	0x3c84da92	0.016217504
23	0x3b26c09b	0.0025444392
24	0x3b1cd814	0.0023932504
25	0xbabc487e	-0.0014364866
26	0xbc8e340e	-0.017358806
27	0x3c9382c0	0.018006682
28	0x3c225843	0.009908739
29	0xbc8c797e	-0.017147776
30	0x3c20eaec	0.009821635
31	0x3c94ad34	0.018148996
32	0xbc2c17e8	-0.010503747
33	0x3c950fde	0.018196043
34	0x3b1631cc	0.0022917865
35	0xbcaf437c	-0.021394484
36	0xbc8a353e	-0.016871091
37	0x3c252ba8	0.010081209
38	0xbc89be63	-0.016814416
39	0x3c82d7ae	0.015971985
40	0xbc8c2f9d	-0.017112548
41	0x3c84d0ce	0.016212847
42	0xbbaaca75	-0.005212123
43	0xbaae5f13	-0.0013303481
44	0x3c208c05	0.009799008
45	0x3b252b77	0.002520291
46	0xbc1e354e	-0.0096562635
47	0xbc2a5e44	-0.010398451
48	0x3b27efd7	0.0025625133
49	0xbc2d8d4b	-0.010592769
50	0xbc1b8f27	-0.009494579
51	0x3c208bc9	0.009798952
52	0x3c24bab0	0.010054275
53	0x3c96ae6e	0.018393721
54	0x3c92c0f0	0.017914265
55	0x3c5ded36	0.013545325
56	0xbaa4b2ca	-0.001256549
57	0x3c2436c1	0.01002282
58	0x3b226e9b	0.0024785164
59	0x3c252f8b	0.010082136
60	0xbad0cd70	-0.0015930366
61	0xbc1b06da	-0.009462083
62	0x3c267408	0.0101595
63	0x3c24d24f	0.010059907
64	0xbb592d72	-0.003313866
65	0x3c1a23eb	0.009407978
66	0x3c92aedc	0.017905645
67	0xbc21a8ab	-0.009866874
68	0x3c231100	0.009952784
69	0xbc1e3b12	-0.009657638
70	0x3c2449bf	0.010027348
71	0x3b2c40f2	0.0026283828
72	0xbacb3436	-0.0015503231
73	0x3c2631dc	0.010143723
74	0xbbd8626c	-0.0066035297
75	0xbc319f2b	-0.010841171
76	0x3c25a68b	0.010110508
77	0x3c2255c4	0.009908143
78	0xbab0bdde	-0.0013484319
79	0x3c23993e	0.009985266
80	0xbc1d6eae	-0.009608908
81	0xbc1b8a81	-0.009493471
82	0xbc8e49d2	-0.017369185
83	0x3c227821	0.009916336
84	0x3c6bd8b3	0.014394927
85	0xbc8e1e93	-0.017348563
86	0xbc1f9e6f	-0.009742363
87	0x3c9644e5	0.018343398
88	0x3c956c0b	0.018239995
89	0x3c1c84fd	0.009553191
90	0xbacef28c	-0.0015788837
91	0xbc1ff848	-0.009763785
92	0x3c2685e6	0.01016376
93	0xbc2884d7	-0.010285578
94	0xbc20727f	-0.009792923
95	0xbc1e45e8	-0.009660222
96	0xbabf549f	-0.0014597363
97	0xbc8bb15d	-0.017052347
98	0xbc1cba14	-0.009565849
99	0x3c24ae3a	0.0100513045
100	0xbc8decd8	-0.01732485
101	0xbb6bd15c	-0.0035982942
102	0xbc210876	-0.009828677
103	0xbb6092aa	-0.0034267106
104	0xbc53151f	-0.012883454
105	0xbc1ed7bf	-0.009694993
106	0x3c21887d	0.0098592015
107	0x3c1c03ed	0.00952242
108	0xbb8b781e	-0.0042562624
109	0x3c27bbc5	0.010237639
110	0xbacd7657	-0.0015675527
111	0xbacd9628	-0.0015685009
112	0x3b26c09b	0.0025444392
113	0xbb9c9a51	-0.004779138
114	0x3c10f099	0.008846425
115	0x3c20048a	0.009766707
116	0xbc898285	-0.01678587
117	0x3c171aa8	0.009222664
118	0xbc8b4f2c	-0.017005526
119	0x3c261c0e	0.010138525
120	0xbc8bfd0c	-0.017088436
121	0x3c268882	0.010164382
122	0xbaadde18	-0.0013265042
123	0x3c253494	0.010083336
124	0x3cbf440b	0.023347875
125	0xbc1e60a0	-0.009666592
126	0x3b267f4c	0.0025405465
127	0xbc21a302	-0.009865524

bn1.running_var f4 [128]
0	0x37bd9ffc	2.2605054e-05
1	0x37bb2f8e	2.2314282e-05
2	0x37ad0b92	2.0628595e-05
3	0x37ba17dc	2.2184038e-05
4	0x37b030bb	2.1003527e-05
5	0x37ad09d0	2.0627776e-05
6	0x37be3225	2.2673115e-05
7	0x37b03136	2.100375e-05
8	0x37bd955c	2.2600107e-05
9	0x37bd950b	2.259996e-05
10	0x37bda688	2.2608103e-05
11	0x37bd981d	2.2601389e-05
12	0x37bb3394	2.2316155e-05
13	0x37ad1459	2.0632682e-05
14	0x37bc69c5	2.24606e-05
15	0x37bb3003	2.2314494e-05
16	0x37abb6e3	2.0469952e-05
17	0x37bbbf76	2.2381293e-05
18	0x37b0b6f1	2.1066024e-05
19	0x37ad0ab7	2.0628197e-05
20	0x37ad09d1	2.0627778e-05
21	0x37ab26ed	2.0402915e-05
22	0x37ab2690	2.0402746e-05
23	0x37ad09d1	2.0627778e-05
24	0x37ad09f2	2.0627838e-05
25	0x37b02f61	2.1002897e-05
26	0x37ad0ce5	2.0629212e-05
27	0x37b031bd	2.1003996e-05
28	0x37bb3025	2.2314556e-05
29	0x37acc9a3	2.0597892e-05
30	0x37bd9b59	2.2602895e-05
31	0x37b02fc0	2.100307e-05
32	0x37b9a8ed	2.213238e-05
33	0x37b02eaa	2.1002565e-05
34	0x37ad0a30	2.0627951e-05
35	0x37b71d6f	2.1829006e-05
36	0x37ad1007	2.063067e-05
37	0x37bb3ef6	2.2321456e-05
38	0x37ad0ab8	2.0628198e-05
39	0x37ab2722	2.0403011e-05
40	0x37ad0ab7	2.0628197e-05
41	0x37ab2698	2.040276e-05
42	0x37ab1842	2.0396084e-05
43	0x37b034b9	2.1005386e-05
44	0x37bda9dd	2.2609654e-05
45	0x37ad09d1	2.0627778e-05
46	0x37bb3404	2.2316359e-05
47	0x37b9fd34	2.2171625e-05
48	0x37ad0ab7	2.0628197e-05
49	0x37b92d07	2.2074686e-05
50	0x37bb337d	2.2316113e-05
51	0x37bb3e3d	2.232112e-05
52	0x37bb3f55	2.2321628e-05
53	0x37b02f56	2.1002877e-05
54	0x37b035c1	2.1005866e-05
55	0x37acbd99	2.0592286e-05
56	0x37b030a3	2.1003483e-05
57	0x37bb345d	2.231652e-05
58	0x37ad0d18	2.0629304e-05
59	0x37bdb094	2.2612781e-05
60	0x37b03173	2.1003862e-05
61	0x37bb33af	2.2316204e-05
62	0x37bb344e	2.2316493e-05
63	0x37bda659	2.2608017e-05
64	0x37ab2720	2.0403008e-05
65	0x37ba03a0	2.2174616e-05
66	0x37b03054	2.100334e-05
67	0x37bdadbe	2.261146e-05
68	0x37bb33af	2.2316204e-05
69	0x37bb3403	2.2316357e-05
70	0x37bb33bc	2.2316228e-05
71	0x37ad09d0	2.0627776e-05
72	0x37b02f04	2.1002728e-05
73	0x37bb3471	2.2316557e-05
74	0x37bdb0a2	2.2612807e-05
75	0x37b7652e	2.1862415e-05
76	0x37bb3390	2.2316148e-05
77	0x37bd98d3	2.260172e-05
78	0x37b03123	2.1003716e-05
79	0x37bdb1df	2.2613383e-05
80	0x37bb3057	2.2314647e-05
81	0x37bb306a	2.2314682e-05
82	0x37ad1459	2.0632682e-05
83	0x37bb306a	2.2314682e-05
84	0x37ab2720	2.0403008e-05
85	0x37ad10b6	2.0630989e-05
86	0x37bda68e	2.2608114e-05
87	0x37b030c3	2.1003541e-05
88	0x37b03122	2.1003714e-05
89	0x37bda78a	2.2608572e-05
90	0x37b03123	2.1003716e-05
91	0x37bda664	2.2608037e-05
92	0x37bb344e	2.2316493e-05
93	0x37ba1e18	2.2186941e-05
94	0x37bdb042	2.2612632e-05
95	0x37bdfd09	2.2648384e-05
96	0x37b03115	2.100369e-05
97	0x37ad0565	2.062572e-05
98	0x37bb3059	2.231465e-05
99	0x37bb3e3e	2.2321121e-05
100	0x37ad0933	2.062749e-05
101	0x37ad09cf	2.0627775e-05
102	0x37bdfba9	2.2647744e-05
103	0x37ab272d	2.0403031e-05
104	0x37ab821b	2.0445374e-05
105	0x37bb3873	2.2318423e-05
106	0x37bda5a5	2.260769e-05
107	0x37ba0dfa	2.2179436e-05
108	0x37aac541	2.0357433e-05
109	0x37bb3f5d	2.2321643e-05
110	0x37b02d85	2.1002032e-05
111	0x37b0310b	2.1003672e-05
112	0x37ad09d1	2.0627778e-05
113	0x37ab521c	2.0423024e-05
114	0x37bd78d4	2.258682e-05
115	0x37bdaec1	2.2611932e-05
116	0x37ad0ab7	2.0628197e-05
117	0x37ba06ec	2.2176151e-05
118	0x37ad09d1	2.0627778e-05
119	0x37be337a	2.2673736e-05
120	0x37ad10ac	2.063097e-05
121	0x37bb34ba	2.231669e-05
122	0x37b0304c	2.1003325e-05
123	0x37bda56b	2.2607584e-05
124	0x37482dc0	1.1931581e-05
125	0x37bb32eb	2.2315848e-05
126	0x37ad0ab7	2.0628197e-05
127	0x37bdada6	2.2611417e-05

fc2.weight f4 [128, 128]
0	0x3c23d70a	0.01
1	0xbc23d70a	-0.01
2	0x3c23b70b	0.009992371
3	0x3c23d70a	0.01
4	0xbc2377a7	-0.009977258
5	0x3c23b708	0.0099923685
6	0x3c23d70a	0.01
7	0xbc2377e5	-0.009977316
8	0x3c23d70a	0.01
9	0x3c23d70a	0.01
10	0x3c23d70a	0.01
11	0x3c23d70a	0.01
12	0xbc23d70a	-0.01
13	0x3c23b703	0.009992364
14	0x3c23d70a	0.01
15	0xbc23d70a	-0.01
16	0x3c23bf5e	0.009994356
17	0x3c23d70a	0.01
18	0xbc237ab5	-0.009977986
19	0x3c23b70e	0.009992374
20	0x3c23b708	0.0099923685
21	0xbc239e7f	-0.009986519
22	0xbc239e83	-0.009986523
23	0x3c23b708	0.0099923685
24	0x3c23b707	0.009992368
25	0xbc2377b4	-0.00997727
26	0x3c23b701	0.009992362
27	0xbc2377cc	-0.009977292
28	0xbc23d70a	-0.01
29	0x3c23b73a	0.009992415
30	0x3c23d70a	0.01
31	0xbc2377b5	-0.009977271
32	0x3c23d70a	0.01
33	0xbc2377a9	-0.00997726
34	0x3c23b705	0.009992366
35	0x3c0a0096	0.008422991
36	0x3c23b6dd	0.0099923285
37	0xbc23d70a	-0.01
38	0x3c23b70e	0.009992374
39	0xbc239e7b	-0.009986515
40	0x3c23b70e	0.009992374
41	0xbc239e82	-0.009986522
42	0xbc23d466	-0.00999937
43	0xbc237793	-0.009977239
44	0x3c23d70a	0.01
45	0x3c23b708	0.0099923685
46	0xbc23d70a	-0.01
47	0x3c23d70a	0.01
48	0x3c23b70e	0.009992374
49	0x3c23d70a	0.01
50	0xbc23d70a	-0.01
51	0xbc23d70a	-0.01
52	0xbc23d70a	-0.01
53	0xbc2377b4	-0.00997727
54	0xbc23780c	-0.009977352
55	0xbc23d70a	-0.01
56	0xbc2377dc	-0.009977307
57	0xbc23d70a	-0.01
58	0x3c23b702	0.009992363
59	0x3c23d70a	0.01
60	0xbc2377e3	-0.009977314
61	0xbc23d70a	-0.01
62	0xbc23d70a	-0.01
63	0x3c23d70a	0.01
64	0xbc239e7c	-0.009986516
65	0x3c23d70a	0.01
66	0xbc237792	-0.009977238
67	0x3c23d70a	0.01
68	0xbc23d70a	-0.01
69	0xbc23d70a	-0.01
70	0xbc23d70a	-0.01
71	0x3c23b708	0.0099923685
72	0xbc2377a9	-0.00997726
73	0xbc23d70a	-0.01
74	0x3c23d70a	0.01
75	0x3c23d70a	0.01
76	0xbc23d70a	-0.01
77	0x3c23d70a	0.01
78	0xbc2377e5	-0.009977316
79	0x3c23d70a	0.01
80	0xbc23d70a	-0.01
81	0xbc23d70a	-0.01
82	0x3c23b703	0.009992364
83	0xbc23d70a	-0.01
84	0xbc239e7b	-0.009986515
85	0x3c23b6dd	0.0099923285
86	0x3c23d70a	0.01
87	0xbc2377b8	-0.009977274
88	0xbc2377e4	-0.009977315
89	0x3c23d70a	0.01
90	0xbc2377e5	-0.009977316
91	0x3c23d70a	0.01
92	0xbc23d70a	-0.01
93	0x3c23d70a	0.01
94	0x3c23d70a	0.01
95	0x3c23d70a	0.01
96	0xbc2377e3	-0.009977314
97	0x3c23b6d3	0.009992319
98	0xbc23d70a	-0.01
99	0xbc23d70a	-0.01
100	0x3c23b6c6	0.009992307
101	0x3c23b708	0.0099923685
102	0x3c23d70a	0.01
103	0xbc239e7b	-0.009986515
104	0x3c23c248	0.009995051
105	0xbc23d70a	-0.01
106	0x3c23d70a	0.01
107	0x3c23d70a	0.01
108	0xbc23b256	-0.009991249
109	0xbc23d70a	-0.01
110	0xbc2377e2	-0.009977313
111	0xbc23777a	-0.009977216
112	0x3c23b708	0.0099923685
113	0xbc23d70a	-0.01
114	0xbc230de6	-0.009952044
115	0x3c23d70a	0.01
116	0x3c23b70e	0.009992374
117	0x3c23d70a	0.01
118	0x3c23b708	0.0099923685
119	0x3c23d70a	0.01
120	0x3c23b6d9	0.009992325
121	0xbc23d70a	-0.01
122	0xbc2377af	-0.009977265
123	0x3c23d70a	0.01
124	0xbc22fee7	-0.009948469
125	0xbc23d70a	-0.01
126	0x3c23b70e	0.009992374
127	0x3c23d70a	0.01
128	0xbc237b82	-0.009978177
129	0x3c23d1f0	0.0099987835
130	0x3c23d70a	0.01
131	0xbc2132f2	-0.009838806
132	0xbc2371ee	-0.009975893
133	0x3c23d70a	0.01
134	0xbc237df2	-0.009978758
135	0xbc237152	-0.009975748
136	0xbc237b20	-0.009978086
137	0xbc237b26	-0.009978091
138	0xbc237b66	-0.009978151
139	0xbc237ba0	-0.009978205
140	0x3c23d21d	0.009998825
141	0x3c23d70a	0.01
142	0xbc2312a7	-0.0099531775
143	0x3c23d1f1	0.009998784
144	0x3c23d70a	0.01
145	0xbc22bc1f	-0.009932547
146	0xbc235d58	-0.009970985
147	0x3c23d70a	0.01
148	0x3c23d70a	0.01
149	0xbc23454d	-0.009965253
150	0xbc234547	-0.0099652475
151	0x3c23d70a	0.01
152	0x3c23d70a	0.01
153	0xbc2371e6	-0.009975886
154	0x3c23d70a	0.01
155	0xbc237186	-0.009975797
156	0x3c23d1ed	0.009998781
157	0x3c23d70a	0.01
158	0xbc237b5c	-0.009978142
159	0xbc2371dc	-0.009975877
160	0xbc1fc30f	-0.009751095
161	0xbc237211	-0.009975926
162	0x3c23d70a	0.01
163	0xbc19b523	-0.009381565
164	0x3c23d70a	0.01
165	0x3c23d270	0.009998903
166	0x3c23d70a	0.01
167	0xbc23455c	-0.009965267
168	0x3c23d70a	0.01
169	0xbc23454c	-0.009965252
170	0xb889cf16	-6.571242e-05
171	0xbc2371c7	-0.009975857
172	0xbc237b6b	-0.009978156
173	0x3c23d70a	0.01
174	0x3c23d216	0.009998819
175	0xbc20e990	-0.009821311
176	0x3c23d70a	0.01
177	0xbc14d9ba	-0.009085113
178	0x3c23d21d	0.009998825
179	0x3c23d274	0.009998906
180	0x3c23d26d	0.0099989
181	0xbc2371e7	-0.009975887
182	0xbc2370a7	-0.009975589
183	0x3bfdbd5a	0.0077435197
184	0xbc237178	-0.0099757835
185	0x3c23d22f	0.009998842
186	0x3c23d70a	0.01
187	0xbc237bdf	-0.009978264
188	0xbc23714e	-0.009975744
189	0x3c23d21b	0.0099988235
190	0x3c23d212	0.009998815
191	0xbc237b70	-0.00997816
192	0xbc23455c	-0.009965267
193	0xbc20e752	-0.009820776
194	0xbc23722c	-0.009975951
195	0xbc237b82	-0.009978177
196	0x3c23d217	0.00999882
197	0x3c23d217	0.00999882
198	0x3c23d21b	0.0099988235
199	0x3c23d70a	0.01
200	0xbc23720a	-0.0099759195
201	0x3c23d22d	0.00999884
202	0xbc237bdb	-0.00997826
203	0xbb73e529	-0.0037215448
204	0x3c23d21d	0.009998825
205	0xbc237ba1	-0.009978206
206	0xbc237155	-0.009975751
207	0xbc237bf4	-0.009978283
208	0x3c23d1f0	0.0099987835
209	0x3c23d1ec	0.00999878
210	0x3c23d70a	0.01
211	0x3c23d1eb	0.009998779
212	0xbc23455c	-0.009965267
213	0x3c23d70a	0.01
214	0xbc237b70	-0.00997816
215	0xbc2371be	-0.009975849
216	0xbc237155	-0.009975751
217	0xbc237b7f	-0.009978174
218	0xbc237155	-0.009975751
219	0xbc237b70	-0.00997816
220	0x3c23d212	0.009998815
221	0xbc212c4d	-0.009837222
222	0xbc237bdf	-0.009978264
223	0xbc237d53	-0.00997861
224	0xbc23715a	-0.009975756
225	0x3c23d70a	0.01
226	0x3c23d1ee	0.009998782
227	0x3c23d274	0.009998906
228	0x3c23d70a	0.01
229	0x3c23d70a	0.01
230	0xbc237d32	-0.009978579
231	0xbc23455c	-0.009965267
232	0x3c23d70a	0.01
233	0x3c23d213	0.009998816
234	0xbc237b6f	-0.009978159
235	0xbc2108f2	-0.009828793
236	0xbb1215c8	-0.0022290815
237	0x3c23d26e	0.009998901
238	0xbc2371a4	-0.0099758245
239	0xbc23724f	-0.009975984
240	0x3c23d70a	0.01
241	0xbbff65cd	-0.007794118
242	0x3c23d70a	0.01
243	0xbc237be3	-0.009978267
244	0x3c23d70a	0.01
245	0xbc2102b3	-0.009827304
246	0x3c23d70a	0.01
247	0xbc237eb3	-0.009978938
248	0x3c23d70a	0.01
249	0x3c23d22d	0.00999884
250	0xbc2371df	-0.009975879
251	0xbc237b6f	-0.009978159
252	0x3c23d70a	0.01
253	0x3c23d21a	0.009998823
254	0x3c23d70a	0.01
255	0xbc237b83	-0.009978178

fc2.bias f4 [128]
0	0xbc23c46d	-0.009995562
1	0xbc2360cd	-0.00997181
2	0xbc2370a5	-0.009975587
3	0xbc23d264	-0.0099988915
4	0xbc23c4f6	-0.00999569
5	0xbc23b7af	-0.009992524
6	0xbb9f5e45	-0.0048635327
7	0xbc2395b5	-0.009984423
8	0xbc23ce36	-0.009997895
9	0xbc23d70a	-0.01
10	0xbc23d63d	-0.009999809
11	0xbc23c23f	-0.009995042
12	0xbc23d70a	-0.01
13	0xbbee7468	-0.0072770603
14	0xbc23c948	-0.00999672
15	0xbc238681	-0.009980799
16	0x3b9b7c2e	0.004745028
17	0xbc2347a3	-0.00996581
18	0xbc23d70a	-0.01
19	0xbc23d6fa	-0.009999985
20	0x3b45e91c	0.0030198758
21	0x3ba13583	0.004919709
22	0xbb4cc919	-0.0031247793
23	0xbc239d37	-0.009986213
24	0xbb42e223	-0.0029736839
25	0xbc23ab3c	-0.009989556
26	0x3b91a2b0	0.0044444427
27	0xbc23c33b	-0.009995277
28	0xbc236318	-0.009972356
29	0xbc23d70a	-0.01
30	0x3b1b4c14	0.002369647
31	0xbc23ce51	-0.00999792
32	0xbc23920e	-0.009983553
33	0xbc23c6f7	-0.009996167
34	0xbc23c896	-0.009996554
35	0xbc236128	-0.009971894
36	0xbc23d573	-0.009999621
37	0x3b134898	0.002247369
38	0x3b2d11de	0.0026408355
39	0xbc23b19f	-0.009991079
40	0xbc23cf0a	-0.009998092
41	0xbc23ce36	-0.009997895
42	0x3b91d75d	0.004450722
43	0xbc23d264	-0.0099988915
44	0xbc23d70a	-0.01
45	0xbc23695f	-0.009973853
46	0xbb5912f9	-0.003312288
47	0x3b2c6557	0.002630552
48	0xbc23c04b	-0.009994577
49	0xbc23ce36	-0.009997895
50	0xbc23d6fa	-0.009999985
51	0xbb112092	-0.0022144658
52	0xbb1a51d3	-0.0023547306
53	0xbc23d538	-0.009999566
54	0xbc2356d0	-0.009969428
55	0x3ba18873	0.004929596
56	0xbbb090ea	-0.005388369
57	0xbc23bc60	-0.009993643
58	0xbb33c9c2	-0.002743349
59	0xbc23ae53	-0.009990293
60	0x3b302b7a	0.0026881383
61	0xbc23d6fa	-0.009999985
62	0xbafa47eb	-0.001909492
63	0xbc23bf96	-0.009994408
64	0x3b2e05a3	0.0026553653
65	0x3b4f812b	0.0031662683
66	0xbb114c8f	-0.0022170877
67	0xbc2396e3	-0.009984705
68	0xbc23d377	-0.009999148
69	0xbc23d70a	-0.01
70	0xbc2357b7	-0.009969643
71	0x3b962dec	0.004583111
72	0xbc23d10c	-0.009998571
73	0x3b235db8	0.0024927687
74	0xbc23d363	-0.009999129
75	0xbc23d5a0	-0.009999663
76	0xbc23421a	-0.00996449
77	0xbc23c63a	-0.009995991
78	0xbc23c664	-0.0099960305
79	0xbb6a3794	-0.0035738694
80	0xbc23d70a	-0.01
81	0x3b2f86f5	0.0026783322
82	0xbc23d264	-0.0099988915
83	0x3b0f5c8c	0.002187523
84	0xbc23b451	-0.009991721
85	0xbb36b083	-0.0027876205
86	0xbc2396f0	-0.009984717
87	0x3b9f796b	0.004866769
88	0xbc23c55e	-0.0099957865
89	0xbc23d623	-0.009999785
90	0xbb639e6b	-0.0034731876
91	0xbc238162	-0.009979578
92	0x3b3ef118	0.0029135402
93	0xbb18d18c	-0.002331826
94	0xbc23314c	-0.009960484
95	0x3b359beb	0.0027711343
96	0x3b96c5b7	0.004601206
97	0xbc23a4aa	-0.009987989
98	0xbc23d70a	-0.01
99	0xbc23d4b7	-0.009999446
100	0x3b844f42	0.0040377686
101	0xbb3e273e	-0.002901509
102	0xbc1d900c	-0.009616863
103	0xbc23d4b9	-0.0099994475
104	0xbc237d91	-0.009978668
105	0xbb7f0110	-0.0038910545
106	0xbc23d32c	-0.009999078
107	0xbc233808	-0.009962089
108	0xbc23d3af	-0.0099992
109	0xbc23d24f	-0.009998872
110	0xbb5292fb	-0.0032131064
111	0xbc23a32f	-0.0099876365
112	0xbc23d538	-0.009999566
113	0x3b16c183	0.0023003526
114	0xbc23ce36	-0.009997895
115	0xbab78af2	-0.0014003201
116	0x3b97b360	0.0046295375
117	0x3ba50d95	0.0050370195
118	0xbc23ad11	-0.009989993
119	0xbc23d70a	-0.01
120	0xbc23a462	-0.009987922
121	0xbc23d353	-0.009999114
122	0x3afb73bd	0.0019184273
123	0xbc23d363	-0.009999129
124	0xbc23d47d	-0.009999392
125	0xbc23d623	-0.009999785
126	0xbb267bf1	-0.0025403465
127	0xbb59c12a	-0.0033226707

bn2.weight f4 [128]
0	0x3c23d70a	0.01
1	0x3c23d70a	0.01
2	0x3c23d70a	0.01
3	0x3c23d70a	0.01
4	0x3c23d70a	0.01
5	0x3c23d70a	0.01
6	0x3c23d70a	0.01
7	0x3c23d70a	0.01
8	0x3c23d70a	0.01
9	0x3c23d70a	0.01
10	0x3c23d70a	0.01
11	0x3c23d70a	0.01
12	0x3c23d70a	0.01
13	0x3c23d70a	0.01
14	0x3c23d70a	0.01
15	0x3c23d70a	0.01
16	0x3c23d70a	0.01
17	0x3c23d70a	0.01
18	0x3c23d70a	0.01
19	0x3c23d70a	0.01
20	0x3c23d70a	0.01
21	0x3c23d70a	0.01
22	0x3c23d70a	0.01
23	0x3c23d70a	0.01
24	0x3c23d70a	0.01
25	0x3c23d70a	0.01
26	0x3c23d70a	0.01
27	0x3c23d70a	0.01
28	0x3c23d70a	0.01
29	0x3c23d70a	0.01
30	0x3c23d70a	0.01
31	0x3c23d70a	0.01
32	0x3c23d70a	0.01
33	0x3c23d70a	0.01
34	0x3c23d70a	0.01
35	0x3c23d70a	0.01
36	0x3c23d70a	0.01
37	0x3c23d70a	0.01
38	0x3c23d70a	0.01
39	0x3c23d70a	0.01
40	0x3c23d70a	0.01
41	0x3c23d70a	0.01
42	0x3c23d70a	0.01
43	0x3c23d70a	0.01
44	0x3c23d70a	0.01
45	0x3c23d70a	0.01
46	0x3c23d70a	0.01
47	0x3c23d70a	0.01
48	0x3c23d70a	0.01
49	0x3c23d70a	0.01
50	0x3c23d70a	0.01
51	0x3c23d70a	0.01
52	0x3c23d70a	0.01
53	0x3c23d70a	0.01
54	0x3c23d70a	0.01
55	0x3c23d70a	0.01
56	0x3c23d70a	0.01
57	0x3c23d70a	0.01
58	0x3c23d70a	0.01
59	0x3c23d70a	0.01
60	0x3c23d70a	0.01
61	0x3c23d70a	0.01
62	0x3c23d70a	0.01
63	0x3c23d70a	0.01
64	0x3c23d70a	0.01
65	0x3c23d70a	0.01
66	0x3c23d70a	0.01
67	0x3c23d70a	0.01
68	0x3c23d70a	0.01
69	0x3c23d70a	0.01
70	0x3c23d70a	0.01
71	0x3c23d70a	0.01
72	0x3c23d70a	0.01
73	0x3c23d70a	0.01
74	0x3c23d70a	0.01
75	0x3c23d70a	0.01
76	0x3c23d70a	0.01
77	0x3c23d70a	0.01
78	0x3c23d70a	0.01
79	0x3c23d70a	0.01
80	0x3c23d70a	0.01
81	0x3c23d70a	0.01
82	0x3c23d70a	0.01
83	0x3c23d70a	0.01
84	0x3c23d70a	0.01
85	0x3c23d70a	0.01
86	0x3c23d70a	0.01
87	0x3c23d70a	0.01
88	0x3c23d70a	0.01
89	0x3c23d70a	0.01
90	0x3c23d70a	0.01
91	0x3c23d70a	0.01
92	0x3c23d70a	0.01
93	0x3c23d70a	0.01
94	0x3c23d70a	0.01
95	0x3c23d70a	0.01
96	0x3c23d70a	0.01
97	0x3c23d70a	0.01
98	0x3c23d70a	0.01
99	0x3c23d70a	0.01
100	0x3c23d70a	0.01
101	0x3c23d70a	0.01
102	0x3c23d70a	0.01
103	0x3c23d70a	0.01
104	0x3c23d70a	0.01
105	0x3c23d70a	0.01
106	0x3c23d70a	0.01
107	0x3c23d70a	0.01
108	0x3c23d70a	0.01
109	0x3c23d70a	0.01
110	0x3c23d70a	0.01
111	0x3c23d70a	0.01
112	0x3c23d70a	0.01
113	0x3c23d70a	0.01
114	0x3c23d70a	0.01
115	0x3c23d70a	0.01
116	0x3c23d70a	0.01
117	0x3c23d70a	0.01
118	0x3c23d70a	0.01
119	0x3c23d70a	0.01
120	0x3c23d70a	0.01
121	0x3c23d70a	0.01
122	0x3c23d70a	0.01
123	0x3c23d70a	0.01
124	0x3c23d70a	0.01
125	0x3c23d70a	0.01
126	0x3c23d70a	0.01
127	0x3c23d70a	0.01

bn2.bias f4 [128]
0	0x37937d84	1.7582213e-05
1	0x3ab99032	0.0014157353
2	0xbab790ea	-0.001400498
3	0x3789433b	1.636298e-05
4	0xb791c333	-1.7376244e-05
5	0xbab82d82	-0.0014051648
6	0x3ab81b84	0.0014046286
7	0xbab978e4	-0.0014150408
8	0x3791e270	1.739079e-05
9	0x378f55bf	1.7086857e-05
10	0xbab77fb7	-0.0013999854
11	0x3ab91e89	0.001412348
12	0xb791ba84	-1.73722e-05
13	0xbab75d88	-0.0013989666
14	0x378f0b28	1.7052123e-05
15	0x3ab89657	0.0014082891
16	0xbab8656c	-0.0014068312
17	0x3ab7870f	0.0014002043
18	0xb7836a00	-1.5665777e-05
19	0xb79546ef	-1.7795215e-05
20	0xb77eb7e2	-1.5182393e-05
21	0xbab6b03e	-0.0013938022
22	0x3ab7b567	0.0014015854
23	0x3ab7d76b	0.0014025992
24	0x3ab9d29a	0.0014177144
25	0x3ab873ca	0.0014072594
26	0xbab78d5a	-0.0014003918
27	0xbab730a1	-0.0013976285
28	0xbab5ecdd	-0.0013879795
29	0xbab7ce83	-0.0014023337
30	0xb795bdda	-1.785059e-05
31	0x3791df50	1.7389335e-05
32	0x3aba03b6	0.001419178
33	0xb792b027	-1.7486584e-05
34	0x378ebce8	1.7015685e-05
35	0x3ab77bfa	0.001399874
36	0x37846d80	1.5786616e-05
37	0xb78eb3d4	-1.7011458e-05
38	0xb77ec122	-1.5184547e-05
39	0x3ab7571d	0.0013987754
40	0x3ab88417	0.0014077452
41	0x3791e8b8	1.7393715e-05
42	0xbab78595	-0.0014001603
43	0x37894c7b	1.6367287e-05
44	0x3783d872	1.5717207e-05
45	0xbab7318a	-0.0013976556
46	0x3ab8fedf	0.0014114043
47	0xb783bd46	-1.5704554e-05
48	0xbab86b64	-0.0014070091
49	0x3791dd00	1.7388258e-05
50	0xb79545f7	-1.7794764e-05
51	0x3ab9d96b	0.0014179175
52	0x3ab729ed	0.0013974287
53	0x378db7c6	1.6894086e-05
54	0xbab92c36	-0.0014127556
55	0xbab663e0	-0.0013915263
56	0x3ab6fc32	0.0013960658
57	0xb78daba0	-1.6888429e-05
58	0x3ab75974	0.0013988451
59	0x3ab90116	0.0014114704
60	0xb783a287	-1.56921e-05
61	0xb7954457	-1.7794007e-05
62	0x3ab6e3f5	0.0013953435
63	0x378ebfa8	1.7016966e-05
64	0xb795494d	-1.7796317e-05
65	0xb7924a04	-1.7439022e-05
66	0x3ab9775d	0.0014149953
67	0x3ab76568	0.0013992013
68	0x378416bc	1.5746213e-05
69	0x37842004	1.5750535e-05
70	0x3ab6fec6	0.0013961426
71	0xbab7ef64	-0.0014033136
72	0x37973cf6	1.802899e-05
73	0xb7837540	-1.5671016e-05
74	0x3783c8dc	1.570995e-05
75	0x37888865	1.6275977e-05
76	0xbab8772f	-0.0014073605
77	0x3ab7ddf7	0.0014027943
78	0xb794f972	-1.7759132e-05
79	0x3ab6bb08	0.0013941238
80	0x377e6cf6	1.5164949e-05
81	0xb783bb46	-1.5703623e-05
82	0x37894c13	1.6367097e-05
83	0xb79d1f86	-1.8730538e-05
84	0x3ab783ad	0.0014001034
85	0x3ab730b2	0.0013976304
86	0xb79aad62	-1.8438968e-05
87	0xbab7e576	-0.0014030177
88	0xb794f3da	-1.7756527e-05
89	0x379cc916	1.8690287e-05
90	0x3ab79f4f	0.001400927
91	0xbab6fb8a	-0.0013960463
92	0xb79d686c	-1.8764484e-05
93	0x3ab61d7f	0.0013894289
94	0xbab7d480	-0.0014025122
95	0xb78da408	-1.6884893e-05
96	0xbab8ceb3	-0.0014099687
97	0x3ab8464a	0.0014059034
98	0x379ac5fe	1.8450428e-05
99	0x3795ea70	1.7871353e-05
100	0x3ab757a8	0.0013987916
101	0x3ab78793	0.0014002196
102	0xbab80198	-0.0014038561
103	0x3783cc14	1.5711448e-05
104	0xbab7dd33	-0.0014027714
105	0x3ab77bcb	0.0013998685
106	0xb792cef3	-1.7500925e-05
107	0xbab8c0ca	-0.0014095542
108	0x37841db6	1.5749461e-05
109	0x3783f624	1.5731035e-05
110	0x3ab6acfe	0.0013937054
111	0xbab8319e	-0.0014052873
112	0x378db706	1.6893737e-05
113	0xb78d5748	-1.6849153e-05
114	0x3791d9b0	1.7386716e-05
115	0x3ab8a4d3	0.0014087207
116	0xbab8d022	-0.0014100114
117	0xbab89464	-0.001408231
118	0xbab6a590	-0.001393484
119	0x378f5aef	1.7089273e-05
120	0x3ab8cb73	0.0014098719
121	0x3792b942	1.7490824e-05
122	0xb79b3542	-1.850224e-05
123	0x3783cd74	1.5712088e-05
124	0xb77e5dc3	-1.516141e-05
125	0x379cd396	1.8695177e-05
126	0x3ab66832	0.0013916551
127	0x3ab7ce3c	0.0014023255

bn2.running_mean f4 [128]
0	0xbc21c61b	-0.009873892
1	0xbc2338f5	-0.00996231
2	0xbc22cfb0	-0.009937212
3	0xbc21cd0a	-0.009875545
4	0xbc25c844	-0.010118548
5	0xbc23326b	-0.009960751
6	0xbb9fc1b0	-0.0048753843
7	0xbc22ddaa	-0.009940544
8	0xbc21cc2c	-0.0098753385
9	0xbc21cdad	-0.009875697
10	0xbc236906	-0.00997377
11	0xbc24dfcb	-0.010063122
12	0xbc25dfe5	-0.010124181
13	0xbbee9fde	-0.0072822412
14	0xbc21c8bd	-0.00987452
15	0xbc2452bc	-0.010029491
16	0x3b9a6464	0.0047116745
17	0xbc23a5c2	-0.00998825
18	0xbc25dfd5	-0.0101241665
19	0xbc25df97	-0.010124109
20	0x3b3de77e	0.0028977091
21	0x3ba0f6fb	0.004912255
22	0xbb4e9c32	-0.0031526205
23	0xbc246a41	-0.0100350985
24	0xbb462bd9	-0.0030238538
25	0xbc2467ee	-0.010034544
26	0x3b90f837	0.0044241208
27	0xbc235603	-0.009969237
28	0xbc234505	-0.009965186
29	0xbc23b639	-0.009992176
30	0x3b130a19	0.0022436439
31	0xbc21cc2e	-0.00987534
32	0xbc246c76	-0.010035625
33	0xbc25cac2	-0.010119142
34	0xbc21cafa	-0.009875054
35	0xbc23b488	-0.0099917725
36	0xbc21ccae	-0.00987546
37	0x3b0b085a	0.0021214695
38	0x3b2508e5	0.0025182304
39	0xbc249379	-0.010044926
40	0xbc2468b1	-0.010034726
41	0xbc21cc2c	-0.0098753385
42	0x3b921690	0.004458256
43	0xbc21cd0a	-0.009875545
44	0xbc21cdfa	-0.009875769
45	0xbc231d3a	-0.009955699
46	0xbb592e6b	-0.003313924
47	0x3b24634b	0.0025083597
48	0xbc23a31b	-0.009987618
49	0xbc21cc2c	-0.0098753385
50	0xbc25df97	-0.010124109
51	0xbb1549d1	-0.0022779594
52	0xbb1c4dd9	-0.0023850112
53	0xbc21cdcc	-0.009875726
54	0xbc230262	-0.009949299
55	0x3ba2106c	0.0049458053
56	0xbbaf450a	-0.0053488063
57	0xbc25c656	-0.010118088
58	0xbb354f90	-0.002766583
59	0xbc23fd2f	-0.010009094
60	0x3b282a61	0.0025660025
61	0xbc25df97	-0.010124109
62	0xbaf731e1	-0.001885947
63	0xbc21c6f8	-0.009874098
64	0x3b2602fb	0.0025331366
65	0x3b478375	0.0030443345
66	0xbb14a574	-0.0022681626
67	0xbc245a7b	-0.010031338
68	0xbc21cc44	-0.009875361
69	0xbc21cd25	-0.00987557
70	0xbc23d80e	-0.010000242
71	0x3b96e49e	0.00460489
72	0xbc21ce18	-0.009875797
73	0x3b1b5d14	0.0023706602
74	0xbc21cc36	-0.009875348
75	0xbc21cc3d	-0.009875354
76	0xbc22c222	-0.00993398
77	0xbc249d2c	-0.010047238
78	0xbc25c945	-0.010118787
79	0xbb6b90ce	-0.0035944465
80	0xbc21cd62	-0.009875627
81	0x3b27877c	0.0025562933
82	0xbc21cd0a	-0.009875545
83	0x3b071148	0.0020609666
84	0xbc23a255	-0.009987433
85	0xbb377980	-0.0027996004
86	0xbc25a06e	-0.01010905
87	0x3b9fdd6a	0.0048786895
88	0xbc25c3ec	-0.010117512
89	0xbc21cdb9	-0.009875708
90	0xbb61dfeb	-0.003446574
91	0xbc2391c3	-0.009983483
92	0x3b36a992	0.0027872068
93	0xbb1aad14	-0.0023601698
94	0xbc22b7d1	-0.009931521
95	0x3b2d85ac	0.002647738
96	0x3b986d23	0.004651682
97	0xbc238eaf	-0.009982749
98	0xbc21ce45	-0.009875839
99	0xbc21cdbf	-0.009875714
100	0x3b843c95	0.0040355423
101	0xbb3e1ab8	-0.0029007625
102	0xbc1d0354	-0.009583313
103	0xbc21cce7	-0.009875513
104	0xbc22c2fb	-0.009934182
105	0xbb7eb5d6	-0.0038865707
106	0xbc25cffe	-0.01012039
107	0xbc221b7f	-0.009894251
108	0xbc21cc5b	-0.009875382
109	0xbc21cc2d	-0.009875339
110	0xbb51be4c	-0.0032004295
111	0xbc234177	-0.0099643385
112	0xbc21cdcc	-0.009875726
113	0x3b0e5c1a	0.0021722377
114	0xbc21cc2c	-0.0098753385
115	0xbabd4b1a	-0.0014441938
116	0x3b96de8d	0.004604167
117	0x3ba70dc2	0.0050980756
118	0xbc23cd62	-0.009997698
119	0xbc21cdad	-0.009875697
120	0xbc24272d	-0.010019106
121	0xbc21cd66	-0.009875631
122	0x3aeaebbb	0.0017923036
123	0xbc21cc36	-0.009875348
124	0xbc25db88	-0.010123141
125	0xbc21cdb9	-0.009875708
126	0xbb2705b3	-0.0025485575
127	0xbb5c054c	-0.0033572493

bn2.running_var f4 [128]
0	0x381bbf63	3.7133123e-05
1	0x36a4040c	4.888052e-06
2	0x36a2e106	4.8541724e-06
3	0x381bbdfb	3.7131813e-05
4	0x381bbda9	3.7131515e-05
5	0x36a3f5b8	4.886384e-06
6	0x36a44141	4.8951774e-06
7	0x36a3ca7f	4.881352e-06
8	0x381bbd52	3.7131198e-05
9	0x381bbdb4	3.7131555e-05
10	0x36a260dd	4.8392526e-06
11	0x36a3361c	4.8640777e-06
12	0x381bbd4c	3.7131176e-05
13	0x36a3a219	4.876649e-06
14	0x381bbfd7	3.7133545e-05
15	0x36a39f18	4.8762995e-06
16	0x36a3a295	4.8767056e-06
17	0x36a3835e	4.8730717e-06
18	0x381bbe22	3.7131955e-05
19	0x381bbe3e	3.7132057e-05
20	0x381bbe05	3.713185e-05
21	0x36a41cac	4.8909187e-06
22	0x36a412ac	4.8897546e-06
23	0x36a2f73f	4.8567595e-06
24	0x36a40749	4.888429e-06
25	0x36a3daaa	4.8832344e-06
26	0x36a3738c	4.87123e-06
27	0x36a2fe93	4.8576126e-06
28	0x36a3c959	4.8812185e-06
29	0x36a42af0	4.8925795e-06
30	0x381bbf51	3.7133057e-05
31	0x381bbd52	3.7131198e-05
32	0x36a3e363	4.88425e-06
33	0x381bbdb2	3.7131547e-05
34	0x381bbfd1	3.7133523e-05
35	0x36a41e5d	4.8911156e-06
36	0x381bbda2	3.713149e-05
37	0x381bbfd1	3.7133523e-05
38	0x381bbe05	3.713185e-05
39	0x36a2d49c	4.852727e-06
40	0x36a4696f	4.899855e-06
41	0x381bbd52	3.7131198e-05
42	0x36a3d89c	4.882995e-06
43	0x381bbdfb	3.7131813e-05
44	0x381bbe21	3.713195e-05
45	0x36a3c3c8	4.8805705e-06
46	0x36a376a1	4.8715888e-06
47	0x381bbe21	3.713195e-05
48	0x36a489d2	4.9036253e-06
49	0x381bbd52	3.7131198e-05
50	0x381bbe3e	3.7132057e-05
51	0x36a228e8	4.8327383e-06
52	0x36a3b57c	4.878906e-06
53	0x381bbdfe	3.7131824e-05
54	0x36a4a9e6	4.9073597e-06
55	0x36a3a9d3	4.8775487e-06
56	0x36a4229a	4.891609e-06
57	0x381bbdfe	3.7131824e-05
58	0x36a52aac	4.922351e-06
59	0x36a3e174	4.8840247e-06
60	0x381bbe20	3.7131947e-05
61	0x381bbe3e	3.7132057e-05
62	0x36a4ac78	4.907659e-06
63	0x381bbfd1	3.7133523e-05
64	0x381bbddb	3.7131696e-05
65	0x381bbde3	3.7131726e-05
66	0x36a33017	4.863377e-06
67	0x36a4227e	4.8915963e-06
68	0x381bbddb	3.7131696e-05
69	0x381bbddb	3.7131696e-05
70	0x36a44a52	4.896233e-06
71	0x36a2bf59	4.850252e-06
72	0x381bbf29	3.713291e-05
73	0x381bbe22	3.7131955e-05
74	0x381bbddb	3.7131696e-05
75	0x381bbd89	3.7131398e-05
76	0x36a383db	4.8731285e-06
77	0x36a3f2b2	4.886032e-06
78	0x381bbd52	3.7131198e-05
79	0x36a3d658	4.8827314e-06
80	0x381bbe04	3.7131846e-05
81	0x381bbe21	3.713195e-05
82	0x381bbdfb	3.7131813e-05
83	0x381bbec0	3.713253e-05
84	0x36a45a29	4.898077e-06
85	0x36a36f5a	4.8707416e-06
86	0x381bbfa4	3.713336e-05
87	0x36a36897	4.8699544e-06
88	0x381bbd52	3.7131198e-05
89	0x381bbee1	3.713265e-05
90	0x36a455c0	4.8975635e-06
91	0x36a3bcca	4.8797565e-06
92	0x381bbee4	3.713266e-05
93	0x36a431f9	4.8933985e-06
94	0x36a37a05	4.8719835e-06
95	0x381bbdfd	3.713182e-05
96	0x36a3cfd8	4.8819747e-06
97	0x36a44e89	4.8967236e-06
98	0x381bbebd	3.713252e-05
99	0x381bbe41	3.7132068e-05
100	0x36a484c7	4.903038e-06
101	0x36a3f655	4.8864554e-06
102	0x36a42506	4.891891e-06
103	0x381bbddb	3.7131696e-05
104	0x36a41e17	4.891084e-06
105	0x36a3fea5	4.887423e-06
106	0x381bbdb2	3.7131547e-05
107	0x36a2d242	4.8524535e-06
108	0x381bbddb	3.7131696e-05
109	0x381bbdd8	3.7131686e-05
110	0x36a4a734	4.907046e-06
111	0x36a3ef85	4.8856623e-06
112	0x381bbdfe	3.7131824e-05
113	0x381bbd77	3.7131333e-05
114	0x381bbd52	3.7131198e-05
115	0x36a50add	4.918648e-06
116	0x36a3e2f9	4.8842016e-06
117	0x36a277ff	4.8419456e-06
118	0x36a2330b	4.8339184e-06
119	0x381bbdb4	3.7131555e-05
120	0x36a401d7	4.887795e-06
121	0x381bbdb2	3.7131547e-05
122	0x381bbf0b	3.7132802e-05
123	0x381bbddb	3.7131696e-05
124	0x381bbe04	3.7131846e-05
125	0x381bbee1	3.713265e-05
126	0x36a4e35f	4.9140504e-06
127	0x36a41b1c	4.890737e-06

fc3.weight f4 [1, 128]
0	0xbc23d70a	-0.01
1	0x3c23d70a	0.01
2	0x3c23d70a	0.01
3	0xbc23d70a	-0.01
4	0xbc23d70a	-0.01
5	0x3c23d70a	0.01
6	0x3c23d70a	0.01
7	0x3c23d70a	0.01
8	0xbc23d70a	-0.01
9	0xbc23d70a	-0.01
10	0x3c23d70a	0.01
11	0x3c23d70a	0.01
12	0xbc23d70a	-0.01
13	0x3c23d70a	0.01
14	0xbc23d70a	-0.01
15	0x3c23d70a	0.01
16	0x3c23d70a	0.01
17	0x3c23d70a	0.01
18	0xbc23d70a	-0.01
19	0xbc23d70a	-0.01
20	0xbc23d70a	-0.01
21	0x3c23d70a	0.01
22	0x3c23d70a	0.01
23	0x3c23d70a	0.01
24	0x3c23d70a	0.01
25	0x3c23d70a	0.01
26	0x3c23d70a	0.01
27	0x3c23d70a	0.01
28	0x3c23d70a	0.01
29	0x3c23d70a	0.01
30	0xbc23d70a	-0.01
31	0xbc23d70a	-0.01
32	0x3c23d70a	0.01
33	0xbc23d70a	-0.01
34	0xbc23d70a	-0.01
35	0x3c23d70a	0.01
36	0xbc23d70a	-0.01
37	0xbc23d70a	-0.01
38	0xbc23d70a	-0.01
39	0x3c23d70a	0.01
40	0x3c23d70a	0.01
41	0xbc23d70a	-0.01
42	0x3c23d70a	0.01
43	0xbc23d70a	-0.01
44	0xbc23d70a	-0.01
45	0x3c23d70a	0.01
46	0x3c23d70a	0.01
47	0xbc23d70a	-0.01
48	0x3c23d70a	0.01
49	0xbc23d70a	-0.01
50	0xbc23d70a	-0.01
51	0x3c23d70a	0.01
52	0x3c23d70a	0.01
53	0xbc23d70a	-0.01
54	0x3c23d70a	0.01
55	0x3c23d70a	0.01
56	0x3c23d70a	0.01
57	0xbc23d70a	-0.01
58	0x3c23d70a	0.01
59	0x3c23d70a	0.01
60	0xbc23d70a	-0.01
61	0xbc23d70a	-0.01
62	0x3c23d70a	0.01
63	0xbc23d70a	-0.01
64	0xbc23d70a	-0.01
65	0xbc23d70a	-0.01
66	0x3c23d70a	0.01
67	0x3c23d70a	0.01
68	0xbc23d70a	-0.01
69	0xbc23d70a	-0.01
70	0x3c23d70a	0.01
71	0x3c23d70a	0.01
72	0xbc23d70a	-0.01
73	0xbc23d70a	-0.01
74	0xbc23d70a	-0.01
75	0xbc23d70a	-0.01
76	0x3c23d70a	0.01
77	0x3c23d70a	0.01
78	0xbc23d70a	-0.01
79	0x3c23d70a	0.01
80	0xbc23d70a	-0.01
81	0xbc23d70a	-0.01
82	0xbc23d70a	-0.01
83	0xbc23d70a	-0.01
84	0x3c23d70a	0.01
85	0x3c23d70a	0.01
86	0xbc23d70a	-0.01
87	0x3c23d70a	0.01
88	0xbc23d70a	-0.01
89	0xbc23d70a	-0.01
90	0x3c23d70a	0.01
91	0x3c23d70a	0.01
92	0xbc23d70a	-0.01
93	0x3c23d70a	0.01
94	0x3c23d70a	0.01
95	0xbc23d70a	-0.01
96	0x3c23d70a	0.01
97	0x3c23d70a	0.01
98	0xbc23d70a	-0.01
99	0xbc23d70a	-0.01
100	0x3c23d70a	0.01
101	0x3c23d70a	0.01
102	0x3c23d70a	0.01
103	0xbc23d70a	-0.01
104	0x3c23d70a	0.01
105	0x3c23d70a	0.01
106	0xbc23d70a	-0.01
107	0x3c23d70a	0.01
108	0xbc23d70a	-0.01
109	0xbc23d70a	-0.01
110	0x3c23d70a	0.01
111	0x3c23d70a	0.01
112	0xbc23d70a	-0.01
113	0xbc23d70a	-0.01
114	0xbc23d70a	-0.01
115	0x3c23d70a	0.01
116	0x3c23d70a	0.01
117	0x3c23d70a	0.01
118	0x3c23d70a	0.01
119	0xbc23d70a	-0.01
120	0x3c23d70a	0.01
121	0xbc23d70a	-0.01
122	0xbc23d70a	-0.01
123	0xbc23d70a	-0.01
124	0xbc23d70a	-0.01
125	0xbc23d70a	-0.01
126	0x3c23d70a	0.01
127	0x3c23d70a	0.01
