10_Models/Results_Anaheim/WGANBR_Freeflow_discriminator_br_best.pth (torch, 78078 bytes, 13 tensors)

fc1.weight f4 [128, 2]
0	0x3b5d09e3	0.0033727817
1	0x3bf66a6f	0.007520012
2	0xbc19b11d	-0.009380606
3	0x3c23d70a	0.01
4	0x3c20df35	0.009818842
5	0xbc237290	-0.009976044
6	0xbb83ed13	-0.004026064
7	0x3bbadcda	0.005702597
8	0xbb8ae4a0	-0.00423868
9	0x3b41d0bc	0.0029573878
10	0xbbb87c4f	-0.005630053
11	0x392911a7	0.00016123672
12	0xbb98fa8f	-0.004668541
13	0x3b4127d0	0.0029473193
14	0x3bbe597d	0.0058090077
15	0x3c23d70a	0.01
16	0x3be649e6	0.0070278523
17	0x3c23d70a	0.01
18	0x3b67426a	0.0035287389
19	0xbaf1abc1	-0.0018438027
20	0xbbd06f74	-0.0063609425
21	0xbb409d13	-0.0029390499
22	0xbc18e779	-0.009332531
23	0xbbd2f92d	-0.0064383955
24	0x3c0c0c93	0.00854792
25	0xbc23d70a	-0.01
26	0x3c1f4362	0.009720655
27	0x3c23d70a	0.01
28	0xbc23d70a	-0.01
29	0x3bfea0ed	0.0077706487
30	0x3c1cf873	0.009580719
31	0xbc23d70a	-0.01
32	0xbc1acceb	-0.00944827
33	0x3c22bd7c	0.009932872
34	0x3bdccdf9	0.006738421
35	0x3c22d1a4	0.0099376775
36	0x3c0d678c	0.0086306445
37	0x3bfbe33c	0.0076870006
38	0x3bece43b	0.0072293556
39	0x3c028dec	0.007968407
40	0xbc10755d	-0.008817044
41	0xbc23d70a	-0.01
42	0xbc1acaf7	-0.009447805
43	0xbc23d70a	-0.01
44	0xbc23d70a	-0.01
45	0xbc216abb	-0.009852107
46	0x3c23ce70	0.009997949
47	0xbc23d70a	-0.01
48	0xbbc584f9	-0.0060278145
49	0x3bc9a26a	0.0061533945
50	0xbc0392ec	-0.008030634
51	0xbc225941	-0.009908975
52	0xbbf2dd82	-0.0074116597
53	0xbbd95e73	-0.0066335737
54	0x3c0ec4c9	0.008713909
55	0xbc1cfd84	-0.009581927
56	0xbc17ff58	-0.009277187
57	0xba213b77	-0.00061505235
58	0xbc116d44	-0.008876149
59	0x3c23547b	0.009968872
60	0xbbfb265e	-0.007664486
61	0xbc1ddb3a	-0.009634787
62	0x3b8de20e	0.0043299263
63	0x3c23d70a	0.01
64	0x3c0959f3	0.008383262
65	0x3c23d70a	0.01
66	0x3c1c0434	0.0095224865
67	0x3c15f0bd	0.009151635
68	0xbbd33ea4	-0.0064466763
69	0x3bf9fc42	0.0076289484
70	0xbbc2f52f	-0.0059496383
71	0xbbe88b18	-0.0070966594
72	0x3c13981c	0.009008434
73	0xbc23d70a	-0.01
74	0x3c0ee6f7	0.0087220585
75	0x3c23d70a	0.01
76	0xbc197608	-0.00936652
77	0xbbf5272a	-0.0074814754
78	0x3b407867	0.002936864
79	0x3c23d70a	0.01
80	0xbc030634	-0.007997084
81	0xbc0c0a1b	-0.008547331
82	0x39efd353	0.0004574308
83	0xbb9ad937	-0.004725601
84	0xbba685ca	-0.005081867
85	0x3bae8b7b	0.005326686
86	0xbbc9f07c	-0.006162701
87	0xbb6eb7c7	-0.0036425458
88	0x3bffbd1a	0.007804525
89	0xbc201141	-0.009769739
90	0xbb88ac8e	-0.0041709607
91	0x3ba1a809	0.0049333614
92	0x3c23d70a	0.01
93	0xbc23d70a	-0.01
94	0xbbf5ae72	-0.007497602
95	0xbc23d70a	-0.01
96	0x3be574e2	0.007002459
97	0x3bd275aa	0.006422718
98	0xbbc8c2b7	-0.0061267274
99	0xbbae187d	-0.005312978
100	0xbbea2c41	-0.0071463888
101	0xbc23d70a	-0.01
102	0x3c0ed5db	0.008717979
103	0x3c23d70a	0.01
104	0xbc038654	-0.008027632
105	0x3c1ec20f	0.009689822
106	0xbc1afc9b	-0.00945964
107	0xbb80172b	-0.003909012
108	0x3c04cffe	0.00810623
109	0x3c23d70a	0.01
110	0x3b8ce88a	0.0043001818
111	0x3b6e9b68	0.0036408547
112	0xbbebbca8	-0.0071941204
113	0xbc23d70a	-0.01
114	0x3c066845	0.008203571
115	0xbc23d70a	-0.01
116	0xbc123542	-0.00892383
117	0xbc23d70a	-0.01
118	0xbbcb05ac	-0.0061957445
119	0xbc23d70a	-0.01
120	0x3b698675	0.003563312
121	0x3aecd685	0.0018069303
122	0xbc1cb57a	-0.009564752
123	0xbc23d70a	-0.01
124	0xbc23d70a	-0.01
125	0xbc215dee	-0.009849055
126	0x3beb5824	0.007182138
127	0x3c23d70a	0.01
128	0xbc121d2c	-0.008918088
129	0xbb9cfbb0	-0.0047907457
130	0xbc0ccbc9	-0.008593508
131	0xbc23d70a	-0.01
132	0xbbc1b163	-0.0059110387
133	0xbc23d70a	-0.01
134	0xbc00a652	-0.007852154
135	0xbc23d70a	-0.01
136	0xbc128afa	-0.008944267
137	0x3c1dd86f	0.009634121
138	0xbbfe2ab9	-0.007756558
139	0xbc2243a8	-0.009903826
140	0xbb8e888f	-0.004349775
141	0xbc23d70a	-0.01
142	0xbbc17d42	-0.0059048245
143	0x3be23ebb	0.0069044507
144	0xbc0e5779	-0.008687847
145	0x3c21a606	0.009866243
146	0x3bec6ecd	0.007215357
147	0x3c23d70a	0.01
148	0x3c148ec4	0.009067241
149	0xbc235fa4	-0.009971533
150	0xbc23d70a	-0.01
151	0xbc2119fb	-0.009832854
152	0x3c0046d6	0.007829389
153	0xbc1d7b9e	-0.009611992
154	0xbc0e4cd0	-0.008685306
155	0xbb854bb3	-0.004067862
156	0xbc0f1405	-0.0087328
157	0xbc23d70a	-0.01
158	0x3c23d70a	0.01
159	0x3c236e5e	0.009975044
160	0x3c0ab29a	0.0084654335
161	0x3c236c4a	0.009974549
162	0xbc166c96	-0.009181162
163	0xbc23d70a	-0.01
164	0x3bea0e7f	0.0071428414
165	0x3badf6a7	0.0053089443
166	0xbc0889bd	-0.008333621
167	0xbb99e1a3	-0.0046960874
168	0xbbbe9453	-0.0058160215
169	0x3bde8bb9	0.0067915586
170	0xbbf50572	-0.007477456
171	0xbc23d70a	-0.01
172	0x3be0d468	0.0068612583
173	0x3b777567	0.0037759186
174	0xbbf1bc42	-0.0073771784
175	0xbc1cd919	-0.0095732445
176	0x3b870364	0.0041202772
177	0x3c23d70a	0.01
178	0x3c194e81	0.009357096
179	0xbc211c75	-0.009833445
180	0xbc0db13b	-0.008648212
181	0x3c1d32ee	0.009594662
182	0x3c1ee5d8	0.009698354
183	0x3c23d70a	0.01
184	0x3b9af553	0.004728952
185	0x3b8a4422	0.004219548
186	0x3c1ab236	0.009441903
187	0xbc23d70a	-0.01
188	0x3bce3764	0.006293224
189	0x3bf639ee	0.00751423
190	0xbc036772	-0.008020269
191	0x3c1eb457	0.009686551
192	0x3bb6b16d	0.00557535
193	0x3bb60a44	0.005555423
194	0x3c16f8ec	0.009214621
195	0x3c23d70a	0.01
196	0xbc165628	-0.009175815
197	0xbc23d70a	-0.01
198	0xbbc65e78	-0.006053742
199	0x3bc01882	0.0058622966
200	0x3c02c557	0.00798162
201	0x3c23d70a	0.01
202	0xbc050f78	-0.008121364
203	0x3c203457	0.009778104
204	0xbba4794f	-0.005019344
205	0xbbb97a3d	-0.005660324
206	0x3c15e07b	0.009147759
207	0x3c23d70a	0.01
208	0xbc028cfd	-0.007968185
209	0xbc23bf05	-0.009994273
210	0x3c23d70a	0.01
211	0x3c214e17	0.009845278
212	0xbbf818e6	-0.0075713275
213	0xbc23d70a	-0.01
214	0x3c04c6ca	0.008104036
215	0xbc23d70a	-0.01
216	0x3c0c7fc5	0.0085753845
217	0x3c0c2cac	0.0085555725
218	0x3b517843	0.003196255
219	0x3ba58daf	0.0050522904
220	0x3c2119f0	0.009832844
221	0x3b683549	0.003543215
222	0x3c12bda3	0.008956346
223	0xbc232d82	-0.00995958
224	0x3c23d70a	0.01
225	0xbc23d70a	-0.01
226	0x3b9f0cea	0.0048538344
227	0xbbe349c4	-0.006936284
228	0x3bfacadf	0.0076535787
229	0xbc1b4363	-0.009476515
230	0x3bed4618	0.007241022
231	0x3bcfde3b	0.0063436306
232	0xbc158633	-0.009126234
233	0xbc23d70a	-0.01
234	0x39ee633a	0.00045468827
235	0x3b979f11	0.0046271165
236	0x3c1d5de7	0.009604908
237	0xbb6ecf26	-0.0036439388
238	0xbbe9ca6e	-0.007134727
239	0xbbeb73cc	-0.007185435
240	0xbc0f7631	-0.008756206
241	0xbc23d70a	-0.01
242	0xbc0f01d9	-0.008728468
243	0x3c202975	0.009775509
244	0x3bf4a2f6	0.0074657155
245	0x3bedc9f0	0.007256739
246	0xbc18a13f	-0.009315788
247	0xba69c156	-0.0008917054
248	0x3bea95c2	0.007158966
249	0x3c1cd6b6	0.009572675
250	0xbbad6b7f	-0.0052923555
251	0xbba51bca	-0.005038713
252	0x3ba5ec72	0.005063587
253	0xbbd34d5a	-0.00644843
254	0xbc0eacff	-0.008708238
255	0xbbf54599	-0.0074851033

fc1.bias f4 [128]
0	0xbc1bbbf3	-0.00950526
1	0x3bc98034	0.006149316
2	0x3c20cee5	0.0098149525
3	0x3c1ffe98	0.00976529
4	0xbb90cf99	-0.004419279
5	0x3c2141e8	0.009842373
6	0xbb972419	-0.0046124575
7	0x3bc6efc2	0.006071062
8	0x3be4ec4b	0.006986176
9	0x3b77dcac	0.003782074
10	0x3c07ed97	0.008296392
11	0x3b922830	0.004460357
12	0xbc0afd98	-0.008483313
13	0x3c16302e	0.00916676
14	0x3bc44a45	0.005990299
15	0xbb95a39f	-0.0045666243
16	0xbc1a9123	-0.009434017
17	0x3bde5884	0.006785454
18	0xbb61a767	-0.0034432055
19	0xbc0ead36	-0.008708289
20	0x3bb7b0b1	0.00560578
21	0x3be7633a	0.0070613893
22	0xbc15b082	-0.009136321
23	0xbb924430	-0.004463695
24	0xbbc49310	-0.0059989765
25	0xbbf72a80	-0.007542908
26	0x3c04efc8	0.008113809
27	0xbc00b324	-0.00785521
28	0x3bc9a69d	0.006153895
29	0x3be9081e	0.0071115633
30	0xbbfb147a	-0.007662353
31	0xbc20fef2	-0.009826409
32	0x3c052e4e	0.008128716
33	0x3c1149bc	0.008867677
34	0xbbd32a94	-0.0064442847
35	0xbbc1a16b	-0.005909135
36	0x3c138743	0.009004417
37	0x3c158061	0.009124846
38	0x3b8e8c79	0.0043502417
39	0x3b3ff553	0.0029290512
40	0x3c112e70	0.008861169
41	0xbc23c4af	-0.0099956235
42	0xbba5736b	-0.0050491593
43	0xbbd18304	-0.006393792
44	0xbc150a61	-0.009096713
45	0x3c158bcd	0.009127569
46	0x3c23d31a	0.009999061
47	0xbbf08d58	-0.0073410682
48	0xbc210eaa	-0.009830156
49	0xbbc3d931	-0.005976819
50	0x3c10ffc5	0.008850043
51	0x3c0b58e7	0.008505083
52	0xbc03b9ef	-0.0080399355
53	0x3bdec7f4	0.0067987386
54	0x3c0008dc	0.007814612
55	0xbc20ea19	-0.009821438
56	0x3c1a7a82	0.009428622
57	0x3c062257	0.008186898
58	0x3bea98c3	0.007159324
59	0x3c1c4e70	0.009540185
60	0x3b4f95c5	0.0031674963
61	0x3bd1867f	0.006394207
62	0xbc1b40d7	-0.009475908
63	0xbc1aaf5d	-0.009441224
64	0x3bae88f6	0.0053263856
65	0x3c0c1294	0.008549351
66	0xbbc2fee1	-0.005950794
67	0xbc0112c2	-0.007878007
68	0xbc129a8f	-0.008947982
69	0x3c0a6556	0.008447012
70	0x3c23d491	0.00999941
71	0xbbc4328f	-0.0059874724
72	0xbc0d9915	-0.008642455
73	0xbc0bfb87	-0.0085438555
74	0xbbd59b27	-0.0065187397
75	0x3bedb6df	0.007254466
76	0xbb5f1a62	-0.0034042825
77	0x3bd913bc	0.006624667
78	0x3bf84f72	0.00757783
79	0x3c200693	0.009767192
80	0x3c070137	0.008240036
81	0xbc13fac2	-0.009031953
82	0x3bd5ec8a	0.006528442
83	0xbc08151d	-0.008305815
84	0x3c18ad85	0.009318714
85	0xbbf3f2d6	-0.00744472
86	0x3bdc21dd	0.006717904
87	0xbbdc0a90	-0.0067151263
88	0x3b84345a	0.004034561
89	0x3c190b00	0.0093410015
90	0xbc0deae6	-0.008661961
91	0x3c1d9b38	0.009619527
92	0x3b9b36f1	0.004736774
93	0xbba1e948	-0.0049411394
94	0x3be9a569	0.007130314
95	0xbc031ab1	-0.008001969
96	0xbc15ec7a	-0.009150619
97	0x3c15d51a	0.009145046
98	0xbc1709f7	-0.009218684
99	0xbbc5f3b5	-0.006041015
100	0xbc0a2c59	-0.008433425
101	0x3c09fe25	0.008422409
102	0x3c210bdc	0.009829488
103	0x3c1266d3	0.008935648
104	0x3c0543ac	0.00813381
105	0xbbd82a8e	-0.00659687
106	0x3c0257e2	0.007955523
107	0x3c044b6d	0.0080746235
108	0x3c06bc88	0.00822366
109	0xbc1a18d0	-0.00940533
110	0xbbb5f38d	-0.005552715
111	0xbbc55ddb	-0.0060231513
112	0xbba6e0e3	-0.0050927266
113	0xbc2390f9	-0.009983295
114	0x3bf67248	0.0075209476
115	0x3be8d213	0.007105121
116	0x3b9faaa2	0.004872636
117	0xbbc7a0ba	-0.006092158
118	0x3c1d7107	0.009609467
119	0xbbe94db9	-0.007119861
120	0x3ba91956	0.005160491
121	0x3c063af8	0.00819277
122	0x3c03b2b9	0.008038216
123	0xbc196a1b	-0.009363676
124	0xbbdae04d	-0.006679571
125	0xbbc0d614	-0.005884895
126	0xbc037f46	-0.00802595
127	0xbc0e7257	-0.008694253

bn1.weight f4 [128]
0	0x3c23d70a	0.01
1	0x3bf5b7f2	0.0074987346
2	0x3c011b4a	0.007880041
3	0x3c07f9c2	0.008299293
4	0x3b999f83	0.0046882047
5	0x3b600857	0.0034184658
6	0x3c23d70a	0.01
7	0x3b7cf3a8	0.003859738
8	0x3c1d651d	0.009606627
9	0x3ba015f8	0.0048854314
10	0x3c23d70a	0.01
11	0x3c23d70a	0.01
12	0x3c039ba9	0.008032718
13	0x3bc3406b	0.005958607
14	0x3c23d70a	0.01
15	0x3c034b81	0.008013607
16	0x3bf453fd	0.0074563012
17	0x3b8c6e8a	0.004285638
18	0x3c23d70a	0.01
19	0x3ba2e23f	0.0049708183
20	0x3c042df8	0.0080676
21	0x3bbea14a	0.005817567
22	0x3c23d70a	0.01
23	0x3bfb4cf1	0.0076690842
24	0x3bdeafca	0.006795858
25	0x3b9ea424	0.0048413444
26	0x3a81b195	0.0009894843
27	0x3c019428	0.007908858
28	0x3c23d70a	0.01
29	0x3bf68887	0.0075235995
30	0x3be9de56	0.0071371
31	0x3b8c0086	0.0042725233
32	0x3b9a259e	0.0047041913
33	0x3c23d70a	0.01
34	0x3be68a7a	0.0070355507
35	0x3ab51ce6	0.0013817817
36	0x3c035b79	0.008017414
37	0xbbe6c692	-0.0070427144
38	0x3c23d70a	0.01
39	0x3b9945f7	0.00467753
40	0x3ba0093e	0.0048839143
41	0x3b9a9541	0.0047174995
42	0x3c082ae5	0.008311008
43	0xba6955ed	-0.00089010486
44	0x3bf809b8	0.007569518
45	0x3be6867c	0.0070350748
46	0x3c03efa5	0.008052741
47	0x3b864b4e	0.0040983325
48	0x3c195a81	0.009359957
49	0xbb24ee57	-0.0025166476
50	0x3b73d7ba	0.003720744
51	0x3bb12254	0.0054057036
52	0x3be675ce	0.0070330864
53	0x3c08b7f0	0.008344635
54	0x3c11473e	0.008867083
55	0x3c23d70a	0.01
56	0x3b7f3667	0.0038942338
57	0x3c0352c9	0.008015343
58	0x3bef03e7	0.0072941664
59	0x3b63f079	0.0034780784
60	0x3ac21c6a	0.0014809493
61	0x3c1d573e	0.00960332
62	0xbc23d70a	-0.01
63	0x3b873538	0.004126217
64	0x3c23d70a	0.01
65	0x3bce386e	0.006293348
66	0x3b7642af	0.0037576368
67	0x3bab30f5	0.005224342
68	0x3be90ed0	0.0071123615
69	0x391938f4	0.00014612434
70	0x3b836aad	0.0040105195
71	0x3be799fb	0.0070679164
72	0x3be58cb0	0.0070052966
73	0x3c05e844	0.008173052
74	0x3c01a448	0.007912703
75	0x3c23d70a	0.01
76	0x3c016e4f	0.007899835
77	0x3c051d78	0.008124702
78	0x3c0a22f4	0.008431185
79	0x3c23d70a	0.01
80	0x3bb19966	0.005419898
81	0x3bc7ce03	0.0060975566
82	0x3be0ea12	0.006863841
83	0x3c23d70a	0.01
84	0x3bee9a83	0.007281603
85	0x3b8353e2	0.0040078023
86	0x3ba04c83	0.0048919334
87	0x3c1cb54f	0.009564712
88	0x3b5523ec	0.0032522632
89	0x3c01b564	0.007916782
90	0x3bf4d5f2	0.0074717933
91	0x3bcd77d9	0.0062703905
92	0x3c1b3a89	0.009474405
93	0x3bf85f20	0.007579699
94	0x3b0fa9e7	0.0021921338
95	0x3be6772d	0.00703325
96	0x3bb9d049	0.0056705815
97	0x3bef979d	0.007311775
98	0x3bee3500	0.0072695017
99	0x3be0e398	0.006863069
100	0x3b857890	0.00407321
101	0x3be4ccb1	0.006982409
102	0x3c1887b5	0.009309699
103	0x3bb494f5	0.005510921
104	0x3b82a686	0.0039871363
105	0x3c23d70a	0.01
106	0x3b805ffa	0.0039176913
107	0x3c0286ef	0.007966741
108	0x3ba8200e	0.0051307743
109	0x3c23d70a	0.01
110	0x3c23d70a	0.01
111	0x3c01f149	0.007931062
112	0x3bff4b78	0.007790979
113	0x3bedfd41	0.0072628562
114	0x3c01eaef	0.007929548
115	0x3c23d70a	0.01
116	0x3c0f88f2	0.008760678
117	0x3c23d70a	0.01
118	0x3c23d70a	0.01
119	0x3c23c971	0.009996758
120	0x3c18905d	0.009311763
121	0x3bf46dc9	0.0074593765
122	0xbad5d5a8	-0.0016314285
123	0x3c23d70a	0.01
124	0x3be6b8ab	0.007041057
125	0xbb82b2e5	-0.003988611
126	0x3c0412b4	0.0080611
127	0x3c23d70a	0.01

bn1.bias f4 [128]
0	0xba18ccbb	-0.0005828847
1	0x3bfe42bb	0.0077594197
2	0x3be3953b	0.00694528
3	0x3bd7736b	0.006575038
4	0x3c149be0	0.009070367
5	0x3be7fd28	0.007079739
6	0x3c23d70a	0.01
7	0x3c138490	0.009003773
8	0x3c05ba72	0.008162128
9	0x3c16ec3a	0.009211594
10	0x3c23d70a	0.01
11	0x3c23d70a	0.01
12	0x3a4bf661	0.0007780549
13	0x3c21cf6e	0.009876115
14	0x3c239e77	0.009986511
15	0x3a8d2c0a	0.0010770571
16	0x3c0194a3	0.007908973
17	0x3ab73a8a	0.0013979238
18	0x3c23d70a	0.01
19	0x3ba36b5e	0.0049871644
20	0x3b64f4e7	0.0034936012
21	0x3a9a5c95	0.0011776859
22	0x3c23d70a	0.01
23	0x3b746960	0.0037294254
24	0x3b9a5990	0.0047103837
25	0x3a16b86e	0.0005749528
26	0x3ad16bd3	0.0015977569
27	0x3beedb6d	0.007289341
28	0x3c23d70a	0.01
29	0x3bfca71f	0.007710352
30	0x3b301621	0.0026868659
31	0x3a88cd3f	0.0010437145
32	0x3aa7c023	0.001279835
33	0x3c23d70a	0.01
34	0x3c23d70a	0.01
35	0x3c23ae4e	0.009990288
36	0x3aa1da0c	0.0012348308
37	0x3b26a035	0.002542508
38	0x3c23d70a	0.01
39	0x3aa08d43	0.001224913
40	0x3c23d70a	0.01
41	0x3b5753b9	0.00328563
42	0x3bcaba28	0.0061867423
43	0x3bf1c69f	0.007378414
44	0x3bafc3be	0.0053639105
45	0x3afb3bc0	0.0019167587
46	0x3a4c162c	0.0007785286
47	0x39a9635f	0.0003230823
48	0xbacf404d	-0.001581201
49	0x3bd968d5	0.0066348114
50	0x396b8987	0.0002246258
51	0x3c1d5292	0.009602206
52	0x3c23d70a	0.01
53	0xbc12c6ce	-0.008958532
54	0x3c14823a	0.009064252
55	0x3c23d70a	0.01
56	0x398a769c	0.00026409782
57	0x3a0ef130	0.000545281
58	0x3b030284	0.0019990513
59	0x397b8e18	0.0002399016
60	0x3c1e9ad3	0.009680468
61	0x3bda0f33	0.006654644
62	0x3c23d70a	0.01
63	0x3a82c902	0.0009978118
64	0x3c23d70a	0.01
65	0x3ae4d556	0.0017458599
66	0x397697a2	0.00023516876
67	0x3a346752	0.0006881851
68	0x3b3f5ba8	0.0029198918
69	0x3c22fea2	0.0099484045
70	0x39808ab2	0.000245174
71	0x3ae24ed2	0.0017265922
72	0x3c23d70a	0.01
73	0x3c221f6a	0.009895185
74	0x3be8a71a	0.007099998
75	0x3c23d70a	0.01
76	0x3bea051c	0.0071417224
77	0xbc130988	-0.00897444
78	0x3b67f50d	0.0035393864
79	0x3c23d70a	0.01
80	0x3aec24c8	0.0018016333
81	0x3abcc047	0.0014400565
82	0x3c23d705	0.009999995
83	0x3c23d70a	0.01
84	0x3c23d70a	0.01
85	0x3998fec9	0.0002918153
86	0x3bed33d4	0.0072388444
87	0x3c08fb4b	0.008360694
88	0x3a1f1a2d	0.0006069269
89	0x3be8f784	0.0071095843
90	0x3c00f979	0.007871979
91	0x3c1e9e44	0.009681288
92	0x3c1db3b6	0.009625366
93	0x3b8b27bd	0.0042466805
94	0x3c20d554	0.009816486
95	0x3c23d70a	0.01
96	0x3bd6d67a	0.0065563293
97	0x3c23d70a	0.01
98	0x3aaed674	0.0013339058
99	0x3b5a2473	0.0033285886
100	0x3c1a161c	0.009404685
101	0x3c23d70a	0.01
102	0x3c198f32	0.009372519
103	0x3c1b0307	0.009461171
104	0x39a8104e	0.00032055605
105	0x3c23d70a	0.01
106	0x3964be00	0.00021814555
107	0x3ad4e3b1	0.0016242174
108	0x3c233a5c	0.009962644
109	0x3c23d70a	0.01
110	0x3c23d70a	0.01
111	0x3befa9da	0.007313949
112	0x3b39e0cb	0.0028362747
113	0x3b43f39e	0.0029899846
114	0x3bef64b5	0.0073057064
115	0x3c23d70a	0.01
116	0x3ba87aa8	0.005141575
117	0x3c23d70a	0.01
118	0x3c23d70a	0.01
119	0x3c22fbf9	0.00994777
120	0x3bbf9353	0.00584642
121	0x3c013361	0.007885785
122	0x3c1f5989	0.009725937
123	0x3c23d70a	0.01
124	0x3b570fd8	0.003281584
125	0x3bdd637a	0.0067562433
126	0x3bf26c7f	0.0073981876
127	0x3c23d70a	0.01

bn1.running_mean f4 [128]
0	0xc45caa91	-882.6651
1	0xc579fe85	-3999.9075
2	0x457f728b	4087.159
3	0xc4fb6f44	-2011.477
4	0xc4b616dc	-1456.7144
5	0xc49396dd	-1180.7145
6	0xc4c7b10e	-1597.533
7	0xc4588603	-866.09393
8	0xc4192376	-612.5541
9	0x4486cf9e	1078.488
10	0xc43736f2	-732.8585
11	0xc41aed5b	-619.7087
12	0x456f6642	3830.391
13	0xc25a58fc	-54.5869
14	0xc5665a8b	-3685.659
15	0x457ce4b7	4046.2947
16	0xc579ca3d	-3996.64
17	0xc426785e	-665.88074
18	0x43607041	224.43849
19	0xc3103063	-144.18901
20	0x437457a9	244.34242
21	0x42e1f1a9	112.97199
22	0xc1fb89b3	-31.442236
23	0x45811f1e	4131.8896
24	0xc51d47b1	-2516.4807
25	0x43c67b0e	396.96136
26	0xc301e5a8	-129.8971
27	0x456c32e9	3779.182
28	0xc4e3e6c7	-1823.2118
29	0xc572dc68	-3885.7754
30	0x43c44b94	392.59045
31	0xc49277bd	-1171.7418
32	0xc3a73abc	-334.45886
33	0x42a01cf8	80.05658
34	0xc535564c	-2901.3936
35	0x436e7969	238.47426
36	0x457580a8	3928.041
37	0xc3840096	-264.00458
38	0xc3ceba6c	-413.45642
39	0xc4b673b2	-1459.6155
40	0x42df1d51	111.55726
41	0x448271fb	1043.5619
42	0xc50677ee	-2151.4956
43	0xc40f3fbf	-572.99603
44	0x45628c40	3624.7656
45	0xc4ea89e7	-1876.3094
46	0x458127c6	4132.9717
47	0x44013db0	516.96387
48	0x42b3ba9b	89.86446
49	0xc344bac9	-196.72963
50	0x441352b0	589.292
51	0xc3845090	-264.6294
52	0xc5643326	-3651.1968
53	0xc48f5638	-1146.6943
54	0xc3c3a4b0	-391.28662
55	0x43258fbc	165.56146
56	0x4410ecfb	579.7028
57	0x456b1a33	3761.6375
58	0x435e3de1	222.24171
59	0x44448aca	786.1686
60	0x43aaabaf	341.34128
61	0x42b3d92b	89.92416
62	0xc1fdd572	-31.729221
63	0xc4119466	-582.3187
64	0xc45c7f86	-881.99255
65	0x43915348	290.65063
66	0x44533eec	844.98315
67	0x43ddeb67	443.83908
68	0xc56f4cc6	-3828.7983
69	0x43e40143	456.00986
70	0x4491f490	1167.6426
71	0xc524d71b	-2637.444
72	0xc56eff2b	-3823.948
73	0xc40fdcc3	-575.4494
74	0x4575bb6a	3931.7134
75	0xc20a34e6	-34.55166
76	0x4561246f	3602.277
77	0xc46e68de	-953.63855
78	0x4382ed3b	261.85336
79	0x40d98495	6.7974343
80	0xc39c551c	-312.66492
81	0x4328a2db	168.63615
82	0x43c911d1	402.1392
83	0xc4425932	-777.3937
84	0xc5227653	-2599.3953
85	0x44023847	520.87933
86	0x44182aa4	608.66626
87	0x43d47906	424.9455
88	0xc497df44	-1214.977
89	0x4577b143	3963.0789
90	0xc56b19f1	-3761.6213
91	0xc26b07ab	-58.75749
92	0x428d4201	70.628914
93	0x457b0ca4	4016.79
94	0xc37bf756	-251.96616
95	0xc564128d	-3649.1594
96	0x417b9c0c	15.725597
97	0xc3233d2d	-163.23897
98	0x432a4b17	170.29332
99	0xc519a6b9	-2458.4202
100	0xc3d08711	-417.0552
101	0xc5668cf5	-3688.8098
102	0x43272f62	167.18509
103	0xc3301159	-176.06776
104	0x43d1807f	419.00388
105	0x42018048	32.375275
106	0x43fab855	501.4401
107	0x4569d1c1	3741.1096
108	0x41170841	9.439515
109	0xc3d1d36a	-419.65167
110	0x44a6444c	1330.1343
111	0x457431fe	3907.1245
112	0x45812696	4132.823
113	0x4517d950	2429.582
114	0x455d2c1f	3538.7576
115	0x43546096	212.37729
116	0x4334683e	180.4072
117	0xc45cc29a	-883.04065
118	0x452d176a	2769.4634
119	0xc1442a62	-12.260347
120	0x43801a7e	256.20697
121	0xc56e7538	-3815.3262
122	0x42ab49ab	85.64388
123	0xc4ddb8c2	-1773.7737
124	0xc3fbe1fd	-503.76553
125	0xc2aa6754	-85.20181
126	0x45145c79	2373.7795
127	0xc38a9ae4	-277.21008

bn1.running_var f4 [128]
0	0x4a0186bc	2.122159e+06
1	0x4c26ca2c	4.372293e+07
2	0x4c2e1b9f	4.564134e+07
3	0x4b28a8d9	1.1053273e+07
4	0x4ab16f2b	5.8141655e+06
5	0x4a68c677	3.8137898e+06
6	0x4ad46aa1	6.9604645e+06
7	0x49fa2f90	2.049522e+06
8	0x497a7296	1.0258334e+06
9	0x4a42c534	3.191117e+06
10	0x49b2836d	1.4623816e+06
11	0x497f4b2d	1.0456828e+06
12	0x4c18efdf	4.0091516e+07
13	0x4601e9b6	8314.428
14	0x4c0d8422	3.709761e+07
15	0x4c2aa4a4	4.473307e+07
16	0x4c2684ed	4.365202e+07
17	0x4993c724	1.2105965e+06
18	0x4805eade	137131.47
19	0x47609e3e	57502.242
20	0x481f5875	163169.83
21	0x47087975	34937.457
22	0x4529bb3e	2715.7026
23	0x4c31f1fd	4.6647284e+07
24	0x4b8403ca	1.7303444e+07
25	0x48d1f961	430027.03
26	0x47416d9f	49517.62
27	0x4c14d8da	3.901937e+07
28	0x4b0a4e4f	9.064015e+06
29	0x4c1d69cf	4.1264956e+07
30	0x48ceb5a6	423341.2
31	0x4a64f518	3.751238e+06
32	0x48953c10	305632.5
33	0x4689dc6a	17646.207
34	0x4baf8161	2.3003842e+07
35	0x4817e435	155536.83
36	0x4c20d053	4.2156364e+07
37	0x483a05f9	190487.89
38	0x48e2f89d	464836.9
39	0x4ab1a433	5.8209535e+06
40	0x4705bf69	34239.41
41	0x4a363bb2	2.9857085e+06
42	0x4b40f6ea	1.2646122e+07
43	0x4959ea08	892576.5
44	0x4c08f56d	3.59029e+07
45	0x4b12cd9f	9.620895e+06
46	0x4c3207e4	4.666971e+07
47	0x493249bc	730267.75
48	0x46c2a904	24916.508
49	0x47cd9a27	105268.305
50	0x4967aa9e	948905.9
51	0x483ae960	191397.5
52	0x4c0afafd	3.6432884e+07
53	0x4a5b48b3	3.5927488e+06
54	0x48cc4762	418363.06
55	0x47926e67	74972.805
56	0x49602d4e	918228.9
57	0x4c137a75	3.8660564e+07
58	0x4803cfb1	134974.77
59	0x49ce213d	1.6886156e+06
60	0x489cd22b	321169.34
61	0x46aca435	22098.104
62	0x452b599e	2741.601
63	0x49623118	926481.5
64	0x4a014d37	2.1184778e+06
65	0x48616865	230817.58
66	0x49ee241c	1.9508515e+06
67	0x49036a13	538273.2
68	0x4c18d706	4.006607e+07
69	0x490a6c19	566977.56
70	0x4a635ba5	3.7250332e+06
71	0x4b910e39	1.9012722e+07
72	0x4c18711c	3.996171e+07
73	0x495ce332	904755.1
74	0x4c211d24	4.2235024e+07
75	0x454bc3c9	3260.2366
76	0x4c073d51	3.5452228e+07
77	0x4a17abbc	2.484975e+06
78	0x4836f53c	187348.94
79	0x4311cac7	145.7921
80	0x488264d1	267046.53
81	0x4797ded4	77757.66
82	0x48d6af01	439672.03
83	0x49c8e4e7	1.6457249e+06
84	0x4b8cdd45	1.846337e+07
85	0x4935003e	741379.9
86	0x4978be65	1.0188543e+06
87	0x48f3d00d	499328.4
88	0x4a762c73	4.0333088e+06
89	0x4c23b166	4.291113e+07
90	0x4c1382fb	3.8669292e+07
91	0x46158287	9568.632
92	0x46841842	16908.129
93	0x4c282b62	4.4084616e+07
94	0x4829b84d	173793.2
95	0x4c0ad30d	3.6391988e+07
96	0x447ecb65	1019.17804
97	0x478e39ae	72819.36
98	0x479acb77	79254.93
99	0x4b7c014d	1.6515405e+07
100	0x48e80ea5	475253.16
101	0x4c0ddc02	3.718759e+07
102	0x4795ba60	76660.75
103	0x47a583fe	84743.984
104	0x48ea32c3	479638.1
105	0x4532a745	2858.4543
106	0x4927bf92	687097.1
107	0x4c11df56	3.8239576e+07
108	0x43996f9d	306.87198
109	0x48e9b6ed	478647.4
110	0x4a932932	4.822169e+06
111	0x4c1f19d6	4.170735e+07
112	0x4c32053d	4.6666996e+07
113	0x4b762308	1.6130824e+07
114	0x4c0281f6	3.42118e+07
115	0x47efa780	122703.0
116	0x47adc85b	88976.71
117	0x4a01b004	2.124801e+06
118	0x4b9faaba	2.092786e+07
119	0x44df0566	1784.1687
120	0x482f398e	179430.22
121	0x4c17c195	3.9781972e+07
122	0x46adbbcd	22237.9
123	0x4b02e66c	8.578668e+06
124	0x49291c94	692681.25
125	0x46a4899f	21060.81
126	0x4b6af102	1.5397122e+07
127	0x484bebe5	208815.58

fc2.weight f4 [128, 128]
0	0xbc23d70a	-0.01
1	0xbc23d70a	-0.01
2	0x3c23d70a	0.01
3	0xbc23d70a	-0.01
4	0x3b251d0c	0.0025194315
5	0xbbff5b20	-0.0077928454
6	0xbc23d70a	-0.01
7	0x3b68a9c0	0.003550157
8	0x3c07edff	0.008296489
9	0xb82d4110	-4.130701e-05
10	0xbc23d70a	-0.01
11	0xbc23d70a	-0.01
12	0x3c23d70a	0.01
13	0x3bc16a36	0.005902554
14	0xbc23d70a	-0.01
15	0x3c23d70a	0.01
16	0xbc23d70a	-0.01
17	0x3b6fe655	0.0036605794
18	0x3c23d70a	0.01
19	0x3bd7a3d5	0.0065808096
20	0xbbbb29fd	-0.0057117925
21	0xbb75063a	-0.0037387745
22	0xbc23d70a	-0.01
23	0x3c23d70a	0.01
24	0xbc23d70a	-0.01
25	0xbb6306b0	-0.0034641437
26	0xba06686a	-0.0005127253
27	0x3c23d70a	0.01
28	0xbc23d70a	-0.01
29	0xbc23d70a	-0.01
30	0xbb98587a	-0.004649219
31	0x3b4e1a38	0.0031448733
32	0x3b87a30b	0.0041393093
33	0x3c23d70a	0.01
34	0xbc23d70a	-0.01
35	0xbc08e6c7	-0.008355803
36	0x3c23d70a	0.01
37	0xbb9bae6a	-0.0047510164
38	0xbc23d70a	-0.01
39	0x3b3a1565	0.00283941
40	0xbc163192	-0.009167092
41	0x3b5049db	0.0031782303
42	0xbc23d70a	-0.01
43	0xb9dcacbf	-0.00042090376
44	0x3c23d70a	0.01
45	0xbc23d70a	-0.01
46	0x3c23d70a	0.01
47	0xbb59cc4a	-0.0033233338
48	0xbc1af0be	-0.0094568115
49	0x3bb73db6	0.0055920733
50	0xbaa8e0d1	-0.0012884383
51	0x3bb1683f	0.0054140384
52	0xbc23d70a	-0.01
53	0xbc23d70a	-0.01
54	0x3c033117	0.008007309
55	0x3c23d70a	0.01
56	0xbb66ef25	-0.0035237756
57	0x3c23d70a	0.01
58	0xbba9b4d1	-0.0051790257
59	0xbb3628d2	-0.0027795327
60	0x3a0f5009	0.0005466943
61	0xbbfd4aaa	-0.007729848
62	0x3c23d70a	0.01
63	0x3b801267	0.0039084437
64	0xbc23d70a	-0.01
65	0xbb89e47d	-0.004208146
66	0xbb45b9af	-0.003017049
67	0xbb666b12	-0.0035159034
68	0xbc23d70a	-0.01
69	0x3b421d88	0.0029619653
70	0xba987177	-0.0011630495
71	0xbc23d70a	-0.01
72	0xbc23d70a	-0.01
73	0x3bfd25c5	0.0077254497
74	0x3c23d70a	0.01
75	0xbc23d70a	-0.01
76	0x3c23d70a	0.01
77	0xbc23d70a	-0.01
78	0xbbceb897	-0.006308626
79	0x3c23d70a	0.01
80	0x3b8067e3	0.0039186343
81	0xbb8797a3	-0.0041379496
82	0x3c23d70a	0.01
83	0xbc23d70a	-0.01
84	0xbc23d70a	-0.01
85	0xbb68effa	-0.0035543428
86	0x3b994cd2	0.004678347
87	0xbc0f2fa1	-0.008739383
88	0xbaf02154	-0.001832048
89	0x3c23d70a	0.01
90	0xbc23d70a	-0.01
91	0x3bc3de2f	0.005977414
92	0xbbe13868	-0.006873179
93	0x3c23d70a	0.01
94	0x3bef07ca	0.0072946297
95	0xbc23d70a	-0.01
96	0x3c1d4426	0.009598767
97	0x3bf43b15	0.007453332
98	0xbba9e7f2	-0.0051851207
99	0xbc23d70a	-0.01
100	0x3b81b740	0.0039586127
101	0xbc23d70a	-0.01
102	0x3b9a4293	0.0047076433
103	0x3bb4ca32	0.0055172676
104	0xbb5edff1	-0.0034007991
105	0x3c23d70a	0.01
106	0xbaa5faae	-0.0012663209
107	0x3c23d70a	0.01
108	0x3c23d70a	0.01
109	0xbc0145f6	-0.007890215
110	0x3c23d70a	0.01
111	0x3c23d70a	0.01
112	0x3c23d70a	0.01
113	0x3c23d70a	0.01
114	0x3c23d70a	0.01
115	0x3c23d70a	0.01
116	0xbbd78fdb	-0.006578428
117	0xbc23d70a	-0.01
118	0x3c23d70a	0.01
119	0xbc238ecb	-0.009982775
120	0xbbefae3d	-0.007314472
121	0xbc23d70a	-0.01
122	0x3babcfde	0.0052432856
123	0xbc23d70a	-0.01
124	0x3b715f7a	0.003683059
125	0x3c0efa67	0.008726693
126	0x3c23d70a	0.01
127	0xbc23d70a	-0.01
128	0x3c23d70a	0.01
129	0x3c23d70a	0.01
130	0xbc23d70a	-0.01
131	0x3c23d70a	0.01
132	0xbb240276	-0.002502588
133	0x3bff03f1	0.0077824523
134	0x3c23d70a	0.01
135	0xbb6f059e	-0.0036471854
136	0xbc06e8fb	-0.008234258
137	0x3b94a553	0.0045363097
138	0x3c23d70a	0.01
139	0x3c23d70a	0.01
140	0xbc23d70a	-0.01
141	0xbbc4c54c	-0.006004965
142	0x3c23d70a	0.01
143	0xbc23d70a	-0.01
144	0x3c23d70a	0.01
145	0xbb8100c9	-0.003936861
146	0xbc23d70a	-0.01
147	0xbbcd3af6	-0.006263132
148	0x3bb93606	0.005652192
149	0x3b6ffee4	0.0036620433
150	0x3c23d70a	0.01
151	0xbc23d70a	-0.01
152	0x3c23d70a	0.01
153	0x3b618b44	0.0034415284
154	0x3adc7213	0.0016818665
155	0xbc23d70a	-0.01
156	0x3c23d70a	0.01
157	0x3c23d70a	0.01
158	0x3b96e0aa	0.0046044188
159	0xbb4da451	-0.0031378458
160	0xbb8d8c1f	-0.0043196823
161	0xbc23d70a	-0.01
162	0x3c23d70a	0.01
163	0x3c080681	0.008302332
164	0xbc23d70a	-0.01
165	0x3b9a2a1a	0.004704726
166	0x3c23d70a	0.01
167	0xbb3146d9	-0.0027050285
168	0x3c15b68c	0.009137761
169	0xbb42a96a	-0.002970303
170	0x3c23d70a	0.01
171	0x3afc5930	0.0019252654
172	0xbc23d70a	-0.01
173	0x3c23d70a	0.01
174	0xbc23d70a	-0.01
175	0x3b5699c3	0.0032745458
176	0x3c1b1e4f	0.009467675
177	0xbbb2a82d	-0.005452177
178	0x3aa309dc	0.0012438851
179	0xbbb51a0f	-0.005526788
180	0x3c23d70a	0.01
181	0x3c23d70a	0.01
182	0xbc023bb9	-0.007948809
183	0xbc23d70a	-0.01
184	0x3b65f24d	0.003508705
185	0xbc23d70a	-0.01
186	0x3ba79f12	0.005115398
187	0x3b3b804f	0.0028610413
188	0xbc0b0ebe	-0.0084874015
189	0x3bfa4beb	0.0076384447
190	0xbc23d70a	-0.01
191	0xbb8850e2	-0.0041600326
192	0x3c23d70a	0.01
193	0x3b874471	0.004128032
194	0x3b4512d5	0.003007104
195	0x3b5fdaf3	0.0034157604
196	0x3c23d70a	0.01
197	0x3bd744d0	0.0065694824
198	0x3a7a2bc6	0.0009543266
199	0x3c23d70a	0.01
200	0x3c23d70a	0.01
201	0xbbfb4601	-0.007668257
202	0xbc23d70a	-0.01
203	0x3c23d70a	0.01
204	0xbc23d70a	-0.01
205	0x3c23d70a	0.01
206	0x3bcc5ea5	0.0062368684
207	0xbc23d70a	-0.01
208	0xbb862ed5	-0.0040949383
209	0x3b84ee83	0.004056753
210	0xbc23d70a	-0.01
211	0x3c23d70a	0.01
212	0x3c23d70a	0.01
213	0x3b64d3b8	0.0034916233
214	0xbb8eec10	-0.004361637
215	0x3c0e3c7f	0.008681416
216	0x3ad9b434	0.0016609491
217	0xbc23d70a	-0.01
218	0x3c23d70a	0.01
219	0xbbc6f1db	-0.006071312
220	0x3c009cf3	0.00784992
221	0xbc23d70a	-0.01
222	0xbbd1224b	-0.006382262
223	0x3c23d70a	0.01
224	0xbc15a5ac	-0.0091337375
225	0xbbf236af	-0.0073917727
226	0x3ba7a888	0.005116526
227	0x3c23d70a	0.01
228	0xbb854185	-0.0040666484
229	0x3c23d70a	0.01
230	0xbb920976	-0.0044566942
231	0xbbb865ca	-0.0056273686
232	0x3b5b15e8	0.0033429805
233	0xbc23d70a	-0.01
234	0x3b250950	0.0025182553
235	0xbc23d70a	-0.01
236	0xbc23d70a	-0.01
237	0x3c11e3f3	0.008904445
238	0xbc23d70a	-0.01
239	0xbc23d70a	-0.01
240	0xbc23d70a	-0.01
241	0xbc23d70a	-0.01
242	0xbc23d70a	-0.01
243	0xbc23d70a	-0.01
244	0x3bd40698	0.0064705126
245	0x3c23d70a	0.01
246	0xbc23d70a	-0.01
247	0x3c238630	0.009980723
248	0x3bebf3fe	0.007200717
249	0x3c23d70a	0.01
250	0xb9f1e431	-0.00046137118
251	0x3c23d70a	0.01
252	0xbb788f49	-0.0037927201
253	0xbc0cc076	-0.008590808
254	0xbc23d70a	-0.01
255	0x3c23d70a	0.01

fc2.bias f4 [128]
0	0xbbb0621a	-0.0053827884
1	0xbbccbd9f	-0.0062481905
2	0x3b0837ed	0.0020785287
3	0xbc22f343	-0.009945693
4	0x3ada9e72	0.00166793
5	0xbc234960	-0.009966224
6	0xbc23a7e0	-0.009988755
7	0x3b260910	0.0025334992
8	0xbbd1cc70	-0.0064025447
9	0xbc23b609	-0.009992131
10	0x3c041bd5	0.008063276
11	0x3c231bd8	0.009955369
12	0xbbabb777	-0.0052403766
13	0xbbb20ff9	-0.005434033
14	0x3af62044	0.0018777926
15	0x3b0b4ee6	0.0021256744
16	0x3c22ff2d	0.009948534
17	0xbc236605	-0.009973054
18	0xbc2364a8	-0.009972729
19	0xbbcf1db5	-0.00632068
20	0x3c10584b	0.008810113
21	0xbc23aded	-0.009990198
22	0x3b385f95	0.0028133143
23	0x3c236a4c	0.009974074
24	0xbc233c8d	-0.009963167
25	0x3ad074d0	0.0015903953
26	0xbc23d70a	-0.01
27	0xbc2374f2	-0.009976612
28	0x3b0bd604	0.002133728
29	0x3c233d7c	0.0099633895
30	0xbc23a4bf	-0.009988009
31	0x3b17511e	0.002308912
32	0xbc23914f	-0.009983375
33	0xbbcdb223	-0.006277339
34	0x3b19cab6	0.0023466772
35	0x3c231530	0.009953782
36	0xbbe8076d	-0.0070809633
37	0xbc23d70a	-0.01
38	0xbb619598	-0.003442144
39	0xbba86208	-0.0051386394
40	0xbbb626d7	-0.0055588293
41	0xbc23bbc1	-0.0099934945
42	0x3c22c561	0.009934754
43	0x3b60f4dd	0.0034325637
44	0x3c22c919	0.009935641
45	0xbc233305	-0.0099608945
46	0xbc23ce6c	-0.009997945
47	0x3c2377f6	0.009977331
48	0xbc232a84	-0.009958867
49	0x3c230c7c	0.009951707
50	0x3c239ade	0.009985654
51	0xbc2365b1	-0.009972976
52	0x3b760bbe	0.003754362
53	0x3afb5a64	0.0019176719
54	0xbc2344ba	-0.009965116
55	0x3c233606	0.009961611
56	0xbc23b33d	-0.009991464
57	0xbbb6799b	-0.0055686957
58	0x3c23bf34	0.009994317
59	0xbc234f65	-0.00996766
60	0xbbda2887	-0.0066576633
61	0x3b00375c	0.0019564247
62	0xbc23d70a	-0.01
63	0xbba6e2b6	-0.005092944
64	0x3c0c1c40	0.008551657
65	0x3b0e3ab4	0.002170247
66	0xbc235e9b	-0.009971286
67	0x3c227b2b	0.009917061
68	0x3c225593	0.009908098
69	0x3b0a51c7	0.0021105872
70	0xbc23d70a	-0.01
71	0x3c233ae6	0.009962773
72	0x3b1b7afc	0.0023724427
73	0x3c235a4c	0.009970259
74	0x3c21f513	0.00988509
75	0xbc23d70a	-0.01
76	0xbc23bbcb	-0.009993504
77	0x3b6ecdbb	0.0036438543
78	0x3b19b7ed	0.0023455576
79	0xbc233871	-0.009962187
80	0xbc238ff3	-0.009983051
81	0x3c2339f8	0.009962551
82	0x3b12eab8	0.0022417735
83	0xbc23d613	-0.00999977
84	0xbbaf7f4d	-0.0053557516
85	0x3b13c50c	0.002254787
86	0x3c2342d2	0.009964662
87	0x3b6a1775	0.0035719548
88	0xbc237f0c	-0.009979021
89	0xbc22c264	-0.009934042
90	0xbc23b187	-0.009991056
91	0x3b722519	0.0036948381
92	0x3c22ca42	0.009935917
93	0xbc239124	-0.009983335
94	0x3c232743	0.009958091
95	0xbbcf2acb	-0.00632224
96	0xbba6123c	-0.0050680917
97	0x3c236f26	0.00997523
98	0xbc2269b1	-0.009912894
99	0xbb9bb70d	-0.004752046
100	0x3c22c757	0.009935222
101	0xbc233841	-0.009962142
102	0xbc23bd3e	-0.009993849
103	0xbbda6e92	-0.006666013
104	0xbba95c3d	-0.0051684664
105	0x3c22c7db	0.009935345
106	0xbbd532fc	-0.006506322
107	0xbbdd4fd0	-0.006753899
108	0xbc2385a5	-0.009980594
109	0x3b6ee0bc	0.003644987
110	0x3b7df594	0.0038751112
111	0xbbd4d54d	-0.006495154
112	0xbba6e64b	-0.005093371
113	0x3c23cefa	0.0099980775
114	0x3c234124	0.009964261
115	0xbc232270	-0.009956941
116	0xbbdba448	-0.0067029335
117	0x3b30983d	0.002694621
118	0xbc23234f	-0.009957149
119	0x3c23c57b	0.0099958135
120	0xbc230a75	-0.009951224
121	0xbc23c04b	-0.009994577
122	0xbbe0133e	-0.0068382313
123	0xbba8406c	-0.005134633
124	0x3c23ca9f	0.009997039
125	0x3c22d98e	0.009939564
126	0xbbcd29a0	-0.0062610656
127	0xbc23cc0b	-0.009997378

bn2.weight f4 [128]
0	0x3c23d70a	0.01
1	0x3c23d70a	0.01
2	0x3c23d70a	0.01
3	0x3c23d70a	0.01
4	0x3c23d70a	0.01
5	0x3c23d70a	0.01
6	0x3bc12d06	0.00589526
7	0x3c23d70a	0.01
8	0x3c23d70a	0.01
9	0x3c23d70a	0.01
10	0x3c23d70a	0.01
11	0x3c23d70a	0.01
12	0x3c23d70a	0.01
13	0x3c23d70a	0.01
14	0x3c23d70a	0.01
15	0x3c23d70a	0.01
16	0x3c23d70a	0.01
17	0x3c23d70a	0.01
18	0x3c23d70a	0.01
19	0x3c23d70a	0.01
20	0x3bc7dd9e	0.006099417
21	0x3c23d70a	0.01
22	0x3c23d70a	0.01
23	0x3c23d70a	0.01
24	0x3c23d70a	0.01
25	0x3c23d70a	0.01
26	0x3c23d70a	0.01
27	0x3c23d70a	0.01
28	0x3c23d70a	0.01
29	0x3c23d70a	0.01
30	0x3c23d70a	0.01
31	0x3c23d70a	0.01
32	0x3c23d70a	0.01
33	0x3c23d70a	0.01
34	0x3c23d70a	0.01
35	0x3c23d70a	0.01
36	0x3c23d70a	0.01
37	0x3c23d70a	0.01
38	0x3c23d70a	0.01
39	0x3c23d70a	0.01
40	0x3c23d70a	0.01
41	0x3c23d70a	0.01
42	0x3c23d70a	0.01
43	0x3c23d70a	0.01
44	0x3c23d70a	0.01
45	0x3c23d70a	0.01
46	0x3c23d70a	0.01
47	0x3c23d70a	0.01
48	0x3c23d70a	0.01
49	0x3c23d70a	0.01
50	0x3c23d70a	0.01
51	0x3c23d70a	0.01
52	0x3c23d70a	0.01
53	0x3c23d70a	0.01
54	0x3c23d70a	0.01
55	0x3c23d70a	0.01
56	0x3bd1229c	0.0063822996
57	0x3c23d70a	0.01
58	0x3bc787c2	0.0060891816
59	0x3c23d70a	0.01
60	0x3c23d70a	0.01
61	0x3c23d70a	0.01
62	0x3c23d70a	0.01
63	0x3c23d70a	0.01
64	0x3bd12b3e	0.0063833287
65	0x3c23d70a	0.01
66	0x3c23d70a	0.01
67	0x3c23d70a	0.01
68	0x3c23d70a	0.01
69	0x3c23d70a	0.01
70	0x3c23d70a	0.01
71	0x3c23d70a	0.01
72	0x3c23d70a	0.01
73	0x3c23d70a	0.01
74	0x3c23d70a	0.01
75	0x3c23d70a	0.01
76	0x3c23d70a	0.01
77	0x3c23d70a	0.01
78	0x3c23d70a	0.01
79	0x3c23d70a	0.01
80	0x3c23d70a	0.01
81	0x3c23d70a	0.01
82	0x3c23d70a	0.01
83	0x3c23d70a	0.01
84	0x3c23d70a	0.01
85	0x3c23d70a	0.01
86	0x3c23d70a	0.01
87	0x3c23d70a	0.01
88	0x3c23d70a	0.01
89	0x3c23d70a	0.01
90	0x3bd28529	0.0064245653
91	0x3c23d70a	0.01
92	0x3c23d70a	0.01
93	0x3c23d70a	0.01
94	0x3c23d70a	0.01
95	0x3c23d70a	0.01
96	0x3c23d70a	0.01
97	0x3c23d70a	0.01
98	0x3bbca99d	0.005757524
99	0x3c23d70a	0.01
100	0x3c23d70a	0.01
101	0x3c23d70a	0.01
102	0x3c23d70a	0.01
103	0x3c23d70a	0.01
104	0x3c23d70a	0.01
105	0x3c23d70a	0.01
106	0x3c23d70a	0.01
107	0x3c23d70a	0.01
108	0x3c23d70a	0.01
109	0x3c23d70a	0.01
110	0x3c23d70a	0.01
111	0x3c23d70a	0.01
112	0x3c23d70a	0.01
113	0x3bb5db7b	0.0055498458
114	0x3c23d70a	0.01
115	0x3c23d70a	0.01
116	0x3c23d70a	0.01
117	0x3c23d70a	0.01
118	0x3c23d70a	0.01
119	0x3bb364b8	0.005474653
120	0x3c23d70a	0.01
121	0x3c23d70a	0.01
122	0x3c23d70a	0.01
123	0x3c23d70a	0.01
124	0x3c23d70a	0.01
125	0x3c23d70a	0.01
126	0x3c23d70a	0.01
127	0x3c23d70a	0.01

bn2.bias f4 [128]
0	0x3719ebb0	9.174386e-06
1	0xb70e0d14	-8.466905e-06
2	0x389eea84	7.577709e-05
3	0x38b58856	8.656147e-05
4	0x381a8287	3.6838024e-05
5	0xb89af343	-7.388603e-05
6	0x3b03e008	0.0020122547
7	0xb862d0c9	-5.4077045e-05
8	0xb74b6368	-1.2122888e-05
9	0xb904737a	-0.0001263152
10	0xb81c045b	-3.7197355e-05
11	0x370e3e0c	8.478306e-06
12	0x373c54a4	1.122538e-05
13	0x3754ceaa	1.2684302e-05
14	0x38838678	6.2716135e-05
15	0xb77815c2	-1.4787018e-05
16	0x3718cba6	9.107322e-06
17	0x38b1732a	8.461469e-05
18	0x3710284c	8.592451e-06
19	0xb77a4300	-1.4916761e-05
20	0x3aaa81a6	0.0013008609
21	0x389acb1c	7.381124e-05
22	0xb8f85ea4	-0.0001184319
23	0x37709108	1.43388825e-05
24	0x36a2bfe6	4.850316e-06
25	0x37d7b6a2	2.5715042e-05
26	0x380ba9f2	3.3298456e-05
27	0x38b0b616	8.42625e-05
28	0x386204f3	5.388721e-05
29	0x368c0138	4.172467e-06
30	0xb7b6957f	-2.1765705e-05
31	0x37e9f027	2.7887594e-05
32	0xb8a8e5b3	-8.053649e-05
33	0xb72b59e4	-1.0213324e-05
34	0x38a05b08	7.6463504e-05
35	0xb7497940	-1.2008764e-05
36	0xb7451d82	-1.1748985e-05
37	0xb900d1f3	-0.00012285243
38	0x3500d3d4	4.7991966e-07
39	0x373ae65c	1.1140099e-05
40	0x375840c6	1.28896845e-05
41	0x3857fe4e	5.1496834e-05
42	0x3711937e	8.677014e-06
43	0x37a30656	1.9434065e-05
44	0xb7624604	-1.34869515e-05
45	0x36d4e112	6.344294e-06
46	0xb89dda85	-7.527046e-05
47	0xb750083a	-1.23996815e-05
48	0x3906c7a0	0.00012853602
49	0xb75d0de0	-1.3175857e-05
50	0x370ca318	8.3826235e-06
51	0xb8a630f2	-7.9246136e-05
52	0xb85e5c74	-5.301503e-05
53	0x37f7e83d	2.9552839e-05
54	0xb84a941a	-4.8298483e-05
55	0xb751904c	-1.24909675e-05
56	0x3ac98013	0.0015373252
57	0x36aa3e20	5.073627e-06
58	0xbb66b2c5	-0.003520177
59	0x37e3e803	2.7168548e-05
60	0xb7701c48	-1.43116995e-05
61	0x38c272fc	9.2720584e-05
62	0xb6dcc2e8	-6.579201e-06
63	0x370c7ecc	8.3741725e-06
64	0x3aff1d22	0.0019463638
65	0x38707bd5	5.7335787e-05
66	0x3881d8be	6.191571e-05
67	0xb70b7478	-8.312163e-06
68	0xb71afa90	-9.237454e-06
69	0x35465028	7.387739e-07
70	0xb605b132	-1.9921686e-06
71	0x3765b10a	1.3690684e-05
72	0x3830b6fa	4.213208e-05
73	0xb7872032	-1.6108246e-05
74	0xb7414a1e	-1.1520953e-05
75	0x38254838	3.9406325e-05
76	0xb7c969f1	-2.40104e-05
77	0xb771b445	-1.4406692e-05
78	0x38731411	5.7954403e-05
79	0xb877a12d	-5.9039496e-05
80	0xb850e606	-4.980529e-05
81	0x37243014	9.786356e-06
82	0x37ee74d8	2.842622e-05
83	0xb8f4c4f6	-0.000116715135
84	0x36ce5bcc	6.149965e-06
85	0x3858f27e	5.172425e-05
86	0xb65b5f10	-3.2688877e-06
87	0xb8a2afc7	-7.757503e-05
88	0x38103f23	3.4391076e-05
89	0xb8991228	-7.2989904e-05
90	0xbb33f696	-0.002746021
91	0x37c6bca8	2.369129e-05
92	0x37331412	1.0673904e-05
93	0x383795ea	4.377022e-05
94	0xb74406ae	-1.1684066e-05
95	0xb71242ac	-8.717801e-06
96	0x373751b0	1.0926669e-05
97	0xb756ff30	-1.2814809e-05
98	0x3b1030db	0.0022001776
99	0x37788383	1.4812572e-05
100	0xb754c650	-1.2682358e-05
101	0xb825f4f1	-3.9567185e-05
102	0x38de13a5	0.00010589444
103	0xb6cd46ec	-6.1177325e-06
104	0x3767b508	1.3810823e-05
105	0x3732ac0e	1.0649686e-05
106	0xb7467a62	-1.1830214e-05
107	0xb71f6906	-9.501591e-06
108	0x381a0115	3.671747e-05
109	0xb7a555ba	-1.9709452e-05
110	0xb8f848b2	-0.00011839102
111	0xb77be5e6	-1.5014293e-05
112	0x36d0d518	6.2236904e-06
113	0xbb9436a4	-0.004523115
114	0x3688b1c0	4.0738087e-06
115	0xb847a0e0	-4.7595124e-05
116	0xb79e4cbf	-1.8870805e-05
117	0x389989b2	7.321256e-05
118	0x389851d4	7.2631665e-05
119	0xbb8103b1	-0.0039372076
120	0x37739778	1.4519195e-05
121	0xb84b6e7a	-4.850186e-05
122	0xb739190c	-1.1032691e-05
123	0x370dc26c	8.449522e-06
124	0xb736b508	-1.0890195e-05
125	0x3728dbdc	1.006477e-05
126	0xb77f49c2	-1.52163575e-05
127	0xb8cf7abd	-9.893391e-05

bn2.running_mean f4 [128]
0	0xbbc0ee9c	-0.0058878195
1	0xbbb76e60	-0.0055978745
2	0x3b043d8b	0.0020178284
3	0xbc21ee61	-0.009883494
4	0x3ad85332	0.0016504286
5	0xbc227060	-0.009914488
6	0xbc1dbb75	-0.009627213
7	0x3b26a394	0.002542709
8	0xbbbd614c	-0.005779421
9	0xbc231adb	-0.009955133
10	0x3c05b1f2	0.008160101
11	0x3c18e82e	0.0093327
12	0xbbc0f0ed	-0.0058880956
13	0xbbc44cfe	-0.0059906235
14	0x3af9c419	0.0019055634
15	0x3b0f9881	0.0021910968
16	0x3c196a9c	0.009363797
17	0xbc22d930	-0.009939477
18	0xbc233354	-0.009960968
19	0xbbbeda4f	-0.0058243643
20	0x3c102992	0.008798974
21	0xbc23356e	-0.009961469
22	0x3b393c30	0.0028264634
23	0x3c1b4f80	0.0094794035
24	0xbc234623	-0.009965452
25	0x3ad8f6c4	0.0016553034
26	0xbc23f075	-0.01000606
27	0xbc234182	-0.009964349
28	0x3b0abfb6	0.0021171398
29	0x3c19303c	0.009349879
30	0xbc23a09a	-0.009987021
31	0x3b141d26	0.0022600382
32	0xbc23ccee	-0.0099975895
33	0xbbbd1b31	-0.0057710637
34	0x3b1a6574	0.0023559006
35	0x3c2bfbce	0.010497047
36	0xbbd57dba	-0.006515232
37	0xbc2316c0	-0.0099541545
38	0xbb5d554e	-0.003377277
39	0xbbbe046b	-0.0057988665
40	0xbbc6419d	-0.006050302
41	0xbc236afa	-0.009974236
42	0x3c1aeb39	0.0094554955
43	0x3b62acb6	0.0034587807
44	0x3c2cf63b	0.010556753
45	0xbc23bbde	-0.0099935215
46	0xbc24007a	-0.010009879
47	0x3c2d4df9	0.010577672
48	0xbc228e76	-0.009921661
49	0x3c2afc91	0.010436193
50	0x3c1b4446	0.009476727
51	0xbc22f13a	-0.009945208
52	0x3b742dd6	0.0037258766
53	0x3af6b06b	0.0018820887
54	0xbc231be2	-0.009955378
55	0x3c2a895b	0.010408725
56	0xbc18c4f6	-0.009324303
57	0xbbcc172f	-0.0062283496
58	0x3c2432a4	0.010021839
59	0xbc236b33	-0.009974289
60	0xbbc9b0c8	-0.006155107
61	0x3b000538	0.001953436
62	0xbc23671e	-0.0099733155
63	0xbbbb56f5	-0.005717153
64	0x3c13ca60	0.009020418
65	0x3b0f02c0	0.0021821707
66	0xbc24607f	-0.010032772
67	0x3c2cb66a	0.010541538
68	0x3c2a5b80	0.010397792
69	0x3b05d0df	0.0020418686
70	0xbc2510e8	-0.010074832
71	0x3c1b7e66	0.009490585
72	0x3b1a7051	0.002356548
73	0x3c2b62d3	0.010460573
74	0x3c2a98c8	0.010412402
75	0xbc2395e6	-0.009984469
76	0xbc23f798	-0.010007761
77	0x3b6dea87	0.003630312
78	0x3b172a1d	0.0023065873
79	0xbc225051	-0.009906844
80	0xbc241b77	-0.010016314
81	0x3c1b9074	0.0094948895
82	0x3b12537c	0.0022327593
83	0xbc2375cf	-0.009976818
84	0xbbc21248	-0.0059225895
85	0x3b11a18a	0.002222153
86	0x3c2b9166	0.010471677
87	0x3b691ed7	0.003557136
88	0xbc22d0a8	-0.009937443
89	0xbc22abb3	-0.009928632
90	0xbc21c814	-0.0098743625
91	0x3b72eab7	0.003706617
92	0x3c1a4590	0.009415999
93	0xbc22d609	-0.009938725
94	0x3c2a8269	0.010407069
95	0xbbbb6290	-0.0057185367
96	0xbbbb6e70	-0.0057199523
97	0x3c2c0e98	0.010501526
98	0xbc0cd0a8	-0.008594669
99	0xbbae95a7	-0.0053278985
100	0x3c2d63e6	0.0105829
101	0xbc227fd4	-0.009918172
102	0xbc24743b	-0.010037477
103	0xbbcaf68e	-0.0061939424
104	0xbbbb2ef5	-0.005712385
105	0x3c1a2005	0.009407048
106	0xbbbf31d3	-0.005834797
107	0xbbca3703	-0.0061711087
108	0xbc247841	-0.010038436
109	0x3b6cdc4e	0.0036142054
110	0x3b800f13	0.003908047
111	0xbbc52bd2	-0.0060171867
112	0xbbbb5cfa	-0.005717871
113	0x3c0fbfde	0.008773772
114	0x3c195e28	0.0093608275
115	0xbc23344b	-0.009961198
116	0xbbc92106	-0.00613797
117	0x3b32e1d6	0.0027295253
118	0xbc22f474	-0.0099459775
119	0x3c16e3b4	0.009209562
120	0xbc22304e	-0.009899212
121	0xbc23f732	-0.010007666
122	0xbbcde141	-0.006282956
123	0xbbbc8358	-0.005752962
124	0x3c2e4dae	0.0106386375
125	0x3c1892ae	0.009312315
126	0xbbbd2110	-0.0057717636
127	0xbc235348	-0.009968586

bn2.running_var f4 [128]
0	0x36e84609	6.922292e-06
1	0x36e6e8d7	6.8816403e-06
2	0x360a5b7a	2.0616849e-06
3	0x3608b474	2.0370617e-06
4	0x36045e7c	1.972453e-06
5	0x3608c91d	2.0382643e-06
6	0x33d24178	9.790796e-08
7	0x3605237d	1.9839201e-06
8	0x36e96c3c	6.9565413e-06
9	0x36055d98	1.9873023e-06
10	0x362081b7	2.3917362e-06
11	0x36e25b93	6.7459855e-06
12	0x36ea9914	6.991564e-06
13	0x36e36c6c	6.777749e-06
14	0x360629d9	1.9991915e-06
15	0x3607842f	2.0193509e-06
16	0x36e2d7bd	6.76044e-06
17	0x3609bcdc	2.0524521e-06
18	0x3607cf22	2.0237135e-06
19	0x36e67197	6.8677577e-06
20	0x34066213	1.2515402e-07
21	0x3605683a	1.9879212e-06
22	0x36066cc7	2.0030873e-06
23	0x36e318f4	6.768032e-06
24	0x3602c63d	1.94869e-06
25	0x3604594f	1.9721517e-06
26	0x36050089	1.9818856e-06
27	0x36037ff4	1.9595e-06
28	0x36069dc7	2.0059395e-06
29	0x36e24d43	6.7443193e-06
30	0x36058cf0	1.990058e-06
31	0x3603a392	1.9615732e-06
32	0x36013852	1.925528e-06
33	0x36ea9ee5	6.992241e-06
34	0x360666d6	2.0027414e-06
35	0x36e4351c	6.8011122e-06
36	0x36e81f61	6.917792e-06
37	0x3608665a	2.0325156e-06
38	0x36042ccf	1.9695615e-06
39	0x36e0c280	6.698363e-06
40	0x36e33f4f	6.7724973e-06
41	0x36070a97	2.0122732e-06
42	0x36e69c2e	6.872716e-06
43	0x360b06f7	2.0716668e-06
44	0x36e2add3	6.7555607e-06
45	0x36092ebc	2.0441794e-06
46	0x3603f3fa	1.9662534e-06
47	0x36dd877f	6.602087e-06
48	0x36071946	2.0131279e-06
49	0x36e3c119	6.7876067e-06
50	0x36e3b262	6.7858937e-06
51	0x36042fd2	1.9697368e-06
52	0x36086c6a	2.0328685e-06
53	0x3605f6c5	1.9962183e-06
54	0x3607bbe6	2.022594e-06
55	0x36e4f489	6.823397e-06
56	0x34549453	1.9797999e-07
57	0x36e20987	6.736434e-06
58	0x322c77f2	1.003899e-08
59	0x3605ac43	1.9918814e-06
60	0x36ecc6fa	7.056512e-06
61	0x3606dea1	2.0097143e-06
62	0x3608b9db	2.0373761e-06
63	0x36e8fda1	6.943665e-06
64	0x33ca64d2	9.424697e-08
65	0x36034ef7	1.9566485e-06
66	0x36067f7a	2.0041757e-06
67	0x36e62f6c	6.860055e-06
68	0x36e3a8bf	6.784772e-06
69	0x360353e9	1.9569363e-06
70	0x3604e137	1.9800625e-06
71	0x36e3eb2c	6.792505e-06
72	0x36048ee9	1.9752717e-06
73	0x36e5c29c	6.8473873e-06
74	0x36e7596e	6.8947475e-06
75	0x36095e2f	2.0469413e-06
76	0x3603287e	1.954409e-06
77	0x36059320	1.9904182e-06
78	0x36064b9f	2.0011573e-06
79	0x3606e251	2.009929e-06
80	0x360884e8	2.034294e-06
81	0x36e4a2ba	6.8138734e-06
82	0x3609d230	2.0536936e-06
83	0x3605d7bb	1.9944116e-06
84	0x36e468e5	6.807141e-06
85	0x3609f613	2.0557825e-06
86	0x36e825b6	6.918529e-06
87	0x36088284	2.034155e-06
88	0x3605156e	1.9831018e-06
89	0x3602d71b	1.9496717e-06
90	0x350b249c	5.183481e-07
91	0x360bdbc0	2.0840525e-06
92	0x36e1fdf1	6.735085e-06
93	0x3605c35d	1.993226e-06
94	0x36e4cf25	6.8190443e-06
95	0x36e4b4c3	6.815973e-06
96	0x36e46292	6.8064046e-06
97	0x36e3f7cc	6.7939745e-06
98	0x34af2a76	3.2627185e-07
99	0x36e46d3d	6.8076465e-06
100	0x36e94622	6.9521057e-06
101	0x36038d39	1.9602724e-06
102	0x3607ebbc	2.0253783e-06
103	0x36e69571	6.8719314e-06
104	0x36e6d0b7	6.8788318e-06
105	0x36e59445	6.8419927e-06
106	0x36e077a1	6.689647e-06
107	0x36e6d9a2	6.87987e-06
108	0x360a1d96	2.0580824e-06
109	0x36071eed	2.0134569e-06
110	0x3608cbc9	2.0384198e-06
111	0x36e2de99	6.7612386e-06
112	0x36e55021	6.83406e-06
113	0x34e66850	4.2916736e-07
114	0x36e601a2	6.8547242e-06
115	0x36063efd	2.000422e-06
116	0x36e4dc11	6.8205486e-06
117	0x36046201	1.9726579e-06
118	0x360bd363	2.0835657e-06
119	0x34b205e9	3.3159384e-07
120	0x3606c28e	2.0080802e-06
121	0x360b0120	2.071327e-06
122	0x36e407e2	6.795847e-06
123	0x36e8a4fe	6.9333464e-06
124	0x36e1525a	6.7151095e-06
125	0x36e8af6f	6.934562e-06
126	0x36e60fb8	6.856364e-06
127	0x36027881	1.9441652e-06

fc3.weight f4 [1, 128]
0	0xbc23d70a	-0.01
1	0xbc23d70a	-0.01
2	0x3c23d70a	0.01
3	0x3c23d70a	0.01
4	0x3c23d70a	0.01
5	0x3c23d70a	0.01
6	0x3bdafc86	0.006682935
7	0x3c23d70a	0.01
8	0xbc23d70a	-0.01
9	0x3c23d70a	0.01
10	0x3c23d70a	0.01
11	0xbc23d70a	-0.01
12	0xbc23d70a	-0.01
13	0xbc23d70a	-0.01
14	0x3c23d70a	0.01
15	0x3c23d70a	0.01
16	0xbc23d70a	-0.01
17	0x3c23d70a	0.01
18	0x3c23d70a	0.01
19	0xbc23d70a	-0.01
20	0x3bd53974	0.006507093
21	0x3c23d70a	0.01
22	0x3c23d70a	0.01
23	0xbc23d70a	-0.01
24	0x3c23d70a	0.01
25	0x3c23d70a	0.01
26	0x3c23d70a	0.01
27	0x3c23d70a	0.01
28	0x3c23d70a	0.01
29	0xbc23d70a	-0.01
30	0x3c23d70a	0.01
31	0x3c23d70a	0.01
32	0x3c23d70a	0.01
33	0xbc23d70a	-0.01
34	0x3c23d70a	0.01
35	0xbc23d70a	-0.01
36	0xbc23d70a	-0.01
37	0x3c23d70a	0.01
38	0x3c23d70a	0.01
39	0xbc23d70a	-0.01
40	0xbc23d70a	-0.01
41	0x3c23d70a	0.01
42	0xbc23d70a	-0.01
43	0x3c23d70a	0.01
44	0xbc23d70a	-0.01
45	0x3c23d70a	0.01
46	0x3c23d70a	0.01
47	0xbc23d70a	-0.01
48	0x3c23d70a	0.01
49	0xbc23d70a	-0.01
50	0xbc23d70a	-0.01
51	0x3c23d70a	0.01
52	0x3c23d70a	0.01
53	0x3c23d70a	0.01
54	0x3c23d70a	0.01
55	0xbc23d70a	-0.01
56	0x3bed864d	0.007248676
57	0xbc23d70a	-0.01
58	0x3c04b2f0	0.008099303
59	0x3c23d70a	0.01
60	0xbc23d70a	-0.01
61	0x3c23d70a	0.01
62	0x3c23d70a	0.01
63	0xbc23d70a	-0.01
64	0x3be8eca4	0.007108288
65	0x3c23d70a	0.01
66	0x3c23d70a	0.01
67	0xbc23d70a	-0.01
68	0xbc23d70a	-0.01
69	0x3c23d70a	0.01
70	0x3c23d70a	0.01
71	0xbc23d70a	-0.01
72	0x3c23d70a	0.01
73	0xbc23d70a	-0.01
74	0xbc23d70a	-0.01
75	0x3c23d70a	0.01
76	0x3c23d70a	0.01
77	0x3c23d70a	0.01
78	0x3c23d70a	0.01
79	0x3c23d70a	0.01
80	0x3c23d70a	0.01
81	0xbc23d70a	-0.01
82	0x3c23d70a	0.01
83	0x3c23d70a	0.01
84	0xbc23d70a	-0.01
85	0x3c23d70a	0.01
86	0xbc23d70a	-0.01
87	0x3c23d70a	0.01
88	0x3c23d70a	0.01
89	0x3c23d70a	0.01
90	0x3c11f18c	0.008907687
91	0x3c23d70a	0.01
92	0xbc23d70a	-0.01
93	0x3c23d70a	0.01
94	0xbc23d70a	-0.01
95	0xbc23d70a	-0.01
96	0xbc23d70a	-0.01
97	0xbc23d70a	-0.01
98	0x3be2fd90	0.0069271997
99	0xbc23d70a	-0.01
100	0xbc23d70a	-0.01
101	0x3c23d70a	0.01
102	0x3c23d70a	0.01
103	0xbc23d70a	-0.01
104	0xbc23d70a	-0.01
105	0xbc23d70a	-0.01
106	0xbc23d70a	-0.01
107	0xbc23d70a	-0.01
108	0x3c23d70a	0.01
109	0x3c23d70a	0.01
110	0x3c23d70a	0.01
111	0xbc23d70a	-0.01
112	0xbc23d70a	-0.01
113	0x3c08fd9f	0.008361249
114	0xbc23d70a	-0.01
115	0x3c23d70a	0.01
116	0xbc23d70a	-0.01
117	0x3c23d70a	0.01
118	0x3c23d70a	0.01
119	0x3be63eb4	0.0070265178
120	0x3c23d70a	0.01
121	0x3c23d70a	0.01
122	0xbc23d70a	-0.01
123	0xbc23d70a	-0.01
124	0xbc23d70a	-0.01
125	0xbc23d70a	-0.01
126	0xbc23d70a	-0.01
127	0x3c23d70a	0.01
