10_Models/Results_Anaheim/WGANBR_Congestion_generator_best.pth (torch, 352692 bytes, 20 tensors)

fc1.weight f4 [128, 201]
00000000: 1f90 61be ea30 85be 2aef 89be ce53 febc
00000010: 5b77 3abc de6c 9bbc 71b9 54bd 9fda 553d
00000020: c386 cbbc 3959 75bc ffd3 0c3d 7d59 64bb
00000030: a3ef 183d 7e20 063d 71de 67bc e103 5dbd
00000040: f662 36bc 35a2 403d 46a0 debb 483d 3abc
00000050: 460a a0bd d01f 5b3d 646a ec3c 5805 cbbc
00000060: e078 613d 1532 78bd f6b3 c2bc 615c 0bbd
00000070: c149 6e3d 9064 72bd 1b96 933b ef81 2f3d
00000080: af5e 1c3d 8684 99bd e51f 3fbd a765 113c
00000090: 2e5d 253d d299 85bd 85ee 6a3d a34e 84bd
000000a0: e84c 8ebd abb7 53bd 726e 8bbd 7634 31bd
000000b0: e031 0dbd 0077 7ebd 2699 923c 983e 3c3c
000000c0: 414f f1bc e8f1 0e39 664d 3a3d 1d4d 37bd
000000d0: 6106 43bc 689b 183d 62d8 6cbd 5d91 a9bc
000000e0: 9455 c33a 76da 033d 74b5 413c 629d d2bc
000000f0: 03f3 eb3c 399c 31bc 449d e1bc 941f 3bbc
00000100: eda7 65bd 349a 2f3d 2db9 e53c f55d 6b3d
00000110: 51e6 83bd d5df 53bd 26d0 f13c a307 e8bc
00000120: 4ece 513d fb3f 6a3d 6395 f43c e85e cbbc
00000130: c992 613d e375 423d 8ece 37bc d178 21bd
00000140: 1e2a 4c3a b107 9d3c b1f8 94bd 8416 883d
00000150: aae7 3c3d 45fb 64bc 0063 563d d3c9 4c3d
00000160: c6ad 5f3d 9a7c 72bd 5545 30bb fd1c c5bc
00000170: 1ee8 083d 09c6 283d 55a9 fe3c caf6 fe3b
00000180: 844a 0d3d 91f2 3c3c 7481 febc 2081 873d
00000190: b12a e43b a594 9abb 3146 423c 8078 66bd
000001a0: da65 86bd 5ab8 383c 6a41 e63b 861b 903c
000001b0: 5879 0d3a 7506 303d adf2 40bd 425a 2abd
000001c0: f7d9 24bb 4c08 6fbd d93c 00bc 759e e63c
000001d0: 1410 8abd 0d50 873d 1451 5ebd 3d6a 0c3d
000001e0: a7a5 29bd 1ff7 86bd c021 773c 6b62 4e3d
000001f0: d292 8d3c 773e 32bc 5d14 4d3d e390 8b3c
00000200: 2830 bc3c afb9 113c 0b0e 863d 8f15 53bd
00000210: 8974 21bd c577 163d 1ec4 58bd 1041 1d3d
00000220: 4d14 0d3c a0d4 62bd 5060 47bb e1a8 d8bc
00000230: 1daf 93bd b4a4 143d ae14 d43c 3515 a0bc
00000240: 6200 273d 9466 b6bb bef5 093d f539 5abd
00000250: 3a8c 4d3c 44d0 033d 74e7 6c3d 290a 823d
00000260: 102b dcbc 8d7c 54ba 8d96 2abd 7619 09bd
00000270: 177d 8dbd 9357 26bd 0b79 e3bb 71e6 e83c
00000280: 1fb2 07bc cdb5 7fbd b778 98bc 4084 cfbc
00000290: 26e1 75ba dc5e bfbc 6bc7 fb3c 3550 3dbc
000002a0: 6c30 a13c ef66 0f3c 1a3c 4c3b c716 6f3d
000002b0: 252f bfbb 5e84 aabc 8c7e 9abc 105b 32bc
000002c0: 001e 98bc e618 f73c eeaf 853d f5d3 91bd
000002d0: 145b 8bbb 4089 383c cfbd 4e3d bf3d 2cba
000002e0: 2782 19bd 256a 2a3d e482 ccbc 7fca 193b
000002f0: bf56 73bc be97 85bc 5654 51bd e0ac eebc
00000300: 0e89 09bd 998a b8bc 8efc 2f3d d7c9 88bd
00000310: 8051 0ebd 4fb1 edbc 54c9 603b c2a3 ff3b
00000320: a68c fabc fb25 913e 4932 883e 92e9 763e
00000330: 125a 51bd 3a21 803d eced 7e3d b340 b23c
00000340: 021a 713c bb77 893d 0fde ca39 975f 62bd
00000350: 96e5 24bd d017 3e3d d2a6 66bd 96b4 633c
00000360: 804b 9d3c 788c 133d f148 17bd dea4 2539
00000370: b347 2f3d 6b39 2c3d 1579 e6bc 49fb 9ebb
00000380: 9666 ddbb b887 acbc a12b 1bbd 03c8 243d
00000390: ab3e 163d d5db 3cbd 4f08 973c 7987 403d
000003a0: 1357 673c 78b6 643d a9fe 063c c697 e83b
000003b0: 5bb9 023d b7a9 1fbc a768 12bd 3639 6d3d
000003c0: 2695 e6bc f3f7 88bd 7c9c 96bb 3431 81bd
000003d0: 37f8 6ebd ca6c 763c 8afa e2bc 875a 183c
000003e0: 770d 8fbd e810 2a3d d818 773d 9d7e a53c
000003f0: 012f f4bc cf3d b1bb f7e2 893d fd18 36bd
-0.22027634 -0.2601388 -0.2694028 -0.03104582 -0.011380996 -0.01897281 -0.051934663 0.052210446
-0.024844533 -0.014974886 0.034381863 -0.0034843378 0.03733791 0.03274583 -0.014152155 -0.053958777
-0.011131993 0.047029693 -0.0067940084 -0.01136715 -0.078144595 0.053497136 0.028859325 -0.024782822
0.055046916 -0.060594637 -0.023767453 -0.034023646 0.058175806 -0.059177935 0.004503978 0.042848524
0.038176235 -0.0749598 -0.046661276 0.008874333 0.040372066 -0.065234795 0.057356376 -0.06460311
-0.069482625 -0.05168883 -0.06808175 -0.04326292 -0.034471393 -0.062125206 0.017895292 0.011489533
-0.029456737 0.00013632292 0.04548397 -0.044751275 -0.011903376 0.037257582 -0.057823546 -0.020699197
0.0014902824 0.032190762 0.011823047 -0.025709812 0.0288024 -0.010840469 -0.02754081 -0.011421103
-0.05606835 0.04287167 0.0280424 0.05746265 -0.06440414 -0.051727135 0.029518198 -0.028323954
0.051222138 0.057189923 0.02985639 -0.024825528 0.055071626 0.047475707 -0.01121868 -0.03942186
0.00077882584 0.019168707 -0.072739966 0.066449195 0.04611937 -0.013975923 0.052340508 0.049997162
0.054609083 -0.05920086 -0.0026896794 -0.024061674 0.03342449 0.041204486 0.031086603 0.0077808844
0.03449489 0.011532442 -0.031067587 0.066164255 0.006963097 -0.004717427 0.011857555 -0.05626726
-0.065623954 0.011274422 0.007026841 0.01759125 0.0005396805 0.042974908 -0.047106434 -0.041589983
-0.0025154331 -0.058357522 -0.007827007 0.02815173 -0.06741348 0.06607065 -0.05427654 0.034281004
-0.041417744 -0.06590103 0.01508373 0.050386827 0.017281923 -0.010879151 0.050068248 0.01703686
0.022972181 0.008894368 0.06545647 -0.05153423 -0.039417777 0.036735315 -0.052921407 0.038392127
0.008610797 -0.055378556 -0.0030422397 -0.026447715 -0.072111346 0.036289886 0.025888767 -0.019541362
0.04077185 -0.0055664275 0.033681624 -0.05327793 0.01254564 0.03218104 0.05783792 0.06349594
-0.026876003 -0.0008105718 -0.041647483 -0.033471547 -0.069086246 -0.04061086 -0.0069419197 0.028430196
-0.0082822135 -0.062429238 -0.018612249 -0.025331616 -0.0009379558 -0.023360662 0.030734738 -0.011554767
0.01967641 0.008752569 0.0031163753 0.05837133 -0.0058344775 -0.02081507 -0.01885917 -0.010885969
-0.018568993 0.03016324 0.065276965 -0.07120506 -0.0042528007 0.011263192 0.050473984 -0.000657048
-0.03747764 0.041605134 -0.024964757 0.0023466644 -0.014852225 -0.016307708 -0.05110582 -0.029135168
-0.03357797 -0.022527026 0.042965464 -0.06679123 -0.034745693 -0.029015211 0.0034299688 0.007801504
-0.030584645 0.2834929 0.26600865 0.24112538 -0.05111129 0.062563375 0.06223862 0.021759367
0.014715673 0.0671229 0.0003869389 -0.055266943 -0.040258013 0.046409428 -0.056311436 0.0138980355
0.01920104 0.036022633 -0.036934797 0.00015797044 0.042792987 0.042046946 -0.028133908 -0.004851733
-0.006756614 -0.02106081 -0.037883405 0.04022981 0.03668086 -0.046108086 0.018436579 0.047004197
0.014119881 0.05583808 0.008239427 0.007098171 0.03191505 -0.009745053 -0.035744336 0.05791589
-0.028147291 -0.066879176 -0.004596291 -0.06308213 -0.058342185 0.015040586 -0.027707357 0.009298927
-0.0698499 0.04152003 0.060326427 0.020201975 -0.02980757 -0.0054089795 0.06732743 -0.044457424

fc1.bias f4 [128]
00000000: 3b1b 1bbd 93b3 093d ba1a 593d 911b 6f3d
00000010: 6c1f 063d c3a2 c73c 0389 56bc 0b2d aa3c
00000020: b683 57bd 9249 c7ba 5c9a 8abd aff5 6ebd
00000030: 71fc 843d ebe5 9f3c 9d51 21bc 340b 8f3d
00000040: 5927 033d 17e1 e1bc c3e5 feba bb9d d23c
00000050: d0ff 47bd ba5a 743d 5bc5 a73c 0438 01bc
00000060: 497f c6bb f830 5f3b e199 8dbd 8304 57bd
00000070: fb79 163d 57c9 e33b ca0d c1bc e7ef 2e3d
00000080: 7d0c d33c 3d93 08bd 154c 84bd b430 0cbc
00000090: 1d30 85bd e15d 10bd 3ade df3c 375d c1bc
000000a0: 35d5 bdbc 03a8 223d c92a 8c3d 4143 1f3d
000000b0: 4105 76bd 0671 a4bc 5cde 2bbd 72de 85bd
000000c0: 798f 5e3d b913 8bbd 9573 59bd 16b8 87bc
000000d0: 922a da3c b47d 6f3d 7c31 87bd aa67 c83c
000000e0: e3d1 043d 5969 4f3d 541c 983a d78b b2bc
000000f0: 4f2e 483d 8cd4 d03b f9e5 873d 8f7b 9bbc
00000100: 19da 7bbc 3a6b a8bc b21a 553d 74ae dc3c
00000110: e05a 4c3d 9d3a 89bc df74 623d 33b7 8cbd
00000120: d69a 86bd 0151 27bd 55eb 8d3a 5a5f 34bd
00000130: 3dbe dabc 6c7e 88bd e1ec 56bd d539 a33b
00000140: c1db 523c 2e1e 883d e742 81bd 12eb c73c
00000150: d32d 70bd 90e0 e83c c10f 20bd c8d0 80bd
00000160: 36eb 1dbc 1e16 803d 2702 d5bc 5ed5 35bd
00000170: 0cc4 13bd 65ef 113d ca32 283c b65e 5fbd
00000180: 7659 613d 6cfd d6bc 95d1 6bbd 0d93 103d
00000190: b2f1 a8bc a329 87bd d68e 2a3c 3270 133b
000001a0: fa7e 33bd 38c7 61bd 43c5 4cbd 0e6e c2bc
000001b0: 910b 893d 7fa5 843d 4e73 27bd 2ba0 203d
000001c0: cd9b d43b e610 3a3d cdd2 fa3c d9fa 2dbd
000001d0: 717b 2cbd c6b5 87bd 422f d3bc 46bb 7dbd
000001e0: ef16 6b3d d38b c73b 59a1 483d 5e87 06bd
000001f0: 9f41 ab3c 6145 1ebd 70c2 52bc 5d1d 02bd
-0.037867766 0.03361852 0.053004004 0.0583759 0.03274481 0.024369603 -0.01309419 0.020773431
-0.052615844 -0.0015204421 -0.06767723 -0.05833977 0.06493462 0.019518813 -0.009846118 0.06984559
0.032019947 -0.027573152 -0.0019447136 0.025709977 -0.048827946 0.059656836 0.020479849 -0.00788689
-0.006057654 0.0034056287 -0.06914116 -0.052494537 0.036737423 0.006951492 -0.023566145 0.042709257
0.02576279 -0.033343542 -0.06459824 -0.008556534 -0.065033175 -0.03524578 0.027327646 -0.023604019
-0.023172954 0.03971101 0.06844098 0.038882498 -0.060063604 -0.020073425 -0.041960105 -0.06536569
0.054336045 -0.06790871 -0.053088743 -0.016567271 0.026631627 0.05846949 -0.06601235 0.024463493
0.032426726 0.050637577 0.0011605122 -0.021795196 0.04887229 0.006372994 0.06635661 -0.018979816
-0.015371823 -0.020558942 0.05202741 0.026938654 0.049891353 -0.016751582 0.05528724 -0.0687088
-0.06572501 -0.040848736 0.0010827581 -0.044036247 -0.02670204 -0.06664738 -0.052472 0.0049812593
0.012869776 0.06646381 -0.06311589 0.024404082 -0.05863745 0.028427392 -0.039077524 -0.06289822
-0.009638598 0.062542185 -0.026002003 -0.044392936 -0.036075637 0.035628695 0.010266015 -0.054533683
0.055016957 -0.026243888 -0.05757292 0.03529649 -0.020623062 -0.065997384 0.010410031 0.0022497294
-0.043822266 -0.05512163 -0.04999281 -0.023734119 0.06691659 0.064768784 -0.040881447 0.039215248
0.0064882995 0.04542627 0.030618096 -0.042475555 -0.04210991 -0.066264674 -0.02577937 -0.061946176
0.057394918 0.0060896664 0.048981998 -0.03284394 0.020905314 -0.038640384 -0.01286374 -0.031766284

bn1.weight f4 [128]
00000000: a1e6 7f3f 4b62 7f3f 11bb 7e3f 1fea 7e3f
00000010: df29 7e3f 42ce 7f3f 217d 7b3f 6141 813f
00000020: 08b3 803f 2bd3 7e3f a900 803f 5c2b 813f
00000030: e564 7d3f bd53 803f 16f5 7d3f dd71 813f
00000040: f0d4 7a3f 7ae7 7f3f 0758 7c3f 9f08 7e3f
00000050: d46e 803f 6745 7f3f c416 7c3f 4135 7c3f
00000060: fb75 803f 0d7f 7e3f 582a 813f f892 7e3f
00000070: 5bfd 7d3f 836a 813f 6432 813f b1dd 7e3f
00000080: 8e13 803f 9856 803f 20ce 7e3f 4e7c 803f
00000090: 25e7 803f 98a6 7f3f 9f9e 7d3f 0697 7f3f
000000a0: b712 813f a482 7f3f c8b3 803f 326d 813f
000000b0: 6f46 803f 420b 803f 2661 823f 9d1d 7f3f
000000c0: db89 7f3f 24b1 7e3f 47b8 803f 1b1c 7d3f
000000d0: ba9b 7e3f 3ac3 7c3f 293e 813f 6193 7d3f
000000e0: dd6b 7e3f 13c1 7f3f 3650 813f e6b0 803f
000000f0: 01c4 813f d405 7e3f 9d41 803f 56e2 803f
00000100: c12d 803f e4ee 823f 7909 813f 4803 813f
00000110: f341 803f 729b 7e3f 5da4 803f 515c 7c3f
00000120: 37c3 803f b0df 7e3f 028c 7e3f eacd 7f3f
00000130: cf0b 7e3f 2255 803f c207 803f df7d 7f3f
00000140: de88 7e3f 2421 813f 4171 7f3f d696 803f
00000150: b7bd 813f 3ed4 803f 1ff7 7d3f 82a7 813f
00000160: d53d 803f 726e 7f3f 3124 803f 6bbd 7f3f
00000170: 3da5 803f cc60 803f 5d52 803f f394 7d3f
00000180: a22d 813f ade9 803f 18f7 803f 5f85 7f3f
00000190: c7b6 7f3f 68ac 823f 0e31 7f3f 5a87 803f
000001a0: 04be 803f 9682 7f3f a3f3 7f3f dfe1 7d3f
000001b0: 09cc 7e3f 1edb 803f 7afb 803f 6823 7e3f
000001c0: 1089 803f 8280 7e3f b07d 7f3f 90c2 7d3f
000001d0: b60c 803f 053c 7e3f f9c5 7b3f 9b48 843f
000001e0: 9497 7e3f 80db 7e3f 516b 803f 0a0e 803f
000001f0: 49f4 7e3f 36a7 803f 3e51 7e3f 68e8 813f
0.99961287 0.9975936 0.9950419 0.9957599 0.9928264 0.999241 0.98237807 1.0098077
1.0054636 0.99540967 1.0000201 1.0091357 0.9898208 1.0025555 0.99202096 1.0112873
0.97981167 0.9996258 0.9857182 0.99231905 1.0033822 0.99715275 0.9847224 0.9851876
1.0036005 0.99412614 1.0091047 0.99443007 0.99214715 1.011063 1.0093503 0.99557024
1.0005968 1.0026426 0.9953327 1.0037935 1.007054 0.99863577 0.9907016 0.9983982
1.0083836 0.99808717 1.0054865 1.0111449 1.0021495 1.0003436 1.0185897 0.9965456
0.99819726 0.99489045 1.0056237 0.9887101 0.9945637 0.9873539 1.0097095 0.9905301
0.99383336 0.9990398 1.0102603 1.0053985 1.0137941 0.99227643 1.0020024 1.0069072
1.0013963 1.0229154 1.0081016 1.0079126 1.0020126 0.9945594 1.005016 0.98578364
1.0059575 0.9956007 0.99432385 0.99923575 0.9923677 1.002598 1.0002367 0.9980144
0.9942759 1.0088239 0.99782187 1.0046031 1.0136021 1.0064771 0.992052 1.0129244
1.001887 0.997779 1.0011045 0.99898404 1.0050427 1.002954 1.0025135 0.99055403
1.0092051 1.0071312 1.0075407 0.99812883 0.9988827 1.0208864 0.99684227 1.0041306
1.0057988 0.99808633 0.99981135 0.99172777 0.9953008 1.0066869 1.0076745 0.99272776
1.0041828 0.9941484 0.9980116 0.99125004 1.0003879 0.9931033 0.9834896 1.0334657
0.9945004 0.9955368 1.003275 1.0004284 0.995915 1.0051029 0.99342716 1.014905

bn1.bias f4 [128]
00000000: 0f6b afbb c32f 0bbc 3a5c efb9 dd19 653a
00000010: 0f99 8bbb a19e 0b3c a426 4cbc fa18 563c
00000020: 685e 013c 6dc6 09bb 57a0 bf3b ee50 a93a
00000030: 3855 0dbc e4f6 bd3b 2c10 87bc 3bac 1c3c
00000040: df95 4bbc 7943 f63b 7204 19bc adbc aabb
00000050: 2968 873b 7c39 d73b 7ae6 28bc 6ab9 c23a
00000060: ba11 f53b b61b 82bb 1463 133c d0c0 973b
00000070: d7cc 8abb 9998 dd3b 90b8 9e3b b46f 22bb
00000080: efbc e7bb 43c1 ab3b becb 50b8 385a bebb
00000090: 088b e73b b63d b93b f9b2 5fbc a093 48bb
000000a0: 3506 b9bc 04eb af3a 00eb 613a 03f8 ae3b
000000b0: 0364 c8ba 542e bd39 160b a73c 2fa6 403b
000000c0: c005 8e3a c3fb 923a e025 153c 9194 3cbc
000000d0: a625 b5bb d9c3 c7bb faca 203c 04b3 23bc
000000e0: 3bf9 163b 6fee e4ba 87f1 68bb db22 3dbb
000000f0: fdd1 503c 266c 11bc c15f 29bc 0990 f63b
00000100: e3c7 623b 5a4f 983c fd87 07bc bb5b 6e3b
00000110: 3caf 2b3c f919 a7bb a12d a13b c42c a0bb
00000120: b432 113c ed97 b5bb 9591 98bb a03b 693b
00000130: c33f c5ba 2234 d53b 0f39 fe3b 8aaf 7ebb
00000140: aabe 9f3b 8f5f 113c e0cf bfb8 d6f7 33bb
00000150: a7b8 533c b3fe 2bbc 68b9 36bc ee87 f03b
00000160: b451 d63b 04ae 45bb 20b9 12bb 02b8 0dbb
00000170: 5e25 253c 3883 80bc d9c0 0a3b 234f 1bbc
00000180: 5539 543c 1a47 cf3b 977d fd3b 8d21 acbb
00000190: 0db3 373a 3a3b 303c 10bd d8b9 26ff 02bc
000001a0: 34cc 0b3c cb0b bd3a bab1 63bc a650 a8bb
000001b0: 9d9c 8abb 3206 143b 0524 2b3b 9eb0 59bc
000001c0: c2a3 c3bb e145 80bc b692 1dba 6d2e c7bb
000001d0: 5664 6e3a c6aa 07bb 6199 abbc 0a2d dd3b
000001e0: 481c 76bb 3162 06bc ce83 2f3c f105 d1b9
000001f0: a0f6 4dbc 1ed6 9d3b c61b 2abb 35d2 a13c
-0.0053533386 -0.008495274 -0.00045654346 0.00087395107 -0.0042601894 0.008521707 -0.0124603845 0.013067478
0.007896043 -0.0021022812 0.0058479714 0.0012917796 -0.008626275 0.005797254 -0.016487204 0.009562547
-0.012425869 0.0075153676 -0.009339439 -0.00521048 0.00413229 0.006568132 -0.010308856 0.0014856283
0.00747892 -0.0039705886 0.00899579 0.0046311393 -0.0042358446 0.006762576 0.004843779 -0.0024785819
-0.007072083 0.0052415445 -4.9780814e-05 -0.0058090948 0.0070661344 0.0056531085 -0.01365351 -0.003060557
-0.022585968 0.001342148 0.00086180866 0.005339624 -0.0015288595 0.00036083406 0.020391028 0.0029395928
0.0010835454 0.0011213947 0.009103268 -0.01151003 -0.0055281697 -0.006096345 0.009814018 -0.009991411
0.0023036737 -0.0017466078 -0.0035544352 -0.0028859887 0.012745378 -0.008875882 -0.010337771 0.0075244945
0.0034604005 0.018592525 -0.008272168 0.0036370594 0.010478791 -0.0050995317 0.0049187695 -0.004888149
0.008862186 -0.0055417926 -0.0046560266 0.0035588518 -0.001504891 0.006506459 0.0077582668 -0.0038861954
0.004875024 0.008872881 -9.1463095e-05 -0.0027460954 0.0129224425 -0.010497737 -0.011152603 0.007340423
0.0065405015 -0.0030163536 -0.0022388175 -0.002162457 0.01007971 -0.01568757 0.0021172075 -0.009479317
0.012953122 0.0063256146 0.0077359187 -0.005253023 0.00070075766 0.010756308 -0.00041339593 -0.007995402
0.008532573 0.001442307 -0.013897354 -0.005136567 -0.0042300955 0.00225867 0.0026113999 -0.013286738
-0.005970449 -0.01565832 -0.00060109363 -0.0060785324 0.0009093931 -0.0020701154 -0.02094716 0.006749754
-0.0037553478 -0.008202122 0.010712577 -0.00039868013 -0.012571007 0.0048167845 -0.0025956496 0.019753555

bn1.running_mean f4 [128]
00000000: 545a 86c7 2fa6 c9c6 a909 d5c6 6dde 40c7
00000010: 2653 afc7 270a 4147 3c73 af46 f549 b347
00000020: e869 1e48 6a28 c546 eda9 1448 d246 8bc7
00000030: 1166 68c7 f103 8cc8 26a0 28c7 d9dd 42c8
00000040: f689 fec6 1f2a 0f48 c24e 7cc7 9f5a 2848
00000050: da97 32c7 4f6a 8f47 9da4 2ec7 191f b747
00000060: e172 14c7 513f 2148 f88e 0a46 5502 0148
00000070: e1ea 3248 726f 42c7 45f7 25c7 eafb 4dc8
00000080: de2e dcc7 b6ef 80c7 4f66 3148 224e 04c6
00000090: 4e0d 96c8 305c ab46 2062 0048 0937 15c7
000000a0: 2e96 b245 f2d5 fcc7 fcb8 ae47 c386 3cc7
000000b0: 3bc1 2048 138e ffc6 a529 e6c7 a6b9 d1c7
000000c0: 5dd4 77c8 9e20 d4c7 b6ef de47 c5a1 9c47
000000d0: 1016 5b48 91f7 f547 dd7b 1948 87ab d5c6
000000e0: 662d 0d48 b7bd a1c7 d716 78c6 f7e8 a2c4
000000f0: c02e 24c8 c74a 70c7 fa46 d5c5 b646 96c6
00000100: 9324 68c7 299b d4c6 0bf7 8bc6 b8e2 c8c7
00000110: 4479 0248 3aef 0348 2edd acc7 5627 0c48
00000120: 38e4 ce47 3191 2148 b794 3e48 194c 2a48
00000130: 696a 47c7 ad13 1248 b00d d147 717a 33c7
00000140: 5293 6847 4a6e 9dc7 301a 1948 0dae c6c6
00000150: 8f4d dc47 8d52 b0c6 c527 0048 543e 2fc7
00000160: 8b70 cd47 76b3 b847 88f0 bbc7 ec43 2a48
00000170: dda9 99c8 2831 9fc6 fb1e 0948 f50c 15c8
00000180: 6879 1b48 7961 3ac7 0251 70c7 1cc2 2cc7
00000190: f0ff 1748 b6e9 0fc7 417c 0248 4a5a 24c7
000001a0: 0dd6 db47 057a 2148 6fbd 9cc6 932f fe47
000001b0: c3df 3548 f62e 16c8 d5c7 2246 ca25 b8c6
000001c0: c6bc 22c6 f646 f3c6 e2ec cec7 6982 9ac4
000001d0: 18a7 1cc7 8eff 4848 d813 3548 4d8c a6c6
000001e0: dd41 2748 3faf a2c6 9000 c947 8a9c e4c7
000001f0: 6981 3b48 c7c7 0748 91e2 f347 18cd 0748
-68788.66 -25811.092 -27268.83 -49374.426 -89766.3 49418.152 22457.617 91795.914
162215.62 25236.207 152231.7 -71309.64 -59494.066 -286751.53 -43168.15 -199543.39
-32580.98 146600.48 -64590.758 172394.48 -45719.85 73428.62 -44708.613 93758.195
-38002.88 165117.27 8867.742 132105.33 183211.52 -49775.445 -42487.27 -210927.66
-112733.734 -66015.42 181657.23 -8467.533 -307306.44 21934.094 131464.5 -38199.035
5714.7725 -129451.89 89457.97 -48262.76 164612.92 -32711.037 -117843.29 -107379.3
-253777.45 -108609.234 114143.42 80195.54 224344.25 125935.13 157167.45 -27349.764
144565.6 -82811.43 -15877.71 -1303.2802 -168123.0 -61514.777 -6824.872 -19235.355
-59428.574 -27213.58 -17915.521 -102853.44 133605.06 135100.9 -88506.36 143517.34
105928.44 165444.77 195154.86 174384.39 -51050.41 149582.7 107035.375 -45946.44
59539.32 -80604.58 156776.75 -25431.025 112795.12 -22569.275 131231.08 -44862.33
105185.086 94566.92 -96225.06 174351.69 -314702.9 -20376.578 140411.92 -152627.83
159205.62 -47713.473 -61521.008 -44226.11 155647.75 -36841.71 133617.02 -42074.29
112556.1 165352.08 -20062.717 130143.15 186239.05 -153787.84 10417.958 -23570.895
-10415.193 -31139.48 -105945.766 -1236.0753 -40103.094 205822.22 185423.38 -21318.15
171271.45 -20823.623 102913.125 -117049.08 192005.64 139039.11 124869.13 139060.38

bn1.running_var f4 [128]
00000000: 588d 0051 ba82 b44f 9488 e34f d723 9450
00000010: 8795 9051 8566 bc50 4cc2 6b50 9f47 a251
00000020: 5ad3 3c52 6af3 0451 521d 1652 05ff 0751
00000030: 965d c650 a2a3 0653 1f50 7150 2a81 8052
00000040: b3af 9150 9794 0d52 b816 3951 e033 3e52
00000050: d7b8 6050 6637 1551 41ca 2a51 9265 6b51
00000060: c8fb 3550 b828 3052 1b69 984f 6713 df51
00000070: f190 5352 4a7b 8850 0c8e 4250 afe9 9552
00000080: d812 c151 23e1 f450 7a73 5152 6fb6 c74e
00000090: 5e5c 1c53 ae5b 624f 4c97 0152 e1f8 9350
000000a0: 5d71 044f 590d dd51 46d7 9151 2c49 8250
000000b0: 1fca 3652 d5ab fe4f 3891 ad51 cf96 b151
000000c0: dd9a d852 2879 db51 cd81 c251 60c1 7751
000000d0: 77bb a052 d13d 0552 d89c 2152 0cef ae4f
000000e0: 9c9a 0852 fb0f 4b51 9726 144f 02db 3b4f
000000f0: 15ff 2d52 9d30 db50 e275 004f 0b21 6d50
00000100: b3d6 e050 abf6 9c4f a781 264f a8ed 8351
00000110: 4844 e551 6e3d 0252 476b 4d51 d5b7 0452
00000120: f36b 9151 a34e 3252 7cfb 8252 1493 4052
00000130: d577 af50 2b7d 1b52 a016 a151 8c80 9550
00000140: 8e8a 0051 4d70 4751 9995 1552 68f0 f44f
00000150: 2902 a251 6a0e 964f 547b 0452 5776 5950
00000160: 1b6b 9151 cad4 8851 ba9f 9351 eec9 4452
00000170: fd4c 2653 b2fb b64f 0fe3 f251 70cb 2c52
00000180: 17f7 2352 b224 aa50 9898 e350 5993 a450
00000190: a5df 1752 7203 1450 8c5b 0152 b1cc 4950
000001a0: cc2f 9951 d478 3252 9221 864f 8255 f351
000001b0: a5ef 6652 b70c 1852 20ca be4f 04fd 1950
000001c0: 880f 074f 32fe 1050 08c3 8d51 4c39 ae50
000001d0: 6d71 3450 7971 8452 eb89 7852 f9ff 474f
000001e0: 3965 4c52 5031 954f 3b6d 8251 7c89 0852
000001f0: ca09 7852 5127 1b52 91c3 c051 83ae eb51
3.450795e+10 6.0569324e+09 7.6347576e+09 1.9883014e+10 7.762299e+10 2.5286683e+10 1.5821517e+10 8.712329e+10
2.0274994e+11 3.568872e+10 1.6118425e+11 3.6506194e+10 2.6624176e+10 5.782709e+11 1.6194239e+10 2.759614e+11
1.9553688e+10 1.5202083e+11 4.968438e+10 2.0422853e+11 1.508084e+10 4.0054972e+10 4.5846106e+10 6.3188836e+10
1.2212707e+10 1.8914935e+11 5.11405e+09 1.197629e+11 2.2716745e+11 1.831825e+10 1.3056356e+10 3.2193534e+11
1.03655604e+11 3.2867162e+10 2.2489639e+11 1.675311e+09 6.7156456e+11 3.7976591e+09 1.3914728e+11 1.986049e+10
2.222022e+09 1.1867646e+11 7.829774e+10 1.7486668e+10 1.9626877e+11 8.545348e+09 9.318321e+10 9.534242e+10
4.6515556e+11 1.1782881e+11 1.0442517e+11 6.6506326e+10 3.4516995e+11 1.4306694e+11 1.7353028e+11 5.8698035e+09
1.4667737e+11 5.4509154e+10 2.485557e+09 3.1516923e+09 1.8682723e+11 2.941917e+10 2.1552092e+09 1.5913463e+10
3.0177335e+10 5.2668227e+09 2.7935148e+09 7.082849e+10 1.23086635e+11 1.398441e+11 5.5141757e+10 1.4250497e+11
7.807267e+10 1.9145587e+11 2.8128248e+11 2.0677532e+11 2.3550929e+10 1.6695498e+11 8.6483665e+10 2.0065837e+10
3.4505023e+10 5.353641e+10 1.6061499e+11 8.218792e+09 8.697762e+10 5.035054e+09 1.422512e+11 1.4593646e+10
7.80709e+10 7.3460695e+10 7.9254995e+10 2.1130035e+11 7.142562e+11 6.139897e+09 1.3039894e+11 1.8553687e+11
1.7605629e+11 2.2836253e+10 3.0547427e+10 2.208896e+10 1.6307305e+11 9.933015e+09 1.3889667e+11 1.354254e+10
8.224149e+10 1.9163283e+11 4.500694e+09 1.30638954e+11 2.4796576e+11 1.6326209e+11 6.401835e+09 1.0333983e+10
2.265942e+09 9.730312e+09 7.610781e+10 2.3383925e+10 1.2109329e+10 2.8441972e+11 2.6686644e+11 3.3554414e+09
2.1946789e+11 5.006074e+09 7.002229e+10 1.4660554e+11 2.6632903e+11 1.6659489e+11 1.0348935e+11 1.2653064e+11

fc2.weight f4 [128, 128]
00000000: f081 f13b 1d95 ba3d c164 223d 16ba e2bc
00000010: c63d 1bbd 45b1 9ebd e646 eebc 64d0 a7bd
00000020: 5e5a 5abc c1d2 663d b93e 38bd 208d b639
00000030: 3d3a bf3c 95fd 43bc 6367 67bc fb70 eebc
00000040: ea8d 5bbd 7d71 53bd 7cd5 5cbd d5dc 0a3b
00000050: 0dc2 d7bb 16b9 153b 2226 76ba 3ce9 4b3d
00000060: b37b 483c 6aea da3c 230c f439 18f6 c13c
00000070: ea79 65bd 50a0 0abd d922 e9bc f0b3 883d
00000080: d821 3eba bd2b 293d df72 bd3c eef3 143d
00000090: 7261 c53c fc0c 8d3c 0fbd 6a3c 8c0a 88bd
000000a0: c538 483c 8605 a6bd f4a9 ea3b 1904 3d3d
000000b0: ff4a d2bc 2c7e 42bd 79b0 493c 18ae 5cbd
000000c0: ec24 b03d 0edf aebd 063f b0bd 0a65 9e3d
000000d0: d0f2 1fbc 285c 65bd e44b 913c 8705 ce3d
000000e0: 1151 9e3b d157 683c d8be 963d 10d3 de3b
000000f0: 2f41 87bd f915 6dbc e5dc 243d 710e 52bc
00000100: 4004 c0bc 88a2 14bd 8459 9b3b baf9 51bd
00000110: bcd0 253d 6dac ff3c 2b77 993d 29d1 903d
00000120: 0c37 d13b 0255 c3bc 4dbf 91bd 8893 66bc
00000130: 97b0 8c3d b511 8b3d 3c8a 353d f8c3 9a3d
00000140: 71f8 ea3b 6a67 b2bd c7cb ef3c f144 8abc
00000150: 66ac 43bb 5167 9abd 9ed0 adbd 0f6f 0d3d
00000160: dec2 603c 28e0 7f3d 1d6a 5bbd 8640 0ebd
00000170: 37e8 84bc 6f26 b13c 962d ff3a f55b b4bb
00000180: e28d a3bc 5ec4 8d3c 1297 fdbc 8303 96bc
00000190: 3da8 8dbd b5a5 a9bd b0b2 4c3d e7cb 8c3d
000001a0: a76b 64bd df05 abbc ff03 8fbd 97ac edbc
000001b0: 0cb7 953d d11a 903d f49a 3a3d fa23 1cbb
000001c0: 1c6f 053c eaf8 76bd abc6 3dbb 2daf 0b3c
000001d0: 83fc 65bd fc90 dfbc 15e1 80bd 1750 be3d
000001e0: 2475 b5bd 5157 0c3d a022 b1bb 1b4c 9c3d
000001f0: 91ff 5abd ce5e 8dbc 3815 3bbb c173 993d
00000200: f87a 55bd 0038 4a3c aa6e b23c 3a28 c5bb
00000210: 22d3 a3bc fd23 7b3d fc61 b13d a172 703d
00000220: 5139 7abd b2c9 d6bb b543 2abd ea25 85bd
00000230: 5b67 b03c ea48 8339 4dbe e3bb 3fba 9cbd
00000240: 8b0c aebc 2f25 9bbc a476 f83c 16e6 6f3c
00000250: d584 8cbd ec2f ef3b 514b 0cbd d550 43bd
00000260: 00b3 03bc 239a 8fbd a804 3abc 5037 cf3d
00000270: a46f 933d fe41 0d3d 8832 4c3d 5b11 6a3d
00000280: 1b26 f6bc 9eff 0bbd d14e 843d 6c3e 263d
00000290: 2f87 9a3d b4a9 cb3d fd0a 513d 523d a83c
000002a0: 1949 0ebd 4858 403d 84c6 13bd cf78 4dbd
000002b0: f161 6d3d 3475 b93c ab7e 10bd 9acf 8bbd
000002c0: a507 a5bd a555 353d 49d0 dabc d843 06bd
000002d0: a2fa 95bc d81f f1bc b278 703b 960e 03bd
000002e0: 2755 85bd 9626 6f3b aee2 17bc 0fe6 b2bc
000002f0: c7e1 2a3d 2e4e 6a3d 5517 4b3c 82cc 9c3d
00000300: dc19 2a3d e6f8 a3bc ab10 7ebd 39b6 cbba
00000310: 9a3f ac3c cce2 44bd 3478 733c 59fd 8f3d
00000320: a65c a4bb 4d9a 8c3d 5cb2 0ebd e5df cb3d
00000330: 886f 733b 54e4 5f3d f373 1e3d 2473 bc3b
00000340: a0cd b23d 0abe 50bd 6762 39bd bd00 7cbd
00000350: 54af 543d c381 063d d684 3bbd c634 343d
00000360: 9b0a 8abc 69ab 2f3d e061 10bb e1b8 a8bb
00000370: fe31 3a3d 1dfc b43c a023 003d 4765 12bd
00000380: 8157 65bd 4051 84bd 4ae3 243b 3556 493c
00000390: 9f74 ad3d b50d 8ebd 239c 653c f64d 3ebd
000003a0: 256c e23c f5ed 693d bb0f 73bb cf66 5c3d
000003b0: 996d 77bd 0941 113d 78e0 9ebc af8b 8b3c
000003c0: f029 2ebd e125 bf3d 68a1 c7bd bfd8 603d
000003d0: 545e 9abd 261c ae3d 90be 9e3d c2a0 c6bd
000003e0: 5f45 2abd fe15 8c3d 14ba 65bd 9e77 71bd
000003f0: 4860 213d 2b95 6d3d 5ac7 88bd 7a8e 33bd
0.007370226 0.09110472 0.039646868 -0.027676623 -0.03790071 -0.07748655 -0.029086541 -0.08194044
-0.013327209 0.056353334 -0.044981692 0.0003481889 0.0233432 -0.011962314 -0.01412377 -0.029106608
-0.053602137 -0.051621903 -0.053914532 0.0021188755 -0.006584412 0.0022845916 -0.00093898375 0.049782977
0.012236523 0.026723105 0.0004654835 0.023676917 -0.05602447 -0.033844292 -0.028459 0.06674945
-0.0007252968 0.041301478 0.023126064 0.036365442 0.024094317 0.017218105 0.014327302 -0.06642637
0.012220566 -0.08106522 0.0071613733 0.046146486 -0.025670527 -0.047483608 0.012310141 -0.053876966
0.08600792 -0.08538638 -0.08605771 0.077341154 -0.009762481 -0.05599609 0.017736383 0.10059648
0.004831441 0.014181093 0.07360619 0.006800063 -0.0660423 -0.014470571 0.040249724 -0.012820826
-0.023439527 -0.036287814 0.0047408957 -0.05126355 0.040482268 0.031210149 0.074934326 0.07071144
0.006384736 -0.023844246 -0.07116566 -0.01407326 0.06869619 0.06790487 0.044321284 0.07556909
0.00717073 -0.08711131 0.029271973 -0.016878577 -0.0029857396 -0.07539237 -0.08487056 0.03452974
0.013718335 0.06246963 -0.053567994 -0.034729503 -0.01622401 0.021624772 0.0019468542 -0.005504126
-0.019965116 0.01730555 -0.030955825 -0.018312221 -0.069168545 -0.08283559 0.049975097 0.06874829
-0.055766728 -0.020876823 -0.06983184 -0.029012961 0.07310304 0.07036365 0.04555793 -0.0023825155
0.008144166 -0.060295977 -0.0028957527 0.008525652 -0.056149017 -0.027290814 -0.06292931 0.0929262
-0.088602334 0.03426296 -0.005405739 0.076317035 -0.053466383 -0.01725712 -0.0028546583 0.074927814
-0.052119225 0.012342453 0.021781284 -0.0060167583 -0.019998137 0.061313618 0.08661267 0.05870307
-0.061089817 -0.0065548057 -0.041568477 -0.06501372 0.021533659 0.00025040592 -0.006950176 -0.07652711
-0.021246215 -0.018938629 0.03033001 0.014642259 -0.06861273 0.007299414 -0.034251515 -0.04768451
-0.008038282 -0.07011821 -0.011353649 0.10117972 0.07199028 0.034486763 0.049852878 0.057145458
-0.030047467 -0.034179322 0.064603455 0.040586874 0.075453155 0.09944478 0.05103587 0.020537052
-0.03473768 0.04695919 -0.03607799 -0.05016404 0.057954732 0.022638895 -0.03527705 -0.06826706
-0.08058099 0.04427113 -0.026710646 -0.032779545 -0.018307988 -0.02943413 0.0036693034 -0.031996332
-0.06510382 0.0036491505 -0.009270353 -0.021838216 0.041719224 0.057203464 0.0123956995 0.07656194
0.041528568 -0.020016145 -0.062027615 -0.0015541977 0.021026421 -0.048067853 0.014860202 0.07030744
-0.0050159274 0.06865368 -0.034838066 0.09954814 0.0037145335 0.05466111 0.038684797 0.0057510305
0.08730626 -0.050962485 -0.04525986 -0.06152414 0.05192502 0.032838594 -0.04578098 0.04399564
-0.01685076 0.04288808 -0.0022030994 -0.0051489924 0.045457833 0.022092873 0.031283975 -0.035741117
-0.055991653 -0.0646081 0.002515989 0.01228862 0.08469509 -0.06936208 0.014014277 -0.046461068
0.027639458 0.0571117 -0.0037088234 0.053808983 -0.060407255 0.035462413 -0.019394144 0.01703438
-0.042520463 0.09333397 -0.09747583 0.054894205 -0.07537523 0.08501463 0.07751191 -0.09698631
-0.041570064 0.06840132 -0.05608566 -0.058951966 0.03939846 0.058003586 -0.06678648 -0.043837048

fc2.bias f4 [128]
00000000: 90bb 55bd 281e 9cbd 2712 653d 460e a83d
00000010: f59c c43c 3cb4 9b3c 2ddc 003d 53f2 213d
00000020: 47ba 9dbb e0ba e13c c1c6 c2bc 507c 8cbd
00000030: 2ac3 2f3d 75a0 36bd c588 323d dc71 a43c
00000040: 93ad e9bc 6bb5 773c a377 d53c e101 893c
00000050: 8b31 a03d 3ca2 883d e0c5 7e3d dbd4 23bd
00000060: 3356 343b f080 0b3c 67dc aabc d17f a2bd
00000070: e741 44bd 6b9b e0ba 7bdd 933d 544e 513d
00000080: 633f 8d3d dbd3 763d 5e39 d7bc d182 b43d
00000090: f59b abbc ee58 833c 8d48 883d 8875 b43d
000000a0: 6da7 99bd a10a c63c 11fd 14bd e5d4 523d
000000b0: ce8e 283d c9a2 a3bd d7d4 af3d 0f9e b3bc
000000c0: e75d 443c a3d1 01bc 6907 48bc cd2c 31bd
000000d0: 1ba3 ba3c 5218 9ebd 4d18 c93c a23d f1bc
000000e0: 1f93 02bc efe1 963d 6eb7 953d e689 963d
000000f0: 7ece 453d ad6b 553d 4ecd 563d b446 39bc
00000100: 2d51 233d ca60 a4bc 923e 253d d545 b3bd
00000110: 7377 22bd 8d66 fb3c b51c 8dbc 7a82 4c3d
00000120: 185a 26bd b5d3 243c 68a6 873a c0d9 9dbd
00000130: c3ba 873d 36e6 653d a0a6 703d 6dc0 503d
00000140: 338e d8bc 159f bc39 50f7 993d edd8 ad3c
00000150: 15b9 23bc b1a3 a73d 0dac e4bc 0477 bcbc
00000160: f6f0 9cbd 904a 603d 171e 4abb 9792 85bd
00000170: e0c1 57bd 7654 67bc 4664 a53d c240 9fbd
00000180: 7096 673d bb1b 74bd 5825 a0bc 1119 2ebc
00000190: 15ce 2bbd 76bc 3abd cbb7 abbc b41b ea3c
000001a0: c02b f1bb 49fe 57bd fa2d 84bd 23b1 c3bc
000001b0: eb5b 97bd 9033 843d 1a48 d53a 17a4 3cbd
000001c0: 673d 22bc 3fc6 183d c706 31bc bfcf 763d
000001d0: 21c8 57b9 d30c bbbb 335f 183c 7c58 f3bc
000001e0: b243 b03c 3d4b 503c f617 973b 2fb2 83bd
000001f0: 4c80 ac3c a69a 463d 7ff2 3e3d 267b 9fbd
-0.052180827 -0.07622939 0.055925515 0.082058474 0.024000624 0.01900684 0.031459976 0.03953774
-0.0048134658 0.02755493 -0.023776414 -0.06859648 0.042910732 -0.044586617 0.043587465 0.020073824
-0.02852515 0.015118937 0.026058024 0.016724529 0.078219496 0.06671569 0.062200427 -0.039997917
0.00275172 0.008514628 -0.02085705 -0.07934535 -0.047914412 -0.0017136162 0.072199784 0.05110009
0.06896856 0.060260635 -0.026272472 0.08814014 -0.02094839 0.016033616 0.06654463 0.0881148
-0.07502637 0.02417499 -0.036374155 0.051472563 0.041151814 -0.07990033 0.08585518 -0.021925954
0.011985279 -0.007923516 -0.012208798 -0.043255616 0.022782853 -0.077194825 0.02454772 -0.029448334
-0.007969647 0.07367312 0.07310377 0.07350521 0.04829263 0.05210464 0.052441888 -0.011308361
0.039872337 -0.020065684 0.040342875 -0.08753554 -0.039664697 0.030688548 -0.017225603 0.04992912
-0.040613264 0.0100602405 0.0010349276 -0.07707548 0.06627419 0.05612775 0.058752656 0.05096476
-0.026434993 0.0003597668 0.07517874 0.021221602 -0.009992857 0.081855185 -0.027914071 -0.02300597
-0.07663147 0.05475861 -0.003084069 -0.065221004 -0.052675128 -0.014119258 0.08075766 -0.077760234
0.056539953 -0.05959676 -0.019549057 -0.0106260935 -0.041944582 -0.045589887 -0.020961663 0.028577663
-0.0073599517 -0.05273274 -0.06454082 -0.023888176 -0.07390579 0.06455147 0.0016272098 -0.046054926
-0.009902335 0.037298437 -0.0108048385 0.060256716 -0.00020578552 -0.005708316 0.009300041 -0.029705279
0.021516655 0.012713251 0.0046110107 -0.0643047 0.02105727 0.048487328 0.04661798 -0.077871606

bn2.weight f4 [128]
00000000: f16b 833f 3c53 7b3f 2e8e 833f 3578 7e3f
00000010: 3c47 833f 566a 823f 6892 7e3f 97d9 7f3f
00000020: fd51 7c3f dbe1 7e3f 8efe 803f 9867 803f
00000030: 45c6 7c3f aca9 7e3f 5ca9 7c3f 3d6c 7e3f
00000040: d345 7b3f b0e0 833f 4818 7d3f b2b5 7e3f
00000050: f5cb 7e3f 64b0 7a3f 8ec3 7f3f 6f22 7d3f
00000060: e1f1 803f 32dc 803f b585 813f e41a 7e3f
00000070: 82ec 7e3f fc76 7c3f 2914 803f 9ac5 813f
00000080: f86c 803f d95a 803f 12a2 7a3f e912 803f
00000090: eb4a 7d3f 301f 7f3f bb9d 7e3f 7ff7 833f
000000a0: 6860 813f 260e 7b3f ce07 803f 0720 823f
000000b0: 7f20 843f 21dc 7e3f ec84 7d3f b950 7e3f
000000c0: 5c91 7e3f 30d8 803f 63c2 803f 6a11 7e3f
000000d0: 3405 7f3f bba9 7e3f 11f9 7f3f 6a0a 813f
000000e0: 6a85 7b3f ff0e 7f3f 1aee 823f 52d3 7e3f
000000f0: 5046 7c3f 9ac8 813f 8347 7c3f 822d 7e3f
00000100: 3297 7f3f 7982 7c3f d060 7c3f 8742 833f
00000110: 276b 7f3f 598e 803f 0bb9 803f ac93 803f
00000120: e489 803f 7e1f 7f3f 22ae 803f 7baf 7e3f
00000130: 9641 7b3f 9735 833f 6765 803f 6523 7e3f
00000140: 8c05 7b3f 52fc 7f3f e613 803f 4067 7f3f
00000150: 3565 7f3f 9745 7f3f cf1f 843f 1ef4 7e3f
00000160: 1afa 7e3f 2427 7f3f 6572 823f 3d91 7e3f
00000170: f25b 803f 8e6b 7f3f ce60 7d3f f9db 7d3f
00000180: a373 803f 01dc 7c3f 5d32 7d3f 7357 7f3f
00000190: a445 793f 93f8 813f bde7 833f 01a4 793f
000001a0: 0ae9 803f cbd5 7d3f 278d 803f cfc5 823f
000001b0: 30e7 803f b3b1 7f3f 51e0 7e3f 8129 773f
000001c0: 59d2 7c3f 719d 7f3f 6e5d 803f 8702 7b3f
000001d0: 98b1 803f d2f6 7c3f 4ada 7d3f ca74 813f
000001e0: ed57 803f 0f02 803f c098 7f3f 1fb5 803f
000001f0: 5ab8 843f 2da2 7a3f 5a56 803f 05e7 7d3f
1.0267316 0.9817388 1.0277765 0.9940217 1.0256114 1.0188701 0.9944215 0.9994139
0.98562604 0.9956338 1.0077684 1.0031614 0.98740035 0.9947765 0.9869592 0.9938391
0.9815342 1.0302944 0.98865175 0.99495995 0.99529964 0.979254 0.9990777 0.98880666
1.0073816 1.0067198 1.0118929 0.9925978 0.9957963 0.98619056 1.0006152 1.0138428
1.0033255 1.0027725 0.9790355 1.0005771 0.9894244 0.99656963 0.9945943 1.0309905
1.0107546 0.98068464 1.0002382 1.0166024 1.0322417 0.9955464 0.9903095 0.99341923
0.9944055 1.0065975 1.0059322 0.9924532 0.99617314 0.9947774 0.9998942 1.0081303
0.9825045 0.9963226 1.0228913 0.995412 0.9854479 1.0139344 0.9854662 0.9928819
0.9984008 0.98636585 0.98585224 1.0254678 0.99772877 1.0043441 1.0056471 1.0045066
1.0042081 0.9965743 1.0053141 0.9948651 0.9814695 1.0250729 1.0030946 0.9927276
0.9805534 0.99994385 1.0006073 0.9976692 0.99763805 0.9971556 1.0322207 0.99591243
0.99600375 0.996691 1.019116 0.99440366 1.002806 0.9977349 0.9897584 0.99163777
1.003529 0.987732 0.98904973 0.9974281 0.9737189 1.0153984 1.0305096 0.97515875
1.0071118 0.9915435 1.0043076 1.0216616 1.0070553 0.9988052 0.9956103 0.96547705
0.98758465 0.9984961 1.0028512 0.9805073 1.0054197 0.9881412 0.9916121 1.0113766
1.0026833 1.0000628 0.99842453 1.0055274 1.036876 0.9790371 1.0026352 0.9918063

bn2.bias f4 [128]
00000000: b552 ab3c 9ed4 6fbc fb3f df3c e27a 5f3b
00000010: a8d0 e63c ef18 af3c 0f28 80bb 3b04 ad3b
00000020: a929 17bc 8b12 873a 4df1 183c 6468 153b
00000030: 49af 22bc 6dcd 78bb cceb 41bc 9a86 af3b
00000040: 1280 30bc f4fc b03c 75f2 37bc 045e 82bc
00000050: 093a 873c d1f9 a9bc 1904 8c3b 5564 75bc
00000060: 092b 023c 7bb7 b43c 0fbd 1a3c b8b1 b73a
00000070: 4736 443b f1e3 b9ba a3a6 383b a185 6f3c
00000080: 01f2 983b c08d 473c 3c3a 6dbc b183 ab3b
00000090: 27f3 093a ce39 a5bc b2bd 6dbc 3373 dd3c
000000a0: 04a4 723b 622e 5fbc c03a 71bb 0f05 be3c
000000b0: ad94 e53c 43fd 6c3b 885e 30bc d97d ce3c
000000c0: eec5 ffba 7a80 35bc 9e3d 9e3c baa2 17bc
000000d0: da1a 4bbb d172 8bbb 14e2 3bbb 1533 273c
000000e0: 42b5 d1ba 6715 f13b df3a b13c efbf 363b
000000f0: ddd2 9ebc 6586 5b3c 27ab 68bc 0538 cb3b
00000100: 90bb 11bc b35d 85bb 0a40 12bc 75fb d03c
00000110: ef1b b6bb 50ea ffb9 b548 b2ba ed91 ad3c
00000120: 0e0d 0d3b 305b 7f3c b7e8 7cbb be0a c73c
00000130: f128 9abc 0b04 043c 61d8 a33b f627 babb
00000140: b456 a8bc a473 553b d68f 0d3c 9a74 3ebb
00000150: 5969 2cbc fa45 9c3b 9d41 d93c 7757 343c
00000160: a4cd 55bc 5cca 22ba 3db1 6e3c 5548 10bc
00000170: 0d25 e63c 3a1d 033c 2278 51bc b977 ff3a
00000180: 9c51 563c ec8a 56bc b5c0 3abc d591 a33c
00000190: c92a 91bb 471a 993c 8114 e53c bcb9 15bc
000001a0: 278f 513c 08d8 34bc 477b 263c 2d1a 703c
000001b0: 879b 9b3c 369c 923c b1e0 77bb 1893 1abc
000001c0: 8aab 3fbc 9f07 9bbb de06 743c b8ac 4dbc
000001d0: f466 2a3c 759e 17bc c49e bebb 19a4 ab3c
000001e0: 204a 003b 1088 9c39 6c02 16ba 62cb 5bbb
000001f0: dd9e 053d 2ef9 acbb f3fc 773c 1d33 03bc
0.020913461 -0.014638094 0.027252188 0.0034100343 0.028175667 0.021374194 -0.0039110254 0.0052800453
-0.009226241 0.0010305209 0.009334874 0.0022797817 -0.009929487 -0.003796424 -0.0118360035 0.005356622
-0.010772722 0.021604992 -0.01122724 -0.01591397 0.016507166 -0.020749005 0.0042729494 -0.014977534
0.007944831 0.022060147 0.009444489 0.0014014756 0.0029939578 -0.0014182312 0.0028175495 0.014619262
0.004667521 0.012179792 -0.014479216 0.0052342047 0.0005262368 -0.020169165 -0.014510559 0.02703247
0.003702403 -0.013621898 -0.00368087 0.023195772 0.028024996 0.0036161698 -0.0107647255 0.025206493
-0.0019513944 -0.0110779945 0.01931649 -0.009255106 -0.0030991347 -0.0042556305 -0.0028668689 0.01020505
-0.0015999454 0.0073572877 0.021634517 0.0027885397 -0.019387657 0.013398741 -0.014200962 0.0062017464
-0.008894816 -0.0040700077 -0.008926401 0.025510529 -0.005557529 -0.00048811967 -0.0013601991 0.021187747
0.0021522674 0.015585706 -0.0038590857 0.024297114 -0.01881835 0.008057605 0.0050001596 -0.0056810332
-0.020549156 0.0032570148 0.00864025 -0.00290612 -0.010523164 0.004769084 0.026520545 0.011007181
-0.013049517 -0.00062099635 0.014568624 -0.008806308 0.028093839 0.008002574 -0.01278499 0.0019490636
0.013080981 -0.013094645 -0.011398484 0.019967 -0.004430149 0.018689288 0.027963879 -0.009138521
0.012790478 -0.011037834 0.010161228 0.014654678 0.01899506 0.017896753 -0.0037823135 -0.009434484
-0.011698613 -0.004731133 0.014894215 -0.012553386 0.0104005225 -0.009254088 -0.005817266 0.020952271
0.0019575432 0.00029856013 -0.0005722407 -0.0033537974 0.032622207 -0.005278728 0.015135991 -0.008007792

bn2.running_mean f4 [128]
00000000: 42f4 1abe d0e3 673c 786b 2abe 9647 04be
00000010: c7bb d63d 74ed 433d f7ad 39bd 9c66 0dbe
00000020: 2340 04be 3f5b 0e3e dfdf 44be fe55 44be
00000030: d8b2 0cbd ed4d 903e bf38 7ebe 9428 60be
00000040: 7a46 673d 06c6 67be 52f2 5d3e bc7b 5ebd
00000050: ff84 b0bc efc4 2ebe ecee f13e d691 2c3e
00000060: c052 aa3d a2aa a73d 3ae5 6abe f203 c0bd
00000070: c328 0bbd d297 c2bd b18d 8fbd 78b7 13be
00000080: 882e 193e 15f6 bb3d 8e01 3a3e 7a40 aa3e
00000090: 03eb 733e 7799 f73d 43b4 1abd 3939 53bd
000000a0: d2d8 3abe f191 4f3e 2c90 ccbe b06c 07be
000000b0: 8006 ac3c f40f 9a3e 510d 973d 2d3e 2bbe
000000c0: 0f2e 99be a397 373e 82bf 8dbc 0a24 ba3d
000000d0: 7ae7 9d3e f973 41be 593f f2bd 3c58 51be
000000e0: 3c87 c7bd 852f 61be e1b0 01be 5851 2f3e
000000f0: 3917 343e 623b 43bc 7c94 09be b57f c0bd
00000100: 1e5a 7abe 3474 35be bffd 503d baee cabe
00000110: dbe2 87bd a04a 043e e1df 9d3c c491 07be
00000120: c4b0 c0be 2b7d 41bd 5cfc 5fbe 025c 99be
00000130: 4815 f1bb 086e 4dbe b392 ccbd bbf5 e63d
00000140: 7de4 a43e 44f1 a4be c3db 723e be6a 963c
00000150: 5881 febc 04a0 82be 480b a2bd def0 233e
00000160: 1332 1e3e c1ef 213e d415 9abe 76e9 98bb
00000170: 69d9 aebe 2c72 ddbd b8d1 91be d6b4 a1bb
00000180: 47bc 843d 103b 233e 41a1 063e efec 67be
00000190: 32f6 8bbe 2ecf 1cbe 0899 3abe 6dfe c93d
000001a0: d7a1 4fbe bd2f e93c 2ac3 a2be 190a e0bd
000001b0: 4462 1fbe db86 bc3d 354f f5bd 1e04 9bbe
000001c0: 38a8 81be e508 d83d 3bda bebe 89c5 50bc
000001d0: 0a4d 7a3e 0544 8bbc 1058 6ebd de54 dbbd
000001e0: f5a6 9bbd d7d1 b8bc 572e aabb 1c1f 0cbd
000001f0: 2cf7 35be 9ceb 3e3d d5ff 3cbc 3b98 13be
-0.1513224 0.014153436 -0.16642559 -0.12917933 0.104850344 0.047833875 -0.04533192 -0.13808674
-0.12915091 0.13901995 -0.19226025 -0.19173428 -0.034350246 0.28184453 -0.24826334 -0.2189048
0.056463696 -0.22634134 0.21674469 -0.05431722 -0.021547792 -0.17067312 0.47252595 0.16852507
0.083165646 0.081868425 -0.22939005 -0.093757525 -0.03397442 -0.09501614 -0.07009447 -0.14425457
0.14959157 0.09177796 0.18164656 0.33252317 0.23820119 0.12089818 -0.037769567 -0.051568244
-0.18246773 0.20270516 -0.39953744 -0.13225055 0.020999193 0.30090296 0.07375587 -0.16722937
-0.29917952 0.17928939 -0.017303232 0.09088905 0.30840665 -0.18891896 -0.11828489 -0.20443815
-0.09742591 -0.21990784 -0.1266513 0.17120874 0.17586984 -0.011916013 -0.13435549 -0.09399358
-0.2444844 -0.17720109 0.05102324 -0.3963526 -0.06635066 0.12919092 0.019271793 -0.13239199
-0.3763486 -0.04723851 -0.21873611 -0.2995301 -0.0073572733 -0.20061505 -0.09988918 0.11277338
0.32205573 -0.3221532 0.23716645 0.018361446 -0.031067535 -0.25512707 -0.07912308 0.16009852
0.1544879 0.15814115 -0.3009478 -0.0046665026 -0.34150246 -0.10812792 -0.28480315 -0.0049348874
0.064812236 0.159405 0.13147451 -0.22648977 -0.2733627 -0.15313408 -0.1822244 0.09862981
-0.20276581 0.028465146 -0.31789523 -0.10939426 -0.15564829 0.09205409 -0.11977998 -0.3027658
-0.25323653 0.105485715 -0.37275872 -0.012742409 0.2444345 -0.017000208 -0.05818945 -0.107095465
-0.07600204 -0.022560997 -0.0051935124 -0.034209356 -0.1777007 0.046611413 -0.0115356045 -0.1441354

bn2.running_var f4 [128]
00000000: 7b59 5d3d b14c da3e eccc 9e3e b726 993c
00000010: e318 b53d ffb9 c03d 7151 353d 6f10 663e
00000020: 4847 863c 7a08 4f3f e82f 5c3d c29a 653c
00000030: d000 f93c 1661 183f d5ac 193d 93f0 913e
00000040: 7e11 d53e 917c b93e b858 1c3f f312 8b3c
00000050: ef45 7b3e de77 aa3d 337b 013f b3bd 003f
00000060: f234 943e fc94 003e 6ae8 f73d 2a3b 423e
00000070: 8812 9b3e 7000 893e 237c 443d af65 e53d
00000080: d191 bd3d 9f59 bf3e 6aa7 b03d 57d8 193f
00000090: e995 393f ab0e b03b 9ca7 2b3d 9e55 0c3e
000000a0: cb72 ce3d 113b 843e 3b26 7d3d c7f0 db3c
000000b0: 40ed 8f3d 0f91 603f 92e1 9e3e 14dd ea3d
000000c0: 6d18 003e f40c 903c fecc 9e3e ae2d 323f
000000d0: a935 5f3f bdac 6d3d a1f3 083e dc70 843d
000000e0: 7c3f 233f 7722 473f afff 453d cd90 f93e
000000f0: 0e40 4b3d e504 103e 98c5 7b3c 2ebd 603e
00000100: 2f65 d23d 3ec1 1a3e 765b 133f d76c 743d
00000110: 3621 643e 12d2 0a3e 900b 2c3d d930 193e
00000120: f2e4 d93d ccf0 8a3e 3ed8 3d3e c743 9d3d
00000130: 99ed 453d f150 883e 1993 863d 1619 c13d
00000140: 012a 373f b6be ec3d facc b33d 2ca6 af3c
00000150: a570 033d b09a 0e3e 0bd6 413d 505f f73e
00000160: 3812 053f c068 713e cb6e 273d cda0 303c
00000170: 0d37 783d d5b4 913e 7041 d83e 0f7d d93e
00000180: 2976 633d 7cd8 2d3f ec1f 4f3f d2b1 fc3d
00000190: 8d09 153d 0f30 223c 774d 9d3e 6d76 8b3d
000001a0: 5f37 b23d cc92 273f 135d 883e 6f9f 193e
000001b0: 6cd3 923e a417 cc3d 8a83 ad3d 38b5 7f3e
000001c0: cadc 113e 6def 533d 8c3d d03d 2311 063e
000001d0: ec9c 8e3f 87a9 ee3d d69f d03c 9c65 2a3d
000001e0: a92f 463e 8e7f 513d 448d f83e 411d 9c3e
000001f0: 0e2b 393d f1a0 833e 9438 603f f244 043d
0.054040413 0.42636636 0.31015718 0.018695218 0.088426374 0.09410476 0.04426712 0.22467206
0.016391411 0.8087231 0.053756624 0.014013948 0.030395895 0.5952314 0.03751834 0.28503856
0.41614908 0.3622785 0.61072874 0.01697681 0.24538396 0.08323644 0.5057861 0.5028946
0.28946644 0.12556833 0.12104876 0.18967882 0.30287576 0.26758146 0.04796995 0.11201035
0.09256328 0.37373063 0.08625682 0.60095733 0.7249437 0.0053728423 0.04190789 0.13704535
0.10080489 0.25826314 0.061804038 0.02684821 0.07027674 0.8772134 0.31031471 0.114679486
0.12509318 0.017584302 0.31015772 0.6960095 0.87191254 0.058026064 0.13374187 0.06466839
0.63768744 0.77786964 0.048339542 0.48743287 0.049621634 0.14064367 0.015366934 0.21947166
0.102732055 0.15112779 0.57561433 0.05967411 0.22278294 0.13556698 0.042003214 0.1496004
0.10639371 0.27136838 0.18539521 0.07678943 0.048322294 0.26624253 0.065710254 0.09428613
0.7154847 0.11559813 0.087793306 0.021441542 0.032089848 0.13926196 0.047323268 0.48314905
0.51980925 0.23575115 0.040877145 0.010780525 0.060599376 0.28458276 0.42237425 0.42478225
0.05553261 0.67908454 0.80908084 0.12338604 0.03638606 0.009899153 0.30723163 0.06809697
0.087019674 0.6545837 0.2663351 0.15002225 0.28676927 0.099654466 0.08472355 0.24971473
0.1424438 0.051742006 0.10167989 0.13092475 1.1141639 0.116534285 0.02546684 0.04160081
0.19354118 0.051147036 0.48545277 0.3049107 0.045207076 0.25708726 0.8758633 0.032292314

fc3.weight f4 [128, 128]
00000000: cd5e 51bd faa8 673d 7dd2 51bd dad9 483d
00000010: 5be6 b73d 23c3 87bd ce85 91bd 41a2 543d
00000020: 1909 a93c b366 eb3b 3014 203d f8e6 953d
00000030: f0f1 69bc a771 24bd b214 74bd a1f6 3dbd
00000040: 2a96 393c 74c7 22bd 0ddb 2fbb 8ab5 09bd
00000050: bdf5 b53d 4d8a 263d 7c2c 173d 2a4c 173d
00000060: 8d28 a7bd bae9 bbbd e0bb 79bd 647e fdbc
00000070: d645 19bc 14ff 173c 990b 8abd 126d 0f3b
00000080: f21b c0bc 9810 87bd 6324 50bd 00ef 61bd
00000090: e15a 043d 9409 913d c67f 77bd 8a59 563d
000000a0: c7e5 76bd 631f 543d 857b cf3b 95cb b23d
000000b0: 6852 44bd 202f 0cbd c461 81bb 7854 943b
000000c0: e606 67bd 3f93 3bbd 32d6 673d 6135 6f3d
000000d0: e4ab a33c 264e 3f3d 53fa 163d 5efa 3e3d
000000e0: 1f6a 453d 2967 ad3d 2fe2 b7bd e095 2abd
000000f0: d12d 523d 6073 9a3d a1a8 053d 5433 f33b
00000100: a923 3dbd bfcc 533d 79b0 9b3d d74b 97bd
00000110: be9c 283d 001e 433d 353e 8bbc d4e0 483d
00000120: 5056 153d 74c6 86bd 4e9b eebc e103 6a3c
00000130: aba1 a6bc b018 aa3b b533 a13d 0fc0 d23c
00000140: 83b1 92bd 4eb7 7c3d 2807 963b 424d 7abd
00000150: 9743 563c a786 cb3d 70db cb3c 9dea 603d
00000160: b8b6 3d3c 71f4 043c 27a5 e0bb 8906 853d
00000170: b271 243d e6ab f13b 720c aa3c 4624 383c
00000180: b1b7 9d3b ccdf 89bd 85c4 02bd e16d 89bd
00000190: 785b cd3c 5503 bfbd 43dc 8cbd 08b7 9cbb
000001a0: 9b0b 3d3d 09e5 c5bc 3341 663d 79e3 96bd
000001b0: 990a a2bd dc61 6abd 3fbe 4c3d a106 0e3d
000001c0: 164a 2fbd 82b4 28bc 73fe a6bd 68b8 213c
000001d0: cdc9 3ebd 8edd bcbc a084 623d f542 9fbc
000001e0: 4142 8aba 2820 1c3d 6e38 483d c3df 27bd
000001f0: 50c9 c63c 8b56 1ebc cc7b 693d e189 b8bd
00000200: 8b47 ca3c f8fd 7abd 823b e83c 404b 2e3c
00000210: 6fc5 1dbc 0f29 14bd 3e49 3fbd 271e 9e3d
00000220: f6b8 873d 0593 95bd eb2f 7cbd ce6d 323d
00000230: 7909 74bd 88e7 103c fd97 8cbd 9c7b 06bd
00000240: 6335 46bd cad0 50bd ac4b 5ebd 6df7 adbd
00000250: 145f 623d 886f a83d 3ede 17bd 1a31 0e3c
00000260: 3420 c3bb 889c 5b3d 1bbf 54bd 4c07 923d
00000270: 526a 53bc f15c cf3c baa5 16bd ad00 5dbd
00000280: b1d2 bc3d 6dae 473d 617e 96bd 3b76 cfbc
00000290: c45b 6bbd 5440 1d3d 87d5 db3c 107e 60bd
000002a0: ee5f 4cbd a075 04bc e180 63bd 7e9b bb3d
000002b0: a3c2 51bd 0b35 c5bd b7a9 283c ba9b b23d
000002c0: 323b bf3d fe2d 06bd 0db7 a13d c063 aebd
000002d0: 3d19 293d fd97 aa3c f4df acbd b1dd 863d
000002e0: f14f eebc 9313 d83b b3d8 9abd e4f4 01bd
000002f0: 7cea 61bd cd85 763d c089 253d 7e07 963d
00000300: 9236 1b3d 3d49 4c3d de90 893b 8997 863d
00000310: 379a 21bd 28f2 ab3d b08a 93bc 18f4 9ebc
00000320: 784c adbc 1ec0 853d c084 a2bd 1425 39bc
00000330: 5d3d 60bc fcdd 1ebc 5d28 873d a421 5d3d
00000340: f5bb a83c ee5e adbd e194 97bd a820 083d
00000350: 3885 48bd 84ab 24bd ab1c 88bd 50ff 2b3c
00000360: c6bb d83c 6015 6e3d f6ac 823c b6d1 963d
00000370: 6079 bcbd 6d3c 483d b777 333d b291 6f3d
00000380: 3ad9 84bd 2773 e8bb e411 09bc 50dd e6bb
00000390: 5a31 2abc d19c a5bd b4b6 243d 633c a13d
000003a0: 80ed 5c3d 9cca b1bb 7c7b 98bd cf16 27bd
000003b0: c83d 8dbd 92db c1bb a3b5 093d 872a 143d
000003c0: 0f9f 8dbc 7261 8a3d dcfa 653d 9a73 95bc
000003d0: b005 8dbd 31f9 50bc a643 c2bd 9d3d 033d
000003e0: bfe5 6c3c ab5c 223c ad90 bf3c 3d96 463c
000003f0: 2688 70bd 3d32 893d c5ac 88ba 92f1 2a3b
-0.0511158 0.056557633 -0.051226128 0.049035884 0.08979484 -0.06629016 -0.07105599 0.05191255
0.02063422 0.0071838736 0.039081752 0.073194444 -0.014278874 -0.04014745 -0.05959005 -0.04637778
0.011327306 -0.039740995 -0.0026833445 -0.033620395 0.088847615 0.040659238 0.036907658 0.03693787
-0.08162031 -0.09175439 -0.060970187 -0.030944057 -0.009355029 0.009277124 -0.06740493 0.002188508
-0.023450825 -0.06594962 -0.05081595 -0.05515957 0.03231323 0.07081905 -0.06042459 0.052331485
-0.060277727 0.051787745 0.0063318633 0.087302364 -0.04793015 -0.03422463 -0.003948422 0.004526671
-0.056403063 -0.04579472 0.056600757 0.058400515 0.019979425 0.046705388 0.03685982 0.046625488
0.048196908 0.08466942 -0.08978688 -0.04164684 0.051313225 0.07541537 0.03263152 0.0074218903
-0.046176586 0.051708933 0.07602019 -0.07387512 0.041165106 0.047636032 -0.016997436 0.049042538
0.036459267 -0.06580821 -0.02912679 0.014283151 -0.020340761 0.0051909313 0.078711905 0.025726346
-0.07162764 0.06169825 0.00457849 -0.061108835 0.013077638 0.09937792 0.02488491 0.054911245
0.011579208 0.00811492 -0.006855625 0.06495387 0.04014749 0.007375228 0.020757888 0.011239117
0.0048131575 -0.06732139 -0.031925697 -0.06710411 0.02506803 -0.093268074 -0.06877949 -0.004782561
0.046153646 -0.024157064 0.056214523 -0.07367606 -0.079121776 -0.057222232 0.04998612 0.03467429
-0.042795263 -0.010296943 -0.08154001 0.009870626 -0.04657917 -0.023054864 0.055302262 -0.019441107
-0.001054831 0.038116604 0.04888194 -0.04098488 0.024265915 -0.009664188 0.057002828 -0.09010673
0.024692317 -0.06127736 0.028348688 0.010638058 -0.009629591 -0.03617197 -0.04670071 0.07720595
0.066270754 -0.073034324 -0.061569136 0.04356175 -0.059579346 0.008844264 -0.06864927 -0.032832727
-0.048390757 -0.050980367 -0.054271385 -0.08494458 0.055266455 0.08224398 -0.03707718 0.008678699
-0.0059547666 0.053616077 -0.051940065 0.07130298 -0.012903767 0.025312873 -0.036779143 -0.053955723
0.09219874 0.04875033 -0.073483236 -0.025324931 -0.05746056 0.038391426 0.026835216 -0.054807723
-0.049896173 -0.008084685 -0.05554283 0.09160517 -0.05121101 -0.09629258 0.010294369 0.08721109
0.093374625 -0.032758705 0.07896242 -0.085151196 0.041283835 0.020824427 -0.08441153 0.06585253
-0.029090853 0.0065941303 -0.07560863 -0.031727687 -0.055155262 0.060186196 0.04041457 0.07325648
0.03789384 0.049874533 0.0041981777 0.06571872 -0.03945371 0.08395797 -0.018010467 -0.019403502
-0.021154627 0.06530784 -0.07935476 -0.011300344 -0.013686505 -0.00969648 0.065994956 0.05398716
0.020597437 -0.08465372 -0.07401443 0.03323427 -0.048955172 -0.040202633 -0.06646093 0.010497883
0.026456725 0.058125854 0.015951615 0.07364218 -0.09202838 0.04888575 0.04381534 0.058488555
-0.06486745 -0.0070938054 -0.008366082 -0.0070454255 -0.010387743 -0.08086551 0.0402133 0.07872846
0.053937435 -0.0054257642 -0.07445428 -0.040793236 -0.068965495 -0.0059160674 0.033620488 0.03617337
-0.01728776 0.067568675 0.05614744 -0.0182436 -0.068858504 -0.012754724 -0.09485559 0.03204118
0.014459073 0.009909789 0.023384416 0.012120781 -0.05872359 0.06699035 -0.0010427466 0.0026083929
