10_Models/Results_Anaheim/WGAN_Freeflow_discriminator_best.pth (torch, 77978 bytes, 13 tensors)

fc1.weight f4 [128, 2]
000000 0a d7 23 3c 3c ef e3 39 0a d7 23 bc e9 6e 3d bb
       0.01 0.00043475057 -0.01 -0.002890522
000010 0a d7 23 bc eb de 15 3b 0a d7 23 bc a7 1b 16 3b
       -0.01 0.0022868465 -0.01 0.0022904666
000020 0a d7 23 bc 0a 33 16 3b 0a d7 23 3c 2c 10 20 bb
       -0.01 0.0022918605 0.01 -0.0024423702
000030 0a d7 23 bc 04 bb 1f 3b 0a d7 23 3c b2 57 20 bb
       -0.01 0.0024372945 0.01 -0.0024466333
000040 0a d7 23 3c cb 1f 20 bb 0a d7 23 bc a5 87 15 3b
       0.01 -0.0024433013 -0.01 0.0022816446
000050 0a d7 23 bc 41 00 3d bb 0a d7 23 bc cc 3f 1c 3b
       -0.01 -0.0028839263 -0.01 0.0023841737
000060 0a d7 23 3c e4 29 36 3b 0a d7 23 3c bf 1e 36 3b
       0.01 0.0027795965 0.01 0.0027789322
000070 0a d7 23 3c 2e 61 20 bb 0a d7 23 bc 2f 90 15 3b
       0.01 -0.0024471986 -0.01 0.0022821536
000080 0a d7 23 3c 97 26 36 3b 0a d7 23 bc 6d 57 44 3b
       0.01 0.0027793997 -0.01 0.0029959336
000090 0a d7 23 bc 39 ad 3c bb 0a d7 23 bc 3f 00 3d bb
       -0.01 -0.0028789772 -0.01 -0.0028839258
0000a0 0a d7 23 3c f2 28 20 bb 0a d7 23 bc 55 ac 1c 3b
       0.01 -0.0024438468 -0.01 0.0023906429
0000b0 0a d7 23 3c e5 22 20 bb 0a d7 23 bc 53 ea 31 3b
       0.01 -0.0024434861 -0.01 0.0027147725
0000c0 0a d7 23 3c 10 33 20 bb 0a d7 23 3c cd 61 20 bb
       0.01 -0.0024444498 0.01 -0.0024472356
0000d0 0a d7 23 3c 78 1b 36 3b 0a d7 23 bc fd fe 15 3b
       0.01 0.0027787369 -0.01 0.002288758
0000e0 0a d7 23 3c 51 28 36 3b 0a d7 23 bc c2 46 16 3b
       0.01 0.0027795027 -0.01 0.0022930359
0000f0 0a d7 23 bc 4f 48 16 3b 0a d7 23 3c 4a 2d 36 3b
       -0.01 0.0022931283 0.01 0.002779799
000100 0a d7 23 bc 07 85 15 3b 0a d7 23 3c 11 24 36 3b
       -0.01 0.0022814886 0.01 0.0027792493
000110 0a d7 23 3c a2 32 20 bb 0a d7 23 3c 46 47 20 bb
       0.01 -0.0024444242 0.01 -0.0024456545
000120 0a d7 23 3c 50 47 20 bb 0a d7 23 3c 65 60 ed 3a
       0.01 -0.0024456568 0.01 0.0018110393
000130 0a d7 23 3c df 16 36 3b e2 3a ba 3a 0a d7 23 3c
       0.01 0.0027784628 0.0014208222 0.01
000140 0a d7 23 bc f1 2f 16 3b 0a d7 23 bc e6 0e 16 3b
       -0.01 0.002291676 -0.01 0.0022897064
000150 0a d7 23 bc b2 30 16 3b 0a d7 23 bc f9 57 3d bb
       -0.01 0.0022917208 -0.01 -0.0028891547
000160 0a d7 23 3c 2f 35 36 3b 0a d7 23 3c 6e 25 36 3b
       0.01 0.0027802696 0.01 0.0027793306
000170 0a d7 23 3c fd b3 34 3b 0a d7 23 bc 8c a0 3c bb
       0.01 0.0027573102 -0.01 -0.0028782217
000180 0a d7 23 3c 27 2b 36 3b 0a d7 23 bc 3c 6e 3d bb
       0.01 0.0027796717 -0.01 -0.0028904816
000190 0a d7 23 bc 63 62 3d bb 0a d7 23 3c 1f 55 20 bb
       -0.01 -0.0028897754 0.01 -0.0024464799
0001a0 0a d7 23 bc 4a fe 3c bb 0a d7 23 bc 4b fe 3c bb
       -0.01 -0.0028838092 -0.01 -0.0028838094
0001b0 0a d7 23 bc 61 0f 3d bb 0a d7 23 3c d2 4a 36 3b
       -0.01 -0.0028848278 0.01 0.0027815592
0001c0 0a d7 23 bc a1 8f 15 3b 0a d7 23 bc 41 6f 16 3b
       -0.01 0.0022821205 -0.01 0.0022954496
0001d0 0a d7 23 bc 16 30 16 3b 0a d7 23 3c 24 2b 36 3b
       -0.01 0.0022916845 0.01 0.002779671
0001e0 0a d7 23 bc af 14 16 3b 0a d7 23 bc 42 00 3d bb
       -0.01 0.0022900512 -0.01 -0.0028839265
0001f0 0a d7 23 bc 37 ad 3c bb 0a d7 23 3c c7 6b 20 bb
       -0.01 -0.0028789768 0.01 -0.0024478303
000200 0a d7 23 3c c1 1e 36 3b 0a d7 23 bc 40 00 3d bb
       0.01 0.0027789327 -0.01 -0.002883926
000210 7f 5c 27 3a 0a d7 23 3c 0a d7 23 3c 19 1c 36 3b
       0.00063843274 0.01 0.01 0.0027787744
000220 0a d7 23 bc 38 ad 3c bb 0a d7 23 3c 8f 28 36 3b
       -0.01 -0.002878977 0.01 0.002779517
000230 0a d7 23 bc 9d 87 15 3b 0a d7 23 bc 39 6e 3d bb
       -0.01 0.0022816428 -0.01 -0.002890481
000240 0a d7 23 bc 13 73 3d bb 0a d7 23 3c e4 1c 36 3b
       -0.01 -0.00289077 0.01 0.0027788216
000250 0a d7 23 3c 98 47 20 bb 0a d7 23 bc 41 30 16 3b
       0.01 -0.0024456736 -0.01 0.0022916945
000260 0a d7 23 3c 51 28 36 3b 0a d7 23 bc 15 1c 16 3b
       0.01 0.0027795027 -0.01 0.0022904922
000270 0a d7 23 bc e6 e4 15 3b 0a d7 23 3c 4b 2d 36 3b
       -0.01 0.002287203 0.01 0.0027797993
000280 0a d7 23 3c e4 1c 36 3b 0a d7 23 bc b4 1b 16 3b
       0.01 0.0027788216 -0.01 0.0022904696
000290 0a d7 23 3c 9b 47 20 bb 0a d7 23 3c f0 19 20 bb
       0.01 -0.0024456743 0.01 -0.0024429522
0002a0 0a d7 23 bc ec 01 2d 3b 0a d7 23 3c b9 33 20 bb
       -0.01 0.002639885 0.01 -0.0024444892
0002b0 0a d7 23 3c d6 23 36 3b 0a d7 23 3c d6 46 20 bb
       0.01 0.0027792356 0.01 -0.0024456284
0002c0 0a d7 23 3c d0 64 20 bb 0a d7 23 bc d0 18 16 3b
       0.01 -0.0024474151 -0.01 0.0022902973
0002d0 0a d7 23 bc d0 1c 16 3b 0a d7 23 bc 3c f3 15 3b
       -0.01 0.0022905357 -0.01 0.0022880575
0002e0 0a d7 23 3c a9 32 20 bb 0a d7 23 bc 3f 00 3d bb
       0.01 -0.0024444258 -0.01 -0.0028839258
0002f0 0a d7 23 3c 83 26 20 bb 0a d7 23 bc ea df 15 3b
       0.01 -0.0024437017 -0.01 0.002286906
000300 0a d7 23 3c c0 1e 36 3b 0a d7 23 bc 3a ad 3c bb
       0.01 0.0027789325 -0.01 -0.0028789775
000310 0a d7 23 bc 4a fe 3c bb 0a d7 23 3c 42 28 36 3b
       -0.01 -0.0028838092 0.01 0.0027794992
000320 0a d7 23 bc 66 0e 57 3b 0a d7 23 3c 8a 69 20 bb
       -0.01 0.0032814979 0.01 -0.0024476969
000330 0a d7 23 3c db 29 36 3b 0a d7 23 bc c1 19 16 3b
       0.01 0.0027795944 -0.01 0.0022903534
000340 0a d7 23 3c 85 6b 20 bb 0a d7 23 3c f3 44 20 bb
       0.01 -0.002447815 0.01 -0.002445516
000350 0a d7 23 3c e4 1c 36 3b 0a d7 23 bc ef 61 15 3b
       0.01 0.0027788216 -0.01 0.0022793969
000360 0a d7 23 3c e5 43 20 bb 0a d7 23 bc 3b ad 3c bb
       0.01 -0.002445453 -0.01 -0.0028789777
000370 0a d7 23 bc 0a 4a 3d bb 0a d7 23 3c 83 22 36 3b
       -0.01 -0.0028883242 0.01 0.0027791567
000380 0a d7 23 3c a4 02 36 3b 0a d7 23 3c 95 29 36 3b
       0.01 0.002777257 0.01 0.002779578
000390 0a d7 23 bc 3b 6e 3d bb 0a d7 23 bc 33 2f 16 3b
       -0.01 -0.0028904814 -0.01 0.0022916317
0003a0 0a d7 23 3c d3 42 20 bb 0a d7 23 bc 34 f3 15 3b
       0.01 -0.0024453893 -0.01 0.0022880556
0003b0 0a d7 23 3c d5 05 36 3b 0a d7 23 bc e4 6c 3d bb
       0.01 0.0027774472 -0.01 -0.0028904015
0003c0 0a d7 23 3c a0 03 36 3b 0a d7 23 bc 3e c4 15 3b
       0.01 0.0027773157 -0.01 0.0022852565
0003d0 0a d7 23 3c f4 1c 36 3b 0a d7 23 3c ff 51 20 bb
       0.01 0.0027788254 0.01 -0.0024462936
0003e0 0a d7 23 bc 7c 75 1b 3b e4 3a ba 3a 0a d7 23 3c
       -0.01 0.002372115 0.0014208225 0.01
0003f0 0a d7 23 bc 4b 1e 29 3b 0a d7 23 3c 37 1d 20 bb
       -0.01 0.002580541 0.01 -0.0024431476

fc1.bias f4 [128]
000000 1e 37 20 3c ce 51 22 3c ab 04 21 3c 4f 72 23 3c
       0.009778766 0.009907199 0.009827773 0.009975984
000010 7c 87 21 3c 9b ee 21 bc f5 59 1f bc 58 57 21 bc
       0.009858962 -0.009883548 -0.009726037 -0.0098474845
000020 4e 91 23 bc a0 39 1d bc d7 3f 22 3c 74 8f 22 3c
       -0.009983374 -0.009596258 0.009902916 0.009921897
000030 62 11 1f 3c 94 52 23 3c 7b 95 1b bc d6 8b 21 3c
       0.009708734 0.009968419 -0.009496088 0.00986
000040 1b 64 18 3c da 8d 23 3c 0a d7 23 3c 83 b8 1d bc
       0.009301211 0.0099825505 0.01 -0.009626511
000050 94 68 1e bc bb 0d 22 bc a3 3d 21 3c a8 76 21 bc
       -0.009668488 -0.009890969 0.0098413555 -0.00985495
000060 82 ff 20 bc fe e8 21 3c 0c d5 1e 3c 3b 71 22 3c
       -0.009826543 0.00988221 0.009694349 0.009914692
000070 e9 85 22 3c 23 fa 21 3c 17 6b 20 bc c1 f0 9d 3a
       0.009919622 0.009886297 -0.009791157 0.00120499
000080 a4 ef 21 bc 4e 32 1b 3c 01 23 20 3c d7 98 21 3c
       -0.009883795 0.009472443 0.009773971 0.0098631
000090 28 92 23 3c 2c c6 21 bc f5 71 15 3c 0a d7 23 3c
       0.009983577 -0.009873908 0.009121408 0.01
0000a0 2d 3a 23 bc 62 12 20 bc 0a d7 23 3c 46 c7 23 3c
       -0.009962601 -0.009770008 0.01 0.009996241
0000b0 68 e7 21 3c 34 a0 23 bc 6e 6a 20 bc c1 41 18 bc
       0.009881832 -0.009986926 -0.009791 -0.009293021
0000c0 32 69 22 3c 70 ca 23 3c fb 94 0e bc 58 b5 23 3c
       0.009912776 0.009996995 -0.008702512 0.009991966
0000d0 0a d7 23 3c 0a d7 23 3c 19 64 19 3c 98 1b 21 3c
       0.01 0.01 0.009362244 0.009833239
0000e0 e3 93 1f 3c 5f a0 23 bc e5 52 19 3c 67 4d 23 bc
       0.009739849 -0.009986966 0.0093581425 -0.009967185
0000f0 4d 6b 20 bc b3 d0 23 3c 99 c9 23 3c b2 13 1f 3c
       -0.0097912075 0.009998488 0.009996795 0.009709286
000100 58 08 20 3c 5e f7 1a bc 33 2c 20 bc 93 f5 21 bc
       0.009767614 -0.009458391 -0.009776163 -0.00988521
000110 1b 95 15 bc 08 2c 1d bc 03 e8 21 bc 39 81 1a bc
       -0.009129788 -0.009593017 -0.009881976 -0.009430223
000120 d3 32 1c bc 83 28 1d bc be c4 20 3c 12 d5 23 3c
       -0.009533602 -0.009592178 0.009812532 0.00999953
000130 e3 5a 18 3c d7 e7 21 bc da da 1e 3c 88 f4 1b bc
       0.009299013 -0.009881935 0.009695733 -0.00951875
000140 97 24 1f bc 57 25 1c 3c eb 2e 21 3c 9f 0a 23 3c
       -0.009713314 0.009530387 0.009837846 0.009951263
000150 3d f1 1f bc e3 66 1f bc 59 3e 20 bc d8 54 fb ba
       -0.0097621055 -0.00972912 -0.00978049 -0.0019175066
000160 bc 31 22 3c b9 99 22 3c c8 49 21 bc 15 8a 1f bc
       0.009899553 0.009924346 -0.009844251 -0.009737511
000170 b3 63 22 bc 6f fc 20 bc 66 a9 21 3c 6a fe 20 3c
       -0.009911465 -0.00982581 0.009867048 0.009826282
000180 0f ed 21 3c 30 cd 23 3c af e2 22 3c 17 c9 1c bc
       0.009883179 0.009997651 0.009941741 -0.009569428
000190 70 c0 21 bc 2c 19 22 bc fd 91 1b 3c a8 ba 1e 3c
       -0.009872541 -0.009893697 0.009495256 0.009688057
0001a0 52 dd 22 3c 35 7d 23 3c 82 2e 21 bc ae cf 22 3c
       0.009940462 0.009978582 -0.0098377485 0.00993721
0001b0 ac 48 21 3c ed 3e 1b bc 71 de 1c 3c 7f 15 1f 3c
       0.0098439865 -0.009475452 0.009574519 0.009709715
0001c0 fb 69 1a 3c 6f ba 1e bc 0a d7 23 3c 61 66 21 3c
       0.009424682 -0.009688004 0.01 0.009851069
0001d0 8d ad 1b bc 89 4d 22 bc 54 6e 21 3c 41 f6 16 bc
       -0.009501827 -0.009906181 0.009852964 -0.009213985
0001e0 51 3b 23 bc 32 de 1f bc dd 52 21 bc 80 d3 23 bc
       -0.009962873 -0.009757565 -0.009846416 -0.009999156
0001f0 1d 64 1e 3c 0a d7 23 3c 90 64 1f 3c f0 7c 1f 3c
       0.009667424 0.01 0.009728566 0.009734377

bn1.weight f4 [128]
000000 0a d7 23 3c 0a d7 23 3c fc b1 23 3c 2d b3 23 3c
       0.01 0.01 0.009991165 0.009991449
000010 24 b3 23 3c 0a d7 23 3c f8 b0 23 3c 0a d7 23 3c
       0.009991441 0.01 0.009990923 0.01
000020 0a d7 23 3c 0e b2 23 3c 0a d7 23 3c cc b1 23 3c
       0.01 0.009991182 0.01 0.009991121
000030 0a d7 23 3c 0a d7 23 3c 0a d7 23 3c 0c b2 23 3c
       0.01 0.01 0.01 0.00999118
000040 0a d7 23 3c 1c a8 23 3c 0a d7 23 3c 0a d7 23 3c
       0.01 0.009988811 0.01 0.01
000050 0a d7 23 3c 42 b2 23 3c 0a d7 23 3c f3 b0 23 3c
       0.01 0.00999123 0.01 0.009990918
000060 0a d7 23 3c 0a d7 23 3c 0a d7 23 3c 42 b3 23 3c
       0.01 0.01 0.01 0.009991469
000070 0a d7 23 3c e5 b1 23 3c 2c b3 23 3c 0a d7 23 3c
       0.01 0.009991144 0.009991448 0.01
000080 0e b2 23 3c 0a d7 23 3c 0a d7 23 3c 0a d7 23 3c
       0.009991182 0.01 0.01 0.01
000090 0a d7 23 3c 0a d7 23 3c 0a d7 23 3c 0a d7 23 3c
       0.01 0.01 0.01 0.01
0000a0 30 b3 23 3c f3 b2 23 3c 30 b3 23 3c 0a d7 23 3c
       0.009991452 0.009991395 0.009991452 0.01
0000b0 0a d7 23 3c 0a d7 23 3c 0a d7 23 3c 0a d7 23 3c
       0.01 0.01 0.01 0.01
0000c0 0a d7 23 3c 0a d7 23 3c 0a d7 23 3c 0a d7 23 3c
       0.01 0.01 0.01 0.01
0000d0 0a d7 23 3c 0a d7 23 3c 0a d7 23 3c 0a d7 23 3c
       0.01 0.01 0.01 0.01
0000e0 0c b2 23 3c 22 b3 23 3c 30 b3 23 3c 0a d7 23 3c
       0.00999118 0.009991439 0.009991452 0.01
0000f0 2f b3 23 3c 0a d7 23 3c 0a d7 23 3c 0a d7 23 3c
       0.009991451 0.01 0.01 0.01
000100 0a d7 23 3c 0a d7 23 3c 0a d7 23 3c 0a d7 23 3c
       0.01 0.01 0.01 0.01
000110 0a d7 23 3c 0a d7 23 3c 0d b2 23 3c 0a d7 23 3c
       0.01 0.01 0.009991181 0.01
000120 0a d7 23 3c 0a d7 23 3c 0a d7 23 3c 34 b3 23 3c
       0.01 0.01 0.01 0.009991456
000130 0a d7 23 3c 2d b3 23 3c fb b1 23 3c 0a d7 23 3c
       0.01 0.009991449 0.009991164 0.01
000140 0a d7 23 3c 2d b3 23 3c 0a d7 23 3c 0a d7 23 3c
       0.01 0.009991449 0.01 0.01
000150 73 af 23 3c 0a d7 23 3c 0a d7 23 3c 0a d7 23 3c
       0.009990561 0.01 0.01 0.01
000160 0a d7 23 3c 29 b3 23 3c 28 b3 23 3c ef b1 23 3c
       0.01 0.009991446 0.009991445 0.009991153
000170 0a d7 23 3c 0a d7 23 3c 0a d7 23 3c fc b1 23 3c
       0.01 0.01 0.01 0.009991165
000180 0a d7 23 3c 0a d7 23 3c 0a d7 23 3c 0a d7 23 3c
       0.01 0.01 0.01 0.01
000190 03 a7 23 3c 0a d7 23 3c 0a d7 23 3c 2e b3 23 3c
       0.009988549 0.01 0.01 0.00999145
0001a0 0a d7 23 3c 0a d7 23 3c 0a d7 23 3c 14 b2 23 3c
       0.01 0.01 0.01 0.009991188
0001b0 0a d7 23 3c 0a d7 23 3c 0a d7 23 3c 0a d7 23 3c
       0.01 0.01 0.01 0.01
0001c0 0a d7 23 3c 0a d7 23 3c 0a d7 23 3c 30 b3 23 3c
       0.01 0.01 0.01 0.009991452
0001d0 0a d7 23 3c ef b1 23 3c 0a d7 23 3c 0a d7 23 3c
       0.01 0.009991153 0.01 0.01
0001e0 0a d7 23 3c 00 b2 23 3c 0a d7 23 3c 0a d7 23 3c
       0.01 0.009991169 0.01 0.01
0001f0 30 b2 23 3c 0a d7 23 3c ca af 23 3c 0a d7 23 3c
       0.009991214 0.01 0.009990642 0.01

bn1.bias f4 [128]
000000 7d c6 0e 3c 86 c9 95 3b 5d 44 6a 3b 0c 39 68 3b
       0.0087143155 0.0045711426 0.0035746314 0.0035434393
000010 a6 31 68 3b c0 4d 84 3b 01 23 7c 3b 29 05 84 3b
       0.0035429983 0.004037589 0.0038473012 0.0040289355
000020 2b 48 84 3b 30 10 6a 3b 09 d3 96 3b 19 49 76 3b
       0.0040369234 0.0035715215 0.004602794 0.003758019
000030 9f 50 8a 3b 31 43 8a 3b 5b 09 84 3b 34 3e 6a 3b
       0.0042210366 0.0042194356 0.0040294356 0.0035742642
000040 b1 46 8a 3b cb a7 b4 3b 05 95 97 3b f3 d3 96 3b
       0.004219853 0.0055131665 0.004625919 0.004602903
000050 76 43 84 3b cc 81 77 3b 09 58 84 3b 06 4e 9c 3b
       0.0040363623 0.0037766574 0.004038815 0.0047700433
000060 50 4d 84 3b 03 0a 84 3b 6d 50 8a 3b 5d a2 68 3b
       0.0040375367 0.004029514 0.0042210133 0.0035497167
000070 a1 47 8a 3b c9 8f 69 3b a2 79 68 3b 1d 49 8a 3b
       0.0042199646 0.003563868 0.003547289 0.0042201416
000080 6b 0e 6a 3b 1d 4c 8a 3b ab 49 84 3b de 5c 84 3b
       0.003571416 0.004220499 0.004037102 0.004039391
000090 81 5d 84 3b 0c d2 01 3c 28 77 8b 3b 0a d7 23 3c
       0.004039467 0.007923614 0.004256148 0.01
0000a0 fa 54 68 3b 03 d4 67 3b ec 56 68 3b d1 b9 95 3b
       0.003545104 0.0035374172 0.00354522 0.00456927
0000b0 70 07 8b 3b 43 54 8a 3b c4 9d 8f 3b f1 a5 97 3b
       0.00424283 0.0042214706 0.004382821 0.004627936
0000c0 05 4d 8a 3b 97 c7 95 3b eb bf 95 3b 6b 03 84 3b
       0.004220607 0.004570912 0.0045699975 0.0040287278
0000d0 b2 ce 96 3b df d0 96 3b 11 f9 8d 3b c8 fa 8a 3b
       0.0046022767 0.004602536 0.0043326695 0.0042413212
0000e0 ef 3d 6a 3b f9 a1 68 3b 63 55 68 3b dd 4c 8a 3b
       0.0035742482 0.0035496934 0.0035451285 0.0042205886
0000f0 bd 29 68 3b f9 d3 96 3b c9 94 97 3b b1 0d 84 3b
       0.0035425269 0.004602906 0.004625891 0.0040299525
000100 49 44 8a 3b f1 d3 96 3b 4e 9b 23 3c 69 43 8a 3b
       0.004219566 0.004602902 0.009985758 0.0042194617
000110 f5 94 97 3b b3 50 8a 3b b0 12 6a 3b c2 c7 95 3b
       0.0046259114 0.004221046 0.0035716705 0.004570932
000120 ae d3 95 3b 48 42 8a 3b d2 5c 84 3b 21 fc 68 3b
       0.0045723533 0.004219327 0.0040393854 0.003555067
000130 7f 47 8a 3b 38 3a 68 3b 90 46 6a 3b 82 49 8a 3b
       0.004219949 0.0035435092 0.0035747625 0.0042201886
000140 3b 42 8a 3b 34 3b 68 3b a4 5e 84 3b e0 47 84 3b
       0.004219321 0.0035435678 0.0040396024 0.0040368885
000150 a9 3f 8a 3b f9 49 84 3b 98 4d 8a 3b 98 5e 84 3b
       0.0042190147 0.0040371385 0.0042206757 0.0040395968
000160 f0 fa 83 3b 9d 00 68 3b 6c 0b 68 3b 38 f7 68 3b
       0.004027717 0.0035400756 0.0035407199 0.0035547744
000170 c3 4c 84 3b 2d d3 96 3b 73 16 84 3b 4f 3e 6a 3b
       0.004037471 0.004602811 0.0040309965 0.0035742705
000180 3b 44 8a 3b 23 95 97 3b 86 d0 96 3b 3f 50 8a 3b
       0.0042195595 0.004625933 0.0046024946 0.004220992
000190 dd 9e c0 3b b0 f8 83 3b 2e 4f 8a 3b 68 35 68 3b
       0.005878313 0.0040274486 0.0042208647 0.0035432223
0001a0 51 0f 84 3b 94 5c 84 3b 48 42 8a 3b 2d ec 69 3b
       0.004030146 0.0040393565 0.004219327 0.003569375
0001b0 73 5c 84 3b c9 94 97 3b 04 39 93 3b 72 4a 8a 3b
       0.004039341 0.004625891 0.004492881 0.0042203004
0001c0 46 bd 8b 3b 3d 50 8a 3b 8b c7 95 3b ed 56 68 3b
       0.0042645065 0.004220991 0.0045709065 0.0035452202
0001d0 0f 5c 84 3b 18 f7 68 3b b9 c2 8b 3b 78 ca 95 3b
       0.0040392946 0.003554767 0.004265156 0.0045712553
0001e0 58 c2 8b 3b ff 14 6a 3b 80 42 8a 3b 27 02 84 3b
       0.004265111 0.003571808 0.004219353 0.004028577
0001f0 00 ea 75 3b 0a d7 23 3c 17 57 87 3b 2c 55 84 3b
       0.0037523508 0.01 0.004130255 0.0040384736

bn1.running_mean f4 [128]
000000 98 b7 69 3c ab 4b 0b 3b 44 21 13 3c 33 d4 15 3c
       0.014264964 0.0021254818 0.008980099 0.0091448305
000010 f7 ed 13 3c ee b5 17 bc 3e b5 29 bc 56 1a 17 bc
       0.009028903 -0.009259684 -0.010358153 -0.009222588
000020 db 47 19 bc 81 2f 2b bc 14 f3 0b 3b 20 f4 16 3c
       -0.009355511 -0.0104483375 0.0021354603 0.009213477
000030 07 15 8e 3c cc 28 90 3c fd 61 11 bc dd b4 13 3c
       0.017344011 0.017597578 -0.00887346 0.009015289
000040 b3 be 8a 3c 44 6f 25 3c 13 8b 12 3b 94 83 8e bc
       0.016936636 0.010097329 0.0022360727 -0.017396726
000050 db 13 14 bc 80 8f 2d bc 69 7f 2b 3c 9a e2 25 bc
       -0.009037937 -0.010593295 0.010467389 -0.010124827
000060 07 dc 16 bc e1 22 2c 3c e8 f1 8d 3c ad 96 14 3c
       -0.009207732 0.010506363 0.017327264 0.009069127
000070 26 c5 8f 3c 95 39 14 3c cd 1c 2e bc b1 cd 10 3c
       0.017550062 0.009046932 -0.010626984 0.008838103
000080 f9 d5 2f bc 6b 14 8c 3c 66 4a 2a 3c 62 d7 2b 3c
       -0.010732167 0.01709958 0.0103937145 0.010488363
000090 36 cd 2d 3c 8d 4f 68 bb 7f 45 89 3c 03 63 c4 3c
       0.010608008 -0.0035447807 0.016756771 0.023972994
0000a0 08 dc 30 bc b1 ee 2d bc 95 1a 16 3c cb 7f 11 3b
       -0.010794647 -0.0106159905 0.009161611 0.0022201415
0000b0 da 83 8f 3c 31 4d 1a bb ac ac 0f bb d0 b8 8b bc
       0.017518926 -0.0023544545 -0.0021922989 -0.017055899
0000c0 ce ba 8f 3c 11 0d 11 3b 35 08 87 bc 08 fc 2d 3c
       0.01754513 0.0022133032 -0.016483406 0.010619171
0000d0 dd 1d 12 3b 2c 18 12 3b e7 33 d0 3a c3 17 8f 3c
       0.0022295632 0.002229224 0.0015884609 0.017467385
0000e0 96 bb 11 3c a6 4a 31 bc 62 a4 0b 3c e0 14 19 bb
       0.008894822 -0.01082102 0.008523079 -0.002335839
0000f0 61 0a 2e bc 35 1a 12 3b 5d 1e 12 3b b9 52 29 3c
       -0.010622592 0.0022293453 0.002229593 0.010334664
000100 9a 7f 8e 3c 1f 2a 8d bc 48 37 7f 3b 7c 49 14 bb
       0.01739483 -0.017231999 0.0038942862 -0.0022626808
000110 b4 70 8a bc c0 ad 00 bb 0d c6 2f bc db 04 8d bc
       -0.016899444 -0.0019634813 -0.010728371 -0.01721423
000120 88 df 8d bc ed 82 00 bb dd 05 2b 3c 4a 22 16 3c
       -0.017318502 -0.0019609288 0.01043841 0.009163449
000130 c3 a9 8a 3c 82 9e 2f bc 8a 1a 11 3c e9 00 f7 ba
       0.016926652 -0.010718944 0.008856425 -0.0018844876
000140 14 4b 08 bb 2c 67 0e 3c 2f 6a 2b 3c 19 50 2d 3c
       -0.0020796703 0.00869159 0.010462328 0.010578179
000150 47 fa 25 bc 32 0d 15 bc fc d4 0c bb ab 55 a9 ba
       -0.010130472 -0.009097384 -0.0021489253 -0.0012919208
000160 47 59 2c 3c b6 f0 14 3c 3c e6 2e bc 1c 4c 2d bc
       0.010519332 0.009090593 -0.010675009 -0.010577228
000170 b1 29 18 bc 0d 2f 90 bc c7 d8 2b 3c 7a 51 13 3c
       -0.009287284 -0.01760056 0.010488695 0.0089915935
000180 68 70 8f 3c 90 09 12 3b 18 1f 0e 3b 83 60 fe ba
       0.017509654 0.0022283532 0.0021686014 -0.0019407425
000190 e9 a3 19 bc 37 e5 17 bc 65 47 8c 3c bb fd 10 3c
       -0.009377458 -0.009270958 0.017123887 0.008849557
0001a0 e5 06 2d 3c 61 bf 2d 3c 63 a7 10 bb f5 a7 14 3c
       0.010560726 0.01060471 -0.0022072427 0.009073247
0001b0 db 88 2b 3c 64 47 8d bc 9b ea eb 3a 67 0e 8e 3c
       0.010469641 -0.017245956 0.0017998995 0.017340852
0001c0 58 b3 8b 3c 63 2d 07 bb f6 75 11 3b a5 d8 13 3c
       0.017053291 -0.0020626418 0.0022195554 0.00902382
0001d0 c4 6c 11 bc a9 14 30 bc 84 32 8f 3c 51 46 8b bc
       -0.008876029 -0.010747113 0.017480142 -0.017001303
0001e0 f6 04 19 bb ac a4 2d bc e3 55 11 bb 2a 9c 19 bc
       -0.0023348904 -0.010598343 -0.0022176437 -0.009375611
0001f0 26 71 12 3c 07 63 c4 3c c7 10 18 3c 85 b3 29 3c
       0.0089381095 0.023973001 0.009281344 0.010357742

bn1.running_var f4 [128]
000000 6b 42 a5 37 a1 88 aa 37 db 39 b0 37 06 40 b0 37
       1.9700461e-05 2.0329202e-05 2.1007776e-05 2.1010648e-05
000010 ba 42 b0 37 9b 60 b1 37 35 52 b1 37 a1 68 b1 37
       2.1011907e-05 2.114503e-05 2.1138325e-05 2.1148766e-05
000020 66 62 b1 37 66 30 b0 37 aa 80 aa 37 b9 ed b0 37
       2.1145865e-05 2.1003372e-05 2.0325493e-05 2.1091533e-05
000030 a7 02 aa 37 db 01 aa 37 b5 69 b1 37 51 31 b0 37
       2.0266814e-05 2.0266443e-05 2.1149268e-05 2.10038e-05
000040 6c 02 aa 37 50 d8 b5 37 53 7a aa 37 aa 80 aa 37
       2.0266707e-05 2.167761e-05 2.032254e-05 2.0325493e-05
000050 73 63 b1 37 3a f9 b0 37 bf 62 b1 37 5f 77 b3 37
       2.1146354e-05 2.109689e-05 2.1146026e-05 2.139405e-05
000060 99 64 b1 37 c9 69 b1 37 a5 01 aa 37 a1 3c b0 37
       2.1146889e-05 2.1149304e-05 2.0266345e-05 2.1009067e-05
000070 89 02 aa 37 42 45 b0 37 df 44 b0 37 e3 02 aa 37
       2.026676e-05 2.1013086e-05 2.1012906e-05 2.0266923e-05
000080 1c 30 b0 37 3b 02 aa 37 8d 64 b1 37 ea 66 b1 37
       2.1003238e-05 2.0266618e-05 2.1146867e-05 2.1147967e-05
000090 eb 66 b1 37 d0 9e a6 37 60 01 aa 37 03 a1 68 37
       2.114797e-05 1.9862695e-05 2.026622e-05 1.3865766e-05
0000a0 15 42 b0 37 85 3f b0 37 29 42 b0 37 e5 86 aa 37
       2.1011607e-05 2.1010414e-05 2.1011643e-05 2.0328394e-05
0000b0 8b 03 aa 37 55 02 aa 37 a9 e5 a9 37 c2 79 aa 37
       2.0267229e-05 2.0266665e-05 2.0253314e-05 2.0322277e-05
0000c0 bd 02 aa 37 94 88 aa 37 ae 87 aa 37 53 68 b1 37
       2.0266854e-05 2.0329178e-05 2.032876e-05 2.1148624e-05
0000d0 84 80 aa 37 84 80 aa 37 0f 7e aa 37 14 05 aa 37
       2.0325424e-05 2.0325424e-05 2.032428e-05 2.0267944e-05
0000e0 42 31 b0 37 1f 49 b0 37 16 42 b0 37 bd 02 aa 37
       2.1003772e-05 2.1014885e-05 2.1011609e-05 2.0266854e-05
0000f0 45 3f b0 37 aa 80 aa 37 52 7a aa 37 ec 6a b1 37
       2.1010297e-05 2.0325493e-05 2.0322539e-05 2.1149834e-05
000100 db 01 aa 37 ab 80 aa 37 37 f6 65 37 aa 01 aa 37
       2.0266443e-05 2.0325495e-05 1.370679e-05 2.0266354e-05
000110 52 7a aa 37 93 02 aa 37 63 30 b0 37 93 88 aa 37
       2.0322539e-05 2.0266778e-05 2.1003367e-05 2.0329177e-05
000120 f1 88 aa 37 b8 01 aa 37 f4 66 b1 37 1f 42 b0 37
       2.0329348e-05 2.026638e-05 2.1147986e-05 2.1011625e-05
000130 89 02 aa 37 12 40 b0 37 84 3a b0 37 e3 02 aa 37
       2.026676e-05 2.101067e-05 2.1008083e-05 2.0266923e-05
000140 b8 01 aa 37 08 40 b0 37 f3 66 b1 37 bb 61 b1 37
       2.026638e-05 2.1010652e-05 2.1147984e-05 2.1145554e-05
000150 d3 e2 b2 37 ab 64 b1 37 38 02 aa 37 de 66 b1 37
       2.1324877e-05 2.1146921e-05 2.0266612e-05 2.1147946e-05
000160 21 6a b1 37 df 3f b0 37 4f 40 b0 37 49 3c b0 37
       2.1149464e-05 2.1010577e-05 2.1010781e-05 2.1008907e-05
000170 8d 64 b1 37 ab 80 aa 37 02 63 b1 37 f8 39 b0 37
       2.1146867e-05 2.0325495e-05 2.1146148e-05 2.1007829e-05
000180 db 01 aa 37 53 7a aa 37 84 80 aa 37 89 02 aa 37
       2.0266443e-05 2.032254e-05 2.0325424e-05 2.026676e-05
000190 9f 6b b8 37 ad 6a b1 37 a6 02 aa 37 d2 3f b0 37
       2.1984624e-05 2.1149719e-05 2.0266812e-05 2.1010554e-05
0001a0 e5 6a b1 37 a6 66 b1 37 b7 01 aa 37 4d 2c b0 37
       2.114982e-05 2.1147844e-05 2.0266378e-05 2.1001464e-05
0001b0 87 66 b1 37 53 7a aa 37 76 85 aa 37 1f 02 aa 37
       2.1147787e-05 2.032254e-05 2.0327727e-05 2.0266567e-05
0001c0 5e ff a9 37 a5 02 aa 37 94 88 aa 37 ff 41 b0 37
       2.0265285e-05 2.026681e-05 2.0329178e-05 2.1011567e-05
0001d0 68 66 b1 37 49 3c b0 37 e9 ff a9 37 7b 88 aa 37
       2.114773e-05 2.1008907e-05 2.0265537e-05 2.0329133e-05
0001e0 c2 ff a9 37 f8 36 b0 37 ba 01 aa 37 f9 67 b1 37
       2.0265466e-05 2.1006432e-05 2.0266383e-05 2.114846e-05
0001f0 86 d6 b0 37 03 a1 68 37 43 6b b2 37 1b 62 b1 37
       2.108073e-05 1.3865766e-05 2.1269201e-05 2.1145728e-05

fc2.weight f4 [128, 128]
000000 0a d7 23 3c 0a d7 23 bc d7 aa 23 bc ef aa 23 bc
       0.01 -0.01 -0.009989462 -0.009989484
000010 ed aa 23 bc 7d 8e 23 3c cf a8 23 bc 6c 8e 23 3c
       -0.009989482 0.009982702 -0.009988978 0.0099826865
000020 7b 8e 23 3c e5 aa 23 bc 0a d7 23 bc 7b a9 23 bc
       0.0099827 -0.009989475 -0.01 -0.009989138
000030 0a d7 23 3c 0a d7 23 3c 6b 8e 23 3c e1 aa 23 bc
       0.01 0.01 0.009982686 -0.009989471
000040 0a d7 23 3c 8d a1 23 bc 0a d7 23 bc 0a d7 23 bc
       0.01 -0.009987247 -0.01 -0.01
000050 7a 8e 23 3c 5e a9 23 bc 7d 8e 23 3c 7b a4 23 bc
       0.0099826995 -0.009989111 0.009982702 -0.009987946
000060 7a 8e 23 3c 6b 8e 23 3c 0a d7 23 3c ea aa 23 bc
       0.0099826995 0.009982686 0.01 -0.00998948
000070 0a d7 23 3c d5 aa 23 bc e5 aa 23 bc 0a d7 23 3c
       0.01 -0.00998946 -0.009989475 0.01
000080 e5 aa 23 bc 0a d7 23 3c 79 8e 23 3c 79 8e 23 3c
       -0.009989475 0.01 0.009982699 0.009982699
000090 79 8e 23 3c 0a d7 23 3c 0a d7 23 3c 89 bc 23 3c
       0.009982699 0.01 0.01 0.009993681
0000a0 ea aa 23 bc f7 aa 23 bc ea aa 23 bc 0a d7 23 bc
       -0.00998948 -0.009989492 -0.00998948 -0.01
0000b0 0a d7 23 3c 0a d7 23 3c 0a d7 23 3c 0a d7 23 bc
       0.01 0.01 0.01 -0.01
0000c0 0a d7 23 3c 0a d7 23 bc 0a d7 23 bc 6c 8e 23 3c
       0.01 -0.01 -0.01 0.0099826865
0000d0 0a d7 23 bc 0a d7 23 bc 0a d7 23 bc 0a d7 23 3c
       -0.01 -0.01 -0.01 0.01
0000e0 e1 aa 23 bc df aa 23 bc ea aa 23 bc 0a d7 23 3c
       -0.009989471 -0.009989469 -0.00998948 0.01
0000f0 f0 aa 23 bc 0a d7 23 bc 0a d7 23 bc 6a 8e 23 3c
       -0.009989485 -0.01 -0.01 0.009982685
000100 0a d7 23 3c 0a d7 23 bc 91 8e 21 bc 0a d7 23 3c
       0.01 -0.01 -0.009860651 0.01
000110 0a d7 23 bc 0a d7 23 3c e5 aa 23 bc 0a d7 23 bc
       -0.01 0.01 -0.009989475 -0.01
000120 0a d7 23 bc 0a d7 23 3c 79 8e 23 3c e0 aa 23 bc
       -0.01 0.01 0.009982699 -0.00998947
000130 0a d7 23 3c ef aa 23 bc d7 aa 23 bc 0a d7 23 3c
       0.01 -0.009989484 -0.009989462 0.01
000140 0a d7 23 3c ef aa 23 bc 79 8e 23 3c 7c 8e 23 3c
       0.01 -0.009989484 0.009982699 0.009982701
000150 64 a6 23 bc 79 8e 23 3c 0a d7 23 3c 79 8e 23 3c
       -0.009988401 0.009982699 0.01 0.009982699
000160 69 8e 23 3c f3 aa 23 bc f2 aa 23 bc e8 aa 23 bc
       0.009982684 -0.009989488 -0.009989487 -0.009989478
000170 7a 8e 23 3c 0a d7 23 bc 73 8e 23 3c d8 aa 23 bc
       0.0099826995 -0.01 0.009982693 -0.009989463
000180 0a d7 23 3c 0a d7 23 bc 0a d7 23 bc 0a d7 23 3c
       0.01 -0.01 -0.01 0.01
000190 af 9f 23 bc 68 8e 23 3c 0a d7 23 3c ef aa 23 bc
       -0.009986802 0.009982683 0.01 -0.009989484
0001a0 6b 8e 23 3c 79 8e 23 3c 0a d7 23 3c eb aa 23 bc
       0.009982686 0.009982699 0.01 -0.0099894805
0001b0 79 8e 23 3c 0a d7 23 bc 0a d7 23 bc 0a d7 23 3c
       0.009982699 -0.01 -0.01 0.01
0001c0 0a d7 23 3c 0a d7 23 3c 0a d7 23 bc ea aa 23 bc
       0.01 0.01 -0.01 -0.00998948
0001d0 7a 8e 23 3c e8 aa 23 bc 0a d7 23 3c 0a d7 23 bc
       0.0099826995 -0.009989478 0.01 -0.01
0001e0 0a d7 23 3c dd aa 23 bc 0a d7 23 3c 6c 8e 23 3c
       0.01 -0.009989467 0.01 0.0099826865
0001f0 94 a9 23 bc 89 bc 23 3c 01 a7 23 bc 7d 8e 23 3c
       -0.009989161 0.009993681 -0.009988547 0.009982702
000200 88 b8 e0 3b 0a d7 23 3c 21 7f 1e bc 50 81 1e bc
       0.0068579353 0.01 -0.009673865 -0.009674385
000210 f2 7e 1e bc 0a d7 23 3c 97 e7 03 bc 0a d7 23 3c
       -0.009673821 0.01 -0.008050821 0.01
000220 0a d7 23 3c 2a 7f 1e bc 0a d7 23 3c d0 19 12 bc
       0.01 -0.009673873 0.01 -0.008917287
000230 89 16 23 bc a7 16 23 bc 0a d7 23 3c 99 7e 1e bc
       -0.009954103 -0.009954131 0.01 -0.009673738
000240 a2 16 23 bc a6 e9 33 bb 0a d7 23 3c 0a d7 23 3c
       -0.009954127 -0.0027452498 0.01 0.01
000250 0a d7 23 3c 68 19 1d bc 0a d7 23 3c fb 8e 86 bb
       0.01 -0.009588577 0.01 -0.0041064
000260 0a d7 23 3c 0a d7 23 3c 7d 16 23 bc 33 88 1e bc
       0.01 0.01 -0.009954092 -0.009676027
000270 a1 16 23 bc 50 70 1e bc 07 6c 1e bc a1 16 23 bc
       -0.009954126 -0.009670332 -0.00966931 -0.009954126
000280 8d 7f 1e bc 91 16 23 bc 0a d7 23 3c 0a d7 23 3c
       -0.009673965 -0.009954111 0.01 0.01
000290 0a d7 23 3c 5c ef e2 bb e1 12 23 bc 0a d7 23 3c
       0.01 -0.0069255065 -0.009953232 0.01
0002a0 24 7f 1e bc 1f 85 1e bc 00 7f 1e bc 0a d7 23 3c
       -0.009673867 -0.009675293 -0.009673834 0.01
0002b0 3d 14 23 bc 7b 16 23 bc 51 03 23 bc 0a d7 23 3c
       -0.009953556 -0.00995409 -0.009949521 0.01
0002c0 93 16 23 bc 0a d7 23 3c 0a d7 23 3c 0a d7 23 3c
       -0.009954113 0.01 0.01 0.01
0002d0 0a d7 23 3c 0a d7 23 3c 0a d7 23 3c 74 14 23 bc
       0.01 0.01 0.01 -0.009953607
0002e0 b7 7e 1e bc b6 6e 1e bc 1e 7f 1e bc 94 16 23 bc
       -0.009673766 -0.00966995 -0.009673862 -0.0099541135
0002f0 19 84 1e bc 0a d7 23 3c 0a d7 23 3c 0a d7 23 3c
       -0.009675049 0.01 0.01 0.01
000300 a3 16 23 bc 0a d7 23 3c 0a d7 23 3c a5 16 23 bc
       -0.0099541275 0.01 0.01 -0.009954129
000310 0a d7 23 3c 87 16 23 bc de 81 1e bc 0a d7 23 3c
       0.01 -0.009954101 -0.009674517 0.01
000320 0a d7 23 3c a7 16 23 bc 0a d7 23 3c 19 6c 1e bc
       0.01 -0.009954131 0.01 -0.009669327
000330 a1 16 23 bc 3b 81 1e bc c6 7e 1e bc 9f 16 23 bc
       -0.009954126 -0.009674366 -0.00967378 -0.009954124
000340 a7 16 23 bc 3f 81 1e bc 0a d7 23 3c 0a d7 23 3c
       -0.009954131 -0.009674369 0.01 0.01
000350 e9 fa 09 bb 0a d7 23 3c 8d 16 23 bc 0a d7 23 3c
       -0.0021054095 0.01 -0.009954107 0.01
000360 0a d7 23 3c f9 84 1e bc 16 84 1e bc 9e 87 1e bc
       0.01 -0.009675258 -0.009675046 -0.009675888
000370 0a d7 23 3c 0a d7 23 3c 0a d7 23 3c 19 80 1e bc
       0.01 0.01 0.01 -0.009674096
000380 a3 16 23 bc 0a d7 23 3c 0a d7 23 3c 89 16 23 bc
       -0.0099541275 0.01 0.01 -0.009954103
000390 5e fc 47 ba 0a d7 23 3c 8c 16 23 bc c5 81 1e bc
       -0.0007628853 0.01 -0.009954106 -0.009674494
0003a0 0a d7 23 3c 0a d7 23 3c a7 16 23 bc b0 87 1e bc
       0.01 0.01 -0.009954131 -0.009675905
0003b0 0a d7 23 3c 0a d7 23 3c 0a d7 23 3c 94 16 23 bc
       0.01 0.01 0.01 -0.0099541135
0003c0 91 11 23 bc 89 16 23 bc 0a d7 23 3c 73 7e 1e bc
       -0.009952919 -0.009954103 0.01 -0.0096737025
0003d0 0a d7 23 3c a3 87 1e bc c2 11 23 bc 0a d7 23 3c
       0.01 -0.009675893 -0.009952964 0.01
0003e0 c0 11 23 bc 23 85 1e bc a6 16 23 bc 0a d7 23 3c
       -0.009952962 -0.009675297 -0.00995413 0.01
0003f0 13 ea b1 bb 0a d7 23 3c 45 20 da bb 0a d7 23 3c
       -0.005429515 0.01 -0.006656679 0.01

fc2.bias f4 [128]
000000 0a d7 23 bc 0a d7 23 bc c0 99 f8 3a 54 43 79 3b
       -0.01 -0.01 0.001896672 0.0038034515
000010 1b d0 23 bc bc bc 23 bc d4 d5 23 bc 1d be d8 3a
       -0.009998347 -0.009993728 -0.009999711 0.001653615
000020 91 cf 23 bc b3 cb 23 bc 54 d1 23 bc 9c d0 23 bc
       -0.009998218 -0.009997296 -0.009998638 -0.009998467
000030 52 5b 23 bc 53 c6 23 bc 6e 6f 06 3b 9c d0 23 bc
       -0.009970503 -0.009996015 0.0020513195 -0.009998467
000040 d0 4c 32 3a 91 cf 23 bc dd 1a 10 3b 0a d7 23 bc
       0.0006801607 -0.009998218 0.0021988668 -0.01
000050 04 d2 23 bc 1c ce 23 bc 91 cf 23 bc bb 3e b3 3a
       -0.009998802 -0.009997871 -0.009998218 0.0013675311
000060 91 cf 23 bc bf 78 2f 3b ab d2 23 bc 0a d7 23 bc
       -0.009998218 0.002677485 -0.009998958 -0.01
000070 33 9a e3 3a 64 ce 23 bc 0d a4 23 bc 0a d7 23 bc
       0.001736468 -0.009997938 -0.009987843 -0.01
000080 8a 6c 03 3b 0a d7 23 bc 00 92 23 bc 0a d7 23 bc
       0.0020053708 -0.01 -0.00998354 -0.01
000090 ea d3 23 bc 0a d7 23 bc 0a d7 23 bc d8 d2 23 bc
       -0.009999255 -0.01 -0.01 -0.009999
0000a0 12 53 f7 3a bf 85 25 bb 27 91 cf 3a 54 c8 71 3b
       0.0018869361 -0.002525672 0.0015836105 0.0036893087
0000b0 96 9a 23 bc 0a d7 23 bc 97 f2 85 3b d0 6a 47 bb
       -0.009985587 -0.01 0.004087757 -0.0030428655
0000c0 59 e3 12 bb 22 11 5b 39 0f 9b 9a 3b 97 ea f7 3a
       -0.0022413342 0.0002089185 0.0047181915 0.0018914518
0000d0 0a d7 23 bc 9f 17 c8 3a 0a d7 23 bc e8 d2 23 bc
       -0.01 0.0015265829 -0.01 -0.009999014
0000e0 da 3a 06 3b 8a cb 23 bc 91 cf 23 bc 36 0e b8 3a
       0.0020481856 -0.009997258 -0.009998218 0.0014042321
0000f0 5a 4a 3e 3a 0a d7 23 bc 20 5f 1a bc de 03 23 bc
       0.0007259004 -0.01 -0.009422094 -0.0099496525
000100 0a d7 23 bc 13 d2 23 bc 7e e7 9f 3a 03 c1 fd 3a
       -0.01 -0.009998816 0.0012199727 0.001935989
000110 3f c6 23 bc 48 7f 74 3b b2 fd 74 3b 44 d1 23 bc
       -0.009995996 0.003730731 0.003738266 -0.009998623
000120 07 07 cf bb 16 d0 23 bc cd ae 04 3b 14 c1 23 bc
       -0.0063179764 -0.009998342 0.002024579 -0.009994764
000130 88 4c b4 3a 0a d7 23 bc d4 d5 23 bc f0 aa 6b 3b
       0.0013755718 -0.01 -0.009999711 0.003596004
000140 0a d7 23 bc 61 7a 23 bc 45 ac e5 39 0a d7 23 bc
       -0.01 -0.009977908 0.00043806634 -0.01
000150 e1 3a 23 bc f0 ec fd 3a a4 97 f8 3a 5e c5 23 bc
       -0.009962768 0.0019372981 0.0018966091 -0.0099957865
000160 9e a3 23 bc 31 c9 23 bc fd d0 23 bc 27 17 2e 3b
       -0.00998774 -0.009996698 -0.009998557 0.0026564093
000170 ce 89 10 3b 0b 6a 23 bc 3a 53 23 bc d4 d5 23 bc
       0.0022054794 -0.009974013 -0.009968573 -0.009999711
000180 09 d0 23 bc 44 d4 23 bc 16 10 23 bc fc 2c 08 3b
       -0.00999833 -0.009999339 -0.009952566 0.0020778766
000190 40 ac 22 bc 5a 89 23 bc 5c 23 fa 3a fc a5 23 bc
       -0.009928763 -0.009981478 0.0019084024 -0.009988304
0001a0 d9 ca 23 bc fd d0 23 bc c1 09 cb 3a f8 a3 23 bc
       -0.009997093 -0.009998557 0.0015490578 -0.009987824
0001b0 d4 cd 23 bc 0a d7 23 bc 84 ac 1a bc 44 02 96 3b
       -0.009997804 -0.01 -0.009440545 0.004577907
0001c0 97 26 23 bc 64 4c 23 bc 0a d7 23 bc 28 29 b0 39
       -0.009957931 -0.009966943 -0.01 0.000336
0001d0 c7 cc 23 bc 09 ce 23 bc f0 fe 22 bc 0a d7 23 bc
       -0.009997553 -0.009997853 -0.009948477 -0.01
0001e0 99 b5 eb 3a 00 20 23 bc 5b 75 77 3b 47 d3 23 bc
       0.0017983197 -0.00995636 0.0037759158 -0.009999103
0001f0 14 df 0a 3b c0 14 f0 3a 2d d4 23 bc 80 64 f8 3a
       0.0021190094 0.0018316731 -0.009999317 0.001895085

bn2.weight f4 [128]
000000 0a d7 23 3c 0a d7 23 3c 0a d7 23 3c 0a d7 23 3c
       0.01 0.01 0.01 0.01
000010 0a d7 23 3c 0a d7 23 3c 0a d7 23 3c 0a d7 23 3c
       0.01 0.01 0.01 0.01
000020 0a d7 23 3c 0a d7 23 3c 0a d7 23 3c 0a d7 23 3c
       0.01 0.01 0.01 0.01
000030 0a d7 23 3c 0a d7 23 3c 0a d7 23 3c 0a d7 23 3c
       0.01 0.01 0.01 0.01
000040 0a d7 23 3c 0a d7 23 3c 0a d7 23 3c 0a d7 23 3c
       0.01 0.01 0.01 0.01
000050 0a d7 23 3c 0a d7 23 3c 0a d7 23 3c 0a d7 23 3c
       0.01 0.01 0.01 0.01
000060 0a d7 23 3c 0a d7 23 3c 0a d7 23 3c 0a d7 23 3c
       0.01 0.01 0.01 0.01
000070 0a d7 23 3c 0a d7 23 3c 0a d7 23 3c 0a d7 23 3c
       0.01 0.01 0.01 0.01
000080 0a d7 23 3c 0a d7 23 3c 0a d7 23 3c 0a d7 23 3c
       0.01 0.01 0.01 0.01
000090 0a d7 23 3c 0a d7 23 3c 0a d7 23 3c 0a d7 23 3c
       0.01 0.01 0.01 0.01
0000a0 0a d7 23 3c 0a d7 23 3c 0a d7 23 3c 0a d7 23 3c
       0.01 0.01 0.01 0.01
0000b0 0a d7 23 3c 0a d7 23 3c 0a d7 23 3c 0a d7 23 3c
       0.01 0.01 0.01 0.01
0000c0 0a d7 23 3c 0a d7 23 3c 0a d7 23 3c 0a d7 23 3c
       0.01 0.01 0.01 0.01
0000d0 0a d7 23 3c 0a d7 23 3c 0a d7 23 3c 0a d7 23 3c
       0.01 0.01 0.01 0.01
0000e0 0a d7 23 3c 0a d7 23 3c 0a d7 23 3c 0a d7 23 3c
       0.01 0.01 0.01 0.01
0000f0 0a d7 23 3c 0a d7 23 3c 0a d7 23 3c 0a d7 23 3c
       0.01 0.01 0.01 0.01
000100 0a d7 23 3c 0a d7 23 3c 0a d7 23 3c 0a d7 23 3c
       0.01 0.01 0.01 0.01
000110 0a d7 23 3c 0a d7 23 3c 0a d7 23 3c 0a d7 23 3c
       0.01 0.01 0.01 0.01
000120 0a d7 23 3c 0a d7 23 3c 0a d7 23 3c 0a d7 23 3c
       0.01 0.01 0.01 0.01
000130 0a d7 23 3c 0a d7 23 3c 0a d7 23 3c 0a d7 23 3c
       0.01 0.01 0.01 0.01
000140 0a d7 23 3c 0a d7 23 3c 0a d7 23 3c 0a d7 23 3c
       0.01 0.01 0.01 0.01
000150 0a d7 23 3c 0a d7 23 3c 0a d7 23 3c 0a d7 23 3c
       0.01 0.01 0.01 0.01
000160 0a d7 23 3c 0a d7 23 3c 0a d7 23 3c 0a d7 23 3c
       0.01 0.01 0.01 0.01
000170 0a d7 23 3c 0a d7 23 3c 0a d7 23 3c 0a d7 23 3c
       0.01 0.01 0.01 0.01
000180 0a d7 23 3c 0a d7 23 3c 0a d7 23 3c 0a d7 23 3c
       0.01 0.01 0.01 0.01
000190 0a d7 23 3c 0a d7 23 3c 0a d7 23 3c 0a d7 23 3c
       0.01 0.01 0.01 0.01
0001a0 0a d7 23 3c 0a d7 23 3c 0a d7 23 3c 0a d7 23 3c
       0.01 0.01 0.01 0.01
0001b0 0a d7 23 3c 0a d7 23 3c 0a d7 23 3c 0a d7 23 3c
       0.01 0.01 0.01 0.01
0001c0 0a d7 23 3c 0a d7 23 3c 0a d7 23 3c 0a d7 23 3c
       0.01 0.01 0.01 0.01
0001d0 0a d7 23 3c 0a d7 23 3c 0a d7 23 3c 0a d7 23 3c
       0.01 0.01 0.01 0.01
0001e0 0a d7 23 3c ba 4c 06 3c 0a d7 23 3c 0a d7 23 3c
       0.01 0.008197004 0.01 0.01
0001f0 0a d7 23 3c 0a d7 23 3c 0a d7 23 3c 0a d7 23 3c
       0.01 0.01 0.01 0.01

bn2.bias f4 [128]
000000 ba 44 e8 b7 42 64 20 3a d4 4f e4 b7 85 e1 26 ba
       -2.7688558e-05 0.0006118455 -2.721689e-05 -0.00063660025
000010 c8 4d e4 37 e9 33 21 ba 3b a7 df 37 7e 6b dd b7
       2.7215938e-05 -0.0006149398 2.6661544e-05 -2.6395308e-05
000020 90 62 e0 37 fb 96 28 ba 5d cd e8 37 71 07 db 37
       2.6748778e-05 -0.0006431189 2.7752185e-05 2.61103e-05
000030 eb e8 25 3a 14 69 28 ba 70 eb e9 b7 fd 0f db 37
       0.0006328958 -0.0006424349 -2.7885399e-05 2.611428e-05
000040 b7 da 1b 3a 58 63 e0 37 db 98 df b7 77 1a 1d 3a
       0.0005945372 2.6749141e-05 -2.665485e-05 0.0005993018
000050 a2 cd e7 37 21 c8 c6 37 d8 65 e0 37 e2 16 22 3a
       2.7633101e-05 2.3696632e-05 2.6750306e-05 0.00061832194
000060 90 66 e0 37 0e f0 1c 3a 5f ed d2 b7 60 db e7 b7
       2.675064e-05 0.00059866987 -2.5144485e-05 -2.76395e-05
000070 a0 52 e4 b7 b0 27 21 3a d1 9e 26 ba be 08 26 ba
       -2.7218193e-05 0.00061475765 -0.0006356063 -0.00063337
000080 0c 55 e4 b7 a7 67 25 3a 20 39 25 3a 36 15 f2 b7
       -2.7219321e-05 0.0006309696 0.0006302763 -2.8858525e-05
000090 d2 ba c8 b7 ce 0a cd b7 0d a2 25 ba b3 b1 ec 37
       -2.3928853e-05 -2.4442936e-05 -0.0006318398 2.821614e-05
0000a0 ef ea d2 b7 e9 19 21 3a 51 89 c7 b7 cd 0d 24 ba
       -2.514335e-05 0.00061455235 -2.3786592e-05 -0.000625816
0000b0 c4 07 24 ba f8 11 dc b7 9d 7d 1d ba 20 5c f7 b7
       -0.00062572607 -2.6234411e-05 -0.00060077925 -2.9487594e-05
0000c0 34 22 21 3a 2d ed 24 3a f9 ef 24 ba 95 a0 c7 b7
       0.0006146759 0.00062914455 -0.0006291862 -2.3797425e-05
0000d0 cd db e4 37 36 73 c8 b7 ff a0 df b7 b0 86 c8 37
       2.728207e-05 -2.3895507e-05 -2.6658641e-05 2.3904577e-05
0000e0 d0 7f db b7 e7 00 ca 37 40 66 e0 37 17 76 25 3a
       -2.6166352e-05 2.4080697e-05 2.6750495e-05 0.0006311847
0000f0 d2 ed 26 3a 93 80 df b7 07 c3 d0 b7 46 0f 26 3a
       0.00063678354 -2.6643544e-05 -2.4886349e-05 0.00063346734
000100 42 46 dd b7 ec 20 ed 37 6d 22 1d 3a 23 95 df b7
       -2.637797e-05 2.8267932e-05 0.00059942045 -2.6653119e-05
000110 c7 37 1d ba dd 2c 25 ba 1c 45 1c ba ac 35 20 ba
       -0.0005997386 -0.00063009356 -0.0005961226 -0.00061115134
000120 74 ec c9 b7 66 e0 cc 37 74 4a d2 b7 b4 b9 1c ba
       -2.4071174e-05 2.4423189e-05 -2.506862e-05 -0.00059785997
000130 57 50 23 3a 45 4d ec 37 6b a3 df 37 9b 07 25 ba
       0.0006229928 2.8169374e-05 2.6659769e-05 -0.0006295384
000140 7e 61 da 37 87 e3 21 ba d5 3b 1b 3a 91 1b d9 b7
       2.6033023e-05 -0.0006175567 0.00059216964 -2.5881252e-05
000150 cf 82 1b 3a 61 2c 1d 3a 16 5f dd b7 0a 20 cd 37
       0.0005932273 0.00059956877 -2.638953e-05 2.4452824e-05
000160 2a 07 26 3a 90 aa c7 37 d0 1a cd 37 cb 85 23 3a
       0.0006333465 2.3802073e-05 2.445039e-05 0.0006237893
000170 32 2d cc b7 fa 13 25 3a 83 95 21 ba 8b a7 df 37
       -2.433974e-05 0.0006297227 -0.00061639416 2.666169e-05
000180 90 be 20 ba c0 7e dd 37 8b 98 1c 3a 06 e4 dc b7
       -0.00061319117 2.6404276e-05 0.00059736584 -2.6332225e-05
000190 36 d6 1b 3a 41 d1 23 3a 35 78 21 3a 9c c4 1c 3a
       0.00059447007 0.0006249138 0.0006159575 0.0005980225
0001a0 e0 a7 21 ba 90 17 cd 37 54 bd 27 3a 24 fa 1c ba
       -0.0006166678 2.4448877e-05 0.00063987565 -0.00059882016
0001b0 92 23 c9 37 1a 50 e8 37 e3 f1 24 ba 0e ce 22 ba
       2.3977631e-05 2.7693855e-05 -0.00062921474 -0.0006210514
0001c0 e4 b1 1b 3a c7 29 1d 3a 99 e9 d7 b7 8b ec 1f 3a
       0.00059392885 0.00059953 -2.5738775e-05 0.00061006163
0001d0 a0 ef cc 37 54 16 21 ba a7 22 25 3a 62 19 d8 b7
       2.443028e-05 -0.000614499 0.0006299414 -2.5761026e-05
0001e0 c4 d6 df b7 7d b4 27 bb 04 18 25 ba 9b 98 20 ba
       -2.668368e-05 -0.0025589757 -0.0006297829 -0.00061262556
0001f0 88 d7 df b7 76 6d e0 b7 06 89 cc b7 16 0e cd b7
       -2.6684036e-05 -2.6753853e-05 -2.4382502e-05 -2.4444464e-05

bn2.running_mean f4 [128]
000000 38 4f 28 bc ad 30 27 bc 09 a6 d5 3a 2a 93 83 3b
       -0.0102727935 -0.010204476 0.0016300093 0.004015346
000010 15 59 1f bc 9b 6f 20 bc 64 5b 1f bc 7e e8 b5 3a
       -0.009725829 -0.009792234 -0.009726379 0.0013878492
000020 16 5a 1f bc 78 82 20 bc 34 5b 1f bc c0 5b 1f bc
       -0.009726068 -0.009796731 -0.009726334 -0.009726465
000030 4e b0 26 bc ee 7f 20 bc 3e 08 ea 3a c0 5b 1f bc
       -0.01017387 -0.009796126 0.001785524 -0.009726465
000040 9b 25 ff 39 16 5a 1f bc 21 50 fd 3a 84 42 27 bc
       0.00048665408 -0.009726068 0.0019326248 -0.01020873
000050 aa 59 1f bc f7 5a 1f bc 16 5a 1f bc 90 36 99 3a
       -0.009725967 -0.009726278 -0.009726068 0.0011689235
000060 16 5a 1f bc ea 65 22 3b ce 4a 28 bc eb 50 28 bc
       -0.009726068 0.0024779984 -0.010271741 -0.010273199
000070 ba a5 c0 3a a4 4e 27 bc 59 70 20 bc ef 7f 20 bc
       0.0014697828 -0.0102116205 -0.009792411 -0.009796127
000080 17 e6 e3 3a b0 3c 27 bc 42 a6 26 bc fe 4f 28 bc
       0.0017387298 -0.01020734 -0.010171475 -0.010272978
000090 54 50 28 bc cc 4c 28 bc b7 81 20 bc bd 5a 1f bc
       -0.010273058 -0.010272216 -0.009796551 -0.009726224
0000a0 3e f9 d3 3a 7d d8 31 bb 90 ef ab 3a c8 33 7f 3b
       0.0016172302 -0.0027137094 0.001311766 0.0038940776
0000b0 cc 88 20 bc d9 4f 28 bc 7e ba 8c 3b a5 cc 58 bb
       -0.00979824 -0.010272943 0.0042946925 -0.0033080962
0000c0 d6 1c 20 bb da 4a e6 37 95 15 a2 3b c6 71 d4 3a
       -0.002443125 2.7452992e-05 0.0049464204 0.0016208224
0000d0 c0 5d 1f bc c0 8b a4 3a f0 4a 28 bc a8 5b 1f bc
       -0.009726942 0.0012553856 -0.010271773 -0.009726442
0000e0 af 98 e9 3a 4e 59 1f bc 16 5a 1f bc 5e ac 9e 3a
       0.0017821993 -0.009725882 -0.009726068 0.0012105813
0000f0 0b 70 0c 3a 67 47 28 bc 21 c5 1e bc 12 a0 26 bc
       0.0005357272 -0.01027093 -0.009690554 -0.01017
000100 3b 50 28 bc 09 5a 1f bc 50 06 85 3a 04 da da 3a
       -0.010273035 -0.009726056 0.0010148976 0.0016697054
000110 f6 23 20 bc 1d fe 80 3b 66 6d 81 3b dc 43 20 bc
       -0.009774199 0.0039365427 0.003949809 -0.009781804
000120 f5 dd d7 bb 38 5b 1f bc 5a 99 e6 3a 33 79 20 bc
       -0.0065877386 -0.009726338 0.001759331 -0.009794521
000130 5f 90 99 3a 1a 5d 1f bc 64 5b 1f bc 03 bc 78 3b
       0.0011716 -0.009726787 -0.009726379 0.003795386
000140 fc 5b 1f bc 90 ed 1f bc 35 ac 70 39 a1 4f 28 bc
       -0.009726521 -0.009761229 0.00022952336 -0.010272891
000150 0c b2 26 bc 71 a5 e2 3a ce d8 d5 3a 88 57 1f bc
       -0.010174286 0.0017291737 0.0016315223 -0.009725459
000160 93 d9 26 bc 90 58 1f bc 0c 5b 1f bc 50 ae 20 3b
       -0.01018371 -0.009725705 -0.009726297 0.002451796
000170 38 e7 fd 3a b3 6d 26 bc c3 03 20 bc 64 5b 1f bc
       0.0019371277 -0.01015799 -0.009766522 -0.009726379
000180 58 26 20 bc 8b 58 1f bc f8 64 26 bc 7e 8e ed 3a
       -0.009774767 -0.0097257 -0.010155909 0.0018124131
000190 45 28 26 bc 05 e4 26 bc ab 39 df 3a 43 ee 26 bc
       -0.010141437 -0.0101862 0.0017030736 -0.010188642
0001a0 e8 6d 20 bc 0c 5b 1f bc 05 ee b1 3a 75 56 20 bc
       -0.009791829 -0.009726297 0.0013574964 -0.009786238
0001b0 50 5a 1f bc b8 5d 1f bc d1 2f 17 bc 56 a3 9c 3b
       -0.009726122 -0.009726934 -0.009227709 0.0047802133
0001c0 7c 35 26 bc a5 75 26 bc fe 4e 28 bc 6c f2 13 39
       -0.010144588 -0.010159885 -0.010272739 0.00014109322
0001d0 0e 5a 1f bc d7 67 20 bc dc f0 25 bc f0 4f 28 bc
       -0.009726061 -0.009790382 -0.010128226 -0.010272965
0001e0 27 ee c8 3a e3 ea 2c bc 84 6d 82 3b 49 5a 20 bc
       0.0015329764 -0.010554048 0.0039803404 -0.009787151
0001f0 d6 e5 f2 3a 7d 4f cd 3a 0a 50 28 bc c4 fd d4 3a
       0.0018531631 0.0015663948 -0.010272989 0.0016249944

bn2.running_var f4 [128]
000000 f6 16 19 38 78 1b a3 36 18 12 19 38 e1 32 a3 36
       3.6499427e-05 4.8609763e-06 3.6494894e-05 4.8637016e-06
000010 18 12 19 38 23 75 a2 36 44 15 19 38 ca 12 19 38
       3.6494894e-05 4.8416127e-06 3.6497848e-05 3.649554e-05
000020 8d 15 19 38 24 bd a2 36 22 15 19 38 0d 16 19 38
       3.6498113e-05 4.849995e-06 3.6497724e-05 3.649858e-05
000030 8f fd a2 36 41 cd a2 36 0e 17 19 38 0d 16 19 38
       4.8574943e-06 4.851871e-06 3.6499514e-05 3.649858e-05
000040 b3 fd a2 36 8d 15 19 38 43 15 19 38 6e 77 a2 36
       4.8575107e-06 3.6498113e-05 3.6497844e-05 4.8418797e-06
000050 c6 13 19 38 a9 14 19 38 8d 15 19 38 2d 78 a2 36
       3.6496458e-05 3.6497284e-05 3.6498113e-05 4.8419665e-06
000060 8d 15 19 38 2b 26 a3 36 80 17 19 38 7a 15 19 38
       3.6498113e-05 4.862222e-06 3.649993e-05 3.6498044e-05
000070 18 12 19 38 4f df a2 36 ff d0 a2 36 d7 30 a3 36
       3.6494894e-05 4.8539728e-06 4.8523066e-06 4.8634643e-06
000080 18 12 19 38 08 12 a3 36 a8 93 a2 36 86 11 19 38
       3.6494894e-05 4.8598777e-06 4.8451657e-06 3.6494363e-05
000090 bc 14 19 38 88 14 19 38 2b dd a2 36 e8 16 19 38
       3.6497353e-05 3.6497164e-05 4.8537236e-06 3.6499376e-05
0000a0 80 17 19 38 0c da a1 36 69 14 19 38 e0 35 a2 36
       3.649993e-05 4.823558e-06 3.649705e-05 4.834248e-06
0000b0 d7 2f a2 36 c7 12 19 38 9e 4b a2 36 97 15 19 38
       4.8335455e-06 3.649553e-05 4.836779e-06 3.649815e-05
0000c0 3e 43 a2 36 5b 6e a2 36 e6 94 a3 36 6f 14 19 38
       4.8358042e-06 4.8408233e-06 4.8751126e-06 3.6497073e-05
0000d0 ad 16 19 38 6e 14 19 38 43 15 19 38 78 14 19 38
       3.649916e-05 3.649707e-05 3.6497844e-05 3.6497106e-05
0000e0 3d 13 19 38 13 15 19 38 8d 15 19 38 cb 2c a2 36
       3.649596e-05 3.649767e-05 3.6498113e-05 4.833191e-06
0000f0 7f a6 a2 36 42 15 19 38 6d 15 19 38 01 42 a3 36
       4.847359e-06 3.649784e-05 3.6497997e-05 4.8654624e-06
000100 2d 15 19 38 72 12 19 38 0c dd a2 36 43 15 19 38
       3.6497764e-05 3.649522e-05 4.8537095e-06 3.6497844e-05
000110 2a e4 a2 36 31 91 a2 36 df db a2 36 55 97 a2 36
       4.854538e-06 4.8448787e-06 4.8535726e-06 4.8455936e-06
000120 96 14 19 38 c1 14 19 38 aa 15 19 38 b9 ce a2 36
       3.6497215e-05 3.649737e-05 3.649822e-05 4.852042e-06
000130 45 41 a3 36 38 17 19 38 44 15 19 38 58 e5 a2 36
       4.865377e-06 3.6499667e-05 3.6497848e-05 4.8546754e-06
000140 df 15 19 38 36 3b a3 36 6b 5e a3 36 3c 17 19 38
       3.649841e-05 4.8646716e-06 4.8687702e-06 3.649968e-05
000150 8f 6f a2 36 4c 8d a2 36 cd 12 19 38 ad 14 19 38
       4.8409634e-06 4.8444253e-06 3.6495552e-05 3.64973e-05
000160 10 09 a2 36 6e 14 19 38 88 14 19 38 04 24 a3 36
       4.8290312e-06 3.649707e-05 3.6497164e-05 4.8619713e-06
000170 35 15 19 38 66 c3 a2 36 32 f8 a1 36 44 15 19 38
       3.6497793e-05 4.8507236e-06 4.8270676e-06 3.6497848e-05
000180 f2 3a a3 36 cc 12 19 38 fa c6 a2 36 3b 15 19 38
       4.8646407e-06 3.649555e-05 4.85114e-06 3.6497815e-05
000190 3b 58 a2 36 f0 dd a2 36 7e f1 a2 36 14 de a2 36
       4.8382476e-06 4.853813e-06 4.8560896e-06 4.8538295e-06
0001a0 cb ac a2 36 88 14 19 38 08 84 a2 36 72 d2 a2 36
       4.848092e-06 3.6497164e-05 4.8433467e-06 4.8524753e-06
0001b0 6e 15 19 38 f6 16 19 38 8f dc a2 36 6e eb a2 36
       3.6498e-05 3.6499427e-05 4.8536526e-06 4.855384e-06
0001c0 01 7f a2 36 af de a2 36 bc 11 19 38 59 46 a2 36
       4.8427614e-06 4.8539e-06 3.649456e-05 4.8361658e-06
0001d0 92 14 19 38 2d 4f a2 36 e2 61 a2 36 5c 15 19 38
       3.64972e-05 4.8371935e-06 4.8393713e-06 3.6497935e-05
0001e0 3c 15 19 38 a6 94 a0 34 52 02 a2 36 6c 33 a3 36
       3.649782e-05 2.9910478e-07 4.8282463e-06 4.863765e-06
0001f0 3c 15 19 38 56 14 19 38 c4 14 19 38 88 14 19 38
       3.649782e-05 3.6496982e-05 3.6497382e-05 3.6497164e-05
