10_Models/Results_Anaheim/WGANBR_Freeflow_discriminator_trad_best.pth (torch, 78118 bytes, 13 tensors)

fc1.weight f4 [128, 2]
0	0xbb9a20bc	-0.0047036093
1	0x3c23d70a	0.01
2	0xbb2b9270	-0.0026179813
3	0x3c23d70a	0.01
4	0xbb8caf6b	-0.0042933724
5	0x3c23d70a	0.01
6	0xbc23d70a	-0.01
7	0xbc211a4b	-0.009832929
8	0x3b0a4f61	0.0021104442
9	0x3c23d70a	0.01
10	0x3c23d70a	0.01
11	0x3c2119f1	0.009832845
12	0xbb9b1ecf	-0.0047338973
13	0x3c23d70a	0.01
14	0xbc23d70a	-0.01
15	0xbc211e1c	-0.009833839
16	0xbb93f4dc	-0.0045152735
17	0x3c23d70a	0.01
18	0xbc23d70a	-0.01
19	0x3c23d00c	0.009998333
20	0xbac4c154	-0.001501123
21	0xb6b4154b	-5.366897e-06
22	0xbb92215b	-0.0044595427
23	0x3c23d70a	0.01
24	0xbc00575c	-0.007833328
25	0xbc23d70a	-0.01
26	0x3b10610b	0.0022030498
27	0x3c23d70a	0.01
28	0xbb74a18d	-0.0037327737
29	0xbc23d70a	-0.01
30	0xbbafbc19	-0.005362999
31	0xbc20327f	-0.009777664
32	0xbb9defb1	-0.004819833
33	0xbc238131	-0.009979532
34	0xbb9c274e	-0.0047654277
35	0x3c23d70a	0.01
36	0xbb113453	-0.0022156432
37	0xba928d33	-0.0011180997
38	0xbb83d986	-0.0040237335
39	0x3c23d70a	0.01
40	0xbaf54b96	-0.0018714543
41	0xba9bd11a	-0.0011887879
42	0xbba072c2	-0.0048964927
43	0x3c23d70a	0.01
44	0xbc23d70a	-0.01
45	0xbc22baa5	-0.009932195
46	0xbb4f7f3b	-0.0031661529
47	0xba9e4ba4	-0.0012076986
48	0xbb5b0fcc	-0.0033426164
49	0xbbb11454	-0.0054040346
50	0xbb8be934	-0.0042697433
51	0x3c23d70a	0.01
52	0xbb9f09bf	-0.0048534567
53	0x3c237fb6	0.009979179
54	0xbb37ac38	-0.0028026234
55	0xba12c0e5	-0.00055982015
56	0x39abb51a	0.00032750593
57	0x3c23d70a	0.01
58	0xbb2521f6	-0.0025197244
59	0x3c23d70a	0.01
60	0xbc23d70a	-0.01
61	0x3c23d70a	0.01
62	0xbc23d70a	-0.01
63	0xbc214c02	-0.009844782
64	0xbb27d29f	-0.0025607718
65	0x3c23d70a	0.01
66	0x3b776d0d	0.0037754208
67	0x3c23d70a	0.01
68	0x3b4181bf	0.0029526798
69	0x3b31db57	0.0027138793
70	0xbb28918d	-0.002572152
71	0xba1e49c5	-0.0006038214
72	0xbc23d70a	-0.01
73	0xbc2123b2	-0.009835171
74	0xbaa19c37	-0.0012329881
75	0x3c23d70a	0.01
76	0x3bf55fbb	0.0074882186
77	0x3c03135f	0.008000224
78	0x3b51759f	0.0031960977
79	0x3c23d70a	0.01
80	0xbba37387	-0.004988137
81	0xbbf0de06	-0.007350686
82	0xbb9e66a7	-0.0048340145
83	0x3c23349e	0.009961275
84	0xbb14f0f9	-0.0022726639
85	0x3c23d70a	0.01
86	0xbb2981f3	-0.002586481
87	0x3c23d70a	0.01
88	0xbafb23c3	-0.0019160438
89	0xba3bc433	-0.000716272
90	0xbb8446f0	-0.0040367767
91	0xbc23d70a	-0.01
92	0xbb658dfd	-0.0035027259
93	0x3c23d70a	0.01
94	0xbbb50867	-0.0055246833
95	0xbc23d661	-0.009999842
96	0xbb654db7	-0.0034988949
97	0x3c23d70a	0.01
98	0xbb589302	-0.0033046608
99	0x3c23d70a	0.01
100	0xbb255055	-0.0025224884
101	0x3c23d70a	0.01
102	0xb994bf01	-0.0002837107
103	0x3c23d70a	0.01
104	0xb9e6023e	-0.0004387069
105	0x3c23d70a	0.01
106	0xbc23d70a	-0.01
107	0x3c23d70a	0.01
108	0xbb988d10	-0.004655488
109	0x3c23d70a	0.01
110	0x3a742720	0.00093136914
111	0x3c23d70a	0.01
112	0xbb662dd0	-0.0035122521
113	0x3c23d70a	0.01
114	0xbba0bd2a	-0.0049053626
115	0x3c23d70a	0.01
116	0xbb8215ec	-0.0039698984
117	0x3c23d70a	0.01
118	0xbb5503d3	-0.00325035
119	0xbae269f3	-0.0017274007
120	0xbb82eee6	-0.003995764
121	0x3c23d70a	0.01
122	0xbb83059a	-0.0039984705
123	0x3c23d70a	0.01
124	0xbba60a8f	-0.0050671767
125	0xbbc4f9a7	-0.006011206
126	0xbc23d70a	-0.01
127	0x3c23d70a	0.01
128	0xbc23d70a	-0.01
129	0x3c21cb3c	0.009875115
130	0xbc23d70a	-0.01
131	0xbc215777	-0.009847513
132	0x3b731c07	0.0037095563
133	0x3c23d70a	0.01
134	0xbb8d3de3	-0.004310356
135	0x3c23d70a	0.01
136	0xbc23d70a	-0.01
137	0x3c23d70a	0.01
138	0xbc23d70a	-0.01
139	0x3c23d70a	0.01
140	0xbb91b7a1	-0.004446939
141	0xbb4860ab	-0.0030575197
142	0xbb85c94d	-0.004082835
143	0x3c23d70a	0.01
144	0xbc23d70a	-0.01
145	0xbc2182e4	-0.009857867
146	0xbbac0501	-0.00524962
147	0xbac5a4d7	-0.0015079033
148	0xbc23d70a	-0.01
149	0xbc21235b	-0.00983509
150	0xbb817ee0	-0.0039518923
151	0x3c23d70a	0.01
152	0xbadcab1b	-0.0016835661
153	0xb7c61843	-2.3614737e-05
154	0xbb7c8839	-0.0038533343
155	0x3c23d70a	0.01
156	0xbb83dcaf	-0.0040241103
157	0x3c23d70a	0.01
158	0xbb94c9ab	-0.0045406423
159	0x3c23d70a	0.01
160	0xbc23d70a	-0.01
161	0xbc215df3	-0.009849059
162	0xbb16ef39	-0.0023030771
163	0x3c23d70a	0.01
164	0xbc23d70a	-0.01
165	0xbc238288	-0.009979852
166	0xbb9fcac9	-0.004876469
167	0x3c23d70a	0.01
168	0x3c23d70a	0.01
169	0x3c211a1e	0.009832887
170	0xbc23d70a	-0.01
171	0xbc2119f2	-0.009832846
172	0xbc23d70a	-0.01
173	0xbc2133ee	-0.009839041
174	0xbbf6f163	-0.0075360998
175	0xbc18c269	-0.009323695
176	0xbc23d70a	-0.01
177	0xbc211b36	-0.009833148
178	0xbb79b75c	-0.0038103675
179	0x3c23d70a	0.01
180	0xbb993fd3	-0.004676798
181	0x3c23d70a	0.01
182	0xbb708e28	-0.0036705825
183	0xbc120505	-0.00891233
184	0xbbc9f80c	-0.0061636027
185	0xbbd804fe	-0.006592392
186	0xbb758e08	-0.003746869
187	0x3c23d70a	0.01
188	0xbb855f47	-0.004070196
189	0x3bde18b0	0.0067778453
190	0xbc23d70a	-0.01
191	0x3c23d70a	0.01
192	0xbc23d6f2	-0.009999977
193	0x3c23b0cc	0.009990882
194	0xbb23c9cb	-0.0024992104
195	0x3c23d70a	0.01
196	0x399b6997	0.00029642574
197	0x3bed0525	0.0072332793
198	0xbc23d70a	-0.01
199	0xbc211b60	-0.009833187
200	0xbc23d70a	-0.01
201	0xbc211e1c	-0.009833839
202	0xbb297d18	-0.0025861915
203	0x3c23d70a	0.01
204	0xbb8c61ec	-0.004284134
205	0x3c23d70a	0.01
206	0xbafa0156	-0.0019073884
207	0xbc11fd8d	-0.008910549
208	0xbb2c534c	-0.0026294766
209	0x3780a16d	1.5333959e-05
210	0x3c23d70a	0.01
211	0x3c229e43	0.009925428
212	0xbbaa7cbf	-0.005202859
213	0xbc23d70a	-0.01
214	0xbb36582f	-0.0027823558
215	0x3c23d70a	0.01
216	0x39c1cfb0	0.00036966568
217	0x3c23d70a	0.01
218	0xbc23d70a	-0.01
219	0x3c23d70a	0.01
220	0xbc23d70a	-0.01
221	0x3c23d70a	0.01
222	0xbc23d70a	-0.01
223	0x3c1e32ea	0.009655694
224	0xbb5ba3cc	-0.0033514379
225	0xbad17d53	-0.0015982784
226	0xb9e2056e	-0.00043110125
227	0x3c23d70a	0.01
228	0xbb389796	-0.0028166524
229	0xbc17b3b4	-0.009259153
230	0xbba35191	-0.0049840887
231	0xbc1036cf	-0.00880213
232	0xbc21ae1f	-0.009868174
233	0xbc23d70a	-0.01
234	0xbb9423e6	-0.004520881
235	0x3c23d70a	0.01
236	0xbc23d70a	-0.01
237	0xbc212ae5	-0.009836887
238	0xbb0e7fb9	-0.002174361
239	0x3c23d70a	0.01
240	0xbc23d70a	-0.01
241	0xbc23bbdd	-0.009993521
242	0xbc23d70a	-0.01
243	0x3c23d70a	0.01
244	0xbb662988	-0.003511997
245	0x3c23d70a	0.01
246	0xbbaffbfd	-0.0053706155
247	0xbc23d70a	-0.01
248	0xbb745967	-0.0037284733
249	0x3c23d70a	0.01
250	0xbbc30531	-0.0059515466
251	0xbba8290d	-0.0051318468
252	0xbc23d70a	-0.01
253	0x3c23920d	0.009983552
254	0xbc23d70a	-0.01
255	0xbc214c02	-0.009844782

fc1.bias f4 [128]
0	0x3c234a7a	0.009966487
1	0xbc2396ae	-0.009984655
2	0xbc23007d	-0.009948847
3	0xbc1f0b1e	-0.00970724
4	0xbc211f8d	-0.009834182
5	0xbb73df1b	-0.0037211839
6	0xbc23a0ed	-0.009987098
7	0x3c23adb2	0.009990143
8	0x3c230fa3	0.009952459
9	0xbc2336ae	-0.009961767
10	0x3c23b693	0.00999226
11	0xbc23461a	-0.009965444
12	0xbc2313dd	-0.009953466
13	0x3c22d975	0.009939541
14	0xbc23c8d3	-0.009996611
15	0xbc2231c3	-0.009899559
16	0xbc22bbff	-0.009932517
17	0x3c2330ff	0.009960412
18	0xbc2336e9	-0.009961822
19	0xbc23640d	-0.009972584
20	0xbc23d6c3	-0.009999934
21	0x3c2202ac	0.009888332
22	0x3c238e95	0.009982725
23	0xbc229e2d	-0.009925407
24	0xbc22c842	-0.0099354405
25	0xbc239d7b	-0.009986277
26	0x3c228a0a	0.009920606
27	0xbc2225df	-0.0098967245
28	0x3c21ce87	0.0098759
29	0x3c228b2e	0.009920878
30	0x3c21230a	0.009835014
31	0x3c23a854	0.009988863
32	0x3c23a8d6	0.009988984
33	0x3c2291a7	0.009922422
34	0xbc2381ac	-0.009979647
35	0xbc232ba1	-0.009959132
36	0xbc233aac	-0.009962719
37	0x3c23352c	0.009961408
38	0xbc233652	-0.009961681
39	0x3c2331ea	0.009960631
40	0xbc2393bf	-0.009983956
41	0xbc234216	-0.009964487
42	0x3c238994	0.009981532
43	0x3c2375ec	0.009976845
44	0x3c23c885	0.009996538
45	0xbc23d1b9	-0.009998732
46	0xbc236148	-0.009971924
47	0x3c23d38b	0.009999166
48	0xbc22e6fe	-0.009942768
49	0x3c22a3c5	0.009926741
50	0xbc22ea76	-0.009943595
51	0x3c239668	0.00998459
52	0xbc2255c8	-0.009908147
53	0x3c224b72	0.009905683
54	0xbc23ce6e	-0.009997947
55	0x3c2364e3	0.009972784
56	0xba71cc69	-0.000922388
57	0xbc23c5ac	-0.009995859
58	0xbc23cc60	-0.009997457
59	0xbc23c897	-0.009996555
60	0xbc23b5bf	-0.009992062
61	0x3c223524	0.009900365
62	0xbc22ffb4	-0.00994866
63	0xbc23c698	-0.009996079
64	0xbc239560	-0.009984344
65	0x3c23d6b6	0.009999922
66	0x3c2235d5	0.00990053
67	0x3c230da2	0.009951981
68	0x3c2359e0	0.009970158
69	0x3c21d11f	0.0098765185
70	0x3c234618	0.009965442
71	0x3c225ce7	0.009909845
72	0xbc235d8b	-0.009971033
73	0xbc23d33a	-0.009999091
74	0xbc1feb7c	-0.009760734
75	0xbc21cc6e	-0.0098754
76	0xbc23d376	-0.009999147
77	0x3c20629c	0.009789135
78	0xbc22f05e	-0.009945003
79	0xbc23c0a9	-0.009994664
80	0xbc235f73	-0.009971487
81	0x3c23d70a	0.01
82	0x3c230568	0.009950019
83	0xbc23cf5f	-0.009998172
84	0x3c20b831	0.00980954
85	0xbc232f47	-0.009960002
86	0x3c225e76	0.009910217
87	0x3c23526f	0.009968384
88	0xbc2185ed	-0.009858591
89	0xbc2334aa	-0.009961287
90	0x3c2280ac	0.009918373
91	0x3c2307a9	0.009950557
92	0xbc234797	-0.009965799
93	0xbc2294c4	-0.009923164
94	0xbc236a5c	-0.0099740885
95	0xbc23a938	-0.009989075
96	0x3c239d20	0.009986192
97	0x3c23d39e	0.009999184
98	0x3c23054f	0.009949996
99	0x3c221a6c	0.009893995
100	0xbc23307e	-0.009960292
101	0x3c220d11	0.009890811
102	0xbc22dc11	-0.009940163
103	0x3c23463e	0.0099654775
104	0x3c22e3e8	0.009942032
105	0x3c23b3b2	0.009991573
106	0x3c23a864	0.009988878
107	0x3c229936	0.009924224
108	0x3c216cef	0.009852632
109	0x3c226f92	0.009914296
110	0xbc236bb4	-0.009974409
111	0xbc239079	-0.009983175
112	0xbc2331e7	-0.009960628
113	0x3c22fc91	0.009947912
114	0xbc22645d	-0.009911624
115	0xbc22a5a4	-0.009927187
116	0xbc2292dd	-0.00992271
117	0xbc22ebb1	-0.0099438885
118	0x3c23cbb7	0.0099973
119	0xbc2272e7	-0.00991509
120	0xbc23bc94	-0.009993691
121	0x3c217a69	0.009855845
122	0xbc233124	-0.0099604465
123	0xbc231586	-0.009953862
124	0x3c235db8	0.009971075
125	0x3c21e021	0.009880097
126	0x3c22733c	0.009915169
127	0x3c22b62a	0.009931127

bn1.weight f4 [128]
0	0x3c23d70a	0.01
1	0x3c23d70a	0.01
2	0x3c23d70a	0.01
3	0x3c23d70a	0.01
4	0x3c23d70a	0.01
5	0x3c23d70a	0.01
6	0x3c23d70a	0.01
7	0x3c23d70a	0.01
8	0x3c23d70a	0.01
9	0x3c23d70a	0.01
10	0x3b9a46e0	0.004708156
11	0x3c23d70a	0.01
12	0x3c23d70a	0.01
13	0x3c23d70a	0.01
14	0x3c23d70a	0.01
15	0x3c23d70a	0.01
16	0x3c23d70a	0.01
17	0x3c23d70a	0.01
18	0x3b8e7929	0.0043479395
19	0x3c23d70a	0.01
20	0x3c16b8cb	0.0091993315
21	0x3c23d70a	0.01
22	0x3c23d70a	0.01
23	0x3b95f6c2	0.004576535
24	0x3c23d70a	0.01
25	0x3c23d70a	0.01
26	0x3c23c406	0.009995466
27	0x3b91e60b	0.004452472
28	0x3c23d70a	0.01
29	0x3c23d70a	0.01
30	0x3c23d70a	0.01
31	0x3c23d70a	0.01
32	0x3c23d70a	0.01
33	0x3c23d70a	0.01
34	0x3b5e1954	0.0033889608
35	0x3b910edb	0.0044268197
36	0x3c23d70a	0.01
37	0x3c23d70a	0.01
38	0xba8a2ce5	-0.0010541944
39	0x3c23d70a	0.01
40	0x3c23d70a	0.01
41	0x3c22f069	0.009945014
42	0x3c23d70a	0.01
43	0x3c23d70a	0.01
44	0x3b8be8d2	0.0042696977
45	0x3c23d70a	0.01
46	0x3c23d70a	0.01
47	0x3c23d70a	0.01
48	0x3c23d70a	0.01
49	0x3c23d70a	0.01
50	0x3c23d70a	0.01
51	0x3c23d70a	0.01
52	0x3c23d70a	0.01
53	0x3c23d70a	0.01
54	0x3c23d70a	0.01
55	0x3c23d70a	0.01
56	0x3c23d70a	0.01
57	0x3c23d70a	0.01
58	0x3c23d70a	0.01
59	0x3bd1a9f2	0.006398433
60	0x3c23d70a	0.01
61	0x3c23d70a	0.01
62	0x3c23d70a	0.01
63	0x3c23d70a	0.01
64	0x3c23078a	0.009950528
65	0x3c23d70a	0.01
66	0x3c23d70a	0.01
67	0x3c23d70a	0.01
68	0x3c23d70a	0.01
69	0x3c23d70a	0.01
70	0x3bf0e989	0.0073520583
71	0x3c23d70a	0.01
72	0x3c23d70a	0.01
73	0x3b3077cc	0.0026926873
74	0x3c23d70a	0.01
75	0x3c23d70a	0.01
76	0x3b8e6bb3	0.004346335
77	0x3c23d70a	0.01
78	0x3c23d70a	0.01
79	0x3c23d70a	0.01
80	0x3c23d70a	0.01
81	0x3c23d70a	0.01
82	0x3c23d70a	0.01
83	0x3c23d70a	0.01
84	0x3c23d70a	0.01
85	0x3c23d70a	0.01
86	0x3c23d70a	0.01
87	0x3c23d70a	0.01
88	0x3c23d70a	0.01
89	0x3c23d70a	0.01
90	0x3c23d70a	0.01
91	0x3c23d70a	0.01
92	0x3c23d70a	0.01
93	0x3c23d70a	0.01
94	0x3c1e34b7	0.009656123
95	0x3c23d70a	0.01
96	0x3c23d70a	0.01
97	0x3c23d70a	0.01
98	0x3c1048fa	0.0088064615
99	0x3c23d70a	0.01
100	0x3c23d70a	0.01
101	0x3c23d70a	0.01
102	0x3c23d70a	0.01
103	0x3c23d70a	0.01
104	0x3b89b0e4	0.004201995
105	0x3c23d70a	0.01
106	0x3c23d70a	0.01
107	0x3c23d70a	0.01
108	0x3c23d70a	0.01
109	0x3c23d70a	0.01
110	0x3c23d70a	0.01
111	0x3c20d9c5	0.009817545
112	0x3b9875ea	0.0046527283
113	0x3c23d70a	0.01
114	0x3c23d70a	0.01
115	0x3c23d70a	0.01
116	0x3c0d6793	0.008630651
117	0x3c23d70a	0.01
118	0x3c23d70a	0.01
119	0x3c23d70a	0.01
120	0x3c23d70a	0.01
121	0x3c23d70a	0.01
122	0x3c23d70a	0.01
123	0x3baefda4	0.005340295
124	0x3c23d70a	0.01
125	0x3c0d86fe	0.008638142
126	0x3c23d6ed	0.009999973
127	0x3c23d70a	0.01

bn1.bias f4 [128]
0	0x3aa8f518	0.0012890426
1	0x3a6f1f75	0.0009121814
2	0x3a14c0c0	0.0005674474
3	0x3c23d70a	0.01
4	0xbb6dd1d0	-0.0036288388
5	0x3be6266b	0.0070236227
6	0x3a9679f1	0.0011480433
7	0x3c23d70a	0.01
8	0x3a8b7720	0.001064036
9	0x3aeb1c18	0.001793745
10	0xbb236ace	-0.0024935487
11	0x3a7c3dcc	0.00096222456
12	0xba2b6a2c	-0.0006538953
13	0xbb6fcc51	-0.0036590288
14	0x3c01b407	0.007916457
15	0x3c239278	0.009983651
16	0x3c239d11	0.009986178
17	0x3a8f8d90	0.0010952223
18	0xbad4a14a	-0.0016222384
19	0x38c89b72	9.565697e-05
20	0xbbab217a	-0.0052224966
21	0x3a96a37e	0.0011492816
22	0x3c23d70a	0.01
23	0xbb1dc8f5	-0.0024076079
24	0x3aacb62a	0.0013176848
25	0x3a3addfc	0.0007128415
26	0x3c00ba75	0.007856955
27	0xbb1ac8bf	-0.002361819
28	0xba92a669	-0.001118851
29	0x3899e717	7.338652e-05
30	0x3a9ccf52	0.0011963642
31	0x3c23d70a	0.01
32	0x3a2c116a	0.0006563874
33	0x38cdbda0	9.810482e-05
34	0x3c23d70a	0.01
35	0xbb1cd46a	-0.002393032
36	0x3c23d70a	0.01
37	0xbb6d2c27	-0.0036189647
38	0x3c198a09	0.009371289
39	0xba17d48a	-0.00057918637
40	0x3c21f2c8	0.009884544
41	0x3b51e389	0.003202649
42	0xbb70463d	-0.003666296
43	0x360216a0	1.938468e-06
44	0xbb05983a	-0.0020384924
45	0x3ba2903d	0.004961042
46	0xb8f8192b	-0.000118302494
47	0x3b8050d7	0.003915887
48	0xb944483d	-0.00018718927
49	0xba22d087	-0.00062108826
50	0x3a706246	0.00091699173
51	0xbb6cc349	-0.0036127141
52	0xbc23d70a	-0.01
53	0x3ac2f2c3	0.0014873374
54	0x3a758424	0.0009365699
55	0xbb6f08af	-0.0036473682
56	0xb980ccbf	-0.0002456661
57	0x3a99ddbb	0.0011739054
58	0x39b4ff51	0.000345225
59	0xb9c9e3a9	-0.00038507328
60	0x3a258a3b	0.00063148484
61	0x3a06fe12	0.0005149554
62	0xba8b1a50	-0.00106127
63	0x3a9dcdc3	0.0012039471
64	0x3c23d70a	0.01
65	0x3c23d70a	0.01
66	0x38cdbc46	9.8102304e-05
67	0x3a243b99	0.0006264984
68	0x3aa56941	0.0012619869
69	0x3aa5ee10	0.0012659449
70	0x39eb906d	0.00044930298
71	0x391c00e3	0.0001487765
72	0x3c23d70a	0.01
73	0xbaecc1c9	-0.0018063124
74	0x3c23d70a	0.01
75	0xb8d14834	-9.9793455e-05
76	0xbb223e8e	-0.0024756524
77	0x39ded167	0.00042499157
78	0x39c018ce	0.00036639575
79	0x3a8a5ca1	0.001055617
80	0x3c23d70a	0.01
81	0xbb6fcdb9	-0.0036591126
82	0x3c23d70a	0.01
83	0x3a92e641	0.0011207537
84	0x3be78f6d	0.007066658
85	0x3c23d70a	0.01
86	0x3c23d70a	0.01
87	0x3bd6d376	0.00655597
88	0x3c23d70a	0.01
89	0xb892ede6	-7.0061345e-05
90	0x3a8bc1ba	0.0010662593
91	0x3bb7b1b2	0.0056058997
92	0x3c210f33	0.009830284
93	0x39ff4348	0.0004868752
94	0x3c23d70a	0.01
95	0x3a9f4376	0.0012150842
96	0x3b147a0a	0.0022655749
97	0x39c7cb02	0.0003810749
98	0xbbfcea2f	-0.0077183465
99	0x3c23d70a	0.01
100	0x3c23d70a	0.01
101	0x39806314	0.00024487881
102	0x3a117e35	0.00055501173
103	0x3b7955b3	0.0038045465
104	0xbb14378a	-0.0022616112
105	0x3bf12037	0.0073585766
106	0x3c23d70a	0.01
107	0x3a73c0e0	0.0009298455
108	0xbaa61eee	-0.0012674013
109	0x3a9e7350	0.0012088809
110	0x3aabaccc	0.0013097762
111	0x3c23d70a	0.01
112	0xbb315641	-0.0027059468
113	0xbc23d70a	-0.01
114	0x3b7f235d	0.003893099
115	0x3c2285d8	0.009919606
116	0x3c235b5e	0.009970514
117	0x3a40f6a7	0.0007360973
118	0x3c23d70a	0.01
119	0xbb6d06b4	-0.0036167325
120	0x3c23d70a	0.01
121	0x3a9207b2	0.0011141209
122	0xba060543	-0.00051124784
123	0x3c11ff2f	0.008910938
124	0x38b7247d	8.7329165e-05
125	0x3a8cdb8d	0.0010746584
126	0x3c059568	0.008153297
127	0x3c23d70a	0.01

bn1.running_mean f4 [128]
0	0xc45cf535	-883.83136
1	0xc43dacf2	-758.7023
2	0xc456e3cd	-859.5594
3	0xc1213fe6	-10.0781
4	0xc3ed5032	-474.62653
5	0x41211a57	10.068931
6	0xc45d73ff	-885.81244
7	0xc1037d4c	-8.21809
8	0xc45a351d	-872.8299
9	0xc4965451	-1202.6349
10	0xc2b3f16f	-89.97155
11	0xc45963d9	-869.5601
12	0x42fd49bc	126.64401
13	0xc3ea82b8	-469.02124
14	0x43bbe29b	375.77036
15	0x4383d0f6	263.6325
16	0x43997f40	306.99414
17	0xc45df1e4	-887.77954
18	0xc2841390	-66.03821
19	0xc452d4c4	-843.32446
20	0xc22451bf	-41.07983
21	0xc45fe0f4	-895.5149
22	0xc09efcda	-4.9683657
23	0xc2eba832	-117.82851
24	0x42f3ae68	121.84064
25	0xc4568853	-858.13007
26	0xc45f0b79	-892.17926
27	0xc306eee6	-134.9332
28	0xc41154e4	-581.3264
29	0xc43c32b8	-752.7925
30	0xc49658e0	-1202.7773
31	0xc11735b1	-9.450608
32	0xc43cd013	-755.25116
33	0xc3bac170	-373.51123
34	0x41134d65	9.206395
35	0xc2ecd7e2	-118.421646
36	0xc11f6edc	-9.964565
37	0xc428efec	-675.7488
38	0xc1ed4ad3	-29.661535
39	0xc3cc3c22	-408.4698
40	0x43108975	144.53694
41	0xc45eae91	-890.7276
42	0xc4389015	-738.2513
43	0xc43d31e6	-756.77966
44	0xc2905354	-72.16275
45	0x43b1d93c	355.69714
46	0xc44afd81	-811.961
47	0x4384acaa	265.34894
48	0xc44aeee7	-811.73285
49	0xc44801b7	-800.0268
50	0xc43c3dcf	-752.96576
51	0xc41aa772	-618.61633
52	0xc41cfa08	-627.90674
53	0xc4965570	-1202.6699
54	0xc45c575e	-881.3651
55	0xc408608b	-545.5085
56	0xc44b21db	-812.529
57	0xc460036f	-896.05365
58	0xc45207bd	-840.1209
59	0xc2bd33a0	-94.60083
60	0xc452692d	-841.6434
61	0xc45272c3	-841.79315
62	0x4254c0bf	53.18823
63	0xc4965985	-1202.7975
64	0xc49584e1	-1196.1525
65	0xc114f7f4	-9.310535
66	0xc3bcbc4e	-377.47113
67	0xc4572444	-860.56665
68	0xc4965847	-1202.7587
69	0xc49656ec	-1202.7163
70	0xc2aada1d	-85.426
71	0xc453b720	-846.8613
72	0xc10cca28	-8.799355
73	0xc3611b3c	-225.10638
74	0xc11f7a54	-9.967365
75	0xc451c1f7	-839.0307
76	0xc2c7bd0c	-99.86923
77	0xc4504440	-833.0664
78	0xc452d6b4	-843.35474
79	0xc45a9899	-874.38434
80	0xc1140512	-9.251238
81	0xc43905e9	-740.09235
82	0xc0203b4d	-2.5036194
83	0xc45f9855	-894.3802
84	0x41214992	10.0804615
85	0xc121513e	-10.0823345
86	0xc11bebd6	-9.745077
87	0x42c64b8a	99.14754
88	0xc1211282	-10.0670185
89	0xc44f9e22	-830.4708
90	0xc45ca03c	-882.50366
91	0x439e68fa	316.82013
92	0x41e8cc76	29.099834
93	0xc44ea986	-826.6488
94	0xc423c220	-655.0332
95	0xc49658f3	-1202.7797
96	0xc4964e10	-1202.4395
97	0xc43be2d6	-751.5443
98	0xc3ce5b18	-412.71167
99	0xc120b9b6	-10.04534
100	0xc103cf04	-8.238041
101	0xc43d31f4	-756.7805
102	0xc456bfd9	-858.9976
103	0x43d37190	422.8872
104	0xc31f18a5	-159.09627
105	0x40b22cf4	5.5679874
106	0x438ee860	285.81543
107	0xc4402489	-768.57086
108	0xc410b061	-578.7559
109	0xc4965895	-1202.7682
110	0xc49657f1	-1202.7482
111	0xc49403ed	-1184.1227
112	0xc2d2f54c	-105.479095
113	0xc41cdb88	-627.4302
114	0x43c22a0f	388.32858
115	0x43668081	230.50197
116	0x40f96bff	7.794433
117	0xc45a506f	-873.2568
118	0xc11db044	-9.855534
119	0xc4371850	-732.3799
120	0xbfdc7712	-1.7223837
121	0xc4965b4f	-1202.8534
122	0xc44b2163	-812.52167
123	0x438ad803	277.6876
124	0xc44e6263	-825.5373
125	0xc24a0ebe	-50.514397
126	0xc49643d9	-1202.1202
127	0xc11735ed	-9.450665

bn1.running_var f4 [128]
0	0x4b33d379	1.1785081e+07
1	0x4b0482c0	8.684224e+06
2	0x4b2a14d0	1.1146448e+07
3	0x44be875b	1524.2299
4	0x4a4f6d8b	3.3984988e+06
5	0x44beb0d7	1525.5262
6	0x4b34a05d	1.1837533e+07
7	0x448f2cda	1145.4016
8	0x4b2f61a7	1.1493799e+07
9	0x4ba67719	2.181893e+07
10	0x47ee90d3	122145.65
11	0x4b2e0fdc	1.1407324e+07
12	0x486ce7b7	242590.86
13	0x4a4a9335	3.3189892e+06
14	0x4a021015	2.1309492e+06
15	0x49801318	1.049187e+06
16	0x49adb08e	1.4228658e+06
17	0x4b357054	1.1890772e+07
18	0x47807350	65766.625
19	0x4b23b7a4	1.072938e+07
20	0x46c6c6b3	25443.35
21	0x4b389cc0	1.2098752e+07
22	0x43bc4a69	376.58133
23	0x484c7ed3	209403.3
24	0x485b0f64	224317.56
25	0x4b298426	1.1109414e+07
26	0x4b373c2f	1.2008495e+07
27	0x48861808	274624.25
28	0x4a9b9a70	5.098808e+06
29	0x4b02760c	8.5499e+06
30	0x4ba682fe	2.182502e+07
31	0x44a820ad	1345.0211
32	0x4b035099	8.605849e+06
33	0x4a007dce	2.1052035e+06
34	0x44c84eba	1602.4602
35	0x484e9026	211520.6
36	0x44ba399a	1489.8
37	0x4ad23eb0	6.889304e+06
38	0x464ffaef	13310.733
39	0x4a19a9b8	2.517614e+06
40	0x4899f33c	315289.88
41	0x4b369f88	1.1968392e+07
42	0x4afaef6f	8.2226475e+06
43	0x4b03d8d6	8.640726e+06
44	0x4799794f	78578.62
45	0x49e92657	1.9099629e+06
46	0x4b17c449	9.946185e+06
47	0x4981c73a	1.0631432e+06
48	0x4b17ae73	9.940595e+06
49	0x4b135877	9.656439e+06
50	0x4b0283b3	8.553395e+06
51	0x4ab032c1	5.7736645e+06
52	0x4ab584bf	5.9479995e+06
53	0x4ba67b23	2.1820998e+07
54	0x4b32d1d9	1.1719129e+07
55	0x4a8903d1	4.4897045e+06
56	0x4b17fb8c	9.960332e+06
57	0x4b38d36d	1.2112749e+07
58	0x4b2279bd	1.0647997e+07
59	0x4803b176	134853.84
60	0x4b2310b5	1.0686645e+07
61	0x4b232186	1.069095e+07
62	0x4727d317	42963.09
63	0x4ba68301	2.1825026e+07
64	0x4ba4acdf	2.1584318e+07
65	0x44a32b14	1305.3462
66	0x4a033ada	2.1500705e+06
67	0x4b2a7ce9	1.1173097e+07
68	0x4ba681a2	2.1824324e+07
69	0x4ba67e89	2.1822738e+07
70	0x47d6e8e9	110033.82
71	0x4b2519eb	1.0820075e+07
72	0x44910d04	1160.4067
73	0x493a9c8b	764360.7
74	0x44ba56c7	1490.7118
75	0x4b220ddf	1.0620383e+07
76	0x4812e89a	150434.4
77	0x4b1fc426	1.0470438e+07
78	0x4b23baa4	1.0730148e+07
79	0x4b2fff8f	1.1534223e+07
80	0x44a06524	1283.1606
81	0x4afc3031	8.2637045e+06
82	0x42d78453	107.758446
83	0x4b382314	1.2067604e+07
84	0x44be9d4b	1524.9154
85	0x44beaec1	1525.461
86	0x44b2cc95	1430.3932
87	0x48120a0d	149544.2
88	0x44be1a0e	1520.8142
89	0x4b1ec3d9	1.0404825e+07
90	0x4b334a2d	1.1749933e+07
91	0x49b8d5f9	1.5141751e+06
92	0x464cd45d	13109.091
93	0x4b1d4e99	1.0309273e+07
94	0x4ac5825d	6.4719825e+06
95	0x4ba681b2	2.1824356e+07
96	0x4ba66a44	2.181236e+07
97	0x4b02076d	8.521581e+06
98	0x4a1cf1ef	2.5713878e+06
99	0x44be074e	1520.2283
100	0x448f2cdc	1145.4019
101	0x4b03d8da	8.64073e+06
102	0x4b29dbef	1.1131887e+07
103	0x4a24a97b	2.6978228e+06
104	0x48ba7909	381896.28
105	0x43eac760	469.55762
106	0x49968aa5	1.2332366e+06
107	0x4b07fcbe	8.912062e+06
108	0x4a9a3b13	5.0538335e+06
109	0x4ba68250	2.1824672e+07
110	0x4ba67f67	2.1823182e+07
111	0x4ba15fa1	2.1151554e+07
112	0x4823debd	167802.95
113	0x4ab5412f	5.9393515e+06
114	0x4a0adf3d	2.2752792e+06
115	0x4943bd58	801749.5
116	0x4466f8b5	923.88605
117	0x4b2f8b7d	1.1504509e+07
118	0x44b6e49f	1463.1444
119	0x4af6f231	8.0919285e+06
120	0x4259ef8b	54.48393
121	0x4ba6888f	2.182787e+07
122	0x4b17f9f7	9.959927e+06
123	0x498e0ca8	1.163669e+06
124	0x4b1ce447	1.0282055e+07
125	0x47165b7f	38491.496
126	0x4ba653f0	2.1800928e+07
127	0x44a820ad	1345.0211

fc2.weight f4 [128, 128]
0	0x3c07fddb	0.00830027
1	0x3b555c66	0.0032556294
2	0xba8fe5e2	-0.0010978545
3	0x3c23d70a	0.01
4	0xbc23d70a	-0.01
5	0xbc23d70a	-0.01
6	0x3c233ceb	0.009963254
7	0x3c23d70a	0.01
8	0x3bbdfa7b	0.005797682
9	0x3c2347e3	0.00996587
10	0xbbaccec6	-0.0052736728
11	0x3b61e2a8	0.0034467373
12	0xbc23d70a	-0.01
13	0xbc23d70a	-0.01
14	0xbc23d70a	-0.01
15	0xbc23d70a	-0.01
16	0xbc23d70a	-0.01
17	0x3c049c01	0.008093835
18	0xbb7f57dd	-0.0038962283
19	0xbb6b2962	-0.003588282
20	0xbc1ed9c2	-0.009695472
21	0x3c233c9e	0.009963183
22	0x3c23d70a	0.01
23	0xbbabce2d	-0.005243084
24	0xbc23d70a	-0.01
25	0x3a35ba9e	0.000693241
26	0x3c23d70a	0.01
27	0xbbb44843	-0.0055017783
28	0xbbde07ee	-0.0067758476
29	0xbb8a7b02	-0.0042260895
30	0x3c0f213e	0.008735953
31	0x3c23d70a	0.01
32	0xb9b765dd	-0.00034980374
33	0xbbcbc5e3	-0.0062186583
34	0x3c1cbd20	0.009566575
35	0xbba6a2a6	-0.005085307
36	0x3bf5d37e	0.0075020185
37	0xbc23d70a	-0.01
38	0x3bf79c40	0.0075564682
39	0xbbdc1f83	-0.0067176237
40	0xbc23d70a	-0.01
41	0x3c1204b3	0.008912253
42	0xbc1c0a74	-0.009523977
43	0xbb8bf968	-0.004271675
44	0xbb9aa5dd	-0.0047194795
45	0xbc23d70a	-0.01
46	0xbb9c0015	-0.004760752
47	0xbc23d70a	-0.01
48	0xbba164df	-0.004925355
49	0xbbcd45cb	-0.0062644235
50	0x3b4f6827	0.0031647773
51	0xbc23d70a	-0.01
52	0xbc23d70a	-0.01
53	0x3c05f98a	0.0081771705
54	0x3b558aeb	0.0032584022
55	0xbc12804a	-0.008941719
56	0xbba9f5ba	-0.0051867636
57	0x3c233caa	0.009963194
58	0xbb1587c7	-0.0022816525
59	0xbbcebf96	-0.00630946
60	0xb9f17311	-0.00046052833
61	0xbae83219	-0.0017715126
62	0xbc23d70a	-0.01
63	0x3c16a52f	0.009194656
64	0x3c23d70a	0.01
65	0x3c23d70a	0.01
66	0xbbcbc5f0	-0.0062186643
67	0x38dc4479	0.000105031715
68	0x3c0da666	0.0086456295
69	0x3c06df7b	0.008231993
70	0xbbedabc4	-0.007253142
71	0xbb58f7f7	-0.0033106783
72	0x3c23d70a	0.01
73	0xbbcc3645	-0.0062320554
74	0x3c23d70a	0.01
75	0xbb92ed3c	-0.004483847
76	0xbba1a3b9	-0.0049328473
77	0xbb1a94ca	-0.002358722
78	0xbb23dcc7	-0.002500342
79	0x3c233d94	0.009963412
80	0x3c23d70a	0.01
81	0xbc1317c0	-0.00897783
82	0x3c23d70a	0.01
83	0x3c1011af	0.008793279
84	0xbc23d70a	-0.01
85	0x3c23d70a	0.01
86	0x3c23d70a	0.01
87	0xbbbdb704	-0.0057896394
88	0x3c23d70a	0.01
89	0xbb982872	-0.0046434933
90	0x3be74d43	0.007058771
91	0xbc23d70a	-0.01
92	0xbc23d70a	-0.01
93	0xbb159ea6	-0.0022830158
94	0x3c23d70a	0.01
95	0x3c1da60c	0.009622108
96	0x3c235c9d	0.009970811
97	0xbb54fae2	-0.003249817
98	0xbc23d70a	-0.01
99	0x3c23d70a	0.01
100	0x3c23d70a	0.01
101	0xbb77ec99	-0.0037830232
102	0xba9232d9	-0.001115407
103	0xbc23d70a	-0.01
104	0xbb9dd11f	-0.004816189
105	0xbc23d70a	-0.01
106	0xbc23d70a	-0.01
107	0x3b649f8e	0.003488514
108	0xbbe6a417	-0.007038604
109	0x3c233cd0	0.009963229
110	0x3c0e4b7a	0.008684987
111	0x3c23d70a	0.01
112	0xbba98b00	-0.005174041
113	0xbc23d70a	-0.01
114	0xbc23d70a	-0.01
115	0xbc23d70a	-0.01
116	0x3c0a554b	0.008443187
117	0x3a32cb60	0.00068204664
118	0x3c23d70a	0.01
119	0xbc21d10d	-0.009876502
120	0x3c23d70a	0.01
121	0x3c1596de	0.009130208
122	0xbbb779c5	-0.005599233
123	0x3b6705a4	0.0035251165
124	0xbb8ae5a0	-0.004238799
125	0xbc0c1046	-0.008548802
126	0x3c23d70a	0.01
127	0x3c23d70a	0.01
128	0x3c22f95c	0.009947147
129	0x3b20ca16	0.0024534515
130	0xbaa83603	-0.001283348
131	0x3c23d70a	0.01
132	0xbc23d70a	-0.01
133	0xbc23d70a	-0.01
134	0x3c22f828	0.00994686
135	0x3c23d70a	0.01
136	0x3c22f7f4	0.009946812
137	0x3c23021b	0.009949232
138	0xbbadd1c3	-0.0053045466
139	0x3b2305ac	0.0024875207
140	0xbc23d70a	-0.01
141	0xbc23d70a	-0.01
142	0xbc23d70a	-0.01
143	0xbc23d70a	-0.01
144	0xbc23d70a	-0.01
145	0x3c22f7d7	0.009946785
146	0xbb813d31	-0.003944062
147	0xbb435782	-0.0029806797
148	0xbc143cbf	-0.009047686
149	0x3bab8b68	0.0052351244
150	0x3c23d70a	0.01
151	0xbbacae4d	-0.0052698017
152	0xbc23d70a	-0.01
153	0x3a987c99	0.0011633813
154	0x3c23d70a	0.01
155	0xbbb19455	-0.005419294
156	0xbbd7ef6d	-0.006589821
157	0xbb784834	-0.0037884833
158	0x3bd350a9	0.0064488244
159	0x3c23d70a	0.01
160	0xba18690d	-0.00058139936
161	0xbbcb81c7	-0.006210539
162	0x3c1cb05d	0.009563533
163	0xbba83578	-0.005133327
164	0x3bfbf503	0.00768912
165	0xbc23d70a	-0.01
166	0x3bf65726	0.007517713
167	0xbbc3933f	-0.005968481
168	0xbc23d70a	-0.01
169	0x3c234716	0.009965679
170	0xbc199df7	-0.009376041
171	0xbb7511d6	-0.0037394664
172	0xbb9b8659	-0.00474624
173	0xbc23d70a	-0.01
174	0xbb86cafd	-0.0041135536
175	0xbc23d70a	-0.01
176	0xbb83da07	-0.0040237936
177	0xbbc40e4d	-0.00598315
178	0x3ac351bf	0.0014901682
179	0xbc23d70a	-0.01
180	0xbc23d70a	-0.01
181	0x3c034a04	0.008013252
182	0x3c0dc764	0.008653495
183	0xbc114926	-0.008867538
184	0xbb9b4ec8	-0.004739616
185	0x3c22f84e	0.009946896
186	0xbb12360c	-0.0022310046
187	0xbbce6a20	-0.006299272
188	0xba9ca2ee	-0.0011950412
189	0xbab1b369	-0.0013557497
190	0xbc23d70a	-0.01
191	0x3c22f8a8	0.00994698
192	0x3c23d70a	0.01
193	0x3c23d70a	0.01
194	0xbbcb81ce	-0.0062105423
195	0xba94be06	-0.0011348135
196	0x3bdb6b85	0.006696167
197	0x3c16d3d1	0.009205774
198	0xbbed5098	-0.0072422735
199	0xbb397975	-0.0028301154
200	0x3c23d70a	0.01
201	0xbbc2a4ac	-0.0059400406
202	0x3c23d70a	0.01
203	0xbb74547f	-0.003728181
204	0xbb9ee529	-0.0048490954
205	0xbafd05dd	-0.0019304116
206	0xbae12a1b	-0.0017178686
207	0x3b97f9f2	0.00463795
208	0x3c23d70a	0.01
209	0xbc12e7cc	-0.0089663975
210	0x3c23d70a	0.01
211	0x3bcbdc7e	0.006221353
212	0xbc23d70a	-0.01
213	0x3c23d70a	0.01
214	0x3c23d70a	0.01
215	0xbbc142b7	-0.0058978456
216	0x3c23d70a	0.01
217	0xbb74ec3c	-0.0037372252
218	0x3c22f7d2	0.00994678
219	0xbc23d70a	-0.01
220	0xbc23d70a	-0.01
221	0xbabbc0a6	-0.0014324381
222	0x3c23d70a	0.01
223	0x3bad8ec6	0.005296561
224	0x3c230f6d	0.009952408
225	0xbb2bb285	-0.0026198935
226	0xbc23d70a	-0.01
227	0x3c23d70a	0.01
228	0x3c23d70a	0.01
229	0xbb538dd2	-0.0032280576
230	0xbab9ad14	-0.0014165961
231	0xbc23d70a	-0.01
232	0xbb9e3667	-0.0048282626
233	0xbc23d70a	-0.01
234	0xbc23d70a	-0.01
235	0x3b60a33c	0.0034276983
236	0xbbe1d33e	-0.006891637
237	0x3be908de	0.0071116528
238	0x3bea8693	0.007157156
239	0x3c23d70a	0.01
240	0xbba47434	-0.0050187353
241	0xbc23d70a	-0.01
242	0xbc23d70a	-0.01
243	0xbc23d70a	-0.01
244	0x3c09fd42	0.008422198
245	0x39a85109	0.00032103833
246	0x3c23d70a	0.01
247	0xbc221422	-0.009892495
248	0x3c23d70a	0.01
249	0x3c22f7cf	0.0099467775
250	0xbba49b54	-0.0050233994
251	0x3b6603e9	0.0035097545
252	0xbb5ce914	-0.0033708261
253	0xbc0c146a	-0.008549789
254	0x3c23d70a	0.01
255	0x3c23d70a	0.01

fc2.bias f4 [128]
0	0xbc23d70a	-0.01
1	0xbc23d70a	-0.01
2	0xbc23d70a	-0.01
3	0xbc23d70a	-0.01
4	0xbc23d70a	-0.01
5	0xbc23d70a	-0.01
6	0xbc23d70a	-0.01
7	0xbc23d70a	-0.01
8	0xbc23d268	-0.009998895
9	0xbc23d3ef	-0.009999259
10	0xbc23cb59	-0.009997212
11	0xbc23d70a	-0.01
12	0xbc1ea296	-0.009682318
13	0x3c1c2364	0.009529922
14	0xbc23d362	-0.009999128
15	0xbc22cf8d	-0.009937179
16	0xbc23d032	-0.009998368
17	0xbc23d70a	-0.01
18	0xbc23bf8a	-0.009994397
19	0x3a755458	0.00093585765
20	0xbc23d70a	-0.01
21	0xbc23cc27	-0.009997404
22	0xbc23d70a	-0.01
23	0xbc23d70a	-0.01
24	0xbc23d70a	-0.01
25	0xbc23d70a	-0.01
26	0xbc10da81	-0.008841158
27	0xbc23d70a	-0.01
28	0xbc23d70a	-0.01
29	0xbc23d70a	-0.01
30	0xbc23d607	-0.009999759
31	0x3c1b97c3	0.009496632
32	0xbc23950e	-0.009984268
33	0xbbca65d7	-0.006176691
34	0xbc23d594	-0.009999651
35	0xbc17eee3	-0.009273264
36	0x3c1ab97d	0.009443638
37	0xbc23d70a	-0.01
38	0xbc23d563	-0.009999606
39	0xbc23d70a	-0.01
40	0xbc23d70a	-0.01
41	0xbc23d70a	-0.01
42	0xbc23d70a	-0.01
43	0xbc23d661	-0.009999842
44	0xbc23d70a	-0.01
45	0xbc23d70a	-0.01
46	0xbc0eaa29	-0.0087075615
47	0xbc23d70a	-0.01
48	0xbc23d70a	-0.01
49	0xbc23d70a	-0.01
50	0xbc1bc6d7	-0.009507856
51	0xbc23d70a	-0.01
52	0x3c1812e4	0.009281848
53	0xbc23d70a	-0.01
54	0xbc23d06e	-0.009998424
55	0xbc23d70a	-0.01
56	0xbc23d70a	-0.01
57	0xbc23d70a	-0.01
58	0xbc23cb28	-0.009997167
59	0xbc23d70a	-0.01
60	0x3c158500	0.009125948
61	0xbc23d70a	-0.01
62	0xbc23d3fc	-0.0099992715
63	0xbc23d70a	-0.01
64	0x3c1b86e4	0.00949261
65	0xbc23d70a	-0.01
66	0xbc23d191	-0.009998695
67	0xbc1dd466	-0.009633159
68	0x3c1c8e30	0.0095553845
69	0xbc22e999	-0.009943389
70	0xbc23d70a	-0.01
71	0xbc23d70a	-0.01
72	0xbc23d70a	-0.01
73	0xbc238902	-0.009981396
74	0xbc23d70a	-0.01
75	0x3c1b6426	0.0094843265
76	0xbc23d1ab	-0.009998719
77	0xbc23d70a	-0.01
78	0xbc23d70a	-0.01
79	0xbc23d70a	-0.01
80	0xbc23d70a	-0.01
81	0x3c1dc17a	0.009628648
82	0xbc23d70a	-0.01
83	0xbc23d70a	-0.01
84	0xba9edb75	-0.0012119847
85	0xbc23d296	-0.009998938
86	0xbc23d70a	-0.01
87	0xbc23d70a	-0.01
88	0x3c1d6021	0.009605438
89	0x3c1ad443	0.009450021
90	0xbc23d70a	-0.01
91	0xbc23c82c	-0.009996455
92	0xbc23d70a	-0.01
93	0xbc23c059	-0.00999459
94	0xbc23d70a	-0.01
95	0x3c1aaca2	0.009440573
96	0xbc23d70a	-0.01
97	0x3c1b8b53	0.009493667
98	0xbc23d374	-0.009999145
99	0xbc23d150	-0.009998634
100	0xbc14ea70	-0.009089097
101	0xbc23d70a	-0.01
102	0xbb8881e0	-0.004165873
103	0xbc23d125	-0.009998594
104	0xbc23d4c6	-0.00999946
105	0xbc23d70a	-0.01
106	0xbc23d70a	-0.01
107	0x3c184c62	0.009295555
108	0xbc23cef5	-0.009998073
109	0x3c1b7157	0.009487472
110	0xbc23d70a	-0.01
111	0xbc23d70a	-0.01
112	0xbc23d70a	-0.01
113	0xbc23ce56	-0.009997925
114	0xbc23d70a	-0.01
115	0xbc23d70a	-0.01
116	0xbc23d70a	-0.01
117	0xbc23d70a	-0.01
118	0xbc23d70a	-0.01
119	0xbc23d222	-0.00999883
120	0xbc233933	-0.009962368
121	0xbc23cc95	-0.009997507
122	0xbc218457	-0.009858212
123	0xbc23d70a	-0.01
124	0x3c18340f	0.0092897555
125	0xbc23736d	-0.00997625
126	0xbc1734ad	-0.0092288675
127	0xbc1ecaff	-0.009691953

bn2.weight f4 [128]
0	0x3c23d70a	0.01
1	0x3c23d70a	0.01
2	0x3c23d70a	0.01
3	0x3c23d70a	0.01
4	0x3c23d70a	0.01
5	0x3c23d70a	0.01
6	0x3c23d70a	0.01
7	0x3c23d70a	0.01
8	0x3c23d70a	0.01
9	0x3c23d70a	0.01
10	0x3c23d70a	0.01
11	0x3c23d70a	0.01
12	0x3c23d70a	0.01
13	0x3c23d70a	0.01
14	0x3c23d70a	0.01
15	0x3c23d70a	0.01
16	0x3c23d70a	0.01
17	0x3c23d70a	0.01
18	0x3c23d70a	0.01
19	0x3c23d70a	0.01
20	0x3c23d70a	0.01
21	0x3c23d70a	0.01
22	0x3c23d70a	0.01
23	0x3c23d70a	0.01
24	0x3c23d70a	0.01
25	0x3c23d70a	0.01
26	0x3c23d70a	0.01
27	0x3c23d70a	0.01
28	0x3c23d70a	0.01
29	0x3c23d70a	0.01
30	0x3c23d70a	0.01
31	0x3c23d70a	0.01
32	0x3c23d70a	0.01
33	0x3c23d70a	0.01
34	0x3c23d70a	0.01
35	0x3c23d70a	0.01
36	0x3c23d70a	0.01
37	0x3c23d70a	0.01
38	0x3c23d70a	0.01
39	0x3c23d70a	0.01
40	0x3c23d70a	0.01
41	0x3c23d70a	0.01
42	0x3c23d70a	0.01
43	0x3c23d70a	0.01
44	0x3c23d70a	0.01
45	0x3c23d70a	0.01
46	0x3c23d70a	0.01
47	0x3c23d70a	0.01
48	0x3c23d70a	0.01
49	0x3c23d70a	0.01
50	0x3c23d70a	0.01
51	0x3c23d70a	0.01
52	0x3c23d70a	0.01
53	0x3c23d70a	0.01
54	0x3c23d70a	0.01
55	0x3c23d70a	0.01
56	0x3c23d70a	0.01
57	0x3c23d70a	0.01
58	0x3c23d70a	0.01
59	0x3c23d70a	0.01
60	0x3c23d70a	0.01
61	0x3c23d70a	0.01
62	0x3c23d70a	0.01
63	0x3c23d70a	0.01
64	0x3c23d70a	0.01
65	0x3c23d70a	0.01
66	0x3c23d70a	0.01
67	0x3c23d70a	0.01
68	0x3c23d70a	0.01
69	0x3c23d70a	0.01
70	0x3c23d70a	0.01
71	0x3c23d70a	0.01
72	0x3c23d70a	0.01
73	0x3be3e706	0.0069550304
74	0x3c23d70a	0.01
75	0x3c23d70a	0.01
76	0x3c23d70a	0.01
77	0x3c23d70a	0.01
78	0x3c23d70a	0.01
79	0x3c23d70a	0.01
80	0x3c23d70a	0.01
81	0x3c23d70a	0.01
82	0x3c23d70a	0.01
83	0x3c23d70a	0.01
84	0x3c23d70a	0.01
85	0x3c23d70a	0.01
86	0x3c23d70a	0.01
87	0x3c23d70a	0.01
88	0x3c23d70a	0.01
89	0x3c23d70a	0.01
90	0x3c23d70a	0.01
91	0x3c23d70a	0.01
92	0x3c23d70a	0.01
93	0x3c23d70a	0.01
94	0x3c23d70a	0.01
95	0x3c23d70a	0.01
96	0x3c23d70a	0.01
97	0x3c23d70a	0.01
98	0x3c23d70a	0.01
99	0x3c23d70a	0.01
100	0x3c23d70a	0.01
101	0x3c23d70a	0.01
102	0x3c23d70a	0.01
103	0x3c23d70a	0.01
104	0x3c23d70a	0.01
105	0x3c23d70a	0.01
106	0x3c23d70a	0.01
107	0x3c23d70a	0.01
108	0x3c23d70a	0.01
109	0x3c23d70a	0.01
110	0x3c23d70a	0.01
111	0x3c23d70a	0.01
112	0x3c23d70a	0.01
113	0x3c23d70a	0.01
114	0x3c23d70a	0.01
115	0x3c23d70a	0.01
116	0x3c23d70a	0.01
117	0x3c23d70a	0.01
118	0x3c23d70a	0.01
119	0x3c23d70a	0.01
120	0x3c23d70a	0.01
121	0x3c23d70a	0.01
122	0x3beb00fa	0.0071717473
123	0x3c23d70a	0.01
124	0x3c23d70a	0.01
125	0x3c23d70a	0.01
126	0x3c23d70a	0.01
127	0x3c23d70a	0.01

bn2.bias f4 [128]
0	0x39e6ad4e	0.0004399814
1	0x39e21436	0.00043121137
2	0xb832934d	-4.257569e-05
3	0x385c885a	5.2579075e-05
4	0x39ec96b6	0.00045125716
5	0x38482cd7	4.7725476e-05
6	0x39e5d3af	0.00043836
7	0x39d9a866	0.00041514932
8	0xb55c4080	-8.2050246e-07
9	0x39e13c39	0.00042960214
10	0xb8a9bb6f	-8.09346e-05
11	0x39eb8ba8	0.00044926745
12	0xb8f09046	-0.00011470965
13	0xb9de78c2	-0.0004243311
14	0xb8763b7e	-5.8706377e-05
15	0xb9dc08a4	-0.00041968108
16	0xb8b2eeb0	-8.5321604e-05
17	0x37d30b64	2.5158464e-05
18	0xb9e9da45	-0.00044603847
19	0xb9e308fa	-0.00043303502
20	0x389e49e4	7.54779e-05
21	0xb8b93b60	-8.832547e-05
22	0x38a06661	7.648464e-05
23	0x368778b8	4.037367e-06
24	0x379b5d20	1.8520805e-05
25	0x39e97919	0.00044531448
26	0xb8cc6eb5	-9.748099e-05
27	0x3891e948	6.957591e-05
28	0x386b1607	5.604888e-05
29	0xb848bb67	-4.7858248e-05
30	0xb9df72b5	-0.00042619338
31	0xb9e8e656	-0.00044422102
32	0xb9e1c14e	-0.00043059367
33	0xb9ed4113	-0.00045252647
34	0xb8738906	-5.8063328e-05
35	0xb849ebee	-4.814186e-05
36	0xb9e7f428	-0.00044241664
37	0x38b7d83c	8.766397e-05
38	0x39e9c170	0.00044585345
39	0x39e57c46	0.00043770875
40	0x38cf9b2c	9.899432e-05
41	0x38693ba3	5.560707e-05
42	0x386c9af6	5.6411103e-05
43	0x39e7eafa	0.00044234825
44	0x39e1b363	0.00043048998
45	0x39dfe544	0.0004270469
46	0xb8a9f506	-8.104187e-05
47	0x3874900a	5.830828e-05
48	0x385c4a08	5.2521034e-05
49	0x39e63e23	0.00043915314
50	0xb8dc828a	-0.00010514732
51	0xb9e6bb76	-0.00044008688
52	0xb9df5f71	-0.00042604984
53	0x385b4d30	5.2285555e-05
54	0xb9e62217	-0.00043894417
55	0x3838d635	4.4068514e-05
56	0x39e50cbb	0.0004368777
57	0x39e1f368	0.00043096696
58	0xb8ac8138	-8.225668e-05
59	0x37f32992	2.8987215e-05
60	0xb9df62ad	-0.00042607394
61	0x39e2b7d2	0.00043243036
62	0x39e6b076	0.00044000492
63	0x39e04e5a	0.00042782986
64	0xb9e297fe	-0.00043219322
65	0x38a936f9	8.0687874e-05
66	0xb898f074	-7.292713e-05
67	0xb8d7d3f3	-0.000102914775
68	0xb9e4eb5c	-0.00043662905
69	0xb9e7e729	-0.0004423198
70	0x3872798a	5.781049e-05
71	0x39e4af05	0.00043617949
72	0x39eafa01	0.00044818225
73	0x3b61d491	0.0034458975
74	0x386ac908	5.5977172e-05
75	0xb9e3773a	-0.00043385645
76	0xb810a181	-3.4482688e-05
77	0x3887d51c	6.476996e-05
78	0x38a0561e	7.645435e-05
79	0x39e3c6c5	0.0004344491
80	0x382a182e	4.0553678e-05
81	0xb9e8ee0a	-0.0004442784
82	0x38390a47	4.411701e-05
83	0x39e23cfd	0.0004315152
84	0x39b45f56	0.00034403306
85	0xb83c94a9	-4.4961143e-05
86	0x39e6d346	0.0004402643
87	0x38a947d3	8.071926e-05
88	0xb9e19774	-0.00043028186
89	0xb9ea1496	-0.00044647296
90	0x39e1dacc	0.0004307836
91	0xb8a86b7e	-8.030886e-05
92	0x39e76cca	0.00044140808
93	0xb9ed382e	-0.0004524602
94	0x38678e78	5.5207376e-05
95	0xb9e321e7	-0.00043322073
96	0x38844f4e	6.309022e-05
97	0xb9e497d8	-0.0004360068
98	0xb8626c28	-5.3983327e-05
99	0xb83b7304	-4.469139e-05
100	0xb871fb8d	-5.7693152e-05
101	0x39ebc482	0.00044969103
102	0xb82f2322	-4.175597e-05
103	0xb9e510c6	-0.0004369078
104	0x39e25742	0.0004317109
105	0x3824adfb	3.926268e-05
106	0x38b4e6d6	8.6260654e-05
107	0xb9e138d4	-0.00042957684
108	0xb82b2fc1	-4.081405e-05
109	0xb9e83859	-0.0004429247
110	0x39e8f600	0.00044433773
111	0x37e7af38	2.7618938e-05
112	0x39e85364	0.0004431262
113	0xb8574983	-5.1328458e-05
114	0x39ea6f37	0.0004471482
115	0x39e4e678	0.0004365926
116	0x39e7f0f2	0.00044239272
117	0x3880faaf	6.150209e-05
118	0x38afd83a	8.3849256e-05
119	0xb8aaaf22	-8.138853e-05
120	0xb9e97713	-0.0004452994
121	0xb8cd5bce	-9.792262e-05
122	0x3b720eba	0.0036935047
123	0x39e9cb11	0.0004459252
124	0xb9e8dffd	-0.00044417373
125	0xb9e53c93	-0.00043723415
126	0x359be180	1.1614029e-06
127	0xb62d3290	-2.580844e-06

bn2.running_mean f4 [128]
0	0xbc037343	-0.008023086
1	0xbc038f97	-0.00802984
2	0xbc249cef	-0.0100471815
3	0xbc230b89	-0.009951481
4	0xbc037971	-0.008024559
5	0xbc22ffe7	-0.009948707
6	0xbc037d6c	-0.008025508
7	0xbc03ca21	-0.008043797
8	0xbc24ccef	-0.010058626
9	0xbc03a819	-0.008035683
10	0xbc250eda	-0.010074342
11	0xbc038e5f	-0.008029549
12	0xbc1fbadb	-0.00974914
13	0x3bf79c28	0.007556457
14	0xbc2525c8	-0.0100798085
15	0xbc42ca55	-0.01188906
16	0xbc2526f6	-0.01008009
17	0xbc228ab4	-0.009920765
18	0xbc441e88	-0.01197017
19	0xba86f79c	-0.0010297182
20	0xbc22fdde	-0.009948222
21	0xbc24ad50	-0.010051087
22	0xbc22905c	-0.009922113
23	0xbc230dad	-0.009951991
24	0xbc233683	-0.009961727
25	0xbc0382ca	-0.008026788
26	0xbc11f04d	-0.00890739
27	0xbc22d4dc	-0.009938445
28	0xbc22f42e	-0.009945912
29	0xbc2486a0	-0.010041863
30	0xbc43f915	-0.011961241
31	0x3bf637a0	0.0075139552
32	0xbc43dd7b	-0.0119546605
33	0xbc057c4f	-0.008147313
34	0xbc24ce55	-0.010058959
35	0xbc186a3b	-0.009302671
36	0x3bf500e7	0.007476914
37	0xbc22aa49	-0.009928294
38	0xbc038491	-0.008027212
39	0xbc03796b	-0.008024554
40	0xbc232525	-0.009957586
41	0xbc22e21f	-0.009941607
42	0xbc2315b9	-0.00995391
43	0xbc037579	-0.008023613
44	0xbc039d94	-0.008033175
45	0xbc0399db	-0.0080322875
46	0xbc0f3e66	-0.008742904
47	0xbc2290be	-0.009922205
48	0xbc231de6	-0.009955859
49	0xbc038012	-0.00802614
50	0xbc1d0b5d	-0.009585229
51	0xbc4421b9	-0.011970931
52	0x3bf00630	0.0073249564
53	0xbc2293b5	-0.009922911
54	0xbc440407	-0.011963851
55	0xbc227fad	-0.009918136
56	0xbc039ec9	-0.008033463
57	0xbc039289	-0.008030542
58	0xbc246132	-0.010032939
59	0xbc22fccb	-0.009947966
60	0x3bea9220	0.0071585327
61	0xbc039829	-0.008031883
62	0xbc03961b	-0.008031393
63	0xbc039031	-0.008029983
64	0x3bf6d7a5	0.007533031
65	0xbc22f30b	-0.009945641
66	0xbc24f882	-0.0100690145
67	0xbc1ebdd7	-0.009688816
68	0x3bf85a04	0.00757909
69	0xbc4332c3	-0.011913958
70	0xbc23163a	-0.00995403
71	0xbc038678	-0.008027665
72	0xbc037dc2	-0.0080255885
73	0xbc2727ec	-0.010202389
74	0xbc23121c	-0.009953048
75	0x3bf651c8	0.0075170733
76	0xbc24b46e	-0.010052783
77	0xbc23143c	-0.009953555
78	0xbc232a86	-0.009958869
79	0xbc03a32c	-0.008034509
80	0xbc22aeec	-0.0099294
81	0x3bfad586	0.0076548485
82	0xbc231ce4	-0.0099556185
83	0xbc03b827	-0.008039511
84	0x3a31080e	0.00067532144
85	0xbc248346	-0.010041064
86	0xbc036f9f	-0.008022218
87	0xbc232017	-0.009956381
88	0x3bfa47f7	0.0076379734
89	0x3bf55686	0.007487121
90	0xbc03a580	-0.008035064
91	0xbc244ea0	-0.010028511
92	0xbc0367a0	-0.008020312
93	0xbc44191b	-0.011968876
94	0xbc22e67d	-0.009942648
95	0x3bf4f347	0.00747529
96	0xbc229b18	-0.009924673
97	0x3bf67e55	0.007522384
98	0xbc25495f	-0.010088294
99	0xbc24a736	-0.010049632
100	0xbc162834	-0.009164859
101	0xbc037e86	-0.008025771
102	0xbb8888d2	-0.004166701
103	0xbc4407d8	-0.011964761
104	0xbc03b158	-0.0080378875
105	0xbc2356a6	-0.009969389
106	0xbc22c3d7	-0.009934387
107	0x3bf02461	0.0073285555
108	0xbc246203	-0.010033133
109	0x3bf64b6d	0.0075163157
110	0xbc0375d9	-0.008023703
111	0xbc22b01b	-0.009929682
112	0xbc037911	-0.00802447
113	0xbc24ad2e	-0.010051055
114	0xbc03793d	-0.008024511
115	0xbc0391eb	-0.008030395
116	0xbc037c16	-0.00802519
117	0xbc22a7c6	-0.009927696
118	0xbc23565e	-0.009969322
119	0xbc24f46e	-0.010068042
120	0xbc4388db	-0.011934484
121	0xbc249b36	-0.010046771
122	0xbc20f9fa	-0.009825224
123	0xbc036fd9	-0.008022272
124	0x3befd789	0.007319395
125	0xbc43c310	-0.011948362
126	0xbc17c7e4	-0.009263966
127	0xbc1f87b8	-0.009736948

bn2.running_var f4 [128]
0	0x36a6a0bd	4.965898e-06
1	0x36a68987	4.963196e-06
2	0x37136ff8	8.7879525e-06
3	0x3712d653	8.752179e-06
4	0x36a662f7	4.9587065e-06
5	0x37131457	8.7666185e-06
6	0x36a696db	4.9647474e-06
7	0x36a63361	4.953167e-06
8	0x3713aaf0	8.801682e-06
9	0x36a63367	4.9531695e-06
10	0x371328cc	8.7713815e-06
11	0x36a645f5	4.9553296e-06
12	0x37134266	8.777342e-06
13	0x36a6a27e	4.966102e-06
14	0x37134b20	8.779374e-06
15	0x36a5fc42	4.94675e-06
16	0x371350e7	8.780719e-06
17	0x37137b8d	8.790649e-06
18	0x36a6c97c	4.9706414e-06
19	0x36a65050	4.956535e-06
20	0x37132b75	8.772001e-06
21	0x37131b3b	8.768223e-06
22	0x3713100b	8.765618e-06
23	0x3713aef1	8.8026145e-06
24	0x3713cb74	8.809253e-06
25	0x36a66e01	4.9599917e-06
26	0x3712aee9	8.743003e-06
27	0x37131b6d	8.768268e-06
28	0x37130935	8.7640265e-06
29	0x3712f258	8.758703e-06
30	0x36a60d18	4.94871e-06
31	0x36a6ec5d	4.974702e-06
32	0x36a64fbc	4.956468e-06
33	0x36a6041a	4.947663e-06
34	0x3712cdc2	8.750185e-06
35	0x37135ce3	8.78351e-06
36	0x36a6654a	4.958977e-06
37	0x3713592f	8.7826475e-06
38	0x36a65277	4.9567857e-06
39	0x36a69565	4.9645773e-06
40	0x37130365	8.762673e-06
41	0x37136fe4	8.787934e-06
42	0x371358f2	8.782592e-06
43	0x36a6a380	4.9662194e-06
44	0x36a65266	4.956778e-06
45	0x36a644f8	4.9552145e-06
46	0x37131e07	8.768874e-06
47	0x371347dd	8.778615e-06
48	0x37136e69	8.78759e-06
49	0x36a6a393	4.966228e-06
50	0x37136bbf	8.786969e-06
51	0x36a6781a	4.961167e-06
52	0x36a5e86f	4.944442e-06
53	0x3712f95f	8.760339e-06
54	0x36a68ed0	4.963811e-06
55	0x3712f598	8.75946e-06
56	0x36a623c1	4.951348e-06
57	0x36a646ce	4.9554283e-06
58	0x37131356	8.766385e-06
59	0x37130681	8.763397e-06
60	0x36a67b2c	4.9615246e-06
61	0x36a64138	4.954778e-06
62	0x36a69a43	4.965144e-06
63	0x36a68963	4.9631794e-06
64	0x36a6629a	4.9586642e-06
65	0x37131aaa	8.768091e-06
66	0x371319f1	8.767923e-06
67	0x3712ee06	8.757697e-06
68	0x36a6e1df	4.9734804e-06
69	0x36a60fd6	4.949029e-06
70	0x3713a802	8.801e-06
71	0x36a68d49	4.9636333e-06
72	0x36a69f6c	4.9657447e-06
73	0x343d6f63	1.7642519e-07
74	0x37137774	8.789695e-06
75	0x36a6607a	4.958417e-06
76	0x3712fd21	8.761214e-06
77	0x37131fc1	8.769276e-06
78	0x3712f590	8.759453e-06
79	0x36a67793	4.961106e-06
80	0x371363cd	8.7851195e-06
81	0x36a68323	4.962452e-06
82	0x37133a5b	8.77547e-06
83	0x36a6423f	4.9548976e-06
84	0x36a140ee	4.8057327e-06
85	0x371384d1	8.7928065e-06
86	0x36a6c7f1	4.9704618e-06
87	0x3712e3fe	8.755362e-06
88	0x36a62259	4.951184e-06
89	0x36a68061	4.962131e-06
90	0x36a65649	4.9572304e-06
91	0x371319ac	8.76786e-06
92	0x36a6baa0	4.9689115e-06
93	0x36a646df	4.955436e-06
94	0x3712f3b2	8.759018e-06
95	0x36a6a1d6	4.9660257e-06
96	0x37133328	8.7737935e-06
97	0x36a671ab	4.960418e-06
98	0x37135725	8.782173e-06
99	0x37139436	8.796391e-06
100	0x37132a45	8.771724e-06
101	0x36a670f5	4.9603354e-06
102	0x3713e111	8.814285e-06
103	0x36a664fb	4.958941e-06
104	0x36a65810	4.9574373e-06
105	0x37133906	8.77516e-06
106	0x37137023	8.787992e-06
107	0x36a67ec2	4.961942e-06
108	0x37137304	8.788662e-06
109	0x36a688b4	4.9631e-06
110	0x36a66c20	4.959773e-06
111	0x37134a40	8.7791705e-06
112	0x36a6514b	4.9566493e-06
113	0x37135022	8.78054e-06
114	0x36a676fe	4.961038e-06
115	0x36a650d3	4.9565947e-06
116	0x36a6675b	4.9592177e-06
117	0x37131734	8.767285e-06
118	0x37130711	8.763528e-06
119	0x37133377	8.773865e-06
120	0x36a67cc6	4.961711e-06
121	0x37134b18	8.779367e-06
122	0x34a41ba2	3.0567486e-07
123	0x36a68abd	4.963337e-06
124	0x36a64688	4.9553964e-06
125	0x36a67bb9	4.9615887e-06
126	0x37137510	8.7891385e-06
127	0x371349b6	8.779045e-06

fc3.weight f4 [1, 128]
0	0xbc23d70a	-0.01
1	0xbc23d70a	-0.01
2	0x3c23d70a	0.01
3	0x3c23d70a	0.01
4	0xbc23d70a	-0.01
5	0x3c23d70a	0.01
6	0xbc23d70a	-0.01
7	0xbc23d70a	-0.01
8	0x3c23d70a	0.01
9	0xbc23d70a	-0.01
10	0x3c23d70a	0.01
11	0xbc23d70a	-0.01
12	0x3c23d70a	0.01
13	0xbc23d70a	-0.01
14	0x3c23d70a	0.01
15	0xbc23d70a	-0.01
16	0x3c23d70a	0.01
17	0x3c23d70a	0.01
18	0xbc23d70a	-0.01
19	0xbc23d70a	-0.01
20	0x3c23d70a	0.01
21	0x3c23d70a	0.01
22	0x3c23d70a	0.01
23	0x3c23d70a	0.01
24	0x3c23d70a	0.01
25	0xbc23d70a	-0.01
26	0x3c23d70a	0.01
27	0x3c23d70a	0.01
28	0x3c23d70a	0.01
29	0x3c23d70a	0.01
30	0xbc23d70a	-0.01
31	0xbc23d70a	-0.01
32	0xbc23d70a	-0.01
33	0xbc23d70a	-0.01
34	0x3c23d70a	0.01
35	0x3c23d70a	0.01
36	0xbc23d70a	-0.01
37	0x3c23d70a	0.01
38	0xbc23d70a	-0.01
39	0xbc23d70a	-0.01
40	0x3c23d70a	0.01
41	0x3c23d70a	0.01
42	0x3c23d70a	0.01
43	0xbc23d70a	-0.01
44	0xbc23d70a	-0.01
45	0xbc23d70a	-0.01
46	0x3c23d70a	0.01
47	0x3c23d70a	0.01
48	0x3c23d70a	0.01
49	0xbc23d70a	-0.01
50	0x3c23d70a	0.01
51	0xbc23d70a	-0.01
52	0xbc23d70a	-0.01
53	0x3c23d70a	0.01
54	0xbc23d70a	-0.01
55	0x3c23d70a	0.01
56	0xbc23d70a	-0.01
57	0xbc23d70a	-0.01
58	0x3c23d70a	0.01
59	0x3c23d70a	0.01
60	0xbc23d70a	-0.01
61	0xbc23d70a	-0.01
62	0xbc23d70a	-0.01
63	0xbc23d70a	-0.01
64	0xbc23d70a	-0.01
65	0x3c23d70a	0.01
66	0x3c23d70a	0.01
67	0x3c23d70a	0.01
68	0xbc23d70a	-0.01
69	0xbc23d70a	-0.01
70	0x3c23d70a	0.01
71	0xbc23d70a	-0.01
72	0xbc23d70a	-0.01
73	0x3c0bb23b	0.00852638
74	0x3c23d70a	0.01
75	0xbc23d70a	-0.01
76	0x3c23d70a	0.01
77	0x3c23d70a	0.01
78	0x3c23d70a	0.01
79	0xbc23d70a	-0.01
80	0x3c23d70a	0.01
81	0xbc23d70a	-0.01
82	0x3c23d70a	0.01
83	0xbc23d70a	-0.01
84	0xbc23d70a	-0.01
85	0x3c23d70a	0.01
86	0xbc23d70a	-0.01
87	0x3c23d70a	0.01
88	0xbc23d70a	-0.01
89	0xbc23d70a	-0.01
90	0xbc23d70a	-0.01
91	0x3c23d70a	0.01
92	0xbc23d70a	-0.01
93	0xbc23d70a	-0.01
94	0x3c23d70a	0.01
95	0xbc23d70a	-0.01
96	0x3c23d70a	0.01
97	0xbc23d70a	-0.01
98	0x3c23d70a	0.01
99	0x3c23d70a	0.01
100	0x3c23d70a	0.01
101	0xbc23d70a	-0.01
102	0x3c23d70a	0.01
103	0xbc23d70a	-0.01
104	0xbc23d70a	-0.01
105	0x3c23d70a	0.01
106	0x3c23d70a	0.01
107	0xbc23d70a	-0.01
108	0x3c23d70a	0.01
109	0xbc23d70a	-0.01
110	0xbc23d70a	-0.01
111	0x3c23d70a	0.01
112	0xbc23d70a	-0.01
113	0x3c23d70a	0.01
114	0xbc23d70a	-0.01
115	0xbc23d70a	-0.01
116	0xbc23d70a	-0.01
117	0x3c23d70a	0.01
118	0x3c23d70a	0.01
119	0x3c23d70a	0.01
120	0xbc23d70a	-0.01
121	0x3c23d70a	0.01
122	0x3c070174	0.008240093
123	0xbc23d70a	-0.01
124	0xbc23d70a	-0.01
125	0xbc23d70a	-0.01
126	0x3c23d70a	0.01
127	0x3c23d70a	0.01
