10_Models/Results_Anaheim/WGANBR_Freeflow_generator_best.pth (torch, 198462 bytes, 20 tensors)

fc1.weight f4 [128, 51]
0.08783854 0.026253346 0.11513513 -0.07281856 -0.057239242 0.017716628 0.037329644 -0.077311575
-0.0071615074 -0.06330528 0.10265473 0.11540623 -0.08320832 -0.041726805 -0.10678683 0.07207674
0.035565473 -0.11559708 0.006814496 0.03681353 0.10351692 -0.08465661 -0.013975653 -0.02532813
-0.08539443 -0.06437019 0.020561237 -0.08485596 -0.050383445 -0.004285763 -0.046422854 0.12712984
0.06348967 0.08953116 0.06044079 0.13528907 -0.12856752 -0.068442576 0.1311252 0.031465165
0.074023165 -0.085823745 0.009538014 -0.11160571 0.11022852 0.0902137 0.13790485 0.11411365
0.0301046 0.08244922 -0.023111444 -0.02802327 -0.11602976 -0.0018875626 0.0080209365 0.084155925
-0.037024293 0.027807329 0.069525026 -0.07226131 -0.047930244 0.13273703 0.023435086 0.1273926
0.027074737 -0.08427457 -0.12054509 0.04403308 -0.061127122 0.07357332 -0.121764526 -0.06515111
-0.022844475 -0.041988224 0.08931625 -0.12195535 -0.08006568 -0.119283974 -0.06012532 -0.032334354
-0.02763417 -0.07530143 0.13815089 0.12399442 -0.036488056 -0.09370775 0.09347272 0.05063543
0.10640926 -0.025122967 -0.05601341 -0.13672565 -0.06242346 -0.027894976 -0.004674686 0.041503225
-0.073812135 -0.13128276 0.13502319 0.031746 0.1019904 0.13100623 0.04477151 0.11554628
0.032994222 -0.062481385 0.107146 0.03742636 -0.06535119 -0.12844384 0.041931298 -0.036600936
-0.055919956 -0.09576629 -0.030052228 -0.05670902 -0.07285513 -0.004224052 0.038256988 0.11204659
0.12100164 0.046659708 0.13548824 0.06935107 0.12793218 0.074293524 -0.05696202 -0.021932466
-0.025281519 0.014659299 -0.0550414 0.11021291 -0.03760715 -0.13249882 0.031158801 -0.08349077
0.10130285 0.10846851 -0.09105133 0.09339017 -0.026753709 0.10957554 0.09381449 0.09325436
-0.011143859 -0.122972034 -0.063271485 0.0099047385 -0.13466465 0.114150845 0.08015303 -0.028348632
0.1316992 -0.2565925 -0.27234793 -0.26474726 0.061736103 0.04037925 0.049421716 -0.12994908
-0.048679687 -0.026525857 0.019664833 0.01570578 0.063131995 -0.11771868 0.11187064 -0.076656066
-0.11799881 0.081565596 -0.10110645 0.103301495 -0.12630688 -0.103852704 0.13745633 -0.102299035
0.06861912 0.06822121 -0.088746905 -0.113060534 -0.06529505 -0.0025772944 0.13535227 0.068023026
-0.09570135 0.028910926 0.092466585 0.045635708 -0.073500656 -0.120921016 0.1165638 0.034887552
0.035190765 -0.10697308 -0.09957373 0.08994367 0.012663401 0.047147617 -0.053946268 -0.088321924
-0.0647396 0.045936048 -0.10789381 -0.03779132 0.038395643 0.006332214 0.015822532 0.029267704
-0.11959636 -0.076291196 -0.02794947 0.071409754 -0.07792444 0.11031734 -0.054878745 0.13099283
-0.022570338 -0.041374054 -0.037801463 0.12410559 0.059409637 0.096880764 0.12062037 0.05259416
-0.060781613 0.06801775 0.010628556 0.08370961 -0.13341048 0.040954463 -0.09964384 0.11288211
0.121157095 -0.0031221053 -0.031271648 0.013881227 0.032418758 -0.07068346 0.10505017 -8.257045e-05
-0.053484417 -0.033760432 -0.061983906 -0.003068761 0.07022239 0.085271895 -0.08042641 0.037987098
0.019279703 -0.036985956 0.038560588 0.04509001 -0.047537416 0.0287684 -0.03941621 0.051392946
00000000: b1e4 b33d 4211 d73c f8cb eb3d e621 95bd
00000010: b273 6abd 7622 913c f8e6 183d 8855 9ebd
00000020: 14ab eabb 33a6 81bd a53c d23d 1a5a ec3d
00000030: 2069 aabd bae9 2abd 0eb3 dabd f89c 933d
00000040: 1aad 113d 29be ecbd 234c df3b c9c9 163d
00000050: ae00 d43d 7260 adbd 23fa 64bc f07c cfbc
00000060: 46e3 aebd 85d4 83bd 0a70 a83c f6c8 adbd
00000070: df5e 4ebd 966f 8cbb e425 3ebd 532e 023e
00000080: df06 823d 1d5c b73d c390 773d 3889 0a3e
00000090: 34a7 03be 9f2b 8cbd af45 063e 9ee1 003d
000000a0: 7599 973d 5cc4 afbd 5545 1c3c 8991 e4bd
000000b0: 7ebf e13d f6c1 b83d ee36 0d3e 6bb4 e93d
000000c0: ec9d f63c 23db a83d 3654 bdbc 0f91 e5bc
000000d0: 03a1 edbd 1768 f7ba 3f6a 033c f159 ac3d
000000e0: c9a6 17bd 32cc e33c 2363 8e3d bdfd 93bd
000000f0: 8152 44bd 37ec 073e f0fa bf3c 3573 023e
00000100: d7cb dd3c 2598 acbd 58e0 f6bd 085c 343d
00000110: 6f60 7abd 9cad 963d ae5f f9bd f26d 85bd
00000120: 5624 bbbc d8fb 2bbd 70eb b63d bac3 f9bd
00000130: 7af9 a3bd 284b f4bd f845 76bd 0771 04bd
00000140: 0e61 e2bc a337 9abd 6d77 0d3e c9f0 fd3d
00000150: 8074 15bd d9e9 bfbd a06e bf3d 1967 4f3d
00000160: 19ed d93d aece cdbc 516e 65bd cf01 0cbe
00000170: beaf 7fbd 0184 e4bc 1c2e 99bb 49ff 293d
00000180: d12a 97bd fd6e 06be 8543 0a3e 1808 023d
00000190: 58e0 d03d 7f26 063e 5562 373d 87a3 ec3d
000001a0: f324 073d 7bec 7fbd 5d6f db3d 624c 193d
000001b0: d8d6 85bd c886 03be 27c0 2b3d ddea 15bd
000001c0: 530c 65bd 1e21 c4bd 1730 f6bc b847 68bd
000001d0: 1235 95bd eb69 8abb 5cb3 1c3d af78 e53d
000001e0: b5cf f73d 401e 3f3d 6ebd 0a3e ef07 8e3d
000001f0: a700 033e 3427 983d 0251 69bd b7ab b3bc
00000200: 301b cfbc 8e2d 703c 1773 61bd 4eb7 e13d
00000210: f409 1abd c5ad 07be be40 ff3c 35fd aabd
00000220: de77 cf3d bd24 de3d 1f79 babd 5843 bf3d
00000230: 982a dbbc 2469 e03d d021 c03d 24fc be3d
00000240: bb94 36bc c3d8 fbbd 7b94 81bd 7c47 223c
00000250: 88e5 09be ebc7 e93d 4627 a43d 643b e8bc
00000260: 28dc 063e 1860 83be 3071 8bbe f48c 87be
00000270: ffde 7c3d b664 253d 6d6e 4a3d 5f11 05be
00000280: 5a64 47bd c14c d9bc 2518 a13c 68a9 803c
00000290: 594b 813d 7e16 f1bd 6f1c e53d dbfd 9cbd
000002a0: 5ca9 f1bd dd0b a73d e610 cfbd bc8f d33d
000002b0: 9756 01be bab0 d4bd 5ac1 0c3e 2882 d1bd
000002c0: 2e88 8c3d 90b7 8b3d f0c0 b5bd 488c e7bd
000002d0: 69b9 85bd d3e7 28bb c999 0a3e a84f 8b3d
000002e0: 12ff c3bd 9bd6 ec3c 1f5f bd3d 82ec 3a3d
000002f0: 8387 96bd 70a5 f7bd 00b9 ee3d 40e6 0e3d
00000300: 3124 103d b414 dbbd 50ed cbbd 6334 b83d
00000310: 277a 4f3c dc1d 413d c3f6 5cbd 20e2 b4bd
00000320: 3296 84bd 7027 3c3d 6ef7 dcbd 12cb 1abd
00000330: c044 1d3d 767e cf3b 419e 813c d3c2 ef3c
00000340: f0ee f4bd 8f3e 9cbd 49f6 e4bc 473f 923d
00000350: d996 9fbd 0fee e13d 89c8 60bd fc22 063e
00000360: 6ee5 b8bc d777 29bd b5d5 1abd 122b fe3d
00000370: 8557 733d 6c69 c63d d007 f73d f96c 573d
00000380: 24f6 78bd e44c 8b3d 6523 2e3c f26f ab3d
00000390: c29c 08be debf 273d 1212 ccbd bc2e e73d
000003a0: 3621 f83d 3c9c 4cbb b316 00bd 166e 633c
000003b0: 88c9 043d 7dc2 90bd 8b24 d73d ac29 adb8
000003c0: 7a12 5bbd 6148 0abd d6e2 7dbd 441d 49bb
000003d0: c2d0 8f3d 08a3 ae3d 9ab6 a4bd 5c98 1b3d
000003e0: 78f0 9d3c 967e 17bd b5f1 1d3d 4db0 383d
000003f0: 98b6 42bd b5ab eb3c e472 21bd 6981 523d

fc1.bias f4 [128]
0.048660245 0.08132377 -0.09107752 -0.123045206 0.07920003 -0.03288968 0.0032809332 0.02265093
-0.09012126 0.025507335 0.008960304 -0.005651994 -0.047673203 -0.013578549 -0.11856552 -0.13507324
-0.0960202 0.03788931 0.1047326 -0.00998053 -0.12099506 -0.1392883 -0.11750022 0.12347343
-0.01985558 0.08648207 0.12755428 0.107803635 0.022998674 -0.124440394 -0.10830885 0.10870161
-0.09579919 -0.01887156 0.12110816 -0.055529967 0.070602864 0.057246108 -0.047713894 0.11261364
0.11204266 0.12580313 -0.1351422 0.1197097 -0.06114878 0.09102462 -0.031950004 0.0287841
-0.0033833538 0.10248366 0.10615803 0.101910055 -0.018818043 -0.06424748 0.13765255 0.11340401
0.033270143 0.037934247 0.00012136407 -0.075031355 -0.07009823 -0.047392044 0.014406714 -0.073795214
-0.0573281 -0.13322467 0.0002004106 -0.1285796 -0.031090615 -0.12484994 -0.07528869 -0.13619103
0.10944101 -0.03580538 0.0693815 -0.03367141 -0.05274589 -0.07154144 -0.0044901255 -0.0012983748
-0.13273655 -0.0027232624 -0.11069701 0.11738876 0.09444262 -0.08422504 0.07393475 0.007506332
-0.1066296 -0.09531596 -0.046346117 0.0565751 -0.092508264 0.017845288 0.08167199 -0.016001482
-0.0100302305 0.11174236 -0.051537354 0.08618664 0.0010299868 0.13170369 -0.025532003 -0.10280581
0.011063383 -0.050579935 -0.026921185 0.113260664 -0.065123186 0.08601505 -0.040173613 0.029811151
-0.09261085 -0.0784064 -0.017771674 -0.010971413 -0.08392937 -0.08056362 -0.08251369 -0.059472717
0.10105267 0.03142027 -0.12520368 -0.036445167 0.020421147 -0.06105531 -0.020093482 0.035033092
00000000: f74f 473d 148d a63d da86 babd 20ff fbbd
00000010: a033 a23d 54b7 06bd ed04 573b 718e b93c
00000020: 7f91 b8bd c2f4 d03c 3dce 123c 5d34 b9bb
00000030: fa44 43bd 9078 5ebc 7bd2 f2bd a450 0abe
00000040: 3da6 c4bd d231 1b3d 0c7e d63d 6085 23bc
00000050: 42cc f7bd 98a1 0ebe f5a3 f0bd a3df fc3d
00000060: 2ba8 a2bc 831d b13d 979d 023e 27c8 dc3d
00000070: b767 bc3c 9bda febd 08d1 ddbd f39e de3d
00000080: 5e32 c4bd 8898 9abc 8e07 f83d 6473 63bd
00000090: 3c98 903d e57a 6a3d a56f 43bd fba1 e63d
000000a0: 9f76 e53d 89d2 003e b862 0abe 5c2a f53d
000000b0: 2577 7abd 1e6b ba3d 02de 02bd a2cc eb3c
000000c0: 42bb 5dbb f4e2 d13d 6269 d93d 38b6 d03d
000000d0: 4c28 9abc 2f94 83bd caf4 0c3e 5d40 e83d
000000e0: 4646 083d f160 1b3d d784 fe38 0aaa 99bd
000000f0: a98f 8fbd 291e 42bd 230a 6c3c f221 97bd
00000100: dfd0 6abd 0c6c 08be 5025 5239 5faa 03be
00000110: bfb1 febc 53b1 ffbd f530 9abd a975 0bbe
00000120: 9c22 e03d aaa8 12bd e317 8e3d 08eb 09bd
00000130: 130c 58bd 5284 92bd e721 93bb 3b2e aaba
00000140: 17ec 07be c378 32bb 1db5 e2bd 8569 f03d
00000150: 226b c13d 2e7e acbd 1a6b 973d adf7 f53b
00000160: 9f60 dabd 0435 c3bd 6dd5 3dbd 4bbb 673d
00000170: f974 bdbd 4830 923c a543 a73d 8a15 83bc
00000180: d655 24bc 2ed9 e43d d518 53bd 9f82 b03d
00000190: 9f00 873a 55dd 063e 7e28 d1bc da8b d2bd
000001a0: 3143 353c e82c 4fbd d189 dcbc 35f5 e73d
000001b0: 4e5f 85bd a928 b03d 168d 24bd 8436 f43c
000001c0: c2aa bdbd 8993 a0bd e795 91bc 71c1 33bc
000001d0: 29e3 abbd 8afe a4bd f0fc a8bd aa99 73bd
000001e0: b4f4 ce3d 8bb2 003d 6535 00be 8747 15bd
000001f0: 404a a73c 2215 7abd 169b a4bc dc7e 0f3d

bn1.weight f4 [128]
1.0066952 1.0080395 0.99059814 1.0151123 0.9903956 0.9955225 1.0039246 1.013369
1.0006208 1.00375 0.99511975 1.0067863 0.98615247 1.0115939 1.0055724 1.0092263
1.0034454 0.99433297 1.0019048 0.9962428 1.0036981 1.0053748 0.9880208 1.0185347
0.9995664 0.9998442 1.0144086 1.0098046 0.99378127 1.0049034 1.0046443 1.0086688
0.9957765 0.99653906 1.0018115 1.0004476 1.0129337 0.9966662 0.99999267 0.98989207
0.9921329 1.0077446 0.9958303 0.9933394 0.9845307 0.98859364 0.99462813 0.9916437
0.9987582 0.9991152 0.9963406 1.0004463 1.008484 1.0079643 1.001584 0.99426526
0.99210805 0.99597436 1.0086024 0.998374 0.98556596 0.9939321 1.0080335 1.0000342
1.0026258 1.001117 0.996836 0.9896484 1.0005991 1.0120529 1.0122911 1.0141661
1.0087314 0.99140143 1.0170428 1.0002227 1.0096574 1.0011721 0.9979304 0.99605185
0.9925802 0.98707557 0.99114245 1.0228548 0.99871916 0.99955595 0.9988038 1.0102115
0.99436176 0.99400485 1.0011942 1.0077727 0.99962825 0.99478674 0.9983502 1.003656
1.0128367 1.0105413 1.0042497 1.0262434 0.98959595 1.0060965 1.0018846 1.0053228
1.0028516 0.99942255 0.9927675 1.0055386 0.99763256 1.0114672 0.9861898 0.99714994
1.0044497 0.9997708 0.9949572 1.0163872 1.0144492 1.0096612 1.0120149 0.99469966
0.98894215 0.98828965 1.0042918 1.0000418 1.0025728 1.0002983 0.9930152 0.9999134
00000000: 63db 803f 7007 813f d797 7d3f 33ef 813f
00000010: 918a 7d3f 90da 7e3f 9a80 803f 13b6 813f
00000020: 5814 803f e17a 803f 2bc0 7e3f 60de 803f
00000030: 7d74 7c3f e97b 813f 99b6 803f 542e 813f
00000040: e670 803f 9b8c 7e3f 6b3e 803f c509 7f3f
00000050: 2e79 803f 1fb0 803f eeee 7c3f 585f 823f
00000060: 95e3 7f3f caf5 7f3f 24d8 813f 4741 813f
00000070: 7368 7e3f ada0 803f 2f98 803f 0f1c 813f
00000080: 35eb 7e3f 2f1d 7f3f 5c3b 803f ab0e 803f
00000090: d0a7 813f 8425 7f3f 85ff 7f3f 9169 7d3f
000000a0: 6cfc 7d3f c6fd 803f bcee 7e3f 7e4b 7e3f
000000b0: 340a 7c3f 7914 7d3f f39f 7e3f 5ddc 7d3f
000000c0: 9eae 7f3f 04c6 7f3f 2d10 7f3f a00e 803f
000000d0: 0116 813f f904 813f e833 803f 2b88 7e3f
000000e0: cbfa 7d3f 2df8 7e3f e219 813f 7095 7f3f
000000f0: 0d4e 7c3f 5672 7e3f 3e07 813f 1f01 803f
00000100: 0b56 803f 9a24 803f a530 7f3f 9959 7d3f
00000110: a213 803f f38a 813f c192 813f 32d0 813f
00000120: 1c1e 813f 7ccc 7d3f 752e 823f 4c07 803f
00000130: 743c 813f 6826 803f 5e78 7f3f 41fd 7e3f
00000140: bc19 7e3f fcb0 7c3f 83bb 7d3f e8ec 823f
00000150: 0fac 7f3f e6e2 7f3f 9bb1 7f3f 9c4e 813f
00000160: 7e8e 7e3f 1a77 7e3f 2227 803f b2fe 803f
00000170: a3e7 7f3f 58aa 7e3f e193 7f3f cd77 803f
00000180: a2a4 813f 6b59 813f 418b 803f f25b 833f
00000190: 2956 7d3f c5c7 803f c13d 803f 6bae 803f
000001a0: 715d 803f 28da 7f3f 0326 7e3f 7db5 803f
000001b0: d964 7f3f c277 813f ef76 7c3f 3845 7f3f
000001c0: cf91 803f fbf0 7f3f 84b5 7e3f fa18 823f
000001d0: 79d9 813f 943c 813f b489 813f a3a4 7e3f
000001e0: 502b 7d3f 8d00 7d3f a28c 803f 5f01 803f
000001f0: 4e54 803f c609 803f 3f36 7e3f 53fa 7f3f

bn1.bias f4 [128]
0.01144869 0.0013780586 -0.0016481502 0.014147868 -0.0057349526 0.0053926264 0.005104299 0.021247607
-0.0012232927 -0.0036380398 0.0012074646 0.019856364 -0.008564321 0.010631665 0.001243294 0.0052011143
-0.010946995 -0.0038360022 0.00083803094 -0.0041709105 0.0031130807 0.0056813043 -0.014950152 0.020689268
0.0012037832 0.0032592288 0.0125114005 0.013070008 -0.010271935 0.010347891 0.0008525782 0.01146626
0.0065829284 -0.0010404998 0.008588989 -0.0022452532 0.014178586 0.0033171398 3.9740193e-05 -0.001847926
-0.0042134393 0.00810498 -0.0052609644 -0.0016764564 -0.017799992 -0.008819425 -0.00794197 0.0071672425
-0.004687284 -0.0038340972 0.0006383835 0.012218532 0.007950178 0.016259955 0.002491065 -0.0018405393
-0.0076167043 0.0011138986 0.002021775 0.006056329 -0.0032286032 -0.0047062165 -0.00085937313 0.0056617325
0.0007887334 -0.00030508437 0.0012363443 -0.0049942243 0.0049325135 0.012717377 0.0068689394 0.014431317
0.008126028 -0.008232051 0.021217382 0.0067092464 0.020110287 0.0030911705 -0.0019941416 0.008566361
-0.006002501 -0.00364213 0.010149556 0.01994548 -0.0032816902 0.0072945734 -0.00037697534 0.0064645726
-0.0027582783 -0.0041265567 0.010969885 0.020365756 0.004098486 0.0042231423 0.0013947337 0.012819372
0.012984992 0.008268344 0.019480506 0.024511483 -0.0050796177 0.013154626 0.00812137 0.0006397273
-0.002294203 0.012756599 0.019537833 0.0036342335 -0.0016289139 0.007460402 -0.007981201 -0.0007428449
0.0060141273 -0.0019659607 0.018058412 0.019784974 0.018066283 0.013755549 0.012541022 -0.0003741425
-0.0061324807 -0.0018549144 0.0029569697 -0.00093054987 0.0074201133 0.009151602 0.0053981277 -0.0075039454
00000000: 4993 3b3c f99f b43a be06 d8ba 76cc 673c
00000010: 45ec bbbb a1b4 b03b f741 a73b 760f ae3c
00000020: e456 a0ba 2e6c 6ebb ca43 9e3a d0a9 a23c
00000030: 5e51 0cbc 6f30 2e3c 06f6 a23a 1c6e aa3b
00000040: 065b 33bc 7065 7bbb 4eaf 5b3a 22ac 88bb
00000050: d404 4c3b 3c2a ba3b 7bf1 74bc 8a7c a93c
00000060: 43c8 9d3a c998 553b 9efc 4c3c 9623 563c
00000070: 9e4b 28bc 338a 293c 8e7f 5f3a fbdc 3b3c
00000080: 9bb5 d73b 6161 88ba d5b8 0c3c 1925 13bb
00000090: 4d4d 683c 5f64 593b b5ae 2638 1b36 f2ba
000000a0: e410 8abb c0ca 043c 2b64 acbb 8bbc dbba
000000b0: 4ad1 91bc 597f 10bc 091f 02bc 30db ea3b
000000c0: ca97 99bb 7a45 7bbb 3159 273a 3d30 483c
000000d0: 7741 023c 9933 853c 2341 233b 403e f1ba
000000e0: 8c95 f9bb 3c00 923a c27f 043b 2b74 c63b
000000f0: f996 53bb 9b36 9abb 8e47 61ba 0e86 b93b
00000100: 01c3 4e3a bbf3 9fb9 d50c a23a 97a6 a3bb
00000110: eca0 a13b 8c5c 503c d714 e13b 5571 6c3c
00000120: 0823 053c b9df 06bc 13d0 ad3c 3dd9 db3b
00000130: 54be a43c 3c95 4a3b 25b0 02bb ec59 0c3c
00000140: a1b0 c4bb cdb0 6ebb 534a 263c b464 a33c
00000150: a011 57bb 5107 ef3b c6a4 c5b9 c4d4 d33b
00000160: 3bc4 34bb 1138 87bb 08bb 333c 16d6 a63c
00000170: 984c 863b 4962 8a3b 7fcf b63a 5808 523c
00000180: 01bf 543c f377 073c 9595 9f3c 4ecc c83c
00000190: ec72 a6bb 8086 573c 7f0f 053c 5fb3 273a
000001a0: 575a 16bb 0e01 513c ce0d a03c 522c 6e3b
000001b0: 4881 d5ba 6376 f43b 95c3 02bc 7abb 42ba
000001c0: 2812 c53b 59d7 00bb 3cef 933c 1914 a23c
000001d0: beff 933c f45e 613c dc78 4d3c 8e28 c4b9
000001e0: faf2 c8bb 9920 f3ba b8c9 413b 25f0 73ba
000001f0: 6c24 f33b 9af0 153c c7e2 b03b a8e3 f5bb

bn1.running_mean f4 [128]
49398.12 -18651.932 52345.35 -39602.85 39635.91 40306.516 -57463.688 13752.5205
-57010.91 80123.67 4185.6396 28473.674 -25296.027 85481.02 -6366.6313 87720.875
-16665.49 -47796.855 -12838.379 76402.63 28047.348 58202.332 -51316.73 -15655.319
23297.55 15993.021 -47552.348 65604.61 -86124.945 60496.72 -65471.254 -21714.887
39599.28 -16984.184 69725.06 77586.28 -38171.12 70677.375 -63350.5 60213.734
53214.438 -31054.404 -73676.63 13246.6 19238.707 -22736.562 70411.09 11908.819
50885.867 51012.418 -15801.713 42810.95 49390.48 -17538.113 -44871.188 64466.87
-5566.2207 -15019.97 -66351.73 57636.66 -4425.8447 48593.805 -20236.027 46550.44
-68938.75 22559.748 42041.44 -96848.91 61280.75 -64651.605 -33161.457 -36213.066
-74430.17 75593.23 -30802.904 50530.58 39205.266 -15220.215 46013.23 42256.46
-8633.392 18298.348 21073.525 -78802.195 -19638.201 80572.055 -10078.73 -31215.518
-13671.38 -28140.117 54230.926 -18834.16 -11738.764 85391.16 -22130.605 79808.07
-36413.91 -11207.0 -10812.676 -45336.42 35774.652 98370.484 58874.156 -20585.41
-48158.656 55130.105 45221.363 69803.92 49308.656 -43735.984 49879.395 -20307.37
-60540.203 -43560.24 11798.366 -29607.736 -34313.523 -23700.348 -67168.195 -17752.791
-15891.06 -47390.586 44543.07 -42511.297 -3276.2847 -44271.695 2675.3062 90655.54
00000000: 1ff6 4047 ddb7 91c6 5a79 4c47 dab2 1ac7
00000010: e9d3 1a47 8472 1d47 b077 60c7 15e2 5646
00000020: e9b2 5ec7 d67d 9c47 1ecd 8245 5973 de46
00000030: 0ea0 c5c6 83f4 a647 0df5 c6c5 7054 ab47
00000040: fb32 82c6 dbb4 3ac7 8499 48c6 5139 9547
00000050: b21e db46 555a 6347 bb74 48c7 479d 74c6
00000060: 1a03 b646 16e4 7946 59c0 39c7 4e22 8047
00000070: 7936 a8c7 b850 6c47 41bf 7fc7 c6a5 a9c6
00000080: 48af 1a47 5eb0 84c6 882e 8847 2489 9747
00000090: 1f1b 15c7 b00a 8a47 8076 77c7 bc35 6b47
000000a0: 70de 4f47 cf9c f2c6 51e6 8fc7 66fa 4e46
000000b0: 6a4d 9646 20a1 b1c6 8c85 8947 4713 3a46
000000c0: dec5 4647 6b44 4747 dae6 76c6 f33a 2747
000000d0: 7bee 4047 3a04 89c6 3047 2fc7 dfd2 7b47
000000e0: c4f1 adc5 e1af 6ac6 dd97 81c7 a924 6147
000000f0: c24e 8ac5 ced1 3d47 0e18 9ec6 71d6 3547
00000100: 60a5 86c7 7f3f b046 7139 2447 7428 bdc7
00000110: c060 6f47 9b8b 7cc7 7589 01c7 1175 0dc7
00000120: 165f 91c7 9da4 9347 cfa5 f0c6 9462 4547
00000130: 4425 1947 dcd0 6dc6 3bbd 3347 7610 2547
00000140: 91e5 06c6 b2f4 8e46 0da3 a446 19e9 99c7
00000150: 676c 99c6 075e 9d47 ec7a 1dc6 09df f3c6
00000160: 859d 55c6 3cd8 dbc6 edd6 5347 5224 93c6
00000170: 0e6b 37c6 94c7 a647 36e5 acc6 09e0 9b47
00000180: e93d 0ec7 001c 2fc6 b4f2 28c6 6c18 31c7
00000190: a7be 0b47 3e21 c047 28fa 6547 d2d2 a0c6
000001a0: a81e 3cc7 1b5a 5747 5da5 3047 f655 8847
000001b0: a89c 4047 fcd7 2ac7 65d7 4247 bda6 9ec6
000001c0: 347c 6cc7 3d28 2ac7 7759 3846 794f e7c6
000001d0: 8609 06c7 b228 b9c6 1930 83c7 95b1 8ac6
000001e0: 3d4c 78c6 961e 39c7 12ff 2d47 4c0f 26c7
000001f0: 8ec4 4cc5 b2ef 2cc7 e634 2745 c50f b147

bn1.running_var f4 [128]
2.3031906e+10 6.367926e+09 3.070263e+10 1.6308379e+10 1.9761433e+10 1.5741066e+10 3.2513282e+10 1.0517619e+10
3.0922465e+10 6.915254e+10 1.9383788e+09 8.733123e+09 8.597286e+09 6.877205e+10 2.8918164e+09 7.211736e+10
4.1683162e+09 2.468627e+10 7.826791e+09 6.2225785e+10 1.1867906e+10 3.2854176e+10 2.8344228e+10 3.0811151e+09
5.9147167e+09 6.616733e+09 2.1258574e+10 3.9379726e+10 7.865513e+10 4.6088917e+10 4.0560173e+10 7.8376806e+09
1.7395608e+10 5.672157e+09 5.786908e+10 6.6853482e+10 1.4537217e+10 4.7964865e+10 4.1195045e+10 3.651825e+10
2.7407229e+10 1.1049751e+10 6.0512514e+10 8.798055e+09 6.4039055e+09 6.367549e+09 5.1088085e+10 3.409094e+09
2.4812014e+10 2.7673e+10 6.6341617e+09 1.9136512e+10 2.2713268e+10 7.627886e+09 2.1454019e+10 4.518238e+10
1.2043616e+10 5.4237266e+09 4.357136e+10 3.2387133e+10 1.339277e+09 2.5060606e+10 5.633896e+09 2.399342e+10
4.587328e+10 8.2359977e+09 2.0227211e+10 1.0983663e+11 3.525721e+10 3.8520414e+10 1.524666e+10 1.238e+10
5.3222375e+10 6.1470614e+10 1.0416477e+10 2.6637009e+10 1.6965649e+10 3.5187935e+09 2.7089541e+10 1.6754257e+10
1.5548849e+10 7.2721295e+09 6.8937016e+09 5.8077643e+10 5.129524e+09 6.7189174e+10 3.0950595e+09 1.1031839e+10
3.4406054e+09 1.0226192e+10 2.8645026e+10 6.7396623e+09 4.197484e+09 7.974552e+10 5.7132467e+09 5.9459326e+10
1.4877322e+10 2.2268452e+09 4.6382377e+09 1.9728722e+10 1.3090028e+10 9.5186035e+10 3.3000112e+10 6.5040056e+09
2.5484884e+10 2.99334e+10 1.9747963e+10 5.4304645e+10 3.5371586e+10 2.0385477e+10 2.3028437e+10 4.6979543e+09
3.569118e+10 1.9801672e+10 3.8726118e+09 1.0881055e+10 1.3088512e+10 5.9132723e+09 4.582227e+10 3.9106332e+09
7.0627487e+09 3.0687517e+10 1.9760718e+10 3.1283937e+10 3.2466721e+09 2.2422516e+10 4.0983985e+09 9.551807e+10
00000000: e099 ab50 6bc7 bd4f 9fc0 e450 8703 7350
00000010: f13b 9350 678f 6a50 2a3e f250 88b9 1c50
00000020: ec63 e650 80ce 8051 a012 e74e 3822 0250
00000030: 0b1c 0050 1219 8051 9e5d 2c4f 3d54 8651
00000040: 7573 784f 53ed b750 ad41 e94f 22cf 6751
00000050: 78d8 3050 5ec8 f450 532e d350 16a6 374f
00000060: b545 b04f ab31 c54f 8363 9e50 6fb3 1251
00000070: b081 9251 d1b1 2b51 3219 1751 c294 e94f
00000080: 7d9b 8150 200b a94f 4194 5751 730c 7951
00000090: 159f 5850 dcae 3251 a876 1951 840a 0851
000000a0: 2433 cc50 74a7 2450 3b6d 6151 eb19 0350
000000b0: ecd9 be4f 8bc4 bd4f 6551 3e51 a532 4b4f
000000c0: 29dd b850 0f2e ce50 a3b6 c54f 0094 8e50
000000d0: 1f3a a950 2754 e34f 4bd8 9f50 4651 2851
000000e0: c076 3350 c0a3 a14f e350 2251 8e4d f150
000000f0: 7ea7 9f4e 50b7 ba50 37e7 a74f d1c3 b250
00000100: 2be4 2a51 ad73 f54f 58b4 9650 3096 cc51
00000110: e557 0351 ee7f 0f51 6431 6350 f479 3850
00000120: d044 4651 f2fe 6451 b537 1b50 1076 c650
00000130: d1ce 7c50 87bc 514f 33d5 c950 6ba8 7950
00000140: 27b2 6750 f2b9 d84f c572 cd4f 285b 5851
00000150: 2adf 984f 974c 7a51 dc7a 384f 2063 2450
00000160: 7913 4d4f d461 1850 0d6c d550 8bdb c84f
00000170: 8630 7a4f a189 9451 9d44 aa4f d580 5d51
00000180: 7bb0 5d50 f6ba 044f f23a 8a4f 8dfd 9250
00000190: 7e0e 4350 3d4c b151 b8de f550 a0d5 c14f
000001a0: 8fe0 bd50 6e05 df50 4022 9350 f24c 4a51
000001b0: f9c4 0351 36e2 9750 4293 ab50 8c02 8c4f
000001c0: c3f5 0451 b188 9350 5ed3 664f ee23 2250
000001d0: b608 4350 b03a b04f 86b3 2a51 8717 694f
000001e0: 7f7c d24f cba3 e450 943a 9350 6015 e950
000001f0: 4984 414f 8e0f a750 9948 744f 91ea b151

fc2.weight f4 [128, 128]
0.07191956 -0.01451286 0.05236869 0.02839363 0.023206523 -0.05732771 0.022693155 0.03809194
-0.104873896 -0.056930587 0.06388185 0.022902576 0.017584676 0.08925748 0.08032063 0.06996638
-0.028972717 0.012278975 0.09830266 0.019920437 0.06749347 0.017689211 0.0753675 0.019347984
-0.024565183 0.07058987 0.0017251376 0.015144247 0.076236166 -0.0106744915 0.0064239013 -0.07672332
0.022316698 -0.05530274 -0.054142997 -0.09088822 -0.034970753 -0.041085295 -0.018661851 -0.043338966
0.09427295 0.049388546 -0.039938785 -0.012859315 -0.030059569 -0.079545125 -0.032202046 -0.086572714
0.023266152 0.03623756 -0.030456152 -0.05916375 0.022058165 -0.026444806 -0.06376137 0.0695085
-0.03595821 0.07103322 0.033248734 0.05217522 -0.0078093023 0.0455212 0.05281906 0.0019468761
-0.09429203 -0.0050456575 0.068586335 -0.004315181 0.06647926 -0.059345275 -0.025387803 0.01820349
0.0012002091 -0.019898418 -0.058880452 0.032395035 0.017339237 0.063828476 -0.05239305 0.05483203
-0.029921925 -0.063310586 -0.022932628 -0.06843824 -0.07524568 0.08117223 -0.010230262 -0.039168585
0.06524619 0.017200403 -0.039057527 -0.059819102 -0.0057871 -0.089943886 0.07572727 -0.010641663
-0.051474955 0.08123828 -0.0072984216 -0.04133312 -0.010108274 0.045699377 0.04529075 -0.025730573
0.05849334 0.07809704 -0.06505011 0.04777293 -0.062314264 -0.00482217 -0.0034964746 0.047326516
0.026552698 -0.0059041115 0.009321907 -0.017932314 -0.058721226 0.07553608 0.05597098 0.06957403
0.03510676 0.009240458 0.031685006 -0.062954016 -0.007256483 -0.00023667567 -0.08939944 0.037208468
-0.0066199275 0.05839053 -0.03576793 -0.03474479 -0.058174096 -0.021268766 -0.033317886 -0.022496326
-0.04254177 -0.05540182 -0.01482381 0.090921745 -0.05795786 -0.0075204107 -0.0065205414 -0.06948805
-0.03327969 -0.068444096 0.076379426 -0.05526541 0.0607799 -0.0033778585 -0.050164588 -0.05149906
0.07038514 0.062054403 0.0639607 -0.044510186 0.06240336 -0.05109176 -0.0021527067 0.013078413
0.048081435 0.069759816 -0.0361036 -0.021088244 0.017160447 0.031319574 -0.0750481 0.007070993
-0.045953672 0.0040089684 -0.06646494 -0.052298505 -0.041490532 0.036174264 -0.045347724 0.053563066
0.058818117 -0.02022387 0.020347655 0.08376633 -0.088532574 0.09021712 -0.028827185 -0.059269793
-0.026350576 0.06469158 0.023969928 0.057035703 -0.023977889 0.046999164 0.05127564 0.0288373
0.058742628 0.025256203 0.031032434 -0.006288649 0.033175994 0.00445747 -0.09226262 -0.066135384
0.070974655 0.014017765 -0.011216842 -0.087615564 -0.056421004 0.05924309 -0.017279351 0.060813177
0.077513285 0.052683074 -0.05060998 -0.06411571 0.07085984 -0.031969987 0.0871447 -0.0011572107
-0.010438276 -0.039072864 -0.09005516 0.028276399 -0.03150193 0.08058607 0.031959683 0.06908392
0.023950048 -0.050833352 -0.02426018 0.048673015 0.07763598 0.01986753 -0.06384173 0.01261574
0.04308236 -0.003928828 0.049982138 0.08637196 0.05453975 0.023203162 0.01801037 -0.014855441
-0.051060036 -0.07752419 0.053957336 -0.06595254 -0.00067885185 -0.020694338 -0.057431605 -0.027903793
-0.017540745 0.0123157995 -0.026464624 0.08629943 0.03354117 -0.029066477 -0.007275249 -0.047946814
00000000: 904a 933d 59c7 6dbc 8d80 563d c299 e83c
00000010: 9b1b be3c 76d0 6abd ffe6 b93c 4b06 1c3d
00000020: 20c8 d6bd 0c30 69bd 7dd4 823d 2f9e bb3c
00000030: bd0d 903c a0cc b63d 247f a43d 894a 8f3d
00000040: 3158 edbc c12d 493c e852 c93d 2f30 a33c
00000050: 043a 8a3d f7e8 903c 475a 9a3d aa7f 9e3c
00000060: ec3c c9bc 6c91 903d 031e e23a 931f 783c
00000070: b521 9c3d 10e4 2ebc 977f d23b 1e21 9dbd
00000080: 82d1 b63c 2085 62bd 0cc5 5dbd 9a23 babd
00000090: 7e3d 0fbd 0e49 28bd bde0 98bc 3384 31bd
000000a0: 2d12 c13d a54b 4a3d da96 23bd e0af 52bc
000000b0: 7c3f f6bc 8ee8 a2bd 4be6 03bd 094d b1bd
000000c0: a898 be3c d66d 143d 2e7f f9bc b055 72bd
000000d0: 53b3 b43c c7a2 d8bc 5295 82bd 795a 8e3d
000000e0: ea48 13bd dd79 913d d32f 083d afb5 553d
000000f0: 2de5 ffbb 7074 3a3d cc58 583d 522e ff3a
00000100: 2e1c c1bd 0b56 a5bb fe76 8c3d 5d66 8dbb
00000110: 4726 883d 0814 73bd 15fa cfbc 7c1f 953c
00000120: 5650 9d3a 0202 a3bc a12c 71bd a8b0 043d
00000130: 040b 8e3c 81b8 823d 189a 56bd 8d97 603d
00000140: d31e f5bc fba8 81bd 35dd bbbc 5929 8cbd
00000150: 681a 9abd a03d a63d d49c 27bc 3d6f 20bd
00000160: cb9f 853d dce7 8c3c c9fa 1fbd e004 75bd
00000170: b7a1 bdbb 8034 b8bd e616 9b3d 5f5a 2ebc
00000180: 67d7 52bd 4160 a63d 9927 efbb eb4c 29bd
00000190: 2d9d 25bc 452f 3b3d cb82 393d ecc8 d2bc
000001a0: b696 6f3d 57f1 9f3d fe38 85bd 8cad 433d
000001b0: 3e3d 7fbd 4b03 9ebb 1c25 65bb 73d9 413d
000001c0: 0b85 d93c 4777 c1bb e9ba 183c cae6 92bc
000001d0: ab85 70bd a9b2 9a3d d441 653d d47c 8e3d
000001e0: 1bcc 0f3d 4a65 173c 23c8 013d 09ee 80bd
000001f0: cbc7 edbb 242c 78b9 0e17 b7bd e867 183d
00000200: faeb d8bb e92a 6f3d 6581 12bd 8e50 0ebd
00000210: f647 6ebd d63b aebc 5678 08bd 374a b8bc
00000220: 4740 2ebd 05ed 62bd 91df 72bc 2e35 ba3d
00000230: 3965 6dbd c76d f6bb 44aa d5bb c04f 8ebd
00000240: 4950 08bd 6b2c 8cbd d16c 9c3d fc5d 62bd
00000250: 58f4 783d 105f 5dbb 6279 4dbd aef0 52bd
00000260: 1626 903d c22c 7e3d d4fd 823d 5050 36bd
00000270: aa9a 7f3d 9845 51bd 6d14 0dbb d746 563c
00000280: 0af1 443d 3cde 8e3d 5ee1 13bd 41c1 acbc
00000290: 1194 8c3c f448 003d d1b2 99bd cab3 e73b
000002a0: eb39 3cbd aa5d 833b c51e 88bd f536 56bd
000002b0: faf1 29bd 772b 143d 89be 39bd f264 5b3d
000002c0: 44eb 703d 88ac a5bc 20b0 a63c ae8d ab3d
000002d0: 9150 b5bd c1c3 b83d fd26 ecbc e2c4 72bd
000002e0: 2add d7bc 057d 843d 955c c43c 459e 693d
000002f0: 476d c4bc 3282 403d 6806 523d 343c ec3c
00000300: 1c9c 703d 19e6 ce3c bb37 fe3c 0311 cebb
00000310: 8de3 073d f80f 923b 2ff4 bcbd fd71 87bd
00000320: 295b 913d c5aa 653c d8c6 37bc ca6f b3bd
00000330: b619 67bd e2a8 723d 6d8d 8dbc 3d17 793d
00000340: 49bf 9e3d 35ca 573d 694c 4fbd 194f 83bd
00000350: f71e 913d f6f2 02bd ec78 b23d 8cad 97ba
00000360: 4e05 2bbc de0a 20bd d76e b8bd e8a3 e73c
00000370: 2b08 01bd 4f0a a53d 28e8 023d df7b 8d3d
00000380: e432 c43c a236 50bd 49bd c6bc 5b5d 473d
00000390: 9dff 9e3d 3bc1 a23c 74bf 82bd 40b2 4e3c
000003a0: 2177 303d 66bd 80bb 12ba 4c3d c8e3 b03d
000003b0: 1365 5f3d 8f14 be3c 7c8a 933c 3c64 73bc
000003c0: 5424 51bd 01c5 9ebd 5e02 5d3d 2012 87bd
000003d0: faf4 31ba 2c87 a9bc 673d 6bbd 7f96 e4bc
000003e0: 9cb1 8fbc 35c8 493c 57cc d8bc c1bd b03d
000003f0: 7762 093d d21c eebc 3665 eebb e163 44bd

fc2.bias f4 [128]
-0.060198456 0.015793152 -0.059639756 -0.07238603 0.028441705 0.042274125 -0.07529319 -0.041878913
0.048642218 0.07152362 0.029615888 0.06664467 0.014569489 -0.057310656 0.05849647 0.025724778
0.0019375433 0.031496026 0.025760774 0.06979877 -0.07419524 -0.04313787 0.074305765 -0.0711793
0.01455625 -0.028379371 -0.015553459 -0.08182114 0.022807958 -0.034556765 0.07797222 0.060768116
-0.05031933 -0.01191882 -0.026141256 0.029325483 0.0616894 0.068511635 0.0058914474 -0.020603344
0.049005527 0.047302913 0.07127267 -0.0637375 0.06739902 0.031826194 -0.074969746 0.031742834
0.0012470682 0.034909748 0.035458855 -0.07737787 -0.038079474 -0.08219419 -0.068127915 0.031952497
0.06952421 0.066363655 -0.0667577 -0.085863255 -0.034417447 0.009779087 -0.00784827 0.04695994
-0.011485941 -0.020907456 0.009841224 0.0057229144 -0.05569005 0.018573452 -0.0069016693 -0.018720709
-0.07331628 -0.06087959 0.03523237 0.044897817 -0.023141364 0.01397251 0.01553025 0.07529362
0.04683624 -0.040378045 -0.04539301 0.014300402 0.07089648 0.031687927 -0.054075297 -0.07871281
-0.04482751 0.048049286 0.058811728 -0.06700798 -0.032683667 -0.0012147718 0.025997277 0.038500343
-0.063179485 0.03901065 0.020597458 -0.056823462 0.001644613 -0.014377535 0.07068143 0.043496907
-0.006476006 0.014090704 0.071019605 0.0070549143 0.0665549 0.026976626 0.02864235 -0.044592973
0.005504546 -0.029525256 -0.08019005 0.06928075 -0.017853647 0.07045014 0.06813111 -0.035912223
-0.058004983 0.04879772 -0.0016068417 -0.039996795 -0.0048944983 0.0809482 0.060219903 -0.046847243
00000000: a892 76bd a460 813c d148 74bd 203f 94bd
00000010: 94fe e83c a227 2d3d 5133 9abd 3989 2bbd
00000020: 103d 473d fa7a 923d 059d f23c 007d 883d
00000030: deb4 6e3c 94be 6abd ff99 6f3d c5bc d23c
00000040: 2af5 fd3a fa01 013d 4208 d33c a8f2 8e3d
00000050: adf3 97bd 56b1 30bd 9f2d 983d 74c6 91bd
00000060: 567d 6e3c db7b e8bc efd3 7ebc d891 a7bd
00000070: c1d7 ba3c 658b 0dbd e6af 9f3d fde7 783d
00000080: a41b 4ebd 2847 43bc 3026 d6bc ff3b f03c
00000090: 06ae 7c3d d44f 8c3d 0b0d c13b 58c8 a8bc
000000a0: 05ba 483d b3c0 413d 68f7 913d ce88 82bd
000000b0: 7f08 8a3d 2f5c 023d bd89 99bd c604 023d
000000c0: aa74 a33a 86fd 0e3d 4e3d 113d 4a78 9ebd
000000d0: 39f9 1bbd 6d55 a8bd a686 8bbd 9fe0 023d
000000e0: b662 8e3d abe9 873d 43b8 88bd 13d9 afbd
000000f0: 4ff9 0cbd 7738 203c 0896 00bc 1159 403d
00000100: 872f 3cbc 1d46 abbc 163d 213c 4987 bb3b
00000110: 401b 64bd 5a27 983c 6627 e2bb 2c5c 99bc
00000120: d926 96bd e15c 79bd d14f 103d c6e6 373d
00000130: f592 bdbc f4ec 643c 9772 7e3c 8b33 9a3d
00000140: 5bd7 3f3d 7363 25bd 05ee 39bd 3c4c 6a3c
00000150: 2c32 913d 33cb 013d 0f7e 5dbd 2f34 a1bd
00000160: 0d9d 37bd 54cf 443d 91e4 703d 7b3b 89bd
00000170: 4fdf 05bd fa38 9fba 3ef8 d43c 89b2 1d3d
00000180: 3f64 81bd a2c9 1f3d 00bc a83c b8bf 68bd
00000190: 0e90 d73a c18f 6bbc 6dc1 903d d029 323d
000001a0: ad34 d4bb b2dc 663c ba72 913d e92c e73b
000001b0: ef4d 883d 16fe dc3c 5da3 ea3c 1fa7 36bd
000001c0: 7b5f b43b f3de f1bc ae3a a4bd 11e3 8d3d
000001d0: d041 92bc 2a48 903d 5388 8b3d b218 13bd
000001e0: a296 6dbd 1ee0 473d a99c d2ba aed3 23bd
000001f0: 0762 a0bb 2bc8 a53d 25a9 763d e5e2 3fbd

bn2.weight f4 [128]
0.9966577 0.98993975 0.9971276 0.98639923 1.0006788 1.017452 1.0102719 0.996235
0.99810225 0.9975468 0.99344486 0.99367803 1.0036496 0.99898034 0.99350923 0.99328196
1.0235814 1.0104923 1.01777 0.9948059 0.99888444 1.0326205 0.99098045 1.003231
1.0136697 0.99534184 1.0038186 0.9915585 0.9953352 0.9802939 0.99104124 0.99977773
1.0165684 0.98118323 1.0242044 1.0084312 0.9855434 1.0114087 0.9959672 0.99172443
0.9954151 0.9920154 0.99091434 1.0029075 1.0010371 0.9949524 0.99978846 0.9876744
0.9937094 0.9913754 1.0014013 1.0056493 1.0095772 0.9945219 1.0201733 1.0010434
0.9990918 0.99619627 1.0163845 0.9965802 1.0036293 0.99216 0.9953348 0.97383404
1.006885 0.99905235 0.99288356 0.9905176 0.9917552 1.0096492 0.99173045 0.98358244
0.9919699 1.0038255 0.98665893 0.99492157 1.0045494 1.0139331 1.0067393 0.9810815
0.9938204 0.9890901 1.0052295 1.0016495 0.9957717 0.9917905 0.992381 1.0012542
0.9960468 1.0054975 1.0043771 0.9944373 1.0036709 0.990506 1.0028116 0.98346925
1.0085878 1.0182872 0.9750707 1.0087327 1.0173112 1.0006784 0.9989584 0.9837278
0.99067223 1.0041872 0.99880785 0.9950892 1.0116351 1.0038655 1.0009221 0.999316
0.9958404 1.0030926 0.9867249 1.0009863 1.0037861 1.0135939 1.0032761 1.0028723
0.99238217 0.98089045 0.9996771 1.0025935 1.0081881 0.98957825 0.99952084 1.0071017
00000000: f624 7f3f b16c 7d3f c143 7f3f a984 7c3f
00000010: 3e16 803f de3b 823f 9750 813f 4209 7f3f
00000020: a183 7f3f 3a5f 7f3f 6752 7e3f af61 7e3f
00000030: 9777 803f 2dbd 7f3f 9f56 7e3f ba47 7e3f
00000040: b704 833f d057 813f 4a46 823f 99ab 7e3f
00000050: e4b6 7f3f e92c 843f e5b0 7d3f e069 803f
00000060: eebf 813f b9ce 7e3f 217d 803f c7d6 7d3f
00000070: 4ace 7e3f 8bf4 7a3f e1b4 7d3f 6ff1 7f3f
00000080: ea1e 823f d32e 7b3f 2119 833f 4614 813f
00000090: 924c 7c3f d775 813f b5f7 7e3f a7e1 7d3f
000000a0: 86d3 7e3f b9f4 7d3f 90ac 7d3f 465f 803f
000000b0: fc21 803f 33b5 7e3f 23f2 7f3f 3bd8 7c3f
000000c0: bd63 7e3f c7ca 7d3f eb2d 803f 1eb9 803f
000000d0: d339 813f fd98 7e3f 0a95 823f 3122 803f
000000e0: 7bc4 7f3f b806 7f3f e318 823f e11f 7f3f
000000f0: ed76 803f 33fe 7d3f 43ce 7e3f 304d 793f
00000100: 9ce1 803f e5c1 7f3f 9e2d 7e3f 9092 7d3f
00000110: abe3 7d3f 2f3c 813f 0ce2 7d3f 0fcc 7b3f
00000120: bdf1 7d3f 5b7d 803f ae95 7c3f 2eb3 7e3f
00000130: 1395 803f 8fc8 813f d5dc 803f 2828 7b3f
00000140: 046b 7e3f 0235 7d3f 5cab 803f 0d36 803f
00000150: e5ea 7e3f fbe5 7d3f ae0c 7e3f 1929 803f
00000160: ecfc 7e3f 24b4 803f 6e8f 803f 7193 7e3f
00000170: 4a78 803f cd91 7d3f 215c 803f a4c4 7b3f
00000180: 6819 813f 3c57 823f 3c9e 793f 271e 813f
00000190: 4137 823f 3b16 803f bdbb 7f3f 96d5 7b3f
000001a0: b29c 7d3f 3589 803f dfb1 7f3f 2abe 7e3f
000001b0: 427d 813f aa7e 803f 371e 803f 2cd3 7f3f
000001c0: 65ef 7e3f 5765 803f 019a 7c3f 5220 803f
000001d0: 107c 803f 72bd 813f 5a6b 803f 1f5e 803f
000001e0: c20c 7e3f a31b 7b3f d7ea 7f3f fc54 803f
000001f0: 4f0c 813f 0055 7d3f 99e0 7f3f b5e8 803f

bn2.bias f4 [128]
0.011156882 -0.011606017 0.010921382 -0.008570827 0.0038370523 0.014257908 0.017690204 0.008300275
0.009489057 0.003110734 0.0061358684 0.0062270663 0.007811387 -0.0069406168 0.0087098135 0.014275395
0.013801528 0.027438005 0.022273617 -0.0008919834 0.0061213193 0.025796775 -0.012168421 0.01249428
0.029109187 -0.009595022 0.0006628725 -0.008536104 -0.0050584427 -0.012587564 0.0009458247 0.0062639304
0.020976169 0.011521671 0.013204355 -0.000276282 -0.008322372 0.007995101 -0.0020888734 -0.0031936332
-0.0011816779 0.0024497788 0.005974201 0.010810432 0.027129335 1.0349004e-06 0.0047240085 -0.0116928695
-0.004156625 0.00081202586 0.016875533 -0.0011976326 0.01594589 0.004162448 0.02104679 -0.0114862835
0.0014816618 -0.0062528434 0.012295025 -0.0023568377 0.010183342 -0.0022661486 -0.0041506374 -0.021518493
0.004830352 -0.003428693 -0.0034952576 0.00044923738 0.004804647 0.017827 -0.020571152 0.0031015838
0.005378366 0.0048737414 -0.0123351775 0.020917313 -0.0051615173 0.018205613 0.0038510237 -0.015259126
0.0068355394 -0.016451571 0.018061034 0.009431756 0.0028653836 -0.0035113706 0.004477603 0.007756387
0.005258009 0.011302416 0.014487488 0.0044498253 0.0021383609 -0.012080597 0.000732299 -0.007362049
0.005609506 0.022265868 -0.0059938785 0.026053136 0.020589838 2.8572684e-05 0.00069959555 -0.0018999275
-0.0037567832 -0.007487847 0.0015457378 0.010819876 0.013137959 0.011907911 0.0061059752 -0.003278399
-0.003589843 -0.0089578815 -0.0044061323 0.0011157086 0.009944863 0.017041536 0.00069947523 0.015014026
0.00162609 -0.009050242 0.0098814005 0.02370588 -0.0004397272 0.0028227794 0.0023288543 -0.0010798987
00000000: 5bcb 363c 2a27 3ebc 99ef 323c a76c 0cbc
00000010: 0e77 7b3b 009a 693c 0ceb 903c e0fd 073c
00000020: fd77 1b3c 75dd 4b3b 650f c93b 6b0c cc3b
00000030: aaf6 ff3b 1d6e e3bb 9bb3 0e3c 59e3 693c
00000040: ce1f 623c abc5 e03c 2977 b63c fed3 69ba
00000050: 5995 c83b c253 d33c 0f5e 47bc cfb4 4c3c
00000060: 6476 ee3c 7034 1dbc 9fc4 2d3a 04db 0bbc
00000070: 4bc1 a5bb 123c 4ebc 39f1 773a a841 cd3b
00000080: 37d6 ab3c 64c5 3c3c 1457 583c f1d9 90b9
00000090: 8f5a 08bc e2fd 023c 7be5 08bb 464c 51bb
000000a0: 88e2 9aba 788c 203b 3bc3 c33b 3d1e 313c
000000b0: 573e de3c e8e6 8a35 dbcb 9a3b 7393 3fbc
000000c0: 4c34 88bb 22de 543a 8f3e 8a3c e2f9 9cba
000000d0: f5a0 823c 2565 883b 516a ac3c f730 3cbc
000000e0: 5234 c23a a7e4 ccbb 1371 493c 2d75 1abb
000000f0: 08d8 263c aa83 14bb 1202 88bb 8d47 b0bc
00000100: ee47 9e3b ecb3 60bb b110 65bb 9f87 eb39
00000110: 4d70 9d3b ee09 923c d584 a8bc f143 4b3b
00000120: 013d b03b e8b3 9f3b 7c19 4abc c95a ab3c
00000130: f221 a9bb f023 953c 7561 7c3b 6a01 7abc
00000140: a9fc df3b 72c5 86bc bcf4 933c a787 1a3c
00000150: 29c9 3b3b 061f 66bb dbb8 923b 4a29 fe3b
00000160: 604b ac3b c52d 393c ee5c 6d3c d7cf 913b
00000170: be23 0c3b b2ed 45bc c1f7 3f3a 583d f1bb
00000180: f2cf b73b e966 b63c 4c68 c4bb 636d d53c
00000190: 05ac a83c 5faf ef37 1065 373a fd06 f9ba
000001a0: 5d34 76bb 9d5c f5bb 5b9a ca3a d945 313c
000001b0: 9840 573c 6619 433c a214 c83b 68da 56bb
000001c0: 9243 6bbb 14c4 12bc 5161 90bb f83c 923a
000001d0: c7ef 223c b19a 8b3c fd5c 373a 64fd 753c
000001e0: 8722 d53a 7747 14bc 99e5 213c d532 c23c
000001f0: 308b e6b9 61fe 383b b19f 183b 638b 8dba

bn2.running_mean f4 [128]
0.05025556 0.023715822 0.08026886 -0.2258327 -0.058111593 -0.022480892 -0.22369647 -0.0801051
-0.15950698 0.19904973 0.17075878 -0.11327238 -0.023526786 -0.12473218 -0.122393616 -0.14839084
-0.45709926 0.028237691 -0.3305586 -0.11731694 -0.07670366 -0.19589105 0.26310754 -0.053080905
-0.0453991 -0.15517184 -0.23290531 -0.068105906 -0.062565744 -0.019785233 0.07988374 -0.022655172
-0.28718227 0.1032016 -0.34851897 -0.04018822 0.20754452 -0.034610357 -0.15259112 0.042754613
-0.03715673 0.37103134 -0.07530611 0.055337705 0.13031876 -0.049222473 -0.16242355 0.009296978
-0.10400068 0.30213937 0.0619526 -0.17296809 -0.22324343 -0.26476222 0.014952402 -0.13046984
0.096128255 0.3618873 -0.30422893 -0.14651302 -0.19078512 -0.13443749 -0.09122294 0.28641045
-0.15762833 0.015214009 -0.02014347 0.04677765 -0.05766958 -0.23531592 -0.12602301 0.014942277
-0.041954312 -0.08524649 -0.045900565 -0.2429001 -0.016249089 0.16304989 -0.12227852 0.15732324
-0.13571629 -0.28106016 -0.19021675 0.023818083 0.14809361 -0.224886 0.11314575 0.027244361
-0.036040705 -0.17100081 -0.010025013 0.06852036 -0.09365934 0.23994915 -0.11768249 0.27368784
-0.2941875 -0.18842937 -0.03818646 -0.18747793 -0.032231107 -0.038708653 0.4398288 0.13478312
0.15883423 0.09458428 0.19042511 -0.1742388 -0.14845532 0.14277664 0.048302438 0.22347659
-0.15897487 -0.15382916 -0.345938 0.19130564 -0.22435214 -0.15745392 0.26324752 -0.14460956
-0.13578708 -0.22417541 -0.08727236 -0.023504075 0.36334085 -0.11743935 0.15275386 -0.032404214
00000000: c6d8 4d3d af47 c23c 0064 a43d b040 67be
00000010: 6c06 6ebd d929 b8bc b010 65be 250e a4bd
00000020: cc55 23be b1d3 4b3e 64db 2e3e 59fb e7bd
00000030: 3fbb c0bc 9673 ffbd 81a9 fabd c5f3 17be
00000040: ea08 eabe bb52 e73c fa3e a9be dd43 f0bd
00000050: cf16 9dbd aa97 48be 08b6 863e 5d6b 59bd
00000060: 68f4 39bd 5ee5 1ebe bb7e 6ebe 1c7b 8bbd
00000070: 7822 80bd a414 a2bc 169a a33d 5797 b9bc
00000080: 8e09 93be 5c5b d33d 1471 b2be 679c 24bd
00000090: 8d86 543e 97c3 0dbd d940 1cbe 761f 2f3d
000000a0: a831 18bd d2f7 bd3e 173a 9abd caa9 623d
000000b0: 4872 053e 819d 49bd 5c52 26be 5a52 183c
000000c0: 4ffe d4bd 03b2 9a3e 02c2 7d3d 8c1e 31be
000000d0: ed99 64be ea8e 87be ebfa 743c e399 05be
000000e0: e4de c43d 4b49 b93e e5c3 9bbe 8207 16be
000000f0: 2d5d 43be fba9 09be 18d3 babd 64a4 923e
00000100: 5269 21be 2e44 793c eb03 a5bc ec99 3f3d
00000110: f036 6cbd a8f6 70be 2d0c 01be 74d0 743c
00000120: 49d8 2bbd b695 aebd 3b02 3cbd ceba 78be
00000130: cf1c 85bc 8df6 263e 296d fabd 5819 213e
00000140: 36f9 0abe 1ee7 8fbe 2ec8 42be 241e c33c
00000150: daa5 173e 8448 66be f5b8 e73d 912f df3c
00000160: 6b9f 13bd d61a 2fbe f43f 24bc 6754 8c3d
00000170: 78d0 bfbd 3bb5 753e 8403 f1bd d020 8c3e
00000180: be9f 96be a1f3 40be 6869 1cbd 37fa 3fbe
00000190: c404 04bd f78c 1ebd 3e31 e13e 9604 0a3e
000001a0: 71a5 223e 67b5 c13d cdfe 423e a86b 32be
000001b0: ac04 18be 0a34 123e c7d8 453d 0cd7 643e
000001c0: 4fca 22be 6485 1dbe c91e b1be a0e5 433e
000001d0: 91bc 65be 9a3b 21be 61c8 863e 8714 14be
000001e0: c50b 0bbe 3d8e 65be dabb b2bd 9e8b c0bc
000001f0: d007 ba3e 0b84 f0bd 826b 1c3e 48ba 04bd

bn2.running_var f4 [128]
0.3004389 0.10778391 0.79077464 0.036084536 0.1911153 0.1837303 0.063345574 0.11020132
0.55485487 0.14080791 0.4552343 0.34227127 0.19247304 0.11692537 0.6437889 0.22697729
0.060212266 0.15039036 0.3679924 0.16399156 0.41357204 0.03926855 0.079408444 0.041885726
0.038567048 0.040076096 0.056816585 0.25308812 0.11603964 0.107034005 0.53279966 0.38036618
0.121051885 0.06452781 0.0386444 0.037735883 0.13207942 0.07166698 0.22387795 0.13469787
0.10877103 0.81195605 0.042315092 0.07180322 0.6148494 0.1054441 0.1781004 0.05529591
0.17497484 0.065455824 0.16363442 0.0360156 0.059364684 0.109899096 0.4510216 0.09815593
1.1335292 0.75982726 0.04444663 0.09240995 0.34919664 0.17594917 0.06466673 0.42882487
0.03654963 0.35178578 0.73131317 0.22702771 0.27556986 0.4633711 0.09405846 0.28791553
0.17651953 0.33873472 0.034629244 0.07245761 0.020901239 0.74623394 0.054110684 0.79791665
0.60644555 0.09096474 0.041570224 0.27083838 0.6616303 0.8062656 0.7777062 0.36178958
0.3721657 0.045945153 0.019561589 0.23995328 0.08410685 0.15869944 0.08286161 0.096418425
0.082166344 0.18776435 0.6379843 0.22727877 0.15932153 0.13656037 0.8891908 0.9010016
0.5395785 0.010514119 0.054076597 0.28794494 0.06776791 0.2264651 0.5672807 0.51835066
0.17309308 0.040629297 0.114649795 0.18299326 0.4266029 0.12428251 0.437876 0.57591075
0.043967746 0.095252946 0.4856106 0.63082355 0.81683606 0.19852884 0.1368954 0.024426347
00000000: 21d3 993e d0bd dc3d 3570 4a3f 61cd 133d
00000010: bbb3 433e cc23 3c3e 53bb 813d 3bb1 e13d
00000020: f80a 0e3f f32f 103e 7814 e93e 2e3e af3e
00000030: a717 453e 9276 ef3d 59cf 243f bc6c 683e
00000040: 23a1 763d eeff 193e 8069 bc3e 67ed 273e
00000050: b7bf d33e 0fd8 203d e5a0 a23d 5e90 2b3d
00000060: 7bf8 1d3d d526 243d 82b8 683d c494 813e
00000070: 31a6 ed3d a534 db3d 8f65 083f 5bbf c23e
00000080: 0dea f73d 2827 843d 9749 1e3d f190 1a3d
00000090: d43f 073e 23c6 923d 4340 653e 3dee 093e
000000a0: 59c3 de3d 5adc 4f3f 9752 2d3d 910d 933d
000000b0: c566 1d3f 14f3 d73d f45f 363e f77d 623d
000000c0: 9b2c 333e b40d 863d c88f 273e 1885 133d
000000d0: 6228 733d c712 e13d 4eec e63e fa05 c93d
000000e0: 7c17 913f 0a84 423f ab0d 363d 6e41 bd3d
000000f0: e7c9 b23e 052c 343e fe6f 843d ef8e db3e
00000100: 11b5 153d 441d b43e 5737 3b3f f479 683e
00000110: 7e17 8d3e fa3e ed3e b9a1 c03d aa69 933e
00000120: 89c1 343e a36e ad3e 65d7 0d3d a864 943d
00000130: 1339 ab3c 3009 3f3f 2aa3 5d3d 4444 4c3f
00000140: 0440 1b3f b94b ba3d 8a45 2a3d 54ab 8a3e
00000150: 9a60 293f 6c67 4e3f c117 473f 7c3c b93e
00000160: 818c be3e fc30 3c3d a03f a03c 50b6 753e
00000170: 3640 ac3d 1b82 223e 59b3 a93d 0677 c53d
00000180: d446 a83d 4c45 403e f052 233f c4bb 683e
00000190: 2f25 233e 7bd6 0b3e 02a2 633f 0aa8 663f
000001a0: d121 0a3f 6943 2c3c 6c7f 5d3d 856d 933e
000001b0: e7c9 8a3d 78e6 673e 4f39 113f a1b2 043f
000001c0: 503f 313e e86a 263d 83cd ea3d 9662 3b3e
000001d0: b26b da3e d487 fe3d 4831 e03e e36e 133f
000001e0: 8617 343d fa13 c33d f4a1 f83e a77d 213f
000001f0: 2b1c 513f 254b 4b3e 4f2e 0c3e c319 c83c

fc3.weight f4 [128, 128]
0.0431563 0.043555304 0.0526043 -0.020817265 0.041105248 -0.033869572 0.03651383 -0.06372387
-0.012692466 -0.073917985 -0.08946549 -0.037344214 0.0498982 -0.040633544 -0.009419641 -0.040859967
0.24142133 -0.029164229 0.019849926 -0.016175963 0.07105851 0.21223651 -0.092061825 -0.02418906
-0.06544854 0.08098295 -0.029303085 -0.040226206 0.045292187 0.006139599 0.036295947 -0.07398812
0.049653374 -0.07198017 0.19036473 0.022490812 -0.020134026 0.17837845 -0.05682165 -0.027194079
0.022016216 -0.0018160279 -0.037140865 0.0069454415 0.023522703 -0.07477106 0.04591736 -0.030401811
-0.027142957 -0.015225479 -0.06949867 -0.03361409 -0.030966654 0.014815448 -0.035339806 -0.106170386
0.008286105 -0.07685599 0.27772555 -0.066519566 0.05486069 -0.05016431 -0.030621398 -0.0068788226
-0.060706872 0.0047609815 -0.0048516565 0.043668527 -0.086629756 -0.08945746 0.0079715485 0.023673339
-0.05421185 0.017105822 0.00016058382 -0.0704182 -0.10949137 -0.05221548 -0.07230869 -0.025572106
-0.05579801 0.057156738 -0.010017647 -0.0797112 0.03219884 -0.015726572 -0.04017872 -0.047481682
-0.14947544 -0.0015234606 -0.053971678 0.013613623 0.014624503 0.029839113 -0.0069835526 0.06496613
0.19609994 0.026376797 -0.04107793 0.00029514125 0.12655446 -0.08698546 -0.1254795 -0.061364837
0.06035224 0.013224769 -0.06808553 0.035785507 -0.0031867644 0.06217656 -0.013737021 -0.0009492658
0.0025246087 -0.045224234 -0.0133817475 -0.09284549 -0.009723948 0.11266548 -0.055158217 0.026060134
-0.013938481 -0.030971732 -0.0633947 -0.015777443 -0.015917039 0.015445157 0.03834328 -0.049399182
0.016372895 -0.02837092 -0.013276997 0.065835446 -0.06133336 -0.047939237 -0.01690655 0.07874005
0.016124386 0.00985428 0.012387466 0.08073061 -0.01465481 -0.0050956607 0.041046053 -0.07638681
-0.08593831 0.034218106 -0.03263366 0.028306637 0.05575203 0.014906065 0.04851125 0.040177573
0.061235957 -0.043391656 -0.04678348 0.074467525 -0.085850134 0.07610581 -0.04966325 -0.02359883
-0.08048117 0.06156698 -0.060323846 0.07027941 -0.035563648 -0.045106415 0.074794695 -0.0016106574
-0.047469772 0.08897855 -0.006006602 0.071380846 -0.010771028 0.0005169913 0.076678276 0.08109863
0.048243776 0.043102216 -0.030847078 0.077205606 0.07372887 -0.021895286 0.060270235 -0.0039376793
-0.028339991 -0.045900777 0.017784324 0.006620775 0.07904201 0.05620043 0.06616369 -0.01630587
0.011114841 -0.08176692 -0.040263798 0.014345161 0.06886238 0.010013015 -0.019284574 0.07320748
-0.0075746044 0.054820083 -0.029988382 0.04728128 0.08681086 -0.06267351 0.06513268 -0.02096745
0.07800429 -0.03184616 0.060131043 0.058509864 -0.03872951 0.032326184 -0.050152153 0.062044624
0.009469076 0.03941803 -0.054836404 -0.07844846 0.016453296 -0.008073256 -0.030005595 0.0708486
-0.022454087 -0.067829564 -0.0875099 0.040191595 -0.0034231616 0.02321385 0.023717377 -0.047523662
-0.022542667 -0.015505795 -0.005209422 -0.05523952 -0.028296672 -0.0659284 -0.031584147 0.05207516
0.04710017 0.06908486 0.019379556 0.019536236 0.040163953 -0.06603356 -0.0034958932 0.04493836
0.041017316 0.033904903 0.045509852 0.09029818 -0.016435133 0.084588625 -0.06399868 -0.05849805
00000000: a9c4 303d 0c67 323d 9b77 573d f888 aabc
00000010: fa5d 283d d2ba 0abd 878f 153d a981 82bd
00000020: 10f4 4fbc 5062 97bd af39 b7bd 3ff6 18bd
00000030: 0e62 4c3d 5c6f 26bd d754 1abc c85c 27bd
00000040: 2737 773e d2e9 eebc 509c a23c 7483 84bc
00000050: 2087 913d 8754 593e e98a bcbd 2328 c6bc
00000060: e209 86bd 64da a53d 060d f0bc 3cc4 24bd
00000070: 4d84 393d b02e c93b 0fab 143d 1587 97bd
00000080: 5661 4b3d 576a 93bd f9ee 423e a73e b83c
00000090: 1df0 a4bc d7a8 363e d2bd 68bd 1ec6 debc
000000a0: 5a5b b43c c907 eeba 0521 18bd 9696 e33b
000000b0: afb2 c03c 9221 99bd d713 3c3d 380d f9bc
000000c0: e85a debc 4a74 79bc 5255 8ebd eeae 09bd
000000d0: c8ad fdbc 7ebc 723c 79c0 10bd dc6f d9bd
000000e0: 71c2 073c ac66 9dbd 0b32 8e3e 693b 88bd
000000f0: 9ab5 603d 1779 4dbd bad9 fabc bf67 e1bb
00000100: c5a7 78bd 0202 9c3b a5fa 9ebb c5dd 323d
00000110: f16a b1bd 7935 b7bd 199b 023c 97ee c13c
00000120: 3f0d 5ebd 8221 8c3c 6462 2839 6b37 90bd
00000130: 033d e0bd e6df 55bd 9416 94bd 987c d1bc
00000140: 748c 64bd 2f1d 6a3d 0f21 24bc a03f a3bd
00000150: eee2 033d 03d5 80bc 7192 24bd 277c 42bd
00000160: 1710 19be dbae c7ba 6811 5dbd ac0b 5f3c
00000170: 9d9b 6f3c 2871 f43c 49d6 e4bb f60c 853d
00000180: 6cce 483e 2714 d83c 5541 28bd 30bd 9a39
00000190: 7e97 013e 6f25 b2bd b37d 00be b259 7bbd
000001a0: e933 773d b4ac 583c 6d70 8bbd d393 123d
000001b0: 09d9 50bb d9ac 7e3d 3e11 61bc 26d8 78ba
000001c0: e873 253b 0c3d 39bd 1e3f 5bbc c725 bebd
000001d0: 3251 1fbc 29bd e63d 95ed 61bd 107c d53c
000001e0: 3a5e 64bc 6eb8 fdbc 15d5 81bd b23f 81bc
000001f0: 7364 82bc af0d 7d3c d80d 1d3d cc56 4abd
00000200: 7320 863c 226a e8bc c387 59bc bcd4 863d
00000210: b038 7bbd ef5b 44bd 9b7f 8abc 7742 a13d
00000220: 4a17 843c d973 213c ccf4 4a3c 1756 a53d
00000230: ba1a 70bc 80f9 a6bb e81f 283d b070 9cbd
00000240: 6d00 b0bd 4928 0c3d dfaa 05bd 52e3 e73c
00000250: 3e5c 643d 9138 743c bcb3 463d 3d91 243d
00000260: 8ed2 7a3d 73bb 31bd 09a0 3fbd 6e82 983d
00000270: 32d2 afbd 5ddd 9b3d b16b 4bbd 5552 c1bc
00000280: 50d3 a4bd a82d 7c3d 2316 77bd a7ee 8f3d
00000290: 30ab 11bd 81c1 38bd f62d 993d b21c d3ba
000002a0: aa6f 42bd 633a b63d 08d3 c4bb 1f30 923d
000002b0: f778 30bc b386 073a 8009 9d3d 0a17 a63d
000002c0: 449b 453d f38b 303d 03b3 fcbc f91d 9e3d
000002d0: 29ff 963d be5d b3bc ecdd 763d a607 81bb
000002e0: 4529 e8bc 7402 3cbd 6eb0 913c 16f3 d83b
000002f0: c7e0 a13d 6c32 663d d480 873d e393 85bc
00000300: 061b 363c 6a75 a7bd a7eb 24bd f707 6b3c
00000310: b807 8d3d a10d 243c affa 9dbc ceed 953d
00000320: 6334 f8bb 068b 603d 32aa f5bc 04aa 413d
00000330: e4c9 b13d f85a 80bd 4864 853d eec3 abbc
00000340: b7c0 9f3d 1e71 02bd f84b 763d 0aa8 6f3d
00000350: d6a2 1ebd 7668 043d 586c 4dbd 8122 7e3d
00000360: 2f24 1b3c cd74 213d 239c 60bd 96a9 a0bd
00000370: 10c9 863c b145 04bc 4bce f5bc 1219 913d
00000380: a2f1 b7bc 3aea 8abd 6438 b3bd f19f 243d
00000390: 1f57 60bb f92a be3c f24a c23c 2ca8 42bd
000003a0: 66ab b8bc 050c 7ebc cdb3 aabb d642 62bd
000003b0: 6cce e7bc 7805 87bd 615e 01bd c34c 553d
000003c0: 1cec 403d 5d7c 8d3d e0c1 9e3c 750a a03c
000003d0: f582 243d 9a3c 87bd 5b1b 65bb 4911 383d
000003e0: c601 283d dedf 0a3d 8a68 3a3d 41ee b83d
000003f0: f9a2 86bc cd3c ad3d bd11 83bd a79b 6fbd
