10_Models/Results_Barcelona/WGAN_Congestion_generator_best.pth (torch, 352638 bytes, 20 tensors)

fc1.weight f4 [128, 201]
000000 0e 94 4b be 93 3d 6b be c5 36 18 be db 32 b2 bd
       -0.19880697 -0.22972707 -0.14864643 -0.08701106
000010 c0 7f 7c bd 62 95 81 bd 8a 58 3a bd ae 46 31 bc
       -0.06164527 -0.06327321 -0.045494594 -0.010820074
000020 cd b6 95 3c 35 b8 8c bd 95 33 57 bd f6 c4 28 3c
       0.018275643 -0.06871072 -0.052539427 0.010300865
000030 f8 fd 02 bd f0 49 0d bd 19 08 52 bd 82 6c a4 3c
       -0.031980485 -0.03449434 -0.051277254 0.020071272
000040 8a 61 0d 3c 43 18 b3 bc 68 ad 20 bd 17 d4 92 bd
       0.008629212 -0.021862155 -0.039227873 -0.07169359
000050 fd 4e 2b 3c 75 fc d3 3c af 8f bd 3c 93 4c 10 bc
       0.010455844 0.025877217 0.023139803 -0.008807319
000060 e6 b1 76 3d 58 2f 83 3d f1 1f 84 3d 45 c5 34 3d
       0.06022825 0.064055145 0.06451405 0.044133443
000070 f7 86 8c bd d4 55 91 bd 3e 51 56 3c 36 29 7f bd
       -0.0686168 -0.070964485 0.013080893 -0.06229516
000080 fa ce 39 3d bb d6 18 3d 8e 6b 09 bd 3f 9b a4 bc
       0.045363404 0.037314158 -0.033549838 -0.020093558
000090 93 d1 3d 3c 8e 45 f7 bb a2 cd 64 3d 9d 20 bb 3b
       0.011585611 -0.0075461334 0.05586017 0.005710675
0000a0 d4 7e 91 bd 48 31 47 bd 1d ed 65 bd b2 7d c9 3c
       -0.07104269 -0.048630983 -0.056134332 0.024596069
0000b0 c6 13 1a 3d db f7 2f 3d 75 30 d5 bc 13 34 a0 3c
       0.037616514 0.042960983 -0.026024083 0.01955608
0000c0 91 b1 92 3c d3 05 6b 3d 37 82 73 bc a4 1a 45 3d
       0.017906936 0.0573786 -0.014862589 0.04812111
0000d0 7f 3e 5e bd 24 e6 bd 3c 90 88 d8 bc 91 41 38 bd
       -0.05425882 0.023181029 -0.026432306 -0.044984404
0000e0 72 0e b2 3b 90 67 46 3c bb 41 38 3d c3 59 68 bc
       0.005433851 0.012109652 0.04498456 -0.014181557
0000f0 ed 8c 8f bd 1e f3 c9 bb e2 93 4e 3d c8 73 39 3c
       -0.07009301 -0.006163015 0.050434 0.011319108
000100 d4 bb 90 bd 6b 0b 26 bd 2e ca 97 3c d1 1b 79 3c
       -0.07067075 -0.040538233 0.018529024 0.015204386
000110 e6 f7 36 bd 03 7a 76 3d 98 29 66 bd bf ea 15 3d
       -0.044670008 0.060174953 -0.05619201 0.036600824
000120 fc 6c a7 bc 4c 4f 77 3d 2b 42 16 3d 17 98 3f bd
       -0.02043771 0.060378358 0.036684196 -0.046775904
000130 ba ac 88 bd bb a9 b4 3b a2 62 90 bd 12 a0 08 bd
       -0.0667357 0.0055133975 -0.07050063 -0.03335578
000140 f7 4b 3c 3d c1 c7 7e bd 16 c2 72 bd f2 0a c0 3c
       0.045970883 -0.06220222 -0.059267126 0.02344272
000150 86 29 57 bd 13 5b 88 3d c6 fe d9 bc dd 56 25 3d
       -0.052529834 0.06657996 -0.026610743 0.040366042
000160 9e 63 f4 bc 7b 2f 67 bd 9d 50 92 3c eb 9f 1b bd
       -0.029832657 -0.056441765 0.017860705 -0.037994307
000170 13 a8 7f bd bd 8d 47 3d d0 70 94 bd ec e1 13 bc
       -0.062416147 0.048719157 -0.0724808 -0.009026032
000180 54 cf be 3c 69 f6 47 3d 5d d1 93 3c 0c 18 21 bd
       0.023292221 0.04881898 0.018044168 -0.039329574
000190 68 88 5b 3d 09 af 60 3d 45 dd 45 bd da 11 cc bc
       0.053596884 0.054854427 -0.048306722 -0.024910856
0001a0 27 36 72 3c d7 78 7c bd bf 03 a8 3c 6e 43 1d bd
       0.014783419 -0.06163868 0.020509599 -0.038394384
0001b0 ef f2 55 bb 00 16 93 bd d7 23 b8 3c 7d 5f ac 3b
       -0.003264602 -0.071819305 0.022478027 0.0052604065
0001c0 1a b5 90 bd 1d e0 1a 3b 76 d2 63 bd 87 75 da 3c
       -0.070657924 0.0023632117 -0.055620633 0.02666737
0001d0 09 5c 60 bb aa 84 94 bd 85 fc 90 bd 77 1f a1 bc
       -0.0034234545 -0.07251866 -0.07079414 -0.019668324
0001e0 95 a2 c9 3c 8f fb ab 3a 44 49 5a 3c 88 b9 42 bd
       0.024613658 0.0013121235 0.013323132 -0.047540218
0001f0 a6 a6 9c bd 14 10 a1 bc d3 15 33 bd 2a 96 6a bc
       -0.07648973 -0.019660987 -0.043721985 -0.014318028
000200 b7 0e 59 3d be 12 dc bc de ac 27 3c 49 67 02 bd
       0.05299255 -0.026864406 0.010234086 -0.03183678
000210 64 71 7c 3d 9c 85 d8 3b 73 0c 55 bc 6d 51 49 bd
       0.061631575 0.0066077244 -0.013003456 -0.04914992
000220 a1 63 8c bb 1d f7 39 bd e1 87 b2 bb ba cf a4 3c
       -0.0042843376 -0.04540168 -0.005448327 0.020118583
000230 5c 6b 0e 3c 02 10 59 bd 5c 3d 7e bd c6 b3 9e bd
       0.008692589 -0.052993782 -0.062070236 -0.07749133
000240 2f e3 a1 bd 80 70 8f bd 9f 7e 0c bd 1e 4b ab bc
       -0.0790466 -0.070038795 -0.034300443 -0.020909842
000250 ea 19 86 bd ae 37 3a 3d 0c 23 e0 bc 6f 51 e2 3a
       -0.065479115 0.045463257 -0.027360462 0.0017266701
000260 4e ce 26 3a 92 21 0c bc 86 8d bc bb bd 85 a1 bd
       0.0006363139 -0.008552926 -0.0057541756 -0.07886837
000270 a9 ce 4c bd 4e 7f 9f bd 9f cd 80 bc 14 48 94 bd
       -0.050001774 -0.07787953 -0.015723048 -0.0724031
000280 f1 16 8e 3c 17 d5 ae bd 03 90 9a bc 6a 1e 01 3d
       0.017344924 -0.085367374 -0.018867498 0.031523146
000290 27 91 27 3a 66 ca f5 3c 0e 2a 6c 3d 10 4a 59 bd
       0.0006392174 0.030003738 0.057657294 -0.053049147
0002a0 39 b7 80 3d 58 78 1e 3d 3a b7 5c bd 7e 9f 3c bd
       0.06284947 0.038688987 -0.053885676 -0.04605054
0002b0 52 85 17 bd 26 28 8a bd 4b 43 be bb 5e 35 a9 3c
       -0.03699238 -0.06745939 -0.005806362 0.02065533
0002c0 93 7f 7f bd a3 36 33 3d e1 17 39 3d 68 7e 45 3d
       -0.062377524 0.043753278 0.04518879 0.048216254
0002d0 9c da 5a 3d 9e 76 c6 3c c8 89 2a 3d 76 0c ab bc
       0.05343114 0.024226483 0.041635305 -0.020879965
0002e0 b1 87 2c bd 69 2d 06 bd b3 ef 2f bd c1 ec 01 bc
       -0.042121593 -0.03275815 -0.042953204 -0.007929982
0002f0 c3 6d 2d bd 54 4d ac bc 28 fb 4d 3c 5e 37 f2 bb
       -0.042341005 -0.021032967 0.012572087 -0.007391854
000300 5f 92 93 3d 3c 1c 84 3d a2 7b c7 bc 5c 74 f1 bc
       0.072056524 0.06450698 -0.024350945 -0.02947443
000310 aa ff d2 bb 9d f9 90 bc a2 6d 15 bd 07 34 91 3d
       -0.006439169 -0.01769715 -0.036481507 0.070900016
000320 e6 0c 17 bd 20 62 f0 bd 56 92 de bd 52 e4 84 bd
       -0.036877535 -0.11737466 -0.10867755 -0.06488861
000330 5d f3 87 bd b3 3f 4d bd 54 19 7f bd 23 38 84 bc
       -0.06638215 -0.050109576 -0.062280014 -0.01614005
000340 e4 7e 7d bd d2 aa d6 bc 19 be 60 3d 4a 00 71 bd
       -0.06188859 -0.0262045 0.05486879 -0.058838166
000350 38 3f 44 3b 67 37 7d bd 51 2b 08 3d 60 c8 6b bc
       0.0029944908 -0.061820414 0.033244435 -0.014391035
000360 28 a1 01 3d 80 2b ab bc 83 cf 31 bd d4 18 af bc
       0.03164783 -0.020894766 -0.04341079 -0.021374144
000370 2f 8f 4e 3d f6 ab 21 bd 20 d1 6b 3c 47 5e 2f bd
       0.05042952 -0.039470635 0.014393121 -0.04281452
000380 2a da 49 bd b6 5e 86 3d cb e7 92 bc fb 36 06 3d
       -0.049280323 0.065610334 -0.017932793 0.032767277
000390 b6 9b e2 3a 44 b1 03 3d 7b 3e 8f bd 11 be fd 3c
       0.0017288837 0.032151476 -0.06994339 0.03097442
0003a0 b6 fb 61 3c c4 27 3d bd e7 57 38 bd 13 3a 37 bc
       0.013792923 -0.0461805 -0.045005705 -0.01118328
0003b0 d3 63 95 bc 79 9b 61 bd 44 ac 58 bd 29 f4 79 3d
       -0.018236076 -0.05507991 -0.05289866 0.061023865
0003c0 8f 5c 51 bd 18 40 2e 3c 6a bd 02 bd 32 3c 40 3d
       -0.05111366 0.010635398 -0.03191892 0.046932407
0003d0 06 32 2d 3d c1 01 54 3d 89 38 87 3d 70 5f 80 bd
       0.042284034 0.051759485 0.0660258 -0.06268203
0003e0 29 8f 58 bd 4f 82 fc bb 4c f4 35 3d 30 41 15 bd
       -0.052870903 -0.0077059637 0.044422433 -0.03643912
0003f0 c7 19 e1 3b 9f 02 84 3d 5a f3 60 3d b1 18 c6 3c
       0.006869528 0.064458124 0.054919578 0.024181696

fc1.bias f4 [128]
000000 18 8d 98 bc 18 fd 22 bd 66 6e 5f bd 4a 45 03 bd
       -0.018621966 -0.03979215 -0.054548644 -0.0320485
000010 be 7a f8 bc 6d de 81 bc 62 39 5e bd 4f 78 1a bc
       -0.030331966 -0.015853131 -0.054253943 -0.009428098
000020 eb 07 a0 3c d0 90 65 bd 8b 19 d4 bc 0a 6b 70 bd
       0.019535026 -0.056046307 -0.025891086 -0.05869583
000030 3f 74 3e 3d fa 03 98 3a 4b ca 86 3d 4f a6 64 bd
       0.04649758 0.0011597865 0.06581553 -0.055822667
000040 1d 56 6d bd af a4 69 bd 80 6c c3 3a 3c 1e 90 3c
       -0.057943452 -0.05704182 0.0014909655 0.017592542
000050 59 54 55 3d 5f cc 28 3d 81 ee ad 3c 66 c0 cb bc
       0.052082393 0.04121053 0.021231892 -0.024872016
000060 9c 52 8a 3c 4d 48 8e 3d e9 47 12 3c d9 29 7a 3d
       0.016885094 0.06947384 0.0089282775 0.061075065
000070 5b 12 e6 bb c4 39 e5 3c 11 30 2c bd c4 ba 45 3d
       -0.007021231 0.027981646 -0.042038027 0.048273817
000080 bf b9 63 3b a6 6f 3d bd 45 54 6d bc ae 38 35 bd
       0.0034748164 -0.046249054 -0.014485423 -0.044243507
000090 eb 7e 2d bc cc cf 19 bd 8a fc 82 3d 1a 2e 47 bd
       -0.010589342 -0.037551686 0.06395824 -0.04862795
0000a0 d3 aa 8d 3d 54 a9 22 bd f5 e8 25 bd 59 19 72 3c
       0.06917348 -0.039712265 -0.04050537 0.014776551
0000b0 a0 9a 0a bd 74 56 98 3c 2c ad 8f 3d ff e1 01 bd
       -0.03383887 0.018595912 0.07015452 -0.031709667
0000c0 d8 fc d1 3c 28 ac a0 bc 2b 1b 33 bd 7b 5b 64 bd
       0.02563326 -0.01961334 -0.04372708 -0.055751305
0000d0 8a 8f db bc fb dc 8c bd 46 bc 53 bd a8 b0 70 3c
       -0.026801843 -0.06878086 -0.051693223 0.014690556
0000e0 65 cc 29 3d 2c aa 55 3d 77 5f 85 3d 13 ac 2c 3d
       0.04145469 0.05216424 0.06512349 0.04215629
0000f0 de 53 8a bd 7f 38 6f 3d f9 3d 0a 3d 31 ff 85 3d
       -0.06754278 0.05840349 0.033750508 0.065428145
000100 ec 02 1a 3c c3 e2 0b 3a e9 51 57 3d 94 af 00 bc
       0.009400111 0.00053362193 0.05256835 -0.007854361
000110 12 41 4b 3c 28 3d 35 3c ef 1c a1 3c 70 49 19 bd
       0.012405651 0.011061944 0.019667117 -0.03742355
000120 f2 55 5d 3d 18 4e f2 3c b8 b2 6e 3d f0 37 88 3c
       0.054037042 0.029578254 0.05827591 0.016628236
000130 70 e9 c2 bc 54 6d 0c 3c 7d 42 19 3d 50 15 08 bd
       -0.023792952 0.008570988 0.037416924 -0.03322345
000140 b4 1f 62 3d 7c 7a 5b 3a 4b c9 84 3d fc 68 85 3d
       0.055206016 0.00083724386 0.06483706 0.06514165
000150 a7 d2 19 3d 17 b5 51 3d 43 b2 29 bd af ee 88 bd
       0.03755441 0.05119809 -0.04142977 -0.0668615
000160 7f f7 f5 3c 85 7d a1 3c 11 d4 85 3d cb b1 8e 3b
       0.030025242 0.019713173 0.06534589 0.0043546907
000170 c1 57 4c 3d df dc 87 bc 6c 2f 29 3d 9b 40 27 3c
       0.049888376 -0.016584812 0.04130499 0.010208274
000180 b3 b9 82 3c e9 8c a3 3c 6b 0b c1 3c bd 51 79 bd
       0.015957689 0.019964652 0.023565015 -0.060868967
000190 61 c4 d1 3c b3 6a 6d bc 83 10 e0 bc 5d 5e b9 3c
       0.025606336 -0.014490771 -0.027351623 0.022628004
0001a0 71 15 bf bc ab 0b 51 bd 3f 92 8a bd fa 2c b8 bc
       -0.023325654 -0.051036518 -0.067661755 -0.022482384
0001b0 6d 8b 5a bd b7 a0 2c 3d a8 3c 3c 3b fa 00 03 bd
       -0.053355623 0.042145457 0.0028722677 -0.031983353
0001c0 4e e9 1a bd 0d 92 f2 3b eb e9 43 bd 60 d9 03 3d
       -0.037820153 0.0074026645 -0.047830503 0.032189727
0001d0 6e 19 42 3d 47 fa 81 bd 9f c3 e9 bc ad e8 78 bd
       0.047387533 -0.06346565 -0.028535662 -0.060768772
0001e0 a1 f2 7d bd e4 fb 54 bd 7a 80 63 3d b1 f8 24 bc
       -0.061998967 -0.051998034 0.055542447 -0.010069058
0001f0 af 65 d7 3c b0 36 a4 bc 20 67 02 3d f8 59 30 bb
       0.026293604 -0.020045608 0.03183663 -0.0026909094

bn1.weight f4 [128]
000000 5f e1 80 3f 7e a0 80 3f b6 40 82 3f 4f 8f 7e 3f
       1.0068778 1.0048978 1.0175998 0.9943742
000010 44 08 7c 3f 65 87 80 3f 75 e1 7c 3f 62 75 81 3f
       0.9845011 1.0041319 0.9878152 1.0113947
000020 42 15 7e 3f 91 4d 80 3f ad b6 7f 3f b3 6c 81 3f
       0.99251187 1.0023671 0.99888116 1.0111297
000030 c1 03 80 3f a3 84 7d 3f 12 33 83 3f 59 7b 81 3f
       1.0001146 0.9903051 1.024996 1.0115768
000040 e3 78 7e 3f d6 cc 7e 3f 3f 77 82 3f 13 10 7f 3f
       0.9940321 0.99531305 1.0192641 0.996339
000050 9c 3a 81 3f 20 9e 81 3f 01 52 7b 3f c0 43 81 3f
       1.0096011 1.0126381 0.98172003 1.0098801
000060 3e e1 7f 3f 26 39 80 3f e2 d5 80 3f b4 dd 80 3f
       0.9995307 1.001744 1.0065272 1.0067658
000070 dd 84 80 3f 35 9e 7f 3f cb c5 7f 3f e8 89 80 3f
       1.0040547 0.9985078 0.99911183 1.0042086
000080 54 61 80 3f 95 16 7a 3f 76 8d 82 3f a4 25 7f 3f
       1.0029702 0.9769071 1.019942 0.9966681
000090 b6 4c 80 3f da 96 80 3f e9 77 7c 3f 1d 92 80 3f
       1.002341 1.0046036 0.9862047 1.004459
0000a0 8b eb 81 3f c0 e7 7e 3f de 92 7f 3f 84 5c 81 3f
       1.0150007 0.9957237 0.99833477 1.0106359
0000b0 aa 52 82 3f f0 85 80 3f 22 f8 7b 3f c0 34 80 3f
       1.0181477 1.0040874 0.98425496 1.0016098
0000c0 61 d4 81 3f ef 85 81 3f af 80 81 3f de d6 81 3f
       1.0142938 1.0118998 1.0117396 1.0143697
0000d0 cb 97 7e 3f 96 98 7f 3f 4c 7c 7f 3f 26 8f 7f 3f
       0.9945037 0.998422 0.99799037 0.998278
0000e0 a1 02 83 3f 00 5f 7e 3f 86 74 7e 3f f9 23 7e 3f
       1.0235177 0.9936371 0.9939655 0.9927364
0000f0 51 05 81 3f 55 a3 80 3f a6 4e 7e 3f b5 fc 7e 3f
       1.0079747 1.0049845 0.9933876 0.9960435
000100 ee 2a 83 3f 9d 0a 82 3f 8c cb 80 3f c8 a0 80 3f
       1.0247476 1.0159489 1.0062118 1.0049067
000110 48 dd 80 3f 1f fc 7d 3f 4b 72 7f 3f f3 59 7f 3f
       1.006753 0.9921283 0.9978377 0.99746627
000120 d2 6e 80 3f 2b 8a 7e 3f 6d 0a 80 3f c8 07 80 3f
       1.003382 0.9942958 1.0003182 1.0002375
000130 14 fe 7f 3f 09 65 80 3f a0 d1 7f 3f cf f3 81 3f
       0.9999707 1.0030833 0.9992924 1.015253
000140 20 1b 81 3f 82 4c 7f 3f b3 83 81 3f 24 66 7d 3f
       1.0086403 0.99726117 1.0118316 0.9898398
000150 6b b9 7a 3f 69 fe 81 3f 9d 19 80 3f 52 36 80 3f
       0.97939175 1.0155765 1.0007817 1.0016577
000160 42 58 80 3f e8 cc 7e 3f 3a a0 7e 3f 80 82 7a 3f
       1.0026934 0.9953141 0.99463236 0.9785538
000170 53 e5 7f 3f 67 d3 83 3f 75 ef 81 3f 68 7f 80 3f
       0.99959296 1.029889 1.0151201 1.0038881
000180 ac 7b 82 3f 53 ec 80 3f d1 bc 80 3f d2 43 7e 3f
       1.0193992 1.007212 1.0057622 0.99322236
000190 da 9e 7c 3f f9 c0 7f 3f f8 9f 7b 3f c8 15 80 3f
       0.9867989 0.9990383 0.9829097 1.0006647
0001a0 0e 7b 7f 3f ed 8c 80 3f 2e e4 7e 3f 96 40 80 3f
       0.9979714 1.0043007 0.99566925 1.001971
0001b0 f3 d9 80 3f 0c cc 7e 3f df a0 7b 3f 52 b8 7b 3f
       1.0066513 0.995301 0.98292345 0.98328125
0001c0 7c 7b 81 3f a6 e7 7e 3f a7 ef 7c 3f 33 1a 81 3f
       1.011581 0.9957222 0.9880318 1.008612
0001d0 1a 07 81 3f 32 45 80 3f de a2 7d 3f db 1a 81 3f
       1.0080292 1.0021117 0.9907664 1.0086321
0001e0 84 72 7e 3f ea b3 80 3f 8c da 7a 3f 2d b9 78 3f
       0.99393487 1.0054905 0.97989726 0.97157556
0001f0 ac 73 7d 3f 70 af 7c 3f 9f 7c 80 3f b8 be 82 3f
       0.99004626 0.98705196 1.0038031 1.0214453

bn1.bias f4 [128]
000000 8b cb c2 3b 9f 0a 82 3b dc c7 9d 3c ab dc f7 39
       0.0059446744 0.0039685513 0.01926034 0.00047275922
000010 a7 4a 9c bc 42 3f c7 3b 44 63 32 bc 5f 15 0b bc
       -0.019078566 0.006080539 -0.010887925 -0.008488982
000020 c2 b6 27 3c fb f1 ab 3b 63 6b b6 39 40 f9 84 3c
       0.010236444 0.005247352 0.00034793754 0.016232133
000030 7a 1b 32 3c 0d b3 b0 bb ca 28 e8 3c ee 7b 23 3c
       0.010870809 -0.0053924383 0.028339762 0.009978278
000040 a6 31 36 bc 66 07 36 ba 2c 58 60 3c 86 ca f4 3a
       -0.011120236 -0.00069438515 0.013692897 0.0018676079
000050 a6 3a e0 bb 89 c1 7c 3c e4 5f 21 3b 32 dc 1d bb
       -0.006842929 0.015427002 0.0024623806 -0.0024087545
000060 af 2f b9 3a 9e 95 1b 3c dd c6 87 39 91 fd 44 3a
       0.0014128591 0.009496121 0.0002589737 0.0007514591
000070 b6 97 1e 3c 3e 2d 54 3b be 1b e0 bb 8b 6c 0a 3c
       0.009679725 0.00323756 -0.0068392446 0.00844873
000080 2e 3f 47 bb 20 fb 5a bc aa ce 04 3c 09 4a 72 3b
       -0.0030402648 -0.013365537 0.008105913 0.0036970398
000090 9a 5e 22 3b ff 26 93 3b 05 9c 6d bc 8e 33 06 3c
       0.0024775625 0.0044907327 -0.01450253 0.0081910025
0000a0 f1 d8 b0 3c 32 ac 1f bb 80 7b 0b 3b 89 35 d6 bb
       0.02158782 -0.002436411 0.0021283329 -0.0065371436
0000b0 10 99 ab 3c fd e8 19 3c 55 ca 4f bc 95 cf 07 3c
       0.02094701 0.009393928 -0.012682517 0.0082892375
0000c0 3c e4 a7 3c d9 76 26 3c 5d 94 3c 3c 70 c7 90 3c
       0.020494573 0.010160171 0.011509982 0.017673224
0000d0 23 6b 67 3b f2 a5 e6 3b 8a 38 08 3b 2f 41 ea 3b
       0.0035311661 0.007038825 0.0020785653 0.007148884
0000e0 97 33 e9 3c 81 93 c9 bb 2d 99 01 bc 79 cd b2 bb
       0.028466983 -0.006151617 -0.007910055 -0.005456623
0000f0 24 bf 04 3c a1 e3 c0 3b 36 74 7c 3b 6f 1f 34 ba
       0.008102212 0.0058865105 0.0038521416 -0.0006871139
000100 93 d4 f8 3c 88 dc 7e 3c 69 a5 18 bb 97 53 18 bc
       0.0303748 0.015555508 -0.0023291952 -0.009297273
000110 26 b1 02 3c aa b8 04 3c bb a8 87 3a da 3a d3 3a
       0.007976806 0.008100668 0.0010349968 0.0016115562
000120 a9 3b 81 3b e8 2f 49 bb bc 33 93 3a 7d 43 b6 3b
       0.0039438796 -0.003069872 0.0011230628 0.0055622444
000130 80 e7 db ba c2 0b 5d 3a af 7f be 3b 38 bb 44 3c
       -0.0016777366 0.0008432233 0.005813561 0.012007527
000140 51 be 0b 3c f3 dd 6e bb 4a 02 5f 3c a6 bf 41 3b
       0.008529262 -0.003644821 0.013611386 0.0029563694
000150 af 0d f2 bb 90 aa 0d 3c f0 f8 8c ba 54 fe 21 3c
       -0.007386885 0.008646622 -0.0010755342 0.009887297
000160 d8 27 00 38 49 fd c2 3a 6b f9 2f bb bc 7e 8e bc
       3.0554686e-05 0.001487651 -0.0026851546 -0.017394416
000170 3e b4 c8 3b 1d e7 ee 3c ed 31 42 3c fd 94 35 3c
       0.006125002 0.029162938 0.011852724 0.011082885
000180 66 3d b4 3c 97 26 13 3c 1a c2 af 3b bd 07 77 bb
       0.022001933 0.0089813685 0.005363715 -0.0037693821
000190 f3 84 61 bb d9 eb ef 3a 89 30 b0 bc 22 b9 8a ba
       -0.003441152 0.0018304541 -0.021507518 -0.0010583738
0001a0 30 f2 b5 3b 9c 16 b1 b9 b6 0a 15 b8 5c 9d ee 3b
       0.0055525526 -0.00033776916 -3.5534344e-05 0.0072819423
0001b0 c0 15 72 3c 47 db 05 3a d1 79 b3 bc 3b b6 db bb
       0.014775693 0.0005106222 -0.021908673 -0.006705073
0001c0 b0 dc b1 bb 72 89 ab 3b 76 38 1f bc 7d 40 a5 3b
       -0.0054279193 0.0052348906 -0.009718051 0.005043088
0001d0 0f 7e e7 bb c7 3f 15 bb 43 85 2e 3c d3 a0 2c 3b
       -0.007064588 -0.002277361 0.010651889 0.0026340976
0001e0 00 31 c2 3a 4f 92 8c 3a d6 e7 2a bc d0 36 e2 bb
       0.0014815629 0.0010724756 -0.010431251 -0.006903507
0001f0 de 8e 01 bc a5 d3 2f bb c9 eb e6 3b cb 72 a9 3c
       -0.007907597 -0.002682903 0.0070471507 0.02068462

bn1.running_mean f4 [128]
000000 96 b8 50 c8 35 32 00 c7 a0 c7 e4 46 b5 a6 5b c7
       -213730.34 -32818.207 29283.812 -56230.707
000010 65 5b 93 c6 64 b0 a3 46 17 10 c3 c7 c9 4a b8 45
       -18861.697 20952.195 -99872.18 5897.348
000020 5c 3f 81 c8 8c ff 97 c7 1a b6 53 c7 1c 18 c3 45
       -264698.88 -77823.09 -54198.1 6243.0137
000030 be 0c bb 47 c6 49 84 c7 4f 36 ab c7 dc 5a bc c7
       95769.484 -67731.55 -87660.62 -96437.72
000040 16 bb 48 48 ab 19 21 48 53 94 24 c8 90 ec f2 c7
       205548.34 164966.67 -168529.3 -124377.125
000050 93 4c 2b 46 17 02 ca c6 2c 76 3c c7 73 b5 b5 c7
       10963.144 -25857.045 -48246.17 -93034.9
000060 b8 70 4f 48 82 d3 a8 c8 1e d4 7b 46 8a 5d 21 45
       212418.88 -345756.06 16117.029 2581.8462
000070 b7 55 73 c7 8b 26 42 48 f4 ed 9d c7 12 8b 75 48
       -62293.715 198810.17 -80859.91 251436.28
000080 c9 00 0d 48 d4 73 a0 c6 f6 f7 30 c4 f6 19 41 c7
       144387.14 -20537.914 -707.8744 -49433.96
000090 7c 59 cc c7 4a 9f 51 48 42 5b 1d c7 76 7a 9b c8
       -104626.97 214653.16 -40283.258 -318419.7
0000a0 f4 38 65 c5 a7 4d 2e c8 31 a0 8a c8 43 b7 98 c6
       -3667.5596 -178486.61 -283905.53 -19547.63
0000b0 e8 a6 04 c6 7f 7d a3 47 dd 8c f5 c7 f3 68 38 48
       -8489.727 83706.99 -125721.73 188835.8
0000c0 f5 b4 0f c7 bc 12 98 c8 e9 77 12 46 21 96 ae c6
       -36788.957 -311445.88 9373.978 -22347.064
0000d0 83 0d 5f c8 c8 c0 8a c6 94 17 fe c6 6b 84 2e 48
       -228406.05 -17760.39 -32523.79 178705.67
0000e0 c5 04 98 c7 3e 0a c0 c5 2e 4e 65 47 83 4b 03 c8
       -77833.54 -6145.2803 58702.18 -134446.05
0000f0 c7 87 32 c7 9e ad 43 c6 fb 25 9f c7 be f2 61 48
       -45703.777 -12523.404 -81483.96 231370.97
000100 58 b8 1f 48 89 61 a7 c8 a5 38 8b c6 8c b4 2b 46
       163553.38 -342796.28 -17820.322 10989.137
000110 6d a4 2c 47 c4 27 a2 c7 67 9c 3d 48 63 d4 10 48
       44196.426 -83023.53 194161.61 148305.55
000120 0e d8 24 48 2f 7e 3f 48 78 3e 46 c6 2a a9 0e 48
       168800.22 196088.73 -12687.617 146084.66
000130 8d 94 81 48 c4 a9 a8 c7 92 94 64 48 25 b7 8f c6
       265380.4 -86355.53 234066.28 -18395.572
000140 90 03 01 c9 a5 76 fe c6 cf d3 1f c8 d2 fc fb 47
       -528441.0 -32571.322 -163663.23 129017.64
000150 78 51 a0 c6 05 d7 10 48 54 9a e3 c6 d1 0a 8c c7
       -20520.734 148316.08 -29133.164 -71701.63
000160 ee bc 87 c7 38 25 92 47 ee b7 9c 47 16 94 e1 c6
       -69497.86 74826.44 80239.86 -28874.043
000170 74 42 2f 48 f8 7c 23 c7 9d b1 36 c8 9a 38 4b 48
       179465.81 -41852.97 -187078.45 208098.4
000180 0c f4 a5 c6 76 c3 d6 c7 1f 21 b5 c7 40 72 80 c7
       -21242.023 -109958.92 -92738.24 -65764.5
000190 d6 9b bd 47 5e b0 4c 48 0b d8 f9 43 57 36 3a c8
       97079.67 209601.47 499.68784 -190681.36
0001a0 d5 ec ba c7 85 e1 73 c6 85 3b 9c 47 c8 ec 8e 48
       -95705.664 -15608.38 79991.04 292710.25
0001b0 3c 9e d7 47 d9 f5 92 c7 fb 39 8c c5 c2 d8 41 c8
       110396.47 -75243.695 -4487.2476 -198499.03
0001c0 61 c8 1e c8 d7 73 28 c8 84 37 d4 c7 60 6c 14 c8
       -162593.52 -172495.36 -108655.03 -151985.5
0001d0 16 a0 d3 c6 94 dd 09 c7 85 be a0 c6 a5 a0 f2 c7
       -27088.043 -35293.58 -20575.26 -124225.29
0001e0 f2 fd 0f 47 a2 c6 3d 48 d5 0c 5e 48 82 a3 41 c7
       36861.945 194330.53 227379.33 -49571.508
0001f0 6c b3 ab c6 f3 ac 83 c8 f7 98 1e c8 90 9f 73 c6
       -21977.71 -269671.6 -162403.86 -15591.891

bn1.running_var f4 [128]
000000 2c 6a 98 52 38 a6 08 50 80 ee e8 4f cb 2a d5 50
       3.2730815e+11 9.170379e+09 7.815889e+09 2.8610812e+10
000010 78 62 a9 4f 76 4a db 4f 3b 70 c2 51 13 a1 e3 4e
       5.6836055e+09 7.3581804e+09 1.0438832e+11 1.9094921e+09
000020 f6 14 e3 52 1c 13 2d 51 34 da a2 50 fe ad 89 4f
       4.8765462e+11 4.645937e+10 2.1857673e+10 4.6197627e+09
000030 88 b7 5a 51 90 32 fe 50 0a 2f 3c 51 ca c4 78 51
       5.8711376e+10 3.4117812e+10 5.051519e+10 6.677834e+10
000040 6b 9c 89 52 1d 31 43 52 d3 62 35 52 a3 d1 11 52
       2.955174e+11 2.0958565e+11 1.9476177e+11 1.5657184e+11
000050 1d 7f 39 4f 07 79 b8 4f d6 0c 9e 50 95 3c 73 51
       3.1121155e+09 6.189879e+09 2.121313e+10 6.529334e+10
000060 74 89 97 52 4d 7a 43 53 7f ea 93 50 9d 92 d1 4f
       3.2542307e+11 8.395705e+11 1.985295e+10 7.032093e+09
000070 45 54 da 50 e8 6e 84 52 f6 80 38 51 b0 2d c2 52
       2.9303646e+10 2.843982e+11 4.952735e+10 4.1699508e+11
000080 09 6d 01 52 00 76 34 50 fb d1 07 4f 69 60 83 50
       1.3897002e+11 1.2110529e+10 2.2786854e+09 1.763307e+10
000090 f3 68 ab 51 cf ef 92 52 a6 f6 de 50 57 c4 29 53
       9.202502e+10 3.1554427e+11 2.992565e+10 7.291435e+11
0000a0 7d 0d 01 4f 0a 64 52 52 ee 12 08 53 f6 98 86 4f
       2.1651448e+09 2.2590538e+11 5.8443314e+11 4.516343e+09
0000b0 0a 22 53 4f f5 a3 27 51 d1 8c e4 51 a5 36 61 52
       3.5422234e+09 4.5000643e+10 1.2270188e+11 2.418211e+11
0000c0 a1 06 f7 4f b7 75 28 53 5c 69 ab 4f 09 72 a7 4f
       8.2888136e+09 7.2352943e+11 5.7516175e+09 5.618537e+09
0000d0 33 70 c4 52 e5 ad 8c 4f bf 3a 75 50 7c 1b 47 52
       4.21848e+11 4.720413e+09 1.6457072e+10 2.137899e+11
0000e0 bd 54 11 51 8f a0 2e 4f 58 8e ed 50 05 b3 00 52
       3.9011996e+10 2.929758e+09 3.188423e+10 1.3818982e+11
0000f0 dd e5 5a 50 46 46 06 4f bb 97 83 51 35 8b b0 52
       1.468999e+10 2.2527524e+09 7.064829e+10 3.7912488e+11
000100 2e 58 26 52 05 f0 3c 53 69 d1 fb 4f e3 42 33 4f
       1.78611e+11 8.114807e+11 8.44961e+09 3.0075052e+09
000110 9e b9 5f 50 36 23 3d 51 88 f9 80 52 11 06 05 52
       1.5013935e+10 5.0771223e+10 2.7697113e+11 1.428331e+11
000120 fb 99 4d 52 c9 12 88 52 10 e3 14 50 6c 3c 09 52
       2.2076291e+11 2.9221536e+11 9.991635e+09 1.4735606e+11
000130 8e 31 e0 52 1b c6 3e 51 34 4d ae 52 29 f2 cb 4f
       4.8145203e+11 5.1210465e+10 3.7430978e+11 6.84329e+09
000140 48 70 e9 53 4e 87 51 50 a1 3d 28 52 29 64 cd 51
       2.0052223e+12 1.4061222e+10 1.8064712e+11 1.1026859e+11
000150 13 aa 9d 4f 7d 9e 23 52 dd 48 38 50 d2 e2 00 51
       5.290338e+09 1.7568467e+11 1.2367132e+10 3.4597577e+10
000160 ce 75 f2 50 26 5a 20 51 c1 46 33 51 60 7e 9f 50
       3.2542454e+10 4.30442e+10 4.8124137e+10 2.1406876e+10
000170 cd 30 4a 52 a9 da 23 50 a9 2e 57 52 3f 49 87 52
       2.1710053e+11 1.0996065e+10 2.310502e+11 2.9052473e+11
000180 3e f2 97 4f 9f 07 a1 51 67 a2 59 51 79 12 ed 50
       5.0984704e+09 8.64522e+10 5.8420785e+10 3.1819287e+10
000190 96 8e 7a 51 5d b4 97 52 05 1c b5 50 c1 9f 70 52
       6.7258376e+10 3.2578303e+11 2.43081e+10 2.583681e+11
0001a0 b6 c9 5f 51 28 82 90 4f 33 e3 42 51 03 3f 0b 53
       6.0072616e+10 4.848898e+09 5.2314714e+10 5.980576e+11
0001b0 32 62 c0 51 72 3e 6b 51 7a d3 61 4f d0 3b ae 52
       1.03285146e+11 6.314781e+10 3.788733e+09 3.741639e+11
0001c0 0d db 2b 52 b4 6f 73 52 aa 5f a0 51 49 41 31 52
       1.8452862e+11 2.6138778e+11 8.609997e+10 1.9032613e+11
0001d0 86 37 b3 4f 80 cf 0f 50 02 4e 06 50 58 fd c2 51
       6.013521e+09 9.650962e+09 9.013037e+09 1.0468426e+11
0001e0 cf dd 1e 50 a3 be 80 52 49 19 aa 52 63 00 b0 50
       1.0661346e+10 2.764771e+11 3.6528433e+11 2.3622523e+10
0001f0 4c 87 cc 50 59 5a f7 52 2f 14 34 52 e2 03 07 4f
       2.7451351e+10 5.3118635e+11 1.9335818e+11 2.2651786e+09

fc2.weight f4 [128, 128]
000000 dc 2e be 3d d5 8b 3c bd 4f 7b 56 bd 90 7b 39 bd
       0.092862815 -0.04603179 -0.05236369 -0.045283854
000010 3c 74 16 bd 40 be 3d bd 86 b3 85 3d c9 3a 94 3d
       -0.036731943 -0.046324015 0.06528382 0.07237775
000020 a6 46 46 3d 25 69 58 3d 52 1b 7c 3d 56 96 ed bc
       0.04840722 0.05283465 0.061549492 -0.02900235
000030 36 be ad 3c 48 71 3b bc 9a 21 b5 bc 03 da 84 bc
       0.021208864 -0.011440583 -0.022110749 -0.016217237
000040 10 0a b3 3d a3 5f 1b 3d 7a 69 34 3c 3c c6 33 3d
       0.08742154 0.037933003 0.011011476 0.043890223
000050 79 8c 2b bd d0 8c 19 bd 0b af 26 3d 01 c1 35 bd
       -0.041882012 -0.037487805 0.040694278 -0.044373516
000060 54 72 36 3d f7 b5 1b bd d6 63 9f bd 0c 92 e8 bc
       0.044542626 -0.038015332 -0.07782714 -0.028389953
000070 12 b0 73 3d 84 38 33 3d 82 ed 6b bd bb 93 95 bd
       0.059494086 0.04375507 -0.057599552 -0.07303568
000080 07 4a 86 bd 9d e7 7d bc ad 2c 6b bd 2f 66 3f bd
       -0.06557088 -0.015497115 -0.057415653 -0.04672831
000090 26 41 88 bd fa 86 4e 3d e7 68 8a 3d fb 18 80 3d
       -0.06653051 0.050421692 0.0675829 0.06254765
0000a0 7a e2 bf 3d 7b dd 9e 3d cb 3c 62 3c d3 7e 89 bd
       0.09369369 0.07757088 0.0138084395 -0.06713643
0000b0 db d8 90 bd 6f a5 76 3d 82 1f d9 3b 4d fe 9d bd
       -0.07072612 0.060216364 0.0066260705 -0.0771452
0000c0 ea 7b b3 bc 7f 92 c1 3d e0 5b a2 3c 86 75 58 3a
       -0.021909673 0.0945177 0.0198192 0.00082572585
0000d0 cd dc 8d bd 8b 67 e1 ba 27 55 18 3c 05 a7 a7 3d
       -0.0692688 -0.0017196996 0.009297646 0.08186153
0000e0 fe 53 b3 3d 09 bb db 3c 15 cc 6b 3d b8 24 3d 3d
       0.087562546 0.026822584 0.057567675 0.046177596
0000f0 be 3c 59 3d e7 98 ac 3c 7a 98 4b bd fb 7b 90 3d
       0.053036444 0.021069003 -0.04970596 0.070548974
000100 1f 23 2b bd 73 b4 4b 3d e8 3d 78 3b 02 fe 5f bd
       -0.04178154 0.049732637 0.0037878696 -0.0546856
000110 1b 9c 5f ba 05 92 4b 3d 50 3a 41 bd 62 c3 0c 3d
       -0.00085300364 0.049699802 -0.04717475 0.03436602
000120 2f f5 94 bd b9 a5 8e 3d 25 9c a7 3c a2 ad 2c bd
       -0.072733276 0.06965203 0.020460198 -0.042157777
000130 b8 20 ac bd 91 34 e5 3d 2b 65 7c bd d6 0c be 3b
       -0.08404678 0.11191667 -0.06161992 0.00579987
000140 e2 ee 94 3d 19 f2 ef ba 10 74 79 bd 1b 8d 55 bc
       0.07272126 -0.0018306404 -0.0609017 -0.01303413
000150 fa 53 7c 3d 18 05 91 bd 12 3c 99 3d ca 50 68 3d
       0.061603524 -0.0708105 0.07482161 0.05671767
000160 1e ea bf 3d a0 d6 20 bc 11 96 80 bd 1e fe 95 bd
       0.09370826 -0.009816796 -0.06278623 -0.0732386
000170 0d 23 7d 3d f0 54 0d bd b4 19 99 3c af 74 93 bd
       0.061801005 -0.03450483 0.018689014 -0.0719999
000180 88 56 b3 3d e4 a8 c6 3d e4 fe 21 bc e5 ae 9c 3d
       0.08756739 0.09700182 -0.009887431 0.07650546
000190 0b e0 48 3b 0f bd 77 bd 39 d5 29 3d fb ee 84 bd
       0.0030651118 -0.060483035 0.04146311 -0.064908944
0001a0 74 34 4c bc ae 0c 8c 3d 08 86 92 3d b9 ca b0 bc
       -0.012463678 0.06838356 0.07154471 -0.02158104
0001b0 e6 0a 98 bc 0a ee 72 bd fa 92 5f 3d c3 ee 5b bd
       -0.018559884 -0.059309043 0.054583527 -0.053694498
0001c0 2f a7 9e bd 0c 46 c7 bd 29 af 09 3d fa 9c 71 bb
       -0.077467315 -0.09730157 0.03361431 -0.0036867247
0001d0 d1 0a 26 bc 9b d1 b8 bc db 15 80 bd 42 3b 1f 3d
       -0.010134415 -0.022560885 -0.062541686 0.038874872
0001e0 e0 33 15 3d 39 e4 8d 3d 5a 23 99 3d b7 67 42 3c
       0.036426425 0.06928296 0.07477446 0.011865548
0001f0 48 4e b9 bc 95 10 92 bd 0c b0 75 bc ef 62 29 3b
       -0.022620335 -0.07132069 -0.014995586 0.0025846323
000200 8e 9d 95 3d 16 c2 b2 bd 64 c4 ff 3c 57 9c f4 3c
       0.07305442 -0.08728425 0.031221576 0.029859705
000210 09 46 42 3d 08 06 65 bd 66 d2 61 bd 24 7d 85 bb
       0.047430072 -0.055913955 -0.055132292 -0.004073756
000220 59 2a 4c 3c cd 66 38 3d f4 bf 8b bd 75 06 38 bd
       0.012461268 0.045019913 -0.068237215 -0.044928033
000230 3e cf a8 bd 3f 0d fa bc 37 16 80 3d 3e 58 f2 3b
       -0.08242653 -0.030523894 0.06254237 0.007395773
000240 4d 96 7b bc 1d aa 2d bc b1 3e 54 3d c0 7b 8d 3b
       -0.015355659 -0.01059964 0.0518176 0.0043177307
000250 48 0f cc 3c d3 43 ab bd 5d 7c 82 bd 34 a2 89 3a
       0.02490963 -0.08362546 -0.06371377 0.0010500611
000260 ca e6 4b 3c 83 f7 a6 3d f5 05 a1 3d 6a 93 d1 bc
       0.012445161 0.08152678 0.07862464 -0.025582988
000270 93 f7 6d 3c 99 35 d5 ba 08 f2 3c bc 48 31 6a bb
       0.014524358 -0.0016266584 -0.011532314 -0.003573494
000280 ef c9 17 3d 27 37 14 3d 1d 33 39 bc b6 77 96 bd
       0.037057813 0.03618541 -0.01130369 -0.07347052
000290 38 51 9c 3d 79 b7 36 bd 9e 25 1c bd 42 54 a3 bd
       0.07632679 -0.044608567 -0.038121812 -0.07975055
0002a0 27 37 51 bd 9a a8 59 bd 8e e4 91 3d 07 3b 12 3c
       -0.051077988 -0.053139307 0.071236715 0.008925206
0002b0 85 6c 82 bb 42 25 05 bd 8c 42 8b bd 14 1f 93 bd
       -0.0039802217 -0.032506235 -0.06799802 -0.07183662
0002c0 e4 63 ef 3c 89 2c 4c 3d d3 ba 92 bc 00 59 e0 3d
       0.029222436 0.04984716 -0.01791135 0.109544754
0002d0 6b 05 65 3c 1f 82 b9 3d ae 97 4c 3d 80 13 64 bd
       0.0139783425 0.09058022 0.04994934 -0.05568266
0002e0 e5 de cc bc 2c 59 9d 3d 88 56 74 3d 66 9f ad 3d
       -0.025008628 0.07683024 0.059652835 0.084776685
0002f0 a3 9f 99 bd 66 d7 99 3d 0f 2b 34 bd 2c ae 8d 3d
       -0.075011514 0.07511787 -0.043986376 0.06917986
000300 b3 1a 91 bd 35 cf 17 3d 87 e3 81 bd 17 45 9d 3d
       -0.070851706 0.037062842 -0.063422255 0.076791935
000310 78 d5 32 bd af 1d c8 3d 5c a1 b6 3d d4 7c 06 bb
       -0.04366061 0.09771287 0.089174956 -0.002052118
000320 1e 8e 6c bd 21 92 01 3d 73 a3 c8 3d 26 68 5d bd
       -0.05775272 0.0316335 0.097968005 -0.0540544
000330 a1 10 aa bc 95 6e 21 3d c1 c1 b9 bb cb fc 0e bd
       -0.020759882 0.0394121 -0.005668849 -0.03490905
000340 df a7 ab bc 8c 07 97 bd 2a 88 3d 3d 30 79 9e 3d
       -0.02095407 -0.07374486 0.046272434 0.077379584
000350 31 b9 6e 3d 94 07 b4 3d b3 37 69 3c 9c 27 79 3d
       0.05828208 0.08790508 0.014234471 0.06082879
000360 5e a0 29 3d 1f 9f 86 3d a1 d5 3d bd 81 a4 9c bd
       0.041412704 0.06573319 -0.04634631 -0.07648564
000370 72 df 9d 3d f5 66 1f 3d b4 32 83 3d b1 00 12 bc
       0.077086344 0.038916547 0.06406155 -0.008911298
000380 3c 2e 04 bd be 55 e7 3c a6 b7 4f bd 45 a5 82 3b
       -0.032270655 0.028239127 -0.05071225 0.003986987
000390 d7 47 ad bd 78 7c 2d 3d c4 1d 58 3d 73 e3 86 3d
       -0.08460968 0.04235503 0.05276276 0.06586351
0003a0 90 47 27 bd 75 f0 28 3d 86 79 c6 bd 98 d9 e8 bb
       -0.04083973 0.041244943 -0.096911475 -0.0071060173
0003b0 e5 65 52 3d 0d 26 a5 bd 99 8f 3c 3d cb f0 56 bd
       0.051366705 -0.08063898 0.046035383 -0.05247573
0003c0 23 73 3b bd 6b 09 b5 3c eb ce 87 bd e2 25 a5 3d
       -0.0457641 0.022099217 -0.06631263 0.08063866
0003d0 5b 35 11 3d ae 34 01 3d 06 f9 43 3d 5e 82 3a 3d
       0.035451274 0.03154438 0.04784491 0.045534484
0003e0 2e 31 d0 bc 5c 13 97 3c 8e 9a 06 bd c1 1c ce bc
       -0.025414076 0.018441848 -0.03286224 -0.025160195
0003f0 33 84 47 bc 4d 9b d5 bc 63 64 60 3c 33 07 4c 3d
       -0.012177515 -0.02607503 0.013695809 0.049811553

fc2.bias f4 [128]
000000 75 51 7a 3c 57 16 fe 3b 15 f0 eb bc a2 b1 05 bb
       0.01527821 0.007754128 -0.028801003 -0.0020400067
000010 3d 57 00 bd bc 0f 10 3a 92 ff 5a bb ea 15 8c 3d
       -0.031333197 0.00054955087 -0.0033416492 0.06840117
000020 88 50 d8 3c f7 ad dc 3c 67 86 93 3d 7e bf 98 3d
       0.026405588 0.026938422 0.072033696 0.07458399
000030 ac c2 95 bd 81 e6 a0 bd 3f ec d0 bc 33 cd 87 3d
       -0.07312521 -0.07856465 -0.025503276 0.066309355
000040 ac 15 de bb c7 9e bd 3c 1b 67 88 bd 48 99 81 3c
       -0.006777486 0.023147 -0.06660291 0.01582016
000050 06 a8 35 bd 6e 24 e7 bb ef 25 8b 3d 7a d2 aa 3c
       -0.044349693 -0.0070539033 0.06794345 0.020852316
000060 d5 c5 91 bd fe 74 9f bb d0 e1 9d 3d 66 96 af 3d
       -0.071178116 -0.0048662415 0.07709086 0.08573608
000070 79 67 a4 bd 01 6a 11 bd d7 af 91 3d f1 a3 aa 3d
       -0.08027548 -0.035501484 0.07113617 0.083320506
000080 8e b3 a4 3d 41 75 6c bd 6c cc 66 bd c7 b4 24 3c
       0.0804206 -0.05772901 -0.056347296 0.010052866
000090 e5 ac 69 3d 47 c7 6e 3d 81 ea 72 bd d9 93 c0 3b
       0.05704965 0.058295514 -0.05930567 0.005877
0000a0 81 fb 70 3d e8 d6 93 bd ac 2d a1 bd 22 9e 58 3d
       0.058833603 -0.072187245 -0.07870039 0.052885182
0000b0 b3 f3 b0 3d e0 c2 73 3d a6 99 db 3c 38 71 77 bd
       0.08640232 0.05951202 0.026806664 -0.06041071
0000c0 fa 04 1c bd 06 f1 4e 3d b2 48 6e bd 78 b7 6a 3d
       -0.038090684 0.050522827 -0.058174796 0.057303876
0000d0 56 0d 86 3d 20 8d 9f 3d ee 3f 93 3d c5 67 68 3d
       0.065455124 0.07790589 0.07189928 0.056739587
0000e0 4b 51 b5 3c e8 0b 22 3d 93 41 a8 bc fb 72 26 bd
       0.02213349 0.039562136 -0.02053908 -0.040636998
0000f0 40 25 b6 3d d1 5a 33 bd 34 ee 9b 3d fa 12 23 bd
       0.088938236 -0.04378778 0.07613793 -0.03981302
000100 e9 1e 66 3d dd 3d b5 bd 4e 1a ae 3d eb f6 dc 3b
       0.056181822 -0.0884969 0.08501111 0.006743302
000110 22 63 b7 3d 6b 9e b0 3d 1d da 3b bc 54 3f 90 bb
       0.08954455 0.08623966 -0.0114655765 -0.0044020806
000120 b1 78 01 3d c1 55 c3 3c 17 c1 d0 bc c3 e8 4e bc
       0.03160924 0.023844602 -0.025482697 -0.012628737
000130 50 c4 d2 bc d2 71 18 3d 0d 05 0c bd 8c 99 86 3d
       -0.025728375 0.037217923 -0.034184504 0.065722555
000140 f6 45 61 bd e8 36 2a bd 65 c2 87 3d 06 74 a1 3d
       -0.05499836 -0.04155627 0.06628875 0.07883458
000150 b8 a6 eb bc f0 68 2e 3d 03 29 98 3d 18 fd 1a bc
       -0.028766021 0.042580545 0.07429697 -0.009459756
000160 95 64 90 3d 79 48 83 3c bf 6e 1b bd 10 12 b2 bd
       0.070504345 0.016025769 -0.037947413 -0.086948514
000170 6a 62 6e bd 99 36 08 bd cf 02 2d bd eb ea d4 3c
       -0.058199324 -0.033255193 -0.042239007 0.025990924
000180 78 cf 10 3c ab f9 da bc 05 cb a2 bd f4 77 40 3d
       0.008838527 -0.02673038 -0.07948879 0.046989396
000190 fc 7a 8a 3d e3 3c 3c bc d5 d0 74 3c 38 93 86 bd
       0.06761739 -0.011489126 0.014942368 -0.065710485
0001a0 3b 83 aa 3c 84 34 91 3d 84 e6 09 3d 70 bf 00 bd
       0.020814529 0.07090095 0.033667102 -0.03143257
0001b0 aa 1a 8f bc 6b a3 75 bd 02 fa 9f bd b0 98 5c 3d
       -0.01746877 -0.0599703 -0.07811357 0.05385655
0001c0 4c 13 9d bc b0 cd 21 3d dd 2c f4 bc 29 c0 9d 3d
       -0.01917424 0.0395028 -0.029806549 0.07702667
0001d0 c2 ec af bd aa 7e 8a 3d 44 8f 85 bc 9b bb 6e 3c
       -0.0859008 0.067624405 -0.016303666 0.014571096
0001e0 eb 5a 26 3b 50 bb 7b 3d bd 39 93 bd 60 88 da bc
       0.0025383781 0.061457932 -0.07188747 -0.026676357
0001f0 e4 38 0f 3d a8 21 80 3d a5 73 1c bd ef fc 81 bc
       0.034966365 0.062564194 -0.038196225 -0.015867678

bn2.weight f4 [128]
000000 1a 1c 81 3f f8 3e 7d 3f bd b3 7d 3f bc e9 83 3f
       1.0086701 0.9892421 0.99102384 1.0305705
000010 06 a1 7e 3f eb 9f 80 3f cd 30 83 3f 52 e2 7f 3f
       0.9946445 1.0048803 1.0249268 0.9995471
000020 77 66 7a 3f 0d 6b 80 3f 3e 2f 84 3f 1a 24 84 3f
       0.978126 1.0032669 1.0326917 1.0323517
000030 3c cc 81 3f 3f 57 82 3f 58 f0 7f 3f e4 34 7b 3f
       1.0140452 1.0182875 0.9997611 0.9812758
000040 b5 f5 7f 3f c3 26 7a 3f 42 a5 82 3f 9e 2c 80 3f
       0.99984294 0.97715396 1.0206683 1.0013616
000050 c6 3b 84 3f 9e 99 7e 3f 7d 8f 7c 3f e1 af 7d 3f
       1.0330741 0.9945315 0.98656446 0.99096495
000060 12 5c 83 3f 6f 9c 7a 3f 60 77 7d 3f 44 60 7a 3f
       1.0262473 0.9789495 0.99010277 0.9780314
000070 67 d8 7e 3f b6 dc 7e 3f d1 86 7f 3f f6 a5 83 3f
       0.99548954 0.9955553 0.9981509 1.0285022
000080 11 3c 84 3f 5c 7b 7c 3f 9a b8 7f 3f 50 b6 7e 3f
       1.0330831 0.9862573 0.99891055 0.99496937
000090 bd 4e 80 3f 5d e7 83 3f 01 71 7d 3f 61 67 7e 3f
       1.0024029 1.0304981 0.99000555 0.99376494
0000a0 6f bb 7d 3f 2d 1f 7d 3f 0d 45 81 3f 25 44 7d 3f
       0.99114126 0.98875695 1.0099198 0.98932105
0000b0 28 5f 7f 3f 10 1b 80 3f a5 2d 81 3f dc ec 85 3f
       0.9975457 1.0008259 1.0092055 1.0462909
0000c0 a1 0b 7b 3f 6d a5 80 3f 61 3e 81 3f 03 33 81 3f
       0.9806462 1.0050484 1.0097162 1.0093693
0000d0 86 ae 85 3f 14 3f 7c 3f cd 61 7d 3f fe c9 80 3f
       1.0443885 0.9853375 0.9897736 1.0061643
0000e0 8d 18 7e 3f bb 2e 80 3f e3 64 79 3f 26 57 83 3f
       0.9925621 1.0014261 0.97419566 1.026097
0000f0 da 16 7a 3f 2d 7e 80 3f a6 ee 81 3f d5 7c 83 3f
       0.9769112 1.0038506 1.0150955 1.0272471
000100 c5 dc 7f 3f 52 39 7c 3f 8a e3 7f 3f 2e f6 81 3f
       0.9994624 0.98524964 0.9995657 1.0153253
000110 63 22 81 3f 2c ea 83 3f 96 a7 7a 3f 9d 36 80 3f
       1.0088619 1.0305839 0.97911966 1.0016667
000120 2e 70 81 3f e8 84 83 3f 80 f2 7f 3f 85 c2 7e 3f
       1.011236 1.0274935 0.999794 0.99515563
000130 c1 49 7b 3f 61 0f 86 3f 19 4a 81 3f 46 a8 7a 3f
       0.98159415 1.0473443 1.0100738 0.97913015
000140 3d 21 81 3f 73 66 80 3f 95 79 80 3f a6 50 7d 3f
       1.0088269 1.0031265 1.0037104 0.98951185
000150 44 cf 7b 3f f6 b5 7e 3f ce 1e 80 3f a2 37 7b 3f
       0.9836314 0.994964 1.0009401 0.98131764
000160 1b 0a 81 3f 99 0a 85 3f 62 5f 80 3f 94 26 7c 3f
       1.0081209 1.0393859 1.0029109 0.98496366
000170 28 49 82 3f 2f 32 7d 3f 0a 7c 7c 3f 07 1c 7e 3f
       1.0178576 0.989047 0.9862677 0.99261516
000180 0f 47 81 3f b1 52 83 3f 65 2f 7e 3f 0e ed 7c 3f
       1.009981 1.025961 0.9929107 0.98799217
000190 e1 40 81 3f f0 66 80 3f 97 18 80 3f 34 66 81 3f
       1.0097924 1.0031414 1.0007504 1.0109315
0001a0 95 ad 82 3f 4e 90 80 3f 93 01 79 3f 6c ab 79 3f
       1.0209223 1.0044038 0.9726803 0.97527194
0001b0 35 d9 83 3f 29 53 81 3f 2e 4a 84 3f 48 12 7d 3f
       1.0300661 1.0103503 1.0335138 0.9885602
0001c0 de 8c 81 3f 19 d7 80 3f a0 98 7e 3f 3c 5f 7a 3f
       1.0121114 1.0065643 0.9945164 0.97801566
0001d0 fa 64 78 3f 47 23 81 3f 0c be 84 3f df 13 7e 3f
       0.9702908 1.0088891 1.0370498 0.9924907
0001e0 75 15 81 3f 70 41 7d 3f 14 b3 80 3f 0a 0f 82 3f
       1.0084673 0.98927975 1.005465 1.016084
0001f0 a8 ba 81 3f 1c a1 7e 3f 95 34 7c 3f 2b c2 80 3f
       1.0135088 0.99464583 0.98517734 1.0059255

bn2.bias f4 [128]
000000 88 14 18 3c e0 45 57 bb 8f 32 ac 3b 14 71 0e 3d
       0.009282239 -0.0032848045 0.0052550505 0.03477581
000010 01 2a bc 3b 18 ff c7 bb 61 82 52 3d b9 78 47 3c
       0.005742312 -0.0061034076 0.05139387 0.012174779
000020 6a b0 45 bc cb cd db 3c f3 32 1f 3d 84 ef 31 3d
       -0.012065986 0.026831528 0.03886695 0.04344131
000030 df 7b bd 3c 91 0c 26 3c a1 d3 5a 3c 8f cb 5c bc
       0.023130355 0.010134832 0.01335612 -0.0134762665
000040 2d ea a8 bb 51 2b 3e bc d0 f3 32 3d e5 ae 3c bb
       -0.005154869 -0.011607007 0.04368955 -0.0028790769
000050 92 2b e1 3c b2 ac 62 ba 4b 41 24 ba 7a b9 98 bc
       0.027486596 -0.00086469494 -0.0006265833 -0.01864313
000060 10 51 08 3d fb 96 b9 bc fa 2c 72 bc f2 31 42 3c
       0.033280432 -0.022655 -0.014781231 0.011852728
000070 5a 3b 71 3c a7 d8 a4 3c 4a 6a 14 3c e6 40 07 3d
       0.014723623 0.02012284 0.009058544 0.033020876
000080 41 b5 0a 3d 8d eb 12 bd 9f de 9b 3c 2e 05 07 bb
       0.033864263 -0.03586917 0.019027052 -0.0020602453
000090 d8 81 50 3c f5 9c 0f 3d 50 91 0f bc 0d 2b 9b 3a
       0.01272627 0.035061795 -0.008762673 0.0011838392
0000a0 1f 35 ba 3c bc b0 83 bb 20 f4 bc 3c 88 38 da 3b
       0.022730408 -0.004018871 0.023065627 0.006659571
0000b0 32 64 4a 3b be 7b a8 3b ef 36 a6 3c c2 c5 2c 3d
       0.0030882475 0.0051417043 0.020289866 0.042180784
0000c0 4d 56 a4 bc 72 aa 4e 3c 3f 16 22 3d 56 41 02 3d
       -0.020060683 0.0126138795 0.039571997 0.03180059
0000d0 be 57 11 3d 1d e9 c0 3c 3a 3b 02 ba 57 c0 15 3d
       0.035484068 0.023548657 -0.0004967932 0.036560383
0000e0 5e f7 ea bb b5 79 12 ba 5a 7b 93 bb 26 37 dc 3c
       -0.0071706017 -0.0005587594 -0.0045007886 0.026881766
0000f0 7e 79 b2 bb 29 4c bc 3c a9 a3 df 3c 46 19 f6 3c
       -0.005446612 0.022985535 0.027299719 0.030041348
000100 a8 72 b6 3b d3 39 8f bb 42 74 0c 3b 75 fe 34 3d
       0.0055678673 -0.004370907 0.00214316 0.04418798
000110 42 a7 98 3c 33 b3 e2 3c 2f ee 45 bc 4b f0 09 3c
       0.018634442 0.02767334 -0.012080713 0.008419107
000120 11 81 dd 3c 8b f1 3f 3d 3c 36 47 ba 5d 17 10 3a
       0.027039083 0.046861213 -0.0007599329 0.00054966455
000130 dd 32 d1 bb 5f 81 41 3d 88 c7 8a 3a d9 19 5c bc
       -0.006384237 0.04724252 0.0010588029 -0.013433897
000140 16 b9 a8 bc 37 1d fc 3a 13 f4 91 ba 58 92 17 bc
       -0.020596068 0.0019234781 -0.0011135362 -0.0092512
000150 d5 89 8e 3a b1 d0 cf 3b 33 93 2f 3c a1 6c 12 bc
       0.0010874817 0.0063420166 0.010716247 -0.008937032
000160 fb f3 4a 3c 50 3a 3a 3d 31 8e 3f 3b b7 9e c7 bc
       0.012387271 0.045465767 0.002922904 -0.024367673
000170 2f 6c 01 3d 3e 2a 7c bc de ec 5a bc 7c 06 3b 3c
       0.031597313 -0.015390931 -0.013362138 0.01141512
000180 6a d2 fe b7 04 14 ec 3c 5f 2e d9 3b 5b 53 d3 bc
       -3.0377141e-05 0.028818138 0.0066278423 -0.025796583
000190 a2 bf ac 3b 17 93 39 3c 5a 31 6e 3c 08 28 bb 3c
       0.005271868 0.011326573 0.0145381335 0.022846237
0001a0 48 f6 cf 3c b8 d3 86 3c 28 2c 94 3c 88 1a f3 bc
       0.02538599 0.016458377 0.018087462 -0.029675737
0001b0 75 87 41 3d 3a fc 52 3c 9f fe fe 3c 21 07 b8 bb
       0.047248323 0.012877518 0.031127272 -0.005616084
0001c0 48 87 54 bc 30 03 c0 3c 0c 8c 63 3c 0f 9e ca bb
       -0.012971707 0.02343902 0.01388837 -0.006183393
0001d0 17 ae ef ba c8 92 12 3c e0 fd 29 3d 6c 5a af ba
       -0.0018286136 0.008946128 0.04150188 -0.0013378388
0001e0 20 f2 b2 3c c8 41 f9 bb bd bb 32 3c c5 70 15 3d
       0.02184397 -0.0076067187 0.010909018 0.0364845
0001f0 26 cf da 3c f5 31 50 bb a3 de 12 bc ef 86 03 3d
       0.026710104 -0.0031768058 -0.008964214 0.032111105

bn2.running_mean f4 [128]
000000 68 29 47 3e b3 db 4f 3e 29 ba 84 be ca fa 5f 3e
       0.19449389 0.20298652 -0.2592328 0.21873012
000010 1f 0d 85 3e ad 4a 83 ba 6e 27 b9 3e 06 47 af be
       0.25986573 -0.0010016762 0.36162895 -0.34233874
000020 fc fe 04 be 13 cb 4c 3d 8a b0 13 3f 41 ca fc 3e
       -0.12987894 0.049998354 0.5769125 0.49373057
000030 f0 55 c1 bd 55 cf 09 be ad a0 4d be 55 31 8f 3e
       -0.094402194 -0.13457997 -0.20080824 0.27967325
000040 32 c3 49 3e 1c b0 98 be fc 5b 47 bd 54 22 72 bd
       0.19703367 -0.2982186 -0.048671708 -0.05911477
000050 2d 51 56 be c0 2e 9c bc 42 7f 0b 3e c6 36 3b 3e
       -0.20929404 -0.01906526 0.13622764 0.18282613
000060 24 97 44 3e 11 c3 05 bb 7e 57 3e 3e cb f4 06 be
       0.1919828 -0.0020410458 0.18588063 -0.13179319
000070 d4 5f 02 be b7 bc fb be 7a 0f 87 3e 4e 1f a6 39
       -0.12731868 -0.49167415 0.26378995 0.0003168531
000080 41 d5 20 3e d4 7e 94 3e 42 02 ba be 4d cb 46 bd
       0.1570635 0.29003012 -0.36329848 -0.048533726
000090 ba 91 9b bd c9 bc 80 3e 71 d5 1e 3d cd 7d 9f 3d
       -0.075961545 0.25144032 0.038777772 0.077876665
0000a0 79 61 1d be 4d ab 92 be e9 5b df be 97 9c 94 be
       -0.15369214 -0.28646317 -0.4362481 -0.2902572
0000b0 8a 8a 08 be f7 cb 98 3d 88 32 ca be 76 2c 76 bc
       -0.13334098 0.07460778 -0.39491677 -0.015025249
0000c0 ad 36 29 be e2 b2 cb 3d 89 6e c8 be ec a8 87 be
       -0.16524763 0.099462286 -0.39146832 -0.26496065
0000d0 42 3c 13 bd f0 ea cb be f1 8d ff bd f1 80 08 3c
       -0.03594614 -0.3982768 -0.12478245 0.008331523
0000e0 e5 66 24 3e cb 54 d4 3d 83 a9 12 be 67 e2 32 3e
       0.16054876 0.103677355 -0.14322476 0.17469178
0000f0 dd 16 86 3e e4 e1 3e 3d 78 91 8f bd 1d 55 a8 be
       0.26189318 0.046602145 -0.07010168 -0.32877436
000100 e4 60 0d 3d 5a 1b 36 be 99 6f 17 3d ed 2c 36 be
       0.03451623 -0.17783871 0.036971662 -0.17790575
000110 2e 9b 6e be da bb 8f be 8d 45 4f be c6 72 75 be
       -0.23301384 -0.28073007 -0.20241375 -0.23969564
000120 cb 7f 99 bd 6f 87 17 be cb 59 cd 3d c9 6a f1 bd
       -0.07495078 -0.14797758 0.10026892 -0.11787946
000130 b4 a7 19 3e f8 4e d9 3e 70 42 cd be 14 a4 a2 3e
       0.1500538 0.4244306 -0.4008975 0.31765807
000140 67 2e 58 be 1a ec 2a 3d 7f b4 6f 3d 08 12 36 3e
       -0.21111451 0.04172907 0.058521744 0.17780316
000150 38 ed 64 be 64 db e6 bd da 39 2d 3e 35 f0 f3 bd
       -0.22356117 -0.11272314 0.169166 -0.1191105
000160 65 59 ef 3d 8c e0 ec bd 10 33 e5 3d 17 4e bc bd
       0.116869725 -0.115662664 0.1119138 -0.09194582
000170 51 81 4c bd 46 86 98 3c 1c 9c 66 be 5a 27 02 be
       -0.049928013 0.018618714 -0.22520489 -0.12710324
000180 4d b7 b1 3d 19 11 89 be ca 0f 26 be 35 bc 33 3e
       0.0867754 -0.26770857 -0.1621696 0.17552264
000190 b2 10 ab 3e 4a f7 ff 3d 34 8e 86 3e 89 99 a6 3d
       0.33411175 0.124983385 0.26280367 0.08134753
0001a0 b2 65 04 3e d9 55 69 be 94 85 99 be a9 e4 85 bd
       0.12929419 -0.22786655 -0.29984725 -0.06537754
0001b0 dc e0 b8 be 18 e8 aa 3d 6f 95 96 3e 5f 62 0a 3e
       -0.36109054 0.083450496 0.29410884 0.13514088
0001c0 f1 d6 82 3d 3b 8e 5d 3e 85 f1 fa 3d 30 8e cf bc
       0.06388653 0.21636288 0.122530974 -0.025336355
0001d0 b4 b4 c2 3d da 4b ef 39 60 8c 74 3e d9 a9 bb 3e
       0.09507123 0.00045642146 0.23881674 0.3665302
0001e0 14 63 a3 3d c7 0c cf bd 43 55 15 be ae 83 2b bc
       0.07977882 -0.10109859 -0.14583306 -0.010468407
0001f0 80 de 81 be 92 20 09 be e9 b1 7b be d1 37 19 bd
       -0.25365067 -0.13391331 -0.24579586 -0.037406746

bn2.running_var f4 [128]
000000 f5 ca f3 3c eb 5e 81 3d 80 c4 2a 3e f5 18 8a 3d
       0.029759863 0.06316932 0.16676521 0.067430414
000010 9a 5c 22 3f ee df d3 3d a5 30 37 3d 36 7d 83 3e
       0.6342255 0.103454456 0.044724125 0.25681466
000020 d6 d5 2f 3e ff 6c 8b 3c 11 e1 03 3d b2 9e 0f 3d
       0.17171416 0.017019747 0.032197062 0.035063453
000030 c5 b7 89 3e 98 6d 10 3e a6 27 1b 3d 93 fb 13 3e
       0.26898018 0.14104307 0.03787961 0.14451437
000040 c4 2b 22 3e 92 9e 96 3e fb 0b 0d 3e 10 88 08 3e
       0.15837008 0.29417855 0.13774101 0.13333154
000050 98 4f 9a 3d 53 61 d5 3e 1a a0 bf 3e ef 1e c2 3d
       0.075347126 0.41675815 0.37426835 0.09478556
000060 51 4c 51 3d cc ef 5f 3f 27 0f 10 3d 2f 55 86 3e
       0.05109817 0.87475276 0.0351707 0.26236865
000070 fd 2a e0 3e 1b 5d da 3e 83 d3 70 3d 1a ec 00 3e
       0.43782797 0.4264916 0.058795463 0.12590066
000080 d6 d4 0d 3d c3 70 ca 3d b4 bc a1 3e a6 8d ad 3c
       0.034626804 0.09884789 0.31589282 0.021185707
000090 78 51 b9 3e b6 07 18 3e e5 8e 99 3d 26 54 d7 3e
       0.36194968 0.14846691 0.07497958 0.42056388
0000a0 de c4 9e 3c e6 54 44 3e 62 fa 9d 3f 39 a9 a5 3e
       0.019380983 0.19173011 1.2342036 0.3235567
0000b0 09 3f 05 3f 7d ad 4e 3e 52 38 10 3e 98 7f bf 3d
       0.5204931 0.20183368 0.14083984 0.093505085
0000c0 27 f5 36 3e 89 ae 37 3e 26 03 92 3e 0e bb e0 3e
       0.17866956 0.17937674 0.28518027 0.4389271
0000d0 5d 3d af 3c 81 11 06 3e 84 0f fc 3d 8d b4 19 3d
       0.021391565 0.13092615 0.12307647 0.037525702
0000e0 68 64 b2 3e 45 8c 54 3f 1f 63 14 3e 05 8c 47 3d
       0.3484223 0.83026534 0.14490937 0.048717517
0000f0 96 54 b5 3d 38 34 83 3e c2 4c 0c 3f 98 e7 2c 3e
       0.08854024 0.25625777 0.54804623 0.16885221
000100 ba 95 ef 3c 88 d6 70 3d c1 df 3e 3f 5d 7a 9f 3e
       0.0292462 0.058798343 0.7456017 0.31148043
000110 20 ac 7d 3e 10 73 c0 3e 8e 2c 1e 3e fc 55 a9 3c
       0.24772692 0.37587786 0.15446684 0.020670883
000120 bf a3 7b 3e 0d d6 fe 3e 45 35 e0 3c 05 a3 9b 3d
       0.24574183 0.49772683 0.02736915 0.07599453
000130 eb f8 12 3e 2d b9 df 3d eb 08 54 3f c5 02 00 3f
       0.14352767 0.10923991 0.8282611 0.50004226
000140 d6 67 f4 3c d8 36 94 3e d7 d3 a9 3c 27 3b 76 3c
       0.02983467 0.28948092 0.020730896 0.015028751
000150 bc ed 6c 3d dc 23 f0 3d 5f f6 d5 3e a3 63 ac 3f
       0.05784391 0.1172559 0.4178953 1.3467907
000160 76 a7 26 3e 9d c8 57 3c 20 69 1d 3d ec 4b ff 3e
       0.16274819 0.0131703885 0.038430333 0.4986261
000170 88 93 c6 3d fc 48 c7 3d 41 64 8e 3e 89 7d b7 3e
       0.09696108 0.097307175 0.27810863 0.35837963
000180 96 03 28 3d 14 8a b7 3c 3c 29 36 3d 1e 3b 3e 3c
       0.041019045 0.022404708 0.044472918 0.011610774
000190 0f d6 f4 3d 64 81 3d 3d 9f ad 9b 3f 7f 4e d6 3c
       0.11954891 0.046265975 1.216236 0.026160477
0001a0 e3 89 00 3e b7 b8 3c 3e f4 d5 89 3e 68 4f 87 3e
       0.125526 0.18429838 0.26921046 0.2642777
0001b0 6b 85 5f 3d 91 4d b8 3d 97 5d dc 3d 4b 0b 28 3f
       0.054570597 0.089991696 0.10760038 0.6564223
0001c0 48 52 2e 3e 1d de f7 3c 86 48 f2 3c 65 8a 23 3e
       0.17023575 0.030257279 0.029575597 0.15970762
0001d0 f8 62 11 3e 45 07 36 3d 18 a6 98 3d 9e 93 9a 3d
       0.1419791 0.044440527 0.07453555 0.07547687
0001e0 43 3c 44 3f 58 ba 14 3d d9 9c c7 3d fc 98 da 3d
       0.7665445 0.036310524 0.09746713 0.10673711
0001f0 f7 a3 33 3f 97 a3 6e 3f 1c 0f 8d 3e 9a 0e bf 3d
       0.70172065 0.9321837 0.2755059 0.09328957
