10_Models/Results_Barcelona/WGAN_Congestion_discriminator_best.pth (torch, 78018 bytes, 13 tensors)

fc1.weight f4 [128, 2]
0	0xbc23d70a	-0.01
1	0x3aa28c6e	0.001240147
2	0x3c23d70a	0.01
3	0x3ac6cd52	0.0015167391
4	0xbc23d70a	-0.01
5	0x3aa28fef	0.0012402515
6	0x3c23d70a	0.01
7	0x3ac6dd00	0.0015172064
8	0xbc23d70a	-0.01
9	0x3aa27116	0.0012393321
10	0x3c23d70a	0.01
11	0x3a2ef04e	0.00066733814
12	0x3c23d70a	0.01
13	0x3ac6da01	0.0015171171
14	0xbc23d70a	-0.01
15	0x3aa27008	0.0012393007
16	0xbc23d70a	-0.01
17	0x3aa230e2	0.0012374187
18	0xbc23d70a	-0.01
19	0x3aa26bf1	0.0012391788
20	0x3c23d70a	0.01
21	0x3ac6f81a	0.0015180141
22	0xbc23d70a	-0.01
23	0x3aa2847f	0.0012399106
24	0x3c23d70a	0.01
25	0xba84edab	-0.0010141631
26	0xbc23d70a	-0.01
27	0x3aa2652e	0.0012389773
28	0xbc23d70a	-0.01
29	0x3aa05ee0	0.0012235306
30	0xbc23d70a	-0.01
31	0x3a9f2983	0.0012143109
32	0xbc23d70a	-0.01
33	0x3aa27005	0.0012393004
34	0x3c23d70a	0.01
35	0x3ac6f5b4	0.0015179426
36	0x3c23d70a	0.01
37	0x3ac6e922	0.001517568
38	0x3c23d70a	0.01
39	0x3ac6cd4f	0.0015167388
40	0x3c23d70a	0.01
41	0x3ac6da01	0.0015171171
42	0x3c23d70a	0.01
43	0x3a18ae33	0.00058242976
44	0x3c23d70a	0.01
45	0xbb36bf0a	-0.0027884864
46	0x3c23d70a	0.01
47	0x3ac70229	0.0015183139
48	0x3c23d70a	0.01
49	0xba84bb67	-0.0010126651
50	0x3c23d70a	0.01
51	0x3a25422e	0.0006304112
52	0xbc23d70a	-0.01
53	0x3aa266de	0.0012390276
54	0xbc23d70a	-0.01
55	0x3aa25f35	0.0012387993
56	0x3c23d70a	0.01
57	0x3ac6f29a	0.0015178502
58	0xbc23d70a	-0.01
59	0x3aa2478f	0.0012380945
60	0x3c23d70a	0.01
61	0xba85012e	-0.0010147446
62	0xbc23d70a	-0.01
63	0xbb17b5e5	-0.002314919
64	0xbc23d70a	-0.01
65	0x3aa2903d	0.0012402605
66	0xbc23d70a	-0.01
67	0x3aa28792	0.0012400022
68	0xbc23d70a	-0.01
69	0x3aa270a5	0.001239319
70	0xbc23d70a	-0.01
71	0xbaf6357f	-0.0018784254
72	0xbc23d70a	-0.01
73	0x3a9ef312	0.0012126884
74	0xbc23d70a	-0.01
75	0xbb17b5e5	-0.002314919
76	0x3c23d70a	0.01
77	0x3ac6dc38	0.0015171831
78	0xbc23d70a	-0.01
79	0x3aa247b0	0.0012380984
80	0x3c23d70a	0.01
81	0x3ac66cb4	0.0015138597
82	0x3c23d70a	0.01
83	0x3a0c053a	0.0005341355
84	0xbc23d70a	-0.01
85	0x3aa05edf	0.0012235305
86	0x3c23d70a	0.01
87	0x3ac6e109	0.0015173267
88	0x3c23d70a	0.01
89	0xba84e99e	-0.0010140424
90	0xbc23d70a	-0.01
91	0x3a9eacf8	0.0012105992
92	0xbc23d70a	-0.01
93	0x3aa2476c	0.0012380905
94	0x3c23d70a	0.01
95	0xba84dd41	-0.001013674
96	0xbc23d70a	-0.01
97	0x3aa29041	0.001240261
98	0x3c23d70a	0.01
99	0x3ac6da03	0.0015171174
100	0xbc23d70a	-0.01
101	0xbb17b5e4	-0.0023149187
102	0xbc23d70a	-0.01
103	0x3aa26531	0.0012389777
104	0x3c23d70a	0.01
105	0x3ac6c934	0.0015166164
106	0x3c23d70a	0.01
107	0x3ac6886b	0.0015146857
108	0xbb2a65da	-0.002600065
109	0x3c23d70a	0.01
110	0xbc23d70a	-0.01
111	0xbb17b5e4	-0.0023149187
112	0x3c23d70a	0.01
113	0xba84fb68	-0.0010145726
114	0xbc23d70a	-0.01
115	0x3aa24790	0.0012380946
116	0xbb2a65de	-0.002600066
117	0x3c23d70a	0.01
118	0x3c23d70a	0.01
119	0xba848b54	-0.0010112324
120	0xbc23d70a	-0.01
121	0x3aa29051	0.0012402629
122	0xbc23d70a	-0.01
123	0x3aa24792	0.0012380949
124	0x3c23d70a	0.01
125	0x3ac6b602	0.0015160444
126	0x3c23d70a	0.01
127	0xba84e330	-0.0010138508
128	0xbc23d70a	-0.01
129	0x3aa24373	0.001237972
130	0x3c23d70a	0.01
131	0x3ac6c935	0.0015166166
132	0xbc23d70a	-0.01
133	0x3aa27093	0.0012393169
134	0x3c23d70a	0.01
135	0x3a185af2	0.0005811892
136	0xbc23d70a	-0.01
137	0x3aa27431	0.0012394247
138	0x3c23d70a	0.01
139	0xba84fa35	-0.0010145368
140	0x3c23d70a	0.01
141	0x3ac6dc38	0.0015171831
142	0x3c23d70a	0.01
143	0xba84e7c7	-0.0010139876
144	0x3c23d70a	0.01
145	0xba84b75a	-0.0010125444
146	0x3c23d70a	0.01
147	0x3ac6f813	0.0015180133
148	0xbc23d70a	-0.01
149	0xbb17b5e4	-0.0023149187
150	0xbc23d70a	-0.01
151	0x3aa24790	0.0012380946
152	0xbc23d70a	-0.01
153	0x3aa23855	0.0012376407
154	0xbc23d70a	-0.01
155	0x3aa27812	0.0012395403
156	0x3c23d70a	0.01
157	0xba84edaa	-0.001014163
158	0xbc23d70a	-0.01
159	0x3aa275c0	0.0012394711
160	0xbc23d70a	-0.01
161	0x3a9edb6d	0.0012119837
162	0x3c23d70a	0.01
163	0x3ac6cd7a	0.0015167438
164	0xbc23d70a	-0.01
165	0xbb17b5e3	-0.0023149184
166	0xbc23d70a	-0.01
167	0x3aa27957	0.0012395781
168	0x3c23d70a	0.01
169	0xba84dd3e	-0.0010136736
170	0xbc23d70a	-0.01
171	0xbb17b5e5	-0.002314919
172	0x3c23d70a	0.01
173	0xba84e61b	-0.0010139378
174	0x3c23d70a	0.01
175	0xbb3855d7	-0.0028127336
176	0xbc23d70a	-0.01
177	0x3aa23c3f	0.0012377574
178	0xbc23d70a	-0.01
179	0xbb17b5e5	-0.002314919
180	0xbc23d70a	-0.01
181	0x3aa27469	0.0012394312
182	0x3c23d70a	0.01
183	0x3ac6f29a	0.0015178502
184	0x3c23d70a	0.01
185	0xba84dc27	-0.0010136411
186	0x3c23d70a	0.01
187	0x3ac6f6fe	0.001517981
188	0x3c23d70a	0.01
189	0x3ac6f814	0.0015180134
190	0x3c23d70a	0.01
191	0xba84e7f8	-0.0010139933
192	0xbc23d70a	-0.01
193	0x3aa26fa8	0.0012392895
194	0xbc23d70a	-0.01
195	0xbb17b5e6	-0.0023149191
196	0xbc23d70a	-0.01
197	0xbaf627f8	-0.0018780222
198	0xbc23d70a	-0.01
199	0x3aa2672d	0.0012390368
200	0x3c23d70a	0.01
201	0xba850130	-0.0010147449
202	0xbc23d70a	-0.01
203	0x3aa2672c	0.0012390367
204	0xbc23d70a	-0.01
205	0x3a9efcb8	0.0012129759
206	0x3c23d70a	0.01
207	0xba8483cb	-0.0010110078
208	0x3c23d70a	0.01
209	0xba84b6b5	-0.0010125252
210	0xbc23d70a	-0.01
211	0x3aa2572b	0.0012385597
212	0xbc23d70a	-0.01
213	0xbb17b5e4	-0.0023149187
214	0xbc23d70a	-0.01
215	0x3aa27187	0.0012393453
216	0x3c23d70a	0.01
217	0xba84dddd	-0.0010136921
218	0x3c23d70a	0.01
219	0xba84b756	-0.0010125439
220	0xbc23d70a	-0.01
221	0x3aa2712f	0.001239335
222	0x3c23d70a	0.01
223	0x3ac6f10c	0.0015178039
224	0x3c23d70a	0.01
225	0x3ac6da07	0.0015171178
226	0xbc23d70a	-0.01
227	0x3aa26fc9	0.0012392934
228	0x3c23d70a	0.01
229	0x3a17a7e2	0.00057852094
230	0xbc23d70a	-0.01
231	0x3a9ee0f9	0.001212149
232	0x3c23d70a	0.01
233	0x3ac6e037	0.0015173022
234	0xbc23d70a	-0.01
235	0x3a9eeed9	0.0012125626
236	0xbc23d70a	-0.01
237	0x3a9eae2b	0.001210635
238	0xbc23d70a	-0.01
239	0x3aa241a2	0.0012379179
240	0x3c23d70a	0.01
241	0x3ac6cd23	0.0015167337
242	0x3c23d70a	0.01
243	0x3a1567e0	0.00056993775
244	0x3c23d70a	0.01
245	0x3ac6e79e	0.0015175228
246	0x3c23d70a	0.01
247	0xba84e7f9	-0.0010139934
248	0x3c23d70a	0.01
249	0xba84fa3f	-0.001014538
250	0x3c23d70a	0.01
251	0x3ac6cd53	0.0015167393
252	0x3c23d70a	0.01
253	0x3a24e80e	0.00062906824
254	0xbc23d70a	-0.01
255	0x3aa273e8	0.0012394162

fc1.bias f4 [128]
0	0x3c1bd363	0.009510848
1	0xbc1febbc	-0.009760793
2	0x3c226041	0.009910644
3	0xbc2233a5	-0.009900008
4	0xbc1bb810	-0.009504333
5	0xbc157a25	-0.00912336
6	0xbc1f17ff	-0.009710311
7	0xbc1e4cf4	-0.009661902
8	0x3c2256e2	0.00990841
9	0x3c227a3d	0.009916839
10	0x3c1b7017	0.0094871735
11	0xbc23d491	-0.00999941
12	0xbc23d70a	-0.01
13	0x3c21802b	0.009857218
14	0xbc22c368	-0.009934284
15	0xbc1a51fd	-0.009418962
16	0xbc1d6ea6	-0.0096089
17	0xbc220b47	-0.009890384
18	0xbc1d077c	-0.009584304
19	0xbc212272	-0.009834873
20	0xbc216e46	-0.009852951
21	0xbc151a8f	-0.00910057
22	0xbc21c570	-0.009873733
23	0xbc206cae	-0.009791536
24	0x3c224cb2	0.009905981
25	0x3c20ee45	0.009822433
26	0x3c1dedce	0.009639217
27	0x3c1c4792	0.009538548
28	0xbc1d6fd2	-0.00960918
29	0x3c20429d	0.009781507
30	0xbc17a352	-0.009255247
31	0x3c160d8d	0.009158504
32	0x3c225a08	0.00990916
33	0x3c232e25	0.009959732
34	0xbc20d71c	-0.009816911
35	0x3c1ce2ff	0.009575604
36	0xbc220be7	-0.009890533
37	0xbc1ee366	-0.009697771
38	0xbc1d446a	-0.009598831
39	0xbc1c1d12	-0.009528415
40	0x3c1ed6af	0.009694739
41	0x3c21db95	0.009879013
42	0x3c236b0f	0.009974255
43	0xbc220ec8	-0.009891219
44	0xbc2181f2	-0.0098576415
45	0x3c137521	0.009000094
46	0x3c1d7aef	0.009611829
47	0xbc1af8f0	-0.009458765
48	0xbc1ef638	-0.009702258
49	0x3c1ea18a	0.009682069
50	0xbc230ac5	-0.009951298
51	0xbc20879a	-0.009797955
52	0xbc21392b	-0.00984029
53	0x3c21e4ce	0.009881211
54	0x3c21a88c	0.009866845
55	0xbc1d1aa9	-0.009588876
56	0x3c1ea64f	0.009683206
57	0xbc207ee2	-0.009795876
58	0x3c1d0037	0.009582571
59	0x3c2379ab	0.009977738
60	0x3c238e4c	0.009982657
61	0xbc21dbcd	-0.009879065
62	0x3c1f4295	0.009720464
63	0xbc2344c8	-0.009965129
64	0x3c1883b0	0.0093087405
65	0x3c1fc5ef	0.009751781
66	0xbc226b6a	-0.009913305
67	0xbc1b518c	-0.0094798915
68	0x3c1a52dd	0.00941917
69	0x3c1eb8f4	0.009687651
70	0xbc20cb31	-0.00981407
71	0xbc20ea85	-0.009821539
72	0x3c1fca7c	0.009752866
73	0x3c203fda	0.009780848
74	0xbc228037	-0.009918264
75	0x3c2386df	0.009980886
76	0xbc2059ad	-0.009787005
77	0xbc1eede0	-0.0097002685
78	0xbc21f575	-0.009885182
79	0x3c1e32b3	0.009655642
80	0x3c1ba60f	0.009500041
81	0xbc1d08e3	-0.009584638
82	0xbc2324b6	-0.009957483
83	0x3c163e1b	0.009170081
84	0x3c239111	0.009983317
85	0x3c18205e	0.009285061
86	0xbc21c624	-0.009873901
87	0xbc1fbf0f	-0.009750142
88	0x3c1e6d29	0.0096695805
89	0x3c18c9c7	0.009325451
90	0xbb8fffd5	-0.004394511
91	0x3c1e3d09	0.009658107
92	0x3c1ed20c	0.009693634
93	0x3c1ead19	0.009684824
94	0xbc1eec9d	-0.009699968
95	0x3c1ee531	0.009698198
96	0xbc22e309	-0.009941825
97	0xbc2332f1	-0.009960876
98	0xbc1fa456	-0.009743771
99	0xbc204e67	-0.009784318
100	0x3c23c9ff	0.00999689
101	0x3c20a205	0.0098042535
102	0x3c214bcd	0.0098447325
103	0x3c202d44	0.009776417
104	0x3c19c72c	0.009385865
105	0x3c23d698	0.009999894
106	0xbc203061	-0.009777159
107	0xbc22f66c	-0.009946447
108	0xbc1cdbf5	-0.009573926
109	0x3c1fbacf	0.0097491285
110	0x3c22d8ec	0.0099394135
111	0x3c218f1d	0.009860781
112	0xbc19ac45	-0.009379451
113	0xbc235811	-0.009969727
114	0x3c212d3d	0.009837446
115	0x3c19c65d	0.009385672
116	0x3c22c457	0.009934506
117	0x3c1bb7e7	0.009504295
118	0x3c1c7c26	0.009551084
119	0xbc202a43	-0.009775701
120	0x3c1cfda9	0.009581962
121	0x3c23a42f	0.009987875
122	0xbc222f79	-0.009899014
123	0x3c1b6045	0.009483402
124	0xbc224fda	-0.009906733
125	0x3c21629e	0.009850172
126	0x3c22173f	0.009893238
127	0x3c18a2a8	0.009316124

bn1.weight f4 [128]
0	0x3c23d70a	0.01
1	0x3c23d70a	0.01
2	0x3c23d70a	0.01
3	0x3c23d70a	0.01
4	0x3c23d70a	0.01
5	0x3c23d70a	0.01
6	0x3c23d70a	0.01
7	0x3c23d70a	0.01
8	0x3c23d70a	0.01
9	0x3c23d70a	0.01
10	0x3c23d70a	0.01
11	0x3c23d70a	0.01
12	0x3c23d70a	0.01
13	0x3c23d70a	0.01
14	0x3c23d70a	0.01
15	0x3c23d70a	0.01
16	0x3c23d70a	0.01
17	0x3c23d70a	0.01
18	0x3c23d70a	0.01
19	0x3c23d70a	0.01
20	0x3c23d70a	0.01
21	0x3c23d70a	0.01
22	0x3c23d70a	0.01
23	0x3c23d70a	0.01
24	0x3c23d70a	0.01
25	0x3c23d70a	0.01
26	0x3c23d70a	0.01
27	0x3c23d70a	0.01
28	0x3c23d70a	0.01
29	0x3c23d70a	0.01
30	0x3c23d70a	0.01
31	0x3c23b9d8	0.009993039
32	0x3c23d70a	0.01
33	0x3c23d70a	0.01
34	0x3c23d70a	0.01
35	0x3c23d70a	0.01
36	0x3c23d70a	0.01
37	0x3c23b9d8	0.009993039
38	0x3c23d70a	0.01
39	0x3c23d70a	0.01
40	0x3c23d70a	0.01
41	0x3c23d70a	0.01
42	0x3c23d70a	0.01
43	0x3c23d70a	0.01
44	0x3c23d70a	0.01
45	0x3c23d70a	0.01
46	0x3c23d70a	0.01
47	0x3c23d70a	0.01
48	0x3c23d70a	0.01
49	0x3c23d70a	0.01
50	0x3c23b9d8	0.009993039
51	0x3c23d70a	0.01
52	0x3c23d70a	0.01
53	0x3c23d70a	0.01
54	0x3c23d70a	0.01
55	0x3c23b9d8	0.009993039
56	0x3c23d70a	0.01
57	0x3c23d70a	0.01
58	0x3c23d70a	0.01
59	0x3c23d70a	0.01
60	0x3c23d70a	0.01
61	0x3c23d70a	0.01
62	0x3c23d70a	0.01
63	0x3c23d70a	0.01
64	0x3c23d70a	0.01
65	0x3c23d70a	0.01
66	0x3c23d70a	0.01
67	0x3c23d70a	0.01
68	0x3c23d70a	0.01
69	0x3c23d70a	0.01
70	0x3c23d70a	0.01
71	0x3c23d70a	0.01
72	0x3c23d70a	0.01
73	0x3c23d70a	0.01
74	0x3c23b9d8	0.009993039
75	0x3c23d70a	0.01
76	0x3c23d70a	0.01
77	0x3c23d70a	0.01
78	0x3c23d70a	0.01
79	0x3c23d70a	0.01
80	0x3c23d70a	0.01
81	0x3c23d70a	0.01
82	0x3c23b9d8	0.009993039
83	0x3c23d70a	0.01
84	0x3c23d70a	0.01
85	0x3c23b9d8	0.009993039
86	0x3c23d70a	0.01
87	0x3c23d70a	0.01
88	0x3c23d70a	0.01
89	0x3c23b9d8	0.009993039
90	0x3c23d70a	0.01
91	0x3c23d70a	0.01
92	0x3c23d70a	0.01
93	0x3c23d70a	0.01
94	0x3c23d70a	0.01
95	0x3c23d70a	0.01
96	0x3c23d70a	0.01
97	0x3c23b9d8	0.009993039
98	0x3c23d70a	0.01
99	0x3c23d70a	0.01
100	0x3c23d70a	0.01
101	0x3c23d70a	0.01
102	0x3c23d70a	0.01
103	0x3c23d70a	0.01
104	0x3c23d70a	0.01
105	0x3c23d70a	0.01
106	0x3c23b9d8	0.009993039
107	0x3c23d70a	0.01
108	0x3c23d70a	0.01
109	0x3c23d70a	0.01
110	0x3c23d70a	0.01
111	0x3c23d70a	0.01
112	0x3c23d70a	0.01
113	0x3c23d70a	0.01
114	0x3c23d70a	0.01
115	0x3c23d70a	0.01
116	0x3c23d70a	0.01
117	0x3c23d70a	0.01
118	0x3c23d70a	0.01
119	0x3c23d70a	0.01
120	0x3c23d70a	0.01
121	0x3c23d70a	0.01
122	0x3c23d70a	0.01
123	0x3c23d70a	0.01
124	0x3c23d70a	0.01
125	0x3c23d70a	0.01
126	0x3c23d70a	0.01
127	0x3c23d70a	0.01

bn1.bias f4 [128]
0	0x3b37e078	0.0028057378
1	0x3b56decf	0.0032786613
2	0x3b37e867	0.0028062107
3	0x3b56ef79	0.0032796545
4	0x3b37d2da	0.0028049261
5	0x3c23b29b	0.009991313
6	0x3b56f89a	0.0032801987
7	0x3b37d233	0.0028048872
8	0x3b378097	0.002800023
9	0x3b37a69c	0.002802289
10	0x3b56fd16	0.003280466
11	0x3b37d37e	0.0028049643
12	0x3b2462f6	0.00250834
13	0x3b37ed65	0.0028065082
14	0x3b3c832c	0.0028764708
15	0x3b465dfb	0.003026842
16	0x3b37cf4f	0.002804715
17	0x3b56f25b	0.0032798264
18	0x3b56ef9e	0.0032796632
19	0x3b56de4c	0.0032786308
20	0x3b56f898	0.0032801982
21	0x3c23b58c	0.009992015
22	0xb8c741f6	-9.5013456e-05
23	0x3b56ffba	0.0032806234
24	0x3b247cdb	0.0025098834
25	0x3c23b407	0.009991652
26	0x3b37ede9	0.002806539
27	0x3b3972e9	0.0028297252
28	0x3b56ef89	0.0032796583
29	0x3b37a294	0.0028020488
30	0x3b243b07	0.0025059597
31	0x3bc07c10	0.0058741644
32	0x3b37e89d	0.0028062232
33	0x3b37bb9a	0.0028035403
34	0x3b37d7bf	0.0028052179
35	0x3beca0c2	0.0072213123
36	0x3b4827d4	0.0030541318
37	0x3bc07c14	0.0058741663
38	0x3b56fc1a	0.0032804073
39	0x3b37a5d2	0.002802242
40	0x3b56cd88	0.0032776315
41	0x3c23b846	0.009992665
42	0x3b3c8335	0.002876473
43	0x3b56f240	0.00327982
44	0x3b247328	0.0025093053
45	0x3b477f32	0.0030440805
46	0x3b37a357	0.0028020942
47	0x3b245590	0.0025075413
48	0x3b37e986	0.0028062775
49	0x3b56f8c3	0.0032802082
50	0x3bc07c12	0.0058741653
51	0x3b37ed5a	0.0028065057
52	0x3b56e708	0.0032791514
53	0x3b574b3c	0.003285124
54	0x3c228809	0.009920129
55	0x3bc07c12	0.0058741653
56	0x3b243f40	0.0025062114
57	0x3b37a276	0.0028020418
58	0x3c228809	0.009920129
59	0x3b24a81e	0.002512462
60	0x3b37e968	0.0028062705
61	0x3b37a25f	0.0028020365
62	0x3b56c9af	0.0032774021
63	0x3b245462	0.002507471
64	0x3b3792d2	0.0028011096
65	0x3b56e71e	0.0032791565
66	0x3b37d45a	0.0028050155
67	0x3c23b3ed	0.009991628
68	0x3b37692a	0.0027986267
69	0x3b245cfd	0.002507984
70	0x3b56fc47	0.0032804178
71	0x3b245f15	0.0025081087
72	0x3b24797a	0.002509682
73	0x3b56fdb5	0.003280503
74	0x3bc07c14	0.0058741663
75	0x3b37a36e	0.0028020996
76	0x3b397ad0	0.0028301962
77	0x3b382917	0.0028100663
78	0x3b246292	0.0025083167
79	0x3b376ed6	0.0027989647
80	0x3b4775c2	0.003043518
81	0x3b56df54	0.0032786923
82	0x3bc07c12	0.0058741653
83	0x3b376dfd	0.0027989142
84	0x3b24555b	0.002507529
85	0x3bc07c14	0.0058741663
86	0x3b245eaf	0.002508085
87	0xb90607cb	-0.00012782139
88	0x3b37eeba	0.0028065876
89	0x3bc07c10	0.0058741644
90	0x3b376bf1	0.0027987922
91	0x3b56ef7e	0.0032796557
92	0x3b2455e6	0.0025075614
93	0x3b56fd1b	0.0032804671
94	0x3b56fe03	0.0032805211
95	0x3b24770b	0.002509537
96	0x3b37d4c3	0.00280504
97	0x3bc07c12	0.0058741653
98	0x3bec98fa	0.0072203847
99	0x3b37eddd	0.0028065362
100	0x3b2437e1	0.002505772
101	0x3b37ede8	0.0028065387
102	0x3b47d325	0.0030490842
103	0x3b24a03b	0.002511992
104	0x3b24774a	0.0025095516
105	0x3b37b8d5	0.0028033752
106	0x3bc07c12	0.0058741653
107	0x3b37d610	0.0028051175
108	0x3b246405	0.002508403
109	0x3b24798b	0.002509686
110	0x3b37d5b7	0.0028050968
111	0x3b56ed6c	0.0032795323
112	0x3b56f8e9	0.003280217
113	0x3b376274	0.0027982267
114	0x3c23be3b	0.009994085
115	0x3b480f93	0.003052686
116	0x3b56f162	0.0032797684
117	0x3b4779fe	0.0030437703
118	0x3b478a1b	0.0030447308
119	0x3b379862	0.0028014411
120	0x3b56dd71	0.0032785798
121	0x3c23b3a0	0.009991556
122	0x3b56edfa	0.0032795654
123	0x3b2476b9	0.0025095178
124	0x3b244d1e	0.002507038
125	0x3b56ded3	0.0032786622
126	0x3c23b545	0.0099919485
127	0x3b37679d	0.0027985342

bn1.running_mean f4 [128]
0	0x3c1a71f0	0.009426579
1	0xbbec4a09	-0.007210974
2	0x3c210033	0.009826708
3	0xbbf0b9f7	-0.0073463875
4	0xbc1d1be0	-0.009589165
5	0xbbf04137	-0.007331993
6	0xbbeaad1a	-0.0071617486
7	0xbc1fb7f5	-0.009748449
8	0x3c21042e	0.009827657
9	0x3c214fd9	0.009845697
10	0x3c4549b1	0.012041495
11	0xbc252462	-0.010079475
12	0xbc1ee494	-0.009698052
13	0x3c20392f	0.009779259
14	0xbc243fe5	-0.010024999
15	0xbc1beff2	-0.009517657
16	0xbc1ed731	-0.00969486
17	0xbbf08130	-0.007339619
18	0xbbe65e92	-0.0070303166
19	0xbbeebafe	-0.007285475
20	0xbbef41ca	-0.007301544
21	0xbbf1f44d	-0.0073838593
22	0xbc37d0d9	-0.011219227
23	0xbbed5af2	-0.0072435075
24	0x3c273eef	0.010207876
25	0x3c3dce7e	0.011584876
26	0x3c1c7c4c	0.009551119
27	0x3c1afa02	0.009459021
28	0xbbe77498	-0.0070634596
29	0x3c1eeebe	0.009700475
30	0xbc12cdf7	-0.008960239
31	0x3bc0aaa1	0.0058797156
32	0x3c20f629	0.009824314
33	0x3c21eaf0	0.009882674
34	0xbc224678	-0.009904496
35	0x3bdba088	0.0067024864
36	0xbc23bba6	-0.009993469
37	0xbc549fbb	-0.012977536
38	0xbbe71daa	-0.007053097
39	0xbc1d571c	-0.009603288
40	0x3c487745	0.012235467
41	0x3c3d38e9	0.011549213
42	0x3c21cbf4	0.009875286
43	0xbbf06e8e	-0.007337398
44	0xbc1ca052	-0.009559708
45	0x3c11d163	0.008900019
46	0x3c1c15d3	0.009526688
47	0xbc162d5c	-0.009166088
48	0xbc2057e2	-0.009786578
49	0x3c488478	0.012238614
50	0xbc58d74a	-0.013234923
51	0xbc21e603	-0.009881499
52	0xbbeebd1c	-0.007285727
53	0x3c4b9f29	0.012428083
54	0x3c97731b	0.018487504
55	0xbc52d4ea	-0.0128681455
56	0x3c23619b	0.009972001
57	0xbc21b8a5	-0.009870683
58	0x3c953c9c	0.018217377
59	0x3c2863d1	0.010277704
60	0x3c2244ce	0.0099041
61	0xbc233fb3	-0.009963918
62	0x3c48f0c8	0.012264438
63	0xbc1e6bc4	-0.009669248
64	0x3c1720d6	0.009224137
65	0x3c498e62	0.012302013
66	0xbc23ca1c	-0.009996917
67	0xbbfe7c06	-0.0077662496
68	0x3c192486	0.009347087
69	0x3c23a255	0.009987433
70	0xbbee172f	-0.0072659473
71	0xbc1c0678	-0.009523027
72	0x3c24c8e1	0.010057659
73	0x3c4a1572	0.0123342145
74	0xbc58392e	-0.013197226
75	0x3c22251b	0.009896542
76	0xbc21a837	-0.009866766
77	0xbc204ac9	-0.009783455
78	0xbc1d17eb	-0.009588222
79	0x3c1cf62b	0.009580175
80	0x3c19ca0f	0.009386553
81	0xbbe668d3	-0.007031539
82	0xbc58cfd4	-0.013233144
83	0x3c14f177	0.009090773
84	0x3c285120	0.010273248
85	0x3bc4c9c7	0.006005499
86	0xbc1cf999	-0.009580993
87	0xbc361e87	-0.011115677
88	0x3c1cf376	0.00957953
89	0x3bc61e76	0.0060461117
90	0xbb925d96	-0.0044667227
91	0x3c47f0df	0.012203424
92	0x3c238e5b	0.009982671
93	0x3c486f24	0.012233529
94	0xbbea6c6c	-0.007154038
95	0x3c23cc6e	0.00999747
96	0xbc243130	-0.010021493
97	0xbc58e8cd	-0.013239098
98	0xbc4ec204	-0.012619499
99	0xbc21a662	-0.009866329
100	0x3c2894b3	0.010289359
101	0x3c1f5c40	0.009726584
102	0x3c1fad3c	0.009745892
103	0x3c2509f9	0.010073178
104	0x3c1eb0bc	0.009685691
105	0x3c226e96	0.009914061
106	0xbc55e646	-0.01305539
107	0xbc245d23	-0.010031971
108	0xbc1823b2	-0.009285854
109	0x3c24c03b	0.010055597
110	0x3c21a98d	0.009867084
111	0x3c4b4aab	0.012407939
112	0xbbdfb854	-0.0068273935
113	0xbc24b52a	-0.0100529585
114	0x3c3d3dee	0.01155041
115	0x3c17f60e	0.009274973
116	0x3c4c971a	0.012487197
117	0x3c19f8b3	0.009397673
118	0x3c1ad157	0.009449325
119	0xbc2188b8	-0.009859256
120	0x3c46c04a	0.012130806
121	0x3c3f867d	0.011689779
122	0xbbf0e672	-0.00735169
123	0x3c2055ca	0.009786079
124	0xbc1d65ff	-0.009606837
125	0x3c4b2493	0.012398857
126	0x3c3ef0bf	0.011654078
127	0x3c1748ef	0.009233697

bn1.running_var f4 [128]
0	0x36960718	4.471174e-06
1	0x36c9b802	6.011688e-06
2	0x369607aa	4.4712406e-06
3	0x36c9bda0	6.012342e-06
4	0x36960582	4.4709896e-06
5	0x36a98343	5.0518734e-06
6	0x36c9bc8f	6.012218e-06
7	0x3696056f	4.470981e-06
8	0x36960100	4.470465e-06
9	0x36960525	4.4709473e-06
10	0x36c9c756	6.0134726e-06
11	0x369606dc	4.471147e-06
12	0x3694642f	4.4224066e-06
13	0x36960666	4.4710932e-06
14	0x3695e0bb	4.466708e-06
15	0x3695cf69	4.4646918e-06
16	0x3696056f	4.470981e-06
17	0x36c9c67a	6.0133725e-06
18	0x36c9c1f9	6.012848e-06
19	0x36c9b801	6.0116877e-06
20	0x36c9bc8f	6.012218e-06
21	0x36a7111c	4.9789796e-06
22	0x36be2d51	5.667717e-06
23	0x36c9caf3	6.013893e-06
24	0x3694628a	4.422215e-06
25	0x36a86e6d	5.0196454e-06
26	0x36960686	4.471108e-06
27	0x3696059e	4.4710023e-06
28	0x36c9c55e	6.0132434e-06
29	0x36960298	4.4706503e-06
30	0x369464c8	4.422476e-06
31	0x36f6d023	7.3556016e-06
32	0x369607af	4.471243e-06
33	0x36960715	4.471173e-06
34	0x36960575	4.4709836e-06
35	0x36dc5190	6.566006e-06
36	0x3695cc76	4.4643484e-06
37	0x36f6d024	7.355602e-06
38	0x36c9bd59	6.0123098e-06
39	0x3696029b	4.4706517e-06
40	0x36c99f4c	6.0088114e-06
41	0x36a5bdaf	4.9394653e-06
42	0x3695e0bc	4.4667086e-06
43	0x36c9bf13	6.0125108e-06
44	0x36946392	4.422335e-06
45	0x3695c80c	4.4638346e-06
46	0x36960294	4.4706485e-06
47	0x3694639a	4.422339e-06
48	0x369607b0	4.4712433e-06
49	0x36c9bc8f	6.012218e-06
50	0x36f6d023	7.3556016e-06
51	0x36960667	4.4710937e-06
52	0x36c9b68a	6.011517e-06
53	0x36c9a736	6.0097327e-06
54	0x37f48aba	2.9151666e-05
55	0x36f6d022	7.355601e-06
56	0x36946499	4.422455e-06
57	0x36960297	4.47065e-06
58	0x37f48ab9	2.9151664e-05
59	0x36946178	4.4220906e-06
60	0x369607b1	4.4712438e-06
61	0x36960299	4.4706508e-06
62	0x36c9af3f	6.010668e-06
63	0x369463ca	4.4223607e-06
64	0x3696024d	4.470616e-06
65	0x36c9b688	6.0115162e-06
66	0x36960579	4.4709855e-06
67	0x36a7086b	4.977968e-06
68	0x369604e7	4.470919e-06
69	0x36946422	4.4224007e-06
70	0x36c9bd59	6.0123098e-06
71	0x369463ef	4.4223775e-06
72	0x36946268	4.4221997e-06
73	0x36c9c754	6.0134716e-06
74	0x36f6d023	7.3556016e-06
75	0x36960297	4.47065e-06
76	0x369602db	4.470681e-06
77	0x369607bb	4.4712483e-06
78	0x3694642f	4.4224066e-06
79	0x36960504	4.4709323e-06
80	0x3695cb1e	4.464192e-06
81	0x36c9b812	6.0116954e-06
82	0x36f6d022	7.355601e-06
83	0x36960543	4.470961e-06
84	0x36946399	4.4223384e-06
85	0x36f6d023	7.3556016e-06
86	0x369463e1	4.422371e-06
87	0x36beffc9	5.6922186e-06
88	0x36960383	4.470757e-06
89	0x36f6d023	7.3556016e-06
90	0x369604ec	4.4709213e-06
91	0x36c9c55f	6.013244e-06
92	0x36946391	4.4223348e-06
93	0x36c9c6f1	6.0134266e-06
94	0x36c9c754	6.0134716e-06
95	0x36946383	4.4223284e-06
96	0x36960569	4.470978e-06
97	0x36f6d024	7.355602e-06
98	0x36dc4bec	6.5653494e-06
99	0x3696068b	4.47111e-06
100	0x369464c8	4.422476e-06
101	0x3696068b	4.47111e-06
102	0x3695cd55	4.46445e-06
103	0x3694613b	4.422063e-06
104	0x36946265	4.4221983e-06
105	0x369603b0	4.4707776e-06
106	0x36f6d023	7.3556016e-06
107	0x3696058a	4.470993e-06
108	0x3694639e	4.4223407e-06
109	0x36946267	4.4221993e-06
110	0x36960584	4.4709905e-06
111	0x36c9c4d0	6.013179e-06
112	0x36c9bc90	6.0122184e-06
113	0x36960495	4.470882e-06
114	0x36a6f50b	4.9757123e-06
115	0x3695cb43	4.464209e-06
116	0x36c9bec7	6.012476e-06
117	0x3695cc6a	4.464343e-06
118	0x3695c821	4.463844e-06
119	0x3696022d	4.4706017e-06
120	0x36c9b7f1	6.0116804e-06
121	0x36a6b831	4.968628e-06
122	0x36c9c171	6.0127863e-06
123	0x36946383	4.4223284e-06
124	0x3694648e	4.42245e-06
125	0x36c9b804	6.011689e-06
126	0x36a86449	5.018465e-06
127	0x369604e2	4.470917e-06

fc2.weight f4 [128, 128]
0	0xbc23d1ae	-0.009998722
1	0x3c23b5e4	0.009992097
2	0xbc23d1ac	-0.00999872
3	0x3c23b5df	0.009992092
4	0xbc23d1b6	-0.009998729
5	0x3c23d70a	0.01
6	0x3c23b5e3	0.009992096
7	0xbc23d1b6	-0.009998729
8	0xbc23d1ce	-0.009998752
9	0xbc23d1bb	-0.009998734
10	0x3c23b5d2	0.00999208
11	0xbc23d1b1	-0.009998725
12	0x3c23c758	0.009996258
13	0xbc23d1b9	-0.009998732
14	0xbc23d21e	-0.009998826
15	0xbc23d221	-0.009998829
16	0xbc23d1b6	-0.009998729
17	0x3c23b5d1	0.009992079
18	0x3c23b5d8	0.009992085
19	0x3c23b5e4	0.009992097
20	0x3c23b5e3	0.009992096
21	0x3c23d70a	0.01
22	0xbb237e8b	-0.0024947252
23	0x3c23b5cd	0.009992075
24	0x3c23c774	0.009996284
25	0x3c23d70a	0.01
26	0xbc23d1b9	-0.009998732
27	0xbc23d19e	-0.009998707
28	0x3c23b5d3	0.009992081
29	0xbc23d1c5	-0.009998743
30	0x3c23c750	0.00999625
31	0xbc23b627	-0.009992159
32	0xbc23d1ac	-0.00999872
33	0xbc23d1b2	-0.009998726
34	0xbc23d1b6	-0.009998729
35	0xbc23d363	-0.009999129
36	0xbc23d229	-0.009998837
37	0xbc23b627	-0.009992159
38	0x3c23b5e2	0.009992095
39	0xbc23d1c5	-0.009998743
40	0x3c23b60e	0.009992136
41	0x3c23d70a	0.01
42	0xbc23d21e	-0.009998826
43	0x3c23b5dd	0.00999209
44	0x3c23c757	0.009996257
45	0xbc23d244	-0.009998862
46	0xbc23d1c5	-0.009998743
47	0x3c23c762	0.009996267
48	0xbc23d1ac	-0.00999872
49	0x3c23b5e3	0.009992096
50	0xbc23b627	-0.009992159
51	0xbc23d1b9	-0.009998732
52	0x3c23b5e9	0.009992101
53	0x3c23b620	0.009992152
54	0x3c234f64	0.009967659
55	0xbc23b627	-0.009992159
56	0x3c23c753	0.009996253
57	0xbc23d1c5	-0.009998743
58	0x3c234f64	0.009967659
59	0x3c23c791	0.009996311
60	0xbc23d1ac	-0.00999872
61	0xbc23d1c5	-0.009998743
62	0x3c23b5f0	0.009992108
63	0x3c23c75f	0.009996264
64	0xbc23d1c8	-0.009998746
65	0x3c23b5e9	0.009992101
66	0xbc23d1b6	-0.009998729
67	0x3c23d70a	0.01
68	0xbc23d1be	-0.009998737
69	0x3c23c74d	0.0099962475
70	0x3c23b5e2	0.009992095
71	0x3c23c75f	0.009996264
72	0x3c23c775	0.009996285
73	0x3c23b5d2	0.00999208
74	0xbc23b627	-0.009992159
75	0xbc23d1c5	-0.009998743
76	0xbc23d1aa	-0.009998718
77	0xbc23d1af	-0.009998723
78	0x3c23c758	0.009996258
79	0xbc23d1bd	-0.009998736
80	0xbc23d233	-0.009998846
81	0x3c23b5e4	0.009992097
82	0xbc23b627	-0.009992159
83	0xbc23d1bc	-0.009998735
84	0x3c23c762	0.009996267
85	0xbc23b627	-0.009992159
86	0x3c23c75f	0.009996264
87	0xbb55f5ca	-0.0032647722
88	0xbc23d1c5	-0.009998743
89	0xbc23b627	-0.009992159
90	0xbc23d1bd	-0.009998736
91	0x3c23b5d3	0.009992081
92	0x3c23c763	0.009996268
93	0x3c23b5d3	0.009992081
94	0x3c23b5d2	0.00999208
95	0x3c23c758	0.009996258
96	0xbc23d1b6	-0.009998729
97	0xbc23b627	-0.009992159
98	0xbc23d36b	-0.009999136
99	0xbc23d1b9	-0.009998732
100	0x3c23c750	0.00999625
101	0xbc23d1b9	-0.009998732
102	0xbc23d226	-0.009998834
103	0x3c23c793	0.009996313
104	0x3c23c775	0.009996285
105	0xbc23d1bf	-0.009998738
106	0xbc23b627	-0.009992159
107	0xbc23d1b5	-0.0099987285
108	0x3c23c763	0.009996268
109	0x3c23c775	0.009996285
110	0xbc23d1b6	-0.009998729
111	0x3c23b5d3	0.009992081
112	0x3c23b5e3	0.009992096
113	0xbc23d1bf	-0.009998738
114	0x3c23d70a	0.01
115	0xbc23d230	-0.009998843
116	0x3c23b5de	0.009992091
117	0xbc23d22c	-0.009998839
118	0xbc23d243	-0.009998861
119	0xbc23d1c8	-0.009998746
120	0x3c23b5e4	0.009992097
121	0x3c23d70a	0.01
122	0x3c23b5d8	0.009992085
123	0x3c23c758	0.009996258
124	0x3c23c755	0.009996255
125	0x3c23b5e4	0.009992097
126	0x3c23d70a	0.01
127	0xbc23d1be	-0.009998737
128	0x3c23d70a	0.01
129	0x3c238d18	0.00998237
130	0x3c23d70a	0.01
131	0x3c238d13	0.009982365
132	0x3c23d70a	0.01
133	0x3a4f24c3	0.0007901901
134	0x3c238d0d	0.00998236
135	0x3c23d70a	0.01
136	0x3c23d70a	0.01
137	0x3c23d70a	0.01
138	0x3c238d13	0.009982365
139	0x3c23d70a	0.01
140	0xbc23d70a	-0.01
141	0x3c23d70a	0.01
142	0x3c23d70a	0.01
143	0x3c23b903	0.009992841
144	0x3c23d70a	0.01
145	0x3c238d19	0.009982371
146	0x3c238d17	0.009982369
147	0x3c238d19	0.009982371
148	0x3c238d0d	0.00998236
149	0xba423091	-0.00074077497
150	0xbc23d70a	-0.01
151	0x3c238d15	0.009982367
152	0xbc23d70a	-0.01
153	0x3bcf468c	0.0063255485
154	0x3c23d70a	0.01
155	0x3c23d70a	0.01
156	0x3c238d1a	0.009982372
157	0x3c23d70a	0.01
158	0xbc23d70a	-0.01
159	0xbc23941d	-0.009984043
160	0x3c23d70a	0.01
161	0x3c23d70a	0.01
162	0x3c23d70a	0.01
163	0xbc2379e5	-0.009977792
164	0x3c23b345	0.009991472
165	0xbc23941d	-0.009984043
166	0x3c238d0c	0.009982359
167	0x3c23d70a	0.01
168	0x3c238d1e	0.009982375
169	0x3bc89e27	0.006122369
170	0x3c23d70a	0.01
171	0x3c238d13	0.009982365
172	0xbc23d70a	-0.01
173	0x3c23b9c7	0.009993023
174	0x3c23d70a	0.01
175	0xbc23d70a	-0.01
176	0x3c23d70a	0.01
177	0x3c238d0d	0.00998236
178	0xbc23941d	-0.009984043
179	0x3c23d70a	0.01
180	0x3c238d12	0.009982364
181	0x3c238cca	0.009982297
182	0xbc23d70a	-0.01
183	0xbc23941d	-0.009984043
184	0xbc23d70a	-0.01
185	0x3c23d70a	0.01
186	0xbc23d70a	-0.01
187	0xbc23d70a	-0.01
188	0x3c23d70a	0.01
189	0x3c23d70a	0.01
190	0x3c238d1f	0.009982376
191	0xbc23d70a	-0.01
192	0x3c23d70a	0.01
193	0x3c238d12	0.009982364
194	0x3c23d70a	0.01
195	0xbb051814	-0.002030854
196	0x3c23d70a	0.01
197	0xbc23d70a	-0.01
198	0x3c238d0c	0.009982359
199	0xbc23d70a	-0.01
200	0xbc23d70a	-0.01
201	0x3c238d13	0.009982365
202	0xbc23941d	-0.009984043
203	0x3c23d70a	0.01
204	0x3c23d70a	0.01
205	0x3c23d70a	0.01
206	0xbc23d70a	-0.01
207	0x3c23d70a	0.01
208	0x3c23bad8	0.0099932775
209	0x3c238d18	0.00998237
210	0xbc23941d	-0.009984043
211	0x3c23d70a	0.01
212	0xbc23d70a	-0.01
213	0xbc23941d	-0.009984043
214	0xbc23d70a	-0.01
215	0xbc23d70a	-0.01
216	0x3c23d70a	0.01
217	0xbc23941d	-0.009984043
218	0x3c23d70a	0.01
219	0x3c238d1a	0.009982372
220	0xbc23d70a	-0.01
221	0x3c238d13	0.009982365
222	0x3c238d13	0.009982365
223	0xbc23d70a	-0.01
224	0x3c23d70a	0.01
225	0xbc23941d	-0.009984043
226	0xbc2379e8	-0.009977795
227	0x3c23d70a	0.01
228	0xbc23d70a	-0.01
229	0x3c23d70a	0.01
230	0x3c23b732	0.009992408
231	0xbc23d70a	-0.01
232	0xbc23d70a	-0.01
233	0x3c23d70a	0.01
234	0xbc23941e	-0.009984044
235	0x3c23d70a	0.01
236	0xbc23d70a	-0.01
237	0xbc23d70a	-0.01
238	0x3c23d70a	0.01
239	0x3c238d1a	0.009982372
240	0x3c238d0d	0.00998236
241	0x3c23d70a	0.01
242	0xba8373e4	-0.0010029045
243	0x3c23b417	0.009991667
244	0x3c238d13	0.009982365
245	0x3c23b9cb	0.009993027
246	0x3c23b969	0.009992936
247	0x3c23d70a	0.01
248	0x3c238d19	0.009982371
249	0xbb13b15d	-0.0022536137
250	0x3c238d17	0.009982369
251	0xbc23d70a	-0.01
252	0xbc23d70a	-0.01
253	0x3c238d18	0.00998237
254	0x3bcf3f68	0.0063246973
255	0x3c23d70a	0.01

fc2.bias f4 [128]
0	0x3bc0f15f	0.0058881487
1	0x3af154b1	0.0018412081
2	0x3bc4c136	0.006004478
3	0xbc23d0aa	-0.00999848
4	0xbb59a945	-0.0033212465
5	0xbc23d633	-0.0099998
6	0xbc22b61d	-0.0099311145
7	0xbc20ed5f	-0.009822219
8	0xbbc05a65	-0.005870151
9	0xbb40b74b	-0.0029406126
10	0xbc239a6f	-0.00998555
11	0xbc23b6e1	-0.009992332
12	0xbc22eae3	-0.009943697
13	0xbc23d70a	-0.01
14	0xbc23d65f	-0.0099998405
15	0xbb4d7c08	-0.0031354446
16	0xbb9b1b0f	-0.0047334502
17	0xbb61b3ce	-0.0034439447
18	0xbb249632	-0.0025113937
19	0xbc23473b	-0.009965713
20	0xbc23d70a	-0.01
21	0xbb48e6e6	-0.0030655204
22	0xbc23c822	-0.009996446
23	0x3bc7ea3a	0.00610092
24	0xbc22d136	-0.009937575
25	0x3b497bae	0.0030743885
26	0xbc20bc2a	-0.009810487
27	0xbc225386	-0.009907609
28	0xbc23d70a	-0.01
29	0x3bc12ba0	0.005895093
30	0xbc23c81e	-0.009996442
31	0xbba40366	-0.005005288
32	0xbc23cd61	-0.009997697
33	0xbbaa01f2	-0.00518822
34	0xbc23c744	-0.009996239
35	0xbc23d70a	-0.01
36	0xbc21ab76	-0.00986754
37	0xbb208f85	-0.0024499607
38	0xbc22c68b	-0.009935032
39	0x39c1b4d9	0.0003694657
40	0xbc233e6c	-0.009963613
41	0xbc23d70a	-0.01
42	0xbc23d70a	-0.01
43	0x3bc12cee	0.0058952486
44	0xbc23d70a	-0.01
45	0xbc237e58	-0.009978853
46	0xbb79d4a2	-0.0038121124
47	0xbb390f5d	-0.0028237917
48	0xbc23d296	-0.009998938
49	0xbc23c66b	-0.009996037
50	0x3bc33799	0.0059575555
51	0x3bc48fdd	0.005998595
52	0xbc23caec	-0.009997111
53	0xbb7ec4db	-0.003887466
54	0xbc23d5b3	-0.00999968
55	0xbc23d70a	-0.01
56	0xbc23d70a	-0.01
57	0xbc239f1e	-0.009986667
58	0xbb6f8e0e	-0.0036553177
59	0x3bb009e4	0.005372273
60	0x3b09e0b2	0.002103847
61	0x3aebef38	0.001800037
62	0xbc23277d	-0.009958145
63	0x3b10994a	0.0022064024
64	0xbb4af400	-0.003096819
65	0xbc227833	-0.009916353
66	0xbc233dda	-0.009963477
67	0x3bbe42e1	0.0058063124
68	0xbc23d70a	-0.01
69	0xbb5d16dd	-0.0033735551
70	0xbc2385fc	-0.009980675
71	0xbc23d10f	-0.009998574
72	0xbc227463	-0.009915444
73	0xbc23d70a	-0.01
74	0xbb8129f3	-0.0039417683
75	0xbc23c608	-0.009995945
76	0xbbca090e	-0.00616563
77	0x3b0064f5	0.0019591425
78	0xbb6a3b1f	-0.0035740805
79	0x3bc355ea	0.0059611695
80	0x3bc3ff7d	0.0059813843
81	0xbc23d70a	-0.01
82	0xbc23d268	-0.009998895
83	0xbc23d70a	-0.01
84	0xbc23c286	-0.0099951085
85	0x3bbdaeaa	0.005788644
86	0x3bc42482	0.0059857974
87	0x3bcebd60	0.0063091964
88	0xbc1c3952	-0.009535151
89	0x3bc271e8	0.005933989
90	0x3bc82085	0.0061073923
91	0xbc23d0ac	-0.009998482
92	0x3abd1b7b	0.0014427745
93	0xbc21e455	-0.009881099
94	0xbc234e79	-0.00996744
95	0xbc23d70a	-0.01
96	0xbc22986f	-0.009924038
97	0x3bcc50ed	0.006235233
98	0xbc23d352	-0.009999113
99	0xbc0c3176	-0.008556714
100	0x3bc20996	0.005921553
101	0x3b2ef548	0.0026696492
102	0xba159a59	-0.00057068985
103	0xbc23d70a	-0.01
104	0xbc23c46c	-0.009995561
105	0x3b19cc72	0.0023467806
106	0xbc215b78	-0.009848468
107	0xbc23d3ba	-0.00999921
108	0xbc23d65d	-0.009999839
109	0x3bb4cf7c	0.005517898
110	0x3b19729f	0.0023414267
111	0xbb5ed03a	-0.0033998624
112	0xbc23d70a	-0.01
113	0x3bbe958b	0.0058161668
114	0xbc23d70a	-0.01
115	0x3afa28df	0.0019085667
116	0xbc23206b	-0.0099564595
117	0xbc23344c	-0.009961199
118	0x3bc09e12	0.0058782184
119	0x3b0a50b1	0.0021105225
120	0xbc22295a	-0.009897554
121	0xbb153eaa	-0.0022772946
122	0x3acd523e	0.0015664769
123	0xbc23cb8c	-0.00999726
124	0x3af6234d	0.0018778831
125	0xbc2318b5	-0.009954621
126	0x3ab70720	0.0013963915
127	0xbc23d70a	-0.01

bn2.weight f4 [128]
0	0x3c23d70a	0.01
1	0x3c23d70a	0.01
2	0x3c23d70a	0.01
3	0x3c23d70a	0.01
4	0x3c23d70a	0.01
5	0x3c23d70a	0.01
6	0x3c23d70a	0.01
7	0x3c23d70a	0.01
8	0x3c23d70a	0.01
9	0x3c23d70a	0.01
10	0x3c23d70a	0.01
11	0x3c23d70a	0.01
12	0x3c23d70a	0.01
13	0x3c23d70a	0.01
14	0x3c23d70a	0.01
15	0x3c23d70a	0.01
16	0x3c23d70a	0.01
17	0x3c23d70a	0.01
18	0x3c23d70a	0.01
19	0x3c23d70a	0.01
20	0x3c23d70a	0.01
21	0x3c23d70a	0.01
22	0x3c23d70a	0.01
23	0x3c23d70a	0.01
24	0x3c23d70a	0.01
25	0x3c23d70a	0.01
26	0x3c23d70a	0.01
27	0x3c23d70a	0.01
28	0x3c23d70a	0.01
29	0x3c23d70a	0.01
30	0x3c23d70a	0.01
31	0x3c23d70a	0.01
32	0x3c23d70a	0.01
33	0x3c23d70a	0.01
34	0x3c23d70a	0.01
35	0x3c23d70a	0.01
36	0x3c23d70a	0.01
37	0x3c23d70a	0.01
38	0x3c23d70a	0.01
39	0x3c23d70a	0.01
40	0x3c23d70a	0.01
41	0x3c23d70a	0.01
42	0x3c23d70a	0.01
43	0x3c23d70a	0.01
44	0x3c23d70a	0.01
45	0x3c23d70a	0.01
46	0x3c23d70a	0.01
47	0x3c23d70a	0.01
48	0x3c23d70a	0.01
49	0x3c23d70a	0.01
50	0x3c23d70a	0.01
51	0x3c23d70a	0.01
52	0x3c23d70a	0.01
53	0x3c23d70a	0.01
54	0x3c23d70a	0.01
55	0x3c23d70a	0.01
56	0x3c23d70a	0.01
57	0x3c23d70a	0.01
58	0x3c23d70a	0.01
59	0x3c23d70a	0.01
60	0x3c23d70a	0.01
61	0x3c23d70a	0.01
62	0x3c23d70a	0.01
63	0x3c23d70a	0.01
64	0x3c23d70a	0.01
65	0x3c23d70a	0.01
66	0x3c23d70a	0.01
67	0x3c23d70a	0.01
68	0x3c23d70a	0.01
69	0x3c23d70a	0.01
70	0x3c23d70a	0.01
71	0x3c23d70a	0.01
72	0x3c23d70a	0.01
73	0x3c23d70a	0.01
74	0x3c23d70a	0.01
75	0x3c23d70a	0.01
76	0x3c23d70a	0.01
77	0x3c23d70a	0.01
78	0x3c23d70a	0.01
79	0x3c23d70a	0.01
80	0x3c23d70a	0.01
81	0x3c23d70a	0.01
82	0x3c23d70a	0.01
83	0x3c23d70a	0.01
84	0x3c23d70a	0.01
85	0x3c23d70a	0.01
86	0x3c23d70a	0.01
87	0x3c23d70a	0.01
88	0x3c23d70a	0.01
89	0x3c23d70a	0.01
90	0x3c23d70a	0.01
91	0x3c23d70a	0.01
92	0x3c23d70a	0.01
93	0x3c23d70a	0.01
94	0x3c23d70a	0.01
95	0x3c23d70a	0.01
96	0x3c23d70a	0.01
97	0x3c23d70a	0.01
98	0x3c23d70a	0.01
99	0x3c23d70a	0.01
100	0x3c23d70a	0.01
101	0x3c23d70a	0.01
102	0x3c23d70a	0.01
103	0x3c23d70a	0.01
104	0x3c23d70a	0.01
105	0x3c23d70a	0.01
106	0x3c23d70a	0.01
107	0x3c23d70a	0.01
108	0x3c23d70a	0.01
109	0x3c23d70a	0.01
110	0x3c23d70a	0.01
111	0x3c23d70a	0.01
112	0x3c23d70a	0.01
113	0x3c23d70a	0.01
114	0x3c23d70a	0.01
115	0x3c23d70a	0.01
116	0x3c23d70a	0.01
117	0x3c23d70a	0.01
118	0x3c23d70a	0.01
119	0x3c23d70a	0.01
120	0x3c23d70a	0.01
121	0x3c23d70a	0.01
122	0x3c23d70a	0.01
123	0x3c23d70a	0.01
124	0x3c23d70a	0.01
125	0x3c23d70a	0.01
126	0x3c23d70a	0.01
127	0x3c23d70a	0.01

bn2.bias f4 [128]
0	0xb8a3c92e	-7.809918e-05
1	0x39edf857	0.0004538919
2	0xb8a45eca	-7.837785e-05
3	0x38a2b784	7.7589444e-05
4	0xb9ef3a7b	-0.00045629204
5	0x38a410c6	7.823254e-05
6	0x39ef951c	0.00045696727
7	0x39ede8a3	0.0004537749
8	0xb9eaf9e3	-0.00044818138
9	0xb9ed3efe	-0.00045251095
10	0xb9ef52ee	-0.0004564742
11	0xb8a67250	-7.936789e-05
12	0xb8a6178e	-7.919884e-05
13	0x38a52563	7.874777e-05
14	0x38a606b4	7.9167454e-05
15	0xb9ed9336	-0.00045313843
16	0x39eeda15	0.0004555738
17	0xb9ea7ddd	-0.00044725733
18	0xb9ec951c	-0.00045124523
19	0xb8a57926	-7.890379e-05
20	0x38a981ca	8.082723e-05
21	0xb9ec51d7	-0.00045074403
22	0x38a7bca4	7.9983176e-05
23	0xb8a92552	-8.0654994e-05
24	0x39ea920c	0.0004474077
25	0x39ed4a9e	0.00045259757
26	0x39f63e33	0.00046967118
27	0xb9eef60d	-0.0004557822
28	0x38a4a3e8	7.850659e-05
29	0xb8a28506	-7.7495395e-05
30	0x38a13f5d	7.6888806e-05
31	0xb8a35e28	-7.789984e-05
32	0x38a7b8d1	7.997605e-05
33	0xb9edef94	-0.00045382662
34	0x38a537e7	7.878226e-05
35	0x38aa3b53	8.117282e-05
36	0x39ecf99a	0.00045199395
37	0xb9f875a0	-0.00047389884
38	0xb9ed894e	-0.00045306463
39	0xb8a55c66	-7.885024e-05
40	0xb8a23643	-7.734869e-05
41	0x38a64f2c	7.930244e-05
42	0xb8a4831c	-7.8445504e-05
43	0xb8a2390e	-7.735389e-05
44	0x38a44ad0	7.834064e-05
45	0xb8a57fea	-7.891639e-05
46	0xb8a6f17c	-7.960477e-05
47	0xb9ecc59b	-0.00045160655
48	0xb8a40983	-7.821901e-05
49	0xb8a23507	-7.734639e-05
50	0xb8a3fb5c	-7.819265e-05
51	0xb8a2435b	-7.737308e-05
52	0x38a350d7	7.787503e-05
53	0xb9ef3a99	-0.0004562929
54	0x38a4fb20	7.866905e-05
55	0x38a7560c	7.979208e-05
56	0x38a6ff48	7.963047e-05
57	0xb9eadedb	-0.00044797998
58	0xb9ed78a4	-0.00045294047
59	0xb8a086e2	-7.6545184e-05
60	0x39f877fe	0.00047391647
61	0x39ede10b	0.00045371833
62	0xb8a39513	-7.800213e-05
63	0x39e88254	0.0004434759
64	0xb9ef7d53	-0.00045679006
65	0x39edc0f7	0.00045347933
66	0x39ea9cdd	0.0004474883
67	0xb8a05837	-7.645826e-05
68	0x38a5c8b6	7.9051984e-05
69	0xb9efaeef	-0.00045715968
70	0x39edc703	0.00045352438
71	0x38a68a9b	7.941314e-05
72	0xb9ed2dda	-0.00045238325
73	0x38a5c5d2	7.90466e-05
74	0xb9ef34c9	-0.0004562496
75	0x38a32e7c	7.781104e-05
76	0x39ef8a20	0.00045688543
77	0x39efe3af	0.0004575527
78	0xb9efb20b	-0.00045718285
79	0xb8a6542e	-7.9311765e-05
80	0xb8a3c506	-7.809144e-05
81	0x38a72d16	7.9715785e-05
82	0x38a5419c	7.880034e-05
83	0x39ef6ce3	0.0004566676
84	0x38a191e0	7.7042496e-05
85	0xb8a2b2d0	-7.7580684e-05
86	0xb8a508bc	-7.86944e-05
87	0xb8a4282e	-7.8276134e-05
88	0x39ee90ea	0.00045502867
89	0xb8a5d28e	-7.907032e-05
90	0xb8a3c348	-7.80882e-05
91	0x38a41920	7.824809e-05
92	0x39e85a27	0.00044317657
93	0xb9eebeb5	-0.00045536985
94	0xb9ed1159	-0.00045217088
95	0x38a5f04c	7.912572e-05
96	0x39efacb7	0.00045714315
97	0xb8a58d0c	-7.894085e-05
98	0x38a7041e	7.9639474e-05
99	0xb9edce86	-0.00045358035
100	0xb8a44036	-7.8320896e-05
101	0x39edf2c3	0.00045385034
102	0xb8a56e42	-7.88835e-05
103	0xb9ef1b41	-0.00045605938
104	0xb8a7b4ee	-7.996881e-05
105	0x39ef7d41	0.00045678954
106	0x39ee14d3	0.00045410413
107	0x38a5b722	7.901924e-05
108	0x38a6e4c4	7.958108e-05
109	0xb8a78626	-7.9881676e-05
110	0x39edefdf	0.0004538288
111	0xb9ecc898	-0.00045162882
112	0x38a4181e	7.8246216e-05
113	0xb8a47e68	-7.8436744e-05
114	0x39ef4eb2	0.00045644265
115	0x39ecec88	0.00045189657
116	0xb9ee2a61	-0.00045426472
117	0xb8a45537	-7.836002e-05
118	0xb8a651f0	-7.930759e-05
119	0x39e82f94	0.00044285937
120	0x39efcfbb	0.00045740404
121	0xb9eed70e	-0.00045555126
122	0x39eefc3f	0.00045582835
123	0x38a24e68	7.739366e-05
124	0x39e99ed8	0.0004455957
125	0xb9ece344	-0.00045182754
126	0x39ef111d	0.00045598383
127	0x38a4439a	7.832721e-05

bn2.running_mean f4 [128]
0	0x3bc29a4c	0.005938804
1	0x3b58c5d4	0.00330769
2	0x3bc68946	0.0060588447
3	0xbc248e99	-0.010043764
4	0xbb9cd043	-0.004785569
5	0xbc248fe1	-0.010044069
6	0xbc0aa0a4	-0.008461151
7	0xbc08e305	-0.008354907
8	0xbbf06ae0	-0.0073369592
9	0xbb90601b	-0.004405988
10	0xbc3b7193	-0.011440652
11	0xbc22e328	-0.009941854
12	0xbc221072	-0.009891616
13	0xbc248f6e	-0.010043962
14	0xbc249065	-0.010044192
15	0xbb96e954	-0.0046054516
16	0xbb56010c	-0.0032654433
17	0xbba0ee00	-0.0049111843
18	0xbb82448d	-0.003975457
19	0xbc22761c	-0.009915855
20	0xbc248e3c	-0.010043677
21	0xbb947cf5	-0.0045314976
22	0xbc248c80	-0.010043263
23	0x3bc95cfe	0.0061451187
24	0xbc0ae20a	-0.0084767435
25	0x3b94f534	0.004545832
26	0xbc08b422	-0.008343728
27	0xbc3a5a3e	-0.0113740545
28	0xbc24905d	-0.0100441845
29	0x3bc2bb7f	0.0059427614
30	0xbc248bd6	-0.010043105
31	0xbba26ab2	-0.0049565667
32	0xbc248ca8	-0.010043301
33	0xbbd9fbb8	-0.0066523217
34	0xbc248c0a	-0.010043154
35	0xbc248f9e	-0.010044007
36	0xbc098cdd	-0.008395401
37	0xbb8013e0	-0.0039086193
38	0xbc3ae4b6	-0.011407068
39	0x39dccf31	0.0004211604
40	0xbc228268	-0.009918787
41	0xbc248e9c	-0.010043766
42	0xbc230928	-0.0099509135
43	0x3bc2c65a	0.0059440555
44	0xbc24906f	-0.010044201
45	0xbc229e72	-0.009925472
46	0xbb76842b	-0.00376154
47	0xbb8c97c0	-0.004290551
48	0xbc230b86	-0.009951478
49	0xbc22f4c8	-0.009946056
50	0x3bc4b7d4	0.0060033593
51	0x3bc61cad	0.006045899
52	0xbc248d42	-0.010043444
53	0xbbaf6350	-0.005352415
54	0xbc249069	-0.010044196
55	0xbc248ec0	-0.0100438
56	0xbc2490a0	-0.010044247
57	0xbc3b9d27	-0.011451042
58	0xbba7d186	-0.0051214127
59	0x3bb1a5c4	0.005421372
60	0x3b6a18be	0.0035720314
61	0x3b564bf7	0.0032699087
62	0xbc22612b	-0.009910862
63	0x3b706352	0.0036680293
64	0xbb954924	-0.004555838
65	0xbc0a5e91	-0.008445398
66	0xbc0b1822	-0.00848964
67	0x3bbfe4c0	0.0058561265
68	0xbc249028	-0.010044135
69	0xbb9e6426	-0.004833716
70	0xbc0b77c6	-0.008512443
71	0xbc248ddb	-0.010043587
72	0xbc3a7848	-0.011381216
73	0xbc24902f	-0.010044142
74	0xbbb134b8	-0.005407896
75	0xbc248c33	-0.010043192
76	0xbb99d10a	-0.004694109
77	0x3b6055ef	0.0034230908
78	0xbba517e3	-0.005038248
79	0x3bc50f48	0.0060137846
80	0x3bc5c937	0.0060359496
81	0xbc2490fd	-0.0100443335
82	0xbc248fdf	-0.010044067
83	0xbc0bdf99	-0.008537197
84	0xbc248c48	-0.010043211
85	0x3bbf3f83	0.0058364286
86	0x3bc5d6c6	0.006037566
87	0x3bd07c8a	0.0063625025
88	0xbc042140	-0.008064568
89	0x3bc4392d	0.005988261
90	0x3bc9c9e8	0.0061581023
91	0xbc248f5e	-0.010043947
92	0x3b3e84aa	0.0029070773
93	0xbc3a01a4	-0.01135293
94	0xbc3b5d08	-0.011435755
95	0xbc248f28	-0.010043897
96	0xbc0ab106	-0.008465057
97	0x3bcdfb12	0.0062860334
98	0xbc248ffc	-0.010044094
99	0xbc243324	-0.0100219585
100	0x3bc3c431	0.0059743156
101	0x3b8797aa	0.004137953
102	0xba0818ff	-0.0005191713
103	0xbc3bbbf2	-0.011458384
104	0xbc22f627	-0.009946383
105	0x3b79dcf2	0.0038126078
106	0xbc094129	-0.008377352
107	0xbc248fdb	-0.010044063
108	0xbc2490a5	-0.010044252
109	0x3bb6630d	0.005566007
110	0x3b79b19a	0.0038100244
111	0xbb9f685d	-0.004864736
112	0xbc249043	-0.01004416
113	0x3bc04dd8	0.0058686547
114	0xbc0bda91	-0.008535997
115	0x3b5d6baf	0.0033786108
116	0xbc3b1560	-0.01141867
117	0xbc227756	-0.009916147
118	0x3bc24eb7	0.0059297937
119	0x3b6a5fc2	0.0035762643
120	0xbc0a31f8	-0.008434765
121	0xbb751019	-0.0037393628
122	0x3b46cb1b	0.0030333463
123	0xbc248e1d	-0.010043648
124	0x3b5af388	0.0033409316
125	0xbc3b0b9e	-0.011416344
126	0x3b3bb8e0	0.002864413
127	0xbc24906b	-0.010044198

bn2.running_var f4 [128]
0	0x3796f5f2	1.799592e-05
1	0x365b67ad	3.269389e-06
2	0x3796f668	1.7996135e-05
3	0x3796f7ef	1.7996847e-05
4	0x365b83d7	3.2710284e-06
5	0x3796f211	1.7994114e-05
6	0x365b8a83	3.2714167e-06
7	0x365b4a68	3.2676853e-06
8	0x365b9188	3.2718253e-06
9	0x365b6376	3.2691437e-06
10	0x365b7f89	3.2707778e-06
11	0x3796f30f	1.7994576e-05
12	0x3796f657	1.7996104e-05
13	0x3796ee17	1.7992263e-05
14	0x3796f5f8	1.7995932e-05
15	0x365bbbd9	3.2742885e-06
16	0x365b4afa	3.2677185e-06
17	0x365bc54c	3.2748385e-06
18	0x365ba3a8	3.2728803e-06
19	0x3796ec97	1.7991564e-05
20	0x3796e7e8	1.7989383e-05
21	0x365b7a27	3.2704645e-06
22	0x3796f38b	1.7994802e-05
23	0x3796f48a	1.7995266e-05
24	0x365bbf26	3.2744806e-06
25	0x365bc2c5	3.2746914e-06
26	0x365b9ee0	3.272602e-06
27	0x365b87bd	3.2712553e-06
28	0x3796f4e3	1.7995428e-05
29	0x3796f974	1.7997554e-05
30	0x3796f67e	1.7996175e-05
31	0x3796f9fb	1.79978e-05
32	0x3796eb32	1.7990915e-05
33	0x365b9e35	3.2725632e-06
34	0x3796f412	1.7995048e-05
35	0x3796f02f	1.7993238e-05
36	0x365b6d1b	3.269705e-06
37	0x365b90ab	3.271775e-06
38	0x365bdbb4	3.2761427e-06
39	0x3796f4d0	1.7995393e-05
40	0x3796f736	1.799651e-05
41	0x3796e922	1.7989954e-05
42	0x3796f2cb	1.7994453e-05
43	0x3796fa3e	1.7997922e-05
44	0x3796f5b2	1.7995804e-05
45	0x3796ed00	1.7991755e-05
46	0x3796f1f1	1.7994056e-05
47	0x365b2640	3.2655807e-06
48	0x3796f7d4	1.7996797e-05
49	0x3796f73f	1.7996526e-05
50	0x3796fbd3	1.7998658e-05
51	0x3796f755	1.7996566e-05
52	0x3796f0e2	1.7993563e-05
53	0x365b9f0d	3.2726123e-06
54	0x3796f70e	1.7996437e-05
55	0x3796ea5e	1.799053e-05
56	0x3796f707	1.7996425e-05
57	0x365b9f24	3.2726175e-06
58	0x365b3cdb	3.2668966e-06
59	0x3796f903	1.7997349e-05
60	0x365b6573	3.2692594e-06
61	0x365b546c	3.2682683e-06
62	0x3796fa5c	1.7997976e-05
63	0x365bce31	3.2753562e-06
64	0x365c0dd5	3.2790606e-06
65	0x365b9824	3.27221e-06
66	0x365bb646	3.273964e-06
67	0x3796f6f1	1.7996384e-05
68	0x3796f323	1.7994613e-05
69	0x365bcbcd	3.275217e-06
70	0x365b9710	3.2721473e-06
71	0x3796f10f	1.7993645e-05
72	0x365b5843	3.2684918e-06
73	0x3796f359	1.7994711e-05
74	0x365baae8	3.2733024e-06
75	0x3796f9e7	1.7997763e-05
76	0x365bca50	3.2751304e-06
77	0x365bb0da	3.2736484e-06
78	0x365bd39d	3.2756718e-06
79	0x3796f448	1.7995146e-05
80	0x3796f4d0	1.7995393e-05
81	0x3796f968	1.7997532e-05
82	0x3796f53b	1.7995588e-05
83	0x365ba249	3.2728005e-06
84	0x3796f619	1.7995992e-05
85	0x3796f9a4	1.7997641e-05
86	0x3796f43d	1.7995126e-05
87	0x3796f206	1.7994094e-05
88	0x365bc5d0	3.2748685e-06
89	0x3796f33a	1.7994655e-05
90	0x3796f663	1.7996126e-05
91	0x3796f7f0	1.7996848e-05
92	0x365bcdc9	3.2753326e-06
93	0x365bb445	3.2738474e-06
94	0x365b9f8b	3.272641e-06
95	0x3796ec7a	1.7991511e-05
96	0x365c1776	3.279621e-06
97	0x3796f7c8	1.7996776e-05
98	0x3796f4f8	1.7995466e-05
99	0x365b6b53	3.2696014e-06
100	0x3796f604	1.7995953e-05
101	0x365b9120	3.2718017e-06
102	0x3796f560	1.7995655e-05
103	0x365b868c	3.271186e-06
104	0x3796f70a	1.799643e-05
105	0x365bc7bb	3.2749801e-06
106	0x365b42de	3.2672465e-06
107	0x3796f3d4	1.7994935e-05
108	0x3796f7e4	1.7996827e-05
109	0x3796ea56	1.7990515e-05
110	0x365b4880	3.2675744e-06
111	0x365b8d8f	3.271594e-06
112	0x3796f500	1.799548e-05
113	0x3796f61a	1.7995993e-05
114	0x365ba43d	3.2729142e-06
115	0x365ba0dd	3.2727178e-06
116	0x365b7009	3.2698756e-06
117	0x3796f9ff	1.7997807e-05
118	0x3796e88f	1.7989687e-05
119	0x365b9b85	3.2724067e-06
120	0x365bbab7	3.2742225e-06
121	0x365b4de8	3.267889e-06
122	0x365b68ad	3.2694472e-06
123	0x3796fbc2	1.7998627e-05
124	0x365bf5af	3.277655e-06
125	0x365b4891	3.2675782e-06
126	0x365b7a54	3.2704747e-06
127	0x3796f5db	1.7995879e-05

fc3.weight f4 [1, 128]
0	0xbc23d70a	-0.01
1	0x3c23d70a	0.01
2	0xbc23d70a	-0.01
3	0xbc23d70a	-0.01
4	0x3c23d70a	0.01
5	0xbc23d70a	-0.01
6	0x3c23d70a	0.01
7	0x3c23d70a	0.01
8	0x3c23d70a	0.01
9	0x3c23d70a	0.01
10	0x3c23d70a	0.01
11	0xbc23d70a	-0.01
12	0xbc23d70a	-0.01
13	0xbc23d70a	-0.01
14	0xbc23d70a	-0.01
15	0x3c23d70a	0.01
16	0x3c23d70a	0.01
17	0x3c23d70a	0.01
18	0x3c23d70a	0.01
19	0xbc23d70a	-0.01
20	0xbc23d70a	-0.01
21	0x3c23d70a	0.01
22	0xbc23d70a	-0.01
23	0xbc23d70a	-0.01
24	0x3c23d70a	0.01
25	0x3c23d70a	0.01
26	0x3c23d70a	0.01
27	0x3c23d70a	0.01
28	0xbc23d70a	-0.01
29	0xbc23d70a	-0.01
30	0xbc23d70a	-0.01
31	0xbc23d70a	-0.01
32	0xbc23d70a	-0.01
33	0x3c23d70a	0.01
34	0xbc23d70a	-0.01
35	0xbc23d70a	-0.01
36	0x3c23d70a	0.01
37	0x3c23d70a	0.01
38	0x3c23d70a	0.01
39	0xbc23d70a	-0.01
40	0xbc23d70a	-0.01
41	0xbc23d70a	-0.01
42	0xbc23d70a	-0.01
43	0xbc23d70a	-0.01
44	0xbc23d70a	-0.01
45	0xbc23d70a	-0.01
46	0xbc23d70a	-0.01
47	0x3c23d70a	0.01
48	0xbc23d70a	-0.01
49	0xbc23d70a	-0.01
50	0xbc23d70a	-0.01
51	0xbc23d70a	-0.01
52	0xbc23d70a	-0.01
53	0x3c23d70a	0.01
54	0xbc23d70a	-0.01
55	0xbc23d70a	-0.01
56	0xbc23d70a	-0.01
57	0x3c23d70a	0.01
58	0x3c23d70a	0.01
59	0xbc23d70a	-0.01
60	0x3c23d70a	0.01
61	0x3c23d70a	0.01
62	0xbc23d70a	-0.01
63	0x3c23d70a	0.01
64	0x3c23d70a	0.01
65	0x3c23d70a	0.01
66	0x3c23d70a	0.01
67	0xbc23d70a	-0.01
68	0xbc23d70a	-0.01
69	0x3c23d70a	0.01
70	0x3c23d70a	0.01
71	0xbc23d70a	-0.01
72	0x3c23d70a	0.01
73	0xbc23d70a	-0.01
74	0x3c23d70a	0.01
75	0xbc23d70a	-0.01
76	0x3c23d70a	0.01
77	0x3c23d70a	0.01
78	0x3c23d70a	0.01
79	0xbc23d70a	-0.01
80	0xbc23d70a	-0.01
81	0xbc23d70a	-0.01
82	0xbc23d70a	-0.01
83	0x3c23d70a	0.01
84	0xbc23d70a	-0.01
85	0xbc23d70a	-0.01
86	0xbc23d70a	-0.01
87	0xbc23d70a	-0.01
88	0x3c23d70a	0.01
89	0xbc23d70a	-0.01
90	0xbc23d70a	-0.01
91	0xbc23d70a	-0.01
92	0x3c23d70a	0.01
93	0x3c23d70a	0.01
94	0x3c23d70a	0.01
95	0xbc23d70a	-0.01
96	0x3c23d70a	0.01
97	0xbc23d70a	-0.01
98	0xbc23d70a	-0.01
99	0x3c23d70a	0.01
100	0xbc23d70a	-0.01
101	0x3c23d70a	0.01
102	0xbc23d70a	-0.01
103	0x3c23d70a	0.01
104	0xbc23d70a	-0.01
105	0x3c23d70a	0.01
106	0x3c23d70a	0.01
107	0xbc23d70a	-0.01
108	0xbc23d70a	-0.01
109	0xbc23d70a	-0.01
110	0x3c23d70a	0.01
111	0x3c23d70a	0.01
112	0xbc23d70a	-0.01
113	0xbc23d70a	-0.01
114	0x3c23d70a	0.01
115	0x3c23d70a	0.01
116	0x3c23d70a	0.01
117	0xbc23d70a	-0.01
118	0xbc23d70a	-0.01
119	0x3c23d70a	0.01
120	0x3c23d70a	0.01
121	0x3c23d70a	0.01
122	0x3c23d70a	0.01
123	0xbc23d70a	-0.01
124	0x3c23d70a	0.01
125	0x3c23d70a	0.01
126	0x3c23d70a	0.01
127	0xbc23d70a	-0.01
