10_Models/Results_Barcelona/WGANBR_Congestion_discriminator_trad_best.pth (torch, 78222 bytes, 13 tensors)

fc1.weight f4 [128, 2]
0	0xbb656143	-0.00350006
1	0xbbc7f8b8	-0.0061026476
2	0xbc23d70a	-0.01
3	0x3c232a0a	0.009958753
4	0x3c23d70a	0.01
5	0x3c211aac	0.009833019
6	0xbb1b8e28	-0.0023735855
7	0x3c23d70a	0.01
8	0xbc23cea7	-0.009998
9	0x3b8ebe82	0.0043562064
10	0xbb27ff5c	-0.0025634384
11	0x3c23d70a	0.01
12	0xbc23d70a	-0.01
13	0x3c22e2e3	0.009941789
14	0xbbe3ad6d	-0.006948164
15	0xbbec53a0	-0.0072121173
16	0xbb71f210	-0.0036917962
17	0xbaacc193	-0.0013180248
18	0x3a102258	0.00054982817
19	0x3c049ded	0.008094293
20	0xbb5185b9	-0.0031970574
21	0x3c23d70a	0.01
22	0xbb9cb77b	-0.0047826148
23	0xbba00869	-0.004883815
24	0xbbe7cc2f	-0.007073901
25	0x3c2387c1	0.009981097
26	0xbc23d70a	-0.01
27	0x3c2341e8	0.009964444
28	0xbc23d70a	-0.01
29	0xbc2119f0	-0.009832844
30	0xbbe3307c	-0.00693327
31	0x3c23d70a	0.01
32	0xbc23d70a	-0.01
33	0xbc21ffda	-0.00988766
34	0xbc189b6b	-0.009314398
35	0xbc1f6ac2	-0.009730043
36	0xbaf18532	-0.0018426536
37	0x3c23d70a	0.01
38	0xbbc1bac7	-0.005912158
39	0xbbb816c5	-0.0056179487
40	0x3a738015	0.00092888
41	0x3c23d70a	0.01
42	0xbbf605da	-0.007508022
43	0x3c2341f1	0.009964452
44	0xbc1e2332	-0.009651946
45	0xbbcfe97a	-0.0063449712
46	0xbb03a0c8	-0.0020084847
47	0x39c884b1	0.00038245835
48	0xbb1ccfdf	-0.0023927612
49	0x3c23d70a	0.01
50	0xbc23d70a	-0.01
51	0xbc2179ab	-0.009855668
52	0xbb838084	-0.004013123
53	0x3c23d70a	0.01
54	0xbbe2e1fd	-0.0069239126
55	0xbbbc14e3	-0.0057397946
56	0xbc23d70a	-0.01
57	0xbc2119f0	-0.009832844
58	0xbbdc4e83	-0.0067232265
59	0x3c23d70a	0.01
60	0xbc23d70a	-0.01
61	0xbc2119f0	-0.009832844
62	0xbb38c125	-0.0028191295
63	0x38fe13d2	0.00012115356
64	0x3c17354d	0.0092290165
65	0x3c0d5cb7	0.008628062
66	0x396ebd85	0.0002276805
67	0x3c23d70a	0.01
68	0xbc0ce4cb	-0.00859947
69	0xbc236a18	-0.009974025
70	0xbc23d70a	-0.01
71	0x3c2327de	0.009958236
72	0xbaf87255	-0.0018954972
73	0x3c23d70a	0.01
74	0xbb48f83d	-0.003066554
75	0x3c23d70a	0.01
76	0xbbe9adcb	-0.0071313134
77	0x3c23bf0e	0.009994281
78	0xbb32288f	-0.002718482
79	0xbbe1b8f3	-0.0068885027
80	0xbc156643	-0.009118619
81	0xbc23d70a	-0.01
82	0xbc23d70a	-0.01
83	0xbc216a76	-0.009852042
84	0xbb9835a1	-0.004645065
85	0x3c23d70a	0.01
86	0xbc23d70a	-0.01
87	0xbc211ddd	-0.00983378
88	0xbbe6156f	-0.007021598
89	0x3c238880	0.009981275
90	0xbbe41232	-0.006960177
91	0x3c23a355	0.009987672
92	0xbb4ee20d	-0.0031567842
93	0x3c23d70a	0.01
94	0xbbeb9859	-0.007189792
95	0x3c2341fe	0.009964464
96	0xbb1e7f2c	-0.0024184687
97	0x3c23d70a	0.01
98	0xbbc92c24	-0.006139295
99	0x3c2341ec	0.0099644475
100	0xbc2119a4	-0.009832773
101	0xbc23d70a	-0.01
102	0xbbc3e1b6	-0.0059778346
103	0xbc2364db	-0.009972776
104	0xbc23d70a	-0.01
105	0x3c23405e	0.009964077
106	0x3bd9e13b	0.006649164
107	0x3c23d70a	0.01
108	0xba5c0949	-0.00083937176
109	0x3c23d70a	0.01
110	0xbb1dbb4e	-0.002406794
111	0x39e087f1	0.00042825894
112	0xbc23d70a	-0.01
113	0xbc211aac	-0.009833019
114	0xbbe6b5fb	-0.0070407367
115	0x3c23d70a	0.01
116	0xbc23d70a	-0.01
117	0xbc21bcf0	-0.009871706
118	0xbbeec6c8	-0.00728688
119	0x3c2341fd	0.009964463
120	0xbbaccf42	-0.0052737305
121	0xbc1c0615	-0.009522934
122	0xbbeeb83c	-0.007285146
123	0x3c2341fe	0.009964464
124	0xbc23d70a	-0.01
125	0xbc2119f0	-0.009832844
126	0xbb44a7dd	-0.003000728
127	0xbbfc5af6	-0.007701273
128	0xbbe9778c	-0.007124847
129	0x3c23d519	0.009999537
130	0xbc23d70a	-0.01
131	0x3c2341ea	0.009964446
132	0xbc23d70a	-0.01
133	0xbc211b4c	-0.009833168
134	0xbc23d70a	-0.01
135	0x3c2341ee	0.009964449
136	0xbbccd1b8	-0.0062505864
137	0xbbd44ab3	-0.0064786314
138	0xbbe1e07a	-0.006893215
139	0xbc239152	-0.0099833775
140	0xbbe4e370	-0.0069851205
141	0x3c23d70a	0.01
142	0xbc23d70a	-0.01
143	0xbc213672	-0.009839641
144	0xbbf3e067	-0.0074425223
145	0x3c2341f6	0.009964457
146	0xbb1c2167	-0.002382362
147	0x3c23d70a	0.01
148	0xbb1c7b84	-0.0023877332
149	0x3c23d70a	0.01
150	0xbbe0e84d	-0.00686363
151	0x3c23d70a	0.01
152	0xba44cc3a	-0.0007507239
153	0x3c23d70a	0.01
154	0x3a8e5b89	0.001086102
155	0x3c23d70a	0.01
156	0xbc23d70a	-0.01
157	0x3c11be81	0.008895517
158	0xbba6356b	-0.005072286
159	0xbb8469a2	-0.0040409127
160	0xbc23d70a	-0.01
161	0xbc2119f0	-0.009832844
162	0xbb1de213	-0.002409105
163	0x3c23d70a	0.01
164	0xbb0dd427	-0.0021641345
165	0x38e2524a	0.00010791847
166	0xbc23d70a	-0.01
167	0xbc2119f1	-0.009832845
168	0xbc23d70a	-0.01
169	0xbc21bcca	-0.009871671
170	0xbbc29c15	-0.0059390166
171	0xbb8e9410	-0.0043511465
172	0xbc23d70a	-0.01
173	0x3c23415d	0.009964314
174	0xbaf97c1c	-0.001903418
175	0x3c23d70a	0.01
176	0xbb863f15	-0.0040968754
177	0x3c23d70a	0.01
178	0xbbe4dfb3	-0.006984675
179	0x3c23d70a	0.01
180	0xbb96f54e	-0.0046068793
181	0xbc182b49	-0.009287664
182	0xbbf49379	-0.007463869
183	0x3c232ad7	0.009958944
184	0xbc23d70a	-0.01
185	0xbc218fdd	-0.00986096
186	0xbaee20eb	-0.0018167769
187	0x3c23d70a	0.01
188	0xbb88be86	-0.004173103
189	0x3c23d70a	0.01
190	0x3c23d70a	0.01
191	0x3c2119fe	0.009832857
192	0x3c23d70a	0.01
193	0x3c211a8d	0.00983299
194	0xbc23d70a	-0.01
195	0x3c1dd923	0.009634289
196	0xbaab7dbd	-0.0013083738
197	0x3c23d70a	0.01
198	0xbb92be4a	-0.0044782506
199	0xbbaab0b0	-0.005209051
200	0xbc23d70a	-0.01
201	0x3c232b3b	0.009959037
202	0xbbe99d31	-0.0071293344
203	0x3c12ba25	0.008955513
204	0xbbf60c63	-0.007508801
205	0x3c232ad6	0.009958943
206	0xbb0b1e75	-0.002122787
207	0x3c23d70a	0.01
208	0xbb170500	-0.0023043752
209	0x3c23d70a	0.01
210	0xbbe72a01	-0.007054568
211	0x3c23d70a	0.01
212	0xbc23d70a	-0.01
213	0xbc2119f0	-0.009832844
214	0xbba6afef	-0.005086891
215	0x3c23d70a	0.01
216	0xbb3ca99d	-0.002878762
217	0x3c23d70a	0.01
218	0xbbd34e7c	-0.006448565
219	0xbbd428bb	-0.006474582
220	0xbbc40998	-0.005982589
221	0xbb8b3f6f	-0.0042495052
222	0xbbece5c8	-0.0072295405
223	0x3c23569a	0.009969378
224	0xbb0f3c2b	-0.0021855931
225	0x3c23d70a	0.01
226	0x3c23d70a	0.01
227	0x3c211aac	0.009833019
228	0xbc23d70a	-0.01
229	0x3c22f1f0	0.009945378
230	0xba8db59c	-0.001081157
231	0x3c23d70a	0.01
232	0xbb17bd95	-0.0023153771
233	0x3c23d70a	0.01
234	0xbb50e9e3	-0.0031877689
235	0x3c23d70a	0.01
236	0xbbf19434	-0.0073724035
237	0x3c228dd9	0.009921514
238	0xbc0696ab	-0.008214633
239	0xbc07f70a	-0.008298645
240	0xbc23d70a	-0.01
241	0xbc22ddf3	-0.009940612
242	0xbb1db982	-0.002406687
243	0x3c23d70a	0.01
244	0x3c23d70a	0.01
245	0x3c211ec0	0.0098339915
246	0xbbca1ccb	-0.006167983
247	0xbbbf2c2d	-0.0058341236
248	0xbbeaec1b	-0.0071692592
249	0x3c23baea	0.009993294
250	0xbbe98a54	-0.0071270857
251	0x3c2342b8	0.009964637
252	0xbb2341d2	-0.0024911058
253	0xbb2a7c0c	-0.002601388
254	0xbc23d70a	-0.01
255	0x3c2341ea	0.009964446

fc1.bias f4 [128]
0	0x3c238b99	0.009982013
1	0x3c1fa345	0.009743516
2	0xbc22a844	-0.009927813
3	0xbc21aa10	-0.009867206
4	0x3c22da03	0.009939673
5	0x3c21fb28	0.0098865405
6	0x3c23cf7f	0.009998201
7	0x3c23d0d7	0.009998522
8	0x3c22c60b	0.009934912
9	0x3c23c8f3	0.0099966405
10	0xbc228937	-0.00992041
11	0xbc237155	-0.009975751
12	0xbc229758	-0.0099237785
13	0x3c2293fd	0.0099229785
14	0xbc2377ec	-0.009977322
15	0x3c237c60	0.009978384
16	0x3c228aef	0.00992082
17	0xbc2398d1	-0.009985165
18	0x3c20cbc6	0.009814208
19	0x3c23cd1c	0.009997632
20	0xbc214eda	-0.00984546
21	0xbc233d26	-0.009963309
22	0xbc23d492	-0.009999411
23	0x3c227918	0.009916566
24	0x3c231908	0.009954698
25	0x3c2314c0	0.009953678
26	0x3c23b24f	0.009991243
27	0x3c22f66e	0.009946449
28	0xbc22f0f2	-0.009945141
29	0xbc228876	-0.00992023
30	0xbc23ace9	-0.009989955
31	0xbc22f126	-0.00994519
32	0x3c235890	0.009969845
33	0xbc204cd1	-0.009783939
34	0x3c2332d6	0.009960851
35	0xbc23938d	-0.009983909
36	0x3c221e6e	0.00989495
37	0x3c22c02b	0.009933512
38	0x3c2253fd	0.00990772
39	0xbc21fc8f	-0.009886875
40	0x3c2206f5	0.009889354
41	0xbc23d215	-0.009998818
42	0x3c231389	0.009953388
43	0x3c221146	0.009891814
44	0x3c2386a1	0.0099808285
45	0xbc237ff5	-0.009979238
46	0xbc21431b	-0.009842659
47	0x3c2359cd	0.009970141
48	0x3c2309ea	0.009951094
49	0xbc23c716	-0.009996196
50	0xbc227976	-0.009916654
51	0xbc23d111	-0.009998576
52	0xbc2329e7	-0.009958721
53	0xbc23597e	-0.009970067
54	0xbc23beea	-0.009994248
55	0xbc22960b	-0.009923468
56	0x3c21df9f	0.009879976
57	0xbc2388c0	-0.009981334
58	0xbc22b7e2	-0.009931536
59	0xbc2340b3	-0.009964156
60	0x3c2397c6	0.009984916
61	0xbc23815a	-0.00997957
62	0x3c2314ce	0.009953691
63	0x3c239a16	0.009985467
64	0xbc22ac83	-0.009928825
65	0x3c225fa4	0.009910498
66	0x3c224269	0.009903529
67	0xbc234e5a	-0.009967411
68	0x3c23a84c	0.009988856
69	0xbc2336f2	-0.00996183
70	0xbc23c0f6	-0.009994736
71	0x3c22db8b	0.009940038
72	0xbc23b2af	-0.009991332
73	0x3c20ac82	0.009806754
74	0xbc227ede	-0.009917943
75	0x3c2320a7	0.009956515
76	0x3c21ccb4	0.009875465
77	0xbc21beea	-0.009872178
78	0x3c216b0e	0.009852184
79	0xbc239cb4	-0.009986091
80	0x3c21d532	0.00987749
81	0x3c221ae8	0.00989411
82	0xbc23707a	-0.009975547
83	0x3c228a38	0.009920649
84	0xbc207f7b	-0.009796019
85	0xbc23bbc1	-0.0099934945
86	0x3c235ce1	0.0099708745
87	0xbc20641b	-0.009789492
88	0xbc228f14	-0.009921808
89	0xbc237f66	-0.009979105
90	0x3c23d048	0.009998389
91	0xbc236080	-0.009971738
92	0x3c21e7f9	0.009881967
93	0x3c23a166	0.009987211
94	0xbc201f78	-0.009773128
95	0x3c2292cd	0.009922695
96	0xbc22d07d	-0.009937403
97	0x3c22fa7e	0.009947417
98	0xbc235be8	-0.009970643
99	0x3c22726c	0.009914976
100	0xbc236e04	-0.00997496
101	0x3c2300ec	0.00994895
102	0xbc23c9ba	-0.009996826
103	0x3c219e16	0.009864351
104	0x3c22ffa4	0.009948645
105	0x3c22eec3	0.009944621
106	0x3c23635c	0.00997242
107	0xbc23548b	-0.009968887
108	0x3c21eb1d	0.0098827155
109	0xbc2276ed	-0.009916049
110	0xbc218b17	-0.009859822
111	0x3c21d2e9	0.009876945
112	0x3c226ee8	0.009914137
113	0xbc22fa42	-0.009947361
114	0xbc23a991	-0.009989158
115	0xbb9f8961	-0.0048686718
116	0xbc210032	-0.009826707
117	0x3c219bc1	0.009863795
118	0x3c21e653	0.009881574
119	0x3c2361ba	0.00997203
120	0x3c238d5f	0.009982436
121	0x3c22becf	0.009933188
122	0x3c236a23	0.009974035
123	0x3c23d300	0.009999037
124	0x3c231c09	0.009955415
125	0xbc234a21	-0.009966404
126	0x3c230d46	0.009951895
127	0x3c234313	0.009964722

bn1.weight f4 [128]
0	0x3c23d70a	0.01
1	0x3c2233a2	0.0099000055
2	0xbc23d70a	-0.01
3	0x3c23a4d3	0.009988028
4	0x3c135ade	0.008993832
5	0x3c23a4d4	0.009988029
6	0x3c221f81	0.009895206
7	0x3c23d70a	0.01
8	0x3b831ec6	0.004001471
9	0x3c23d70a	0.01
10	0x3c23a4eb	0.00998805
11	0x3c23d70a	0.01
12	0x3c22bb34	0.009932328
13	0x3c22c651	0.009934978
14	0x3c23d70a	0.01
15	0x3c22b516	0.00993087
16	0x3c23d70a	0.01
17	0x3c23d70a	0.01
18	0x3c23a4d4	0.009988029
19	0x3c17c4cf	0.009263231
20	0x3c23a221	0.009987385
21	0x3c22c624	0.009934936
22	0x3bd45f1f	0.006481066
23	0x3b674121	0.0035286623
24	0x3c23a4d4	0.009988029
25	0x3c23d70a	0.01
26	0x3c23a4ce	0.009988023
27	0x3be32239	0.00693157
28	0x3c23d70a	0.01
29	0x3c22bf24	0.009933267
30	0x3c23d70a	0.01
31	0x3b6abbc9	0.0035817495
32	0x37ad7054	2.0675514e-05
33	0x3c23a4d2	0.009988027
34	0x3c0bee11	0.008540646
35	0x3c223154	0.009899456
36	0x3c23a4d4	0.009988029
37	0x3c239935	0.009985258
38	0x3c22b6c2	0.009931268
39	0x3c23d70a	0.01
40	0x3bc01b20	0.0058626086
41	0x3c23d70a	0.01
42	0x3c21bc91	0.009871618
43	0x3c23d70a	0.01
44	0x3c22b9f2	0.009932028
45	0x3c22b779	0.009931439
46	0x3c23a4eb	0.00998805
47	0x3c22c631	0.009934948
48	0x3c23a4eb	0.00998805
49	0x3c22c64f	0.009934976
50	0x3c02baac	0.007979076
51	0x3ba7c5d8	0.0051200204
52	0x3c22c136	0.00993376
53	0xbb8427a1	-0.0040330444
54	0x3c23a4d4	0.009988029
55	0x3b63cefb	0.003476082
56	0x3c23d70a	0.01
57	0x3c22b131	0.009929941
58	0x3c137c55	0.009001811
59	0x3c22c630	0.009934947
60	0x3c23d70a	0.01
61	0x3c22c630	0.009934947
62	0x3c23d70a	0.01
63	0x3c23d70a	0.01
64	0x3c22b210	0.009930149
65	0x3c22c650	0.009934977
66	0x3c23d70a	0.01
67	0x3c22c79d	0.009935287
68	0x3c23d70a	0.01
69	0x3c183a55	0.009291251
70	0x3c22b1f1	0.00993012
71	0x3c23d70a	0.01
72	0x3c22c61f	0.009934931
73	0x3c23a4eb	0.00998805
74	0x3c23a566	0.0099881645
75	0x3c22af10	0.009929433
76	0x3c23a4d4	0.009988029
77	0x3c239bda	0.009985888
78	0x3c1a30d8	0.009411059
79	0x3c108f7b	0.008823271
80	0x3c23d70a	0.01
81	0x3c23a4d4	0.009988029
82	0x3b90dd9a	0.004420948
83	0x3c23d70a	0.01
84	0x3c23d70a	0.01
85	0x3bdedac4	0.0068009812
86	0x3c22c2d4	0.009934146
87	0x3c222b71	0.009898053
88	0x3c23a450	0.009987906
89	0x3c22b05d	0.009929744
90	0x3c23d70a	0.01
91	0x3c226fe7	0.009914375
92	0x3c23d70a	0.01
93	0x3c23a4eb	0.00998805
94	0x3c23a4f2	0.0099880565
95	0xbc23d70a	-0.01
96	0x3c23d70a	0.01
97	0x3c1fb447	0.009747571
98	0x3c239b94	0.009985823
99	0x3bcbbf5c	0.00621788
100	0x3c226f2f	0.009914204
101	0x3c1ac4df	0.009446352
102	0x3c226fe9	0.009914377
103	0x3c23a4d4	0.009988029
104	0x3c23a0e2	0.009987088
105	0x3c22b1f3	0.009930122
106	0x3c23d70a	0.01
107	0x3c22b066	0.009929752
108	0x3c23a52f	0.009988113
109	0x3c23d70a	0.01
110	0x3bd7c705	0.0065850043
111	0x3c22c1a2	0.009933861
112	0x3c23a4d4	0.009988029
113	0xbc23d70a	-0.01
114	0x3c20f65c	0.009824362
115	0x3c23a585	0.009988193
116	0x3c23a4d4	0.009988029
117	0x3c23a4eb	0.00998805
118	0x3c21d0a5	0.009876405
119	0x3c23d70a	0.01
120	0x3c23d70a	0.01
121	0x3c23a4eb	0.00998805
122	0xbc23d70a	-0.01
123	0x3c14084e	0.009035183
124	0x3c22b4d3	0.009930807
125	0x3c22c588	0.00993479
126	0x3c23d70a	0.01
127	0x3c22c650	0.009934977

bn1.bias f4 [128]
0	0x3c229e51	0.009925441
1	0x3ba81aba	0.005130139
2	0x3c23d70a	0.01
3	0xbb904fd9	-0.00440405
4	0x3c23d70a	0.01
5	0xbb90c53b	-0.004418043
6	0x3c237ec9	0.009978958
7	0xbb4173e0	-0.002951853
8	0xbb295ad9	-0.0025841503
9	0xbc231d40	-0.009955704
10	0xbb90fcff	-0.0044246907
11	0xbb248a2e	-0.0025106776
12	0x3a4cbab1	0.00078098016
13	0x3a37941a	0.0007002965
14	0x3c23d70a	0.01
15	0x3a189724	0.00058208616
16	0x3bb9ac29	0.005666275
17	0xba5ed379	-0.000850014
18	0xbb90c42a	-0.004417916
19	0xbb318b0a	-0.002709093
20	0xbb904526	-0.0044027744
21	0x3a33a1ed	0.0006852437
22	0xbc1364ea	-0.008996228
23	0xbb184201	-0.00232327
24	0xbb9041b1	-0.0044023623
25	0x3c23d70a	0.01
26	0xbb8f6000	-0.0043754578
27	0xbac0e0c2	-0.001471542
28	0x3c23d70a	0.01
29	0x3a104035	0.00055027317
30	0x3c23d70a	0.01
31	0xbb0de78f	-0.0021652912
32	0x3b163842	0.0022921716
33	0xbb90432d	-0.004402539
34	0x3c23d70a	0.01
35	0x3baf5a29	0.005351324
36	0xbb904f5b	-0.004403991
37	0xbb90ebb4	-0.0044226293
38	0x3a4d3560	0.0007828083
39	0x3c22b43e	0.009930668
40	0x3c154f3a	0.009113127
41	0x3c23d70a	0.01
42	0x39eb80f5	0.00044918773
43	0x3c23d70a	0.01
44	0x3a4f1d7d	0.00079008174
45	0x3a4f23b7	0.0007901745
46	0xbb90fc43	-0.004424603
47	0x3a2abf22	0.00065134664
48	0xbb910ec4	-0.004426809
49	0x3a362b09	0.0006949162
50	0x3c22ecb5	0.009944131
51	0x3ba9c6c2	0.0051811645
52	0x3a9a03d6	0.0011750411
53	0x3ba70fa0	0.005098298
54	0xbb90b280	-0.00441581
55	0xbb0e3cbe	-0.0021703686
56	0x3c23d70a	0.01
57	0x3a3881fc	0.0007038412
58	0xbb82b046	-0.0039882986
59	0x3a2b551a	0.00065358134
60	0x3bdbe6de	0.006710871
61	0x3a2a7458	0.0006502322
62	0x3c23d70a	0.01
63	0x3c22b70c	0.009931337
64	0x3a499973	0.0007690407
65	0x3a36a22c	0.00069669145
66	0x3c23d70a	0.01
67	0x3a519c8e	0.0007996046
68	0xbaab7f5b	-0.001308422
69	0x3c1b7338	0.0094879195
70	0x3a1ee701	0.0006061644
71	0x3c23d70a	0.01
72	0x3a3330a5	0.00068355567
73	0xbb91159b	-0.0044276244
74	0xbb901ca2	-0.0043979445
75	0x3a37a399	0.0007005274
76	0xbb904c83	-0.004403652
77	0xbb90f3b9	-0.0044235853
78	0x3c23d70a	0.01
79	0x3bf01b60	0.007327482
80	0x3c23d70a	0.01
81	0xbb90bf67	-0.004417348
82	0xbb2f5b28	-0.0026757214
83	0x3c23d70a	0.01
84	0x3c23d70a	0.01
85	0xba47fbfd	-0.0007628797
86	0x3a8c4fd4	0.0010704943
87	0x3a0480e0	0.0005054604
88	0xbb90ef1a	-0.0044230344
89	0x3a2f7b3f	0.00066940853
90	0x3c1a7194	0.009426493
91	0x3b3d39ac	0.0028873486
92	0x3c23d70a	0.01
93	0xbb912f91	-0.004430719
94	0xbb8f663f	-0.0043762024
95	0x3c23d70a	0.01
96	0x3c06760d	0.008206856
97	0x3c23b601	0.009992124
98	0xbb90ea29	-0.0044224453
99	0x3b396697	0.0028289908
100	0x3b472dc9	0.003039228
101	0x3c23d70a	0.01
102	0x3b3db62b	0.0028947692
103	0xbb904a84	-0.004403414
104	0xbb908cd2	-0.0044113183
105	0x3a256af4	0.0006310188
106	0x3c23d70a	0.01
107	0x3a4216ca	0.00074039085
108	0xbb9029ec	-0.0043995287
109	0xbadff108	-0.0017085383
110	0xba086f7a	-0.00052045996
111	0x3a381abf	0.00070230284
112	0xbb90c213	-0.0044176667
113	0x3c23d70a	0.01
114	0x3c056026	0.008140599
115	0xbb8f8b5a	-0.0043806257
116	0xbb904fdd	-0.0044040517
117	0xbb910fd0	-0.004426934
118	0x3c2399a4	0.009985361
119	0xba6b0242	-0.0008964875
120	0x3c23d70a	0.01
121	0xbb910ebc	-0.0044268053
122	0x3c23d70a	0.01
123	0xbb63333c	-0.003466799
124	0x3a588db5	0.0008260862
125	0x3a29a89d	0.0006471964
126	0xbb1d0268	-0.0023957733
127	0x3a369ffc	0.00069665886

bn1.running_mean f4 [128]
0	0x439b134e	310.15082
1	0xc511faec	-2335.6826
2	0x419c3568	19.526077
3	0xc4b4bb8e	-1445.8611
4	0xc4d29a90	-1684.8301
5	0xc4b77fdb	-1467.9955
6	0xc511e14d	-2334.0813
7	0x41fd13de	31.6347
8	0xc38ac2e8	-277.5227
9	0xc45b2a35	-876.6595
10	0xc4c0c98f	-1542.2987
11	0x4146295c	12.3850975
12	0xc4f95171	-1994.545
13	0xc512065a	-2336.397
14	0xc19c81fb	-19.563467
15	0xc4f769f6	-1979.3113
16	0xc16c56dc	-14.771206
17	0x424db6b9	51.42844
18	0xc4acf7ce	-1383.7439
19	0xc201c86d	-32.44573
20	0xc484646a	-1059.138
21	0xc4ff9486	-2044.6414
22	0xc3c153ba	-386.6541
23	0xc38bc3a8	-279.52856
24	0xc4b5017f	-1448.0468
25	0xc18a6e8b	-17.303976
26	0xc4ccb4a5	-1637.6451
27	0xc30eccde	-142.80026
28	0xc19c8182	-19.563236
29	0xc4f45801	-1954.7501
30	0xc19c8206	-19.563488
31	0xc3abe33a	-343.7752
32	0x428499ae	66.300156
33	0xc48eab3d	-1141.3512
34	0x4312fddc	146.99164
35	0xc511fac5	-2335.673
36	0xc4adbece	-1389.9626
37	0xc4bedc1f	-1526.8788
38	0xc4fa372e	-2001.7244
39	0x43f62247	492.2678
40	0x42c97c1b	100.74239
41	0xc18d1455	-17.634928
42	0xc4d5f5f7	-1711.6864
43	0xc19baf4c	-19.460594
44	0xc4f88b7c	-1988.3589
45	0xc4f7aec1	-1981.461
46	0xc4c02f02	-1537.469
47	0xc4faec0b	-2007.3763
48	0xc4b564a7	-1451.1454
49	0xc4eb9161	-1884.5431
50	0x419c3f56	19.530926
51	0x43e9a6cf	467.3032
52	0xc512064b	-2336.3933
53	0xc3c302d1	-390.022
54	0xc49e4a7e	-1266.3279
55	0xc3a5bc63	-331.47177
56	0xc19c3582	-19.526127
57	0xc4f8f43c	-1991.6323
58	0xc13af90c	-11.685802
59	0xc4fc581b	-2018.7533
60	0x43f93fb2	498.49762
61	0xc4fc529a	-2018.5813
62	0xc19c58c1	-19.543337
63	0x440a4790	553.11816
64	0xc4fa2656	-2001.198
65	0xc512065a	-2336.397
66	0xc19c16ca	-19.511127
67	0xc51206ad	-2336.4172
68	0x41e829c6	29.020397
69	0x43b3dd26	359.72772
70	0xc4f82d74	-1985.4204
71	0xc1526254	-13.149006
72	0xc4fe9e63	-2036.9496
73	0xc4b4ddac	-1446.9272
74	0xc4b4f18b	-1447.5482
75	0xc4f65b29	-1970.8488
76	0xc49cfca8	-1255.8955
77	0xc4821893	-1040.768
78	0xc50a5afd	-2213.6868
79	0xc2e65d87	-115.18267
80	0xc19c56ce	-19.542385
81	0xc4b5409b	-1450.0189
82	0xc384d307	-265.64865
83	0xc19c1717	-19.511274
84	0xc17a95a1	-15.6615305
85	0xc3394af0	-185.29272
86	0xc5120626	-2336.3843
87	0xc4addd39	-1390.9132
88	0xc4cdeffe	-1647.4998
89	0xc4f826db	-1985.2142
90	0x44097b38	549.9253
91	0xc4fee532	-2039.1624
92	0xc185bfde	-16.718685
93	0xc4ac956e	-1380.6697
94	0xc4cf0cae	-1656.3962
95	0x419c7f63	19.5622
96	0x4194ccb3	18.59995
97	0xc50fb602	-2299.3755
98	0xc4a52963	-1321.2933
99	0x428ece68	71.40314
100	0xc5120121	-2336.0706
101	0xc4eb9870	-1884.7637
102	0xc4ff8bbf	-2044.3671
103	0xc4b10d5c	-1416.4175
104	0xc4b3b930	-1437.7871
105	0xc4f92e1e	-1993.4412
106	0xc19c591f	-19.543516
107	0xc4dc5f39	-1762.9757
108	0xc4bc1e98	-1504.956
109	0x40ae4d7c	5.4469585
110	0xc349f4f2	-201.95682
111	0xc4fb8875	-2012.2643
112	0xc4b1fc7e	-1423.8904
113	0x419c355e	19.526058
114	0xc511dddd	-2333.8665
115	0xc4a1d242	-1294.5706
116	0xc4b3e241	-1439.0704
117	0xc4c0a2b7	-1541.0848
118	0xc4fd1c77	-2024.8895
119	0x4158a1a5	13.539464
120	0xc10afbd7	-8.686484
121	0xc4b5354d	-1449.6656
122	0x419b9607	19.448256
123	0xc21bf358	-38.98764
124	0xc4fac423	-2006.1293
125	0xc4fa02ab	-2000.0834
126	0x414e6b85	12.90125
127	0xc512065a	-2336.397

bn1.running_var f4 [128]
0	0x492772db	685869.7
1	0x4c144afe	3.8874104e+07
2	0x4529cb5f	2716.7107
3	0x4b6349a7	1.4895527e+07
4	0x4b9a55ad	2.0228954e+07
5	0x4b6a4e68	1.5355496e+07
6	0x4c1416f4	3.8820816e+07
7	0x45e0c129	7192.145
8	0x4905fd60	548822.0
9	0x4aa71a61	5.4756325e+06
10	0x4b814f42	1.6948868e+07
11	0x44987502	1219.6565
12	0x4bd844c9	2.834677e+07
13	0x4c1461e3	3.8897548e+07
14	0x452a1919	2721.5686
15	0x4bd4fa16	2.7915308e+07
16	0x44c4d011	1574.5021
17	0x4693db4e	18925.652
18	0x4b502ef7	1.3643511e+07
19	0x45eae04a	7516.036
20	0x4af3ec34	7.992858e+06
21	0x4be345a6	2.9789004e+07
22	0x49820658	1.065163e+06
23	0x4907ef69	556790.56
24	0x4b63fb45	1.4940997e+07
25	0x45057cb5	2135.7942
26	0x4b91cbaa	1.9109716e+07
27	0x480e31fc	145607.94
28	0x452a187b	2721.53
29	0x4bcfb846	2.7226252e+07
30	0x452a191a	2721.5688
31	0x494d9364	842038.25
32	0x46f5de64	31471.195
33	0x4b0da17a	9.281914e+06
34	0x48175ca1	154994.52
35	0x4c144a0e	3.8873144e+07
36	0x4b520f1c	1.3766428e+07
37	0x4b7d7add	1.6612061e+07
38	0x4bd9d486	2.8551436e+07
39	0x49d2dc86	1.7273768e+06
40	0x478d586f	72368.87
41	0x450a4670	2212.4023
42	0x4b9f46ed	2.0876762e+07
43	0x4528a9ae	2698.605
44	0x4bd6eef7	2.8171758e+07
45	0x4bd57076	2.7975916e+07
46	0x4b80803a	1.6842868e+07
47	0x4bdb114d	2.8713626e+07
48	0x4b64f563	1.5005027e+07
49	0x4bc11311	2.5306658e+07
50	0x452a3922	2723.5708
51	0x49bdf82f	1.5562299e+06
52	0x4c146125	3.8896788e+07
53	0x49844dfc	1.0838395e+06
54	0x4b2e58b8	1.1425976e+07
55	0x493f1fd3	782845.2
56	0x4529cb60	2716.711
57	0x4bd7a218	2.8263472e+07
58	0x44884971	1090.295
59	0x4bdd8db0	2.9039456e+07
60	0x49d82dc0	1.770936e+06
61	0x4bdd8400	2.9034496e+07
62	0x452a187b	2721.53
63	0x4a051560	2.18044e+06
64	0x4bd9b5e1	2.8535746e+07
65	0x4c1461e5	3.8897556e+07
66	0x452988d7	2712.5525
67	0x4c1461ea	3.8897576e+07
68	0x45bc58e0	6027.1094
69	0x496125c6	922204.4
70	0x4bd64a14	2.8087336e+07
71	0x44c05feb	1538.9974
72	0x4be190b7	2.9565294e+07
73	0x4b63a115	1.4917909e+07
74	0x4b63d18e	1.4930318e+07
75	0x4bd32914	2.7677224e+07
76	0x4b2b7db2	1.1238834e+07
77	0x4aeb88e5	7.7180025e+06
78	0x4c053576	3.4919896e+07
79	0x47b8baa2	94581.266
80	0x452a152b	2721.323
81	0x4b649a62	1.498173e+07
82	0x48f5814c	502794.38
83	0x4529b34a	2715.2056
84	0x44da67d8	1747.2451
85	0x486edd0f	244596.23
86	0x4c14617b	3.8897132e+07
87	0x4b525722	1.3784866e+07
88	0x4b938d4b	1.9339926e+07
89	0x4bd63ec4	2.8081544e+07
90	0x4a038b67	2.1552258e+06
91	0x4be20ea9	2.9629778e+07
92	0x44f9433d	1994.1012
93	0x4b4f4266	1.358295e+07
94	0x4b952659	1.9549362e+07
95	0x452a13b5	2721.2317
96	0x451df736	2527.4507
97	0x4c0fb851	3.7675332e+07
98	0x4b3dcf87	1.2439431e+07
99	0x4714379f	37943.62
100	0x4c1456de	3.8886264e+07
101	0x4bc12129	2.5313874e+07
102	0x4be3366d	2.978121e+07
103	0x4b5a2178	1.4295416e+07
104	0x4b60c33d	1.4730045e+07
105	0x4bd8074a	2.8315284e+07
106	0x452a1919	2721.5686
107	0x4ba8f664	2.2146248e+07
108	0x4b7640db	1.6138459e+07
109	0x4372d213	242.8206
110	0x488de012	290560.56
111	0x4bdc2283	2.885351e+07
112	0x4b5c7053	1.4446675e+07
113	0x4529cb5f	2716.7107
114	0x4c140f2b	3.8812844e+07
115	0x4b363624	1.1941412e+07
116	0x4b612863	1.4755939e+07
117	0x4b811bf9	1.692261e+07
118	0x4bdee915	2.9217322e+07
119	0x44a96330	1355.0996
120	0x440b3a7e	556.91394
121	0x4b647dd6	1.4974422e+07
122	0x45281a37	2689.6384
123	0x46295e32	10839.549
124	0x4bdaca48	2.8677264e+07
125	0x4bd97972	2.8504804e+07
126	0x44a68d4e	1332.4158
127	0x4c1461e5	3.8897556e+07

fc2.weight f4 [128, 128]
0	0xbc23d70a	-0.01
1	0x3c233f28	0.009963788
2	0x3c23d70a	0.01
3	0xbc23d70a	-0.01
4	0x3c23d70a	0.01
5	0xbc23d70a	-0.01
6	0x3c23a3f9	0.009987825
7	0xbc23d70a	-0.01
8	0xbb95317b	-0.0045530177
9	0xbc23d70a	-0.01
10	0xbc23d70a	-0.01
11	0xbc23d70a	-0.01
12	0x3bed4113	0.0072404235
13	0x3c230115	0.009948988
14	0x3c23d70a	0.01
15	0x3b0d0309	0.0021516702
16	0x3b0d841a	0.0021593631
17	0xbc23d70a	-0.01
18	0xbc23d70a	-0.01
19	0xbc1faeba	-0.009746248
20	0xbc1f56b9	-0.009725266
21	0x3c2300e5	0.009948944
22	0xbc020815	-0.007936497
23	0xbb84d38c	-0.0040535387
24	0xbc23d70a	-0.01
25	0x3c23d70a	0.01
26	0xbc23d70a	-0.01
27	0xbb9efe4a	-0.004852091
28	0x3c23d70a	0.01
29	0x3b00f5e6	0.0019677817
30	0x3c23d70a	0.01
31	0xbb826ba0	-0.003980115
32	0x3c1544ef	0.009110673
33	0xbc23d70a	-0.01
34	0x3b827057	0.003980677
35	0x3c2342ca	0.009964654
36	0xbc23d70a	-0.01
37	0xbc0d6c92	-0.008631842
38	0x3bc768e0	0.0060855
39	0xbc23d70a	-0.01
40	0x3b800975	0.0039073774
41	0x3c23d70a	0.01
42	0xbb184eca	-0.0023240321
43	0x3c23d70a	0.01
44	0x3beb3f78	0.007179197
45	0x3bd7e1d1	0.0065881987
46	0xbc23d70a	-0.01
47	0x3c23008e	0.009948863
48	0xbc23d70a	-0.01
49	0x3c230105	0.009948974
50	0x3c077450	0.008267477
51	0xbc0d9c2d	-0.008643192
52	0x3c23068a	0.0099502895
53	0xbba2edff	-0.004972219
54	0xbc23d70a	-0.01
55	0xbb8146e8	-0.0039452203
56	0x3c23d70a	0.01
57	0x3b8f9630	0.0043819174
58	0xbc23c4bb	-0.009995635
59	0x3c230093	0.009948867
60	0xbc23d70a	-0.01
61	0x3c23008a	0.009948859
62	0x3c23d70a	0.01
63	0xbc23d70a	-0.01
64	0x3bb6fb96	0.0055841906
65	0x3c230109	0.009948977
66	0x3c23d70a	0.01
67	0x3c23023e	0.009949265
68	0xbc23d70a	-0.01
69	0xbbec0c7b	-0.007203636
70	0x3b3715fc	0.0027936688
71	0x3c23d70a	0.01
72	0x3c2300e1	0.00994894
73	0xbc23d70a	-0.01
74	0xbc23d70a	-0.01
75	0x3b9ea43c	0.0048413556
76	0xbc23d70a	-0.01
77	0xbc11533e	-0.008869944
78	0x3c23b7fe	0.009992598
79	0xbc03584d	-0.008016658
80	0x3c23d70a	0.01
81	0xbc23d70a	-0.01
82	0xbba8f36b	-0.005155971
83	0x3c23d70a	0.01
84	0x3c23d70a	0.01
85	0xbbba148f	-0.0056787203
86	0x3c230537	0.009949974
87	0xbaa1ba83	-0.001233891
88	0xbc23d70a	-0.01
89	0x3b725df9	0.0036982282
90	0xbc23d70a	-0.01
91	0x3c231b5b	0.0099552525
92	0x3c23d70a	0.01
93	0xbc23d70a	-0.01
94	0xbc23d70a	-0.01
95	0x3c23d70a	0.01
96	0xbc23d70a	-0.01
97	0x3c23a9c3	0.009989205
98	0xbc125c91	-0.008933202
99	0x39a61a66	0.00031681656
100	0x3c231d8e	0.009955777
101	0x3c23b692	0.009992259
102	0x3c231b77	0.009955279
103	0xbc23d70a	-0.01
104	0xbc1c74e7	-0.009549356
105	0x3b6b2aeb	0.0035883735
106	0x3c23d70a	0.01
107	0x3b9ce422	0.0047879377
108	0xbc23d70a	-0.01
109	0xbc23d70a	-0.01
110	0xbbb6f81d	-0.0055837766
111	0x3c12bdf3	0.00895642
112	0xbc23d70a	-0.01
113	0x3c23d70a	0.01
114	0x3c237a77	0.009977928
115	0xbc23d70a	-0.01
116	0xbc23d70a	-0.01
117	0xbc23d70a	-0.01
118	0x3c23a491	0.009987966
119	0xbc23d70a	-0.01
120	0x3c23d70a	0.01
121	0xbc23d70a	-0.01
122	0x3c23d70a	0.01
123	0xbc1fd1d8	-0.0097546205
124	0x3bc8a543	0.0061232164
125	0x3c230082	0.009948852
126	0xbc23d70a	-0.01
127	0x3c230109	0.009948977
128	0x398d6c01	0.00026974085
129	0xbc1a96bc	-0.009435352
130	0x3c23d70a	0.01
131	0xbc23d70a	-0.01
132	0x3a131cfd	0.00056119246
133	0xbc23d70a	-0.01
134	0xbc063264	-0.008190725
135	0xbb024104	-0.0019875178
136	0x3b376dc3	0.0027989007
137	0x3c23d70a	0.01
138	0xbc23d70a	-0.01
139	0xbac84908	-0.0015280554
140	0xbc20b912	-0.009809749
141	0xbc20f71c	-0.0098245405
142	0x3c23d70a	0.01
143	0xbc20dcf7	-0.009818307
144	0x3c23d70a	0.01
145	0x3a76c799	0.00094138976
146	0xbc23d70a	-0.01
147	0xbb446a41	-0.0029970559
148	0xbc23d70a	-0.01
149	0xbc20fe01	-0.009826184
150	0xbc1c1694	-0.009526867
151	0x3b21ec79	0.00247076
152	0xbc23d70a	-0.01
153	0x3c23d70a	0.01
154	0xbc23d70a	-0.01
155	0x3bd68685	0.0065467977
156	0x3c23d70a	0.01
157	0xbc20e7ec	-0.0098209195
158	0x3c23d70a	0.01
159	0xb9b05c64	-0.00033638172
160	0x3c1a7aca	0.009428689
161	0xbc23d70a	-0.01
162	0x3c12f171	0.008968697
163	0xbc1a5183	-0.009418848
164	0xbc23d70a	-0.01
165	0xbc23d70a	-0.01
166	0xbc20a8f3	-0.009805906
167	0x3a393019	0.0007064357
168	0x3c02b9ce	0.00797887
169	0x3c23d70a	0.01
170	0xbc210bb8	-0.009829454
171	0x3c23d70a	0.01
172	0xbc20b3dc	-0.009808507
173	0xbc20abf1	-0.009806619
174	0xbc23d70a	-0.01
175	0xbc210af9	-0.009829276
176	0xbc23d70a	-0.01
177	0xbc20f979	-0.009825104
178	0x3c0d5374	0.008625854
179	0x3b995938	0.004679825
180	0xbc203843	-0.009779039
181	0x3bbd5cdb	0.0057788915
182	0xbc23d70a	-0.01
183	0xba80571c	-0.0009791586
184	0x3c23d70a	0.01
185	0xbc20bb6d	-0.009810311
186	0x3b651a54	0.003495832
187	0xbc2109f9	-0.009829038
188	0x3b2dee4e	0.0026539746
189	0xbc210b7c	-0.009829398
190	0x3c23d70a	0.01
191	0x3ab8d64a	0.0014101949
192	0xbc20aa47	-0.009806222
193	0xbc20f8b2	-0.009824919
194	0x3c23d70a	0.01
195	0xbc20ca98	-0.009813927
196	0xbad11e8d	-0.0015954539
197	0x3b9920e4	0.0046731103
198	0xbc20d690	-0.009816781
199	0x3c23d70a	0.01
200	0xbc20febc	-0.009826358
201	0xbc23d70a	-0.01
202	0xbc23d70a	-0.01
203	0xbc20bd63	-0.009810778
204	0xbc23d70a	-0.01
205	0xbc23d70a	-0.01
206	0xbb9dbf01	-0.004814029
207	0x3add6c9b	0.0016893329
208	0x3c23d70a	0.01
209	0xbc23d70a	-0.01
210	0x3a157d83	0.00057026016
211	0x3c23d70a	0.01
212	0x3c23d70a	0.01
213	0x3b4879fb	0.0030590284
214	0xbc206306	-0.009789234
215	0xbc20ef26	-0.009822642
216	0xbc23d70a	-0.01
217	0xbc20c563	-0.009812686
218	0x3b4b9593	0.0031064495
219	0xbc1da5be	-0.009622036
220	0x3c23d70a	0.01
221	0xbc23d70a	-0.01
222	0xbc23d70a	-0.01
223	0x3c23d70a	0.01
224	0xbc23d70a	-0.01
225	0xbbce2592	-0.0062911
226	0xbc23d70a	-0.01
227	0x3b776b39	0.0037753119
228	0xbc1d6d42	-0.009608569
229	0xbba1e095	-0.0049401023
230	0xbc1da303	-0.009621385
231	0xbc23d70a	-0.01
232	0xbc23d70a	-0.01
233	0xbc20d1d1	-0.009815649
234	0x3c23d70a	0.01
235	0xbc20b058	-0.009807669
236	0xbc23d70a	-0.01
237	0xbaebf600	-0.0018002391
238	0x3b529202	0.0032130484
239	0xbc20ec8f	-0.009822025
240	0xbc23d70a	-0.01
241	0x3c23d70a	0.01
242	0xbc161b0c	-0.009161722
243	0xbc23d70a	-0.01
244	0xbc23d70a	-0.01
245	0xbc23d70a	-0.01
246	0xbbf18ec2	-0.0073717544
247	0x39f3ba32	0.00046487298
248	0x3c23d70a	0.01
249	0xbc23d70a	-0.01
250	0x3c23d70a	0.01
251	0xbb4b9224	-0.0031062448
252	0xbc209786	-0.009801751
253	0xbc210ca3	-0.009829673
254	0xbb3afc91	-0.002853189
255	0xbc20f8b5	-0.009824921

fc2.bias f4 [128]
0	0xbc23d70a	-0.01
1	0xbc23d70a	-0.01
2	0xbc23d70a	-0.01
3	0xbc2394f5	-0.009984245
4	0xbc23d382	-0.009999158
5	0xbc23d70a	-0.01
6	0xbc22f0fb	-0.0099451495
7	0xbc23d70a	-0.01
8	0xbc23ce18	-0.009997867
9	0xbc23d70a	-0.01
10	0xbc23d70a	-0.01
11	0xbc1eb655	-0.009687026
12	0xbc23d4ed	-0.009999496
13	0xbc23d70a	-0.01
14	0x3c21f0ef	0.009884103
15	0x3c20eb6e	0.009821756
16	0xbc23d70a	-0.01
17	0x3c20e76a	0.009820798
18	0xbc23c7ce	-0.009996368
19	0xbc23d70a	-0.01
20	0xbc1e6417	-0.009667418
21	0xbc23d70a	-0.01
22	0x3c21eb5f	0.009882777
23	0xbc1e66f6	-0.0096681025
24	0xbc23d70a	-0.01
25	0xbc23cb98	-0.009997271
26	0x3c219bc8	0.009863801
27	0xbc23c735	-0.009996225
28	0xbc23d70a	-0.01
29	0xbc23d70a	-0.01
30	0xbc23d70a	-0.01
31	0x3c23309a	0.009960318
32	0xbc23d70a	-0.01
33	0xbc23d70a	-0.01
34	0x3c20d14d	0.009815526
35	0xbc23d70a	-0.01
36	0xbc23d70a	-0.01
37	0xbc23d70a	-0.01
38	0xbc23d70a	-0.01
39	0xbc23d1fd	-0.009998796
40	0xbc23d70a	-0.01
41	0xbc23d70a	-0.01
42	0x3c1fc901	0.009752513
43	0xbc23d70a	-0.01
44	0xbc23d70a	-0.01
45	0xbc23d70a	-0.01
46	0xbc228bd9	-0.009921038
47	0xbc23d70a	-0.01
48	0xbc23d70a	-0.01
49	0xbc1990ea	-0.009372929
50	0xbc23d70a	-0.01
51	0xbc23d70a	-0.01
52	0xbc23d70a	-0.01
53	0xbc23d70a	-0.01
54	0xbc23c79e	-0.009996323
55	0x3c231dfb	0.009955878
56	0x3c20a0f1	0.009803996
57	0xbc23d70a	-0.01
58	0xbc23d70a	-0.01
59	0x3c1fbacc	0.009749126
60	0xbc1fff99	-0.009765529
61	0xbc23d70a	-0.01
62	0xbc23d70a	-0.01
63	0xbc23d70a	-0.01
64	0xbc23d70a	-0.01
65	0xbc23d70a	-0.01
66	0xbc23d70a	-0.01
67	0xbc23d70a	-0.01
68	0xbc21f782	-0.009885671
69	0xbba04cc3	-0.004891963
70	0xbc23d70a	-0.01
71	0xbc23d70a	-0.01
72	0xbc20f8f4	-0.00982498
73	0xbc23d70a	-0.01
74	0xbc23d70a	-0.01
75	0xbc23d6b6	-0.009999922
76	0xbc23d70a	-0.01
77	0x3c221c55	0.00989445
78	0xbc23d70a	-0.01
79	0xbc23d70a	-0.01
80	0x3c072f74	0.00825106
81	0xbc23d70a	-0.01
82	0xbc23d70a	-0.01
83	0xbc23d70a	-0.01
84	0xbc23d70a	-0.01
85	0xbc23d70a	-0.01
86	0xbc23d70a	-0.01
87	0xbc23d70a	-0.01
88	0xbc23d70a	-0.01
89	0xbc23cbff	-0.009997367
90	0xbc23d70a	-0.01
91	0xbc21767b	-0.009854908
92	0xbc23d70a	-0.01
93	0xbbe7cc95	-0.0070739486
94	0xbc23d70a	-0.01
95	0xbc23d70a	-0.01
96	0x3c213b0f	0.009840741
97	0x3c1fe2ad	0.009758634
98	0xbc23d70a	-0.01
99	0xbc23d70a	-0.01
100	0xbc23d70a	-0.01
101	0x3c2057d0	0.009786561
102	0xbc23d70a	-0.01
103	0xbc23d1e5	-0.009998773
104	0xbc23d381	-0.009999157
105	0xbc23d70a	-0.01
106	0xbc23d70a	-0.01
107	0xbc23bd34	-0.00999384
108	0x3c1ea040	0.009681761
109	0xbc23d70a	-0.01
110	0xbc23d70a	-0.01
111	0xbc23d70a	-0.01
112	0xbc23d70a	-0.01
113	0xbc1ee573	-0.00969826
114	0xbc23a767	-0.009988642
115	0xbc23d70a	-0.01
116	0xbc23d70a	-0.01
117	0xbc23d70a	-0.01
118	0xbc23ce91	-0.00999798
119	0xbc23d70a	-0.01
120	0xbc23c71b	-0.009996201
121	0x3c20cb75	0.009814133
122	0xbc23d70a	-0.01
123	0xbc23d70a	-0.01
124	0xbc23cd26	-0.009997642
125	0xbc23d70a	-0.01
126	0xbc23d70a	-0.01
127	0x3c215239	0.009846264

bn2.weight f4 [128]
0	0x3c23d70a	0.01
1	0x3c23d70a	0.01
2	0x3c23d70a	0.01
3	0x3c23d70a	0.01
4	0x3c23d70a	0.01
5	0x3c23d70a	0.01
6	0x3c23d70a	0.01
7	0x3c23d70a	0.01
8	0x3c23d70a	0.01
9	0x3c23d70a	0.01
10	0x3c23d70a	0.01
11	0x3c23d70a	0.01
12	0x3c23d70a	0.01
13	0x3c23d70a	0.01
14	0x3c23d70a	0.01
15	0x3c23d70a	0.01
16	0x3c23d70a	0.01
17	0x3c23d70a	0.01
18	0x3c23d70a	0.01
19	0x3c23d70a	0.01
20	0x3c23d70a	0.01
21	0x3c23d70a	0.01
22	0x3c23d70a	0.01
23	0x3c23d70a	0.01
24	0x3c23d70a	0.01
25	0x3c23d70a	0.01
26	0x3c23d70a	0.01
27	0x3c23d70a	0.01
28	0x3c23d70a	0.01
29	0x3c23d70a	0.01
30	0x3c23d70a	0.01
31	0x3c23d70a	0.01
32	0x3c23d70a	0.01
33	0x3c23d70a	0.01
34	0x3c23d70a	0.01
35	0x3c23d70a	0.01
36	0x3c23d70a	0.01
37	0x3c23d70a	0.01
38	0x3c23d70a	0.01
39	0x3c23d70a	0.01
40	0x3c23d70a	0.01
41	0x3c23d70a	0.01
42	0x3c23d70a	0.01
43	0x3c23d70a	0.01
44	0x3c23d70a	0.01
45	0x3c23d70a	0.01
46	0x3c23d70a	0.01
47	0x3c23d70a	0.01
48	0x3c23d70a	0.01
49	0x3c23d70a	0.01
50	0x3c23d70a	0.01
51	0x3c23d70a	0.01
52	0x3c23d70a	0.01
53	0x3c23d70a	0.01
54	0x3c23d70a	0.01
55	0x3c23d70a	0.01
56	0x3c23d70a	0.01
57	0x3c23d70a	0.01
58	0x3c23d70a	0.01
59	0x3c23d70a	0.01
60	0x3c23d70a	0.01
61	0x3c23d70a	0.01
62	0x3c23d70a	0.01
63	0x3c23d70a	0.01
64	0x3c23d70a	0.01
65	0x3c23d70a	0.01
66	0x3c23d70a	0.01
67	0x3c23d70a	0.01
68	0x3c23d70a	0.01
69	0x3c23d70a	0.01
70	0x3c23d70a	0.01
71	0x3c23d70a	0.01
72	0x3c23d70a	0.01
73	0x3c23d70a	0.01
74	0x3c23d70a	0.01
75	0x3c23d70a	0.01
76	0x3c23d70a	0.01
77	0x3c23d70a	0.01
78	0x3c23d70a	0.01
79	0x3c23d70a	0.01
80	0x3c23d70a	0.01
81	0x3c23d70a	0.01
82	0x3c23d70a	0.01
83	0x3c23d70a	0.01
84	0x3c23d70a	0.01
85	0x3c23d70a	0.01
86	0x3c23d70a	0.01
87	0x3c23d70a	0.01
88	0x3c23d70a	0.01
89	0x3c23d70a	0.01
90	0x3c23d70a	0.01
91	0x3c23d70a	0.01
92	0x3c23d70a	0.01
93	0x3c23d70a	0.01
94	0x3c23d70a	0.01
95	0x3c23d70a	0.01
96	0x3c23d70a	0.01
97	0x3c23d70a	0.01
98	0x3c23d70a	0.01
99	0x3c23d70a	0.01
100	0x3c23d70a	0.01
101	0x3c23d70a	0.01
102	0x3c23d70a	0.01
103	0x3c23d70a	0.01
104	0x3c23d70a	0.01
105	0x3c23d70a	0.01
106	0x3c23d70a	0.01
107	0x3c23d70a	0.01
108	0x3c23d70a	0.01
109	0x3c23d70a	0.01
110	0x3c23d70a	0.01
111	0x3c23d70a	0.01
112	0x3c23d70a	0.01
113	0x3c23d70a	0.01
114	0x3c23d70a	0.01
115	0x3c23d70a	0.01
116	0x3c23d70a	0.01
117	0x3c23d70a	0.01
118	0x3c23d70a	0.01
119	0x3c23d70a	0.01
120	0x3c23d70a	0.01
121	0x3c23d70a	0.01
122	0x3c23d70a	0.01
123	0x3c23d70a	0.01
124	0x3c23d70a	0.01
125	0x3c23d70a	0.01
126	0x3c23d70a	0.01
127	0x3c23d70a	0.01

bn2.bias f4 [128]
0	0x3a096372	0.0005240954
1	0x38d5f138	0.00010201562
2	0x3a086b61	0.0005203989
3	0xba094324	-0.000523614
4	0xba094a84	-0.0005237239
5	0x3a088bb6	0.0005208807
6	0xba08df83	-0.0005221294
7	0x3a08f9a7	0.00052251894
8	0xb89ccf40	-7.477263e-05
9	0x3a096d03	0.0005242379
10	0x3a09343a	0.00052339176
11	0xba08c21d	-0.00052169134
12	0xb8bf35ac	-9.117587e-05
13	0xb8de7540	-0.000106076244
14	0xba08a30d	-0.0005212285
15	0xba097514	-0.0005243581
16	0x3a08e37b	0.00052218855
17	0xba092045	-0.0005230944
18	0xb8954ddc	-7.119376e-05
19	0xb8d788da	-0.000102774895
20	0xba08e015	-0.0005221379
21	0x38c86c4a	9.5569136e-05
22	0xba0835f3	-0.00051960273
23	0xba08fb1d	-0.0005225407
24	0x38e77d1a	0.0001103824
25	0xb8c72daa	-9.497565e-05
26	0xba0756f6	-0.00051627995
27	0xb87f5adb	-6.0881353e-05
28	0x380b19f2	3.3164346e-05
29	0x3903ee42	0.00012581891
30	0x38bd947a	9.039878e-05
31	0xba099d3a	-0.0005249564
32	0x3a095f66	0.0005240351
33	0x3a09c615	0.0005255652
34	0xba08dba0	-0.0005220715
35	0x38c6a844	9.472718e-05
36	0x38a74edf	7.9778714e-05
37	0x3a08c9c4	0.00052180537
38	0x38a9f95a	8.104993e-05
39	0xb8271834	-3.9838444e-05
40	0x38bbd9ba	8.9574096e-05
41	0xb8bf2bbf	-9.115738e-05
42	0xba093712	-0.00052343414
43	0x38c12b78	9.211054e-05
44	0xb9008ee0	-0.00012260256
45	0xb8c5bad8	-9.4284944e-05
46	0xba0952c4	-0.00052384683
47	0xb8d30574	-0.0001006228
48	0x38ae09de	8.2988045e-05
49	0xba09429b	-0.000523606
50	0x3a069696	0.00051341334
51	0x3a06240a	0.00051170646
52	0x3a056e6f	0.0005090003
53	0x38b92ed7	8.830212e-05
54	0xb89c55ba	-7.4546275e-05
55	0xba09073d	-0.0005227214
56	0xba05d007	-0.0005104546
57	0x38e596d0	0.00010947662
58	0xb8be8920	-9.0854475e-05
59	0xba0933cc	-0.00052338536
60	0xba0927c5	-0.00052320614
61	0x381a3a90	3.6771e-05
62	0x38aef96c	8.343425e-05
63	0xb8d829aa	-0.00010307443
64	0x3a090cc8	0.000522804
65	0xb8cefef4	-9.870334e-05
66	0x3a0991d5	0.0005247866
67	0x3a05553b	0.00050862477
68	0xba08eb6d	-0.00052230695
69	0xba092805	-0.00052320986
70	0x38a77ec4	7.9867925e-05
71	0x38995001	7.3105104e-05
72	0xba0a0911	-0.0005265633
73	0x38a66022	7.933403e-05
74	0x3a08ebbd	0.0005223116
75	0xb8c42cd4	-9.354358e-05
76	0x3a092b74	0.000523261
77	0xba09c3a5	-0.00052552886
78	0xb8c79138	-9.5161085e-05
79	0x38c4d602	9.38587e-05
80	0xba096f21	-0.0005242695
81	0x3a08b7e5	0.00052153907
82	0x38c25978	9.267306e-05
83	0x38a595b1	7.895695e-05
84	0x389486ea	7.08232e-05
85	0xb9014740	-0.00012328941
86	0xb8c429d2	-9.353798e-05
87	0x3863aafc	5.428026e-05
88	0x3a08e940	0.0005222745
89	0xb8b762ba	-8.744509e-05
90	0x38adcdf7	8.287647e-05
91	0xba08e455	-0.00052220124
92	0xb90db6f7	-0.00013514968
93	0xba08f009	-0.00052237563
94	0x3885d99b	6.3824664e-05
95	0x37bb936a	2.2360782e-05
96	0xba08c700	-0.00052176416
97	0xba08a4f1	-0.00052125665
98	0x38ac7e90	8.225173e-05
99	0xb8eaed29	-0.00011202164
100	0x3a08e3d0	0.0005221935
101	0xba08dbd1	-0.00052207435
102	0x38a4465e	7.833236e-05
103	0xb86a86d4	-5.5915516e-05
104	0xb8312a70	-4.223961e-05
105	0x38df6b9e	0.00010653514
106	0x38b41a81	8.5880056e-05
107	0xb8967afd	-7.175466e-05
108	0xba0620d4	-0.0005116586
109	0xb8adda96	-8.289998e-05
110	0x38e05636	0.000106972104
111	0x38aa4afb	8.120198e-05
112	0xb898c74e	-7.285048e-05
113	0xba069664	-0.0005134104
114	0xba095d82	-0.0005240069
115	0xb8e0c845	-0.000107184555
116	0xb8c57774	-9.415942e-05
117	0x3a08cbba	0.0005218346
118	0xb7ea6264	-2.794079e-05
119	0x3a0820b6	0.00051928626
120	0xb89bfdaf	-7.438228e-05
121	0xba09f3c0	-0.0005262457
122	0x38df75bb	0.00010655398
123	0x3a08ce37	0.00052187167
124	0xb88eb1f8	-6.804237e-05
125	0x38c4b8e2	9.3804454e-05
126	0xb8dbbca0	-0.00010477868
127	0xba0a10f3	-0.0005266808

bn2.running_mean f4 [128]
0	0xbbdda57b	-0.0067641116
1	0xbc1a629e	-0.009422926
2	0xbbddb0f0	-0.0067654774
3	0xbc58aed8	-0.01322528
4	0xbc58d726	-0.013234889
5	0xbbddb72f	-0.006766222
6	0xbc57f082	-0.0131799
7	0xbbdda5bc	-0.006764142
8	0xbc2cdf9a	-0.010551358
9	0xbbddafb7	-0.0067653316
10	0xbbdda85b	-0.0067644543
11	0xbc53b2ac	-0.012921017
12	0xbc2d1d5c	-0.010566082
13	0xbc2cf57d	-0.010556576
14	0x3bd9d8dd	0.0066481666
15	0x3bd7f21c	0.006590141
16	0xbbdd9d15	-0.0067631104
17	0x3bd7c1ca	0.0065843808
18	0xbc2d214d	-0.010567022
19	0xbc2caa7a	-0.010538692
20	0xbc534b89	-0.012896427
21	0xbc1ac1ee	-0.0094456505
22	0x3bd9dfa4	0.0066489745
23	0xbc536cbf	-0.012904345
24	0xbc1a6de0	-0.00942561
25	0xbc2cbd61	-0.010543198
26	0x3bd92315	0.0066264966
27	0xbc2d077a	-0.010560865
28	0xbc1aa2c2	-0.009438219
29	0xbc1a65db	-0.009423698
30	0xbc1a92be	-0.0094344
31	0x3bdc57c1	0.0067243283
32	0xbbdd9c1c	-0.0067629945
33	0xbbddb1c3	-0.0067655756
34	0x3bd775ae	0.006575308
35	0xbc1a863a	-0.009431416
36	0xbc1aafd0	-0.009441331
37	0xbbdda702	-0.0067642936
38	0xbc1abf3c	-0.009445008
39	0xbc2d2a57	-0.010569177
40	0xbc1a77bd	-0.009427962
41	0xbc2cd63a	-0.0105491225
42	0x3bd5a144	0.0065194685
43	0xbc1aac2d	-0.009440464
44	0xbc2d12b9	-0.010563546
45	0xbc2d2536	-0.010567954
46	0xbc5777b4	-0.013151098
47	0xbc2cf69e	-0.010556845
48	0xbc1adffe	-0.009452818
49	0xbc4e96a3	-0.012609157
50	0xbbddb338	-0.0067657493
51	0xbbdda59f	-0.0067641283
52	0xbbddd4b7	-0.0067697424
53	0xbc1ab5ae	-0.00944273
54	0xbc2cbfd3	-0.010543781
55	0x3bdc3e34	0.0067212824
56	0x3bd74e7c	0.0065706354
57	0xbc1ac318	-0.009445928
58	0xbc2d251e	-0.010567931
59	0x3bd56c19	0.0065131304
60	0xbc54fb45	-0.01299936
61	0xbc1acd44	-0.009448353
62	0xbc1a92a0	-0.009434372
63	0xbc2d04ed	-0.010560256
64	0xbbddb528	-0.0067659803
65	0xbc2d10b8	-0.010563068
66	0xbbdda9b0	-0.006764613
67	0xbbde8b67	-0.0067915204
68	0xbc56f47f	-0.013119816
69	0xbc0513d0	-0.008122399
70	0xbc1ab18b	-0.009441744
71	0xbc1a9bc5	-0.009436552
72	0xbc560372	-0.013062345
73	0xbc1a987b	-0.009435768
74	0xbbdd8d24	-0.00676121
75	0xbc2d3f9d	-0.010574249
76	0xbbdda94a	-0.0067645656
77	0x3bda37ac	0.0066594686
78	0xbc2d063c	-0.010560568
79	0xbc1aaeea	-0.009441117
80	0x3ba47478	0.005018767
81	0xbbddb9d4	-0.006766537
82	0xbc1a98d8	-0.009435855
83	0xbc1abbfb	-0.009444232
84	0xbc1a4313	-0.009415406
85	0xbc2d036e	-0.0105599
86	0xbc2d1fd4	-0.01056667
87	0xbc1aa18b	-0.009437929
88	0xbbddb4b0	-0.0067659244
89	0xbc2cf53a	-0.010556513
90	0xbc1a7c30	-0.009429023
91	0xbc5673e6	-0.013089156
92	0xbc2d3185	-0.010570888
93	0xbc28e01d	-0.010307339
94	0xbc1a879b	-0.009431745
95	0xbc1aa906	-0.009439712
96	0x3bd86b3a	0.0066045793
97	0x3bd5bc69	0.0065227044
98	0xbc1a8c52	-0.009432869
99	0xbc2d3fcf	-0.010574295
100	0xbbddb12b	-0.006765505
101	0x3bd6d099	0.0065556285
102	0xbc1a76eb	-0.009427766
103	0xbc2d1a16	-0.010565301
104	0xbc2d31ac	-0.010570925
105	0xbc1a74e6	-0.009427285
106	0xbc1a44e6	-0.009415841
107	0xbc2d04a1	-0.010560186
108	0x3bd33da1	0.0064465557
109	0xbc2d11a7	-0.010563291
110	0xbc1ac721	-0.00944689
111	0xbc1a7b8e	-0.009428872
112	0xbc2d25b4	-0.010568071
113	0xbc53f76e	-0.01293741
114	0xbc589b8e	-0.013220681
115	0xbc2cfb48	-0.010557957
116	0xbc2ce39b	-0.010552312
117	0xbbdd9e1e	-0.006763234
118	0xbc2ce23e	-0.010551987
119	0xbbddad38	-0.006765034
120	0xbc2d2c3c	-0.010569628
121	0x3bd79cf6	0.0065799905
122	0xbc1a7b15	-0.009428759
123	0xbbddac77	-0.006764944
124	0xbc2d1092	-0.010563033
125	0xbc1ae823	-0.00945476
126	0xbc2d167f	-0.0105644455
127	0x3bd8d553	0.006617227

bn2.running_var f4 [128]
0	0x36dba003	6.5453364e-06
1	0x370d461f	8.420581e-06
2	0x36dbd243	6.5511863e-06
3	0x36dbfa44	6.5558434e-06
4	0x36dbe19b	6.5529725e-06
5	0x36dbe993	6.5539e-06
6	0x36dbc78a	6.549938e-06
7	0x36dbe4a0	6.553324e-06
8	0x370cd89c	8.395084e-06
9	0x36dbb748	6.5480453e-06
10	0x36dbdbde	6.5523045e-06
11	0x36dbcfd7	6.5509043e-06
12	0x370cd5c9	8.394426e-06
13	0x370e4f77	8.482361e-06
14	0x36dbc633	6.549782e-06
15	0x36dbd664	6.551667e-06
16	0x36dbd2e1	6.551258e-06
17	0x36dbf4cc	6.5552067e-06
18	0x370d0ea5	8.407665e-06
19	0x370d7cff	8.433358e-06
20	0x36dbaeda	6.547064e-06
21	0x370e8723	8.4953235e-06
22	0x36dbd8e7	6.5519594e-06
23	0x36dbdc6f	6.5523705e-06
24	0x370e57a7	8.484268e-06
25	0x370d6ee6	8.4300755e-06
26	0x36dbdcf2	6.55243e-06
27	0x370e013f	8.46415e-06
28	0x370e2c97	8.474241e-06
29	0x370d9925	8.439912e-06
30	0x370d970a	8.439421e-06
31	0x36dbc3ea	6.549516e-06
32	0x36dbec61	6.5542267e-06
33	0x36dbbe78	6.548882e-06
34	0x36dbbe2a	6.5488466e-06
35	0x370dffec	8.463841e-06
36	0x370c8f71	8.378048e-06
37	0x36dbddea	6.552543e-06
38	0x370e84f0	8.4948115e-06
39	0x370de923	8.458536e-06
40	0x370e694c	8.488376e-06
41	0x370df23f	8.460657e-06
42	0x36db96e7	6.544276e-06
43	0x370e3c40	8.477888e-06
44	0x370f5130	8.542367e-06
45	0x370e34a9	8.4761205e-06
46	0x36db9581	6.544113e-06
47	0x370e5f50	8.486051e-06
48	0x370ec126	8.50883e-06
49	0x36dc1c73	6.559823e-06
50	0x36dbdcc2	6.552408e-06
51	0x36dbeb7e	6.5541235e-06
52	0x36db92b0	6.5437853e-06
53	0x370e462e	8.4801995e-06
54	0x370cd3be	8.39395e-06
55	0x36dc0906	6.5575614e-06
56	0x36dbdf36	6.552694e-06
57	0x370e34e3	8.476173e-06
58	0x370e0e8d	8.467247e-06
59	0x36dbecfc	6.554297e-06
60	0x36db77d4	6.5406584e-06
61	0x370df455	8.461143e-06
62	0x370c6119	8.367258e-06
63	0x370e1c5e	8.470464e-06
64	0x36dbb152	6.5473514e-06
65	0x370dbe9f	8.448637e-06
66	0x36db8875	6.5425943e-06
67	0x36db073a	6.52755e-06
68	0x36db98e8	6.5445092e-06
69	0x36dbfa6f	6.555863e-06
70	0x370db091	8.445365e-06
71	0x370cbdd2	8.388846e-06
72	0x36dbc854	6.55003e-06
73	0x370da334	8.442254e-06
74	0x36dbebec	6.5541735e-06
75	0x370d57b0	8.424671e-06
76	0x36dbb136	6.5473387e-06
77	0x36dbfb6b	6.5559775e-06
78	0x370e1013	8.467602e-06
79	0x370daa7b	8.443948e-06
80	0x36db9dc5	6.5450754e-06
81	0x36dbefff	6.554648e-06
82	0x370e1120	8.467847e-06
83	0x370cce10	8.392628e-06
84	0x370e689a	8.488214e-06
85	0x370f21d2	8.531339e-06
86	0x370e86ed	8.495274e-06
87	0x370d20ae	8.411864e-06
88	0x36dbc815	6.550001e-06
89	0x370d1426	8.408946e-06
90	0x370da526	8.4427065e-06
91	0x36dbef69	6.5545796e-06
92	0x370dbc68	8.448122e-06
93	0x36dbec38	6.554208e-06
94	0x370d97d9	8.43961e-06
95	0x370e546a	8.483514e-06
96	0x36dbc235	6.5493173e-06
97	0x36dbc552	6.5496797e-06
98	0x370d689d	8.428612e-06
99	0x370e6d3f	8.489295e-06
100	0x36dbd8ae	6.5519334e-06
101	0x36dbca7f	6.5502823e-06
102	0x370dd601	8.454082e-06
103	0x370cb683	8.387145e-06
104	0x370dfc87	8.463051e-06
105	0x370ddd4f	8.455782e-06
106	0x370e0ed5	8.467313e-06
107	0x370c9dfe	8.381436e-06
108	0x36dc143a	6.5588656e-06
109	0x370e392d	8.477172e-06
110	0x370f03a4	8.524312e-06
111	0x370dbb7e	8.447909e-06
112	0x370d951b	8.438971e-06
113	0x36dc10ac	6.558452e-06
114	0x36dc1e05	6.5600057e-06
115	0x370e0a63	8.466278e-06
116	0x370f5676	8.543595e-06
117	0x36dbf170	6.5548156e-06
118	0x370e3bb0	8.477757e-06
119	0x36dc024b	6.556778e-06
120	0x370cb650	8.387098e-06
121	0x36dbfd8b	6.556225e-06
122	0x370d96a4	8.439329e-06
123	0x36dbc2d1	6.549388e-06
124	0x370e8c3a	8.496509e-06
125	0x370e0de2	8.467092e-06
126	0x370e19c8	8.469862e-06
127	0x36dbe93b	6.55386e-06

fc3.weight f4 [1, 128]
0	0xbc23d70a	-0.01
1	0x3c23d70a	0.01
2	0xbc23d70a	-0.01
3	0xbc23d70a	-0.01
4	0xbc23d70a	-0.01
5	0xbc23d70a	-0.01
6	0xbc23d70a	-0.01
7	0xbc23d70a	-0.01
8	0x3c23d70a	0.01
9	0xbc23d70a	-0.01
10	0xbc23d70a	-0.01
11	0xbc23d70a	-0.01
12	0x3c23d70a	0.01
13	0x3c23d70a	0.01
14	0xbc23d70a	-0.01
15	0xbc23d70a	-0.01
16	0xbc23d70a	-0.01
17	0xbc23d70a	-0.01
18	0x3c23d70a	0.01
19	0x3c23d70a	0.01
20	0xbc23d70a	-0.01
21	0x3c23d70a	0.01
22	0xbc23d70a	-0.01
23	0xbc23d70a	-0.01
24	0x3c23d70a	0.01
25	0x3c23d70a	0.01
26	0xbc23d70a	-0.01
27	0x3c23d70a	0.01
28	0x3c23d70a	0.01
29	0x3c23d70a	0.01
30	0x3c23d70a	0.01
31	0xbc23d70a	-0.01
32	0xbc23d70a	-0.01
33	0xbc23d70a	-0.01
34	0xbc23d70a	-0.01
35	0x3c23d70a	0.01
36	0x3c23d70a	0.01
37	0xbc23d70a	-0.01
38	0x3c23d70a	0.01
39	0x3c23d70a	0.01
40	0x3c23d70a	0.01
41	0x3c23d70a	0.01
42	0xbc23d70a	-0.01
43	0x3c23d70a	0.01
44	0x3c23d70a	0.01
45	0x3c23d70a	0.01
46	0xbc23d70a	-0.01
47	0x3c23d70a	0.01
48	0x3c23d70a	0.01
49	0xbc23d70a	-0.01
50	0xbc23d70a	-0.01
51	0xbc23d70a	-0.01
52	0xbc23d70a	-0.01
53	0x3c23d70a	0.01
54	0x3c23d70a	0.01
55	0xbc23d70a	-0.01
56	0xbc23d70a	-0.01
57	0x3c23d70a	0.01
58	0x3c23d70a	0.01
59	0xbc23d70a	-0.01
60	0xbc23d70a	-0.01
61	0x3c23d70a	0.01
62	0x3c23d70a	0.01
63	0x3c23d70a	0.01
64	0xbc23d70a	-0.01
65	0x3c23d70a	0.01
66	0xbc23d70a	-0.01
67	0xbc23d70a	-0.01
68	0xbc23d70a	-0.01
69	0xbc23d70a	-0.01
70	0x3c23d70a	0.01
71	0x3c23d70a	0.01
72	0xbc23d70a	-0.01
73	0x3c23d70a	0.01
74	0xbc23d70a	-0.01
75	0x3c23d70a	0.01
76	0xbc23d70a	-0.01
77	0xbc23d70a	-0.01
78	0x3c23d70a	0.01
79	0x3c23d70a	0.01
80	0xbc23d70a	-0.01
81	0xbc23d70a	-0.01
82	0x3c23d70a	0.01
83	0x3c23d70a	0.01
84	0x3c23d70a	0.01
85	0x3c23d70a	0.01
86	0x3c23d70a	0.01
87	0x3c23d70a	0.01
88	0xbc23d70a	-0.01
89	0x3c23d70a	0.01
90	0x3c23d70a	0.01
91	0xbc23d70a	-0.01
92	0x3c23d70a	0.01
93	0xbc23d70a	-0.01
94	0x3c23d70a	0.01
95	0x3c23d70a	0.01
96	0xbc23d70a	-0.01
97	0xbc23d70a	-0.01
98	0x3c23d70a	0.01
99	0x3c23d70a	0.01
100	0xbc23d70a	-0.01
101	0xbc23d70a	-0.01
102	0x3c23d70a	0.01
103	0x3c23d70a	0.01
104	0x3c23d70a	0.01
105	0x3c23d70a	0.01
106	0x3c23d70a	0.01
107	0x3c23d70a	0.01
108	0xbc23d70a	-0.01
109	0x3c23d70a	0.01
110	0x3c23d70a	0.01
111	0x3c23d70a	0.01
112	0x3c23d70a	0.01
113	0xbc23d70a	-0.01
114	0xbc23d70a	-0.01
115	0x3c23d70a	0.01
116	0x3c23d70a	0.01
117	0xbc23d70a	-0.01
118	0x3c23d70a	0.01
119	0xbc23d70a	-0.01
120	0x3c23d70a	0.01
121	0xbc23d70a	-0.01
122	0x3c23d70a	0.01
123	0xbc23d70a	-0.01
124	0x3c23d70a	0.01
125	0x3c23d70a	0.01
126	0x3c23d70a	0.01
127	0xbc23d70a	-0.01
