10_Models/Results_Barcelona/WGANBR_Freeflow_discriminator_br_best.pth (torch, 78078 bytes, 13 tensors)

fc1.weight f4 [128, 2]
00000000: 0d28 a9bb 83e0 adbb fdb3 12bc 2ddf 1bbc
00000010: a882 bbbb 3034 1f3c 8d58 193c 0ad7 233c
00000020: c24e efbb 772a e4bb 292f fcbb 3ffc 1bbc
00000030: 0ad7 23bc 001a 21bc fe85 f9bb 8b74 1abc
00000040: 0ad7 233c 2002 233c 0ad7 233c 435b 213c
00000050: 0ad7 233c f319 213c afa1 9e3b 0ad7 233c
00000060: e780 af3b 0ad7 233c 41ac d43b 0ad7 233c
00000070: c2b3 00bc 8504 02bc 0ad7 23bc 411a 21bc
00000080: 3ca8 18bc 89f9 1e3c 5339 ba3b 0ad7 233c
00000090: efc6 05bc fa13 813a c316 043c 0ad7 233c
000000a0: feba 09bc 0ad7 23bc 635c 1fbc 34f4 193c
000000b0: 010f ed3b 0ad7 233c 6602 ba3b 0ad7 233c
000000c0: f98d 11bc 0ad7 23bc 36d4 e9bb 60f7 203c
000000d0: 0ad7 233c 4d17 223c f327 01bc 82eb 01bc
000000e0: 0ad7 233c 5895 213c 0ad7 233c f619 213c
000000f0: 0446 d73b 0ad7 233c 007c b23b 0ad7 233c
00000100: 3f0d 213c 0ad7 233c 905d b1bb 1e69 60bb
00000110: 3daf f4bb 3a45 203c d822 11bc cf08 0dbc
00000120: 098d 023c 0ad7 233c 0ad7 23bc f119 21bc
00000130: 273d fe3b 0ad7 233c 8c1a 023c 0ad7 233c
00000140: af7a 13bc a122 1f3c d9a7 c43b 0ad7 233c
00000150: e921 d8bb b94b afbb dd1e 453b 0ad7 233c
00000160: e3d6 23bc b306 21bc b7bd 0e3c 0ad7 233c
00000170: 625e 85bb db7d bfbb def9 e3bb ea11 17bc
00000180: 50b1 b63b 0ad7 233c 0ad7 23bc a80f 22bc
00000190: 5cc6 eebb 5893 20bc 6388 09bc eb48 043c
000001a0: 376b ef3b 0ad7 233c b75b 13bc d383 23bc
000001b0: 19b9 03bc a3e8 0c3c b92a ba3b 0ad7 233c
000001c0: 6789 a33b 0ad7 233c 6d12 01bc 5b86 043c
000001d0: a639 a1bb 61d3 1c3c ec82 babb 1cf7 c0bb
000001e0: 1187 e3bb d959 77bb dfa9 0abc a2c4 9bbb
000001f0: 0ad7 233c a01c 213c 6abd d9bb 5ea4 0ebc
00000200: 1c5f 14bc f458 f8bb 93b3 04bc 2d32 ddbb
00000210: 0ad7 233c 011a 213c fb62 d43b 0ad7 233c
00000220: e04c b33b 0ad7 233c 0e4e fdbb ea4a 1fbc
00000230: affc 06bc c1a3 fbbb 7872 9c3b 0ad7 233c
00000240: e13d 0ebc c20a fabb 0ad7 233c d21a 213c
00000250: 0ad7 233c 553e 213c 8cbe efbb dbcf 1bbc
00000260: 0ad7 233c f628 213c 52f3 e9bb fe03 1dbc
00000270: ae07 263b 0ad7 233c 0ad7 233c 86ce 213c
00000280: 460a 0bbc 0ddd 21bc 1888 0ebc c66b 79b8
00000290: 2cf7 f9bb 1fe0 a2ba 332f f43b 0ad7 233c
000002a0: ce9c 01bc e214 213c bd1f 19bc 0ad7 23bc
000002b0: f350 e6bb e986 eabb cded c3bb 40a8 1f3c
000002c0: 8124 133c 0ad7 233c 61d7 cd3b 0ad7 233c
000002d0: cb77 f2bb d5ac bdbb af12 02bc 82eb 193c
000002e0: 2694 c53b 0ad7 233c 8ed1 04bc 40b3 c1bb
000002f0: b73c b83b 0ad7 233c 6242 f13b 0ad7 233c
00000300: e835 c0bb b5c1 00bb 015b ed3b 0ad7 233c
00000310: 32b0 aa3b 0ad7 233c 2ba8 c5bb bac4 86bb
00000320: 1da5 c33b 0ad7 233c 81ba e0bb 6fc4 05bc
00000330: 87c3 13bc ac83 0cbc 006c bb3b 0ad7 233c
00000340: 9f24 08bc 94c5 21bc 3eaa f43b 0ad7 233c
00000350: ab07 e1bb 67e5 0fbc e774 0e3c 0ad7 233c
00000360: a692 05bc 2303 1abc d672 c63b 0ad7 233c
00000370: e34c bb3b 0ad7 233c b0ed 113c 0ad7 233c
00000380: 64ce c53b 0ad7 233c 2e2e c1bb 6c05 81bb
00000390: 4160 123c 0ad7 233c ff71 04bc 8b41 05bc
000003a0: 814c 91bb 2a12 1a3c 1c2b cbbb f67f f6bb
000003b0: 2188 c33b 0ad7 233c 5578 d5bb 11f4 dabb
000003c0: 21d0 bebb 9676 15bc 7b98 d5bb 33b4 0dbc
000003d0: b251 bb3b 0ad7 233c f843 0abc 5665 00bc
000003e0: d3da fbbb d94c edbb 7196 ec3b f2f2 163c
000003f0: 18b9 12bc 1532 1abc bbc6 1abc 99ba 12bc
-0.005162245 -0.005306305 -0.008954045 -0.0095136585 -0.0057223625 0.009717032 0.009359491 0.01
-0.00730309 -0.00696307 -0.0076960516 -0.009520589 -0.01 -0.009832859 -0.00761485 -0.0094272
0.01 0.009949237 0.01 0.009848419 0.01 0.009832847 0.0048410515 0.01
0.0053559425 0.01 0.006490261 0.01 -0.007855358 -0.007935648 -0.01 -0.00983292
-0.009317454 0.0097030485 0.005683103 0.01 -0.008165105 0.0009847872 0.008062067 0.01
-0.008406399 -0.01 -0.009726617 0.0093966015 0.0072344546 0.01 0.0056765554 0.01
-0.008883947 -0.01 -0.007135893 0.009824604 0.01 0.009893251 -0.00788306 -0.007929685
0.01 0.0098622665 0.01 0.00983285 0.006569626 0.01 0.005446911 0.01
0.009829818 0.01 -0.005412765 -0.0034242342 -0.007467179 0.00978213 -0.008858405 -0.008608057
0.007968196 0.01 -0.01 -0.009832845 0.007758755 0.01 0.0079409 0.01
-0.009001418 0.009712846 0.0060014543 0.01 -0.0065958393 -0.005349603 0.003007821 0.01
-0.009999963 -0.009828257 0.008712224 0.01 -0.004070089 -0.0058438606 -0.0069572767 -0.00922058
0.0055753365 0.01 -0.01 -0.009891428 -0.00728683 -0.0098007545 -0.0083943335 0.008074026
0.007306482 0.01 -0.0089940345 -0.00998016 -0.008039736 0.008600387 0.0056813625 0.01
0.004990745 0.01 -0.007877928 0.008088673 -0.0049202023 0.009571881 -0.0056918766 -0.0058888327
-0.0069435914 -0.0037742762 -0.008463352 -0.004753665 0.01 0.009833485 -0.0066448944 -0.00870618
-0.009055879 -0.0075789634 -0.008099454 -0.006750366 0.01 0.00983286 0.006481526 0.01
0.0054718107 0.01 -0.007730252 -0.009722451 -0.008238955 -0.007679433 0.004774388 0.01
-0.008681745 -0.007630677 0.01 0.009833055 0.01 0.009841521 -0.007316416 -0.009510006
0.01 0.009836426 -0.0071396017 -0.009583471 0.0025334167 0.01 0.01 0.009875899
-0.008486336 -0.009879363 -0.0086994395 -5.9466598e-05 -0.007628342 -0.0012426412 0.0074519156 0.01
-0.00791092 0.009831639 -0.009345946 -0.01 -0.007028693 -0.007157196 -0.005979276 0.009744704
0.008980871 0.01 0.0062817787 0.01 -0.0073995343 -0.0057884254 -0.007939025 0.009394528
0.0060296236 0.01 -0.008106602 -0.005911261 0.005622472 0.01 0.00736265 0.01
-0.005865801 -0.0019646708 0.0072435145 0.01 0.0052089924 0.01 -0.00603201 -0.004112807
0.005970611 0.01 -0.0068581705 -0.008164509 -0.009018785 -0.008576315 0.0057196617 0.01
-0.008309512 -0.009873766 0.0074665835 0.01 -0.006867369 -0.008782721 0.008694864 0.01
-0.0081526395 -0.009400162 0.00605617 0.01 0.0057159527 0.01 0.008906767 0.01
0.0060365666 0.01 -0.0058953976 -0.003937414 0.0089340815 0.01 -0.008083819 -0.008133302
-0.004434169 0.009403745 -0.0062002074 -0.0075225784 0.0059671556 0.01 -0.006514589 -0.006681927
-0.0058231507 -0.009122511 -0.006518421 -0.00864892 0.005716526 0.01 -0.008439057 -0.00783666
-0.007685998 -0.007241827 0.0072200825 0.009213196 -0.008955263 -0.009411355 -0.009446795 -0.008955621

fc1.bias f4 [128]
00000000: 9838 8c3b 433a a43b 7dcf 0c3c 292f ffbb
00000010: 3d77 c03b 5a4a e63b 7197 21bc edfc 8c3b
00000020: 4143 103c 41be a8bb 122d 45bb 9db9 cb3b
00000030: d599 04bc a336 063c 7011 9a3b d5bc 1fbc
00000040: f848 17bc 79c3 063c 69b2 04bc 0f70 bebb
00000050: 287a 20bc 6396 f23b 62ed 103c f752 f5bb
00000060: 1da4 edbb b51e 113c f0b8 203c 8181 e5bb
00000070: adca 9dbb fb73 173c 0c96 1ebc b50c 10bc
00000080: 3844 9cbb ef91 acbb 158d f0bb ed33 1ebc
00000090: faa7 a1bb 7c0f 0fbc ba2e 1f3c 58ab 1f3c
000000a0: 2901 003c 904e 1d3c 8ba9 f2bb cea8 14bc
000000b0: 905f 1e3c 4fc3 8cbb 9c42 1d3c d54a 07bc
000000c0: 9e24 0dbc cfb6 21bc cf5f 1b3c 0fe2 fb3b
000000d0: 5324 163c 3635 15bc 1ffb b93b 76e2 033c
000000e0: 04c1 f3bb d1eb 1e3c 07ac 9cbb 29a5 13bc
000000f0: 187d ffbb 223e 173c a7ec 153c 3622 e13b
00000100: 9708 20bc 394d 103c d0b9 223c a092 e83b
00000110: 554f cf3b 1de6 17bc 9bf9 16bc d564 c03b
00000120: e055 19bc bfcc fdbb e314 1c3c e72d 13bc
00000130: 26e0 173c 7054 ad3b 51ca 713b eeb7 02bc
00000140: 291f ff3b cc7b 0dbc 6079 133c c184 183c
00000150: f55a ffbb c56d 06bc e76d 0dbc 45d7 bbbb
00000160: b2d5 1f3c 26c4 03bc 3c98 8f3b 2230 febb
00000170: 98af 193c 1d7a 02bc aa8d d53b 047f 143c
00000180: 6ca9 203c 41b2 f3bb d870 e13b e8b0 233c
00000190: 1507 dfbb 2976 0bbc daa9 21bc 40c7 0dbc
000001a0: 63a4 e0bb 9f1e a2bb 44ee 823b 7e6c f7bb
000001b0: e6ef fdbb bb1b 1cbc 3faf 13bc 7476 a8bb
000001c0: e6bb 1d3c 4481 e8bb 8970 85bb c36f 123c
000001d0: cde0 213c a9a8 d5bb ca32 babb 4e25 e3bb
000001e0: 4cad e1bb 1639 1cbc 38d8 01bc fe77 07bc
000001f0: d4c1 f33b 5566 10bc b083 c53b 3146 043c
0.0042792074 0.005011828 0.008594391 -0.0077876044 0.0058735893 0.0070279064 -0.009862767 0.004302612
0.008805097 -0.005149633 -0.0030086678 0.006217195 -0.008093317 0.008191737 0.0047017857 -0.009749611
-0.009233706 0.008225315 -0.008099177 -0.0058116983 -0.009794749 0.0074031814 0.008845659 -0.007486697
-0.00725223 0.008857419 0.009809718 -0.0070039635 -0.0048154206 0.0092439605 -0.009679329 -0.008792092
-0.0047688745 -0.00526642 -0.007341037 -0.009655935 -0.0049333544 -0.008731719 0.00971573 0.009745441
0.007812777 0.00960125 -0.007405465 -0.009073449 0.009666339 -0.0042957435 0.0095984 -0.008257587
-0.008614687 -0.009870245 0.009483292 0.0076868604 0.009163934 -0.009106925 0.005675688 0.008049598
-0.0074387807 0.009699778 -0.0047812494 -0.009011545 -0.0077968948 0.009231122 0.009150661 0.0068705333
-0.009767673 0.008807474 0.009931996 0.007097557 0.006326596 -0.009271172 -0.009214784 0.005871395
-0.009358853 -0.007745355 0.009526464 -0.008983112 0.00926975 0.0052896068 0.0036894272 -0.007978423
0.007785697 -0.0086354725 0.009001106 0.009308995 -0.0077928253 -0.008204882 -0.00863216 -0.0057324492
0.009755539 -0.008042371 0.0043821614 -0.0077572027 0.009380244 -0.007963684 0.006517132 0.009063486
0.009806018 -0.007437021 0.006879907 0.009990908 -0.006806264 -0.008512058 -0.009867156 -0.008653462
-0.006855534 -0.004947498 0.0039956886 -0.007550775 -0.0077495454 -0.009528096 -0.00901395 -0.005141074
0.009627318 -0.007095488 -0.004072253 0.008937779 0.009880257 -0.00652035 -0.005682324 -0.0069319373
-0.0068871137 -0.009535095 -0.007925086 -0.008268354 0.0074388776 -0.00881346 0.0060276613 0.008073376

bn1.weight f4 [128]
00000000: 0ad7 233c 92a8 503b 0ad7 233c b678 203c
00000010: 661b af3b 7b3b fe3b 0ad7 233c 5c8c a23b
00000020: 0ad7 233c 0ad7 233c 0ad7 233c dd64 e73b
00000030: 572d b73b 698b b03b 6079 093c 0ad7 233c
00000040: 0ad7 233c 4b98 e73b 8b1f 173c 7af8 1d3c
00000050: c66d b33b 0ad7 233c 2eea cd3b dc12 033c
00000060: 1a7f 1a3c 0ad7 233c 0ad7 233c 2757 d4ba
00000070: 0ad7 233c 0ad7 233c be6c bb3b d324 ad3b
00000080: 0ad7 233c 0ad7 233c 0ad7 233c d254 8a3b
00000090: 7fc9 173c 0ad7 233c f428 e13b fa9d fc3b
000000a0: 0ad7 233c 6ba2 013c 08ee f23a d29b af3b
000000b0: e906 f33a 0ad7 233c d225 0b3c 9f0d 943b
000000c0: 37f5 f43b 0ad7 233c 177c b23b 0ad7 233c
000000d0: 9f77 d93b a1c8 123c 0ad7 233c 3cca e63b
000000e0: 5cec e73b 0ad7 233c 0ad7 233c 012d 083c
000000f0: 36ab b63b c165 ef3b 0ad7 233c bc4f 043c
00000100: 658a dd3b e292 c63b 0ad7 233c d8be bb3b
00000110: 0701 b93b 3e3d 0e3c 0ad7 233c f9a0 d43b
00000120: ead0 883b 0ad7 233c 0ad7 233c b966 0d3c
00000130: 0ad7 233c 295b 143c 1193 a23b 0ad7 233c
00000140: 287f f338 0ad7 233c 0ad7 233c 0ad7 233c
00000150: 0ad7 233c 5cf0 dc39 8eaf cf3b 0ad7 233c
00000160: 7d41 173c 684a a33b e453 043c 0ad7 233c
00000170: d957 eb3b 6d0d 493a 117e b83b 01c4 b73b
00000180: 0ad7 233c 5bac b93b ed18 ec3b 0918 183c
00000190: 4a19 fc3b fa38 ae3b ac43 203b 7ceb ed3b
000001a0: 5691 f93b fec7 0a3c cb42 ad3b 0ad7 233c
000001b0: a3b1 153c 98ef b03b de5a e63b 0ad7 233c
000001c0: 0610 f33b ee42 0a3c 0ad7 233c 03ef 403a
000001d0: 0ad7 233c ffdd 043c 6cde 043c 0ad7 233c
000001e0: 3837 bf3b c357 0b3c a8e1 0b3c a19c fb3b
000001f0: 6845 033c 9269 843b a9f8 403b 5d82 043c
0.01 0.0031838757 0.01 0.009794405 0.0053438423 0.0077585555 0.01 0.00496058
0.01 0.01 0.01 0.0070615844 0.0055901217 0.0053877127 0.008390754 0.01
0.01 0.0070677153 0.009223829 0.009641761 0.0054757325 0.01 0.00628402 0.008000102
0.009429717 0.01 0.01 -0.001620029 0.01 0.01 0.00571975 0.005283931
0.01 0.01 0.01 0.004221537 0.009264349 0.01 0.006871337 0.007709262
0.01 0.007912259 0.0018534074 0.0053591514 0.0018541488 0.01 0.008492904 0.0045182253
0.007475521 0.01 0.0054469216 0.01 0.0066365744 0.0089589665 0.01 0.007043151
0.007077737 0.01 0.01 0.008311511 0.005574609 0.007305831 0.01 0.008075651
0.0067608827 0.0060599903 0.01 0.0057295375 0.0056458744 0.008681593 0.01 0.006488916
0.004175295 0.01 0.01 0.008630448 0.01 0.009054937 0.0049613793 0.01
0.00011610828 0.01 0.01 0.01 0.01 0.00042140752 0.0063380664 0.01
0.009231922 0.004983235 0.008076642 0.01 0.007182103 0.0007669542 0.0056302627 0.0056080823
0.01 0.0056662983 0.00720512 0.009283074 0.0076934444 0.0053168507 0.0024454398 0.007260738
0.0076162023 0.008470533 0.0052875034 0.01 0.00913659 0.0053996556 0.007029875 0.01
0.0074176816 0.008438809 0.01 0.0007359834 0.01 0.008109569 0.00810967 0.01
0.00583544 0.008504811 0.008537687 0.0076785837 0.008012153 0.0040409053 0.0029445088 0.008087722

bn1.bias f4 [128]
00000000: ac99 cc3b 3101 913b 3688 7439 5c58 f33a
00000010: 755d e63b 1c38 db3b 0ad7 233c 8a8a bf3b
00000020: 0ad7 233c 0ad7 233c 0ad7 233c aa1a 1a3a
00000030: 9557 a839 96d7 a439 cae5 353b 0ad7 233c
00000040: b499 d13a 6db9 1a3a 0ad7 233c 7f50 e43a
00000050: 841f a83b 2c68 353b 5339 453a 3adc 3e3a
00000060: 0db5 193c 8789 2a3a 0ad7 233c 6839 c83b
00000070: 0ad7 233c 0ad7 233c 8a51 333a 670f 6f39
00000080: 8f23 423b 0ad7 233c 1d58 d83a f6cb 4a3b
00000090: 5cc6 bc3a afcf b13b bda1 553a 096e 783a
000000a0: 3885 f23a 0810 473a 0ad7 233c d4cc 1b3a
000000b0: 0db4 e4bb 5b1e 993b 6ea8 223c 0ad7 233c
000000c0: 9a68 2d3a 0ad7 233c d051 233c 8640 a13b
000000d0: a524 4a3a 9272 c33b e09e 693b 451c 1a3a
000000e0: e10d 183a e223 a03b 64a6 2339 cf14 fb3b
000000f0: 2c72 ea39 5593 01bc 0ad7 233c 1048 e83b
00000100: 19a6 f73b 7d4b 04bc 0ad7 233c ba8a 2d3a
00000110: 7e31 2e3a 9f8a fe3b 50ec ea3b dc5e fc39
00000120: 56d6 013c 0ad7 233c 0ad7 233c aafc cb3b
00000130: 0ad7 233c f6e9 f93b f5d6 113a 0ad7 233c
00000140: 284e f23b 0ad7 233c 0ad7 233c 93e8 063b
00000150: 69b1 f039 067d b03a 65ff 143c 5af8 8339
00000160: d7b7 bb3a 2ad4 183a af82 b23b c699 233b
00000170: 5781 333a 451a a4ba 95e4 273a bfb4 2e3a
00000180: 0ad7 233c e4e1 313a 6a14 213a 6a67 3e3b
00000190: 30a5 383a 0ad7 233c 24f7 603b c002 243a
000001a0: ae3b e63b 30f8 943a 0ad7 233c 8af0 793b
000001b0: 0ad7 233c 8484 283a 15d8 193a 1320 553b
000001c0: cee2 3a3a 0c93 333b feca 983b 420a 163b
000001d0: 46ce f738 5566 323b 9935 4a3a dbce 893b
000001e0: 468d 233c b2cb af3b 280d 4f3a c10e 063b
000001f0: 68c0 aa3b ddcd 9038 ea0a 8f3b 986e 023b
0.006243905 0.004425191 0.00023320396 0.0018565762 0.007030184 0.0066900384 0.01 0.0058453726
0.01 0.01 0.01 0.0005878607 0.0003210871 0.00031441142 0.0027755373 0.01
0.0015991242 0.00059022644 0.01 0.0017419009 0.00513071 0.00276805 0.00075234956 0.0007280741
0.009381545 0.00065054785 0.01 0.006110359 0.01 0.01 0.00068404584 0.00022798554
0.0029623245 0.01 0.0016505752 0.0030944324 0.0014402377 0.005426369 0.0008149406 0.0009476846
0.0018502837 0.00075936364 0.01 0.00059433025 -0.0069794715 0.004672808 0.009927852 0.01
0.0006615013 0.01 0.009968236 0.004921022 0.0007711149 0.0059645856 0.0035647675 0.0005878846
0.0005800408 0.00488709 0.00015606877 0.0076623927 0.00044717023 -0.007908662 0.01 0.0070886686
0.007557642 -0.008074638 0.01 0.0006620098 0.0006644948 0.0077679898 0.007169284 0.0004813586
0.007924637 0.01 0.01 0.0062251883 0.01 0.0076267673 0.0005563342 0.01
0.007394571 0.01 0.01 0.0020585402 0.00045908548 0.0013464994 0.009094094 0.00025171303
0.0014321756 0.0005829955 0.0054477076 0.0024963482 0.0006847581 -0.0012520036 0.0006404606 0.00066645065
0.01 0.00067856745 0.00061447045 0.0029053339 0.0007043658 0.01 0.0034326995 0.00062565133
0.0070261573 0.001136547 0.01 0.0038137757 0.01 0.0006428438 0.00058686855 0.0032520338
0.00071291334 0.002740088 0.0046628704 0.0022894298 0.00011816299 0.002722164 0.0007713675 0.0042055673
0.009982413 0.0053648585 0.0007898384 0.0020455571 0.005210925 6.9048e-05 0.0043653147 0.0019902345

bn1.running_mean f4 [128]
00000000: 1043 7341 05b0 b941 d704 85c4 aa62 26c2
00000010: 1e16 40c1 44bf fe42 85d0 38c1 cf63 fc42
00000020: 74f1 9640 95ff 2941 b096 3841 e0b9 b1c3
00000030: d5f1 9fc3 b754 71c3 b1be 8640 45c1 38c1
00000040: ede1 a3c4 aa93 94c3 e1f0 1fc4 d245 03c3
00000050: 8da8 da42 5dc5 a4c4 3e93 3dc3 eabc 94c3
00000060: dd2b 9042 761e 92c4 b32e 0041 9728 8841
00000070: ea06 1d41 96cb 3841 6bf0 6bc3 7e5b 9cc3
00000080: fa34 3bc1 1b70 13c3 d898 94c4 6b08 bdc1
00000090: 31e4 09c3 cd8a 38c1 46dd 18c3 2707 0cc3
000000a0: 383a a1c4 7f7b 89c3 8ef7 abc2 6322 f1c3
000000b0: e389 3dc1 ebe6 abc2 0454 e142 4a43 2043
000000c0: d348 98c3 b7bc 02c1 b5d5 2e43 9b09 8ec4
000000d0: 4891 38c3 3a17 8342 c864 8fc4 77a0 94c3
000000e0: f587 acc3 8ab5 89c4 8bbe 79c4 9d87 9a41
000000f0: d52b 55c3 a9fb 7fc3 4f37 3841 0bb2 1043
00000100: d29c c9c2 692e bac2 6ed0 3841 2ce1 71c3
00000110: 55fc 9bc3 13de 0743 6ccb 2bc2 a010 b4c3
00000120: ee8c 8dc2 4859 3841 40b2 3041 f71b 1643
00000130: 81a3 ea40 423c 2443 2bc2 00c4 5431 1041
00000140: 51e0 bb42 3831 17c4 1d26 e1c3 f1d3 2dc3
00000150: fedd 98c4 3e30 3342 e0aa 2c41 d979 87c4
00000160: ffb5 86c2 6ee4 7fc3 70a3 d3c2 7f56 95c4
00000170: 9e8a 88c3 be80 17c3 b2bc 96c3 aca3 34c3
00000180: db05 8cc3 6bf7 3cc3 c9f5 a4c3 236b 08c3
00000190: 6396 8ac3 efb4 be42 7da7 1ac2 6a4e 93c3
000001a0: e96d d642 0e03 2dc3 4898 0843 243a aec2
000001b0: 08d0 9842 7cc8 87c3 5d69 93c3 bcf1 90c2
000001c0: 9152 88c3 4148 00c3 cb3f 8dc2 310b 0dc1
000001d0: 6780 6ec4 e161 c242 10a7 8ac3 b514 5e41
000001e0: 3183 6743 e69e 1243 8358 93c3 fbf3 edc1
000001f0: d91d bac1 7baa 08c3 922e 9941 91a5 d9c1
15.203873 23.210947 -1064.1512 -41.59635 -12.0054 127.373566 -11.550908 126.19494
4.7169743 10.624898 11.536789 -355.45215 -319.8893 -241.33092 4.2107778 -11.547185
-1311.0602 -297.15363 -639.76373 -131.27274 109.3292 -1318.1676 -189.57516 -297.4759
72.08567 -1168.9519 8.011401 17.01982 9.814188 11.549704 -235.93913 -312.71478
-11.700434 -147.43791 -1188.7764 -23.62911 -137.89137 -11.533887 -152.86435 -140.02794
-1289.8193 -274.9648 -85.983505 -482.26865 -11.846164 -85.95101 112.66409 160.26285
-304.56894 -8.171073 174.8348 -1136.3002 -184.5675 65.545364 -1147.1494 -297.25363
-345.06216 -1101.6731 -998.97723 19.316217 -213.17122 -255.98305 11.513503 144.69548
-100.80629 -93.090645 11.550886 -241.87958 -311.97134 135.86748 -42.948654 -360.12988
-70.77525 11.521797 11.043518 150.10924 7.332459 164.23538 -515.0339 9.012043
93.93812 -604.76904 -450.29776 -173.8279 -1222.9373 44.79711 10.791718 -1083.8077
-67.35546 -255.8923 -105.819214 -1194.703 -273.08295 -151.5029 -301.47418 -180.63934
-280.04575 -188.96648 -329.9202 -136.4185 -277.1749 95.353386 -38.663563 -294.6126
107.21467 -173.01193 136.59485 -87.113556 76.40631 -271.56628 -294.82315 -72.47214
-272.64505 -128.28224 -70.624596 -8.815232 -954.0063 97.19117 -277.30518 13.880055
231.51247 146.6207 -294.6915 -29.744131 -23.264574 -136.66594 19.14774 -27.205843

bn1.running_var f4 [128]
00000000: 9e3e 4745 ee62 1e46 1eff 5e4b 4031 b046
00000010: aa4d 3c45 d280 4c48 1c9a d644 94b0 4848
00000020: f240 9243 8fe7 b544 6493 d644 9310 c749
00000030: 8437 a149 7891 3749 b514 9543 8e77 d644
00000040: 183c a94b 4223 8b49 1214 a14a 4da0 5948
00000050: e1c3 1648 0c14 ab4b aca1 e248 7d6e 8b49
00000060: be87 8547 748a 864b b00b 4e44 894e a645
00000070: 991d 9b44 8c97 d644 3a6d 2f49 211e 9a49
00000080: 79f7 dc44 34d2 8848 b123 8b4b c5d0 e945
00000090: be0f 7048 dc36 d644 9e72 9348 558b 7748
000000a0: f3cc a34b 124c 6e49 e951 ba47 a830 374a
000000b0: b779 e244 4107 bb47 458e 2148 3cb5 a148
000000c0: 1927 9249 5e49 5644 4c90 c048 ec3c 7e4b
000000d0: 2ed4 d648 33f5 5947 c390 814b 593b 8b49
000000e0: 2d96 bb49 e8fa 6e4b 0383 444b ff48 9d45
000000f0: 1266 0f49 b672 4e49 583b d544 f6d4 8348
00000100: 5d3e 0048 c86d da47 4399 d644 9467 3849
00000110: 4558 9949 e001 6948 d9d8 ba46 3655 cc49
00000120: c413 7d47 042c d644 f10f c444 6823 8e48
00000130: 3b93 6b44 4a6c aa48 71ef 504a d6dc 8244
00000140: eede de47 5bee 8f4a e48d 1f4a 23a7 be48
00000150: 0340 934b 2d04 cb46 67c0 ce44 d74d 674b
00000160: 7938 6647 0958 4e49 dcc8 0d48 6f87 8c4b
00000170: 8d0a 6b49 e499 9048 6834 8f49 57ca cd48
00000180: 71c3 7649 9b23 e148 f880 ab49 6859 6a48
00000190: 6c1b 7249 9efe e447 3566 9846 22c1 8849
000001a0: 6b2c 1148 eed0 bc48 33e7 6a48 2519 c047
000001b0: efde 9547 7f61 6849 8bf3 8849 c422 8547
000001c0: c748 6a49 5c53 5048 2be3 7c47 f52b e844
000001d0: bc38 334b 95d9 ed47 a758 7249 c230 1c45
000001e0: ebc0 2849 139e 8748 b0d5 8849 306e 4d46
000001f0: 067f ea45 d081 6b48 8a47 d445 c51f 1c46
3187.9136 10136.732 1.4614302e+07 22552.625 3012.854 209411.28 1716.8159 205506.31
292.5074 1455.2362 1716.606 1.6307384e+06 1.3206885e+06 751895.5 298.16177 1715.7361
2.2181936e+07 1.1398162e+06 5.278217e+06 222849.2 154383.52 2.2423576e+07 464141.38 1.1422236e+06
68367.484 1.7634536e+07 824.1826 5321.817 1240.9249 1716.7358 718547.6 1.2625321e+06
1767.7335 280209.62 1.8237282e+07 7482.096 245822.97 1713.7144 301972.94 253485.33
2.146967e+07 976065.1 95395.82 3.001386e+06 1811.8036 95758.51 165433.08 331177.88
1.1972831e+06 857.14636 394370.38 1.666174e+07 439969.44 55797.2 1.6982406e+07 1.1405871e+06
1.5367096e+06 1.56618e+07 1.2878595e+07 5033.1245 587361.1 845611.4 1705.8545 269991.7
131321.45 111835.56 1716.7894 755321.25 1.2562006e+06 238599.5 23916.424 1.6738948e+06
64787.766 1713.3755 1568.4982 291099.25 942.3005 349026.3 3.4231962e+06 1046.9011
114109.86 4.7163335e+06 2.614137e+06 390457.1 1.9300358e+07 25986.088 1654.0126 1.5158743e+07
58936.473 845184.56 145187.44 1.8419422e+07 962728.8 296143.12 1.173133e+06 421458.72
1.01074306e+06 461084.84 1.404959e+06 239973.62 991670.75 117245.234 19507.104 1.1202922e+06
148657.67 386695.44 240540.8 98354.29 76733.87 951831.94 1.1219054e+06 68165.53
959628.44 213325.44 64739.168 1857.3737 1.1745468e+07 121779.164 992650.44 2499.0474
691214.7 277744.6 1.12095e+06 13147.547 7503.878 241159.25 6792.9424 9991.942

fc2.weight f4 [128, 128]
00000000: 0ad7 23bc 4719 f7ba 73bb 233c 04d0 d3bb
00000010: 91b7 1dbc 98a0 04bc 0ad7 233c 55de f3bb
00000020: 0ad7 23bc 0ad7 23bc 0ad7 23bc 7531 643b
00000030: 7714 693b fbb4 583b 0ad7 23bc 0ad7 233c
00000040: 41bc 233c 4e51 633b 0ad7 233c e2c2 d0bb
00000050: bd53 8ebb 0ad7 233c fa60 5ebb 81b5 553b
00000060: 14ef e339 a3af 233c 0ad7 23bc 9a18 083c
00000070: 0ad7 23bc 0ad7 23bc 6308 1bbb e0b3 6c3b
00000080: d23e 01bc 0ad7 233c 27b8 233c f3f9 10bb
00000090: 3892 c4bb 37d4 23bb b095 89bb 09c1 aabb
000000a0: cbbf 233c a83f 303b 1084 16bb 7095 093a
000000b0: b33c c7bb afa5 10bc 4b73 073c 6922 ecbb
000000c0: b28b 5c3b 0ad7 233c 8231 dcbb 0ad7 233c
000000d0: d850 8fbb c6ee f3bb 0ad7 233c 7ed3 633b
000000e0: feba 6e3b 0ad7 233c f6c4 233c 0ad7 23bc
000000f0: af71 9dbb 1b5a febb 0ad7 23bc 18c7 02bc
00000100: b5d9 d4bb 6952 1ebc 0ad7 23bc a3e1 e5b9
00000110: 5719 69ba 7171 e8bb 5020 89bb 93c5 663b
00000120: da23 b5bb 0ad7 23bc 0ad7 23bc 7425 e2bb
00000130: 0ad7 23bc 3447 c9bb b518 3d3a 0ad7 23bc
00000140: 433f 853b 0ad7 233c 0ad7 233c 7d54 d9bb
00000150: 30b2 233c 0b53 523b 55e0 19bc acb9 233c
00000160: f282 c0bb 4923 53ba 8e49 fbbb 0ad7 233c
00000170: a811 0b3b aa7e faba aaa3 43ba 3e01 11bb
00000180: 0ad7 233c 04f5 44bb 5666 643b c6cd 8cbb
00000190: a2f5 313b 4ee8 08bc 7b7b 00bb 30fe 633b
000001a0: 9f43 edbb 4712 b3bb c277 02bc bae6 09bc
000001b0: 4a53 483b 58c9 d4ba 6ed0 623b 244b 01bc
000001c0: f9b9 1b3b 73bf f6bb 11a6 10bc 6261 8d3b
000001d0: a6cf 233c b682 14bc a8e5 3e3b 0ad7 23bc
000001e0: 9044 e4bb 0750 febb 983f 5f3b 6353 13bc
000001f0: 2911 0cbc eb03 643b 24c0 0cbb f7d3 15bc
00000200: 0ad7 23bc 22c7 f3ba 3eb1 233c 7a0f d4bb
00000210: fc75 1cbc 213c 03bc 0ad7 233c baf2 f1bb
00000220: 0ad7 23bc 0ad7 23bc 0ad7 23bc bf58 653b
00000230: 3812 6a3b c6f3 563b 0ad7 23bc 0ad7 233c
00000240: b9cf 233c dfbd 633b 0ad7 233c 96eb d0bb
00000250: f092 8dbb 0ad7 233c aa0c 5ebb bc47 533b
00000260: 9afe b239 b9ac 233c 0ad7 23bc 1175 063c
00000270: 0ad7 23bc 0ad7 23bc 5a88 1bbb d53c 6d3b
00000280: 4f9f 01bc 0ad7 233c 4ccd 233c 50a2 11bb
00000290: ebc9 c4bb 4b5c 23bb 6797 89bb ca27 abbb
000002a0: 0ad7 233c 70f0 2d3b ebf7 17bb beba fc39
000002b0: 4220 f73b 285a 11bc 9440 083c c17e eabb
000002c0: efcf 593b 0ad7 233c 74b3 dabb 2fb1 233c
000002d0: e06f 8fbb 94ef f2bb 92ce 233c f98b 643b
000002e0: 11e8 6e3b d6b1 233c 5aba 233c 0ad7 23bc
000002f0: 15b8 9dbb 2b00 00bc 0ad7 23bc fc86 01bc
00000300: 5aba d4bb 33fa 1fbc 0ad7 23bc 6aae 16ba
00000310: 1660 67ba 92f9 e6bb cbfd 89bb beed 673b
00000320: 4ef8 b2bb 0ad7 23bc 0ad7 23bc 5db6 e0bb
00000330: 0ad7 23bc 334f c8bb 187d 3f3a 0ad7 23bc
00000340: 61cc 893b 0ad7 233c 0ad7 233c 18af d9bb
00000350: e5aa 233c 521e 543b 7184 18bc a2af 233c
00000360: edb4 c0bb 5fa4 69ba faa6 fabb 0ad7 233c
00000370: 1726 093b dcc3 08bb 5ad6 42ba 84a1 11bb
00000380: 0ad7 233c bdf8 44bb 21a4 653b 02d7 8cbb
00000390: 3eb3 2f3b 44a6 07bc b759 fcba 59f2 633b
000003a0: fc79 eabb 7f92 b3bb d635 01bc 0970 0abc
000003b0: e998 473b 5487 d5ba d354 633b 10b1 01bc
000003c0: 0895 1a3b 88c6 f6bb 945a 11bc 6716 8a3b
000003d0: fbc4 233c 93bd 13bc 388e 3c3b 0ad7 23bc
000003e0: f7f9 e1bb 2c10 fbbb 3d9a 5c3b 76c4 12bc
000003f0: 0850 09bc 4496 623b 2c9e 0cbb 0914 16bc
-0.01 -0.0018852138 0.009993422 -0.0064640064 -0.009626285 -0.008094929 0.01 -0.0074422755
-0.01 -0.01 -0.01 0.0034819518 0.0035565177 0.0033066857 -0.01 0.01
0.009993614 0.0034685913 0.01 -0.006370888 -0.0043434785 0.01 -0.0033932314 0.0032609405
0.0004347494 0.0099906055 -0.01 0.008306647 -0.01 -0.01 -0.0023656122 0.0036117956
-0.007888513 0.01 0.009992636 -0.0022121638 -0.005998876 -0.0024998316 -0.0041987523 -0.005211
0.0099944575 0.002689341 -0.00229669 0.0005248403 -0.006080234 -0.008828565 0.008267234 -0.0072062504
0.00336526 0.01 -0.006719769 0.01 -0.004373651 -0.0074442355 0.01 0.003476351
0.0036427374 0.01 0.00999569 -0.01 -0.004804812 -0.0077622063 -0.01 -0.007982038
-0.0064956793 -0.009663203 -0.01 -0.00043846396 -0.00088920206 -0.0070936014 -0.00418476 0.0035212978
-0.0055279555 -0.01 -0.01 -0.0069014374 -0.01 -0.0061425213 0.00072134595 -0.01
0.0040663793 0.01 0.01 -0.0066323862 0.009991214 0.0032092954 -0.009391864 0.009992998
-0.005874985 -0.0008054269 -0.0076686805 0.01 0.002122024 -0.0019111235 -0.00074630475 -0.0022125985
0.01 -0.0030053267 0.0034851036 -0.004296991 0.0027154465 -0.008356167 -0.001960485 0.0034788959
-0.007240727 -0.0054648253 -0.007963123 -0.008416826 0.0030567222 -0.0016234322 0.0034609097 -0.00789145
0.0023761971 -0.0075301467 -0.008828656 0.0043145875 0.009998238 -0.009064367 0.0029128585 -0.01
-0.006966181 -0.007761005 0.0034065004 -0.008992049 -0.008549013 0.0034792374 -0.002147683 -0.009144775
-0.01 -0.0018598775 0.009990988 -0.0064715715 -0.009549614 -0.008009941 0.01 -0.0073836716
-0.01 -0.01 -0.01 0.0034995524 0.0035716426 0.003279911 -0.01 0.01
0.009998255 0.0034750623 0.01 -0.0063757403 -0.004320495 0.01 -0.003388206 0.0032238802
0.000341405 0.009989911 -0.01 0.008206622 -0.01 -0.01 -0.0023732395 0.0036199589
-0.007911517 0.01 0.009997677 -0.002222199 -0.006005516 -0.0024926837 -0.004198957 -0.005223249
0.01 0.0026541017 -0.0023188542 0.0004820432 0.007541687 -0.008871593 0.008316178 -0.0071562235
0.003323551 0.01 -0.0066742245 0.009990974 -0.00437735 -0.007413814 0.009997981 0.003487347
0.003645424 0.00999113 0.00999316 -0.01 -0.004813204 -0.00781254 -0.01 -0.007905718
-0.0064919414 -0.009764242 -0.01 -0.00057480356 -0.00088262686 -0.007048794 -0.0042111627 0.0035389508
-0.005461729 -0.01 -0.01 -0.006857677 -0.01 -0.006112957 0.0007304712 -0.01
0.004205272 0.01 0.01 -0.0066431873 0.009989475 0.0032366705 -0.00930892 0.009990605
-0.005880943 -0.0008912738 -0.0076492997 0.01 0.0020927244 -0.0020868694 -0.00074324536 -0.0022221515
0.01 -0.0030055486 0.0035040455 -0.004298092 0.0026809718 -0.008279387 -0.0019252811 0.0034781902
-0.007155655 -0.00548011 -0.007886371 -0.008449563 0.0030456132 -0.0016290941 0.003468801 -0.00791575
0.0023587365 -0.007530991 -0.008871693 0.0042140963 0.009995694 -0.009017366 0.0028771292 -0.01
-0.006896253 -0.00766184 0.003366127 -0.008957973 -0.008380897 0.0034574429 -0.0021456582 -0.00916005

fc2.bias f4 [128]
00000000: 031d a8bb a489 233c ff78 c53b 4a27 23bc
00000010: 3536 d23b e701 05bc 36c9 1abc 295e cd3b
00000020: ad3f 223c cfd2 cc3b 0bd0 233c 1773 80bb
00000030: 5d9e 9ebb 25d3 1cbc 93be a1bb 3023 78bb
00000040: 33b3 233c 14c1 23bc d9c8 133c 4f55 bc3b
00000050: fd62 203c 9061 223c fd34 22bc 219c 78bb
00000060: 4f57 20bc 7ae7 20bc 237d 213c b04e b53a
00000070: fca8 93bb e52d 233c 8855 193c 32ac 82bb
00000080: f74f cc3b 694f 213c 218b 96bb 7db7 49bb
00000090: c260 17bc b8d7 1dbb 547e 94bb 7851 ab3b
000000a0: 0717 aabb cf65 05bc 2d0a b13b 2339 223c
000000b0: fde3 bc3b 9208 1f3c bd7e b23b b269 1f3c
000000c0: dbe3 c53b 92e3 94bb d8e4 1bbc b41e 06bc
000000d0: 35a1 04bc 5e0f 19bc 5710 c93b 9de5 1cbc
000000e0: 3fc7 6fbb 9bc5 1f3c c803 99bb a356 1cbc
000000f0: 9e49 1f3c 9c75 a3bb 261f ca3b 83c3 c63b
00000100: d848 a5bb 36f9 81bb 94ba 1bbc ac50 203c
00000110: 07cd c03b 867b daba 74f6 7fbb 357c a8bb
00000120: 7e87 ad3b 38ce 223c 75f8 1cbc c8d3 b03b
00000130: 0e82 1cbc 6dcb 05bc 65a6 1f3c 17ce 92bb
00000140: 4f2d 1bbc 9e31 223c 40d5 c73b f970 233c
00000150: 8fba 06bc 7850 c43b 7c8e a83b 79f6 99bb
00000160: e5fc 94bb 18dc b33b 4177 a93b 3bf8 05bc
00000170: 606c 233c 1db9 1c3c 9591 97bb ed33 c53b
00000180: c210 233c 0445 cb3b 3b9d 06bc ec2a 06bc
00000190: d715 b6bb 500e a5bb 397f ca3b 0ed5 cb3b
000001a0: cc86 1cbc cdf8 05bc 54b4 8fbb 147d 07bc
000001b0: 45ef d23b a46e 1abc 0c51 233c 3e0b b33b
000001c0: da9b a0bb 42ea 223c 9e79 1f3c 681d 83bb
000001d0: 04f9 04bc 99f1 c43b aab4 80bb c372 09bc
000001e0: 2ebf 213c db71 203c c7e2 1abc e9e5 1f3c
000001f0: f0f2 97bb 33a7 8cbb 4bbc 203c dbb7 c63b
-0.0051304116 0.009981547 0.0060263867 -0.009958098 0.0064151534 -0.008118129 -0.0094473865 0.0062673283
0.009902877 0.0062507163 0.009998332 -0.00391997 -0.0048406557 -0.009571825 -0.0049360483 -0.003786277
0.009991455 -0.009994764 0.009020054 0.0057474743 0.009789226 0.009910956 -0.009900329 -0.0037934857
-0.009786441 -0.009820813 0.009856495 0.0013832655 -0.0045062285 0.009959673 0.009358771 -0.0039878124
0.0062351185 0.009845593 -0.004594222 -0.0030779534 -0.009239377 -0.0024084877 -0.004531661 0.0052282177
-0.0051907334 -0.008141949 0.0054028244 0.009901318 0.005764483 0.009706633 0.0054472373 0.00972979
0.0060391254 -0.00454373 -0.00951501 -0.008186031 -0.008095075 -0.009342043 0.006135981 -0.009576228
-0.0036587266 0.009751703 -0.00466964 -0.00954214 0.009722142 -0.0049883854 0.006168264 0.0060657873
-0.005044084 -0.003966476 -0.009504933 0.009784859 0.005883816 -0.0016668893 -0.003905681 -0.0051417598
0.005295693 0.009936862 -0.009580721 0.00539634 -0.009552492 -0.008166176 0.009744261 -0.004480134
-0.009471252 0.009899525 0.0060984194 0.009975665 -0.00822319 0.005991038 0.0051439386 -0.0046985713
-0.004546749 0.0054888837 0.005171687 -0.008176859 0.009974569 0.009565619 -0.004625509 0.006018153
0.009952726 0.0062032957 -0.008216198 -0.008188944 -0.0055568027 -0.0050371066 0.006179717 0.0062204665
-0.009553622 -0.0081769945 -0.0043855105 -0.008269567 0.0064372146 -0.009425793 0.009968054 0.0054639867
-0.0049013915 0.009943547 0.009733586 -0.004001308 -0.008116011 0.006010246 -0.003927787 -0.008389178
0.009872241 0.00979277 -0.009453482 0.009759405 -0.0046371147 -0.0042923926 0.009810518 0.0060643977

bn2.weight f4 [128]
00000000: 0ad7 233c 0ad7 233c 0ad7 233c 177e ea3b
00000010: 0ad7 233c 0ad7 233c 0ad7 233c 0ad7 233c
00000020: 0ad7 233c 0ad7 233c 0ad7 233c 0ad7 233c
00000030: 0ad7 233c 0ad7 233c 0ad7 233c 0ad7 233c
00000040: 396b f03b 25f2 de3b 3e56 ac3b 0ad7 233c
00000050: 0ad7 233c 0ad7 233c 2959 ad3b 0ad7 233c
00000060: cd72 d23b e872 dd3b 0ad7 233c 0ad7 233c
00000070: 0ad7 233c 0ad7 233c 0ad7 233c 0ad7 233c
00000080: 0ad7 233c 0ad7 233c 0ad7 233c 0ad7 233c
00000090: 0ad7 233c 0ad7 233c 0ad7 233c 0ad7 233c
000000a0: 0ad7 233c 0ad7 233c 0ad7 233c 0ad7 233c
000000b0: 0ad7 233c 0ad7 233c 0ad7 233c 0ad7 233c
000000c0: 0ad7 233c 0ad7 233c 0ad7 233c 0ad7 233c
000000d0: 0ad7 233c 0ad7 233c 0ad7 233c 0ad7 233c
000000e0: 0ad7 233c 0ad7 233c 0ad7 233c 0ad7 233c
000000f0: 0ad7 233c 0ad7 233c 0ad7 233c 0ad7 233c
00000100: 0ad7 233c 0ad7 233c 0ad7 233c 0ad7 233c
00000110: 0ad7 233c 0ad7 233c 0ad7 233c 0ad7 233c
00000120: 0ad7 233c 0ad7 233c 0ad7 233c 0ad7 233c
00000130: 0ad7 233c 0ad7 233c 0ad7 233c 0ad7 233c
00000140: 0ad7 233c 0ad7 233c 0ad7 233c 0ad7 233c
00000150: 0ad7 233c 0ad7 233c 0ad7 233c 0ad7 233c
00000160: 0ad7 233c 0ad7 233c 0ad7 233c 0ad7 233c
00000170: 5f63 ea3b 0ad7 233c 0ad7 233c 0ad7 233c
00000180: 0ad7 233c 0ad7 233c 0ad7 233c 0ad7 233c
00000190: 0ad7 233c 0ad7 233c 0ad7 233c 0ad7 233c
000001a0: 0ad7 233c 0ad7 233c 0ad7 233c 0ad7 233c
000001b0: 0ad7 233c 0ad7 233c 0ad7 233c 0ad7 233c
000001c0: 0ad7 233c 0ad7 233c 0ad7 233c 0ad7 233c
000001d0: 0ad7 233c 0ad7 233c 0ad7 233c 0ad7 233c
000001e0: 0ad7 233c 0ad7 233c dda7 ab3b 0ad7 233c
000001f0: 0ad7 233c 0ad7 233c 0ad7 233c 0ad7 233c
0.01 0.01 0.01 0.0071561444 0.01 0.01 0.01 0.01
0.01 0.01 0.01 0.01 0.01 0.01 0.01 0.01
0.0073370007 0.006803768 0.0052593043 0.01 0.01 0.01 0.0052901697 0.01
0.0064223767 0.0067580827 0.01 0.01 0.01 0.01 0.01 0.01
0.01 0.01 0.01 0.01 0.01 0.01 0.01 0.01
0.01 0.01 0.01 0.01 0.01 0.01 0.01 0.01
0.01 0.01 0.01 0.01 0.01 0.01 0.01 0.01
0.01 0.01 0.01 0.01 0.01 0.01 0.01 0.01
0.01 0.01 0.01 0.01 0.01 0.01 0.01 0.01
0.01 0.01 0.01 0.01 0.01 0.01 0.01 0.01
0.01 0.01 0.01 0.01 0.01 0.01 0.01 0.01
0.01 0.01 0.01 0.01 0.0071529592 0.01 0.01 0.01
0.01 0.01 0.01 0.01 0.01 0.01 0.01 0.01
0.01 0.01 0.01 0.01 0.01 0.01 0.01 0.01
0.01 0.01 0.01 0.01 0.01 0.01 0.01 0.01
0.01 0.01 0.0052385167 0.01 0.01 0.01 0.01 0.01

bn2.bias f4 [128]
00000000: b4aa c339 4e08 c339 22b7 cab8 d868 53bb
00000010: 602d a5b8 a6f3 a138 915a d9b8 60df 8db8
00000020: 67ad d8b9 75d4 96b8 711b 3139 5689 d7b9
00000030: f2ed d839 b164 67b8 92d4 d939 614b c0b9
00000040: ea61 56bb e614 55bb 3256 623b df14 c3b8
00000050: de99 d0b9 dcb9 dab9 7d1c 943b 5168 c7b9
00000060: 82ff 903b b8ce 163b 339a d2b9 6a72 a8b8
00000070: e308 cb39 739f c539 bcca c8b9 c38d beb9
00000080: af13 45b8 52cc dcb9 11e4 d039 0621 c5b9
00000090: 54f9 b9b8 5c9e 73b8 5764 ca39 576a 3b38
000000a0: 5f31 dc39 9e09 c438 b16e 2038 405a de39
000000b0: e023 8a38 cbed dbb9 fc24 3939 46c1 dab9
000000c0: 971e 7cb8 87ac df39 90d0 d1b8 082e e138
000000d0: 78b7 3239 2ec6 92b8 ad23 f4b8 4c8e 8eb8
000000e0: 1e95 cbb9 e5e4 d9b9 b1d2 cd39 aede 8cb8
000000f0: 5bd2 d1b9 9a93 db39 4792 dcb8 c66b e1b8
00000100: ad0d df39 c254 3db8 0058 99b8 53cf bdb9
00000110: 3af9 e6b8 bbcd c939 d1c0 d039 f31c d939
00000120: 9c3b 0f38 62d2 be39 4bfa 06b9 1462 9838
00000130: 0103 c2b8 9398 3939 48fe cbb9 5017 d6b9
00000140: 8093 ddb8 2d58 c1b9 7e25 d6b8 37b2 cc39
00000150: a16d 2a38 f31f aeb8 48f5 5138 1421 d939
00000160: 91e8 de39 0855 ab38 570f 3f39 8493 8338
00000170: 149d 42bb b1d1 d5b9 0d82 cb39 5533 35b8
00000180: 37b7 d239 4cc4 f4b8 222f e838 f907 af38
00000190: 36c2 abb8 315c d839 fdd7 5fb8 f1a3 3eb8
000001a0: f732 aeb8 6c51 e538 5839 c639 a0e8 ad38
000001b0: 1d32 aab8 46cf a4b8 740d c939 d4cc 8838
000001c0: 6555 ca39 eb95 c139 5bf7 d9b9 ab45 cdb9
000001d0: 2415 9238 cfc0 44b8 1ce0 d2b9 b663 a738
000001e0: 73bc d939 0018 cab9 1892 8a3b 88e9 ddb9
000001f0: c746 e039 2e42 ddb9 af26 cbb9 5228 9db8
0.00037320482 0.00037199486 -9.666222e-05 -0.0032258537 -7.876265e-05 7.722461e-05 -0.00010364236 -6.765011e-05
-0.00041327925 -7.1921306e-05 0.00016890258 -0.0004111032 0.00041376014 -5.5168468e-05 0.00041547843 -0.00036677255
-0.003271217 -0.0032513677 0.003453624 -9.302212e-05 -0.00039787492 -0.00041718676 0.0045199976 -0.0003803396
0.00442499 0.0023011398 -0.0004016921 -8.0321755e-05 0.00038725798 0.00037693567 -0.00038298022 -0.00036345245
-4.6986792e-05 -0.000421139 0.00039842774 -0.00037599372 -8.8679284e-05 -5.80832e-05 0.000386032 4.468331e-05
0.00041998454 9.3478e-05 3.8250062e-05 0.0004241038 6.587035e-05 -0.00041948105 0.00017656753 -0.000417242
-6.010997e-05 0.00042662417 -0.000100047444 0.0001073741 0.0001704375 -6.998736e-05 -0.00011641472 -6.7975925e-05
-0.00038830278 -0.00041560005 0.00039257624 -6.7171975e-05 -0.00040020313 0.00041880907 -0.00010517664 -0.000107489104
0.00042544064 -4.514005e-05 -7.312e-05 -0.00036203358 -0.00011013677 0.0003849099 0.0003981651 0.00041411034
3.4149372e-05 0.0003639637 -0.00012872477 7.266193e-05 -9.2512004e-05 0.00017699813 -0.00038908632 -0.0004083463
-0.00010565575 -0.00036877525 -0.00010211299 0.00039042693 4.063326e-05 -8.3029176e-05 5.005792e-05 0.0004141411
0.00042516415 8.169754e-05 0.00018220894 6.274044e-05 -0.0029695677 -0.00040782758 0.00038816073 -4.320157e-05
0.00040190827 -0.0001167139 0.00011071401 8.346135e-05 -8.19009e-05 0.00041267418 -5.3368498e-05 -4.5452212e-05
-8.3064595e-05 0.00010934737 0.00037808227 8.2926126e-05 -8.115566e-05 -7.858737e-05 0.0003834773 6.5231376e-05
0.00038592066 0.00036923526 -0.0004157376 -0.00039152554 6.96576e-05 -4.690961e-05 -0.00040221296 7.981753e-05
0.0004152987 -0.00038546324 0.0042288415 -0.000423264 0.00042777343 -0.00042201712 -0.00038748 -7.4938536e-05

bn2.running_mean f4 [128]
00000000: 73c8 d9bb d9d8 0a3c 69e8 cc3b 52ea 30bc
00000010: d2d5 d73b 971a 08bc 8abd 16bc 08c7 d33b
00000020: fa08 3b3c 24d3 d43b f22e 163c d0b2 1dbb
00000030: 70f3 cfbb 8d9b 18bc de3f d3bb 614e 15bb
00000040: 1447 143c a37e 31bc b9f0 0c3c 6d0c c53b
00000050: 6d16 393c c232 3b3c f5bd 19bc 6442 15bb
00000060: cd97 1cbc 9e9e 12bc 2741 3a3c c15f cf3a
00000070: 9845 c5bb 6a69 0a3c 4f26 323c 5d93 22bb
00000080: 2a3f d33b 231f 3a3c 2a29 c8bb 59e9 cdba
00000090: c7c4 13bc 7862 11bb ff03 c6bb afee a33b
000000a0: 709d dbbb 1df5 08bc 65a8 a83b 3673 093c
000000b0: 6fd7 b33b 1bba 373c 03da aa3b 8c23 383c
000000c0: 1303 cd3b e16a c6bb 2ffa 18bc 3f28 09bc
000000d0: cf4a 08bc e97a 16bc df9a cf3b da2a 19bc
000000e0: 1727 0dbb c487 383c 0385 cabb 77a7 19bc
000000f0: c608 383c 41d4 d4bb 6b37 d13b f7e2 cc3b
00000100: a1a0 d6bb 4004 75bb fc6a 18bc 0801 393c
00000110: 246c c63b 720f 50bb a654 b1bb 18eb d9bb
00000120: e9f0 a33b bbfd 093c c064 19bc b6b1 a83b
00000130: 9db0 18bc 7178 0abc 594c 383c cabb 42bb
00000140: b3c9 17bc 67ef 3a3c 47c5 ce3b dda3 0a3c
00000150: 241f 0bbc 8c1f cc3b 1cc2 a03b 7c7c cbbb
00000160: 5f43 c6bb 84c6 ab3b 6bf4 9f3b f492 09bc
00000170: 539e 123c f474 353c b7cf c8bb 1f2b cd3b
00000180: df4e 0a3c ea07 d23b 9f08 0abc 7c2f 09bc
00000190: 817a b1bb 8b79 d6bb a5d8 d03b f590 d13b
000001a0: 976e 19bc 0024 0abc 6162 c1bb 5eb7 0bbc
000001b0: a737 da3b 6434 17bc fc87 0a3c f179 aa3b
000001c0: c41a d2bb 7a3f 0a3c 4d4c 383c 397f 23bb
000001d0: ba6d 08bc 3b20 cb3b 37ad 1ebb 9ec0 0cbc
000001e0: d31d 093c c62d 393c 506f 16bc b5c3 383c
000001f0: b382 c9bb 4cfc 35bb 9882 393c a290 ce3b
-0.00664621 0.008474552 0.0062532914 -0.010798054 0.0065867687 -0.008307121 -0.009200463 0.0064629354
0.011415714 0.0064948965 0.009166466 -0.002406288 -0.0063461587 -0.00931443 -0.0064468225 -0.0022782313
0.0090501495 -0.010833415 0.008602315 0.006013444 0.011296851 0.011425676 -0.009383668 -0.0022775168
-0.0095576765 -0.00894895 0.011368073 0.0015821384 -0.006020259 0.008447984 0.010873391 -0.0024807074
0.0064467387 0.011359963 -0.0061084228 -0.0015709802 -0.009019083 -0.0022183936 -0.006042957 0.0050028185
-0.0067021176 -0.008359221 0.0051470273 0.008389285 0.005488328 0.011213805 0.0052139773 0.011238944
0.00625647 -0.0060552214 -0.009336992 -0.008371412 -0.008318617 -0.0091845775 0.0063356007 -0.0093485955
-0.0021538192 0.011262838 -0.006180407 -0.009378306 0.0112325605 -0.006495029 0.00638478 0.0062526423
-0.00654991 -0.0037386566 -0.009302851 0.01129175 0.006055372 -0.0031747487 -0.005411702 -0.00665034
0.005003084 0.00842231 -0.0093624 0.005148138 -0.009319452 -0.008451567 0.011248671 -0.0029713982
-0.009264397 0.011409617 0.0063101384 0.00846192 -0.008491311 0.0062293466 0.004905952 -0.006209908
-0.0060505117 0.0052421708 0.004881432 -0.008396853 0.00894888 0.011075247 -0.006128277 0.006261244
0.008441656 0.006409635 -0.008424907 -0.008373138 -0.005416215 -0.006545251 0.0063734823 0.006395454
-0.009364746 -0.008431435 -0.0059016203 -0.008527605 0.0066594663 -0.0092287995 0.008455273 0.005202525
-0.006411882 0.008437986 0.01124866 -0.0024947657 -0.008326942 0.0061989105 -0.002421213 -0.008590845
0.008368927 0.011302417 -0.009181812 0.011277129 -0.0061496138 -0.002776879 0.01132264 0.0063038627

bn2.running_var f4 [128]
00000000: 55bc 9d36 340c 9d36 8a1e a936 40a8 0b35
00000010: 48b4 a636 ff09 a636 71de aa36 1150 a736
00000020: d599 9d36 1b35 aa36 7347 a936 a79d 9d36
00000030: 22d2 9d36 acf0 a836 e3d2 9d36 2ec4 9c36
00000040: 4f87 0834 2b4f d434 035e 3a34 ef5f ab36
00000050: 92d6 9c36 836a 9d36 aa52 8c32 8db4 9d36
00000060: e1b3 4734 7315 3a34 974e 9d36 725f a936
00000070: 06f0 9c36 18f5 9c36 7b0b 9e36 d3eb 9c36
00000080: 687f a836 dea8 9d36 a5d9 9c36 696f 9d36
00000090: 87af aa36 d7c8 a736 06f5 9c36 a957 a736
000000a0: 5388 9d36 a8f3 a736 a99e a736 d8b0 9d36
000000b0: f54d a936 019d 9d36 f8e1 a836 a79e 9d36
000000c0: e885 a736 29b5 9d36 64cd ab36 7150 a736
000000d0: cbcb a536 32dd a736 5804 a936 7490 a736
000000e0: 8d8e 9d36 6f58 9d36 1b15 9d36 2d96 a536
000000f0: f46f 9d36 4f75 9d36 4e89 ab36 bc04 a936
00000100: 17d3 9d36 4c77 a836 d880 a636 3551 9d36
00000110: 6e3e a936 95f5 9c36 e81d 9d36 15af 9d36
00000120: e0ed a936 d1bf 9d36 f4be ab36 710e aa36
00000130: 4d90 aa36 c6d7 a836 c71e 9d36 9b0d 9d36
00000140: 4cce aa36 026c 9d36 9459 a836 6c18 9d36
00000150: d339 aa36 61ed a736 339b a936 5092 9d36
00000160: 30a4 9d36 820d aa36 a840 a936 7068 a736
00000170: 0b29 8f34 13fc 9c36 0c5b 9d36 1279 a836
00000180: e3ed 9c36 0ed3 aa36 9c7a a836 ea27 a836
00000190: 2bbc a836 a87a 9d36 0a0c aa36 6d90 a636
000001a0: c4fa a936 c8dd ab36 2de9 9d36 f311 aa36
000001b0: aeb0 aa36 5a3b a836 9d37 9d36 5718 aa36
000001c0: d001 9d36 7bf8 9c36 7e9f 9d36 b9e5 9c36
000001d0: 031b a836 f435 a936 4c0e 9d36 9a5f a736
000001e0: 468f 9d36 814a 9d36 aa4b 0833 90e6 9d36
000001f0: 59ca 9d36 49c7 9d36 32f7 9c36 272f a936
4.7008893e-06 4.6803852e-06 5.0401477e-06 5.202637e-07 4.968173e-06 4.948349e-06 5.0922904e-06 4.986309e-06
4.696873e-06 5.072577e-06 5.0449103e-06 4.6973178e-06 4.7034273e-06 5.034808e-06 4.703515e-06 4.6720006e-06
1.2715212e-07 3.954568e-07 1.7356801e-07 5.1073653e-06 4.6741416e-06 4.691364e-06 1.6335736e-08 4.6999835e-06
1.8598759e-07 1.7330403e-07 4.6881137e-06 5.047704e-06 4.6771047e-06 4.677695e-06 4.7101034e-06 4.676616e-06
5.021622e-06 4.6986233e-06 4.6744995e-06 4.6919345e-06 5.086829e-06 5.0003687e-06 4.677687e-06 4.987193e-06
4.694835e-06 5.005353e-06 4.9954583e-06 4.699552e-06 5.045668e-06 4.6972423e-06 5.0330964e-06 4.697434e-06
4.9925766e-06 4.7000544e-06 5.1201077e-06 4.9863525e-06 4.941108e-06 5.0027384e-06 5.037098e-06 4.9938044e-06
4.6955597e-06 4.6892596e-06 4.6814216e-06 4.934866e-06 4.6919977e-06 4.692621e-06 5.1121815e-06 5.0371436e-06
4.7035387e-06 5.020678e-06 4.962185e-06 4.6884184e-06 5.0438603e-06 4.677752e-06 4.682446e-06 4.699347e-06
5.064285e-06 4.701295e-06 5.118427e-06 5.068076e-06 5.0831936e-06 5.0319095e-06 4.6825476e-06 4.6805485e-06
5.090411e-06 4.6915384e-06 5.0172184e-06 4.6818077e-06 5.0731264e-06 5.0046224e-06 5.05466e-06 4.6959976e-06
4.6980786e-06 5.0679673e-06 5.0441195e-06 4.989146e-06 2.6665688e-07 4.6785076e-06 4.689564e-06 5.0208846e-06
4.676856e-06 5.090965e-06 5.0210638e-06 5.0114368e-06 5.028696e-06 4.6932437e-06 5.0677963e-06 4.963999e-06
5.0657854e-06 5.122016e-06 4.70611e-06 5.0684844e-06 5.086963e-06 5.0136996e-06 4.685439e-06 5.0692283e-06
4.6791756e-06 4.678089e-06 4.697532e-06 4.6759055e-06 5.0099347e-06 5.0428735e-06 4.680629e-06 4.9881173e-06
4.695644e-06 4.687638e-06 3.1733784e-08 4.7058056e-06 4.702521e-06 4.7021645e-06 4.6779396e-06 5.0420817e-06

fc3.weight f4 [1, 128]
00000000: 0ad7 23bc 0ad7 23bc 0ad7 233c 86bb 163c
00000010: 0ad7 233c 0ad7 233c 0ad7 233c 0ad7 233c
00000020: 0ad7 23bc 0ad7 233c 0ad7 233c 0ad7 23bc
00000030: 0ad7 23bc 0ad7 233c 0ad7 23bc 0ad7 23bc
00000040: 6ccc 023c 80fe fe3a 809d e93b 0ad7 233c
00000050: 0ad7 23bc 0ad7 23bc 20e8 b13b 0ad7 23bc
00000060: 805b 003c 42d3 063c 0ad7 23bc 0ad7 233c
00000070: 0ad7 23bc 0ad7 23bc 0ad7 23bc 0ad7 23bc
00000080: 0ad7 233c 0ad7 23bc 0ad7 23bc 0ad7 23bc
00000090: 0ad7 233c 0ad7 233c 0ad7 23bc 0ad7 233c
000000a0: 0ad7 23bc 0ad7 233c 0ad7 233c 0ad7 23bc
000000b0: 0ad7 233c 0ad7 23bc 0ad7 233c 0ad7 23bc
000000c0: 0ad7 233c 0ad7 23bc 0ad7 233c 0ad7 233c
000000d0: 0ad7 233c 0ad7 233c 0ad7 233c 0ad7 233c
000000e0: 0ad7 23bc 0ad7 23bc 0ad7 23bc 0ad7 233c
000000f0: 0ad7 23bc 0ad7 23bc 0ad7 233c 0ad7 233c
00000100: 0ad7 23bc 0ad7 233c 0ad7 233c 0ad7 23bc
00000110: 0ad7 233c 0ad7 23bc 0ad7 23bc 0ad7 23bc
00000120: 0ad7 233c 0ad7 23bc 0ad7 233c 0ad7 233c
00000130: 0ad7 233c 0ad7 233c 0ad7 23bc 0ad7 23bc
00000140: 0ad7 233c 0ad7 23bc 0ad7 233c 0ad7 23bc
00000150: 0ad7 233c 0ad7 233c 0ad7 233c 0ad7 23bc
00000160: 0ad7 23bc 0ad7 233c 0ad7 233c 0ad7 233c
00000170: ef46 183c 0ad7 23bc 0ad7 23bc 0ad7 233c
00000180: 0ad7 23bc 0ad7 233c 0ad7 233c 0ad7 233c
00000190: 0ad7 233c 0ad7 23bc 0ad7 233c 0ad7 233c
000001a0: 0ad7 233c 0ad7 233c 0ad7 23bc 0ad7 233c
000001b0: 0ad7 233c 0ad7 233c 0ad7 23bc 0ad7 233c
000001c0: 0ad7 23bc 0ad7 23bc 0ad7 23bc 0ad7 23bc
000001d0: 0ad7 233c 0ad7 233c 0ad7 23bc 0ad7 233c
000001e0: 0ad7 23bc 0ad7 23bc dd90 e13b 0ad7 23bc
000001f0: 0ad7 23bc 0ad7 23bc 0ad7 23bc 0ad7 233c
-0.01 -0.01 0.01 0.0091999825 0.01 0.01 0.01 0.01
-0.01 0.01 0.01 -0.01 -0.01 0.01 -0.01 -0.01
0.007983308 0.0019454509 0.007129371 0.01 -0.01 -0.01 0.005429283 -0.01
0.007834315 0.008229079 -0.01 0.01 -0.01 -0.01 -0.01 -0.01
0.01 -0.01 -0.01 -0.01 0.01 0.01 -0.01 0.01
-0.01 0.01 0.01 -0.01 0.01 -0.01 0.01 -0.01
0.01 -0.01 0.01 0.01 0.01 0.01 0.01 0.01
-0.01 -0.01 -0.01 0.01 -0.01 -0.01 0.01 0.01
-0.01 0.01 0.01 -0.01 0.01 -0.01 -0.01 -0.01
0.01 -0.01 0.01 0.01 0.01 0.01 -0.01 -0.01
0.01 -0.01 0.01 -0.01 0.01 0.01 0.01 -0.01
-0.01 0.01 0.01 0.01 0.009294256 -0.01 -0.01 0.01
-0.01 0.01 0.01 0.01 0.01 -0.01 0.01 0.01
0.01 0.01 -0.01 0.01 0.01 0.01 -0.01 0.01
-0.01 -0.01 -0.01 -0.01 0.01 0.01 -0.01 0.01
-0.01 -0.01 0.006883724 -0.01 -0.01 -0.01 -0.01 0.01
