10_Models/Results_Barcelona/WGANBR_Freeflow_generator_best.pth (torch, 198462 bytes, 20 tensors)

fc1.weight f4 [128, 51]
00000000: 207a c53d 81e4 edbd e700 9dbb 4153 133a
00000010: 2912 2f3b 4785 483d 76ac 12bd da59 073e
00000020: d22e b13d cf91 e33d e14e d83d 8cd5 e5bd
00000030: e7c9 d73d 362a aa3d 948a babd 7d8f e33d
00000040: 3c81 1d3d 4dd6 b7bd 1098 13bd 0f77 163e
00000050: 29a3 d0bd 0c5d 023e 9574 5cbd 598f b2bc
00000060: cf98 e4bd 5afa e7bc daa1 acbd c91a df3b
00000070: 9b0d a03d 05df e13d 20f0 ce3d 0cfd fe3d
00000080: 8101 863b 5642 203d 885c f53d 1724 2fbc
00000090: 640f 953b 3dfa b63c a720 41bd aaa5 e13d
000000a0: f6db 95bc 099e ad3c b3d8 f23d e6dc 6b3d
000000b0: 08fc f1bc 5797 f33d 4589 bd3d 5e8a 013e
000000c0: 0155 56bd e7d1 d2bc da16 f93d e0ef d33d
000000d0: f2ca 02be 2a01 763c 51da 853d 1e26 593c
000000e0: bebc fcbd 518a ffbd 12e1 553d 5405 c93d
000000f0: ba9d b13d 875c d83d b1bf 08be bb02 bbbc
00000100: 0e86 de3d 1d79 063d 5f76 8ebd 3c0e ccbd
00000110: ed2a fa3b bcfd dc3d df61 e8bd 9a24 0e3e
00000120: 83f5 cd3d 807f 983d 2593 abbd fb82 533c
00000130: 0ba0 383d 49e4 04be 7b40 d23d 5c52 abbc
00000140: 0dad 433d 524c 033e 2266 d43d a23e ecbd
00000150: 693c c1bd 7999 bb3d 5bdc e5bb e186 c1bd
00000160: 8c44 ec3d c9eb 3fbc d477 023e 6aa4 5abd
00000170: 08c9 b13c da7e 61bc 5aba 143c 9705 cd3b
00000180: 8513 c7bd d0db 9b3d 5e58 c53d afe7 383d
00000190: 2311 963d c577 683d f6ff c33d 26c0 27bc
000001a0: 4c03 2a3d 744d 07be 2c2e 053d 3a6f e73d
000001b0: 6d7d 13be 6746 a43d 81a2 02be e643 95bd
000001c0: 9f9e fb3d 65fa 433c 4452 ad3d b657 7f3d
000001d0: b37d 05be 462d a83d bec8 dd3c c13a 95bb
000001e0: 83c5 fbbd a0c4 60bd aa75 ebbd b33b 333d
000001f0: c535 073e 4400 00bd c2be e5bd e611 08bb
00000200: d70a 013e fb22 dc3d a2ec 153d df53 703b
00000210: 5aac 96bd 8c31 873b ac44 af3d 59ac c73c
00000220: 2d0f c63d 3a38 c63d a476 d93d bd55 afbd
00000230: ed5a 603c 38c5 c5bd 2f74 a1bd 856a 033e
00000240: 32f5 023e a461 613d f423 d63d f7af c03d
00000250: d396 edbd e55d 073e b965 d3bd 706c 883d
00000260: deda 9f39 d41b 003e 967d 603d caf2 65bb
00000270: 19f4 7fbd c8f2 063d 8df1 8a3c a0f2 9bbc
00000280: 7a5c dfbd 3391 033e 0ddc 493d d26c 68bd
00000290: db53 483d 5e00 02be e029 093e 1177 d43c
000002a0: a77a 8f3d c215 d93c 975f 413d 8f62 03be
000002b0: 7d8e 0d3d d9b6 cdbb 38f2 96ba ef53 893d
000002c0: 0727 f6bd af10 c4bb d317 9f3d d668 9fbd
000002d0: a96e de3d ba9c d7bd 27d2 673d 70c0 39bd
000002e0: 7b9c 29bd 15ce d7bc 1998 e3bd eaa6 b93c
000002f0: 9edc 3f3c 8e94 8c3d e831 b83d 9988 3c3d
00000300: 38a7 3b3d 1163 043e 9ae5 f63d 2b29 533b
00000310: 4251 49bd 6fa2 843d de19 d6bd ad94 09be
00000320: d20c b73c a2d1 cd3d 6c81 093e 62d2 fb3c
00000330: 6544 04bd 8719 13be 2f21 ddbd f5b4 8ebc
00000340: a4d4 8e3d d428 48bd 3e23 b73d fd75 e93d
00000350: aef9 9abc 06f2 ecbd 64c8 5a3d 5e01 e53d
00000360: b981 a6bd 8dd3 1c3d 5708 b93d 79fa 173d
00000370: 0977 333d eef6 a93d 92de 75bc 7384 ffbd
00000380: 599e a3bd 054d b53c d4d0 94bd 8384 86bd
00000390: 02cb b8bd 8584 a83d ed01 5fbd abf2 6dbd
000003a0: 2f7a a93d 133d 1e3d d614 e4bd 8088 cd3d
000003b0: 7e56 013e 3f0e ed3d 8927 4abd 5272 efbd
000003c0: 9058 4f3c c1e9 773d 64cd 14bd 041e 073e
000003d0: 5cee dd3d d128 273d 1dbe 1c3c 1063 fa3d
000003e0: 31f2 d93c 2d3c edbd ff3e d53d 655b 6dbd
000003f0: 4334 2e3d 6e39 f43d ce27 d73d 8466 4cbe
0.09642434 -0.11615849 -0.0047913673 0.0005620011 0.0026713705 0.04895523 -0.035809003 0.1321787
0.086515084 0.11111795 0.1056192 -0.112223715 0.10536557 0.08308832 -0.09108463 0.111113526
0.038453326 -0.089764215 -0.03603369 0.14693855 -0.1018737 0.12730807 -0.05382212 -0.02179687
-0.111619584 -0.02831762 -0.08429308 0.006808613 0.07815095 0.11028866 0.10104394 0.124506086
0.0040895347 0.039125763 0.119805396 -0.010689757 0.004548954 0.02233612 -0.04715028 0.11017926
-0.018293362 0.021193521 0.11857738 0.057583712 -0.029539123 0.118941 0.09254698 0.12650439
-0.05232716 -0.025734855 0.12162562 0.10348487 -0.1277273 0.015014926 0.06535781 0.013253717
-0.12340687 -0.12477554 0.052216597 0.098154694 0.08672662 0.10564523 -0.13354374 -0.02282845
0.10865413 0.032830346 -0.06956171 -0.099636525 0.0076345117 0.107905835 -0.113467924 0.1388115
0.10056593 0.07446194 -0.08377675 0.012909646 0.045074504 -0.12977709 0.10266205 -0.020913295
0.047772456 0.12822083 0.10371043 -0.11535384 -0.094353504 0.09160132 -0.007014794 -0.09449554
0.11536512 -0.01171393 0.12741023 -0.053379454 0.021702304 -0.013763154 0.009077633 0.00625677
-0.0972052 0.07610285 0.09635995 0.045142826 0.07327487 0.056754846 0.09570305 -0.010238683
0.04150705 -0.1321314 0.032514736 0.11300512 -0.14403315 0.08021241 -0.12757303 -0.07288341
0.12286114 0.011961554 0.084629565 0.062339507 -0.13036232 0.0821176 0.02707326 -0.004554123
-0.12293532 -0.054875016 -0.11497052 0.043758105 0.13204105 -0.031250253 -0.11218025 -0.0020762621
0.12601791 0.107488595 0.036602624 0.0036671085 -0.07357092 0.0041257795 0.0855802 0.024374174
0.09670863 0.09678693 0.10618332 -0.08561275 0.013693553 -0.09656757 -0.078834884 0.12833603
0.12788847 0.055024758 0.10456076 0.09408563 -0.11601033 0.13219412 -0.103221364 0.06661308
0.00030489912 0.12510616 0.054807268 -0.003508734 -0.06248865 0.032946378 0.016960884 -0.019036591
-0.109063104 0.12848358 0.049282122 -0.056744404 0.048908096 -0.12695453 0.1339488 0.025935682
0.07005816 0.026499633 0.047210302 -0.12830566 0.034559716 -0.0062779007 -0.0011516279 0.06705462
-0.120191626 -0.005983434 0.07768216 -0.07783668 0.108609505 -0.1052794 0.0565969 -0.04534954
-0.041408997 -0.026343385 -0.11112995 0.022662599 0.011710314 0.06864272 0.08993894 0.046028707
0.04581377 0.12928416 0.12055512 0.0032220583 -0.04914976 0.06476294 -0.104541525 -0.13435622
0.02234498 0.1004975 0.13428277 0.030739967 -0.03229179 -0.14365207 -0.10797345 -0.017420271
0.06974152 -0.04886706 0.08942269 0.113994576 -0.018917885 -0.115696 0.053413764 0.111819014
-0.081302114 0.038287688 0.09034794 0.037104104 0.043814693 0.08299051 -0.015006678 -0.124764346
-0.07989187 0.022131452 -0.07266393 -0.06568243 -0.09023096 0.08228401 -0.054445196 -0.058092754
0.08275258 0.038632464 -0.11136787 0.10035801 0.1263065 0.11574983 -0.04935411 -0.11691727
0.012655392 0.06052566 -0.03632869 0.13195044 0.10836479 0.04081041 0.009566811 0.12225926
0.026604744 -0.11583743 0.10412406 -0.05794849 0.04253031 0.11925016 0.10505639 -0.19960982

fc1.bias f4 [128]
00000000: 3c77 26bc 7ad9 0f3d 1e09 b63d 3c41 e63d
00000010: 4d46 7ebd cdc4 75bd 0b3a 95bd e72f d33d
00000020: 1ae3 0b3e 9b92 10bc 4105 27ba 7809 0bbe
00000030: b945 babd 1247 05be f5e1 ef3d 1e5c 78bd
00000040: bb7d f6bd 5a91 a6bd f6eb bb3d e3a3 06be
00000050: d2ae bc3a 88a9 0cbd d31d 353d a07d 573c
00000060: 06b7 bfbd c52d 843d 001b b3bd f2a3 af3d
00000070: 7255 073c 546e 39bd f282 0e3e 5083 a33d
00000080: 9924 2f3d ce22 363d 4523 e9bd 5c0f 063e
00000090: be7d 6f3a 8467 f93c d105 debd d6d1 17bd
000000a0: 6709 6e3d 264e f3bd 38c3 abbd 65fa 7dbc
000000b0: 5a88 313d 4236 913d c3c5 053e 38b4 d1bd
000000c0: d91c 0dbe acb9 09be fe03 1d3d ee14 053e
000000d0: b676 f8bd 6d4b cfbd 6f49 debd d0d9 88bd
000000e0: 49a9 ebbd fac4 c63d 7f01 693c b302 a23c
000000f0: fcc6 d93d e032 da3d 9b1b 3fbc 0e51 5e3c
00000100: b2d0 403d a9e8 f23d 2237 6b3d 2296 933d
00000110: df52 5dbd dbd0 773b 70f6 99bd a8f3 2bbb
00000120: 4cb6 1fbd 9732 c33d 1581 dd3d 06c3 08be
00000130: 249e 0f3c 18bc cf3d f7f9 b9bd 26cf 743d
00000140: b8e3 f4bd 1735 b9bd 677c d9bd c8b6 ff3c
00000150: 2009 d1bd 4f0e 72bd 29de 8e3d d89e a7bd
00000160: 1c7e 963d 2757 01bd a6b4 dc3c a8dd 15bc
00000170: c069 81bd 9a92 cbbc b84d 06bc 2107 b9bc
00000180: 7441 9a3d 69dd a3bd 6298 c4bd 2af3 083e
00000190: df26 43bc 9412 d9bd d593 e93d 90cb 033e
000001a0: 129f efbd feeb ff3d 32d8 3fbb 4ea5 013e
000001b0: 507d 7abd 47de 83bd e890 953c 2143 013e
000001c0: b165 033e 80c4 2bbd ebdd 9a3d 1752 ca3b
000001d0: 2142 943d a4c7 933d 3331 cc3d 3402 25bd
000001e0: e7d9 743d ce7b 943d 488e b4bd 4c70 3dbd
000001f0: 1a2c b3bd f258 7fbd 9407 c0bd bae8 79bd
-0.010160264 0.03511951 0.08888458 0.11242911 -0.062078763 -0.060002137 -0.072864614 0.10311871
0.13660851 -0.008824016 -0.00063713273 -0.13577831 -0.0909533 -0.13015392 0.1171302 -0.060634725
-0.120357 -0.08133192 0.09175865 -0.13148455 0.0014395362 -0.034341365 0.044217896 0.01315251
-0.09361081 0.06454042 -0.08745384 0.08576192 0.008260118 -0.045271233 0.13917139 0.0798403
0.04275951 0.044466786 -0.1138368 0.13091797 0.00091358635 0.030444868 -0.10840953 -0.03706535
0.058114436 -0.1188014 -0.083868444 -0.015501593 0.043342926 0.07090427 0.13063721 -0.10239452
-0.13780536 -0.13449734 0.038333885 0.12996265 -0.12132017 -0.10121808 -0.1085385 -0.066821694
-0.11506898 0.09705539 0.014221548 0.019776678 0.106336564 0.10654235 -0.0116642965 0.01356913
0.047074027 0.11860783 0.057425626 0.0720637 -0.05403411 0.0037813697 -0.07517707 -0.002623776
-0.03899221 0.095311336 0.10815636 -0.13355646 0.008765731 0.10143298 -0.0908088 0.059767865
-0.119574964 -0.09043329 -0.10619431 0.031215087 -0.102068186 -0.059095677 0.069759674 -0.08184594
0.07348272 -0.031577256 0.026941609 -0.009147085 -0.06318998 -0.024850179 -0.0081972405 -0.022586407
0.075320154 -0.08001215 -0.09599377 0.1337401 -0.011911123 -0.105992466 0.1140515 0.12870622
-0.11700262 0.12496184 -0.002927315 0.12660715 -0.061154664 -0.064388804 0.018257573 0.12623264
0.12831761 -0.041935444 0.07561859 0.0061743367 0.072391756 0.07215813 0.099703215 -0.040285304
0.05977812 0.07250176 -0.088162005 -0.046249673 -0.08748646 -0.062340684 -0.093764454 -0.06101296

bn1.weight f4 [128]
00000000: e6e2 803f c12a 7f3f 350f 7f3f d453 7d3f
00000010: 8cd5 7e3f 582e 803f 0f5d 803f 9293 7f3f
00000020: 0fde 7d3f 0c91 7e3f 0071 7f3f 512c 7e3f
00000030: c2a1 7d3f f2d1 7e3f e459 7e3f f2cd 7f3f
00000040: 2035 803f b338 813f df83 813f 59a6 803f
00000050: 35de 813f 0d02 803f 4480 7e3f 19cf 7d3f
00000060: e3f4 813f d320 7e3f e277 7f3f 32ea 803f
00000070: ccc7 7c3f c105 7e3f 03d9 7c3f 20c5 803f
00000080: 45dd 7f3f 746d 7d3f 0971 7e3f 68d5 813f
00000090: 68f6 7f3f 1c79 7e3f 9271 803f 8098 7e3f
000000a0: e3bd 7f3f 5c74 823f e18d 803f f9b6 7f3f
000000b0: ca12 803f a4d4 813f c923 803f 56fa 7d3f
000000c0: a087 813f aa4f 813f e6ff 7f3f c18f 7e3f
000000d0: e3c4 803f 4be2 7d3f 7d0a 823f 0bc8 813f
000000e0: 635e 7f3f d387 813f 1309 803f 048b 7f3f
000000f0: bf18 813f ad05 803f 3184 7d3f 0cd1 803f
00000100: 513a 823f 169f 7e3f fe1d 813f a98f 803f
00000110: 25ea 7e3f 1c8c 7c3f 26d6 7f3f b432 803f
00000120: 3ccd 7d3f 095a 803f 237f 803f a599 7f3f
00000130: df5d 7d3f e40f 803f 429b 7e3f f2b6 7e3f
00000140: 3ec8 7b3f 162d 803f 9738 7e3f 9362 803f
00000150: 6316 803f 9374 803f f2ca 7f3f 43c3 7d3f
00000160: 44b1 803f 1f2e 813f 0819 7d3f 563e 813f
00000170: 100b 7f3f 2206 7f3f 2cf5 803f 8e7a 813f
00000180: 5323 803f 727b 7c3f 4da3 803f fe2e 823f
00000190: df74 7d3f bb2b 803f 3d0f 7f3f 5f3b 7e3f
000001a0: 3eb6 803f ba74 813f db15 803f 450a 813f
000001b0: 8e39 823f 75da 7e3f 9a52 7f3f df20 803f
000001c0: b155 7c3f 38a7 803f 5a7d 7e3f 9957 7b3f
000001d0: edb1 7f3f a94e 7d3f 2db7 7f3f 1e19 813f
000001e0: 6e62 813f 3dca 823f 2c8c 7c3f 2d7a 813f
000001f0: 5d11 823f 3aa5 7f3f c1e9 813f 69f2 803f
1.0069244 0.9967461 0.9963258 0.98956037 0.99544597 1.0014143 1.0028399 0.9983455
0.9916696 0.99440074 0.997818 0.9928637 0.9907495 0.995391 0.9935591 0.9992362
1.0016212 1.0095428 1.0118369 1.0050765 1.0145937 1.0000626 0.9941447 0.9914413
1.0152858 0.99268836 0.997923 1.0071471 0.98742366 0.9922753 0.98768634 1.0060158
0.99947006 0.9899514 0.9939123 1.0143251 0.9998536 0.9940355 1.0034659 0.99451447
0.9989912 1.019176 1.0043298 0.9988857 1.0005734 1.0143018 1.0010921 0.9921011
1.0119514 1.0102437 0.99999845 0.994381 1.0060085 0.9917342 1.0159451 1.0139173
0.997534 1.0119575 1.0002769 0.99821496 1.0085677 1.0001732 0.99029833 1.0063796
1.0174047 0.99461496 1.0087278 1.0043842 0.99576026 0.9865129 0.9993614 1.0015473
0.9914129 1.0027477 1.0038799 0.9984382 0.9897136 1.000485 0.99455655 0.994979
0.9835242 1.0013759 0.993051 1.0030082 1.0006832 1.0035576 0.99919045 0.9912607
1.0054097 1.00922 0.9886632 1.0097148 0.99626255 0.9961873 1.007482 1.0115526
1.001078 0.9862586 1.0049835 1.0170591 0.99006456 1.0013345 0.99632627 0.99309343
1.0055616 1.0113747 1.000667 1.0081259 1.0173814 0.9955209 0.99735415 1.0010031
0.98568255 1.0051031 0.9941002 0.9818054 0.9988087 0.9894815 0.9988888 1.008579
1.0108163 1.0217968 0.98651385 1.011541 1.0161549 0.9986149 1.0149461 1.0073978

bn1.bias f4 [128]
00000000: a156 e23b 0c14 2c3b a5db 0fbc 1205 b739
00000010: 1a90 523c e480 77bc 51cd 503c 6d7e 493c
00000020: e6c7 073b 1e7e 18bb 4fc6 353c 548d 7bbc
00000030: 9306 24bb 71d7 2f3b 3cd9 a7bb 33ff bb3b
00000040: d486 6f3b 1d22 203c b8df 6d3c b6c9 52bc
00000050: c8dd 613c 30cf 2d3c a367 853b 3eea 3b3b
00000060: 6ae2 803c f6e3 c8bb 678e 203b 37c5 4c3c
00000070: d081 17bc 56ab 8d3b 7c15 babb af7a e43b
00000080: 70e3 8b3b 9d49 03bc 0a86 1fba cbb9 2f3c
00000090: cef4 9c3b ccfb bdbb ffc8 7fbb bc56 e3bb
000000a0: 3d27 7f3b 57f0 813c f6ea 7f3b e11f d63b
000000b0: 0972 f8bb 41b0 b33b 8ee0 12ba 09a6 39bc
000000c0: 630b ea3b b1fc 2cbc 009d 8c3b 723b c5bb
000000d0: c827 86bb 3d95 17bc b443 173c 46ef 483c
000000e0: 15d9 41bc 86a6 383c b136 023c 818f 10bb
000000f0: d675 623c bb6c 32b9 966e 81bc 472b fa3b
00000100: ea6f 943c 0605 20bc 4183 063b cf5f f33b
00000110: 0411 8abb f1fd 13bc 960a a33b ff88 bcb9
00000120: f9b8 56bb 975d f23a 72d2 4a3c 2d43 92ba
00000130: 3fa2 21bb a6e6 323c 3ad8 7f3b 323a 5039
00000140: f65d 3c3b 23cf 21bc a7cc faba db81 23bc
00000150: 947e d8bb a530 35bb 6feb 843a c526 39bc
00000160: ab07 003c 084c 383c a8e6 f1bb c07e 6239
00000170: db91 aabb 93af 483c d4e5 993c 2815 3a3c
00000180: f7a4 563c 6b78 e9bb 803b 8a3b de58 8d3b
00000190: 2793 1bbc 085e 173c 72f4 6bbc be16 afbb
000001a0: 1758 4cbc 3127 b13c bbc7 a33b 8508 983b
000001b0: 3468 993a a976 97ba 83c5 d13b 3656 9c3b
000001c0: 6451 94bb a819 0a3c 3b16 90bb c6cc 1ebc
000001d0: f159 863b 9c70 66bc 0bd5 f3ba fd7d ca3b
000001e0: 7207 013c 9857 b13c dfe2 cebb 695c fa3b
000001f0: e03f 8e3c c4a9 933b e0d5 213c b833 fbb9
0.0069072996 0.0026257066 -0.008780395 0.00034908258 0.012851739 -0.0151064135 0.012744264 0.012298209
0.0020718514 -0.002326853 0.011094644 -0.0153535195 -0.0025028333 0.0026831294 -0.005122332 0.005737209
0.003654887 0.009773758 0.014518671 -0.012865474 0.013785787 0.010608479 0.0040711924 0.0028673555
0.015732963 -0.0061306907 0.002449894 0.012498192 -0.009247258 0.0043234034 -0.0056788307 0.006972633
0.004269056 -0.008013156 -0.0006085342 0.010725449 0.004789925 -0.005797839 -0.0039029715 -0.00693783
0.00389333 0.015861673 0.003904996 0.006534562 -0.0075819534 0.0054836576 -0.0005602919 -0.01133109
0.0071424707 -0.010558293 0.004291177 -0.0060190493 -0.0040940978 -0.00925189 0.00923245 0.0122640785
-0.011831542 0.011270171 0.00794761 -0.0022058191 0.01382204 -0.00017015908 -0.015799802 0.0076345536
0.018119771 -0.009766823 0.002052501 0.0074271928 -0.004213454 -0.009032712 0.004975627 -0.00035960224
-0.003276406 0.0018491027 0.012379276 -0.0011158936 -0.0024663357 0.010919249 0.0039038793 0.00019858105
0.0028742529 -0.009876045 -0.0019134477 -0.00997969 -0.006606886 -0.0027647403 0.0010140965 -0.011300747
0.007814328 0.011248596 -0.0073822327 0.00021600258 -0.0052053756 0.012248891 0.018786348 0.011357583
0.013100854 -0.0071249506 0.0042185187 0.0043135723 -0.009495533 0.009238727 -0.014401542 -0.0053432873
-0.012472174 0.021625133 0.004998175 0.0046396875 0.0011704029 -0.0011555749 0.006401719 0.0047710193
-0.004526304 0.0084289685 -0.0043971813 -0.0096923765 0.0041000773 -0.014064934 -0.001860292 0.0061795698
0.00787531 0.021648213 -0.0063136662 0.0076404107 0.017364442 0.0045063216 0.009877652 -0.00047912984

bn1.running_mean f4 [128]
00000000: d41b 9a47 de97 3147 0e8f 2947 68cd eb46
00000010: 8a79 3247 406c f6c5 1135 8746 db43 0dc6
00000020: 9b33 f446 60d4 0847 8ac7 2147 2b03 91c6
00000030: 2f6d da46 e622 c642 f1dd 68c5 c5fc 6047
00000040: 67a7 92c6 a8ba aec6 329a 2d47 f731 76c6
00000050: 2df8 67c7 63a7 40c6 6667 3646 1239 73c6
00000060: f520 57c6 afe1 b746 b195 0a47 3272 f646
00000070: 2c4c 87c6 bd6e b6c6 bfb4 9946 c5e5 28c7
00000080: e06c e4c6 5081 8fc6 f47c 21c7 b251 c6c6
00000090: 052d be46 9372 0f47 69b7 28c6 1d66 e7c5
000000a0: d87a e5c6 87a0 57c6 de9d 6ec7 712e 7ac5
000000b0: 54a1 bfc5 dd5f 49c6 94de f346 ba2a a2c6
000000c0: 72e5 01c6 ec2d 0dc6 ed87 b246 3391 93c6
000000d0: e225 a8c6 6105 11c6 f2e7 fdc6 6d5e b4c6
000000e0: 1e91 b0c5 1ac1 07c7 e976 01c7 e1d5 df46
000000f0: c72a 8b46 e1aa 1e47 ba03 bec5 4148 0047
00000100: b901 19c6 8a09 fb46 3610 8047 e327 49c7
00000110: a30c efc5 3241 b844 ea44 5946 7364 64c5
00000120: d1b2 e6c5 9d57 37c7 8239 2ac6 eb52 0f47
00000130: 2e03 4647 a309 48c6 206d 85c5 583b 1c47
00000140: eedd 8f46 7107 c7c6 7104 4b46 def5 bec4
00000150: 0e29 8346 10e7 33c6 f6a6 14c7 1aa6 6cc5
00000160: 539e 58c6 afb2 1bc7 d99f 3c47 33b2 a3c6
00000170: 6662 efc6 44e4 8f43 d4b2 73c6 a753 fbc6
00000180: 099d 6347 7581 1b46 0db7 78c6 7c19 4cc6
00000190: 38d7 d6c6 b0c7 e6c5 04b0 51c6 f0fe b745
000001a0: ebfc 05c6 f91b e046 2a4b 8cc5 4da7 f9c6
000001b0: 3625 f7c5 a09d c5c6 13e2 2847 3cb7 c746
000001c0: 1ada 6ac5 179d 0b47 04e1 27c7 ea08 1246
000001d0: c411 0447 39f8 8146 dceb 86c6 1831 d6c5
000001e0: faa7 89c6 811b 55c6 e135 8247 a90f 9fc6
000001f0: 07e0 36c7 0ba0 3d47 9ec7 a0c6 fc4b 6347
78903.66 45463.867 43407.055 30182.703 45689.54 -7885.5312 17306.533 -9040.964
31257.803 35028.375 41415.54 -18561.584 27958.592 99.06816 -3725.8713 57596.77
-18771.701 -22365.328 44442.195 -15756.491 -59384.176 -12329.847 11673.85 -15566.268
-13768.239 23536.842 35477.69 31545.098 -17318.086 -23351.37 19674.373 -43237.77
-29238.438 -18368.656 -41340.953 -25384.848 24342.51 36722.574 -10797.853 -7404.764
-29373.422 -13800.132 -61085.867 -4002.9026 -6132.166 -12887.966 31215.29 -20757.363
-8313.361 -9035.48 22851.963 -18888.6 -21522.941 -9281.345 -32499.973 -23087.213
-5650.1396 -34753.1 -33142.91 28650.94 17813.389 40618.88 -6080.466 32840.254
-9792.431 32132.77 65568.42 -51495.887 -7649.5796 1474.0374 13905.229 -3654.278
-7382.352 -46935.613 -10894.377 36690.918 50691.18 -12802.409 -4269.6406 39995.344
18414.965 -25475.72 12993.11 -1527.6833 16788.527 -11513.766 -38054.96 -3786.3813
-13863.581 -39858.684 48287.848 -20953.1 -30641.2 287.78333 -15596.707 -32169.826
58269.035 9952.364 -15917.763 -13062.371 -27499.61 -7384.961 -13420.004 5887.867
-8575.2295 28685.986 -4489.3955 -31955.65 -7908.6514 -25294.812 43234.074 25563.617
-3757.6313 35741.09 -42977.016 9346.229 33809.766 16636.111 -17269.93 -6854.1367
-17619.988 -13638.876 66667.76 -20359.83 -46816.027 48544.043 -20579.809 58187.984

bn1.running_var f4 [128]
00000000: 3c33 9d51 f142 ce50 97a4 bd50 67b5 3750
00000010: 3014 cf50 9a94 334f 5fb5 c14f 8375 874f
00000020: 3725 9650 9381 8350 849e cf50 ea82 c24f
00000030: 7eb1 4a50 389f ed4f 8cdc 764f 9d04 3d51
00000040: 525b d74f da89 e44f bb84 b350 428c ba4f
00000050: 27cd 3351 98d9 344f 59a2 414f cd92 0550
00000060: 439c 384f e0b4 4950 3c69 6c50 0a93 6550
00000070: 500d be4f ea0f 2d50 6a73 0c50 ad6d b150
00000080: 8f99 5b50 5372 bc4f e8ee 1d51 57c5 0650
00000090: bbf7 5e50 0afb b250 b42b 614f 2c0d a94e
000000a0: db4e 2850 8746 2c4f 6123 2851 4b75 214f
000000b0: 19c3 164f eba8 514f 1944 4250 ded8 1150
000000c0: 6602 364f ec24 d24e 4d92 4550 bf4d 0250
000000d0: 8a44 dc4f 22a7 a84e 9a14 4d50 46fe da4f
000000e0: 7915 2b4e 162e 6c50 04f2 7350 e016 8b50
000000f0: b51e 894f 06bf ad50 fb81 b04e 305f 6b50
00000100: 3b80 664f cd02 5850 cb8a 5951 f877 0c51
00000110: bdfa aa4f 9b57 0c4f d132 3c50 db4d b04e
00000120: 7351 864e 2e50 fb50 c352 1d4f 3b9b 9250
00000130: df1e 0c51 41fb d84f 1575 a84e 6a09 a450
00000140: 89dd aa4f 0bbc 1950 7d55 634f be22 ca4e
00000150: 9055 0c50 034f 4f4f 0047 9650 e610 8d4f
00000160: b7cc a14f f040 dd50 f0cf fa50 22a5 0150
00000170: 350e 5f50 6ae8 874e d731 0d50 70e7 4250
00000180: a6a3 2851 daec 294f 5aa9 8a4f 56dd 7c4f
00000190: 16ae 2150 cf48 b14f 5b32 964f defd c44f
000001a0: 21ca 1e4f d3a9 2f50 9516 2d4f 6c74 6b50
000001b0: 42b3 b84e b6ae 2350 a725 dd50 0d19 7950
000001c0: 65b6 7b4f c32e 8350 b801 d550 ae94 ab4f
000001d0: 4a04 6f50 8152 be4f 24d4 1250 40cc 984f
000001e0: 2ec0 834f fea4 544f d3a5 6251 6573 b44f
000001f0: e06b e750 d1be fb50 31eb d04f e6e9 5151
8.439618e+10 2.7683949e+10 2.5453443e+10 1.2328476e+10 2.7793654e+10 3.0128604e+09 6.499778e+09 4.545251e+09
2.015217e+10 1.7650457e+10 2.7866178e+10 6.526719e+09 1.3602519e+10 7.9732695e+09 4.141649e+09 5.073914e+10
7.2261724e+09 7.668479e+09 2.4094562e+10 6.259508e+09 4.8265064e+10 3.034159e+09 3.2486423e+09 8.963962e+09
3.0972485e+09 1.3536297e+10 1.5865278e+10 1.5406475e+10 6.377087e+09 1.1614005e+10 9.425496e+09 2.381404e+10
1.4737096e+10 6.323218e+09 4.239488e+10 9.044319e+09 1.4963109e+10 2.4022372e+10 3.7777377e+09 1.4181064e+09
1.1294961e+10 2.8903032e+09 4.5134254e+10 2.7088187e+09 2.5293683e+09 3.5175084e+09 1.3036971e+10 9.787636e+09
3.0536105e+09 1.7628175e+09 1.3258798e+10 8.744533e+09 7.3909586e+09 1.4147628e+09 1.3762718e+10 7.3481943e+09
7.175778e+08 1.5849773e+10 1.6370897e+10 1.8668257e+10 4.600982e+09 2.3319818e+10 1.4806542e+09 1.5795536e+10
3.8671634e+09 1.4496249e+10 5.839603e+10 3.770676e+10 5.737118e+09 2.3545516e+09 1.2629788e+10 1.4789462e+09
1.1267424e+09 3.3730687e+10 2.6394468e+09 1.9677174e+10 3.7613335e+10 7.2806897e+09 1.4131227e+09 2.2016643e+10
5.7332905e+09 1.0316951e+10 3.8140306e+09 1.6956372e+09 9.417671e+09 3.4780618e+09 2.0169884e+10 4.73339e+09
5.429096e+09 2.9696164e+10 3.3663451e+10 8.700332e+09 1.4969001e+10 1.1400778e+09 9.475415e+09 1.307979e+10
4.5268754e+10 2.8508718e+09 4.652709e+09 4.242364e+09 1.0850163e+10 5.9486776e+09 5.039765e+09 6.6099436e+09
2.6640468e+09 1.178857e+10 2.9039383e+09 1.5801102e+10 1.5493778e+09 1.0984544e+10 2.9681859e+10 1.6716674e+10
4.2230346e+09 1.7607039e+10 2.8589277e+10 5.7572956e+09 1.6040143e+10 6.386156e+09 9.853506e+09 5.127045e+09
4.42082e+09 3.5675827e+09 6.0840292e+10 6.054923e+09 3.1060853e+10 3.3788692e+10 7.010149e+09 5.634827e+10

fc2.weight f4 [128, 128]
00000000: 2ce8 1abc 753a 31bd a78f 443d 3910 11bd
00000010: 0d39 5fbd 1430 3a3d d42e 7dbc 9d09 a8bd
00000020: 619b d33b 198e 06bc 942f 973d d032 33bd
00000030: 41e6 81bd fab2 97bd a9b7 dc3c 0f89 43bd
00000040: 7320 c2bd 31a9 873d c254 05bd e24d bc3d
00000050: 3d30 573d f349 77bd db35 7c3d 5028 623d
00000060: f3b6 c0bd 5be2 7abd 2189 833c a7de 21bd
00000070: 2263 3abc 2539 063d 054b 833d f6e7 2f3d
00000080: c978 82bd 7182 963d 012f fabc c51a bbbb
00000090: 51fc 4bbc b85e 8dbd e8a7 083c bf89 83bd
000000a0: 9575 143a 638e 16bd 1b4c 31bd a04e 5a3d
000000b0: 5221 ff3c 07f0 dabc 12a2 903d 0bd2 b53c
000000c0: d4d7 9f3d 7418 41bd 538b c13c 3504 6a3d
000000d0: 06fa 013d b309 93bd f8b9 c3bd c3ab f9bb
000000e0: 4eb2 653d e8a5 663d 46e9 b93d 2d0c 5bbd
000000f0: ac98 8c3d d123 44bd e51f 3f3d 8350 3f3d
00000100: 1602 853d 0802 06bd e124 afbc 84c0 833d
00000110: 7f18 ae3d e55f 683d 348b 583d d53e ee3c
00000120: dcdb 3abc 7a45 36bd e1c7 10bc 7fc0 0d3b
00000130: 4f2f 103d 9542 813b 5cb8 82bd 776f 85bd
00000140: f18b 673d 55e6 ee3b c630 47bc 7f64 96bd
00000150: eec4 02bd 80d9 6cbd 6e2f f53c 08c7 7dbd
00000160: 7db8 a93d 766f 80bd e008 8bbd 8cee 873d
00000170: 4bf2 053d 47a9 89bd 62ca 79bd 03c7 c53b
00000180: 7da2 5c3d 98d5 5abd dbed 82bd a3d8 ecbc
00000190: f36f 0fbc ef6f a03d 9b8d 6bbd 3046 bd3c
000001a0: b39b fcbc 12ed 883c dee1 bcbc 9df2 0f3c
000001b0: 2f79 a63d 2ba9 ba3d 0bac 8d3d 5eff 8e3d
000001c0: 0b7c a0bd 44f4 24bd 18bc 1e3d 2af2 16bd
000001d0: 4dc4 233d 4ec6 9ebd bfe9 ffba d4cd 2fb9
000001e0: 999e 54bd 1110 9cbd 39f9 24bd 397d 5c3d
000001f0: 6203 85bd ca13 a1bc b0f5 d1ba 5d20 013d
00000200: b5a3 bf3c c81a 83bc 184f aebd f808 6fbc
00000210: d387 943d 58a2 3bbd 2302 c0bd 2376 253d
00000220: 0f3d 51bc 483a 2dbd 30e2 5abd 180c 713c
00000230: 4950 fdbc ae30 513d 2ee1 7e3d 233b 23bc
00000240: b419 30bc 1244 8abd 9d05 2c3d b29b b33d
00000250: a616 a0bd c3e8 993c 67d4 e23c ba5d 9f3c
00000260: 0dd8 073d c0ee 67bb 4270 a13d 5209 723d
00000270: b0c0 83bd 1d5f ee3c a3e8 ab3d 90bd cebd
00000280: 45c8 ab3d 969a 5fbc f1b8 79bd 8795 6fbd
00000290: 6ad0 5bbd 52cc 23bd e2bf 7c3c db9e 123d
000002a0: 9fa0 e4ba 238b 163d eadd 19bd 4e89 6a3a
000002b0: 3dbb 853d caa1 753d 4499 93bd b148 b4bd
000002c0: 58d8 dc3c 500f 5e3d f92c fa3c 71a1 563d
000002d0: 312a 5ebc 5a92 5cbd 087b 2bbd 59b8 a43d
000002e0: 3f73 27bd 60c7 e9bc 0844 1bbd 3eeb 4ebd
000002f0: fd25 4a3c 058e b3bd c700 97bc 67ac 83bc
00000300: e7e9 33bd 3acc 89bd b961 e13c 1e6b 83bc
00000310: ad43 973d b855 9bbc b897 223d 0fbe be3d
00000320: 6542 e93c 7f07 133d 23d5 16bd 2b31 7cbc
00000330: 00f0 3ebc f205 e73c ff5f b3bc 4935 133d
00000340: 1333 793c fa79 0abd ff24 4a3d 6779 a43d
00000350: 60be b0bd 7ba5 e43c 1a67 24bd 4328 b93c
00000360: 9c99 60bc a566 d23d f710 96bc 3864 113d
00000370: f82e cbbc 7d76 913c dfbb 77bd 2575 4a3d
00000380: e507 00bd a6d9 5d3d 65ba 67bd b536 fbbc
00000390: ef6b 3fbc 754b 32bd 2cf6 d63c a393 6cbd
000003a0: 7747 07bd b862 88bd dd9c 073d c4d5 a63c
000003b0: 1575 8a3d 935a 19bc 1986 86bd 28a2 a53b
000003c0: 13ec 81bd 5dad 7a3d a4f3 82bd d80a 99bd
000003d0: 41c7 8bbc c70d 41bd 62d4 03bc 3f3e 48bd
000003e0: f697 973c 041b c8bd af78 7e3d a106 823a
000003f0: 6f54 2bbd 3642 c83a 0769 e1ba 723e a2bd
-0.009454768 -0.04326864 0.04798856 -0.03541586 -0.054497767 0.045456007 -0.015453059 -0.082049586
0.0064577316 -0.00821259 0.07382122 -0.04374963 -0.063427456 -0.07407184 0.026943045 -0.04773813
-0.094788454 0.066240676 -0.032551534 0.091945425 0.052536238 -0.060373258 0.061574798 0.055214226
-0.09409895 -0.061251026 0.0160566 -0.03951898 -0.011376174 0.03276934 0.06410793 0.042945825
-0.06370694 0.073490985 -0.030539991 -0.0057099783 -0.012450294 -0.06902832 0.008340813 -0.06422757
0.0005663273 -0.036756884 -0.04328547 0.05329764 0.031143818 -0.026725782 0.070621625 0.022194883
0.07804838 -0.04714246 0.023626005 0.05713292 0.03173258 -0.07179584 -0.09556955 -0.0076193525
0.056078248 0.056310564 0.090776965 -0.05347841 0.06865057 -0.04788572 0.046661276 0.04670764
0.064945385 -0.03271678 -0.02137989 0.06433204 0.08500766 0.056732077 0.05286713 0.029082695
-0.011404958 -0.04449985 -0.008836717 0.002162963 0.035201367 0.003944705 -0.0638282 -0.06515401
0.056529943 0.0072906413 -0.012157625 -0.07343387 -0.031926088 -0.05782461 0.029929843 -0.06195739
0.082871415 -0.062712595 -0.06788802 0.06637296 0.03270177 -0.0672174 -0.060984023 0.006035687
0.0538659 -0.053426355 -0.063930236 -0.028911894 -0.008754718 0.0783385 -0.057508092 0.023104757
-0.030835962 0.016714606 -0.02305692 0.008785871 0.08128583 0.091142975 0.0691758 0.06982301
-0.07836159 -0.040272012 0.0387536 -0.03685204 0.03998213 -0.07752667 -0.0019524618 -0.00016765977
-0.051909063 -0.07620252 -0.04027674 0.05383036 -0.06494786 -0.019662756 -0.0016018655 0.031525005
0.023393491 -0.016003981 -0.0851118 -0.014589541 0.07252469 -0.04580912 -0.093754075 0.040395867
-0.012770905 -0.04229191 -0.053438365 0.014712356 -0.030922072 0.051071815 0.062226467 -0.00996283
-0.010748316 -0.06751265 0.04199754 0.08769931 -0.0781682 0.018787747 0.027689172 0.019453872
0.033165026 -0.0035390109 0.078827396 0.05909092 -0.064332366 0.029098088 0.08393981 -0.1009475
0.08387808 -0.013647696 -0.06096739 -0.05849221 -0.053665556 -0.039989777 0.015426608 0.035796028
-0.0017442888 0.036753785 -0.03756515 0.00089468516 0.065298535 0.059968747 -0.072069675 -0.08802927
0.02695863 0.054213822 0.030539023 0.052400056 -0.013559864 -0.05385051 -0.04186538 0.08042974
-0.04088139 -0.028537452 -0.037906677 -0.050517313 0.012338159 -0.087673225 -0.018432988 -0.016073419
-0.04392424 -0.06728406 0.027512418 -0.016042288 0.07385955 -0.018961772 0.03969547 0.093135945
0.028474042 0.03589582 -0.036824357 -0.015392582 -0.0116539 0.028201077 -0.02189636 0.03593949
0.015209931 -0.033807732 0.04935169 0.08030968 -0.08630061 0.027910938 -0.040137388 0.022602206
-0.013708498 0.10273484 -0.018318636 0.035495967 -0.02480267 0.017756695 -0.060481902 0.049428124
-0.03125753 0.054162644 -0.056574244 -0.030665735 -0.011683448 -0.043528993 0.02624043 -0.057757985
-0.03302714 -0.06659454 0.03310858 0.020365603 0.06760613 -0.0093599735 -0.06568546 0.005054731
-0.06343856 0.06120049 -0.06394127 -0.074727714 -0.017062785 -0.04713228 -0.0080462415 -0.048887488
0.018505078 -0.09770778 0.06212681 0.0009920188 -0.04182857 0.0015278521 -0.0017197438 -0.07922067

fc2.bias f4 [128]
00000000: 495f cabb 1874 423d af54 413d 8847 adba
00000010: e630 b1bd 2c9a 46bd e94a 20bc 0fc5 b23c
00000020: 26ac 91bd e82c 9a3d 316a 253d 7ab4 163c
00000030: 5bf6 963c 48f5 87bd 7c2d 1bbd 4995 ef3c
00000040: a01a 77bd 2108 7cbd 02d7 973d e4fe 30bd
00000050: 93ca 2bbd b3b0 2c3d fe43 a53d 4f96 afbd
00000060: 543e 143d dd71 2dbc 1b50 9cbd 7292 e53c
00000070: adfb 753d 0401 1b3d c16d 8c3d a6b5 9ebd
00000080: 135a 593d 6697 7bbd 60a9 813d e475 41bd
00000090: 118e 2e3d 8583 a7bc 01f0 8e3d 4516 9e3d
000000a0: 5d11 b1bd a983 bcbd 750b ed3c 55a9 83bd
000000b0: 82ae c1bc 162d 88bd 99d0 6b3c 6c82 95bd
000000c0: a30e a43d 2fbb fa3c b722 31bb 2021 613d
000000d0: b9d1 3fbd d863 1abd 25d4 093d bc57 40bd
000000e0: 529c c8bc 55cc 503b 4b23 9bbc 082d 0bbc
000000f0: 7972 edbc 4c86 13bc e155 a7bd 20e2 aabd
00000100: 4267 b5bd 15e0 0fbd d182 09bd 19cc a9bd
00000110: 1a03 2a3b 8965 94bd 2468 e93c d03e 55bd
00000120: 9c85 81bc f5f0 a6bd 5bde 89bd 6fc1 9a3c
00000130: eb27 b33d 8ebc d13b 68ea db3c 446d d53c
00000140: fde0 6e3d c287 c8bc 9a80 af3c 6ad4 a4bc
00000150: a0ff 623b 6f07 52bb 6b67 7cbc e655 9bbb
00000160: 0750 fc3c 60fb 933d affc b03c d687 a03d
00000170: 702f 2f3c fabe bf3c f043 733d a312 4e3d
00000180: 79d0 4b3d 331b 96bd 3114 063d 3ad5 59bd
00000190: a588 7f3b 7234 87bc 8eee d4bc d06c 683c
000001a0: 36b5 8b3d d501 e23c 374d 34bc c963 82bd
000001b0: 32ed 273d ed52 2c3d 8fe4 99bd 203d 59bd
000001c0: cd4a 123c bf16 98bb 1111 103d c676 83bd
000001d0: b5e5 153b 8d8f 93bd 905a 4abd ef6d a63d
000001e0: bea4 02bd c2a9 5bbd 2b9f 3ebd b1e7 8abd
000001f0: b7d8 1f3d d232 30bd f745 cebc 5e95 103d
-0.0061759097 0.047473997 0.0471999 -0.001322017 -0.08651905 -0.048486874 -0.009783485 0.02182248
-0.07112913 0.075280964 0.040384475 0.009198302 0.018428018 -0.066385806 -0.037885174 0.02924599
-0.060328126 -0.06153119 0.07414056 -0.043211833 -0.041941237 0.0421607 0.08069609 -0.08573591
0.036192253 -0.010586229 -0.076324664 0.028023932 0.06005447 0.037842765 0.068568714 -0.077494904
0.053064417 -0.06142368 0.06331134 -0.04723157 0.042615954 -0.020448456 0.06979371 0.07719091
-0.0864589 -0.092048 0.028936127 -0.06428782 -0.023642782 -0.066492245 0.014392995 -0.073002666
0.08010604 0.030606834 -0.0027028748 0.05496323 -0.046830866 -0.037692875 0.033649582 -0.04695867
-0.024488602 0.0031860073 -0.018937727 -0.008494623 -0.028985249 -0.009004187 -0.08170677 -0.08343911
-0.088575855 -0.03512581 -0.033572022 -0.08290882 0.002594179 -0.07245929 0.028492041 -0.052061856
-0.01581078 -0.08151428 -0.06731864 0.018891064 0.08747848 0.0064006513 0.026845172 0.026053078
0.058320034 -0.024478797 0.021423627 -0.020120818 0.0034637228 -0.0032047888 -0.015405516 -0.0047404645
0.030799879 0.0722568 0.021604864 0.07838409 0.010692462 0.023406494 0.059390962 0.050310742
0.049759362 -0.073294066 0.0327341 -0.053181864 0.0038991359 -0.0165045 -0.025992658 0.014186099
0.068216726 0.027588764 -0.011004738 -0.06366689 0.04099769 0.04207127 -0.07514297 -0.05303681
0.008928967 -0.0046413834 0.035172526 -0.064191386 0.0022872512 -0.072051145 -0.049402773 0.08126437
-0.03189539 -0.05362869 -0.046538513 -0.06782473 0.039025035 -0.043017216 -0.025179846 0.035298698

bn2.weight f4 [128]
00000000: df35 7f3f 65d4 7f3f 8573 823f 94e8 7c3f
00000010: a1bf 803f d40e 7d3f 73d9 7a3f 01ea 7f3f
00000020: 89ba 7e3f a4b3 813f cdf3 813f f8d3 7c3f
00000030: 0da0 7d3f 7339 813f 8560 803f 4989 803f
00000040: 744d 803f f5c8 803f a390 783f e478 7c3f
00000050: f344 813f 43ae 7f3f 0522 803f 7304 7c3f
00000060: 1d90 7f3f 0a21 803f 0d3e 843f 02ca 7f3f
00000070: c5d9 7e3f d2d1 7e3f 8483 833f c1e5 7c3f
00000080: 8343 7d3f 81a5 7f3f 72e4 7d3f 6966 803f
00000090: c6aa 823f d709 7d3f 5a16 803f d52d 813f
000000a0: cc13 7e3f 9aec 7b3f 7647 803f fcd3 7e3f
000000b0: 1359 803f 35c7 7c3f 3fc0 7c3f f038 7a3f
000000c0: 7e1c 7c3f 81fd 7a3f e018 7e3f 9835 7c3f
000000d0: 61f1 813f 6473 7f3f 3ca7 823f bb93 803f
000000e0: d349 7f3f 144a 813f 4127 7f3f 085d 7c3f
000000f0: 0611 7f3f b84f 803f cdc7 7d3f 25d3 763f
00000100: c897 7f3f 7b7c 7d3f 79f5 803f 071e 843f
00000110: 3440 803f 01bb 813f 41b8 7d3f 01cf 823f
00000120: 263f 803f c402 7f3f 9e44 7f3f 2a8e 7e3f
00000130: 182a 843f b8f4 7e3f b186 7f3f c6f3 803f
00000140: 909d 7f3f df57 7e3f b95e 7d3f b63d 803f
00000150: b8da 7e3f ce19 803f 5999 803f 5dfa 803f
00000160: 5a5b 7e3f 1f47 7e3f 4fba 7d3f 6cef 7e3f
00000170: 4651 7f3f c068 813f 3828 803f 1f0b 823f
00000180: 4a13 813f 12ff 813f c606 813f 4ed9 7e3f
00000190: fa9b 7b3f 03cc 7b3f 0eff 803f afac 803f
000001a0: 75e3 833f d2f1 7a3f 032c 803f 3abd 7e3f
000001b0: 96ea 803f 221b 813f bd08 7f3f d55b 7d3f
000001c0: deae 813f 8f79 7b3f 0cee 823f 2a54 7e3f
000001d0: 6480 803f 5ede 7f3f c61c 823f cf17 7d3f
000001e0: 5da8 7b3f 9e29 803f 41fa 7e3f 6555 7f3f
000001f0: 0de2 7b3f 3b4a 803f e340 833f f5f0 7f3f
0.99691576 0.99933463 1.0191504 0.98792386 1.005848 0.9885075 0.9798805 0.99966437
0.9950338 1.0132947 1.0152527 0.9876094 0.99072343 1.0095657 1.0029455 1.0041896
1.0023637 1.0061327 0.970957 0.98621964 1.0099167 0.9987528 1.0010382 0.9844429
0.99829274 1.0010083 1.0331436 0.99917614 0.9955104 0.9953891 1.027451 0.98788077
0.9893114 0.99861914 0.99176705 1.0031253 1.0208366 0.9884314 1.0006821 1.0092112
0.9924896 0.984079 1.0021808 0.9954221 1.0027183 0.98741466 0.98730844 0.9774313
0.98480976 0.98043066 0.99256706 0.9851928 1.0151788 0.9978545 1.0207286 1.0045084
0.9972202 1.0100732 0.9966927 0.98579454 0.9963535 1.0024328 0.99132997 0.9641593
0.99840975 0.9901807 1.0074912 1.0321664 1.0019593 1.0135194 0.99109274 1.0219423
1.0019271 0.99613595 0.99714077 0.99435675 1.0325346 0.9959216 0.998149 1.0074394
0.99849796 0.9935283 0.9897266 1.0018833 0.9955249 1.0007875 1.0046798 1.0076405
0.9935814 0.9932727 0.9911241 0.9958408 0.9973339 1.0110092 1.0012274 1.0159644
1.0084012 1.0155966 1.0080192 0.9955033 0.98284876 0.9835817 1.0077837 1.0052699
1.0303789 0.9802524 1.0013431 0.99507487 1.007159 1.0086405 0.9962271 0.9896825
1.013149 0.9823236 1.0228896 0.99347174 1.0039182 0.9994868 1.0165031 0.98864454
0.98303777 1.00127 0.9960061 0.99739677 0.983918 1.0022653 1.0254177 0.99977046

bn2.bias f4 [128]
00000000: c671 7b3b 34e5 463c 7f05 0b3c 8585 2dbc
00000010: cdb5 353c 0e43 68bc 2ee0 24bb 2824 17bc
00000020: 9002 5fbb a9d1 ea3c 27b3 563c 9ddd 053c
00000030: 38de c3bb 8e46 783b bf63 93ba 7351 8f3c
00000040: 5fc4 9a3c db45 7b3c fcc6 47bb 5b4f f4bb
00000050: e65f 303c 3190 673c c223 8ebb a646 d3ba
00000060: 9c4e 193b 95e5 a33a f20b da3c b32b 1e3b
00000070: d5c5 2fba 8195 213c 6111 de3c 9871 4dbc
00000080: 2562 23bc 4030 2f3c f91d 273c be6d 19ba
00000090: 2eb4 c03c 4889 e3b9 567f 723c 21a5 643c
000000a0: d1cf 5e39 874e 49bc 80c6 0d3c 22f9 08bc
000000b0: ecff 813c 58d1 d9bb 2217 91bc d463 83bc
000000c0: 9438 d1bb 6b5d 32bc 63b4 863c be75 5abb
000000d0: 0929 983c 5039 e03b d86a ba3c 0770 65bb
000000e0: f732 323c b7d2 c63c 8e36 acbb bc51 f1b9
000000f0: 7b4e 0e3c 4c05 263c 3f4f ca3b b221 f2bc
00000100: 9339 fbbb 1668 adbb e21f 363c 9d1b e73c
00000110: e115 383c c6dd c2bb f0b1 943c 2674 d73c
00000120: 05f2 3c3b 2584 c63a a5c5 2dbc 3853 9cbb
00000130: 7fea a53c 822a 463c 5404 11bc 1fad 573c
00000140: 0e28 ba3a 06c2 87bb 9f31 81bc f849 d93b
00000150: 321c a9bc d81a 723c 70cf 733b 24dd e83c
00000160: d831 bdbb 6877 803c 00ec 7ebc 273b 163c
00000170: 937f 3f3a a42a 103c 0bf7 133b f1f1 a03c
00000180: cc99 9a3b 8621 853c 6f9e 513b c216 4ebc
00000190: 85b2 64bc c79d 46bc 4f9a 973c b306 1a3b
000001a0: f116 f53c 91ad 61bc 7043 5e3c b3f3 a4bb
000001b0: 8d0f 373c 41fb bc3b 199d 113c 9140 b1ba
000001c0: c298 4a3c 932a 9db9 4e0e f33c 160b e9bb
000001d0: e934 5c3c 6838 b53c afbf 753c 94dd ae3b
000001e0: 3ebb 353c 335a f73b 8294 47bc 3db3 89bb
000001f0: a567 0ebc 7b02 b0bb 59da b83c 9cd0 ca3b
0.0038367375 0.012139607 0.008485197 -0.010590916 0.011090708 -0.014176143 -0.0025158036 -0.009224929
-0.0034028627 0.028664427 0.013104237 0.0081705125 -0.0059774183 0.003788385 -0.0011244937 0.017494893
0.018892465 0.015336479 -0.0030483594 -0.007455749 0.0107650515 0.014133499 -0.0043377588 -0.0016119077
0.0023392802 0.0012504334 0.026617024 0.0024134933 -0.00067051995 0.009862305 0.027107896 -0.01253929
-0.00997213 0.010692656 0.010200017 -0.00058528397 0.023523416 -0.00043399096 0.014800867 0.013955385
0.00021248987 -0.012286789 0.008653283 -0.008360179 0.015869103 -0.00664727 -0.017711226 -0.016038813
-0.0063849185 -0.01088653 0.016443437 -0.003333434 0.018574255 0.0068427697 0.022756025 -0.00350094
0.010876409 0.024270399 -0.005255527 -0.00046028 0.008685703 0.010133099 0.0061739977 -0.029557083
-0.0076667755 -0.005291949 0.011116 0.02821141 0.011235685 -0.0059468476 0.018151253 0.026300501
0.0028830778 0.0015145583 -0.010606204 -0.0047706626 0.020253418 0.012095096 -0.00885113 0.013163834
0.0014202611 -0.0041430024 -0.015770731 0.006631132 -0.020643327 0.014776908 0.00372025 0.02842576
-0.005773764 0.015681937 -0.0155591965 0.009169376 0.0007305082 0.008799229 0.002257767 0.019646617
0.004718041 0.016251337 0.0031985303 -0.012578668 -0.013958578 -0.012122578 0.018506197 0.0023502528
0.029918166 -0.013774292 0.013565883 -0.005033934 0.011173141 0.0057672565 0.008887553 -0.0013523271
0.012365522 -0.00029977094 0.029669907 -0.0071119172 0.013440349 0.022121623 0.014999314 0.0053364728
0.011092005 0.0075485944 -0.012181403 -0.004202275 -0.008691703 -0.0053713894 0.022565054 0.006189419

bn2.running_mean f4 [128]
00000000: a7ef 81bd a707 e8bd 28ed c23d 621e d8bd
00000010: 42e2 b0be feda eabd 0b28 7dbd b288 793e
00000020: 646a dbbc 4591 a23d 1153 17bd 49c4 5fbd
00000030: f2c9 bd3c b726 8d3d 2dd3 b03c 21e8 d43d
00000040: c4eb 48be 5df9 d3bd 9604 513d c0b1 513e
00000050: d1f6 1ebe d07e 913c 69fc bf3d 4379 94bc
00000060: bce0 093e 7435 0a3e 6a22 cebe f644 77be
00000070: 4f8d 60bd f789 4c3e f7c5 46be e8bd 8b39
00000080: bac7 d3bc 10ee 37be 3747 27bb 8e18 4d3d
00000090: 9191 11be bd63 093e bf25 fe3d c8c5 da3d
000000a0: 4c5d 82bd 309b 0bbe 80bb a3bc 7fdc d33d
000000b0: 342e d83d 1343 053e 8a3e f3bd eee2 c5bd
000000c0: c819 a0bc 3b4a 64bd f277 b03d 31b8 d53d
000000d0: ed3d febc f401 b9bd 8073 37be 6c91 c2bc
000000e0: acf3 c5bd 7c3b 403e f82a fbbd 9872 583e
000000f0: 87f7 fcbd 3ae6 dbbd d533 b2be 7f23 87bc
00000100: 27f6 b13e dcd5 b6bd b946 043d 9f85 a1be
00000110: 401b fa3c be29 adbc 0bb7 b33b 995e b4bd
00000120: 19de 55be 36d6 b0be cba6 d4bd b4a7 663e
00000130: 6520 05be 1f81 f23d 45e6 0f3e bb12 23bd
00000140: 98e7 a13d 8919 a7be b76f 8b3d 2dee 36bc
00000150: 534a 5abe 961a 4bba fc3c 073e f859 16bd
00000160: b0f7 203e 2dcd d63c f78e 25be 513a 473e
00000170: 59d4 8abe 7eb1 11bd 1cdc d4ba b937 6cbd
00000180: 85fe 40be f9e6 cbbe 8e70 14be 1a7b 86bd
00000190: 19e0 49bd 6f6e 2dbe 33c9 a0be 2343 5abe
000001a0: 196a 9cbe ffbd bf3d 18ad 3cbd 73ae 32bd
000001b0: b340 dd3d 2d6c 16be 5edf e6bc 6fca 5bbe
000001c0: f0d0 34bc 8c40 28be abe9 f93d d020 98bd
000001d0: 5c73 14be d514 81be 9f49 80be caab 63bd
000001e0: 13f7 34be 9625 42be 9aeb b53c 2558 c4bd
000001f0: 857e 103c 85d1 7fbe 3975 9abe cb22 8bbd
-0.06344538 -0.113295846 0.0951789 -0.1055267 -0.3454762 -0.11467551 -0.061805766 0.24368551
-0.02678413 0.07937864 -0.036944453 -0.05463055 0.023167584 0.0689215 0.021585071 0.103958376
-0.19621187 -0.10350297 0.051029764 0.20477962 -0.1552384 0.017760664 0.09374315 -0.018124228
0.13464636 0.13496953 -0.4026063 -0.241474 -0.054822262 0.19974504 -0.19411455 0.00026653637
-0.025852073 -0.17961907 -0.0025524625 0.050072245 -0.14215685 0.13416953 0.12409543 0.10682255
-0.06365451 -0.13633418 -0.019986868 0.10344791 0.105556875 0.13013868 -0.11877163 -0.09662424
-0.019543543 -0.055734854 0.08616628 0.10435522 -0.031035388 -0.09033576 -0.17915154 -0.023750983
-0.09665617 0.18772691 -0.12264055 0.21137464 -0.123518996 -0.107372716 -0.3480517 -0.016496418
0.34758112 -0.08927509 0.03229401 -0.31547257 0.030530572 -0.021138068 0.005484467 -0.088071056
-0.20885505 -0.3453843 -0.10383376 0.22524911 -0.13000639 0.11841034 0.14052685 -0.039812785
0.07905501 -0.3263667 0.06808417 -0.011165184 -0.21317415 -0.0007747797 0.13206857 -0.036706895
0.15719485 0.026220882 -0.16167818 0.1945584 -0.27115133 -0.03556966 -0.0016239914 -0.05767033
-0.18847091 -0.39824656 -0.14496061 -0.065664485 -0.04928598 -0.16936658 -0.31403503 -0.21314673
-0.30549696 0.09362411 -0.046063513 -0.0436234 0.10803356 -0.14689703 -0.028182682 -0.21463941
-0.011036143 -0.16430873 0.12202772 -0.074281335 -0.14497131 -0.25211206 -0.25056168 -0.055583753
-0.17672376 -0.1895965 0.02220707 -0.09587125 0.008819227 -0.24982269 -0.3016756 -0.067937456

bn2.running_var f4 [128]
00000000: 9780 683d 9cef 803e b688 cc3c 6364 6b3e
00000010: ed57 8d3e 3d14 8e3d 2604 543d b1b4 393f
00000020: f625 123f b422 043e 143a 1f3d 14d8 923d
00000030: c969 b63e 4d3c ea3c cafa 793d 6fbe a93d
00000040: 88d5 843d 36ea 0c3e 5903 8a3d 9cc8 ec3e
00000050: 9b5c ff3c 0cb3 653d bf1a b83c 9f1f e63e
00000060: dab0 303e 29c1 393d 08af 893d 7ff7 763e
00000070: 7073 723d 78b6 a13e 0f2d a33d ce65 833d
00000080: 3bbf 563d 83b5 ae3e 29a6 433e 8e2a d53e
00000090: b29f 853d 7fc5 123e c117 503e 02b5 b03e
000000a0: 9f00 e93e 46a8 293e f81d fa3d 06e5 b73c
000000b0: fb4d 1a3e 59a7 043f 774c e63d 2be9 673d
000000c0: 5317 d33e 221f a13e b37b 653e 0e1e 873e
000000d0: 7fca 853e 1255 123e b3dd 3f3e 5c5d 8d3c
000000e0: ce6f 4e3e e5c5 fd3d 910f 953d d230 ea3e
000000f0: dfcc 813e e0f9 bd3e ff2d 553e 11a4 013e
00000100: 26d1 033f 921c d03e fc82 0f3e d6cb 6a3d
00000110: 5413 903d 24a0 0d3d 123e 8c3d 6e2a 843c
00000120: c311 dc3d c691 653e 2658 b33d f11f 2d3f
00000130: 28c3 533d ad67 973e 6170 123f 2f56 8c3d
00000140: 4d72 523d cdc8 9e3e 29e2 4f3d 574f 493e
00000150: f4bb c63d 8c87 1d3e 78f2 b93e 610f e63d
00000160: 25ff cf3c 9db7 c33e f670 cb3d 47f4 ac3e
00000170: 18ae 113f 63cf 863d 2108 a73d 826e 183d
00000180: ab78 eb3d 10da 1c3e 7abb f73d 34e6 f33d
00000190: 4aa2 9e3d bd13 903e 0a47 be3e 92a7 303d
000001a0: 2d4d 4b3d a8e9 293e 7bc0 eb3d 8ad0 8e3c
000001b0: 755d cf3d 0e86 153e ba49 d73d 9bf8 de3d
000001c0: 1cae a43e 0c40 893d deae f93d 22ba be3d
000001d0: 9ebf 2a3c 8cae b03e bdd7 993d 6bd8 463e
000001e0: bf93 163e 0fdc 083e 6516 f73c 9f92 be3c
000001f0: f193 2b3e 6e37 803d 2323 8f3d c8c1 1f3d
0.056763258 0.25182807 0.024967533 0.22987513 0.27606145 0.06937454 0.05176177 0.7254134
0.57089174 0.12903863 0.038873747 0.0717012 0.35627583 0.028593207 0.061030187 0.082882755
0.0648604 0.1376122 0.0673892 0.46246803 0.031172087 0.056078956 0.022473691 0.44946
0.17254964 0.045350228 0.06722838 0.2411785 0.05919212 0.31584525 0.079675786 0.06415902
0.052428465 0.34122857 0.19106354 0.4163403 0.065246 0.14333151 0.20321561 0.34513098
0.45508286 0.16568097 0.12212747 0.022448074 0.1506881 0.5181785 0.11245053 0.05661885
0.41228732 0.31469065 0.22410469 0.26390117 0.26131055 0.14290264 0.18736915 0.017256431
0.20159838 0.12391261 0.0727836 0.45740372 0.25351617 0.37104702 0.20818327 0.12660243
0.5149101 0.40646797 0.1401481 0.0573233 0.070349365 0.03457655 0.068477765 0.016133513
0.10745575 0.2241889 0.08757047 0.67626864 0.051699787 0.29571286 0.57202727 0.06852376
0.051378537 0.31012574 0.050752793 0.19659172 0.09703818 0.15383738 0.363178 0.11233402
0.025390217 0.38226023 0.09933655 0.3378012 0.5690627 0.065825246 0.08155847 0.037214763
0.11497625 0.15317559 0.12096305 0.11909142 0.07745798 0.2814006 0.37163574 0.043128558
0.049634147 0.16593039 0.11511322 0.017433424 0.101252474 0.14601919 0.10512109 0.108872615
0.32164085 0.06701669 0.121915564 0.09312846 0.010421662 0.3450817 0.07511852 0.19418494
0.14704798 0.13365196 0.030162046 0.023263274 0.16755654 0.062605724 0.06989124 0.039003164

fc3.weight f4 [128, 128]
00000000: e0cd 3b3d 6c5d 93bd 0051 b23c 3312 63ba
00000010: 6039 3bbc 4f8c 53bc 606f ae3a d83c a2bd
00000020: abc3 9abc 54af a83d edc7 4cbd 7526 59bc
00000030: abc3 45bc 6d36 dabb 95f7 99bc d422 b83d
00000040: bd3c 71bd a279 8e3c 1f82 6fbd f80c 7f3c
00000050: 5567 253c 8e61 e1bc ea46 e9bc 0da6 883d
00000060: a3e4 bf3c 7ca4 503d 4994 babd 295c abbd
00000070: adf9 21bd b834 ccb9 e0e3 ae3b 2fec b0bd
00000080: f08b c4bd 2c94 683d 6f16 583d 385f a43c
00000090: cddd a8bd fdf8 933c de4f 4bbd 4dcf d63d
000000a0: cef2 86bc 1e59 93bd 0b5a 153b f24e c2bc
000000b0: 2713 fc3b b3a4 99bd e694 93bd 0db0 5a3d
000000c0: 77d7 5c3d b34e 273c c16d d9bc 81d0 943d
000000d0: ae55 8b3d 0f6c 933d ee85 5f3d 0be8 d6bc
000000e0: 4191 5dbd 96dd be3d d138 a33d 6d7a 603d
000000f0: 7f24 333d c767 b3bd 78d8 583d 63c5 febc
00000100: e747 85bd c7f3 843d 237c bd3d 0535 52bd
00000110: 6e95 a8bd 38d2 8dbd 9788 bb3c ccaa 43bd
00000120: 8b1d 8ebd 739b 13bc 7c99 1fbd 0bc9 26bd
00000130: 349a 163d f7bc adbd 335d c6ba dd75 42bd
00000140: c85a 2d3b d089 77bd 9ade a33d 0453 95bd
00000150: bfa9 51bd 56d0 13bd 7a6d 8c3d fb82 b8bd
00000160: f7d2 7abc 23f0 a63c 76b0 9fba fe72 603d
00000170: abf8 41bd 1eb5 713d 7f89 26bd 9c5a 81bd
00000180: 47d4 173d 1a32 623c 18bb cf3d daf1 9e3d
00000190: c4df 97bb 03c9 6abd 6aa7 1a3d 140d 19bd
000001a0: 5caf 98bd a420 c73c 00e5 263b 6311 b33d
000001b0: d68c ffbc 8f92 fcbc 9849 95bd 390b b63d
000001c0: ce35 dabc b895 44bd 54e6 55bd 908a 703d
000001d0: f261 6bbd d92b 6e3d 1133 90bd a7c3 6c3d
000001e0: 25be 593d afea 7dbd 864b 6d39 4eaf cbbc
000001f0: 2030 253d 2efd 47ba e4f5 31bd 1041 24bc
00000200: 7b91 9c3d 15cc 163d bd80 64bd 77e2 64bd
00000210: bced 8abd 6a6a 713d 1b01 8cbd f370 b23d
00000220: ab7f 223d ee9a c1bc 104a 8e3d babc 9b3c
00000230: a215 a0bd 8310 19bd d053 9c3d 5e0b 6dbc
00000240: eff2 02bd 424e cd3c 57e6 7d3d 89ab 923d
00000250: 8fe6 c6ba 55da 86bc 2fa7 dbbc 6450 2fbd
00000260: 34c7 22bc 0e19 dd3d ae3f c1bd 8007 fa3c
00000270: a168 2e3d e6ce 17bc 48d0 4ebc 0c6d 8b3d
00000280: 81aa 88bd 21b7 c7bc 87da 95bd 77f7 283d
00000290: 9ee3 4bbc 6ae3 afbd 7dfb 72bd 3f70 a7bd
000002a0: 2e1f 3bbd 5da7 093c cb92 903d 6c93 203d
000002b0: 2d97 d3bb 3ece a0bd 011a f4bc 5f2f 84bd
000002c0: 10bb 8abd d7e4 b1bc 2b4c 7d3d 76a0 2ebd
000002d0: 567c a5bd a454 783b 978f 99bb 3be4 293d
000002e0: 9000 81bd 4492 77bd f123 e53c af90 f1bc
000002f0: 7a5c 553d dc04 523d 4470 cc3b e4ee 8a3d
00000300: 081f e5bc 17fb 063d 9ec9 063d ce16 90bd
00000310: 4568 2abd a97b 1f3d 515f d03c 5dc4 53bd
00000320: 4599 3b3b 735c 9c3d 45dc e73c d56a d53c
00000330: de78 673d a111 3dbd 12bf 02bd 575b 533d
00000340: 808a fc3c 19cb 89bd 162f eebb ddc8 0d3c
00000350: e6e8 8c3d 267e 593d a2d2 28bd ac71 853c
00000360: eede b83d 5fb7 073d 1086 1c3d 9794 c23d
00000370: 153c 27bc c66c 863d c161 ad3d ca87 4a3c
00000380: 2647 ff3c 07b9 a1bd aeff 943d 6ac8 c7bc
00000390: 5b71 1b3d 78e9 2c3d c0c0 bbbd b0e3 7bbd
000003a0: c034 86bd c5e0 e13b 5abf ea3c 4fc5 9b3d
000003b0: b705 21bd 8d87 093d 044f a23d ff04 8c3c
000003c0: a0cd 3a3d 893e 503d 02bc cd3d b081 7dbd
000003d0: 90ae c63c dceb 3b3b e067 b73b fc0b 96bd
000003e0: 6fc8 c33c e8c3 b53d 41a1 82bd 5039 25bd
000003f0: 398a 77bb 68ae c2bc 200d f8bc 059e c23d
0.045850635 -0.07195553 0.02176714 -0.00086620747 -0.0114272535 -0.01291187 0.0013308339 -0.07921761
-0.01889213 0.08236566 -0.04999535 -0.013253798 -0.012070577 -0.00665932 -0.018794814 0.08991018
-0.058895815 0.017391983 -0.058473703 0.015567057 0.010095437 -0.027512338 -0.028476197 0.06672297
0.023424452 0.050938115 -0.091103144 -0.083671875 -0.03954475 -0.0003894919 0.0053372234 -0.086387984
-0.095970035 0.056781933 0.05275577 0.020064935 -0.0824543 0.018063063 -0.049636714 0.10488758
-0.0164732 -0.07194732 0.0022789265 -0.023719285 0.007692713 -0.07502117 -0.072061345 0.05339055
0.05391642 0.010211634 -0.026541593 0.072663315 0.068034515 0.07198345 0.054571085 -0.026233694
-0.054093603 0.09319608 0.07969821 0.054804254 0.043735977 -0.08760028 0.052940816 -0.03109998
-0.06507855 0.06491809 0.09252193 -0.051320095 -0.082316265 -0.06924862 0.02289228 -0.047770306
-0.069392286 -0.00900923 -0.038964733 -0.040719073 0.036768153 -0.08483308 -0.0015133977 -0.047475684
0.0026451815 -0.060434163 0.08001442 -0.072912246 -0.051187273 -0.036087357 0.068568185 -0.090093575
-0.015309087 0.020378178 -0.0012183327 0.054797165 -0.04735629 0.059010617 -0.04065847 -0.063161105
0.037067678 0.01380589 0.10143107 0.07760973 -0.0046348292 -0.057320606 0.037757315 -0.037365988
-0.07455322 0.024307556 0.0025466084 0.08743551 -0.031195085 -0.030831603 -0.072894275 0.08888859
-0.026636984 -0.047994345 -0.05222161 0.058725893 -0.057466455 0.058147285 -0.0704099 0.057803776
0.05315985 -0.06199139 0.00022630216 -0.024863865 0.0403291 -0.0007628974 -0.04344739 -0.010025278
0.07644936 0.03681572 -0.055786837 -0.055880036 -0.067836255 0.058939375 -0.06836148 0.087129496
0.039672535 -0.023633447 0.0694772 0.01901089 -0.07816626 -0.037369262 0.076331735 -0.014468042
-0.03196996 0.02506173 0.061987247 0.07161624 -0.0015174913 -0.01646153 -0.026813118 -0.042801276
-0.009935189 0.107957944 -0.09435974 0.030521154 0.04258025 -0.009265637 -0.0126229 0.068079084
-0.06673146 -0.024379315 -0.073170714 0.041251626 -0.012444405 -0.08588298 -0.05932187 -0.08175706
-0.045684032 0.008401719 0.070592485 0.039203092 -0.0064572305 -0.078518376 -0.029797556 -0.06454348
-0.067739606 -0.021715565 0.061840218 -0.042633496 -0.08080356 0.0037892247 -0.0046863067 0.041477423
-0.062989354 -0.060442224 0.02797124 -0.029487936 0.052090146 0.051274166 0.006238969 0.06783846
-0.027968898 0.0329543 0.03290712 -0.070356 -0.041603345 0.03893629 0.025436075 -0.05170094
0.0028625291 0.07634821 0.028303275 0.026051918 0.056511752 -0.04615939 -0.0319205 0.05160078
0.03082776 -0.06728191 -0.0072687967 0.008653847 0.06880359 0.05309882 -0.0412165 0.016289555
0.090268955 0.03313386 0.03821379 0.095009975 -0.010207196 0.06563716 0.08465911 0.012361476
0.031161856 -0.07896619 0.072753295 -0.024387557 0.0379499 0.04221484 -0.091676235 -0.061496437
-0.0655303 0.0068932497 0.028655697 0.07605993 -0.03931209 0.033576537 0.07925227 0.017092226
0.045606256 0.05084089 0.10045625 -0.061891258 0.02425316 0.0028674519 0.0055970997 -0.073265046
0.023899285 0.08875257 -0.06378413 -0.04033786 -0.0037771596 -0.023764804 -0.030279696 0.09502796
