10_Models/Results_Barcelona/WGAN_Freeflow_generator_best.pth (torch, 198344 bytes, 20 tensors)

fc1.weight f4 [128, 51]
0	0x3e37c7ff	0.17947386
1	0x3e1104a6	0.1416193
2	0x3d51fdc3	0.051267397
3	0x3decff4d	0.11572132
4	0x3d811992	0.06303705
5	0xbd1fe395	-0.0390354
6	0x3ceab321	0.028649868
7	0x3d95091d	0.07277129
8	0x3de53196	0.111910984
9	0x3c0fda42	0.008780064
10	0x3e034631	0.12819745
11	0xbe0d7fd6	-0.13818297
12	0xbd5cd6b2	-0.053915687
13	0x3dfbf536	0.1230263
14	0x3dfa7442	0.12229206
15	0x3d9d11a4	0.0766938
16	0xbd54c647	-0.051946905
17	0xbe0c9b16	-0.13731036
18	0xbda97e12	-0.08275999
19	0xbd397673	-0.045278978
20	0x3d778b1a	0.060435392
21	0x3e06512e	0.13116905
22	0xbcced368	-0.02524729
23	0x3e0b794e	0.13620493
24	0x3da3e6e5	0.08003024
25	0x3d0afcc1	0.03393245
26	0x3d896b6b	0.067099415
27	0xbde951e4	-0.113925725
28	0xbdf554e3	-0.119790815
29	0x3dfbf3fe	0.12302397
30	0x3ceb3733	0.028712844
31	0xbd6ff565	-0.058583636
32	0xbd5d3d7f	-0.054013725
33	0xbd9eab38	-0.07747501
34	0x3cedd80a	0.02903368
35	0xbd82ff6a	-0.063963726
36	0xbd871881	-0.065964706
37	0x3d2b0ec2	0.04176212
38	0xbdeb503f	-0.11489915
39	0x3d13663d	0.035986174
40	0x3e04eb54	0.12980396
41	0x3d30b6a6	0.043142937
42	0x3db04ac7	0.08608013
43	0xbcd7706f	-0.02629873
44	0x3ba82ba0	0.0051321536
45	0xbd224610	-0.039617598
46	0xbe0485af	-0.12941621
47	0xbdbd622e	-0.09247242
48	0xbd886162	-0.06659199
49	0xbca5e64f	-0.020251421
50	0xbd57ce3d	-0.05268692
51	0xbdc12689	-0.09431178
52	0x3d005dfd	0.031339634
53	0xbde3afa8	-0.11117488
54	0xbe0cc3b9	-0.13746537
55	0x3df462a5	0.119328775
56	0xbdb303e5	-0.08740977
57	0x3deee377	0.11664479
58	0xbe0c9998	-0.13730466
59	0x3d0929b5	0.03348704
60	0x3d3ed38f	0.046588477
61	0x3c0f9ba2	0.008765133
62	0xbdd6b014	-0.10482803
63	0x3cb1c867	0.021702005
64	0xbd63de48	-0.055631906
65	0xbdd155b4	-0.10221425
66	0x3d7f0799	0.062263105
67	0xbd8fb497	-0.07016867
68	0xbda84f46	-0.08218245
69	0x3e06459f	0.13112496
70	0xbcdc7dfa	-0.026915539
71	0x3e0a9edf	0.13537167
72	0xbc026aed	-0.007960063
73	0xbdc33de3	-0.09533288
74	0xbd2dcdc0	-0.042432547
75	0x3d99fd7c	0.075190514
76	0xbde7fc0d	-0.11327372
77	0xbdb0d84c	-0.08635005
78	0x3d860082	0.065430656
79	0xbe01e1ef	-0.12683843
80	0x3cf7992b	0.030224403
81	0x3de8a4d7	0.11359566
82	0xbd34a9a5	-0.044107098
83	0x3e0cb9a1	0.13742687
84	0x3e140012	0.14453152
85	0x3de90275	0.11377422
86	0x3da304c5	0.07959894
87	0xbdc25225	-0.09488324
88	0x3ca90539	0.020632373
89	0x3d1566c6	0.036474966
90	0x3d0ae375	0.033908326
91	0xbd29ea43	-0.041483175
92	0xbcba5ef8	-0.022750363
93	0xbde232e6	-0.11044864
94	0xbd6fdee0	-0.05856216
95	0xbcad0551	-0.0211207
96	0x3d7b0643	0.06128527
97	0x3d73ecdf	0.05955207
98	0xbcebb900	-0.028774738
99	0x3e0e788e	0.13913175
100	0x3dc2bba5	0.095084466
101	0x3d9d7e27	0.07690077
102	0x3e89da7b	0.269245
103	0x3e33be7f	0.17553137
104	0x3e21ceaf	0.158015
105	0x3d79fc8f	0.061031874
106	0xbd9cef14	-0.07662788
107	0x3d7c0585	0.0615287
108	0xbb2c64b5	-0.0026305143
109	0x3b572cf7	0.0032833198
110	0xbd2d78b4	-0.04235144
111	0x3da9245a	0.08258887
112	0xbaf6e5c6	-0.0018836788
113	0x3e139608	0.14412701
114	0x3db28492	0.08716692
115	0xbd38087e	-0.044929974
116	0xbd8b8e8a	-0.068142965
117	0xbb85904a	-0.0040760385
118	0xbd8acbac	-0.067771286
119	0xbce5da37	-0.028058155
120	0xbde48248	-0.11157662
121	0xbd29b4fe	-0.041432373
122	0x3c4aa329	0.012368002
123	0x3cac36be	0.021022197
124	0xbdbed01d	-0.09317038
125	0x3de1a4e9	0.11017782
126	0xbdfd15d1	-0.12357677
127	0x3e19a8da	0.15005818
128	0x3e183d00	0.1486702
129	0x3d3623a7	0.044467594
130	0xbd751457	-0.05983385
131	0xbd33464b	-0.04376821
132	0xbde8871f	-0.11353897
133	0xbdf82777	-0.12116902
134	0x3d5333e1	0.051563147
135	0xbdb9af57	-0.090666465
136	0x3e093bb6	0.13401684
137	0x3d9cce7a	0.0765657
138	0xbe005f4b	-0.12536351
139	0xbd1bca90	-0.038034976
140	0x3dc12f76	0.094328806
141	0xbca07c7d	-0.01959061
142	0xbdebc6b1	-0.11512507
143	0xbd922b29	-0.071371384
144	0xbc5acc80	-0.013354421
145	0x3d90f22f	0.07077443
146	0xbd9301b6	-0.07178061
147	0x3cf2197e	0.029553171
148	0x3c6572cb	0.01400442
149	0x3d2b3597	0.041799154
150	0x3c87d084	0.01657892
151	0xbdfb2b26	-0.12264089
152	0x3e0c2a5b	0.13688032
153	0x3dfa2d6b	0.12215694
154	0x3e8866cb	0.26640925
155	0x3dfbb035	0.12289468
156	0x3e097cdc	0.13426536
157	0x3e0b440c	0.13600177
158	0xbe078fe9	-0.13238491
159	0xbdd5f980	-0.10447979
160	0xbd518de3	-0.051160704
161	0xbe03cf56	-0.12872061
162	0xbcdfd140	-0.027321458
163	0x3db5c359	0.0887515
164	0x3c04c93a	0.008104617
165	0x3d949a05	0.072559394
166	0xbe095795	-0.13412316
167	0xbdc8dbb4	-0.0980753
168	0xbda3528a	-0.079747275
169	0xbccec3c8	-0.02523984
170	0xbe03c0ab	-0.12866466
171	0x3dc4b619	0.09605045
172	0xbd128274	-0.03576894
173	0x3d1cff9d	0.03832971
174	0xbc83f735	-0.016109088
175	0xbd3cfb3d	-0.046138037
176	0x3d85d3cc	0.06534538
177	0xbde92fdb	-0.11386081
178	0xbbf02c0f	-0.007329471
179	0xbe1618d4	-0.14657909
180	0x3d544181	0.051820282
181	0xbe1716f2	-0.14754847
182	0x3d8290c3	0.06375267
183	0xbdbcb690	-0.092145085
184	0x3dc3af17	0.0955488
185	0x3dd9a3db	0.10626956
186	0xbc976e61	-0.01848525
187	0x3ca42115	0.020035306
188	0xbcf2fc9c	-0.02966147
189	0xbbfe7c0d	-0.007766253
190	0xbe21441a	-0.15748635
191	0x3d015bb7	0.031581607
192	0xbdb5dcb9	-0.0887999
193	0xbd17663a	-0.036962725
194	0x3c73b291	0.0148741165
195	0x3d206d74	0.039166883
196	0x3dd3c151	0.103396066
197	0xbd420985	-0.04737236
198	0x3be1c563	0.0068899854
199	0x3db62196	0.08893125
200	0x3df88366	0.12134437
201	0xbe0b3545	-0.1359454
202	0xbd8aeeb5	-0.06783811
203	0xbd52d077	-0.05146834
204	0x3bde4767	0.006783414
205	0x3dbbe3cf	0.091743104
206	0xbe01610e	-0.1263468
207	0x3b351f40	0.0027637035
208	0xbe07ea4c	-0.13272971
209	0x3e0a5c4a	0.13511768
210	0xbcd27806	-0.025691997
211	0xbc70c8d8	-0.014696322
212	0x3c1d63a6	0.009606278
213	0x3d7fecaa	0.06248156
214	0xbdcfd685	-0.10148338
215	0xbdcf9ad1	-0.10136951
216	0x3d0e2c91	0.03471047
217	0x3c6974a3	0.014249
218	0xbc17686e	-0.009241207
219	0xbd5587ce	-0.052131467
220	0xbde05d9c	-0.109553546
221	0x3d4e4244	0.050356165
222	0x3dcc7550	0.09983313
223	0x3c574572	0.013139116
224	0x3afe6e1b	0.0019411476
225	0x3c3fd129	0.0117075825
226	0x3d9fe4a5	0.07807282
227	0xbe011023	-0.12603812
228	0x3cd21c00	0.025648117
229	0x3cdd2269	0.026993947
230	0x3dd951de	0.10611318
231	0x3d7a5b70	0.061122358
232	0x3dcf92b3	0.101354025
233	0x3de46b43	0.11153271
234	0xbcb556a2	-0.022136036
235	0xbdc0591d	-0.09391997
236	0x3d35a8fe	0.044350617
237	0xbd888253	-0.06665482
238	0x3d8efa3a	0.06981321
239	0xbdbb4cf2	-0.091455355
240	0xbde0cb58	-0.10976285
241	0xbcc4f578	-0.02404283
242	0xbdfb6504	-0.122751266
243	0x3d4a47f6	0.049385034
244	0x3e06c094	0.131594
245	0x3e0c8c30	0.13725352
246	0x3dcf24a2	0.10114409
247	0xbde3fec5	-0.11132578
248	0x3d9e5677	0.077313356
249	0xbdb46589	-0.08808429
250	0x3dcb31de	0.09921621
251	0xbc83acaf	-0.016073553
252	0x3dad7ced	0.08471093
253	0xbd27d1a3	-0.04097141
254	0x3dab1d29	0.08355171
255	0x3cafe875	0.021473149

fc1.bias f4 [128]
0	0xbdc10c6e	-0.09426199
1	0x3dc04b07	0.0938931
2	0x3d9b0769	0.07569773
3	0xbc1dbf88	-0.009628184
4	0x3db3dc23	0.08782222
5	0x3db0e7de	0.08637975
6	0x3ae64edd	0.001757111
7	0x3d7714c3	0.060322534
8	0xbdc04d78	-0.09389776
9	0x3d61ae05	0.0550976
10	0xbbdca227	-0.0067331973
11	0xbd389caa	-0.04507128
12	0x3d6e6025	0.05819716
13	0x3ca59c28	0.020216063
14	0x3d31e840	0.04343438
15	0xbe08252f	-0.13295434
16	0x3d420eec	0.04737751
17	0x3de9eade	0.114217505
18	0x3db7bda4	0.08971718
19	0x3de4453d	0.11146019
20	0xbda1ed1b	-0.079065524
21	0x3d87f490	0.066384435
22	0x3d1f4750	0.03888637
23	0xbdad006e	-0.084473476
24	0xbdd412f7	-0.1035518
25	0xbdc36c70	-0.09542167
26	0x3d0c33aa	0.03422896
27	0xbd8a03b7	-0.0673899
28	0xbd45d562	-0.0482992
29	0x3dc38da8	0.09548503
30	0xbd4f3288	-0.0505853
31	0x3c91fbda	0.017820287
32	0xbcd937c8	-0.026515856
33	0x3de904a3	0.113778375
34	0xbd7c0919	-0.061532114
35	0x3d48a997	0.04898986
36	0xbd0cebf5	-0.034404714
37	0x3d0d3920	0.034478307
38	0xbd050524	-0.032475606
39	0xbd87ab49	-0.06624467
40	0x3db4c630	0.08826864
41	0xbd232899	-0.03983364
42	0xbc6eed94	-0.01458301
43	0x3d96c788	0.07362276
44	0xbd3222c9	-0.043490205
45	0x3dfa4a02	0.12221147
46	0x3db45821	0.08805872
47	0xbdd1a500	-0.102365494
48	0xbdfebd26	-0.12438421
49	0xbd5d3320	-0.054003835
50	0x3dde6fba	0.10861154
51	0x3d1ccb7b	0.03827999
52	0xbdd2b335	-0.10288087
53	0xbd6071df	-0.054796096
54	0xbd109840	-0.035301447
55	0x3df86cba	0.12130113
56	0xbcad3c0f	-0.021146802
57	0x3c96e2dc	0.018418722
58	0xbde67103	-0.11252024
59	0xbd8dec6b	-0.06929859
60	0xbd81b0d0	-0.063325524
61	0x3dc0bad9	0.09410638
62	0x3e0bdab4	0.13657647
63	0x3d8ca7f6	0.068679735
64	0x3e0d3f7b	0.13793747
65	0x3bd495d8	0.0064875893
66	0x3df3a462	0.11896588
67	0x3d6f5d00	0.0584383
68	0xbd9ca06e	-0.07647787
69	0xbd02aaf9	-0.031901333
70	0x3d00bac9	0.031428132
71	0x3d06be26	0.032896183
72	0xbdd7e4fa	-0.10541721
73	0xbd15a958	-0.036538452
74	0x3dad81ef	0.084720485
75	0xbd7604be	-0.060063116
76	0x3db49ab4	0.0881857
77	0x3df6689f	0.12031674
78	0xbaa6b921	-0.0012719968
79	0xbd89300a	-0.06698616
80	0x3d37abd6	0.04484161
81	0xbd68b536	-0.05681344
82	0x3d2e189c	0.042503938
83	0x3e08cf0a	0.13360229
84	0xbd0e4180	-0.034730434
85	0xbdc20d25	-0.09475163
86	0x3d84e3d1	0.06488765
87	0x3d9c38a2	0.07627989
88	0xbd1fd580	-0.03902197
89	0xbc71c12d	-0.014755529
90	0x3cea9029	0.028633194
91	0xbd9a6d0a	-0.07540329
92	0x3dae31a0	0.08505559
93	0x3ddfc3d0	0.1092602
94	0xbe0d8cc4	-0.13823229
95	0x3d81e4f5	0.06342498
96	0x3d91d38b	0.07120427
97	0xbd98e67a	-0.07465835
98	0xbe01f383	-0.12690549
99	0xbe012b78	-0.12614238
100	0xbd33e059	-0.043915126
101	0xbe032afc	-0.12809366
102	0x3c3f6c83	0.011683586
103	0xbdd9d554	-0.10636392
104	0x3d3e53f0	0.046466768
105	0xbd9cd935	-0.076586165
106	0x3d97fbe9	0.07421095
107	0xbd87a15b	-0.06622573
108	0xbd9722f8	-0.07379717
109	0xbdb10af1	-0.08644665
110	0xbde87c92	-0.11351885
111	0xbdcd9d0a	-0.100397184
112	0x3d2ae513	0.04172237
113	0xbdcedba4	-0.10100487
114	0x3b8ac888	0.004235331
115	0xbd34742a	-0.044056095
116	0xbc0bb7e3	-0.008527729
117	0xbd6f4815	-0.058418352
118	0xbdc5ce84	-0.0965853
119	0xbe072135	-0.13196261
120	0x3cca84a2	0.024721447
121	0xbdf7d864	-0.1210182
122	0x3dc5dbe3	0.09661081
123	0xbda25be9	-0.07927687
124	0xbdd8f081	-0.105927475
125	0x3c2b4f52	0.010455923
126	0xbdcb8e70	-0.09939277
127	0x3bb8529b	0.0056250817

bn1.weight f4 [128]
0	0x3f813327	1.0093735
1	0x3f7ceb86	0.9879688
2	0x3f819c01	1.0125734
3	0x3f7a808a	0.97852385
4	0x3f7ca94c	0.98695827
5	0x3f80cbee	1.0062234
6	0x3f7e33d7	0.9929785
7	0x3f7ebb49	0.99504524
8	0x3f807143	1.0034565
9	0x3f7f3fbd	0.9970663
10	0x3f80a8cf	1.0051516
11	0x3f802bc6	1.0013359
12	0x3f80d7bb	1.0065836
13	0x3f7e6bc0	0.99383163
14	0x3f7f991c	0.99843
15	0x3f82a476	1.020644
16	0x3f8018c3	1.0007557
17	0x3f7f01c3	0.99612063
18	0x3f7e22b8	0.99271727
19	0x3f813903	1.0095524
20	0x3f7f6d68	0.99776316
21	0x3f829ded	1.0204445
22	0x3f7fcf0a	0.9992529
23	0x3f7f7df8	0.9980159
24	0x3f7de84e	0.99182594
25	0x3f7d23f4	0.98882985
26	0x3f829224	1.0200849
27	0x3f805aee	1.002775
28	0x3f8067d6	1.0031688
29	0x3f800f72	1.0004714
30	0x3f809f78	1.0048666
31	0x3f8003d8	1.0001173
32	0x3f7ffd4a	0.99995863
33	0x3f7fb865	0.9989074
34	0x3f80e008	1.0068369
35	0x3f82160d	1.0162979
36	0x3f7f4b19	0.99723965
37	0x3f80f7c0	1.0075607
38	0x3f8193fd	1.0123287
39	0x3f7fe3b0	0.999568
40	0x3f828a1e	1.01984
41	0x3f7c9b15	0.98674136
42	0x3f7d8881	0.99036413
43	0x3f7dac8d	0.99091417
44	0x3f7fa863	0.9986631
45	0x3f80d227	1.0064133
46	0x3f81b8b1	1.0134488
47	0x3f7ee610	0.995698
48	0x3f806fdf	1.003414
49	0x3f7ef6d5	0.99595386
50	0x3f7f4230	0.9971037
51	0x3f81bf8a	1.0136578
52	0x3f8086f2	1.0041182
53	0x3f81f35c	1.0152392
54	0x3f81b877	1.0134419
55	0x3f7fafee	0.9987782
56	0x3f7de06a	0.99170554
57	0x3f80070c	1.000215
58	0x3f7f6d5b	0.9977624
59	0x3f80443e	1.0020826
60	0x3f8205da	1.0158036
61	0x3f81632c	1.010839
62	0x3f7d47fc	0.98937964
63	0x3f80c0a4	1.0058789
64	0x3f7c8a9e	0.98649013
65	0x3f80084c	1.0002532
66	0x3f7f1972	0.996482
67	0x3f8197b2	1.0124419
68	0x3f80139a	1.0005982
69	0x3f7fbe93	0.9990017
70	0x3f7f8c57	0.99823517
71	0x3f820ab4	1.0159516
72	0x3f7e2e49	0.99289376
73	0x3f810063	1.0078243
74	0x3f7eb2ec	0.99491763
75	0x3f82e6ca	1.0226681
76	0x3f83bb2a	1.0291493
77	0x3f81e3a9	1.0147601
78	0x3f80875f	1.0041312
79	0x3f804d42	1.0023577
80	0x3f800f5d	1.0004689
81	0x3f7e08a2	0.9923192
82	0x3f800572	1.0001662
83	0x3f7eecfe	0.9958037
84	0x3f8097ea	1.004636
85	0x3f7fc121	0.99904066
86	0x3f80c263	1.0059322
87	0x3f7f4e1a	0.9972855
88	0x3f827036	1.0190494
89	0x3f810ec2	1.0082629
90	0x3f804f20	1.0024147
91	0x3f7d05ee	0.98837173
92	0x3f7ff9d5	0.9999059
93	0x3f815963	1.0105404
94	0x3f8203df	1.0157431
95	0x3f80958b	1.0045637
96	0x3f7febdc	0.9996927
97	0x3f7ce344	0.9878428
98	0x3f829099	1.0200378
99	0x3f8163bd	1.0108563
100	0x3f8093de	1.0045125
101	0x3f81b206	1.0132453
102	0x3f80fbde	1.0076864
103	0x3f81ebb0	1.0150051
104	0x3f8077c2	1.0036547
105	0x3f7d5ec8	0.9897275
106	0x3f803f5a	1.0019333
107	0x3f80974b	1.0046171
108	0x3f80a712	1.0050986
109	0x3f7efd29	0.9960504
110	0x3f7f4156	0.9970907
111	0x3f807327	1.0035142
112	0x3f7fb14d	0.99879915
113	0x3f7f7554	0.99788404
114	0x3f8033a8	1.0015764
115	0x3f80a922	1.0051615
116	0x3f7c8310	0.98637486
117	0x3f7fbff7	0.9990229
118	0x3f7c64ee	0.98591506
119	0x3f819c1a	1.0125763
120	0x3f7df707	0.9920506
121	0x3f809dc3	1.0048145
122	0x3f7ffc26	0.99994123
123	0x3f820f48	1.0160913
124	0x3f815d04	1.0106511
125	0x3f7dd0e9	0.99146897
126	0x3f8272a2	1.0191233
127	0x3f800c5a	1.0003769

bn1.bias f4 [128]
0	0x3bdc2b3b	0.0067190207
1	0x3ce96c92	0.028494153
2	0x3b622fea	0.0034513422
3	0xbc526f37	-0.0128438985
4	0x3bdfe9f2	0.0068333084
5	0x3c4cf033	0.01250844
6	0xbc5602b1	-0.013062165
7	0xba98f558	-0.0011669798
8	0x3c4a1b64	0.012335632
9	0xbc53cf1b	-0.012927796
10	0xbc192808	-0.009347923
11	0x3c283546	0.010266608
12	0x3c30c8d0	0.010790065
13	0x3bcf22f2	0.0063213045
14	0xbc18bd0e	-0.009322418
15	0x3c5e9576	0.013585439
16	0x3bb647b8	0.0055627488
17	0x3b2c01fc	0.00262463
18	0xbc314a7d	-0.010820982
19	0x3bb34331	0.0054706563
20	0xbc2652b1	-0.010151551
21	0x3c6aead5	0.014338215
22	0x39ed286d	0.00045234282
23	0xbc4525a6	-0.012032902
24	0xbc0df8da	-0.008665288
25	0x3b749907	0.0037322657
26	0x3b8eed92	0.0043618167
27	0xbb34288c	-0.0027489988
28	0x3c6c70d0	0.0144311935
29	0x3a2fe5ab	0.00067099434
30	0x3c0f51cc	0.008747529
31	0x3c47d69d	0.012197164
32	0xb98589c8	-0.00025470392
33	0xbb94b222	-0.0045378366
34	0x3b38df6f	0.0028209349
35	0x3bf1c41a	0.0073781135
36	0x3b887769	0.0041646254
37	0x3bcf1064	0.0063190926
38	0x3c650951	0.013979272
39	0xbb5fe8a7	-0.0034165771
40	0x3c96a831	0.018390747
41	0xb9682764	-0.00022139918
42	0xbbdd46ba	-0.006752816
43	0xbc49c456	-0.012314877
44	0x3a49f7ff	0.0007704496
45	0x3b004e3c	0.0019577881
46	0x3c55291f	0.013010292
47	0xbb918f7c	-0.0044421535
48	0xbb910002	-0.0044250498
49	0x3b983027	0.004644412
50	0x3bf876f9	0.007582542
51	0x3c1494cb	0.009068678
52	0x3ba0eba4	0.004910903
53	0x3c01b42c	0.0079164915
54	0x3c280918	0.010256074
55	0x3bdee7b6	0.0068025244
56	0xbb3706ac	-0.002792756
57	0x3a6bf83e	0.00090015295
58	0x3b60e573	0.003431645
59	0xbb8cf531	-0.00430169
60	0x3c70cb99	0.014696979
61	0xb83a6629	-4.4441e-05
62	0xbb8e2dee	-0.0043389713
63	0xb983f805	-0.00025171056
64	0xbc6b2063	-0.014350983
65	0xba59e7e8	-0.000831245
66	0xbb8af9eb	-0.0042412183
67	0x3b7b75ac	0.0038369698
68	0xbb15ba99	-0.0022846817
69	0x3a9fc728	0.001219009
70	0x39842087	0.00025201237
71	0x3c3cf61c	0.011533286
72	0xbb0a3a54	-0.0021091895
73	0x3a6b87fc	0.0008984802
74	0x3cab7feb	0.02093502
75	0x3c9381a8	0.01800616
76	0x3cc088c5	0.023502717
77	0x3cea0bed	0.02857014
78	0x3bf0bdb6	0.007346834
79	0xb9347ec0	-0.00017213356
80	0xbac1d3d0	-0.0014787856
81	0x3a63f96c	0.00086965295
82	0x3bf01133	0.007326269
83	0xbbda6305	-0.006664636
84	0x3c301cfc	0.010749098
85	0x39dac232	0.00041724887
86	0x3bedccfa	0.007257101
87	0xbaa3b1e0	-0.0012488924
88	0x3c9bb61f	0.01900774
89	0xbaaa074e	-0.0012972148
90	0x3b687cb1	0.0035474712
91	0xbbb41881	-0.005496085
92	0x3ba95470	0.0051675364
93	0xb98c842b	-0.00026801354
94	0x3a603757	0.0008553168
95	0x3bf187c2	0.00737092
96	0x3c321590	0.010869399
97	0xbc4d0bfe	-0.012515066
98	0x3c69cb54	0.014269669
99	0x3bcdb241	0.006277353
100	0x3cd98975	0.026554802
101	0x3abf351e	0.0014587974
102	0x3bb4d214	0.0055182073
103	0x3c372a55	0.011179526
104	0x3bb070c3	0.005384536
105	0xbc05fed9	-0.008178436
106	0xba405a79	-0.00073377
107	0x3cae707c	0.021293871
108	0x3c3fbb6c	0.0117024
109	0x3a838263	0.0010033365
110	0x3b9e019f	0.0048219706
111	0x3c3e0b34	0.011599351
112	0x3b6dc6be	0.003628179
113	0x39702931	0.00022903529
114	0x3ba152d0	0.004923202
115	0x3b9c26cc	0.004765367
116	0xbc84c147	-0.016205443
117	0x3b2a5e56	0.002599617
118	0xbc078a25	-0.008272682
119	0x3cfbc666	0.030734252
120	0xbb90c5aa	-0.0044180946
121	0x3c85cfa9	0.016334372
122	0x3b92ffa0	0.0044860393
123	0x3c71c801	0.014757157
124	0x3b47d6be	0.0030492987
125	0xbaab8a2a	-0.0013087441
126	0x3af83a87	0.0018938341
127	0xbb3f54a7	-0.0029194744

bn1.running_mean f4 [128]
0	0xc652870f	-13473.765
1	0x47107546	36981.273
2	0xc63ead7f	-12203.374
3	0xc70eb11f	-36529.12
4	0x4708ed56	35053.336
5	0x4724f94c	42233.297
6	0xc733f382	-46067.508
7	0x475a7e0a	55934.04
8	0x4759ba12	55738.07
9	0xc623d2fa	-10484.744
10	0xc6b1d992	-22764.785
11	0x457bf9fd	4031.6243
12	0x46d56988	27316.766
13	0x475d7be6	56699.9
14	0x476f7088	61296.53
15	0xc62b360e	-10957.514
16	0x469a9d90	19790.781
17	0x4714181a	37912.1
18	0xc6ca9df3	-25934.975
19	0xc635b4e6	-11629.225
20	0xc62c7a82	-11038.627
21	0xc6851516	-17034.543
22	0x46890f80	17543.75
23	0xc65e2fc9	-14219.946
24	0xc6a37b5d	-20925.682
25	0x469ebb45	20317.635
26	0xc6161436	-9605.053
27	0xc70a4c3e	-35404.242
28	0x46d7d433	27626.1
29	0xc70153a7	-33107.652
30	0x47b5b9de	93043.734
31	0x47186cf8	39020.97
32	0x4759d12f	55761.184
33	0xc6364dd1	-11667.454
34	0xc775ecc2	-62956.758
35	0xc60753d4	-8660.957
36	0x478b6432	71368.39
37	0xc7235812	-41816.07
38	0x470e8ed0	36494.812
39	0xc6bf1e4d	-24463.15
40	0xc75148b1	-53576.69
41	0x46972587	19346.764
42	0x458764ff	4332.6245
43	0xc6c18e90	-24775.281
44	0x45f09cb2	7699.587
45	0xc5d1b776	-6710.9326
46	0xc6a12d3a	-20630.613
47	0xc7033827	-33592.152
48	0xc6d0f105	-26744.51
49	0xc5973735	-4838.901
50	0x47173d64	38717.39
51	0xc65232c4	-13452.691
52	0xc689a017	-17616.045
53	0xc71b432a	-39747.164
54	0xc71cddd0	-40157.812
55	0x432ad3b4	170.82697
56	0x4740fb74	49403.453
57	0x476496a9	58518.66
58	0xc71450b0	-37968.688
59	0xc6c2cc58	-24934.172
60	0xc6a001e8	-20480.953
61	0xc6422cd4	-12427.207
62	0x46e9fa1f	29949.06
63	0xc69606b6	-19203.355
64	0xc5b18433	-5680.525
65	0x46f087cd	30787.9
66	0xc6e685d5	-29506.916
67	0xc69ceca7	-20086.326
68	0xc42e9c6c	-698.4441
69	0xc6acf592	-22138.785
70	0x4783bc71	67448.88
71	0xc6e0d08d	-28776.275
72	0x45c5aa26	6325.2686
73	0xc6018736	-8289.803
74	0x46f256ed	31019.463
75	0xc60d6fd3	-9051.956
76	0xc6339472	-11493.111
77	0x402fde50	2.7479439
78	0x471311e0	37649.875
79	0xc7a39265	-83748.79
80	0xc50b56f1	-2229.4338
81	0x45f6f6cf	7902.851
82	0x474b4727	52039.152
83	0x4722ada8	41645.656
84	0x47b9227b	94788.96
85	0x46990270	19585.219
86	0x46b53c0c	23198.023
87	0x47061150	34321.312
88	0xc6750c9b	-15683.151
89	0xc6810257	-16513.17
90	0x46e36c2f	29110.092
91	0x46fada45	32109.135
92	0x4765d7e9	58839.91
93	0xc69798fa	-19404.488
94	0xc648b526	-12845.287
95	0x46cfb4a4	26586.32
96	0x470278ce	33400.805
97	0x46d80f7d	27655.744
98	0xc695729a	-19129.3
99	0xc69ac6ad	-19811.338
100	0xc3ff1fc5	-510.2482
101	0xc589e23e	-4412.2803
102	0xc6aa4a9d	-21797.307
103	0xc67e1066	-16260.1
104	0xc612b260	-9388.594
105	0x46d7fc75	27646.229
106	0x46c4aac8	25173.39
107	0x46a02063	20496.193
108	0x47020c1e	33292.117
109	0x47588354	55427.33
110	0x47230e9b	41742.605
111	0x46e587c3	29379.88
112	0x474e6288	52834.53
113	0x47176417	38756.09
114	0x47120a3a	37386.227
115	0x47264aad	42570.676
116	0x465bb25e	14060.592
117	0x4728977d	43159.49
118	0x4513af15	2362.9426
119	0x46762a18	15754.523
120	0x45a6fafe	5343.374
121	0x470f36d4	36662.83
122	0x46a1acbe	20694.371
123	0xc686ebee	-17269.965
124	0xc6294ba9	-10834.915
125	0x473c7027	48240.152
126	0xc5984a0f	-4873.2573
127	0xc6ec584a	-30252.145

bn1.running_var f4 [128]
0	0x4f8e48f5	4.774292e+09
1	0x5081584d	1.7360382e+10
2	0x4f281aed	2.820337e+09
3	0x50aeb8b3	2.345072e+10
4	0x506a5aff	1.5727328e+10
5	0x50a90caf	2.2689446e+10
6	0x50d2b3b8	2.8279947e+10
7	0x511a0f3c	4.1355035e+10
8	0x5113f385	3.971536e+10
9	0x4f3075f1	2.9605194e+09
10	0x501b1df2	1.0409724e+10
11	0x4e7a54a4	1.04996275e+09
12	0x5076b517	1.6556252e+10
13	0x51186347	4.090629e+10
14	0x515ac1cb	5.8722136e+10
15	0x4ece8d98	1.732693e+09
16	0x4fd15f10	7.0253363e+09
17	0x5085db48	1.7965924e+10
18	0x501ba042	1.0443885e+10
19	0x4f20b7fe	2.6964127e+09
20	0x4ef99196	2.093534e+09
21	0x4f739602	4.0866944e+09
22	0x4f8ffa28	4.831072e+09
23	0x4fca13a8	6.7805716e+09
24	0x504a9fbd	1.3597865e+10
25	0x4fe04fee	7.5266693e+09
26	0x4eafd2f8	1.4749194e+09
27	0x509c470e	2.0975219e+10
28	0x500713d4	9.064894e+09
29	0x5056744d	1.4391784e+10
30	0x51e40e4c	1.2243655e+11
31	0x5095c844	2.0103438e+10
32	0x511e1d9b	4.2443846e+10
33	0x4f541d1b	3.5586772e+09
34	0x514eba42	5.549301e+10
35	0x4fab34ab	5.744711e+09
36	0x515f76e0	5.9985756e+10
37	0x50ac65e3	2.3138867e+10
38	0x509318b1	1.9742951e+10
39	0x4ff83a98	8.329179e+09
40	0x510743b4	3.630978e+10
41	0x4ff58ce6	8.2393037e+09
42	0x4f25c12c	2.7809004e+09
43	0x5039907d	1.2453017e+10
44	0x4ecd0369	1.7197764e+09
45	0x4f65b8c8	3.8540923e+09
46	0x4fc3bc3f	6.567788e+09
47	0x5057f846	1.4493489e+10
48	0x50296986	1.136906e+10
49	0x4f6b81e4	3.9511583e+09
50	0x50a1063f	2.1612329e+10
51	0x4f0d7fdf	2.3739676e+09
52	0x4f8f821c	4.8153375e+09
53	0x50a22d2d	2.1766957e+10
54	0x509181c2	1.95296e+10
55	0x4f285928	2.8244152e+09
56	0x50fb6006	3.3738994e+10
57	0x512b20cb	4.593685e+10
58	0x50ba924d	2.5041201e+10
59	0x505c8430	1.4798602e+10
60	0x4f9ce518	5.264519e+09
61	0x4f2d420b	2.9067866e+09
62	0x506bde46	1.5828851e+10
63	0x4fc852e0	6.721749e+09
64	0x4f5ad4ad	3.671371e+09
65	0x50572dc6	1.4440405e+10
66	0x504cb076	1.3736466e+10
67	0x4fba9178	6.260191e+09
68	0x4f5c558a	3.6965934e+09
69	0x4fe0619b	7.528986e+09
70	0x514fb531	5.5756132e+10
71	0x5020ceda	1.0791643e+10
72	0x4e8e0a75	1.191525e+09
73	0x4ec53b83	1.6545059e+09
74	0x50293c5c	1.1357221e+10
75	0x4ead6352	1.4544837e+09
76	0x4ecdbca1	1.7258456e+09
77	0x4f4ae5c2	3.404055e+09
78	0x50734122	1.6324528e+10
79	0x51c499a5	1.05548915e+11
80	0x4e859ac8	1.1207567e+09
81	0x4eee001d	1.9964924e+09
82	0x50fac4be	3.3657582e+10
83	0x50bf0fd8	2.5643893e+10
84	0x51daf0d7	1.1754294e+11
85	0x4fb91346	6.210096e+09
86	0x4fe9aac0	7.840563e+09
87	0x50810e0a	1.7321447e+10
88	0x4f5313f1	3.5412995e+09
89	0x4fd9656f	7.294607e+09
90	0x505f5801	1.4988346e+10
91	0x50bdeaab	2.5490184e+10
92	0x5127e63c	4.507014e+10
93	0x500bc056	9.378552e+09
94	0x4f293759	2.8389768e+09
95	0x50183587	1.0214579e+10
96	0x5069001a	1.5636392e+10
97	0x500f00de	9.596795e+09
98	0x4f8c42c9	4.706374e+09
99	0x4f9c2e0a	5.240526e+09
100	0x4fa74749	5.6129336e+09
101	0x4eb6931f	1.5315475e+09
102	0x4fab6b13	5.7518423e+09
103	0x4f629ce8	3.8019338e+09
104	0x4f4a8b82	3.3981404e+09
105	0x504f7671	1.3922584e+10
106	0x50822c5f	1.7471568e+10
107	0x4f9bf3d6	5.232897e+09
108	0x50925c61	1.9644221e+10
109	0x5122ef88	4.373771e+10
110	0x50998e88	2.061004e+10
111	0x5081f079	1.7440164e+10
112	0x50fcacaa	3.3913393e+10
113	0x5101a0d7	3.4796827e+10
114	0x508346c8	1.7619632e+10
115	0x50d83818	2.9020439e+10
116	0x4f6bc4b8	3.955538e+09
117	0x50c22353	2.605676e+10
118	0x4ed50c82	1.7871834e+09
119	0x4f8c479c	4.7070065e+09
120	0x4f1a946c	2.5934182e+09
121	0x5065ac58	1.5413109e+10
122	0x5035e422	1.2206508e+10
123	0x4f9d0576	5.2687616e+09
124	0x4f0890ce	2.2911913e+09
125	0x50cda4f7	2.7601123e+10
126	0x4eb86859	1.5469231e+09
127	0x50263420	1.1153736e+10

fc2.weight f4 [128, 128]
0	0xbb4a14d0	-0.003083516
1	0xbd21bf4c	-0.039489076
2	0x3d83c621	0.064342745
3	0x3c91998a	0.017773408
4	0x3c7d9816	0.015478155
5	0xbd3af9c4	-0.04564835
6	0xbd75528a	-0.05989317
7	0x3d19c3a3	0.03754009
8	0xbd19ff68	-0.03759709
9	0xbc4e61ab	-0.012596528
10	0x3db57374	0.088599116
11	0xbd513e40	-0.051084757
12	0xbd7601a3	-0.060060155
13	0x3d1b5f93	0.037932944
14	0x3db82b29	0.08992607
15	0x3dd0af1e	0.10189651
16	0x3c4fd899	0.012685918
17	0x3d7e227d	0.06204461
18	0x3dc2b8e9	0.09507925
19	0x3d9bc420	0.07605767
20	0x3de86f67	0.11349373
21	0x3dd8112c	0.1055015
22	0x3d9bb631	0.0760311
23	0xbd7a1c49	-0.06106213
24	0xbd389e8f	-0.04507309
25	0xbb26b6f4	-0.0025438638
26	0xba5ac0bd	-0.000834476
27	0xbcd00db1	-0.025397154
28	0x3da7e711	0.08198369
29	0x3d9c6e04	0.07638171
30	0xbdaa4eec	-0.083158344
31	0xbd0fa33d	-0.035067786
32	0xbc178c8a	-0.009249816
33	0xbd826545	-0.06366972
34	0xbd45fb41	-0.048335318
35	0xbdb40a07	-0.08790975
36	0x3d01bb1a	0.031672575
37	0xbc5c7e1a	-0.013457799
38	0xbd9d7ff8	-0.07690424
39	0xbd608421	-0.054813508
40	0xbd8a20a5	-0.06744508
41	0x3d5e2507	0.05423453
42	0x3d27043a	0.040775515
43	0x3cc0bce1	0.023527564
44	0xbd2e9b43	-0.042628538
45	0x3d810490	0.06299698
46	0x3cc725a3	0.024309939
47	0xbd6c358b	-0.05766825
48	0xbc2b50b9	-0.0104562575
49	0x3dbbc041	0.09167529
50	0xbd1fbf6a	-0.039000906
51	0x3db48e34	0.088161856
52	0x3c504a18	0.012712978
53	0xbd8fe8c1	-0.07026816
54	0x3c9c2a1b	0.019063046
55	0xbca46045	-0.020065436
56	0x3ccdc9cf	0.025120644
57	0xbd99c2b4	-0.0750784
58	0x3da3b391	0.07993234
59	0x3c45f51d	0.012082365
60	0xbcc8329a	-0.024438191
61	0xbd69be14	-0.05706604
62	0x3d522789	0.051307235
63	0xbaad18a6	-0.0013206198
64	0x3d31b0f8	0.04338166
65	0xbd919c95	-0.07109944
66	0xbcfe42f5	-0.031037787
67	0x3d223177	0.039597955
68	0xbda44006	-0.08020024
69	0x3da5af74	0.08090106
70	0xbd98b493	-0.07456317
71	0x3d985025	0.07437161
72	0x3cf019f4	0.02930925
73	0xbc123662	-0.008924099
74	0xbd9aed87	-0.07564836
75	0xbcebe646	-0.028796326
76	0x3d928720	0.07154679
77	0xbd6ca2aa	-0.057772316
78	0x3d888cd5	0.066674866
79	0x3d23037a	0.039798237
80	0x3cc85bb4	0.02445779
81	0xbc90e840	-0.01768887
82	0xbd377d26	-0.044797085
83	0x3bf33572	0.0074221427
84	0xbc475318	-0.012165807
85	0x3c263722	0.010144981
86	0xbca771f0	-0.020440072
87	0x3bf7e1a2	0.0075647393
88	0x3d4c8b4f	0.049937543
89	0xbc83ce23	-0.016089505
90	0xbd909dc5	-0.07061342
91	0x3c8dbd4b	0.017302176
92	0xbd10fbf7	-0.035396542
93	0x3daf5dd0	0.08562815
94	0xbd877916	-0.06614892
95	0xbc6285d9	-0.013825857
96	0xbd8c801e	-0.06860374
97	0xbda9f50b	-0.08298691
98	0x3d40dc0f	0.047084864
99	0x3bb64f0b	0.005563622
100	0x3da39341	0.07987071
101	0x3de1d329	0.11026604
102	0x3c898632	0.016787622
103	0xbd98ad18	-0.0745489
104	0x3c082577	0.008309714
105	0x3d392c4b	0.045208257
106	0xbd72ec08	-0.05930713
107	0xbd3fca56	-0.046823822
108	0x3d3fff61	0.046874408
109	0xbd54f934	-0.05199547
110	0x3d0784b0	0.033085525
111	0x3c9172c1	0.017754914
112	0x3c90f88b	0.01769664
113	0x3dac342b	0.08408388
114	0x3da5be0a	0.08092888
115	0x3d361485	0.044453163
116	0xbd74aa17	-0.059732523
117	0x3dab3a8f	0.083607785
118	0xbd4f3f18	-0.05059728
119	0xbd2bcb54	-0.041941956
120	0x3d2339c1	0.03985
121	0x3ce8bf41	0.02841151
122	0xbd20a075	-0.039215524
123	0x3d9b608b	0.075867735
124	0xbda86aa1	-0.08223463
125	0x3d540a2d	0.051767517
126	0xbd569659	-0.052389476
127	0x3a37dd57	0.0007013878
128	0x3d7aacc9	0.061199937
129	0x3d1351e2	0.03596676
130	0xbd66805b	-0.056274753
131	0x3b39c4d8	0.0028346088
132	0xbce4ecc5	-0.027944932
133	0x3cc1ff50	0.023681313
134	0x3d0f0fac	0.034927055
135	0x3b8f9695	0.0043819644
136	0x3c74bd0f	0.014937653
137	0xbd1ee988	-0.03879693
138	0xbac8e1c5	-0.0015326074
139	0xbd56fc46	-0.05248668
140	0x3da91ac9	0.08257062
141	0x3c488ded	0.012240869
142	0x3c17ffe3	0.009277317
143	0xbcb6db15	-0.022321263
144	0x3cd05145	0.025429377
145	0xbcd93d71	-0.026518555
146	0x3d82c95f	0.06386065
147	0x3d840fbc	0.064483136
148	0xbc756e3a	-0.014979893
149	0x39e216df	0.0004312312
150	0x3d84e4d3	0.06488957
151	0x3d5c78ac	0.05382602
152	0xbd8d7ca1	-0.06908537
153	0x3d6ec433	0.05829258
154	0xba8ded2f	-0.0010828133
155	0x3d5a1736	0.053244792
156	0x3daaa453	0.083321236
157	0x3c0f93ef	0.008763297
158	0x3cb40659	0.021975683
159	0x3da53ac7	0.080678515
160	0x3d37ae93	0.04484422
161	0xbda37188	-0.07980639
162	0x3da77de4	0.081783086
163	0xbdb6941e	-0.0891497
164	0x3d3e29d0	0.046426594
165	0xbd825330	-0.06363523
166	0x3d64ac86	0.055828594
167	0x3d070ad7	0.032969322
168	0x3d130a10	0.03589827
169	0x3d62d8eb	0.05538265
170	0x3d12eed5	0.0358723
171	0xbcad2040	-0.021133542
172	0x3d64ec1e	0.05588924
173	0x3c4e81b6	0.012604168
174	0x3d5b02e9	0.053469572
175	0xbd9b3a7f	-0.075795166
176	0x3daf65a0	0.08564305
177	0x3c6323d5	0.0138635235
178	0x3cfec907	0.031101717
179	0xbd0d606b	-0.03451578
180	0x3d90c0bd	0.07068012
181	0xbdb04eae	-0.08608757
182	0xbd487733	-0.048941802
183	0x3bddab2d	0.0067647905
184	0x3a6dcf4a	0.0009071721
185	0xbd1916ac	-0.037375137
186	0xbd789cd5	-0.06069644
187	0x3d1d08e6	0.038338564
188	0xbc6d8fed	-0.014499647
189	0x3da50874	0.08058253
190	0xbc93fef1	-0.018065901
191	0xbd8b20f7	-0.06793397
192	0xbd9cf6ee	-0.076642856
193	0x3d4091f4	0.04701419
194	0xbd2478f2	-0.040154405
195	0x3d242f48	0.040084153
196	0x3db71b92	0.089408055
197	0x3dd7fad4	0.105458885
198	0xbda4bf94	-0.08044353
199	0xbbaa0fdb	-0.0051898784
200	0x3d3f6225	0.046724457
201	0x3d833fb9	0.064086385
202	0x3cdf60f8	0.027267918
203	0xbd3bf86c	-0.04589121
204	0xbb81999c	-0.0039550792
205	0xbd2e73fb	-0.042591076
206	0x3d3dd5a2	0.046346314
207	0xbca847b4	-0.020542003
208	0x3d2ebebb	0.042662363
209	0x3d3b91e0	0.045793414
210	0x3d7f5f1b	0.06234656
211	0xbd35a2e7	-0.04434481
212	0xbcf4e628	-0.029894903
213	0x3d78fe59	0.06078944
214	0xbca23fbf	-0.019805787
215	0x3d7db7ab	0.061942738
216	0xbbb7c2c7	-0.005607936
217	0x3d73a921	0.059487466
218	0xbdac3c36	-0.08409922
219	0xbd8fa15f	-0.07013201
220	0xbcf27e86	-0.029601347
221	0x3bafd12e	0.0053655123
222	0x3c6d7f4e	0.014495684
223	0x3dbb2ba4	0.09139183
224	0x3da16ab6	0.078816816
225	0xbd0cb2c4	-0.03435017
226	0x3d3da687	0.04630139
227	0xbcaf0442	-0.021364335
228	0x3cc404fc	0.023928158
229	0xbd83f6f1	-0.06443585
230	0x3d09dd1b	0.03365813
231	0xbd902196	-0.07037656
232	0xbd6afcc6	-0.05736997
233	0xbd7f40e3	-0.06231774
234	0x3d05af2e	0.032637767
235	0xbd6b4fcb	-0.057449143
236	0x39849d70	0.00025294302
237	0x3d11e2f4	0.03561683
238	0x3b5fd8b3	0.0034156262
239	0xbd932e20	-0.07186532
240	0x3d3f63d5	0.046726067
241	0x3cb5d8c0	0.022198081
242	0x3d9826c6	0.074292704
243	0x3d75fedf	0.060057517
244	0xbc1ba4a6	-0.009499704
245	0x3ce27ad4	0.02764646
246	0x3d846ac5	0.06465677
247	0x3d4d5514	0.050129965
248	0x3d0fe81e	0.035133474
249	0x37e661bf	2.7463653e-05
250	0x3d3071b5	0.04307719
251	0xbd5abdb6	-0.05340358
252	0x3cfb2c31	0.03066072
253	0x3dca37da	0.09873934
254	0xbbc96a3c	-0.0061466973
255	0xbdb4f22b	-0.088352524

fc2.bias f4 [128]
0	0xbd86f5ae	-0.065898284
1	0x3c5cb80a	0.013471613
2	0xbcfe19ee	-0.031018224
3	0x3cb16a41	0.021657111
4	0xbd6dc1fa	-0.05804632
5	0xbd0bf2ed	-0.03416722
6	0x3d8b72b2	0.06808986
7	0x3cab7e0e	0.020934131
8	0x3c9d8fac	0.019233547
9	0xbd9fd6ec	-0.07804665
10	0x3dad721f	0.084690325
11	0x3d5537de	0.052055232
12	0x3c3a38c4	0.011366073
13	0x3d2912ab	0.04127757
14	0x3da56c1f	0.08077263
15	0x3d1efcfd	0.038815487
16	0xbd95aa7f	-0.0730791
17	0xbd21728f	-0.039415892
18	0xbd0c3180	-0.034226894
19	0xbd720d91	-0.05909497
20	0x3c8670e1	0.016411247
21	0x3d1249e1	0.035714988
22	0x3cd79992	0.026318345
23	0x3d929066	0.07156448
24	0x3d7dbaef	0.061945852
25	0x3c397f33	0.011321831
26	0x3cbe19a3	0.023205584
27	0x3d7b9312	0.061419554
28	0x3da34e8a	0.079739645
29	0xbb6053eb	-0.0034229707
30	0xbda82817	-0.082107715
31	0x3d1a6514	0.03769405
32	0xbce7e045	-0.028305182
33	0xbd953f53	-0.07287469
34	0x3d9e817c	0.07739541
35	0xbc6e8213	-0.014557379
36	0xbd1eb349	-0.0387452
37	0x3bb40229	0.0054934216
38	0x3d9693f8	0.073524415
39	0x3d04b032	0.032394595
40	0xbd97d754	-0.074141175
41	0xbc89e5bb	-0.016833177
42	0xbd5c2832	-0.05374927
43	0xbca0d3e4	-0.019632287
44	0xbdb26b6b	-0.087118946
45	0xbd042eb4	-0.032271102
46	0xbd92ecef	-0.07174098
47	0xbc96f0cd	-0.01842537
48	0x3d0b1c8a	0.033962764
49	0xbb1c6942	-0.002386645
50	0xbd518702	-0.051154144
51	0xbcd69b1c	-0.026197009
52	0x3c7cbaec	0.015425425
53	0xbd2a1821	-0.041526917
54	0x3daf4145	0.08557371
55	0xbc5486e4	-0.012971614
56	0xbd98ff85	-0.074706115
57	0x3ce4b1b4	0.027916767
58	0x3c665c16	0.014060041
59	0x3d291886	0.041283153
60	0x3d77e222	0.06051839
61	0x3c9bd58d	0.019022727
62	0xbd65cb0e	-0.05610185
63	0xbb1b4a51	-0.002369542
64	0x3cf63dd1	0.030058773
65	0xbbb272bb	-0.005445806
66	0x3cd3dc3e	0.025861856
67	0xbd9035eb	-0.07041534
68	0x3d1a5c0e	0.037685446
69	0x3db15b54	0.086599976
70	0xbd0dd6fb	-0.03462885
71	0xbd38a093	-0.04507501
72	0x3d791935	0.060815055
73	0x3cba3bc0	0.02273357
74	0x3b11b062	0.0022230376
75	0x3c7b2fa6	0.0153311845
76	0x3c5a2a66	0.013315773
77	0xbd191975	-0.037377793
78	0x391eda1c	0.00015149306
79	0xbd9b20e4	-0.07574633
80	0xbd7f5e93	-0.062346052
81	0x3d9cb304	0.07651332
82	0x3d00c775	0.031440217
83	0x3ced4ef0	0.028968304
84	0x3da21b00	0.07915306
85	0x3dadd9d9	0.08488817
86	0x3d3795d6	0.04482063
87	0x3c36269b	0.011117603
88	0xbd4b4666	-0.049627684
89	0xbc6eeae3	-0.014582369
90	0xbd79ca1f	-0.060983773
91	0xbc1f49c6	-0.009722179
92	0xbd443aba	-0.04790757
93	0xbd912fdc	-0.070892066
94	0x3d87621c	0.0661051
95	0x3d816dad	0.06319747
96	0xbd63036f	-0.055423196
97	0xbc48a5d2	-0.012246566
98	0xbd28f739	-0.041251395
99	0x3da2b996	0.07945554
100	0x3d6faaab	0.05851237
101	0xbcea90cf	-0.028633503
102	0x3d534836	0.051582538
103	0x3b591d21	0.0033128934
104	0x3d9753af	0.07389008
105	0x3cc4f574	0.024042822
106	0x3c9df291	0.019280704
107	0xbd735311	-0.05940539
108	0xbdaa6f60	-0.08322024
109	0x3d45c77c	0.048285946
110	0xbd9db7e3	-0.07701089
111	0xbd07d71b	-0.033164125
112	0xbd1e7cc6	-0.038693212
113	0x3d98b700	0.074567795
114	0xbd40c87e	-0.047066204
115	0xbd35c8c1	-0.044380907
116	0x3d919e58	0.0711028
117	0xbd865006	-0.06558232
118	0x3d934c1a	0.071922496
119	0xbd18bc63	-0.037289035
120	0x3caf993f	0.021435378
121	0x3cf15d5c	0.029463463
122	0x3d0d8ced	0.034558225
123	0x3d2b30fe	0.04179477
124	0x3c683514	0.014172811
125	0xbcb580c0	-0.02215612
126	0xbd690abb	-0.056895
127	0xbd05a65a	-0.03262935

bn2.weight f4 [128]
0	0x3f81c2ec	1.013761
1	0x3f813c3e	1.009651
2	0x3f820540	1.0157852
3	0x3f7d62e7	0.9897904
4	0x3f81bcce	1.0135744
5	0x3f7eeb50	0.9957781
6	0x3f812ef3	1.0092453
7	0x3f812529	1.0089465
8	0x3f7c8b42	0.9864999
9	0x3f77868c	0.9668968
10	0x3f7a3c29	0.9774805
11	0x3f7e49ba	0.9933125
12	0x3f7ffa16	0.99990976
13	0x3f7e8b24	0.9943106
14	0x3f7ab3d7	0.97930664
15	0x3f8021f2	1.0010359
16	0x3f79da45	0.9759868
17	0x3f80e2fb	1.0069269
18	0x3f8112b2	1.008383
19	0x3f817bb0	1.0115871
20	0x3f7ea6b3	0.9947311
21	0x3f8483d1	1.0352727
22	0x3f81e727	1.0148667
23	0x3f7e561e	0.99350154
24	0x3f80444f	1.0020846
25	0x3f7c950b	0.9866492
26	0x3f85970b	1.043672
27	0x3f80da4f	1.0066622
28	0x3f7fc08a	0.99903166
29	0x3f7f6e9a	0.9977814
30	0x3f7d87e7	0.99035496
31	0x3f84fbd6	1.0389354
32	0x3f80e5c3	1.0070118
33	0x3f80583e	1.0026929
34	0x3f82858c	1.0197005
35	0x3f844c9d	1.033588
36	0x3f7fe2d7	0.99955505
37	0x3f839a64	1.0281491
38	0x3f8018a5	1.0007521
39	0x3f7fbd6b	0.99898404
40	0x3f7d43e3	0.9893171
41	0x3f7e7e60	0.9941158
42	0x3f7ef7ad	0.99596673
43	0x3f7e5485	0.99347717
44	0x3f7f31b5	0.9968522
45	0x3f7be73c	0.9839971
46	0x3f80b1af	1.0054225
47	0x3f81484d	1.010019
48	0x3f817559	1.0113937
49	0x3f7deaed	0.99186593
50	0x3f83c805	1.0295416
51	0x3f7c14a7	0.9846901
52	0x3f80d229	1.0064136
53	0x3f814091	1.0097829
54	0x3f7d440b	0.9893195
55	0x3f822db3	1.0170196
56	0x3f782ce5	0.96943504
57	0x3f7c72bc	0.9861257
58	0x3f814c29	1.0101367
59	0x3f81fbd2	1.0154974
60	0x3f7fe6e5	0.9996169
61	0x3f821d88	1.0165262
62	0x3f804fed	1.0024391
63	0x3f7e85cc	0.9942291
64	0x3f7da58a	0.9908072
65	0x3f84ad83	1.0365452
66	0x3f81dbbe	1.0145185
67	0x3f802922	1.0012553
68	0x3f801a8d	1.0008103
69	0x3f819850	1.0124607
70	0x3f8196aa	1.0124104
71	0x3f81ae3a	1.0131295
72	0x3f7c5f3b	0.9858281
73	0x3f7a6ffa	0.9782711
74	0x3f7ef48c	0.995919
75	0x3f7df37f	0.9919967
76	0x3f7dbb9f	0.9911441
77	0x3f7fd1bc	0.99929404
78	0x3f7cfdb8	0.98824644
79	0x3f7ecb70	0.9952917
80	0x3f7ebe9d	0.995096
81	0x3f803125	1.0014998
82	0x3f7ec8c3	0.9952509
83	0x3f80004c	1.0000091
84	0x3f833b80	1.0252533
85	0x3f80c3f0	1.0059795
86	0x3f800a89	1.0003215
87	0x3f8071c9	1.0034724
88	0x3f81231c	1.008884
89	0x3f808b48	1.0042505
90	0x3f7a6975	0.97817165
91	0x3f7c86b1	0.9864302
92	0x3f80d9b6	1.006644
93	0x3f7ee4ff	0.9956817
94	0x3f801eb7	1.0009373
95	0x3f84004c	1.0312591
96	0x3f84310c	1.0327468
97	0x3f802d97	1.0013913
98	0x3f81d79a	1.0143921
99	0x3f82213c	1.0166392
100	0x3f813d3b	1.0096811
101	0x3f8115bc	1.0084758
102	0x3f7ea855	0.99475604
103	0x3f80efb7	1.0073155
104	0x3f7fae41	0.99875265
105	0x3f82a52b	1.0206655
106	0x3f85c531	1.0450803
107	0x3f8196e6	1.0124176
108	0x3f804af2	1.0022871
109	0x3f7e1081	0.9924393
110	0x3f7eeced	0.9958027
111	0x3f7e1099	0.99244076
112	0x3f7e9510	0.994462
113	0x3f803c68	1.0018435
114	0x3f8383fe	1.0274656
115	0x3f7f4471	0.9971381
116	0x3f84e99b	1.0383791
117	0x3f809a3f	1.0047072
118	0x3f843102	1.0327456
119	0x3f7dad6d	0.9909275
120	0x3f802cfb	1.0013727
121	0x3f85c2a9	1.045003
122	0x3f7cdeec	0.9877765
123	0x3f842e44	1.0326619
124	0x3f80b035	1.0053774
125	0x3f8142df	1.0098532
126	0x3f7e4b21	0.9933339
127	0x3f7fdfd2	0.999509

bn2.bias f4 [128]
0	0x3ca92415	0.020647088
1	0x3ca100a9	0.019653635
2	0x3c4e10e9	0.012577274
3	0xba9f0331	-0.0012131688
4	0x3c58ca2d	0.013231796
5	0x3ba2b9b2	0.0049659843
6	0x3b958a02	0.004563571
7	0x3d12e41b	0.03586207
8	0x3c67cf65	0.014148568
9	0x3b03cf84	0.0020112703
10	0x3b8af406	0.0042405156
11	0x3ba3bd96	0.0049969656
12	0x3c85a7da	0.01631539
13	0x3c77f16d	0.015133244
14	0xbc742381	-0.014901043
15	0x3ce866ac	0.02836927
16	0xbb9da318	-0.004810702
17	0x3c1687c7	0.009187645
18	0x3c8919f9	0.016736018
19	0x3c52205b	0.012825097
20	0xbbbfa7c6	-0.0058488576
21	0x3d0e81e8	0.034791857
22	0x3cb64ee1	0.02225441
23	0xbc0d3141	-0.0086177
24	0x3c5a9b66	0.013342714
25	0x3b8fcc31	0.004388355
26	0x3d0970b7	0.03355476
27	0x3c0dfafc	0.008665796
28	0x3b5f34e4	0.0034058625
29	0x3c9be69e	0.019030865
30	0x3c1496ad	0.009069127
31	0x3d10c691	0.035345618
32	0x3c88dd01	0.016706945
33	0xbbb64610	-0.0055625513
34	0x3cb0ef86	0.021598589
35	0x3d1eb102	0.038743027
36	0x3c13bbe5	0.0090169655
37	0x3d3343e1	0.043765906
38	0x3bdf21c6	0.006809446
39	0x3af6ed63	0.0018839057
40	0xbc7d2f83	-0.015453222
41	0xbc0c4912	-0.008562343
42	0xbbb8a36c	-0.005634716
43	0x3c034ff9	0.008014672
44	0x3ca4a1a0	0.0200966
45	0xbcc89cdf	-0.024488864
46	0xbb13eed6	-0.0022572777
47	0x3c8da9c4	0.017292865
48	0x3bc3e77c	0.005978523
49	0x3c210751	0.0098284045
50	0x3ce2495b	0.02762287
51	0xbb0c17c6	-0.0021376475
52	0x3d1fdb80	0.03902769
53	0x3cf10567	0.029421521
54	0x3c30ba0e	0.010786546
55	0x3c648117	0.013946793
56	0x3a953dae	0.001138618
57	0x3a15d0fb	0.00057150394
58	0x3c20052f	0.009766861
59	0x3c320d86	0.010867482
60	0x3d0309fe	0.03199195
61	0x3cda4fae	0.026649322
62	0x3c8207a6	0.015872788
63	0xbca51c14	-0.02015499
64	0x3aba3c19	0.0014208584
65	0x3d16f4b6	0.03685447
66	0x3c618c09	0.013766297
67	0x3a925c3e	0.0011166406
68	0x3caa529f	0.02079135
69	0x3ccc777c	0.024959318
70	0x3c525e6f	0.012839898
71	0x3cf2fcac	0.029661499
72	0x3c699917	0.014257691
73	0xbb5a08f4	-0.0033269497
74	0xbc96e3e6	-0.018419217
75	0xbae83ba4	-0.001771797
76	0x3cab6681	0.020922901
77	0x3c8ea05b	0.017410448
78	0x3c843ad0	0.016141325
79	0x3c4dff4d	0.0125730755
80	0x3c878508	0.016542926
81	0x3c9edc3f	0.01939213
82	0xba59e4e6	-0.00083120016
83	0x3cf8986a	0.030346114
84	0x3c813a7c	0.015774958
85	0x3cf4a03a	0.029861558
86	0x3ac3b26c	0.0014930493
87	0x3c4eb255	0.01261576
88	0x3cdca90a	0.026936073
89	0x3b239d83	0.002496571
90	0x3c133b04	0.008986238
91	0xbc6c9981	-0.014440895
92	0x3cb44e86	0.0220101
93	0x3cddc51e	0.027071532
94	0x3c1d35df	0.009595363
95	0x3d07b4e7	0.033131506
96	0x3d0f2fcd	0.034957696
97	0x3c097652	0.008390026
98	0x3d36dfa1	0.044646863
99	0x3c8e9ee2	0.017409746
100	0x3c7b11d2	0.015324073
101	0x3b20b2b8	0.0024520587
102	0x3ac5b9cd	0.001508528
103	0x3c387e1d	0.0112605365
104	0x3c3d591e	0.011556892
105	0x3d391303	0.045184147
106	0x3d23926e	0.039934568
107	0x3bcf841c	0.0063328873
108	0x3caa6f5c	0.020805053
109	0x3c8378c0	0.016048789
110	0x3b9f7a23	0.0048668548
111	0x3a61f5e4	0.00086197094
112	0x3c1cd989	0.009573349
113	0x3b17fa64	0.0023190016
114	0x3ca1d07e	0.019752737
115	0xbbc92e4c	-0.006139552
116	0x3cc45eab	0.023970922
117	0x3d1118f6	0.035424195
118	0x3cba2cbf	0.022726415
119	0xbbebba8e	-0.00719387
120	0x3b0d7c4d	0.0021588982
121	0x3d2f5084	0.042801395
122	0xbc057ed1	-0.008147911
123	0x3d2a196f	0.04152816
124	0x3aaa3559	0.001298587
125	0x3ce6c7d0	0.02817145
126	0x3baa8067	0.005203295
127	0xbae9dd77	-0.0017842491

bn2.running_mean f4 [128]
0	0x3d79fc42	0.061031587
1	0x3e997555	0.2997233
2	0x3c4dbbe7	0.012557006
3	0x3dfa4d98	0.12221831
4	0x3ce28b72	0.027654383
5	0x3dfb88ef	0.122819774
6	0x3c8c66d3	0.017138874
7	0xbd561979	-0.052270386
8	0xbbc855d8	-0.006113749
9	0xbdea5aa8	-0.114430726
10	0xbe41a474	-0.1891039
11	0xbe0086a6	-0.12551364
12	0xbdacdc8f	-0.08440506
13	0xbda26dd1	-0.07931102
14	0x3d742dcc	0.059613988
15	0xbbb06a0a	-0.0053837346
16	0xbe73c336	-0.23804936
17	0x3bf3d101	0.0074406867
18	0xbcefd385	-0.029275665
19	0x3de1a8b5	0.110185064
20	0x3e703498	0.23457563
21	0x3eb8239a	0.35964662
22	0x3e0dbd77	0.13841806
23	0x3e2ffc45	0.17186077
24	0x3d1fd230	0.03901881
25	0xbe022393	-0.12708883
26	0x3eeff736	0.46868294
27	0x3d007880	0.031364918
28	0x3d97b48e	0.07407485
29	0x3e61d2a2	0.22053006
30	0xbdfda6ed	-0.12385354
31	0x3e753834	0.23947221
32	0x3dd6b880	0.10484409
33	0x3dc8721d	0.097873904
34	0x3e60a693	0.21938543
35	0x3e142af4	0.1446951
36	0xbea92a8e	-0.3304028
37	0x3b861f81	0.004093111
38	0x3dfd33ca	0.123633936
39	0xbdad8ef3	-0.08474531
40	0xbe705e2c	-0.23473424
41	0xbc8f8872	-0.017521117
42	0x3e023a28	0.12717497
43	0x3dd7472a	0.1051162
44	0xbe54e6f5	-0.20791228
45	0x3d0905e7	0.033452895
46	0x3caa5353	0.020791685
47	0x3dda7634	0.10667077
48	0x3d81b00c	0.063324064
49	0xbe15e433	-0.14637832
50	0x3eb341a1	0.35011008
51	0xbdc911ea	-0.0981787
52	0xbd87a38b	-0.0662299
53	0xbd5ef3e3	-0.054431807
54	0x3e117724	0.14205605
55	0x3ceee645	0.029162535
56	0xbeaf22e5	-0.3420631
57	0xbdcfaab0	-0.10139978
58	0x3e699723	0.2281156
59	0x3dfaa040	0.122375965
60	0xbe0d7629	-0.13814606
61	0x3e190b43	0.14945702
62	0xbeb32786	-0.3499109
63	0xbd5b1126	-0.05348315
64	0x3c15f8f2	0.0091535915
65	0x3e9acf9a	0.30236512
66	0x3e20fa09	0.15720381
67	0xbdc128d2	-0.09431614
68	0xbcb1e532	-0.021715734
69	0x3e904683	0.28178796
70	0x3dc23f42	0.09484722
71	0xbe260d4a	-0.16216007
72	0xbd4ebf90	-0.050475657
73	0xbe634037	-0.22192465
74	0xbd21b3b1	-0.039478008
75	0xbe048cb6	-0.12944302
76	0xbe211ff9	-0.15734853
77	0xbe836238	-0.25660872
78	0xbe912742	-0.28350264
79	0x3c5fe605	0.013665681
80	0xbe6e21a5	-0.23255022
81	0x3df9b0ee	0.1219195
82	0x3ce03f0a	0.02737381
83	0xbe96d4f5	-0.29459348
84	0x3e9e30a8	0.30896497
85	0x3e87a2f1	0.26491502
86	0x3c762d74	0.015025485
87	0x3e1d0806	0.15335092
88	0xbd83234e	-0.06403218
89	0x3dffedb1	0.12496508
90	0xbe1e9cca	-0.15489498
91	0xbe1c0037	-0.15234457
92	0x3e4a5f6b	0.19762962
93	0xbda12b3b	-0.07869574
94	0x3e033704	0.12813956
95	0x3e8c3847	0.27386686
96	0xbd89c23d	-0.06726501
97	0xbe1b7ab7	-0.15183531
98	0xbcf3f25b	-0.02977865
99	0x3e6dea4a	0.23233905
100	0x3db76ec4	0.08956674
101	0xbe04e7d3	-0.12979059
102	0xbce7104b	-0.028206011
103	0x3d9358c5	0.07194666
104	0x3e078b53	0.13236742
105	0xbe0b62f7	-0.13611971
106	0x3e5e683a	0.21719447
107	0x3d6190a8	0.055069596
108	0xbe223ece	-0.1584427
109	0x3dcf7c01	0.10131074
110	0x3d22a475	0.03970762
111	0xbe8e0906	-0.2774126
112	0x3e0ccfba	0.13751116
113	0x3e7f4201	0.24927522
114	0x3cbc775f	0.02300614
115	0xbe7a7340	-0.24458027
116	0x3e9db9b2	0.30805737
117	0x3e15583f	0.14584444
118	0x3ea565d1	0.32304242
119	0xbe54c4f0	-0.2077825
120	0x3eaa16e6	0.33220595
121	0x3edeee9c	0.4354142
122	0x3e9e09c9	0.3086684
123	0xbe593ae8	-0.21213877
124	0x3d81070e	0.06300174
125	0xbd573281	-0.0525384
126	0xbdc68fc6	-0.09695391
127	0x3da10ad9	0.07863397

bn2.running_var f4 [128]
0	0x3d3dd630	0.046346843
1	0x3f8d9d5d	1.1063648
2	0x3d2a19b4	0.04152842
3	0x3efde101	0.49585727
4	0x3db09790	0.08622658
5	0x3e4ad438	0.19807518
6	0x3da730f4	0.08163634
7	0x3e551c9c	0.20811695
8	0x3e78cf18	0.2429775
9	0x3f5fdcca	0.8744627
10	0x3f256a92	0.6461574
11	0x3f09a956	0.5377401
12	0x3d5b8c85	0.053600807
13	0x3e0c62a9	0.13709511
14	0x3dd29bae	0.102836
15	0x3d1409a3	0.036142003
16	0x3e48fa7f	0.19626807
17	0x3d0a34d4	0.033741787
18	0x3e614e5d	0.2200255
19	0x3d42cbb4	0.047557548
20	0x3ee4e968	0.44709325
21	0x3d259d9a	0.040433504
22	0x3e94d342	0.29067427
23	0x3e79c258	0.24390543
24	0x3d39261e	0.045202367
25	0x3cff83f4	0.03119085
26	0x3d198456	0.03747972
27	0x3e484b3d	0.19559951
28	0x3d8cc12b	0.06872781
29	0x3f621d01	0.88325506
30	0x3e7138ba	0.23556796
31	0x3e2b3f77	0.16723429
32	0x3ef38e70	0.4756961
33	0x3e3cdcc8	0.18443596
34	0x3e55ae12	0.20867184
35	0x3d1a7ba6	0.037715577
36	0x3dda55d1	0.106608994
37	0x3e7721f9	0.24134053
38	0x3e0c9180	0.13727379
39	0x3e50e003	0.20397954
40	0x3df5f3eb	0.12009414
41	0x3da7b96f	0.081896655
42	0x3e061600	0.1309433
43	0x3d6b38c0	0.057427168
44	0x3f000ee8	0.50022745
45	0x3de7ea5d	0.11323998
46	0x3f3c1b1b	0.7347886
47	0x3e8227f0	0.25421095
48	0x3d3ea403	0.046543133
49	0x3da3f7ba	0.080062345
50	0x3d1948cd	0.037422944
51	0x3e913134	0.28357852
52	0x3e2b1fc0	0.1671133
53	0x3dbd4118	0.09240931
54	0x3f2967b2	0.6617385
55	0x3d2c0dca	0.042005338
56	0x3eeefdb7	0.46677944
57	0x3ed5b769	0.41741493
58	0x3e287e45	0.16454418
59	0x3d5cc964	0.053903
60	0x3e3a4f13	0.18194227
61	0x3ef5769b	0.4794205
62	0x3d33f598	0.04393539
63	0x3d765cd8	0.060147136
64	0x3f75e6c4	0.96055245
65	0x3d45e155	0.048310596
66	0x3d54e265	0.05197372
67	0x3da96427	0.08271056
68	0x3e452b01	0.19254686
69	0x3caf2d62	0.021383945
70	0x3cd2c8cf	0.025730519
71	0x3e6cd771	0.2312906
72	0x3d5e9a9f	0.054346677
73	0x3d69cd6f	0.057080682
74	0x3e277f70	0.16357207
75	0x3d088a4a	0.033335008
76	0x3ebd5a2f	0.36982867
77	0x3cf005a6	0.029299568
78	0x3ee4a140	0.44654274
79	0x3ec6f85a	0.38861352
80	0x3f2a8e23	0.66623133
81	0x3d4e781e	0.05040752
82	0x3e73b602	0.23799899
83	0x3f96f433	1.1793274
84	0x3d9f0beb	0.07765945
85	0x3d41e1d1	0.047334496
86	0x3dc81e2d	0.097713806
87	0x3e89022a	0.26759464
88	0x3e133b6c	0.14378136
89	0x3d1f671c	0.038916692
90	0x3fa71710	1.3053913
91	0x3e38e0b8	0.18054473
92	0x3faa51cf	1.3306216
93	0x3f2f83d2	0.68560517
94	0x3e7fc98d	0.2497923
95	0x3d737920	0.059441686
96	0x3d6a874a	0.057257928
97	0x3ec299aa	0.3800786
98	0x3eb81e28	0.35960507
99	0x3f0149bb	0.5050313
100	0x3e74549b	0.238604
101	0x3f9e67f4	1.2375474
102	0x3d1ac84d	0.037788678
103	0x3d98ff3a	0.074705556
104	0x3ec71a0f	0.3888707
105	0x3db7b720	0.08970475
106	0x3ca1b649	0.01974024
107	0x3d469724	0.048483983
108	0x3e9049cd	0.28181306
109	0x3e834fa4	0.25646698
110	0x3e415850	0.18881345
111	0x3e6802ed	0.22657366
112	0x3f591ba3	0.84807795
113	0x3ef322d4	0.4748751
114	0x3df357d8	0.11881989
115	0x3eeb52c0	0.4596157
116	0x3d3977f2	0.045280404
117	0x3e90127d	0.28139105
118	0x3d63062f	0.05542582
119	0x3f4c5ae8	0.7982621
120	0x3d02bb08	0.03191665
121	0x3e017314	0.12641555
122	0x3f0506fe	0.51963794
123	0x3f099b8f	0.5375299
124	0x3d6edee9	0.058318052
125	0x3d285580	0.041097164
126	0x3d6a649c	0.057224855
127	0x3d006a38	0.031351298
